DNNWeightsDefault/model_0/ensemble_0/zz_bbtt_2.onnx (onnx, 947112 bytes, 19 tensors)

0.embeds.0.weight f4 [2, 1]
000000 8f f8 c9 be f5 08 fe bf
       -0.39447448 -1.9846483

0.embeds.1.weight f4 [3, 2]
000000 ff 1d 01 3e 16 73 fa bf 3e bb 54 3f e4 3b a9 3f
       0.12609099 -1.9566371 0.8309821 1.3221402
000010 af bd a7 bf 92 de e4 bd
       -1.3104762 -0.111752644

0.embeds.2.weight f4 [2, 1]
000000 b6 c9 09 be b6 92 a5 3f
       -0.13455853 1.2935398

0.embeds.3.weight f4 [5, 3]
000000 51 f4 20 bf 64 4f d0 3e 86 23 26 bf ce b8 ba 3f
       -0.628728 0.4068557 -0.64897954 1.4587648
000010 5d de 0d bf cc af d1 3f 3d 85 7b be e2 1d b4 3f
       -0.55417424 1.6381774 -0.24562545 1.407162
000020 a6 ca 12 3f b0 cd 11 3f 74 4e 54 bf c8 84 86 bf
       0.57340467 0.5695448 -0.8293221 -1.0509272
000030 1e 3b e3 be dd c0 53 bf 90 4c 9b bf
       -0.4438104 -0.8271616 -1.213274

0.embeds.4.weight f4 [5, 3]
000000 81 b9 56 3f b6 50 aa be d3 b4 f4 3f 2d e3 20 3f
       0.83876806 -0.33264703 1.9117683 0.6284664
000010 31 80 9f be dd 15 7b bf 19 df b5 bd 26 5c 11 3f
       -0.3115249 -0.98080236 -0.08880443 0.5678123
000020 75 b5 47 bf 6b d5 6e bf f2 98 bc 3e eb a1 e9 3c
       -0.78011256 -0.932944 0.36835438 0.028519591
000030 00 19 84 bf 89 c9 53 3f 2a d6 af 3f
       -1.0320129 0.82729393 1.3737233

0.embeds.5.weight f4 [2019, 50]
000000 19 61 2f bf 10 0d 76 be 34 f5 8d 3f 28 ec a1 bf
       -0.68507534 -0.2402842 1.1090455 -1.2650194
000010 c9 a9 00 40 71 aa 75 be 12 c8 07 bf 6a 67 f0 3e
       2.0103629 -0.239908 -0.5303966 0.469539
000020 67 ae 55 3f b8 83 4c 3f 76 c0 8d 3d 4a 46 f0 be
       0.8346924 0.79888487 0.06921475 -0.46928626
000030 98 42 86 3e d0 a0 d1 3f f2 c8 01 3f 8f ec 57 bf
       0.26222682 1.6377201 0.50697243 -0.84345335
000040 45 0a ac 3f 8d fa 51 bf 61 45 a2 3e 02 34 aa be
       1.3440634 -0.82022935 0.31693557 -0.33242804
000050 ff 24 2c 3f b5 fc 86 3f e0 61 61 3f 4c b7 3d bf
       0.6724395 1.054587 0.8803997 -0.74107814
000060 a8 8a bb bd 04 1a b6 be 00 c3 3d 3f f8 f4 4b bf
       -0.09157306 -0.35566723 0.7412567 -0.7967067
000070 06 8c 0b c0 f6 76 67 3f ca f7 51 3d 65 b4 eb 3f
       -2.1804214 0.90415895 0.0512617 1.8414427
000080 20 ef b7 3f 60 f9 26 c0 9d 6e bc 3e 30 45 3e 3f
       1.436985 -2.6089706 0.3680314 0.7432432
000090 7c 42 97 3e cb b6 b3 be 88 ff 3b bf b6 df c5 3f
       0.2954291 -0.35100397 -0.73436785 1.5458896
0000a0 d6 14 66 bd 5e c1 49 bf ea 26 a1 3f 79 a3 99 3f
       -0.056172214 -0.7881068 1.2590001 1.2003013
0000b0 0c 92 85 3f 4e 51 31 bf 2f 42 52 bf 43 13 ac be
       1.0435195 -0.69264686 -0.8213224 -0.33608446
0000c0 30 b5 6e 3f e5 d0 3e 3e be d8 9d 3f 81 47 90 be
       0.9324522 0.18634374 1.233177 -0.28179553
0000d0 1d 9b c8 bf 0f 80 6b be 9e 6f 93 3f 0c 83 16 3f
       -1.5672337 -0.22998069 1.1518438 0.5879371
0000e0 be 2c 5b 3f 92 9d 3d be 4b b9 35 40 85 bc c2 3f
       0.85615146 -0.1851714 2.8394344 1.5213782
0000f0 6f 91 8f 3e a1 b0 4d 3e 3e dd a0 be 00 e3 0f bf
       0.28040645 0.2008691 -0.31418794 -0.5620575
000100 48 16 bd 3e a5 97 94 bf 2b 7c 94 3d b7 c0 a6 3e
       0.36931062 -1.1608778 0.07250246 0.32568905
000110 45 82 e3 bf 40 08 83 bf 49 94 8a bf 1f 00 aa 3f
       -1.777413 -1.0236893 -1.0826503 1.3281287
000120 6f e9 d4 3f 44 fb 45 40 34 2e 3e bf 4b bd db 3e
       1.6633738 3.093461 -0.7428925 0.42917857
000130 a9 bb 24 40 45 72 a9 bc 07 aa 18 3f b2 23 bb 3f
       2.5739539 -0.02068437 0.5963444 1.4620268
000140 65 bd 8f bf 27 c9 5f bf 84 c8 31 40 dd a6 d5 bd
       -1.1229674 -0.8741631 2.7778635 -0.10432217
000150 d1 55 6b bf b4 ee 72 3f ea f4 6a 3f 8c 5f fb bf
       -0.9192782 0.9489548 0.9177996 -1.9638534
000160 ec 57 b9 be a7 bc 50 40 ac 28 58 bf 50 ca 14 be
       -0.36199892 3.2615144 -0.8443706 -0.14530301
000170 66 c2 a9 be e8 2c c1 be 3d c8 49 3f 4a c4 62 bf
       -0.33156127 -0.37729573 0.78821164 -0.88580763
000180 90 e8 b2 be 5d 74 0b 3e 73 9f 80 be bc 39 d3 3e
       -0.34943056 0.13618608 -0.2512165 0.41254985
000190 00 72 e8 3e a9 03 08 3f 76 a0 a2 3f 3c 81 b9 3e
       0.45399475 0.53130585 1.2705219 0.3623141
0001a0 2b 45 0f 3f bd e1 2b bf 2d 53 7a 3f ae 61 82 bf
       0.55964917 -0.67141324 0.97783166 -1.018606
0001b0 8b 16 5b 3f c2 1c 19 3f 30 c7 50 3f be 97 68 bf
       0.8558127 0.59809506 0.81553936 -0.9085654
0001c0 43 9c b3 bf f9 94 8d bf d7 9d 7a be e1 04 31 be
       -1.4032062 -1.1061088 -0.24474274 -0.17287017
0001d0 7a 4f 32 bf 19 f9 f2 3e 3b e9 7e bf a9 79 81 bb
       -0.6965252 0.4745567 -0.9957463 -0.0039512706
0001e0 b5 3d 08 bf 5c b7 b4 3f 4f 7d ff be 4d 9b 45 be
       -0.5321916 1.4118457 -0.4990029 -0.19297524
0001f0 2b c4 d1 3e 87 48 83 bf 86 78 80 3e 1d aa 9d 3e
       0.40969977 -1.0256509 0.25091952 0.3079385
000200 ba af 3e bf 89 33 99 be 89 75 31 bf a6 e5 4b bf
       -0.7448689 -0.2992213 -0.6931997 -0.7964729
000210 e1 34 5d bf b1 fc 5e be a3 d0 85 3d c8 fa 8d 3e
       -0.8640881 -0.21776082 0.06533935 0.27730393
000220 b0 9f 6f 3f 71 12 0f bd fa 66 4b 3e ae 69 87 3e
       0.9360304 -0.034929696 0.19863501 0.26447815
000230 af a3 b1 bf 00 1f a8 bf 6a d9 40 3e a9 db 94 bf
       -1.3878077 -1.313446 0.18832937 -1.1629535
000240 aa 55 af be d7 9b 77 bf 80 ae c0 bf 57 b1 84 3f
       -0.34245044 -0.9672217 -1.5053253 1.036662
000250 e6 c4 56 3e 7b c6 33 3d fe b6 54 3d ff d8 17 3e
       0.20973548 0.043890458 0.051932327 0.14828871
000260 e0 81 22 3f c6 eb 37 3f be 8c 00 3f 3c 24 06 bf
       0.63479424 0.71844137 0.50214756 -0.5239904
000270 22 60 fa 3f 8d 89 48 3f 50 89 4d bf 24 ea e4 bd
       1.9560587 0.78334886 -0.8028765 -0.11177471
000280 73 1f 48 3f 62 b0 77 bf 48 67 20 3f e8 62 96 be
       0.7817299 -0.96753514 0.62657595 -0.29372334
000290 7f 61 87 3f 41 1e 9b be 4d 36 14 3f ae af e6 3c
       1.0576628 -0.3029652 0.57895356 0.028159942
0002a0 91 db 89 bf 88 e4 a6 3f 61 92 d4 3e f9 17 bd 3f
       -1.0770131 1.3038492 0.41517928 1.4772941
0002b0 91 6f e1 bf 9c b0 9c be 97 9b c8 be 7d ff 95 be
       -1.7612172 -0.30603492 -0.39181206 -0.29296485
0002c0 8b cc 8a bf b1 51 e8 bf 14 1c 7e 3f be f2 fa 3f
       -1.0843672 -1.814993 0.99261594 1.9605329
0002d0 13 7c 07 3f 0b 21 ee 3f 9e ec 51 3f 45 c7 95 be
       0.529237 1.8603834 0.82001674 -0.29253593
0002e0 cc dd 46 be 3e 7c be 3e 90 72 09 c0 98 eb 69 bf
       -0.19420546 0.37204164 -2.1476173 -0.9137511
0002f0 53 4b 8f be be a8 54 3f a9 87 e2 3e 20 de ff 3f
       -0.27987155 0.8306998 0.44244125 1.9989662
000300 05 85 ca be ae 2d c2 bf 4d bd 38 3f 78 4c 75 3f
       -0.3955461 -1.517019 0.7216385 0.9581981
000310 1c 1e 3a bf df a9 f7 be 55 db 8c bd ac 7f 43 bf
       -0.72702193 -0.4837179 -0.06877772 -0.76366687
000320 08 cf 3d bf 8e db ed 3e dd 42 83 bf 8e 49 67 be
       -0.7414403 0.4645657 -1.025478 -0.22586653
000330 f2 65 96 bc 3a b1 d2 bf d1 08 8f 3f 97 11 f6 be
       -0.018359158 -1.6460335 1.1174566 -0.48060295
000340 3c fe 08 be 42 00 82 bf 25 7e d6 3f 4e 51 78 bf
       -0.13378233 -1.0156329 1.6757246 -0.9699906
000350 6e 87 46 3f 6a 00 63 bf 45 b3 13 3d 71 18 79 bf
       0.775504 -0.88672507 0.036059637 -0.9730292
000360 e9 7e a6 bf 4b 19 9a 3e 8d 86 48 3f 6d 02 62 3e
       -1.300748 0.30097422 0.7833031 0.22071238
000370 38 23 66 3e 75 94 65 3e 44 43 ca 3e 13 d2 ab bf
       0.22474372 0.22419913 0.39504445 -1.3423485
000380 80 08 f0 3e 14 93 58 bf cb 68 80 3f 46 b0 e3 be
       0.46881485 -0.84599423 1.003198 -0.44470423
000390 22 f6 03 3e 05 f7 ed bd c4 f0 6a bf 23 55 9d bf
       0.12886861 -0.11619381 -0.9177363 -1.2291607
0003a0 17 11 05 be ba 69 9e 3f 14 a2 0f 40 fa 9b bc 3e
       -0.129948 1.2376015 2.2442675 0.3683775
0003b0 dc 4b a7 bf 37 c5 86 bf 6f bb 15 3e 01 a1 37 bf
       -1.3070025 -1.0528935 0.14622281 -0.7173005
0003c0 66 e5 3d bf ce fc ba bf a4 90 03 bf 49 aa 83 be
       -0.7417816 -1.46084 -0.5139258 -0.25715855
0003d0 8d a9 da bd bb ce fe 3f 9f d2 08 3e 86 6a 6e bf
       -0.106768705 1.9906839 0.13361596 -0.9313129
0003e0 f3 a3 db 3d 88 47 31 bf c9 cc 13 bf 49 f1 15 c0
       0.1072463 -0.69249773 -0.5773435 -2.3428519
0003f0 3c b4 95 3f 21 fc b2 3f c8 2a 4c 3f 79 86 e5 be
       1.1695628 1.3983194 0.7975278 -0.44829157

1.layers.0.0.bias f4 [80]
000000 23 65 1d bc 27 f9 e7 bc 16 2f 2f bd 94 64 ed bb
       -0.009606632 -0.028317047 -0.042769514 -0.007244656
000010 da 2b 66 bd 44 ab b3 bd 7f 1d 38 bd 2c 22 4e bd
       -0.056194164 -0.08772901 -0.044950005 -0.050325558
000020 23 ff 8c bd a1 2a 9f bd bb a2 23 bc 73 29 75 bb
       -0.06884601 -0.07771803 -0.009987528 -0.003740874
000030 3a f6 fc bc 76 a8 15 3c 99 f4 0f 3c c7 2f f7 bb
       -0.030879129 0.0091344025 0.008786344 -0.0075435373
000040 db b0 ae 3c 53 8e bc bc 62 b6 05 bd ff 30 83 bd
       0.021324566 -0.023017084 -0.032644637 -0.0640583
000050 45 7d 35 bd 0c 54 bb bd 06 eb 8a bd 5b a1 95 bc
       -0.04430892 -0.0914689 -0.067831084 -0.018265417
000060 dd 7e 27 bd f7 f5 0f bc f0 99 12 3c 5b ec 1a bd
       -0.04089247 -0.00878667 0.008947834 -0.037823062
000070 f3 5e 89 bd 7c 00 93 bd 17 34 d1 bc 82 b1 37 bd
       -0.06707563 -0.07177827 -0.025537534 -0.04484702
000080 78 05 1f bd 5d 5e 0c bd 4f 8c 1e bd c7 51 19 bd
       -0.038823575 -0.03426968 -0.038708027 -0.037431505
000090 30 e7 0a bd 61 3d 12 bd fc a1 68 bd d8 00 f3 bc
       -0.033911884 -0.035703067 -0.056795105 -0.029663488
0000a0 f2 e8 9f bc 90 a4 2d bd 6a cf 49 bd 87 c5 a7 bd
       -0.019520257 -0.042393267 -0.04927007 -0.08191972
0000b0 9a df ba bb 4a 64 78 bd 51 07 18 bd 15 0f 47 bb
       -0.005702925 -0.060642518 -0.037116352 -0.003037398
0000c0 92 07 4f bd 10 67 75 bc 23 7f 3c bc e3 7c ac bd
       -0.05054433 -0.014978185 -0.011504921 -0.08422258
0000d0 fd cb 03 bd 37 a1 a6 bd 2d a6 36 bd ee 12 59 3b
       -0.03217696 -0.08136218 -0.04459207 0.0033122855
0000e0 b0 bb 0b bd ff fe e4 bc 58 dc 94 bd 7c df 25 bd
       -0.03411454 -0.027953623 -0.0726859 -0.040496334
0000f0 db da a4 bc 14 df 31 bd ad c2 1f bd d9 e1 94 bd
       -0.02012389 -0.043425635 -0.039004017 -0.072696395
000100 9d 6b f1 bc 72 4b e2 3c 7a dc 74 bd 62 6c ad bc
       -0.02947026 0.027623866 -0.059780575 -0.021169845
000110 82 bd c9 bb 5e 0f 32 bd 3c eb ef bd 98 dd 48 bd
       -0.0061566243 -0.043471687 -0.11714789 -0.049039453
000120 b6 bc f3 3b e2 f8 62 bd 21 e8 3f bd b2 f1 a8 bd
       0.0074382676 -0.055413134 -0.046852235 -0.08249225
000130 3f df 9e bc 2f ec 0c bd 3e 38 ba bd 11 20 8b bd
       -0.019393561 -0.03440493 -0.090927586 -0.067932256

1.layers.0.0.weight f4 [80, 80]
000000 a5 4d 62 3e 91 86 2b be 24 3f 5c be 97 65 b0 3e
       0.22099932 -0.16750552 -0.21508461 0.34452507
000010 40 74 c2 3d e0 ed c5 3d 4e ee 0c be 17 94 8e 3d
       0.09494829 0.09664512 -0.13762781 0.0696184
000020 f7 a3 37 3e 80 21 ac bd 06 94 56 be 7a 69 39 bd
       0.17933641 -0.08404827 -0.20954904 -0.045266606
000030 5a 05 92 3c b8 f7 9d be 6b 18 b6 be 7b f5 2d be
       0.017824817 -0.30853057 -0.35565504 -0.16988175
000040 8d 41 5e 3c 1d 3d 5a be 93 95 7f bc ea 66 9b bd
       0.013565433 -0.21312375 -0.015599626 -0.07587989
000050 1a 5f 9b be 1f f0 c8 bd 20 00 3a 3e 73 c0 e4 3d
       -0.30345994 -0.098114245 0.1816411 0.11169519
000060 04 82 3d 3d 23 55 88 ba 09 0a 9b be d7 8d a0 3e
       0.04626657 -0.0010401349 -0.30281094 0.31358215
000070 7f 68 3a 3e 66 47 13 bd cf 34 10 3c 66 e3 75 be
       0.18203925 -0.035956763 0.008801653 -0.24012527
000080 0f a3 2d be 15 70 a2 3e f5 50 99 3d 0d 61 4b bc
       -0.16956733 0.31726137 0.074861445 -0.012413275
000090 45 0e a4 3d 4a 24 56 3e 14 6e 53 3c 52 b8 af 3b
       0.08010534 0.2091228 0.012904663 0.005362549
0000a0 5e a2 55 3e 35 61 3f bd 10 de 85 be 3d 03 cb 3d
       0.2086272 -0.046723563 -0.26145983 0.09912727
0000b0 7d 86 ac be 6e 73 b9 bd ae 83 a1 3d 90 b5 c8 3c
       -0.33696356 -0.090552196 0.07886444 0.024500638
0000c0 f5 21 3a be b0 6f 5d be 2e cc 80 be 0a 9a 10 3a
       -0.18177016 -0.21624637 -0.25155777 0.00055161177
0000d0 ed 89 fb 3b 33 d1 ab 3c 8e 89 5d 3d c5 b7 62 3e
       0.007676354 0.020973777 0.05408626 0.22140415
0000e0 78 2b d8 3d d0 8d 07 bd 30 3b 85 3e 79 7b f1 bb
       0.10555166 -0.033094227 0.2602172 -0.0073694554
0000f0 d3 ac b7 3d 0b c3 df bd 1c 05 82 bd 15 b9 c6 bc
       0.089685105 -0.10925873 -0.06348631 -0.024258176
000100 ec 18 4a 3d d6 13 a6 3d b0 75 07 3e 75 d3 95 3d
       0.049340174 0.08109252 0.13228488 0.07315723
000110 a5 83 3b be f5 b8 84 3e 70 ab 51 3d 53 88 09 bd
       -0.18311937 0.2592236 0.051188886 -0.033577275
000120 bc 75 ee bd d8 42 76 bd 3c 35 9f 3a 50 90 09 be
       -0.1164355 -0.06012234 0.0012146602 -0.13433957
000130 64 35 02 3d 3c 81 06 be 8c bd f8 bd 38 86 63 3e
       0.0317892 -0.13135237 -0.12145528 0.22219169
000140 e6 dc 8b 3d b7 bf f2 3c 24 8a 0d 3d 85 33 82 be
       0.068292424 0.029632432 0.03455557 -0.2542993
000150 17 6e ae 3b 32 c9 b8 3d c0 be de 3e 8d c2 29 3e
       0.0053231823 0.0902275 0.43504906 0.16578121
000160 fd b7 2c be 2c 63 b7 3d 23 ee 8c 3e 38 a7 b4 3d
       -0.16867061 0.089544624 0.27525434 0.08820957
000170 43 31 a9 3d d2 81 ec 3c 9c 0e 4b be 54 80 d9 3c
       0.08261349 0.028870497 -0.19829792 0.02655045
000180 d5 d3 77 3d cc 91 8e 3d 55 e8 30 be 25 91 d3 bc
       0.060504753 0.06961402 -0.17276128 -0.025826046
000190 11 6d 15 3e 14 49 79 3d f5 47 f8 bd eb 39 94 be
       0.14592387 0.06086071 -0.121231 -0.28950438
0001a0 7e 92 f8 3d eb 79 f7 3d bc 48 b3 3e f1 26 67 3f
       0.12137316 0.12083801 0.3501643 0.90293795
0001b0 78 3c 8e be f8 0d 00 bf f9 d7 4f be 32 f7 11 be
       -0.2778051 -0.50021315 -0.20297231 -0.14254454
0001c0 2d d3 b1 bd de de 5a be a7 4f 3f 3e a4 1a 32 be
       -0.08682857 -0.2137408 0.18682729 -0.17392975
0001d0 21 53 96 bb c5 da 06 be 67 3a 05 3e 5b 62 9f bd
       -0.0045875465 -0.13169391 0.1301056 -0.07782432
0001e0 cc 69 a6 3e f2 a4 23 be 2b 86 15 3e c5 8c f2 3d
       0.32502592 -0.1598089 0.14601962 0.11843256
0001f0 88 d9 57 be 2e 3e a3 bd 56 17 3f 3e a5 1f 65 3c
       -0.21079075 -0.07970844 0.18661246 0.013984595
000200 b7 e6 74 3d e5 e2 87 3e 1e 65 28 bc 9d c6 68 3d
       0.05979034 0.26540294 -0.0102780145 0.056830037
000210 7a 56 93 3e fa a5 e1 bd 03 b1 c0 bb f9 b5 53 3c
       0.28776914 -0.11017986 -0.0058804764 0.012921804
000220 d9 f4 d9 3d c5 98 25 3e 37 2a 4b bd a7 b5 e1 be
       0.10642404 0.16171558 -0.049600806 -0.44083902
000230 d5 09 f6 3b 7f 41 83 be 83 70 2b bd ee 8a de be
       0.0075084963 -0.25635907 -0.041855346 -0.4346537
000240 55 47 96 3d 1d 2c 9f 3e 5e 3e 36 be e8 1a 2a bd
       0.07337824 0.31088343 -0.17797229 -0.041529566
000250 8f e5 16 bd 93 e0 c4 bd 78 5e ab 3d bb 9b 5d 3d
       -0.036840018 -0.09613147 0.08367628 0.054103594
000260 60 53 bb bd 27 23 49 3e d0 c8 4a 3d b9 e7 d6 bd
       -0.09146762 0.19642316 0.049507916 -0.10493416
000270 fb af 3d be e4 8f 11 bd e2 62 d5 bd b3 23 b7 3e
       -0.18524162 -0.035537615 -0.10419251 0.35769424
000280 be 4f 11 bf cc fc 47 3d 71 ae 68 be 27 a9 f4 3c
       -0.567623 0.04882507 -0.22722794 0.029865814
000290 6b 11 02 3e 79 cb 74 3e 73 13 f2 be 02 21 a0 3e
       0.12701957 0.23905744 -0.47280464 0.31275183
0002a0 0a b5 08 bd 7c 1e 1f be bb 4f 05 bd 91 cf b0 be
       -0.033375777 -0.15538973 -0.03254674 -0.3453336
0002b0 a9 5e 84 3e 32 32 89 bd f9 f4 8a 3e bf e1 43 3d
       0.2585347 -0.06699027 0.27140024 0.04782271
0002c0 84 5a 04 be fd 74 64 3e b8 7a 09 3e 33 72 96 bd
       -0.12925154 0.22310252 0.1342572 -0.073460005
0002d0 18 3d 2f 3e 24 4d f5 3d b1 a6 17 be 5b 0d f9 bd
       0.17113149 0.11977604 -0.14809681 -0.121607505
0002e0 2f b5 68 3e a7 e0 27 be be 84 89 be 3f 2b 2e 3d
       0.22725366 -0.16394292 -0.26859087 0.04252171
0002f0 91 9d 47 3e 4a e9 45 3e e7 03 95 be f3 5e f8 bc
       0.194937 0.19327274 -0.2910454 -0.030318713
000300 7d 9b c4 3d 5e 45 9a 3d 76 4a ca 3e 74 a3 2a be
       0.095999695 0.07532762 0.39509934 -0.16663915
000310 11 75 1c be 32 fb 50 3c 08 10 95 be b8 4a 67 3e
       -0.15279032 0.012755202 -0.29113793 0.22587097
000320 fc 53 6a bd d5 f2 a7 bd e7 10 70 3c 8f 6d 2c be
       -0.057209 -0.082006134 0.014652467 -0.16838668
000330 a3 1d 23 be 81 4f e7 bd a5 10 41 be 3e 56 b4 bd
       -0.15929274 -0.11294461 -0.18854006 -0.08805512
000340 17 51 af 3d 2c e1 98 be 5e 1e a4 3c a1 23 76 3e
       0.085603885 -0.29859293 0.020034011 0.24037029
000350 02 ff 9c be 71 ae 23 be 9d 4f 50 3d 08 ff bb 3e
       -0.30663306 -0.15984513 0.050857175 0.3671801
000360 75 11 78 be ac c2 53 bc e1 92 10 be 71 c0 c3 3d
       -0.2422541 -0.012924831 -0.1411853 0.0955819
000370 6b b6 6b be 12 d8 e4 be 8a 67 4b be f0 44 13 3e
       -0.23018806 -0.446961 -0.19863716 0.14381766
000380 ff 93 50 3d 52 e1 b0 bd 6e b6 39 3e 32 96 3e 3e
       0.05092239 -0.086367264 0.18135998 0.18611982
000390 7f 5e 2d be 50 12 94 3c 05 0f a1 3d 1a 1e 50 be
       -0.16930579 0.018075138 0.07864193 -0.20323983
0003a0 b3 78 07 bd 01 0d 53 3c 24 78 9d bc 34 69 81 3e
       -0.033074092 0.012881518 -0.019222327 0.25275576
0003b0 9c e5 02 3f 90 13 9f bd ff cc 0b 3e 76 40 25 be
       0.51131606 -0.07767403 0.13652419 -0.16137871
0003c0 36 a3 64 3e bb f6 89 3c f3 1b 84 bd 73 d5 ed bd
       0.22327885 0.016841283 -0.064506434 -0.11612978
0003d0 a4 97 04 3f 72 42 b3 3e cd 99 f9 be 36 80 bd be
       0.51793885 0.3501163 -0.48750153 -0.3701188
0003e0 5b dd 02 3e 8a 28 98 bd f1 5d 29 3e 0e 3c fa bd
       0.12779753 -0.07429607 0.16539742 -0.12218486
0003f0 0d 6c 8c 3d 73 50 98 3b 37 12 aa 3d eb 3e f7 3c
       0.068565466 0.004648262 0.083042555 0.030181369

1.layers.1.0.bias f4 [80]
000000 ed dd 65 bd 00 76 e4 bc 14 63 1d bd 4a 0d e8 bc
       -0.056119848 -0.027888298 -0.038424566 -0.02832665
000010 16 e4 7e bd 77 e7 4d bd 9b 16 80 bd 70 87 b1 bc
       -0.06222924 -0.05026957 -0.06254312 -0.021671027
000020 0c 08 30 bd 9d 5d 88 bd 05 84 75 bd ad c7 30 bc
       -0.042976424 -0.0665848 -0.059940357 -0.010789794
000030 6d 8c b1 bc 2e d1 ef bc 4e 1c 82 bd f5 86 18 bd
       -0.021673406 -0.02927455 -0.06353055 -0.03723808
000040 3c 00 2e bd 14 43 a8 bd a6 6f 97 bd 9c 27 a0 bc
       -0.042480692 -0.08215919 -0.07394342 -0.019550137
000050 6f 08 ea bc b2 9b 43 bd 69 d2 83 bc 05 24 c4 bc
       -0.028568475 -0.047755904 -0.016091542 -0.023942957
000060 c0 92 27 3b 2b 88 ca bc 8b cf 13 bd 7c f6 9b ba
       0.0025569648 -0.024723133 -0.0360866 -0.001189902
000070 93 e7 54 bd 2c 67 22 bd 5a e8 30 bd 9c da 1b bd
       -0.05197866 -0.039649174 -0.043190338 -0.03805028
000080 87 87 c9 bc f2 1d d6 ba 99 3c 2b bd de 70 95 bd
       -0.024600757 -0.0016335829 -0.041805837 -0.07296918
000090 c6 3d e8 bc f6 3a 1a bd f8 8e 15 bd 77 44 53 bd
       -0.028349768 -0.037653886 -0.0365133 -0.051578965
0000a0 07 a6 34 bb 42 f5 9e bc 67 85 2e bd 81 dc 99 bd
       -0.002756478 -0.019404057 -0.04260769 -0.07512761
0000b0 52 f8 30 bd 80 e2 96 bd 89 26 b3 bc ed d2 6e bc
       -0.043205567 -0.0736742 -0.021868961 -0.014576656
0000c0 c6 4e 85 bd da e2 7b bd c0 a2 92 bc cf 24 af bc
       -0.065091655 -0.06149564 -0.01789987 -0.021379856
0000d0 44 64 14 bc 8b c2 24 bd bf 82 36 bd ca b0 15 bd
       -0.009057108 -0.040224593 -0.044558283 -0.036545552
0000e0 0d b4 aa bc a8 cd ff bb 31 bf b2 bd 4c 92 88 bc
       -0.020837808 -0.0078064986 -0.08727873 -0.016671322
0000f0 a0 d2 d8 bc 7e cc 6d bd 9b 22 58 bd a4 bc b2 bc
       -0.026467621 -0.058056347 -0.052767377 -0.021818466
000100 51 54 fb bc bc 14 3c bd 59 28 13 bd 33 f7 da bc
       -0.030679854 -0.04591821 -0.03592715 -0.026729202
000110 ed 3d fe bc a8 97 a8 bc c5 15 9b bd 46 5e 98 bc
       -0.031035388 -0.020580128 -0.075725116 -0.01859964
000120 e9 71 d1 bc b1 ad 82 bc a1 cf 6a bd 81 fb 5c bd
       -0.025567012 -0.015951963 -0.057326917 -0.05395079
000130 d3 89 c8 bc 26 d7 86 bd 59 8c f3 bb ec a9 29 bd
       -0.024479782 -0.06584005 -0.007432502 -0.041421816

1.layers.1.0.weight f4 [80, 160]
000000 a1 bd 10 3e e0 0c 79 3d 57 b2 31 bd f6 cb 34 be
       0.14134838 0.060803294 -0.04338297 -0.1765593
000010 25 b3 d7 bb f2 0e 40 3d 50 60 15 be 3c 3d af 3e
       -0.006582635 0.046889253 -0.14587522 0.34226406
000020 3b 7e c4 bd c8 7c 8c bd 2f 15 56 bd f3 ac a3 3d
       -0.09594389 -0.06859738 -0.052266296 0.07991972
000030 54 e9 36 bd 80 b6 5d bd 4a 02 06 3d a5 d9 2a 3c
       -0.044656113 -0.054129124 0.032717027 0.010427867
000040 44 31 ca 3b ad ad 29 3e df d2 6f be 19 5c 2a 3e
       0.0061704237 0.16570158 -0.23420285 0.16636695
000050 c2 90 58 3d 33 04 09 be bf 49 2d be 49 c2 48 bd
       0.052872427 -0.13380508 -0.16922663 -0.04901341
000060 c7 59 ee bd 01 ea 1f be cd 48 a6 bd d6 f8 ae 3d
       -0.116382174 -0.15616609 -0.081193544 0.085435554
000070 a4 d6 b2 bd 3b 0f 63 bd 78 16 27 3e d9 6a be bd
       -0.08732346 -0.055434447 0.16317165 -0.09297723
000080 ee be 7d bd a2 64 0a be 4b e9 15 bd 62 63 75 bb
       -0.061949663 -0.13514951 -0.03659944 -0.003744327
000090 c0 26 69 be 77 8d 2a 3e 56 ef a6 3d 12 cf 78 be
       -0.22768688 0.16655527 0.081511185 -0.24297741
0000a0 b5 8a e0 3c 02 01 9c 3c 33 23 03 3e 50 fb 21 be
       0.02740989 0.01904345 0.12806396 -0.15818524
0000b0 4e 6b 74 3e 1c 55 59 be c5 c4 05 3d a1 97 98 bd
       0.23869058 -0.21223873 0.032658357 -0.07450796
0000c0 0f f5 74 3d d1 6b d8 3e 3d 27 9c 3d 14 7a 0b be
       0.05980402 0.42269757 0.076246716 -0.13620788
0000d0 bb e7 64 3e 92 ac 10 be 58 8a 6b 3e 08 30 9d be
       0.22354023 -0.1412833 0.23001993 -0.30700707
0000e0 a0 63 1a be 7e a5 ec 3d dc f1 10 3e 08 f4 ee bc
       -0.15077066 0.11555003 0.14154762 -0.029169098
0000f0 bd 06 8f bc b2 e1 82 3e 61 14 2a bc 9c 29 51 bd
       -0.017459268 0.25562817 -0.010380835 -0.051065072
000100 bd 96 9a bb d1 cf a7 bd 8b 07 40 3d c5 f0 27 3e
       -0.0047176764 -0.08193935 0.046882194 0.1640044
000110 0a 1c 19 be 5e f6 42 3d 79 a6 42 bc 01 21 10 3e
       -0.14952102 0.047598235 -0.0118805105 0.1407509
000120 93 b6 3b be 20 c9 14 be a5 a2 7a bd ec 71 cb 3d
       -0.18331365 -0.14529848 -0.061190266 0.09933838
000130 1d 37 32 be aa 93 1a be 7e 0b 37 bd 8b d0 4f 3e
       -0.17403837 -0.15095392 -0.044688694 0.20294397
000140 a2 f9 2b 3d c4 df ad be c5 cd a0 be 6b a0 f4 bc
       0.041986115 -0.33959782 -0.3140699 -0.02986165
000150 8c 03 38 3e 3e 4a 64 be 2f 34 12 be a9 d4 4a be
       0.17970103 -0.22293946 -0.14277719 -0.19807686
000160 77 6a 11 3d 13 ac 1b be 3e 1c 08 be 71 6d 30 be
       0.035501923 -0.1520236 -0.13292024 -0.17229249
000170 7b b7 5c 3e 91 11 b0 be 4e 60 8d be 18 f1 41 bc
       0.21554367 -0.34388402 -0.27612537 -0.011837266
000180 5e 72 7b bd 90 b7 f8 bc f9 c8 a5 bd 22 a1 be 3d
       -0.061388366 -0.030360967 -0.08094973 0.093080774
000190 64 b2 56 3c 9f ad 80 bd af 43 82 3e 38 77 43 3e
       0.013104055 -0.062831156 0.25442263 0.19088447
0001a0 06 4f 0a 3e 32 0f 8e 3c 3a 03 3c 3d 27 7a d6 bc
       0.13506708 0.01734123 0.045901515 -0.026181294
0001b0 b6 54 3a 3c 5e e2 db 3c 4a 99 6c be 1c 6f 27 bc
       0.011372736 0.026841339 -0.2310535 -0.010219362
0001c0 46 66 2d be cd 25 ca 3d 63 03 91 bb 4b 67 9b bc
       -0.16933545 0.09870491 -0.0044254526 -0.018970152
0001d0 87 e6 dd 3b 09 86 12 bd 6a 0e ce 3c 9f 6d dd 3d
       0.0067718658 -0.035772357 0.025153358 0.10811924
0001e0 cb 28 fd 3d e1 c7 2f be 94 94 70 3d 10 f1 07 3e
       0.12361296 -0.17166092 0.058735445 0.13275552
0001f0 b4 59 8c 3d e7 06 06 3e ec 5b 94 bd bb 94 f2 bd
       0.06853047 0.1308857 -0.07244095 -0.11844774
000200 02 67 d3 bc a8 a8 f5 3d 4d ee 18 3d 31 2f 05 be
       -0.025805954 0.11995059 0.037336636 -0.13006283
000210 2f ce b6 bc 4e 4d 76 bd c5 f4 62 3d 66 e8 83 be
       -0.022315113 -0.060132317 0.05540921 -0.25763243
000220 16 a1 4c 3d cc 03 1a be 66 18 31 bd ec ce b0 bd
       0.04995831 -0.15040511 -0.04323616 -0.08633217
000230 f4 24 38 bd ff d6 14 be bb 20 38 bd e9 7a cf 3c
       -0.044957116 -0.1453514 -0.04495309 0.025327163
000240 84 e8 48 bc c8 fa 78 bd e2 92 4d be dc d0 7e bd
       -0.012262467 -0.06078604 -0.20075563 -0.062210903
000250 98 08 2c bd 5d 38 53 be f0 49 54 3c 60 15 64 3d
       -0.042000383 -0.2062697 0.012957081 0.055684447
000260 4d fc 58 be 92 af 87 bd 11 12 a9 3d e2 0a 28 3d
       -0.21189995 -0.06625284 0.08255399 0.041026004
000270 40 2b 1b be 05 01 59 bd b9 3c 10 bd f1 e1 0e bd
       -0.15153217 -0.052979488 -0.03521416 -0.034883443
000280 ac f6 55 3d ff 06 02 be 90 70 4f 3c 2c e5 38 3d
       0.052237198 -0.12697981 0.012661114 0.04514043
000290 ef b6 0a 3d dc 27 16 ba 89 64 06 3e 24 a3 de 3d
       0.033865865 -0.00057279854 0.13124289 0.1087096
0002a0 ec 27 b0 3d 6d 4f 54 3d af be df bd 26 29 ba 3d
       0.086013645 0.05183356 -0.10925042 0.0908988
0002b0 0a 09 c6 3d 9f 44 38 be 4f cf db 3d 7d 59 16 bd
       0.09669693 -0.17994927 0.107329 -0.036706436
0002c0 71 d1 bf bc 4b c9 2b be 00 cb 14 be 22 df 8a 3e
       -0.0234153 -0.16776006 -0.14530563 0.27123362
0002d0 d3 20 7b bd 26 e6 9b 3d a4 ba 6d bd 4d 11 07 3b
       -0.0613106 0.07612257 -0.058039322 0.0020609677
0002e0 a4 56 09 be 63 9e 2d be 21 3b 53 3c 81 41 ca bd
       -0.13411957 -0.16954951 0.012892515 -0.09875775
0002f0 af 95 21 be 40 33 44 3c 9f bc d2 bd 9d 49 43 3d
       -0.15779756 0.01197511 -0.10289883 0.047677625
000300 6f 00 84 3d cc 99 75 3e 10 fb ac bd db 2a a1 3d
       0.06445395 0.2398445 -0.08446324 0.07869502
000310 3e 58 33 bb 9f 17 08 be 68 c4 c8 3d 36 3e 3a 3e
       -0.002736583 -0.1329026 0.098030865 0.18187794
000320 22 ef 0a be 43 35 16 bd 2b b6 1c be 2d 14 19 be
       -0.13567784 -0.036671888 -0.15303867 -0.14949103
000330 72 06 c5 3d d5 2e e1 bc 07 85 6f 3c 10 d9 09 be
       0.0962037 -0.027488152 0.0146191185 -0.13461709
000340 a2 ca 23 3e fc bb d5 bc 9d a9 fb 3c bc 73 4c 3c
       0.15995267 -0.026090614 0.030720526 0.012478765
000350 e7 ac df bc 0a 3b 8c 3d 71 d6 a2 bc cb bb b7 3d
       -0.027304126 0.06847198 -0.019877644 0.089713655
000360 f0 97 d1 bd ba 95 70 3d d5 0a 1b 3e 71 e0 94 bd
       -0.10234058 0.05873654 0.15140851 -0.07269371
000370 d6 7a 45 bd bf 15 89 3d e0 92 34 be 61 69 a4 3c
       -0.04821285 0.06693601 -0.17634153 0.02006978
000380 eb b8 9d 3d 81 34 11 3d 1e 77 b2 bc 56 0c 5c 3d
       0.07701286 0.035450462 -0.021785315 0.053722702
000390 c3 d3 52 3d f4 54 97 bd 98 ec 80 bd 51 63 81 be
       0.051471483 -0.073892504 -0.06295127 -0.25271085
0003a0 eb 50 d7 3c 7a f8 b4 3d 64 d7 f4 bc 07 fc ef 3d
       0.026283702 0.08836456 -0.029887863 0.11717992
0003b0 0b 25 92 3d 31 d9 1e be a3 f0 a6 bc f9 e0 f3 bd
       0.07135972 -0.1551254 -0.020378416 -0.119081445
0003c0 9b 18 84 3d e5 ad eb bd ed 61 60 3d af ae 06 be
       0.064500056 -0.11507777 0.05478089 -0.13152574
0003d0 b9 97 bd 3d 8a 77 fe 3d 0c b3 d3 3d f1 5a e2 bd
       0.092574544 0.12425144 0.10336885 -0.11052502
0003e0 85 18 47 3e 6b 31 55 3e 9f 80 22 3d 04 7c 86 be
       0.19442947 0.20819633 0.039673444 -0.2626649
0003f0 e1 96 24 3d 9e a4 33 bd f1 7e 06 3e 0e 02 4c bd
       0.04018295 -0.043858163 0.13134362 -0.049806647

1.layers.2.0.bias f4 [80]
000000 15 76 26 bc fa 69 24 bd 09 de 6d bd 82 0a 1c bd
       -0.010159989 -0.04014013 -0.058073077 -0.03809596
000010 21 b8 f7 bc 5f 2d 08 bd f4 d0 9b bd 52 fa d1 bc
       -0.030239167 -0.033246394 -0.07608214 -0.025632057
000020 9e 7a 50 bd e5 48 58 bd 28 a6 76 bc 45 95 0a bd
       -0.050898187 -0.052803893 -0.015054263 -0.03383376
000030 43 d0 82 bc 5d 03 20 bd 5e 5d 01 bd c9 e7 10 bd
       -0.015968448 -0.039065707 -0.031583183 -0.035377298
000040 cb 1c 3a bd ea 0c 9b bd 2d 95 5e bd 57 5c 29 bd
       -0.045437615 -0.075708225 -0.054341484 -0.041347828
000050 d6 25 77 bd 2f f1 45 bc cf 5b 61 bd ae 8d 64 bb
       -0.060338818 -0.012081428 -0.055019196 -0.0034874487
000060 a5 f0 d1 bc e9 41 71 bb 83 99 8b bc fa f9 e6 bc
       -0.025627444 -0.0036812967 -0.017040974 -0.02819537
000070 dd 51 11 ba a3 e2 c5 ba 3a 3b 3a bd 43 a1 c9 bc
       -0.00055435096 -0.001509745 -0.04546664 -0.024613028
000080 26 8b e8 bc 81 13 fd bc f7 cd 6d bc dd bf fb bc
       -0.028386664 -0.03089309 -0.014514438 -0.030731136
000090 ab 3c 07 bd 68 74 83 bd 98 60 01 bd 81 00 80 bc
       -0.03301684 -0.06418687 -0.03158626 -0.01562524
0000a0 3f 7d b6 bc bf 8c 00 bc 3c 12 36 bd d5 2e 89 bc
       -0.022276519 -0.0078460565 -0.044450983 -0.016745964
0000b0 88 1c 1d bd 6b 96 66 bc 13 a2 4b bd db 10 29 bd
       -0.038357288 -0.014073948 -0.049715113 -0.04127584
0000c0 27 79 69 bc 27 00 88 bc e2 e8 cb bc d7 d4 fa bc
       -0.014250076 -0.016601635 -0.02489132 -0.030619068
0000d0 0d 10 7a bd eb a1 9c bc 66 8d d8 bc cb 4a fd bc
       -0.061050463 -0.019120177 -0.026434612 -0.030919453
0000e0 c3 06 ca bc 13 a3 d9 3b a9 c5 de bc 9e 22 16 bd
       -0.024661427 0.0066417544 -0.027193861 -0.036654107
0000f0 8c 4c ab bc a9 cc 23 bd 52 b9 78 bd 9d 3f a5 bc
       -0.020910524 -0.0399901 -0.06072361 -0.020171935
000100 ef 19 8e bc 75 52 2d bd 51 77 5b bc c5 2d 83 bd
       -0.01734635 -0.042314965 -0.0133951465 -0.06405214
000110 03 d8 1d bd eb 63 f4 bc a6 2c 71 bd 7c 57 31 bd
       -0.038536083 -0.0298328 -0.05888047 -0.043296322
000120 34 fb 89 bc c1 3a 01 bd 50 1e 21 bd 4b 02 f7 bc
       -0.016843416 -0.031550173 -0.03933555 -0.03015246
000130 36 43 64 bc 33 26 07 bc 72 0d 35 bd de a0 fc bc
       -0.01393204 -0.0082488535 -0.044202276 -0.030838426

1.layers.2.0.weight f4 [80, 240]
000000 e9 16 41 3d 49 50 de bc 33 e8 3f bd 70 25 78 3d
       0.04714099 -0.027137892 -0.0468523 0.06058258
000010 c6 3d 37 3b 87 76 a2 3c 20 34 1b 3e 83 54 ad bc
       0.0027960404 0.019831909 0.15156603 -0.021158462
000020 1d 2a a1 3d ee 90 d6 bc 42 ee 27 bd 98 32 6f 3b
       0.078693606 -0.026192155 -0.040998705 0.0036498662
000030 0b 78 14 bc 3c 1c a0 bd 38 56 a8 bb f5 39 de bc
       -0.009061824 -0.07817885 -0.005137231 -0.027127245
000040 7c 83 50 bd 6c e1 00 be fd 8f 73 bc 8b 94 0a 3e
       -0.050906643 -0.12585992 -0.014865872 0.13533227
000050 16 5c 4a 3d 2a e6 8e 3e a1 ff 36 3c 1e 08 06 3d
       0.049404226 0.27909976 0.011169345 0.032722585
000060 a5 05 24 3e 56 01 d7 bb 35 26 89 3c 4a c7 be 3d
       0.16017778 -0.0065614386 0.016741851 0.09315355
000070 4f b1 9e bc 60 2b 19 3e 22 06 fa 3c 61 22 54 bd
       -0.019371657 0.14957952 0.030520502 -0.0517906
000080 9e 28 9a bd fa 85 61 3e 19 96 01 3e 49 24 05 3c
       -0.07527278 0.22023764 0.12654914 0.008126327
000090 1b 90 8b 3d cb b3 04 3e e9 2f 2f 3e 76 dc 5a 3d
       0.06814595 0.1295921 0.1710812 0.053432904
0000a0 30 b2 2a 3d 85 4a 75 bc 1c 8c d3 bc 7f 88 9b 3d
       0.04167384 -0.01497138 -0.025823645 0.07594394
0000b0 b4 bd 93 3b b5 07 ad bd be 90 8a 3b 49 e0 bf bd
       0.0045086984 -0.084487356 0.0042286804 -0.09368951
0000c0 5a 03 c1 3d e7 4b 97 bd f3 85 99 bd 11 56 22 be
       0.094244674 -0.07387524 -0.07496252 -0.15853144
0000d0 02 9f f4 bc d1 27 6a 3e d2 2b 73 bd 9d 1f ce bd
       -0.029860977 0.22866751 -0.059367962 -0.100646235
0000e0 05 da 19 be cc fe e9 3d ab 27 cb bd 07 dd 3f bd
       -0.15024574 0.11425552 -0.099196754 -0.046841647
0000f0 56 8d 39 bd f9 e8 b7 bd 78 0c c6 bc 79 7a 1f be
       -0.045300804 -0.08979983 -0.024175867 -0.15574063
000100 89 af 82 3d a5 cd bb bd ba 33 c3 3c b5 37 86 be
       0.06381137 -0.09170083 0.023828376 -0.26214376
000110 f7 bd 93 bc 29 14 42 3e 06 e2 95 bc 25 c7 0a 3e
       -0.018034918 0.18953003 -0.018296253 0.1355253
000120 19 f4 1b be 2a a2 49 bd 2f 6f 27 bd 97 85 f5 bc
       -0.15229835 -0.049226917 -0.040877517 -0.029970927
000130 33 f4 bb bc 63 e4 57 bd d1 47 26 bd 85 73 f6 bc
       -0.022943592 -0.05270804 -0.040595833 -0.03008438
000140 5e 62 d5 bc bd 38 47 3e 2d bb c1 bd 50 01 96 3d
       -0.026047882 0.19455238 -0.09459529 0.07324469
000150 b5 e6 16 3d 05 73 82 3c d5 30 51 bc 81 d9 9e 3d
       0.036841113 0.015923986 -0.01276799 0.07756329
000160 46 f5 f4 bd 69 ed 93 bc f2 2f d5 bd ff a9 60 3d
       -0.11960845 -0.018057542 -0.104095355 0.05484962
000170 49 8d a8 bd c9 80 a9 bb 5b 66 b5 3d 5e 31 0b 3c
       -0.08230073 -0.005172823 0.088574134 0.008495657
000180 19 ee a4 3d e6 96 1d be 1c df ba 3d 35 2f 39 be
       0.08053226 -0.15389594 0.09124586 -0.18084414
000190 18 d9 26 bd 69 1f 79 bc c6 4a cb 3d ec d3 0a 3b
       -0.04073438 -0.015205243 0.09926371 0.0021183444
0001a0 aa 56 bc bd 6b 88 bb 3c 33 6f e2 bd 8f 71 e0 3d
       -0.09196217 0.022892198 -0.11056366 0.109591596
0001b0 8b 44 ec 3c 15 d3 a2 bd 1e 38 ef 3d 90 14 5c bd
       0.028841278 -0.07950417 0.116806254 -0.053730547
0001c0 e7 2d 29 bd 7e de a0 3d fc 71 99 bd e4 f3 27 be
       -0.04130354 0.07854937 -0.07492444 -0.1640163
0001d0 ec 92 e7 bd 54 47 f1 bd 0a b6 e7 3c 5d 98 00 3e
       -0.1130732 -0.11781183 0.028285045 0.12558122
0001e0 a2 5e 96 bd 62 5f e2 bd 47 51 2c 3e 70 e1 bc bd
       -0.073422685 -0.11053349 0.1682788 -0.09222686
0001f0 8b 11 10 3e 8e 36 e9 3c 10 58 2b 3e d9 07 3f bd
       0.14069192 0.028468397 0.16732812 -0.046638343
000200 3f 1a 8a 3d c6 5d 6f bb b7 82 a8 bd 84 75 04 3e
       0.06743287 -0.00365244 -0.08228057 0.12935454
000210 69 5d ee 3c 35 78 46 3c 2b 38 bd bd 1b dc 65 3c
       0.029097276 0.0121136205 -0.09239229 0.014029528
000220 1b 2d 83 3d d6 ec b5 bd 69 b7 69 3d 25 2f 27 3d
       0.064050876 -0.088830635 0.05705968 0.040816445
000230 5f 36 ac bd 04 24 93 3d d7 21 f9 bd d9 15 99 bc
       -0.08408808 0.07184604 -0.121646576 -0.018687176
000240 69 27 3f 3c de 8c b1 bd 29 7a 5d bc 53 ef bf 3b
       0.011667111 -0.086694464 -0.013517895 0.005857387
000250 bb 60 43 3d 99 f6 dd 3d 63 2b 6b bd 9a 30 03 3e
       0.04769967 0.108380504 -0.057414424 0.12811509
000260 be e2 c9 3d a6 23 6b 3b af f7 ee 3d 8f cc 0c 3d
       0.09857701 0.0035879402 0.11668336 0.03437477
000270 c9 26 0e be 8e d0 12 bd 9e 33 17 3e 45 aa 74 3e
       -0.13881983 -0.035843424 0.14765784 0.23893078
000280 e3 6d a5 3d 01 7e 20 be d4 a2 36 3e e6 93 6c 3e
       0.080776 -0.15673067 0.17835552 0.23103294
000290 77 41 1d be ab aa 0d 3e 3d ec 0e 3e 44 0a c3 bc
       -0.15357004 0.13834636 0.13957305 -0.023808606
0002a0 05 11 03 be 39 ab 04 be c8 38 7b 3e 73 37 55 3d
       -0.12799461 -0.12955941 0.24533379 0.052054834
0002b0 0a df a2 bd ff e2 93 be 8d 5d 28 be 9d a5 3c be
       -0.079526976 -0.28884122 -0.16441937 -0.18422551
0002c0 ac ba 56 3d b2 e7 d2 ba fb c0 31 be 32 97 17 3b
       0.052424118 -0.0016090779 -0.17358772 0.002313089
0002d0 2b 5e 0c 3d 93 4f 0e be 4b 02 b8 bc b7 60 a6 3d
       0.034269493 -0.13897543 -0.02246203 0.08123916
0002e0 7d 17 7c bd 20 30 f8 bb e3 a7 9a 3d 8b 7f 76 bb
       -0.061545838 -0.0075740963 0.07551553 -0.0037612643
0002f0 77 9a b2 bd 2f 10 c8 bc d9 ff d6 bc ca 43 5e bd
       -0.08720868 -0.02442178 -0.026245045 -0.054263867
000300 66 eb 7b 3c d1 f0 98 bc d6 de 45 3c d3 70 03 be
       0.015375948 -0.018669518 0.012077054 -0.12836008
000310 ec 72 ef bc 72 b3 dd 3d 59 8f 61 3d bd 84 49 3c
       -0.029229604 0.10825242 0.055068348 0.012299714
000320 a3 e1 be bb ef ab 9d 3d 24 ce b6 3d e1 02 26 3e
       -0.005825238 0.07698809 0.08926037 0.16212036
000330 97 be 5f 3d d7 d6 58 3d fb 34 50 bd 8c 45 58 3c
       0.05462512 0.052939262 -0.050831776 0.013200175
000340 b4 ee a6 bd 8a 01 b4 bd 5f bc fc bb 93 c4 5d bd
       -0.08150998 -0.08789356 -0.0077128853 -0.054142546
000350 e5 a8 97 bb e2 a1 43 3d cc 76 fa bd 42 8a ca 3d
       -0.004628288 0.047761805 -0.1222969 0.09889652
000360 30 5b 07 3e 6f 4d 09 be 27 26 e0 bb 5a ba 6f be
       0.13218379 -0.13408445 -0.0068404856 -0.23410931
000370 0c 16 0f 3d 4b f8 7d bd e0 1a 63 be dd e7 80 be
       0.034933135 -0.06200437 -0.22178221 -0.25176898
000380 4d ed ca 3d 64 eb 24 3d 07 9b a1 3d b9 4c f7 bd
       0.09908543 0.04026355 0.07890897 -0.120751806
000390 06 e9 8a bd 0d e5 be 3a 77 c1 e0 3d 3a 13 71 bd
       -0.06782727 0.0014564112 0.109744005 -0.058856227
0003a0 61 41 c5 bd 5a db fc 3d 0d 24 1f 3e e9 9c bd 3d
       -0.09631611 0.123465255 0.15541096 0.09258444
0003b0 a4 2a 8e 3c b8 27 2d bd c1 e0 24 be 15 80 88 3c
       0.017354317 -0.042274207 -0.16101362 0.016662637
0003c0 9e e0 b3 3c 65 10 68 bd 6f d3 cc 3c ca f8 b5 bd
       0.021957692 -0.05665626 0.025003163 -0.088853434
0003d0 5d bb 05 3e 21 f2 52 be 71 1f f1 bd 4c 1d 8c bd
       0.13059755 -0.20600177 -0.11773575 -0.068415254
0003e0 94 bc b1 bd 34 85 9c 3c 97 6c b7 3c 04 71 eb 3d
       -0.086785465 0.019106485 0.022390647 0.114961654
0003f0 d8 41 27 be a0 4e b9 bc 0d b1 b0 3d 7f 69 dc bd
       -0.16333711 -0.0226205 0.0862752 -0.10762309

1.layers.3.0.bias f4 [80]
000000 db 32 8b bc 54 95 01 bd c0 6f 2d bd bf 05 e0 bc
       -0.016992023 -0.03163655 -0.0423429 -0.02734649
000010 57 0a 04 bd 2b 4e 47 bc 67 da 59 bd 6c 17 33 bd
       -0.032236423 -0.012164633 -0.0531868 -0.04372351
000020 84 3d a6 bc 0d 01 e1 bc a0 6d b9 bc 98 a8 1b bd
       -0.020293005 -0.027466321 -0.022635281 -0.03800258
000030 2a ac 60 bb 9c 7a f7 bc 6d 99 2f bd 8d ba 2a bc
       -0.0034282305 -0.030209832 -0.042870928 -0.010420454
000040 fd c8 0c bd 7e 48 77 bd 53 82 c6 bc 72 4e 75 bc
       -0.034371365 -0.06037187 -0.024232065 -0.014972316
000050 d1 ae 1b bd 16 a5 d2 bc 04 46 52 bd b4 55 10 bd
       -0.038008515 -0.025713485 -0.051336303 -0.035237983
000060 b9 84 ab bd 73 99 36 bd 6f b5 66 bd 4a 1a 9a bb
       -0.08374924 -0.044579934 -0.056325372 -0.004702841
000070 92 e2 f3 bc 59 0a 55 bb 4e 49 17 bd 5c a8 52 bd
       -0.029771123 -0.0032507388 -0.036935143 -0.05143009
000080 4e e9 9f bc a9 73 8d bd 34 28 9f bc 9c 3d 24 bd
       -0.019520428 -0.06906826 -0.01942835 -0.040097818
000090 3c 76 16 bd 93 6c 3a bd 50 78 ef bc bf fd 33 bd
       -0.03673385 -0.0455137 -0.029232174 -0.043943163
0000a0 84 28 00 bc 48 55 8b bc 0b 38 23 bd ab f8 8e bc
       -0.00782216 -0.017008439 -0.03984837 -0.017452559
0000b0 ea d7 0e bd 20 61 d2 bc ca 3b f4 bc c6 c6 fa bc
       -0.03487388 -0.025681078 -0.029813666 -0.03061236
0000c0 03 6e 0b bd 44 5b f5 bb 08 32 eb bc d8 d4 57 bd
       -0.034040462 -0.0074876864 -0.02871038 -0.052693218
0000d0 76 e0 a8 bc a6 87 aa bc 72 7a 79 bc 2f d9 3c bd
       -0.020614844 -0.020816635 -0.015226947 -0.04610556
0000e0 61 cc dc bc 02 8a 0e bd a2 ec 89 bc c1 26 20 bd
       -0.026952924 -0.034799583 -0.016836468 -0.03909946
0000f0 61 20 24 bd 5d 8d 76 bc 72 ed 6f bd 5f 4d 12 bc
       -0.04006994 -0.015048352 -0.058576055 -0.0089295795
000100 17 8e f8 bc 21 ee 4e bd 32 bc 42 bd 8e 7d c1 bc
       -0.030341191 -0.050520066 -0.04754276 -0.02361944
000110 ca 24 41 bd a9 aa 4b bd d5 18 49 bc ec 00 48 bd
       -0.047154225 -0.0497233 -0.012273987 -0.048829004
000120 ea 8b e6 bc 17 8c 0a bc f1 5d 20 bd b8 c4 3a bc
       -0.028142888 -0.008456252 -0.03915209 -0.0113994405
000130 1f 1d 46 bd d4 13 e4 bc 21 5c a2 bc 41 93 9e bc
       -0.048367616 -0.027841486 -0.019819321 -0.019357326

1.layers.3.0.weight f4 [80, 320]
000000 ef 0f 33 3d 3b 58 76 3c f4 f1 4b 3d 39 46 71 bc
       0.043716367 0.015035684 0.04979129 -0.014726215
000010 c6 99 ff bb 91 72 8e bd 9b c9 5d bd 34 a0 1b 3d
       -0.0078003136 -0.069554456 -0.054147344 0.03799458
000020 4d 37 52 bc b8 7e 0e 3d 2e bb 26 be 6c a4 43 3d
       -0.012830568 0.034788817 -0.16282341 0.047764227
000030 2c a2 b2 bd d6 9b 36 bb 10 0b 1b bc f7 e7 a8 bd
       -0.08722338 -0.0027863882 -0.009463087 -0.08247369
000040 39 c5 38 3d 1d 73 35 3d fc 27 90 3d 0d 06 30 3c
       0.04510996 0.044299234 0.070388764 0.01074363
000050 a1 d5 95 bd 7d b8 c2 3d d2 9d 5b 3d e4 34 92 3d
       -0.07316137 0.095078446 0.053617306 0.07138994
000060 6f 49 8c 3d 45 0c 35 bd b7 d5 17 bd af 7e 20 3d
       0.06849944 -0.044201154 -0.03706905 0.039183315
000070 4b 1e 0e 3e 2a 0b a9 3d 61 ab 4d bd 15 ac ad bd
       0.13878743 0.082540825 -0.050212268 -0.08480088
000080 f3 8c 05 3d 30 61 ab bd 44 20 b3 bc 94 53 76 3d
       0.032605123 -0.083681464 -0.021865971 0.0601383
000090 54 cf c0 3d 45 ed 08 3e ff e2 63 3d d2 2c d4 3d
       0.09414545 0.13371761 0.055636402 0.10360111
0000a0 70 7c 8c bb 43 fc 6d bc e1 ed e8 3d fb 32 80 3d
       -0.004287295 -0.014525476 0.11373497 0.06259724
0000b0 54 07 be bd 9a 07 4e be 32 60 16 3d c5 05 ab bd
       -0.092787415 -0.20120087 0.036712833 -0.0835071
0000c0 3c b9 99 bd 64 3c 8e bd 92 69 8c 3c c7 02 47 bd
       -0.07506034 -0.06945112 0.017140184 -0.048586633
0000d0 38 bd 73 bd 60 b7 fa 3c 19 ea a7 3b 61 f0 b4 3d
       -0.059506625 0.030605018 0.005124342 0.08834911
0000e0 31 d2 05 3e ba 98 da bd 1a e8 f6 3d 41 5f 34 be
       0.13068463 -0.106736615 0.120559886 -0.17614461
0000f0 d8 7c 69 3c 1c 0e be 3c f7 70 85 bd 4e 63 d0 bc
       0.0142509565 0.023200087 -0.06515687 -0.025437977
000100 29 a7 23 3c 37 9f 34 3e 17 f1 62 bd 1f 1e 9c bd
       0.009988585 0.1763886 -0.055405702 -0.07622933
000110 7a 57 04 3b b4 20 ea bc a2 99 8a bd 47 65 d9 bd
       0.0020193742 -0.028580047 -0.067675844 -0.1061502
000120 88 34 63 3e 23 6e 78 bb b3 2f d2 39 f1 fe c6 3d
       0.22188008 -0.0037907443 0.0004008986 0.09716595
000130 0b 3f 90 bd 5d 7b af bc 2e 52 27 bd a2 12 8b bd
       -0.070432745 -0.021421129 -0.040849857 -0.06790663
000140 66 f8 b8 3b ea 45 ff 3b 40 63 6e 3c e4 a5 7a 3d
       0.005644846 0.007790317 0.01455003 0.061193362
000150 ea 12 ba bd 0f 59 7d bd 88 63 90 bd 13 f5 31 3d
       -0.09085639 -0.06185251 -0.07050234 0.04344661
000160 23 96 ba 3d 70 d5 c4 3d 38 13 85 3c 0b 48 ac 3d
       0.091106676 0.096110225 0.016244516 0.084121786
000170 24 3f f2 bb e4 37 b8 3d 41 a3 00 3d 7d c7 c0 3d
       -0.007392781 0.08995035 0.03140569 0.09413049
000180 d1 ba 07 be a4 62 02 bb ab 3b 8f bc 5d 27 0f be
       -0.13254859 -0.001989522 -0.017484507 -0.1397986
000190 f9 67 9e 3d d5 c3 04 3e bf 1f 71 bd fb 4a 8b bd
       0.07734675 0.12965329 -0.058868166 -0.06801411
0001a0 64 1c ef 3c ef d4 9d 3d 16 49 08 be 2c 29 89 3d
       0.029188342 0.077066295 -0.1330913 0.06697306
0001b0 9d 9b 0e bd 50 87 13 be ca be 11 bd 44 ef 9b 3d
       -0.034816373 -0.14407086 -0.03558234 0.07613996
0001c0 7a de 19 be 11 a0 2e bd 82 bb 85 bd 94 4e 82 3d
       -0.15026274 -0.04263312 -0.06529905 0.06362644
0001d0 26 28 00 bd 67 91 6a 3c f1 a9 ac bd da 34 ba 3b
       -0.03128829 0.014316893 -0.08430851 0.00568257
0001e0 fa 92 e5 bd 95 5e c8 3d e9 ce 1f be 85 e6 38 bc
       -0.11209674 0.09783665 -0.15606274 -0.011285429
0001f0 41 2d 3f 3d 01 03 05 be 9f d2 a6 bd f3 24 78 bd
       0.046674017 -0.12989427 -0.081456415 -0.060582113
000200 73 fe 81 bd 27 50 09 bd 52 b0 92 3c a1 74 a1 bc
       -0.063473605 -0.033523705 0.017906342 -0.019708933
000210 4a 27 a8 bc dd d5 4b 3c af b4 0c be d6 80 94 3d
       -0.020526547 0.012441126 -0.137408 0.07251136
000220 09 5d d5 bc cd 7f ca bb b6 ed f8 bd 40 8f a5 bd
       -0.02604534 -0.006179786 -0.12154715 -0.080839634
000230 f7 42 54 ba 42 a3 9f 3d 2d c9 99 3d 0b 07 82 3d
       -0.0008097137 0.07794811 0.07509074 0.063489996
000240 cd 62 87 bd 6d ac 13 3d e4 cb dd 3d 50 06 cf 3c
       -0.06610642 0.03605311 0.10829905 0.025271565
000250 d5 b1 cf bc 92 63 5b 3c fe 58 52 be 0e 53 fb 3c
       -0.025353352 0.013390439 -0.2054176 0.030679252
000260 da 9b 72 bd e4 6c 78 bd 6e 81 5a 3d 71 21 79 3c
       -0.059230663 -0.06065072 0.05334609 0.015205727
000270 50 a9 93 bd f3 7a f3 bc 77 18 96 3d 0d 60 42 bc
       -0.07210028 -0.029721713 0.07328885 -0.011863721
000280 60 fa 2a 3d 6e 53 c7 bd 66 c2 e0 3d 52 71 fe 3d
       0.041742682 -0.0973271 0.109745786 0.12423958
000290 46 24 b8 bd df 1b c1 bd c7 0f 18 3e ea f2 cf bc
       -0.089912936 -0.09429144 0.14849769 -0.025384385
0002a0 64 3b ce 3c 04 92 9e bd 33 3d 0e 3e 73 4e 37 be
       0.025174804 -0.07742694 0.13890533 -0.1790102
0002b0 ef 03 e1 3d f4 b8 97 bd c7 e3 48 3d 4c 09 db 3d
       0.109870784 -0.07408324 0.04904535 0.106951326
0002c0 76 ba 1c be d7 6e d7 bc e0 47 f2 3c b9 66 5b bd
       -0.15305504 -0.02629797 0.029575288 -0.05356476
0002d0 a4 52 fb 3d b6 c4 c5 ba b5 cb 5e bd 51 8f 9f bd
       0.12271622 -0.0015088532 -0.05439349 -0.07791007
0002e0 4c 73 ab bd a2 c6 98 bd fd 78 4c bd d4 44 71 3d
       -0.083716005 -0.07459761 -0.04992007 0.05890353
0002f0 76 1c 8e 3d ad 5f 03 3e 89 fa a8 3a 44 5b 0c 3e
       0.06939022 0.12829466 0.0012892048 0.1370669
000300 89 01 5f 3d 72 e3 96 3d e6 36 d4 bc 40 6f d8 bd
       0.054444823 0.073676005 -0.025905084 -0.10568094
000310 3c 8d 47 bd 13 6b 60 3c 1a 46 1e bd 78 00 0a be
       -0.048718676 0.0136974035 -0.038641073 -0.13476741
000320 08 d4 36 bd 5a 06 69 3d 27 37 00 be e2 58 08 be
       -0.044635803 0.056890823 -0.12521039 -0.13315156
000330 f2 63 13 3d a6 f2 75 bd 44 09 08 3e 5e 38 55 bd
       0.035983987 -0.06004586 0.13284785 -0.05205571
000340 e7 72 e7 bc 29 99 9f 3c 0e f7 8a bd 8a 60 5b 3d
       -0.028253032 0.019482212 -0.06785403 0.053558864
000350 07 e0 5d 3d 19 94 d8 bd 92 4b b5 bc 10 b5 93 3d
       0.054168727 -0.105751224 -0.022130761 0.07212269
000360 30 ba fa 3d aa f7 67 bd ec c0 cd 3b ac f8 de bc
       0.12242544 -0.056632675 0.0062791016 -0.027218185
000370 cd ac 69 bd 7e 5c 19 bd c8 61 32 3d 4c d5 b1 3d
       -0.05704956 -0.037441723 0.043550283 0.08683261
000380 7e 05 42 bd 8e 5f b5 bd d2 87 f6 bc ae ba e6 bd
       -0.04736852 -0.08856116 -0.030094061 -0.11266075
000390 fe 3a 96 bd 89 28 2e bd 8e 18 f5 b9 aa 16 88 bc
       -0.073354706 -0.042519126 -0.00046748336 -0.01661237
0003a0 1b 5a 68 bd bb 9a af 3d c6 8b 30 3b 7c 14 1f be
       -0.056726556 0.08574434 0.002693878 -0.15535158
0003b0 14 86 9b bd db 0e 0b ba e2 cb 9b 3d 32 ae 66 bc
       -0.07593933 -0.0005304643 0.07607247 -0.014079617
0003c0 6e fd 85 bd eb e1 4e bd 87 43 7a bd 02 6b 2e 3d
       -0.065424785 -0.05050842 -0.061099555 0.04258252
0003d0 10 70 4c bd 7b cb fc bd 28 a5 a9 3d 2a 44 9f bd
       -0.04991156 -0.12343498 0.08283454 -0.07776673
0003e0 01 0d b0 3c 44 df b7 3d 99 54 b5 3d 01 a7 16 be
       0.021490576 0.089781314 0.08854026 -0.14712144
0003f0 72 cb 2f bc e7 18 5c bc 9a 21 d4 3d fc c5 c1 3d
       -0.0107296575 -0.013433672 0.103579715 0.09461591

1.layers.4.0.bias f4 [80]
000000 48 0f c0 bc 98 44 92 bc 08 c7 bf bc 72 f9 9c 3b
       -0.023444787 -0.017854974 -0.023410335 0.0047904784
000010 16 02 4c bd fa d6 d2 bc eb d4 16 bd 4f fd 60 bd
       -0.049806677 -0.025737274 -0.03682415 -0.054929074
000020 8c 2c df bc b3 50 de bc 10 fd dc bc a7 35 23 bd
       -0.027242921 -0.02713809 -0.026976138 -0.03984609
000030 17 43 02 bc f4 bc 2b bc 63 dc 6d bd 89 66 15 bd
       -0.007950566 -0.010482062 -0.058071505 -0.03647474
000040 01 fc 52 bc 07 d2 f9 bc b4 6b c0 bc 0c 94 b8 bc
       -0.012877465 -0.030495657 -0.023488857 -0.022531532
000050 3e 59 50 bd fe 19 1d bd 17 4a 9b bc ed f4 e2 bc
       -0.050866358 -0.038354866 -0.018956227 -0.02770468
000060 4d ac dc 3b 86 5a 35 bd a9 df bd bc 57 23 5b bd
       0.006734407 -0.044275783 -0.023177939 -0.0535005
000070 bd 62 2c bd 96 2d be bc 49 4a a6 bc a9 92 b2 bc
       -0.04208635 -0.023215096 -0.020299094 -0.021798449
000080 9c 2c 34 bd 4c 21 20 bd a2 d2 87 bc 61 74 42 bd
       -0.043987855 -0.039094254 -0.01657993 -0.04747427
000090 7e eb 48 bd 01 60 b9 bc 74 95 d5 bc 26 f6 3a bd
       -0.049052708 -0.022628786 -0.026072241 -0.0456449
0000a0 44 d3 6f bc c2 7b 60 bc 2e 87 1c bd 46 a0 6c bc
       -0.014637772 -0.013701381 -0.038214855 -0.014442509
0000b0 f2 d0 10 bd 37 62 c3 bb 2b a9 23 bb b7 0d 5e bc
       -0.035355516 -0.005962636 -0.0024972658 -0.013553075
0000c0 cc 3a 52 bd 28 b8 8d bd e7 4d 13 bd 28 31 5f bc
       -0.051325604 -0.06919891 -0.035962965 -0.01362256
0000d0 ed c4 b5 bc 6e 14 14 bc 5a c6 33 bd 80 b6 12 bd
       -0.022188628 -0.009038074 -0.043890335 -0.035818577
0000e0 9a 32 65 bc 71 3c 4d bd 13 e3 be bc 19 0b 39 bc
       -0.013989115 -0.05010647 -0.023301637 -0.01129415
0000f0 9a 65 a1 bc 35 70 4a bd 19 ef 91 bc b8 d6 57 bd
       -0.019701768 -0.049423415 -0.017814206 -0.052695006
000100 ec eb f0 bc b9 90 d3 bc 48 58 89 bc 0f 8b ec bc
       -0.029409371 -0.025825845 -0.016765729 -0.028874902
000110 99 49 1c bd 5c 17 4d bd ba d5 b3 bb 94 75 84 bd
       -0.038156126 -0.050071105 -0.0054881247 -0.06467739
000120 27 42 0f bd 7a 6a 98 bc fb bc 51 bc 3c e6 da bc
       -0.034975197 -0.01860546 -0.012801404 -0.026721112
000130 34 85 86 bd 2b ed a8 bc 7d e5 07 bd 3a fc 0c bd
       -0.06568375 -0.020620903 -0.03317784 -0.03442023
