DNNWeightsDefault/model_0/ensemble_0/zz_bbtt_6.onnx (onnx, 947112 bytes, 19 tensors)

0.embeds.0.weight f4 [2, 1]
-0.5751319 0.29619762
00000000: d83b 13bf 37a7 973e

0.embeds.1.weight f4 [3, 2]
-1.2653086 0.0016973983 0.545819 1.6367912 0.23185171 -2.174474
00000000: a2f5 a1bf 3c7b de3a cbba 0b3f 6082 d13f
00000010: 896a 6d3e 952a 0bc0

0.embeds.2.weight f4 [2, 1]
1.1521741 -0.39942598
00000000: 717a 933f 9081 ccbe

0.embeds.3.weight f4 [5, 3]
0.71402043 0.107051045 -0.061588082 -1.6656632 0.06972626 0.09295211 1.0523422 0.5670763
0.54821944 0.45754775 -0.019353328 -0.89940345 0.4810306 -1.0324979 -0.64264774
00000000: 0bca 363f 943d db3d c943 7cbd 7434 d5bf
00000010: a4cc 8e3d ad5d be3d 26b3 863f ea2b 113f
00000020: 1c58 0c3f b343 ea3e df8a 9ebc 4e3f 66bf
00000030: a549 f63e e428 84bf 9084 24bf

0.embeds.4.weight f4 [5, 3]
-0.16656819 0.14600189 -0.20665187 0.4639976 1.5334885 1.3026402 0.97117966 0.3506707
0.7734469 -0.31229514 0.017531345 -0.04292258 -0.407781 -0.68633324 -0.75160617
00000000: da90 2abe 8581 153e 8c9c 53be 1891 ed3e
00000010: 5a49 c43f eabc a63f 3b9f 783f 1c8b b33e
00000020: 9e00 463f 26e5 9fbe e59d 8f3c 96cf 2fbd
00000030: acc8 d0be 89b3 2fbf 4369 40bf

0.embeds.5.weight f4 [2019, 50]
-0.010514295 -1.8722249 -0.5415936 -1.4096775 -1.030932 1.5066911 -0.7375789 -1.086866
0.21752194 0.7098275 -0.75712335 -1.740269 0.6804239 -0.0046617496 -1.7349302 1.5011119
-1.4046776 0.005042024 -2.20757 0.13888465 2.4408205 1.1253216 -0.15714039 -0.283539
-0.5652062 1.6733018 0.050185714 0.7174102 0.0511937 -0.29485336 -0.091903776 0.41563106
-0.44073316 0.096925326 -1.129485 0.55391526 -1.9031458 -2.4719944 0.10810128 -1.0275086
2.3293302 1.4549057 -1.1141346 -1.9805994 -0.98888063 1.2529066 -0.3946702 -2.008655
-1.0017159 -0.44021264 -0.73534185 0.8267436 -0.09785879 2.5385938 0.26767492 -1.2089943
1.1683348 -0.73254144 -0.41697583 -0.10869571 0.12557004 2.5590885 -0.6466645 0.049542908
0.6254164 0.8697926 0.41873264 1.2478575 -1.14682 0.4861085 0.42609113 -0.061596144
0.12501019 1.0556409 -1.3175812 0.20195243 -0.83590984 -0.77155596 -0.8814965 1.2258549
0.014355169 -0.9934567 -0.20239228 0.37870836 0.72494483 0.5707894 -0.4909726 -0.057048637
0.19467394 1.3830386 0.98582083 -1.6960626 0.8649269 -0.25265414 -0.18612796 -1.0622165
1.977078 2.0024233 -1.2729554 0.2627697 -0.35794702 -0.68589354 0.17323425 -0.45873216
0.7012636 0.9818493 1.1065067 0.4191263 1.6844996 -0.45368055 0.2875914 0.8181752
0.0435216 0.80478954 -0.31784353 1.3969336 1.1275252 0.26721388 1.4005282 0.080334894
0.84313524 0.30579183 1.2290609 0.5226372 -0.3419637 0.40677854 0.26541102 0.43626016
1.3559139 -0.4327766 -1.2443174 -0.6792827 -2.9964104 -0.98830396 -1.7788092 1.3028742
0.7410316 -0.697418 0.05668997 0.907442 0.01684618 -0.9775448 -0.9252694 0.37678728
1.570557 0.91701996 0.03276524 -0.21605472 0.35870734 -1.139787 1.5207485 0.1390557
0.07996387 1.5864974 0.9774285 0.85001814 1.6209811 1.266086 -0.772369 1.0109171
0.025034584 -1.0349258 1.9478053 1.2574888 -0.7279122 0.44047928 -1.6515151 -0.014057295
-0.57522094 -0.82085705 1.2864113 -2.266579 0.8241507 -0.36054808 -1.3248054 0.7081619
0.92305243 -1.0985734 0.68998307 -0.090531394 0.6033808 -0.46677962 0.5231153 0.42219844
0.4633273 -0.15494631 0.11471059 -0.6552207 1.7446522 0.80642784 -0.19611816 -0.5506658
0.28577426 -1.3301247 0.109951444 -1.4523208 0.00223068 0.35934386 0.17728817 -0.71653354
-0.47590196 -0.1382478 -0.05598034 1.7445153 -0.74586135 0.5458423 -1.8760179 -0.504845
1.3334272 -0.81596315 -2.5138874 -0.7619486 -0.057504438 -2.1676793 -0.99065375 -1.848397
-1.4893196 -1.0541824 -2.603936 0.12825128 1.6183643 -0.46819583 1.1489457 1.1999922
-1.3147374 -0.8103785 0.75954187 0.6778868 -1.5291733 -1.3884066 -0.23226495 -0.38005823
-0.62056476 -1.4671923 -0.6811327 1.9480819 0.4255489 0.57168716 0.7670905 0.1376312
0.26984823 0.23910008 -0.17811702 -1.7087954 -1.0288917 0.34820166 -0.27662054 -0.12928356
-1.1830566 -0.38192594 0.061564587 -0.92144275 0.37339023 -1.3505049 -0.044689983 -0.8142987
00000000: 2644 2cbc 11a5 efbf e1a5 0abf 5070 b4bf
00000010: 94f5 83bf 41db c03f f9d1 3cbf 6d1e 8bbf
00000020: 12be 5e3e 41b7 353f d6d2 41bf 22c1 debf
00000030: 4330 2e3f 97c1 98bb 3112 debf 6f24 c03f
00000040: 7acc b3bf 9037 a53b d448 0dc0 c737 0e3e
00000050: 6736 1c40 8a0a 903f 69e9 20be 062c 91be
00000060: 5bb1 10bf c12e d63f 898f 4d3d 32a8 373f
00000070: 7cb0 513d 05f7 96be 0c38 bcbd 98cd d43e
00000080: c7a7 e1be c980 c63d f792 90bf 64cd 0d3f
00000090: 489a f3bf 2835 1ec0 3464 dd3d 6785 83bf
000000a0: bf13 1540 5a3a ba3f f69b 8ebf 4884 fdbf
000000b0: 4827 7dbf 3e5f a03f 3612 cabe ce8d 00c0
000000c0: 3a38 80bf 8d63 e1be 5d3f 3cbf 78a5 533f
000000d0: 306a c8bd 5278 2240 b00c 893e 53c0 9abf
000000e0: ff8b 953f d687 3bbf db7d d5be db9b debd
000000f0: 6f95 003e 1bc8 2340 ce8b 25bf 81ed 4a3d
00000100: 4a1b 203f baaa 5e3f 2064 d63e cbb9 9f3f
00000110: ffca 92bf 37e3 f83e 9e28 da3e 3d4c 7cbd
00000120: ac02 003e 3e1f 873f 80a6 a8bf 9ecc 4e3e
00000130: 30fe 55bf b184 45bf c1a9 61bf d0e8 9c3f
00000140: f131 6b3c 2e53 7ebf ec3f 4fbe 10e6 c13e
00000150: fc95 393f 411f 123f c360 fbbe d5ab 69bd
00000160: 9b58 473e 6907 b13f c15e 7c3f 9418 d9bf
00000170: d96b 5d3f e25b 81be 5498 3ebe b6f6 87bf
00000180: e410 fd3f b427 0040 34f0 a2bf c089 863e
00000190: d544 b7be b896 2fbf 5264 313e f1de eabe
000001a0: 0386 333f 7a5a 7b3f 03a2 8d3f b997 d63e
000001b0: af9d d73f d148 e8be 2e3f 933e ee73 513f
000001c0: b543 323d b006 4e3f 63bc a2be b8ce b23f
000001d0: bf52 903f 42d0 883e 8244 b33f 9f86 a43d
000001e0: b6d7 573f bf90 9c3e de51 9d3f 8dcb 053f
000001f0: de15 afbe 4745 d03e f4e3 873e 7e5d df3e
00000200: 968e ad3f e594 ddbe cb45 9fbf 79e5 2dbf
00000210: 30c5 3fc0 7d01 7dbf 05b0 e3bf 95c4 a63f
00000220: 3fb4 3d3f fc89 32bf be33 683d 1e4e 683f
00000230: 0001 8a3c 6040 7abf 75de 6cbf 43ea c03e
00000240: 0308 c93f d2c1 6a3f d834 063d 733d 5dbe
00000250: 7da8 b73e 8ae4 91bf e3a7 c23f 9e64 0e3e
00000260: 19c4 a33d 5912 cb3f c138 7a3f ca9a 593f
00000270: 4f7c cf3f 1b0f a23f fab9 45bf bb65 813f
00000280: 5415 cd3c 7378 84bf af51 f93f 65f5 a03f
00000290: 7458 3abf 8086 e13e d964 d3bf 9250 66bc
000002a0: ae41 13bf b023 52bf 20a9 a43f a10f 11c0
000002b0: 8afb 523f c299 b8be 3993 a9bf 194a 353f
000002c0: 2a4d 6c3f 0e9e 8cbf bba2 303f 8668 b9bd
000002d0: 2a77 1a3f bdfd eebe e2ea 053f 652a d83e
000002e0: 3c39 ed3e 3faa 1ebe 63ed ea3d 8bbc 27bf
000002f0: c350 df3f 0e72 4e3f 33d3 48be 6ff8 0cbf
00000300: 0151 923e 8741 aabf 392e e13d a6e5 b9bf
00000310: 9a30 123b ebfb b73e 088b 353e be6e 37bf
00000320: 6ca9 f3be d590 0dbe a44b 65bd 474c df3f
00000330: c5f0 3ebf 52bc 0b3f 5b21 f0bf 863d 01bf
00000340: bead aa3f f6e2 50bf 88e3 20c0 100f 43bf
00000350: c689 6bbd 42bb 0ac0 7c9b 7dbf 4698 ecbf
00000360: 06a2 bebf 73ef 86bf e3a6 26c0 4e54 033e
00000370: 9026 cf3f 5db7 efbe a710 933f 5899 993f
00000380: 5149 a8bf f774 4fbf 5671 423f fd89 2d3f
00000390: f3bb c3bf 4fb7 b1bf ddd6 6dbe fe96 c2be
000003a0: 55dd 1ebf f5cc bbbf b65e 2ebf bf5a f93f
000003b0: 8ce1 d93e 175a 123f 0b60 443f 31ef 0c3e
000003c0: 8c29 8a3e a7d6 743e 4f64 36be cfb9 dabf
000003d0: b9b2 83bf 7d47 b23e 35a1 8dbe e962 04be
000003e0: 666e 97bf cc8b c3be 262b 7c3d ace3 6bbf
000003f0: 012d bf3e 58dd acbf d80c 37bd e175 50bf

1.layers.0.0.bias f4 [80]
-0.021985225 -0.06041645 -0.038723845 -0.039354008 -0.028297156 -0.0018081063 -0.059433475 0.02329153
0.012951449 -0.11986358 -0.046885587 -0.0784902 -0.024977759 0.011383282 -0.03623904 -0.052673668
-0.045441568 -0.027773622 -0.020879237 0.036882717 -0.06159891 0.011146482 -0.06376704 0.01232596
0.0056377063 -0.04796053 -0.12743397 -0.053597566 -0.0450497 -0.07235812 -0.04568354 -0.063792855
-0.015703706 -0.018544579 -0.016246207 -0.02142015 -0.06861745 -0.0099452 0.0044407374 -6.0675684e-05
-0.046874065 -0.07785461 -0.02740939 -0.012287428 0.0071925973 -0.09039599 -0.0011904712 0.0073988037
-0.06121997 -0.10096027 -0.058047052 -0.059538968 -0.05983494 -0.024336543 -0.04582742 -0.03644601
0.021021197 -0.05240961 -0.06379477 -0.020650214 -0.031619217 -0.023564676 -0.012716037 -0.029471828
-0.08254563 -0.007409317 0.013466309 -0.006107418 -0.08742458 -0.06695467 -0.06566046 -0.079359956
-0.025869183 0.01244103 -0.052520797 -0.07531041 -0.06315854 -0.019951707 -0.06367389 -0.048744585
00000000: 5c1a b4bc 3d77 77bd e59c 1ebd ab31 21bd
00000010: 70cf e7bc fbfd ecba 8470 73bd e1cd be3c
00000020: 5032 543c 097b f5bd 1a0b 40bd 78bf a0bd
00000030: 289e ccbc f280 3a3c 636f 14bd 58c0 57bd
00000040: f020 3abd 8285 e3bc ef0a abbc 5512 173d
00000050: 234f 7cbd bc9f 363c 4b98 82bd d3f2 493c
00000060: 82bc b83b 4372 44bd 0d7e 02be 1f89 5bbd
00000070: 0986 38bd 7e30 94bd aa1e 3bbd d4a5 82bd
00000080: 0fa5 80bc cdea 97bc c416 85bc 4f79 afbc
00000090: 4e87 8cbd 31f1 22bc 9b83 913b 057e 7eb8
000000a0: 05ff 3fbd 3d72 9fbd a889 e0bc 3551 49bc
000000b0: e1af eb3b 8821 b9bd 9609 9cba aa71 f23b
000000c0: cbc1 7abd 42c4 cebd bfc2 6dbd 22df 73bd
000000d0: 7b15 75bd 6e5d c7bc 88b5 3bbd 6948 15bd
000000e0: a534 ac3c 76ab 56bd d5a6 82bd a32a a9bc
000000f0: 2783 01bd b50a c1bc ed56 50bc e76e f1bc
00000100: af0d a9bd dbc9 f2bb cba1 5c3c bc20 c8bb
00000110: a80b b3bd 881f 89bd fe78 86bd 7987 a2bd
00000120: 9ceb d3bc 76d5 4b3c 0c20 57bd 583c 9abd
00000130: 4459 81bd c371 a3bc 7567 82bd 67a8 47bd

1.layers.0.0.weight f4 [80, 80]
-0.7090651 0.04332461 -0.43926638 -0.54225844 -0.04692763 -0.24682893 -0.09578112 -0.17601435
-0.019169662 0.2164719 0.08491211 0.29442418 0.035524838 -0.06915759 -0.050357625 -0.14665627
0.19412667 -0.13510089 -0.22624403 -0.2738224 0.2052946 0.30233568 -0.07154589 0.17426981
0.0122541925 0.20145322 -0.33612326 -0.0051861005 0.17852281 -0.05251256 0.11443485 0.091158725
-0.07165109 0.3196444 0.08069316 0.0974251 -0.06837937 -0.06640394 0.15409969 -0.023878718
-0.41791654 0.23051544 0.22156966 -0.02426638 -0.09102098 -0.26117447 0.13350919 -0.25552753
0.026548373 -0.13669169 -0.0134637775 0.29468337 -0.13990656 -0.07939829 0.116232276 0.043577198
-0.3205571 -0.17627642 -0.1811296 0.18450546 0.019409915 -0.0028363424 -0.23784448 0.06207067
0.035622604 0.12811154 0.06763242 -0.18947773 0.31132522 -0.25206363 0.20188211 -0.16842185
-0.07676103 0.044811793 0.25729632 -0.020624172 -0.1074899 -0.12400521 -0.013660581 -0.038175173
-0.40326348 -0.25990593 0.4707696 0.118066095 0.0417041 0.2557232 -0.0636155 0.043853413
-0.09305974 0.14329393 -0.0444185 0.24619226 0.09370993 0.05535843 0.07806297 0.24068783
-0.039690014 -0.030679593 -0.118847035 0.23544396 0.18769132 -0.07992291 -0.12679832 0.21697651
-0.40575278 -0.039778616 0.22351004 -0.00066508615 0.4689618 0.50685686 0.37562832 -0.114780754
0.20411064 -0.18403776 0.22629721 0.14033423 -0.07356358 0.09009267 0.087082595 0.20558791
0.09899885 0.044963334 0.5176437 0.10358779 0.14159313 -0.038797274 -0.18491787 0.040579166
0.22297318 -0.06564575 -0.113868594 -0.0028295044 -0.2698266 -0.07331691 0.051669467 -0.038738385
-0.13228506 0.12339305 0.10217218 -0.1457947 -0.21694791 -0.22335695 -0.3018963 0.0015473017
0.10643757 0.1355036 0.029209016 0.0052081128 -0.15131555 -0.16711982 -0.056047842 -0.09491326
0.17120261 -0.19146663 0.14670585 -0.048631415 -0.15114067 -0.3637003 0.1341166 -0.20165528
0.045334205 -0.03875472 -0.38252655 0.17886503 -0.24059714 -0.43800756 0.24799684 -0.4407986
0.16035259 0.03330797 -0.1289949 0.040633693 0.2942202 -0.021061406 0.23369035 -0.058759443
0.1592854 -0.04097627 0.16193494 -0.18697873 0.114874154 0.05825194 -0.1678074 -0.12745859
0.15229878 0.09477377 -0.43949398 0.12099848 -0.021803971 -0.20115039 -0.14649178 -0.10561912
-0.014916683 -0.05906086 0.08697882 0.124838516 -0.18812066 -0.0980173 -0.02902307 0.020376205
-0.24408925 0.08468008 0.13678397 0.0044486285 0.01885498 0.3323136 0.105205886 0.13745862
0.19793522 0.19905128 0.020804457 -0.06594936 -0.18484643 -0.121536136 -0.20340715 -0.0022958228
0.0014401247 -0.24610303 0.30187207 -0.0034541956 0.07255452 0.1596518 -0.32644635 0.05394835
0.09988581 0.07299768 0.09540287 -0.10689403 0.023177223 -0.12425159 0.18741958 0.089634515
0.021913806 -0.09787588 -0.009456808 0.0322886 -0.006924669 -0.1080784 0.030359205 0.03843122
0.1460458 -0.4326254 -0.07501354 -0.19000661 0.27171186 0.042201184 0.44783995 -0.13760519
0.44317085 -0.4129717 0.026539456 -0.00866846 0.31153286 -0.012612318 0.07035508 0.095587574
00000000: 4a85 35bf 2575 313d 86e7 e0be 73d1 0abf
00000010: 3037 40bd b9c0 7cbe e428 c4bd 1b3d 34be
00000020: b209 9dbc cfaa 5d3e 66e6 ad3d c4be 963e
00000030: 7e82 113d 7fa2 8dbd cc43 4ebd 102d 16be
00000040: 24c9 463e e357 0abe 84ac 67be 7332 8cbe
00000050: bf38 523e becb 9a3e a786 92bd c973 323e
00000060: cfc5 483c c149 4e3e 5918 acbe 2af0 a9bb
00000070: afce 363e 6917 57bd d25c ea3d 6db1 ba3d
00000080: cfbd 92bd 6ea8 a33e 7542 a53d d086 c73d
00000090: 7c0a 8cbd cafe 87bd 4fcc 1d3e 4d9d c3bc
000000a0: 28f9 d5be 3d0c 6c3e 28e3 623e 4aca c6bc
000000b0: 3569 babd a9b8 85be a2b6 083e 81d4 82be
000000c0: f97b d93c e8f8 0bbe 2d97 5cbc bde0 963e
000000d0: aa43 0fbe 929b a2bd 300b ee3d 017e 323d
000000e0: 0f20 a4be ce81 34be 0a7a 39be 00ef 3c3e
000000f0: 8b01 9f3c eee1 39bb 818d 73be d13d 7e3d
00000100: 02e9 113d ac2f 033e de82 8a3d 7306 42be
00000110: 0566 9f3e 7c0e 81be 2fba 4e3e c776 2cbe
00000120: e334 9dbd 928c 373d 58bc 833e 06f4 a8bc
00000130: aa23 dcbd 72f6 fdbd a1d0 5fbc 925d 1cbd
00000140: 8d78 cebe 6412 85be b708 f13e a3cc f13d
00000150: ebd1 2a3d 27ee 823e d848 82bd a39f 333d
00000160: 1b96 bebd a5bb 123e 2cf0 35bd d319 7c3e
00000170: feea bf3d 85bf 623d 7adf 9f3d df76 763e
00000180: ff91 22bd c553 fbbc 1366 f3bd 3918 713e
00000190: 2732 403e 9fae a3bd 6bd7 01be 172f 5e3e
000001a0: d4be cfbe e7ee 22bd d1df 643e 2d59 2eba
000001b0: c31b f03e 5fc1 013f 5b52 c03e 2c12 ebbd
000001c0: 6102 513e 6574 3cbe 75ba 673e c7b3 0f3e
000001d0: 81a8 96bd 8182 b83d 5c58 b23d a385 523e
000001e0: e9bf ca3d 792b 383d 4c84 043f d625 d43d
000001f0: cafd 103e e4e9 1ebd 1c5b 3dbe 5736 263d
00000200: 1553 643e 4771 86bd f033 e9bd 356f 39bb
00000210: b626 8abe 2d27 96bd 5da3 533d 24ac 1ebd
00000220: bc75 07be 7fb5 fc3d a63f d13d 354b 15be
00000230: 9827 5ebe afb7 64be 2792 9abe d4ce ca3a
00000240: f1fb d93d 75c1 0a3e bf47 ef3c d1a8 aa3b
00000250: 77f2 1abe 7521 2bbe 6c92 65bd e261 c2bd
00000260: bd4f 2f3e d40f 44be 0f3a 163e bc31 47bd
00000270: 9fc4 1abe ed36 babe dd55 093e b97e 4ebe
00000280: 5cb0 393d 45bd 1ebd 85da c3be 6528 373e
00000290: 195f 76be 8742 e0be e2f2 7d3e 5bb0 e1be
000002a0: 7833 243e f06d 083d 3d17 04be 846f 263d
000002b0: 08a4 963e f888 acbc 864c 6f3e bead 70bd
000002c0: b61b 233e bcd6 27bd 46d2 253e 5a77 3fbe
000002d0: 2443 eb3d 9699 6e3d b4d5 2bbe 8184 02be
000002e0: 36f4 1b3e c018 c23d 5b05 e1be 0dce f73d
000002f0: 3e9e b2bc 5efa 4dbe f101 16be d64e d8bd
00000300: 1a65 74bc cde9 71bd f421 b23d 56ab ff3d
00000310: b4a2 40be 4bbd c8bd cac1 edbc 00ec a63c
00000320: 88f2 79be c06c ad3d 1911 0c3e cdc5 913b
00000330: c275 9a3c 0225 aa3e 2f76 d73d f4c1 0c3e
00000340: 88af 4a3e 19d4 4b3e 1c6e aa3c 7510 87bd
00000350: 6248 3dbe f0e7 f8bd f749 50be 8475 16bb
00000360: 91c2 bc3a 6f02 7cbe fa8e 9a3e c95f 62bb
00000370: 7797 943d c37b 233e fa23 a7be f2f8 5c3d
00000380: ee90 cc3d cf7f 953d 9462 c33d 42eb dabd
00000390: 29de bd3c 9e77 febd ebea 3f3e 4d92 b73d
000003a0: 9584 b33c 2673 c8bd baf0 1abc 0d41 043d
000003b0: 55e8 e2bb 3558 ddbd deb3 f83c 0e6a 1d3d
000003c0: 088d 153e 1481 ddbe b3a0 99bd 1891 42be
000003d0: d11d 8b3e 26db 2c3d 474b e53e 60e8 0cbe
000003e0: 4ae7 e23e 0771 d3be 4669 d93c 2806 0ebc
000003f0: 3c81 9f3e e5a3 4ebc 5316 903d 6bc3 c33d

1.layers.1.0.bias f4 [80]
-0.049903028 -0.035580404 -0.0072022476 -0.0110937515 0.0092622135 0.007601492 -0.040177356 -0.07874568
-0.02616063 -0.014329942 -0.017235978 -0.012836323 -0.018007658 -0.075747505 -0.03224929 -0.07009662
-0.03475744 -0.024263332 -0.0035026765 -0.024799187 -0.06728262 -0.06243077 -0.057310954 -0.05642041
-0.050765514 -0.0379367 -0.03066002 -0.030445246 -0.036721367 -0.040373553 -0.020625306 -0.012869479
-0.0361419 -0.044610538 -0.03325336 -0.07422786 0.0014407695 -0.030098872 0.01631004 -0.025638513
-0.027982678 -0.046156578 -0.029047396 -0.06424169 -0.052570343 -0.077956125 -0.06540715 -0.05160055
-0.041227277 -0.03298333 -0.026111608 -0.06743024 -0.06215438 -0.022818763 -0.054083794 -0.00951076
-0.082382746 -0.008730014 -0.019794391 -0.037854128 -0.064181544 -0.054587547 -0.045520216 0.008861754
-0.023080988 -0.06102979 -0.008167864 -0.018467732 -0.052514296 -0.048148435 -0.101793736 -0.062675
-0.011730342 -0.06801234 -0.074874505 -0.073188 -0.02325189 -0.01445975 0.0004211227 -0.06648001
00000000: 1e67 4cbd c2bc 11bd d500 ecbb 91c2 35bc
00000010: 8ac0 173c f015 f93b 0391 24bd 6a45 a1bd
00000020: d14e d6bc 22c8 6abc 7732 8dbc 714f 52bc
00000030: cc84 93bc 8221 9bbd d517 04bd d18e 8fbd
00000040: d15d 0ebd e5c3 c6bc 298d 65bb aa27 cbbc
00000050: 78cb 89bd 68b7 7fbd e4be 6abd 1619 67bd
00000060: 80ef 4fbd 8363 1bbd b92a fbbc 4f68 f9bc
00000070: 2569 16bd bd5e 25bd 67f6 a8bc 82da 52bc
00000080: 8709 14bd 8ab9 36bd ad34 08bd c704 98bd
00000090: 34d8 bc3a e991 f6bc a29c 853c dc07 d2bc
000000a0: ee3b e5bc ae0e 3dbd cef4 edbc 2691 83bd
000000b0: 0054 57bd 76a7 9fbd 2ff4 85bd 195b 53bd
000000c0: efdd 28bd 8719 07bd 03e8 d5bc de18 8abd
000000d0: 9795 7ebd 6aee babc f886 5dbd 05d3 1bbc
000000e0: 49b8 a8bd 5508 0fbc d927 a2bc ee0c 1bbd
000000f0: 9d71 83bd 3197 5fbd 6873 3abd e430 113c
00000100: 5714 bdbc 60fa 79bd 81d2 05bc a449 97bc
00000110: 3b19 57bd 4b37 45bd 3c79 d0bd c05b 80bd
00000120: 9f30 40bc 0e4a 8bbd ce57 99bd 97e3 95bd
00000130: bf7a bebc 96e8 6cbc 22ca dc39 ac26 88bd

1.layers.1.0.weight f4 [80, 160]
0.040856145 -0.017432015 -0.0640173 -0.12318089 -0.039199676 0.020501593 0.16914962 -0.119372554
0.24364763 -0.059227698 -0.027548645 -0.2721464 -0.11781132 0.19892931 -0.14257005 -0.07975921
-0.004127431 0.031108953 0.11591882 0.057503738 0.034697637 -0.033447802 0.0019465793 -0.00014527248
-0.19376414 -0.057372242 -0.020633675 -0.046239275 0.03634131 -0.020684287 0.0008269275 -0.14212427
-0.2270704 0.11054095 -0.16431685 0.004669393 -0.17151558 0.042236753 0.041751653 -0.16582152
0.051686775 0.055485576 0.08320605 -0.23782669 -0.13991496 0.2256705 -0.0023435438 -0.0063106488
-0.048953563 -0.027750352 -0.016971858 0.07951142 -0.21157378 -0.052923102 0.1625488 -0.0405332
0.1427154 -0.16527261 -0.13723317 0.00585121 0.23013762 0.09236927 -0.008720432 0.1653345
-0.115550965 -0.0004098909 -0.049285986 -0.017357498 0.04045458 0.16643824 -0.11325869 -0.09743735
-0.023425708 -0.017812964 0.10431069 -0.21795197 -0.11698736 -0.12983733 -0.0022622952 -0.094335
-0.25764787 -0.11966372 0.19143659 -0.06991565 -0.38305682 -0.07473484 0.1947755 -0.147941
-0.23620628 0.007838676 0.35039333 0.16283044 0.045882836 -0.18825908 -0.27347028 -0.0070409994
-0.012034585 0.003968151 -0.005397691 -0.10874024 -0.0144990655 -0.04016586 0.005921708 0.057210874
0.07136989 -0.0908849 -0.1674232 -0.10390812 -0.0050727148 -0.042086933 0.14408286 -0.30010024
-0.19437931 -0.29461673 -0.04792625 0.12297663 -0.092531316 0.09783021 -0.078708574 0.12821852
-0.07592757 -0.35875177 -0.0031664323 -0.08556358 -0.20695682 0.09533677 -0.040401768 -0.01129188
-0.09059168 0.16613747 -0.044916585 -0.13917229 -0.0927215 -0.060046066 -0.0021620004 -0.08181285
-0.015217123 0.16817829 -0.008993937 -0.06186543 0.004653212 0.06102561 -0.008404328 0.08234433
-0.106750056 -0.041661948 0.15622483 -0.067395575 0.2182862 -0.10525283 -0.11866683 -0.074617475
0.07368362 -0.22665597 0.020749107 -0.06319006 -0.032197997 -0.14967883 -0.009592582 0.016504012
-0.06811359 -0.04379019 0.104782194 0.10577952 -0.08988153 -0.11065949 -0.12698029 -0.0049240044
0.14333773 -0.15566209 0.06797565 -0.06407057 -0.08329597 0.038282257 0.04422396 -0.07610804
-0.22699164 -0.024982186 -0.054456744 -0.09029578 0.008426628 0.06167664 -0.0090490505 0.009854302
0.14624035 0.048522543 0.0052254186 0.056979343 0.11138834 -0.0077156695 -0.014382584 0.23507991
0.0127042355 0.0035032844 -0.12355827 0.042993356 -0.200161 -0.10664956 -0.0026788511 -0.10490937
-0.18203874 0.103871845 0.14311701 -0.033613637 0.025741402 -0.081721894 -0.089913145 -0.08225464
-0.003354943 0.061300293 0.16611356 -0.21151473 0.032811824 0.101678535 -0.01819685 -0.11725428
-0.07158983 0.058979586 -0.03267187 -0.11957743 -0.23402116 -0.13121343 -0.045296315 0.26218793
-0.00095465465 -0.0032872437 -0.07378354 0.18925059 -0.00817422 0.23720479 0.09772451 0.14439191
0.08213864 0.015154261 0.09832165 -0.052975245 -0.005561996 -0.2114588 -0.07863904 -0.01830364
-0.028837072 0.06000932 0.16054866 0.05065061 0.103286736 0.08587299 -0.031447392 0.004668828
0.08257354 0.007846177 0.21186084 -0.06926521 0.06232147 -0.20710585 0.21602687 -0.13935758
00000000: c658 273d 96cd 8ebc 811b 83bd 4346 fcbd
00000010: d78f 20bd f5f2 a73c 8f35 2d3e 9979 f4bd
00000020: c47e 793e be98 72bd b2ad e1bc c656 8bbe
00000030: 1047 f1bd 20b4 4b3e e2fd 11be cc58 a3bd
00000040: 673f 87bb 34d8 fe3c d966 ed3d 0a89 6b3d
00000050: 1c1f 0e3d 9000 09bd 5d24 ff3a 4954 18b9
00000060: 1b6a 46be 28ff 6abd f407 a9bc 6565 3dbd
00000070: a0da 143d 1872 a9bc 2ac6 583a 0689 11be
00000080: 2585 68be 4b63 e23d ad42 28be b501 993b
00000090: c8a1 2fbe 7200 2d3d c803 2b3d 1ecd 29be
000000a0: 83b5 533d d844 633d ef67 aa3d d788 73be
000000b0: de45 0fbe 2b16 673e 2496 19bb 8fc9 cebb
000000c0: 8883 48bd b554 e3bc 9108 8bbc e2d6 a23d
000000d0: cca6 58be e5c5 58bd 3173 263e 2406 26bd
000000e0: fc23 123e 393d 29be da86 0cbe 82bb bf3b
000000f0: 32a9 6b3e 1a2c bd3d 25e0 0ebc 724d 293e
00000100: fca5 ecbd a0e6 d6b9 1ae0 49bd 5031 8ebc
00000110: b4b3 253d c96e 2a3e 2cf4 e7bd 3c8d c7bd
00000120: 45e7 bfbc 7eec 91bc d8a0 d53d cd2e 5fbe
00000130: 1297 efbd 14f4 04be 0443 14bb b532 c1bd
00000140: 6cea 83be 4112 f5bd f407 443e f02f 8fbd
00000150: 0620 c4be 940e 99bd 3b73 473e d87d 17be
00000160: 0fe0 71be ca6d 003c c166 b33e 06bd 263e
00000170: a4ef 3b3d fdc6 40be 4c04 8cbe 2fb8 e6bb
00000180: b52c 45bc 4307 823b 1ddf b0bb 34b3 debd
00000190: 7d8d 6dbc f584 24bd e30a c23b f355 6a3d
000001a0: 602a 923d dd21 babd fd70 2bbe c8cd d4bd
000001b0: 0439 a6bb 5963 2cbd 758a 133e bda6 99be
000001c0: 5f0b 47be 01d8 96be 514e 44bd 2cdb fb3d
000001d0: 0f81 bdbd 355b c83d f631 a1bd b74b 033e
000001e0: ea7f 9bbd 50ae b7be eb83 4fbb f53b afbd
000001f0: 7dec 53be ed3f c33d 537c 25bd 9401 39bc
00000200: 2188 b9bd f11f 2a3e 74fa 37bd 2e83 0ebe
00000210: c5e4 bdbd ddf2 75bd 59b0 0dbb 7f8d a7bd
00000220: 3d51 79bc ee36 2c3e 4e5b 13bc 9b66 7dbd
00000230: f979 983b fdf5 793d 4eb2 09bc 25a4 a83d
00000240: c69f dabd b8a5 2abd 67f9 1f3e b106 8abd
00000250: 6b86 5f3e cc8e d7bd 9807 f3bd 0cd1 98bd
00000260: 70e7 963d 8118 68be 08fa a93c ca69 81bd
00000270: 0ce2 03bd 6845 19be 342a 1dbc 6c33 873c
00000280: 237f 8bbd 585d 33bd 0c98 d63d efa2 d83d
00000290: cf13 b8bd 71a1 e2bd 1f07 02be 8b59 a1bb
000002a0: 20c7 123e e265 1fbe d136 8b3d 6e37 83bd
000002b0: 1497 aabd dbcd 1c3d 2f24 353d 88de 9bbd
000002c0: 7f70 68be 71a7 ccbc 090e 5fbd feec b8bd
000002d0: d70f 0a3c a5a0 7c3d 7842 14bc f073 213c
000002e0: 08c0 153e 93bf 463d fd39 ab3b 2c63 693d
000002f0: 921f e43d bad3 fcbb eea4 6bbc cab8 703e
00000300: 6d25 503c 5c97 653b 1e0c fdbd cd19 303d
00000310: 01f7 4cbe 166b dabd aa8f 2fbb b9da d6bd
00000320: 5d68 3abe c3ba d43d 448d 123e 74ae 09bd
00000330: a2df d23c cf5d a7bd 6224 b8bd 1f75 a8bd
00000340: 9ade 5bbb 0416 7b3d ac19 2a3e 5197 58be
00000350: b165 063d d63c d03d 8f11 95bc 0323 f0bd
00000360: b09d 92bd 9494 713d f0d2 05bd 03e5 f4bd
00000370: 3ea3 6fbe d05c 06be a188 39bd 7f3d 863e
00000380: ca41 7aba cc6e 57bb d31b 97bd e8ca 413e
00000390: 2aed 05bc d0e5 723e ca23 c83d 79db 133e
000003a0: 4e38 a83d 9449 783c dc5c c93d 92fc 58bd
000003b0: 6741 b6bb a888 58be 810d a1bd 84f1 95bc
000003c0: b93b ecbc 55cc 753d de66 243e 0477 4f3d
000003d0: ff87 d33d 2ede af3d fbce 00bd f8fc 983b
000003e0: 511c a93d 408d 003c 0cf2 583e ebda 8dbd
000003f0: cc44 7f3d 8e13 54be 2636 5d3e c1b3 0ebe

1.layers.2.0.bias f4 [80]
-0.04208572 -0.06431276 -0.05850371 -0.027897676 -0.048775185 -0.03432956 -0.045362916 -0.025365816
-0.017106758 -0.07571674 -0.028949723 -0.0145007325 -0.013206732 -0.05699138 -0.05721205 -0.018012356
-0.048780102 -0.0047972766 -0.06922074 -0.04810449 -0.03685744 -0.06913565 -0.046159822 -0.09043566
-0.045768604 -0.03938476 -0.042389583 -0.07203615 -0.061549615 -0.009113286 -0.0061252895 -0.01665892
-0.020487493 -0.043417264 -0.051644586 -0.039891783 -0.068274505 -0.050664596 -0.013248031 -0.00500742
-0.017621536 -0.012864843 -0.047640644 -0.026926737 0.0010180201 -0.059595957 -0.052615337 -0.020368818
-0.038445532 -0.02638046 -0.031925153 -0.011900022 -0.06624473 -0.07122858 -0.058185928 -0.02158369
-0.026575014 -0.01090318 -0.04019986 -0.030145474 -0.02509359 -0.049210913 -0.09061217 -0.034565546
-0.045442186 -0.031639714 -0.031610914 -0.01468306 -0.00071988534 -0.006981959 -0.043615226 -0.025175357
-0.017267736 -0.024102177 -0.042261817 -0.009180844 -0.06315049 -0.04813006 0.004626915 -0.025744366
00000000: 1362 2cbd 69b6 83bd 96a1 6fbd ab89 e4bc
00000010: 7dc8 47bd 279d 0cbd 77ce 39bd f9cb cfbc
00000020: 7923 8cbc 6111 9bbd f827 edbc 7b94 6dbc
00000030: 0d61 58bc cb6f 69bd 2f57 6abd a68e 93bc
00000040: a5cd 47bd 7932 9dbb 9ac3 8dbd 3709 45bd
00000050: d4f7 16bd fe96 8dbd 1512 3dbd 5536 b9bd
00000060: dc77 3bbd ea51 21bd b3a0 2dbd b087 93bd
00000070: 731b 7cbd e44f 15bc a7b6 c8bb 4a78 88bc
00000080: 63d5 a7bc 4dd6 31bd 4689 53bd 9165 23bd
00000090: 81d3 8bbd ae85 4fbd 450e 59bc 4915 a4bb
000000a0: 0a5b 90bc 10c7 52bc d622 43bd 7695 dcbc
000000b0: 166f 853a e41a 74bd 2e83 57bd 82dc a6bc
000000c0: 1079 1dbd d61b d8bc f3c3 02bd 4ff8 42bc
000000d0: 51ab 87bd 4ae0 91bd 5e54 6ebd 47d0 b0bc
000000e0: d8b3 d9bc 40a3 32bc 9ca8 24bd a4f3 f6bc
000000f0: 1391 cdbc 6291 49bd e092 b9bd 9a94 0dbd
00000100: 9621 3abd a598 01bd 727a 01bd 3891 70bc
00000110: b0b6 3cba ebc8 e4bb e1a5 32bd 8d3c cebc
00000120: 1175 8dbc ee71 c5bc ba1a 2dbd 406b 16bc
00000130: 0b55 81bd 0724 45bd 609d 973b d9e5 d2bc

1.layers.2.0.weight f4 [80, 240]
0.12015838 -0.12952308 -0.07016987 -0.06733981 0.009861713 0.05129864 -0.06604855 -0.0260955
0.11427098 0.03723219 -0.09218039 0.05221556 -0.11399411 0.0050831405 0.06220856 -0.1455205
-0.08491366 -0.07830196 -0.12765747 0.07572945 0.04566889 0.04695358 0.17086568 0.056212064
-0.0819036 0.01938986 -0.058613345 0.134844 0.008651143 -0.01067763 -0.025560599 0.094070375
-0.0018977124 -0.036777675 0.06729032 0.048084162 0.0345113 -0.1130632 0.048010197 -0.03756151
0.053161994 0.1533614 0.06868646 -0.04583495 -0.03871157 -0.025360823 -0.15722248 -0.08299529
-0.12827173 0.18673651 -0.032907877 -0.00026106686 0.15190466 -0.11265449 -0.1706184 -0.14860582
-0.061821286 -0.05943097 0.05324195 0.15088683 0.17185998 -0.0077006216 -0.002512758 -0.10069287
0.028213494 0.0989957 -0.0695567 -0.17248026 0.0028179698 -0.04832784 0.067961305 0.044116925
-0.0048442674 -0.112584636 -0.024614608 -0.0050407653 0.12337009 0.004201931 -0.09514613 -0.04616034
-0.014453271 0.067987315 0.019767642 0.0005168304 -0.14323793 -0.1013338 0.0039203335 -0.031351794
-0.13906682 0.0141149545 -0.10317509 -0.016855055 -0.14193787 0.021612382 -0.09511704 0.20207246
0.060470693 -0.28216895 -0.06193218 0.0051351376 -0.17075838 -0.01034269 0.0384061 -0.19511165
0.04593343 0.07592519 -0.024197122 0.052651 0.08563913 0.26583555 0.018950814 -0.00705258
-0.17544533 0.07797109 -0.25104263 0.0054330598 -0.029740028 0.053118862 -0.13666052 0.023987366
-0.11521251 -0.026436359 -0.22406028 0.11507171 0.04122797 -0.005221997 0.063264824 0.12423465
0.18902567 0.17815506 -0.09084406 -0.110478334 -0.19934641 -0.1308248 -0.17457493 -0.0048888144
-0.15701404 0.016599027 0.1512293 -0.098736085 0.14249392 0.023880847 0.06607171 -0.042423535
0.1831469 -0.045804467 -0.14157628 -0.008796882 -0.113411754 -0.061085615 -0.03718282 0.18681404
-0.103891134 -0.12455829 -0.02763382 0.0936253 -0.13559945 -0.3408583 0.011192696 0.18892868
0.026658233 -0.031192146 0.07386733 0.047462724 0.13042279 0.06576329 0.0019056511 0.08412748
0.14519936 0.016196135 0.019961849 -0.050228678 -0.10081639 0.07058497 0.22701348 -0.22306181
-0.03529861 -0.02272807 -0.13718604 0.14123294 0.06323946 -0.2993704 0.043907676 0.09930692
-0.17693292 0.1552374 0.19591914 0.030383615 0.019999288 0.00834453 0.0905765 0.18144485
0.08157588 0.041541006 0.06071315 -0.06316684 0.024023822 -0.028757658 -0.0439198 -0.21050538
0.14847551 -0.13979784 0.0357975 -0.18584403 -0.08664532 -0.13285853 -0.016226176 0.016128363
0.041948732 0.009109746 -0.0776592 -0.15281437 0.018625546 -0.08996027 -0.051611956 0.062505625
0.1014167 -0.1929639 0.014129902 -0.022688786 -0.0589795 0.08300008 0.022682099 0.023723263
-0.17899477 -0.028288819 0.08698863 -0.018242218 -0.026091618 0.09396359 -0.033924397 -0.094206125
0.1399442 -0.056050945 -0.08407847 0.04058707 -0.0434293 0.12674451 0.19992518 -0.0557604
-0.12780726 0.037029844 -0.020775612 0.043543458 0.10261541 -0.2187686 -0.11361188 -0.042202257
0.11644444 0.033886224 -0.06973671 -0.0043724994 -0.009093342 -0.0045252764 0.12757139 0.14917593
00000000: 9915 f63d b3a1 04be 39b5 8fbd 74e9 89bd
00000010: 0693 213c 861e 523d 7644 87bd 3bc6 d5bc
00000020: e706 ea3d c880 183d 13c9 bcbd fcdf 553d
00000030: be75 e9bd 7990 a63b 67ce 7e3d 5303 15be
00000040: 37e7 adbd c75c a0bd a4b8 02be 0b18 9b3d
00000050: 4d0f 3b3d 6652 403d 6af7 2e3e 9f3e 663d
00000060: 13bd a7bd 7cd7 9e3c 8c14 70bd 8c14 0a3e
00000070: 86bd 0d3c 3af1 2ebc 7664 d1bc f8a7 c03d
00000080: a9bc f8ba 30a4 16bd 82cf 893d e6f3 443d
00000090: b95b 0d3d ae8d e7bd 57a6 443d 19da 19bd
000000a0: 64c0 593d c50a 1d3e 7dab 8c3d 6ebd 3bbd
000000b0: 0690 1ebd 80c1 cfbc eefe 20be 6ff9 a9bd
000000c0: aa59 03be db37 3f3e 69ca 06bd cddf 88b9
000000d0: e58c 1b3e 66b7 e6bd 97b6 2ebe 202c 18be
000000e0: 5138 7dbd e46d 73bd 3b14 5a3d 1482 1a3e
000000f0: 10fc 2f3e 7f55 fcbb 15ad 24bb 1038 cebd
00000100: fc1f e73c 42be ca3d be73 8ebd aa9e 30be
00000110: b0ad 383b 6af3 45bd 4c2f 8b3d f3b3 343d
00000120: a9bc 9ebb c692 e6bd 93a4 c9bc 012d a5bb
00000130: 75a9 fc3d 5ab0 893b f9db c2bd a012 3dbd
00000140: 6acd 6cbc ef3c 8b3d c0ef a13c e77b 073a
00000150: f7ac 12be 1888 cfbd 2476 803b bd6a 00bd
00000160: 8867 0ebe 6942 673c 764d d3bd 9d13 8abc
00000170: 2958 11be 730c b13c b9cc c2bd 15ec 4e3e
00000180: 1eb0 773d 7378 90be 99ac 7dbd a844 a83b
00000190: 49db 2ebe 6374 29bc b74f 1d3d 59cb 47be
000001a0: b124 3c3d aa7e 9b3d 0b39 c6bc 93a8 573d
000001b0: 9163 af3d 991b 883e bd3e 9b3c 5419 e7bb
000001c0: f1a7 33be 4faf 9f3d a988 80be cf07 b23b
000001d0: 5ca1 f3bc 2a93 593d bcf0 0bbe 2781 c43c
000001e0: 89f4 ebbd 1091 d8bc 0f70 65be b7aa eb3d
000001f0: a9de 283d 491d abbb fd90 813d bc6e fe3d
00000200: f28f 413e 486e 363e 730c babd 7742 e2bd
00000210: 7721 4cbe f0f6 05be c5c3 32be 5932 a0bb
00000220: 4ac8 20be affa 873c dbdb 1a3e 2536 cabd
00000230: ede9 113e c4a1 c33c 9b50 873d 4dc4 2dbd
00000240: dc8a 3b3e 779d 3bbd 5ff9 10be cc20 10bc
00000250: 6c44 e8bd e934 7abd 034d 18bd 2e4c 3f3e
00000260: e0c4 d4bd 6b18 ffbd 5260 e2bc 9fbe bf3d
00000270: 95da 0abe fb84 aebe 9261 373c 8576 413e
00000280: 5e62 da3c ac86 ffbc c147 973d 4668 423d
00000290: 8d8d 053e e7ae 863d 0ac7 f93a 074b ac3d
000002a0: 24af 143e c2ad 843c 0887 a33c 96bc 4dbd
000002b0: d378 cebd da8e 903d 3976 683e 516a 64be
000002c0: 4695 10bd 3830 babc 7f7a 0cbe 5e9f 103e
000002d0: b183 813d 1447 99be 89d8 333d 6d61 cb3d
000002e0: e72d 35be 8ef6 1e3e 079f 483e 0fe7 f83c
000002f0: 8cd5 a33c 7fb7 083c 2c80 b93d aecc 393e
00000300: 4111 a73d e726 2a3d 5aae 783d 9e5d 81bd
00000310: 9bcd c43c 2e95 ebbc 40e5 33bd b98e 57be
00000320: f709 183e 2a27 0fbe 66a0 123d e64d 3ebe
00000330: 1a73 b1bd 110c 08be c2ec 84bc a11f 843c
00000340: 6fd2 2b3d 0b41 153c c90b 9fbd 5f7b 1cbe
00000350: 9a94 983c 173d b8bd 0f67 53bd f302 803d
00000360: 8fb3 cf3d 5498 45be 1b81 673c d5dd b9bc
00000370: 7d94 71bd f2fb a93d cfcf b93c 4a57 c23c
00000380: 684a 37be f4bd e7bc 1827 b23d b470 95bc
00000390: 17be d5bc fc6f c03d 4ff4 0abd 24ef c0bd
000003a0: 884d 0f3e ad95 65bd 5531 acbd a13e 263d
000003b0: ece2 31bd 50c9 013e 30b9 4c3e 0465 64bd
000003c0: e8df 02be 9bac 173d 9e31 aabc a05a 323d
000003d0: 0728 d23d e004 60be 58ad e8bd 46dc 2cbd
000003e0: 6c7a ee3d 48cc 0a3d 1fd2 8ebd 2f47 8fbb
000003f0: 3efc 14bc c548 94bb 13a2 023e 93c1 183e

1.layers.3.0.bias f4 [80]
-0.062512584 -0.029460337 -0.04184958 -0.03923071 -0.08071494 -0.020274514 -0.047798898 -0.048963983
0.006711993 -0.05499242 -0.06682042 -0.031966675 -0.029309558 -0.008502571 -0.049848285 -0.035826616
-0.036126267 -0.040869154 -0.015528125 -0.025599055 -0.028561521 -0.017172722 -0.03202524 -0.03959622
-0.022934148 -0.044604648 -0.022153115 -0.053518184 -0.01183719 -0.03887204 -0.022280075 -0.07001577
-0.036136992 -0.051240902 -0.062365733 -0.028122043 -0.04748814 -0.010078759 -0.042786796 0.01065177
-0.030378282 -0.03870352 -0.021187834 -0.031339414 -0.036631532 -0.021014474 -0.060051117 -0.023458643
-0.025335973 -0.019928286 -0.015503419 -0.036140747 -0.04930835 -0.049331766 -0.06650424 -0.06703085
-0.049229145 -0.09051997 -0.02220086 -0.030245448 -0.029281579 -0.029772894 -0.053519454 -0.030155892
-0.03207569 -0.044116937 -0.02259994 -0.051342577 -0.01266006 -0.02320301 -0.017618803 -0.019598842
-0.025389818 0.014697096 -0.04350204 -0.018572442 -0.009675183 0.007563864 -0.034129106 -0.035786405
00000000: 9906 80bd ce56 f1bc 776a 2bbd 62b0 20bd
00000010: e04d a5bd bd16 a6bc c7c8 43bd 758e 48bd
00000020: 47f0 db3b bb3f 61bd 25d9 88bd 7def 02bd
00000030: 991a f0bc 5e4e 0bbc b72d 4cbd eebe 12bd
00000040: 23f9 13bd 6a66 27bd ad69 7ebc 1cb5 d1bc
00000050: daf9 e9bc cfad 8cbc e62c 03bd a52f 22bd
00000060: 65e0 bbbc 5db3 36bd 737a b5bc e235 5bbd
00000070: c6f0 41bc 4a38 1fbd b484 b6bc 6e64 8fbd
00000080: 6204 14bd fbe1 51bd 3673 7fbd 3360 e6bc
00000090: ed82 42bd 6121 25bc 3541 2fbd c384 2e3c
000000a0: e0db f8bc 9587 1ebd 1c92 adbc c25d 00bd
000000b0: f20a 16bd 8c26 acbc 29f8 75bd 572c c0bc
000000c0: 638d cfbc a540 a3bc 0d02 7ebc 5208 14bd
000000d0: 8df7 49bd 1b10 4abd 6033 88bd 7847 89bd
000000e0: 80a4 49bd 8962 b9bd 94de b5bc 4dc5 f7bc
000000f0: ecdf efbc 49e6 f3bc 3737 5bbd 7d09 f7bc
00000100: cc61 03bd f6b3 34bd 8223 b9bc 984c 52bd
00000110: 246c 4fbc 3d14 bebc 4f55 90bc c08d a0bc
00000120: 4ffe cfbc 17cc 703c 322f 32bd 3c25 98bc
00000130: a984 1ebc 4ada f73b f6ca 0bbd c494 12bd

1.layers.3.0.weight f4 [80, 320]
-0.004563096 -0.057858724 -0.04451599 0.11806304 0.09952661 -0.022498455 -0.0025027634 0.007838292
-0.043763388 -0.01890608 -0.19506733 -0.0047568767 0.018299917 -0.026127871 0.1820398 -0.06806586
0.027206184 0.07180142 -0.03422439 -0.062154297 0.08997224 -0.0046957266 0.08268326 -0.019326411
0.017539317 0.0012958932 0.093987316 0.07311765 0.14086191 -0.05006381 -0.119576365 -0.05990339
0.014688479 -0.025376853 0.062087733 0.110758096 -0.073037095 -0.07547914 -0.06842592 -0.10553599
0.11714799 0.06755833 -0.020869706 -0.13198058 0.04723527 -0.017318703 -0.04185571 -0.06002977
0.09407911 0.03695149 0.027699744 -0.07293664 0.12138031 0.012627462 -0.03472812 -0.10366848
0.09459271 -0.06419726 0.084463894 -0.09627439 -0.005365605 0.10804502 -0.11561621 -0.01186808
-0.0044851233 0.1395007 0.18291195 -0.089177236 -0.0668739 0.040227447 -0.04198871 0.02467618
-0.024763314 -0.026595784 0.046591166 -0.045285445 0.0060903304 -0.023603039 -0.03950872 -0.0020539714
0.059812404 -0.014378413 -0.017549038 0.07471709 0.024584142 0.002471766 0.07678654 -0.017643185
-0.032053344 0.05524419 0.1838904 0.052813943 -0.04535059 -0.010156082 0.03073158 -0.060985155
-0.051185742 -0.040817253 0.045996815 -0.09360214 -0.033981368 0.05654083 0.06473689 0.01493081
0.039568163 0.011136691 0.07005387 -0.12844284 0.14210965 -0.05963958 -0.013430621 -0.03684236
-0.20392841 0.032351132 0.13762817 0.026021602 0.028947465 -0.017552394 -0.18187203 0.007842575
0.14892408 -0.08832249 0.0682902 -0.08382027 0.041562226 -0.17375094 0.05361524 -0.19602707
0.002626572 -0.034190863 0.061385497 0.0023013232 -0.055184685 0.025085766 0.043829992 -0.059270974
0.08807498 0.016589886 -0.039827608 0.066572554 -0.08168543 -0.013448348 0.09277567 -0.017398134
-0.02707183 0.043225393 -0.120902866 -0.054785598 0.0741472 -0.014352079 -0.0037625767 -0.061854646
-0.09349289 -0.0668467 0.008582128 0.15211155 -0.016043238 -0.107301034 -0.07681455 0.028286254
0.073610626 -0.03224773 -0.112930916 -0.15847519 0.059009157 -0.057857044 -0.0064143757 0.14973508
0.14120696 -0.04918345 -0.07623095 0.07253207 0.0078200465 -0.14789431 0.027022075 0.004110841
-0.22215866 -0.09473506 0.1037047 0.0126847755 0.0029839152 -0.016913764 0.030555608 0.06387441
0.17979126 0.017588655 -0.20608492 0.038895518 -0.18375762 -0.14273076 0.17223659 -0.04275421
-0.15135661 -0.034693822 -0.035431378 -0.074235745 -0.17110999 -0.019548526 0.024630394 0.010328682
0.14925422 0.022022536 0.016247896 -0.022258075 0.12517811 -0.056059152 0.09261456 0.0060641435
0.014116803 0.005316566 -0.11709643 -0.133783 -0.09312525 0.03760711 -0.118055046 -0.093386754
0.01719092 0.013923285 0.00069786527 0.12667468 0.23591976 -0.0008112565 -0.059335444 -0.08733439
-0.05084832 0.11091835 -0.13094684 0.047388792 0.03949253 0.11377959 -0.071112975 -0.0943174
-0.07535733 0.10929106 -0.03533674 0.063563935 0.042232845 -0.13057263 -0.025203286 -0.044055056
0.13532235 -0.0070637516 -0.13244252 -0.06586274 -0.0130447745 0.16640694 -0.081226036 -0.04771931
0.20783937 -0.28112125 -0.06552092 -0.22226389 -0.23227356 -0.09112566 0.14430109 -0.057381235
00000000: 0686 95bb 45fd 6cbd 6656 36bd 09cb f13d
00000010: 9bd4 cb3d ae4e b8bc 6705 24bb 2e6c 003c
00000020: 3d41 33bd ece0 9abc bbbf 47be 93df 9bbb
00000030: b5e9 953c 1e0a d6bc a468 3a3e 1d66 8bbd
00000040: 81df de3c 9f0c 933d e02e 0cbd 8195 7ebd
00000050: 5e43 b83d 9cde 99bb d755 a93d 6c52 9ebc
00000060: 9dae 8f3c f6da a93a 6c7c c03d b5be 953d
00000070: 1b3e 103e b60f 4dbd 74e4 f4bd 425d 75bd
00000080: f2a7 703c 1ee3 cfbc b54f 7e3d 24d5 e23d
00000090: 7994 95bd cf94 9abd e422 8cbd 4123 d8bd
000000a0: 49eb ef3d 065c 8a3d f2f6 aabc eb25 07be
000000b0: c579 413d f4df 8dbc e570 2bbd c7e1 75bd
000000c0: 8cac c03d 725a 173d 93ea e23c ce5f 95bd
000000d0: 3d96 f83d 6ae3 4e3c 133f 0ebd 2450 d4bd
000000e0: d3b9 c13d da79 83bd 68fb ac3d 822b c5bd
000000f0: f5d1 afbb b546 dd3d 31c8 ecbd 5672 42bc
00000100: f1f7 92bb 46d9 0e3e 454d 3b3e 8ea2 b6bd
00000110: 2ff5 88bd 89c5 243d 5bfc 2bbd b325 ca3c
00000120: 6fdc cabc 67df d9bc 61d6 3e3d 3b7d 39bd
00000130: 6591 c73b 295b c1bc e5d3 21bd ec9b 06bb
00000140: dafd 743d 6f93 6bbc 00c3 8fbc 4605 993d
00000150: af64 c93c 5afd 213b 4342 9d3d 7188 90bc
00000160: 5e4a 03bd bb47 623d c44d 3c3e 6f53 583d
00000170: 8ac1 39bd b265 26bc cbc0 fb3c 92cb 79bd
00000180: 24a8 51bd fe2f 27bd 2867 3c3d 7bb2 bfbd
00000190: 0c30 0bbd 5b97 673d c694 843d 5ba0 743c
000001a0: 3a12 223d ab76 363c 6778 8f3d 8586 03be
000001b0: 3185 113e a248 74bd 1b0c 5cbc 04e8 16bd
000001c0: 9cd2 50be 9f82 043d 66ee 0c3e 412b d53c
000001d0: 3c23 ed3c 0aca 8fbc a93c 3abe 257e 003c
000001e0: 8e7f 183e 6ce2 b4bd bbdb 8b3d f6a9 abbd
000001f0: 273d 2a3d c4eb 31be a79b 5b3d 52bb 48be
00000200: 9122 2c3b b80b 0cbd 5c6f 7b3d ccd1 163b
00000210: 5609 62bd aa80 cd3c 1487 333d 1fc6 72bd
00000220: a860 b43d 83e7 873c 4622 23bd 3157 883d
00000230: b14a a7bd 7656 5cbc 2c01 be3d 8886 8ebc
00000240: bec5 ddbc 1c0d 313d ec9b f7bd dd66 60bd
00000250: 7dda 973d fb24 6bbc 9095 76bb 4c5b 7dbd
00000260: 3379 bfbd ece6 88bd 0e9c 0c3c 21c3 1b3e
00000270: 1c6d 83bc a5c0 dbbd f250 9dbd 93b8 e73c
00000280: 2bc1 963d 3216 04bd 5348 e7bd 5247 22be
00000290: 96b3 713d 82fb 6cbd af2f d2bb 2754 193e
000002a0: 8f98 103e 9674 49bd f91e 9cbd b28b 943d
000002b0: a71f 003c 9b71 17be 665d dd3c 3cb4 863b
000002c0: 8f7d 63be 7504 c2bd 2163 d43d ced3 4f3c
000002d0: ca8d 433b bc8e 8abc c14f fa3c 96d0 823d
000002e0: 331b 383e 1516 903c ed07 53be e850 1f3d
000002f0: f52a 3cbe 0328 12be ca5e 303e 0a1f 2fbd
00000300: 3afd 1abe 1c1b 0ebd 7e20 11bd e908 98bd
00000310: 7537 2fbe 3b24 a0bc aec5 c93c a239 293c
00000320: 19d6 183e 9b68 b43c 4f1a 853c 9156 b6bc
00000330: b12e 003e 489e 65bd b4ac bd3d b9b5 c63b
00000340: 2a4a 673c 9736 ae3b 41d0 efbd 69fe 08be
00000350: 73b8 bebd ea09 1a3d d8c6 f1bd 8e41 bfbd
00000360: f9d3 8c3c 7d1e 643c f2f0 363a 02b7 013e
00000370: f394 713e 81aa 54ba b909 73bd 5fdc b2bd
00000380: 5446 50bd 2929 e33d ee16 06be c01a 423d
00000390: ebc2 213d 4605 e93d aea3 91bd 7b29 c1bd
000003a0: f254 9abd fed3 df3d 42bd 10bd cf2d 823d
000003b0: 59fc 2c3d d5b4 05be 1f77 cebc 1373 34bd
000003c0: f191 0a3e 0b77 e7bb 039f 07be 0be3 86bd
000003d0: c0b9 55bc 9566 2a3e d659 a6bd 5375 43bd
000003e0: d8d3 543e 20ef 8fbe d52f 86bd 2599 63be
000003f0: 1fd9 6dbe 17a0 babd aac3 133e 9608 6bbd

1.layers.4.0.bias f4 [80]
-0.048820443 -0.041257612 -0.023394972 -0.046199717 -0.036824387 -0.024694173 -0.037346754 -0.016862549
-0.047576383 -0.01805934 -0.0078973 -0.02043913 -0.027557703 -0.023279246 -0.017473798 -0.02072327
-0.051894464 -0.0619602 -0.03614383 0.012401039 -0.05041306 -0.046205807 -0.022545494 -0.011825605
-0.008603181 -0.08006859 -0.023106016 -0.01699045 -0.021047672 -0.056641627 -0.007210907 -0.027510755
-0.026111873 -0.04135721 -0.04811886 -0.029731229 -0.044960435 -0.038130388 -0.03161051 -0.0013900474
-0.011682978 -0.037150823 -0.018469453 -0.04653946 -0.021330358 -0.028304005 -0.045007925 -0.00068717916
-0.040948406 -0.012348959 -0.05534464 -0.02002027 -0.03460785 -0.04698999 -0.0077503882 -0.027062064
-0.020773437 -0.05596383 -0.009287881 -0.01701755 -0.020014966 -0.03048091 -0.06062723 -0.044969387
-0.035029154 -0.03889434 -0.058199696 -0.027246714 -0.010144648 -0.047311082 -0.041335296 -0.042228837
-0.04608838 -0.007087526 -0.07404547 -0.030447217 0.0016777613 -0.0056205285 -0.0016428115 -0.010998905
00000000: f2f7 47bd befd 28bd d0a6 bfbc ea3b 3dbd
00000010: 2bd5 16bd 6f4b cabc e9f8 18bd 5423 8abc
00000020: 74df 42bd 2ef1 93bc ad63 01bc f66f a7bc
00000030: b1c0 e1bc 1eb4 bebc 3625 8fbc d9c3 a9bc
00000040: 4a8f 54bd fbc9 7dbd 8d0b 14bd ba2d 4b3c
00000050: ed7d 4ebd 4d42 3dbd 54b1 b8bc 2fc0 41bc
00000060: 5bf4 0cbc 00fb a3bd d448 bdbc 8e2f 8bbc
00000070: 2b6c acbc 0d01 68bd 7949 ecbb 3c5e e1bc
00000080: 91e8 d5bc 2e66 29bd 4818 45bd e88e f3bc
00000090: 6f28 38bd 9c2e 1cbd 067a 01bd 4032 b6ba
000000a0: f669 3fbc 762b 18bd 404d 97bc 29a0 3ebd
000000b0: 01bd aebc cddd e7bc 3b5a 38bd d023 34ba
000000c0: 84b9 27bd 4a53 4abc 10b1 62bd 8d01 a4bc
000000d0: f6c0 0dbd 9378 40bd f8f6 fdbb 43b1 ddbc
000000e0: 0e2d aabc 543a 65bd 322c 18bc 6468 8bbc
000000f0: 6df6 a3bc 1ab3 f9bc 4254 78bd d231 38bd
00000100: bb7a 0fbd ac4f 1fbd ce62 6ebd 8034 dfbc
00000110: bd35 26bc 44c9 41bd 334f 29bd 25f8 2cbd
00000120: 2bc7 3cbd 7a3e e8bb 27a5 97bd 716c f9bc
00000130: 54e8 db3a 692c b8bb 9b53 d7ba c034 34bc

1.layers.4.0.weight f4 [80, 400]
-0.029555295 -0.014756165 0.0151796425 0.011980687 0.023879603 0.14361481 0.0692647 0.05266124
-0.050227933 -0.13458276 -0.18552878 0.003599436 -0.03631742 -0.11557134 -0.013364853 -0.030320678
0.04667708 -0.01807797 0.07603501 0.20758364 -0.095934436 -0.08030786 -0.018347364 -0.04162988
0.014454937 -0.0059010014 0.009762208 -0.01819316 0.052570444 -0.117279686 0.027966373 0.046008606
-0.03637417 -0.0052889055 0.017094135 -0.04342091 -0.06709238 -0.022890298 -0.037273813 0.094471425
0.030385727 -0.03520954 -0.07005472 -0.036971044 -0.0014008174 0.02699294 0.16730744 0.048407853
-0.023275116 0.10956593 -0.044084184 -0.12696315 0.07776766 0.107618906 -0.11343143 -0.08589676
0.017968515 0.008021924 0.039425235 0.025500359 -0.03394909 0.16168234 0.021560062 0.038513217
-0.06886117 -0.03287714 -0.014161951 0.0044449465 -0.057364043 -0.0559296 -0.1416982 0.03643557
0.035125222 0.09812598 0.100672215 0.011988517 -0.14276972 0.04563383 0.05844974 -0.020267166
-0.0067711906 -0.07473436 -0.15007584 -0.02209208 0.11897111 0.09925502 -0.049547646 -0.09790438
-0.0046180226 -0.026701149 0.037627116 -0.08002911 0.048491366 0.003909626 0.08341948 -0.09631743
-0.008876136 -0.059556235 -0.0895885 -0.021692952 0.1179937 -0.10673587 -0.061103318 0.018889008
0.100995 -0.106997415 -0.117388256 -0.045705546 0.0062866593 0.015911162 0.026469385 0.14542593
-0.04921036 -0.023971649 -0.04591503 -0.109872565 0.10968184 0.049911704 -0.07332743 -0.040444724
-0.063941024 0.026516762 0.0738061 -0.02270929 -0.052359175 -0.11831945 -0.1088344 -0.010327638
-0.15672068 0.058645815 0.037381414 0.0115576405 0.118013844 -0.06686328 -0.10171217 -0.054683343
-0.119272254 -0.0070338747 0.06258251 0.09494029 0.14915316 -0.1856172 0.018056262 -0.07309973
0.05518893 0.012341245 0.12097865 0.038021386 0.0053749643 0.002672125 -0.048856653 0.023035264
-0.020689571 0.007914003 -0.11615102 0.08167342 -0.019406527 -0.0011612703 -0.0905165 -0.12909254
0.10052159 -0.030025674 0.070236474 -0.083661124 -0.05125661 -0.08472999 -0.10064088 0.08185519
-0.11283108 0.001338561 -0.03032739 -0.21208645 -0.17598802 0.04459 -0.027390828 0.13921605
-0.00022592068 -0.04754754 -0.02660447 -0.012265455 -0.103388116 -0.08313386 0.0013958312 -0.04049911
-0.14785782 -0.12421004 -0.07366708 0.043256868 0.013763031 -0.055010702 -0.09852662 -0.12249839
-0.18017083 0.04580387 0.14518923 0.13460435 0.058077212 0.11316334 -0.044279024 -0.066519186
0.09837708 0.08505828 0.10619093 -0.033254262 -0.1352687 -0.11967121 0.14114417 -0.12407036
-0.13484566 0.040222377 -0.20436755 -0.028904062 0.093274385 0.046692245 -0.047641568 -0.002199452
-0.031765606 -0.047652617 -0.050181463 0.10220138 -0.010440176 0.008569262 -0.06543845 -0.03048869
-0.059418272 -0.052143764 0.09415704 0.008713571 -0.024397172 -0.066729434 -0.047420695 -0.008043774
0.032839756 -0.010866672 -0.13151039 -0.009671844 0.05441023 -0.075626574 -0.12047081 0.113479935
0.105286546 -0.0029924416 0.056780085 -0.1280257 0.03264795 -0.07155468 0.036431834 -0.01207928
-0.06315279 -0.16666993 0.08695373 -0.12075776 -0.05894223 0.08742944 -0.10241491 -0.10000646
00000000: f21d f2bc d8c3 71bc 09b4 783c a54a 443c
00000010: 289f c33c c30f 133e a7da 8d3d 50b3 573d
00000020: cebb 4dbd 10d0 09be 42fb 3dbe 84e4 6b3b
00000030: 93c1 14bd abb0 ecbd 42f8 5abc 1263 f8bc
00000040: 7730 3f3d 4018 94bc 3eb8 9b3d ce90 543e
00000050: 4679 c4bd 7378 a4bd 364d 96bc 1884 2abd
00000060: 66d4 6c3c 305d c1bb abf1 1f3c d209 95bc
00000070: 1b54 573d 5530 f0bd bc19 e53c 8573 3c3d
00000080: 15fd 14bd 8e4e adbb 0009 8c3c 20da 31bd
00000090: bb67 89bd 6f84 bbbc 6dac 18bd 3c7a c13d
000000a0: 7deb f83c e137 10bd d978 8fbd f36e 17bd
000000b0: a29b b7ba 4c20 dd3c a452 2b3e 5047 463d
000000c0: 75ab bebc 1a64 e03d 9e91 34bd a102 02be
000000d0: a744 9f3d 4d67 dc3d bd4e e8bd a4ea afbd
000000e0: b532 933c 636e 033c 5b7c 213d 21e6 d03c
000000f0: 330e 0bbd 0e90 253e ba9e b03c 09c0 1d3d
00000100: 1607 8dbd 2eaa 06bd 8707 68bc eaa6 913b
00000110: 8ff6 6abd 7016 65bd 5519 11be 773d 153d
00000120: 77df 0f3d 46f6 c83d 3c2d ce3d 7c6b 443c
00000130: 3a32 12be 8aea 3a3d ff68 6f3d 5407 a6bc
00000140: dde0 ddbb 540e 99bd 7bad 19be 73fa b4bc
00000150: 20a7 f33d 3746 cb3d 79f2 4abd 1782 c8bd
00000160: c852 97bb 5ebc dabc e41e 1a3d 4de6 a3bd
00000170: e29e 463d 521c 803b d5d7 aa3d 1342 c5bd
00000180: 366d 11bc 3df1 73bd 2d7a b7bd 6bb5 b1bc
00000190: aea6 f13d 5698 dabd 7947 7abd 1fbd 9a3c
000001a0: 77d6 ce3d 7621 dbbd 4169 f0bd bd35 3bbd
000001b0: 5200 ce3b 2058 823c 53d6 d83c 89ea 143e
000001c0: cd90 49bd 3160 c4bc 6611 3cbd de04 e1bd
000001d0: dfa0 e03d 3770 4c3d b12c 96bd 5ea9 25bd
000001e0: 83f3 82bd ae39 d93c a727 973d d508 babc
000001f0: 9376 56bd 7851 f2bd 92e4 debd 4135 29bc
00000200: 637b 20be 9836 703d 411d 193d 425c 3d3c
00000210: 3eb1 f13d 9eef 88bd 784e d0bd a4fb 5fbd
00000220: 0345 f4bd 6b7c e6bb 422b 803d 0e70 c23d
00000230: 9bbb 183e 6f12 3ebe baea 933c 50b5 95bd
00000240: ca0d 623d ef32 4a3c a8c3 f73d 50bc 1b3d
00000250: 7820 b03b d11e 2f3b ea1d 48bd 73b4 bc3c
00000260: 2d7d a9bc bca9 013c 96e0 edbd 6544 a73d
00000270: 70fa 9ebc c435 98ba b760 b9bd d630 04be
00000280: 43de cd3d 67f8 f5bc 24d8 8f3d 8656 abbd
00000290: 73f2 51bd eb86 adbd ce1c cebd b2a3 a73d
000002a0: fb13 e7bd a772 af3a 2671 f8bc 312d 59be
000002b0: 3436 34be 01a4 363d bb62 e0bc a78e 0e3e
000002c0: 1fe5 6cb9 36c1 42bd 9ef1 d9bc 0cf5 48bc
000002d0: 26bd d3bd 1642 aabd 53f4 b63a 65e2 25bd
000002e0: 0a68 17be d561 febd c4de 96bd 1d2e 313d
000002f0: 567e 613c e752 61bd 53c8 c9bd 70e0 fabd
00000300: b47e 38be d79c 3b3d 7cac 143e b9d5 093e
00000310: 5fe2 6d3d 2ec2 e73d ec5d 35bd 363b 88bd
00000320: ec79 c93d 0933 ae3d a17a d93d 9f35 08bd
00000330: e183 0abe 2e16 f5bd 1988 103e 9a18 febd
00000340: fb14 0abe 38c0 243d ba45 51be 36c8 ecbc
00000350: a406 bf3d 5e40 3f3d ce23 43bd ae24 10bb
00000360: a71c 02bd 642f 43bd 148b 4dbd f54e d13d
00000370: 460d 2bbc 1766 0c3c 9804 86bd 6bc3 f9bc
00000380: 9360 73bd b394 55bd 68d5 c03d 5ec3 0e3c
00000390: 94dc c7bc 71a9 88bd 343c 42bd 09ca 03bc
000003a0: fb82 063d 200a 32bc a9aa 06be a776 1ebc
000003b0: 43dd 5e3d 1be2 9abd 66b9 f6bd 2b68 e83d
000003c0: 79a0 d73d d71c 44bb 3c92 683d 2b19 03be
000003d0: dbb9 053d 438b 92bd 8c39 153d 2ce8 45bc
000003e0: 4056 81bd 86ab 2abe cc14 b23d d84f f7bd
000003f0: 686d 71bd 350e b33d e9be d1bd 30d0 ccbd
