DNNWeightsDefault/model_0/ensemble_0/zz_bbtt_5.onnx (onnx, 947112 bytes, 19 tensors)

0.embeds.0.weight f4 [2, 1]
00000000: 18fe 9f3e d69e 5f3f
0.31248546 0.8735174

0.embeds.1.weight f4 [3, 2]
00000000: 5ce4 293f 002c 5fbf 393d fbbe 8bd1 b43f
00000010: fc66 c9bf 27c9 d8be
0.66364074 -0.87176514 -0.49070147 1.4126447 -1.5734553 -0.42340967

0.embeds.2.weight f4 [2, 1]
00000000: f4e0 c93d c96f d2bf
0.098573595 -1.6440364

0.embeds.3.weight f4 [5, 3]
00000000: ee99 d73f fcc6 383f 5d33 adbf 8566 163f
00000010: 548d 46bf eae5 cc3e 3bcd debf 996c 453f
00000020: cc22 b43e 8d95 2abf 072c cf3f f10a 74bf
00000030: a1f4 f13e ff8c 14bf f7d5 a0bf
1.6843851 0.72178626 -1.35313 0.5875018 -0.775594 0.4001916 -1.7406381 0.7711883
0.35182798 -0.66634446 1.6185311 -0.95329195 0.4725695 -0.5802764 -1.2565297

0.embeds.4.weight f4 [5, 3]
00000000: 5a15 c0be e3c7 b73f 6007 bfbe 8791 22be
00000010: 0b19 013f 3771 613f bb62 14be 0dfb c93d
00000020: 96e8 1a3d 0d6e d7bf 9f20 4e3e e5fb 05bf
00000030: 938b 9ebf ea10 c3bf 9bfd 0ebf
-0.3751629 1.4357876 -0.37310314 -0.15875827 0.5042884 0.8806338 -0.14490788 0.09862337
0.037819467 -1.683046 0.20129631 -0.52337486 -1.2386345 -1.5239537 -0.5585572

0.embeds.5.weight f4 [2019, 50]
00000000: 3e33 ffbd 0abd febe c5ad 463e 8a0c 3fbf
00000010: e9a4 573e db79 01c0 1129 eabf d268 aabe
00000020: 39fe 7fbd 4507 ba3f e733 743f 8ea8 0cbf
00000030: c0f5 363d 6e8d 973e 232b 57bf a55c b13e
00000040: 470e 4c3e 26be 63bf d2aa 5dbf 283d 3ebf
00000050: 221e b3bf 7400 583f 2a66 82bd 21c0 02c0
00000060: a219 43bc 0233 7bbf ce6d fdbd fe71 debe
00000070: 333a ab3e 29cf 87bf 7eb3 0fbe 0f11 63bf
00000080: 3fcd 5dbf 92b7 ccbf 943c 7e3e bd4c 993f
00000090: 8ed2 1e3e cc01 02bf deb7 f5be d102 1c3f
000000a0: f329 9bbe cdda 0d3e 89a5 0abe 04fd 5a3e
000000b0: fa19 a3bf e08a e4be 47d7 733f 5a39 263f
000000c0: e2fd 003f 48de a0bd 94bc 79be 33e6 b1bf
000000d0: f840 563f 9ce9 e13f 1821 413f 6acb 6fbe
000000e0: 93c6 cebe fc4f b1be c0ca 18c0 ef6e f63f
000000f0: 6d84 4b3f c334 9ebf 1d17 793f 029c f6bd
00000100: 90c5 273f ca00 15be b3ac ef3f ac71 80be
00000110: f6a3 2bbe fb30 8ebf 6328 ab3f eb58 f83d
00000120: b7f7 f53d e221 14bf d4f1 bebf a431 ed3e
00000130: 1b6d 4d3e a265 64bf 2409 22c0 0b77 083f
00000140: 7b12 0440 1df8 593b 7b44 01c0 b9e4 e6be
00000150: 883d 6a3f d958 18bf 9ef3 3c3f c798 cf3e
00000160: 3fa3 923f 3dd1 11be c122 debe ad78 bc3f
00000170: faf5 b3bf 9885 cf3e 6c97 ae3e c963 f6bc
00000180: 7670 c93f 1154 1e40 c3e9 a1be bc5e 0f3f
00000190: 51f4 0b3d c3c7 c7bf 5959 7fbf bec5 1d3f
000001a0: 74c7 e93f 753d 06bf 32f8 0c3f 1a70 303f
000001b0: 3698 74bf c082 953f bbbe dfbe 1f7c 893f
000001c0: 0b7e 713f fe7b 20bf 1c2d d1be 0a43 583f
000001d0: b906 9e3f b0c3 51bf bd6a 49c0 72f0 91bf
000001e0: c25e 4ebf a298 a53d 4643 89bd 17b8 8c3e
000001f0: d542 0a40 ad08 1c40 606c 263f 8649 113f
00000200: 6ae7 03bf 91e1 51bf 76e3 35bf b639 6bbf
00000210: cd2a 82bf 1c48 06bf 9893 3f3f a555 01c0
00000220: f86d 243f c7fd e23d 8ef6 15c0 32c9 c3be
00000230: edfb 893f cd3f d43e b207 84be e302 123f
00000240: dc6d 69be ec48 28be c189 d7bd abf8 7f3e
00000250: 637c aebd 9f5f edbe 7d85 e4bf b7ce 95bf
00000260: de00 ba3d c713 673f 132b 703e 8299 6dbf
00000270: 00d3 01be e4b3 2abf 993a 393f 376b 93be
00000280: a83b 87bd 7725 61bd b408 56bf d67a 9c3f
00000290: b81e 38bf c63f bf3d 28f2 8bbe 1ad8 0c40
000002a0: 6d0d 39bf 2db7 843f d28d 55bf e222 953e
000002b0: c5ab ebbf f90f ae3f 4a09 fa3f 3e41 12bf
000002c0: 9c73 5ebf e133 ddbe cc2e 7ebf 80aa 4ebe
000002d0: 1918 d33f fc1d 1e3f 28d9 203f fe8d c8be
000002e0: d8ad db3e a3f1 b3be 9beb a2bf 430e abbe
000002f0: f1e8 1abe 562b 6a3e 5ee0 ec3e 8570 b03f
00000300: 0ef9 0e3f c754 a0bf b90d 683f 42d2 063f
00000310: 63f8 783f fe07 b3be aede 8abe 1d45 87bf
00000320: 0e1e 8b3f 93e3 2bbe 7010 0bbd 26bd a1bf
00000330: fd7e c5bf f72e 24bf 3126 63bf ece8 853f
00000340: 0c1d a63d 7bcb 073f a990 82be cb10 cfbe
00000350: c889 9d3d aa7f 6d3f 8718 9c3f 60f1 c23f
00000360: 9e8d 8abf 0a93 f3be 795e 2840 2f4d 913f
00000370: 39be d43e 863f 1ec0 d154 2fc0 4f26 80bf
00000380: c75a 6fbf 9b96 233f 0c31 833f d5c5 373f
00000390: 39cd 3b3f f6a0 4a3f e833 c5be f865 9dbf
000003a0: 1119 70bd 63ff 96bd 37ed 44bf 0325 d73e
000003b0: aaf2 1c3e 5487 8dbf dfb5 d3be 75f2 183e
000003c0: 5797 aa3f 2623 fdbe a326 d33f d760 2c3f
000003d0: a36f aabf 1052 02bf d97e d2bf f2be bfbf
000003e0: 8f9e fe3f 88ec a03e c180 d9bf 94a6 0a3e
000003f0: fb62 753f 44b8 12bf ea5f 4c3d 5a05 b2bf
-0.124609455 -0.497536 0.19402225 -0.7462851 0.21059002 -2.0230625 -1.8293782 -0.33283097
-0.062498305 1.4533468 0.95391697 -0.54944694 0.04466796 0.2960009 -0.84050196 0.34640995
0.19927321 -0.8896202 -0.86588776 -0.7431207 -1.3993571 0.8437569 -0.063671425 -2.0429766
-0.011907967 -0.98124707 -0.12374459 -0.43446344 0.3344284 -1.0610095 -0.14033315 -0.88697904
-0.86641306 -1.5993521 0.24827796 1.1976544 0.15510008 -0.5078399 -0.47991842 0.609418
-0.30305442 0.13852997 -0.13539709 0.2138558 -1.2742302 -0.44637203 0.9525036 0.6493126
0.50387394 -0.07854897 -0.24388343 -1.3898376 0.83692884 1.7649417 0.7544112 -0.2341744
-0.40385875 -0.34631336 -2.3873749 1.9252604 0.7949894 -1.2359852 0.97300893 -0.12041475
0.6553583 -0.14551082 1.8724579 -0.25086725 -0.16761765 -1.1108698 1.33717 0.12126335
0.120101385 -0.578642 -1.491755 0.46326935 0.20061152 -0.8921758 -2.531808 0.53306645
2.063628 0.003325946 -2.0198047 -0.45096377 0.9150014 -0.5951057 0.7380923 0.40546247
1.1456069 -0.14239974 -0.4338589 1.4724327 -1.4059441 0.4053161 0.340999 -0.030076878
1.5737445 2.473881 -0.3162366 0.5600393 0.034168545 -1.5607837 -0.9974571 0.61629856
1.8263993 -0.52437526 0.55066216 0.68921053 -0.95544755 1.1680527 -0.43700203 1.0741004
0.9433295 -0.626892 -0.40854728 0.84477293 1.2345802 -0.8193922 -3.1471398 -1.1401503
-0.8061334 0.08085753 -0.067022845 0.274842 2.160329 2.4380295 0.6500912 0.5675281
-0.51524985 -0.8198481 -0.710502 -0.91884935 -1.0169312 -0.5245378 0.74834585 -2.0208523
0.642303 0.110835604 -2.3431735 -0.38239437 1.0780007 0.41454926 -0.2578712 0.57035655
-0.22795814 -0.16434067 -0.10524321 0.24997203 -0.08519819 -0.46362016 -1.7853237 -1.1703709
0.09082197 0.9026455 0.23453932 -0.9281236 -0.12678146 -0.6668074 0.7235504 -0.28792736
-0.066031754 -0.05496737 -0.8360703 1.2224987 -0.71921873 0.09338336 -0.27333188 2.2006898
-0.7228611 1.0368401 -0.83419526 0.29128176 -1.8411795 1.3598624 1.9534085 -0.571308
-0.86895156 -0.43203643 -0.99290156 -0.20182228 1.6491729 0.617645 0.62831354 -0.3917083
0.4290607 -0.35145292 -1.2728151 -0.33409318 -0.15127923 0.22868094 0.4626493 1.3784338
0.5584878 -1.2525872 0.9064594 0.5266458 0.9725401 -0.34967035 -0.27123016 -1.0567967
1.0868547 -0.16786031 -0.033951223 -1.2635849 -1.5429379 -0.6413416 -0.8873015 1.0461707
0.08111009 0.5304486 -0.25500992 -0.404425 0.07692295 0.92772925 1.2194985 1.5229912
-1.0824468 -0.4757312 2.6307662 1.135168 0.41551378 -2.4726272 -2.7395518 -1.0011691
-0.9349789 0.6390168 1.0249343 0.7178624 0.7336002 0.79151857 -0.38516164 -1.2296743
-0.058617655 -0.0737293 -0.7692446 0.42020425 0.15326944 -1.1056924 -0.41349694 0.1493624
1.3327435 -0.4944088 1.6496166 0.67335266 -1.3315319 -0.5090647 -1.6444961 -1.4980147
1.9892138 0.3143046 -1.6992418 0.13540107 0.9585416 -0.5731242 0.04989616 -1.3907883

1.layers.0.0.bias f4 [80]
00000000: c200 053c d0c8 dbbc df9e a8bd c31f 68bd
00000010: a63d 83bd f77d 7cbc 41c1 efbc 99ae c13b
00000020: a43d 1cbd cd9d 83bd 74d5 283c 4fbe 4bbd
00000030: ad40 62bd b30f 8ebc d6ea 713c 3fc5 57bd
00000040: e8e3 3ebc 92e7 3cbd e56c 46bd 4d64 debc
00000050: 32f1 1dbd 4385 73bd d694 a9bc 2326 94bd
00000060: b0e4 93bc 4dff cfbd 773f 87bd 6d6f 80bd
00000070: c518 07bd d985 a5bc e656 9dbc 3f18 39bd
00000080: b6f7 8ebd f716 b8bd e279 97bd 4132 eebc
00000090: 10f9 f8bc 6b21 dabc c28d 393c 534c 10bd
000000a0: 4e10 82bd 5128 7ebd 8a1f 2d3c c5ff 76bd
000000b0: 7842 c1bc ff8b 03bd 53c4 80bd 6706 05bd
000000c0: 8259 0cbd 78d9 4cbd 6171 45bd 7e06 82bd
000000d0: 9bbd 05bd c0b2 a5bc 78f1 9abc 7f23 bdbc
000000e0: ab6e a5bd af0f 9fbd 6119 6abd f330 2abd
000000f0: fd47 56bd 3307 a3bd 8250 6bbc f1a0 69bb
00000100: 092d 8cbd f6c0 32bd 2533 30bd 1fb4 32bd
00000110: 0f4a 17bc 8c0d 54bd e35e e1bb fa5a 78bd
00000120: 4097 963b 6f3a 9dbc 7241 1dbc 6d2b 3bbd
00000130: 6ce7 c3bc dcb2 51bd 79bd bebc 58f7 30bd
0.008117856 -0.026829153 -0.08233427 -0.056670915 -0.06408243 -0.015410892 -0.029266955 0.0059107062
-0.038144723 -0.064265825 0.010304797 -0.04974204 -0.05523746 -0.01734147 0.014765462 -0.052678343
-0.011651017 -0.04611928 -0.048443694 -0.027147437 -0.0385601 -0.05945326 -0.020700853 -0.072338365
-0.018053383 -0.10156117 -0.06603902 -0.06271253 -0.032982606 -0.020205425 -0.019206475 -0.04518914
-0.06980841 -0.08988755 -0.07396294 -0.029076697 -0.0303922 -0.026627263 0.011325302 -0.03522904
-0.06350766 -0.062050167 0.0105666015 -0.060302515 -0.023591265 -0.032115933 -0.06287446 -0.03247681
-0.03426505 -0.05001208 -0.04820383 -0.063488945 -0.032651525 -0.020226836 -0.01891397 -0.023088215
-0.08077749 -0.07766663 -0.05715311 -0.041550588 -0.052314747 -0.079603575 -0.014362456 -0.0035648907
-0.06844527 -0.043641053 -0.043017525 -0.043628808 -0.009233966 -0.05177073 -0.0068777665 -0.060633637
0.004595667 -0.019192902 -0.009598123 -0.04569571 -0.023914061 -0.051195964 -0.023283707 -0.043204635

1.layers.0.0.weight f4 [80, 80]
00000000: ccd6 1fbe fe56 39bc 2fed fe3d 9961 553e
00000010: b91b 5abd fc80 06bf 4efd dabd 996b 253e
00000020: 0237 413e 8b2b 22bd d2ff 5bbe 5bab 45be
00000030: 7771 afbb a6e0 053e 4854 86be 3271 a83d
00000040: 1b45 17bd a9c9 ad3d fe0b 4bbd 2a40 80bd
00000050: e284 833e 9775 543e 3f88 2f3d 77f5 3bbe
00000060: d494 90be 8d14 2fbe 2be1 9b3e b9a3 893d
00000070: c867 2fbd fd30 3f3e 180b cf3d 3540 1ebe
00000080: e869 9ebd 8dad 23bc 08b7 733c 133d 033e
00000090: 14a8 bebe 8971 293d 1a84 8cbe 5dab 683d
000000a0: cb71 8a3e ad1f 25be 3ab1 363e 929f e1bd
000000b0: 0f60 c03d e8c5 bcbd d628 843e d78e f2be
000000c0: 15b8 2f3e c0bf 183e ef06 993d 7aec a3bd
000000d0: 4f42 c8bd f5a3 1a3d ac7f adbe 524d de3d
000000e0: 73ff 83be d88f f43c 51c0 4dbe 3114 99bd
000000f0: cc4e bbbd 866f 30be 1649 933d 195e 83be
00000100: 495e 75be 15aa 03be 8fea 5cbe 13d0 1f3e
00000110: e6b0 ab3d 3941 033b cd18 2bbd 9c05 393e
00000120: cd58 83bd 1a7b f63d a6ff 9fbe 3848 1ebe
00000130: 3703 99ba 1a25 72bc 649f 77be c357 ad3c
00000140: f4f9 11bf f405 fe3d 5d70 9abe 684c 08bd
00000150: f73a a13e 0c29 013f c3f0 f4be ef44 4a3e
00000160: c01f 82bd 7f02 403d acf6 143d b685 903e
00000170: df12 ad3e 2bb6 b03d 71ca 8f3e adc7 7b3c
00000180: 03e3 89be 0b99 293e f730 023e 0392 b9be
00000190: ac39 913d bcbe 3f3d 9310 d93c 26a4 64bd
000001a0: 1b89 febd 85ea c9bd 8133 93bd c73b f2bb
000001b0: 85c0 c9be 0b46 21be e155 90be bedd 27bc
000001c0: 3c58 1b3e 5b5f 213e ac09 14be 5efe 2bbe
000001d0: 8377 9f3d 7a5d 083e 2c9a aabe 99fb b53d
000001e0: 2794 bbbd 4f21 17bd 6f8d 4f3d 50aa 9cbd
000001f0: b50c 1d3c e9e8 df3e 7379 5cbd 1521 4dbe
00000200: 6a5f dfbd 1dfd 723d 3b78 e83e f642 583d
00000210: 8aac 57be a068 bcbd d51d 1e3d b1e3 ed3c
00000220: d7aa 083e 180c 63bd 4010 9dbc 8373 8b3d
00000230: 960f 153e ff6c 3fbd 4dd4 003e 2b82 d13e
00000240: 9683 213c 722e 873e 3b52 a3bd 462f 133e
00000250: 3be8 363d 3a46 3d3e 1b83 dfbd d67b 9abc
00000260: f1e6 903d f757 0d3e e471 fbbd 0cd2 4abd
00000270: fa0d 82be de5a 8b3e 74cd a73c 75fc ffbd
00000280: 9d15 b13c 8502 9b3e 19c8 f8bc ed3e 1bbd
00000290: dd74 a9be 281c 513e d342 8ebb 5b0c 00be
000002a0: 6b06 0ebf 5bc3 eb3d 52b6 b13d c2a9 8ebe
000002b0: eb85 15be 779f 19bc 0e12 4f3e 7b25 27be
000002c0: 4b14 1ebe 93f9 20bd c1d4 53be 20df c5bc
000002d0: 649f 7dbd 9048 013e 16f6 43be 1b59 c2bd
000002e0: ab28 8cbe 801f ccbd bae9 f4bd f61e a3be
000002f0: d2c0 4f3e 8b40 e7be ae7c ea3d 041e ce3d
00000300: 7566 8dbe 4f58 f8bd 8a09 35be f9aa b1be
00000310: 7504 dc3d 9f90 5ebc 4160 dabc 6588 ae3b
00000320: 4304 aebd f58a 71bd d07a 4c3e 14ec 3ebe
00000330: e8c8 1cbd 5c4b 46be e6d7 40be 3e30 4dbd
00000340: 0a4d 84be f4b9 2fbe e4b0 423b 9294 e3bd
00000350: ea24 eabd f223 0dbe 4e9a 37be 7f42 d73d
00000360: 9d40 60bd 5ab7 c23d d1f1 25be 5f36 9fbd
00000370: 650f 573e 60df 20be 5398 91bd bd78 bd3c
00000380: 6ef5 963d 061b 8f3e 7341 e53c ee6a 833d
00000390: ef09 be3e 2809 a53e dc0e 37be a601 d4be
000003a0: 76cc 8a3d c6f0 193d e2a4 85bc b0e0 0cbe
000003b0: 8a05 903d 59be 633e de5c bebd 7d86 063e
000003c0: e2a4 d93d dbea 1dbe 2d57 29be 7a7b 3abd
000003d0: 4fa6 0fbe d119 283e dcbb 943c e17a 6a3d
000003e0: 09a5 8d3d efee 073d e0f2 133e 58dc 493e
000003f0: 530e 993d ee5b 18bd ddfc 7e3e 44a0 a2bc
-0.15609282 -0.011312244 0.12447583 0.20838012 -0.053249095 -0.52540565 -0.10692845 0.16154326
0.1886864 -0.039592307 -0.21484306 -0.19303648 -0.0053541022 0.13073978 -0.26236176 0.08224715
-0.03693114 0.08485729 -0.049571984 -0.06262238 0.2568732 0.20747982 0.042854544 -0.18355356
-0.28238547 -0.17097683 0.30445227 0.06720681 -0.042823583 0.18671031 0.10109538 -0.1545418
-0.07735044 -0.009990108 0.014875181 0.12816267 -0.37237608 0.04136804 -0.27444535 0.05680405
0.27039942 -0.16125365 0.17841044 -0.11016764 0.09393322 -0.09217435 0.25812405 -0.47374603
0.17160065 0.14916897 0.074720256 -0.08004089 -0.09778272 0.037754018 -0.33886468 0.108545914
-0.2578083 0.029853746 -0.20092894 -0.07474554 -0.09145889 -0.17230043 0.071916744 -0.25657728
-0.23961748 -0.1285785 -0.21573852 0.15606718 0.0838335 0.002002789 -0.0417717 0.18068546
-0.06413422 0.120351985 -0.31249732 -0.15457237 -0.0011673932 -0.0147793535 -0.24181896 0.021160012
-0.57022023 0.12403479 -0.3016385 -0.03327599 0.314903 0.5045326 -0.47839937 0.19752859
-0.06353712 0.04687738 0.036368057 0.28227013 0.3380346 0.08628496 0.28084138 0.015367431
-0.2693101 0.16562288 0.12713991 -0.3624421 0.07091078 0.046812758 0.026497161 -0.055820607
-0.124284945 -0.09859184 -0.07187558 -0.00739238 -0.39404693 -0.15749376 -0.2819052 -0.010245739
0.15170377 0.15759031 -0.14456815 -0.16796252 0.07786467 0.13316908 -0.3332075 0.08885879
-0.09159117 -0.036897 0.05067199 -0.07649672 0.009585549 0.43732384 -0.05382676 -0.20032151
-0.10906871 0.05932342 0.4540423 0.052798234 -0.21061912 -0.09199643 0.03860267 0.029039236
0.1334642 -0.055431455 -0.019172788 0.068091415 0.14556727 -0.046734806 0.12580986 0.40919623
0.009858033 0.26402622 -0.079746686 0.14373502 0.044655066 0.1848382 -0.10913678 -0.018857878
0.070752986 0.13803087 -0.12277582 -0.049516723 -0.25401288 0.27217764 0.02048371 -0.12499324
0.021616751 0.3027536 -0.030368851 -0.037901808 -0.33096972 0.20420897 -0.004341462 -0.12504713
-0.55478543 0.115118705 0.08677353 -0.2786389 -0.14601867 -0.009376398 0.20221731 -0.16322891
-0.15437429 -0.039300513 -0.20686628 -0.024154246 -0.061919585 0.12625337 -0.19136843 -0.09489652
-0.27374777 -0.09966946 -0.11958642 -0.3185956 0.20288399 -0.4516643 0.11449562 0.10064319
-0.2761723 -0.121262185 -0.1767942 -0.34700754 0.107430376 -0.013584285 -0.026657226 0.005326318
-0.084969066 -0.05897041 0.19968724 -0.18644744 -0.038277537 -0.19364685 -0.18832359 -0.050094835
-0.25840026 -0.17160779 0.0029707486 -0.11112322 -0.11432822 -0.13783243 -0.17929956 0.1051073
-0.05474912 0.09507628 -0.16205527 -0.07774042 0.21001966 -0.15710211 -0.07109132 0.023128862
0.07371031 0.27950305 0.02798531 0.064168796 0.37116954 0.32233548 -0.17876762 -0.41407508
0.06777279 0.037583135 -0.016313974 -0.13757586 0.070323065 0.2224058 -0.09295057 0.1313724
0.10627152 -0.15421622 -0.16537161 -0.045527913 -0.14028285 0.16416098 0.018155985 0.057246093
0.069162436 0.03318685 0.14448118 0.1971296 0.07473435 -0.037197046 0.24901147 -0.019851811

1.layers.1.0.bias f4 [80]
00000000: bf10 22bd b5a1 bdbd ac3e 973b 76d0 21bd
00000010: e025 21bd 6fc5 51bd 437f 16bd e434 8bbd
00000020: f5ac 2fbd 1bf5 e8bb ce9c 32bd 6653 08bd
00000030: ec4f 0ebd 3306 26bd d9ab 2fbd f932 10bd
00000040: 9a59 aabc f188 36bd 6460 04bd 1da5 a7bd
00000050: 1717 0abd c6fb c4bc 92ec 70bd 90bc 4cbd
00000060: ff2b 41bd 533a 2bbd be40 14bd 550c a3bc
00000070: 5976 9fbd ac35 a7bd dfa6 c9bc 62e7 a2bd
00000080: 9165 e3bb 8dbf 71bc 98d3 77bd 71fe dbbc
00000090: 6c76 85bd bd46 08bd c678 ecbc 4e5f f5bc
000000a0: 11fc e2bc 235b 2cbc c2cb 94bd e9aa 0abc
000000b0: fa85 46bd 9674 a83b 0ab7 2cbd 9ff7 a6bd
000000c0: 3487 19bd 4454 79bc b839 ddbc dbca 02bd
000000d0: 6df5 aebd 3b55 52bd 12e0 aebd 7b8e 48bd
000000e0: 3751 74bd 5ad5 a1bc 45ea 04bd 04ba 89bd
000000f0: 1121 4fbd 98eb 87bd 67ac e2bc a070 3ebd
00000100: dc5a a1bd a2de 33bd 6eea a5bc 39ef a3bc
00000110: f32b f4bc 8b36 a7bd 05ef e03a 28c9 93bc
00000120: 121f 27bd 2a4c 81bd 8a31 00bd 2f2e 1abd
00000130: e21b 0fbd d521 59bd a6d6 42bd b99a 19bd
-0.03956675 -0.09259359 0.0046156254 -0.039505444 -0.03934276 -0.051213678 -0.03674246 -0.067971975
-0.042889554 -0.007109297 -0.04360657 -0.03328266 -0.03474419 -0.040533256 -0.042888496 -0.03520486
-0.020794678 -0.04456419 -0.032318488 -0.0818579 -0.033713426 -0.024045836 -0.05881936 -0.049984515
-0.0471611 -0.04180367 -0.036194555 -0.019903341 -0.07786245 -0.08164534 -0.024615703 -0.07954289
-0.006939598 -0.014755142 -0.060504526 -0.026854726 -0.06516728 -0.033270586 -0.028866183 -0.029952671
-0.027708085 -0.010519776 -0.07265426 -0.0084636 -0.048467614 0.0051408513 -0.042166747 -0.08152699
-0.037482455 -0.015217844 -0.027005062 -0.03193174 -0.08542905 -0.051350813 -0.08538832 -0.048964005
-0.059647765 -0.019755054 -0.03244998 -0.06724933 -0.050568644 -0.06636733 -0.027670098 -0.046494126
-0.07878658 -0.04391349 -0.020253386 -0.020011531 -0.029806113 -0.081647 0.0017161077 -0.018040255
-0.040801115 -0.06313355 -0.031297244 -0.0376417 -0.0349387 -0.05301078 -0.047567986 -0.03750107

1.layers.1.0.weight f4 [80, 160]
00000000: e50f 803e 18a4 b6bb 0b92 b5bd ba99 14be
00000010: ea43 81be 7dd2 8dbe 35e9 4dbe 6d0e 8cbc
00000020: ef95 32be d075 0c3e f9ca 2f3c 16aa 063e
00000030: 7bd9 8cbd 9c3d d6bd 74d9 803e 1524 eabd
00000040: c5d2 773d 1173 953d 05c1 9abe b0af 6dbe
00000050: 8b6c 6abc c504 09bd a364 b03c ae1b 44be
00000060: 613c c7bd f2e8 353e 9224 773d 176a f03c
00000070: 8673 63bd b333 42bd 7845 a03c b220 59be
00000080: 7545 3d3e f5f4 74be 48a1 543d b711 96bd
00000090: faaf 013e 3232 723e 0ea3 f4bd 3807 88bc
000000a0: f98f ddbd 1414 cfbd bd89 c13d ba1b 3b3d
000000b0: b795 17be 71c0 b63d 9fa5 813c a2dd 543e
000000c0: 3fa4 6abe da34 1fbe 4e1c 86be 225e 963d
000000d0: ccfc 7c3e 54f5 453e 747d 4e3d f7c3 573c
000000e0: 1d0f 77bd a57d c2bd e4c9 123e 31ea aebd
000000f0: 79b4 40bc 6cd4 f13d ae26 25be 20d7 e83b
00000100: df32 3bbe 3f46 03bd 6d97 bc3d c05d b63d
00000110: 13aa c7be 4d16 30be e17c c0bd 2c78 613d
00000120: 2a36 933d d074 833d bc70 00be 3dbb 99bd
00000130: a668 63bc cdce 82bb a617 bdbe 836a 99bd
00000140: 7e8e d83c bf1b 00bf 287a 213e cb68 ac3e
00000150: 3253 ef3e 53f2 1d3d 11d3 da3d a709 203e
00000160: f4e6 133f b18f af3d fb0b b6be a5a1 90bc
00000170: 2570 98bc 5347 703e acc1 03bd 6aee 35bd
00000180: 8f57 873b 9e41 4c3e b3ac 203c 84eb 7abe
00000190: c8b6 1abd a4ca cb3d 80df a23e 4d22 07be
000001a0: 0abe 85be 778e 8b3c 754f 3abe a26a adbe
000001b0: 9746 1ebe 1558 f4bd 83a3 423c 4067 5e3e
000001c0: 18ac 55bd ac7a 92bd 2e6a 8e3c 60fb 68be
000001d0: 1b41 7bbc 734f bebd 82fe 2dbe 7503 10bd
000001e0: f78d 023e b2b3 113e 56d6 623e 08d4 d6bd
000001f0: 7f54 cbbd ccc9 2cbd ed98 ac3d c0f9 b33b
00000200: d482 4bbd a4db f83c 7873 37be 8fdb 903d
00000210: 745f 9fbd e956 bb3d 4d75 99bd d236 b93d
00000220: f738 9ebd d370 03bd 6e86 03be 3d10 07be
00000230: d919 15bd de8e c53e ef22 1cbd 4c08 3d3e
00000240: c8aa e0bc ac14 69be 774e 373e b210 933c
00000250: 2f86 f1bb 0904 073d 233d eb3c ee01 0cbd
00000260: e9d2 efbd 9e99 29be 58a9 8ebd c909 d2bc
00000270: ef2d 42be 4b43 283e 7bc4 753e eae7 13bd
00000280: 0cbf 953c 3799 723c d21c 8ebd 9cc1 c7bd
00000290: 70d8 68bc 11f3 dabd 0610 17be 56ec 34bd
000002a0: 9cef 11be 7576 2a3d 3c5f 133e 2c8f b43d
000002b0: 295f 12be 9879 2bbe 7ffc 8dbd da31 503d
000002c0: 94b8 f53d 3551 4e3c a630 083e 5b52 9a3c
000002d0: bcde 863e 54bc 21bd 89ba f2bd 9b84 2e3c
000002e0: eccb 08be 13e9 273d 98af 3fbe 9e1a 033d
000002f0: f046 7e3b 910d 85bc a31e 03be 6265 1fbe
00000300: db97 c43d d5f7 aebd 3d72 553d 7901 5cbe
00000310: df38 41bc a7d9 49be b7c6 14bc 5f0d 87bc
00000320: 329c c1b9 d8d2 7b3d cb71 eabd a40f f23c
00000330: ef7f 35be ad11 a53d 6de8 f13d 68a9 12be
00000340: b838 c13d d9e3 24bd 1d85 7c3d 6b15 05be
00000350: 1edc 29bd 09d0 b2bc e9a1 1a3e 34f6 42be
00000360: 0b2b bf3d 9ce1 0c3e 02d0 753d 9c36 08be
00000370: f219 973b 2faa aabe 69f0 e63d c1a5 aabd
00000380: bc17 95bd c465 0dbe 04f7 cd3d 7414 873e
00000390: d9f0 cb3d cd7e 443e a978 ef3d 9938 74bd
000003a0: 03ac d93c 6cd8 103e 68ec 0d3c 4c6b 883e
000003b0: 42f4 5bbd 44a8 f53c ec0a 83bd d932 923d
000003c0: b76c 66bd 3575 c7bd a5c4 cb3d aae5 3cbb
000003d0: 7edf 063d ef60 09be 6552 293e 20e2 753e
000003e0: 95bd 2f3e 234c cf3d dc2f febd 32e2 093e
000003f0: 1d45 b03d 0f74 3abc 12fe ff3d cc28 693d
0.25012127 -0.0055737607 -0.08865746 -0.14511767 -0.25247127 -0.27699652 -0.20108493 -0.017096722
-0.17440008 0.13716817 0.010729545 0.1315082 -0.068774186 -0.1046097 0.25165904 -0.11432663
0.06050374 0.07297338 -0.30225387 -0.2321155 -0.014308105 -0.033451814 0.021532362 -0.19151184
-0.09728313 0.17764643 0.06033761 0.029347463 -0.055530094 -0.047412585 0.019564375 -0.21203879
0.18483527 -0.23921569 0.051911622 -0.073275976 0.12664786 0.2365196 -0.11945163 -0.016605005
-0.10818476 -0.101112515 0.094500996 0.04568074 -0.14803205 0.08923424 0.015826045 0.20787671
-0.22914217 -0.15547505 -0.2619347 0.07342173 0.2470581 0.19331867 0.05041261 0.01316928
-0.060317148 -0.09496621 0.14334828 -0.08540762 -0.011761778 0.118080944 -0.16128036 0.007105723
-0.18281125 -0.032049414 0.0920857 0.089046 -0.38996944 -0.17196007 -0.09398819 0.055046245
0.07188065 0.064187646 -0.12543005 -0.07506416 -0.013879931 -0.0039919377 -0.36932105 -0.074910186
0.026435133 -0.5004234 0.15769255 0.336737 0.4674316 0.038561177 0.10684789 0.15628682
0.5777428 0.08572329 -0.35556015 -0.017655203 -0.018608162 0.23464708 -0.03216712 -0.044416822
0.004130311 0.19946906 0.0098068 -0.24503905 -0.03777197 0.0995076 0.31811142 -0.13196678
-0.2612155 0.017035706 -0.18194373 -0.33870417 -0.15456615 -0.11930863 0.011879805 0.21719074
-0.052166075 -0.07152304 0.017384615 -0.22752142 -0.015335347 -0.092924975 -0.16991618 -0.035159547
0.12749468 0.14228705 0.22152075 -0.104896605 -0.09928226 -0.042184636 0.08427606 0.005492419
-0.049685314 0.03037817 -0.17915142 0.070731275 -0.07781878 0.09147436 -0.074930765 0.09043659
-0.07725709 -0.03209002 -0.1284425 -0.13189788 -0.036401603 0.38585562 -0.038119253 0.18460196
-0.027425185 -0.22761792 0.17901026 0.017952297 -0.0073707323 0.032962833 0.028715676 -0.034181528
-0.1171015 -0.16562507 -0.069658935 -0.025639432 -0.18962835 0.1643192 0.24000733 -0.036109842
0.018279575 0.014807037 -0.06939091 -0.09753725 -0.014211759 -0.106908925 -0.14752206 -0.0441707
-0.1425156 0.041616876 0.14391798 0.0881637 -0.14294113 -0.16745603 -0.069329254 0.050828792
0.11998096 0.012592603 0.13299808 0.018838098 0.26341808 -0.039486244 -0.11851985 0.010651733
-0.1335904 0.04099376 -0.18719327 0.032007806 0.0038799606 -0.01624182 -0.12804656 -0.15566018
0.09599277 -0.08543364 0.0521109 -0.21484937 -0.011793344 -0.19711934 -0.00908058 -0.016485868
-0.00036928203 0.061480373 -0.114474855 0.029548474 -0.17724584 0.08060012 0.1181191 -0.14322436
0.09434646 -0.040256355 0.061650384 -0.12996452 -0.041469686 -0.021827715 0.15100826 -0.19039232
0.09334382 0.13757938 0.060012825 -0.13302082 0.004611247 -0.33332965 0.11276323 -0.08332396
-0.072799176 -0.13808352 0.1005688 0.26382792 0.099580474 0.19188996 0.11692936 -0.05962429
0.02657128 0.14145058 0.008662321 0.2664436 -0.05369974 0.029987462 -0.063985676 0.07138605
-0.056256022 -0.09739152 0.09949616 -0.0028823414 0.032927983 -0.13415883 0.16535337 0.24012041
0.17162164 0.10121944 -0.12411472 0.13465193 0.08606932 -0.01138021 0.12499632 0.056923673

1.layers.2.0.bias f4 [80]
00000000: eca0 42bd 1c25 17bc 7c45 48bd dfa8 7fbc
00000010: b1d4 45bd 3e64 43bd b48d d7bc 7a1e f6bc
00000020: a323 0fbb ace9 7ebc b18c 9fbc 37cb ed39
00000030: 988f b0bc cfa0 afbc e5b6 24bd 0234 63bd
00000040: 733d cebc 0016 10bc 0496 83bd 143a ddbb
00000050: caeb 04bd 33e7 e5bc db6d 8abc 7c24 82bd
00000060: 9244 90bd 4783 80bd 2479 d6bc cae4 49bd
00000070: 8319 7abc 1f3d 48bc 8621 fbbc 8c4a 82bd
00000080: 8dad b4bc b6f8 26bd 8134 a8bc 4ee1 2bbd
00000090: f6ad 33bd 18da 3fbd db16 5dbb 3b35 01bd
000000a0: f3d1 10bb 7d3e 1ebd b94d 0dbd 5e39 2fbd
000000b0: 259f 3dbd 23c5 aebc efc7 94bd d9d6 0fbd
000000c0: 6204 adbc 8e9a 56bd 9711 f2bc 8833 21bd
000000d0: 17a2 3dbd b67c 0dbd 2bc2 efbc 034f 98bd
000000e0: 1a47 abbc 94d0 19bd 3444 a7bd 4986 1fbd
000000f0: e408 57bd bd88 44bc 7892 84bc d108 63bd
00000100: 9989 eebc db1e 42bd 2891 57bd 2735 c7bc
00000110: 9a11 99bc 0a82 05bd 8e74 3cbd e3fe 4abd
00000120: 1502 fbbc dc7c f1bc f94d 3dbd fd6d 3cbd
00000130: 6a63 79bd f5a0 18bd b2e7 4fbd fc7e 6bbc
-0.04751675 -0.009225156 -0.04889439 -0.015604227 -0.04829854 -0.04770302 -0.026312687 -0.03004383
-0.002184131 -0.015558641 -0.019476267 0.0004535557 -0.021552846 -0.021438984 -0.040213484 -0.05546952
-0.025175786 -0.008794308 -0.064250976 -0.006751308 -0.03245143 -0.028064346 -0.016898086 -0.06354615
-0.07044329 -0.06275039 -0.026180811 -0.049290456 -0.0152648715 -0.012221604 -0.030655634 -0.06361875
-0.022055412 -0.040764533 -0.020532848 -0.041962914 -0.043867074 -0.04683885 -0.0033735547 -0.031544905
-0.0022097796 -0.038633812 -0.03449795 -0.04277932 -0.04629435 -0.021334236 -0.07264697 -0.035117004
-0.021120254 -0.05239349 -0.029549403 -0.039355785 -0.04629716 -0.03454276 -0.029267391 -0.07436945
-0.020907927 -0.03755243 -0.081673056 -0.038946424 -0.052498713 -0.011995492 -0.016183123 -0.05542833
-0.029118346 -0.047392707 -0.052628666 -0.024317337 -0.01868515 -0.032594718 -0.046009593 -0.049559485
-0.030640641 -0.029478483 -0.04621694 -0.04600333 -0.060885824 -0.037262876 -0.05075807 -0.014373537

1.layers.2.0.weight f4 [80, 240]
00000000: 6c4e 043e aa14 333c f178 19be 7aac 00bd
00000010: c821 c73b cfe5 e23d 50a5 ca3d 7b5c 003c
00000020: 9ebf 503e 3962 82bd 2455 01be 82f9 993d
00000030: 9b96 223d c52a e0bd c63e e1bc de72 30be
00000040: 5415 c43c 86d1 893d 8661 0b3d f829 f1ba
00000050: c972 823c 09b6 ee3d 4ecc 0cbe ae8e 183e
00000060: 80fc 663d 53b0 0ebc 6196 273e 54e7 eabc
00000070: 3ab4 033d 8992 93bd 912f 3b3c 53b2 843e
00000080: 15f1 1abe 6120 093e 7984 1bbc 2983 10bd
00000090: f2df 11bd 74e9 0d3e 3f2c 4e3d 301c be3c
000000a0: 6e28 a33b 19fa ed3d 6fc2 62bd 7258 c03d
000000b0: e99e 033e 1da4 9c3c 5ed3 5dbe 39c1 29be
000000c0: 0c0f 223d 3fa8 17bc b1be 3abe 6e0d 5ebe
000000d0: 6b98 6f3d cfe0 a0bd b106 44bb 085f f9bc
000000e0: 157c 6dbc e5c9 7a3d 8513 2d3c e4a8 a13d
000000f0: 7f00 0a3b 2c2b 91be 5c68 9cbc 6735 3a3e
00000100: 0b1d 35be 462b 003e ff2a 98bd c767 cabd
00000110: 2029 8bbd 544f 06bc 373e c63d 623b 48bc
00000120: f31c 913c 227e a43d fbb1 af3d c1da b1bc
00000130: 12fb f9bd 00db 16be 6f50 923d d81f 8dbd
00000140: 238c 59bd f575 4a3e 0442 dfbd 4650 dcbd
00000150: d973 04be 7c78 583c cba8 1bbe 4111 c2bd
00000160: c150 9a3d 3857 bb3d 3a1c 21bd 36c7 4d3a
00000170: 2ea3 9f3d 3fe9 973d 24e7 e03d cfc2 043e
00000180: 3a7e 96bd ab2b 983d 4748 bb3d e6d6 0f3d
00000190: 0676 1c3c a0bd 17bd f488 273e 0a79 a73d
000001a0: 5345 363d e406 d03c e964 0dbd b98f 863d
000001b0: c47e d43d 9833 bb3c 5f5c 113e 2b22 37bd
000001c0: ba93 69bc 6d8b 103b 2db3 523e a708 43bd
000001d0: 3071 2cbd 3cfb 85bd 541f 6dbe 3ceb a3bd
000001e0: 9a76 39be b50b 1f3e 19f5 d9bc 8aad 0abc
000001f0: 761c 3abd 7b02 21be 6699 7fbe 3e8b f8bd
00000200: 180e 313e dd82 b5bc bbbb 2abe b18f 153d
00000210: d2bc 79bd 52a7 debd 5ef6 c73d c56d 193d
00000220: bec6 023e fd1d ef3d 68e0 30bc 8412 d53c
00000230: 2a52 003e c350 2cbe 80ca 51be 0b6d d03c
00000240: 253b 183e 79ee 61bb 49bc b1bc 4972 d03d
00000250: 8bea 933d d7b8 46bd 27f4 603e b6a8 d63d
00000260: 0986 01be 34cb 85be a390 013d f46b a73d
00000270: f379 cabd 715c 423d 818c 50bd 035b 46be
00000280: b51f 533d 995f 483e a252 b4be a1b1 3fbe
00000290: 0fce 0d3d 97d3 d8bd 9d49 dabd 4b88 7a3d
000002a0: 8b9d 5cbd 9347 663d a112 55be f3f0 bb3c
000002b0: c475 0bbe d4c7 683d c93d 40bd 90cf e23d
000002c0: e6b5 6bbe 1c28 b8bd 87b4 35be b302 c9bd
000002d0: 7d8f 0bbd 0216 3b3e 8113 463e 8311 6abd
000002e0: f8ad 88bd 02b7 09be bfba 933e 118e 2b3e
000002f0: 87d4 6a3e 0c5e 4e3d fef8 2fbd 64da f9bd
00000300: 77b0 6d3b 754b 8dbc a49d 88bc 2c9a f33d
00000310: 1d4c 293e 205d 453d 3e8d 4d3b 7441 363e
00000320: 1127 253e b3c1 b83c f5d1 803d 4322 bebc
00000330: 70d5 6d3d b020 f5bd c690 a33c fc18 933d
00000340: 6173 973d 7d7c a53d 99d6 a3bd 794d 9f3d
00000350: a47a c1bc a972 923c a91e 2f3e 3333 bdbc
00000360: 444f 4b3c c922 28be 4728 50bd 3689 24bb
00000370: a964 103e afd8 6f3c e18c 093e 4447 a83d
00000380: 2e00 253e 0a73 86bc 69ca 2e3d 7358 893c
00000390: 5e52 c23d cc20 903c a409 22bd 7825 0e3e
000003a0: 5b67 8abd 9433 2d3d b070 b13b 92b4 de3b
000003b0: 41ab 553d c28a 4b3d 7ecb ee3c baef 623e
000003c0: 0146 eb3d 6600 de3d 11d3 af3d 69e3 a83b
000003d0: f183 db3d 1a67 b2bb 53fa 6f3e 73a0 f0bd
000003e0: c4e8 43bd 4ebd 1c3e c915 bd3d 2a70 05bd
000003f0: 230e 243d c9b9 b43c c87b db3c 1516 9b3d
0.1292054 0.01093022 -0.14987542 -0.031414486 0.006077025 0.11078989 0.09894812 0.007834549
0.20385596 -0.06366391 -0.12630135 0.07518293 0.03969441 -0.10945658 -0.027495753 -0.17231318
0.023935951 0.067294165 0.034028552 -0.0018399348 0.015923874 0.11655814 -0.13749811 0.14898178
0.056393147 -0.008709031 0.16365959 -0.028674759 0.0321543 -0.07205684 0.011424915 0.259173
-0.15131028 0.13391258 -0.009492033 -0.035281334 -0.03561396 0.13858587 0.050335165 0.0232068
0.004979185 0.11619968 -0.055361208 0.093918696 0.12853588 0.019121224 -0.21662661 -0.16577615
0.03956513 -0.009256422 -0.18236805 -0.2168481 0.058494966 -0.07855379 -0.0029911215 -0.030440822
-0.0144949155 0.061227698 0.010563736 0.078935415 0.0021057425 -0.2835325 -0.019092731 0.18184434
-0.1768686 0.12516508 -0.07430076 -0.09883075 -0.06794953 -0.008197624 0.09679835 -0.012221189
0.017714 0.080318704 0.08578869 -0.021710755 -0.12206091 -0.1473198 0.07144248 -0.06890839
-0.05311216 0.1977156 -0.10901263 -0.107574984 -0.12934817 0.013212319 -0.15201108 -0.09475947
0.07534934 0.09147495 -0.03933356 0.0007849814 0.07794796 0.07417535 0.109815866 0.12964939
-0.073482946 0.07430204 0.09144645 0.035117052 0.009549623 -0.037046075 0.16360837 0.08177383
0.044499706 0.02539391 -0.034520064 0.06570382 0.10375741 0.02285175 0.14195393 -0.04471032
-0.014256412 0.002205576 0.20576163 -0.047615673 -0.04210013 -0.0654206 -0.23156482 -0.08003852
-0.18111649 0.1553181 -0.02660613 -0.0084642265 -0.0454373 -0.15723602 -0.2496086 -0.12135933
0.17290533 -0.022157127 -0.16673176 0.036513988 -0.06097109 -0.108717576 0.09763788 0.0374582
0.12771127 0.11675642 -0.01079569 0.026009806 0.12531343 -0.16827683 -0.20487404 0.02544262
0.14866312 -0.0034474416 -0.021696227 0.10178048 0.0722247 -0.04851612 0.21968137 0.10481398
-0.12648787 -0.26131594 0.031632077 0.08174887 -0.09886541 0.04745144 -0.050915245 -0.19370656
0.05154391 0.19567718 -0.35219294 -0.18720104 0.03462034 -0.105872326 -0.10658572 0.061165135
-0.053861182 0.056220602 -0.20807888 0.022942042 -0.13619143 0.056831196 -0.046933923 0.11074746
-0.23018607 -0.08992025 -0.17744647 -0.09814968 -0.034072388 0.18270114 0.19343378 -0.057145607
-0.06673807 -0.13448718 0.28853413 0.16753413 0.22932635 0.05038266 -0.042962067 -0.12199858
0.0036268511 -0.017247895 -0.016676731 0.1189464 0.16532941 0.048184514 0.0031364704 0.17798406
0.16128184 0.0225533 0.06290046 -0.023209697 0.058064878 -0.11969125 0.019966494 0.071825
0.07395054 0.08080385 -0.07999916 0.077784486 -0.02361805 0.01787694 0.1710154 -0.023095703
0.012409035 -0.1641952 -0.05081966 -0.0025106198 0.14100899 0.014639064 0.13432647 0.08216718
0.1611335 -0.016412277 0.042673502 0.016765809 0.094883665 0.017593764 -0.039559975 0.1388148
-0.06757995 0.042285517 0.0054150447 0.006796428 0.052165274 0.049692877 0.029149767 0.22161761
0.114879616 0.1083992 0.085851796 0.0051540625 0.10718525 -0.0054444196 0.23435335 -0.11749353
-0.047829404 0.15306589 0.09232671 -0.03257767 0.040052544 0.022061246 0.026792422 0.07572571

1.layers.3.0.bias f4 [80]
00000000: 755f 1dbd 2d95 40bd 15c5 69bd 7579 e5bc
00000010: ef3c d0bc 0dd1 00bd 80e8 88bd ca99 a9bc
00000020: 209d 9cbc 730b 51bd edbb 28bc f023 55bd
00000030: d14c efbc 394a 86bd 1366 8fbc dfff aabc
00000040: 4cf6 97bd c439 2bbd 3faa a8bc bd98 35bd
00000050: a9ce 74bd 1181 7d3a c7a4 b4bc 7bf8 46bd
00000060: 7944 d2bc 34c5 29bd 5085 2bbd f7d0 e5bc
00000070: 0841 84bc 4abe d3bc 26d3 2cbd 3c9e f2bc
00000080: 1598 3fbd 4343 ddbc 82c1 23bb 417a 6ebd
00000090: e3d8 87bc 0671 03bd 2deb 49bd 4b87 2abd
000000a0: c737 c7bc 6224 60bd 7ea9 7e3a c400 d1bc
000000b0: 695a 0dbd 18dd c5bc f1d8 94bc 14c8 51bc
000000c0: 95b2 34bd be0f 2abd 03c5 0bbd 650c 00bd
000000d0: e56c b2bc c9b4 66bc 9a03 32bd 1805 b03c
000000e0: 5ea0 ddbc 481c 22bd 8c84 21bd 1e43 afbc
000000f0: 50b8 2ebd 1236 32bd 40ef bebc 1087 36bd
00000100: 377c b2bc f1fa 53bc eba7 06bd feb7 12bd
00000110: 3c9f ae39 b837 15bd 016a 19bd 0c1c edbb
00000120: b171 52bd f112 8bbc 0641 cebc 84ff 17bd
00000130: 00ac a5bc 8e2e 8dbd cdda babc 653f 57bd
-0.038421113 -0.047017265 -0.057072718 -0.028012017 -0.02541968 -0.031449366 -0.06684971 -0.020703215
-0.019117892 -0.05103631 -0.010298711 -0.052036226 -0.029211434 -0.065571256 -0.017504727 -0.020873962
-0.07420024 -0.041803136 -0.020588992 -0.044335116 -0.0597674 0.00096704165 -0.022051228 -0.048576813
-0.025667416 -0.041447833 -0.041875184 -0.028053744 -0.01614429 -0.025847573 -0.042193554 -0.029616468
-0.046775896 -0.027009612 -0.0024987166 -0.05822206 -0.016582912 -0.03209021 -0.049296547 -0.04163293
-0.024318589 -0.054722197 0.00097145874 -0.02551306 -0.03451005 -0.024153277 -0.018169852 -0.01280405
-0.04411562 -0.04151892 -0.034123432 -0.03126182 -0.02178044 -0.0140811885 -0.043460466 0.021486804
-0.027054008 -0.039577752 -0.039433047 -0.021394309 -0.042656243 -0.043508597 -0.023307443 -0.0445624
-0.021787746 -0.012938247 -0.032874983 -0.03582 0.00033306505 -0.03643009 -0.03745461 -0.0072360095
-0.051377956 -0.016976805 -0.02517749 -0.037108913 -0.020223618 -0.06893645 -0.02280941 -0.052550692

1.layers.3.0.weight f4 [80, 320]
00000000: 301a eb3c 0e24 643b 87bf ac3c 29c9 8d3d
00000010: 7302 fabc c8e5 a4bc 24c0 c73d 63df 1dbe
00000020: 02c3 7bbd 2597 b03d 74a6 dcbd f13f a1bd
00000030: b0eb 30bd 0b9f 3e3d b634 a6bd 2ff5 a63c
00000040: 2787 bc3d 358f 033d 69f4 163e cee1 26be
00000050: 1142 63bd 02b3 8c3c a99b eabb 424c 223d
00000060: 0a14 093e 115d d2bd 3df7 10be ffa2 78bd
00000070: c805 cb3c 3ca2 143b 5bae afbd fbad 6abd
00000080: 55dd b73b f768 e0bc 9ce6 c83c 71de 353c
00000090: b845 a63d 43e5 fd3c 58a5 3bbc 6fde d13d
000000a0: 4611 b13c f553 7cbd b6e6 4ebd 509f 7b3d
000000b0: 09e5 db3d 02af 82bd ea94 0d3e 1732 283d
000000c0: 8aff a0bd 1319 9d3d 7edf 29bd 7c02 2a3c
000000d0: 0197 be3d 8786 bebc 850e 013e 8ef5 21bd
000000e0: eccb 64bb 1da8 babc 51ff f13d 61f0 d9bd
000000f0: 53cd a33d 7f90 2ebd 8cbf 4bbe 1254 14ba
00000100: 8e6e 0d3d a917 9e3d 8ac1 52bc 7ee9 ebbd
00000110: e677 4dbc d306 72bd 593b 92bd 6b32 133e
00000120: eef5 183d b49d 0dbd 08cf ac3d fcd4 7d3b
00000130: e337 cdbd 98d5 b83c 7d5b 11be 08cd 21bc
00000140: 11fe 893d 917c 2abd 5676 ae3d 2e79 d63c
00000150: 3c75 72bd cfe5 91bd 8e57 85be 888b 903d
00000160: ec1d 83bc 3504 34be 86ba 9fbd a5f9 4f3e
00000170: 6b42 803d 65b3 433d 6e6a 203c e8fa a53c
00000180: 0f1e cc3d 75ad 98bd a2f1 823d d85c da3d
00000190: 14b1 ee3d 5197 763e 886b c73d a8bb 9d3d
000001a0: 0676 803a 2429 61bd 8590 b23d 25d4 9f38
000001b0: 5cd0 113e bd38 4d3c 522f 213d ec25 b6bd
000001c0: 53ef c2bc c4ba 10be b136 4cbd eeb0 fe3c
000001d0: 480d 853d b248 87bd 87ad 8bbd 2c73 fdbd
000001e0: 79c5 a4bd 31e2 06be 83ba 05bd 73f3 abbd
000001f0: 9072 1c3e b05e f73c b917 25bd 48a7 713d
00000200: 4922 c33d 1412 013e 2281 1b3e 8cb3 a1bc
00000210: dd3b 633d 42df 5e3c 65ec abbd a4a1 a93d
00000220: cbc7 823c 8dc7 d33d 01ba ab3d 0741 c0bd
00000230: bf0b 13be 5282 1dbe 4443 bb3d fa19 f93d
00000240: 9793 823e 9f60 f1bd d5c6 51bd daac ed3d
00000250: c7b9 c6bd dd83 2e3c b602 08bd fe04 a7bb
00000260: 75f5 08bd 915d 04bd f423 633d f81f b03c
00000270: 0ab4 2dbe 7547 9cbd f797 92bd 8938 803d
00000280: b3dd 67bc 1dd9 413d 9da2 393e 8ef4 903b
00000290: a938 143e ef94 b23d 3d8a 2d3d 4621 6c3c
000002a0: 1d6b 093e 5821 f73d c9ac 42bd bbe5 99bd
000002b0: e3e0 ecbc 3596 02be 7768 693d 3d2b 383c
000002c0: fd60 24bd e5d2 fcbb a2b3 91bd 2e47 67bd
000002d0: 7dcc 1e3e ce0f b13d 8ecc f7bd 258e dd3c
000002e0: e29b 033e 1d78 443b 03c1 2b3d 1b20 b9bd
000002f0: ce99 c13c 08f7 283e da1b 203d 4d04 97bd
00000300: 359e 8fbd e042 8abd 9cdc 823d cd72 93bd
00000310: bd03 09be 4837 6f3d 5cf6 27bc e91f 16be
00000320: eda9 a53d 429e 3c3e d1e1 1ebe cd3b 1bbe
00000330: 8e41 e33d 1941 c93d ab0e bdbd c365 b73a
00000340: 446f 013d 6156 c4bd 4519 93bd 8f6c 10bd
00000350: 6d59 063d bdbe da3d b1c2 36bd d23a 4c3d
00000360: ee12 413c 409f 7fbd 0d75 11bd 8d07 02be
00000370: 4c76 cc3c 2e2d 183e 1b01 38bd fefc 38bd
00000380: cbba 19be 1a27 843d 9718 ef3c fe11 8b3c
00000390: a040 913d 2df0 45bd c749 133c c317 03bd
000003a0: 37b7 e33c 86a9 a0bd 83aa e1bd 9da0 a03d
000003b0: 2497 cabd 78bb cb3b 2ed6 d13d 5ff2 7f3c
000003c0: c652 c1bc 2838 07bd fe75 863e 19b9 83bd
000003d0: e11e ecbc 44c4 683d e33b a63d cc35 f2bd
000003e0: ffda 003e 2c91 ecbc 369e 7cbd 42d3 72bc
000003f0: 066d d93d 398c 403e 3810 e0bd 6d17 e33d
0.02869901 0.003481153 0.021087421 0.06923134 -0.030518746 -0.0201291 0.09753445 -0.15417247
-0.06146527 0.086225785 -0.10773936 -0.07873524 -0.04319352 0.046538394 -0.081155226 0.020380585
0.09205466 0.032118995 0.14741673 -0.16297075 -0.055482928 0.017175201 -0.0071596694 0.039623506
0.1338655 -0.10271657 -0.14156814 -0.06070232 0.02478303 0.0022679707 -0.085781775 -0.057294827
0.0056111016 -0.027393801 0.024524026 0.011100397 0.081187665 0.03099311 -0.011452995 0.10247504
0.021614682 -0.061603505 -0.05051299 0.06143123 0.10737044 -0.06381036 0.13826337 0.041063394
-0.0786124 0.07670798 -0.041472904 0.010376569 0.093061455 -0.023257507 0.12603195 -0.03954082
-0.0034911586 -0.02278524 0.11816276 -0.10641552 0.07998147 -0.04261827 -0.19897288 -0.00056582794
0.03452926 0.077193566 -0.012863526 -0.115191445 -0.012540793 -0.05908854 -0.07140226 0.14374702
0.03734391 -0.034574226 0.084379256 0.0038731685 -0.10020425 0.022562787 -0.14195056 -0.009875543
0.067379124 -0.041622702 0.085186645 0.02618083 -0.059193835 -0.07123911 -0.2604336 0.070578635
-0.016005479 -0.1757973 -0.077992484 0.20310076 0.06262668 0.047778506 0.009791 0.020261243
0.09966671 -0.07454959 0.06393744 0.1066224 0.11654869 0.2408116 0.09737307 0.07701808
0.0009800799 -0.054970875 0.08718971 7.621226e-05 0.14239639 0.0125257345 0.03935177 -0.08893952
-0.02379576 -0.14133745 -0.049856845 0.031090226 0.06496674 -0.066056624 -0.06820207 -0.12375483
-0.080454774 -0.13172223 -0.032648575 -0.08396044 0.15278077 0.030196518 -0.040305827 0.058997422
0.09528024 0.12604553 0.15185979 -0.019738935 0.055477012 0.0136030335 -0.08394698 0.08282784
0.01596441 0.10340796 0.08385087 -0.09387403 -0.1435995 -0.15381745 0.09143689 0.12163158
0.25503227 -0.11786007 -0.05121501 0.116052344 -0.09703403 0.010651556 -0.03320571 -0.0050970307
-0.03343721 -0.032315794 0.05545421 0.021499619 -0.1696321 -0.07630817 -0.07157891 0.06260783
-0.014151978 0.047326196 0.18128438 0.0044236844 0.14474739 0.08719813 0.042368162 0.01441223
0.13419767 0.12066907 -0.047528062 -0.07514521 -0.028915828 -0.12752612 0.05698439 0.011240778
-0.040131558 -0.0077155703 -0.0711434 -0.056464367 0.15507694 0.08645593 -0.120995626 0.027045319
0.12852433 0.002997882 0.041932117 -0.09039327 0.02363291 0.16500485 0.03908906 -0.07373867
-0.070125975 -0.06751037 0.06389734 -0.07199631 -0.13380332 0.05840233 -0.010251608 -0.1466061
0.080890514 0.18419746 -0.1551583 -0.15159531 0.11096488 0.098268695 -0.09231313 0.0013992119
0.03160025 -0.09586788 -0.07182554 -0.03525978 0.032800127 0.10680912 -0.044619266 0.049860783
0.011784298 -0.062407732 -0.03551202 -0.12698193 0.024958752 0.14860985 -0.04492293 -0.045163147
-0.15012662 0.064527705 0.02918653 0.016976353 0.07092404 -0.048324753 0.008989758 -0.032005083
0.027797325 -0.07844834 -0.11018851 0.078431346 -0.09892109 0.0062174164 0.1024593 0.015621751
-0.02359904 -0.03301254 0.26261896 -0.06431789 -0.028823318 0.0568278 0.08116891 -0.11826667
0.1258354 -0.028877817 -0.06167432 -0.014820876 0.10616498 0.1880349 -0.109405935 0.110884525

1.layers.4.0.bias f4 [80]
00000000: 2085 18bd 0937 85bc ef23 13bd de0b 04bd
00000010: c678 893b d4fe d6bc 8129 d4bc 1c80 f1bc
00000020: 40fe efbc 9c4b 5bbd 7152 96bc 31ff 2cbd
00000030: bcfd 83bc 2d51 c2bc 9320 2ebd 01d6 1fbc
00000040: fe33 25bd 8e40 b0bc 9b0e 89bb a552 e1bc
00000050: a19a d2bc 5ad3 e9bc afbc 2fbd dc64 ebbb
00000060: 1317 2fbc 8246 3cbd 36b2 8fbc 933a bbbb
00000070: 51e2 22bd c6a9 ebbc 5afb 0bbd 2431 22bd
00000080: a5b1 11bd 7765 d8bc 2332 32bd 7c93 a33c
00000090: cd5d 9dbc d19f 11bd 4bf0 16bd 2745 06bd
000000a0: b376 43bb df8a b0bb e184 f0bc 613c 0dbd
000000b0: 9076 d3bc 7302 d2bc 32b6 abbc 66e5 f4bc
000000c0: 153b 01bd c874 4839 d574 0dbd c415 f2bc
000000d0: 970e a4bc 9a6b f6ba ce36 2cbc b6cd ffbc
000000e0: fe1f efbc 0103 3bbd fc7b 4fbd 01f6 59bc
000000f0: 323b 1bbd b905 13bd 5426 ccbb d768 1fbd
00000100: 299b 9cbd 4d96 83bc c59d 0abd 444e 68bd
00000110: 2653 37bd c066 7dbc a94c 19bd 3881 18bd
00000120: 4204 87bc a8b0 cabb 6fc7 2fbd a671 5fbd
00000130: 83be ffbc cfba d7bc 7348 f9bc d24f b3bc
-0.037236333 -0.016261594 -0.03592294 -0.03223788 0.0041953055 -0.026244558 -0.025898697 -0.029480033
-0.02929604 -0.053538904 -0.018349858 -0.042235557 -0.0161122 -0.023720348 -0.042511534 -0.009755612
-0.040332787 -0.021515157 -0.0041826493 -0.027505228 -0.025708498 -0.028543163 -0.042904552 -0.0071836542
-0.010686654 -0.04596568 -0.017541032 -0.0057137697 -0.039766613 -0.028767478 -0.034175254 -0.039597645
-0.035569806 -0.02641557 -0.043504845 0.019967787 -0.019209767 -0.035552803 -0.036850255 -0.032780793
-0.002982539 -0.0053876485 -0.029360237 -0.03448141 -0.025813371 -0.025635934 -0.020960901 -0.029894542
-0.031550486 0.00019116991 -0.034535248 -0.029551394 -0.020026488 -0.0018800378 -0.010511113 -0.03122602
-0.02919006 -0.04565716 -0.05065535 -0.013303281 -0.03789825 -0.03589413 -0.006230155 -0.038918342
-0.07646782 -0.01606288 -0.033841867 -0.056715265 -0.04475703 -0.015466392 -0.037426624 -0.037232608
-0.016481522 -0.00618561 -0.042914804 -0.054551743 -0.031218773 -0.026334194 -0.030430054 -0.021888647

1.layers.4.0.weight f4 [80, 400]
00000000: 91db 603d 0484 9abd 883e 9c3d 5aaa 173c
00000010: 745d 89bd 4289 fcbd 4b22 bf3d 8da1 4f3d
00000020: 75a5 583e 6f84 c73d bbe0 31bd caeb 773c
00000030: 72a2 0c3d 5d00 9fbd 453d e43d ac21 04bd
00000040: 41b6 f6bb 810d 943c 6c79 83bd d722 4cbd
00000050: 5dc3 673c 5bc7 afbd f6d1 3fbc 2d5b dbbd
00000060: dfe8 183e e600 adbd 9c1a 203d 10d2 eebd
00000070: 573d 42be b550 2e3d 61ed 793c 2782 d23c
00000080: 18fe 4d3e afbe 90bd a401 57be e875 4dbd
00000090: 9b3e 313a ca4a a33d 6186 6f3d a7d4 c53c
000000a0: 9f07 e6bd fcd4 0ebd 1bf6 2c3e 8f5d 9dbd
000000b0: 18e6 7cbb 901f 973d bab8 99bb 3ca1 59bd
000000c0: a262 c7bd b0e3 adbd 82dc 18bd 9b57 b63d
000000d0: 98fb 4d3d 8f63 573d 3f3e 033b ac5b 71bd
000000e0: dfcf b6bd 7ce7 e53c aef6 ce3c 4461 873c
000000f0: 5222 963d 6293 d73a 0c8a b7bd 3549 643d
00000100: bb75 2a3a c9e1 dbbd e5ef 9ebc 691c 3b3d
00000110: 2e2f 963d 7eac 463a b0e8 3f3d 65fd 5ebd
00000120: 907f dabc 5361 07be 0e23 c33c 4153 a3bc
00000130: a381 023c b29f 42be 89e9 5fbd 3c6e 22be
00000140: bc4d 923d f472 13be 4755 183d f3ed 223d
00000150: 4ecd 963d e6f6 493b d8d1 49bd a3c6 67be
00000160: 14da f03d ac9d e23c d9af debd 7e7b 2cbe
00000170: 0436 b6bd 4d88 6bbd 126a 673d 3d8f d0bb
00000180: 45b6 da3d 4e40 1abe b955 2e3c 1684 18bd
00000190: 7508 e23d 7774 aa3c 8d80 103b abb7 023d
000001a0: 4a05 7dbd 77d5 3ebd ef3e 7dbd 9ab9 cb3d
000001b0: baba 4c3c 276c a7bd 4649 6ebd d2a5 2d3d
000001c0: fa82 fa3d 9c80 f13c e991 383c 66aa adbd
000001d0: 17d5 9cbd fa21 b43d 8bf1 4d3d a2cd e1bd
000001e0: 5684 27bd 5dcd 143c 9448 c13c b4ad 5e3c
000001f0: 92f2 febb acc9 5dbd be07 1abd 240e bbbd
00000200: 5035 1dbc 9a52 b03c 8741 0ebe 6d0a e1bd
00000210: 93ec 60bd 8715 573c f1f8 56bd ae06 0bbb
00000220: b02b 05bd 17e5 913d da82 4abc e16f 3dbc
00000230: 9ca9 5bbd 1306 9abd da80 593d 80e7 30bc
00000240: aad3 d73d 7038 58bb 4a56 38be 5511 ce3d
00000250: 7703 5fbd 750b 053e 9f51 0bbe 980d 0b3e
00000260: 0f5a f13c 0d42 853d a999 843b 27a3 6dbd
00000270: 6936 733d e3cf 0a3d a1ef 943d 6484 c4ba
00000280: 8467 c7bd d6ce 13bd c293 003c c7f2 e0bd
00000290: 52f8 dbbd 6739 873d 54c0 2b3e 25df f7bd
000002a0: ef24 33bc 8802 b13d 3258 a3bc d068 12bd
000002b0: 0752 90bd f254 7cbd 95f6 e83c 8350 be3d
000002c0: 03c5 2c3d 2b57 113c 14e2 a03b 0d4c 47b9
000002d0: b9e8 a0bd 749c a1bc 3fa3 8f3c e6a3 343d
000002e0: b2c1 a93d 0aa6 6d3c 284f 58bd 0dcc 71bd
000002f0: 3d7e 263d 39ad c33c 4d51 6f3c f418 d73d
00000300: 6b75 043c c28d a53c 2df9 223c 3f28 b2bd
00000310: 62ce ccbd 387d 323c 7e54 a9bd ec6a fd3b
00000320: 7e02 a13d 6499 d7bd 3b1a a03d fb29 963d
00000330: 4b41 0cbd f47f b63d 5dd0 0bbd ef68 aa3d
00000340: 287a c8bc e37a 3cbd 954c a73b 2424 24bc
00000350: 367e 193d e807 d83a 3587 f33a 6497 093e
00000360: 7765 a63c df7c 3ebc 68f0 a93c fb53 4ebe
00000370: aad2 a5bd 5e9b b53c 98a4 1a3e 6514 fbbc
00000380: 0d3f b03d 7cc0 17be 0742 92bc 5e87 d9bb
00000390: d605 503d 040c 153e 3ec8 d63c db09 93bd
000003a0: 4540 cc3d 6c77 38be 8cc3 f03d 340c 68bc
000003b0: 4984 3c3e d7da 633c e5e6 c0bb 96ad 253d
000003c0: 36c5 de3c d06f ca3a 752a 8bbc 76a5 2ebd
000003d0: 4199 80bd abaf 46bd d2af 1bbd 20ab c03d
000003e0: dc2b f53d 044b 703d a317 e6b9 8cbf 2b3d
000003f0: 50bf fb3c 29b2 f6bd 3b5a 63bd 981f 463d
0.054896895 -0.07544711 0.076291144 0.009256924 -0.06707278 -0.12330867 0.09332713 0.050691176
0.21156867 0.097420566 -0.04342721 0.0151319 0.034334607 -0.07763741 0.11144499 -0.032258675
-0.0075290506 0.018072845 -0.06419644 -0.049837913 0.014145699 -0.08582946 -0.011707773 -0.1071075
0.14932583 -0.08447437 0.039087877 -0.1166116 -0.18968712 0.042557437 0.015254349 0.025696827
0.2011646 -0.0706762 -0.2099672 -0.050161272 0.0006761343 0.07973249 0.058477763 0.024149252
-0.11231922 -0.034871086 0.16890757 -0.076838605 -0.0038589295 0.07379067 -0.0046912106 -0.05313228
-0.097356096 -0.084906936 -0.037319668 0.08903428 0.050288767 0.05258518 0.0020026115 -0.058925316
-0.08926367 0.028064482 0.02526411 0.016525872 0.07330765 0.0016447122 -0.08961877 0.05573388
0.00065025286 -0.107364245 -0.0194015 0.04568139 0.073332176 0.0007578804 0.046852767 -0.054440875
-0.026672155 -0.1322072 0.023820426 -0.01993716 0.007965478 -0.19006231 -0.054666076 -0.15862364
0.07143733 -0.1439932 0.0371907 0.039777707 0.073633775 0.003081733 -0.04927239 -0.22634368
0.11760345 0.027663074 -0.10873384 -0.16843984 -0.088970214 -0.057503033 0.05649764 -0.0063647316
0.106792964 -0.15063593 0.010640555 -0.037235342 0.11036769 0.020807488 0.0022049278 0.03191344
-0.061772622 -0.046590295 -0.061827596 0.0994751 0.012495691 -0.08174925 -0.058175348 0.042394467
0.12232013 0.029480271 0.011265256 -0.084797665 -0.07657831 0.08795543 0.05027918 -0.110255495
-0.04089769 0.009082166 0.023594178 0.013591219 -0.0077803815 -0.054147407 -0.03760504 -0.091335565
-0.00959523 0.021523762 -0.13892184 -0.10988317 -0.054913115 0.013127691 -0.052483503 -0.0021213698
-0.032512367 0.071237735 -0.012360299 -0.011562319 -0.05362855 -0.0752069 0.053101398 -0.010797381
0.105384186 -0.0032992624 -0.18001667 0.100618996 -0.054446664 0.12992652 -0.13605355 0.13579404
0.029461889 0.06506739 0.004046638 -0.058016922 0.05937806 0.033889662 0.07272268 -0.0014993069
-0.09736541 -0.036085926 0.007847728 -0.10983806 -0.10740723 0.066027455 0.16772586 -0.12103108
-0.010934099 0.08643061 -0.019939516 -0.03574449 -0.070468955 -0.061604448 0.028437892 0.092927
0.042180073 0.00887088 0.004909763 -0.0001900645 -0.07856888 -0.019727923 0.017533896 0.04410162
0.082888976 0.014504919 -0.052809864 -0.05903249 0.040647734 0.02388631 0.014606786 0.10502806
0.008084635 0.020209197 0.009947103 -0.086990826 -0.10000302 0.010894112 -0.08268069 0.0077336933
0.078618035 -0.10527304 0.07817503 0.07332226 -0.034241956 0.08911124 -0.034134258 0.08320796
-0.024472311 -0.04601563 0.005105565 -0.010018382 0.03747388 0.0016481848 0.0018579724 0.13436657
0.020312054 -0.011626451 0.020744517 -0.20149224 -0.080968216 0.022168811 0.1510185 -0.030649373
0.08605776 -0.1481952 -0.01785375 -0.0066384515 0.050786816 0.14555365 0.02621853 -0.07179614
0.09973196 -0.18014306 0.117560476 -0.014163066 0.18409838 0.013907156 -0.0058869 0.040448748
0.027193647 0.00154447 -0.016988019 -0.042638265 -0.06279231 -0.048507374 -0.038009472 0.094076395
0.11971256 0.05866529 -0.0004388663 0.04193072 0.030730873 -0.120457 -0.055505972 0.048369974
