DNNWeightsDefault/model_0/ensemble_0/zz_bbtt_0.onnx (onnx, 947112 bytes, 19 tensors)

0.embeds.0.weight f4 [2, 1]
000000 24 58 88 bf 9f 6e 15 3f
       -1.0651898 0.5837192

0.embeds.1.weight f4 [3, 2]
000000 4f ea 95 3e 07 aa 24 40 4b 95 20 3f 3c ac 3a 3e
       0.29280326 2.5728776 0.62727803 0.18229765
000010 bb 0f e3 3f e3 8e 14 3f
       1.7739176 0.5803053

0.embeds.2.weight f4 [2, 1]
000000 40 66 1e 3f 2b 1a 4f bf
       0.6187477 -0.80899304

0.embeds.3.weight f4 [5, 3]
000000 12 96 7e bf 85 57 d1 3f 57 b9 38 bd 98 3b 2f bf
       -0.9944774 1.6354834 -0.04509863 -0.6845031
000010 46 f2 72 bf 75 c6 bb bd 5c b7 be 3f a6 77 60 3e
       -0.9490093 -0.09168712 1.4899707 0.21920642
000020 84 0d 01 3e 55 e2 11 3f 8c 8d 13 bf 61 aa 13 40
       0.12602812 0.5698598 -0.5763786 2.307274
000030 8c 1c 88 3f 37 1a 90 3f 82 d5 8e 3f
       1.0633712 1.1258 1.1158907

0.embeds.4.weight f4 [5, 3]
000000 35 54 6f 3e 4e da 18 3e 03 5b d9 3e f9 2e 50 bf
       0.23371966 0.14927027 0.4245225 -0.81321675
000010 d0 ed 1d c0 02 ab a6 be b5 aa 42 be e1 37 b0 be
       -2.46764 -0.32552344 -0.19010432 -0.34417632
000020 ed fe a1 be f0 b5 47 40 84 35 eb bc ae 75 1d 3e
       -0.31639805 3.1204796 -0.028712042 0.15376922
000030 c6 e0 b7 3d ef 47 0c 3f 22 a7 10 40
       0.08978419 0.5479726 2.260201

0.embeds.5.weight f4 [2019, 50]
000000 c9 88 bf bf 15 64 86 bf 2e 4f 93 bf f1 3f fc be
       -1.4963619 -1.0499293 -1.1508539 -0.49267533
000010 eb ce 95 bf bb 32 ae be 81 9e 94 3f d3 6a 09 3f
       -1.1703771 -0.3402308 1.1610872 0.53678626
000020 90 5f ce bf 94 13 05 bf 26 ac 1d 3f bb ff 86 be
       -1.6122913 -0.51983 0.615908 -0.26366982
000030 48 5c be 3e f3 28 bb bf c6 4a 5c 3f 8f b4 84 bf
       0.3717978 -1.4621872 0.86051595 -1.0367602
000040 4e b3 18 40 50 d7 d0 bf 61 3d 22 c0 3d 64 92 bf
       2.385944 -1.6315708 -2.5349963 -1.143684
000050 65 8b 29 3f bb 55 98 be 39 4d 84 3f 4f 14 21 bf
       0.66228324 -0.29752907 1.0336066 -0.62921613
000060 43 90 e8 be 4b fd 8e 3e 2f 01 8b bf b1 bd b2 3f
       -0.45422563 0.27927622 -1.0859736 1.3964139
000070 35 34 ac bc d6 5a 8a bf ed 43 df 3e 4a 7d f8 3e
       -0.021020988 -1.0808971 0.4360651 0.48533088
000080 d7 24 15 be bb 5c 4c be aa a6 71 bf a7 41 4d 3f
       -0.14564835 -0.19957249 -0.94394934 0.801783
000090 d2 01 a2 3e e8 75 92 3f 78 a8 47 3f 2f 45 8f 3f
       0.31642014 1.1442232 0.7799144 1.1192988
0000a0 8b a4 d0 3c b2 c0 38 bf 45 48 1b bf ac 2e 15 bf
       0.025469085 -0.7216903 -0.6065715 -0.5827434
0000b0 c3 90 9c be 57 6c 0d bf cd 9d 40 3f 99 4f 28 3e
       -0.30579194 -0.5524344 0.75240785 0.16436614
0000c0 7e 8e cc 3e e0 8c 9e 3f aa 16 0c 3f a0 63 88 3f
       0.39952463 1.2386742 0.5472208 1.0655403
0000d0 cf 6a a4 be ee b9 b6 3b d7 fa e1 3f c8 26 c9 bf
       -0.32112738 0.0055763638 1.7654675 -1.571496
0000e0 9e 2f 26 40 e9 06 5f bf 61 36 39 bf f6 17 22 be
       2.5966563 -0.8711992 -0.723486 -0.15829453
0000f0 ff d7 0f be 39 a3 ce bf 7d be 2e 3f ed 75 19 3f
       -0.1404724 -1.6143562 0.6825941 0.59945565
000100 39 1d 6f bf 3f 69 79 be d9 4f 0a 40 26 ce 21 3e
       -0.93403965 -0.24356554 2.1611235 0.15801296
000110 12 22 bc bf f6 14 c1 3e 1d c3 b1 bf 64 ac 8c 3f
       -1.4697897 0.37711304 -1.3887669 1.099011
000120 b4 10 06 3f 62 0f 8e bf 88 62 80 bf 6d ee 58 be
       0.52369237 -1.1098444 -1.0030069 -0.21184702
000130 b7 fc 6c bd 8f 82 56 bf 3b 90 c0 bf c4 ca 0d 3f
       -0.057858195 -0.83792967 -1.5044016 0.5538752
000140 7e 45 aa 3f 5e 66 ac 3d f1 64 59 bb 8f 2c 9b be
       1.3302457 0.084179625 -0.0033171738 -0.30307433
000150 48 f7 29 bf 36 c8 d0 bd c8 32 85 bc 37 12 49 bf
       -0.66392946 -0.10194437 -0.016259566 -0.7854342
000160 ac b4 81 3f 5e a1 bc bf f3 b2 8a bf 35 01 a1 bf
       1.0133262 -1.4736745 -1.0835861 -1.2578493
000170 ba 77 e6 3c bc a0 6b 3e b8 57 91 bf 90 89 2d 3f
       0.028133262 0.23010534 -1.1354895 0.6778803
000180 88 4d 69 3f 45 95 b6 bd 43 76 66 bf 94 16 1f bf
       0.9113393 -0.0891519 -0.90024203 -0.62143826
000190 ac 71 bb 3f 62 20 f4 3e 8c b6 9e bf 71 a3 bf bf
       1.4644065 0.47680956 -1.2399459 -1.4971753
0001a0 90 d7 06 bf a8 2a 86 3d 9c a8 99 be 86 80 84 be
       -0.5267267 0.06551105 -0.3001145 -0.25879306
0001b0 a8 04 73 bf 8f dd 89 bf e3 40 cc 3e 70 7d d5 bc
       -0.9492898 -1.0770739 0.39893255 -0.02606079
0001c0 38 21 85 3f 44 95 e7 be 49 c2 05 bf a7 f8 f9 3e
       1.0400763 -0.45231068 -0.5224958 0.4882252
0001d0 eb 1a 49 3f 47 49 6b 3f 2a 3f 1f 3f 49 10 1b 40
       0.785567 0.9190869 0.62205756 2.422869
0001e0 0a 42 d3 bd d2 43 3d bf 8e 75 cc 3b 91 9b 35 bf
       -0.1031533 -0.7393161 0.0062395995 -0.709405
0001f0 6c 83 a3 3f f9 ce 20 bf 3c fc 13 bf cb 0c 54 bf
       1.2774482 -0.62815815 -0.57806754 -0.8283202
000200 da fb 0a bf b2 72 86 be a1 0e 60 3f ab 83 73 bf
       -0.54290545 -0.2625938 0.8752232 -0.95122784
000210 b5 86 ed be 53 44 94 bf 4d 98 35 3c b1 47 90 bf
       -0.46391836 -1.1583351 0.011083675 -1.1271878
000220 ea 23 85 3e ac a6 8f 3e 5b f5 cd 3e dd f5 4d 3f
       0.26003963 0.28056848 0.40226254 0.8045328
000230 3e fc c7 3e 5d 47 c7 bf 73 3a cc bf 45 3a 48 bf
       0.39059633 -1.5568653 -1.5955337 -0.7821391
000240 69 41 37 3d ab 40 61 3f 18 eb 55 3f 98 5c 03 3e
       0.044740114 0.879893 0.8356185 0.1282829
000250 54 59 d1 bd 1a 6f 9b bf c6 72 a2 3f 1d 59 03 bf
       -0.10222116 -1.214328 1.2691276 -0.5130785
000260 09 fe 09 3f de cd 89 3f 0a 6d bd bf 68 f8 46 bf
       0.5390325 1.0765951 -1.4798901 -0.7772279
000270 b4 b2 f2 3e 35 38 60 3f 4f 16 3b bf 45 35 4d 3e
       0.47401965 0.87585765 -0.73080915 0.20039852
000280 a4 e0 81 3f be 91 53 3f 1c c7 51 3f 48 98 41 be
       1.014668 0.8264426 0.8194444 -0.18905747
000290 32 bc 34 bf 80 52 0a 3f 96 7b 89 3f c2 e1 5a 3f
       -0.70599663 0.54032135 1.074084 0.8550073
0002a0 e7 3c 1c 3f a0 73 b2 bf 3b 85 80 bf f5 83 d9 bf
       0.6103043 -1.3941536 -1.0040659 -1.6993395
0002b0 0c cc b6 bf 9e e3 2e bf 34 7f df bd 44 eb 56 3f
       -1.428102 -0.68316066 -0.10912934 0.83952737
0002c0 5d 9c 4d 3e 25 19 91 3e bd ff af 3d 9a 6d 4e 3e
       0.20079179 0.28339496 0.085937 0.20158997
0002d0 5d 73 17 3f d0 82 eb be 21 32 18 40 ef 15 3c 3f
       0.59160405 -0.4599824 2.3780596 0.7347097
0002e0 1d f8 69 3f b8 f1 4a 3f 5e 3f ae bf 44 48 11 bf
       0.91394216 0.79275084 -1.3613088 -0.56750894
0002f0 0f ca 90 bf 91 8b 75 be 2a 73 bf be 0a e3 de bf
       -1.1311663 -0.23979022 -0.3739255 -1.7413037
000300 91 fe 6a 3f 7e 3a e6 3f 8c 38 be bf 2c 3c 7f 3f
       0.9179469 1.79866 -1.4861007 0.9970119
000310 5c 75 5c bf c4 51 b3 be 72 bc 2b c0 c7 50 2d 3f
       -0.86116576 -0.3502332 -2.6833768 0.6770138
000320 a3 9d 6e bd 16 dd cb 3f de ed ec 3e 69 87 90 3e
       -0.058255803 1.5926845 0.46275228 0.2822831
000330 79 3c 9d be e2 49 46 3f c6 be d1 3e 34 70 3c bf
       -0.307102 0.77456486 0.4096586 -0.7360871
000340 33 55 a6 3d d5 f6 6c 3f 21 22 04 3f 82 62 9a be
       0.08121719 0.92564136 0.51614577 -0.3015328
000350 de f5 47 3f f5 67 15 bf a4 74 41 bf 46 6c 0b bf
       0.7810954 -0.5836175 -0.75568604 -0.5446209
000360 06 7a 12 be c9 ec e7 be 94 d8 3b be ff 65 0b bf
       -0.14304361 -0.4529784 -0.18344337 -0.5445251
000370 57 a2 8c bf d5 65 e6 3e a6 9d 6b 3e 10 cf 78 bf
       -1.0987042 0.44999567 0.23009357 -0.9719095
000380 a0 05 78 3f 7b aa b8 3f d8 aa 6e 3f 88 58 51 3f
       0.96883583 1.4427027 0.93229437 0.8177571
000390 e8 e6 6e bd d0 02 66 bc 31 d3 45 3f 73 a6 3e 3e
       -0.058325678 -0.0140387565 0.7727538 0.18618183
0003a0 9f fe ab 3e 69 43 90 3e 1b cc 38 be 18 36 a1 bd
       0.33592698 0.2817643 -0.1804661 -0.07871646
0003b0 4d 9d 88 bf ee f0 28 3e ef 86 21 bf 36 bd 79 be
       -1.0673004 0.16498157 -0.6309652 -0.24388584
0003c0 fa a4 4e 3e df 58 e1 3e c4 86 0d bf 27 df a6 be
       0.20180121 0.44013116 -0.5528376 -0.32592127
0003d0 4a 39 b0 bd 7e ee ae 3f 9e fa a0 bc 77 e1 ae 3e
       -0.08604677 1.3666532 -0.019650754 0.3415639
0003e0 2e ad 62 3f 0f d4 12 3f e8 34 61 be c7 80 fd 3f
       0.885455 0.57354826 -0.21992838 1.9804925
0003f0 ba 48 41 bf 63 c8 ae bd 36 8e df 3e 22 cd 1d be
       -0.75501597 -0.085343145 0.43663186 -0.15410283

1.layers.0.0.bias f4 [80]
000000 1e a3 f9 bc 53 c7 70 bd ac 3d 71 bd 14 c1 4c bc
       -0.030473288 -0.05878384 -0.058896706 -0.012497205
000010 49 05 ac bd a9 64 65 bd c2 c7 2c bd 2c 41 0c bc
       -0.083994456 -0.0560042 -0.04218269 -0.00856046
000020 ba 72 ea bc ca 0a f9 3a 41 a1 32 bb 18 73 83 bd
       -0.028619159 0.0019000408 -0.002725676 -0.06418437
000030 4d cf 77 bd f5 f4 8c bd 39 93 72 bc 7b 89 22 bc
       -0.06050043 -0.06882659 -0.014805608 -0.009920473
000040 a4 38 89 bc 17 19 1e bd 2d 4a 96 bb e3 66 76 bd
       -0.016750641 -0.038598146 -0.004586479 -0.060156714
000050 6a 1e 83 ba 12 81 68 bd 5a af 3d bd 8d 75 0f bd
       -0.0010003571 -0.056763716 -0.046309806 -0.035024215
000060 a5 31 d0 bc 7f 2a e6 3b 61 f6 9b bd 14 2a 4c bd
       -0.025414297 0.007024109 -0.076153524 -0.049844816
000070 83 f6 33 bd 17 92 d2 bc b1 3b 60 3c d1 e3 8b bd
       -0.043936264 -0.025704427 0.013686107 -0.06830562
000080 0c 78 01 bd 6a fc 10 bd 88 05 22 bd ab 95 91 bc
       -0.031608626 -0.03539697 -0.039556056 -0.017771563
000090 eb fa 2c bd 33 60 b7 bd f9 a2 5f bd 17 89 1f bd
       -0.04223148 -0.089538954 -0.054598782 -0.0389491
0000a0 37 14 8d bd f3 24 ea 3c 57 1f 88 bc e9 dc 84 bd
       -0.06888621 0.028582072 -0.016616507 -0.06487448
0000b0 4c f1 90 bd 1c 68 1d bd 8d ac cb bc 3a e6 59 bd
       -0.07077274 -0.038429365 -0.024862552 -0.053198077
0000c0 72 a2 46 bd eb 65 06 bd fa 3c 08 bd ef 62 ff bc
       -0.048494764 -0.03281204 -0.033261277 -0.031175105
0000d0 dd db d6 bc 66 45 5c bd 60 09 47 bd c9 45 7e bd
       -0.026227886 -0.05377712 -0.048592925 -0.06207827
0000e0 e3 ac 86 bd 20 62 c6 bd 8d 8b 96 bd 73 e1 64 bd
       -0.06575944 -0.096866846 -0.07350836 -0.055879068
0000f0 22 d2 a2 bc ec de 5d bd 2b 16 0a bd a7 39 c8 bc
       -0.01987559 -0.054167673 -0.033712547 -0.024441553
000100 2b 07 82 bd 81 c7 a6 bd 46 00 f3 bc d8 63 bb bc
       -0.063490234 -0.08143521 -0.029663216 -0.022874758
000110 f8 2b a6 bb a3 38 6e bc 0d bd 1b bd 54 38 0f bd
       -0.0050711595 -0.01453987 -0.03802209 -0.034965828
000120 fe fa c5 3c b7 7c 0c bd 45 98 d9 bc 75 a7 49 bd
       0.024167534 -0.034298625 -0.026561866 -0.049231965
000130 73 82 16 bd 83 9e d2 bd e7 de 7c bd 1f b4 0a bd
       -0.0367455 -0.1028414 -0.061736014 -0.033863183

1.layers.0.0.weight f4 [80, 80]
000000 67 1e e5 bc 4c 6a ff 3b d0 9a 26 be 91 72 34 bc
       -0.027968599 0.007794654 -0.16269994 -0.011013643
000010 6a 29 4d 3e be d9 14 be 23 3a 9f bd 49 18 75 3d
       0.2003533 -0.14536187 -0.077747606 0.059837613
000020 a6 34 9f 3e 38 5b 87 3e 09 83 98 bd ca 7b 2c be
       0.31094855 0.26436782 -0.07446868 -0.16844097
000030 ad c4 dd 3e e8 92 8d be 22 80 7e 3e c6 c3 77 bd
       0.43314114 -0.27651143 0.24853566 -0.06048944
000040 93 3d 9c 3e a3 9d 65 be 24 aa 1e bd 82 6d 1d 3d
       0.30515727 -0.22423415 -0.038736477 0.038434513
000050 9b a2 37 3e 97 7a cb be 2c 55 6a 3d c9 cc 7c 3e
       0.17933123 -0.39741966 0.057210132 0.24687494
000060 43 1f a9 be 12 62 4b be 5f ef 04 bd fd 14 9b be
       -0.33031663 -0.1986163 -0.032454845 -0.3028945
000070 61 6e 61 bd 2e 4c e6 3d 02 d7 81 3e 91 04 2a bd
       -0.055036906 0.11244999 0.2535935 -0.04150826
000080 26 1a 8e be 74 e8 8f bd 9f fb 12 3d 50 c8 83 3e
       -0.27754325 -0.07026759 0.035884496 0.25738764
000090 b6 54 9d 3d 8e 77 d8 bd 04 56 6e bd 6b d0 d9 3d
       0.07682173 -0.10569678 -0.0581875 0.10635456
0000a0 d8 65 7c bd a2 29 09 be 04 52 cf bc f4 3b 34 be
       -0.061620563 -0.13394788 -0.025307663 -0.17600995
0000b0 75 72 20 be 15 1c 85 bc f3 8a 0c 3e d8 57 6f 3d
       -0.15668662 -0.016248742 0.1372488 0.058433384
0000c0 ce a2 35 bd 33 60 50 3e c1 bd 1f be db df ea bc
       -0.044344716 0.20349197 -0.15599729 -0.028671196
0000d0 68 59 ed bd 46 e7 c3 3c f2 87 55 3d e6 1a 26 3e
       -0.115893185 0.02391399 0.0521316 0.16221198
0000e0 d3 2d 92 be ff 94 97 3d 4a e2 89 3e 07 ad 12 be
       -0.28550586 0.074014656 0.26930457 -0.14323817
0000f0 e9 64 0a be d3 f5 6f 3e 26 3c 7e 3d 2e 2a a1 3e
       -0.13515057 0.23433618 0.06206908 0.31477493
000100 50 ae e3 3c f3 dd 08 3e a5 5c b0 3d bb 41 3e be
       0.02779308 0.13365917 0.086114205 -0.18579762
000110 23 ab 0e 3e 94 e7 13 3e 52 71 6b be 22 c2 f1 bd
       0.13932471 0.14443809 -0.22992447 -0.11804606
000120 41 96 17 3c 1c a7 77 bd ce 66 ff 3d 6f 0d ac be
       0.009252132 -0.060462102 0.1247078 -0.33604
000130 82 0b 3c be f9 18 8c 3e d9 50 35 3e c4 c4 02 bf
       -0.18363765 0.27362803 0.17706622 -0.5108149
000140 df a5 c4 3c dd 1a 30 3e 09 f4 9e 3e 9b 0c 10 3e
       0.024004875 0.17197748 0.3104556 0.14067309
000150 55 84 0d 3d bf 97 ae be d9 d2 8c 3d 8e 87 42 be
       0.03455003 -0.34100148 0.068761535 -0.18997023
000160 51 7f 04 be 34 06 55 bd 3e cd 67 3e 9e e3 06 be
       -0.12939192 -0.05200787 0.22636887 -0.13172767
000170 9a ec 45 be b1 df fe bd 68 11 18 3d 06 8f b5 3d
       -0.19328538 -0.124450095 0.037125975 0.0886517
000180 36 03 58 3c b4 eb 87 3e dd c0 89 bc 73 5a 02 3f
       0.013184359 0.26547015 -0.016815597 0.50919265
000190 c6 e7 42 be bc d9 9b bd b7 e4 78 3e b3 3b 0b 3f
       -0.19033727 -0.07609889 0.24305998 0.5438797
0001a0 fd 4b 0a be ca dd e8 bd 89 52 81 be 68 64 f9 bd
       -0.1350555 -0.11370428 -0.25258282 -0.12177354
0001b0 bb 0c 8e 3d 56 03 39 bf fd cc 89 be ad 6b 87 be
       0.06936022 -0.72270715 -0.26914206 -0.26449338
0001c0 8e 01 16 3e d7 f5 9c be db a1 b2 3e 6a dc 7c bc
       0.1464903 -0.3065631 0.3488911 -0.01543341
0001d0 39 e4 8a bc a9 73 76 be 10 3a 6e be f9 fd 1b be
       -0.016954528 -0.24067558 -0.23264337 -0.15233602
0001e0 07 e1 f0 bd 31 c1 fb 3c e1 9f 0b be e8 d2 cb bd
       -0.117616706 0.03073177 -0.13635208 -0.099523365
0001f0 8f fc 1e be 5f b2 29 3d 41 09 6a bd 78 20 89 bb
       -0.15526031 0.041429874 -0.05713773 -0.004184779
000200 ea 37 96 3e f4 7f d6 bc 79 56 40 3e 8a 8d 73 3e
       0.29339534 -0.02618406 0.18782987 0.23784462
000210 47 bf c2 bd 4d 48 07 be ff 06 72 be 6b b1 77 3d
       -0.095091395 -0.13211174 -0.23635481 0.060471933
000220 36 c9 3e 3d b0 72 9f bd b5 7d 81 3b 03 55 e1 3d
       0.04657861 -0.07785547 0.003951753 0.11002543
000230 ce 42 e1 3d fc 86 40 3e 44 df cc 3d 89 70 2c be
       0.1099907 0.18801492 0.10003522 -0.16839804
000240 71 cd af bc a1 35 2c be b6 4f 02 bf 82 7b 1d 3e
       -0.021460267 -0.16817333 -0.5090288 0.15379146
000250 f1 44 52 be 48 bd 41 bd 67 6d 20 3d 08 bd 6c be
       -0.20534112 -0.047299653 0.039166834 -0.23118985
000260 4f 2c a1 3d aa f6 73 3e 1e fc 9e 3b 17 b3 53 3e
       0.07869779 0.23824564 0.004851832 0.20673786
000270 2a b6 99 be 7c 0a 89 3e e7 73 e4 bd ae 88 77 bd
       -0.30021793 0.2676581 -0.11154919 -0.060433082
000280 f1 97 85 bf c0 6e 3f 3e fd f0 f3 3d 8f 12 ab bd
       -1.0436994 0.18694592 0.11911199 -0.08353149
000290 17 ae 29 be 0d 96 2a bf e1 b7 10 3d 2a bb 0e 3e
       -0.16570316 -0.6663521 0.03533161 0.13938585
0002a0 6c 5f cd be 6c 7c cd 3e 45 81 bc be 44 b9 dd be
       -0.40111864 0.4013399 -0.36817375 -0.4330541
0002b0 69 9c 26 bf f6 49 4b 3e 39 7d 91 be 0a ff 18 be
       -0.6508241 0.19852433 -0.2841585 -0.1494104
0002c0 71 38 38 3d f3 f2 be bc cf 7a 98 3d 1b 3d b0 3d
       0.0449757 -0.023309207 0.07445299 0.08605405
0002d0 bd 37 94 bd 38 d5 24 3e 2f 27 fc 3d 6a d2 2a 3e
       -0.07237194 0.16096961 0.12312161 0.16681829
0002e0 86 43 b4 3d c7 37 11 3e 66 d0 8e bb 3c db 83 be
       0.088019416 0.14181434 -0.004358339 -0.257532
0002f0 57 19 aa 3e 31 e8 9f be af 84 3c bd 48 19 3e 3e
       0.33222458 -0.31231835 -0.046024974 0.18564332
000300 55 bb 36 be e3 fe 02 3e eb c6 c0 3d 1a 06 98 3e
       -0.17844899 0.12792544 0.094129406 0.29692155
000310 05 c3 b2 3d c2 fc cd bd f8 87 d3 bd 95 3a 75 bd
       0.08728603 -0.10057975 -0.10328668 -0.05987032
000320 9b a6 81 3e 4d 17 14 bd 4a d6 75 3d b0 4b 19 3e
       0.25322422 -0.036155034 0.060018815 0.14970279
000330 55 fd 69 bd 4c e0 4c 3c 86 8b 53 3d 52 2b 42 3b
       -0.057126362 0.012504648 0.05164673 0.0029627872
000340 02 0a d4 b9 51 49 c3 bd 02 29 0d 3e aa c4 17 3e
       -0.00040443247 -0.09535468 0.13785174 0.14821115
000350 9e e3 84 3e cf 3c 83 bd 72 40 c8 3d cd f7 09 be
       0.25954908 -0.06408083 0.09777917 -0.13473435
000360 5b 55 09 3e 0d 5d b8 be f3 cd 5b be 16 b4 dc 3c
       0.13411467 -0.36008492 -0.21465282 0.02694134
000370 aa 39 85 3e ff 2c c4 bd da c7 53 3e 82 39 46 bd
       0.26020557 -0.09578895 0.20681706 -0.048394687
000380 df 24 95 3d 92 5f ac 3e 3a ba e7 3e 54 a9 49 3e
       0.07282423 0.33666664 0.45259267 0.196935
000390 8e 2a 38 3d 76 34 06 3e aa 0e 55 bd 6c a3 17 3e
       0.04496246 0.1310595 -0.052015938 0.14808434
0003a0 5c 8d 80 be bf ff 0e 3e 1c 31 87 bd 16 9e 27 3e
       -0.2510785 0.13964747 -0.06601164 0.16368899
0003b0 8f 64 e9 bd 2e a1 c2 bc 98 12 08 be e5 27 15 bd
       -0.11396133 -0.023758497 -0.13288343 -0.036415
0003c0 9d 11 21 be 43 4f 9c b9 ee b3 ba 3e 87 80 26 3d
       -0.15729375 -0.00029813693 0.364654 0.040649917
0003d0 25 b4 f2 3d f2 ce d9 bd 35 25 39 3d d1 60 24 3b
       0.11850766 -0.10635175 0.0452015 0.002508212
0003e0 87 19 61 be 64 21 ca 3e f4 53 35 bd c4 18 1b 3f
       -0.21982394 0.394786 -0.044269517 0.60584664
0003f0 bf 67 f8 bd ce 84 e0 bd eb 46 0b bf 21 fc cb 3e
       -0.12129163 -0.109628305 -0.5440509 0.39840797

1.layers.1.0.bias f4 [80]
000000 36 29 9b bc b1 a3 ce b9 1a 45 d7 bb 3c 91 7c bd
       -0.01894055 -0.0003941334 -0.006569517 -0.061661944
000010 9c 69 1c bd 14 9f 4e bd 79 a7 00 bd 35 14 78 bd
       -0.038186654 -0.050444677 -0.031409714 -0.060566146
000020 d5 a7 c2 bc 7d f1 51 bc a7 c2 47 bd 54 4e 65 bc
       -0.02376167 -0.012813923 -0.04876962 -0.013995726
000030 bd 57 0a bd 43 b0 05 bc 2b 89 c7 bc f9 48 8f bd
       -0.03377508 -0.0081597 -0.024357399 -0.0699634
000040 fd 16 4d bd be 42 0a bd 1b da 2d bd fa 2c 88 bd
       -0.05007075 -0.033755057 -0.04244433 -0.066492036
000050 2d cb 74 bd 87 da aa bc c0 78 a6 bc 3b 97 cb bc
       -0.059764076 -0.020856155 -0.02032125 -0.024852386
000060 b1 76 85 bd f8 ae 47 bd 24 e4 5d bd 76 a6 0b bd
       -0.06516779 -0.048750848 -0.05417265 -0.034094296
000070 e9 14 48 bd c2 3b 05 bd d0 9c f5 bc e5 35 18 bd
       -0.048848066 -0.032527693 -0.029982 -0.037160773
000080 a1 61 92 bd 11 6e 95 bd e1 eb d5 bc dc 07 87 bc
       -0.071475275 -0.07296384 -0.026113452 -0.01648324
000090 0b 15 50 bd 3a b1 68 bd 89 7e 06 bd 39 c1 d2 bc
       -0.05080132 -0.05680964 -0.032835517 -0.025726901
0000a0 fb f6 0b bd 95 39 4e bd 94 63 ce bc fe 55 2b bc
       -0.034171086 -0.050347883 -0.025193967 -0.010457514
0000b0 42 ee 00 bd 03 cd 16 bd cf 99 9e bd ac 2b 57 3b
       -0.03147722 -0.03681661 -0.077441804 0.0032832427
0000c0 87 b6 61 bd 18 b5 27 bd fa fb 9e bd 05 6a 10 bd
       -0.055105712 -0.04094419 -0.077629045 -0.035257358
0000d0 2b 86 5d bc f2 2f 89 bd 28 64 17 39 81 a5 24 bd
       -0.013520758 -0.06698598 0.00014437793 -0.0401969
0000e0 38 2e 01 bd 56 fb a0 bd a5 81 02 3d fa a3 42 bc
       -0.03153822 -0.078604385 0.03186192 -0.011879915
0000f0 a1 d4 65 bd a4 f6 69 bd 59 60 05 bc 07 f0 6a bd
       -0.05611098 -0.05711998 -0.008140647 -0.057357814
000100 ad 7b 03 bb 93 cb a8 bc 85 68 40 bd 48 9a 49 bd
       -0.002006273 -0.020604884 -0.046974678 -0.0492194
000110 1e 91 94 bd 5e 17 04 bd 2f f0 39 bd ed 0d f6 ba
       -0.072542414 -0.032248847 -0.045395073 -0.0018772461
000120 8f c4 1b bd 12 08 09 3c e4 c4 2e bd 37 6c f4 bc
       -0.03802925 0.0083637405 -0.04266824 -0.029836757
000130 91 ef 27 bd 84 52 54 bd 56 18 52 bd 50 e2 6c bd
       -0.040999953 -0.051836506 -0.05129274 -0.057833016

1.layers.1.0.weight f4 [80, 160]
000000 6a 07 78 be 0d 03 fa bd b6 0e cb 3d 76 07 f6 bd
       -0.24221578 -0.12207613 0.09914915 -0.12013142
000010 95 26 10 3c c8 ae 24 bd 13 2d 92 bd d2 bd a0 3d
       0.008798261 -0.040205747 -0.071375035 0.07848705
000020 94 23 02 bd 13 9a 97 bd 09 31 14 3a 29 7a 83 bd
       -0.03177221 -0.07402434 0.0005653059 -0.064197846
000030 9f 33 80 bd be 69 20 be 14 4c 88 3d c2 8e 5d be
       -0.06259846 -0.15665337 0.06655136 -0.21636489
000040 10 71 26 3e ed b1 b7 bd ee 63 95 bd bb 4d d7 bc
       0.16254067 -0.089694835 -0.07294451 -0.026282182
000050 26 28 89 3e 64 c2 e3 bd 85 5e 99 bd 4c 34 58 bd
       0.26788443 -0.111210614 -0.07488731 -0.05278425
000060 3e ac 5b 3e b6 17 89 bd 54 fe 6a 3e db 2c 21 3d
       0.21452424 -0.066939756 0.22948581 0.039349418
000070 d8 d6 42 3d a6 c4 55 3e 96 22 9f bc 0f 6d 1f 3e
       0.047568172 0.20875797 -0.019425672 0.15568946
000080 0d 2b b2 3d bb 65 25 3d 0b 89 64 3d d3 ce d5 bd
       0.086996175 0.04038022 0.055794757 -0.10439839
000090 d3 ee 87 3d 91 a8 28 be 28 b0 4b be c6 f3 c4 bc
       0.06637349 -0.16470553 -0.19891417 -0.024042021
0000a0 fe 1b cc bd 0c 3a 79 3d 47 45 7d be ef 3e 08 3e
       -0.099662766 0.060846373 -0.24733458 0.13305257
0000b0 4e d2 9e bd c2 69 f2 3c da 3e 39 be 83 7c 5b 3e
       -0.07754956 0.029591445 -0.18090382 0.21434216
0000c0 ae c9 c6 3c 16 7f 17 be a9 c0 c6 3d ca 95 83 3e
       0.02426609 -0.14794573 0.09704716 0.25700217
0000d0 93 9f b9 bd 1a db 09 bd 89 7d 15 be 6e 41 bf bd
       -0.090636395 -0.033656217 -0.14598669 -0.093386516
0000e0 51 a9 9a bd 61 cb da 3d f3 fe 48 bd 6f cb 1d 3b
       -0.07551826 0.10683323 -0.049071264 0.0024077555
0000f0 f1 01 a1 3d 00 03 65 3d a8 f8 13 be cd 1f 6a 3d
       0.078616984 0.055911064 -0.14450324 0.057159234
000100 05 32 05 bb 44 40 e0 3c a5 1c 9a bd d2 22 51 3c
       -0.0020324003 0.027374394 -0.07524995 0.0127646495
000110 cd 62 7d bd 27 75 03 3d 01 ec 93 3d 82 36 14 3e
       -0.061861802 0.032094147 0.072227485 0.14473918
000120 1e b6 51 bd 98 7c bc 3c 6d cf f1 bc 8a f9 0d 3e
       -0.05119907 0.02300863 -0.029517854 0.13864723
000130 61 d2 27 bd 9f 81 77 3d 0d d2 78 3c c5 72 21 be
       -0.040972117 0.06042635 0.015186799 -0.15766437
000140 ec 72 3a bd 59 f2 2a 3e e0 7a 86 bc da 93 fd bd
       -0.045519754 0.16694011 -0.016416013 -0.12381716
000150 69 26 81 be f5 86 4c 3d eb 7c 29 be 30 c3 fa bd
       -0.25224617 0.049933393 -0.16551559 -0.1224426
000160 3f 53 20 3d 69 27 29 be 0c ce 70 3d 5d dd 3c be
       0.03914189 -0.1651894 0.05879025 -0.18443818
000170 0e e4 43 bd af af 7e 3e 63 52 a0 bd ee 6c b8 bd
       -0.04782491 0.24871705 -0.07828214 -0.09005152
000180 d4 88 8d be da 2c 17 bd 7f 5a bb 3e b0 f4 76 bb
       -0.27643454 -0.03690801 0.3659248 -0.0037682466
000190 49 95 ea b9 87 48 81 3d a7 e6 30 be ae 4f 20 3c
       -0.00044743184 0.063126616 -0.17275487 0.009784622
0001a0 08 04 4e 3d 05 0c a4 3e 42 73 81 3d 68 8f bb 3c
       0.050296813 0.3204042 0.06320812 0.02289553
0001b0 d3 1f f2 bb 01 4d cc bd 7c e9 1b be 0e b0 05 bd
       -0.0073890476 -0.09975625 -0.15225786 -0.032638602
0001c0 41 7f 86 bd d7 ed c3 bc 27 b7 c1 3d 3f 25 27 be
       -0.065672405 -0.023917122 0.09458762 -0.16322802
0001d0 7d 7e 18 3d 5f 2f 9c 3d 25 66 07 be 5c 77 44 be
       0.037230004 0.07626223 -0.13222559 -0.19186157
0001e0 cc 8e 8d 3c 07 27 3d 3d 2d 60 38 be c2 de 35 3d
       0.017280005 0.046179798 -0.18005438 0.04440189
0001f0 b3 23 4a 3e 8f 1e 37 be 52 f0 25 3b 07 e8 91 bd
       0.1974018 -0.17882751 0.0025320244 -0.07124334
000200 3e c9 06 3d 92 60 cb 3d e2 37 d1 3c c9 98 df 3d
       0.032906763 0.09930529 0.025539342 0.10917813
000210 7b 43 ad bd 43 f1 34 3e 9b dd 8e bd d4 85 77 bd
       -0.084601365 0.17670159 -0.06975862 -0.060430363
000220 80 74 b9 3d 44 c4 87 39 63 ce 0a 3e a3 c4 d9 bd
       0.09055424 0.00025895436 0.13555293 -0.106332086
000230 81 58 31 3d a5 6d df 3d 49 7e 37 bd 99 d8 a8 bd
       0.043297295 0.10909585 -0.04479817 -0.08244438
000240 17 b4 bd bd 25 46 dc 3d 75 fc ac 3d d1 84 9e 3d
       -0.09262865 0.107555665 0.0844659 0.077401765
000250 5b 9f 91 3e b3 be f5 bd a7 7a 05 3d d1 47 03 bb
       0.2844189 -0.119992636 0.032587674 -0.002003182
000260 8a 38 45 3e 52 53 c2 bc a4 5a 8d 3c e0 cc 64 bc
       0.19259849 -0.02372137 0.017255135 -0.013964862
000270 c6 c3 b7 3d a4 40 da 3d 8c b5 f5 bd ce 36 08 3e
       0.08972888 0.106568605 -0.11997518 0.13302156
000280 dc 8e d6 3c 06 f9 a9 bd 1f a6 ff bd 7c 63 14 3d
       0.026191168 -0.082994506 -0.12482857 0.03622769
000290 07 d0 55 3c 19 ab 58 3e 90 7b 8b ba fa 30 05 be
       0.013050086 0.21159019 -0.0010641683 -0.13006964
0002a0 44 97 0a bd c5 96 41 be da 07 0c bd 05 d3 5c 3d
       -0.033835664 -0.1890517 -0.034187175 0.05391218
0002b0 04 14 1d bd 92 4b 00 bc 6f d6 3a 3e 36 8a 58 bd
       -0.038349167 -0.007830517 0.18245862 -0.052866183
0002c0 ba c1 a7 bd 3d 1c da bb c6 d1 42 bc 93 41 14 3e
       -0.08191247 -0.0066561983 -0.011890834 0.1447814
0002d0 51 db 77 bd 9e 02 84 3d 3f 05 cc be 16 2b 9d bd
       -0.06051189 0.06445812 -0.39847752 -0.076742336
0002e0 d0 9f b1 3c a0 a1 59 bd 6f 90 49 be 0c c6 4c 3e
       0.02168265 -0.053132653 -0.19684003 0.19997424
0002f0 00 e1 2e bd 79 71 f6 bc 1b a9 b3 3d 9b e4 06 be
       -0.042695045 -0.030083405 0.08772489 -0.13173144
000300 22 95 df bd de 44 5a 3e 2b 14 0a 3d 8e 61 04 3e
       -0.10917117 0.21315333 0.03371064 0.12927839
000310 22 97 d5 3d 04 b2 56 bd 1f ad 00 bd 5c a1 1c 3b
       0.10429217 -0.052415863 -0.0314151 0.0023899889
000320 74 4b cc 3d 60 29 15 be ad dc f7 bd 1c f6 3b 3d
       0.09975329 -0.14566565 -0.121026374 0.045889005
000330 8f 31 e3 bd 58 a7 11 3e a7 12 55 bd 26 ea 08 be
       -0.11093437 0.14223993 -0.05201974 -0.1337057
000340 9b 7c 2a be b8 27 75 3d 50 02 d0 3c 28 f9 d2 bd
       -0.16649096 0.059852332 0.025391728 -0.10301429
000350 45 52 f1 3d 5d c4 ec 3d ba 05 1b bc 36 4a 00 3e
       0.1178327 0.11560891 -0.009461815 0.12528309
000360 31 32 00 be 54 06 96 bd e5 17 8f 3e ac 3f 03 3e
       -0.12519147 -0.07325426 0.27947918 0.12817258
000370 a5 4c ec bd 06 c5 19 be 48 c1 34 bd be f7 30 3c
       -0.11538056 -0.15016565 -0.04412964 0.010801254
000380 95 41 09 3e ad 38 c0 3d 6f c5 a6 3d 99 53 57 be
       0.13403924 0.0938581 0.08143126 -0.21027984
000390 89 59 2b 3d 04 81 12 3d 43 8b 76 bd c8 38 19 3d
       0.041833434 0.03576757 -0.060191404 0.037407666
0003a0 97 0a bc bd eb bf 80 3e 0c b6 11 3e b1 9c a8 3e
       -0.09181707 0.25146422 0.14229602 0.32932046
0003b0 1f 63 e6 bd d1 36 f0 3d 7f fd 77 3e 6e ee ae bc
       -0.112493746 0.117292054 0.24217795 -0.021353927
0003c0 42 8f 0c 3d 28 6d 5f bc e5 48 c6 bd d8 62 65 ba
       0.03431631 -0.013636865 -0.09681872 -0.00087503856
0003d0 11 93 82 3d 94 3e 3f be d7 f2 15 be de 1b 91 3d
       0.06375707 -0.18676215 -0.14643417 0.07085393
0003e0 a6 3b 97 3d d0 df 24 3e ec e9 5d 3e 4a 3e 13 bc
       0.07384424 0.16101003 0.21671265 -0.008987019
0003f0 07 fd 55 3d 78 d1 06 be e8 5c 4f be ff c0 f5 3d
       0.05224326 -0.13165843 -0.20250285 0.11999702

1.layers.2.0.bias f4 [80]
000000 62 ac 07 bd 9e d0 34 bd 3b b5 98 bc d8 d1 71 bd
       -0.03312338 -0.044144265 -0.018641105 -0.059038013
000010 de f9 1a bd 30 df a5 bc b0 90 66 bd 77 bf ad bc
       -0.03783595 -0.020248026 -0.05629033 -0.021209462
000020 5b c0 25 bc b0 8c 54 bd 77 ca 85 bd 29 27 09 bd
       -0.010116662 -0.051891983 -0.06532758 -0.03348461
000030 5e 2f 27 bc 67 8e 22 bd 5f a2 4a bd 19 e8 7f 3c
       -0.010204164 -0.039686587 -0.049471255 0.015619301
000040 40 1a 39 bd f6 2b 74 bd 73 20 6b bc 87 ca a5 bc
       -0.04519105 -0.059612237 -0.014350998 -0.020238174
000050 b9 77 83 bd cb 01 b5 bc 1d 3d 1c bd d1 7c ce bc
       -0.0641932 -0.022095582 -0.03814422 -0.025206001
000060 8b 33 2a bd 98 4d d3 bc c8 af 5d bd 76 2b 54 bd
       -0.04155306 -0.025793836 -0.054122716 -0.05179926
000070 ec cf 6b bc 1c 51 8f ba 67 29 48 bd 3a b7 d9 bc
       -0.014392834 -0.0010934207 -0.04886761 -0.026576627
000080 2a 74 d4 bc 51 94 16 bd 74 51 8c 3c f2 ad 3c bd
       -0.025934298 -0.03676254 0.017128684 -0.046064325
000090 16 96 5a bc 6f 60 36 bd f4 18 75 bd e8 cc 65 bd
       -0.013341447 -0.04452556 -0.05983825 -0.056103617
0000a0 25 92 f9 bc 0d 1d 80 bc d9 d1 f1 bb f5 4e 7b bd
       -0.030465195 -0.015638852 -0.007379752 -0.061354596
0000b0 e0 ff 74 bd 98 fa 13 bb 8e a3 28 bd d8 78 85 bd
       -0.059814334 -0.0022579785 -0.041171603 -0.0651719
0000c0 6b bc 94 bc 38 e5 dd bc 22 8e a6 bc ce ac d6 bc
       -0.018156251 -0.02708684 -0.020331446 -0.026205447
0000d0 78 e0 83 bd 55 cf 4b bd 6e 6f 16 bd 8d d7 e0 bc
       -0.064392984 -0.049758274 -0.03672736 -0.027446533
0000e0 c0 e0 7a bd 33 b2 0e bd b5 99 17 bd de cf e0 bc
       -0.061249495 -0.034837913 -0.03701182 -0.027442869
0000f0 d6 d9 ad bc 20 88 48 bd bd 1a ea bc 23 79 3e bd
       -0.021222036 -0.048957944 -0.028577203 -0.046502244
000100 09 d6 89 bd 9f 79 cc bb 82 21 8e bd aa 52 5c ba
       -0.06730277 -0.0062400843 -0.06939985 -0.0008404652
000110 2c f4 d7 3a 8a e2 cb bc 15 8f b3 ba ec 59 7a bd
       0.0016475967 -0.024888296 -0.0013699258 -0.061120912
000120 4c e0 1d bd ea f3 85 bc 0c 73 86 bc 75 b6 69 bd
       -0.038543984 -0.016351659 -0.01641228 -0.05705877
000130 25 a2 30 bd 7f 23 84 bc 43 86 c7 bb 1f 0d 0c bd
       -0.043123383 -0.016130207 -0.0060890033 -0.0341922

1.layers.2.0.weight f4 [80, 240]
000000 86 93 7b bd be a5 e1 3c 12 74 8b be 40 32 8f 3e
       -0.061419986 0.027544852 -0.27236992 0.27968025
000010 fb 95 43 3e 25 bd 6c 3c bf 6a aa 3d 8f ef 87 3e
       0.19100182 0.014449392 0.083211415 0.26549956
000020 4f 9e 77 bc 70 32 80 3d c4 01 6d bd a8 21 50 3c
       -0.015113427 0.0625962 -0.057863012 0.012703337
000030 fa bf 0c bd 03 d1 33 be 5e b1 32 3d c3 24 3e bd
       -0.03436277 -0.175602 0.04362618 -0.046421777
000040 76 53 9d bd 19 1e 3a bd 6a 8f a9 3b e2 e9 83 bd
       -0.076819345 -0.04543886 0.005174567 -0.06441094
000050 4d d7 61 37 21 d2 e5 bd b1 10 1b 3c e9 f2 68 3d
       1.3461174e-05 -0.112217195 0.009464429 0.056872282
000060 14 e5 cb 3d 65 14 15 3e 67 ed 75 bd 66 c8 d3 bc
       0.099558026 0.14558561 -0.060040858 -0.025852393
000070 c0 48 d4 bd 32 2f ce bc e5 4d 90 3d ec 65 54 bd
       -0.103654385 -0.025168989 0.07046107 -0.051855013
000080 02 64 83 3d c3 7f 94 3d 47 f9 4b 3e 5f 2f 8e bd
       0.06415559 0.07250931 0.1991931 -0.06942629
000090 76 5f 10 3e 9c 79 56 3d 94 39 c0 3d 5f ad f6 3d
       0.14098915 0.05236207 0.09385982 0.12044787
0000a0 40 6e cd bd f0 55 95 3d 94 aa 95 3d b1 ab b0 bd
       -0.10030794 0.07291782 0.07307926 -0.086264975
0000b0 da ee ba 3d 7e 88 fc 3b fc a5 15 3e 2e fa 7e bd
       0.091275886 0.007706701 0.146141 -0.06225031
0000c0 99 ce ca 3d 62 2c e4 bc 64 91 ed bc 1b be e0 bd
       0.099026866 -0.027853195 -0.028999992 -0.1097376
0000d0 4d a4 18 3c 9d 3f d1 bd ce 82 c4 3c 5a 08 2b 3d
       0.009316516 -0.102172114 0.023988154 0.04175601
0000e0 b5 3b e6 bd c1 ea 84 3d c6 80 fe 3d ad 06 92 3c
       -0.11241857 0.06490088 0.12426905 0.017825449
0000f0 77 55 e4 bc 68 a9 9d be 7f 77 15 3c 7a 3b fd bc
       -0.027872784 -0.3079331 0.009122728 -0.03091215
000100 45 09 99 3d f3 4d 1b bd eb 3b 1c bd eb 0b 11 be
       0.07472471 -0.037916135 -0.03814308 -0.14164703
000110 53 a9 21 bd df 5c 09 3e d8 74 29 3d 1a ca 0a 3d
       -0.03946812 0.13414334 0.041371197 0.033884145
000120 9b fe 0c 3d aa c6 0d bb e4 9a 81 3b c5 07 79 bb
       0.0344225 -0.0021633306 0.003955232 -0.0037999016
000130 b0 4d 39 3e d0 f4 7b 3e 7d b4 04 be d6 81 8c 3d
       0.18096042 0.24605107 -0.12959476 0.06860702
000140 b8 33 ad 3c 01 3a 0d be 73 c4 8e bd 86 7f 2b be
       0.021142825 -0.13791658 -0.069710635 -0.16747865
000150 81 32 25 be d0 4b b5 3d 03 a1 f9 3d 43 7b f5 3d
       -0.16132547 0.08852351 0.12188914 0.11986401
000160 3c cb 60 bc 58 63 b2 bc 90 6b c2 bc 52 4d 39 bd
       -0.01372033 -0.021775886 -0.02373293 -0.045239754
000170 5e 24 36 3d 05 3b e9 bd 62 f7 f7 3c 9e 77 e2 3d
       0.044468276 -0.1138821 0.030269329 0.110579714
000180 c2 c0 f0 bc ef 7d 1e 3d 63 f9 6a be 13 4a d2 bd
       -0.02938879 0.03869432 -0.22946696 -0.10268035
000190 6a 95 5e bd 27 41 70 3d 23 31 b6 3d f8 13 45 bd
       -0.05434171 0.058655884 0.08896091 -0.048114747
0001a0 bf 38 14 bd f4 b3 f3 3d b0 fe 80 3c 81 ed e2 3d
       -0.03618693 0.11899558 0.015746444 0.110804565
0001b0 a3 2b 35 bd c7 b2 16 bd 34 26 dd bc 97 66 a0 3b
       -0.04423107 -0.03679159 -0.026995756 0.004895042
0001c0 8a 6f b1 3d ec 8d 9e 3d 95 42 14 3d bc 60 78 3d
       0.086638525 0.07741913 0.03619631 0.060639128
0001d0 82 8f 70 3d 89 69 93 3a 7b 21 f2 bd f5 bb 36 3e
       0.05873061 0.0011246662 -0.11822792 0.17845137
0001e0 78 26 4d be fe e2 20 bc 19 b4 0b bd 02 58 7d 3e
       -0.20034206 -0.009819744 -0.0341073 0.24740604
0001f0 08 92 84 be 0c 26 92 bd 00 03 2a bd 08 5c c7 3d
       -0.25892663 -0.07136163 -0.041506767 0.097343504
000200 a3 0b 1b bd 8d aa fd 3b 16 d7 59 3d 97 c8 13 3d
       -0.037852895 0.0077412785 0.053183638 0.03607997
000210 b1 50 20 3e 56 4d 44 3d 3e 28 1b 3e 33 87 69 3c
       0.15655781 0.047925316 0.1515207 0.014253425
000220 dc 15 b8 3d 2a 38 54 3e 1c 80 95 bc 7e e6 c2 bd
       0.08988544 0.2072455 -0.018249564 -0.09516619
000230 16 d8 29 3d 61 5f 25 be b9 fd fc bc 40 cc 2f be
       0.04146584 -0.16149665 -0.030882703 -0.17167759
000240 c9 f6 73 3d a2 a5 09 3c e5 26 20 be ea 23 25 be
       0.059561525 0.008401306 -0.15639837 -0.16126981
000250 8c 4e d1 bc b7 1e 31 3e ec b8 47 bd 46 80 a4 3d
       -0.02555015 0.17296873 -0.04876034 0.08032279
000260 98 1f 5f be 64 e0 56 3d 18 9f 26 be 13 ea 03 3e
       -0.21789396 0.05246009 -0.16271627 0.12882261
000270 ec 70 10 be d3 ce 4a 3d 66 8e f8 3c a4 b4 01 be
       -0.14105576 0.04951365 0.030341338 -0.12666565
000280 ca a3 70 3e 32 c5 26 be 1e 54 8c 3c 74 72 95 3e
       0.2349998 -0.16286162 0.017129954 0.29188883
000290 1e e1 48 bc 9a 0e f1 3d fa cb a2 bd 7e db 79 3c
       -0.012260703 0.11770363 -0.07949062 0.015250085
0002a0 af 81 c6 3b ba 8d 70 3e bd 20 f0 bd 33 a2 0c 3d
       0.00605794 0.23491564 -0.11724994 0.034334373
0002b0 7e 2b af bd 78 12 1d bd 9e ec 90 3e fc 8c 81 bd
       -0.08553217 -0.03834769 0.28305525 -0.06325719
0002c0 b5 c5 13 bd ac 12 eb bd 73 f4 a2 bd 19 a8 4c bb
       -0.03607722 -0.11478171 -0.07956781 -0.0031228124
0002d0 b2 29 ad 3d ab de 04 be d6 75 99 bd e0 06 a3 bd
       0.084552184 -0.12975566 -0.074931785 -0.07960296
0002e0 5e 53 ec be d2 c4 b3 be 24 db f6 bd 50 1e a4 3e
       -0.46157354 -0.351111 -0.120535165 0.32054377
0002f0 94 ea 35 3e 8b 5f ef 3d c2 14 a7 bd 95 ab 09 3d
       0.17765266 0.11688145 -0.08158256 0.0336109
000300 9c 5e 53 bd 6a 5a a4 3b 8b 31 7f 3d 42 af 60 3d
       -0.0516039 0.005015661 0.062303107 0.05485464
000310 eb 54 47 3e 44 0c ed bd 5b 13 26 3e 32 61 ba bd
       0.19465987 -0.11574605 0.16218321 -0.0910057
000320 bd 9e 53 3b 57 77 08 3e 61 b3 19 3b 60 c8 21 3e
       0.003229066 0.13326775 0.0023452865 0.15799093
000330 29 f7 d3 3d 9b 60 d1 3d 29 5f 83 3d cc a1 ee 3d
       0.103498764 0.10223504 0.06414635 0.11651954
000340 91 71 a6 3d 55 2e 37 3c c8 74 32 3d bf 5e 1b 3e
       0.0812713 0.01118048 0.043568403 0.15172862
000350 0c 61 8a bd 54 4c 12 3e f2 38 97 bd 93 18 13 3e
       -0.067567915 0.1428693 -0.07383908 0.14364843
000360 a3 41 e2 bd bd 7e b1 bd eb d1 0c bd 8a c2 36 bd
       -0.110476755 -0.086667515 -0.03437988 -0.04461912
000370 8a f8 74 bd 5e 4e 65 bd c0 c8 c2 bd 21 f2 39 3d
       -0.059807338 -0.05598294 -0.09510946 0.045396928
000380 af 41 b3 bc 1e 49 26 3e a6 1a 84 bc 0b 92 86 3d
       -0.021881906 0.1623883 -0.016125988 0.06570824
000390 bf 95 00 bd 53 cd 18 be 64 0e af bd f8 a1 dc bc
       -0.03139281 -0.14922075 -0.08547667 -0.026932701
0003a0 e0 6d 31 3e 38 b6 cd bc b6 0a 81 3d 52 99 2a bb
       0.1732707 -0.025111303 0.06300871 -0.0026031327
0003b0 c5 3c 3d bd 62 29 d1 3c fc 2f ab bd c0 d7 01 3e
       -0.046200532 0.025532428 -0.08358762 0.12679958
0003c0 f4 b7 8d 3c 5f bc 03 bd bd d7 ba bd 8d ec 1d be
       0.01729963 -0.032162067 -0.0912318 -0.15422268
0003d0 31 b3 1b 3e 46 c0 94 3d 27 dc 82 bd f3 0c 87 bd
       0.15205075 0.07263236 -0.06389647 -0.06594267
0003e0 20 9a c9 bc a6 07 f8 3d 48 14 c7 3d c4 1f 3c 3d
       -0.024609625 0.12110834 0.09720665 0.04592873
0003f0 4a 42 ed bc be 97 71 b7 3d 1d f5 3c 7b b0 97 3d
       -0.028962273 -1.440005e-05 0.029921168 0.07406708

1.layers.3.0.bias f4 [80]
000000 d1 1e 9c bc 51 ec 31 bc 49 76 1d bd a2 50 26 bc
       -0.019057663 -0.010859565 -0.038442884 -0.01015106
000010 e0 1d 71 bc fa 36 7a bd b9 7a 79 bc 28 e8 a0 bc
       -0.014716595 -0.061087586 -0.015227013 -0.01964195
000020 63 ef cd bd 3f d8 3f bd 07 88 92 bc 9a 3b 1a bd
       -0.10055425 -0.046837088 -0.017887129 -0.037654497
000030 5f 17 08 bd 65 ca c1 bc c7 00 4c bd 05 20 19 bd
       -0.033225413 -0.02365608 -0.04980543 -0.03738405
000040 82 ba ec bc f9 55 a8 ba 87 2f 25 bd 74 60 8c bc
       -0.028897528 -0.0012843005 -0.04032853 -0.017135836
000050 a3 e6 96 bc df c9 b4 bc 72 56 7d bc 0e bc 90 bc
       -0.018420523 -0.022068916 -0.015462505 -0.017667796
000060 bc 9a 6d bd b1 60 ff bb 72 4d f8 bc ca ab 74 bd
       -0.058008894 -0.007793509 -0.030310366 -0.059734143
000070 91 c1 71 bd a2 35 80 bd b7 39 85 bc 3c d3 da bc
       -0.05902249 -0.0626023 -0.016262872 -0.026712053
000080 0b a5 c5 bc 5b 98 44 bc 0e da 9f bd aa 9c 72 3c
       -0.02412655 -0.011999215 -0.078052625 0.014807859
000090 ca b8 41 bd 67 7f 23 bc ca ad 86 bc 1e 20 0f bc
       -0.04729537 -0.009979106 -0.016440291 -0.008735685
0000a0 1e 86 bd bc 9c 8d 08 bd 4b 7b b0 bc 8e d7 64 bc
       -0.023135241 -0.033338174 -0.021543166 -0.013967408
0000b0 99 b5 c6 bb e8 34 f3 bc cd 19 38 bd bb 54 af bc
       -0.0060641286 -0.029688314 -0.04494648 -0.021402707
0000c0 63 fe 32 bd 03 41 57 bc 88 16 7a bd 7a 7c f4 bc
       -0.043699633 -0.013138059 -0.061056644 -0.029844511
0000d0 59 d6 38 bd 31 81 36 bd c5 fc a8 bc cd d9 f0 bc
       -0.045126293 -0.0445568 -0.020628342 -0.02940073
0000e0 98 92 dd bb 0e ed 89 bd 9a dd e2 bc 26 91 28 bd
       -0.00676186 -0.06734668 -0.027693558 -0.04115405
0000f0 b2 50 66 3b 96 00 36 bd 0f ff 3a bc 95 51 0b bc
       0.0035143313 -0.044434153 -0.01141335 -0.008503337
000100 7b e7 07 3b 7a 85 1e bd aa 23 f9 bc 76 ee f0 bb
       0.0020737338 -0.038701512 -0.030412514 -0.0073526455
000110 5e 34 87 3a 41 21 ba bb 11 03 e8 bc c5 2b e9 bc
       0.0010315289 -0.0056802337 -0.028321775 -0.028463254
000120 ca 97 df bc 4b 0f b6 ba 72 db 9e bc ae ac 23 bd
       -0.027294058 -0.0013890056 -0.019391749 -0.039959602
000130 3b d0 35 bc c6 4a 19 bd f9 0a d2 bc 16 bb 3e bd
       -0.011097009 -0.037424825 -0.025639998 -0.046565138

1.layers.3.0.weight f4 [80, 320]
000000 cd f7 9c 3c 87 86 04 bd 56 1b ed bc 3d 3e 89 3d
       0.01916113 -0.032354858 -0.028943699 0.06701324
000010 60 23 5c bd 8c 8d a0 3d de cb a9 bd 13 98 c4 3d
       -0.053744674 0.07839498 -0.08290838 0.09599318
000020 cc ba 59 3d 05 ea 75 3d 46 74 0a bd 02 e2 1c bd
       0.05315666 0.06003763 -0.033802293 -0.038301475
000030 79 73 68 b9 9d 4c c5 bb 7a a8 56 3d f0 56 19 3b
       -0.00022168261 -0.006021096 0.052406766 0.0023397766
000040 72 88 e3 bd 70 25 35 3e 67 09 61 3c e9 7a a5 bc
       -0.11110009 0.17690063 0.013735152 -0.02020021
000050 b1 47 d0 bc fa c5 48 3d d8 a9 10 3e 73 3e 15 3c
       -0.02542481 0.04901693 0.1412729 0.009109127
000060 fe 53 8b 3d 80 5c 45 3c 4a b4 92 bd 79 14 79 3d
       0.068031296 0.0120459795 -0.07163294 0.06081054
000070 06 26 ab 3d 71 fc d0 3d 0a bc b3 3c 1f a6 a7 bd
       0.08356862 0.102043994 0.02194025 -0.08185982
000080 7d 4e 3f bd 96 26 d6 bc 17 ca 4f 3d 89 2c ae bd
       -0.04670571 -0.026141446 0.050729837 -0.08504588
000090 b7 03 03 be 9e b9 cd 3d 40 54 ca 3c 3b b5 65 3d
       -0.12794386 0.10045169 0.024698377 0.056081038
0000a0 77 58 8f bd c5 af cd 3d ac f6 97 bd 42 b9 85 3d
       -0.06999295 0.10043291 -0.07420096 0.06529476
0000b0 91 60 61 3d a3 bb aa 3c c2 1c 16 3e 60 31 63 bd
       0.055023734 0.020841425 0.14659408 -0.05546701
0000c0 f5 1b 5f 3d 88 f3 e7 bc d1 89 84 3d 6d 26 be bd
       0.05447002 -0.028314367 0.06471599 -0.09284673
0000d0 e5 aa 96 bd 90 97 0b bd 0c 57 9d 3d 7d c8 8d bc
       -0.07356814 -0.03408009 0.076826185 -0.017307514
0000e0 03 1e 82 3d 4b ea 82 bc 4c 3e 85 3c bd 88 ed 3d
       0.063533805 -0.01598086 0.016265057 0.115983464
0000f0 09 ed 75 bd c1 83 c6 3d 88 1f e3 bd 2c 3f 83 bd
       -0.060040507 0.09693099 -0.110899985 -0.064085335
000100 16 fe 22 3d f1 91 5e bc 49 f5 e0 bd c6 4a d3 3c
       0.039793096 -0.0135846 -0.109842844 0.02579249
000110 ff 97 27 bd f1 c5 8e bd d1 eb d6 3d 5a 9a a1 3d
       -0.04091644 -0.06971348 0.10494197 0.07890768
000120 ef f1 4e bc 91 b1 62 3d 41 09 17 3c c7 6a 97 bd
       -0.012630924 0.05534512 0.009218515 -0.07393413
000130 e8 94 0e 3e db b7 30 bd e5 74 a4 3d d1 b2 b2 bc
       0.1392399 -0.04314409 0.08030108 -0.021813782
000140 18 55 93 3c 79 fe 37 3c 20 96 16 bc b9 9c 07 bd
       0.017984912 0.011230105 -0.009191066 -0.033108447
000150 be b5 59 3d a2 84 95 bd e7 0a a9 bd 6a dc d8 bc
       0.05315184 -0.07300688 -0.082540326 -0.02647229
000160 e2 c4 16 be fa 0c 89 3d 44 07 0c 3e 33 e4 87 3d
       -0.14723542 0.06691928 0.13674647 0.066353224
000170 2a ac 9b bd 93 d7 f9 3c 5b ec 02 bd 07 dc b4 bc
       -0.07601197 0.030498302 -0.031963687 -0.022077573
000180 80 e2 4d bc 7d 78 dc 3d 4c 5b 2b 3c 6c 55 9c bb
       -0.012566209 0.10765169 0.010458779 -0.0047709253
000190 da 2b 82 bd db 2b 36 3d dc 01 09 bd 26 13 03 be
       -0.0635602 0.044475418 -0.03344904 -0.12800273
0001a0 53 ce 81 3c 0a 6c 9b bc 7e 5d 9f bd a7 f6 82 3c
       0.015845453 -0.018972415 -0.07781504 0.015986754
0001b0 47 f7 fc 3d c1 3e 46 bd a3 ea 25 bc 6b 28 ec 3d
       0.12351852 -0.04839969 -0.010126743 0.115311466
0001c0 92 da b9 3b b4 6d e9 bc 34 3a 15 be 79 c4 dd bd
       0.0056718076 -0.028494693 -0.14572984 -0.1082849
0001d0 f2 1a c2 3d 20 c5 ba bd c8 ae 84 bc c6 6c 44 bc
       0.09477796 -0.0911963 -0.016196623 -0.011988824
0001e0 1c e5 03 bd 06 54 24 bd 4c 2c 8b 3d c0 66 0e 3c
       -0.032200918 -0.040119193 0.06795558 0.00869149
0001f0 2d ad 77 bd fa e0 ff 3b f3 7c 1f bd 11 90 63 bd
       -0.060467888 0.0078088017 -0.03893752 -0.055557314
000200 d0 e6 30 be b4 51 1c be e8 9e 17 bd c7 97 8d bc
       -0.17275548 -0.15265542 -0.03701678 -0.017284287
000210 b0 cc ad bc cc 53 bd 3a d3 7c c1 3d 5a 3e b9 bc
       -0.021215767 0.0014444529 0.094476365 -0.02261274
000220 34 15 46 3d 53 f8 a5 3d 09 38 12 3e ed 76 7b bd
       0.048360065 0.08104005 0.14279188 -0.061392713
000230 a2 1b 15 3e 1d a8 f8 bb 1c 76 95 bd 7f db e6 3d
       0.14561322 -0.0075884 -0.07297918 0.11272334
000240 33 61 00 3d 40 23 ac 3d cf dd 8b 3c 5a a5 c1 3c
       0.031342696 0.08405161 0.01707354 0.023638416
000250 0d 9b 3a 3e 7e 3f d9 ba b8 90 94 3c e7 1c f4 3d
       0.1822321 -0.0016574708 0.018135414 0.11919575
000260 c2 a8 db bd 29 8d 18 bd b6 5c 17 3d 47 4c b7 bd
       -0.107255474 -0.037243996 0.03695365 -0.089500956
000270 9d ec 87 bd dc 2f b3 3c dd 61 0a be 49 34 43 3e
       -0.06636927 0.021873407 -0.13513894 0.19062914
000280 3f 88 01 3e fc 99 98 3c 55 50 84 3d 61 12 dc 3d
       0.1264963 0.018628113 0.064606346 0.10745693
000290 c1 3a 41 3d 99 7d 38 be db 53 8b bd aa 17 bd 3c
       0.047175173 -0.18016662 -0.068031035 0.023082573
0002a0 07 fd 1d 3e 04 c1 5a 3d 93 b4 51 bb 1d b2 2c 3d
       0.15428554 0.05340673 -0.00319985 0.04216205
0002b0 45 4e 27 bd 13 70 51 3d 78 99 1f be c1 63 5c be
       -0.040846128 0.051132273 -0.15585887 -0.21522428
0002c0 90 20 a0 3c 5e 28 cb bb 2e ff 95 bd 17 3f 98 bd
       0.019546777 -0.0061998805 -0.07324062 -0.074339084
0002d0 6d 1b 02 3d ee f8 39 3d c6 dc af 3a be 4e 0f bd
       0.031764437 0.045403413 0.0013417236 -0.034987204
0002e0 c0 49 cd 3c ba 0b aa 3a eb dd 51 3d a6 3b c7 3c
       0.02505958 0.0012973465 0.051237028 0.024320435
0002f0 6f 6c d2 bc 3a 2f 03 be ca 54 4a 3d 19 8e e2 bd
       -0.02568647 -0.12810984 0.049397267 -0.11062259
000300 c8 95 ff bd fd 42 18 3e 7b 0b 62 bd 12 64 09 3c
       -0.124797404 0.14869304 -0.05518673 0.008385675
000310 92 20 c2 3d de 46 74 3d 2f 92 2b bd 0a 74 3b be
       0.094788685 0.059637897 -0.04188746 -0.18305984
000320 13 3d 03 3e 0a 04 31 bd fc cd 4e bd 0e be 5c 3d
       0.12816267 -0.043216743 -0.05048941 0.053892188
000330 00 7f 00 3c 48 93 da 3c 3f bd 86 3d b5 7a be bb
       0.007842779 0.026681557 0.065790646 -0.0058129677
000340 93 93 ec 3d 37 99 af bc 2c 65 53 bd ab 7e 12 3d
       0.11551585 -0.021435363 -0.051610157 0.03576533
000350 2c bb b6 3c 9e af f6 bc 30 35 fd 3d 98 06 eb 3d
       0.022306047 -0.030113038 0.1236366 0.11475867
000360 e6 a7 a6 3c b3 c6 83 bb 87 05 cb 3d 61 1a 6b 3d
       0.020343732 -0.0040214895 0.09913164 0.057398204
000370 5e 4c 36 3c 43 a3 0a 3e d2 84 cb 3c e4 ae 16 3d
       0.011126606 0.13538842 0.024843607 0.036787882
000380 ee 9f eb bd 9d c4 b6 bb a5 da 59 bd a8 9b 8f bc
       -0.115051135 -0.0055776373 -0.05318703 -0.017530277
000390 0a aa 0a bd 81 ea ce bd af e2 88 bd fd ba 2f 3c
       -0.033853568 -0.10103322 -0.066838615 0.010725734
0003a0 75 21 9a bd da 07 34 bb a7 27 f2 3d be fb 26 be
       -0.07525913 -0.00274705 0.11823969 -0.1630697
0003b0 ba 33 07 bd 29 66 e6 bb 42 78 c3 bd 70 ef 23 3d
       -0.033008315 -0.0070312214 -0.09544422 0.040023267
0003c0 f3 da 0b 3d 63 2b 6c 3d dd 90 fb 3d 35 45 69 3e
       0.034144353 0.057658564 0.1228349 0.22780307
0003d0 71 eb 90 3d 76 28 06 bd 27 e7 ff 3d aa 34 10 be
       0.07076157 -0.03275343 0.12495261 -0.1408259
0003e0 d8 fa 1f 3e 0c 31 29 3c 1c 74 3c bd fa fd 48 be
       0.15623033 0.010326635 -0.046009168 -0.19628134
0003f0 80 91 a6 3d c7 7a 08 bd 33 d6 43 bd 0c 45 34 be
       0.08133221 -0.033320215 -0.0478117 -0.17604464

1.layers.4.0.bias f4 [80]
000000 59 c5 cd bc cc 64 aa bc 3b d5 33 bd 1b 7d d4 bc
       -0.025118517 -0.020800017 -0.043904524 -0.025938561
000010 ff 30 25 bd 46 d0 ca bc 94 52 b7 bb d3 17 94 bc
       -0.04032993 -0.024757516 -0.005594561 -0.018077767
000020 3f ca ac bc d7 94 27 bd 04 15 1f 3c f6 13 70 3c
       -0.021092532 -0.04091343 0.0097096 0.014653197
000030 30 f8 a8 bc 1c d4 42 bd b6 46 0d bd ba 23 b3 bc
       -0.020626158 -0.047565565 -0.034491263 -0.021867622
000040 8d 77 93 bd 48 39 43 bd 0f b9 c0 bb 25 e3 aa bc
       -0.07200537 -0.04766205 -0.0058814357 -0.020860264
000050 69 8d 3e 3a 92 e9 6d bd b5 3f 09 bd 09 c7 36 bd
       0.00072689966 -0.058084078 -0.03350802 -0.04462341
000060 3c 22 87 bc 8c af f7 3a 48 17 4e bd fd 8d 6a bd
       -0.016495816 0.0018896922 -0.05031517 -0.057264317
000070 34 af 37 bd b5 39 f9 bc c6 75 51 bd 24 ff b6 3c
       -0.04484482 -0.030423025 -0.051137708 0.022338457
000080 13 77 57 bd 37 53 8b bc 48 07 5c bd 01 73 05 bd
       -0.052603792 -0.017007453 -0.05371788 -0.03258038
000090 ae 1a 9d bc f0 7b 5b bb 83 9c 7b bc cf d0 b2 bd
       -0.01917776 -0.003349062 -0.0153571395 -0.08731233
0000a0 a2 d0 c5 bc b4 88 39 bd 2b 1b fc bc 38 33 54 bd
       -0.024147335 -0.045296386 -0.030774673 -0.05180666
0000b0 75 a8 e6 b8 b8 f9 dd bb 90 3e a5 bd 53 23 99 bc
       -0.00010998632 -0.0067741536 -0.080685735 -0.018693602
0000c0 73 dc e9 bc 08 6c 42 bd 40 96 f8 bc 3b fc 42 bd
       -0.028547501 -0.047466308 -0.030345082 -0.047603827
0000d0 38 f6 1a bd d2 15 72 bc 1a cf 1a bd bd 05 43 bd
       -0.03783247 -0.01477571 -0.037795164 -0.047612894
0000e0 d8 29 e2 bc b8 9f 92 bb 09 6f fd bc 24 ae 0d bd
       -0.027607843 -0.0044746064 -0.030936735 -0.0345899
0000f0 ff 9c 92 bc c6 c5 ce bb 8d 2d 08 bd 8b 9c 4c bd
       -0.017897127 -0.0063101975 -0.033246566 -0.04995398
000100 f2 2b 04 bc 25 1c 23 bd 7a b4 1e bd 89 bd 53 bc
       -0.008067118 -0.039821763 -0.038746335 -0.012923607
000110 f7 d6 b2 3b d9 24 ae bc 5b 41 a7 bb c4 ff 12 bd
       0.0054577547 -0.021257805 -0.0051042265 -0.03588845
000120 a7 c0 1f bd ea 91 6f bc 96 60 b9 bc e0 e6 95 bc
       -0.039002087 -0.014622191 -0.022629064 -0.018298566
000130 8f ec 13 bd 7f 85 30 3c 7d 64 86 bc c5 c8 7b bd
       -0.03611427 0.010774015 -0.016405338 -0.061470766
