DNNWeightsDefault/model_0/ensemble_0/zz_bbtt_9.onnx (onnx, 947112 bytes, 19 tensors)

0.embeds.0.weight f4 [2, 1]
00000000: de6d 93be 5772 babf
-0.2879476 -1.4566144

0.embeds.1.weight f4 [3, 2]
00000000: 9659 c33e 8927 ab3e 7021 bd3e c7f6 9dbf
00000010: f397 19bf 2bd1 83bf
0.38154286 0.334286 0.36939573 -1.2340935 -0.5999748 -1.0298208

0.embeds.2.weight f4 [2, 1]
00000000: 09a7 19bf 19d5 1a3d
-0.600205 0.037800882

0.embeds.3.weight f4 [5, 3]
00000000: 3bb0 193f 8c15 bf3d dabd 373f f3a8 cabf
00000010: 2636 d93d 06c9 ba3e ec9e 91be 63d8 afbf
00000020: 8abc 873d 0228 813f ca0d 86be 798b 553f
00000030: 1943 893f 4f75 4ebe c2cb 80bf
0.6003453 0.093302816 0.71774065 -1.5832809 0.10606031 0.36481494 -0.2844156 -1.3737911
0.06627758 1.0090334 -0.26182395 0.83415943 1.0723602 -0.20161937 -1.0062182

0.embeds.4.weight f4 [5, 3]
00000000: 4062 b03c 2e52 acbf bffe a73f ab0c e53e
00000010: 03d4 a03f de52 acbe 959e 9abf 87e2 7fbf
00000020: 60bd db3f 6cda a73f 5326 1fbf 8f5e 363f
00000030: 84c4 2e3f 826e 35bf e077 a7bf
0.021531224 -1.3462579 1.3124617 0.44736227 1.2564701 -0.33656973 -1.2079645 -0.9995503
1.7167168 1.3113532 -0.62167853 0.71238035 0.6826861 -0.70871747 -1.3083458

0.embeds.5.weight f4 [2019, 50]
00000000: 9e42 723f 3c4f 4bbd 933c 093f 9daa 95be
00000010: da0d 053f 72dd 03c0 b1d8 4abf 3a22 e8bf
00000020: 7407 30be fd97 553e 067f 913f 7458 133f
00000030: 0edc a03f 4687 163f 9cd1 92be c02e 7cbf
00000040: 478a afbf 938b babc ff2a d5bf 918a 303f
00000050: 7e4d 9f3e 5596 13c0 7c65 1dbf aea5 093f
00000060: 299a 313f 513d 79bf 4896 c5be 7d59 1cc0
00000070: 6447 a8bf d1bc 633e d946 4fbf 6d9f 323e
00000080: 12b4 ccbe 5752 ec3e f72d 893d cc8f 7e3f
00000090: 05c6 bfbf b79c 8b3f d31f 7bbf 0987 7a3e
000000a0: 0b2c 74be e20d b3bf 51c9 e23e 0fca 823d
000000b0: cdba 2e40 6c31 b63f 2ba9 b63f 8971 9ebe
000000c0: 6a3e 76bf 4b96 4bbe e018 cd3e 2ad9 94bf
000000d0: 4aad cf3e 4196 f7be 4bd6 043f 4c6e dabd
000000e0: c314 af3e b1da 193f 96b8 4dbf 3e83 b1be
000000f0: ce49 783c 5cbc ea3e 7187 e8be 623f b13e
00000100: 92fb a5bf 9c33 ed3f 8f02 8f3f fbcc 423f
00000110: 0a3f 8e3f b3c1 a43f 8d81 29bf 9a33 65bf
00000120: 0ef4 493f e81d a73f 8890 ab3d 84f6 b83e
00000130: afe1 1cbf 10d5 7abf eb88 293f 13c9 7a3f
00000140: 492c 37be 7f53 1d3e 17b5 9f3e 41fd d43e
00000150: b810 94bf f7d1 a5bf 5dbc 2f3f 9baa 4abf
00000160: 7803 073f 10bb 8c3f fb55 8abf 237f c8bf
00000170: 7c51 9c3c 1b93 1bbf 33b6 d2bf 6dd3 443f
00000180: 9177 95bf 3087 c83e d7cd aebf 0cea a73f
00000190: 8aa2 6dbf e61b d83f becd 16be 1c32 14bf
000001a0: 469c 783f 8200 183d 7363 cebf e111 c33f
000001b0: 3a89 7a3f 3726 ab3d 7adb 7f3f aa6b 92bf
000001c0: e89d a1be a689 e7bf 01d3 53bf f59e 2bc0
000001d0: 9c8d 833e 9cd5 8439 ab31 533f 0b84 3fbf
000001e0: adda a43f ef38 3d3f 81ca 853e cf8f 76bf
000001f0: 847f a8bf 7e28 cdbe c7a8 273f 49e5 cc3f
00000200: d8d9 47be 79ed 6f3f 44ca 673e d184 c4bf
00000210: 9c37 7b3f a9d8 d63e c235 37bf 7502 0b3f
00000220: 7348 6b3f 1116 75bd 9a67 84be c0f0 29bf
00000230: 5920 ecbe c325 a4bd 0e87 12bf 0863 d63f
00000240: d773 acbe 564c c9bf 79d7 92bf cb17 43bf
00000250: 711a 993e 156e 0cbc e8d7 183f 8156 b93f
00000260: cc8a cd3e 58c8 32bc c490 353e f185 eb3e
00000270: f5cf 0b40 f405 8a3f 333b 143f 6752 033e
00000280: e4f4 60bf 0d9f ce3e 0ada a63f 9919 4c3f
00000290: 88e9 82be 9534 c6be 2277 9abd e571 573f
000002a0: 1d5d 3b3f 513b d7bf a7d4 42bd 1b46 6d3f
000002b0: b9c3 a5be 068a f0be 8058 82bf 242a b1be
000002c0: 4395 3d3f 8634 0ebf 8711 19c0 0cc8 4ebe
000002d0: 05d1 df3f 9d87 993f 39bc 643f acca 2a3f
000002e0: 7f55 5dbf ea49 efbe a82f 5bbf 7b43 6dbe
000002f0: ac8c 66bf 7154 cfbe dd41 9dbf 5a85 4abf
00000300: 4359 0dc0 879f 493f ef23 42be d465 8cbf
00000310: b06c 273f 7c9e 883e 31ca 033e 4e01 b23f
00000320: 3e4f 353f ab09 eabd 85b4 e4bf ea3d 35bf
00000330: 0f93 523e 5996 54be 4abd 00c0 dfa7 723e
00000340: a2f7 323f fd85 a2bf 795f bc3e 57d9 223f
00000350: 1d5b 2bbf 1617 2cbe bcef ccbf bfac 8abd
00000360: 5a0d 0abf 3c16 fe3e 0cfc 443f 4fc7 f2be
00000370: e5cc 793e a5fb bebe bdb7 9bbf 4231 67be
00000380: 4a3f f6bf 0a42 1ebf 33e6 02be dade e8be
00000390: 6fb1 74be a25e 8ebe 1aaf 3f3e 894f 10bf
000003a0: 77e1 ad3f 2ec4 833f fd81 1f3f eb40 1c3f
000003b0: cba2 643f f014 e33d 3b1f 463d 3942 b3bf
000003c0: 7b69 d7be a740 60bf 18ce 2e3f a631 913e
000003d0: a97c 8ebf 2a74 0bbe ac02 183e 218e f93f
000003e0: 278e 99bf bd89 ae3f 59db 5fbf cbfc a63f
000003f0: 9d83 b5be a596 13c0 de7b 2d3f dc47 32be
0.946329 -0.04963611 0.53608054 -0.2923173 0.5197426 -2.060391 -0.79236895 -1.8135445
-0.17190343 0.2085876 1.136689 0.57556844 1.2567155 0.5880016 -0.28675544 -0.98508835
-1.3714074 -0.022771632 -1.6653746 0.68961436 0.3111381 -2.3060505 -0.6148298 0.5376843
0.69375855 -0.97359186 -0.38591218 -2.442962 -1.3146787 0.22239996 -0.8096748 0.17443629
-0.39981133 0.4615657 0.0669822 0.99438167 -1.4982306 1.09072 -0.98095435 0.24465574
-0.23844926 -1.3988612 0.44294217 0.06386196 2.7301514 1.4233832 1.4270376 -0.30945995
-0.96188986 -0.19881551 0.4005804 -1.1628773 0.40561897 -0.48356822 0.51889485 -0.10665569
0.34195527 0.6009932 -0.8035978 -0.34670442 0.015154315 0.45846832 -0.45415834 0.3461867
-1.2967398 1.8531375 1.1172656 0.76094025 1.1112988 1.2871612 -0.66213304 -0.8953186
0.7888802 1.3056002 0.083771765 0.36125576 -0.61281866 -0.9798136 0.66224545 0.97963065
-0.17887987 0.15363882 0.31192848 0.41599467 -1.1567602 -1.2954701 0.68646795 -0.79166573
0.5273967 1.0994587 -1.0807489 -1.5663799 0.019081824 -0.6077134 -1.6461853 0.7688511
-1.1677114 0.3916564 -1.3656567 1.31183 -0.9282614 1.6883514 -0.14726922 -0.5788896
0.97113454 0.03710986 -1.61241 1.5239831 0.9786564 0.08356898 0.9994427 -1.1439106
-0.31565785 -1.8088882 -0.8274384 -2.681577 0.25693977 0.00025336153 0.8249766 -0.74810857
1.2879235 0.73915 0.2613106 -0.96313184 -1.3163915 -0.40069956 0.6549191 1.6007472
-0.19516695 0.9372173 0.22635752 -1.5353032 0.9813173 0.41962174 -0.715664 0.54300624
0.91907424 -0.059835497 -0.25860292 -0.6638298 -0.4611843 -0.08015015 -0.5723733 1.6748972
-0.3368213 -1.5726421 -1.1472007 -0.7620818 0.29902986 -0.0085711675 0.59704447 1.4479524
0.40144956 -0.0109120235 0.17731005 0.46000627 2.1845677 1.0783067 0.5790283 0.12824403
-0.87873673 0.4035572 1.303529 0.7972656 -0.25568795 -0.38711992 -0.07542254 0.84158164
0.73188955 -1.6814977 -0.047566082 0.926851 -0.32375887 -0.46980304 -1.0183258 -0.34602463
0.7405588 -0.55548894 -2.3916948 -0.201935 1.7485663 1.1994511 0.89349705 0.667155
-0.8645858 -0.4673608 -0.8561959 -0.23170273 -0.900584 -0.4049411 -1.2285725 -0.7910973
-2.208573 0.78759044 -0.1895902 -1.0968575 0.6540022 0.26683414 0.12870099 1.3906648
0.7082404 -0.11427625 -1.786759 -0.707976 0.20563911 -0.20760478 -2.0115533 0.2369685
0.6990911 -1.269714 0.3679159 0.63612884 -0.669359 -0.16805682 -1.6010661 -0.0677123
-0.5392662 0.49626338 0.76947093 -0.47417685 0.24394567 -0.37301365 -1.2165447 -0.22577384
-1.9238064 -0.6181952 -0.12783127 -0.45482522 -0.2389581 -0.27806574 0.1871914 -0.5637136
1.3584431 1.0294244 0.6230772 0.61036557 0.893109 0.11087978 0.048369627 -1.4004585
-0.42072663 -0.8759865 0.68283224 0.2835819 -1.1131793 -0.13618532 0.14844769 1.9496499
-1.1996506 1.3635784 -0.8744407 1.3045896 -0.35451975 -2.3060696 0.6776713 -0.17410225

1.layers.0.0.bias f4 [80]
00000000: 8d1b 40bd 5c79 99bc 0bc8 35bd f6e6 81bc
00000010: 4e8b e0bc 2fa8 fcbc e394 a0bb 511c 67bd
00000020: ac26 23bd 347e a4bd 7a51 72bc 1cb6 fcbb
00000030: 24af 72bd 89c0 9abc 0599 e5bc f90c 08ba
00000040: 5c54 b4bc 80f5 e8bc c8b4 2cbd bbbf 78bd
00000050: 7b80 05bd bb48 60bd cbb7 15bd 7466 d03b
00000060: a611 323c 3f03 2abd 1896 41bd 5156 b93b
00000070: 8330 72bc 4f84 32bd d34d 68bd 3613 b53c
00000080: 3472 01bd 2ec7 8dbc 1885 09bd 9c5d 29bd
00000090: 1493 8bbc e7c9 f6bb a233 96bc cc16 3fbc
000000a0: 6fde cebc e507 f2b9 d57d beba 0095 cbbc
000000b0: 0724 36bd f891 0cbb 658b 06bd 08d4 69bd
000000c0: 72df 2dbd 8703 febc cbfc 21bd 7a7e c73b
000000d0: b213 903a 2267 d1bb 99aa 14bd fb5b a6bc
000000e0: 0fd8 043c fb54 40bd 16a2 20bd 90d4 15bd
000000f0: babe 52bd 4f5f b73b fef2 a0bc a1da b73b
00000100: 67af d9bc af34 c6bc dbc8 05bd 2e15 37bd
00000110: 8128 9abc 1a08 75bc c1ff 22bd 3f7b 58bc
00000120: 1b22 2abd 5be7 00bc 28fc 35bd 489e f4bb
00000130: 3e65 09bd 53b5 1cbd 0d11 48bc 5eea a2bc
-0.046901274 -0.018734626 -0.04438023 -0.015857201 -0.027410176 -0.030841915 -0.004900561 -0.05642349
-0.039831802 -0.08031884 -0.014789933 -0.007712139 -0.05924906 -0.018890636 -0.028027067 -0.00051899214
-0.022012882 -0.028437376 -0.042164594 -0.060729723 -0.03259323 -0.05475686 -0.03655223 0.0063598696
0.0108684655 -0.041507002 -0.04726228 0.0056560417 -0.014782074 -0.04358321 -0.056714844 0.022103887
-0.031603053 -0.01730689 -0.033574194 -0.04134904 -0.017037906 -0.007531393 -0.018335167 -0.01166315
-0.025252549 -0.0004616372 -0.001453335 -0.024851322 -0.044467952 -0.002144931 -0.03284778 -0.057086974
-0.042449422 -0.031007541 -0.039547723 0.006088075 0.0010992198 -0.006390468 -0.036295507 -0.020307532
0.008108153 -0.046956044 -0.039217077 -0.03657967 -0.051451422 0.0055960785 -0.019647118 0.0056107794
-0.026572896 -0.024195043 -0.032662254 -0.044697933 -0.018818142 -0.014955545 -0.039794687 -0.013212978
-0.04153643 -0.007867659 -0.044429928 -0.0074651577 -0.033543818 -0.03825886 -0.0122110965 -0.019887146

1.layers.0.0.weight f4 [80, 80]
00000000: 0d58 4a3e c1b0 1bbf df43 9ebc 67c4 193e
00000010: e45f 99bc 0d4e a93d da48 55be b23c cfbd
00000020: a5c2 a23e d340 e83c c9ff a5bc acb2 99bd
00000030: 4866 543d 02c5 c1bb e6b0 c0bc 588c adbc
00000040: 830e d03b cd12 16be 3c1d f93d 1214 c9be
00000050: 8498 c7bd 0da2 fbbd 923e 10bf 2a95 843c
00000060: 868b acbc 62f0 a13d 61ea d7bd 838e 273e
00000070: e181 0f3f 4f0b 11be e637 13be 1337 6d3e
00000080: 97c7 debd d312 0d3d 57fd b93d 110a a0bc
00000090: 3358 dc3d 9d99 38bd 87ad f8bb 1b02 583c
000000a0: c984 5b3c 4270 833e f2af f5bd ecf0 45be
000000b0: 5b44 7d3d 174b 43be 193d 86bd 621e 97bc
000000c0: 19f7 febd b8f0 7bbd 07e1 2bbe abe3 033d
000000d0: c47a bf3d ab5b 173d 1878 233d 8a0f 243e
000000e0: 43d4 383e f01d 8a3d d4e0 4ebe b3de 13be
000000f0: f0b8 08bd db44 a83c 3138 eabe 38e2 143e
00000100: dc69 d7bc a78d 95bd 7cd0 d33d b8e2 253e
00000110: 0703 813d cf9f a13c eac5 a7bd 2ed8 0e3e
00000120: 1aab 16be bb3d 1dbe 8fbb 97bd 9ef6 8ebe
00000130: ad66 8bbe 4afc 6e3e e153 84bd ff82 34bd
00000140: 22e0 7a3d 3e30 d1bc 1c06 883e 8398 00bd
00000150: 638d 76be 8a09 9cbd 8d91 88be 76bc 6e3e
00000160: a691 d1bc 2655 07be f0dd ddbd b7ef 71bb
00000170: cdbf 223e 8114 7cbd 5650 c43d 2887 6ebe
00000180: 70dd fbbd f73c e33d 67b9 f1bb 5eef 81bd
00000190: 4ed6 fbbd 58fd 91be 3e86 263d fc1f 033e
000001a0: a77b 5c3d 75b3 b53c 27f1 da3d 836e 1e3e
000001b0: c9fa 0f3d ed38 453d a981 0cbe ba0c 1c3e
000001c0: 94be 1d3e 9d85 6abd 7ac2 b2bd 1729 8b3c
000001d0: 098f 8fbd b2b3 903c dede b13c eec5 cabd
000001e0: f7d0 4dbd c653 b13c 43ef 193e 2cdb 07be
000001f0: 38db 153e 1532 02be b77e 32be ee75 03be
00000200: 5bba ccbe 00bb 1abe 9cc7 f33d d6eb 8e3e
00000210: 4a94 7d3d 220f 65bc fb4a e5bd 3831 39be
00000220: 3585 a83c f73f 2ebd d229 b13d 14d9 633e
00000230: f385 9abc 3590 e23c 62c8 adbd 5393 e03d
00000240: 2b73 903e 7d98 8e3d 9695 7a3e d62c 67be
00000250: f868 b1be c644 98be e60b 8f3c 2912 1e3e
00000260: 4cdc 14be e521 b23d fabc 303c ee85 a63e
00000270: c93b 753d d053 303e ff9e 523e b0ce 85be
00000280: 4db5 973d f9f2 30be 04a7 203d 99bf 393e
00000290: 38b7 053e 2509 bebd 73fe c03d 8320 853d
000002a0: b064 823e 7a25 463e 3ba9 05be 302b edbb
000002b0: 20da 16be 4cc6 ac3e 2ad5 f2bd 28cd 41bd
000002c0: 2be5 f2bc 3588 653e 58f8 093e 105d 0abe
000002d0: a6db 65be 87f9 653d d380 84bd 913b 8c3d
000002e0: bd0f 503d f0c6 a9bc 1b1e 0ebe ffe6 a93d
000002f0: 6f0a a7bc bdb8 b23d 0971 44be 2904 0e3d
00000300: 4da1 3cbc 6010 30bc ea54 313d 9ff0 8abb
00000310: 620e b73b 737b a73d 56fe 2b3c 663b 6b3e
00000320: cab0 06be de25 f43d 6e71 9abd e249 9dbb
00000330: deca 6c3e 9265 9c3e e0a8 6bbd ca3d e73b
00000340: 8549 2b3d 952c 2a3d 7d86 02be 2d06 b7be
00000350: fb79 fd3c 0eec d3bd 28d2 30bd de2e 52be
00000360: fd16 d43d 2359 ba3d 489f c0bd afd4 43bd
00000370: 1f56 8fbe 41ac 503e 9a36 053e e662 5b3d
00000380: 3b99 4f3e a09f 09bd 9ae0 83bd 56f2 453e
00000390: 4e3d c6bd 9d5a b43c 1252 8d3e 9be7 b23b
000003a0: 3046 073e 989f 5e3b 9201 99bc f7e2 2e3d
000003b0: f7fe febd 3da1 923d 2f4e 453d 7721 9cbd
000003c0: 91b3 f93d 4bf5 99be ccf6 2fbd 27fe 373d
000003d0: b992 b03d d572 203e cdb7 04bd 5a3d 03bc
000003e0: cc57 8f3e 2e20 813d 9f00 3dbe 2c57 73bd
000003f0: 53ff 04be c2f5 873e f997 753e 8f61 c9bd
0.19760151 -0.6081658 -0.019319473 0.15016328 -0.018722482 0.0826684 -0.20828572 -0.101189986
0.31789127 0.028351223 -0.02026357 -0.07504782 0.051855356 -0.0059133777 -0.023521852 -0.021185085
0.006349386 -0.1465561 0.12163779 -0.39273125 -0.09745887 -0.12286768 -0.56345475 0.016184408
-0.021062624 0.079071775 -0.10542751 0.16362958 0.56057554 -0.1416447 -0.14376792 0.2316554
-0.108779125 0.03444178 0.09081524 -0.01953605 0.1075901 -0.045068372 -0.0075890454 0.013184096
0.013398358 0.25671583 -0.119964495 -0.19330186 0.061832767 -0.19071613 -0.06554622 -0.018447105
-0.12449474 -0.061508864 -0.1678506 0.032199543 0.093495876 0.036952656 0.039909452 0.16021553
0.18049721 0.067439914 -0.20202953 -0.14440422 -0.033379495 0.020540645 -0.45745996 0.1453942
-0.026295595 -0.07302409 0.103424996 0.16199768 0.062994055 0.019729523 -0.08192046 0.13949654
-0.14713708 -0.1535558 -0.07408821 -0.2792253 -0.27226773 0.23338428 -0.06461311 -0.04407024
0.061248906 -0.025535699 0.2656716 -0.031395447 -0.24077372 -0.07619007 -0.26673546 0.2331408
-0.025582146 -0.13216075 -0.10833347 -0.0036916563 0.15893479 -0.06154299 0.09585635 -0.23293746
-0.12298095 0.110956125 -0.007376838 -0.06344484 -0.12296735 -0.28513598 0.040655367 0.1280517
0.05382886 0.022180298 0.106905274 0.15471844 0.035151277 0.04814999 -0.13721336 0.1523923
0.15404731 -0.05725633 -0.087285 0.016987367 -0.07009704 0.01766381 0.021712717 -0.09901033
-0.050248113 0.021646392 0.15032677 -0.13267201 0.14634407 -0.12714417 -0.1743115 -0.12837955
-0.39985928 -0.15110397 0.11903307 0.27914304 0.061908998 -0.013980659 -0.11195942 -0.18085182
0.02057133 -0.04254147 0.08650555 0.22250777 -0.0188627 0.027656654 -0.084854856 0.109656
0.28212866 0.069626786 0.24471125 -0.22575697 -0.34650397 -0.2973997 0.017461728 0.15436615
-0.14537162 0.08697871 0.010787243 0.32524055 0.05987147 0.17219472 0.20568465 -0.26134253
0.07407627 -0.17280187 0.03922178 0.18139495 0.13058174 -0.09279088 0.09423532 0.06500342
0.25467443 0.19350234 -0.13052838 -0.0072378144 -0.14731646 0.33745039 -0.11857064 -0.047314793
-0.029650291 0.2241524 0.13473642 -0.13512063 -0.2244707 0.05614617 -0.06469884 0.06847299
0.05079626 -0.020724744 -0.13878672 0.08296012 -0.020390717 0.08726642 -0.19183744 0.034671936
-0.0115130665 -0.010746092 0.04329387 -0.00424011 0.0055864314 0.08177843 0.01049765 0.22971877
-0.13153377 0.11921285 -0.07541166 -0.0048000673 0.23124263 0.30546242 -0.0575341 0.0070569264
0.04181816 0.041546423 -0.12746616 -0.357469 0.030941954 -0.10347758 -0.04316917 -0.20525691
0.10355947 0.09099033 -0.094053805 -0.047810253 -0.27995393 0.2037821 0.1300911 0.053561114
0.20273297 -0.033599496 -0.06439324 0.19330725 -0.09679662 0.022015864 0.27601677 0.0054597384
0.13210368 0.0033969637 -0.018677507 0.04269692 -0.124509744 0.0715966 0.048170265 -0.076235704
0.12192453 -0.30069956 -0.042959973 0.044920113 0.08621735 0.15668805 -0.03240185 -0.008010233
0.2799667 0.06304966 -0.18457268 -0.059409305 -0.12988023 0.26554686 0.23983754 -0.09833061

1.layers.1.0.bias f4 [80]
00000000: e9b2 71bc 75b2 b9bc c029 0fbd d8f1 00bd
00000010: 8c42 04bd 899f 2bbd f875 d1bc b569 77bc
00000020: b3bd 33bd 7354 4cbd d8fe 8abb 5b5c c2bc
00000030: d855 45bd 998a e5bc 3a27 4a3a 1f88 b13c
00000040: 246d 413c b264 1dbd 1a46 d9bc 8ad7 44bc
00000050: 6bd0 12bd b5b2 22bd d675 54bb d7c7 d9bb
00000060: 70f8 0e3c fe5d 413b c8ef 38bc 2b63 62bd
00000070: 4b93 9ebc 9864 3fbd c222 c6bc 9284 1abc
00000080: f41f 04bd 6419 b2bc 4a11 2fbd f65c e8bc
00000090: 260b 13bc c15c 23bd 481d c1bc 312b 66bc
000000a0: e80e a3bc 59ee eabc f55b 39bd 84e8 dfbc
000000b0: ddd5 58bc bdb8 1bbd 9b6b cdbc 374e ddbc
000000c0: d8c2 273b 92f3 45bc 75ef 73bc 43fb 8ebc
000000d0: c468 14bd 90ae 38bd 16db 4abc ea6a 86bc
000000e0: e1e2 e4bc 5cbb 12bd 2e16 bebb f996 b7bb
000000f0: 36f3 06bd 5c26 0abd 066f a1bc 1717 2cbc
00000100: c6b5 21bd 0159 f2bc 7df4 01bd c11b 17bc
00000110: 63d5 6ebc 3707 c2bb 970b c6bc 8e45 053b
00000120: 966c 0bbd 2c53 bf3b a032 4fbd a226 54bd
00000130: 8ef7 98bc 6b29 c8bc e146 f0bb f9db babc
-0.014752128 -0.022668103 -0.034951925 -0.03148064 -0.032290027 -0.04190019 -0.025568947 -0.015100886
-0.043882083 -0.049885225 -0.0042418055 -0.02372568 -0.04817757 -0.02802019 0.00077115337 0.021671353
0.011805806 -0.03842611 -0.026522685 -0.012014279 -0.035843294 -0.03972121 -0.0032418869 -0.006646137
0.008726224 0.0029505487 -0.011287637 -0.055270355 -0.019357344 -0.046726793 -0.024186496 -0.009431021
-0.032257035 -0.021740623 -0.042741098 -0.02836464 -0.008974826 -0.03988338 -0.023573533 -0.014048384
-0.019904569 -0.028678106 -0.045253713 -0.027332552 -0.013234583 -0.038017977 -0.025075724 -0.027014835
0.0025598314 -0.0120819975 -0.014888634 -0.017453795 -0.036232725 -0.04508835 -0.012381336 -0.016408402
-0.027940216 -0.03582321 -0.005800984 -0.005602714 -0.032946788 -0.03372799 -0.01970626 -0.010503552
-0.039479993 -0.029583456 -0.031727303 -0.009222926 -0.014577243 -0.00592127 -0.024175448 0.0020335647
-0.034039102 0.0058387723 -0.05058539 -0.051794656 -0.01867273 -0.024433812 -0.007332668 -0.02280997

1.layers.1.0.weight f4 [80, 160]
00000000: e8ca 23bc 54ae 993e a356 093e 3801 11bc
00000010: 540b 3e3d 1f04 093d fd46 4ebd a413 2b3a
00000020: 9528 c83d 3c9a 83bd c1e4 cdbd b7ee 7e3d
00000030: 2b00 1d3b cecb d83d b908 953c 6a7d 0dbc
00000040: 0634 e3bd e16f 5bbe fa6e 0d3e 6af3 9a3c
00000050: 5c6f e03d d38c 4ebe 3b0f 1dbe f281 f63d
00000060: eabd b33d 0b15 24be bfe6 ad3d 2e39 39be
00000070: 15a1 3dbe 1afb 8139 0744 4abe b880 a8bb
00000080: db7c 9dbd eb21 3ebd cd7a 45bd e643 863d
00000090: 7d46 a1bd 934e 29bd 2c05 3e3e b1cb 2cbe
000000a0: cacc 563d 815e f0bd 09ea 87ba 7259 febd
000000b0: 33ed 61be 83f6 233c add5 5bbd b64c 1bbd
000000c0: d2ac 353d 96dc 733d 174e a9bd 5c03 0f3c
000000d0: 6f74 3cbc 60db 1f3e 8aa7 7cbd 700e a13d
000000e0: 0de9 48bc 1e62 c43d 653e 57bd 12da 94be
000000f0: 647e afbe 3628 1cbd 5bd9 26be ac95 d53d
00000100: 1535 f5bd f68e f43c 5a0e 09be d330 c4bc
00000110: a4c6 393e 3c7b ecbd d1b6 97bc 86cd 0ebe
00000120: 7a72 1c3e ffe1 723d ff71 5cbc 7921 34bd
00000130: 7cd2 86bc 2ba8 44bd b8a2 8d3e 3241 a9bd
00000140: 41e2 3abd 05ca 48be 446e 503d 81c2 81bd
00000150: 196a 713e 80ad 2dbe 2d5d bc3e 5563 97bc
00000160: 7a82 2b3e c365 3fbd ce3f efbd 260f debd
00000170: 79e4 863d 032e bdbe 8fb5 51bd 76ee bc3d
00000180: bdcf 88bd 836b 83bd 38ad 493d 8653 1abd
00000190: 8f51 af3d fcf8 9d3b 913f 4dbd 790d 903e
000001a0: 462a 67bd c0f1 063e 688a bcbc aa03 67bd
000001b0: 891d b4bc 14d7 15bd 23b3 29bd 4088 26bd
000001c0: 6b47 d3bd 64fc 63bc 9257 b5bc aea0 25bd
000001d0: dbf5 713e 5b19 923e a191 3ebd a6e5 e23d
000001e0: c6aa 913c 3503 26bd aea7 483e d7a9 643b
000001f0: 5afd adbd 57f2 f8bc 47b3 d1bd 554c 6ab9
00000200: ee2d c53d 46ac 15bd 2331 9bbd 0dad 4a3e
00000210: 7e77 b7bd f508 c73d a48b 6d3d d9ab a1bd
00000220: dc2b 2a3e 5a74 033c 033b 883c f38d ffbd
00000230: 6a21 873d b42d 8c3d 1b31 113d 3cdc ca3d
00000240: 2d72 ab3d c4d9 893d 5f8a 43bd 00da c5bd
00000250: 7b27 11bd fa11 88bd 1ed7 d83b 6ab3 923d
00000260: 7437 e13d 5518 543d 2f3c 513e 47af a63c
00000270: b750 2a3c 9451 6c3d 821f b93d e915 5abd
00000280: 5754 173e 1d0f 1cbd b0b3 11bd 5ee1 e9bd
00000290: b0d1 743e 8230 c3bd 4be0 d73d 1ae8 163d
000002a0: 3ca0 523e 8da9 1fbc 1946 62bd 7dee b13d
000002b0: 92df f2bd 5e39 743d d60b dabc a95c 66bd
000002c0: 9266 c5bd 9dcf 1bbd fba3 223d 52bc 12be
000002d0: 565a 91bd f7fc dbbd 4170 0cbd 9d8a 333e
000002e0: cc5e 303c 3ae3 903e 16d7 293e 5991 213c
000002f0: ee78 e9bc 8546 e03d 7ff9 10be 3e3b 32bd
00000300: 6033 ebbd b334 c1bd 535f 583d 7ac7 87bd
00000310: f9b7 533d d908 853d fb33 37bd f129 903d
00000320: 4cca 503d 5548 f0bd 66d8 2fbe 0526 9fbd
00000330: eca7 b23d 6622 3e3d 23b5 4c3e 7746 f4bb
00000340: 5078 843d a134 903d 4bd4 bf3d 3bea ffbd
00000350: 71c0 40be 2b8e bdbd a95c 213d 18d0 1f3e
00000360: 6702 263e 4048 90be c65f 8e3e e4f2 f7bd
00000370: 27b6 15bd a971 23be af8a 9bbd 0ac1 6bbd
00000380: 5086 aabd f94e 17be 0f12 3fbb 2e1f cabd
00000390: ff99 ec3d 1c2e dabc 2b81 7c3d a986 e6bc
000003a0: 7127 9d3c cd29 64bd 48b5 21bc cf30 0cbd
000003b0: 9750 b8bd 9b9e b73d 8f5f ddbd 4b14 96bd
000003c0: e3ae 133d ee84 423d 9528 6cbe a3c4 a23d
000003d0: 5a03 e53c 2f61 10bd 2ed9 b43d fcfb 523d
000003e0: a1cd 3cbc e921 073d 25d0 a8bd bb88 c73d
000003f0: a1d8 a5bd bf45 10be 61d7 713d 54c1 cd3d
-0.009997107 0.30015814 0.13411956 -0.008850388 0.046397522 0.033451196 -0.05036067 0.0006526059
0.097733654 -0.06425902 -0.10053397 0.062239375 0.00239564 0.10585748 0.018192636 -0.008635858
-0.11093907 -0.21429397 0.13811865 0.018914897 0.1095874 -0.20170908 -0.15337841 0.12036504
0.087764576 -0.16023652 0.08491277 -0.18088219 -0.18518479 0.00024791883 -0.19752513 -0.0051422976
-0.0768983 -0.046419065 -0.048212815 0.06555919 -0.07874773 -0.0413347 0.1855666 -0.16874577
0.052441396 -0.11736775 -0.001036943 -0.12419404 -0.2206314 0.010007503 -0.053670574 -0.037914954
0.044354267 0.05953654 -0.082668476 0.008728828 -0.011502369 0.15611029 -0.061683215 0.07864082
-0.012262595 0.09589027 -0.05254974 -0.29072624 -0.34276116 -0.038124286 -0.16293852 0.10428938
-0.11973015 0.029853325 -0.13384381 -0.023949062 0.18142182 -0.115469426 -0.01851979 -0.13945588
0.15278044 0.059297558 -0.013454913 -0.043977235 -0.016457789 -0.04801194 0.27663207 -0.08264388
-0.04562593 -0.19608314 0.050886407 -0.06335927 0.2357563 -0.16960716 0.36789837 -0.018479982
0.16748992 -0.046727907 -0.11682092 -0.10842733 0.065865465 -0.36949167 -0.05119854 0.0922517
-0.06680248 -0.064169906 0.04923746 -0.03767731 0.08560478 0.004820941 -0.05010945 0.2813528
-0.0564368 0.13178158 -0.023015216 -0.05639998 -0.02198674 -0.036582068 -0.041430604 -0.040657282
-0.10316356 -0.013915155 -0.022136483 -0.04043644 0.23628943 0.2853497 -0.0465256 0.11078958
0.017781626 -0.040530402 0.19595215 0.0034891271 -0.084955886 -0.030388994 -0.102392726 -0.00022344415
0.09627901 -0.036541246 -0.075777315 0.19792576 -0.08958338 0.09718505 0.0579945 -0.078941055
0.16618294 0.008023346 0.016629701 -0.124782465 0.0659817 0.06844655 0.03544722 0.099052876
0.08371387 0.067309886 -0.047739383 -0.09660721 -0.035438042 -0.06644054 0.006617441 0.07163127
0.10996905 0.051781017 0.20433114 0.02034725 0.0103952205 0.057694986 0.09039213 -0.05324355
0.14778267 -0.03810035 -0.035571754 -0.114199385 0.23908114 -0.095307365 0.10540827 0.036842443
0.20568937 -0.009745014 -0.05524263 0.08688066 -0.11859049 0.059625022 -0.026616972 -0.05624071
-0.09638704 -0.038039792 0.039707165 -0.14329651 -0.07097308 -0.107416086 -0.03428674 0.17533346
0.010764789 0.2829836 0.16585955 0.009861314 -0.028500047 0.109509505 -0.14157675 -0.04351353
-0.114844084 -0.0943388 0.052825283 -0.06629844 0.051689122 0.06495828 -0.044727307 0.0703925
0.050974175 -0.11732546 -0.17172393 -0.077709235 0.08723435 0.046419524 0.19990973 -0.007454689
0.0646826 0.07041288 0.093666635 -0.12495848 -0.1882341 -0.09255632 0.03939501 0.15606725
0.16211854 -0.28180122 0.27807444 -0.121068746 -0.036550667 -0.15961327 -0.07594811 -0.057557143
-0.08326399 -0.1477622 -0.002915505 -0.09869228 0.1155281 -0.026633315 0.06164662 -0.028140383
0.019183846 -0.055703927 -0.009869881 -0.034226235 -0.08999746 0.089657985 -0.10809242 -0.07328089
0.036055457 0.047490053 -0.23062356 0.07947662 0.0279557 -0.03524893 0.08830486 0.051509842
-0.011523635 0.032991324 -0.082428254 0.09742876 -0.08097959 -0.14089106 0.059043292 0.1004664

1.layers.2.0.bias f4 [80]
00000000: 33ff bfbc 9c1d cfbb 4c10 9dbc ed11 3dbd
00000010: 1a83 e7bc 9146 f8bc f675 11bd e443 68bc
00000020: 92cb 3fbc 9212 9bbc 8728 15bb 7439 c9bc
00000030: 24d5 05bd 2d9b 2fbc 7564 d0bc 8b5a 7ebc
00000040: 6717 d139 88bb 04bb e3de 70bc b6d7 f6bc
00000050: 7509 98bc 3581 2fbd 857d a5bc 8168 09bc
00000060: 7879 9bbb cf29 aabc 0389 aebc 7972 8ebc
00000070: cde0 59bb 84b2 55bc 3a75 02bd 2e17 cebb
00000080: 804a d2bc 9575 0fbc ee24 6bbc 4b91 cbbc
00000090: a1c5 94bc 1cff aabc 2a1c b8bc 551b b8bc
000000a0: 7813 fcbc 3248 973c ee73 debc 1668 e3bc
000000b0: c6df c4bc 78da 32bc 19d6 bb39 2815 acbb
000000c0: 067c 52bd 8114 cbbc 2696 2fbc fcdb 31bd
000000d0: a3fa 09bb 9380 53bb 6932 28bd 1ebc 11bc
000000e0: af41 7ebc eda8 7dbc 41b8 bab9 f6c6 0dbc
000000f0: b36b f4bc cc19 9b39 dd94 9fbc 9249 92bb
00000100: 345f 0cbc 55e4 2dbd e417 a5bc c103 20bd
00000110: 7bda e7bc 29d0 bbbc 9f0b 48bc 3706 7bbc
00000120: 0b1c 05bd dd68 84bc 0ef4 573a 2f38 a4bc
00000130: accc cabc 785f 10bd 6546 34bc 171a 08bd
-0.023437118 -0.0063206684 -0.01917281 -0.046159673 -0.028260756 -0.030307086 -0.035512887 -0.014176343
-0.01170625 -0.018929753 -0.0022759752 -0.024563529 -0.03267397 -0.010718149 -0.025438527 -0.015524517
0.00039881023 -0.002025338 -0.014701578 -0.030132156 -0.018559197 -0.04284783 -0.020201454 -0.008386732
-0.004744705 -0.020771889 -0.021305567 -0.01738857 -0.0033245564 -0.01304305 -0.031850077 -0.0062893843
-0.02567029 -0.008756061 -0.014352066 -0.024849555 -0.018160643 -0.020873599 -0.022474367 -0.02247397
-0.030771002 0.018467043 -0.027154889 -0.027759593 -0.024032485 -0.010916345 0.00035826935 -0.0052515455
-0.05138781 -0.02479005 -0.0107169505 -0.043422684 -0.0021053932 -0.003227268 -0.0410637 -0.008894948
-0.01551859 -0.01548217 -0.00035613964 -0.008653393 -0.029836511 0.00029583124 -0.019480163 -0.0044643367
-0.00856762 -0.042454083 -0.020152994 -0.03906608 -0.028302422 -0.022926407 -0.012209802 -0.015321306
-0.032497447 -0.016163284 0.0008237966 -0.020046322 -0.024755798 -0.035247296 -0.0110031115 -0.033228006

1.layers.2.0.weight f4 [80, 240]
00000000: f77b 7ebd 4c18 a53d feea 5d3d d893 60bb
00000010: ec8b 96bd 2fc8 963d 3ce5 2bbe 9389 b93d
00000020: 2e2a ac3d 5302 ba3d 9ed4 6abd 94ec a4b8
00000030: 2480 063e 12cf a53d 0df2 5e3d 9c58 13bd
00000040: ccc0 33bc 4420 29bd 7856 a4bd 4ea1 81bd
00000050: 0830 2a3d a463 0dbe 013e 86bd 238f 663c
00000060: 51cb 3e3e 2476 c53d 583d 8d3d c210 08be
00000070: 6610 6b3e 0c11 c7bc 09e2 c9bd ddac 6ebd
00000080: 24ab cabc 9782 fa3c 9c31 923c fa08 26be
00000090: 2f22 b6bb 1ee1 69bb 8188 113e fe55 083e
000000a0: 5365 5fbd 029c b8bd 39ac 993d 4f55 1d3d
000000b0: 5280 613c eae4 3bbe 36e3 693e 264d 6c3c
000000c0: 74a5 1dbd 7e01 48be cbf7 92bc ce32 833d
000000d0: 3f19 c63d c085 963d 4e46 f4bd 9f39 1fbb
000000e0: 40b8 9c3c 8fda cbbc 1c87 57bd 1005 45be
000000f0: 089f 003c bd60 a7bd 4992 973d 16ea 8fbd
00000100: fd54 f5bd 2507 cbbd d03c 8b3d e018 423d
00000110: a4da c2bd 9b72 c53c 30e6 0c3e 9f73 103d
00000120: aace 03bd 1a33 cebd 9808 87bd 4a32 2d3e
00000130: 717d 1b3d 5b13 163e 680f f739 35a7 87bd
00000140: 438e cfbc cffd ca3d 96b3 00be 72d1 71bd
00000150: beb3 3e3d a0cc c33d 4a53 953d 9507 0e3e
00000160: f1d1 1fbe b74b b8bd 5691 9e3d ebb0 073d
00000170: e2fd 243e 0af3 1ebd d53d 9d3d 67a9 50bd
00000180: 082d a43d c2af 1a3d 8956 bcbd d175 c1bd
00000190: ede4 4f3d d3fc 0abe a8fa 8d3d d1d7 1dbd
000001a0: 7921 2d3e 4217 e0bd 6999 143e f648 46bc
000001b0: 5728 593d 9760 8e3d 75c5 223c 127a 96bc
000001c0: 1990 17ba 1763 2a3e d946 77bc d962 393e
000001d0: 9aad 95b9 7835 7d3d 8726 1e3d f04b 1dbe
000001e0: bc58 9bbd a62a e6bc fadc 38bd ccb2 e9bc
000001f0: 9e95 82bc a39f d33d a689 b0bd 78b0 cdbc
00000200: 5186 bcbd 0903 4e3d 410a 8cbd f350 39bc
00000210: 6bd5 ae3b ad17 11be e6c4 c63c 14fe d5bc
00000220: f92b eb3c a9c2 17be ffde c9bd 6e7e b93d
00000230: babe 1ebe edd5 14bd c8ca fabd 95a0 e4ba
00000240: 5de3 eb3b fd42 18be c403 ef3b 759d edbc
00000250: 0d30 36bd 5036 243d d1a6 443d 0a9c dfbc
00000260: ed89 43bd 8674 aa3d ce90 573d 7360 743d
00000270: 3569 12be d588 16be 44e4 f1bd 43ac a2bd
00000280: 2691 5c3d ec4c 00be 2b14 0cbd 0cd9 fbbd
00000290: 7096 ee3c c6d0 903d c14e 533d cef9 48be
000002a0: 0b72 10bd ac38 06be 58bc 3fbd 0d51 fbbc
000002b0: ae90 0f3c a103 18bd 6e58 9d3d f4b2 5e3c
000002c0: f381 e93d c8c9 d03c 4817 e0bd 5c88 ce3b
000002d0: e7a3 86bd c8fb 94bd ae79 c33d f578 4cbc
000002e0: 751a a63d 8804 14bd a7f1 1b3e 2e55 06be
000002f0: bd92 423e 9426 9b3d 376a 8d3d d8f6 5c3d
00000300: 0f05 f7bd 761e 10be 9b16 eb3c 115a 493d
00000310: c83c 1b3c ac19 63bd bec8 a9bb 7ae1 79bc
00000320: 3f5c 5cbc ebed dfbc 3c62 c43c 060e 253d
00000330: 9c5c 43be a0f1 fbbd 7673 44be 2cf5 26bd
00000340: ae5a 9bbd ca13 03be 1eab 9f3d 3202 573d
00000350: 8ac6 f03d a652 26be 307f 1f3e 2e06 b63c
00000360: 84a9 9bbd 67e9 d1bd 7d96 163c f97a 023e
00000370: ccb4 c7bc f215 bbbc 423c 67bd 98f7 8cbd
00000380: 9b68 623d 62be 02be e84e 0f3d 3151 afbd
00000390: 5dff e33d 70ac a53d 1e7b af3c 507c cdbc
000003a0: 7d27 eebd c3a3 85bd 425e c4bc 3a5f 7ebd
000003b0: 117f 3ebd d813 17be c0e1 ae3d 7c1d fc3d
000003c0: 151e 95bc d1cb 7ebb a986 843d ff85 4fbe
000003d0: c888 cf3d c3c2 cc3d cefa 893d a391 acbd
000003e0: d5b8 cb3d 7164 3abd 8466 b63c 57c5 fabd
000003f0: c2f3 8b3d cc4b 8fbc 82cc 0a3e 25c8 d43c
-0.06212994 0.08061275 0.054179184 -0.003426781 -0.07350907 0.07362401 -0.16786665 0.09059443
0.08406483 0.090824746 -0.057331674 -7.8641955e-05 0.1313482 0.08096136 0.054430056 -0.035973176
-0.010971259 -0.041290537 -0.08024305 -0.063295946 0.041549712 -0.13807541 -0.06554795 0.014072212
0.18632247 0.09641674 0.06896466 -0.13287643 0.22955474 -0.02430012 -0.09857566 -0.058270324
-0.02473981 0.030579848 0.017845921 -0.16214362 -0.005558274 -0.0035687159 0.14212228 0.13314053
-0.05453999 -0.09014131 0.07503552 0.038411435 0.013763504 -0.18349043 0.2284058 0.0144226905
-0.038487867 -0.19531819 -0.017940423 0.064061746 0.09672784 0.073497295 -0.11927472 -0.002429582
0.019130826 -0.02488449 -0.052619085 -0.19240212 0.007850416 -0.08172748 0.074009486 -0.0702707
-0.11979101 -0.09913472 0.067987084 0.047387004 -0.09514359 0.0241025 0.13759685 0.035266515
-0.032179512 -0.100683406 -0.06593436 0.16913715 0.037961427 0.14655821 0.0004712299 -0.06623689
-0.02533639 0.099116914 -0.12568507 -0.059037633 0.046558134 0.095605135 0.07291277 0.1387008
-0.1560743 -0.089988165 0.077425644 0.033127706 0.16112474 -0.038806 0.07677809 -0.050942805
0.080164015 0.037765272 -0.09196193 -0.094463 0.05075543 -0.13573007 0.069325745 -0.038535897
0.169073 -0.10941936 0.14511646 -0.012102356 0.053016987 0.06952017 0.009934773 -0.018368755
-0.0005781665 0.16639362 -0.015092575 0.18104114 -0.00028548838 0.06181857 0.03861096 -0.15360999
-0.07585284 -0.028096508 -0.045132615 -0.02852764 -0.015940484 0.10333183 -0.08620004 -0.02510856
-0.09205306 0.050295863 -0.06837893 -0.011310804 0.0053355 -0.14169188 0.02426381 -0.02612213
0.028707491 -0.1482035 -0.09856986 0.09057318 -0.15502444 -0.036336828 -0.12245709 -0.0017442877
0.0071987347 -0.14869304 0.00729415 -0.029005745 -0.04447942 0.04009086 0.04801065 -0.027296085
-0.04773896 0.08323006 0.05262833 0.059662294 -0.14297946 -0.14700635 -0.11811116 -0.079430126
0.05384936 -0.12529343 -0.03419892 -0.12297258 0.029124469 0.070710704 0.051588777 -0.19626543
-0.03526501 -0.13107556 -0.046810478 -0.030678296 0.008762522 -0.037112836 0.07682882 0.01359247
0.11401739 0.025486842 -0.109419405 0.0063028764 -0.06574231 -0.07274586 0.09544693 -0.01248001
0.08110515 -0.036137134 0.15228902 -0.13118431 0.19001289 0.075757176 0.069050245 0.053946346
-0.12061512 -0.1407412 0.028697303 0.04915816 0.009474941 -0.055444404 -0.005181401 -0.015251512
-0.013449728 -0.027335128 0.023972623 0.040296577 -0.19078296 -0.12301946 -0.1918467 -0.040761158
-0.07585655 -0.12800518 0.0779631 0.052492328 0.11756618 -0.16242465 0.15575862 0.022219744
-0.07600692 -0.10249596 0.009191153 0.12742223 -0.024378203 -0.022837613 -0.05645395 -0.06883162
0.05527554 -0.12767938 0.03498736 -0.08560408 0.11132691 0.080895305 0.021421012 -0.02508369
-0.116286255 -0.06525376 -0.023970727 -0.062102534 -0.0465079 -0.14753664 0.08539152 0.12310311
-0.01820282 -0.0038878808 0.06470997 -0.20265959 0.10133511 0.09998085 0.0673729 -0.084262155
0.09947363 -0.045505945 0.02226568 -0.12244671 0.068336025 -0.017492197 0.13554576 0.025974343

1.layers.3.0.bias f4 [80]
00000000: 2a3a 1dbd 5270 17bd 763f c7bb 5043 6bbc
00000010: 8c7c 043b 5c91 82bc 26fc 79bc 7728 aabc
00000020: 56f5 b6bb 35c3 e6bc bef6 e2bc 494c 5f3b
00000030: 1d7e 76bc c5ce 04bd 5abc 2dbd ec02 56bc
00000040: 938d 11bd 7736 aebc 934e d53b 2151 7e3b
00000050: ff78 f9bc bac7 b3bc d2c0 ae39 4011 f5bc
00000060: 015e babb 4e84 02bc 0439 78bc a741 00bd
00000070: f0ba e7bb 95fa 14bd 68e2 1bbd 43c2 07bd
00000080: 3f4e e0bc 32dd 7cbc c833 37bb d43c 56bb
00000090: 1950 1bbd e30c 4dbc bb85 7fbc 9ab9 bebc
000000a0: 3370 cdbb 0f77 d6bc 4123 0dbd a5f9 a9bc
000000b0: 90f7 74bc 63c0 b7bc b072 f5bc d71f b4bc
000000c0: c855 1bbd 419d 153b 7cfa a3bc 519b e4bc
000000d0: ec42 c8bc 945e da3b c1fb 62bc 088e c1bc
000000e0: 292f ccbc d16e 15bc 4ac6 bbbc 4c50 83bc
000000f0: 8d32 ddbc 4679 0fbd 0283 00bd 79d3 6f3b
00000100: d85e fdbb bd3e 15bc 5f79 06bd 93ce 06bc
00000110: 5d59 89bc 3cb2 9bbc c1da d1bc c9ab debc
00000120: 89e9 54bc d0f9 b7bc fb23 3fbc 0c60 24bd
00000130: 18ee 3bbc 6332 88bc 96d8 3abc 93d0 c5bc
-0.038385548 -0.03697235 -0.006080563 -0.01435931 0.0020215837 -0.015938453 -0.015257871 -0.020771248
-0.0055834455 -0.028169254 -0.027705546 0.003407257 -0.015044716 -0.032423753 -0.042415954 -0.01306222
-0.035535406 -0.021266205 0.006509611 0.003880568 -0.030453203 -0.021945823 0.00033331529 -0.029915452
-0.0056874757 -0.007966114 -0.015150312 -0.03131261 -0.0070718452 -0.036371786 -0.038057715 -0.033144247
-0.02738106 -0.015433596 -0.0027954448 -0.0032690065 -0.037918184 -0.012515279 -0.015595849 -0.023281861
-0.0062694787 -0.026179818 -0.03445745 -0.020748923 -0.014951602 -0.022430604 -0.029961914 -0.021987839
-0.037923604 0.0022829326 -0.020016901 -0.027906092 -0.024445973 0.0066641066 -0.013853968 -0.023627296
-0.024924831 -0.009120659 -0.0229217 -0.0160295 -0.027001644 -0.035027765 -0.03137494 0.0036594553
-0.0077322535 -0.009109196 -0.032830592 -0.008227962 -0.016766245 -0.019005887 -0.025617005 -0.027181523
-0.012995132 -0.022457987 -0.011666293 -0.04013066 -0.01147034 -0.016625589 -0.011404177 -0.024147308

1.layers.3.0.weight f4 [80, 320]
00000000: e63c b8bd 30bf 32bd d32e 143e 7fc0 79bd
00000010: ff49 fa3d b6e3 e3bc c2b1 1fbe c127 8c3d
00000020: e539 bc3d e638 9c3d 01a6 a63c 2876 48bd
00000030: bc6d 653d 1bef fbbb af72 abbd 4cba 69bd
00000040: d725 213e 12c9 d43b 9957 d63d f5ad b63d
00000050: 3616 17bc 2771 bc3d 86dd dabd 9d69 0bbe
00000060: fed1 d43c 696d dbbc 5766 60bd 2824 d7bc
00000070: a12a 23bd 0b75 14bd 2719 083d b213 41bd
00000080: 39e3 8fbd 30ab a83c 133c a23d 54e6 c2bc
00000090: 6b24 023d 73c0 2dbd 24e6 a13d f7a2 553d
000000a0: fc89 ee3d 24c0 7dbb f862 11be 1204 33bd
000000b0: 9208 503c c5c4 e63d f826 de3d e21c cdbc
000000c0: bf49 aabc a1eb 45bd 1ea1 6b3c 5c5f abbd
000000d0: d437 9b3d 04ef bf3d bf15 dfbb 34de 1abe
000000e0: 3a08 73bd 1fbc f4bc 230c 693d d73a 963b
000000f0: f9b0 4a3d 81a5 14bd f4cd 9f3d 05fb 20be
00000100: b0e3 c1bc 7519 c7bd 9e93 19bd 4fc9 4cbc
00000110: 430e 3abe 7102 43bd 8c98 8f3d c90e 203d
00000120: decc 8ebd a3ba 3fbd ab2d a9bd b35d bdbd
00000130: 4169 4cbe 5ec3 cbbd 864b 043d a8b4 30bd
00000140: 537c 87bc 326b f33d 2daa 053d e462 743b
00000150: ef11 1f3c b9ff cbbd 21c6 753d b721 9dbc
00000160: 82c0 50bd 85b4 5bbd 82e9 023c b5e1 d9bc
00000170: f10f 35bd 9e73 603d 396c 29bd e1ca 7d3c
00000180: 04a4 2b3d 0993 91bd e061 b4bd c4c1 b2bd
00000190: a9ba 2cbc 6f40 c6bb 58a4 a2bd 700a ef3c
000001a0: 4266 2bbd beca 213b b79a 56bd 00c8 223d
000001b0: 0b9a 7b3d ba43 9dbd fdd8 3cbe f65d 383d
000001c0: 110e b03d 88ee bf3d 0d37 c63d 3069 6abc
000001d0: 5e7b c4bd bace 7f3d 9bee 3a3d 0252 80bd
000001e0: fd62 7dbd 0e3f 353d 6825 d93c 7b8d 223d
000001f0: 688e d63d 1dc6 00be f876 4abc 3c89 e23d
00000200: 362e bbbc facc a9bd e85c 543d 5ca2 353d
00000210: 21aa e13d e5e4 023e b853 2c3d 3855 cd3d
00000220: 03b8 813d ea1d 92be 2c28 023d 0197 0fbd
00000230: 0a3d 9abd a550 58bd 3bdd 01bd ff66 cbbc
00000240: bd46 95bd 70eb 343d 9142 0f3c 97e3 8dbc
00000250: e8f8 2cbe ec06 403d 68a7 6cbd 9ac6 26be
00000260: 835f c0bd 63cc 31bc 54f4 ff3a 202d 73bd
00000270: c4fd 58bc 6c9e 76bd 402f 47be 281c 063d
00000280: bb8e 803e de98 77be 6a30 a03d 9f5d eebd
00000290: 7cd9 133c 7f37 19bc 74f3 ac3d 0b80 dabc
000002a0: b8d6 043e 7ef8 d13d c7f0 d43d 5c4e eb3d
000002b0: 8ac0 32bd a240 abbd b1c2 42bd 3f90 903d
000002c0: e3d8 4ebc 0a6c 053e e27c 37bd 9043 ee3c
000002d0: 1ab1 de3d ff9a 0f3d 20bb 983c bae3 8d3d
000002e0: 97fc 74bd 4cb0 963d 6639 78bd e457 e6bd
000002f0: 7de9 62bc e452 883d a30b c6bd c74e d1bd
00000300: 29ee 9e3d bddc 8f3d 64a7 9e3d 775b 253e
00000310: 4691 943d deb9 e7bd a76e bebd c4ee bfbd
00000320: 953b eb3d 85f7 843d 8f50 b43c 69f9 49bd
00000330: 47d1 0abd 9c05 5a3d d243 f4bc b6e4 063e
00000340: 4d1a 07bd 2886 a93b a164 3ebd 4f53 c4bc
00000350: 04b5 d6bb 4701 22be 9a9c 683d 342f 0e3d
00000360: 4145 013d e04e d6bc 426e 87bd c815 e7bd
00000370: bdd7 b4bd 72ec 293e d4a8 c7bc 0671 243d
00000380: 85a4 2abd 9870 3fbc 35ca aabc df67 c2bd
00000390: e4aa ebbd 39c6 7a3c 306a 43bd 1875 4a3d
000003a0: c561 dabc df85 943d 1a7d d9bd 998d 15be
000003b0: de7d c63d 95ce 13be 42ee 43be d7af 5fbb
000003c0: 836d cf3d a471 eebd be36 0a3e 3734 e73d
000003d0: 88c9 12bc 6f2b f53c ab55 febc ac11 bd3c
000003e0: bbfa 123d 2083 10be d50a edbc bcd5 dcbd
000003f0: ca6e 423d 533b 81bd 956a da3d 4288 bd3d
-0.089959905 -0.04363936 0.14470987 -0.060974594 0.12221145 -0.027818542 -0.15595153 0.0684352
0.0919073 0.0762804 0.020342829 -0.048940808 0.056012854 -0.0076884157 -0.083714835 -0.057062432
0.15737091 0.006493696 0.10465927 0.089198984 -0.009221604 0.092012696 -0.106867835 -0.13614507
0.025979038 -0.02678557 -0.0547851 -0.026262358 -0.039835576 -0.036244433 0.033227112 -0.047137924
-0.07025761 0.020589441 0.079216145 -0.02379147 0.031773012 -0.042419862 0.07905224 0.05215737
0.11647412 -0.003871926 -0.1419791 -0.043705054 0.012697356 0.112679996 0.108472764 -0.025038186
-0.020787118 -0.048320416 0.014381675 -0.08367798 0.07579008 0.093717605 -0.0068080123 -0.15123826
-0.059334017 -0.02987486 0.05689634 0.004584651 0.04948518 -0.03629065 0.07802954 -0.15720756
-0.02366814 -0.097216524 -0.037494294 -0.012499168 -0.18169503 -0.04760975 0.07011518 0.0390766
-0.06972669 -0.04680885 -0.082606636 -0.09246387 -0.19962026 -0.09949373 0.032298587 -0.043141037
-0.016538775 0.1188568 0.032632995 0.0037290389 0.009708866 -0.099608846 0.060003404 -0.019181116
-0.05096484 -0.053638954 0.007990243 -0.026596883 -0.044204656 0.05479776 -0.041362975 0.015490265
0.041904464 -0.07108123 -0.08807731 -0.08728364 -0.01054255 -0.0060501616 -0.07941502 0.029179782
-0.041845568 0.0024687494 -0.05239364 0.039741516 0.061426204 -0.076789334 -0.1844215 0.045011483
0.08596433 0.09371668 0.09678469 -0.014307305 -0.09593843 0.06245301 0.04563771 -0.06265642
-0.06186198 0.044249587 0.026507095 0.039685708 0.104763806 -0.12575574 -0.012357466 0.11061332
-0.022849184 -0.08291049 0.051846415 0.04434429 0.11018778 0.12782629 0.042072028 0.1002602
0.063339256 -0.28538448 0.031776592 -0.035056118 -0.075311735 -0.052811284 -0.031705122 -0.024829386
-0.07288883 0.044169843 0.008743898 -0.017320437 -0.16891825 0.0468816 -0.05777684 -0.16286698
-0.093932174 -0.010851952 0.0019527772 -0.059369206 -0.013244096 -0.060209677 -0.19451618 0.032741696
0.25108895 -0.24179408 0.07821734 -0.116389506 0.00902402 -0.00935161 0.084448725 -0.026672384
0.12972534 0.10252474 0.10397487 0.11489555 -0.04364065 -0.08361937 -0.047548953 0.07058763
-0.012624952 0.13029495 -0.044796832 0.02908495 0.10873623 0.035059925 0.018643916 0.06928201
-0.0598112 0.07357845 -0.060601614 -0.112472326 -0.013849613 0.06656435 -0.09670188 -0.10220104
0.07760269 0.07024524 0.07746771 0.16148172 0.07254271 -0.11314748 -0.09298449 -0.09371713
0.11485974 0.06492523 0.02201107 -0.04931012 -0.03389099 0.053228006 -0.029817495 0.13173184
-0.032984067 0.0051734634 -0.046482686 -0.023965506 -0.0065523405 -0.158208 0.056789972 0.034712985
0.031560186 -0.026160657 -0.06612827 -0.11283451 -0.08830211 0.16594103 -0.024372496 0.04014685
-0.041660804 -0.011684559 -0.020848373 -0.09492468 -0.11507204 0.015306049 -0.04770869 0.049428076
-0.026657948 0.072520964 -0.10619564 -0.14604796 0.09691976 -0.14434274 -0.19133857 -0.0034131908
0.101283096 -0.11642769 0.13497445 0.11289256 -0.008959182 0.029927937 -0.031046709 0.023079716
0.035883646 -0.1411252 -0.02893583 -0.10782954 0.047468938 -0.06310143 0.1066486 0.09254505

1.layers.4.0.bias f4 [80]
00000000: f91b c6bc d272 abbc d174 4fbc 8958 95bc
00000010: a3cd 19bb b467 5fbc fd2c 02bd 597f 0dbd
00000020: 55ba 28bd ad50 b9bc 5438 8cbc ed80 77bc
00000030: d976 b6bc 33e6 b1bb 5fc2 09bd 68db d8bc
00000040: a07c 8e39 0754 4abc 870f ffbc 6127 76bd
00000050: d08f c5bc 7eb9 04bd effa 07bc 3953 3c3b
00000060: c8a5 c9bc 6503 e4bc 2d02 2bbc 27c7 d839
00000070: fb86 37bd 204e c9bc 29f6 87bc 9360 69bc
00000080: 3b2a a4ba c94a 15bc 45ae b0bc e534 a5bc
00000090: c282 b3bc ce58 14bc 3837 3bbc 3566 363b
000000a0: 3be5 00bc c064 6ebc dca9 72bc 545d 2bbc
000000b0: 2945 2fbc 64bb 28bc 3584 b1bc 88d7 40bc
000000c0: c558 6ebc fd23 9cbc 70bd 56bd 12ab a9bc
000000d0: f030 33bd 6421 55bc d329 5ebc f2aa 22bc
000000e0: 7b4e 04bd a5f3 443c 75ec 69bc 8ce3 0fbb
000000f0: dd47 48bc 0865 7dbc 39ae f2bc 37bd 40bc
00000100: 23a7 e4bc 71f8 0dbc 5a46 fc3a e495 a0bc
00000110: eac5 023a aad6 97bc 7c64 4cbc 7dcb 983b
00000120: c13f 96bc 6805 00bd 3acd caba 206f 3dbc
00000130: 0a1d cebb 95a4 d7bc ae46 48bc 34f2 2b3a
-0.02418326 -0.020928774 -0.012662129 -0.018230693 -0.0023468516 -0.013635565 -0.031781185 -0.034545276
-0.041193325 -0.022621477 -0.017116703 -0.015106422 -0.022273468 -0.005429053 -0.033632632 -0.026471809
0.00027177203 -0.012349135 -0.031135334 -0.06009615 -0.024116427 -0.03240346 -0.008299573 0.0028736128
-0.024615183 -0.02783365 -0.01043753 0.0004134711 -0.04480646 -0.024573386 -0.01659687 -0.0142442165
-0.0012524793 -0.009112068 -0.021567473 -0.020166824 -0.021912936 -0.009054376 -0.011426739 0.0027831916
-0.007867153 -0.014550388 -0.014811005 -0.010459263 -0.010697641 -0.010298584 -0.021669487 -0.011770137
-0.0145475315 -0.01906013 -0.052426755 -0.020711455 -0.043747842 -0.013008449 -0.013559776 -0.009928452
-0.032301407 0.01202098 -0.014277567 -0.0021955697 -0.012224165 -0.015465982 -0.029624091 -0.011763862
-0.027911728 -0.00866519 0.0019247041 -0.019602723 0.0004988598 -0.018534977 -0.012475129 0.0046629296
-0.018340947 -0.031255156 -0.0015472539 -0.011562139 -0.006290083 -0.026323596 -0.012223883 0.00065592234

1.layers.4.0.weight f4 [80, 400]
00000000: 6f85 8bbd fb48 b1bc 9460 a0bd 1abe a8bd
00000010: e104 c5bb 62c3 2dbe f368 7c3d d5d0 473c
00000020: 7d93 353d 2dd8 52bd 011c e4bc cdfa 333d
00000030: 8dae d23d f3bd 47bd ec0e bcbd 8c17 433c
00000040: a56d bebd a740 a6bb 0e3e 3f3d 0762 22bc
00000050: c6c7 843d 52f0 a13b 44c3 4dbd a23f 6dbb
00000060: cbde 12bd a330 4b3c 9f38 d63c 0ed8 8fbd
00000070: 3bb3 ae3c fb22 2dbd f9ab 8b3d 70b3 b33d
00000080: 58c3 5abd 5fda e2bd 355a 3bbd 075e d13d
00000090: f99d a43d 50c1 a83d 2a24 cdbc 43d0 bc3d
000000a0: 8bf2 97bc 61af b93c 6483 553e 5ae5 2a3d
000000b0: c704 86bd 24a1 0ebd 332f 49bc ab38 3a3d
000000c0: dc58 c2bc c2d3 6b3c be43 8dbd e785 6f3c
000000d0: 7519 76bd 4ced c0bc c6d4 823d 2688 5fbd
000000e0: f657 97bd c87e 053e fe9e bb3d b0f4 1fbd
000000f0: 93f1 61bd 0dbd 303d 5d7f 6a3c f219 c6bd
00000100: ac7c 02bd 20a1 01bd 0ec3 b83d 98e7 143c
00000110: 17ae b8bd 8adf 22be 968b 8a3d d779 923d
00000120: 3936 713d 3db4 993c 9138 b23c ca27 8abd
00000130: c3ee 003d 54ad c43b 6c98 9fbd 6489 373d
00000140: d6f0 6c3d b60c a23c b8d0 003e 7745 8d3d
00000150: a3ae 6bbb bf6d 913c fed6 30bc 8b27 d1bd
00000160: 029d 073d 4bfa a23b 55fb 68bd d8d4 e8bb
00000170: 9d61 4b3d 4a3b 89bd 27ba a13d dcbb a6bd
00000180: df5c 0d3c 1a61 0dbc efb9 c13c 662d 99bb
00000190: 7569 bbbd 65d9 963c 05fe a83c 6ff4 6c3d
000001a0: 82bb 92bc 9067 f3bc 38f0 9f3c a640 45bd
000001b0: 36bf d8bc 9df4 a7bd eccc d1bc 4d9a 0bbe
000001c0: 44ba 9cbd ece7 91bd 5f7e 2cbd 4746 933d
000001d0: b79a 0e3e 6c38 02bd 3ff8 83bd ab9a c03d
000001e0: dc5b bf3c d7c6 733d 74b9 493d 1770 dfbd
000001f0: 0d82 f0bd 9aa8 e53c 8c05 083d a05f a43b
00000200: eb20 0c3e e99c 8539 a93d f0bc f1fe 9dbc
00000210: 5f06 09bd c5f1 653d 4e07 6abd 4325 b23d
00000220: f35c 433d ae4e d63b c38a 35bd 699f 413d
00000230: 1c33 8abd 3f1a 15bd 894b e93b 67a7 6cbd
00000240: 9419 cbbc 3c3a 79bc 4c6d 88bd 43dd 0c3e
00000250: 41ef c1bd 4f55 47bb 82e2 00bd 3b1a 023d
00000260: 6162 e53c cf9e 283d 83fa 923d c7a0 9d3d
00000270: 90e7 933d dc58 0dbd 1d16 99bd c79f b0bc
00000280: c627 ed3c 14a4 ab3c 5b90 133d 4eda f03b
00000290: 2164 be3c c01b dbbb 26e5 2c3c c781 ecbc
000002a0: 6f5a 533d 53a2 b83d 0889 b5bc 6518 273d
000002b0: 1928 a0bc 3e21 183e a21e 8fbd a86c 943c
000002c0: 75fd 6cbd 3a4a 7c3d 92ac 913d 2cf4 e0bd
000002d0: 7cc2 a4bc b98a cb3c 3610 dcbd 368d b33c
000002e0: 44bb 3bbc 949c 6cbd 90f3 4a3c b937 0cbd
000002f0: 9b35 ac3d fd8e 76bd f6a3 443d 4449 fcba
00000300: 8dca 41bd c914 8bbd 36b2 8c3d b01a 103e
00000310: 8174 60bc 5bc0 8ebd 5363 a8bc c0a5 643b
00000320: ec62 afbd 0efb 713d 2677 1bbc 5465 acbd
00000330: 1783 48bd 7051 423d 1acf b8bd f1c8 133c
00000340: 3d5d a2ba 5e37 f33c ffea 13bd fe3b 603c
00000350: 046b f339 2c23 cfbd 0628 b2bd ce30 6e3c
00000360: 8923 403c 6b67 c43d c4f9 fcbc fed8 9a3d
00000370: 0f9e d93c 958c 1a3d 9835 b5bd 9944 89bc
00000380: f03a 32bd f466 80bd 8f23 493d 85b4 a53d
00000390: 016a 46bd a276 3ebc 1e45 923d e3d0 08bd
000003a0: 3e95 543d b7b9 af3a 8702 fcbc 5cdf 93bd
000003b0: e935 2e3d 2d0c 4fbd 11e9 8f3d d308 0fbc
000003c0: 1c88 c539 0477 9fbd 6d2d d13d 0764 0d3e
000003d0: aa19 8abd bc45 1bbd 43e3 35bc d08b 32bd
000003e0: e8c3 b1bd 4359 283d 362d 973c 7ccf 0ebb
000003f0: f6da a13b baa8 80bd c32f ea3b ffaa 023d
-0.0681256 -0.021641245 -0.07830921 -0.08239384 -0.0060125445 -0.16969064 0.061623525 0.0121957855
0.04433011 -0.051475693 -0.027845385 0.043940354 0.10287199 -0.048765134 -0.091825336 0.0119074695
-0.09298257 -0.005073625 0.04669004 -0.009911067 0.06483416 0.0049419785 -0.050235048 -0.0036201258
-0.035857003 0.012401733 0.026150046 -0.07023631 0.021325698 -0.042269688 0.068199106 0.08774459
-0.05340895 -0.11076807 -0.045740325 0.102230124 0.080379434 0.082399964 -0.025041658 0.0921941
-0.01854827 0.022666635 0.20850903 0.041722633 -0.0654388 -0.034821644 -0.01227932 0.0454642
-0.023724012 0.014393749 -0.068976864 0.014619327 -0.06008287 -0.023550652 0.063882396 -0.0545732
-0.07389824 0.13036644 0.09161185 -0.03905171 -0.055162024 0.043149043 0.014312592 -0.096729174
-0.031857178 -0.0316478 0.09021579 0.009088419 -0.0901758 -0.15905586 0.06764905 0.07152145
0.0588896 0.018762702 0.021755489 -0.067458704 0.0314777 0.0060021076 -0.07792744 0.04480876
0.057846867 0.019781452 0.1257962 0.06898015 -0.0035962246 0.017752526 -0.010793446 -0.1021262
0.03310872 0.004973685 -0.056880314 -0.007105451 0.04965364 -0.067007616 0.07896834 -0.081413
0.008628099 -0.008629108 0.02364823 -0.0046746014 -0.09150974 0.018414209 0.020628938 0.057850298
-0.017911676 -0.029712468 0.019523725 -0.048157357 -0.026458364 -0.08200953 -0.02561041 -0.1363308
-0.07652715 -0.07124314 -0.042112704 0.07191139 0.13926207 -0.03179209 -0.064438336 0.094045006
0.023359232 0.0595158 0.049249128 -0.10910051 -0.11743555 0.028034497 0.033208415 0.005016282
0.13684432 0.00025484644 -0.029326277 -0.019286605 -0.03345334 0.056138773 -0.057135873 0.08698513
0.047696065 0.006540141 -0.044321787 0.047271166 -0.067480296 -0.036401983 0.0071196 -0.057776835
-0.02479247 -0.015211638 -0.06661472 0.1375628 -0.09469462 -0.0030415838 -0.031466015 0.031763297
0.028001012 0.041167077 0.071766876 0.076966815 0.072219014 -0.03450857 -0.07474921 -0.021560563
0.02894963 0.020952262 0.03602634 0.0073502427 0.023241105 -0.0066866577 0.01055268 -0.028870476
0.051599916 0.09015336 -0.022160068 0.04079475 -0.01955037 0.14856431 -0.069882646 0.018118218
-0.057858903 0.061594225 0.07112993 -0.10984072 -0.020112269 0.024846422 -0.107452795 0.02191792
-0.011458222 -0.057766512 0.012387171 -0.03423283 0.08408662 -0.060194958 0.048007928 -0.0019247909
-0.047312308 -0.06791074 0.068699285 0.1407268 -0.013699652 -0.06970283 -0.020555174 0.0034888834
-0.0856379 0.059077315 -0.009488856 -0.08417764 -0.048953142 0.047440946 -0.090238765 0.009020076
-0.0012387406 0.029689487 -0.03611278 0.013686178 0.00046428305 -0.101141304 -0.0869904 0.014538003
0.011727222 0.09590038 -0.030880816 0.07560919 0.026564626 0.037731726 -0.08848113 -0.016756343
-0.04351324 -0.06269637 0.049106177 0.08091072 -0.048440937 -0.011624964 0.07142089 -0.033402335
0.05190014 0.0013406788 -0.030762924 -0.07220337 0.04253188 -0.05054872 0.07026876 -0.008730131
0.00037676177 -0.07786372 0.102137424 0.13807689 -0.06743176 -0.0379083 -0.011101547 -0.043590367
-0.08679944 0.04110075 0.018454175 -0.002179115 0.0049394323 -0.06282182 0.007146807 0.031901356
