DNNWeightsDefault/model_0/ensemble_0/zz_bbtt_1.onnx (onnx, 947112 bytes, 19 tensors)

0.embeds.0.weight f4 [2, 1]
-0.6962598 0.38792503
00000000: 153e 32bf 1c9e c63e

0.embeds.1.weight f4 [3, 2]
-2.0182555 0.94129074 0.77046776 -0.5402353 0.17927308 2.3284538
00000000: 192b 01c0 6ef8 703f 603d 453f dc4c 0abf
00000010: 5d93 373e 6305 1540

0.embeds.2.weight f4 [2, 1]
-2.6170812 0.45679757
00000000: 427e 27c0 5fe1 e93e

0.embeds.3.weight f4 [5, 3]
-0.25131527 -0.79994273 -0.24317501 1.4631948 -0.66822636 -0.15440528 -0.20331474 0.26369497
-0.910349 -1.166355 -1.0299999 0.28577286 -0.14988902 0.7455531 0.98308796
00000000: 65ac 80be 0cc9 4cbf df02 79be f849 bb3f
00000010: e210 2bbf 6b1c 1ebe bd31 50be 0703 873e
00000020: a20c 69bf 1f4b 95bf 09d7 83bf d250 923e
00000030: 827c 19be 91dc 3e3f a7ab 7b3f

0.embeds.4.weight f4 [5, 3]
0.68510354 0.98183453 -0.5026648 0.13265038 -1.5461538 -0.9956645 1.3255711 0.869991
0.52168506 0.22934842 1.5150503 -0.5309826 -0.49939498 2.4825983 -1.1697029
00000000: f262 2f3f 8259 7b3f a4ae 00bf 80d5 073e
00000010: 5ee8 c5bf dee3 7ebf 50ac a93f bbb7 5e3f
00000020: 278d 053f 50da 6a3e 2bed c13f 7aee 07bf
00000030: b3b0 ffbe e4e2 1e40 d3b8 95bf

0.embeds.5.weight f4 [2019, 50]
0.93147624 1.9582715 0.7983113 0.7581911 0.27671576 0.05433642 1.0111616 -0.48187932
1.0430404 0.11163872 1.029187 -1.5502785 0.5792052 -0.5929262 0.97742385 -0.9481136
-0.42413712 0.36308938 -0.629413 -2.3082817 -2.427519 0.40864477 0.13450885 -0.2064795
-0.22224282 -1.3358914 0.5394843 1.0780511 -0.1760105 -0.43955097 0.17939523 0.11284961
-0.20488685 1.8407013 0.46166348 -0.47926983 -1.2265662 -0.1543428 -0.13518332 -0.31703103
0.26278326 0.6015255 1.4519897 -0.3377889 1.2724257 0.5094998 0.9394122 1.9266005
-0.41843814 1.129229 1.1222967 -0.9014901 -0.35932744 1.3052735 2.923168 1.1448125
0.10535732 -0.37185726 0.44546634 1.3812975 -0.79642206 -0.03403612 -0.48711264 -0.6472106
-0.42998636 -0.09049098 2.2676656 -1.1680858 0.095683254 0.078727804 -1.0147399 -1.254006
0.2030191 0.7559273 0.016722169 0.68519604 -0.38168046 -0.5622679 -0.56427 0.72698176
0.32992432 -1.0815092 -0.55905056 -1.2202744 0.32197857 -0.22460397 -1.2517165 0.08428331
-0.36276704 -3.069028 -0.042083394 -1.0239015 1.4146345 -0.0019069724 1.8511589 1.4830519
0.8808765 -1.6092353 0.36463726 -3.201993 -0.813721 0.42391056 0.3235415 -0.4675283
0.5917696 -1.0202086 0.22912732 0.30650812 0.12832652 1.3265167 0.08282862 -1.0441575
-0.64341736 -0.39722553 0.8886157 1.684175 -1.4026082 -0.646109 0.64261085 -0.32773298
1.3309194 -1.7032659 -0.5993601 -0.21891196 -0.31370187 2.3601053 -0.9813976 -0.14139952
-0.76800305 0.8762117 -2.285772 -0.9624579 -0.060415406 0.059779722 0.7596105 -0.27030033
0.03453816 -0.60730577 1.0437949 0.7399556 0.5345356 -1.0234635 -0.054546252 0.43117642
-0.9647831 -0.6841177 -0.7314586 -0.0046355315 1.9362413 -1.468208 -1.8677369 -0.17160694
-0.23146062 0.833588 1.0601566 -0.10115075 -1.3343549 1.5735778 -0.5828248 0.59971875
0.41254136 -0.4102762 -1.026299 -0.56350315 0.7625179 0.395947 -0.95097196 -1.9194175
0.6022006 0.49956954 1.6181864 1.0022941 1.7256508 -0.12984703 -0.6338872 0.19534877
0.12074781 1.4709401 -2.3348994 0.8406162 0.9493937 -0.45291743 -0.63492626 0.67922765
0.8076977 2.1973503 1.3453814 -0.54992545 -0.78315705 -1.4826436 2.260671 -0.4486655
2.4907753 -0.26055983 -1.44605 -0.06186299 -1.33482 -0.16394044 0.8697345 0.24698828
-0.4523879 0.0634038 1.7899314 0.98546875 0.7828791 0.41325352 -1.1191283 -1.3064642
-2.2706578 1.9014405 0.14657247 -0.36466047 0.098625734 0.4540286 -1.0119733 -0.22256608
0.12160403 2.0293105 -0.5093365 -0.4148264 0.35856518 -1.9021009 0.7719291 -0.27131173
-0.8353669 0.1028209 1.3447347 -2.1684768 0.69816697 -0.66036046 0.50199497 -0.32408056
-1.2294364 -0.78261286 -2.95386 0.288178 0.4384519 -1.5854955 0.26970777 0.2906263
1.9883537 0.5615921 -0.14808775 -1.0976795 0.5355428 -1.0481877 1.622624 1.1085559
0.3526072 0.17620349 0.871032 0.21553814 0.6422743 -0.8505873 -0.72870815 -1.0093552
00000000: 3a75 6e3f a4a8 fa3f 215e 4c3f d018 423f
00000010: b0ad 8d3e de8f 5e3d be6d 813f e3b8 f6be
00000020: 5982 853f d7a2 e43d 66bc 833f 876f c6bf
00000030: cb46 143f 03ca 17bf 7338 7a3f 93b7 72bf
00000040: 8028 d9be dae6 b93e 3621 21bf e3ba 13c0
00000050: 795c 1bc0 e339 d13e b0bc 093e 5d6f 53be
00000060: 9f93 63be 7dfe aabf a51b 0a3f 94fd 893f
00000070: 193c 34be d30c e1be 62b3 373e b21d e73d
00000080: dccd 51be 1a9c eb3f 285f ec3e db62 f5be
00000090: 1f00 9dbf 0a0c 1ebe 7f6d 0abe e451 a2be
000000a0: 878b 863e 93fd 193f ccda b93f abf2 acbe
000000b0: d8de a23f 946e 023f 517d 703f d89a f63f
000000c0: 863d d6be 938a 903f 6ba7 8f3f 0ec8 66bf
000000d0: c4f9 b7be 3413 a73f 2f15 3b40 3789 923f
000000e0: 94c5 d73d 1364 bebe 2a14 e43e 5bce b03f
000000f0: 51e2 4bbf 7569 0bbd d466 f9be 98af 25bf
00000100: 2c27 dcbe 5653 b9bd 6f21 1140 d683 95bf
00000110: 95f5 c33d 0b3c a13d ffe2 81bf 4583 a0bf
00000120: 3de4 4f3e 7484 413f eefc 883c 0269 2f3f
00000130: 9f6b c3be caf0 0fbf 0074 10bf 7a1b 3a3f
00000140: d7eb a83e e56e 8abf f01d 0fbf f431 9cbf
00000150: 60da a43e 95fe 65be 3f38 a0bf ba9c ac3d
00000160: 9abc b9be f46a 44c0 a35f 2cbd 340f 83bf
00000170: be12 b53f 60f3 f9ba c6f2 ec3f a5d4 bd3f
00000180: 1f81 613f 6cfb cdbf bcb1 ba3e 74ed 4cc0
00000190: 0550 50bf ce0a d93e 3ba7 a53e df5f efbe
000001a0: 367e 173f 3296 82bf 5aa0 6a3e a2ee 9c3e
000001b0: 0768 033e 4dcb a93f 0da2 a93d f4a6 85bf
000001c0: 00b7 24bf 2561 cbbe 527c 633f 0c93 d73f
000001d0: aa88 b3bf 6667 25bf 2582 243f 9ecc a7be
000001e0: 915b aa3f 9e04 dabf aa6f 19bf 752a 60be
000001f0: 889d a0be f70b 1740 e03c 7bbf 09cb 10be
00000200: d99b 44bf 694f 603f 174a 12c0 a463 76bf
00000210: 2576 77bd 95db 743d d575 423f ce64 8abe
00000220: e377 0d3d 6478 1bbf 129b 853f bb6d 3d3f
00000230: 53d7 083f da00 83bf e46b 5fbd 28c3 dc3e
00000240: 06fc 76bf 5622 2fbf df40 3bbf a8e5 97bb
00000250: c1d6 f73f 3dee bbbf 0112 efbf bbb9 2fbe
00000260: 0304 6dbe 0666 553f 36b3 873f 2028 cfbd
00000270: 24cc aabf ff6a c93f 0234 15bf 2b87 193f
00000280: 9f38 d33e b90f d2be c45d 83bf be41 10bf
00000290: 6034 433f 91b9 ca3e e672 73bf 79af f5bf
000002a0: d229 1a3f 94c7 ff3e bb20 cf3f 2c4b 803f
000002b0: 20e2 dc3f 9ff6 04be 6e46 22bf 8209 483e
000002c0: a14a f73d c447 bc3f fe6e 15c0 a032 573f
000002d0: 770b 733f cbe4 e7be 878a 22bf dde1 2d3f
000002e0: 47c5 4e3f 63a1 0c40 7535 ac3f eac7 0cbf
000002f0: fb7c 48bf 44c7 bdbf d5ae 1040 7cb7 e5be
00000300: dd68 1f40 1968 85be 2b18 b9bf 0c64 7dbd
00000310: 62db aabf 01e0 27be eca6 5e3f 7fea 7c3e
00000320: 639f e7be dad9 813d 791c e53f ae47 7c3f
00000330: c46a 483f f795 d33e 993f 8fbf 383a a7bf
00000340: 7552 11c0 6762 f33f 1817 163e c7b4 babe
00000350: 4afc c93d 7076 e83e 5788 81bf 5de8 63be
00000360: 890b f93d 39e0 0140 e063 02bf 2064 d4be
00000370: db95 b73e 0b78 f3bf 259d 453f 5fe9 8abe
00000380: 9bda 55bf c493 d23d 4420 ac3f 53c8 0ac0
00000390: 12bb 323f 620d 29bf be82 003f e3ed a5be
000003a0: 2c5e 9dbf 5159 48bf 0b0c 3dc0 118c 933e
000003b0: c47c e03e 84f1 cabf 2317 8a3e f8cc 943e
000003c0: 6082 fe3f 80c4 0f3f 51a4 17be c380 8cbf
000003d0: 5519 093f 042b 86bf 25b2 cf3f 29e5 8d3f
000003e0: ee88 b43e b06e 343e f4fb 5e3f 08b6 5c3e
000003f0: 176c 243f 17c0 59bf 9e8c 3abf 8d32 81bf

1.layers.0.0.bias f4 [80]
-0.016298985 -0.0052756197 0.015148777 -0.05427876 -0.06310668 -0.010148675 -0.03825401 -0.094649255
-0.059384417 -0.025152378 -0.043067902 -0.070569836 -0.0139958775 -0.050710417 -0.06500953 -0.050292384
-0.0330971 -0.09365949 -0.039155282 -0.007503036 -0.040456578 -0.062574975 -0.038031984 -0.045125775
-0.057339735 -0.05831921 -0.0048313183 -0.080564275 -0.05350058 -0.059064034 -0.088523395 -0.036749806
-0.025823297 -0.06284014 -0.032098435 0.051709253 -0.0460383 -0.06349583 -0.06562026 -0.07858039
-0.002906424 -0.046327043 -0.023152528 -0.025364801 -0.010009006 -0.05700597 -0.027940674 -0.09119027
-0.04630287 -0.019173276 0.016213605 -0.0194513 -0.070110135 -0.04528654 -0.06682289 -0.06574203
-0.046692062 -0.048419546 -0.03460326 -0.035442542 -0.025633618 -0.04169954 0.020651037 -0.08628609
-0.020335041 -0.035488203 -0.100059345 -0.004316225 -0.056679208 -0.104452655 -0.06717762 -0.06450726
-0.030015925 -0.06269704 -0.023026982 -0.009656893 0.0012092005 -0.041310538 -0.015614132 0.009188131
00000000: 7385 85bc 1bdf acbb 9332 783c 6853 5ebd
00000010: 133e 81bd a146 26bc 3db0 1cbd 78d7 c1bd
00000020: 133d 73bd 5c0c cebc f867 30bd eb86 90bd
00000030: f74e 65bc bab5 4fbd b723 85bd 63ff 4dbd
00000040: d390 07bd 8cd0 bfbd 4a61 20bd 07dc f5bb
00000050: ccb5 25bd 4f27 80bd 6dc7 1bbd ced5 38bd
00000060: 12dd 6abd 20e0 6ebd 0950 9ebb e2fe a4bd
00000070: 6d23 5bbd 21ed 71bd c14b b5bd f786 16bd
00000080: 618b d3bc 55b2 80bd a679 03bd 15cd 533d
00000090: a892 3cbd 1a0a 82bd ea63 86bd c1ee a0bd
000000a0: b479 3ebb 6dc1 3dbd 5faa bdbc d8c9 cfbc
000000b0: d0fc 23bc 187f 69bd d7e3 e4bc f7c1 babd
000000c0: 14a8 3dbd 4611 9dbc 65d2 843c 5558 9fbc
000000d0: e795 8fbd 617e 39bd 70da 88bd c2a3 86bd
000000e0: 2d40 3fbd 9353 46bd 26bc 0dbd 332c 11bd
000000f0: 98fd d1bc 23cd 2abd 5d2c a93c c3b6 b0bd
00000100: ac95 a6bc 145c 11bd eaeb ccbd 1f6f 8dbb
00000110: 7528 68bd 46eb d5bd 6c94 89bd 621c 84bd
00000120: f5e3 f5bc 4e67 80bd 15a3 bcbc f237 1ebc
00000130: 097e 9e3a 3d35 29bd 6bd2 7fbc d189 163c

1.layers.0.0.weight f4 [80, 80]
0.20154163 0.108352125 0.40635663 -0.24321294 0.07458846 0.21112795 -0.023964852 0.35352036
-0.37062833 -0.20182039 -0.17619932 0.041725427 0.07589668 0.002643636 0.1101036 0.015662808
-0.30285522 -0.33000085 -0.07257008 -0.5347222 -0.21369089 -0.13196649 0.15958883 0.37217838
-0.35711896 -0.25168577 0.41293016 0.14428884 -0.18051542 0.47656122 -0.11243386 -0.039647277
0.13665402 -0.15929517 0.24567544 -0.15177575 -0.071392335 0.14046429 -0.15928748 -0.033504333
0.1840102 0.07211302 -0.040786777 0.06068616 0.10138465 -0.010236931 0.10924704 0.1464881
0.29458022 0.08205567 0.0009701628 0.352025 -0.07071279 0.058579177 -0.05553759 -0.10749344
0.1422496 -0.21233012 0.004025406 -0.017803704 0.006260315 0.14191103 -0.33446994 0.20968494
0.07742987 -0.13729437 0.028654566 0.20444314 -0.047944833 -0.17143181 -0.23908712 0.22714691
0.08257608 -0.012318559 -0.009455357 0.039626382 0.027151478 0.11535659 0.057188 0.15238541
-0.19786844 -0.28100702 0.56487477 0.034026384 0.22253549 0.1595134 0.41474327 -0.072022155
0.041429523 0.061560158 0.10353864 0.0015024121 -0.12254859 -0.08088087 0.09571083 0.25028938
0.10635245 0.1711569 0.004833517 -0.28437164 -0.055730164 0.1870915 0.1367152 0.34287333
-0.020674868 0.27550772 0.0812731 -0.03828318 -0.18075766 0.22687988 0.059834223 0.15773459
0.00728424 -0.31970176 -0.11151311 0.10083492 -0.03582316 -0.031182379 -0.099374585 -0.13008429
0.011584105 -0.10343305 0.05648054 0.1435264 -0.084576264 -0.15248898 0.082154796 0.042149298
-0.13606131 0.20295364 0.057880424 0.20121227 -0.029605538 -0.0019707931 -0.051551796 0.017021727
-0.06853337 -0.2200452 -0.3873754 0.08919155 0.13468973 0.153442 0.2483357 -0.17457893
0.041514605 0.096938685 0.12025605 -0.104277365 0.09633704 -0.06416073 0.25814787 -0.1276255
-0.27356037 -0.06320176 -0.08640839 -0.09206045 0.0517434 0.109384745 -0.030154716 0.33851585
0.16776617 -0.27599904 0.59842074 -0.1899547 -0.08080413 0.47718412 -0.12351544 -0.08475118
0.59600335 0.22692369 -0.2573305 0.389855 -0.22589599 0.12830439 0.4132922 -0.07953941
-0.023991786 -0.30559894 -0.26189238 0.15005907 -0.009677527 -0.16628157 -0.22849208 0.13824043
0.08951453 0.32743827 -0.09732216 -0.16339262 0.19598693 -0.02770206 0.18654196 0.18599431
-0.05132436 -0.068290465 0.009258959 0.27157795 -0.042855892 -0.25827312 0.16402814 0.021475751
-0.017797759 -0.060026146 0.1498623 0.078172185 0.025218714 0.11224957 0.015066817 0.065659024
-0.12145682 0.24305965 -0.29116362 -0.057346947 0.35803673 0.28352055 0.0265739 -0.15915425
-0.08297571 -0.21420522 -0.063308775 -0.025621599 0.079808354 0.038344875 0.070621915 0.07894534
0.053821757 -0.029019555 0.23043999 -0.013253168 -0.2582174 -0.08950183 -0.1389184 0.08793169
0.14721136 -0.22455671 0.026202789 0.20659259 -0.15796529 0.08056077 0.048207115 -0.19291899
0.04605663 -0.18660372 0.14870502 0.03370649 0.030721521 -0.37193367 -0.07705866 -0.14059359
-0.0025306996 0.48651412 -0.019206088 -0.02044564 -0.087315075 0.22035967 0.30607614 0.06923811
00000000: ee60 4e3e b8e7 dd3d fa0d d03e d00c 79be
00000010: d6c1 983d ed31 583e f051 c4bc 9f00 b53e
00000020: ffc2 bdbe 01aa 4ebe 986d 34be 48e8 2a3d
00000030: b86f 9b3d da40 2d3b ff7d e13d 4a4f 803c
00000040: d70f 9bbe dff5 a8be 9f9f 94bd 8ee3 08bf
00000050: c9d1 5abe 3922 07be 416b 233e 2a8e be3e
00000060: 4cd8 b6be f5dc 80be 956b d33e 74c0 133e
00000070: 09d9 38be d5ff f33e b943 e6bd 2f65 22bd
00000080: 08ef 0b3e 461e 23be 5892 7b3e 1a6b 1bbe
00000090: 2536 92bd dfd5 0f3e 421c 23be d73b 09bd
000000a0: 2b6d 3c3e feaf 933d 0910 27bd 0d92 783d
000000b0: c1a2 cf3d cdb8 27bc e9bc df3d fa00 163e
000000c0: 38d3 963e ce0c a83d 8652 7e3a 9f3c b43e
000000d0: ded1 90bd b8f0 6f3d 627b 63bd 8525 dcbd
000000e0: e1a9 113e 116d 59be 8ee7 833b 13d9 91bc
000000f0: 5423 cd3b 2051 113e a53f abbe a6b7 563e
00000100: 8d93 9e3d e596 0cbe fbbc ea3c 8b59 513e
00000110: cd61 44bd d28b 2fbe 41d3 74be 3399 683e
00000120: a61d a93d c8d3 49bc a4ea 1abc 464f 223d
00000130: c76c de3c 1340 ec3d f73d 6a3d ec0a 1c3e
00000140: 069e 4abe 27e0 8fbe a29b 103f 405f 0b3d
00000150: 58e0 633e 7b57 233e 3b59 d43e 5a80 93bd
00000160: 01b2 293d 8126 7c3d 110c d43d 96ec c43a
00000170: c1fa fabd dfa4 a5bd 0a04 c43d ee25 803e
00000180: 50cf d93d c143 2f3e 7b62 9e3b 2999 91be
00000190: 5045 64bd ea94 3f3e 12ff 0b3e 188d af3e
000001a0: 575e a9bc 590f 8d3e 8372 a63d d3ce 1cbd
000001b0: 8918 39be 3353 683e bb14 753d 2d85 213e
000001c0: a2b0 ee3b f3af a3be fc60 e4bd 8a82 ce3d
000001d0: 4ebb 12bd 3072 ffbc e784 cbbd d134 05be
000001e0: 42cb 3d3c b5d4 d3bd 2458 673d 96f8 123e
000001f0: 5236 adbd 1226 1cbe c640 a83d bea4 2c3d
00000200: a853 0bbe 14d3 4f3e 0614 6d3d 970a 4e3e
00000210: 5087 f2bc 6c28 01bb fa27 53bd 2671 8b3c
00000220: 395b 8cbd 8753 61be 1256 c6be 0faa b63d
00000230: 1bec 093e e61f 1d3e b74b 7e3e d2c4 32be
00000240: 380b 2a3d ca87 c63d ce48 f63d 5f8f d5bd
00000250: 5b4c c53d b366 83bd f52b 843e 42b0 02be
00000260: 1b10 8cbe ed6f 81bd e2f6 b0bd 308a bcbd
00000270: e3f0 533d 1c05 e03d 0607 f7bc f351 ad3e
00000280: e5ca 2b3e bf4f 8dbe 1a32 193f 7c83 42be
00000290: a37c a5bd 7a51 f43e aaf5 fcbd 0792 adbd
000002a0: ad93 183f af5e 683e d3c0 83be 139b c73e
000002b0: 4751 67be 3a62 033e 099b d33e 8fe5 a2bd
000002c0: 6c8a c4bc 7777 9cbe c216 86be 16a9 193e
000002d0: 7d8e 1ebc b745 2abe d4f9 69be e68e 0d3e
000002e0: 6553 b73d fda5 a73e d750 c7bd 6550 27be
000002f0: ccb0 483e 6eef e2bc db04 3f3e 4b75 3e3e
00000300: 7e39 52bd dfdb 8bbd e4b2 173c 440c 8b3e
00000310: a989 2fbd 603c 84be fef6 273e eaed af3c
00000320: 9bcc 91bc fadd 75bd 8175 193e bd18 a03d
00000330: 7a97 ce3c 1ae3 e53d d0da 763c 3d78 863d
00000340: 5abe f8bd a1e4 783e 6613 95be a2e4 6abd
00000350: 9750 b73e 9b29 913e 82b1 d93c 55f9 22be
00000360: 2bef a9bd 9d58 5bbe 08a8 81bd 63e4 d1bc
00000370: 9072 a33d 840f 1d3d 39a2 903d 18ae a13d
00000380: 3474 5c3d 6bba edbc 76f8 6b3e d123 59bc
00000390: 1235 84be bc4c b7bd a040 0ebe 8815 b43d
000003a0: 93be 163e 32f2 65be 3ba7 d63c 028d 533e
000003b0: a7c1 21be 0cfd a43d d374 453d 8e8c 45be
000003c0: e0a5 3c3d 0c15 3fbe 2146 183e d10f 0a3d
000003d0: b3ab fb3c 176e bebe eed0 9dbd c4f7 0fbe
000003e0: 18da 25bb 6118 f93e 1656 9dbc 9d7d a7bc
000003f0: 3fd2 b2bd f7a5 613e 03b6 9c3e b6cc 8d3d

1.layers.1.0.bias f4 [80]
-0.047303073 -0.05609863 -0.050832383 -0.0883197 -0.03926635 -0.028686149 -0.01819714 -0.063275166
-0.05893719 -0.12735526 -0.022064766 -0.010567651 -0.08825635 -0.019063586 -0.05553147 -0.033949867
-0.06873614 -0.028826166 -0.027094126 -0.062953785 -0.039906953 -0.03330216 0.0016913821 -0.06103081
-0.03409299 -0.068725005 0.011218065 -0.032414842 -0.0009345256 -0.036547404 -0.043930873 -0.056585964
-0.06256183 -0.0629228 -0.043979652 -0.064505145 -0.041205265 -0.039598346 -0.0022192313 -0.0052338215
-0.06637532 -0.04720375 -0.070161305 -0.013753942 -0.0037779869 -0.047997374 -0.029574947 -0.0311352
-0.04704477 -0.0870846 -0.023223327 -0.02131374 -0.07369615 -0.0837855 -0.00040434144 -0.052118916
-0.019797157 -0.06308585 -0.04926716 -0.011267353 -0.069623634 -0.0148749575 -0.05543866 -0.047106255
-0.040752463 -0.0264798 0.006535611 -0.044403177 -0.052635882 -0.037367683 -0.05678448 -0.061705455
-0.044100527 -0.0263823 -0.009397181 -0.060584664 -0.01976804 -0.05572578 -0.024593776 -0.026348708
00000000: dec0 41bd adc7 65bd 9e35 50bd f5e0 b4bd
00000010: c1d5 20bd 37ff eabc 2b12 95bc 6996 81bd
00000020: 1f68 71bd 6b69 02be 2bc1 b4bc f123 2dbc
00000030: bfbf b4bd 3d2b 9cbc f774 63bd 040f 0bbd
00000040: 89c5 8cbd da24 ecbc 80f4 ddbc eaed 80bd
00000050: 7975 23bd d967 08bd 5eb1 dd3a 71fb 79bd
00000060: 17a5 0bbd b2bf 8cbd facb 373c 6dc5 04bd
00000070: f4fa 74ba bbb2 15bd dcf0 33bd afc6 67bd
00000080: 6b20 80bd abdd 80bd 0224 34bd 461b 84bd
00000090: dac6 28bd e031 22bd 8670 11bb 7a80 abbb
000000a0: c9ef 87bd b858 41bd bbb0 8fbd 3758 61bc
000000b0: 1a98 77bb e598 44bd 2947 f2bc 3f0f ffbc
000000c0: 04b2 40bd 6959 b2bd d93e bebc 279a aebc
000000d0: 02ee 96bd bb97 abbd cafd d3b9 a57a 55bd
000000e0: a62d a2bc 2733 81bd 5dcc 49bd b49a 38bc
000000f0: d696 8ebd 18b6 73bc a613 63bd 7df2 40bd
00000100: 0eec 26bd 2aec d8bc ae28 d63b 1be0 35bd
00000110: b998 57bd db0e 19bd d896 68bd dcbe 7cbd
00000120: c1a2 34bd b11f d8bc a2f6 19bc a027 78bd
00000130: 96f0 a1bc b740 64bd e378 c9bc 3fd9 d7bc

1.layers.1.0.weight f4 [80, 160]
-0.034697644 0.0865859 0.11678396 -0.12087124 -0.050119236 -0.2769613 -0.07687418 -0.251671
0.12621039 0.10671597 0.17472509 -0.009911819 0.054477356 -0.13961634 -0.09759144 -0.19063024
0.086630166 0.071719445 0.18029454 -0.336162 -0.20268555 -0.26820433 0.054520074 -0.04338507
0.017430129 0.11689331 0.13742359 -0.036875356 0.056468695 -0.08138383 0.08895257 -0.049353696
-0.046453 -0.04132111 -0.060109194 -0.054905556 -0.107652806 -0.10221127 -0.22419587 -0.07733635
-0.113441855 0.0028945298 0.014993726 -0.19969769 -0.02338787 -0.10924853 0.066365294 -0.14085159
-0.073135786 -0.118593805 -0.22026962 0.059092402 0.055699185 -0.016194021 -0.085184105 0.06706917
0.21871898 -0.22100703 -0.077273265 -0.013439721 0.0753755 -0.0043118363 -0.1709593 -0.14345486
-0.19001223 -0.16137785 0.1356028 -0.17664357 -0.109882064 -0.18058906 0.1847415 -0.20327245
-0.09320063 -0.018792033 0.05963269 0.020416288 -0.1113909 0.03581226 0.09391903 0.16015264
-0.14529584 -0.029650658 0.1493369 -0.15481664 -0.06558886 -0.027570408 0.25944456 0.06014038
-0.088335894 -0.010223993 -0.284334 0.16968258 -0.15350966 0.061384637 -0.06437886 0.100498
0.054521788 0.25557113 0.23779327 -0.24809144 -0.017958313 -0.27539954 -0.0021426736 -0.08625319
-0.21043241 -0.08061546 0.09694661 -0.036250107 -0.02207542 0.029258972 -0.070738494 0.02164343
0.020215418 -0.24486041 0.076276675 -0.05558691 -0.06632777 0.11092247 -0.036818117 -0.0020373177
-0.025440538 -0.034862008 0.034199882 0.20732267 -0.067142844 -0.051399957 0.095157735 -0.1087824
-0.059393246 -0.035558216 0.10174027 -0.11378484 -0.262498 0.14920218 0.046428222 0.11952848
-0.020423008 0.051508818 0.13953373 0.25934163 -0.048442118 -0.0051702396 0.06247883 -0.030586861
0.08651667 -0.0032227552 0.10718754 -0.016255256 0.02252563 0.04637794 0.02797398 -0.054977078
-0.013450692 -0.06943219 0.12952855 0.08769377 0.058321565 -0.12322973 -0.0016165313 0.1322787
-0.105189316 -0.014903017 -0.07929214 -0.048558038 0.19659154 0.029443601 -0.04961157 0.11364969
0.029389244 -0.05690859 -0.046036124 0.14624383 0.10237234 0.028725293 -0.07547555 -0.17342456
0.05280604 0.18633288 -0.0431188 0.04039881 -0.11916335 0.0042136246 0.06255537 -0.025011213
0.16470815 -0.03143706 0.12177817 -0.25789693 -0.073031284 0.038487885 0.012621459 -0.08505437
-0.027869495 -0.15439911 -0.089149676 0.14279297 0.08749773 -0.060483195 -0.22508365 0.04258653
-0.40604547 0.10430204 -0.06663011 0.24424013 0.025176244 -0.03552992 -0.10810171 -0.011357409
-0.037803046 -0.0022258253 0.1827176 -0.2332133 -0.059757873 -0.15726161 -0.1264233 -0.15839806
-0.101764925 -0.18668972 0.0075235595 -0.007465743 0.036385637 0.07951591 0.1037251 -0.092850804
-0.08406138 -0.06278099 0.0028493684 -0.011165239 -0.10684677 -0.12515166 -0.018395381 -0.1242937
-0.15970413 0.08870777 0.0063020205 0.17539191 -0.16977666 0.14273754 0.0582484 0.05941749
-0.16776484 -0.055301458 -0.2164836 0.26846752 0.06020442 0.13524699 -0.4148397 0.116201736
-0.21996358 -0.054948572 -0.11698459 -0.4321697 -0.01689122 0.10226732 0.04120903 -0.11342401
00000000: 1e1f 0ebd f353 b13d 6e2c ef3d 578b f7bd
00000010: d449 4dbd dfcd 8dbe 3670 9dbd 05db 80be
00000020: 4c3d 013e e78d da3d 22eb 323e 2f65 22bc
00000030: a623 5f3d 96f7 0ebe 05de c7bd 9334 43be
00000040: 286b b13d a5e1 923d 229f 383e 6d1d acbe
00000050: cd8c 4fbe 1452 89be 7150 5f3d 8bb4 31bd
00000060: a1c9 8e3c c265 ef3d c5b8 0c3e 9d0a 17bd
00000070: b84b 673d 91ac a6bd c42c b63d 1a27 4abd
00000080: 8045 3ebd 5340 29bd 0f35 76bd a6e4 60bd
00000090: 1379 dcbd 2454 d1bd 9a93 65be 8562 9ebd
000000a0: 3454 e8bd 27b2 3d3b 3fa8 753c 8d7d 4cbe
000000b0: eb97 bfbc b1bd dfbd 87ea 873d 663b 10be
000000c0: 37c8 95bd 4fe1 f2bd 5c8e 61be e00a 723d
000000d0: d424 643d 53a9 84bc 0175 aebd 905b 893d
000000e0: def7 5f3e ab4f 62be 7241 9ebd 4732 5cbc
000000f0: 785e 9a3d 4e4a 8dbb f40f 2fbe d5e5 12be
00000100: 9192 42be 3c40 25be 76db 0a3e 0de2 34be
00000110: d909 e1bd 57ec 38be e02c 3d3e a726 50be
00000120: f9df bebd c0f1 99bc 6841 743d 0f40 a73c
00000130: ea20 e4bd e0af 123d 9f58 c03d 0eff 233e
00000140: 6fc8 14be f0e5 f2bc c6eb 183e 4188 1ebe
00000150: 7453 86bd 56db e1bc ebd5 843e c255 763d
00000160: 73e9 b4bd 8982 27bc 3a94 91be 45c1 2d3e
00000170: a331 1dbe 756e 7b3d 10d9 83bd e5d1 cd3d
00000180: 3d52 5f3d 38da 823e 1480 733e af0b 7ebe
00000190: 501d 93bc 2b01 8dbe 196c 0cbb 83a5 b0bd
000001a0: 987b 57be b819 a5bd f28b c63d fe7a 14bd
000001b0: 83d7 b4bc 83b0 ef3c 58df 90bd 904d b13c
000001c0: ce9a a53c b0bc 7abe f236 9c3d 1aaf 63bd
000001d0: dbd6 87bd 522b e33d 98ce 16bd 8584 05bb
000001e0: ad68 d0bc 77cb 0ebd 2d15 0c3d 654c 543e
000001f0: 3082 89bd c388 52bd 0fe2 c23d 4fc9 debd
00000200: 5546 73bd 7ea5 11bd 345d d03d 0708 e9bd
00000210: 2366 86be 75c8 183e 852b 3e3d 59cb f43d
00000220: 274e a7bc e9fa 523d eee1 0e3e 6dc8 843e
00000230: 3e6b 46bd 1d6b a9bb cde9 7f3d 4c91 fabc
00000240: a72f b13d dc34 53bb 2485 db3d be29 85bc
00000250: ac87 b83c cbf6 3d3d b029 e53c a52f 61bd
00000260: 4b60 5cbc 7732 8ebd 22a3 043e cb98 b33d
00000270: 98e2 6e3d de5f fcbd cae1 d3ba 1174 073e
00000280: 7f6d d7bd c92b 74bc eb63 a2bd cbe4 46bd
00000290: 4b4f 493e b533 f13c 8035 4bbd 2bc1 e83d
000002a0: b6c1 f03c fb18 69bd 6090 3cbd f1c0 153e
000002b0: 97a8 d13d 4e51 eb3c ed92 9abd 3596 31be
000002c0: 254b 583d 0cce 3e3e 579d 30bd 3979 253d
000002d0: ea0b f4bd 7212 8a3b 081d 803d 51e4 ccbc
000002e0: 41a9 283e 26c4 00bd d566 f93d 110b 84be
000002f0: 6d91 95bd 79a5 1d3d 3cca 4e3c fc30 aebd
00000300: 914e e4bc cd1a 1ebe 1b94 b6bd 5238 123e
00000310: 0332 b33d 3abd 77bd 547c 66be 376f 2e3d
00000320: 31e5 cfbe 4f9c d53d 5e75 88bd 161a 7a3e
00000330: 693e ce3c d287 11bd 6e64 ddbd 6d14 3abc
00000340: 5ed7 1abd 27df 11bb 531a 3b3e 78cf 6ebe
00000350: acc4 74bd 3009 21be 1c75 01be 1a33 22be
00000360: 216a d0bd 972b 3fbe 3188 f63b 31a3 f4bb
00000370: 1b09 153d 3dd9 a23d d36d d43d 9028 bebd
00000380: 5f28 acbd 5293 80bd 78bc 3a3b 68ee 36bc
00000390: 7bd2 dabd c227 00be e9b1 96bc b28d febd
000003a0: 7b89 23be 6bac b53d 2e81 ce3b f099 333e
000003b0: efd9 2dbe ca29 123e e095 6e3d c15f 733d
000003c0: 8cca 2bbe c883 62bd e0ad 5dbe 9374 893e
000003d0: e998 763d 307e 0a3e df65 d4be 2dfb ed3d
000003e0: 223e 61be c111 61bd 9e95 efbd 5945 ddbe
000003f0: 755f 8abc 8771 d13d cdca 283d d94a e8bd

1.layers.2.0.bias f4 [80]
-0.018796053 0.013400983 -0.046733167 -0.052598234 -0.00922307 -0.03815693 -0.0048044985 -0.005491024
-0.063332394 -0.058859512 0.0025313725 -0.025525225 -0.03044386 -0.0074612056 -0.05757371 0.008797016
-0.033074863 -0.034089472 -0.06345492 -0.04266316 -0.014533144 -0.051538344 -0.06688158 -0.028372707
-0.0062266504 -0.039451394 -0.047566194 -0.010557018 -0.030199856 -0.046571936 -0.028919969 -0.060395155
-0.01755046 -0.03606085 -0.017488575 -0.013477238 -0.051334955 -0.0413312 -0.06187935 -0.02045344
-0.027353207 -0.07214373 -0.04748448 -0.059812985 -0.053206228 -0.059342492 -0.04101211 -0.015369516
-0.04862971 -0.04409963 -0.025200441 -0.063352846 -0.04394962 -0.0500086 -0.05931816 -0.009970547
-0.05570153 -0.023185402 -0.011623576 -0.040745143 -0.026482772 -0.016856443 -0.020838756 -0.037795376
-0.07031252 -0.04865492 -0.03706052 -0.029713212 -0.027498282 -0.06277948 -0.0179882 -0.0359139
-0.058646884 -0.040693242 0.00489434 -0.0002630386 -0.04926634 -0.06427793 -0.020262066 0.010943789
00000000: 2efa 99bc cc8f 5b3c 476b 3fbd 3f71 57bd
00000010: 5c1c 17bc 714a 1cbd 0e6f 9dbb 0cee b3bb
00000020: 6ab4 81bd ac16 71bd 62e5 253b 471a d1bc
00000030: 6765 f9bc 217d f4bb 69d2 6bbd 5c21 103c
00000040: 8279 07bd 67a1 0bbd a7f4 81bd 91bf 2ebd
00000050: 6d1c 6ebc df19 53bd 36f9 88bd e16d e8bc
00000060: ee08 ccbb c997 21bd c5d4 42bd 58f7 2cbc
00000070: b065 f7bc 37c2 3ebd 92e9 ecbc e960 77bd
00000080: fbc5 8fbc 8bb4 13bd 3344 8fbc a2cf 5cbc
00000090: 9a44 52bd e84a 29bd 3475 7dbd f98d a7bc
000000a0: d513 e0bc 18c0 93bd 167f 42bd 76fe 74bd
000000b0: c6ee 59bd 1d11 73bd 50fc 27bd 6cd0 7bbc
000000c0: f22f 47bd d0a1 34bd 2871 cebc 23bf 81bd
000000d0: 8404 34bd d1d5 4cbd 99f7 72bd 815b 23bc
000000e0: 4a27 64bd 50ef bdbc d070 3ebc 61e4 26bd
000000f0: 66f2 d8bc 8616 8abc 0ab6 aabc 53cf 1abd
00000100: 0300 90bd 624a 47bd c6cc 17bd 1f69 f3bc
00000110: 1444 e1bc 8792 80bd fd5b 93bc 741a 13bd
00000120: b737 70bd f5ad 26bd b360 a03b 71e8 89b9
00000130: 80cb 49bd 26a4 83bd a2fc a5bc 944d 333c

1.layers.2.0.weight f4 [80, 240]
-0.035242397 -0.08935905 -0.14941497 0.037867036 -0.042929303 0.029143041 0.21823618 0.031415496
0.04284688 0.044638403 -0.11978707 0.06910349 0.014923961 -0.05677041 -0.10208679 0.06966038
-0.023232097 -0.05306059 0.06259616 -0.14359358 0.06996945 -0.10683771 0.15956092 0.04195319
0.09814458 0.10603728 -0.0037305222 0.052042793 0.017271398 -0.0071964897 0.12418802 0.0068798414
0.003308917 0.03695468 -0.1161773 0.068207435 0.045086525 -0.09543406 -0.11112462 0.053615
-0.02317897 0.15692332 -0.0020739175 0.021562435 -0.13042358 0.090603106 0.1497767 0.07791061
0.1326326 -0.01724801 -0.02150575 -0.117262006 0.104999 0.062114514 -0.04475363 -0.010475211
0.024601737 0.09584032 0.12397409 -0.0123198135 -0.004399284 0.023275215 0.059776183 -0.018932436
-0.09210731 -0.08663325 0.08623526 0.107074425 -0.0060941423 0.088176005 0.018276393 0.03253936
-0.16776323 -0.06694601 -0.018480504 -0.18694746 0.057842996 -0.021176605 -0.035241894 0.010532413
-0.04107563 -0.016362205 0.06289934 0.08526369 0.042231914 -0.043915763 0.07345641 -0.08852375
0.07278362 0.03977239 0.049083933 0.052057244 -0.002301194 0.14435816 0.011321398 -0.19214913
-0.1043176 0.09558509 0.025598234 -0.027040495 0.075763024 -0.0060051875 -0.10943866 -0.06940331
-0.021161875 -0.10811567 0.023461193 0.04034318 0.03784079 0.17737077 -0.006275153 -0.009636542
0.05213333 -0.06207093 0.04330458 -0.079750106 0.053674195 -0.067369424 -0.040587693 -0.05924148
-0.030348236 0.016645102 -0.123685755 0.033820644 0.09679542 0.044593643 0.06099802 -0.11644411
-0.021527093 -0.05383786 -0.08871523 0.067168616 0.014853524 -0.06927379 -0.19344935 -0.16921079
-0.018461209 -0.04165887 -0.064072244 0.14298989 0.03358611 0.033996437 0.10910873 0.14918345
0.021353913 0.04117089 0.059914615 0.024329584 -0.019944362 0.019527644 0.042283915 0.29178193
-0.09667247 -0.036076244 0.006212809 -0.17264855 -0.15367796 -0.0037827867 -0.019281292 0.19780535
0.026686288 -0.120016746 0.00011362722 0.26495856 0.1390111 -0.039002586 -0.029079882 0.18686086
0.2483149 0.13120213 -0.2329684 0.061306365 -0.23092866 0.20310263 -0.0077032666 -0.07384572
-0.18825398 0.15298405 0.117761225 -0.05918938 -0.02395852 -0.15374573 -0.023963222 0.16490605
-0.038210604 -0.02387874 -0.14526418 -0.036965292 -0.05197866 0.027627192 -0.062370904 0.16116127
-0.10091588 -0.1533501 0.15183623 -0.033584483 0.30642626 0.11973369 0.022551151 0.15038522
0.07140932 -0.112342395 -0.019931875 -0.0072667226 0.018943485 -0.1858781 0.16122076 0.053805888
-0.050251313 -0.168969 -0.024448672 -0.08467771 -0.01771751 0.0064676744 0.060003497 -0.103640206
-0.023053128 0.071784556 -0.07095983 -0.0810234 -0.072808586 0.014253506 0.0872289 0.08695907
0.03825892 0.07065034 0.111017026 -0.06639986 -0.08841705 0.16658573 -0.026103895 -0.10514034
0.12053721 -0.037997585 0.0646269 0.08698904 0.048172574 0.017443422 -0.045386393 -0.054492053
0.277656 -0.08931837 -0.15515724 0.0210406 -0.16910675 -0.0606126 -0.080774054 -0.114235304
-0.02689352 -0.19472073 0.1349913 0.110755555 -0.16528624 0.12402876 -0.018176062 0.0639448
00000000: 555a 10bd e101 b7bd 3d00 19be 771a 1b3d
00000010: a3d6 2fbd 63bd ee3c 4e79 5f3e 89ad 003d
00000020: 3680 2f3d c2d6 363d ec52 f5bd 2186 8d3d
00000030: a183 743c 1788 68bd e112 d1bd 1aaa 8e3d
00000040: 3d51 bebc 1056 59bd 6a32 803d 320a 13be
00000050: 254c 8f3d bbcd dabd f063 233e 1cd7 2b3d
00000060: 0700 c93d 132a d93d c77b 74bb d32a 553d
00000070: bf7c 8d3c 88d0 ebbb 4a56 fe3d 4b70 e13b
00000080: 6ada 583b ca5d 173d 5dee edbd 57b0 8b3d
00000090: a6ac 383d ef72 c3bd 4e95 e3bd 679b 5b3d
000000a0: d3e1 bdbc 82b0 203e 90ea 07bb b4a3 b03c
000000b0: c28d 05be 1f8e b93d 105f 193e 998f 9f3d
000000c0: d7d0 073e b34b 8dbc d42c b0bc 1027 f0bd
000000d0: b709 d73d ca6b 7e3d 954f 37bd 38a0 2bbc
000000e0: 9589 c93c ee47 c43d 21e6 fd3d 0bd9 49bc
000000f0: de27 90bb aaab be3c dfd7 743d 3218 9bbc
00000100: c2a2 bcbd c66c b1bd 1d9c b03d d649 db3d
00000110: 5fb1 c7bb 9f95 b43d 60b8 953c fe47 053d
00000120: 20ca 2bbe fd1a 89bd 6d64 97bc 286f 3fbe
00000130: c7ec 6c3d 8f7a adbc ce59 10bd 2490 2c3c
00000140: eb3e 28bd 080a 86bc 5fd1 803d bb9e ae3d
00000150: 5ffb 2c3d 04e1 33bd 5070 963d f14b b5bd
00000160: 940f 953d 60e8 223d 3c0c 493d fa39 553d
00000170: a1cf 16bb a0d2 133e 637d 393c bec2 44be
00000180: 77a4 d5bd 1ec2 c33d 63b3 d13c 0784 ddbc
00000190: a529 9b3d 2ac7 c4bb 6021 e0bd 5323 8ebd
000001a0: ab5b adbc c06b ddbd b031 c03c e43e 253d
000001b0: f2fe 1a3d afa0 353e cc9f cdbb 96e2 1dbc
000001c0: c289 553d 163e 7ebd 2560 313d 0654 a3bd
000001d0: 79d9 5b3d fbf8 89bd 483f 26bd 32a7 72bd
000001e0: dd9c f8bc 4f5b 883c f54e fdbd 8487 0a3d
000001f0: ad3c c63d d3a7 363d 0fd9 793d 407a eebd
00000200: 9659 b0bc 1685 5cbd 55b0 b5bd b38f 893d
00000210: 325c 733c 6bdf 8dbd 9617 46be 9845 2dbe
00000220: f63b 97bc 7ea2 2abd 4f38 83bd f16b 123e
00000230: 9791 093d d93f 0b3d 6674 df3d 8cc3 183e
00000240: 67ee ae3c cfa2 283d 0769 753d d64e c73c
00000250: 5c62 a3bc 70f8 9f3c e631 2d3d 7164 953e
00000260: 37fc c5bd afc4 13bd d294 cb3b c8ca 30be
00000270: c15d 1dbe a1e8 77bb cdf3 9dbc 7c8d 4a3e
00000280: 349d da3c 57cb f5bd 264b ee38 a6a8 873e
00000290: ed58 0e3e 2dc1 1fbd ef38 eebc 7458 3f3e
000002a0: 4346 7e3e da59 063e 458f 6ebe 621c 7b3d
000002b0: 9078 6cbe 23fa 4f3e af6b fcbb 6d3c 97bd
000002c0: a7c5 40be daa7 1c3e cc2c f13d 9070 72bd
000002d0: a844 c4bc 856f 1dbe 854e c4bc 22dd 283e
000002e0: b982 1cbd 599d c3bc 22c0 14be eb68 17bd
000002f0: 93e7 54bd 6c52 e23c a278 7fbd 7607 253e
00000300: fcac cebd cf07 1dbe f57a 1b3e e28f 09bd
00000310: e7e3 9c3e f036 f53d 31bd b83c 95fe 193e
00000320: 0d3f 923d c513 e6bd 2c48 a3bc b01d eebb
00000330: 5e2f 9b3c d456 3ebe 0e17 253e 9063 5c3d
00000340: 52d4 4dbd 3606 2dbe 9548 c8bc 826b adbd
00000350: 5024 91bc c9ee d33b 3ac6 753d 5141 d4bd
00000360: ead9 bcbc c803 933d 6353 91bd 99ef a5bd
00000370: ab1c 95bd 8a87 693c 11a5 b23d 9917 b23d
00000380: 63b5 1c3d 20b1 903d e55c e33d a6fc 87bd
00000390: 0014 b5bd 7395 2a3e d6d7 d5bc d253 d7bd
000003a0: 36dc f63d 5ba3 1bbd 1c5b 843d 4f27 b23d
000003b0: 9b50 453d 82e5 8e3c 15e7 39bd 0f33 5fbd
000003c0: ed28 8e3e 8dec b6bd 8ae1 1ebe 565d ac3c
000003d0: 522a 2dbe eb44 78bd de6c a5bd 33f4 e9bd
000003e0: cd4f dcbc df64 47be 293b 0a3e cfd3 e23d
000003f0: cc40 29be ca02 fe3d f7e5 94bc 7ef5 823d

1.layers.3.0.bias f4 [80]
0.005396073 -0.048455145 -0.029122805 -0.06357277 -0.04904687 -0.033914477 -0.031444676 -0.022448383
-0.046355754 -0.042907663 -0.017472556 -0.016702354 -0.047363494 -0.010119679 -0.0023439378 -0.047396563
-0.03924943 -0.018248664 -0.049888726 -0.053049576 -0.014833121 -0.005153241 -0.0048198635 -0.06536424
-0.06656084 -0.038949754 -0.036200356 -0.030159691 -0.007210159 -0.025382549 -0.079419084 -0.01250117
-0.021188762 -0.027338238 -0.033158895 -0.04961907 -0.031541843 -0.018839797 -0.062974975 0.003321564
-0.0076897168 -0.038669337 -0.040281806 -0.023035187 -0.028866349 -0.052357975 -0.0505708 -0.011098245
-0.04851865 -0.008521922 -0.018256051 -0.09314502 -0.031992797 -0.05419122 -0.010531988 -0.034192506
-0.050920445 -0.022272862 -0.025443846 -0.03146261 -0.037643638 -0.08244512 -0.018154802 -0.047070693
-0.025911434 -0.034764927 -0.014674328 -0.044883065 -0.024916647 -0.060152117 -0.008122431 -0.04177463
-0.02951863 -0.012571147 -0.043554515 -0.015702274 -0.0039956346 -0.006210714 -0.071045995 -0.014198931
00000000: 8bd1 b03b e778 46bd f392 eebc 7132 82bd
00000010: 5fe5 48bd e8e9 0abd 22cc 00bd ace5 b7bc
00000020: 88df 3dbd f2bf 2fbd 9b22 8fbc 60d3 88bc
00000030: 3900 42bd 03cd 25bc c09c 19bb e622 42bd
00000040: 03c4 20bd 397e 95bc 1f58 4cbd 834a 59bd
00000050: 9e06 73bc 85dc a8bb f2ef 9dbb b0dd 85bd
00000060: 0d51 88bd c789 1fbd d346 14bd 7511 f7bc
00000070: 3343 ecbb 10ef cfbc 79a6 a2bd b5d1 4cbc
00000080: 0e94 adbc 71f4 dfbc 9fd1 07bd 5e3d 4bbd
00000090: 0532 01bd eb55 9abc 06f9 80bd 99ae 593b
000000a0: 05fa fbbb bd63 1ebd 89fe 24bd 4ab4 bcbc
000000b0: 1f79 ecbc 5175 56bd 5423 4fbd 6ad5 35bc
000000c0: 7ebb 46bd 889f 0bbc b78d 95bc d1c2 bebd
000000d0: e10a 03bd 9df7 5dbd 5c8e 2cbc 710d 0cbd
000000e0: f591 50bd 9475 b6bc 9d6f d0bc f0de 00bd
000000f0: 3730 1abd fdd8 a8bd 61b9 94bc 33cd 40bd
00000100: 3744 d4bc ab65 0ebd 986c 70bc 4ed7 37bd
00000110: ff1d ccbc 1162 76bd f213 05bc e01b 2bbd
00000120: 0ed1 f1bc 36f7 4dbc 3866 32bd 0ea2 80bc
00000130: d0ed 82bb 3f83 cbbb 9080 91bd a2a2 68bc

1.layers.3.0.weight f4 [80, 320]
-0.036468264 -0.019790024 -0.06559377 0.04869155 0.09603326 0.06264254 -0.00354249 -0.00059396244
0.07223966 -0.12601134 0.036067072 -0.023756465 -0.037249893 0.09959766 0.017296115 -0.06622345
0.0997428 -0.024972303 -0.09373429 -0.055032115 -0.10212467 0.09934721 0.015924007 0.0019386101
0.16464348 -0.04805646 0.028745497 -0.083120726 0.032604843 -0.026330482 -0.058833938 0.03480624
0.13856322 -0.014014661 -0.012362289 -0.18442634 -0.03437866 0.082527824 0.03608041 0.096364155
-0.06541403 0.023376022 0.039159153 0.045389406 -0.15666473 -0.20312278 -0.0978941 -0.069031395
-0.10077184 -0.05387121 -0.026625592 0.008047795 -0.08991426 0.18462622 -0.17889568 0.082171135
-0.05695495 -0.137444 0.15148093 0.06430166 -0.13913365 0.02938279 0.08352241 0.10013311
-0.058232136 -0.024041718 0.02423628 -0.0760575 -0.021611365 -0.017975751 0.08666768 0.019690773
-0.0072103343 -0.009403009 0.045815967 -0.007033581 0.01596074 0.016987748 -0.071051456 -0.043660317
-0.00015292008 -0.08417833 -0.10436814 0.09985006 -0.010730256 -0.12629229 0.04748893 0.039783873
0.07814653 0.18215182 -0.047368705 -0.103833534 -0.15192977 -0.0552853 0.037354168 0.09729522
0.07498993 -0.14740647 -0.008244291 -0.14931583 0.17767018 -0.09557031 0.0013461694 -0.07430089
-0.10774803 -0.14715946 -0.06049994 -0.040857192 -0.08847704 0.022122405 -0.07673537 0.11474957
-0.05031137 -0.015153094 -0.058531165 -0.022081144 -0.04700066 0.040887773 -0.12291294 0.107646234
-0.0010941433 0.06752565 -0.07193529 0.0067929476 -0.08785925 0.0329281 0.12737894 -0.03798435
0.02543724 0.10838629 0.07276946 0.012201981 0.04331334 -0.0053824685 -0.116338514 -0.019175312
0.053051144 0.10153994 -0.12270653 -0.11685332 -0.025600992 -0.0842023 -0.105062835 0.05255132
-0.078201406 0.042065594 0.055172935 -0.02762985 -0.06596891 -0.027586939 -0.0010150293 0.024644773
-0.020701278 -0.03464562 0.050875783 -0.05114782 -0.102864705 -0.20219997 -0.11563991 -0.0745705
0.10535594 -0.069736496 -0.08057189 0.1809242 -0.12367231 0.13578811 -0.032335654 0.0064193173
-0.042537127 0.0058012884 -0.013007744 0.020961676 0.08440535 -0.14664347 0.029179918 0.03597207
-0.10031412 -0.04809519 0.054121744 -0.024318231 -0.14300981 -0.10439386 -0.0031490964 0.033439435
0.07521562 0.043856673 -0.048844915 0.16013905 0.09660332 -0.0796096 -0.22681978 -0.14535977
-0.025193391 -0.03273964 0.053835716 0.10390337 -0.01619201 0.04957375 0.15438224 0.10982194
-0.03236903 -0.12538774 0.0054456606 0.030682769 -0.1917743 -0.07201055 0.025851574 -0.094555736
0.12760323 -0.1275465 0.084671035 0.12159232 0.044500027 0.025099952 -0.16587518 0.0011254937
-0.02743984 0.015958386 0.02437147 -0.008220883 0.042063225 -0.13911022 0.058306303 -0.03306243
-0.14910658 -0.08966746 -0.033651464 0.005021868 0.014265494 0.016042423 0.03142887 -0.070793405
0.05572762 0.04179528 0.120767415 -0.0636594 0.10566185 -0.0050203074 -0.059896927 -0.18523833
-0.051043842 0.002086078 0.03572217 0.09789451 -0.07625289 0.024244742 -0.09983327 0.14980343
-0.111161776 0.021883849 -0.11586659 0.039849404 -0.17602336 0.123344645 -0.11616274 0.14571047
00000000: bf5f 15bd b01e a2bc 0756 86bd ca70 473d
00000010: 16ad c43d bb4a 803d 1f29 68bb 25b4 1bba
00000020: 63f2 933d 1e09 01be 11bb 133d eb9c c2bc
00000030: 5893 18bd dcf9 cb3d 95b0 8d3c 29a0 87bd
00000040: f445 cc3d b792 ccbc c3f7 bfbd 5b69 61bd
00000050: bd26 d1bd 8d76 cb3d 1073 823c f618 fe3a
00000060: 4d98 283e dad6 44bd ad7b eb3c 333b aabd
00000070: a88c 053d 06b3 d7bc dbfb 70bd fd90 0e3d
00000080: 84e3 0d3e c09d 65bc 338b 4abc 42da 3cbe
00000090: a3d0 0cbd 5904 a93d 0dc9 133d 925a c53d
000000a0: caf7 85bd 127f bf3c 5965 203d 3eea 393d
000000b0: b86c 20be 6bff 4fbe b47c c8bd 5560 8dbd
000000c0: 7761 cebd 0fa8 5cbd ea1d dabc e6da 033c
000000d0: f824 b8bd a80e 3d3e 6e30 37be 5749 a83d
000000e0: 9849 69bd 1fbe 0cbe d11d 1b3e 97b0 833d
000000f0: 0d79 0ebe 2db4 f03c cc0d ab3d 9712 cd3d
00000100: d284 6ebd 23f3 c4bc 2a8b c63c 09c4 9bbd
00000110: 510a b1bc e241 93bc d37e b13d 8b4e a13c
00000120: ab44 ecbb 140f 1abc 86a9 3b3d f479 e6bb
00000130: 19c0 823c e429 8b3c 6d83 91bd 29d5 32bd
00000140: 2c59 20b9 b065 acbd f7be d5bd 307e cc3d
00000150: f5cd 2fbc c452 01be c183 423d 6af4 223d
00000160: 4a0b a03d 0286 3a3e b005 42bd ada6 d4bd
00000170: 7a93 1bbe d772 62bd af00 193d b742 c73d
00000180: 5294 993d b9f1 16be 1013 07bc 40e6 18be
00000190: 2cef 353e 5eba c3bd f371 b03a 112b 98bd
000001a0: 00ab dcbd f8b0 16be c9ce 77bd df59 27bd
000001b0: 7333 b5bd 0c3a b53c 6f27 9dbd d301 eb3d
000001c0: 4c13 4ebd af44 78bc 60be 6fbd 84e3 b4bc
000001d0: c483 40bd f079 273d c8b9 fbbd a175 dc3d
000001e0: 5b69 8fba e34a 8a3d cf52 93bd 6097 de3b
000001f0: 8def b3bd 9edf 063d a06f 023e 7a95 1bbd
00000200: c261 d03c a2f9 dd3d 2808 953d d1ea 473c
00000210: 5469 313d 6b5f b0bb e342 eebd 8b15 9dbc
00000220: 284c 593d 2cf4 cf3d 904d fbbd cb50 efbd
00000230: 2cb9 d1bc 4172 acbd 2f2b d7bd 0e40 573d
00000240: 0f28 a0bd f94c 2c3d 04fd 613d ff57 e2bc
00000250: b51a 87bd 01fe e1bc bb0a 85ba d6e3 c93c
00000260: ba95 a9bc 91e8 0dbd 2063 503d 6080 51bd
00000270: bbaa d2bd 820d 4fbe 9ed4 ecbd 6bb8 98bd
00000280: dbc4 d73d 02d2 8ebd e002 a5bd 3244 393e
00000290: e847 fdbd 0a0c 0b3e 6472 04bd 2359 d23b
000002a0: 693b 2ebd bc18 be3b 6f1e 55bc d2b7 ab3c
000002b0: b6dc ac3d b529 16be b90a ef3c 7357 133d
000002c0: 7d71 cdbd 76ff 44bd c3ae 5d3d 0737 c7bc
000002d0: 2a71 12be 73cc d5bd 1261 4ebb caf7 083d
000002e0: a60a 9a3d 0ea3 333d 9b11 48bd 7efb 233e
000002f0: f6d7 c53d 5c0a a3bd 7243 68be 31d9 14be
00000300: 5f62 cebc 001a 06bd d782 5c3d 4acb d43d
00000310: 1ba5 84bc d80d 4b3d 6116 1e3e 53ea e03d
00000320: 6395 04bd a565 00be 8371 b23b 6e5a fb3c
00000330: 7b60 44be 447a 93bd aec6 d33c 70a6 c1bd
00000340: 6caa 023e 8d9b 02be 0268 ad3d 6505 f93d
00000350: a945 363d 6a9e cd3c 2fdb 29be 4d85 933a
00000360: 84c9 e0bc 29bb 823c ada6 c73c e2b0 06bc
00000370: 7d4a 2c3d e972 0ebe 97d2 6e3d 786c 07bd
00000380: 65af 18be 93a3 b7bd 1ed6 09bd 7b8e a43b
00000390: d2b9 693c 666b 833c 8fbb 003d 22fc 90bd
000003a0: a542 643d 8731 2b3d e854 f73d dc5f 82bd
000003b0: 3d65 d83d 6481 a4bb 7b56 75bd 1eaf 3dbe
000003c0: 5913 51bd 95b6 083b 6951 123d eb7c c83d
000003d0: 7a2a 9cbd e99c c63c 6375 ccbd 1266 193e
000003e0: c9a8 e3bd c245 b33c 764b edbd 2139 233d
000003f0: 783f 34be 1e9c fc3d bbe6 edbd 2035 153e

1.layers.4.0.bias f4 [80]
-0.030134624 -0.026521172 -0.03343854 -0.025635691 -0.031025719 -0.033388644 -0.025032097 -0.044937894
0.004821658 -0.03923692 -0.03479699 -0.009654799 -0.024047121 -0.040309343 -0.048700705 -0.02871048
-0.01934118 -0.038162347 -0.013691699 -0.027039327 -0.034094237 -0.034298025 -0.011110336 -0.020354113
-0.0125206895 -0.026843451 -0.034303233 -0.041327 -0.029715763 -0.056415766 -0.027511586 -0.031415097
-0.017792895 -0.022551533 -0.022438014 -0.029649729 0.0047189584 -0.028624235 -0.03205492 -0.04008211
-0.04179947 -0.0073500075 -0.024998365 -0.03301025 -0.06586396 -0.03577713 -0.014414004 -0.05551076
0.013569039 -0.012153075 -0.033280335 -0.027280996 -0.06897516 -0.0337625 -0.018820254 -0.055461045
-0.07028071 -0.011409086 -0.01744327 -0.034597922 -0.04857288 -0.026190037 -0.01652267 0.011223929
-0.02086393 -0.0403236 -0.050450232 -0.021110646 -0.02715446 -0.013043009 -0.0057456167 -0.019118784
-0.024881 -0.044289242 -0.052874744 -0.032822657 0.015762268 -0.028923724 -0.007132676 -0.028085932
00000000: e3dc f6bc ee42 d9bc daf6 08bd f101 d2bc
00000010: a629 febc 88c2 08bd 1d10 cdbc cc10 38bd
00000020: 00ff 9d3b e5b6 20bd 4a87 0ebd 292f 1ebc
00000030: 78fe c4bc 691b 25bd 647a 47bd 3e32 ebbc
00000040: 6571 9ebc 1f50 1cbd 2653 60bc 9481 ddbc
00000050: 66a6 0bbd 167c 0cbd 2008 36bc abbd a6bc
00000060: 9423 4dbc cce6 dbbc 8c81 0cbd 8046 29bd
00000070: 796e f3bc 3814 67bd fa5f e1bc 1ead 00bd
00000080: 68c2 91bc febd b8bc edcf b7bc fde3 f2bc
00000090: 7ea1 9a3b 5f7d eabc 054c 03bd 232d 24bd
000000a0: ec35 2bbd 55d8 f0bb 5fc9 ccbc c235 07bd
000000b0: afe3 86bd 0a8b 12bd b728 6cbc 405f 63bd
000000c0: ad50 5e3c b11d 47bc f650 08bd 657c dfbc
000000d0: d942 8dbd 8c4a 0abd ef2c 9abc 1f2b 63bd
000000e0: 55ef 8fbd 2ded 3abc 30e5 8ebc 8db6 0dbd
000000f0: 5bf4 46bd 7d8c d6bc 8d5a 87bc 92e4 373c
00000100: d5ea aabc 5c2a 25bd e7a4 4ebd 3cf0 acbc
00000110: 0873 debc 58b2 55bc ba45 bcbb ff9e 9cbc
00000120: 3dd3 cbbc a368 35bd 3093 58bd 0d71 06bd
00000130: df1f 813c 72f1 ecbc 39b9 e9bb 7814 e6bc

1.layers.4.0.weight f4 [80, 400]
0.07573474 -0.088015206 -0.056652002 -0.03740993 0.06443615 0.016566563 -0.016808797 -0.006679084
-0.033392377 0.06096944 -0.045447398 0.07663907 -0.05269399 -0.039010983 0.01165969 -0.06374237
-0.0247376 0.064658195 0.08013344 -0.06566101 -0.16249956 0.0049302713 0.0067139585 -0.11703321
0.061150964 0.049476612 -0.11779531 -0.051104568 0.066393174 -0.03046386 -0.08865514 0.041477587
0.10505115 -0.029139291 -0.03223625 0.05389943 0.08686005 0.025739094 -0.024358809 -0.060691096
0.018156508 0.05623691 -0.030863265 0.049264356 -0.03795039 0.068979174 0.003435569 0.0063101635
0.052099098 -0.03072228 0.03590463 -0.083553284 0.08298591 -0.06270737 0.006392698 0.014951552
0.014296938 -0.044782948 0.057492398 0.047731906 -0.026489912 -0.052919284 0.08355023 0.007747721
-0.12074179 0.07977515 0.042451564 -0.06254591 0.024190072 -0.0009457872 -0.0260164 -0.076529875
-0.061586626 0.005330043 -0.06149899 0.15089354 -0.010441535 -0.09040164 0.019387092 -0.12075447
0.07032929 0.1269816 -0.021593213 0.03220809 -0.09913703 -0.038415957 -0.012912393 0.01715109
-0.14605887 0.03423299 0.14635234 0.10653183 -5.0320887e-05 0.16544876 0.062328026 -0.021143256
0.05118497 0.1300341 0.11333115 0.02820913 0.038421392 -0.11887395 0.051354837 -0.0872643
0.13564456 -0.103022605 -0.094457425 0.0202763 0.10001473 0.023238191 0.062870875 -0.05892858
0.0061627217 -0.07510132 -0.14252096 0.10146681 -0.09467174 0.0056031533 0.0030910175 -0.051003285
-0.16331573 -0.09558295 -0.060096916 -0.20950441 0.015734365 -0.11144565 -0.03548162 0.07725003
-0.011025031 -0.040886376 0.007502577 -0.054822393 -0.009736262 -0.09165695 -0.15869279 -0.01256767
-0.038817253 -0.08347701 0.1088705 0.0232224 0.112892486 -0.033813957 0.07064355 0.13419929
0.018132895 -0.018662909 -0.12033367 -0.045736305 -0.09989047 -0.1235407 0.04929303 0.008716026
0.0005575041 0.03652995 0.014378405 0.05581326 0.008425248 -0.03168054 -0.11907276 0.041822087
0.08257427 -0.008237431 -0.0010525539 -0.008532551 0.16891079 -0.0632354 0.0037262952 0.031610437
0.04109578 0.033951033 0.03498387 0.050634377 0.025530968 -0.06584104 -0.0028173516 -0.07868318
0.121849075 0.015261714 -0.027779682 0.0036610845 0.06820465 0.020537008 0.13731435 0.055748947
-0.12071284 -0.010032714 -0.009368098 0.03601547 0.061145894 0.036834784 0.14478321 0.13956681
-0.04217113 -0.005433156 -0.0061324327 -0.11637869 -0.028348418 -0.099656984 0.0746788 0.00253213
0.024109997 -0.041272197 0.07879307 -0.09040984 0.023094265 -0.1596197 -0.0914585 -0.016683955
0.06790147 -0.042279124 0.1319413 -0.00923213 0.057266343 0.018348822 0.09951225 0.025974762
-0.00660828 -0.14751062 0.035616677 0.09746972 0.072619356 -0.043369185 0.041799385 0.0072145206
0.10237002 -0.036282565 -0.010950209 0.05832374 0.057297517 -0.08707172 0.03632482 0.111042775
-0.06835506 0.06878152 -0.0012000337 -0.07390613 -0.04073891 0.051952437 -0.0618773 -0.08439536
-0.040740505 0.047646392 -0.038359325 -0.11954293 -0.021542896 0.024753295 -0.02468855 -0.104627766
0.059298895 -0.037717722 -0.04723811 -0.06715841 0.037338156 -0.020705914 -0.026544169 -0.11706964
00000000: d11a 9b3d 5141 b4bd ee0b 68bd 283b 19bd
00000010: 1af7 833d 9ab6 873c 9ab2 89bc 38dc dabb
00000020: 72c6 08bd 17bb 793d 0d27 3abd f2f4 9c3d
00000030: a7d5 57bd fbc9 1fbd 4908 3f3c 5c8b 82bd
00000040: 82a6 cabc 846b 843d 001d a43d 4879 86bd
00000050: 4966 26be 1d8e a13b c400 dc3b 1caf efbd
00000060: 6f79 7a3d fda7 4a3d ab3e f1bd 0653 51bd
00000070: 25f9 873d 588f f9bc d390 b5bd 67e4 293d
00000080: 0f25 d73d 86b5 eebc 280a 04bd a6c5 5c3d
00000090: afe3 b13d cbda d23c 208c c7bc 3a97 78bd
000000a0: f5bc 943c ad58 663d f5d4 fcbc 6cc9 493d
000000b0: de71 1bbd f444 8d3d 4827 613b 7dc5 ce3b
000000c0: dd65 553d 4aad fbbc bc10 133d fc1d abbd
000000d0: 84f4 a93d b96c 80bd d679 d13b 5bf7 743c
000000e0: b43d 6a3c 536e 37bd 267d 6b3d 8882 433d
000000f0: 5f01 d9bc e4c1 58bd 621c ab3d 98e0 fd3b
00000100: 7947 f7bd 2761 a33d b1e1 2d3d 1218 80bd
00000110: 422a c63c b4ee 77ba 5820 d5bc b2bb 9cbd
00000120: 4242 7cbd a4a7 ae3b 5de6 7bbd d683 1a3e
00000130: f912 2bbc 7f24 b9bd aed1 9e3c 1f4e f7bd
00000140: ce08 903d 7707 023e 40e4 b0bc a1ec 033d
00000150: 5b08 cbbd 0d5a 1dbd 808e 53bc 7180 8c3c
00000160: 7590 15be e437 0c3d 63dd 153e 5c2d da3d
00000170: a40f 53b8 666b 293e ac4b 7f3d 9f34 adbc
00000180: 55a7 513d a927 053e 291a e83d d516 e73c
00000190: c05f 1d3d 2f74 f3bd 7359 523d a0b7 b2bd
000001a0: 68e6 0a3e 84fd d2bd e572 c1bd 7c1a a63c
000001b0: 86d4 cc3d 055e be3c 72c2 803d 185f 71bd
000001c0: a8f0 c93b b9ce 99bd 04f1 11be d5cd cf3d
000001d0: 42e3 c1bd a89a b73b ab92 4a3b d2e8 50bd
000001e0: 3d3c 27be fec0 c3bd 2f28 76bd 5388 56be
000001f0: 5be5 803c 9e3d e4bd 2d55 11bd 4435 9e3d
00000200: 55a2 34bc 7978 27bd 2dd8 f53b 728d 60bd
00000210: d884 1fbc a4b6 bbbd 5d80 22be a1e8 4dbc
00000220: d7fe 1ebd fff5 aabd 7ff7 de3d e73c be3c
00000230: 2d34 e73d 8180 0abd 91ad 903d 8a6b 093e
00000240: 708b 943c f5e2 98bc 8071 f6bd fe55 3bbd
00000250: 6093 ccbd e802 fdbd 7de7 493d aacd 0e3c
00000260: 7825 123a 6ea0 153d 6793 6b3c 729c 643d
00000270: 0d0a 0a3c 74c3 01bd 6bdc f3bd a34d 2b3d
00000280: b31c a93d 4af6 06bc d9f5 89ba 1dcc 0bbc
00000290: f3f6 2c3e 9081 81bd dc34 743b f279 013d
000002a0: 0c54 283d 3d10 0b3d 3f4b 0f3d fe65 4f3d
000002b0: 5226 d13c abd7 86bd 51a3 38bb a624 a1bd
000002c0: 028c f93d 450c 7a3c 3792 e3bc ceee 6f3b
000002d0: e1ae 8b3d 3a3d a83c 229c 0c3e 0259 643d
000002e0: 4b38 f7bd 4160 24bc a77c 19bc f584 133d
000002f0: 1e74 7a3d 12e0 163d 0d42 143e 9aea 0e3e
00000300: a3bb 2cbd 9e08 b2bb 93f2 c8bb f357 eebd
00000310: f13a e8bc f618 ccbd 33f1 983d 18f2 253b
00000320: 5482 c53c 090d 29bd 435e a13d cb28 b9bd
00000330: 2f30 bd3c 5973 23be 984e bbbd caac 88bc
00000340: ed0f 8b3d e02c 2dbd 9f1b 073e 5c42 17bc
00000350: 1d90 6a3d 4550 963c 14cd cb3d 06c9 d43c
00000360: 458a d8bb 060d 17be cbe2 113d 349e c73d
00000370: 75b9 943d e3a3 31bd d535 2b3d c967 ec3b
00000380: 5fa7 d13d 079d 14bd 8168 33bc e0e4 6e3d
00000390: cdb0 6a3d a852 b2bd 56c9 143d 656a e33d
000003a0: bdfd 8bbd 53dd 8c3d 734a 9dba 195c 97bd
000003b0: d8dd 26bd 14cc 543d 0d73 7dbd 79d7 acbd
000003c0: 84df 26bd dd28 433d ab1e 1dbd ecd2 f4bd
000003d0: ba7a b0bc 6cc7 ca3c a43f cabc 1547 d6bd
000003e0: 66e3 723d e67d 1abd c07c 41bd 598a 89bd
000003f0: e5ef 183d 739f a9bc 2873 d9bc 35c2 efbd
