DNNWeightsDefault/model_0/ensemble_0/zz_bbtt_3.onnx (onnx, 947112 bytes, 19 tensors)

0.embeds.0.weight f4 [2, 1]
0	0x3e8ea4bb	0.27860054
1	0x3fc2c4a8	1.5216265

0.embeds.1.weight f4 [3, 2]
0	0xbf944751	-1.1584264
1	0xbe2da619	-0.16957892
2	0x3f1a8de1	0.6037274
3	0xbf3df3a4	-0.7419989
4	0x3f41b4ef	0.7566671
5	0x3f39be64	0.7255614

0.embeds.2.weight f4 [2, 1]
0	0xbfe10d70	-1.7582226
1	0x3f1bda65	0.6088012

0.embeds.3.weight f4 [5, 3]
0	0xbf252421	-0.64508253
1	0xbf8cbbaf	-1.0994776
2	0x3e476a21	0.19474079
3	0x3ec653f4	0.38735926
4	0xbfda162b	-1.7038015
5	0x3f448055	0.7675832
6	0xbf81c49c	-1.0138125
7	0x3e80870c	0.25103033
8	0x3f46136d	0.7737339
9	0x3d80ff19	0.06298656
10	0x3fafda81	1.3738557
11	0x3f206061	0.6264706
12	0x3dfef67a	0.124493554
13	0x3f560c26	0.8361229
14	0xbf855a92	-1.0418265

0.embeds.4.weight f4 [5, 3]
0	0xbd946989	-0.07246692
1	0xbe2980a3	-0.16552977
2	0xbf82de4e	-1.0224092
3	0xbee30331	-0.44338372
4	0x3d0d4a58	0.034494728
5	0xbf93857e	-1.1525114
6	0xbfd12c94	-1.6341729
7	0x3ee6a522	0.4504786
8	0x3faf6a37	1.3704289
9	0x3efec282	0.49757773
10	0x3f24ce31	0.64377123
11	0x3f9bea31	1.2180845
12	0x3ff9e8d1	1.9524175
13	0x3f09b26f	0.53787893
14	0x3fc152e0	1.5103416

0.embeds.5.weight f4 [2019, 50]
0	0xbff2e67f	-1.8976592
1	0xbfd24db5	-1.6429964
2	0x3f5a6d4a	0.8532301
3	0x3f9a6320	1.20615
4	0xbf8dd49d	-1.108051
5	0xbf04a527	-0.518145
6	0x3fba2660	1.4542961
7	0xbe560e06	-0.20903787
8	0xbf54af27	-0.8307976
9	0x3fd61621	1.6725503
10	0x3e4ad81c	0.19809002
11	0xbf0dccbe	-0.55390537
12	0xbfede5a9	-1.8585712
13	0x3e8d05b4	0.27543414
14	0xbf8e85a5	-1.1134535
15	0xbef2b9bb	-0.47407326
16	0xbfb4df55	-1.4130656
17	0xbe4faf86	-0.202818
18	0xbebd45ca	-0.36967307
19	0xbf7db98b	-0.9911124
20	0xbea1b4a2	-0.31583124
21	0xbd02c6f8	-0.031928033
22	0x3f147817	0.5799574
23	0xbeba1dc1	-0.36350825
24	0xbec00bcf	-0.3750901
25	0xbe9d51b4	-0.30726397
26	0xbef1b3d4	-0.4720751
27	0x3e1536d7	0.14571701
28	0xbfbe53a2	-1.4869273
29	0x3f66ac7b	0.90106934
30	0xbfa0362c	-1.2516532
31	0xbf6c42ee	-0.92289627
32	0xbec74271	-0.38917878
33	0x3eafa7fa	0.34307843
34	0xbf2d2892	-0.6764003
35	0xbe4a3b83	-0.19749264
36	0x3f367177	0.71266884
37	0xbfd30fa7	-1.6489152
38	0x3f456493	0.7710659
39	0x3f7124ce	0.94196784
40	0x3f3d9067	0.74048465
41	0x3f86c71e	1.0529516
42	0x3ef264c3	0.473425
43	0x3e1ef7c0	0.15524197
44	0x3faf6526	1.3702743
45	0xbeed7db8	-0.46384978
46	0x3fb88537	1.4415654
47	0xbdc39453	-0.09549775
48	0x3face713	1.3508018
49	0x3fd0239f	1.6260871
50	0xbd4b6cb8	-0.04966423
51	0x3eff417d	0.4985465
52	0x3ee2a7b7	0.4426858
53	0xbe3b11d2	-0.18268517
54	0xbc5de3ee	-0.013543112
55	0x3fcafe04	1.585877
56	0x3f7359f6	0.95059144
57	0xbfa38e43	-1.277779
58	0x3fb94582	1.4474337
59	0x3f366342	0.71245205
60	0x3e473354	0.19453174
61	0x3ff2a1a4	1.8955579
62	0x3e15aed5	0.14617474
63	0x3ff6e5d1	1.9288884
64	0xbefb46ad	-0.4907736
65	0x3f425d08	0.75923204
66	0xbf8bed1c	-1.0931735
67	0xc04ace84	-3.1688547
68	0xbf467451	-0.77521235
69	0x3f44847a	0.76764643
70	0xbdc77040	-0.09738207
71	0x3ff65715	1.9245325
72	0xbf9eadb7	-1.2396764
73	0x3e36dbab	0.17857234
74	0x3fa5d544	1.2955709
75	0x3f945f84	1.1591649
76	0x3f922fec	1.1420875
77	0x3eb567e9	0.3543084
78	0xbf46b4b1	-0.77619463
79	0x3edc1c39	0.42990282
80	0xbfd109db	-1.6331133
81	0x3f9fe24a	1.2490933
82	0x3f266c96	0.6500944
83	0xbf012f11	-0.5046244
84	0xbf6a6dfd	-0.9157408
85	0xbdbc2b77	-0.09187978
86	0xc019cd20	-2.4031448
87	0xbff1c25b	-1.8887438
88	0x3f5454fa	0.82942164
89	0xba526a3d	-0.0008026695
90	0x3f65d469	0.8977724
91	0x3f278d95	0.6545041
92	0xbfb7d4de	-1.4361837
93	0x3ee6da11	0.45088246
94	0x4013462d	2.3011582
95	0x3f34d0aa	0.70630896
96	0xbf65e45a	-0.8980156
97	0xbd7a5634	-0.061117366
98	0xbf6922c8	-0.91068697
99	0xbf74231c	-0.9536607
100	0xbe188c62	-0.14897302
101	0xbf9fe51a	-1.2491791
102	0xbf2cc953	-0.67494696
103	0xbf0abc16	-0.54193246
104	0xbf14c212	-0.5810863
105	0xbee50356	-0.44729108
106	0x3d80e194	0.062930256
107	0x3eefdc76	0.46847886
108	0x3f1a3515	0.60237247
109	0xbea0bc5d	-0.3139371
110	0x3fb9f9fb	1.4529413
111	0x3ed060e8	0.40698934
112	0xbee3a49c	-0.44461524
113	0xbf82cc50	-1.0218601
114	0x3f2c9ced	0.6742695
115	0x3f280386	0.65630376
116	0x3ea4ab02	0.3216172
117	0xbf8ba9fc	-1.091125
118	0xbd81b734	-0.06333771
119	0x3cf62564	0.030047126
120	0xbe98f368	-0.29873204
121	0xbf1a3a5a	-0.6024529
122	0xbe25c2d4	-0.16187602
123	0xbfae0521	-1.3595315
124	0x400436cd	2.0658448
125	0xbf0c5eae	-0.5483197
126	0x3ea9cdb3	0.3316475
127	0x3e97cd59	0.29648855
128	0xbf3c6ba9	-0.73601776
129	0xbff95db7	-1.9481725
130	0x3dfc861b	0.12330266
131	0x3ea06a61	0.3133116
132	0x3fac4bf9	1.3460685
133	0xbf8ded4b	-1.1088041
134	0x3d9bf6c2	0.07615425
135	0xbf5e6da9	-0.8688608
136	0x3ee1c5ff	0.44096372
137	0x3f59ca3b	0.85074204
138	0x3e91d073	0.28479347
139	0xbebcf264	-0.3690368
140	0x3f5928d9	0.84827954
141	0xbfdc0273	-1.7188247
142	0x3f052847	0.52014583
143	0xbfabd77a	-1.3425133
144	0x3e16b2c6	0.14716634
145	0x3f09ef5c	0.5388086
146	0x3fd5bf8e	1.6699083
147	0xbd8a73f7	-0.067604
148	0x3f9e2d71	1.2357618
149	0x3d827177	0.06369298
150	0xbe8c4a3e	-0.27400392
151	0xbf328051	-0.69727045
152	0xbf7edbaa	-0.9955393
153	0x3e90551f	0.28189942
154	0x3f3127c4	0.692013
155	0x3db1279b	0.08650132
156	0xbdedb93b	-0.116075955
157	0xbe89d5bc	-0.2692088
158	0x3f312dd5	0.6921056
159	0x3f726c26	0.9469627
160	0x3eaaa914	0.3333212
161	0x3f9a3007	1.2045907
162	0x3f1765e5	0.59139854
163	0x3e61225e	0.21985766
164	0x3e8dc43b	0.27688774
165	0x4015726f	2.3351095
166	0xbf262acb	-0.64909047
167	0x3f3a1018	0.7268081
168	0xbd0ac0dc	-0.03387533
169	0x3f1237a6	0.5711616
170	0xbc077e2b	-0.008269827
171	0x3f58b451	0.8465014
172	0xbf12e6ab	-0.5738322
173	0xbffc31e2	-1.9702723
174	0x3eff8871	0.49908784
175	0xc01a8731	-2.4145014
176	0x3d641421	0.05568326
177	0xbe671dca	-0.22569957
178	0xbd1226ef	-0.03568166
179	0xbfd51a36	-1.6648624
180	0x3ecf6069	0.40503243
181	0x3e483af1	0.19553734
182	0x3f5cec4f	0.8629808
183	0x3f1b4142	0.6064645
184	0x3eb9da50	0.36299372
185	0x400a2a00	2.1588135
186	0x3ed32ce2	0.4124518
187	0xbfd40a98	-1.6565733
188	0x3e46e3fb	0.19422905
189	0xbf97955c	-1.1842456
190	0x3e46541a	0.1936802
191	0xbf8f84f5	-1.121245
192	0xbfb5e3a7	-1.4210099
193	0x3f63b876	0.8895334
194	0xbfa168fa	-1.2610161
195	0x3dd45125	0.103670396
196	0x3fc8c731	1.5685788
197	0xc0281c40	-2.6267242
198	0xbfc62de9	-1.5482761
199	0x3f82d249	1.0220424
200	0x40133099	2.2998412
201	0x3ea2c2f0	0.3178935
202	0x3f3882da	0.72074664
203	0xbe22a634	-0.15883714
204	0x3f826503	1.0187076
205	0xbf58cb03	-0.8468477
206	0xbebed97c	-0.37275302
207	0xbf280db7	-0.6564593
208	0xbf9ffc04	-1.2498784
209	0xbee8b4ee	-0.45450538
210	0xbf93cc25	-1.1546675
211	0x3e25db50	0.16196942
212	0x3f684a63	0.90738505
213	0x3f341fcf	0.70361036
214	0x400a24f1	2.1585047
215	0x3f863d13	1.0487388
216	0x3e9c0602	0.30473334
217	0xbf0406b7	-0.51572746
218	0xbf3aac46	-0.7291912
219	0x3f085313	0.5325176
220	0x3edd0867	0.43170473
221	0x3ed8c0cd	0.42334595
222	0xbef999d5	-0.48750177
223	0xbfa02017	-1.2509793
224	0xbe8c55d3	-0.2740923
225	0xbf15bae4	-0.584883
226	0xbf74a721	-0.9556752
227	0xbe95db9b	-0.29269108
228	0x3d145f74	0.036223844
229	0x3f86d1a8	1.0532732
230	0x3f23227f	0.6372451
231	0xbfbdf399	-1.4839965
232	0x3f673ba9	0.9032541
233	0xbe13ed1e	-0.14445922
234	0xbf1adfb1	-0.60497576
235	0xbf366ee4	-0.71262956
236	0xbed4dff6	-0.4157712
237	0xbf1653f4	-0.5872185
238	0xbf7030d3	-0.938245
239	0x3ea14e9f	0.31505296
240	0x3eed36e5	0.46330944
241	0xbfdbd40a	-1.7174084
242	0x3eb39337	0.35073254
243	0xbf64fc0d	-0.894471
244	0x3f6da484	0.92829156
245	0xbfa60c0b	-1.2972425
246	0x3e102824	0.14077812
247	0xbf09a634	-0.5376923
248	0x3f1209d8	0.5704627
249	0x3de05a21	0.10954691
250	0xbfb6ce8c	-1.4281783
251	0x3e9514cf	0.29117438
252	0x3f1ed6bf	0.62046427
253	0xbfbf220f	-1.4932269
254	0x3f92848c	1.14467
255	0x3fce5b02	1.6121523

1.layers.0.0.bias f4 [80]
0	0xbb44becd	-0.0030020953
1	0xbd2eea9b	-0.042704206
2	0xbd22c7c8	-0.039741307
3	0xbcad9bb0	-0.021192402
4	0xbd0e0401	-0.034671787
5	0xbd91a248	-0.07111031
6	0xbcb8c26c	-0.022553645
7	0x3bb37448	0.0054765083
8	0xba120611	-0.0005570362
9	0xbd1a0dd4	-0.037610844
10	0xbcdecbbf	-0.027196763
11	0xbd841ca2	-0.06450774
12	0xbd2b7ac4	-0.041865125
13	0xbd4e880c	-0.050422713
14	0xbd9bd29f	-0.07608532
15	0xbd2a9fe1	-0.04165638
16	0xbcede44c	-0.029039524
17	0xbd9f6057	-0.07782047
18	0xbcdf18c7	-0.027233494
19	0xbc7f4927	-0.015581406
20	0xbcc09c3d	-0.023512
21	0xbd878335	-0.06616823
22	0xbd0f86f8	-0.035040826
23	0xbc679769	-0.01413522
24	0x39e4b7e3	0.00043624555
25	0xbda27ec0	-0.07934332
26	0xbd2097fc	-0.039207444
27	0x3c0cf217	0.008602641
28	0xbc576b6f	-0.013148173
29	0xbcdef4a0	-0.027216256
30	0x3b98d848	0.0046644546
31	0xbcf5f280	-0.03002286
32	0xbb58db40	-0.0033089668
33	0xbd3bb5fb	-0.045827847
34	0xbd0b1fbb	-0.033965807
35	0xbd73254f	-0.059361752
36	0xbd181009	-0.037124667
37	0xbc83f1ea	-0.016106565
38	0xbc43b9fc	-0.011946198
39	0xbcbc5275	-0.022988537
40	0xbb454e13	-0.003010635
41	0xbd9d7573	-0.07688417
42	0xbb1a945d	-0.0023586967
43	0xbd2853a5	-0.041095395
44	0xbd38c5b9	-0.045110438
45	0xbd0af5b4	-0.033925727
46	0xbd85e397	-0.0653755
47	0xbd3daabd	-0.046305407
48	0xbd07c65a	-0.033148147
49	0xbb9e4050	-0.004829444
50	0xbd80f9e0	-0.0629766
51	0xbd380ff5	-0.044937093
52	0xbd5c2750	-0.05374843
53	0x3c08238b	0.008309255
54	0xbd08af9a	-0.03337059
55	0xbd3603cc	-0.044437215
56	0xbd3bf394	-0.04588659
57	0xbc94ebae	-0.018178787
58	0xbd2ad3a4	-0.041705742
59	0xbd2803af	-0.041019138
60	0xbc905404	-0.017618187
61	0xbd06f213	-0.032945704
62	0xbb41f0e1	-0.0029593038
63	0xbcb13bce	-0.021634962
64	0xbd2f7fdc	-0.042846546
65	0xbd7439a6	-0.05962529
66	0xbd82a635	-0.06379358
67	0xbd0f2f94	-0.034957483
68	0xbc84e73f	-0.016223548
69	0xbc431ea8	-0.0119091645
70	0xbcd43234	-0.025902845
71	0xbdc0b452	-0.09409393
72	0xbbe9e4b0	-0.0071378574
73	0x3c8c444f	0.017122416
74	0xbd0dc22e	-0.034609012
75	0xbdc2c5d8	-0.09510392
76	0xbbed9093	-0.0072499006
77	0x3cbb0068	0.022827342
78	0xbd376a37	-0.04477903
79	0xbc625aaf	-0.013815566

1.layers.0.0.weight f4 [80, 80]
0	0x3e250690	0.16115785
1	0x3e8bcc79	0.27304438
2	0x3e232b53	0.15934496
3	0x3e201454	0.15632755
4	0xbe9c0a90	-0.3047681
5	0xbe86fd0c	-0.26364934
6	0x3e4a11e1	0.19733383
7	0xbe5f147d	-0.2178516
8	0x3e26fb83	0.16306882
9	0x3eb136e9	0.34612206
10	0xbd25a4ee	-0.040440492
11	0x3dfa37cc	0.12217674
12	0xbe1158f0	-0.14194083
13	0x3dff8545	0.12476591
14	0xbe8205fe	-0.25395197
15	0x3e4dc2d7	0.20093857
16	0xbe25cece	-0.16192171
17	0x3ea34dd7	0.31895325
18	0x3d9cdb1b	0.076589786
19	0x3d95ce61	0.07314754
20	0x3dd41693	0.10355868
21	0xbde004c2	-0.109384075
22	0xbdf6f037	-0.12057536
23	0xbe15715f	-0.14594029
24	0xbee031ba	-0.43787938
25	0xbeb4e089	-0.35327557
26	0xbd9c78a1	-0.07640196
27	0xbdd4fcf7	-0.10399812
28	0xbd83b969	-0.064318486
29	0xbeb6b39e	-0.35683912
30	0x3e8e1c13	0.27755794
31	0x3e41dd50	0.1893208
32	0x3cf58970	0.029972762
33	0xbccc0a76	-0.024907332
34	0x3cc69145	0.024239192
35	0x3c7d4e66	0.015460586
36	0x3de69eec	0.11260781
37	0x3d29af90	0.041427195
38	0xbe83fa6a	-0.25776988
39	0x3e2b7e30	0.16747355
40	0x3ca45648	0.020060673
41	0x3e85f3b0	0.2616248
42	0x3e6712fb	0.22565834
43	0xbe048311	-0.12940623
44	0x3e2a7312	0.16645458
45	0x3e2d2578	0.16908824
46	0x3e09cce7	0.1345707
47	0xbd29a14d	-0.041413594
48	0xbd8b3a23	-0.06798198
49	0xbe0fd05a	-0.14044324
50	0x3c89fb75	0.016843537
51	0x3d860114	0.065431744
52	0x3e04d519	0.12971915
53	0xbe832881	-0.2561684
54	0xbe29cf9b	-0.16583101
55	0xbcd003f7	-0.025392516
56	0x3b7c23ae	0.0038473415
57	0xbc9a23f4	-0.018815972
58	0x3e360326	0.17774639
59	0x3d500c62	0.05079306
60	0xbda989d0	-0.08278239
61	0x3e86395e	0.26215643
62	0x3e255ba0	0.16148233
63	0x3e9d51d6	0.30726498
64	0xbd837ea6	-0.06420641
65	0x3e2e3358	0.17011774
66	0xbe425150	-0.18976331
67	0xbd1ccf6a	-0.038283743
68	0xbe0345f5	-0.12819655
69	0xbe884e87	-0.26622412
70	0x3cd8f9c0	0.026486278
71	0x3ca35803	0.019939428
72	0xbdccdcf2	-0.100030795
73	0x3d7f6f58	0.062362045
74	0x3e34d5d5	0.17659695
75	0xbde681ba	-0.11255212
76	0xbe3a2c14	-0.18180877
77	0x3e0f0cfd	0.13969798
78	0x3ea0ebf9	0.31430033
79	0xbea18833	-0.31549224
80	0xbdbde356	-0.092718765
81	0xbe89576d	-0.26824513
82	0xbc2b5110	-0.0104563385
83	0x3de19e64	0.11016539
84	0xbd844239	-0.064579435
85	0x3e820110	0.25391436
86	0xbc80f37c	-0.015741102
87	0x3c9c579f	0.01908475
88	0x3c908b75	0.017644623
89	0x3e6bda59	0.23032512
90	0x3da7f136	0.08200304
91	0x3dcab645	0.098980464
92	0x3e897fb3	0.2685524
93	0xbd2115a1	-0.039327268
94	0xbe5e156d	-0.21687861
95	0x3e803518	0.25040507
96	0x3dd5ad57	0.104334526
97	0xba9f9bcf	-0.0012177172
98	0x3cd32491	0.025774272
99	0xbd11baf0	-0.035578668
100	0xbe9373f6	-0.2879941
101	0xbde5f454	-0.112282425
102	0x3e98377a	0.29729825
103	0x3d42eaf7	0.04758736
104	0x3d5c105e	0.053726546
105	0xbeebc1c1	-0.4604626
106	0x3e406708	0.18789303
107	0xbd8202e2	-0.06348206
108	0xbdb399bd	-0.087695576
109	0x3e417e77	0.18895899
110	0xbe0e6054	-0.13903934
111	0x3be7041c	0.0070500504
112	0xbe8d200f	-0.2756352
113	0x3cb2bb1d	0.021817738
114	0xbdd1913b	-0.10232779
115	0xbc0ccfb1	-0.008594439
116	0xbdf077b7	-0.11741584
117	0xbed0555c	-0.40690124
118	0xbdd1c19d	-0.10242007
119	0x3ad006ce	0.0015871169
120	0xbe5d1a1e	-0.21591994
121	0x3e9c4e6a	0.30528575
122	0xbd3ec751	-0.0465768
123	0x3e103128	0.14081252
124	0xbe5a68af	-0.21328996
125	0xbea556e0	-0.32292843
126	0x3d18c4d0	0.03729707
127	0xbe58eaa9	-0.21183266
128	0xbe83bd7a	-0.25730497
129	0xbd579fa9	-0.0526425
130	0xbd76713c	-0.060166582
131	0xbe9a45ac	-0.3013128
132	0xbe4b8701	-0.19875719
133	0xbd9b0945	-0.075701274
134	0x3ea75fa7	0.32690164
135	0xbc301ccc	-0.010749053
136	0xbdae429f	-0.08508801
137	0xbb27d599	-0.0025609492
138	0x3ec66e8a	0.3875621
139	0x3d0ecdd7	0.034864273
140	0x3e0c9d21	0.13731815
141	0x3cf36c85	0.029714832
142	0xbc540518	-0.012940668
143	0x3c7be5c1	0.015374602
144	0x3dacc035	0.08435098
145	0xbd80c4be	-0.062875256
146	0x3e1cc7f8	0.15310657
147	0x3e221c56	0.15831122
148	0x3dbef1af	0.09323441
149	0x3d92aabe	0.07161473
150	0x3e33a61a	0.17543831
151	0x3ddf8afc	0.10915181
152	0x3c8b4314	0.016999759
153	0x3e80c432	0.25149685
154	0x3e622b18	0.22086751
155	0xbdafe100	-0.08587837
156	0xbe67cff0	-0.22637916
157	0x3d9d95c0	0.07694578
158	0xbe7b0d32	-0.24516752
159	0xbd35f31a	-0.044421293
160	0x3e69ce43	0.22832589
161	0xbdde1631	-0.108440764
162	0xbf43f9a3	-0.7655279
163	0xbdc317b6	-0.09526007
164	0x3e605b5d	0.21909852
165	0xbe93dfa0	-0.2888155
166	0xbde2aa8f	-0.11067688
167	0xbd896824	-0.067093164
168	0x3f335334	0.7004883
169	0x3e7896a6	0.24276218
170	0xbe2ba98e	-0.16763899
171	0xbe00e61d	-0.12587781
172	0xbde49adb	-0.11162349
173	0xbdfe2a81	-0.12410451
174	0x3e3cb2ce	0.18427584
175	0x3db952ce	0.09048997
176	0x3e0953db	0.13410895
177	0x3e403a0a	0.1877214
178	0x3e021bcf	0.1270592
179	0xbe20ecae	-0.15715286
180	0xbe60ab50	-0.2194035
181	0x3ed83f25	0.42235675
182	0xbe0469fa	-0.12931052
183	0x3c67de73	0.014152157
184	0xbe1740ec	-0.1477086
185	0x3dcadcc7	0.09905391
186	0xbdbcd5fa	-0.092205
187	0x3ce70a50	0.02820316
188	0x3c4f435a	0.012650335
189	0xbd7f86ab	-0.06238429
190	0xbdc9decc	-0.09856948
191	0x3d300c53	0.042980503
192	0xbe80112f	-0.2501311
193	0x3e1b25f1	0.15151192
194	0xbd5ba1d9	-0.053621147
195	0x3eae2b4f	0.34017417
196	0x3e0a0143	0.13477044
197	0xbea293a0	-0.31753254
198	0xbd8be347	-0.06830459
199	0x3d15f342	0.03660894
200	0xbda27f6f	-0.07934462
201	0x3e9980d5	0.29981104
202	0xbde137b0	-0.1099695
203	0xbe4b19e2	-0.19834092
204	0xbbdcfcf4	-0.0067440215
205	0xbc4ba6fe	-0.012429951
206	0x3bbee4b1	0.005825602
207	0xbdc016bb	-0.093793355
208	0xbe57f6d7	-0.21090256
209	0x3ee75abb	0.4518641
210	0xbe2bc0a7	-0.1677271
211	0x3e2f352b	0.17110126
212	0x3db2c136	0.08728258
213	0x3e5f14e3	0.21785311
214	0xbc9aee25	-0.018912384
215	0x3d11e2ba	0.035616614
216	0x3ce6397e	0.028103586
217	0xbe2657b0	-0.16244388
218	0x3e841828	0.2579968
219	0x3e131ec3	0.14367203
220	0xbdc37095	-0.09542958
221	0xbe734a9a	-0.23758927
222	0xbe021c32	-0.12706068
223	0x3d54566b	0.051840227
224	0xbea87ab0	-0.32906103
225	0xbe28d5b5	-0.16487773
226	0xbe0969fe	-0.13419339
227	0x3e93a7b1	0.28838876
228	0x3c855ade	0.01627868
229	0x3ca744ff	0.020418642
230	0xbd614c1e	-0.05500423
231	0xbe16101e	-0.14654586
232	0x3de2e82d	0.1107944
233	0xbdf26a71	-0.11836708
234	0x3dcb6da0	0.09933019
235	0xbc0a0bcd	-0.008425665
236	0xbe4099d3	-0.1880868
237	0xbdae5019	-0.08511371
238	0x3e359f8c	0.17736644
239	0xbe29b73e	-0.16573808
240	0xbf7fd907	-0.9994053
241	0x3dd8524f	0.10562574
242	0x3ccf2689	0.02528693
243	0xbe0a4caa	-0.13505808
244	0xbef15eb5	-0.47142568
245	0xbccb02b2	-0.024781559
246	0xbd51c550	-0.051213562
247	0x3e06e519	0.13173331
248	0xbf00bbd8	-0.50286627
249	0x3c1a9bd5	0.009436567
250	0x3da97122	0.082735315
251	0x3eac992b	0.33710608
252	0xbe5d5436	-0.21614155
253	0xbe3f194a	-0.18661991
254	0xbe27189a	-0.16317979
255	0x3c08c898	0.0083486065

1.layers.1.0.bias f4 [80]
0	0xbd981ff5	-0.0742797
1	0xbd371d7c	-0.044705853
2	0xbd26dfaf	-0.040740665
3	0xbd817a6e	-0.0632218
4	0xbd5d5106	-0.054032348
5	0xbcba67e4	-0.022754617
6	0x3c0893a4	0.0083359815
7	0xbcfe5ce3	-0.031050151
8	0x3cbcd0f0	0.023048848
9	0xbd26f16d	-0.040757585
10	0xbd3c7757	-0.04601225
11	0xbb445155	-0.0029955704
12	0xbd98456e	-0.07435118
13	0xbb989db6	-0.0046574725
14	0xbc86e2ee	-0.01646563
15	0xbd57e7a3	-0.05271114
16	0xbd346781	-0.04404402
17	0x3b9bc2ce	0.004753447
18	0xbd874eb9	-0.06606812
19	0xbcf48f45	-0.029853472
20	0x3c5ab761	0.013349385
21	0xbcebeee3	-0.028800434
22	0xbc84a3b4	-0.016191341
23	0xbd09b361	-0.033618335
24	0xbcd63674	-0.026149012
25	0xbd983cc8	-0.07433468
26	0x3b3d7e15	0.0028914262
27	0xbd5d4bc6	-0.05402734
28	0xbcfc1b2f	-0.03077468
29	0xbd3346a3	-0.043768536
30	0xbd25ef34	-0.040511325
31	0xbd1ced79	-0.03831241
32	0xbd449475	-0.047993142
33	0xbd4cfd1d	-0.050046075
34	0xbd4427bb	-0.047889452
35	0xbd28e8db	-0.041237693
36	0xbd010bc5	-0.031505365
37	0xbd602850	-0.054725945
38	0xbd1df331	-0.038562004
39	0x3c4cfec3	0.012511912
40	0xbc91f4b6	-0.017816883
41	0xbd17a9bc	-0.037027106
42	0xbd1b54de	-0.037922733
43	0xbd6680f4	-0.056275323
44	0xbd5b0e4e	-0.05348044
45	0xbd29f9c4	-0.04149796
46	0xbd5e29da	-0.05423913
47	0xbd4ee0b2	-0.050507255
48	0xbd6b2442	-0.057407625
49	0xbd28b221	-0.041185502
50	0xbd57c8dd	-0.052681793
51	0xbd472acc	-0.0486248
52	0xbbd5673a	-0.0065125497
53	0xbcd79ef5	-0.026320914
54	0xbd2d6477	-0.04233214
55	0xbd4fc133	-0.05072136
56	0xbc47a96c	-0.012186389
57	0xbd3dabd0	-0.04630643
58	0xbd0c9e05	-0.034330387
59	0xbd1cd3ac	-0.038287804
60	0xbd04d275	-0.03242727
61	0xbd487edb	-0.048949104
62	0xbd3d92a4	-0.046282426
63	0xbd12f141	-0.03587461
64	0xbc7c18b7	-0.015386752
65	0xbcd79211	-0.026314767
66	0xbdc98048	-0.09838921
67	0xbcc5b5b6	-0.024134498
68	0xbd301315	-0.042986948
69	0xbd575166	-0.052567862
70	0xbd5d9d92	-0.05410535
71	0xbd4e32ba	-0.050341345
72	0xbcd4311f	-0.025902329
73	0xbc47a94b	-0.012186359
74	0xbcfaad0c	-0.030600093
75	0xbc9cc237	-0.019135578
76	0xbc694214	-0.014236946
77	0x3c16f97a	0.009214753
78	0xbcfdfe74	-0.031005122
79	0xbd5bf67e	-0.05370187

1.layers.1.0.weight f4 [80, 160]
0	0x3c87a351	0.016557368
1	0x3ca73187	0.020409359
2	0xbdf42046	-0.11920218
3	0x3d8f9b06	0.0701199
4	0xbdec9d66	-0.11553459
5	0xbde28b3c	-0.11061713
6	0x3e0f01bf	0.1396551
7	0x3c690980	0.014223456
8	0xbdd159cd	-0.10222206
9	0xbdc6f54e	-0.09714757
10	0xbda95f10	-0.08270085
11	0x3c97b74f	0.018520026
12	0x3d378246	0.044801973
13	0xbde3fe45	-0.111324824
14	0x3d0efeab	0.03491084
15	0xbcec4936	-0.028843503
16	0x3d527c13	0.051387858
17	0x3becb24d	0.0072234035
18	0x3e68c408	0.2273103
19	0x3e001cf7	0.12511049
20	0x3e805e98	0.2507217
21	0x3df6d3e2	0.12052132
22	0x3e348d62	0.17632058
23	0x3d5ce329	0.053927574
24	0xbdd86a00	-0.10567093
25	0xbde43074	-0.11142054
26	0xbde4e7a7	-0.11176997
27	0xbdc69d8b	-0.09698018
28	0x3d053129	0.032517586
29	0x3bc6fb4c	0.0060724374
30	0x3ca1a8a4	0.019733734
31	0x3e46005d	0.19336076
32	0x3e3e642f	0.18592905
33	0x3c956409	0.018236177
34	0x3d87e415	0.066353
35	0x3e1adc18	0.15123022
36	0x3c61b970	0.013777122
37	0xbdc01daf	-0.09380662
38	0xbe406b93	-0.18791036
39	0x3e296ee1	0.16546203
40	0xbe36eb29	-0.17863144
41	0x3cecb9b6	0.028897148
42	0x3d3ae2f3	0.045626592
43	0x3d730afd	0.05933665
44	0x3d13222e	0.03592127
45	0xbe29aaab	-0.16569011
46	0xbc7e1a6d	-0.01550923
47	0xbe1052d0	-0.1409409
48	0x3e731325	0.23737772
49	0x3e88ab22	0.26693064
50	0xbd284887	-0.041084792
51	0x3d180abe	0.03711962
52	0xbe1c99c9	-0.1529304
53	0x3d4b4507	0.049626376
54	0x3e6d470c	0.23171633
55	0xbd3e0a68	-0.046396643
56	0x3d6d4503	0.057927143
57	0xbc509453	-0.012730676
58	0xbe050956	-0.12991843
59	0xbd9d3ea5	-0.07677964
60	0xbe1509c1	-0.14554502
61	0x3e328b11	0.17435862
62	0x3e378564	0.17921978
63	0x3e373aef	0.17893575
64	0x3df0a896	0.11750905
65	0x3d44c686	0.04804089
66	0x3dc3e920	0.095659494
67	0xbd303359	-0.04301772
68	0xbdf25016	-0.118316814
69	0xbd1af302	-0.037829407
70	0xbdcbcf47	-0.099516444
71	0xbc509dc9	-0.012732931
72	0xbdfaf338	-0.122534215
73	0x3c1ae6de	0.009454457
74	0xbe08db20	-0.1336484
75	0xbdfcbe7a	-0.12341018
76	0xbcdb907f	-0.0268023
77	0xbd5a8004	-0.05334474
78	0x3d1e56cd	0.038657
79	0x3d9c7d83	0.07641127
80	0xbda0ac2a	-0.07845338
81	0x3dd0a8e3	0.101884626
82	0x3dd5ef00	0.10445976
83	0xbe870066	-0.2636749
84	0xbd161c88	-0.036648303
85	0x3dea9070	0.114533305
86	0x3e617323	0.22016577
87	0xbdb7d6df	-0.0897653
88	0xbc6d21fa	-0.014473433
89	0xbaf31dfe	-0.0018548367
90	0x3d03ed36	0.032208644
91	0x3e344b91	0.17606951
92	0xbcc756d4	-0.024333395
93	0x3e232067	0.1593033
94	0xbd9cd382	-0.076575294
95	0x3dff9aac	0.12480673
96	0xbd842b68	-0.064535916
97	0xbe082842	-0.13296607
98	0xbe367982	-0.17819789
99	0x3eb39569	0.35074928
100	0xbcfdddde	-0.030989584
101	0xbdf36571	-0.11884583
102	0xbe0278f0	-0.12741446
103	0x3bebbc0c	0.007194048
104	0x3df9276a	0.12165721
105	0xbe20055d	-0.15627046
106	0x3eccd9a2	0.4000979
107	0xbe3f6209	-0.18689741
108	0xbcac958b	-0.021067401
109	0xbe8d215c	-0.27564514
110	0xbb4c4acf	-0.003117252
111	0xbd9382a4	-0.07202652
112	0x3e35a38b	0.17738168
113	0x3d87fd2f	0.06640088
114	0xbd87fb97	-0.06639784
115	0x3db54dbf	0.088527195
116	0x3ec6b982	0.38813406
117	0xbcfcfa81	-0.030881168
118	0x3c7384b6	0.014863184
119	0xbda4fdc9	-0.08056218
120	0xbdfa235e	-0.12213777
121	0x3e2f1a5e	0.17099902
122	0xbcb19746	-0.021678578
123	0xbd6ed0c3	-0.05830456
124	0x3bca81d3	0.006180027
125	0x3db6c782	0.08924772
126	0xbd169aab	-0.036768597
127	0xbd378960	-0.044808745
128	0x3d8beed9	0.06832666
129	0xbe52f998	-0.20603025
130	0x3d86972a	0.06571801
131	0xbb983832	-0.004645371
132	0xbd364345	-0.044497747
133	0xbd9448e7	-0.072404675
134	0x3cb5f77a	0.022212733
135	0xbc89fa31	-0.016842933
136	0x3d4e5ce6	0.050381564
137	0x3e149dea	0.14513364
138	0x3dba4a88	0.09096247
139	0x3d8bfcb0	0.06835306
140	0x3d125c98	0.035732836
141	0xbeab5ef0	-0.3347087
142	0x3d5b3afa	0.05352304
143	0xbc9ad904	-0.01890231
144	0xbe109ffa	-0.14123526
145	0xbd7dc4a2	-0.0619551
146	0x3dcbf6fa	0.099592164
147	0x3c23960f	0.009984507
148	0x3d3d889f	0.04627287
149	0x3bfb6768	0.007672239
150	0xbe468707	-0.19387446
151	0xbdbe9822	-0.09306361
152	0x3e2b51c7	0.16730414
153	0xbdfef070	-0.124482036
154	0xbd1778e6	-0.036980532
155	0xbb579cb2	-0.0032899794
156	0xbc0c83eb	-0.008576374
157	0xbe3f2e19	-0.18669929
158	0x3d262654	0.040563896
159	0xbdf3dca2	-0.11907317
160	0xbd956dcb	-0.07296332
161	0xbe0f75cf	-0.14009784
162	0x3dc74669	0.097302265
163	0xbcf385ae	-0.02972683
164	0x3e2112a2	0.15729764
165	0x3df157be	0.117843136
166	0x3d8fec60	0.07027507
167	0x3d6b851c	0.05749999
168	0x3917727b	0.0001444313
169	0xbd467dc8	-0.048459798
170	0xbd7a6e86	-0.06114056
171	0x3d8e4ce9	0.06948263
172	0x3d94d35c	0.07266876
173	0xbd9cdae7	-0.0765894
174	0x3e3a0631	0.18166424
175	0x3d6c4d67	0.057691004
176	0xbe1bd0bc	-0.15216345
177	0x3dd89d48	0.10576874
178	0xbd896b4d	-0.06709919
179	0xbc6c2236	-0.014412453
180	0x3e03fbed	0.12889071
181	0x3d69a77c	0.05704449
182	0x3d141890	0.036156237
183	0xbd5edeb0	-0.05441159
184	0xbe016d7f	-0.12639426
185	0x3d47be33	0.048765372
186	0xbe8350f2	-0.25647694
187	0x3e99dd96	0.3005187
188	0x3d460dbe	0.04835295
189	0x3ccbfd84	0.02490116
190	0xbd8283b2	-0.06372775
191	0xbd508343	-0.05090643
192	0xbdbc7dcc	-0.09203681
193	0x3e36e955	0.17862447
194	0xbb43d940	-0.002988413
195	0x3c1edbf4	0.009695996
196	0xbd8d715f	-0.069063894
197	0x3d89dd2a	0.06731637
198	0x3d5f1435	0.05446263
199	0x3df46dcc	0.119350046
200	0xbe214eae	-0.1575267
201	0x3d46376f	0.04839271
202	0x3d2d4948	0.042306215
203	0xbd2be367	-0.041964915
204	0x3d25f09a	0.04051266
205	0x3db94c67	0.09047776
206	0xbdcc16ad	-0.099652626
207	0xbdac6cc5	-0.08419184
208	0xbe2186bb	-0.15774052
209	0xbc5e106b	-0.013553719
210	0x3c526ae6	0.012842869
211	0x3d99bb4e	0.07506429
212	0x3dccc9d7	0.099994354
213	0x3c991f81	0.01869178
214	0xbcb337fa	-0.021877278
215	0xbb627b65	-0.0034558412
216	0xbd6addf8	-0.057340592
217	0xbe0f34fd	-0.13985057
218	0x3ca5a81c	0.020221762
219	0xbd382cac	-0.044964477
220	0xbe0601b6	-0.1308659
221	0x3dfb7432	0.12278022
222	0x3d4bf14e	0.049790673
223	0xba3b8ba5	-0.00071542925
224	0x3e37d827	0.1795355
225	0x3d3482b0	0.044069946
226	0xbde50b10	-0.11183751
227	0x3d019b51	0.031642262
228	0x3da4abf2	0.080406085
229	0x3d1ae6a0	0.037817597
230	0xbe0b19d8	-0.13584077
231	0xbd3344da	-0.043766834
232	0x3e06c371	0.13160492
233	0x3dede758	0.11616391
234	0x3da9e29d	0.08295176
235	0x3d8a2328	0.06744987
236	0xbb9461b1	-0.0045282473
237	0xbe240d03	-0.16020589
238	0xbd2df9af	-0.042474445
239	0x3e3d4557	0.18483482
240	0xbd026672	-0.03183598
241	0x3daf1f7e	0.085509285
242	0x3d38a018	0.045074552
243	0x3e04c7d9	0.12966861
244	0x3dd9d700	0.10636711
245	0xbd4d132b	-0.050067108
246	0x3d868eac	0.06570181
247	0x3d873d60	0.06603503
248	0x3e238b17	0.15971027
249	0xbd661e75	-0.05618139
250	0xbcf09aa1	-0.029370608
251	0x3dd0b1db	0.10190173
252	0x3d073590	0.033010066
253	0x3e3fb2b7	0.18720518
254	0xbe430a27	-0.19046842
255	0x3d252537	0.040318694

1.layers.2.0.bias f4 [80]
0	0xbd8ed869	-0.06974871
1	0xbd1e4f88	-0.038650066
2	0xbca52b34	-0.020162202
3	0xbc8e244a	-0.017351288
4	0xbce49487	-0.027902855
5	0xbcb7b5af	-0.0224255
6	0xbced414d	-0.028961802
7	0xbd1d34c9	-0.038380418
8	0xbd1dc6b3	-0.038519572
9	0xbd1a050f	-0.03760248
10	0xbc7e39ca	-0.015516708
11	0xbcc2fb50	-0.023801476
12	0xbd13f694	-0.036123827
13	0x3c135972	0.008993493
14	0xbd9e557b	-0.07731148
15	0xbcc181dd	-0.023621494
16	0xbd14baf0	-0.03631109
17	0xbd73f77a	-0.059562184
18	0xbc7337be	-0.014844833
19	0xbb293b75	-0.0025822793
20	0xbcf0ff48	-0.029418603
21	0xbdbb40dc	-0.0914323
22	0xbd1bfb40	-0.038081408
23	0xbcfbe7e3	-0.03075022
24	0xbd1d5365	-0.03840961
25	0xbccad245	-0.024758467
26	0xbd56fa53	-0.05248482
27	0xbdbae4f9	-0.09125704
28	0x3c22f3d7	0.009945831
29	0xbcd683ec	-0.026185952
30	0xbd28f985	-0.041253585
31	0xbc808510	-0.01568845
32	0xbcc7fb6c	-0.02441188
33	0xbc7240ec	-0.014785986
34	0xbc83e9b6	-0.016102653
35	0xbd4ca5fd	-0.049962986
36	0xbd951646	-0.07279639
37	0xbc838161	-0.016052904
38	0xbd39e443	-0.045383703
39	0xbcbf31af	-0.02333912
40	0xbd8b20d0	-0.06793368
41	0xbd694726	-0.056952618
42	0xbd408e50	-0.04701072
43	0xbceaa60e	-0.028643634
44	0xbd5a6856	-0.05332216
45	0xbd0808b0	-0.03321141
46	0xbd2db720	-0.04241097
47	0x3be4a434	0.0069775824
48	0xbd077455	-0.033069927
49	0xbc58f9d8	-0.013243161
50	0xbd1533a5	-0.036426205
51	0xbc3307ae	-0.010927124
52	0x3bdd20f1	0.0067483117
53	0xbccc3e22	-0.024931971
54	0xbd5380f8	-0.051636666
55	0xbceea8a3	-0.029133147
56	0xbd0fd9fa	-0.035119988
57	0xbb14389a	-0.0022616745
58	0xbbb20e48	-0.0054338314
59	0xbc844e79	-0.0161507
60	0xbc07ebe5	-0.008295988
61	0xbce57b18	-0.028012797
62	0xbd1d26ce	-0.038367085
63	0xbc7824b7	-0.015145472
64	0xbd30b67c	-0.04314278
65	0xbd1dc8b1	-0.038521472
66	0xbcdea1cb	-0.027176758
67	0xbd7ba224	-0.061433926
68	0xbd5288f5	-0.051400144
69	0xbc4df9ee	-0.012571795
70	0xbce6e598	-0.02818565
71	0xbb9b38bd	-0.0047369883
72	0xbd849026	-0.06472807
73	0xbd5c7ea0	-0.053831697
74	0xbd3e9d00	-0.046536446
75	0xbc9c3fa8	-0.019073322
76	0xbd614439	-0.054996703
77	0xbdafbf30	-0.08581388
78	0xbce7fc74	-0.028318621
79	0xbd0944a0	-0.03351271

1.layers.2.0.weight f4 [80, 240]
0	0xbd869c85	-0.065728225
1	0x3daf0d15	0.08547417
2	0xbdddd927	-0.10832434
3	0xbcbe2117	-0.023209138
4	0xbdd4fa71	-0.103993304
5	0x3da0c47f	0.07849979
6	0x3da8191f	0.082079165
7	0xbdbf3943	-0.09337094
8	0xbd07ac2c	-0.03312318
9	0x3ca37d9e	0.01995736
10	0x3d615c29	0.05501953
11	0x3d2f3b2a	0.042781033
12	0x3b3349fc	0.002735733
13	0x3cf6ff13	0.030150926
14	0xbd5c673a	-0.053809382
15	0x3de740aa	0.112916306
16	0x3d90598c	0.0704833
17	0x3d71e68c	0.059057757
18	0x3dbde873	0.09272852
19	0x3dd701fe	0.10498427
20	0xbd21a5b2	-0.03946466
21	0xbaaeca38	-0.0013335412
22	0x3dc3bcf0	0.09557521
23	0xbd3da921	-0.046303872
24	0x3e35e65f	0.17763661
25	0xbe0774a8	-0.13228095
26	0x3d7083e7	0.058719542
27	0x3d4a827a	0.04944084
28	0x3e010f6c	0.12603539
29	0xbd92541a	-0.07144947
30	0x3cca1a12	0.024670634
31	0xbded261b	-0.11579534
32	0x3cdccd74	0.026953436
33	0xbd094746	-0.033515237
34	0x3dce6039	0.10076947
35	0x3bb32a89	0.005467717
36	0xbe47eb55	-0.19523366
37	0x3d9ebaf7	0.077505045
38	0xbe64a570	-0.22328734
39	0x3d9083db	0.070563994
40	0x3d8fad08	0.07015425
41	0x3e00c915	0.12576707
42	0x3e3f3205	0.18671425
43	0x3dbde01a	0.092712596
44	0x3e31330d	0.1730463
45	0x3de807d5	0.11329619
46	0xbe6f50f8	-0.23370731
47	0xbcf07589	-0.02935292
48	0x3c449f36	0.0120008495
49	0x3d44eb25	0.048075814
50	0xbde6556c	-0.11246762
51	0x3d4f24dd	0.050572265
52	0xbdc108d3	-0.09425511
53	0x3c8ad860	0.016948879
54	0xbe356869	-0.1771561
55	0xbdcd58ff	-0.1002674
56	0xbd888cf5	-0.066675104
57	0xbdfd69c4	-0.12373689
58	0xbdbecfe3	-0.09316995
59	0xbdc22a61	-0.094807394
60	0xbde24b1b	-0.110494815
61	0xbd00e98b	-0.031472724
62	0x3e5830a3	0.21112303
63	0xbdde0d1b	-0.108423434
64	0x3ac8da29	0.0015323806
65	0x3ce37215	0.02776436
66	0xbd857dcb	-0.06518134
67	0x3bdc5563	0.006724046
68	0xbd549175	-0.05189653
69	0x3dcd6681	0.10029317
70	0xbe29451d	-0.16530271
71	0xbca7c8c2	-0.020481471
72	0xbba4fc1d	-0.005034937
73	0x3cf44a9a	0.029820729
74	0x3e3a9636	0.18221363
75	0xbd81d174	-0.06338778
76	0xbc72ac21	-0.014811547
77	0xbc7aa5c8	-0.015298314
78	0xbbc1309f	-0.0058956887
79	0xbd86c2a8	-0.065800965
80	0xbd92e0aa	-0.071717575
81	0xbd436fec	-0.04771416
82	0x3d3c5399	0.045978162
83	0x3ac52d44	0.0015043397
84	0x3d23dc3d	0.040004957
85	0xbdf51ccf	-0.119683854
86	0x3c0cf361	0.008602948
87	0x3db8e093	0.09027209
88	0x3cfeaa53	0.031087076
89	0xbd1b0fba	-0.037856795
90	0xbdd95d17	-0.106134586
91	0x3d58add5	0.052900154
92	0x3d9cc99e	0.07655643
93	0xbd4ae85c	-0.049538
94	0x3d564cbd	0.052319277
95	0x3e1ef883	0.15524487
96	0x3ce1e2d6	0.027573984
97	0xbdee79c0	-0.11644316
98	0xbddb6845	-0.10713247
99	0x3cedf5c2	0.02904785
100	0xbd44cadf	-0.048045035
101	0x3dae5ba1	0.085135706
102	0xbc09bd08	-0.008406885
103	0xbd4387ff	-0.047737118
104	0xbe453d94	-0.19261771
105	0x3dac6a69	0.084187336
106	0x3cb3e840	0.021961331
107	0x3e41e615	0.18935426
108	0x3cc62804	0.024189003
109	0x3d04d34a	0.032428063
110	0x3d13f9b8	0.036126822
111	0x3c541517	0.012944481
112	0x3cbfe73b	0.023425689
113	0x3d979498	0.07401389
114	0xbd0fd72c	-0.035117313
115	0xbe77abb0	-0.24186587
116	0x3d3edc9e	0.046597116
117	0x3d74c3cb	0.059757035
118	0x3c6abe7f	0.014327644
119	0xbd816f38	-0.063200414
120	0xbe16bab4	-0.14719659
121	0xbd5dc76a	-0.054145254
122	0x3d05dbfa	0.03268049
123	0xbde075b1	-0.10959948
124	0xbb73bcf2	-0.0037191478
125	0xbe123334	-0.14277345
126	0xbd1e08f1	-0.038582746
127	0x3dff55ba	0.12467523
128	0xbd552575	-0.052037675
129	0x3e7ed452	0.24885681
130	0xbdc3ce3c	-0.095608205
131	0x3dc8584f	0.097824685
132	0xbd021984	-0.031762615
133	0xbd88ba0a	-0.06676109
134	0xbe7cfb35	-0.24705203
135	0xbdc8b76d	-0.09800611
136	0xbd47b97d	-0.04876088
137	0x3cc380af	0.023865072
138	0x3d0aca71	0.03388447
139	0x3d2d87de	0.0423659
140	0xbdaa802c	-0.08325228
141	0x3daabd8c	0.083369344
142	0x3e3fb09a	0.18719712
143	0xbcf5af69	-0.029990869
144	0x3da1b686	0.07896142
145	0x3d17f1dc	0.03709589
146	0xbca0b14e	-0.019615795
147	0xbcdfb17e	-0.027306315
148	0x3dac4b3e	0.08412789
149	0x3dd18b03	0.102315925
150	0xbd98a046	-0.07452445
151	0x3db13560	0.086527586
152	0x3b9955c0	0.0046794116
153	0xbe16262c	-0.14662999
154	0xbc9a5ebe	-0.018844005
155	0x3d86c8c9	0.065812655
156	0xbcc08d0a	-0.023504753
157	0x3ca88f50	0.02057615
158	0xbdbfb8f8	-0.09361452
159	0x3ded7d43	0.115961574
160	0xbdaf43c3	-0.085578464
161	0x3d3c7459	0.046009395
162	0x3c3079b7	0.010771207
163	0x3cfe2e13	0.03102783
164	0x3db462c2	0.08807899
165	0x3e064a55	0.13114293
166	0x3e381e6c	0.17980355
167	0x3df7a2ab	0.12091573
168	0x3e075dcb	0.13219373
169	0xbdcf90d5	-0.101350464
170	0x3e717e62	0.23583367
171	0xbe8d9885	-0.27655426
172	0xbd9f3bf2	-0.077751055
173	0x3d5f88af	0.05457371
174	0xbcfd63ec	-0.030931436
175	0xbc6e9f4e	-0.014564348
176	0x3dca4e33	0.098781966
177	0xbd50f72d	-0.051016975
178	0x3d22244f	0.039585408
179	0x3cd2b319	0.025720166
180	0x3e41f283	0.18940167
181	0x3af8c198	0.0018978594
182	0x3d68520c	0.05671887
183	0xbc6e575b	-0.014547194
184	0xbe07418f	-0.13208602
185	0xbd8866e0	-0.06660247
186	0xbc2aba2d	-0.010420364
187	0x3cd01613	0.02540115
188	0xbbb5d3b3	-0.005548918
189	0xbdff04ff	-0.12452125
190	0x3e38b700	0.18038559
191	0x3e272950	0.16324353
192	0xbde85c14	-0.113456875
193	0x3dd51a29	0.1040538
194	0x3d8649d5	0.06557051
195	0xbd9eb9ac	-0.07750258
196	0x3dbe42d1	0.09290088
197	0xbc8986d6	-0.016787928
198	0xbcb75653	-0.02238003
199	0x3cd572b9	0.02605568
200	0xbcb2eb5c	-0.021840744
201	0xbca85928	-0.020550326
202	0xbe32ca14	-0.17459899
203	0xbdba4825	-0.09095792
204	0xbe001881	-0.12509347
205	0xbe000e05	-0.12505348
206	0xbad36d00	-0.0016130507
207	0x3e07121d	0.13190503
208	0xbbb0230d	-0.005375272
209	0xbe2b5ec5	-0.1673537
210	0x3d71c125	0.059022088
211	0xbafddc92	-0.0019368103
212	0xbdb6910f	-0.089143865
213	0xbe25a386	-0.1617566
214	0x3de18c37	0.11013072
215	0xbdd321a8	-0.10309154
216	0x3cdc2a57	0.026875658
217	0x3c2ce7c6	0.010553306
218	0x3d472e67	0.048628237
219	0x3a44d4d6	0.00075085217
220	0x3b2d7749	0.0026468805
221	0x3d7200f4	0.05908294
222	0xbdcc5afc	-0.099782914
223	0x3cadc9b3	0.021214342
224	0xbc372a1e	-0.011179475
225	0xbde6337e	-0.1124029
226	0x3dd3109a	0.10305901
227	0xbd7f38a9	-0.062309895
228	0x3d5d278f	0.053992804
229	0xbcf5093a	-0.029911626
230	0xbdd56ce8	-0.10421163
231	0xbda27fb3	-0.07934513
232	0xbd233141	-0.039841894
233	0xbd62f6e9	-0.055411253
234	0x3a88b561	0.0010430032
235	0x3e40a3e0	0.18812513
236	0xbd560a8d	-0.052256156
237	0x3d410525	0.047124047
238	0x3d955ad9	0.072927184
239	0xbcec31d7	-0.02883236
240	0xbce37bf5	-0.027769068
241	0xbd0cff01	-0.03442288
242	0x3c600152	0.01367219
243	0xbe0f19de	-0.13974711
244	0x3d1af9db	0.037835937
245	0xbcb823d8	-0.02247803
246	0x3da1a5a4	0.078929216
247	0x3d19f44e	0.037586503
248	0x3e11eff3	0.1425169
249	0x3e1ae325	0.15125711
250	0xbc8b4c7c	-0.017004244
251	0xbd34b31a	-0.044116117
252	0x3dd08a7a	0.10182662
253	0xbbfcb174	-0.0077115837
254	0xbe117bd2	-0.1420739
255	0x3e0f357f	0.13985251

1.layers.3.0.bias f4 [80]
0	0xbcc3bc04	-0.023893364
1	0xbd428fea	-0.04750053
2	0xbcb4c0a9	-0.022064524
3	0xbd03d079	-0.032181237
4	0xbcbfa827	-0.023395611
5	0xbcf8035d	-0.030275041
6	0xbd10d953	-0.035363507
7	0xbbd211a0	-0.0064107925
8	0xbcf4cf50	-0.02988401
9	0xbcfda795	-0.030963698
10	0xbcdf36a7	-0.02724774
11	0xbd13eec0	-0.03611636
12	0xbcfb89cb	-0.030705353
13	0xbc811ca7	-0.015760733
14	0xbd800592	-0.062510625
15	0xbd236555	-0.03989156
16	0xbce75b60	-0.028241813
17	0xbd232e1d	-0.0398389
18	0x3c47cc81	0.012194754
19	0xbcaaa1d2	-0.020829115
20	0xbd4a637a	-0.049411274
21	0xbd0bbb06	-0.034113906
22	0xbd1e0b13	-0.03858478
23	0xbd072c34	-0.03300114
24	0xbd27ef41	-0.040999655
25	0xbc791929	-0.015203753
26	0xbce1a5f6	-0.027544957
27	0xbd0768d7	-0.033058967
28	0xbd3936b9	-0.045218203
29	0xbba675a4	-0.005079942
30	0xbcdc3f6c	-0.02688571
31	0xbc7f5ba5	-0.015585815
32	0xbc51886c	-0.012788873
33	0xbcf4737c	-0.029840223
34	0xbd0f186d	-0.034935404
35	0xbc746ceb	-0.014918546
36	0xbcc9217d	-0.024552101
37	0xbcf46976	-0.029835444
38	0xbd38f63a	-0.045156695
39	0xbc7254ee	-0.014790757
40	0xbd033e74	-0.03204198
41	0xbbac9488	-0.0052667297
42	0xbcd6bc88	-0.026212946
43	0xbd452b4f	-0.048137005
44	0xbd2687de	-0.040656917
45	0xbd3921d3	-0.045198273
46	0xbd0ddb18	-0.034632772
47	0xbd87c2e5	-0.0662897
48	0xbd1a6b1f	-0.037699815
49	0xbd7011fd	-0.058610905
50	0xbd45f5d0	-0.04833013
51	0xbcf36b3a	-0.029714216
52	0xbd754898	-0.059883684
53	0xbd1f56f2	-0.038901277
54	0xbc905fa3	-0.017623728
55	0xbc8b7127	-0.017021729
56	0xbd5772a0	-0.05259955
57	0xbc99f3df	-0.018793045
58	0xbc710c2d	-0.014712376
59	0xbd302335	-0.043002326
60	0xbd2f9857	-0.042869892
61	0xbd2f2fb4	-0.042770103
62	0xbd5354af	-0.051594432
63	0xbc62ff44	-0.013854805
64	0x3afb7c06	0.0019186742
65	0xbcad40cd	-0.021149063
66	0xbd38b0d2	-0.045090504
67	0xbd45a284	-0.04825069
68	0xbcd105c4	-0.025515445
69	0xbc382e66	-0.011241531
70	0xbcb6cbf0	-0.022314042
71	0xbc17bbf9	-0.009261125
72	0xbcea1fb9	-0.02857958
73	0xbcbe3493	-0.023218429
74	0xbcd7d1fc	-0.026345246
75	0xbd1cafc7	-0.03825357
76	0xbd149957	-0.03627905
77	0xbc96c8c2	-0.018406276
78	0xbd1fcfdf	-0.0390166
79	0xbcb1f0a4	-0.021721192

1.layers.3.0.weight f4 [80, 320]
0	0xbd802e77	-0.062588625
1	0xbdd32c12	-0.1031114
2	0x3bcd9fec	0.0062751677
3	0x3da928a1	0.082597025
4	0xbe1851c6	-0.14874944
5	0xbd22dc44	-0.039760843
6	0x3c8b9380	0.017038107
7	0xbe046304	-0.12928396
8	0xbdd20e91	-0.102566846
9	0xbd8a6828	-0.067581475
10	0xbb8e5a27	-0.004344243
11	0x3d0b9afc	0.03408335
12	0xbe34be9d	-0.17650838
13	0xbd4a93f8	-0.04945752
14	0xbdf1710b	-0.11789139
15	0xbe06036b	-0.13087241
16	0x3d6d8ff8	0.057998627
17	0x3d5695e8	0.052389055
18	0x392378ef	0.00015589943
19	0x3d4d4a52	0.050119705
20	0xbca6cc9b	-0.020361235
21	0xbd08ff8c	-0.033446833
22	0xbe8a9a15	-0.2707068
23	0xb980e865	-0.0002458721
24	0x3bd52f7c	0.0065059047
25	0xbded63a1	-0.11591268
26	0x3c6f16da	0.014592851
27	0xbdc4b5af	-0.09604966
28	0xbc130393	-0.00897302
29	0x3d7acac0	0.061228514
30	0xbd8c2fda	-0.068450645
31	0xbd599b80	-0.053126812
32	0x3d129705	0.035788555
33	0x3b549d9e	0.003244258
34	0xbca1fe13	-0.019774472
35	0xbde0a644	-0.10969213
36	0x3c3028f2	0.01075195
37	0x3db587c5	0.088637866
38	0x3c8e45cc	0.017367266
39	0xbdb6e817	-0.089309864
40	0x3c557a7d	0.013029692
41	0xbdcc12a5	-0.09964494
42	0x3d95a922	0.0730765
43	0xbb946d5d	-0.0045296387
44	0x3d12ee17	0.03587159
45	0xbd736593	-0.05942304
46	0xbe0a5580	-0.13509178
47	0xbb984506	-0.0046469
48	0x3c6b3369	0.014355519
49	0x3c04f724	0.008115564
50	0x3db1bd95	0.08678738
51	0x3e11c2c5	0.14234455
52	0xbce6fea9	-0.028197603
53	0x3be83bcb	0.007087206
54	0x3c1c42a3	0.009537372
55	0xbcf8b61b	-0.030360272
56	0xbd0868c7	-0.03330305
57	0x3d047578	0.03233859
58	0xbd0e022a	-0.034670033
59	0xbdad01be	-0.08447598
60	0x3adb35d9	0.0016724422
61	0xbda587cb	-0.08082541
62	0xbcbaa85f	-0.022785364
63	0xbd066964	-0.032815352
64	0xbd8f11eb	-0.069858395
65	0xbc0b4a12	-0.008501546
66	0x3dd8b377	0.10581105
67	0x3d01c8b6	0.031685553
68	0x3c80aa8d	0.015706325
69	0x3d826239	0.06366391
70	0x3d9bb900	0.07603645
71	0x3d07377d	0.033011902
72	0x3b232c0b	0.0024898078
73	0xbb5763ec	-0.0032865955
74	0xbdb20279	-0.08691878
75	0x3dda48f2	0.106584445
76	0xbd3c8af9	-0.046030972
77	0x3df20b42	0.118185535
78	0x3c5eb3c9	0.013592669
79	0xbcfa84f8	-0.030580983
80	0x3dbf86a7	0.09351855
81	0x3e02d885	0.12777908
82	0x3da68be9	0.081321545
83	0xbb617541	-0.0034402164
84	0xbd2f0174	-0.042725995
85	0x3caf1861	0.02137393
86	0xbcee9644	-0.029124387
87	0x3e53dbce	0.20689318
88	0x3e092b9d	0.13395543
89	0xbdc09946	-0.094042346
90	0xbc33a0f6	-0.010963669
91	0x3dd14c11	0.10219587
92	0xbb7499bf	-0.0037323085
93	0x3a8d9902	0.0010803046
94	0xbc59c56c	-0.013291698
95	0xbdf34ae4	-0.11879519
96	0xbcd8ee4d	-0.026480818
97	0x3e2a286c	0.16616982
98	0xbdcf47d0	-0.10121119
99	0x3e860d59	0.26182058
100	0x3da7a140	0.08185053
101	0x3d3a2f84	0.04545547
102	0x3de3eaf2	0.11128797
103	0xbd5524af	-0.052036937
104	0xbd59f580	-0.053212643
105	0x3da9f34d	0.08298359
106	0xbd188cae	-0.037243538
107	0xbdfad9af	-0.12248551
108	0x3ddc62ec	0.10761055
109	0xbdddef31	-0.10836638
110	0xbd6df0e1	-0.05809105
111	0xbd723896	-0.059135996
112	0x3d39eefb	0.045393925
113	0xbd4d5819	-0.050132845
114	0xbc9d124c	-0.019173764
115	0xbda7abcf	-0.08187067
116	0xbd2ca7c0	-0.042152166
117	0xbc914907	-0.017735017
118	0xbe35c9a3	-0.177527
119	0xbb5f8bc7	-0.0034110413
120	0x3e440375	0.19141944
121	0xbc55b09e	-0.013042597
122	0xbe192ff9	-0.14959706
123	0x3d4072a9	0.04698435
124	0x3cde99ae	0.02717289
125	0x3d1c364f	0.03813773
126	0x3a64b62a	0.00087246543
127	0xbe2b66b8	-0.16738403
128	0x3d64f05b	0.055893283
129	0xbc4cbb6d	-0.012495858
130	0x3df1d49b	0.118081294
131	0xba14dd0f	-0.0005678692
132	0x3d81c95e	0.06337236
133	0x3e232399	0.15931548
134	0x3d8de477	0.06928342
135	0xbb07dccd	-0.0020730973
136	0x3dcf64c0	0.101266384
137	0xbdb75037	-0.08950847
138	0x3d486e4a	0.048933305
139	0x3d0177a1	0.031608228
140	0xbd9c82ec	-0.07642159
141	0x3e2a5dde	0.1663737
142	0x3c54b9ca	0.012983749
143	0x3dc92b48	0.09822708
144	0x3df2a68b	0.11848172
145	0xbcc77815	-0.024349252
146	0x3d4978b3	0.049187373
147	0x3cd27ee2	0.025695268
148	0xbc49dde4	-0.012320969
149	0x3bcb4e9c	0.0062044393
150	0x3d6d6466	0.057957076
151	0xbd8bc05d	-0.068238
152	0xbd3d90c6	-0.046280645
153	0xbd497b97	-0.04919013
154	0xbe4d5f93	-0.2005599
155	0xbdfb10e6	-0.122590825
156	0xbe879042	-0.26477247
157	0xbdfde751	-0.12397636
158	0xbe647ed2	-0.22314003
159	0xbd816d98	-0.063197315
160	0x3e5fb76e	0.21847317
161	0x3d01493e	0.03156399
162	0x3cb50408	0.022096649
163	0xbe229822	-0.15878347
164	0x3d609481	0.054829124
165	0x3d903ed6	0.07043235
166	0x3e02a9f4	0.12760144
167	0xbca2e493	-0.019884383
168	0x3cc9da6f	0.02464029
169	0xbd2df5f5	-0.04247089
170	0x3ccbb44b	0.024866244
171	0xbdbd95ac	-0.09257063
172	0xbc5a71a4	-0.013332758
173	0xbbba95fd	-0.0056941495
174	0x3dfa4995	0.12221066
175	0xbc256f0b	-0.0100972755
176	0x398afb4e	0.00026508648
177	0xbe071484	-0.1319142
178	0x3dc68fcd	0.096953966
179	0x3d9a02d6	0.07520072
180	0x3da22c8b	0.07918652
181	0xbd850269	-0.064946
182	0x3d224e52	0.039625473
183	0x3d4974f1	0.04918379
184	0xbd81d04c	-0.063385576
185	0x3db8380e	0.089950666
186	0x3cefce20	0.029273093
187	0xbd976fb8	-0.073943555
188	0x3ded1030	0.11575353
189	0x3d2ac57f	0.041692253
190	0x3d144587	0.03619912
191	0xbd5d9907	-0.054101016
192	0x3dbfd4fa	0.09366794
193	0xbcd67d7d	-0.026182884
194	0x3dd2a007	0.10284429
195	0x3c8e0189	0.017334716
196	0x3d706d0f	0.058697756
197	0xbe0423ce	-0.12904283
198	0xbc1a1e36	-0.009406617
199	0xbd39f05f	-0.04539525
200	0x3dc16dca	0.09444769
201	0xbe0d921d	-0.13825269
202	0xbe5b8068	-0.21435702
203	0xbe30315b	-0.17206328
204	0x3c97adca	0.018515486
205	0x3d9d4f0d	0.07681093
206	0x3d8ae8d0	0.06782687
207	0x3d3ae70b	0.045630496
208	0xbc56dd81	-0.013114334
209	0xbc03b71d	-0.008039263
210	0x3da90c50	0.082543015
211	0xbdbbc7a5	-0.091689385
212	0x3cae6fbd	0.021293515
213	0x3e2143c5	0.15748508
214	0x3bd6f2fb	0.0065597272
215	0x3e061e05	0.13097389
216	0xbceaff36	-0.028686147
217	0x3e1b8c5c	0.15190262
218	0xbcd7192c	-0.02625712
219	0x3dc1b266	0.09457855
220	0xbcaf9020	-0.021431029
221	0xbdbc71bb	-0.0920138
222	0xbd15a4dc	-0.036534175
223	0x3e2c54bf	0.16829203
224	0x3c7e7b2a	0.015532294
225	0x3df5924a	0.11990793
226	0x3dd94eca	0.10610731
227	0x3e000633	0.12502365
228	0x3d8c2879	0.06843657
229	0xbd473224	-0.048631802
230	0x3da873ae	0.08225189
231	0xbcf0c428	-0.02939041
232	0xbb8ce582	-0.0042998204
233	0x3d35f9ec	0.044427797
234	0x3dc12928	0.09431678
235	0x3d8e662e	0.06953083
236	0xbd75dcf5	-0.060025174
237	0xbc87c466	-0.016573142
238	0xbd5124c0	-0.05106044
239	0xb951a502	-0.00019993263
240	0x3e2e9310	0.17048287
241	0xbd0ff65c	-0.035147056
242	0x3dbbe555	0.09174601
243	0x3d1432e0	0.03618133
244	0xbe95271e	-0.29131407
245	0xbe897238	-0.26844954
246	0x3e1be390	0.15223527
247	0xbe992b9e	-0.2991609
248	0xbe0b70be	-0.13617226
249	0x3d95aead	0.073087074
250	0xbe00b61a	-0.12569466
251	0x3e71451c	0.2356152
252	0xbb869470	-0.0041070506
253	0x3d94665f	0.07246088
254	0xbe22cae1	-0.15897705
255	0xbdbc5f8a	-0.0919791

1.layers.4.0.bias f4 [80]
0	0xbcb7c241	-0.022431495
1	0xbce1fcd7	-0.027586384
2	0xbc282746	-0.01026327
3	0xbcb0c50f	-0.02157834
4	0xbd01cf55	-0.031691868
5	0xbd5ae966	-0.053445242
6	0xbd2aed44	-0.04173018
7	0xbcf9c4fa	-0.030489434
8	0xbd818307	-0.063238196
9	0xbd3d18eb	-0.04616634
10	0xbd017f28	-0.031615406
11	0xbc88dde7	-0.016707374
12	0xbd28db07	-0.041224506
13	0xbcce8a6a	-0.025212485
14	0xbc724a15	-0.01478817
15	0xbcaad985	-0.020855675
16	0xbd234747	-0.039862897
17	0xbcb579e3	-0.022152847
18	0xbbb4fd2f	-0.005523346
19	0xbcb3ac6a	-0.0219328
20	0xbcccb7c0	-0.024989963
21	0xbc9ebae4	-0.019376226
22	0xbc7aead7	-0.015314779
23	0xbd38a121	-0.04507554
24	0xbcfc054a	-0.03076424
25	0xbc83d607	-0.016093267
26	0xbc5cde37	-0.0134807145
27	0xbc95cfa9	-0.018287497
28	0xbd19852b	-0.037480514
29	0xbc745081	-0.014911772
30	0xbcd07ad0	-0.025449187
31	0xbd3c4629	-0.045965347
32	0xbd2692d7	-0.04066738
33	0xbd0eb793	-0.03484304
34	0xbb042fa0	-0.0020169988
35	0xbd61ab8f	-0.05509525
36	0xbd1afa67	-0.03783646
37	0xbcb15861	-0.021648588
38	0x3b66a10f	0.0035191213
39	0xbc6291d9	-0.013828718
40	0xbcde5f57	-0.027145071
41	0xbcd0ca22	-0.02548701
42	0xbd0dcb00	-0.034617424
43	0xbd2c7eaf	-0.042113002
44	0xbcd78a48	-0.026311055
45	0xbb35ece9	-0.0027759618
46	0xbc3d27c6	-0.011545127
47	0xbd31e650	-0.043432534
48	0xbcda1ae9	-0.02662416
49	0xbcbf44f6	-0.023348313
50	0xbccbfb23	-0.024900025
51	0xbd1d4586	-0.03839638
52	0xbc427ce1	-0.011870594
53	0xbcba8a26	-0.022770952
54	0x3b507f3a	0.0031814114
55	0xbd0af19f	-0.033921834
56	0xbac9e9aa	-0.001540472
57	0xbc381f93	-0.011237997
58	0xbd1fe7be	-0.039039366
59	0xbcf0f7d0	-0.029415041
60	0xbd3cdabb	-0.046107035
61	0xbc6d860e	-0.014497293
62	0xbd137a13	-0.03600509
63	0xbca42598	-0.020037457
64	0xbcfb7484	-0.030695207
65	0xbd261b75	-0.04055353
66	0x39e93192	0.00044478156
67	0xb9fcf655	-0.00048248717
68	0xbcb700bb	-0.022339216
69	0xbd11e972	-0.03562302
70	0xbce17cc6	-0.027525317
71	0xbd02a2c3	-0.031893503
72	0xbd1f08ce	-0.038826756
73	0xbd0435d2	-0.03227789
74	0xbcda3a66	-0.026639175
75	0xbc2f1f20	-0.010688573
76	0xbc3c5cdf	-0.011496752
77	0xbc69177d	-0.014226791
78	0xbd367c7a	-0.044552304
79	0xbcab3727	-0.020900322
