DNNWeightsDefault/model_0/ensemble_0/zz_bbtt_8.onnx (onnx, 947112 bytes, 19 tensors)

0.embeds.0.weight f4 [2, 1]
0	0xbfc63f57	-1.548808
1	0x3e2658f9	0.16244878

0.embeds.1.weight f4 [3, 2]
0	0x3fb1af34	1.3881593
1	0x3f40fa95	0.7538236
2	0xbf411d6e	-0.7543553
3	0x3f1d2890	0.6139002
4	0xbea21b3e	-0.3166141
5	0xbf591fba	-0.84814036

0.embeds.2.weight f4 [2, 1]
0	0xbf9e8290	-1.2383595
1	0x3eb50452	0.3535486

0.embeds.3.weight f4 [5, 3]
0	0x3eff777a	0.4989584
1	0xbf328d7a	-0.69747126
2	0x3e92e493	0.28690013
3	0xbf2bda6b	-0.67130154
4	0xbf96eb00	-1.1790466
5	0xbf962703	-1.1730655
6	0xbfaf5980	-1.3699188
7	0x3ca8422f	0.020539371
8	0x3d4d25d8	0.05008492
9	0xbe8940bc	-0.268072
10	0x3f901767	1.1257142
11	0x3e98de36	0.29857033
12	0x3fed8689	1.8556682
13	0xbe486e3d	-0.19573303
14	0x3f00bb9e	0.5028628

0.embeds.4.weight f4 [5, 3]
0	0xbcc5ad60	-0.024130523
1	0xbf2f45b2	-0.6846572
2	0x3f84abad	1.0364891
3	0xbe80743c	-0.2508868
4	0x3f0c0c61	0.5470639
5	0xc00e5268	-2.2237797
6	0xbfa572d5	-1.2925669
7	0x3fb557f9	1.4167472
8	0xbea0974a	-0.31365424
9	0x3ff09b77	1.8797444
10	0xbfeb095d	-1.8362232
11	0xbdffca1c	-0.12489721
12	0x400891ce	2.1338992
13	0x3f73fea3	0.9531042
14	0x3f12a827	0.5728783

0.embeds.5.weight f4 [2019, 50]
0	0xbe3d945c	-0.18513626
1	0xbf9a508c	-1.2055831
2	0xbf26a2f7	-0.65092415
3	0xbea1b40c	-0.31582677
4	0x3df86e92	0.121304646
5	0x3fa8c410	1.3184834
6	0x3c53ff85	0.012939339
7	0x3f3f2a31	0.74673754
8	0xbf89ba3a	-1.0759957
9	0xbe3429b4	-0.17594033
10	0x3d3e4b64	0.046458617
11	0xbf3f170f	-0.7464456
12	0xbeb20262	-0.34767443
13	0x3f3252c5	0.69657546
14	0x3ecfa067	0.40552065
15	0x3f7dfe8a	0.9921652
16	0x3f955a63	1.1668209
17	0xc00d6444	-2.2092447
18	0x4029730f	2.6476476
19	0xbf78d48d	-0.97199327
20	0xbfa34dc2	-1.2758105
21	0x3f59b973	0.850486
22	0x3ef1f857	0.4725978
23	0xbe9744c9	-0.29544666
24	0x3ea1fef6	0.31639832
25	0xbdda7468	-0.10666734
26	0x3f9a27ca	1.2043393
27	0xbee2652b	-0.4421781
28	0x4000ae07	2.0106218
29	0x3f33294b	0.69984883
30	0x3dc3470d	0.09535036
31	0x3ff0c6fd	1.8810726
32	0xbe850391	-0.25979283
33	0x3f9030b6	1.1264865
34	0x3f93be3b	1.1542429
35	0x3f1a389d	0.60242635
36	0x3faf1d88	1.3680887
37	0x3e6f6033	0.23376541
38	0xbdd95c1a	-0.1061327
39	0x400166b2	2.021893
40	0x3f0b253d	0.54353696
41	0xbfbe1f52	-1.4853308
42	0x3ec802e9	0.3906472
43	0x3f524b5b	0.82146233
44	0x401df13e	2.4678493
45	0x3f3d9e27	0.74069446
46	0xbf8ea2d1	-1.1143438
47	0x3ebcfad9	0.36910132
48	0x3ebdd816	0.37078923
49	0xbd96ff3b	-0.073729
50	0xbf7316b2	-0.94956505
51	0xbe4fed87	-0.20305453
52	0x3f18c88b	0.59681004
53	0x3d9fc692	0.07801546
54	0xbdacda34	-0.084400564
55	0xbe1c4bf3	-0.15263347
56	0xbf3db9a8	-0.74111414
57	0x3f3f9d1b	0.748491
58	0xbf70f910	-0.9413004
59	0xbd1c9c69	-0.0382351
60	0x3f17c983	0.5929186
61	0xbd5cea79	-0.053934548
62	0x3e1aebd6	0.15129027
63	0x3f7cdc5d	0.9877375
64	0x3fe211d9	1.7661697
65	0xbfb7c235	-1.4356142
66	0xbf582bd8	-0.844419
67	0xbe587b61	-0.21140815
68	0xbfe01bf9	-1.7508537
69	0xbf6b2c92	-0.91864884
70	0x3e86e6ab	0.2634786
71	0xbf2ccc8c	-0.67499614
72	0x3e7e9b44	0.24863917
73	0x3e8fee0e	0.2811131
74	0xbc9d6d85	-0.019217262
75	0x3f1255e8	0.5716233
76	0xbf9ed880	-1.240982
77	0xbf1f8758	-0.62315893
78	0xbe8ee250	-0.27907038
79	0xbf155dc7	-0.5834622
80	0xbff9f598	-1.9528074
81	0x3f1e8235	0.6191743
82	0xbfe76dcb	-1.8080381
83	0x3fb0e764	1.3820615
84	0x3e0296c5	0.12752827
85	0xbf45a5eb	-0.77206296
86	0xbe37903f	-0.1792612
87	0x3eff02c0	0.49806786
88	0xbf5c9d17	-0.861772
89	0xc0098703	-2.1488655
90	0xbf860a75	-1.0471941
91	0x3fa05fe4	1.2529263
92	0x3e57e968	0.21085131
93	0xbedb3ebe	-0.42821306
94	0xc0025aa9	-2.0367835
95	0xbe51dbeb	-0.20494048
96	0xc00df089	-2.217806
97	0xbf6a80f7	-0.91603035
98	0xbeb0a9e6	-0.34504622
99	0xbf867c12	-1.0506613
100	0x3f38ddd3	0.72213477
101	0xbf70b2e1	-0.9402295
102	0xbec760fb	-0.38941178
103	0xbf77f3f7	-0.96856636
104	0x3f16e780	0.5894699
105	0x401823c9	2.3771842
106	0xbf789055	-0.97095233
107	0xbe95b00c	-0.29235876
108	0x3ec3bab2	0.38228375
109	0xbfd9d33b	-1.7017587
110	0xbcb21ffb	-0.021743765
111	0x3fe244b3	1.7677215
112	0x3e8fadf6	0.2806241
113	0x3f93115c	1.1489673
114	0xbfaec974	-1.3655229
115	0xbfe429f0	-1.7825298
116	0xbf9e7bf5	-1.2381579
117	0xbf9a22a2	-1.2041819
118	0xc013da59	-2.310202
119	0xbf88dfa3	-1.0693249
120	0x3ee1cefa	0.44103223
121	0xbf344c10	-0.7042856
122	0xbf346029	-0.7045923
123	0x3e3b638a	0.1829969
124	0xbeaff5d1	-0.3436723
125	0x3f2ef763	0.6834623
126	0x3eaae400	0.33377075
127	0xbee463bd	-0.44607344
128	0x3ec0f7d0	0.37689066
129	0xbfb6e81a	-1.4289582
130	0xbf4316d1	-0.7620669
131	0xbf2f68df	-0.68519396
132	0xbef69ab3	-0.481649
133	0xbea7e616	-0.3279273
134	0x3f387de9	0.72067124
135	0x3f93b1cc	1.1538634
136	0xc00d740e	-2.2102084
137	0x3ef58ad6	0.47957486
138	0xbf2f6d38	-0.6852603
139	0x3f4ef473	0.8084175
140	0x3ee37c81	0.44430926
141	0x3f642fce	0.89135444
142	0x400c7b2f	2.1950185
143	0xbe6abce6	-0.22923622
144	0x3f65ad61	0.8971768
145	0x3f32c3e7	0.69830173
146	0xbf49d186	-0.7883533
147	0x3e25520c	0.1614458
148	0x3ff8343a	1.9390938
149	0xbe79ba91	-0.24387576
150	0xbc898237	-0.016785724
151	0x3f090acd	0.53532106
152	0xbf09fcb9	-0.5390125
153	0x3e8cc59f	0.27494523
154	0x3ffbcfc6	1.9672782
155	0xbe1bbd85	-0.15209015
156	0xbf2bbeb4	-0.67087865
157	0xbe65624f	-0.22400783
158	0xc0224153	-2.535237
159	0xbf2abbe3	-0.6669294
160	0xbdb806c9	-0.08985669
161	0x3f35e7ca	0.7105681
162	0xc024f294	-2.5773058
163	0x3facbb45	1.349465
164	0x3e09fef0	0.13476157
165	0x3eee1468	0.46499944
166	0x3f34a02f	0.7055692
167	0xbfe6f60b	-1.8043836
168	0xbe9eb062	-0.30993944
169	0x3eb5e939	0.35529497
170	0x3dc5f79c	0.09666368
171	0x3fe759f5	1.8074328
172	0xbfb5ffa8	-1.4218645
173	0x3f4f6e1d	0.81027395
174	0x3e8b6c66	0.2723114
175	0xbf8772fc	-1.0581965
176	0xbf83b6d7	-1.0290173
177	0xbeb1bbad	-0.34713498
178	0xbf8c2f39	-1.0951911
179	0xbfbb92df	-1.4654197
180	0x3e8e7d92	0.27830178
181	0x3d34a9f4	0.044107392
182	0xbf28aac6	-0.6588558
183	0x3ed6a2b4	0.41921008
184	0xbda5978b	-0.08085545
185	0xbfb50fa4	-1.4145398
186	0xbea0da28	-0.3141644
187	0xbfc21ff9	-1.5166007
188	0xbf8a0818	-1.078372
189	0x3fc4688a	1.5344403
190	0x3f2cefc1	0.67553335
191	0xbecf2133	-0.40455016
192	0x3eae5104	0.34046185
193	0x3e937773	0.2880207
194	0xbf9fd096	-1.248553
195	0xbe1e6bc8	-0.15470803
196	0x3fbebf3c	1.490211
197	0xbe81ccf6	-0.25351685
198	0xbf4cc846	-0.79993093
199	0xbe804c64	-0.2505828
200	0x3a81051c	0.0009843442
201	0xbf57d819	-0.84314114
202	0x3f214101	0.62989813
203	0xbf5452e8	-0.82939005
204	0xbfb1cea8	-1.3891191
205	0x3ff8e68a	1.9445355
206	0x401617b0	2.3451958
207	0x3f8371fd	1.0269161
208	0x3f84fb94	1.0389276
209	0x3cb3312a	0.02187403
210	0xbe4185f1	-0.18898751
211	0xbf0a8491	-0.5410853
212	0x3f25e60e	0.6480416
213	0xbf03ddc1	-0.51510245
214	0x3e892200	0.26783752
215	0x3de18fb4	0.11013737
216	0x3f76b58d	0.96370775
217	0x3f6e3acd	0.9305847
218	0xbf0cf712	-0.550645
219	0xbef8e8e8	-0.48615193
220	0xbfd837fa	-1.6892083
221	0xbf420597	-0.7578978
222	0x3f2985ac	0.6621959
223	0xbf3977d5	-0.72448474
224	0xc005c976	-2.0904212
225	0xbdec2ec7	-0.115323596
226	0xc0020c33	-2.0319946
227	0x3f6ff070	0.93726254
228	0xbfb799a4	-1.4343762
229	0x3f1bfd4d	0.6093338
230	0xbec38186	-0.38184756
231	0xbe562e24	-0.20916039
232	0xbd3c4802	-0.04596711
233	0xbdcc66b9	-0.0998053
234	0x3f531239	0.8244968
235	0xbf8963b0	-1.0733547
236	0xbeb08d0f	-0.3448262
237	0xbbdaa1df	-0.0066721286
238	0xbe2fb0d8	-0.17157304
239	0xbe65d1e9	-0.22443356
240	0xbc630d74	-0.013858188
241	0x3f29354e	0.6609696
242	0xbe729aff	-0.23691939
243	0xbf4443d2	-0.76665986
244	0xbf347ef8	-0.7050624
245	0x3dbd959d	0.09257052
246	0xbfc73e72	-1.5565932
247	0xbf31572d	-0.69273645
248	0xbdebdb52	-0.115164414
249	0x3f513d6d	0.81734353
250	0xbfe07bde	-1.7537801
251	0xc01c7c0f	-2.445072
252	0x3ff5b9e0	1.919735
253	0xbfa6b4ad	-1.3023888
254	0x3f84727e	1.034744
255	0x3e66bf85	0.22533996

1.layers.0.0.bias f4 [80]
0	0xbcc467c7	-0.023975266
1	0x38d3994e	0.00010089819
2	0xbcaf71e9	-0.021416621
3	0xbd45e8b3	-0.048317622
4	0xbd09f101	-0.033677105
5	0xbc4d05f9	-0.012513631
6	0xbd2f635d	-0.04281937
7	0xbc17fde3	-0.00927684
8	0xbcb5f30f	-0.022210626
9	0xbc0a8374	-0.008454192
10	0xbd321b1d	-0.04348289
11	0xbd21fde2	-0.039548762
12	0xbcea8328	-0.028626993
13	0xbd1cda09	-0.038293872
14	0x39d20c2b	0.00040063387
15	0xbd17296e	-0.036904745
16	0xbd10ed5d	-0.035382617
17	0x3bf98f56	0.007615964
18	0xbca3cf21	-0.019996228
19	0xbb5b9bc7	-0.0033509599
20	0xbd8b7c86	-0.0681086
21	0xbda28cfd	-0.07937048
22	0xbd01b913	-0.03167064
23	0x3c2392ea	0.0099837575
24	0xbd1ccb97	-0.038280096
25	0xbd6fd321	-0.058550958
26	0xbd48fbce	-0.049068265
27	0xbcc2ff08	-0.023803249
28	0xbce32ade	-0.027730402
29	0xbd8fc7c3	-0.070205234
30	0xbc9cb26c	-0.019128047
31	0xbd5b2905	-0.053505916
32	0xbd3dd584	-0.046346202
33	0xbc955358	-0.018228218
34	0xbcd9ede0	-0.026602685
35	0xbd4d879c	-0.050178155
36	0x3abf916d	0.0014615484
37	0xbb9393c9	-0.0045037013
38	0xbcd4bede	-0.025969919
39	0xbc5d5c61	-0.013510794
40	0xbd38d088	-0.045120746
41	0xbce96a15	-0.028492967
42	0xbd289aa8	-0.041163117
43	0xbc4f83ef	-0.012665733
44	0xbd044b9f	-0.03229868
45	0xbd81739a	-0.063208774
46	0x3d13ac5d	0.03605305
47	0x3ac80f8a	0.001526342
48	0xbcf5c617	-0.030001683
49	0xbcfa0a85	-0.030522594
50	0xbca0d651	-0.019633444
51	0xbd2d574d	-0.042319585
52	0x3aa5e490	0.0012656618
53	0xbc87b8e5	-0.016567657
54	0xbda68b5f	-0.08132052
55	0xbd4375cb	-0.047719758
56	0xbc8c0190	-0.017090589
57	0xbc56dbf3	-0.013113963
58	0xbbfd4796	-0.007729481
59	0xbd73b362	-0.059497245
60	0xbd394a79	-0.04523704
61	0xbd67ddcf	-0.056608018
62	0xbd359c11	-0.04433829
63	0xbd6c948d	-0.057758857
64	0xbd29a465	-0.041416544
65	0x3be5f1f3	0.007017368
66	0xbd183ff0	-0.03717035
67	0xbd4e8fc1	-0.050430063
68	0xbd5f5c0c	-0.054531142
69	0xbccb891e	-0.024845656
70	0xbca41caf	-0.020033209
71	0xbd0be61e	-0.034155004
72	0xbd2215e1	-0.039571647
73	0xbd0fc3fc	-0.035099015
74	0xbca6a04e	-0.020340111
75	0xbd325c3a	-0.043544985
76	0xbd0f4f16	-0.03498753
77	0xbd6a802d	-0.057251144
78	0xbaf1f57e	-0.0018460003
79	0xbd43e823	-0.047828805

1.layers.0.0.weight f4 [80, 80]
0	0xbdac9464	-0.08426741
1	0xbddd421a	-0.108036235
2	0xbd88f0b1	-0.06686533
3	0xbebf8fd5	-0.37414423
4	0xbe000ca6	-0.12504825
5	0xbeb9cac7	-0.3628752
6	0xbe8cadec	-0.27476442
7	0xbe2e2193	-0.17004995
8	0xbcd17a7f	-0.025571106
9	0x3e7e0425	0.24806269
10	0x3c37302b	0.011180918
11	0xbca818f9	-0.02051972
12	0x3d477b9d	0.04870187
13	0xbdf214f5	-0.118204035
14	0x3e982e0c	0.2972263
15	0x3dbcb2ce	0.09213792
16	0x3e9fc800	0.31207275
17	0x3dd0ff46	0.102049395
18	0x3d6a5e2a	0.057218708
19	0xbbc637a0	-0.0060491115
20	0xbd46a392	-0.048495837
21	0x3c2da96e	0.010599477
22	0xbd9e41b4	-0.077273756
23	0xbd8637d8	-0.0655362
24	0x3daa28a9	0.083085366
25	0x3de22d53	0.11043801
26	0x3e130138	0.14355934
27	0xbe00f28c	-0.12592524
28	0x3d9a6006	0.07537846
29	0x3e816d6f	0.25278804
30	0x3d8b6a0e	0.06807338
31	0x3d408288	0.046999484
32	0x3ea24115	0.3169028
33	0xbc4bcd0c	-0.012439024
34	0xbdf74d40	-0.12075281
35	0xbe16145a	-0.14656201
36	0xbe775f3a	-0.2415742
37	0x3df3ba5a	0.11900778
38	0x3e5d491a	0.21609917
39	0xbe8386cb	-0.25688776
40	0xbdacfc3e	-0.08446549
41	0xbd930121	-0.0717795
42	0xbe0ad13e	-0.13556382
43	0x3e644576	0.22292122
44	0x3e1e62a3	0.15467314
45	0x3e99d6d7	0.30046722
46	0xbe768513	-0.24074201
47	0xbe5579db	-0.20847265
48	0x3dddd294	0.1083118
49	0xbd5976a3	-0.053091656
50	0x3d2a37a7	0.04155698
51	0xbe1bb048	-0.15203965
52	0x3d9ff196	0.07809751
53	0xbe032cd2	-0.12810066
54	0x3d6b4295	0.057436544
55	0xbe6f4d3e	-0.2336931
56	0xbde0e30a	-0.10980804
57	0xbd6e89b4	-0.058236793
58	0xbe440f13	-0.19146375
59	0xbccc6761	-0.024951639
60	0xbe175381	-0.14777948
61	0xbe0e978d	-0.13925
62	0xbd39fee9	-0.045409117
63	0x3e7b1bea	0.24522367
64	0xbdb9e044	-0.090759784
65	0xbe563d91	-0.20921923
66	0xbc971331	-0.018441768
67	0x3de1e2ab	0.110295616
68	0xbeeba1c2	-0.4602185
69	0xbd16a8c2	-0.036782034
70	0xbd1a3a16	-0.03765305
71	0xbe8dc4f3	-0.27689323
72	0xbebc7fa5	-0.36816135
73	0xbdbfc6fb	-0.093641244
74	0x3cfaad67	0.030600263
75	0xba73b77a	-0.00092970545
76	0x3b92ae16	0.004476319
77	0xbdf232bd	-0.11826084
78	0xbccc0b21	-0.02490765
79	0xbe637b7e	-0.22215077
80	0xbf8b0ed9	-1.0863906
81	0x3e2c9391	0.16853167
82	0x3de6cde0	0.11269736
83	0xbe485130	-0.1956222
84	0xbdb34e7e	-0.087552056
85	0xbd313239	-0.043260787
86	0xbe8a3076	-0.26990098
87	0x3e2ebfc5	0.17065342
88	0xbf08847a	-0.53327143
89	0x3d7fb618	0.062429518
90	0x3d22d79a	0.039756395
91	0x3e902787	0.28155157
92	0xbd942c02	-0.07234956
93	0xbd89311c	-0.0669882
94	0x3e07bbb4	0.13255197
95	0x3cad8880	0.021183252
96	0xbe4f46f7	-0.20241915
97	0xbbdcac1b	-0.0067343838
98	0xbdd7613e	-0.10516594
99	0xbdb4119a	-0.0879242
100	0x3df61ecc	0.12017593
101	0x3b8c5b0c	0.0042833146
102	0x3d14483e	0.036201708
103	0xbe593fcf	-0.21215747
104	0x3eabf570	0.3358569
105	0x3c384df8	0.011249058
106	0x3ee153ee	0.44009346
107	0xbd89dfb1	-0.06732119
108	0x3c3e5b71	0.011618481
109	0x3eeb08fa	0.45905286
110	0xbdba0da0	-0.0908463
111	0x3ea5c593	0.323773
112	0xbe33779d	-0.17526098
113	0x3daabe08	0.08337027
114	0x3dc1864d	0.09449444
115	0x3dde0046	0.10839896
116	0x3e1a074e	0.15041849
117	0x3d34a428	0.044101864
118	0x3dcebddb	0.10094806
119	0xbde9f1b0	-0.11423051
120	0xbe835fb3	-0.2565895
121	0x3d146b40	0.036235094
122	0x3d8a2af1	0.06746472
123	0xbd945841	-0.072433956
124	0xbe62496a	-0.22098318
125	0x3cb85889	0.022503154
126	0x3c3d4166	0.011551237
127	0x3d4386a5	0.04773583
128	0x3d168b06	0.036753677
129	0xbde4f2ec	-0.11179146
130	0xbe756c76	-0.23967156
131	0x3e1249ef	0.14286016
132	0xbce16eb1	-0.027518602
133	0x3c057bc5	0.008147185
134	0x3d567c50	0.052364647
135	0x3e0b4f2a	0.13604417
136	0x3e38e780	0.1805706
137	0x3dbc5f31	0.09197844
138	0x3e82e3ab	0.25564322
139	0x3e42f30e	0.1903803
140	0x3ce64ae0	0.028111875
141	0xbd85886c	-0.06520161
142	0xbdaefaf2	-0.08543958
143	0x3c5164ec	0.012780409
144	0x3cb9cb7a	0.022680033
145	0xbc5b8df8	-0.013400547
146	0xbe42b962	-0.1901603
147	0xbc361903	-0.011114362
148	0xbdf7d0d4	-0.12100378
149	0xbe2f9157	-0.17145287
150	0x3dadc5bb	0.0848498
151	0x3ef7a921	0.48371223
152	0x3dacb3ba	0.084327176
153	0x3da55f85	0.080748595
154	0x3c7513be	0.01495832
155	0xbe1d72e9	-0.15375866
156	0x3de3544c	0.11100063
157	0xbd4b5143	-0.049638044
158	0xbe4fc808	-0.2029115
159	0x3d0f923d	0.035051573
160	0xbd962d9a	-0.073329166
161	0xbe426a74	-0.18985921
162	0x3d0886da	0.03333173
163	0x3e804423	0.25051984
164	0xbd017956	-0.031609856
165	0x3c8379f1	0.016049357
166	0x3cb6d7ca	0.022319693
167	0x3df460ba	0.11932512
168	0xbdf08eea	-0.11746009
169	0x3e8f8603	0.2803193
170	0x3e5b5978	0.21420848
171	0x3d60524a	0.054765977
172	0x3e6a3268	0.22870791
173	0x3cf0f0ce	0.0294117
174	0xbdbce20d	-0.09222803
175	0x3e21f589	0.1581632
176	0xbe90a512	-0.2825094
177	0xbed5593d	-0.41669646
178	0xbd373d2f	-0.044736084
179	0xbe8cd01b	-0.27502522
180	0x3e7c50c7	0.24640189
181	0x3d8e0a9a	0.06935616
182	0x3e64d5e7	0.22347222
183	0x3bdfcc91	0.006829806
184	0x3e4a4e91	0.19756533
185	0xbe85b6eb	-0.26116118
186	0x3d3e3cba	0.046444632
187	0xbe72927e	-0.23688695
188	0x3d817c02	0.06322481
189	0x3e97ea99	0.2967117
190	0x3cc20964	0.023686118
191	0xbd2752c5	-0.04085042
192	0x3de57fc7	0.11206012
193	0xbdfb73bf	-0.12277936
194	0x3e42743c	0.18989652
195	0x3de99061	0.11404491
196	0xbc45080e	-0.012025846
197	0x3dd41141	0.103548534
198	0xbe313522	-0.17305425
199	0x3e783d8e	0.24242231
200	0xbf18ceee	-0.5969075
201	0x3db3c3d6	0.08777587
202	0xbda30fbc	-0.079619855
203	0xbe1597fd	-0.1460876
204	0x3da40ea3	0.08010604
205	0xbe3cfe59	-0.18456401
206	0xbd1d6efb	-0.038435917
207	0xbddb0925	-0.106951036
208	0xbdfe6b7c	-0.12422845
209	0xbeb94032	-0.3618179
210	0xbe11de70	-0.1424501
211	0xbca7ca5c	-0.020482235
212	0x3e66c7df	0.22537182
213	0x3e038ac5	0.12845905
214	0x3c94666f	0.01811525
215	0x3e6a7a90	0.22898316
216	0xbdf80e5a	-0.12112112
217	0x3e85dc40	0.261446
218	0x3cdff209	0.027337091
219	0x3e4532aa	0.19257608
220	0xbe95a6a4	-0.292287
221	0xbbd0dbc7	-0.0063738558
222	0x3d40bf7f	0.047057625
223	0xbd41d0dc	-0.047318324
224	0x3f0dcd4b	0.5539138
225	0xbe9eb65a	-0.30998498
226	0xbd69f7b7	-0.057121005
227	0xbd8d0837	-0.068863325
228	0xbd09da00	-0.033655167
229	0xbdd49ba8	-0.103812516
230	0xbe60040d	-0.21876545
231	0xbd8d88bc	-0.06910846
232	0xbd810b29	-0.06300957
233	0xbe8d3d38	-0.2758577
234	0xbbe31ee5	-0.006931173
235	0x3c4489a9	0.011995711
236	0x3d40d7f1	0.047080938
237	0x3e87af25	0.26500812
238	0xbdb3a7c6	-0.087722346
239	0xbae4c4c1	-0.0017453657
240	0x3de0df44	0.109800845
241	0x3e5d2763	0.21597056
242	0x3ea329b7	0.31867763
243	0x3f0ba8a8	0.54554224
244	0x3d14b1ce	0.03630238
245	0x3e26652c	0.16249532
246	0x3ecce724	0.40020096
247	0x3d8f38e0	0.0699327
248	0xbe664233	-0.2248619
249	0x3c1c6607	0.00954581
250	0xbdc60900	-0.09669685
251	0xbe1e9c00	-0.15489197
252	0xbd698af1	-0.05701727
253	0xbd4c9b66	-0.049952887
254	0x3e4f59af	0.20249055
255	0x3ed3943f	0.4132404

1.layers.1.0.bias f4 [80]
0	0xbccb9fc4	-0.024856456
1	0x3bae5f4b	0.0053214184
2	0xbce294a0	-0.02765876
3	0xbd6c3e58	-0.057676643
4	0xbd02b40a	-0.03190998
5	0xbcc0c906	-0.023533355
6	0xbbb82303	-0.005619408
7	0xbd1ada8e	-0.037806086
8	0xbcf15359	-0.029458689
9	0xbca536e4	-0.020167775
10	0xbd03bd52	-0.03216297
11	0xbcfa68f5	-0.030567626
12	0xbce81cd4	-0.028334059
13	0xbaf51bdd	-0.001870032
14	0xbbcc4190	-0.0062334016
15	0xbaa5a885	-0.0012638724
16	0xbca97de8	-0.02068992
17	0xbd52199c	-0.051293954
18	0xbcc26807	-0.023731245
19	0xbc84f9ad	-0.016232336
20	0xbd3857a3	-0.045005452
21	0xbc409912	-0.011755245
22	0xbd2fceb6	-0.042921744
23	0xbd10c634	-0.03534527
24	0x3b8722ae	0.004124007
25	0xbd0455a9	-0.032308254
26	0xbc55bfa4	-0.013046179
27	0xbd0b3227	-0.033983376
28	0xbd08b331	-0.033374015
29	0xbd1277c5	-0.035758752
30	0xbce42118	-0.027847812
31	0xbc2614b2	-0.01013677
32	0xbca7cf10	-0.020484477
33	0xbcffcfeb	-0.031227073
34	0xb9a7f6c8	-0.00032036589
35	0xbc11e119	-0.008903765
36	0x3c1edc09	0.009696015
37	0xbd542105	-0.051789302
38	0xbd225b2b	-0.039637726
39	0xbd32bc42	-0.043636568
40	0xbc52a78b	-0.012857328
41	0xbd16159d	-0.036641706
42	0xbcdf0382	-0.027223352
43	0xbd561fae	-0.052276306
44	0xbcb2478a	-0.021762628
45	0xbd33b81a	-0.043876745
46	0xbd1208fc	-0.0356531
47	0xbcba2078	-0.02272056
48	0xbd4e3fe6	-0.050353907
49	0xbd0fa231	-0.035066787
50	0xbce29946	-0.027660977
51	0xbd0d2992	-0.034463473
52	0xbcf8f9ba	-0.030392516
53	0xbc75d9de	-0.015005557
54	0xbc8f4ac7	-0.017491711
55	0xbd7574e5	-0.059925932
56	0xbcd5c387	-0.026094211
57	0xbd33aced	-0.043866087
58	0xbd5b1842	-0.05348993
59	0xbd0f9e4d	-0.035063077
60	0xbd47013c	-0.04858516
61	0xbd348e2a	-0.04408089
62	0xbc41c8a0	-0.011827618
63	0xbcbe2a5f	-0.023213563
64	0xbcff5d10	-0.031172305
65	0xbd69ba7a	-0.057062604
66	0xbd3cc02d	-0.04608171
67	0xbd701139	-0.058610175
68	0xbd0f0617	-0.034917917
69	0xbd0ded6f	-0.034650262
70	0xbc7721d2	-0.015083747
71	0xbd1f6a4b	-0.03891973
72	0xbcf694a4	-0.030100174
73	0xbdb220d3	-0.08697667
74	0xbcf702ad	-0.030152643
75	0xbd05146a	-0.03249017
76	0xbc7914b6	-0.015202692
77	0xbcf11d4f	-0.02943292
78	0xbba8b6c3	-0.00514874
79	0xbd5aec82	-0.053448208

1.layers.1.0.weight f4 [80, 160]
0	0x3e60c3fa	0.21949759
1	0x3e0ff476	0.14058098
2	0x3e1dffa3	0.15429549
3	0x3d7b3aaa	0.061335243
4	0xbdf391d3	-0.11893048
5	0xbdca99b7	-0.098926
6	0xbd4b994c	-0.049706742
7	0x3a7d91f5	0.00096729334
8	0xbe402883	-0.18765454
9	0x3d94042b	0.072273575
10	0x3d6f00cf	0.05835038
11	0xbc092563	-0.00837073
12	0xbd92f366	-0.07175331
13	0x3dae5787	0.08512788
14	0xbe0a2a8c	-0.13492793
15	0xbe08250b	-0.13295381
16	0x3cf480d7	0.029846592
17	0xbe334030	-0.17504954
18	0xbdc9aafe	-0.09847067
19	0x3ccb961f	0.024851857
20	0x3cb277a2	0.021785561
21	0x3e84b880	0.25922012
22	0x3d592612	0.053014822
23	0x3dd04568	0.10169488
24	0xbe3f6494	-0.18690711
25	0xbc711dfe	-0.014716623
26	0xbdcb1087	-0.09915262
27	0x3dbd3d4e	0.092402086
28	0x3e608176	0.21924385
29	0xbdcd78c5	-0.100328006
30	0xbe1e4bdc	-0.15458626
31	0x3cadc24f	0.021210818
32	0xbbc0d14d	-0.0058843256
33	0x3e399e0b	0.18126695
34	0x3e730ba3	0.23734908
35	0xbc9d4d90	-0.019202024
36	0xbd9d2f73	-0.07675066
37	0xbe525612	-0.20540646
38	0xbdefdb8f	-0.11711799
39	0xbe1a646b	-0.15077369
40	0xbe1ee813	-0.15518217
41	0xbd6cece2	-0.057843097
42	0xbd8da737	-0.06916659
43	0x3e15aee7	0.14617501
44	0xbdabd216	-0.0838968
45	0x3da159b0	0.07878435
46	0x3e192dec	0.14958924
47	0x3e88d385	0.26723877
48	0xbda39472	-0.07987298
49	0xbe9787ac	-0.29595697
50	0xbdfd8665	-0.12379149
51	0x3c0596be	0.0081536155
52	0xbc6bee81	-0.0144001255
53	0x3dba7bdc	0.091056556
54	0x3d02b5ee	0.031911783
55	0x3c9ec47d	0.019380802
56	0xbe7cd8c8	-0.2469207
57	0xbda0cffc	-0.0785217
58	0xbe24a81b	-0.16079752
59	0x3c14594b	0.009054492
60	0x3d5f099f	0.054452535
61	0x3d77b983	0.060479652
62	0xbe023072	-0.12713793
63	0xbd80fe4d	-0.06298504
64	0xbe0c0db7	-0.13677107
65	0xbdf339e7	-0.11876278
66	0xbd26c9ef	-0.040719923
67	0x3d875353	0.0660769
68	0x3de58530	0.11207044
69	0xbd898e17	-0.067165546
70	0x3de649b4	0.112445265
71	0xbdfa40e5	-0.12219409
72	0x3d8bad2b	0.068201385
73	0xbe20af4b	-0.15691869
74	0x3d0b189c	0.033959016
75	0xbe4768b5	-0.19473536
76	0x3d89fe63	0.067379735
77	0xbe2064e3	-0.15663485
78	0x3dec5fb1	0.11541689
79	0xbdd35c13	-0.10320296
80	0x3c9b62ba	0.018967975
81	0xbd6090dc	-0.05482565
82	0xbe7646e3	-0.24050479
83	0x3e2be076	0.16784844
84	0x3ccdfae0	0.02514404
85	0x3e3f2dd1	0.18669821
86	0xbd95fc83	-0.073235534
87	0xbe40737b	-0.18794052
88	0x3de6209f	0.11236691
89	0xbba71d53	-0.0050999313
90	0x3da749d5	0.08168379
91	0xbe00052b	-0.12501971
92	0xbdf9ea0d	-0.12202845
93	0xbec6929f	-0.38783738
94	0x3d7b32f0	0.061327875
95	0x3d3955db	0.045247894
96	0x3dee85af	0.11646592
97	0x3bd072ad	0.0063613267
98	0x3e523db6	0.20531353
99	0xbe9ec5ac	-0.31010187
100	0x3d4e619e	0.050386064
101	0x3e81fa95	0.2538649
102	0x3daaa206	0.08331685
103	0xbcc36449	-0.02385153
104	0x3e1cca48	0.15311539
105	0xbd7d2dba	-0.061811186
106	0x3deaee96	0.11471288
107	0x3e0ae7a8	0.13564932
108	0xbe3aca5e	-0.1824126
109	0xbdc437b7	-0.09580939
110	0xbd99a459	-0.0750205
111	0x3e04ed1e	0.12981078
112	0x3e4fde67	0.20299684
113	0xbd306394	-0.043063715
114	0xbc45d2ea	-0.012074212
115	0x3e217b31	0.1576965
116	0x3d96bdbe	0.07360409
117	0xbd5497ab	-0.051902454
118	0x3e4b7f65	0.19872816
119	0x3dba3f51	0.09094108
120	0x3cf256e5	0.02958245
121	0x3e0cbe48	0.13744462
122	0x3bf2b9f2	0.0074074203
123	0x3df28d36	0.1184334
124	0x3e9a3ab7	0.3012292
125	0x3e262d82	0.16228297
126	0xbd947622	-0.072490945
127	0xbcb602d5	-0.022218147
128	0xbde6eb12	-0.11275305
129	0xbd520f58	-0.051284164
130	0x3df7a0f4	0.12091246
131	0xbce5bb91	-0.02804354
132	0x3e9ad8e8	0.3024361
133	0xbd0f3720	-0.03496468
134	0xbcf18f2c	-0.029487215
135	0xbd237534	-0.039906695
136	0xbd0ee85a	-0.034889556
137	0x3db45876	0.08805935
138	0x3de6bb02	0.11266138
139	0xbdf17f86	-0.11791901
140	0xbe1157b8	-0.14193618
141	0xbe24ba18	-0.16086614
142	0x3d3b82e0	0.04577911
143	0x3dda79c0	0.10667753
144	0xbe23317b	-0.15936844
145	0x3d94bcaa	0.07262547
146	0xbdb5904d	-0.08865414
147	0x3e34a277	0.176401
148	0xbcfb11bc	-0.030648105
149	0x3ca46154	0.02006594
150	0x3cfd591b	0.030926278
151	0xbcf48200	-0.029847145
152	0x3ddeaef2	0.10873212
153	0xbe09d4ad	-0.13460036
154	0xbdb46e78	-0.08810133
155	0xbca85dd1	-0.020552548
156	0xbcd1cf7e	-0.025611635
157	0x3dba6f8d	0.09103308
158	0xbbd94ce8	-0.0066314824
159	0x3db72441	0.08942462
160	0xbe89aa27	-0.26887628
161	0x3d9ca599	0.07648773
162	0x3dd1ef08	0.1025067
163	0xbd999a7e	-0.0750017
164	0xbe054a94	-0.1301673
165	0x3d26a197	0.040681448
166	0x3da0549a	0.078286365
167	0x3e95f5c1	0.29289058
168	0x3df1fe3d	0.1181607
169	0x3d9d0839	0.07667584
170	0x3cd61c26	0.02613647
171	0xbda890cf	-0.08230745
172	0x3ca5b2f5	0.020226935
173	0xbdaa1571	-0.08304871
174	0x3d8d3372	0.06894578
175	0x3db896f9	0.09013171
176	0xbcb71604	-0.022349365
177	0x3e1b4b5b	0.15165465
178	0xbc06ace9	-0.008219936
179	0x3e0cd6f7	0.13753878
180	0x3d9666d8	0.07343835
181	0xbe2cd5a1	-0.16878368
182	0x3d175c2d	0.03695314
183	0x3add1485	0.0016867077
184	0x3e37f3ac	0.17964047
185	0x3d27da7c	0.040979847
186	0x3c36e77c	0.011163589
187	0xbc9b848d	-0.018984104
188	0xbc7a4de7	-0.015277362
189	0xbbdd867c	-0.0067604166
190	0x3db46946	0.08809142
191	0x3da79e6e	0.08184515
192	0xbd4857c2	-0.048911817
193	0xbcfc7996	-0.030819695
194	0xbd6dce95	-0.05805834
195	0xbe4ce09b	-0.20007555
196	0xbdfe22de	-0.12408994
197	0xbe36c31e	-0.17847869
198	0x3d86e29c	0.06586191
199	0x3d8bf517	0.068338566
200	0x3dc2431a	0.09485455
201	0xbe1b0d35	-0.15141757
202	0xbdf6e5dc	-0.12055561
203	0xbd28b38d	-0.041186858
204	0x3cabe6e9	0.02098413
205	0xbe118234	-0.14209825
206	0x3d5db90c	0.054131553
207	0xbccb51e0	-0.024819314
208	0x3d18cb3c	0.037303194
209	0x3e140028	0.14453185
210	0xbe411924	-0.18857247
211	0xbe1c1071	-0.15240647
212	0x3c225144	0.009907071
213	0xbd99f877	-0.07518094
214	0xbce96f2e	-0.028495397
215	0xbdf3c016	-0.11901872
216	0x3d647113	0.0557719
217	0xbe3620a7	-0.17785893
218	0xbdf486bf	-0.11939763
219	0xbd93d780	-0.07218838
220	0x3c4beb81	0.012446285
221	0x3c2f4ac6	0.01069898
222	0x3d01199a	0.031518556
223	0x3d89d74b	0.06730517
224	0xbd1e9d97	-0.038724508
225	0x3e8d2da1	0.27573875
226	0x3dc7bb34	0.09752503
227	0x3e15a3d6	0.1461328
228	0xbda79d62	-0.08184315
229	0xbd84d1d1	-0.06485332
230	0xbc61b3b0	-0.013775751
231	0x3e480d9c	0.19536442
232	0x3d427b3a	0.0474808
233	0xbcccff15	-0.025023976
234	0x3deecc89	0.11660106
235	0x3db31d09	0.087457724
236	0xbe612e6c	-0.21990365
237	0x3e037bcf	0.12840198
238	0x3e004db5	0.12529643
239	0x3e299e99	0.16564406
240	0x3e5b516f	0.21417783
241	0xbe746374	-0.23866063
242	0x3dd8bf17	0.105833225
243	0x3e8d9333	0.27651367
244	0x3d783b11	0.060603205
245	0x3d5cfc95	0.05395182
246	0x3eb004f7	0.34378788
247	0x3e5b18f6	0.2139624
248	0x3d9af1f4	0.0756568
249	0xbdeb7180	-0.11496258
250	0xbe040a52	-0.12894562
251	0xbd399b6c	-0.045314237
252	0xbdbc11cc	-0.09183082
253	0x3e9816c5	0.29704872
254	0x3d7a6c11	0.061138216
255	0x3dae0543	0.08497097

1.layers.2.0.bias f4 [80]
0	0xbcab3bc4	-0.020902522
1	0xbd49ed64	-0.04929866
2	0xbcd8d4a0	-0.026468575
3	0x3c95d371	0.0182893
4	0xbd0fc11d	-0.035096277
5	0xbd2ea972	-0.042642064
6	0xbb80cd4f	-0.0039307247
7	0xbc35ebc5	-0.011103575
8	0xbd2be436	-0.041965686
9	0xbd0395d6	-0.032125317
10	0xbce5b313	-0.02803949
11	0xbc7a57eb	-0.01527975
12	0xbc845687	-0.01615454
13	0xbd18c623	-0.037298333
14	0xbc63cb86	-0.013903504
15	0xbcbf1091	-0.02332333
16	0xbca77c4d	-0.020445013
17	0xbc8bd513	-0.017069375
18	0xbd35817e	-0.044312946
19	0xbd0b6371	-0.03403038
20	0xbbca6432	-0.006176495
21	0xba9c1971	-0.0011909438
22	0xbcbae0dd	-0.022812301
23	0xbd465c76	-0.04842802
24	0xbbd3d7fc	-0.0064649563
25	0xbc3a5f90	-0.011375323
26	0xbd54ea25	-0.05198111
27	0xbca18524	-0.019716807
28	0xbd1cc031	-0.038269226
29	0xba5c3921	-0.0008400847
30	0xbc97fb36	-0.018552404
31	0xbd1fa451	-0.038975064
32	0xbd69928c	-0.057024524
33	0xbcb5c2e2	-0.022187654
34	0xbc339d2a	-0.010962764
35	0xbcd03b85	-0.025419006
36	0xbd3f97bd	-0.04677557
37	0xbd7f7207	-0.062364604
38	0xbca596c0	-0.020213485
39	0x3bc1bdaf	0.0059125046
40	0xbcb43cae	-0.02200159
41	0xbd0b4cb1	-0.034008685
42	0xbbcf6123	-0.0063287183
43	0xbce52dab	-0.027975878
44	0xbbf0efae	-0.007352791
45	0xbcdab72c	-0.026698671
46	0xbd28b802	-0.04119111
47	0xbd5ad4bd	-0.05342554
48	0xbd82a102	-0.06378366
49	0xbd0c4497	-0.0342451
50	0xbcfbeaa6	-0.030751538
51	0xbcb8e7f9	-0.02257155
52	0xbd2cce49	-0.042188916
53	0xbc83937c	-0.016061537
54	0xbb069224	-0.0020533884
55	0xbcbd1214	-0.02307991
56	0xbc848d7a	-0.016180743
57	0xbd2295de	-0.039693706
58	0xbd0e438d	-0.03473239
59	0xbceda224	-0.029007979
60	0xbd31290a	-0.04325203
61	0xbd212548	-0.039342195
62	0xbc827848	-0.015926495
63	0xbb819aac	-0.003955206
64	0x3b090257	0.0020905936
65	0xbd2836d8	-0.041067928
66	0xbcd9aaed	-0.026570762
67	0xbd51da65	-0.051233668
68	0xbd5a69fa	-0.053323723
69	0xbd163d0e	-0.03667932
70	0xbd1474c4	-0.03624417
71	0xbd829853	-0.0637671
72	0xbc983d8e	-0.018584039
73	0xbcf1e4c3	-0.029528027
74	0xbd83cf98	-0.0643608
75	0xbca6ecd8	-0.020376608
76	0x3b939acb	0.0045045367
77	0xbd3f686e	-0.04673045
78	0xbc3cd17e	-0.011524556
79	0xbc70dad2	-0.014700608

1.layers.2.0.weight f4 [80, 240]
0	0xbd2921b7	-0.04129192
1	0x3de4459d	0.1114609
2	0xbdfd4fa2	-0.123687044
3	0x3d88621a	0.066593364
4	0x3d84fe9a	0.06493874
5	0xbd31f301	-0.043444637
6	0x3d1a7c41	0.037716154
7	0xbe07572a	-0.13216844
8	0xbd34a5c7	-0.04410341
9	0x3e0dc1ff	0.13843535
10	0x3e4d1a2e	0.20029518
11	0xbd402e4a	-0.046919145
12	0x3c8919a9	0.016735869
13	0xbd32f6ae	-0.043692283
14	0xbd970cc6	-0.07375483
15	0xbdcf480b	-0.10121163
16	0x3db53993	0.08848872
17	0x3d5f860e	0.054571204
18	0x3d9bf3c3	0.07614853
19	0x3cd9592c	0.026531778
20	0xbdbc0e6b	-0.091824375
21	0xbc03d4da	-0.008046353
22	0xbe0cd214	-0.13752013
23	0x3d926955	0.07148997
24	0xbe03c404	-0.12867743
25	0x3cf6d769	0.030132012
26	0xbdd13f05	-0.10217098
27	0x3d7fb292	0.062426157
28	0xbe512b87	-0.2042676
29	0x3c9ca341	0.019120814
30	0x3e34f6f3	0.17672329
31	0x3da207f1	0.07911671
32	0x3d1c9f22	0.0382377
33	0xbbf56a79	-0.007489499
34	0xbe840bb9	-0.25790194
35	0xbdfc7f2b	-0.12328943
36	0x3d429bfb	0.047512036
37	0x3ce13978	0.027493224
38	0x3bda501d	0.0066623823
39	0x3db22c5f	0.08699869
40	0xbdffea01	-0.124958046
41	0xbdc07909	-0.093980856
42	0x3d76ab8b	0.06022219
43	0xbdcc4a0c	-0.09975061
44	0x3e531cc8	0.20616448
45	0x3d548cee	0.051892214
46	0xbe85e2f1	-0.26149705
47	0xbd2e2bcc	-0.042522237
48	0xbda2e012	-0.07952894
49	0xbc36a267	-0.011147118
50	0xbce71d8c	-0.028212331
51	0xbdd44636	-0.10364954
52	0xbd9ade5b	-0.07561942
53	0x3de52ff2	0.111907855
54	0x3d9237f2	0.07139577
55	0x3d7974e1	0.06090248
56	0x3d1dc490	0.038517535
57	0xbd89aba7	-0.06722193
58	0xbc7915c5	-0.015202944
59	0xbca38624	-0.019961424
60	0x3deccdd1	0.11562694
61	0xbe2a26eb	-0.16616409
62	0xbbfa48dd	-0.0076380805
63	0x3e1ddca6	0.15416202
64	0x3d9aecc6	0.07564692
65	0xbe77a801	-0.24185182
66	0x3e239414	0.15974456
67	0x3d640823	0.055671822
68	0x3e3104ee	0.17287037
69	0x3dfefb86	0.12450318
70	0x3e1afc88	0.15135396
71	0xbc4c3ae3	-0.012465212
72	0xbdc664e7	-0.09687214
73	0x3c64b0f0	0.013958201
74	0xbe0f5352	-0.13996628
75	0xbdbc58bd	-0.09196613
76	0xbc2c2496	-0.01050677
77	0xbcb56afd	-0.022145743
78	0x3cf0d8cd	0.029400254
79	0xbe1cde28	-0.15319121
80	0xbd2c6809	-0.042091403
81	0xbe2d5fae	-0.1693103
82	0x3dd8369a	0.105572894
83	0xbc198ced	-0.009371978
84	0xbd7495e7	-0.05971327
85	0x3d5844e9	0.052800093
86	0xbdd920bd	-0.106019475
87	0x3d0bc537	0.034123626
88	0x3cda8a79	0.026677357
89	0xbc42e3c0	-0.01189512
90	0x3bda74c8	0.0066667534
91	0xbd810f47	-0.06301742
92	0x3d7b2265	0.061312098
93	0xbd19399c	-0.037408456
94	0x3d76c63c	0.060247645
95	0xbbdfb8e0	-0.0068274587
96	0x3da31e45	0.07964758
97	0x3d8a43d0	0.067512155
98	0x3cc04d5b	0.023474386
99	0xbdb74dfa	-0.0895042
100	0x3ccf7625	0.02532489
101	0x3d521aa2	0.05129493
102	0xbbbacfb5	-0.00570103
103	0xbd29016f	-0.041261133
104	0xbd8cda24	-0.068775445
105	0x3df509d4	0.11964765
106	0x3b7425e2	0.0037254025
107	0x3c706d48	0.014674492
108	0xbd6d61a6	-0.057954453
109	0xbdfac78e	-0.12245093
110	0xbd723496	-0.05913218
111	0xbd650829	-0.055915985
112	0xbd189490	-0.037251055
113	0x3d5772c2	0.052599676
114	0xbd4b526a	-0.049639143
115	0x3d79abd4	0.060954884
116	0x3dc981ce	0.098392114
117	0xbdc1385b	-0.09434577
118	0xbdcbe82e	-0.09956394
119	0xbd83c1ca	-0.06433447
120	0xbdb4ef01	-0.08834649
121	0x3ddd8934	0.10817185
122	0x3dbc9889	0.09208781
123	0xbda5d5de	-0.080974326
124	0xbdffc2d9	-0.12488336
125	0xbd44c73d	-0.04804157
126	0xbd926904	-0.071489364
127	0xbd513ab0	-0.05108136
128	0xbe2c6f56	-0.16839346
129	0x3e015976	0.12631783
130	0x3dfc2a6c	0.12312779
131	0xbc9c527e	-0.019082304
132	0xbdb339bf	-0.087512486
133	0xbcd86a8a	-0.02641799
134	0xbd70e036	-0.058807574
135	0x3c0f9d2a	0.008765498
136	0xbdf66fc2	-0.12033035
137	0xbe1c1147	-0.15240966
138	0x3e567d93	0.2094634
139	0x3e10e1c0	0.14148617
140	0xbdcf417b	-0.10119911
141	0x3e5f9d98	0.21837461
142	0x3d0a9b6c	0.033839628
143	0x3d8d3fcc	0.06896934
144	0xbb7904ba	-0.0037997202
145	0x3d394c77	0.04523894
146	0x3debed7c	0.11519906
147	0xbbf21e3b	-0.0073888577
148	0xbd080509	-0.033207927
149	0xbc36c8eb	-0.011156301
150	0xbd190329	-0.03735653
151	0x3d694308	0.05694869
152	0xbd4023cf	-0.04690915
153	0x3d16a3e8	0.036777407
154	0x3cfc5631	0.030802818
155	0x3e1f305d	0.15545793
156	0xbe295c43	-0.16539101
157	0xbc6f80d4	-0.014618117
158	0xbda2a774	-0.079420954
159	0x3e0df2a8	0.13862097
160	0x3e1325fe	0.14369962
161	0xbd75cbda	-0.06000886
162	0x3e2ebcd1	0.17064215
163	0x3d91f3f2	0.07126607
164	0x3d815610	0.06315243
165	0x3d8d9ecb	0.06915053
166	0x3d1a90a5	0.0377356
167	0xbe77426b	-0.2414643
168	0x3d016dd5	0.031598885
169	0xbf03b3f1	-0.51446444
170	0x3dee8a69	0.116474934
171	0xbe1d4b23	-0.15360694
172	0xbd8487ef	-0.0647124
173	0x3e256c0e	0.16154501
174	0x3e3ac5ab	0.18239467
175	0xbe592148	-0.21204102
176	0xbd926f04	-0.07150081
177	0x3d30e2e5	0.043185133
178	0xbbd7eee3	-0.006589757
179	0x3db7a942	0.0896783
180	0x3d6e342b	0.05815522
181	0x3e3b915c	0.18317169
182	0x3ce012af	0.027352659
183	0x3cd35546	0.025797497
184	0xbd941aa3	-0.07231643
185	0xbd2d8f22	-0.04237283
186	0xbdb636f0	-0.08897197
187	0x3bdae672	0.0066803033
188	0x3da436d7	0.08018272
189	0x3e806408	0.25076318
190	0xbd92eded	-0.07174287
191	0x3dc25c8a	0.09490307
192	0xbe2a2624	-0.16616112
193	0xbd464a7e	-0.048410885
194	0x3e2e6787	0.1703168
195	0xbda88daa	-0.08230145
196	0x3de3c2bc	0.11121127
197	0x3df5f618	0.12009829
198	0x3e0f9cf7	0.14024721
199	0x3d74bd54	0.05975087
200	0x3d317358	0.04332289
201	0xbccb9e8d	-0.024855876
202	0x3d0ccfaa	0.03437773
203	0x3e69cb82	0.22831538
204	0xbd46be7b	-0.0485215
205	0xbd0d6266	-0.03451767
206	0xbda6c003	-0.08142092
207	0xbcd7aa9d	-0.026326472
208	0x3de62519	0.112375446
209	0xbde26dd9	-0.11056108
210	0xbd9c6b98	-0.076377094
211	0xbd277b0b	-0.040888827
212	0x3ce25ee1	0.027633132
213	0x3d4e8bd5	0.050426323
214	0x3b873ba0	0.004126981
215	0xbc9faa6f	-0.019490449
216	0xbdbf9339	-0.09354252
217	0xbd8b35d4	-0.06797376
218	0x3c5314f0	0.01288341
219	0x3d6cd02d	0.05781572
220	0xbd554019	-0.05206308
221	0x3d1a8bf2	0.03773112
222	0x3df00895	0.11720387
223	0x3df14b1b	0.11781903
224	0x3e2f8f19	0.17144431
225	0xbe35752f	-0.17720483
226	0x3da3f51c	0.08005735
227	0xbcd0cd84	-0.025488622
228	0xbda23ebd	-0.07922123
229	0xbd1219fe	-0.03566932
230	0x3ba79c0a	0.005115037
231	0xbc988215	-0.018616715
232	0xbd0e4ffd	-0.03474425
233	0x3d899ec9	0.06719739
234	0xbd95ebf8	-0.07320398
235	0x3e19f92e	0.15036461
236	0xbe0aa102	-0.13537982
237	0x3cb78bc0	0.022405505
238	0x3c61d61c	0.013783958
239	0xbd3ad64a	-0.04561452
240	0xbdde57aa	-0.10856564
241	0xbdbfa88d	-0.093583204
242	0x3d692c15	0.056926806
243	0x3b68fbd1	0.0035550485
244	0xbe5b52d7	-0.2141832
245	0x3d9f6c3e	0.077843174
246	0x3deb4848	0.11488396
247	0xbe094a52	-0.13407257
248	0xbe8ffe6b	-0.28123793
249	0x3c82ba40	0.015957952
250	0xbe4c7811	-0.19967677
251	0x3da7cefa	0.081937745
252	0xbc248169	-0.010040619
253	0x3ca1a6fc	0.019732945
254	0xbce669eb	-0.028126677
255	0x3db96109	0.09051711

1.layers.3.0.bias f4 [80]
0	0xbbf11aa7	-0.0073579135
1	0xbc89e3cb	-0.016832253
2	0xbd3dfd2b	-0.046384018
3	0xbc4f0539	-0.0126355225
4	0xbcdf7653	-0.027278101
5	0xbcc3e810	-0.023914367
6	0xbd018449	-0.031620298
7	0xbcce7f03	-0.025207048
8	0xbce6fd3e	-0.028196927
9	0xbc9c9883	-0.019115692
10	0xbd14f35f	-0.03636491
11	0xbd2b9f8c	-0.041900203
12	0xbc0c354c	-0.008557629
13	0xbca0447d	-0.019563908
14	0xbc23ff48	-0.010009594
15	0xbbc2dcda	-0.0059467377
16	0x3c16292a	0.009165088
17	0xbc28f345	-0.010311906
18	0xbcc68349	-0.024232524
19	0xbcf5de12	-0.030013118
20	0xbcffbba4	-0.031217404
21	0xbce7c3a9	-0.02829154
22	0xbc487206	-0.012234217
23	0x3bab7e88	0.0052335896
24	0xbd32aef3	-0.043623876
25	0xbcdb552f	-0.026774017
26	0xbc9745e6	-0.018465947
27	0xbc9295a4	-0.01789362
28	0xbcbd49a3	-0.023106402
29	0xbc474d1e	-0.012164382
30	0xbc103760	-0.008802265
31	0xbc5528be	-0.013010202
32	0x3a5b877a	0.00083743746
33	0xbcc1f79b	-0.023677638
34	0xbcbac4ae	-0.022798862
35	0xbd424102	-0.047425278
36	0xbce98a19	-0.028508233
37	0xbc2c96f3	-0.010534036
38	0xbc3f1fb2	-0.011665272
39	0xbc137828	-0.009000815
40	0xbb803ba0	-0.003913358
41	0xbd059fc1	-0.032623056
42	0xbc66d2ec	-0.014088374
43	0xbb824b40	-0.0039762557
44	0xbc449be2	-0.012000056
45	0xbd0cc370	-0.03436607
46	0xbd11ad51	-0.035565678
47	0xbcb0c04e	-0.021576073
48	0x3b8795a7	0.004137713
49	0xbd762dcb	-0.060102265
50	0xbc17b717	-0.009259961
51	0xbc6f54db	-0.014607633
52	0xbd1b915e	-0.03798043
53	0xbcc861a4	-0.024460621
54	0xbcf078b4	-0.02935443
55	0xbca3a860	-0.019977748
56	0xbba3ecde	-0.005002602
57	0xbd531e49	-0.051542554
58	0xbbb93777	-0.005652364
59	0xbd446bff	-0.047954556
60	0xbca9bce0	-0.020719945
61	0xbcd58133	-0.026062584
62	0xbcb75ab2	-0.022382114
63	0xbbc8b24c	-0.0061247703
64	0xbca59851	-0.020214232
65	0xbbea0232	-0.007141375
66	0xbd18a9db	-0.03727136
67	0xbcaa0ffc	-0.020759575
68	0xbd0ec459	-0.03485522
69	0xbd38e196	-0.04513701
70	0xbcde8d15	-0.027166883
71	0xbc3a8c1c	-0.011385944
72	0xbccf5513	-0.025309121
73	0xbcf71ac9	-0.03016414
74	0xbcfe00ab	-0.031006178
75	0xbd04a435	-0.032383163
76	0xbc9a2995	-0.018818656
77	0xbd164e2b	-0.03669564
78	0xbd022e54	-0.031782463
79	0xbd5d5d01	-0.054043774

1.layers.3.0.weight f4 [80, 320]
0	0xbd46cd0d	-0.048535395
1	0xbc595f4d	-0.01326735
2	0xbd88d33e	-0.06680916
3	0xbdb41dc4	-0.0879474
4	0xbd19fa0f	-0.03759199
5	0xbd2f7cb9	-0.042843554
6	0xbd8dfbfc	-0.06932828
7	0xbd9dffdc	-0.07714817
8	0xbd0fe622	-0.03513158
9	0xbd941ccb	-0.07232054
10	0x3e445cc1	0.19176008
11	0x3d7eee06	0.062238716
12	0xbd920f0d	-0.07131777
13	0x3c769fb4	0.015052725
14	0xbd193529	-0.037404213
15	0x3cc1b06b	0.023643693
16	0x3dbcf4f6	0.0922641
17	0x3d1d222b	0.038362663
18	0xbdd51653	-0.10404649
19	0x3daabf73	0.08337297
20	0xbdcbdca4	-0.09954193
21	0x3c6f1750	0.0145929605
22	0xbc549009	-0.012973794
23	0xbcf6fce7	-0.03014989
24	0xbcb93c2e	-0.022611704
25	0xbddf6b26	-0.10909109
26	0xbd9ae723	-0.07563617
27	0xbca22377	-0.019792302
28	0x3c939c24	0.01801879
29	0xbce42c61	-0.027853193
30	0x3d5a17f8	0.053245515
31	0x3dcfd1ed	0.10147462
32	0x3a20274f	0.0006109373
33	0x3d3fc451	0.04681808
34	0x3d452fff	0.048141476
35	0xbdbf9bcb	-0.09355887
36	0xbc0c950d	-0.008580458
37	0xbcfa769b	-0.030574134
38	0xbe052039	-0.13000573
39	0xbdc36734	-0.09541169
40	0x3e034478	0.12819088
41	0x3bb84f1b	0.0056246645
42	0x3e188a2a	0.14896455
43	0xbe141187	-0.14459811
44	0xbdb44567	-0.088023
45	0x3d954b9e	0.072898135
46	0xbd7d3a2a	-0.061823048
47	0xbd2d95d6	-0.042379223
48	0xbda1a363	-0.07892492
49	0x3dbbf9af	0.09178483
50	0x3dd66276	0.10467999
51	0xbd7e3e38	-0.062071055
52	0xba61ebe0	-0.0008618217
53	0x3df102da	0.11768122
54	0xbc031d3c	-0.0080025755
55	0xbd4d25b8	-0.0500848
56	0xbe09f6fc	-0.13473123
57	0x3dcc6aa8	0.099812806
58	0x3c508f6a	0.012729505
59	0xbc4b22f5	-0.012398471
60	0x3c74a121	0.014930994
61	0x3c455f14	0.012046594
62	0x3cac59dc	0.021038942
63	0x3ca5a04d	0.020218039
64	0x3d5ab31e	0.053393476
65	0x3e086435	0.13319476
66	0xbcc54ce9	-0.024084525
67	0xbe409dc5	-0.18810184
68	0x3dadb4ea	0.08481772
69	0x3cee73e0	0.029107988
70	0xbd3ab4e0	-0.045582652
71	0x3d95e66c	0.0731934
72	0xbc780f1e	-0.015140323
73	0xbd9ab9e6	-0.075549886
74	0x3c72a3f1	0.0148095945
75	0x3e68c7e2	0.22732499
76	0x3dfe25fd	0.124095894
77	0xbd7d8d6c	-0.06190245
78	0xbb5aa586	-0.003336282
79	0xba14a923	-0.0005670955
80	0xbd935b23	-0.07195117
81	0x3ddfba47	0.109242015
82	0x3c17822a	0.009247342
83	0x3c908325	0.01764066
84	0xbd96794f	-0.073473565
85	0x3df29345	0.11844496
86	0xbe181ed8	-0.14855516
87	0x3da4cdb3	0.080470465
88	0xbd8794ee	-0.06620203
89	0xbb502347	-0.0031759308
90	0x3d447a68	0.0479683
91	0x3dfbc56b	0.12293514
92	0x3dcbee91	0.09957612
93	0x3d9df33e	0.077124104
94	0x3e28bf43	0.1647921
95	0x3cc61a8d	0.024182582
96	0xbd997eed	-0.07494912
97	0x3d8db444	0.069191486
98	0xbddcbd02	-0.10778238
99	0x3daaa8df	0.08332991
100	0xbe2e1edb	-0.17003958
101	0x3d1df87b	0.038567048
102	0x3da2d13c	0.079500645
103	0xbdac0914	-0.08400169
104	0xbc4ee18a	-0.012627015
105	0xbd032e69	-0.032026682
106	0xbd48d7f7	-0.049034085
107	0x3d34a5e7	0.04410353
108	0xbdb0bcbd	-0.08629749
109	0xbe2668cb	-0.16250913
110	0x3cdc700e	0.0269089
111	0xbdf529e0	-0.11970878
112	0xbc420822	-0.011842759
113	0xbd78450d	-0.060612727
114	0xbd288b8b	-0.041148704
115	0xbc17e4d9	-0.00927087
116	0xbb9e7c4a	-0.0048365938
117	0xbd61e460	-0.055149436
118	0x3cb3f776	0.021968585
119	0xbd0e111a	-0.034684278
120	0x3ccc9b71	0.024976464
121	0xbe2f49ba	-0.17117968
122	0x3cb6957e	0.02228808
123	0x3dabf301	0.08395959
124	0x3d45a02f	0.048248466
125	0x3e1955e8	0.14974177
126	0xbd487ccf	-0.04894715
127	0xbda0c8cf	-0.07850801
128	0x3e5ff567	0.21870957
129	0xbb0d9a00	-0.0021606684
130	0x3d9d6d6b	0.076868854
131	0x3c6c8a69	0.014437296
132	0xbe064cdb	-0.13115256
133	0xbda6cb47	-0.08144241
134	0x3c4c857e	0.012482999
135	0x3c2a5b2b	0.010397713
136	0xbda0ac5b	-0.07845374
137	0xbe15a1f7	-0.14612566
138	0x3e06c0cf	0.13159488
139	0xbdd581a0	-0.10425115
140	0xbdbccc9a	-0.09218712
141	0x3dd9d347	0.10636001
142	0xbdcfdb85	-0.10149292
143	0x3b874e3f	0.0041292007
144	0x3ce5a978	0.02803491
145	0x3b98caf2	0.004662865
146	0x3e044924	0.12918526
147	0xbd39b6fc	-0.045340523
148	0xbe358aa0	-0.17728662
149	0xbd570ada	-0.052500583
150	0x3dcc07e2	0.09962441
151	0xbd5a47bf	-0.05329108
152	0x3d021e4c	0.031767175
153	0xbbb42bcc	-0.005498385
154	0x3cbbb3ca	0.022912879
155	0x3d23a6b4	0.039953902
156	0x3d714c07	0.058910396
157	0xbe3718fa	-0.17880622
158	0x3dcd2e10	0.10018551
159	0x3cdb9709	0.026805418
160	0xbc973a6a	-0.018460471
161	0x3ddc4fe6	0.10757427
162	0xbd24706a	-0.04014627
163	0xbdabbc36	-0.08385508
164	0x3c5fe195	0.013664623
165	0xbdc46c04	-0.09590915
166	0x3e06b9a0	0.13156748
167	0xbdebaece	-0.11507951
168	0xbd770cfb	-0.060315114
169	0xbc51a2c3	-0.012795153
170	0xbc02dd4a	-0.00798733
171	0xbd70bc10	-0.0587731
172	0xbb50cc57	-0.0031860077
173	0xbb8ddb6e	-0.0043291366
174	0xbdafead9	-0.085897155
175	0x3c6ad145	0.01433212
176	0x3d38f913	0.04515941
177	0xbca5fd57	-0.020262403
178	0xbc96303d	-0.018333549
179	0xbe1033a0	-0.14082193
180	0xbdb47161	-0.08810688
181	0xbdecf084	-0.11569312
182	0x3d74caed	0.059763838
183	0x3d9094bb	0.07059618
184	0xbd4e9c1d	-0.05044185
185	0xbdc4710b	-0.09591874
186	0x3dba7699	0.09104652
187	0xbc9e1045	-0.019294867
188	0x3d90445f	0.07044291
189	0xbd366d44	-0.044537798
190	0x3b9b81bb	0.0047456897
191	0xbdc4beed	-0.09606729
192	0x3cdb639c	0.026780896
193	0xbda5f6a4	-0.081036836
194	0xbced61d5	-0.028977314
195	0x3ddae1b7	0.10687583
196	0x3d2c67d0	0.04209119
197	0x3d02ecbf	0.03196406
198	0xbc98d4fd	-0.018656248
199	0xbd364516	-0.04449948
200	0xbd223348	-0.039599687
201	0x3b89121e	0.004183068
202	0x3d51a78d	0.05118518
203	0x3b69cfc1	0.003567681
204	0xbdb70349	-0.089361735
205	0xbcc6e7a5	-0.024280379
206	0xbc14ba5d	-0.009077636
207	0xbcaae8c1	-0.020862939
208	0x3db6c907	0.08925062
209	0x3e2201ed	0.15821047
210	0x3c073fe5	0.00825498
211	0xbd167c2c	-0.036739513
212	0xbcd2162f	-0.025645344
213	0x3e17a676	0.14809594
214	0x3d4694d6	0.048481785
215	0x3d54a4c7	0.051914956
216	0x3d11e6a9	0.035620365
217	0xbd84e919	-0.06489772
218	0x3d107853	0.035271
219	0x3e53f3a0	0.20698404
220	0xbd94a956	-0.07258861
221	0xbd21d70d	-0.03951173
222	0xbc12d136	-0.008961013
223	0x3dc2c502	0.095102325
224	0x3c99e720	0.018786967
225	0xbcf5ca6a	-0.030003745
226	0xbda60a29	-0.08107407
227	0x3dfc7c48	0.12328392
228	0x3d7bb73a	0.061454035
229	0xbdc4064d	-0.09571514
230	0x3d3ce36c	0.046115324
231	0xbdb07aa2	-0.0861714
232	0x3d161397	0.036639776
233	0x3e422b90	0.1896193
234	0xbdb04f10	-0.0860883
235	0x3cb9cffa	0.022682179
236	0x3d469aad	0.048487354
237	0x3c31626d	0.010826689
238	0xbd9c23a3	-0.07623985
239	0xbdf75eda	-0.120786384
240	0xbe85b0e8	-0.2611153
241	0xbd72ffbe	-0.059325926
242	0x3d4d882e	0.0501787
243	0x3db83e79	0.08996291
244	0xbe388d27	-0.18022595
245	0x3df0bb08	0.117544234
246	0xbd9721c8	-0.0737949
247	0xbd7204af	-0.059086498
248	0xbd8d34a3	-0.06894805
249	0xbd98bfc7	-0.074584536
250	0xbc32d08e	-0.010913981
251	0x3cb8d5fc	0.022562973
252	0xbcef5f17	-0.029220147
253	0xbdaecbb2	-0.085349455
254	0x3c6b691d	0.014368323
255	0x3c1bf164	0.009518001

1.layers.4.0.bias f4 [80]
0	0xbcb05897	-0.021526618
1	0xbca44603	-0.020052915
2	0xbc3b38e2	-0.011427136
3	0xbc1d5e00	-0.009604931
4	0xbd1a5f9b	-0.037688833
5	0xbc763541	-0.015027345
6	0xbca61d97	-0.020277781
7	0xbc742f66	-0.014903879
8	0xbccfdf9e	-0.025375184
9	0xbb49b075	-0.0030775343
10	0xbd2e5f75	-0.042571504
11	0xbc5abd39	-0.013350778
12	0xbb6870ac	-0.0035467548
13	0xbcbfc489	-0.023409145
14	0xbb34362c	-0.002749811
15	0xbcd3b4bc	-0.025843017
16	0xbcb68098	-0.022278115
17	0xbbf6ba52	-0.0075295353
18	0xbcc92049	-0.024551528
19	0xbc303ec7	-0.010757155
20	0xbc3ea336	-0.011635592
21	0xbc8e9d22	-0.017408911
22	0xbd27fd87	-0.041013267
23	0xbc473831	-0.012159393
24	0xbce54bac	-0.027990185
25	0xbd0f43d0	-0.03497678
26	0xbd4b3b6f	-0.049617227
27	0xbd257e88	-0.040403873
28	0xbc68be6e	-0.014205558
29	0xbca016fb	-0.019542208
30	0xbd16b93d	-0.03679775
31	0xbca96a0c	-0.02068045
32	0xbccb2f5e	-0.02480286
33	0xbd00b44d	-0.03142195
34	0xbd039224	-0.032121792
35	0xbc768364	-0.015045974
36	0xbd06497d	-0.032784928
37	0xbd1729b5	-0.03690501
38	0xbc7c3732	-0.015394019
39	0xbd5edaa8	-0.054407746
40	0xbced8c78	-0.028997645
41	0xbc9e739f	-0.019342242
42	0xbc68ad6a	-0.014201501
43	0xbc273bcd	-0.010207129
44	0xbcffb3d6	-0.031213682
45	0xbd076c11	-0.033062045
46	0xbc4ae9c7	-0.012384838
47	0xbd1d089e	-0.038338296
48	0xbcc799ea	-0.024365384
49	0xbcd9c2b8	-0.026582107
50	0xbcb845d3	-0.022494232
51	0xbbe887c0	-0.007096261
52	0x36831511	3.9065567e-06
53	0xbce563fd	-0.02800178
54	0xbb52c7dc	-0.0032162583
55	0xbc217c89	-0.009856352
56	0xbcb9b7b1	-0.022670599
57	0xbc90a15b	-0.017655065
58	0xbcae6d49	-0.021292346
59	0xbc9a5573	-0.018839573
60	0xbceda61f	-0.029009877
61	0xbbaa6ca0	-0.0052009374
62	0xb95cf5aa	-0.00021072352
63	0xbd28ad5f	-0.041180965
64	0xbc366851	-0.011133269
65	0xbd1a7960	-0.03771341
66	0xbd14c89a	-0.03632412
67	0x3b714e91	0.003682051
68	0xbd2bb358	-0.041919082
69	0xbc8c72f2	-0.017144654
70	0xbd2ac696	-0.041693293
71	0xbcfb88da	-0.030704904
72	0xbc90cf23	-0.017676895
73	0xbbb206da	-0.0054329457
74	0xbcede137	-0.029038055
75	0xbc0257b0	-0.007955477
76	0xbd032e62	-0.032026656
77	0xbd155b1c	-0.03646384
78	0xbd205393	-0.039142203
79	0xbc28fb0b	-0.01031376
