DNNWeights/model/ensemble_0/selected_set_0_0_3.onnx (onnx, 872444 bytes, 17 tensors)

0.embeds.0.weight f4 [2, 1]
0	0x3e2ef8b8	0.17087066
1	0xbf9cb64a	-1.224313

0.embeds.1.weight f4 [3, 2]
0	0xbed95376	-0.42446488
1	0x3f8462ae	1.0342615
2	0x3f322ff2	0.6960441
3	0x3f8cca66	1.0999267
4	0xbf293a10	-0.6610422
5	0xbf30b051	-0.6901904

0.embeds.2.weight f4 [2, 1]
0	0xbf1cd3e7	-0.6126084
1	0xc02c44a2	-2.691689

0.embeds.3.weight f4 [2019, 50]
0	0xbf877cdf	-1.0584983
1	0x3f762728	0.961535
2	0xbf305974	-0.68886495
3	0x3f7d2cfd	0.9889677
4	0x3e83eb79	0.2576559
5	0xbd3f7d45	-0.046750326
6	0x3f188e56	0.5959219
7	0xbf1451c2	-0.5793725
8	0x3f1695bb	0.5882222
9	0x3fc1f35b	1.5152391
10	0xbf706a31	-0.93912035
11	0x3fbab603	1.4586796
12	0xbea652a8	-0.32484937
13	0x3e2cc138	0.16870582
14	0xbe506c84	-0.20353895
15	0xbea1f05c	-0.31628692
16	0x3f023603	0.50863665
17	0xbf60cfbe	-0.8781699
18	0x3f78e0dc	0.9721811
19	0xbf1bea1b	-0.6090409
20	0xbef1359f	-0.47111222
21	0x401ecdd0	2.4813118
22	0x400698e1	2.103081
23	0x3f743ce2	0.954054
24	0xbf82ddad	-1.02239
25	0x3ec472ba	0.3836878
26	0xbdce759f	-0.10081028
27	0xbfdfcd7e	-1.7484586
28	0xbf1d580a	-0.6146246
29	0x3eaafdf7	0.33396885
30	0x3f001e97	0.50046676
31	0x3e41f686	0.18941697
32	0xbfcbc30f	-1.5918902
33	0x3f879560	1.0592461
34	0xbf2d161b	-0.67611855
35	0x3f13cfcf	0.57738966
36	0xbf1d79e0	-0.6151409
37	0xbe013b1f	-0.12620209
38	0xbf886cd9	-1.0658218
39	0xbfae3211	-1.3609029
40	0xbf02464e	-0.50888526
41	0x3eb3cb31	0.3511596
42	0xbdcc4810	-0.09974682
43	0xbe84a2e2	-0.2590552
44	0x3f8b082f	1.0861872
45	0x3faf39c2	1.3689501
46	0xbf19560d	-0.5989693
47	0x3f536064	0.82568955
48	0x3da95e13	0.08269896
49	0x3f4f3b62	0.80949986
50	0xbfb56c6d	-1.4173714
51	0xbe89b59d	-0.26896372
52	0xbef5b353	-0.47988376
53	0xbf1d51fc	-0.61453223
54	0x3fe8e498	1.8194761
55	0xbec0bdcd	-0.37644807
56	0xbb00cf10	-0.001965467
57	0xbeaa0faf	-0.3321509
58	0x3f8e02b1	1.1094571
59	0xbf077656	-0.5291494
60	0x3f022bcd	0.50848085
61	0xbeeb4c0c	-0.45956457
62	0xc01a4c4e	-2.4109073
63	0x3e3b6a73	0.18302326
64	0xbebbbfdd	-0.36669818
65	0xbe96d70f	-0.29460952
66	0x3fb6e984	1.4290013
67	0xbea22f23	-0.31676587
68	0x3f7ef5c9	0.9959379
69	0xbf05370b	-0.52037114
70	0x3f2fc3dc	0.6865823
71	0xbf91b701	-1.1383973
72	0x3f80d27d	1.0064236
73	0x3f8be0fe	1.0928037
74	0x3e856ea8	0.26060987
75	0x3fce94bc	1.613914
76	0x3ec505fa	0.38481122
77	0xbee6f43d	-0.45108214
78	0x3ebce1f9	0.36891153
79	0xbf51d6ac	-0.8196819
80	0xbf1588cf	-0.5841188
81	0xbfda97b0	-1.7077541
82	0x3f032c97	0.51239914
83	0xbd987fec	-0.07446274
84	0xbe2d2b12	-0.16910961
85	0x3fc38d42	1.5277483
86	0xbfc28a25	-1.5198408
87	0x3f2beec3	0.67161196
88	0xbf772133	-0.96535033
89	0xbf6b62ea	-0.91947806
90	0xbf327901	-0.6971589
91	0x3e45beca	0.19311062
92	0xbfde82f9	-1.738372
93	0xbe7264f3	-0.23671322
94	0x3fef05fc	1.8673701
95	0xbf4a63b5	-0.7905839
96	0xbf2bb9bd	-0.6708029
97	0xbff32d88	-1.899827
98	0xbf579a23	-0.8421957
99	0xbe34b0c7	-0.1764556
100	0x3e2cbcf9	0.16868962
101	0xbfd1c29d	-1.6387516
102	0xbf802b00	-1.0013123
103	0x3f038849	0.5137983
104	0x401ac206	2.4180923
105	0x3f541417	0.82843155
106	0xc00a1420	-2.1574783
107	0xbf2a411b	-0.66505593
108	0x3e9e7faf	0.3095679
109	0xbf7ca818	-0.9869399
110	0x3f1efecb	0.62107533
111	0x3f6b49df	0.91909593
112	0x3f5d4580	0.86434174
113	0xbf158cae	-0.58417785
114	0xbf806c3b	-1.0033029
115	0x3fc67545	1.5504538
116	0x3e97a243	0.29615983
117	0xbed1f119	-0.41004255
118	0xbf96b3b0	-1.1773586
119	0x3fe3991c	1.77811
120	0x3f484d4f	0.78242964
121	0xc00cec83	-2.2019355
122	0xbf438c45	-0.7638591
123	0x3d47079e	0.04859125
124	0x3f43b8fc	0.7645414
125	0xbf6085e6	-0.8770431
126	0xbfe49cff	-1.7860411
127	0x3eda40f6	0.42627686
128	0xbf19d1b4	-0.60085607
129	0x3e2a6529	0.16640152
130	0x3f1d6304	0.6147921
131	0x3f721ce0	0.9457531
132	0x3e69af2a	0.22820726
133	0xbedcaf30	-0.43102407
134	0xbf79b5be	-0.9754294
135	0x3f509b2d	0.8148678
136	0x3d0cd278	0.034380406
137	0xbfa37bd5	-1.2772166
138	0x3f63f8ac	0.8905132
139	0x3c4f56af	0.012654944
140	0xbfbc520d	-1.471254
141	0x3cf3c42c	0.029756628
142	0x3f8ed839	1.1159736
143	0x3ec468e5	0.38361278
144	0x3f378b1a	0.7169663
145	0x3ee81051	0.45324948
146	0x3e840e79	0.25792292
147	0x3e8ef6fe	0.27922815
148	0x3eef57b2	0.46746594
149	0xbf979b35	-1.184424
150	0x401afdf5	2.4217503
151	0xbedcbe55	-0.43113962
152	0xbf56a7f1	-0.8385001
153	0x3f87be4f	1.0604953
154	0xbf48af95	-0.78392917
155	0xbfa4b031	-1.2866269
156	0x3eafd05e	0.3433866
157	0xbf46f9ec	-0.777251
158	0x3dcf2349	0.10114152
159	0xbe1cf565	-0.15327986
160	0x3f0a35b6	0.53988206
161	0xbc8c28ab	-0.017109236
162	0xbe24003c	-0.16015714
163	0xbffebd7d	-1.9901577
164	0x3d90528a	0.07046993
165	0x3f2f91e9	0.68582016
166	0xbcf0a6f6	-0.029376488
167	0x4014f130	2.327221
168	0xbe4e53b2	-0.20149115
169	0xc0029932	-2.0406003
170	0xbedcc840	-0.4312153
171	0x40093df9	2.1444075
172	0xbdd9f15c	-0.10641739
173	0xbe933816	-0.28753728
174	0xbe6333f6	-0.2218779
175	0x3dce2f82	0.10067655
176	0xbf1c330f	-0.6101541
177	0x3da277f7	0.07933038
178	0xbf1d89e0	-0.61538506
179	0x3fbd89f2	1.4807723
180	0xbf925d7f	-1.1434783
181	0xbfad47b9	-1.3537513
182	0xbf8ce30c	-1.1006789
183	0xc0252dc1	-2.5809176
184	0x3e7f2a5d	0.24918504
185	0x3f6f7d21	0.93550307
186	0xbf92c161	-1.1465265
187	0x3e705f27	0.23473798
188	0x3ea1188d	0.31464043
189	0x3f921972	1.1414015
190	0x400679e0	2.1011887
191	0xbf10467d	-0.56357557
192	0xbfabb827	-1.3415574
193	0xbf91bdb8	-1.1386023
194	0x3f653e41	0.89548117
195	0x3fba595b	1.4558519
196	0x3eda5d7b	0.42649445
197	0x3f5b71f3	0.8572075
198	0x3e45d865	0.19320829
199	0xbf4f0ddc	-0.8088052
200	0x3ea1c6c1	0.3159695
201	0xbed0acc7	-0.4075682
202	0xbc178003	-0.009246829
203	0x40071025	2.1103604
204	0x3b9d30ba	0.0047970684
205	0xc00995d1	-2.149769
206	0xbf24de5a	-0.6440178
207	0x3f3e0d1a	0.7423874
208	0x3f15e3fa	0.5855099
209	0x3fa2936b	1.2701238
210	0xbf1c4faf	-0.6105909
211	0x3fe51e6e	1.7899911
212	0x3ea3c9b1	0.31989816
213	0x3fc99790	1.5749378
214	0xbee4e70f	-0.44707534
215	0x3eee46e0	0.46538448
216	0xbfb68070	-1.4257946
217	0x3d51a670	0.051184118
218	0x3f12bf5b	0.57323235
219	0xbf2b3a52	-0.66885865
220	0x3ea871ea	0.3289941
221	0x3fc8d9a7	1.5691422
222	0xbf30b4a6	-0.6902565
223	0x3ef5b8fc	0.47992694
224	0x3e375afa	0.17905799
225	0x3fb4b286	1.4116981
226	0xbeb9991f	-0.36249635
227	0xbfc4228e	-1.5323045
228	0xc0141a6d	-2.314113
229	0xbc65405f	-0.013992398
230	0xbea220cf	-0.31665656
231	0xc01d35c3	-2.4564064
232	0xbf97b545	-1.1852194
233	0xbed5b7d5	-0.41741815
234	0x3f9a1e02	1.2040408
235	0x3f23fe75	0.64060146
236	0xbf143586	-0.5789417
237	0xbfcf3107	-1.6186837
238	0xbf8db8fe	-1.107208
239	0xbfa60ccc	-1.2972655
240	0x3d920d9c	0.07131502
241	0xbfab42d3	-1.3379768
242	0xbf81bc8f	-1.0135669
243	0x3ce68991	0.028141769
244	0xbe8ea4bf	-0.27860066
245	0x3ef49fe5	0.4777824
246	0xbea985ab	-0.33109793
247	0xbfb49fb0	-1.4111233
248	0xbf315be8	-0.6928086
249	0xbfb662bc	-1.4248881
250	0x3ed4984c	0.41522443
251	0x3cd465a2	0.025927369
252	0x3dd1f3dc	0.102515906
253	0x40062a8a	2.0963464
254	0x3f3aa929	0.7291437
255	0x3f8ae3dd	1.0850788

1.layers.0.0.weight f4 [74, 74]
0	0x3e135927	0.14389478
1	0xbec0ed22	-0.37680918
2	0x3db53e01	0.08849717
3	0xbe149d2a	-0.14513078
4	0xbd8c2f53	-0.06844964
5	0x3db80327	0.08984976
6	0xbe02324c	-0.12714499
7	0x3d1edeaa	0.038786568
8	0x3dbbf0aa	0.091767624
9	0x3c233d2b	0.009963314
10	0xbe210b4f	-0.1572697
11	0xbe6194a6	-0.22029361
12	0xbe55412e	-0.20825645
13	0x3e6c1242	0.2305384
14	0x3e214115	0.15747483
15	0xbe718336	-0.23585209
16	0xbd88337a	-0.066504434
17	0x3d6a3c0a	0.057186164
18	0x3e4378e0	0.19089079
19	0xbd9bfeee	-0.07616983
20	0x3d864490	0.06556046
21	0x3c3cfa7d	0.01153433
22	0xbebe57e9	-0.37176445
23	0x3de8f44d	0.11374722
24	0x3d4bc8a8	0.049751908
25	0x3e1ce774	0.15322667
26	0x3d6654ac	0.056233093
27	0xbdff9082	-0.124787346
28	0xbeb50baa	-0.3536046
29	0xbcfaeab3	-0.030629491
30	0x3d4033ac	0.04692428
31	0xbe53ac73	-0.20671253
32	0x3d466ac1	0.048441652
33	0xbde8bb0e	-0.11363803
34	0x3d44b2d2	0.0480221
35	0xbe0aed32	-0.13567045
36	0x3e69c797	0.22830044
37	0xbd574192	-0.052552767
38	0x3dcefbc6	0.10106616
39	0x3e8cd618	0.2750709
40	0x3da13f54	0.07873407
41	0x3e56e359	0.20985164
42	0xbdaf9fe9	-0.08575422
43	0x3d071eef	0.032988485
44	0xbe70a4b8	-0.23500335
45	0xbd437ef0	-0.04772848
46	0x3cf5eeae	0.030021038
47	0x3e5f2271	0.21790482
48	0xbe577d34	-0.21043855
49	0xbe5864fe	-0.21132275
50	0xbe0bcdd7	-0.1365274
51	0xbe6fdfc0	-0.23425198
52	0x3dacae58	0.08431691
53	0x3d910cfb	0.07082554
54	0x3e2065aa	0.15663782
55	0x3d43cfe7	0.047805693
56	0xbe05f9ae	-0.13083526
57	0xbe4b5af4	-0.19858915
58	0xbdfe504e	-0.12417661
59	0x3d9e448f	0.0772792
60	0x3e84a731	0.25908807
61	0x3e5e6c6c	0.21721047
62	0xbc84523e	-0.016152497
63	0x3bfcfa8f	0.0077202986
64	0x3df969a7	0.12178355
65	0xbde61533	-0.11234512
66	0x3e53bbbe	0.20677087
67	0x3df23156	0.11825816
68	0x3cd8dc9a	0.026472379
69	0xbc5fe80b	-0.013666163
70	0xbe1af5fc	-0.15132898
71	0x3e406d0d	0.187916
72	0xbe993b3d	-0.29928008
73	0xbd8d2b40	-0.06893015
74	0x3d4d60ad	0.050141025
75	0xbebf902b	-0.3741468
76	0x3e30f97c	0.1728267
77	0x3e374227	0.17896329
78	0xbe7d035d	-0.24708314
79	0xbeeccc88	-0.46249795
80	0xbdf5ae08	-0.119960845
81	0xbda187c3	-0.078872226
82	0xbe044f6a	-0.12920919
83	0x3ded1680	0.11576557
84	0x3eba2930	0.3635955
85	0xbd869883	-0.06572058
86	0xbbed003f	-0.0072326954
87	0xbde02d4a	-0.10946138
88	0xbbe27076	-0.006910379
89	0x3ea1f6f3	0.3163372
90	0x3e40174c	0.18758887
91	0xbe86219c	-0.26197517
92	0xbd0aa712	-0.033850737
93	0xbd221c2a	-0.03957764
94	0x3e4a4551	0.19753005
95	0xbd23865a	-0.03992305
96	0xbe4a38e9	-0.19748272
97	0xbda87939	-0.082262464
98	0x3ebbc779	0.36675623
99	0x3e5d1605	0.21590431
100	0x3d00051f	0.031254884
101	0x3e636af8	0.22208774
102	0x3ddc9250	0.107700944
103	0x3ebdaff6	0.3704831
104	0xbdc98b39	-0.09841008
105	0x3dcdb719	0.10044689
106	0x3da06b78	0.07832998
107	0xbd887577	-0.0666303
108	0xbc1cae53	-0.0095630465
109	0xbe0837a0	-0.13302469
110	0xbc9f5bd3	-0.019452965
111	0x3e18eaa0	0.14933252
112	0x3e17e1cd	0.1483223
113	0xbcee9345	-0.029122958
114	0xbec7ef82	-0.39049917
115	0xbdf09142	-0.11746456
116	0xbe38c640	-0.18044376
117	0xbcad5b4a	-0.021161694
118	0xbb4c298c	-0.0031152694
119	0xbc49a778	-0.012307994
120	0x3cd9ab46	0.026570927
121	0x3c1500a4	0.009094391
122	0xbe7a931d	-0.24470182
123	0x3d801081	0.06253148
124	0xbe552180	-0.2081356
125	0xbe85bd74	-0.26121104
126	0xbec8f709	-0.39250973
127	0x3df8514e	0.12124883
128	0x3e456de3	0.192802
129	0xbdfc6b3b	-0.1232514
130	0x3ed9b3e7	0.42520067
131	0x3e2dc24a	0.16968647
132	0x3e699d4b	0.22813909
133	0xbe4cd538	-0.20003211
134	0x3ddfc638	0.10926479
135	0xbb8e94e1	-0.004351244
136	0x3e47c81d	0.19509931
137	0xbe229773	-0.15878086
138	0x3caff4f2	0.021479104
139	0x3e09d006	0.13458261
140	0xbe1bbe35	-0.15209277
141	0xbdb75540	-0.08951807
142	0xbe15b995	-0.14621575
143	0xbdcb2149	-0.09918458
144	0x3db05b4d	0.08611164
145	0xbe99f819	-0.30072096
146	0x3e0716b0	0.13192248
147	0x3e378f84	0.1792584
148	0xbed2e427	-0.4118969
149	0x3ed732d1	0.42030957
150	0x3e4c33a1	0.1994157
151	0x3da23b8d	0.07921515
152	0x3e7a33dd	0.24433847
153	0xbd875595	-0.0660812
154	0xbd16c8b9	-0.036812518
155	0x3ddb516c	0.10708889
156	0x3dadd8dd	0.08488629
157	0x3e7b84d9	0.24562396
158	0xbe910b39	-0.28328875
159	0xbd8bcce9	-0.06826193
160	0x3bf9fce2	0.007629023
161	0x3e27d001	0.16387941
162	0x3dff6d8a	0.12472065
163	0xbe398fd8	-0.18121278
164	0x3d745243	0.059648763
165	0x3cfe4311	0.03103784
166	0x3e36fa9b	0.17869036
167	0x3e3d7948	0.18503296
168	0x3ea19b56	0.31563824
169	0x3c5a3449	0.01331813
170	0x3baee59e	0.005337431
171	0xbe3cd212	-0.1843951
172	0x3dc30992	0.0952331
173	0x3c35c5e9	0.011094549
174	0xbe015759	-0.12630977
175	0xbe4003e3	-0.18751483
176	0xbd57d010	-0.05268866
177	0xbd8b8ab0	-0.06813562
178	0xbe51ee2d	-0.20501013
179	0x3d6aae0c	0.05729489
180	0x3ea3a199	0.31959227
181	0x3e98f6a0	0.2987566
182	0xbe4332b4	-0.1906231
183	0x3e8bb2fd	0.27284995
184	0xbe6b44de	-0.2297549
185	0x3e8e2f6e	0.2777056
186	0x3e3b702c	0.18304509
187	0xbcf9bd3b	-0.03048574
188	0x3d47f1ad	0.048814464
189	0x3d6c705b	0.057724338
190	0x3e7fac8e	0.24968168
191	0x3e0fa1f6	0.14026627
192	0x3e014662	0.12624505
193	0xbc094c96	-0.008380076
194	0x3c2739b3	0.010206628
195	0x3de13912	0.109972134
196	0x3e0e709c	0.13910145
197	0x3e91491e	0.28376096
198	0xbcba0b62	-0.022710506
199	0xbb27b011	-0.0025587121
200	0xbcf4036a	-0.029786784
201	0x3e3f6d59	0.18694057
202	0xbe58d1a2	-0.21173719
203	0x3e8d27f0	0.27569532
204	0xbc68128b	-0.014164577
205	0xbd6d677f	-0.05796003
206	0x3cdbabc3	0.0268153
207	0xbe4e6f32	-0.20159605
208	0x3d9f89ea	0.07789977
209	0x3dbaeb72	0.09126939
210	0xbdf33263	-0.11874845
211	0xbdd171e9	-0.10226805
212	0x3de35a9b	0.11101266
213	0x3da90f2a	0.082548454
214	0x3d99fb13	0.07518592
215	0xbe38e082	-0.18054393
216	0xbd524633	-0.05133648
217	0xbdc15153	-0.094393395
218	0xbb8c26a0	-0.0042770654
219	0xbd9eeaaf	-0.07759606
220	0xbe0b5894	-0.13608009
221	0xbd3e8e39	-0.046522353
222	0xbe47953c	-0.19490522
223	0x3e5b0d07	0.21391688
224	0x3e104d11	0.14091899
225	0xbdcd0b8f	-0.1001197
226	0x3d5be8f6	0.053688966
227	0xbeb29d04	-0.34885418
228	0xbeabc078	-0.3354528
229	0xbe3b749a	-0.18306199
230	0xbe7cbafc	-0.24680704
231	0x3eeb069c	0.4590348
232	0xbe51583b	-0.20443814
233	0x3e6e5105	0.23273094
234	0xbe8106ba	-0.25200444
235	0x3cbdda03	0.023175245
236	0x3e8a831c	0.27053154
237	0xbd146da8	-0.03623739
238	0xbdf39d51	-0.1189524
239	0x3e93c121	0.28858283
240	0xbe42eb93	-0.19035177
241	0x3c4cc007	0.012496955
242	0x3e6d79a4	0.23190933
243	0xbe26aad3	-0.16276102
244	0xbe749b9d	-0.23887487
245	0x3d61bdba	0.055112578
246	0xbe4ffee2	-0.20312074
247	0x3e4b2768	0.19839251
248	0x3d11b300	0.0355711
249	0x3dae346e	0.08506094
250	0xbe843f6d	-0.2582964
251	0x3c8d4f50	0.017249733
252	0x3e0fa7ea	0.14028898
253	0x3dd254eb	0.10270103
254	0x3cf2b527	0.029627396
255	0xbd27f1dc	-0.04100214

1.layers.0.0.bias f4 [74]
0	0xbd09528d	-0.033525992
1	0xbd8fe841	-0.07026721
2	0xbcaa80e7	-0.020813419
3	0xbb2b09bf	-0.0026098338
4	0xbd992264	-0.074772626
5	0xbd01c6f1	-0.031683866
6	0x3be9f72d	0.0071400614
7	0xbd123862	-0.035698302
8	0xbcf62248	-0.030045643
9	0xbcdcfa9e	-0.026974972
10	0xbc276caf	-0.010218783
11	0xbce39716	-0.027782004
12	0xbd9a4d28	-0.07534248
13	0xbd502916	-0.050820433
14	0xbd1e0185	-0.038575668
15	0xbd3ba41c	-0.045810804
16	0xbd31717e	-0.043321125
17	0xbd53fa33	-0.05175228
18	0xbd3fcf3a	-0.046828486
19	0xbccc9e17	-0.024977727
20	0xbd43110b	-0.047623675
21	0x3b9ad19b	0.004724694
22	0xbd19eee8	-0.037581354
23	0xbd653617	-0.055959787
24	0xbd878f9b	-0.066191874
25	0xbd1edb8d	-0.0387836
26	0x3b69bde9	0.0035666174
27	0x3c85f759	0.016353296
28	0xbd954edf	-0.07290434
29	0xbcb59fcc	-0.022170924
30	0xbd318226	-0.04333701
31	0xbc34eabf	-0.011042296
32	0xbceb5f57	-0.028731985
33	0xbd32888f	-0.043587264
34	0xbbb35edd	-0.005473955
35	0xbcf87aa6	-0.03033192
36	0xbcaa765b	-0.02080839
37	0xbd92f901	-0.071764
38	0xbd460eed	-0.048354078
39	0xbd02fa8a	-0.031977214
40	0xbbbec014	-0.0058212373
41	0xbd089244	-0.033342615
42	0xbcaf7dcf	-0.021422295
43	0xbd972a77	-0.073811464
44	0xbcc48aba	-0.023991931
45	0xbd1b5176	-0.037919484
46	0xbcbf40fd	-0.023346419
47	0xbc45ffb0	-0.012084886
48	0x3bbd229d	0.0057719485
49	0xbd027055	-0.03184541
50	0xbd215b5c	-0.039393768
51	0xbd33764b	-0.043813985
52	0xbd543fc4	-0.051818624
53	0xbcacf9b4	-0.021115161
54	0xbb374dd7	-0.002796998
55	0xbd25cf92	-0.040481158
56	0xbd32c35b	-0.043643337
57	0xbdb0a72b	-0.08625635
58	0xbd9ac61d	-0.07557318
59	0xbd190920	-0.037362218
60	0xbc3f6619	-0.011682057
61	0xbcce8ec5	-0.025214562
62	0xbc2d9c2b	-0.010596315
63	0xbd15ea21	-0.036600236
64	0x3b0ec864	0.0021786923
65	0xbd6a5ae7	-0.057215597
66	0xbd740c51	-0.05958206
67	0x3bd43079	0.006475505
68	0xbd487414	-0.048938826
69	0xbd2de638	-0.04245588
70	0xbb451f55	-0.003007849
71	0xbc67e754	-0.014154274
72	0x3c01e2ea	0.007927636
73	0xbcc5e184	-0.024155386

1.layers.1.0.weight f4 [74, 148]
0	0xbdfc634d	-0.123236276
1	0xbd9d9746	-0.07694869
2	0x3e018908	0.1264993
3	0x3c9c520c	0.019082092
4	0xbc99685a	-0.018726517
5	0x3db462de	0.0880792
6	0x3e3014e1	0.17195465
7	0xbe53288f	-0.2062094
8	0xbe20a983	-0.15689664
9	0x3d571bbf	0.052516695
10	0x3c1d0ed9	0.0095860595
11	0xbe214335	-0.15748294
12	0x3d84583f	0.06462144
13	0x3e1d6897	0.15371929
14	0x3dd5d040	0.10440111
15	0xbe5c9e64	-0.21544796
16	0xbb97584d	-0.0046186806
17	0xbe39e0cf	-0.18152164
18	0x3d9664cb	0.073434435
19	0xbde54749	-0.11195237
20	0xbe025ab7	-0.12729917
21	0x3bc77ef9	0.0060881344
22	0x3e0b4542	0.13600639
23	0x3cd8c0e5	0.026459167
24	0xbe2b6226	-0.1673666
25	0xbcbf3e85	-0.023345241
26	0xbe0f31f6	-0.13983902
27	0xbddb6f9c	-0.10714647
28	0x3d845d33	0.06463089
29	0xbde75855	-0.11296145
30	0xbd8796d1	-0.06620563
31	0x3d8d18c6	0.06889491
32	0xbcaf739d	-0.021417433
33	0x3d95d616	0.07316224
34	0xbdb9a828	-0.090652764
35	0x3cc1e45e	0.023668464
36	0x3d332b84	0.04374267
37	0xbe06f92f	-0.13180993
38	0x3dec8ad6	0.11549918
39	0x3c8a74bd	0.016901368
40	0xbd4bb567	-0.049733546
41	0xbe851207	-0.25990316
42	0xbe5e2add	-0.21696039
43	0xbdc07147	-0.09396606
44	0x3e10a21a	0.14124337
45	0xbe088990	-0.13333726
46	0x3bb6341b	0.0055604107
47	0x3dddbab4	0.108266264
48	0x3ce9745d	0.02849787
49	0x3d8a617b	0.06756874
50	0xbd630b40	-0.05543065
51	0x3df00c99	0.11721153
52	0x3e46eb56	0.19425711
53	0x3d5794a8	0.052632004
54	0xbe399550	-0.18123364
55	0x3dacb156	0.08432262
56	0x3da2bd36	0.07946245
57	0xbe5aeea1	-0.21380092
58	0x3d8aa734	0.06770173
59	0xbd775940	-0.06038785
60	0xbd8dc617	-0.06922548
61	0xbde5cfc7	-0.11221271
62	0xbe677f95	-0.22607262
63	0xbda8a144	-0.08233884
64	0x3d6adbc2	0.057338484
65	0x3e2fb478	0.17158687
66	0x3ea3b7db	0.31976208
67	0x3e71e66f	0.2362306
68	0xbd15f098	-0.0366064
69	0xbe93a27d	-0.28834906
70	0x3d733806	0.0593796
71	0x3d71d21f	0.059038278
72	0xbe1f8972	-0.15579775
73	0xbd94b4ef	-0.07261073
74	0x3de3685a	0.11103888
75	0xbd620098	-0.055176347
76	0x3e092da2	0.13396314
77	0xbdff6fde	-0.12472509
78	0x3ee063ef	0.43826243
79	0x3dae9879	0.085251756
80	0x3d76de82	0.060270794
81	0x3be8d37a	0.007105288
82	0x3e3f0e0c	0.18657702
83	0x3dbc42de	0.091924414
84	0x3c80ef96	0.015739243
85	0x3e3768f4	0.1791113
86	0xbd80322d	-0.0625957
87	0xbd8170d0	-0.063203454
88	0xbe032689	-0.12807669
89	0x3abbff0e	0.001434298
90	0x3df4694b	0.119341455
91	0x3e50e8d4	0.20401317
92	0xbd873267	-0.0660141
93	0x3c99b4f7	0.018763049
94	0xbdd583ba	-0.104255155
95	0x3d61b8a9	0.055107746
96	0x3ee5e259	0.44899252
97	0xbe2c8aec	-0.1684987
98	0xbd30963c	-0.043112025
99	0x3d89a077	0.06720059
100	0xbbae2917	-0.005314957
101	0x3e17d41c	0.14827007
102	0xbd4203ce	-0.04736691
103	0xbd055d87	-0.032559898
104	0x3d0b0acb	0.03394584
105	0xbabc8868	-0.0014383914
106	0x3e4829d4	0.19547206
107	0xbe01475a	-0.12624875
108	0xbe5198aa	-0.20468393
109	0xbd4f35c8	-0.0505884
110	0x3dfa8ec0	0.12234259
111	0x3da2fa28	0.0795787
112	0x3e0b8160	0.13623571
113	0x3d5ffdb0	0.054685295
114	0x3e1d9c06	0.1539155
115	0x3d12f529	0.035878334
116	0xbdaaf094	-0.08346668
117	0x3dbc42a1	0.09192396
118	0x3d43d831	0.047813598
119	0x3d2d56e3	0.04231919
120	0xbd906963	-0.07051351
121	0xbdafb49b	-0.0857937
122	0xbd4fda8d	-0.050745536
123	0x3e303304	0.17206961
124	0xbd237449	-0.03990582
125	0x3c260739	0.010133558
126	0x3d7323d4	0.05936034
127	0xbe29ccd7	-0.16582046
128	0x3d717343	0.058947813
129	0x3e9bf5a2	0.3046084
130	0x3dff3e59	0.12463064
131	0x3de04945	0.10951475
132	0x3db3b346	0.08774428
133	0x3d30cc2b	0.04316346
134	0x3dcc8766	0.09986763
135	0x3d385aad	0.04500835
136	0xbde3a0ee	-0.11114679
137	0x3e25a2f4	0.16175443
138	0x3cc2f003	0.023796087
139	0x3da0e6ca	0.078565195
140	0xbe3a39f4	-0.1818617
141	0xbdf1a97b	-0.11799904
142	0xbc4f462e	-0.0126510095
143	0xbda25e1c	-0.07928106
144	0x3de2501f	0.11050438
145	0xbe065f8c	-0.13122386
146	0xbd792b6f	-0.060832437
147	0x3d895e6a	0.06707461
148	0xbe94dc0c	-0.29074132
149	0xbe4c1e36	-0.199334
150	0xbe1e3d15	-0.15452988
151	0xbc94c792	-0.018161569
152	0xbe48d03a	-0.19610682
153	0xbd293d82	-0.041318424
154	0xbb4d0d3f	-0.0031288413
155	0xbd0d80d7	-0.0345467
156	0x3e035e26	0.12828884
157	0x3d5b85ba	0.05359433
158	0xbc8d0cd5	-0.017218033
159	0x3e199e3e	0.15001771
160	0x3e376576	0.17909798
161	0xbdeb021b	-0.11475011
162	0x3b004143	0.001957015
163	0x3d5cd906	0.053917907
164	0x3ddff9b7	0.10936301
165	0xbdba7217	-0.09103792
166	0xbbedd1bd	-0.0072576688
167	0xbd16c835	-0.036812026
168	0x3d05187c	0.032494053
169	0xbdc47ded	-0.09594331
170	0xbd6f2961	-0.05838907
171	0xbe4d37c1	-0.200408
172	0xbde7f565	-0.11326102
173	0xbe64ceac	-0.22344464
174	0x3d586541	0.05283094
175	0x3d115b2c	0.03548734
176	0x3d42d625	0.047567505
177	0xbc6c3112	-0.014415996
178	0x3e82a00a	0.25512725
179	0x3da3b589	0.079936095
180	0xbc50020e	-0.012695802
181	0xbd77c9fa	-0.060495354
182	0xbddd81f7	-0.108158045
183	0xbd5baa31	-0.053629104
184	0xbd3255c8	-0.04353884
185	0x3e451683	0.19246869
186	0xbdb820b7	-0.08990615
187	0xbcd7cd19	-0.026342915
188	0x3dbcd952	0.09221138
189	0xbe276802	-0.1634827
190	0xbdda4b48	-0.1065889
191	0x3e01ef0a	0.12688842
192	0x3cb8756a	0.022516925
193	0xbdf277c3	-0.11839249
194	0x3dacea4e	0.084431276
195	0xbdbe1d0c	-0.09282884
196	0x3d2a41b2	0.04156656
197	0xbcebd153	-0.028786337
198	0x3d20108c	0.03907828
199	0x3e632b87	0.22184573
200	0x3d2e5019	0.042556856
201	0x3dcbc752	0.09950127
202	0xbdbeacb1	-0.09310282
203	0xbd4e0260	-0.050295234
204	0xbe212676	-0.15737328
205	0xbe6fcfb0	-0.2341907
206	0xbc40d12a	-0.011768619
207	0x3e931d81	0.28733447
208	0xbd8b5957	-0.068041496
209	0x3df58e8a	0.11990078
210	0x3e58350a	0.21113983
211	0xbd9dbf71	-0.0770253
212	0xbd94b59a	-0.072612
213	0x3b89e27b	0.004207907
214	0xbd1a2004	-0.03762819
215	0xbdcafdda	-0.099116996
216	0x3cfed98f	0.0311096
217	0xbd16f61e	-0.03685581
218	0xbdb82c33	-0.08992805
219	0x3e269b5b	0.16270201
220	0x3d01d69d	0.03169881
221	0xbd245ca7	-0.040127423
222	0xbe1ab007	-0.15106212
223	0x3da8430e	0.08215915
224	0x3d883fe4	0.06652811
225	0x3cd7e940	0.02635634
226	0x3e3c1a41	0.1836939
227	0x3e3e047a	0.18556395
228	0xbe5ae5d2	-0.21376732
229	0xbd3b71a5	-0.045762677
230	0x3dabd630	0.083904624
231	0xbdd9c074	-0.10632411
232	0x3ddce662	0.107861295
233	0x3e45508a	0.19269004
234	0x3def3735	0.11680452
235	0x3d630583	0.05542518
236	0xbdb7e9f3	-0.08980169
237	0xbcb080ca	-0.021545786
238	0x3db2e485	0.08734993
239	0xbd980bac	-0.07424101
240	0x3d26415c	0.040589675
241	0x3d499ad9	0.04921994
242	0x3dcf97d0	0.10136378
243	0xbc359ee0	-0.011085242
244	0x3c7bb1cc	0.015362214
245	0x3daf9ab1	0.08574427
246	0x3d877d3b	0.06615683
247	0x3e0503a5	0.12989672
248	0xbceceb3d	-0.028920764
249	0x3c802bd7	0.015645904
250	0xbc0c75d5	-0.008573015
251	0x3d1eb69b	0.038748365
252	0x3d096e6b	0.03355257
253	0x3e0a8f66	0.13531265
254	0x3e4cdf34	0.2000702
255	0xbc9e0893	-0.019291198

1.layers.1.0.bias f4 [74]
0	0xbd7bdbb2	-0.061488815
1	0xbc09a203	-0.008400443
2	0xbd66cd2c	-0.05634801
3	0xbc429920	-0.011877328
4	0xbd37871b	-0.04480658
5	0xbcd3490c	-0.025791667
6	0xbd67fbb3	-0.056636523
7	0xbcf5df17	-0.030013604
8	0xbc9eeffa	-0.01940154
9	0xbd37da3e	-0.044885866
10	0xbd14704e	-0.036239915
11	0xbd086f7a	-0.033309437
12	0xbbe5f98c	-0.0070182737
13	0xbd1512fd	-0.03639506
14	0xbd16d5f5	-0.03682514
15	0xbd7d7669	-0.061880503
16	0xbd474970	-0.04865402
17	0xbcef81bc	-0.029236667
18	0xbcc32917	-0.023823304
19	0xbcd7c92f	-0.026341049
20	0xbce636b9	-0.028102266
21	0xbcf81f4c	-0.030288361
22	0xbd1749b8	-0.036935538
23	0xbd3fe288	-0.046846896
24	0xbca2fa88	-0.019894853
25	0xbc812034	-0.015762426
26	0x3c4a4f87	0.012348062
27	0xbd06783d	-0.032829512
28	0xbc87e659	-0.01658933
29	0xbcb9b47e	-0.022669073
30	0x3a94d17f	0.0011353939
31	0xbcacaccd	-0.021078492
32	0xbc84d2d2	-0.016213808
33	0xbca92e7e	-0.020652052
34	0xbca4f487	-0.020136131
35	0xbd329f58	-0.043608993
36	0xbcbcfbd1	-0.023069294
37	0xbbd06d28	-0.0063606687
38	0x39fd3c05	0.00048300638
39	0xbbeafade	-0.007171019
40	0xbd797fb3	-0.0609128
41	0xbd67e32e	-0.05661314
42	0xbc331a78	-0.010931604
43	0xbc25f694	-0.01012959
44	0xbd316903	-0.043313038
45	0xbcdff36f	-0.027337758
46	0xbd8a963f	-0.067669384
47	0xba2b659e	-0.00065382745
48	0xbd21f122	-0.039536603
49	0xbd6eda5a	-0.058313705
50	0xbc95e2ec	-0.018296681
51	0xbcef93d5	-0.029245296
52	0xbd41da46	-0.047327302
53	0xbd3fd8ab	-0.04683749
54	0xbd1ca5ba	-0.038243987
55	0xbd06404c	-0.032776162
56	0xba3ce673	-0.00072059705
57	0xbd1bf6a5	-0.038077015
58	0xbc430cd6	-0.011904916
59	0xbca7543c	-0.020425908
60	0xbd83e76f	-0.06440627
61	0xbcd9a392	-0.026567254
62	0xbd08b86f	-0.033379015
63	0xbd62cf14	-0.055373266
64	0xbccbd8eb	-0.024883708
65	0xbcde5c59	-0.027143644
66	0xbd384c54	-0.044994667
67	0xbd5931a5	-0.05302586
68	0xbcb2e054	-0.021835484
69	0x3b2d41fd	0.0026437037
70	0xbd44a755	-0.048011143
71	0xbba01af1	-0.004886024
72	0xbd10d8a6	-0.035362862
73	0xbd23a2e0	-0.03995025

1.layers.2.0.weight f4 [74, 222]
0	0xbdc0257c	-0.093821496
1	0xbd601a3f	-0.05471253
2	0xbe2094c3	-0.15681748
3	0x3d39522a	0.045244373
4	0x3dcefed7	0.101072006
5	0xbe148902	-0.1450539
6	0x3d9ee71e	0.07758926
7	0x3d4983ab	0.049197834
8	0x3e0cbd64	0.13744122
9	0xbd6f3ded	-0.058408666
10	0xbdd3f1f0	-0.1034888
11	0x3d8a059f	0.067393534
12	0xbe18ff7c	-0.1494121
13	0x3e66ade6	0.22527274
14	0xbcfa4838	-0.030552015
15	0xbd3cc020	-0.046081662
16	0x3e161768	0.14657366
17	0xbe5fcfc3	-0.21856599
18	0x3e126ea4	0.14300019
19	0xbdc2d3ef	-0.095130794
20	0xbde764a2	-0.11298491
21	0xbdb09ca6	-0.08623628
22	0xbd0a9daa	-0.033841766
23	0x3e4f0d00	0.20219803
24	0xbddf508a	-0.109040335
25	0xbdbcc684	-0.09217551
26	0x3c8f7a8b	0.017514488
27	0x3dab3a34	0.08360711
28	0x3df6d9b3	0.120532416
29	0x3e10176e	0.14071438
30	0x3aa2cfd2	0.0012421554
31	0x3dfc8fc5	0.12332109
32	0x3dadeb1d	0.0849211
33	0xbde8462f	-0.113415115
34	0x3e0d939a	0.13825837
35	0x3d43b99c	0.047784433
36	0xbdde806f	-0.108643405
37	0x3b5d3a09	0.0033756515
38	0x3b65f1f1	0.0035086835
39	0xbe005f41	-0.12536336
40	0xbdd77c97	-0.105218105
41	0xbe13878c	-0.14407176
42	0xbd7a28c7	-0.061074045
43	0xbd596dc9	-0.053083215
44	0xbd90f5fb	-0.07078167
45	0xbe710e8e	-0.23540708
46	0xbc6cc337	-0.01445084
47	0xbdb01fd9	-0.085998245
48	0xbd51ebf0	-0.0512504
49	0x3d89cca8	0.06728488
50	0xbdefb400	-0.11704254
51	0x3c94cad7	0.018163128
52	0x3e227b55	0.1586736
53	0xbd6ead70	-0.05827087
54	0x3d57156e	0.05251067
55	0x3d960a08	0.07326132
56	0x3cbd5a49	0.02311434
57	0xbd393100	-0.045212746
58	0xbcd06fb1	-0.025443884
59	0xbd8c9116	-0.068636104
60	0xbde7dcd2	-0.11321415
61	0xbc2b7497	-0.010464809
62	0xbddeeff8	-0.10885614
63	0x3c9fc8b3	0.01950488
64	0x3e6fb50b	0.23408906
65	0xbd8ebf30	-0.0697006
66	0x3e0313ff	0.12800597
67	0x3e00fa31	0.1259544
68	0x3d6e0f8b	0.05812029
69	0xbc8d247d	-0.017229313
70	0x3cc0ae19	0.023520516
71	0xba417173	-0.0007379271
72	0xbd879195	-0.066195644
73	0xbdc964fa	-0.09833713
74	0x3d7ac1d0	0.06121999
75	0xbd82e9c0	-0.063922405
76	0xbd08b71b	-0.033377748
77	0x3e565e58	0.20934427
78	0xbd6f9e65	-0.058500666
79	0xbd0e6b5d	-0.03477036
80	0xbc82cbe8	-0.01596637
81	0xbd485e40	-0.04891801
82	0x3e3bcd17	0.18339954
83	0xbe03cb84	-0.12870604
84	0x3c258e4e	0.010104729
85	0xbe0be705	-0.13662346
86	0xbd329c18	-0.043605894
87	0xbcc03fbe	-0.023467895
88	0x3e1b88bb	0.15188877
89	0xbd1b3ec2	-0.037901647
90	0xbc840eba	-0.016120303
91	0xbca10fa7	-0.019660784
92	0x3b7fb57e	0.003901809
93	0x3e0b191c	0.13583797
94	0xbd316d7c	-0.043317303
95	0x3ddda5b0	0.10822618
96	0xbdc16d4a	-0.09444673
97	0xbe13b1cc	-0.14423293
98	0xbd1a3a58	-0.037653297
99	0xbe17cc6a	-0.14824072
100	0xbdb22d47	-0.08700042
101	0x3c92b2ab	0.017907461
102	0x3c655691	0.01399769
103	0x3d4003b0	0.046878517
104	0x3c21d674	0.00987779
105	0x3d5a3181	0.053269867
106	0xbe0731a5	-0.13202532
107	0xbb836f63	-0.004011081
108	0xbe0acbd3	-0.13554315
109	0x3c61823c	0.01376396
110	0x3d9eeb9a	0.07759781
111	0x3c74faf5	0.014952411
112	0x3d30eab9	0.0431926
113	0x3d88a6f3	0.06672468
114	0xbd7fad60	-0.062421203
115	0x3c8e568e	0.017375257
116	0x3d0dafa1	0.03459132
117	0xbc0ef685	-0.008725767
118	0xbd44a6dc	-0.048010692
119	0x3e1fa875	0.15591605
120	0xbe056efe	-0.13030621
121	0xbc891f46	-0.016738545
122	0xbcff0737	-0.03113137
123	0xbcfb5c51	-0.030683668
124	0xbde79f70	-0.11309707
125	0x3c5a7a43	0.0133348135
126	0xbb53e108	-0.0032330174
127	0xbd7f2678	-0.062292546
128	0xbceeeeff	-0.029166697
129	0xbd6d2ddb	-0.05790506
130	0x3dbea390	0.09308541
131	0x3d166df6	0.03672596
132	0xbdb3e9c4	-0.08784822
133	0xbdd17885	-0.102280654
134	0xbe0bd379	-0.13654889
135	0xbd6455e7	-0.055745985
136	0xbd86fa76	-0.065907404
137	0xbcdcdaf6	-0.026959877
138	0xbe107e5b	-0.14110701
139	0xbdb6456b	-0.08899959
140	0xbda552e8	-0.08072454
141	0xbe1c7d21	-0.15282108
142	0xbe02b4a9	-0.12764229
143	0xbe1693fe	-0.14704892
144	0x3e815f69	0.25268105
145	0x3da5108b	0.08059796
146	0xbdd3659b	-0.10322114
147	0x3c105b72	0.008810865
148	0x3d38f8ec	0.045159265
149	0xbe0912db	-0.13386099
150	0x3e2c4f86	0.16827211
151	0x3c63a4c3	0.013894263
152	0xbdbbc4f2	-0.09168424
153	0x3cd50c1d	0.026006753
154	0xbe29e442	-0.1659098
155	0xbe67b80d	-0.22628804
156	0xbdd6becb	-0.104856096
157	0x3e422328	0.18958724
158	0xbe2b384c	-0.16720694
159	0xbe9079a1	-0.28217795
160	0xbdce2efe	-0.10067557
161	0xbda892b0	-0.082311034
162	0xbd39ace4	-0.045330897
163	0xbd9c8421	-0.07642389
164	0xbd2cb7ae	-0.042167358
165	0x3d41796e	0.047234945
166	0xbd26edf5	-0.040754277
167	0xbca27dd2	-0.019835386
168	0x3e0a8891	0.13528658
169	0xbd84d162	-0.06485249
170	0xbdc8e228	-0.09808761
171	0x3d8914eb	0.06693443
172	0x3b44c4e0	0.0030024573
173	0x3e206c19	0.15666236
174	0x3d8212fd	0.06351278
175	0x3dae69bc	0.08516261
176	0xbe2b0213	-0.1670001
177	0x3de428ea	0.11140616
178	0x3df57957	0.11986034
179	0xbdb7279e	-0.08943103
180	0xbd47c3d3	-0.048770737
181	0xbc8baaf2	-0.017049287
182	0xbe13d3c0	-0.14436245
183	0x3dd61537	0.10453265
184	0x3e0d2a27	0.13785611
185	0x3dcfd7f1	0.101486094
186	0xbd84a780	-0.064772606
187	0xbd14dab0	-0.03634137
188	0xbd86f15b	-0.06589004
189	0xbd8c6aaf	-0.06856286
190	0x3de52b13	0.111898564
191	0x3d0e7be3	0.034786116
192	0x3e0da191	0.13831164
193	0x3de97a30	0.114002585
194	0xbd8f11c5	-0.06985811
195	0xbd72372e	-0.059134655
196	0xbe7b1d98	-0.24523008
197	0x3d20acb7	0.039227214
198	0x3e108372	0.14112642
199	0x3e01574d	0.12630959
200	0xbd94d3f6	-0.07266991
201	0xbd94e23c	-0.07269713
202	0x3e4e9de6	0.20177421
203	0x3dcdcf6b	0.100493275
204	0x3d598d4e	0.053113274
205	0xbd54c5ef	-0.051946577
206	0x3c0581d2	0.008148627
207	0xbd8820e6	-0.066469
208	0x3d42aef1	0.04753012
209	0x39a11081	0.0003072061
210	0xbc9d42ee	-0.019196954
211	0xbe0f205d	-0.1397719
212	0x3c539ac9	0.012915322
213	0x3c9b56dc	0.018962316
214	0x3cf9d231	0.030495735
215	0x3c0c31b1	0.008556769
216	0xbe0609ce	-0.13089678
217	0xbdc1a23f	-0.09454774
218	0x3d6ffd0d	0.058590937
219	0x3dd7237f	0.10504817
220	0x3d89b418	0.06723803
221	0x3dfacf0d	0.12246523
222	0x3d39ad35	0.0453312
223	0x3e66df82	0.22546199
224	0x3db47259	0.088108726
225	0x3e08805a	0.13330212
226	0xbd1577c2	-0.036491163
227	0xbc01cfaf	-0.007923051
228	0xbcc629e0	-0.02418989
229	0x3d7e8b3b	0.0621445
230	0xbd7ce275	-0.061739404
231	0x3e0f1974	0.13974553
232	0x3d61b4b2	0.055103965
233	0x3d8a95b0	0.06766832
234	0xbd92c8d3	-0.071672104
235	0xbe12f6ea	-0.14352003
236	0xbc1654ff	-0.009175538
237	0x3d3e900b	0.04652409
238	0x3e205247	0.15656386
239	0xbe6caf9d	-0.23113866
240	0x3db60468	0.08887559
241	0x3e22ad46	0.15886411
242	0x3ade1cd8	0.0016945852
243	0xbcd63a40	-0.026150823
244	0xbdf66528	-0.12031013
245	0xbd1e6e99	-0.038679693
246	0xbdb444bf	-0.08802175
247	0x3ced2ab7	0.028951032
248	0xbd8d5d53	-0.06902566
249	0xbd0cd673	-0.034384202
250	0x3e14ca4f	0.145303
251	0xbd0c71a0	-0.03428805
252	0xbd600a3d	-0.054697264
253	0xbc7248b5	-0.0147878425
254	0x3d93c3f1	0.07215107
255	0x3cd0187d	0.025402302

1.layers.2.0.bias f4 [74]
0	0xbc6072b3	-0.013699221
1	0xbcb2b306	-0.02181388
2	0xbd6d3e36	-0.057920657
3	0xbd13861b	-0.036016565
4	0xbcaac361	-0.020845117
5	0x39c5ae61	0.0003770469
6	0xbc947d6f	-0.018126218
7	0xbd0ef1fb	-0.03489874
8	0xbb7fc53b	-0.003902747
9	0xbc86e4e2	-0.016466562
10	0xbd01b20d	-0.031663943
11	0xbd4aadec	-0.04948227
12	0xbd2a3f97	-0.04156455
13	0xbd4d1760	-0.05007112
14	0xbc01a79a	-0.0079134945
15	0xbc823d8e	-0.015898492
16	0xbba243b5	-0.004951919
17	0xbd6204ea	-0.055180468
18	0xbc697271	-0.014248476
19	0xbc986557	-0.01860301
20	0xbbc4a913	-0.0060016005
21	0xbd0b63d5	-0.034030754
22	0xbd171836	-0.036888324
23	0xbd0645a8	-0.032781273
24	0xbc4dd562	-0.012563081
25	0xbc0729a5	-0.008249675
26	0xbd14dad0	-0.03634149
27	0xbb06ef67	-0.0020589472
28	0xbd040f2b	-0.032241028
29	0xbca4b105	-0.02010394
30	0xbcfda380	-0.030961752
31	0xbd598308	-0.053103477
32	0xbcca075f	-0.024661718
33	0xbc690253	-0.014221746
34	0xbd95277e	-0.07282923
35	0xbc104081	-0.008804441
36	0x3b9c573a	0.0047711404
37	0xbcf1d25e	-0.029519256
38	0xbc3af9d2	-0.011412101
39	0xbcd30858	-0.025760815
40	0x3bca4fea	0.0061740773
41	0xbcac95e7	-0.021067573
42	0xbbbc81b7	-0.005752768
43	0xbd1e66da	-0.038672306
44	0xbc506d27	-0.012721336
45	0xbd010bad	-0.031505276
46	0x3bd4fea8	0.006500084
47	0xbc4ac29b	-0.012375499
48	0xbcc692af	-0.024239866
49	0xbcef404b	-0.029205462
50	0xbd0acd68	-0.033887297
51	0xbd79eb3a	-0.061015345
52	0xbc4ea013	-0.012611407
53	0xbd893043	-0.06698658
54	0xbd0ed6ae	-0.034872703
55	0xbc6349d3	-0.0138725815
56	0x3ca709a2	0.020390335
57	0x3baaceab	0.005212625
58	0x388eed54	6.8152935e-05
59	0xbcd19c62	-0.025587264
60	0xbc980d68	-0.01856108
61	0xbd15ea0e	-0.036600165
62	0x3c3a9b98	0.0113896355
63	0xbc8a6ef7	-0.016898615
64	0xbd12f003	-0.035873424
65	0xbbf29b81	-0.0074037914
66	0xbd142add	-0.03617369
67	0xbceeaa54	-0.029133953
68	0xbcf8ce33	-0.030371761
69	0xbd172cd4	-0.036907986
70	0xbd7328bd	-0.059365023
71	0xbb21d34b	-0.002469259
72	0xbcf8a91a	-0.030354071
73	0xbd7fb03f	-0.06242394

1.layers.3.0.weight f4 [74, 296]
0	0xbcffe435	-0.031236747
1	0x3dff4ee4	0.12466219
2	0xbdd47fc6	-0.10375933
3	0x3d13d26a	0.03608934
4	0x3d92a3db	0.07160159
5	0x3a89554e	0.0010477693
6	0x3c3dddba	0.011588508
7	0xbcfc5cf0	-0.030806035
8	0xbd94b622	-0.072613016
9	0xbc9acb31	-0.018895717
10	0xbcbc4a8f	-0.022984771
11	0xbd8bba6d	-0.06822667
12	0xbd861bd5	-0.06548277
13	0xbd15d93b	-0.03658412
14	0xbd74382a	-0.059623875
15	0x3d82b10c	0.06381425
16	0x3cf78d12	0.030218635
17	0xbe2d4d6d	-0.16924067
18	0xbd528e19	-0.051405046
19	0x3d6a1bed	0.05715554
20	0x3d943397	0.072364025
21	0xbdc5f78a	-0.09666355
22	0x3d14d8f8	0.03633973
23	0x3d309e7b	0.04311989
24	0xbcd90681	-0.02649236
25	0x3da0b8be	0.07847737
26	0xbce60044	-0.028076299
27	0xbe140e21	-0.14458515
28	0x3db4eb55	0.088339485
29	0xbde0802e	-0.10961948
30	0x3dd64ea0	0.10464215
31	0xbda599ef	-0.08086001
32	0x3d4e75c1	0.050405268
33	0xbde93799	-0.113875575
34	0xbdd4eaed	-0.10396371
35	0x3c345830	0.011007354
36	0x3d870215	0.06592194
37	0x3de8428d	0.113408186
38	0xbbb3ac01	-0.005483151
39	0x3c2b7c7c	0.010466691
40	0x3dc22d6a	0.09481318
41	0xbd9e1018	-0.077179134
42	0x3c531d84	0.012885455
43	0xbe7ef2a2	-0.24897245
44	0xbd8c755a	-0.068583205
45	0x3d0c281a	0.03421793
46	0x3e0b3969	0.13596119
47	0xbd5e8d41	-0.05433393
48	0x3df0ca43	0.11757328
49	0xbd588087	-0.05285695
50	0xbe1448d6	-0.1448091
51	0xbd372d0c	-0.044720694
52	0x3d83aaa3	0.06429031
53	0x3d2e5f75	0.042571504
54	0xbd933888	-0.07188517
55	0xbb0aeb52	-0.002119739
56	0xbe032617	-0.12807499
57	0xbd8645c3	-0.06556275
58	0xbdac0107	-0.083986335
59	0x3c2a4fbf	0.0103949895
60	0x3c9fc125	0.019501278
61	0x3cdefe39	0.027220832
62	0xbdb0564d	-0.086102106
63	0x3e1a868e	0.15090391
64	0x3d83dfa1	0.06439138
65	0x3da5be16	0.08092897
66	0x3d76a2f9	0.060214017
67	0xbcd4fff0	-0.026000947
68	0xbe55efdc	-0.2089228
69	0x3df2fb2d	0.11864314
70	0xbe13b3ba	-0.14424029
71	0xbdef722c	-0.116916984
72	0xbd96f7c9	-0.0737148
73	0x3cca5269	0.0246975
74	0xbd0a9581	-0.033833984
75	0xbc516d9b	-0.01278248
76	0xbd176a68	-0.03696671
77	0x3dc19447	0.0945211
78	0xbdf8955c	-0.12137863
79	0x3d751f14	0.05984409
80	0x3c3d6ce7	0.011561609
81	0x3da80181	0.08203412
82	0x3c001561	0.007817597
83	0xbd1882e1	-0.03723419
84	0x3cc1b7e4	0.023647256
85	0x3e002c0e	0.12516806
86	0xbe464747	-0.19363128
87	0xbd4a9af5	-0.049464185
88	0x3cfab71f	0.030604897
89	0x3c677b76	0.0141285565
90	0x3d86df2e	0.06585537
91	0xbd687fe6	-0.0567626
92	0xbdc11ba6	-0.09429102
93	0x3d3beecf	0.045882042
94	0x3e08b93f	0.13351916
95	0xbd85f139	-0.0654015
96	0xbd32cd5e	-0.043652885
97	0x3d24f30f	0.04027086
98	0x3de9ff07	0.11425596
99	0xbd00a29e	-0.031405084
100	0x3e167c19	0.14695777
101	0xbbb02ab6	-0.0053761853
102	0xbd987303	-0.07443812
103	0xbe827dbd	-0.25486556
104	0x3d8f8a5a	0.0700881
105	0xbc9e977b	-0.01935934
106	0xbdac428e	-0.08411132
107	0x3d2f669a	0.042822458
108	0x3dd523c4	0.104072124
109	0x3e1bfee4	0.15233952
110	0xbc5a577e	-0.013326524
111	0xbd430d3d	-0.047620047
112	0x3d72693f	0.0591824
113	0x3dd43d4f	0.10363256
114	0x3dc0f225	0.094211854
115	0xbe34b922	-0.17648748
116	0xbdef2cd8	-0.11678475
117	0x3dd9cc52	0.10634674
118	0x3d349ed3	0.04409678
119	0x3ac374e8	0.001491216
120	0x3b0cd1ad	0.0021487281
121	0x3dafeb64	0.08589819
122	0xbcae4400	-0.02127266
123	0xbd4b89a7	-0.049691822
124	0x3da2e536	0.07953875
125	0x3cf9d6c0	0.030497909
126	0xbd8173f0	-0.063209414
127	0x3d6dd52b	0.05806462
128	0xbd4c7be0	-0.049922824
129	0x3e0ff15a	0.14056912
130	0x3ceb3ff6	0.028717022
131	0xbe235c77	-0.15953241
132	0x3c51c3a7	0.012802995
133	0x3dfa54a4	0.12223175
134	0x3d3a99fe	0.045557015
135	0xbd6b71cd	-0.057481576
136	0xbd9455bc	-0.07242915
137	0x3d2db338	0.042407244
138	0x3c482c74	0.01221763
139	0xbc170324	-0.009217057
140	0x3d853a53	0.06505265
141	0x3be3c9c7	0.006951544
142	0x3deaaaf9	0.11458392
143	0xbd7a37c3	-0.061088335
144	0xbdddd55c	-0.10831711
145	0x3db4be4d	0.088253595
146	0xbce152f1	-0.02750537
147	0x3dfa92d4	0.122350365
148	0x3d38866a	0.045050062
149	0xbd398351	-0.04529125
150	0x3d48dbbe	0.049037687
151	0x3ddff49b	0.10935327
152	0xbb0e01c3	-0.002166853
153	0xbc0e4bbd	-0.00868505
154	0x3d80f957	0.06297558
155	0xbcfee9a9	-0.031117277
156	0xbc84a09f	-0.016189871
157	0x3d804242	0.06262638
158	0xbce28055	-0.027649084
159	0x3daf2ce9	0.08553488
160	0xbe3a2893	-0.1817954
161	0x3d7b99c7	0.06142595
162	0x3d179432	0.037006564
163	0xbb7a5edb	-0.003820351
164	0x3cbdc0c6	0.02316321
165	0xbd218939	-0.039437506
166	0xbe2c5a8a	-0.16831413
167	0xbd897499	-0.06711692
168	0xbe3600e5	-0.17773779
169	0xbdd9e1ee	-0.10638796
170	0x3e5514de	0.20808741
171	0xbdef8628	-0.1169551
172	0xbcec7325	-0.028863499
173	0x3ba1aa40	0.0049336255
174	0x3d4bbf0b	0.04974274
175	0xbc2da253	-0.010597783
176	0x3d0b6d60	0.034039855
177	0x3bf2c24b	0.0074084154
178	0xbe199892	-0.14999607
179	0x3dfd851e	0.12378906
180	0x3e2fe97f	0.17178915
181	0x3be21988	0.006900016
182	0x3e94ed57	0.29087326
183	0xbda84751	-0.082167275
184	0xbd97d9c6	-0.07414584
185	0xbd9e52ee	-0.07730661
186	0x3ccadc96	0.024763387
187	0xbd526193	-0.051362585
188	0xbdd29a1b	-0.102832995
189	0xbde9e43d	-0.11420486
190	0xbd40f986	-0.047112964
191	0xbcf9a461	-0.03047389
192	0x3d7a8f9b	0.06117211
193	0x3d69ef14	0.05711277
194	0xbdabed14	-0.083948284
195	0x3d209498	0.03920421
196	0x3d895853	0.067063
197	0x3d44febb	0.048094492
198	0x3cc78a35	0.024357894
199	0x3e0f3ca8	0.13987982
200	0xbbcba909	-0.006215219
201	0xbdbf8024	-0.09350613
202	0xbd881818	-0.066452205
203	0xbd187662	-0.037222274
204	0x3dcfb489	0.10141856
205	0xbccd4fa9	-0.025062399
206	0xbe03b9e8	-0.12863886
207	0xbd0e6eeb	-0.03477375
208	0xbd57f5b6	-0.052724563
209	0x3d27941c	0.040912732
210	0xbe1ee3af	-0.15516542
211	0xbcf01ea4	-0.029311486
212	0x3c903301	0.017602446
213	0x3d2b0e69	0.04176179
214	0x3cd820e9	0.02638288
215	0xbcbbaea5	-0.022910425
216	0x3d06b607	0.03288844
217	0x3c8a8203	0.016907698
218	0xb9abb776	-0.0003275235
219	0x3db35e3c	0.08758208
220	0x3d9a4fcd	0.07534752
221	0xbda9343f	-0.08261918
222	0x3dfd01e2	0.12353875
223	0xbd1dad3a	-0.03849528
224	0xbb3d5178	-0.002888767
225	0x3db3e939	0.08784718
226	0xbbeb6a88	-0.0071843304
227	0xbdc0ee26	-0.09420423
228	0xbd289a78	-0.041162938
229	0xbdd5d7b2	-0.10441531
230	0x3beed549	0.007288609
231	0x3cd600fc	0.026123516
232	0x3d297cc7	0.041378763
233	0xbd9ca79b	-0.07649156
234	0x3d556c15	0.05210503
235	0x3d4a2019	0.049347017
236	0xbc88afbf	-0.016685365
237	0x3d361784	0.04445602
238	0x3d503146	0.05082824
239	0x3c930f5e	0.017951664
240	0xba67d53a	-0.0008843724
241	0x3c225794	0.009908576
242	0xbd4a84d8	-0.049443096
243	0x3c73138e	0.014836205
244	0xbe28193c	-0.16415876
245	0x3e0b6a9d	0.13614888
246	0x3d8221fb	0.063541375
247	0xbabfcc59	-0.0014633044
248	0xbc2bc523	-0.010484013
249	0x3bf424a9	0.0074506593
250	0xbdde0b9e	-0.108420596
251	0xbc47a6c6	-0.012185758
252	0x3d6e11ed	0.058122564
253	0xbdeef49f	-0.116677515
254	0xbe0bf26c	-0.13666695
255	0x3c0b3dcf	0.008498623

1.layers.3.0.bias f4 [74]
0	0xbc7a966d	-0.015294653
1	0xbd0443be	-0.032291166
2	0xbd28de94	-0.041227892
3	0xbd0153f7	-0.031574216
4	0xbd853dff	-0.065059654
5	0xbcc76653	-0.024340784
6	0xbccc20a2	-0.024917904
7	0xbc47340f	-0.012158408
8	0xbd38edec	-0.045148775
9	0xbcec85f5	-0.02887247
10	0x3ba6a5f9	0.0050857035
11	0xbc55d277	-0.013050667
12	0x3b93fbe5	0.004516112
13	0xbc801a2f	-0.015637485
14	0xbcb7d838	-0.022441968
15	0xbc6511d4	-0.013981301
16	0xbcb4fadf	-0.02209228
17	0xbd09eb12	-0.033671446
18	0xbcc5f80f	-0.024166135
19	0xbd3547b6	-0.044257842
20	0x39dc4175	0.0004201044
21	0xbcf8458b	-0.030306598
22	0xbd1d74c7	-0.038441446
23	0x3a9262e6	0.001116839
24	0x3a40a77b	0.0007349175
25	0xbd53c168	-0.05169812
26	0xbd0f9189	-0.035050903
27	0xba2637ff	-0.00063407415
28	0xbb80b180	-0.0039274096
29	0xbca3e37f	-0.02000594
30	0xbd43cade	-0.04780089
31	0xbd2ebc42	-0.042660005
32	0xbccb502d	-0.024818504
33	0xbd09222a	-0.033479847
34	0xbceda608	-0.029009834
35	0xbd0dd49b	-0.034626585
36	0xbcc40634	-0.02392874
37	0xbd14757c	-0.036244854
38	0xbd11c07e	-0.035583965
39	0xbced726d	-0.028985227
40	0xbd3a0887	-0.04541829
41	0xbc64c1fd	-0.013962266
42	0xbd239a1b	-0.03994189
43	0xbc839314	-0.016061343
44	0x3bf24ea9	0.007394631
45	0xbd455952	-0.048180886
46	0xbc664967	-0.014055586
47	0xbca6f813	-0.020381963
48	0x37bba100	2.2367109e-05
49	0xbc01a70c	-0.007913362
50	0xbcbe8b3d	-0.023259753
51	0xbbac25dd	-0.005253537
52	0xbd26a793	-0.040687155
53	0xbd38e102	-0.04513646
54	0xbc3ae554	-0.011407215
55	0xbd1cba2f	-0.038263496
56	0xbd296380	-0.041354656
57	0xbd190aad	-0.037363697
58	0xbd4147fa	-0.047187783
59	0xbcd36a0e	-0.025807407
60	0xbd213135	-0.039353568
61	0xbd25aaea	-0.0404462
62	0xbc76964f	-0.015050485
63	0xbc987c4a	-0.018613953
64	0xbd556160	-0.052094817
65	0xbd12a14a	-0.03579835
66	0xbcea1d64	-0.028578468
67	0x3b77e6e7	0.0037826838
68	0xbd439d52	-0.047757454
69	0xbd184c7a	-0.03718231
70	0xbcb0b1fa	-0.02156924
71	0xbccd413f	-0.025055526
72	0xbd0cc481	-0.03436709
73	0xbd2dfff3	-0.04248042

1.layers.4.0.weight f4 [74, 370]
0	0xbc196fff	-0.009365081
1	0x3c993c62	0.01870555
2	0xbd82c0e9	-0.06384451
3	0xbb8f35ac	-0.004370412
4	0x3e2237c5	0.15841587
5	0x3d816ad4	0.06319204
6	0x3e166c7e	0.14689824
7	0x3dba6314	0.09100929
8	0x3cd4948a	0.025949735
9	0x3d840a0f	0.06447231
10	0xbd035198	-0.032060236
11	0xbdbb78b3	-0.09153881
12	0x3d97c205	0.07410053
13	0xbd215830	-0.039390743
14	0xbc8b33d2	-0.016992483
15	0x3ddb4664	0.10706785
16	0xbc8ce975	-0.017201165
17	0xbdb89178	-0.09012121
18	0xbbafcda8	-0.0053650923
19	0x3d034712	0.0320502
20	0xbd5b25a0	-0.05350268
21	0x3cbdfaea	0.023190934
22	0x3d248f41	0.04017568
23	0x3d3a8910	0.04554087
24	0xbc847255	-0.016167799
25	0x3b0758a3	0.0020652197
26	0xbbf62047	-0.007511172
27	0x3d32476c	0.043525144
28	0xbdf7164c	-0.120648
29	0xbd85f82d	-0.065414764
30	0x3dc59d4d	0.09649143
31	0x3c925bf4	0.017866112
32	0xbcb7952e	-0.022410002
33	0xbdf5689a	-0.11982842
34	0x3d0c76a7	0.034292843
35	0x3c5e4ae5	0.013567661
36	0x3c8ee509	0.017443197
37	0x3c324668	0.010881044
38	0x3cfaac8a	0.030599851
39	0xbdae3ea9	-0.08508045
40	0x3d3b4e41	0.045728926
41	0x3a1ee0b1	0.00060607033
42	0xbc9719e9	-0.018444972
43	0x3d7e2b9d	0.06205331
44	0x3d6f49ce	0.058419995
45	0xbd798b78	-0.060924023
46	0x3c43f647	0.011960573
47	0x3d17bc4b	0.037044805
48	0x3dd12117	0.102113895
49	0x3e476c02	0.19474795
50	0xbe462462	-0.19349816
51	0x3c8fa3b0	0.017534107
52	0x3e200238	0.15625846
53	0x3d939ff5	0.07208244
54	0x3d6a4a16	0.05719956
55	0xbd211f3e	-0.039336435
56	0x3da7f46a	0.08200915
57	0xbe114db5	-0.14189799
58	0xbd081292	-0.033220835
59	0xbd56b180	-0.05241537
60	0xbd71e7b2	-0.059058852
61	0x3d4bf6cb	0.049795907
62	0x3ddf1499	0.108926006
63	0x3d2831e9	0.041063223
64	0x3d5169cc	0.051126286
65	0x3d979fa4	0.07403496
66	0x3e27c41f	0.16383408
67	0xbc5cb882	-0.013471724
68	0xbde89e3f	-0.11358308
69	0x3d4d746a	0.05015985
70	0x3cc8b31b	0.024499467
71	0x3db6796e	0.089098796
72	0x3e0c5d5a	0.13707486
73	0x3e0cba3b	0.13742916
74	0xbd60b74b	-0.0548623
75	0xbc630743	-0.013856712
76	0x3bd87d34	0.0066067223
77	0x3dfdbaf6	0.123891756
78	0xbdab41c4	-0.08362153
79	0x3cacd945	0.021099696
80	0x3b96eebf	0.0046060975
81	0x3dd4acda	0.10384531
82	0xbe0ca200	-0.13733673
83	0x3d11986f	0.035545763
84	0xbcbf39f7	-0.02334307
85	0xbdc86e08	-0.09786612
86	0x3caada46	0.020856034
87	0xbdbeb12d	-0.09311137
88	0x3d6ce24b	0.057832997
89	0x3d017c4a	0.031612672
90	0x3a7141d2	0.00092032284
91	0x3ce5666e	0.028002944
92	0x3d2569b0	0.040383995
93	0x3df92e09	0.12166984
94	0xbdfa28a8	-0.12214786
95	0x3d39e43e	0.045383684
96	0x3d808610	0.062755704
97	0xbde09052	-0.10965027
98	0x3caf9fc7	0.021438492
99	0xbaeb76e6	-0.0017964512
100	0x3df36e17	0.11886232
101	0xbdb5df67	-0.08880501
102	0x3da1ce22	0.07900645
103	0x3c8bd0e7	0.017067386
104	0x3e80d91e	0.25165647
105	0xbd6686a1	-0.056280736
106	0x3daf2e81	0.08553792
107	0xbe17cb3d	-0.14823623
108	0xbe00c09c	-0.12573475
109	0x3cb76932	0.022389028
110	0x3d5bdb7f	0.053676125
111	0xbe007a91	-0.12546755
112	0x3dd50210	0.10400784
113	0xbc3afafa	-0.011412377
114	0x3de439da	0.11143847
115	0xbd70d0cc	-0.058792874
116	0x3d754e58	0.059889168
117	0x3cc4de57	0.024031801
118	0xbd000e92	-0.031263895
119	0xbcf21ed9	-0.029555725
120	0x3e13e8d9	0.14444293
121	0x3d588653	0.052862477
122	0x3e6731a6	0.22577533
123	0x3cae2762	0.021259014
124	0xbe384d3b	-0.17998211
125	0x3b458c05	0.0030143273
126	0x3d711937	0.058861937
127	0x3db02193	0.08600154
128	0x3dabdd17	0.08391779
129	0xbcb1664c	-0.021655224
130	0xbd14e807	-0.03635409
131	0x3d1affed	0.037841726
132	0xbe00751f	-0.12544678
133	0x3d1ffcf6	0.0390596
134	0xbd0ad859	-0.03389773
135	0xbdbae32c	-0.09125361
136	0xbdf2ccad	-0.11855445
137	0x3d9c78b5	0.076402105
138	0xbddfbd01	-0.109247215
139	0xbdaeb9bf	-0.08531522
140	0xbcac4f05	-0.021033773
141	0xbd82796b	-0.06370815
142	0x3ad7b0b7	0.0016455863
143	0xbdc3676b	-0.0954121
144	0x3d9166b9	0.07099671
145	0xbd175585	-0.036946792
146	0x3d8f11f2	0.06985845
147	0xbd8683b1	-0.06568087
148	0x3db14997	0.08656614
149	0xbd8cc7ac	-0.06874022
150	0x3cb9ebb7	0.022695405
151	0xbdcf8896	-0.101334736
152	0x3cb5b868	0.022182658
153	0x3cff7924	0.031185694
154	0xbe0fa07f	-0.14026068
155	0xbe08ba04	-0.1335221
156	0x3d79b08d	0.060959388
157	0xbd5e4797	-0.054267492
158	0x3ccea0cd	0.02522316
159	0xbb658c6e	-0.003502633
160	0x3d084ceb	0.03327648
161	0xbc316b8b	-0.010828863
162	0x3dcb7b4c	0.099356264
163	0x3d428e9a	0.047499277
164	0xbcfb2a0f	-0.030659704
165	0x3cf4202e	0.0298005
166	0x3d262cb6	0.040569983
167	0xbb5184d2	-0.0031970036
168	0x3d39935b	0.045306545
169	0x3e4b26d9	0.19839038
170	0x3dae7bd4	0.08519712
171	0x3e5fdde9	0.21861996
172	0x3d8c5123	0.06851413
173	0xbded040e	-0.11573039
174	0x3d8d2d15	0.06893364
175	0xbcec0c6f	-0.028814523
176	0x3d639d30	0.055569828
177	0x3ceb0b56	0.028691929
178	0x3d81d22e	0.06338917
179	0x3e329e86	0.17443284
180	0x3d292095	0.04129084
181	0x3bd52b5d	0.0065054134
182	0x3da96403	0.08271029
183	0xbd863b6b	-0.06554302
184	0xbb686622	-0.0035461267
185	0x3db5e84f	0.088822
186	0xbe147495	-0.14497598
187	0x3db55ef6	0.08856003
188	0xbd32bc6a	-0.043636717
189	0xbd80c1fc	-0.062869996
190	0x3d364478	0.04449889
191	0x3d3c7082	0.046005733
192	0xbd68b1cf	-0.056810196
193	0x3e1afb29	0.15134872
194	0x3dc91c92	0.098199025
195	0x3d0bad5c	0.034100875
196	0xbd9899cb	-0.07451209
197	0x3dfc725e	0.12326501
198	0xbcc2f77a	-0.023799647
199	0x3dd58c78	0.10427183
200	0x3c1e012d	0.009643835
201	0xbda0140a	-0.07816322
202	0xbd6736f6	-0.0564489
203	0x3e05727f	0.13031958
204	0xbd2de52c	-0.042454883
205	0x3d2cca86	0.04218533
206	0x3d508aba	0.05091355
207	0xbdba2f13	-0.0909101
208	0xbd67f28e	-0.056627803
209	0x3c6468a2	0.013940962
210	0x3daa1379	0.08304495
211	0x3dd21c06	0.10259251
212	0x3dbd5396	0.092444584
213	0xbdb35f94	-0.087584645
214	0xbc1aa81a	-0.009439493
215	0xbc989741	-0.018626811
216	0xbe0ff77b	-0.1405925
217	0xbd51d5f8	-0.051229447
218	0x3da91883	0.08256628
219	0x3daaacf7	0.08333772
220	0x3e27e6c9	0.16396631
221	0x3dfb90e0	0.12283492
222	0xbc8cb93c	-0.01717817
223	0x3d16d915	0.03682812
224	0x3c7b5d25	0.015342032
225	0xbcf15199	-0.029457854
226	0x3aa0c05a	0.0012264356
227	0xbe1def96	-0.15423426
228	0x3da99461	0.08280254
229	0xbd1fadc8	-0.03898409
230	0xbd4c3080	-0.04985094
231	0x3d29c17d	0.04144429
232	0xbda010d1	-0.078157075
233	0xbcbb17bb	-0.022838464
234	0x3d459e38	0.048246592
235	0xbc9699cd	-0.018383885
236	0x3cae957b	0.021311512
237	0x3c75d7b5	0.015005042
238	0x3e28cac0	0.16483593
239	0x3db3fa7c	0.087880105
240	0x3d2f9944	0.042870775
241	0x3cfba75f	0.030719457
242	0x3ce6ac1f	0.028158246
243	0x3d8f3bab	0.06993803
244	0xbe1496ce	-0.14510652
245	0xbe251034	-0.16119462
246	0x3de19407	0.11014562
247	0x3bc1b566	0.005911517
248	0x3e17e2ac	0.14832562
249	0x3dd7eae0	0.10542846
250	0x3d574052	0.052551575
251	0x3d204f68	0.039138228
252	0xbd830d34	-0.06399003
253	0x3d9a37f0	0.075302005
254	0x3dafa18b	0.08575734
255	0xbdb959d3	-0.09050336
