DNNWeights/model/ensemble_0/selected_set_0_0_0.onnx (onnx, 872444 bytes, 17 tensors)

0.embeds.0.weight f4 [2, 1]
0	0xbd47cfe1	-0.048782233
1	0x3fc3b65d	1.5290028

0.embeds.1.weight f4 [3, 2]
0	0x3e141537	0.14461218
1	0xbffedbc2	-1.9910815
2	0xbf8d7808	-1.1052256
3	0xbeb35e2b	-0.35032782
4	0x40426be8	3.037836
5	0xbf03420d	-0.5127266

0.embeds.2.weight f4 [2, 1]
0	0xbd43f529	-0.047841225
1	0xc00c8e5b	-2.1961887

0.embeds.3.weight f4 [2019, 50]
0	0x3ea5ef26	0.32409018
1	0xbfb5ac35	-1.4193178
2	0x3efce354	0.49392188
3	0xbeb56ffc	-0.35437
4	0xbea67818	-0.325135
5	0x3e8f68e5	0.28009716
6	0xbf3d7b58	-0.7401633
7	0xbf1e1070	-0.6174383
8	0xbf6bbf54	-0.9208882
9	0xc06d7218	-3.7100887
10	0x3f6b15c2	0.91830075
11	0xbf2af866	-0.66785276
12	0xbe424657	-0.18972145
13	0xbd2cb9b3	-0.042169284
14	0x3f9c36fb	1.2204279
15	0xc0224de4	-2.536004
16	0xbf04d0a3	-0.51880854
17	0x3f352d00	0.7077179
18	0x3f9836ba	1.1891701
19	0xbfb50e2a	-1.4144948
20	0xbefb8fca	-0.4913314
21	0x3e9f7924	0.3114711
22	0x4022d4de	2.5442424
23	0x3f0b2138	0.5434756
24	0xbec0e419	-0.37674025
25	0xbf604d3d	-0.87617856
26	0xbeeef5a6	-0.4667179
27	0x3fb25efa	1.3935235
28	0x3f58ed46	0.8473705
29	0xbe5b6336	-0.21424565
30	0xbebcd0f4	-0.3687817
31	0x3ffa0cb6	1.9535129
32	0x3f16c5eb	0.5889575
33	0xbed3872b	-0.41314062
34	0xbf929c47	-1.1453942
35	0xbc9cbd74	-0.019133307
36	0xbf81e641	-1.0148393
37	0xbe67d12e	-0.2263839
38	0xbeda76c9	-0.4266875
39	0xbf2aaa70	-0.66666317
40	0xbe1cda2f	-0.15317605
41	0xbf4b25a4	-0.7935431
42	0xbf31143a	-0.6917149
43	0xbf9e347e	-1.2359769
44	0xbeb4788b	-0.35248217
45	0x3e20edc0	0.15715694
46	0x3f33c96d	0.70229226
47	0x3eb9dd70	0.36301756
48	0x3e31b793	0.17355184
49	0xbf403003	-0.7507326
50	0xbde05b99	-0.10954971
51	0xbedcc723	-0.4312068
52	0xbf8f25cf	-1.1183413
53	0x3f5402f3	0.82817
54	0xbf35d110	-0.7102213
55	0x3e6b065f	0.22951649
56	0xbdd3e296	-0.10345952
57	0x3dcb7388	0.09934145
58	0xbdb73ed8	-0.08947533
59	0xbf4dba02	-0.8036195
60	0x3f25148f	0.64484495
61	0xbe444bdc	-0.19169563
62	0xbf9749ac	-1.1819358
63	0x3f5f1299	0.8713775
64	0x3e388fde	0.18023631
65	0x3f449fd0	0.76806355
66	0x3f70adb3	0.94015044
67	0xbcf18d6e	-0.029486384
68	0xbe6c2207	-0.23059855
69	0xbe973c25	-0.29538074
70	0xbf742700	-0.9537201
71	0xbe253efc	-0.16137308
72	0xbfa12573	-1.2589554
73	0xbe4b4d5d	-0.1985373
74	0xbee09765	-0.43865505
75	0xbe83c31b	-0.2573479
76	0x3f55a8eb	0.83460873
77	0xbfb4b44d	-1.4117523
78	0x3f75de36	0.9604219
79	0x3f5522f2	0.8325645
80	0xbeb8cfd9	-0.36096075
81	0xbf072b93	-0.52800864
82	0x3fe8e7f4	1.8195786
83	0xbf402071	-0.750495
84	0x3f621223	0.88308924
85	0x3f457c6f	0.77142996
86	0xc02551fd	-2.5831292
87	0xbf3be469	-0.733954
88	0xbd8ae2c7	-0.067815356
89	0xbd47924c	-0.048723504
90	0xc00d2eb3	-2.2059753
91	0x3f66425b	0.89945
92	0x3e6de7aa	0.23232904
93	0xbee3e03d	-0.44507018
94	0x3f999c33	1.2000793
95	0xc02128c3	-2.518113
96	0x3f046f75	0.5173257
97	0x3e69b5ff	0.22823332
98	0x3fa18df0	1.2621441
99	0xbf297f65	-0.66210014
100	0xbf15023c	-0.58206534
101	0xbf7bcd4d	-0.9836014
102	0xbf32ef35	-0.6989625
103	0xbecc4a0b	-0.3990024
104	0xbe6dad42	-0.23210624
105	0x3f2fd573	0.6868507
106	0xbf055189	-0.5207754
107	0xbec229fe	-0.37922662
108	0xbf3b2af7	-0.73112434
109	0xbef7e39d	-0.48415843
110	0x3fb0d52c	1.3815055
111	0x3fd0f9df	1.6326255
112	0x3e8791ae	0.26478332
113	0xbfd20a45	-1.6409384
114	0xbfbdca72	-1.4827406
115	0x3ef8558d	0.4850277
116	0x3f51ee1c	0.8200395
117	0xbf097bde	-0.5370463
118	0x3f70a0b8	0.9399524
119	0xbeed6f3c	-0.46373928
120	0xbf226762	-0.63439
121	0x3fc82a35	1.563788
122	0x3eb7c465	0.35892025
123	0x3f432297	0.76224655
124	0x3f5c50a6	0.8606056
125	0x3f7bea79	0.9840465
126	0x3cb34fbe	0.02188861
127	0x3f7401ad	0.9531506
128	0x3fd5ae7d	1.6693875
129	0xbfb56df3	-1.4174179
130	0x3d81befc	0.063352555
131	0x3f90aa43	1.130196
132	0xbec92ed6	-0.39293545
133	0x3fd7e6fa	1.6867363
134	0xbf375968	-0.716208
135	0x3b2225e7	0.002474183
136	0x3f987176	1.1909626
137	0x3ef3e93c	0.4763888
138	0x3f880061	1.0625116
139	0xbd89c75e	-0.067274794
140	0x3e604b25	0.21903665
141	0xbf3dea0e	-0.74185264
142	0x400b23d5	2.174062
143	0xbf060278	-0.52347517
144	0xbf821d28	-1.0165148
145	0x3ee70645	0.4512197
146	0xbf82a51f	-1.0206641
147	0x3e4ab4f9	0.19795598
148	0xbf027616	-0.50961435
149	0xc0126f82	-2.288056
150	0xbccfaf4b	-0.02535214
151	0x3dce0d73	0.10061159
152	0x3f0c2376	0.5474161
153	0x3f15abb2	0.5846511
154	0xbfa269a2	-1.2688487
155	0x3f985409	1.1900645
156	0xbf1addad	-0.604945
157	0xbeda697b	-0.426586
158	0x3f8a2e97	1.0795468
159	0x3fb87c39	1.441291
160	0xc010f67b	-2.265044
161	0xbf86db04	-1.0535588
162	0xbec6b145	-0.3880712
163	0x3f180c48	0.5939374
164	0x3f7bdadb	0.9838082
165	0x3f3618e1	0.7113171
166	0x3e02c922	0.12772039
167	0x3fc4d6ff	1.5378112
168	0x3e308404	0.1723786
169	0xbf1ba230	-0.60794353
170	0xbeca823d	-0.3955249
171	0xbffe7c74	-1.988173
172	0x3f396c64	0.72431016
173	0xbeba4519	-0.36380842
174	0x3e2ab54c	0.16670722
175	0x3d2c0c1a	0.04200373
176	0x3dd565ac	0.10419783
177	0xbf5f0fa2	-0.8713323
178	0x3f8707a5	1.0549208
179	0x3eb15b59	0.34640005
180	0x3f363028	0.7116723
181	0x3fc2fff3	1.523436
182	0x3ea1ea46	0.3162405
183	0x402b8e5f	2.6805646
184	0xbca85f2e	-0.020553198
185	0xbf77f4e2	-0.96858037
186	0xbe167c3b	-0.14695828
187	0xbf8b6d96	-1.0892818
188	0x3f326f10	0.6970072
189	0xbf0b64c5	-0.5445064
190	0x3f53b2ad	0.8269451
191	0xbf043831	-0.5164824
192	0xbf2c3231	-0.67264086
193	0x3f91c3f9	1.1387931
194	0xbf56cf64	-0.839102
195	0xc02ffb0b	-2.7496974
196	0xbed68673	-0.41899452
197	0x3fa7c4d2	1.310694
198	0xbf92b4c1	-1.1461412
199	0x3ff9a47f	1.9503325
200	0xbea3aeb8	-0.31969237
201	0xbe88263e	-0.26591676
202	0xbea51b6a	-0.32247478
203	0x3e1ce05c	0.15319961
204	0xbf42bc95	-0.76069003
205	0x3f2d6bf4	0.6774285
206	0xbf9c6698	-1.2218809
207	0xbf3b4923	-0.7315847
208	0xbeffac5a	-0.4993618
209	0xbe4adee8	-0.19811594
210	0xbf573502	-0.8406526
211	0xbf302a0d	-0.68814164
212	0xbf1db0ce	-0.6159791
213	0xbf92c01b	-1.1464876
214	0x4003e3f3	2.060788
215	0xbe152055	-0.14563115
216	0xbf6fb65f	-0.9363765
217	0x3d45aee5	0.048262496
218	0x3fc943ab	1.5723776
219	0x3f40fbbe	0.7538413
220	0x3fd8c228	1.6934252
221	0x3fb689e0	1.4260826
222	0x3f17f7e0	0.593626
223	0xbfaa1b43	-1.328957
224	0x3db08c0e	0.08620463
225	0xbf90757b	-1.1285852
226	0xbf589f00	-0.84617615
227	0x3fbb002d	1.4609429
228	0xbef327a9	-0.47491196
229	0x3fea80ab	1.8320516
230	0xbee00dbd	-0.4376048
231	0xbf2bf871	-0.67175967
232	0x3e6f05bb	0.2334203
233	0xbdf769f7	-0.12080758
234	0xbfbcf192	-1.4761221
235	0xbf687094	-0.9079678
236	0xbed4cdf2	-0.41563374
237	0xbeabc852	-0.3355127
238	0xbf396a97	-0.7242827
239	0xbfa44d07	-1.2836007
240	0x3f3931c2	0.7234155
241	0xbdacb064	-0.08432081
242	0x3fdc9f45	1.7236105
243	0xbf95f71c	-1.1716037
244	0x3e9ecc9e	0.31015486
245	0x3e8f4c95	0.27988115
246	0x3fb32ecf	1.399866
247	0x3e857650	0.26066828
248	0x3f15643b	0.58356065
249	0x3fa5a95b	1.2942308
250	0x3c8d08ee	0.017216172
251	0x3e8661b0	0.26246405
252	0xbfff3272	-1.993727
253	0xbfb898ac	-1.4421592
254	0x3e8d6914	0.2761923
255	0x3fd721d6	1.6807201

1.layers.0.0.weight f4 [74, 74]
0	0xbe8b64ff	-0.2722549
1	0xbc85342f	-0.016260235
2	0xbe6f8f45	-0.23394497
3	0x3e1d370b	0.15353028
4	0xbf22806d	-0.6347721
5	0xbeb1ec5e	-0.34750646
6	0x3ec1a70b	0.37822756
7	0x3e8b1d1f	0.27170655
8	0xbd15266f	-0.036413606
9	0x3e4ef08f	0.20208953
10	0x3e72499a	0.2366089
11	0xbdae0b52	-0.08498253
12	0xbd3ac0a9	-0.04559389
13	0x3eef149b	0.46695408
14	0x3d60a637	0.054846015
15	0xbe01008c	-0.12597865
16	0xbd6e765e	-0.058218352
17	0xbd9334dd	-0.07187817
18	0xbe7b2272	-0.24524859
19	0xbe01b2d5	-0.12665875
20	0x3e0fd35e	0.14045474
21	0xbe657144	-0.22406489
22	0xbe43add8	-0.19109285
23	0x3e339045	0.17535503
24	0xbd66fd1d	-0.05639373
25	0x3cb9fd45	0.022703776
26	0x3dbbad8d	0.091639616
27	0x3ea9c81a	0.33160478
28	0x3da99bc2	0.082816616
29	0xbe20ca9f	-0.15702294
30	0x3db56c59	0.08858556
31	0xbe1ca44b	-0.15297048
32	0x3d3e95bc	0.046529517
33	0xbdee6d69	-0.11641962
34	0x3e0b8bf4	0.13627607
35	0x3cfb5293	0.030679023
36	0x3e17bf4e	0.1481907
37	0x3e2fd704	0.17171866
38	0x3c0bd846	0.00853545
39	0xbec51bfb	-0.3849791
40	0xbdffa4a7	-0.12482577
41	0xbe443a95	-0.19162972
42	0x3e52486a	0.20535436
43	0xbdcd5cc0	-0.10027456
44	0x3dca9ea0	0.098935366
45	0x3d908369	0.070563145
46	0x3dbcc74f	0.092177026
47	0xbdfe8b37	-0.12428897
48	0x3c648b8a	0.013949284
49	0xbe3b2903	-0.18277363
50	0xbcb10ee9	-0.021613555
51	0xbdd1f6ba	-0.102521375
52	0x3dd51a25	0.10405377
53	0xbe1c9e64	-0.15294796
54	0xbe77d2a2	-0.24201444
55	0x3e980917	0.29694435
56	0x3cdcec31	0.026968094
57	0x3c4ac223	0.012375387
58	0x3d272e4b	0.040815633
59	0x3e299d3a	0.16563883
60	0x3dee2d88	0.11629778
61	0x3e2cfa8e	0.16892454
62	0xbde934e8	-0.11387044
63	0x3cf1e9f6	0.029530507
64	0xbe0f5aab	-0.13999431
65	0xbd8e5469	-0.06949694
66	0x3d386cde	0.0450257
67	0x3cbf4b23	0.023351258
68	0x3d0eaefb	0.034834843
69	0xbc1ed94c	-0.009695362
70	0x3e7d226a	0.24720159
71	0xbe2e4786	-0.17019472
72	0x3d246eb8	0.040144652
73	0x3e6d6262	0.23182061
74	0xbe5e9618	-0.21736944
75	0x3e829a28	0.25508237
76	0xbf1997f8	-0.5999751
77	0xbd5007d1	-0.050788704
78	0xbd1114ec	-0.035420343
79	0xbe91f6f2	-0.28508717
80	0xbe4131f3	-0.1886671
81	0x3d9bd10f	0.07608234
82	0x3ef79f7c	0.48363864
83	0x3e85c285	0.2612497
84	0xbd99189f	-0.07475399
85	0xbed5ce6a	-0.41759044
86	0xbd721f7c	-0.059112057
87	0xbe850873	-0.2598301
88	0x3deaf505	0.11472515
89	0x3f18c8d4	0.5968144
90	0x3d87c96c	0.06630215
91	0x3e41ef94	0.18939048
92	0x3e8dcb34	0.27694094
93	0xbd1b3504	-0.037892357
94	0x3e2b2e4c	0.1671688
95	0xbe12fb29	-0.14353622
96	0x3da33e00	0.0797081
97	0xbd73f210	-0.05955702
98	0xbe6a6dd5	-0.2289346
99	0xbc7d2474	-0.015450586
100	0xbe006b8c	-0.12541026
101	0x3c83fe55	0.016112486
102	0xbd3ce048	-0.04611233
103	0x3e9ae6fc	0.30254352
104	0xbe91fb8a	-0.28512222
105	0xbd18f917	-0.037346926
106	0x3c4caf13	0.012492913
107	0xbc127a2f	-0.008940264
108	0x3d63b833	0.055595588
109	0xbd77a2fc	-0.06045817
110	0xbd0acdc8	-0.033887655
111	0xbdbb0481	-0.091317184
112	0x3e11846a	0.14210668
113	0xba50b2bd	-0.00079612044
114	0xbe1fade0	-0.15593672
115	0xbb6d9a5f	-0.0036255342
116	0x3e21d6f7	0.15804659
117	0x3dfd16f5	0.12357894
118	0x3eb0577d	0.34441748
119	0x3e4650aa	0.19366708
120	0x3d1bebe1	0.03806675
121	0xbd1a371c	-0.037650213
122	0xbe3bdc0a	-0.18345657
123	0x3e1eb2ef	0.15497945
124	0x3cef55f9	0.0292158
125	0xbe0d1367	-0.13776933
126	0x3e42d8d9	0.19028033
127	0xbe65e74f	-0.22451518
128	0x3d0c6df9	0.034284566
129	0xbeb1e0ce	-0.34741825
130	0x3daef2c2	0.08542396
131	0x3dabb967	0.08384972
132	0xbd91e7b9	-0.07124276
133	0xbe3feb9b	-0.1874222
134	0xbe3b02d4	-0.18262798
135	0x3e3275ce	0.17427751
136	0xbe2b1354	-0.16706592
137	0x3c932c18	0.017965361
138	0x3e4b1698	0.19832838
139	0x3c5b942c	0.013402026
140	0x3e2bed50	0.16789746
141	0x3d2c3468	0.042042166
142	0x3d691d52	0.056912728
143	0x3e7e77f9	0.24850453
144	0xbe02b64f	-0.12764858
145	0x3de11c53	0.109917305
146	0xbe288dba	-0.16460314
147	0xbe97110a	-0.29505187
148	0x3eccbc3c	0.3998736
149	0xbee281a0	-0.4423952
150	0xbd3641f0	-0.044496477
151	0x3e1cba7e	0.15305516
152	0x3d8964d2	0.06708683
153	0x3ef74bd9	0.48300055
154	0xbcf40e1b	-0.029791882
155	0x3d7f9676	0.06239935
156	0xbd96ca59	-0.073628135
157	0xbd9cea47	-0.07661872
158	0xbe0b9085	-0.13629349
159	0xbead71ff	-0.33876035
160	0x3d09a99a	0.03360901
161	0x3d138cb5	0.03602286
162	0xbc3b27e8	-0.011423089
163	0xbde4bad1	-0.11168445
164	0xbe206aeb	-0.15665786
165	0x3d85604f	0.0651251
166	0x3d8e4392	0.06946482
167	0x3d34bb45	0.044123907
168	0xbeeec20c	-0.4663242
169	0xbe0df2d6	-0.13862166
170	0x3df3bfb8	0.11901802
171	0xbd8fd066	-0.07022171
172	0xbe8d385b	-0.27582058
173	0x3da7329c	0.0816395
174	0x3e14cbc2	0.14530852
175	0xbdbcea56	-0.092243835
176	0xbecabf58	-0.3959911
177	0x3d85df91	0.065367825
178	0xbe0a141d	-0.13484235
179	0xbe1706fa	-0.14748755
180	0x3e74e095	0.23913796
181	0x3d837210	0.0641824
182	0xbcf93a47	-0.030423297
183	0xbdbcee3d	-0.09225128
184	0x3e78387a	0.24240294
185	0xbdc161ff	-0.094425194
186	0x3e250eae	0.16118881
187	0xbe6d440f	-0.23170494
188	0xbe2dd124	-0.16974312
189	0x3e5aa410	0.21351647
190	0xbe224cab	-0.15849559
191	0x3e549a49	0.2076198
192	0xbece435a	-0.4028576
193	0xbd8b4273	-0.067997836
194	0xbe0cccfe	-0.13750073
195	0x3e8e4cee	0.27793068
196	0xbe76ec86	-0.24113664
197	0xbca23cb0	-0.019804329
198	0xbc23f4aa	-0.010007063
199	0xbd74b9e3	-0.059747588
200	0x3e94fccf	0.29099128
201	0x3cb6fd7a	0.022337664
202	0xbd25769a	-0.04039631
203	0xbe97632f	-0.2956786
204	0x3e856b0e	0.2605824
205	0x3d8eb07e	0.06967257
206	0xbdb298ac	-0.08720526
207	0xbeb942a2	-0.3618365
208	0x3d95240a	0.072822645
209	0x3de46bbe	0.11153363
210	0x3de65bb7	0.11247962
211	0xbbb7d7a9	-0.0056104255
212	0xbcad198c	-0.021130346
213	0xbd255763	-0.04036654
214	0xba52e821	-0.0008045454
215	0x3d1b095f	0.037850734
216	0xbd8d8c9c	-0.06911585
217	0x3e5790d7	0.21051346
218	0x3d7f4549	0.062321935
219	0x3bbeda27	0.0058243456
220	0xbe09fbc1	-0.13474943
221	0xbe92bd56	-0.28660077
222	0x3f3bbe14	0.7333691
223	0xbee30568	-0.44340062
224	0x3d2ebc3b	0.04265998
225	0xbd62f0ca	-0.055405416
226	0x3e6e633f	0.23280047
227	0x3e7ce02f	0.24694894
228	0x3db37907	0.087633185
229	0x3e1b3eb0	0.15160632
230	0xbe580d60	-0.21098852
231	0x3a85464d	0.0010168046
232	0x3cffb2df	0.031213222
233	0xbef0a738	-0.47002578
234	0x3d847935	0.06468431
235	0x3bb75559	0.005594891
236	0xbe4776d9	-0.1947893
237	0xbd677fe2	-0.056518443
238	0xbe82fae8	-0.2558205
239	0x3f1c421d	0.6103838
240	0x3e73a23c	0.23792356
241	0x3e0b1465	0.13581999
242	0x3c4332a2	0.011913927
243	0x3ca088b9	0.019596444
244	0x3e30aea3	0.17254119
245	0x3ea5804e	0.3232445
246	0x3e041134	0.12897187
247	0xbe8366a0	-0.25664234
248	0x3e190c2f	0.14946054
249	0xbd79a5d6	-0.06094917
250	0xbe600931	-0.21878506
251	0x3e98a223	0.298112
252	0x3dbc2e02	0.09188463
253	0xbe52638f	-0.20545791
254	0x3e30b5db	0.17256872
255	0x3e4f7170	0.20258117

1.layers.0.0.bias f4 [74]
0	0xbc958553	-0.01825205
1	0xbd26c1fd	-0.040712345
2	0xbd836770	-0.064162135
3	0xbd791609	-0.06081203
4	0xbcac7d80	-0.021055937
5	0xbdc6e081	-0.097107895
6	0xbc7b9b86	-0.015356904
7	0xbd6159d2	-0.0550173
8	0xbd330974	-0.043710187
9	0x3bd6a48c	0.0065503772
10	0xbce11d3c	-0.02747976
11	0xbbd8f959	-0.0066215214
12	0xbca9f479	-0.020746456
13	0xbda4d325	-0.08048085
14	0xbc8dcfdf	-0.017311035
15	0xbd8c2e06	-0.06844716
16	0xbc3404b7	-0.010987452
17	0xbd1e0c2e	-0.038585834
18	0xbd54448f	-0.051823195
19	0x3bdefe79	0.006805238
20	0xbce6765f	-0.028132616
21	0xbd115e25	-0.035490174
22	0xbd3535a1	-0.044240598
23	0xbd2ec77e	-0.04267072
24	0xbd9300f0	-0.07177913
25	0xbd886502	-0.06659891
26	0xbd9c695b	-0.076372825
27	0xbbdf6754	-0.0068177376
28	0xbce1c086	-0.027557623
29	0xbd6bc37b	-0.05755947
30	0xbcb47102	-0.022026543
31	0xbbbf5d14	-0.005839953
32	0xbda54c34	-0.08071175
33	0xbcf90c7c	-0.03040146
34	0xbcf1340e	-0.029443767
35	0xbda33ec8	-0.07970959
36	0x3c8ee764	0.01744432
37	0xbd15d9fa	-0.03658483
38	0xbd05e369	-0.03268758
39	0xbd2c3f2d	-0.042052437
40	0xbd935206	-0.07193379
41	0xbcec9469	-0.028879361
42	0xbd668496	-0.056278788
43	0xbbbd72ab	-0.0057814918
44	0xbd03685c	-0.032081947
45	0x3b933243	0.0044920756
46	0x3b5dc967	0.003384197
47	0xbd82cb3a	-0.06386419
48	0xbd212f26	-0.039351605
49	0xbce90b6f	-0.028447835
50	0xbc99ae8a	-0.018759985
51	0xbcd7bd84	-0.026335485
52	0xbcdef908	-0.027218357
53	0x3b02b0cc	0.0019941805
54	0xbd69ec9c	-0.057110414
55	0xbd494678	-0.04913947
56	0xbd8d1149	-0.068880625
57	0xbdc22a35	-0.094807066
58	0x3c54cd53	0.012988406
59	0xbd00e5b4	-0.031469062
60	0xbda9a944	-0.08284238
61	0xbd3aa370	-0.045566022
62	0xbc045401	-0.008076669
63	0xbc882ab7	-0.01662193
64	0xbd7cb667	-0.06169739
65	0xbc35f63e	-0.011106072
66	0xbda90b46	-0.08254103
67	0xbc744ec5	-0.014911358
68	0xbe07ccfa	-0.13261786
69	0xbd54da0d	-0.051965762
70	0xbd4ba949	-0.04972199
71	0xbd7f0a89	-0.062265906
72	0xbc80042a	-0.015626986
73	0xbd87630f	-0.06610691

1.layers.1.0.weight f4 [74, 148]
0	0xbe34de05	-0.17662819
1	0x3e8df316	0.27724522
2	0x3e3369ea	0.17520872
3	0x3e06643e	0.13124177
4	0x3d7acf53	0.061232876
5	0xbe1ead08	-0.15495694
6	0x3d4ab7fa	0.04949186
7	0x3d9e0fd2	0.07717861
8	0x3d3b9de3	0.04580487
9	0x3e4b98ce	0.19882509
10	0xba03cdce	-0.00050279207
11	0xbc2be026	-0.010490453
12	0x3d489555	0.04897054
13	0x3c642a1a	0.013926053
14	0xbd2e473e	-0.04254841
15	0xbc4c48ab	-0.012468497
16	0xbe3b788d	-0.18307705
17	0x3d6557f9	0.0559921
18	0xbdc12b6b	-0.094321094
19	0x3a4e815e	0.00078775536
20	0x3d931dab	0.07183393
21	0xbd997854	-0.07493654
22	0x3bb2fa15	0.005461941
23	0x3c859aec	0.016309224
24	0x3d880912	0.06642355
25	0xbd0b6e81	-0.03404093
26	0xbd583aa4	-0.0527903
27	0x3ae7b86f	0.0017678867
28	0x3e24be30	0.16088176
29	0xbdadee95	-0.084927715
30	0xbd8b1517	-0.06791132
31	0x3db65269	0.08902437
32	0x3cace913	0.021107232
33	0x3d6ae1ae	0.05734413
34	0x3ccb1792	0.024791513
35	0x3b76382c	0.0037570102
36	0x3bce4a90	0.0062955096
37	0xbda94c3c	-0.08266494
38	0xbb9eb01e	-0.004842772
39	0xbe39827d	-0.18116184
40	0x3d170a6e	0.03687518
41	0xbe5b47db	-0.2141413
42	0xbe48ebf4	-0.19621259
43	0xbd2fcdfb	-0.042921048
44	0x3c205379	0.009785526
45	0x3c846f69	0.016166406
46	0x3de7b824	0.11314419
47	0xbe26facc	-0.16306609
48	0xbdbb9371	-0.091589816
49	0x3daefe96	0.08544652
50	0x3eb9c862	0.36285692
51	0xbae46c75	-0.0017427342
52	0xbe25e70a	-0.16201416
53	0xbc3a6fc9	-0.011379191
54	0xbe038348	-0.12843049
55	0xbd981bf5	-0.074272074
56	0xbd2c269e	-0.042029016
57	0x3d12db24	0.03585352
58	0x3e2d6a29	0.16935028
59	0xbd9a4ead	-0.075345375
60	0xbd24ffcf	-0.04028302
61	0x3e294578	0.16530406
62	0xbd1fd288	-0.039019138
63	0xbe14940a	-0.14509597
64	0x3d7234f7	0.059132542
65	0x3e063458	0.13105905
66	0x3dba1991	0.09086908
67	0xbd7aafb4	-0.06120272
68	0x3decfec1	0.11572028
69	0xbe3f735e	-0.18696353
70	0xbd90bae7	-0.07066899
71	0x3ce35629	0.027751045
72	0xbdb0bcdd	-0.08629773
73	0x3da60ba8	0.08107692
74	0x3d83263e	0.064037785
75	0x3d873213	0.06601348
76	0xbcf9ceda	-0.030494142
77	0xbc1e2249	-0.009651729
78	0xbdc54d77	-0.09633916
79	0xbda8232b	-0.08209833
80	0x3d79cf28	0.060988575
81	0x3d8468c3	0.06465294
82	0xbe94abd0	-0.29037333
83	0xbe0c47e0	-0.13699293
84	0x3d8e6378	0.06952566
85	0xbe547a7f	-0.20749854
86	0xbda80ebe	-0.08205937
87	0x3de4bdd1	0.11169017
88	0xbd9f0c49	-0.07766015
89	0xbdaa6b18	-0.08321208
90	0x3cc9acb6	0.024618488
91	0x3e05f08a	0.1308004
92	0x3e25aea0	0.16179895
93	0x3c59938c	0.013279807
94	0x3cce4aac	0.02518209
95	0x3e4b0f67	0.19830094
96	0x3d16b804	0.036796585
97	0xbdc5985e	-0.09648202
98	0xbdb151c6	-0.08658175
99	0x3e4f97c7	0.20272742
100	0x3d9e9af7	0.07744401
101	0xbdcda18a	-0.10040577
102	0xbda9725c	-0.082737654
103	0x3d64739c	0.055774316
104	0xbd8ab53f	-0.06772851
105	0xbda43807	-0.08018499
106	0xbe03c6ad	-0.12868758
107	0x3c8b4de2	0.01700491
108	0x3d3569f4	0.044290498
109	0xbe7f952e	-0.24959251
110	0x3d4d1ac5	0.050074358
111	0xbdbaf762	-0.09129216
112	0x3e3ccbbd	0.18437095
113	0x3e2cb72d	0.16866751
114	0xbe5507d4	-0.20803767
115	0xbdb40c2f	-0.08791386
116	0xbdc52daf	-0.09627854
117	0x3dbd451f	0.092416994
118	0x3e23af1b	0.15984766
119	0xbd65c216	-0.056093298
120	0xbe284ceb	-0.16435592
121	0xbd16d382	-0.036822803
122	0x3e05240e	0.13002035
123	0xbc98ea8f	-0.018666534
124	0x3d3c4868	0.04596749
125	0x3e3f5d56	0.18687949
126	0xbe9ee399	-0.31033018
127	0xbda86a9b	-0.082234584
128	0xbe8214d5	-0.2540652
129	0x3e4a059c	0.19728702
130	0x3dcd4b9e	0.100241885
131	0x3e85c9aa	0.2613042
132	0xbb234417	-0.002491241
133	0xbe53f8f5	-0.20700438
134	0xbdfe4431	-0.1241535
135	0xbd9d4241	-0.076786526
136	0x3c256e5b	0.010097112
137	0x3e175637	0.14778982
138	0xbdd8e095	-0.105897106
139	0x3dec8d59	0.115503974
140	0xbd3df5e7	-0.04637709
141	0x3e7f6f2c	0.24944752
142	0x3d595448	0.053058892
143	0x3d6d38a3	0.05791534
144	0xbd3a5bd9	-0.04549775
145	0xbe8f7efd	-0.28026572
146	0x3e48e56c	0.19618767
147	0x3dd3030c	0.103033155
148	0x3da2fb1c	0.079580516
149	0x3c80f719	0.015742825
150	0x3de06284	0.1095629
151	0x3c30801f	0.010772734
152	0x3df7ebe7	0.12105542
153	0x3e98bbd1	0.29830793
154	0x3d2692af	0.040667232
155	0xbea68dc9	-0.32530048
156	0x3e32180e	0.17391989
157	0xbe95ec13	-0.29281673
158	0xbd63740b	-0.05553059
159	0x3e68aa70	0.22721267
160	0x3d3341a6	0.04376378
161	0x3da9bb49	0.08287675
162	0x3cdb33e5	0.026758144
163	0x3d5ae16f	0.053437646
164	0xbd0bcf7e	-0.034133427
165	0x3d72ad48	0.059247285
166	0xbd9a01d0	-0.07519877
167	0x3df101f6	0.11767952
168	0xbe1762e7	-0.14783822
169	0x3c82ab33	0.015950775
170	0xbe5354c9	-0.20637812
171	0x3df2381b	0.118271075
172	0x3e94e991	0.29084447
173	0x3e9d6570	0.30741453
174	0x3dd1adc4	0.10238221
175	0xbd862127	-0.06549292
176	0x3dda635e	0.10663484
177	0xbddc73f1	-0.107643016
178	0xbe1da5d8	-0.15395296
179	0x3d0cf5e6	0.034414195
180	0x3d261d7a	0.040555455
181	0x3e2ae4a2	0.16688779
182	0xbd7f9afc	-0.062403664
183	0xbe081837	-0.13290487
184	0x3da05361	0.07828403
185	0x3e13da7e	0.14438817
186	0xbe36344c	-0.17793387
187	0xbe49a305	-0.19691093
188	0x3dbb7296	0.09152715
189	0xbd91565f	-0.07096552
190	0x3d166728	0.03671947
191	0x3d00db32	0.03145904
192	0x3db70e5a	0.08938284
193	0xbdf8ffa5	-0.12158135
194	0x3d1dbe8c	0.038511798
195	0x3db26fe8	0.08712751
196	0x3c0eceb3	0.008716273
197	0x3e295eca	0.16540065
198	0x3d579096	0.052628122
199	0xbe0e4d2a	-0.13896623
200	0x3e3d2451	0.18470885
201	0x3cfc2346	0.030778538
202	0x3e0b4e0f	0.13603996
203	0x3e9e93ac	0.3097204
204	0xbe20f7f4	-0.15719587
205	0xb988e38a	-0.0002610947
206	0x3c56a5b2	0.013101028
207	0xbd381e96	-0.044951044
208	0x3d43d1bf	0.04780745
209	0x3e124d0c	0.14287204
210	0xbcbaf671	-0.02282259
211	0xbdbe31a5	-0.09286813
212	0x3d1d6fd0	0.03843671
213	0xbd86718c	-0.06564626
214	0xbd481d1c	-0.048855886
215	0x3d892f63	0.066984914
216	0xbd6d2a01	-0.057901386
217	0xbe807b42	-0.25094038
218	0x3c8ad8bb	0.016949048
219	0xbde854d6	-0.11344306
220	0x3d9ecc91	0.07753862
221	0xbe2dc10f	-0.16968177
222	0xbdcbd709	-0.09953124
223	0xbdbf2886	-0.09333901
224	0x3d931634	0.07181969
225	0x3da41a59	0.08012838
226	0xbb6e5ea9	-0.003637234
227	0xbe7b985f	-0.24569844
228	0xbd1d1a81	-0.038355354
229	0xbe03fe6d	-0.12890024
230	0xbcdc75ca	-0.026911635
231	0x3edae9bc	0.4275645
232	0xbc88747b	-0.016657105
233	0x3dca6608	0.09882742
234	0xbd708f43	-0.058730375
235	0x3dc26354	0.094916016
236	0x3e057885	0.13034256
237	0xbd71d46f	-0.059040483
238	0x3e7eee86	0.24895677
239	0x3d89b621	0.067241915
240	0x3de847dc	0.11341831
241	0xbd0d196f	-0.034448083
242	0xbea35411	-0.31900075
243	0xbf0e617d	-0.55617505
244	0xbdcd3acf	-0.100209825
245	0xbe8409a7	-0.25788614
246	0x3c3ba0bc	0.011451896
247	0xbb0f9b68	-0.0021912698
248	0x3df1c984	0.11806014
249	0xbe115516	-0.14192614
250	0xbcd6b5d9	-0.026209759
251	0xbd842113	-0.06451621
252	0xbe831a14	-0.25605834
253	0xbdef42d6	-0.1168267
254	0x3e0f1a4b	0.13974874
255	0x3d2f0038	0.042724818

1.layers.1.0.bias f4 [74]
0	0xbd6576f0	-0.05602163
1	0xbd81aba7	-0.06331568
2	0xbb0aa262	-0.0021153917
3	0xbc8680c0	-0.016418815
4	0xbd7c6cb3	-0.0616271
5	0xbc2ecf49	-0.010669538
6	0xbd3fdc0a	-0.046840705
7	0xbcccb1ee	-0.024987187
8	0xbd24c78e	-0.040229373
9	0xbccf5661	-0.025309743
10	0xbcd35b00	-0.025800228
11	0xbd52c6c7	-0.0514591
12	0xbd7491c1	-0.059709314
13	0xbd2f8fb2	-0.042861648
14	0xbcb2b22f	-0.02181348
15	0xbd22eb7a	-0.03977535
16	0xbd46bc07	-0.04851916
17	0xbcd6e19c	-0.026230626
18	0xbd11ef9e	-0.035628907
19	0xbd50bd67	-0.05096188
20	0x3bbebc7b	0.0058208085
21	0xbcc2e70d	-0.023791814
22	0xbd9c433c	-0.076300114
23	0xbd2cc88c	-0.042183444
24	0xbd2b0112	-0.041749068
25	0xbdaee1a0	-0.08539128
26	0xbd2a3869	-0.041557703
27	0x3cc868a6	0.024463963
28	0xbcce59db	-0.02518933
29	0xbd07f620	-0.033193707
30	0xbccc46a2	-0.024936024
31	0xbd19f52b	-0.037587326
32	0xbc03a3a1	-0.008034618
33	0xbcdfd7d6	-0.027324598
34	0xbcb522f4	-0.022111394
35	0xbd1a3570	-0.03764862
36	0xbc1bc5c3	-0.009507599
37	0x3c2da666	0.0105987545
38	0xbcd6ead9	-0.026235031
39	0xbdbf91eb	-0.093540035
40	0xbd2f20f6	-0.042756043
41	0xbce4e154	-0.027939476
42	0x3b01d616	0.0019811443
43	0x3c204d04	0.009783987
44	0x3bc1579d	0.005900337
45	0xbcdb325c	-0.026757412
46	0xbd14de90	-0.036345065
47	0xbd81501f	-0.0631411
48	0xbaf80234	-0.0018921555
49	0xbd211a3a	-0.039331652
50	0xbd460e2b	-0.048353355
51	0xbd772c05	-0.060344715
52	0xbd97ca97	-0.07411688
53	0xbd41cd1a	-0.04731474
54	0xbd80dc59	-0.06292028
55	0xbd782b7d	-0.06058835
56	0xbdd0df2f	-0.10198819
57	0xbc355e35	-0.011069824
58	0xbd47b514	-0.048756674
59	0xbcc7c2e9	-0.024384933
60	0xbba0df04	-0.004909398
61	0xbd7d97fa	-0.061912514
62	0xbcc6ef87	-0.024284137
63	0xbd51a6a9	-0.05118433
64	0xbd7ec5bb	-0.06220029
65	0xbb281c0f	-0.002565149
66	0xbce46b8e	-0.027883317
67	0xbc9b8936	-0.018986326
68	0xbc2cae33	-0.010539579
69	0xbd1c2c4c	-0.038128182
70	0x3b88645e	0.0041623553
71	0xbdbda3a9	-0.09259731
72	0x3ab624ce	0.0013896467
73	0xba5b2a67	-0.00083605055

1.layers.2.0.weight f4 [74, 222]
0	0x3e18728a	0.14887443
1	0x3e2a0153	0.16602068
2	0xbdad69c8	-0.08467442
3	0xbd932eba	-0.07186647
4	0xbc9efc7b	-0.019407501
5	0x3e4200fd	0.1894569
6	0xbd96e2fb	-0.07367512
7	0xbc966b39	-0.018361675
8	0xbc13af24	-0.009013925
9	0xbd89d5e4	-0.067302495
10	0xbdf0ebbd	-0.117637135
11	0xbde72938	-0.11287159
12	0xbdf0b449	-0.11753137
13	0x3d57523a	0.05256865
14	0x3d73a37d	0.059482086
15	0xbca72f74	-0.02040837
16	0xbd951e02	-0.07281114
17	0xbe1c2434	-0.15248185
18	0x3bc90527	0.0061346474
19	0x3bfe20ef	0.007755391
20	0x3db71653	0.08939805
21	0xbe6331f7	-0.22187029
22	0xbcaa8581	-0.020815613
23	0xbd0a643b	-0.033786993
24	0x3e4d9b33	0.20078735
25	0xbe8e3b2e	-0.27779526
26	0x3d8dc9ed	0.0692328
27	0x3d14ebea	0.036357798
28	0xbe07515f	-0.13214634
29	0x3e1aff8a	0.15136543
30	0xbcc815f1	-0.024424525
31	0x3d94ecdd	0.072717406
32	0xbd29de2f	-0.041471656
33	0xbe253ad7	-0.16135727
34	0x3d55e122	0.052216657
35	0x3db50caf	0.0884031
36	0xbd457f5b	-0.04821716
37	0x3e13e902	0.14444354
38	0xbdbb37c4	-0.09141496
39	0xbd02ac43	-0.031902563
40	0x3bcb2d0b	0.006200438
41	0x3d28c86c	0.041206762
42	0x3ce01db5	0.027357915
43	0xbe48e0a8	-0.1961695
44	0xbdb85136	-0.08999865
45	0xbd137418	-0.035999388
46	0xbcc43308	-0.023950115
47	0xbd631290	-0.055437624
48	0x3c039c69	0.008032897
49	0xbddca8be	-0.107743725
50	0xbda8d625	-0.0824397
51	0xbc0a4d53	-0.008441287
52	0xbb9c5619	-0.004771006
53	0xbe227b70	-0.158674
54	0x3ceff38b	0.029290935
55	0xbd9d3593	-0.07676234
56	0x3da9294d	0.082598306
57	0x3d238e68	0.03993073
58	0x3dc35bbb	0.095389806
59	0xbdbaa01e	-0.09112571
60	0x3ce6f444	0.028192647
61	0x3d17de66	0.03707733
62	0xbb165e18	-0.0022944268
63	0xbe0e5dd6	-0.13902983
64	0x3dd45e35	0.10369531
65	0x3c57a37f	0.013161539
66	0x3dd9048f	0.105965726
67	0x3df0af2f	0.117521636
68	0x3db52ab4	0.088460356
69	0x3c9b2da9	0.01894267
70	0xbd798290	-0.06091553
71	0x3dbafffe	0.09130858
72	0xbd7995e4	-0.060933962
73	0xbda233ab	-0.07920011
74	0xbd805f6d	-0.06268201
75	0xbdef37f6	-0.116805956
76	0x3c736d55	0.01485761
77	0xbe6d1154	-0.23151141
78	0x3d886d51	0.066614754
79	0xbe082fdc	-0.13299507
80	0xbcc18136	-0.023621183
81	0xbc69a66d	-0.01426087
82	0x3e083920	0.13303041
83	0xbd50897c	-0.050912365
84	0xbbfd59bb	-0.007731644
85	0x3deff31f	0.117162935
86	0x3e402d10	0.1876719
87	0x3cf598fe	0.029980179
88	0xbcfae40b	-0.030626317
89	0xbdda3be1	-0.10655952
90	0x3d85b722	0.065290704
91	0x3d69d4a2	0.057087548
92	0xbc081256	-0.008305153
93	0xbd96f068	-0.073700726
94	0x3ca9274a	0.020648617
95	0x3ce89745	0.028392443
96	0x3d172bbb	0.03690694
97	0x3e2ad419	0.16682471
98	0xbe306f71	-0.17230012
99	0x3b7ac28c	0.0038262932
100	0x3d30eba1	0.043193463
101	0xbb0cc657	-0.0021480524
102	0x3ce7b261	0.0282833
103	0xbd3ec413	-0.04657371
104	0x3d11f10e	0.03563028
105	0xbe0b8681	-0.13625528
106	0x3df88e17	0.121364765
107	0x3d9b0ae4	0.075704366
108	0x3d79a0df	0.060944434
109	0x3d1f130a	0.038836516
110	0xbe3550a9	-0.1770655
111	0x3cc0a93c	0.023518197
112	0x3d124232	0.03570766
113	0xbe817657	-0.252856
114	0xbe629fc0	-0.22131252
115	0xbdf2caa5	-0.118550576
116	0xbe522df6	-0.20525345
117	0x3e901c2f	0.28146502
118	0x3dcafab5	0.099111
119	0xbdc5db49	-0.09660966
120	0x3d982726	0.07429342
121	0xbe47fb57	-0.19529472
122	0x3d04b317	0.032397356
123	0xbd641c70	-0.055691183
124	0x3daf16d7	0.08549278
125	0x3da05645	0.078289546
126	0x3ddb19c5	0.106982745
127	0x3d502fc8	0.050826818
128	0x3dda390a	0.106554106
129	0x3df64e8f	0.120267026
130	0xbb122a2a	-0.0022302964
131	0xbc66658b	-0.014062296
132	0x3d61af96	0.055099092
133	0xbe81ceff	-0.25353238
134	0xbd3b5219	-0.04573259
135	0x3de54869	0.11195452
136	0x3d1426e6	0.03616991
137	0xbd878a25	-0.06618146
138	0x3da28656	0.07935779
139	0x3caec0ec	0.021332227
140	0x3db83346	0.08994155
141	0x3e55c918	0.20877492
142	0xbdd82209	-0.10553367
143	0x3d7d69ab	0.06186835
144	0xbe31ef79	-0.17376508
145	0xbe722904	-0.23648459
146	0xbe3bae1d	-0.18328138
147	0xbd99cd1a	-0.07509823
148	0x3b0151cc	0.0019732593
149	0x3e41f164	0.1893974
150	0xbe94b760	-0.29046154
151	0xbe280dbc	-0.16411489
152	0xbeb7c99b	-0.35896
153	0xbdf7644d	-0.12079678
154	0xbc486bb1	-0.012232707
155	0xbde770c6	-0.11300807
156	0xbd0e7649	-0.034780774
157	0x3dc5a457	0.09650486
158	0x38d92d50	0.000103558064
159	0x3ed92d5b	0.42417416
160	0xbd14d84a	-0.03633908
161	0x3d135fab	0.035979908
162	0x3e87efe7	0.26550218
163	0xbc565955	-0.013082822
164	0xbe061275	-0.13092978
165	0x3d771eb2	0.060332008
166	0xbdda333c	-0.106543034
167	0x3d83f727	0.06443625
168	0xbdea1b0c	-0.1143094
169	0xbe623c56	-0.22093329
170	0x3d3b1f57	0.045684185
171	0xbe5ac92f	-0.21365808
172	0xbe39986a	-0.18124548
173	0x3e0fb78f	0.14034866
174	0xbd9228c5	-0.071366824
175	0xbb01e43e	-0.001981988
176	0xbd42f950	-0.047601044
177	0x3d666a65	0.05625381
178	0x3d420ba8	0.047374398
179	0x3e1deb89	0.15421881
180	0x3d5e591a	0.054284193
181	0x3b2e38d8	0.0026584174
182	0xbc568a6e	-0.013094528
183	0x3cf6c515	0.030123273
184	0xbc955a1b	-0.018231442
185	0xbe127784	-0.14303404
186	0xbe0fe395	-0.1405166
187	0x3c7eef40	0.015559971
188	0xbe573e58	-0.21019876
189	0xbde0a41b	-0.10968801
190	0xbc999edc	-0.018752508
191	0x3b82d709	0.0039929193
192	0xbdb508df	-0.08839583
193	0xbdfcaa5a	-0.123371795
194	0x3b7cd622	0.0038579782
195	0x3da63343	0.08115246
196	0xbd07f47f	-0.033192154
197	0x3dd11453	0.10208955
198	0xbe002ee0	-0.12517881
199	0x3d8347c9	0.06410176
200	0x3d091ae7	0.03347292
201	0xbd802288	-0.06256586
202	0x3d217d77	0.039426293
203	0x3d1cf20e	0.03831678
204	0xbc168ea5	-0.009189283
205	0x3e3586ad	0.17727156
206	0x3dd2c014	0.10290542
207	0x3d57ca85	0.052683372
208	0x3e2fe5cd	0.17177506
209	0x3d588d04	0.052868858
210	0xbd0ac2d5	-0.033877213
211	0x3dd649f5	0.10463325
212	0x3dab6abc	0.08369967
213	0xbdb88a82	-0.09010793
214	0x3a4c8fe8	0.0007803426
215	0x3dad6394	0.08466259
216	0xbe2b21a8	-0.16712058
217	0x3d10dc72	0.035366483
218	0x3cad409e	0.021148976
219	0xbccb0071	-0.024780484
220	0x3e2e31da	0.17011204
221	0xbddcec80	-0.10787296
222	0x3e04fba9	0.12986626
223	0x3e2189ba	0.15775195
224	0xbd8ad509	-0.067789145
225	0xbc4a3c4a	-0.012343476
226	0x3cc586c5	0.024112115
227	0x3e119642	0.14217475
228	0xbc33bf47	-0.010970897
229	0xbd7c8aa0	-0.06165564
230	0xbcf8227f	-0.030289887
231	0xbd82f891	-0.063950665
232	0xbe260eac	-0.16216534
233	0x3daee494	0.085396916
234	0xbd796054	-0.06088288
235	0x3cf6d8e8	0.030132726
236	0xbdd8391d	-0.105577685
237	0x3d7a6776	0.061133824
238	0x3a847aa7	0.0010107354
239	0x3cc9b0b5	0.024620393
240	0xbd10cf0e	-0.035353713
241	0xbe202f66	-0.15643081
242	0x3dea29e0	0.11433768
243	0xbc91fdd7	-0.017821236
244	0xbdca6520	-0.09882569
245	0xbdfcc8fb	-0.123430215
246	0x3ea0ecc5	0.3143064
247	0xbbc39556	-0.00596873
248	0x3dcb73a1	0.09934164
249	0x3c606d78	0.013697974
250	0x3d985d73	0.07439699
251	0xbce8bc5f	-0.028410135
252	0x3eac4070	0.33642912
253	0x3c4dab08	0.012552984
254	0xbddc9349	-0.1077028
255	0xbe20f459	-0.15718211

1.layers.2.0.bias f4 [74]
0	0xbd33f137	-0.043931212
1	0xbc864fa9	-0.016395407
2	0xbd97e02e	-0.07415806
3	0xbcb93bab	-0.02261146
4	0xbd087fd9	-0.03332505
5	0xbd3d1c91	-0.04616982
6	0xbd65a8d8	-0.056069225
7	0xbd86d73e	-0.06584023
8	0xbd2c9bfb	-0.042140942
9	0xbd8e89d0	-0.069598794
10	0x3b4452b1	0.0029956514
11	0xbc5e6777	-0.013574473
12	0xbd85f510	-0.065408826
13	0xbc29c94c	-0.010362934
14	0xbd976b4f	-0.07393514
15	0xbd7ee826	-0.062233113
16	0xbdb4f947	-0.088366084
17	0xbcf2cfe7	-0.029640151
18	0xbcb24574	-0.021761633
19	0xbd4875ca	-0.048940457
20	0xbd5dd125	-0.054154534
21	0xbd126ae7	-0.03574648
22	0xbd71318a	-0.058885135
23	0xbd123a3e	-0.035700075
24	0xbd025ba4	-0.031825677
25	0xbccfa897	-0.025348945
26	0xbd242123	-0.040070664
27	0x39535704	0.00020154944
28	0xbc8271fc	-0.015923493
29	0xbdb1f115	-0.08688561
30	0xbdbfe7f3	-0.09370413
31	0xbc19cb01	-0.009386779
32	0xbcbabd44	-0.022795327
33	0xbd91eae7	-0.07124882
34	0xbcf36e24	-0.029715605
35	0xbd499fb1	-0.04922456
36	0xbcd012a3	-0.025399512
37	0xbdabb0aa	-0.08383305
38	0xbb3ca108	-0.0028782506
39	0x3b19b49f	0.0023453606
40	0xbd17f868	-0.037102133
41	0xbb00bf5d	-0.0019645311
42	0xbd09c743	-0.033637296
43	0xbd4fde12	-0.050748892
44	0xbd4bcf90	-0.049758494
45	0xbd03be47	-0.032163884
46	0xbd2d946b	-0.04237787
47	0xbda803d3	-0.082038544
48	0xbcb6fc97	-0.022337241
49	0xbcac287c	-0.021015398
50	0xbb4027de	-0.0029320638
51	0xbcd1d347	-0.02561344
52	0xbd143e97	-0.036192503
53	0xbc459c84	-0.012061242
54	0xbd152827	-0.036415245
55	0xbcd965c5	-0.026537785
56	0xbd02266c	-0.031774923
57	0xbc4c37ae	-0.012464447
58	0xbc8bf48c	-0.017084382
59	0xbd51c20a	-0.05121044
60	0xbcf5b30f	-0.029992608
61	0xbc95f51b	-0.018305352
62	0xbc000268	-0.007813074
63	0xbd43e26b	-0.04782335
64	0xbb3990ca	-0.002831506
65	0xbd16557d	-0.03670262
66	0xbdd890e0	-0.10574508
67	0xbd2d95c0	-0.04237914
68	0xbd5ee39d	-0.054416288
69	0xbcdf716e	-0.027275767
70	0xbd85af64	-0.06527594
71	0xbd620256	-0.05517801
72	0xbddbd03f	-0.10733079
73	0xbc8428d0	-0.016132742

1.layers.3.0.weight f4 [74, 296]
0	0x3cea1693	0.028575217
1	0x3e3ad562	0.18245462
2	0x3d509915	0.05092724
3	0x3d4666fd	0.04843806
4	0x3df3f952	0.119127885
5	0xbd623a5d	-0.05523144
6	0xbc44694b	-0.011987994
7	0xbd8e2c78	-0.069420755
8	0x3c908665	0.01764221
9	0x3b81ccfe	0.0039612046
10	0xbe440197	-0.19141231
11	0x3dcc0939	0.099626966
12	0xbdddaec2	-0.10824348
13	0xbdb9926f	-0.09061133
14	0x3d8d4b0e	0.06899081
15	0xbdace4b3	-0.084420584
16	0x3dcbc56a	0.09949763
17	0x3d892321	0.066961534
18	0xbe21edaa	-0.15813318
19	0xbd8b549b	-0.068032466
20	0x3d99a515	0.0750219
21	0xbe3323ab	-0.17494075
22	0x3d2e94fe	0.04262256
23	0x3de6ad24	0.11263493
24	0x3d2ca240	0.04214692
25	0x3dded07f	0.10879611
26	0xbe29408c	-0.16528529
27	0x3bcc8345	0.0062412345
28	0xbdbf6a64	-0.09346464
29	0xbde198ae	-0.110154495
30	0xbd24cc42	-0.040233858
31	0x3c78c3a6	0.015183365
32	0x3d8fcdf6	0.07021706
33	0x3dab69fa	0.08369823
34	0x3e0604ef	0.1308782
35	0x3e44fe34	0.19237596
36	0xbd741512	-0.059590407
37	0x3d4f84f0	0.05066389
38	0x3da5cfeb	0.08096298
39	0x3d64d64d	0.055868436
40	0x3d9377c5	0.072005786
41	0x3e60dce3	0.21959262
42	0xbd53c0aa	-0.05169741
43	0xbd950914	-0.07277122
44	0x3d9a80a6	0.07544069
45	0x3cddd9d1	0.027081402
46	0x3d9a3966	0.07530479
47	0xbcfaead6	-0.030629557
48	0x3e01366c	0.12618417
49	0x3e2668dd	0.1625094
50	0x3dbfd8fb	0.093675576
51	0xbdbcc3ee	-0.09217058
52	0xbd079325	-0.033099312
53	0x3d163b15	0.03667744
54	0x39394d95	0.00017671876
55	0x3dccbea5	0.099973
56	0xbd6d5b02	-0.05794812
57	0x3cf6d856	0.030132454
58	0x3ddc086c	0.10743794
59	0x3cee86a3	0.029116934
60	0x3da28cd5	0.07937018
61	0xbe01e5a0	-0.12685251
62	0xbd54a08c	-0.051910922
63	0xbc976679	-0.01848148
64	0xbcb757c0	-0.02238071
65	0xbe5cbed9	-0.21557178
66	0xbe75bf06	-0.23998651
67	0x3d89041a	0.066902354
68	0xbca8cae0	-0.02060455
69	0xbe0d6a74	-0.1381014
70	0xbdd41b99	-0.10356826
71	0x3d8af3cb	0.06784781
72	0x3df867b8	0.12129158
73	0xbd91d47b	-0.071206056
74	0xbd4ce94b	-0.050027173
75	0xbd53c36e	-0.05170005
76	0x3dd7f42f	0.10544621
77	0x3ceb977c	0.028758757
78	0xbdb8f2fe	-0.09030722
79	0xbd9469a5	-0.072467126
80	0xbd5fc2f2	-0.054629274
81	0x3c2446d8	0.010026656
82	0xbdc32fd3	-0.09530606
83	0xbe67c933	-0.22635345
84	0xbd4f793e	-0.050652735
85	0xbe3ecb1d	-0.18632169
86	0xbd508fba	-0.05091832
87	0xbe68c6bd	-0.22732063
88	0x3dcf9cfd	0.10137365
89	0x3d857016	0.06515519
90	0x3d6c4af2	0.05768866
91	0xbd09c370	-0.03363365
92	0xbd9b1a2b	-0.075733505
93	0x3dd62064	0.10455397
94	0x3c81402c	0.01577767
95	0x3ddc73a3	0.107642435
96	0xbde2136a	-0.11038859
97	0xbe0ebae4	-0.1393848
98	0xbdd7d010	-0.10537732
99	0xbcc02f9d	-0.023460204
100	0xbb7479e5	-0.00373041
101	0x3d8301d3	0.06396832
102	0x3c64d273	0.013966191
103	0x3dc0a4e0	0.094064474
104	0xbd30848b	-0.043095153
105	0x3e218933	0.15774994
106	0xbe1c0973	-0.1523798
107	0x3e5ea113	0.21741132
108	0x3da3fbf9	0.08007044
109	0xbd5ce8a2	-0.053932793
110	0x3ce63593	0.028101718
111	0xbdab5577	-0.083659105
112	0x3daa06e9	0.08302099
113	0x3e06dc0f	0.13169883
114	0xbe0129bf	-0.12613581
115	0xbe0274bf	-0.12739848
116	0xbdbf9364	-0.093542844
117	0xbe288a30	-0.16458964
118	0xbe1e90cc	-0.15484923
119	0xbe38c26f	-0.1804292
120	0xbd6e8666	-0.05823364
121	0x3d11d104	0.035599723
122	0xbd34fc99	-0.04418621
123	0x3d2f4e7b	0.042799454
124	0x3e780f89	0.24224676
125	0xbbd45719	-0.0064801094
126	0xbb740eac	-0.003724019
127	0xbd0971b8	-0.033555716
128	0xbbf30bff	-0.0074172015
129	0xbb2171dd	-0.0024634518
130	0xbcd84613	-0.026400601
131	0xbe6188f1	-0.22024895
132	0xbdda9148	-0.106722414
133	0xbd67fd9e	-0.056638353
134	0x3d268d2b	0.040661972
135	0xbd12ce3a	-0.035841204
136	0x3e437cdf	0.19090603
137	0xbe71409c	-0.23559803
138	0x3d6db152	0.058030434
139	0x3dd8ddd6	0.10589187
140	0x3d47ad45	0.048749227
141	0x3d5a6d8f	0.05332714
142	0xbb2e030a	-0.0026552104
143	0xbd82697c	-0.06367776
144	0xbdc0b159	-0.094088264
145	0x3cd1a3b4	0.025590755
146	0xbde082f2	-0.10962476
147	0xbdb3f075	-0.08786098
148	0xbddf1efa	-0.1089458
149	0x3cce5a1d	0.025189454
150	0x3dda0115	0.10644738
151	0x3dd237d1	0.102645524
152	0xbd00d04d	-0.03144865
153	0x3d87d3f0	0.06632221
154	0xbde2cfce	-0.11074792
155	0x3cc744cb	0.024324795
156	0x3de28db6	0.110621855
157	0xbdca1319	-0.09866924
158	0xbcc65a4e	-0.024212983
159	0x3a61ab63	0.00086086075
160	0xbd6c19d7	-0.05764183
161	0x3bd21a82	0.0064118514
162	0xbe0a7124	-0.13519722
163	0xbc766f81	-0.015041233
164	0xbd98d39e	-0.07462238
165	0xbd1cf539	-0.0383198
166	0xbda00c4f	-0.07814848
167	0x3e346d9a	0.17619935
168	0xbc2f0549	-0.010682412
169	0xbdc5aa29	-0.09651596
170	0x3dc81b24	0.09770802
171	0xbe1431f0	-0.14472175
172	0xbdc534b5	-0.09629194
173	0x3e69d79b	0.22836153
174	0xbdd4774b	-0.10374316
175	0x3e31b28b	0.17353265
176	0x3da3a4a2	0.079903856
177	0xbd992513	-0.074777745
178	0xbcfd58c1	-0.03092611
179	0xbdc89858	-0.09794682
180	0xbd484f7f	-0.04890394
181	0x3ddbfed8	0.10741967
182	0xbdeedcdc	-0.11663219
183	0x3db15c04	0.08660129
184	0xbe2becea	-0.16789594
185	0x3d34df0c	0.044158027
186	0xbdb3831c	-0.087652415
187	0xbe35c07a	-0.17749205
188	0x3c39797b	0.011320467
189	0x3e46311e	0.19354674
190	0x3b14e0a0	0.0022716895
191	0x3e4305cb	0.19045179
192	0xbd819b51	-0.063284524
193	0x3d905d70	0.07049072
194	0xbe11a324	-0.1422239
195	0xbd8ab052	-0.06771912
196	0x3d31fa9f	0.0434519
197	0x3d0be4d8	0.03415379
198	0xbdb10d16	-0.08645074
199	0x3da7bec0	0.081906796
200	0xbe72c8b3	-0.23709373
201	0xbd56c97a	-0.052438237
202	0xbd6311c0	-0.05543685
203	0xbdb92a9d	-0.09041331
204	0x3e04b3e4	0.12959248
205	0xbd147abc	-0.03624986
206	0xbe71b078	-0.23602474
207	0x3e6bc84d	0.23025627
208	0x3d1e09c8	0.038583547
209	0xbe5a6899	-0.21328963
210	0xbc7c5f94	-0.015403647
211	0x3d6fba1b	0.058527093
212	0xbdbd921c	-0.09256384
213	0x3e128930	0.14310145
214	0xbd9783e4	-0.07398203
215	0xbe9e0e22	-0.30870157
216	0x3dbad9fe	0.0912361
217	0x3e7bad62	0.24577859
218	0xbe2cff49	-0.16894259
219	0x3dd09602	0.10184862
220	0xbd863f36	-0.06555025
221	0x3d8f7911	0.070055135
222	0xbde82449	-0.11335046
223	0x3e0d1668	0.13778079
224	0xbe973e66	-0.29539794
225	0x3dc5c036	0.09655802
226	0xbe220431	-0.15821911
227	0x3b4a7925	0.0030894962
228	0x3d6948ab	0.056954067
229	0x3e3e276f	0.1856973
230	0xbc97aa54	-0.018513836
231	0x3d958b7f	0.073019974
232	0xbe4a8055	-0.19775517
233	0x3ea7ab76	0.32748002
234	0x3e0693dd	0.13142343
235	0x3e757441	0.23970129
236	0x3e0b4cc9	0.1360351
237	0x3b084bf7	0.0020797232
238	0x3c530f1b	0.012882019
239	0x3d180e30	0.037122905
240	0xbe393c08	-0.18089306
241	0xbc19db42	-0.009390654
242	0xbdc91d69	-0.09820063
243	0xbe7e6123	-0.24841742
244	0x3d8e914a	0.069613054
245	0x3d922dbd	0.0713763
246	0xbd85a3cb	-0.06525382
247	0x3db789cb	0.08961829
248	0xbd92cc42	-0.07167865
249	0x3de786d5	0.11305014
250	0x3d68ac88	0.056805164
251	0xbc4d0ca0	-0.012515217
252	0xbd728b6e	-0.059215
253	0xbd256ed2	-0.04038889
254	0x3d181e98	0.03713855
255	0x3dd08bd2	0.101829186

1.layers.3.0.bias f4 [74]
0	0xbcb7632a	-0.022386152
1	0x3be87647	0.007094178
2	0xbd0a929a	-0.033831216
3	0xbb5f7a9a	-0.0034100176
4	0xbca2cf14	-0.019874133
5	0xbd93deb6	-0.07220213
6	0xbc30a7bd	-0.010782179
7	0xbd3dcb72	-0.0463366
8	0xbd1faf49	-0.038985524
9	0xbccd5c7f	-0.02506852
10	0xbcdadaca	-0.026715655
11	0xbc9db9fe	-0.019253727
12	0xbceb69ed	-0.028737033
13	0xbd30929d	-0.04310857
14	0xbdb7977e	-0.08964442
15	0xbcc0ee95	-0.023551265
16	0xbd179b5a	-0.03701339
17	0xbda50546	-0.080576465
18	0xbd00bd89	-0.031430755
19	0xbd12c626	-0.0358335
20	0xbd884a5d	-0.06654809
21	0xbb0cb5eb	-0.0021470736
22	0xbd1d051b	-0.038334947
23	0x3c0bba22	0.008528264
24	0xbd3fc7f4	-0.04682155
25	0xbd2033d8	-0.039111942
26	0xbcb881e0	-0.022522867
27	0xbbd7c951	-0.006585278
28	0xbcc40091	-0.023926051
29	0x3b081ce1	0.0020769166
30	0xbd086b70	-0.033305585
31	0xbc69391d	-0.014234808
32	0xb9d7c63e	-0.00041155698
33	0xbd00c740	-0.03144002
34	0xbceefc21	-0.029172959
35	0xbd4ad6ad	-0.049521137
36	0xbd462fef	-0.048385557
37	0xbd525401	-0.051349644
38	0xbd22a583	-0.039708626
39	0xbca38779	-0.01996206
40	0xbd0ae628	-0.0339109
41	0xbd335687	-0.04378369
42	0xbcde9411	-0.027170213
43	0xbd42099b	-0.04737244
44	0xbb214eca	-0.0024613612
45	0xbc95811a	-0.018250037
46	0xbd18eff8	-0.037338227
47	0x3c013bb4	0.0078877695
48	0xbd1d2356	-0.038363777
49	0xbd02a073	-0.031891298
50	0xbd3ec0f7	-0.046570744
51	0xbca30579	-0.01990007
52	0xbd12c026	-0.03582778
53	0xbd25262e	-0.040319614
54	0xbc7047d9	-0.014665567
55	0xbcf2d67f	-0.029643295
56	0xbc330b7e	-0.010928033
57	0xbc84ae2e	-0.016196337
58	0xbc810740	-0.015750527
59	0xbd7679da	-0.0601748
60	0xbd68220b	-0.05667309
61	0xbcc58aee	-0.024114098
62	0xbd32ca3a	-0.04364989
63	0xbd70a58e	-0.058751635
64	0xbd122a13	-0.035684656
65	0xbc12010d	-0.008911383
66	0xbd1b760b	-0.03795437
67	0xbcd6ecab	-0.026235899
68	0xbcd1e8f6	-0.02562378
69	0xbd06b2d1	-0.032885376
70	0xbd1e19a1	-0.03859866
71	0xbd5628d8	-0.052285045
72	0xbcd6d0ac	-0.02622255
73	0xbd91cedb	-0.07119533

1.layers.4.0.weight f4 [74, 370]
0	0xbd9d80c8	-0.07690579
1	0x3bf10c84	0.0073562283
2	0x3cab5623	0.020915097
3	0x3d0fc8e6	0.0351037
4	0xbba1af13	-0.0049342006
5	0x3d9ec2c8	0.07751995
6	0x3df8d4fd	0.12149999
7	0xbd1e09b2	-0.038583465
8	0x3c716d4c	0.014735531
9	0x3dbb0ff8	0.09133905
10	0x3cc03192	0.023461137
11	0x3da6519e	0.08121036
12	0x3d3bea0a	0.045877494
13	0xbdfa48fb	-0.12220951
14	0x3d5a5a87	0.05330899
15	0xbdb1d987	-0.08684068
16	0x3e6879a6	0.22702655
17	0x3cedd7c1	0.029033544
18	0xbca83025	-0.02053077
19	0x3dbde594	0.09272304
20	0xbc9b2875	-0.01894019
21	0xbdcea7e0	-0.10090613
22	0x3d4cc000	0.049987793
23	0x3e037cfc	0.12840647
24	0xbc7a36e4	-0.015271876
25	0xbdc9deac	-0.098569244
26	0xbc85c643	-0.01632989
27	0x3d8cc2b1	0.06873072
28	0x3e3972fb	0.18110268
29	0xbd6d2b66	-0.057902716
30	0xbd9fcedc	-0.07803127
31	0xbd9f4601	-0.07777024
32	0x3ca10236	0.019654375
33	0x3d8c8bd7	0.0686261
34	0xbd91547f	-0.070961945
35	0x3cb2573d	0.021770114
36	0x3d738810	0.05945593
37	0x3d675dec	0.056486055
38	0xbcaa8660	-0.020816028
39	0xbc52a02a	-0.012855569
40	0xbc083d4c	-0.008315396
41	0xbe11b52c	-0.14229268
42	0x3d3ea736	0.046546184
43	0x3cc0cecd	0.02353611
44	0x3d5ddce9	0.054165754
45	0x3d159b86	0.03652527
46	0xbd75735d	-0.059924472
47	0xb98d2f5e	-0.00026928907
48	0x3cb7e22a	0.02244671
49	0xbc428a1d	-0.011873749
50	0x3dad09ea	0.084491566
51	0x3d980490	0.07422745
52	0xbd7e855a	-0.062138893
53	0x3d827146	0.063692614
54	0x3da5e24b	0.080998026
55	0xbc8b726f	-0.01702234
56	0xbd3a50fd	-0.045487393
57	0x3dccd30b	0.10001191
58	0xbc470835	-0.012147953
59	0xbd97428d	-0.073857404
60	0xbe080871	-0.1328447
61	0xbcf10611	-0.029421838
62	0xbc08dbd3	-0.008353191
63	0x3d3a4d1d	0.045483697
64	0xbd5a6d63	-0.053326976
65	0x3da6d244	0.08145574
66	0xbde9d3f3	-0.11417379
67	0xbd8dee59	-0.06930227
68	0xbcd7a15b	-0.026322057
69	0x3e1ae79d	0.15127416
70	0xbd5d0463	-0.05395926
71	0x3d95b420	0.07309747
72	0xbd579708	-0.05263427
73	0xbd8f0d59	-0.06984968
74	0xbdcaa095	-0.0989391
75	0xba9c50d3	-0.0011925943
76	0xbc030edf	-0.007999151
77	0xbd86b224	-0.065769464
78	0xbd13029f	-0.03589117
79	0x3d34313a	0.04399226
80	0x3c1ae394	0.009453673
81	0x3b462b40	0.0030238181
82	0x3d08910c	0.033341452
83	0x3cf937da	0.03042214
84	0xbddfb539	-0.10923237
85	0x3ced85c1	0.028994443
86	0x3d09e903	0.033669483
87	0xbdb2ad81	-0.087244995
88	0x3bc0cf6a	0.0058841007
89	0x3d6c5a48	0.057703286
90	0x3c0c1377	0.008549563
91	0xbe1a9384	-0.15095335
92	0xbe1ffa05	-0.15622719
93	0x3cde525a	0.027138878
94	0x3d2326df	0.039831992
95	0x3d437fe0	0.047729373
96	0x3e10998d	0.14121075
97	0x3d893d72	0.06701173
98	0x3dd0ecb6	0.10201399
99	0xbe06beaa	-0.1315867
100	0x3dabf65c	0.08396599
101	0xbd23bce5	-0.039975066
102	0x3d654273	0.055971574
103	0x3e13c7f3	0.14431743
104	0xba3294d1	-0.00068123365
105	0x3dd8766e	0.10569464
106	0xbdf329bd	-0.11873195
107	0x3cb247fb	0.021762839
108	0x3debadc0	0.115077496
109	0xbd983a57	-0.074330024
110	0xbd96d312	-0.07364477
111	0x3cbf0859	0.02331941
112	0x3dce3259	0.10068197
113	0x3dd7bdfd	0.10534284
114	0xbce89204	-0.028389938
115	0xbd2d4b1e	-0.042307965
116	0xbd853e6b	-0.06506046
117	0x3db49190	0.08816826
118	0xbdd907d7	-0.105971985
119	0xbd068667	-0.03284302
120	0x3d9894ed	0.0745028
121	0x3d0bd893	0.03414209
122	0xbafccea5	-0.0019287659
123	0xbe1c1f43	-0.152463
124	0x3d0bd500	0.03413868
125	0xbd03f502	-0.03221608
126	0x3bae1a15	0.005313168
127	0x3dc74474	0.09729853
128	0x3d69f501	0.05711842
129	0xbd487cb2	-0.048947044
130	0x3d9b31ca	0.07577856
131	0x3cfcedaf	0.030875055
132	0x3c5eb62d	0.013593239
133	0xbd22f291	-0.03978211
134	0x3d5ea601	0.054357532
135	0x3dfc2bb6	0.12313025
136	0x3cbd5ab0	0.023114532
137	0x3d24cdf6	0.040235482
138	0x3d3ebb17	0.04656514
139	0xbce9c1a5	-0.02853472
140	0xbdda8dad	-0.10671554
141	0x3d11d349	0.035601888
142	0xbdad52e5	-0.084630765
143	0x3d554058	0.052063316
144	0xbda9e0d0	-0.08294833
145	0xbc6438c5	-0.013929551
146	0xbdaf9073	-0.085724734
147	0xbc8ed1a7	-0.017433954
148	0xbdfdc721	-0.123914964
149	0x3d9e5429	0.07730896
150	0x3e214958	0.15750635
151	0xbd5b8adc	-0.053599223
152	0x3df72926	0.12068395
153	0xbdf60e98	-0.12014502
154	0xbe149db8	-0.1451329
155	0x3df327b9	0.11872811
156	0xbddcb7fc	-0.1077728
157	0xbe36635e	-0.17811343
158	0x3db6539a	0.089026645
159	0xbe093828	-0.13400328
160	0x3d7f5241	0.062334303
161	0x3e048063	0.129396
162	0xbdef955a	-0.116984084
163	0x3c918f67	0.017768575
164	0xbd82864e	-0.06373273
165	0x3d84333e	0.06455086
166	0x3d9fd17f	0.0780363
167	0xbe282354	-0.16419727
168	0xbdd5872d	-0.10426173
169	0xbc4e04d1	-0.0125743905
170	0x3d5616c4	0.052267805
171	0x3e4add20	0.19810915
172	0xbce56a6f	-0.028004853
173	0x3d530679	0.051519845
174	0x3df7bccb	0.12096556
175	0x3c7087af	0.014680787
176	0xbda1f97f	-0.07908916
177	0x3e17cccf	0.14824222
178	0x3d155b4e	0.036464028
179	0xbd89508b	-0.067048155
180	0x3d7c7a4b	0.061640065
181	0xbe501566	-0.20320663
182	0xbe1208b9	-0.1426114
183	0x3da14f00	0.07876396
184	0x3cc9b30a	0.024621505
185	0xbc10e1af	-0.00884287
186	0xbdab9e89	-0.083798476
187	0x3d827e24	0.06371716
188	0xbd7eaa7c	-0.062174305
189	0xbd0804e8	-0.033207804
190	0xbdefc0fc	-0.11706731
191	0xbd0a7589	-0.033803497
192	0xbbae846c	-0.0053258445
193	0x3c4f2927	0.012644089
194	0xbe6e3896	-0.23263773
195	0x3cdab785	0.026698837
196	0x3d1767f6	0.03696438
197	0xbd5a270d	-0.053259898
198	0xbe324af5	-0.17411406
199	0x3d826f0c	0.06368837
200	0xbabb7510	-0.0014301855
201	0xbd2c661e	-0.042089574
202	0xbb53a757	-0.0032295787
203	0x3d9e38f3	0.07725706
204	0x3da87be9	0.08226759
205	0xbd22a12e	-0.039704494
206	0xbdebe945	-0.11519102
207	0xbde101fd	-0.10986707
208	0x3de96bbd	0.113975026
209	0xbe22200e	-0.1583254
210	0x3d8ca081	0.06866551
211	0xbd81935e	-0.06326936
212	0x3d83faa2	0.06444289
213	0xbd6973a3	-0.056995045
214	0xbd2703b5	-0.04077502
215	0xbd411b14	-0.047144964
216	0x3dc8bbe2	0.09801461
217	0xbd938a17	-0.07204073
218	0x3cdeb7e1	0.02718729
219	0x3df49f36	0.119444296
220	0xbdac1f67	-0.08404427
221	0xbd8e697e	-0.06953715
222	0xbb613fd0	-0.003437031
223	0xbcb1a00b	-0.02168276
224	0xbca783c3	-0.020448571
225	0x3d2591a3	0.040422093
226	0xbdf1dc13	-0.11809554
227	0xbd91dfff	-0.07122802
228	0x3bebc7b0	0.0071954355
229	0xbd9149e5	-0.070941724
230	0x3c695989	0.014242538
231	0x3cd4e0bd	0.02598607
232	0xbd235577	-0.039876428
233	0xbc8f3167	-0.017479612
234	0x3d41e0b2	0.047333427
235	0xbe461c94	-0.19346839
236	0xbd36f144	-0.044663683
237	0x3dc8be3f	0.098019116
238	0x3cab9144	0.020943291
239	0x3da27fa2	0.079345
240	0x3d460c4e	0.04835158
241	0x3d9eb1ca	0.07748754
242	0x3d26dd78	0.040738553
243	0xbe2df596	-0.16988215
244	0x3d10869e	0.03528463
245	0x3ddd431d	0.108038165
246	0xbde957f1	-0.113937266
247	0x3cca980d	0.024730707
248	0xbd6a3106	-0.05717566
249	0xbb6728f6	-0.0035272217
250	0xbd838309	-0.06421477
251	0x3db2041c	0.0869219
252	0x3db53065	0.08847121
253	0xbd828798	-0.06373519
254	0xbdb73ea7	-0.08947497
255	0x3e0c7b82	0.1371899
