DNNWeights/model/ensemble_0/selected_set_0_0_5.onnx (onnx, 872444 bytes, 17 tensors)

0.embeds.0.weight f4 [2, 1]
0	0x3f0cb9b3	0.54970855
1	0x3f2b0e88	0.6681905

0.embeds.1.weight f4 [3, 2]
0	0x3ff51802	1.9147952
1	0xbedd5ad5	-0.43233362
2	0xbf530d2d	-0.8244198
3	0xc0175952	-2.3648267
4	0x3d327970	0.043572843
5	0x3eea94a4	0.4581653

0.embeds.2.weight f4 [2, 1]
0	0x3fd0502b	1.6274465
1	0xbb7518e6	-0.0037398874

0.embeds.3.weight f4 [2019, 50]
0	0xbf8b8b6b	-1.0901922
1	0x3f5f0169	0.87111527
2	0xbd23e9f4	-0.040018037
3	0xbfc1784b	-1.5114836
4	0x3ecc73a6	0.39931983
5	0xbfac0089	-1.3437663
6	0x3f14bbac	0.58098865
7	0xbf96bde1	-1.1776696
8	0xc0347249	-2.8194754
9	0x3eab5079	0.33459833
10	0xbfa71b24	-1.3055158
11	0x3e3af607	0.18257914
12	0xbf80679e	-1.0031621
13	0xbe8b4be0	-0.27206326
14	0xbf6ca579	-0.9243999
15	0xbeacda84	-0.33760464
16	0x3e8ab006	0.2708742
17	0x3f8230c8	1.0171137
18	0x3f17b23f	0.59256357
19	0xbf821a1a	-1.0164216
20	0x3fddefa0	1.7338753
21	0xbd0b9020	-0.034072995
22	0x3f82c383	1.0215915
23	0xbf741eb0	-0.95359325
24	0xbf7f5c34	-0.99750066
25	0xbfd4acfc	-1.6615291
26	0x3f613139	0.8796573
27	0xbdb068f7	-0.086137705
28	0xbe56ccee	-0.20976612
29	0x3e682728	0.22671187
30	0xbf9defa9	-1.2338763
31	0x3f104f39	0.56370884
32	0x3f94d40f	1.1627215
33	0x3f26605d	0.6499079
34	0x3f89b430	1.0758114
35	0xbfe6d2d2	-1.8033087
36	0xc01d165e	-2.4544902
37	0x3f1e5f92	0.6186458
38	0xbf08e268	-0.5347047
39	0xbfd2a54d	-1.6456696
40	0x3d8dd446	0.069252536
41	0xbeba1e1a	-0.3635109
42	0x3fb455aa	1.4088643
43	0xbf0a5528	-0.5403619
44	0x3fae4d28	1.3617296
45	0xbf96d343	-1.1783222
46	0x3ffaddc2	1.9598925
47	0x3f0355f9	0.5130306
48	0xbe057acf	-0.13035129
49	0x3e40c56c	0.1882531
50	0xc00e466d	-2.2230484
51	0xbf0217de	-0.5081767
52	0xbf6482c6	-0.89262044
53	0xbf6fdea0	-0.93699074
54	0xc014010d	-2.3125641
55	0x3f24bf15	0.6435407
56	0x3f339624	0.7015097
57	0xbe4dc217	-0.2009357
58	0x3fc82cfb	1.5638727
59	0xbf9c696a	-1.221967
60	0xbf83a991	-1.0286123
61	0x3fb74c25	1.4320112
62	0xbf298116	-0.66212595
63	0xbe9804ef	-0.29691264
64	0x3ee2fb53	0.4433237
65	0xbf1b3bbc	-0.6063802
66	0xbf7e418c	-0.99318767
67	0xbf1c51ea	-0.6106249
68	0x3e70aa43	0.2350245
69	0xbf379e9d	-0.717264
70	0xbfb72fff	-1.4311522
71	0xbec3b895	-0.38226762
72	0xbf1e03f9	-0.6172481
73	0xbdbe2e20	-0.092861414
74	0x3f02663c	0.5093725
75	0x3f87e9ce	1.0618227
76	0xbf525b4b	-0.8217055
77	0xbf2bbf14	-0.6708844
78	0xbf844cde	-1.0335958
79	0xbf20081c	-0.62512374
80	0x3e25130c	0.16120547
81	0x3f14f379	0.5818401
82	0xbf997837	-1.1989812
83	0x3f95498f	1.1663073
84	0x3f86d295	1.0533015
85	0x3f3ac0b1	0.72950274
86	0x3ecb048e	0.39651912
87	0x3f926bff	1.1439208
88	0x3ee30482	0.44339377
89	0xbfc3a80f	-1.5285662
90	0xbd04316e	-0.032273702
91	0x3e8b96e1	0.2726355
92	0x3ebf0522	0.37308604
93	0x3f798dc4	0.9748194
94	0x3f7e045d	0.9922541
95	0xbf982263	-1.1885494
96	0xbf89256c	-1.0714545
97	0xbe8d570c	-0.27605474
98	0xbeb4ce98	-0.3531387
99	0x3f152d42	0.5827218
100	0x3e22fcc4	0.15916735
101	0xbf88773e	-1.066139
102	0xbf244d66	-0.641806
103	0xbed4d7ec	-0.41570985
104	0xbe984ccb	-0.29746088
105	0x40089f61	2.1347277
106	0x3f3267ed	0.6968983
107	0x3fb8a403	1.4425052
108	0xbfdd14b4	-1.7271943
109	0xbfc55fe6	-1.5419891
110	0x3ebd325d	0.36952487
111	0xbe39af47	-0.18133269
112	0x3f504a1c	0.8136308
113	0xbe602b6d	-0.21891566
114	0xbf6d8120	-0.92775154
115	0xbf74d903	-0.95643634
116	0x3f47d49e	0.78058803
117	0xbf20d207	-0.62820476
118	0x3c31cd24	0.010852132
119	0x3f932e93	1.1498588
120	0xbf5db7ae	-0.866084
121	0x3ef16e56	0.47154492
122	0x3f5f96a8	0.8733926
123	0x3e9df68a	0.30852157
124	0xbe627ecb	-0.2211868
125	0xbf9ba069	-1.2158328
126	0x3f86ef4f	1.0541781
127	0x3b8ded92	0.004331299
128	0xc0032281	-2.048981
129	0x3fb1e4ba	1.3897927
130	0x3eb93e03	0.36180124
131	0xbe6701a0	-0.22559214
132	0x3e9cd547	0.30631468
133	0xbededf69	-0.43529823
134	0x3f1dc87c	0.6163404
135	0x3e284c11	0.16435267
136	0xbede4453	-0.43411502
137	0xbffdffab	-1.9843649
138	0xbf54948d	-0.8303917
139	0x3fc579fe	1.5427854
140	0x3e2d27f1	0.16909768
141	0x3fbe7b5f	1.48814
142	0x3e34908b	0.17633264
143	0xbf33ce45	-0.7023662
144	0x3e6193f8	0.22029102
145	0x3e1be42f	0.15223764
146	0x3fd3bc3d	1.6541821
147	0x3e7b38b6	0.24533352
148	0x3ed3a291	0.41334966
149	0xbdba1206	-0.09085469
150	0xbfc3be7d	-1.5292507
151	0xbeb67bd1	-0.3564134
152	0x3f7476e0	0.9549389
153	0x3b3aa0f5	0.0028477286
154	0x3f811c6d	1.00868
155	0xc030e922	-2.7642293
156	0x3f3cbf55	0.7372945
157	0x3e84f823	0.25970563
158	0x3f8954f6	1.0729053
159	0xbf56eb29	-0.83952576
160	0xbeb1d294	-0.3473097
161	0xbfca3727	-1.5798081
162	0x3f593939	0.8485294
163	0xbe396b7a	-0.18107405
164	0x3f6115a3	0.8792364
165	0xbf61c977	-0.88198036
166	0x3f92b3e9	1.1461154
167	0x3ee44d78	0.44590354
168	0x3c07d487	0.008290417
169	0x3fb40462	1.4063838
170	0xbd0b5e66	-0.034025572
171	0x3f8f1afc	1.118011
172	0x3eb31702	0.3497849
173	0x3e8bf7cd	0.27337494
174	0xbe0f2368	-0.1397835
175	0xbfc06164	-1.5029721
176	0x3f19f744	0.6014292
177	0x3f3ad66e	0.72983444
178	0x3f960eb9	1.1723243
179	0x3e99b417	0.3002021
180	0x3e841456	0.25796765
181	0x3f0991e9	0.53738266
182	0xbf8c59c2	-1.0964892
183	0x3ec53f91	0.3852506
184	0xbfd5a138	-1.6689825
185	0xbed5509f	-0.41663072
186	0x3fb419b6	1.4070346
187	0x3f1854c4	0.5950434
188	0x3fc6bb61	1.5525934
189	0x3ee04bfe	0.43807977
190	0x3d821ece	0.06353532
191	0x3fa8774e	1.3161409
192	0x3f1143ce	0.56744087
193	0x3f544fdc	0.82934356
194	0xbf65b8ee	-0.89735305
195	0xbf1b544b	-0.60675496
196	0x3d344773	0.04401345
197	0x3edcb3cf	0.43105933
198	0xc0267e17	-2.601446
199	0xbe24da55	-0.16098912
200	0x3fa23e93	1.2675346
201	0x3fd7c9ce	1.6858461
202	0x3f0a0885	0.5391925
203	0x3f0c1c1c	0.5473039
204	0x3f5e00c8	0.8671994
205	0xbf3adad4	-0.72990155
206	0xbfe618b7	-1.7976292
207	0x3f572373	0.84038466
208	0xbe8e3fd9	-0.27783087
209	0xbe3d7287	-0.1850072
210	0x3ecbb625	0.39787403
211	0x3e125dc7	0.14293586
212	0xbeab0349	-0.33400944
213	0x3f8d21ec	1.1025977
214	0x3f5cd4cd	0.8626221
215	0x3f438a71	0.7638312
216	0xbfd9e348	-1.7022486
217	0xbe5d771b	-0.21627466
218	0xbd79d721	-0.06099618
219	0x4027f61a	2.6243958
220	0xbea803da	-0.32815439
221	0xbf27c0ee	-0.6552876
222	0xbf2a1fe7	-0.6645493
223	0x3f1bcb2f	0.6085691
224	0x3fcbb7f6	1.5915515
225	0xba42eaf3	-0.0007435523
226	0xbec65197	-0.38734123
227	0xbf18dccf	-0.5971193
228	0x3fa299a4	1.2703137
229	0xbe984a34	-0.29744112
230	0x3f73691b	0.95082253
231	0x3f92790f	1.1443194
232	0x3dfb00a7	0.12255984
233	0x3cc80fea	0.02442165
234	0x3ddc40e6	0.10754566
235	0x3f6a2bb3	0.9147293
236	0x3fb0fb00	1.3826599
237	0xbf5d491a	-0.8643967
238	0xbf57905a	-0.8420464
239	0x400ef0f7	2.2334573
240	0x3fef49ab	1.8694357
241	0xbec39106	-0.38196582
242	0x3f41bb37	0.7567629
243	0xbf9574aa	-1.1676228
244	0xbfab2b1d	-1.3372532
245	0xbd26707e	-0.040634625
246	0xbf2a3b9e	-0.6649722
247	0x3eccdfdf	0.4001455
248	0x3f1dcabc	0.61637473
249	0xbf969c16	-1.1766384
250	0xbf7737fa	-0.9656979
251	0xbe868d1d	-0.26279536
252	0x3ec80140	0.39063454
253	0xbe63177d	-0.22176929
254	0xbe37459d	-0.17897649
255	0xbebc0d7a	-0.36729032

1.layers.0.0.weight f4 [74, 74]
0	0xbcda83b1	-0.026674123
1	0xbe83048c	-0.25589406
2	0x3d8edd12	0.069757596
3	0x3ca98d6f	0.020697324
4	0x3c472dde	0.012156932
5	0xbd5b7371	-0.05357689
6	0x3df83201	0.121189125
7	0xbcac4244	-0.021027692
8	0xbddb3996	-0.10704343
9	0xbe4d3dde	-0.20043132
10	0x3d85cfda	0.06533785
11	0x3ca3f3dc	0.020013742
12	0xbdfbbbbd	-0.122916676
13	0x3d10101f	0.035171624
14	0x3e056460	0.13026571
15	0x3e10f520	0.14156008
16	0xbe0cc3c2	-0.1374655
17	0x3e3c5172	0.18390444
18	0x3a8ff71f	0.0010983682
19	0x3e4d3c75	0.20042594
20	0xbc6637ca	-0.014051387
21	0x3ca0abcf	0.019613175
22	0x3e2eff54	0.17089587
23	0xbe236e3c	-0.1596002
24	0x3e796841	0.24356176
25	0x3e91951d	0.28434077
26	0xbcbda7c4	-0.023151286
27	0xbd431055	-0.047622997
28	0x3d9f56db	0.07780238
29	0x3f010895	0.5040372
30	0x3dbd968b	0.092572294
31	0x3d3adb43	0.04561926
32	0xbdf2467d	-0.11829851
33	0xbf051675	-0.5198739
34	0x3db3b9aa	0.08775647
35	0x3bc3824b	0.00596646
36	0x3e081075	0.13287528
37	0xbed521b0	-0.41627264
38	0xbe391128	-0.18072951
39	0x3e63c4af	0.22242998
40	0xbd7acd24	-0.061230794
41	0xbe6cffc7	-0.23144446
42	0x3db351fa	0.0875587
43	0x3e2734fe	0.16328809
44	0xbe511fc4	-0.20422274
45	0xbe2749d5	-0.16336758
46	0xbd7dc494	-0.06195505
47	0x3ec59389	0.38589123
48	0x3e17b540	0.14815235
49	0xbe38a209	-0.18030562
50	0xbe56db04	-0.20981985
51	0x3e2ca8bf	0.16861247
52	0xbdc1e3f3	-0.09467306
53	0xbe4241fb	-0.18970482
54	0xbe6e6908	-0.23282254
55	0xbde1e384	-0.11029723
56	0x3e0fe20b	0.14051072
57	0x3e3ce4fd	0.18446727
58	0xbd48607e	-0.048920147
59	0x3ead57b1	0.33855966
60	0xbd8d912e	-0.069124565
61	0x3e949fea	0.29028255
62	0xbd9e96a2	-0.07743575
63	0x3e11500b	0.1419069
64	0xbc899d03	-0.016798502
65	0x3e9b9a0b	0.30390963
66	0xbd7c24ff	-0.06155872
67	0x3ef85a7b	0.4850653
68	0xbc48e5b0	-0.012261793
69	0x3e25207a	0.1612567
70	0xbd079b2f	-0.03310698
71	0xbe27bc74	-0.16380483
72	0xbd85aa23	-0.06526592
73	0xbd7020df	-0.0586251
74	0x3e243e00	0.16039276
75	0x3c0170ea	0.007900456
76	0x3da863db	0.08222171
77	0xbe08380c	-0.1330263
78	0xbe620cb0	-0.22075152
79	0xbe29514a	-0.16534916
80	0x3e17b8cd	0.1481659
81	0xbea69517	-0.32535622
82	0x3d316017	0.04330453
83	0xbdb8eea5	-0.09029893
84	0x3e919a33	0.28437957
85	0xbecf6d61	-0.40513137
86	0xbdfa4c0b	-0.12221535
87	0xbe7dce1b	-0.24785654
88	0x3d82a50f	0.06379139
89	0xbd1ea47b	-0.03873108
90	0x3d6d35bc	0.057912573
91	0xbdf0b3de	-0.11753057
92	0xbcf3c30c	-0.029756092
93	0xbe3d031a	-0.18458214
94	0x3d5de219	0.0541707
95	0xbd059184	-0.032609478
96	0x3c8e0b29	0.017339306
97	0xbe00bda3	-0.1257234
98	0xbd338ac0	-0.043833494
99	0x3e572ee2	0.21013978
100	0xbdcb2ba2	-0.09920432
101	0x3e08fc13	0.13377409
102	0xbdb5b478	-0.08872312
103	0xbc806ec3	-0.015677815
104	0xbdb516fb	-0.08842274
105	0x3e7998ce	0.24374697
106	0x3e26f2cb	0.16303556
107	0xbd7440a4	-0.05963196
108	0x3e52330e	0.20527288
109	0x3e7c9550	0.24666333
110	0xbc1cdb37	-0.009573749
111	0x3e751e09	0.23937239
112	0xbdeaf34d	-0.11472187
113	0x3e9135ee	0.28361458
114	0xbd939810	-0.07206738
115	0x3e323a00	0.17404938
116	0xbe7fea00	-0.24991608
117	0x3d5401a1	0.051759366
118	0xbbb51902	-0.005526663
119	0x3e3b2591	0.18276049
120	0xbd80ee88	-0.06295496
121	0xbcedd1eb	-0.02903076
122	0x3e16ff86	0.14745912
123	0x3b2b65ce	0.002615321
124	0xbe70e376	-0.2352427
125	0xbe4cabff	-0.19987486
126	0xbeab5788	-0.3346522
127	0x3defca50	0.1170851
128	0x3d8ad419	0.06778736
129	0x3e24f9a4	0.16110855
130	0xbdcdc809	-0.10047919
131	0xbe617426	-0.22016963
132	0xbe28874c	-0.16457862
133	0x3cc97af0	0.024594754
134	0xbd7eb21d	-0.06218158
135	0x3d126552	0.035741158
136	0xbe8e56e1	-0.27800658
137	0xbd7af65e	-0.06127011
138	0x3dadb64c	0.08482036
139	0x3e16b5ab	0.14717738
140	0xbec755f0	-0.38932753
141	0xbdc42cd2	-0.09578861
142	0xbe5337dd	-0.20626779
143	0xbd61804b	-0.05505399
144	0xbd2457b2	-0.040122695
145	0x3e0881f4	0.13330823
146	0xbd6f2a48	-0.058389932
147	0x3b121ad0	0.0022293814
148	0xbea2e468	-0.31814885
149	0x3e5fabfd	0.21842952
150	0x3d8dd90e	0.069261655
151	0x3ec46140	0.38355446
152	0x3bd8baf4	0.0066140834
153	0x3ecbeac6	0.39827555
154	0x3e9861bb	0.29762062
155	0xbc8a9c28	-0.016920164
156	0x3e395b01	0.18101121
157	0x3e327f0b	0.17431276
158	0xbbaede16	-0.0053365333
159	0x3ecfbbda	0.40573007
160	0xbe03d343	-0.12873559
161	0xbe048de9	-0.1294476
162	0xbeacf4de	-0.3378057
163	0xbd44544e	-0.04793196
164	0x3e9dfbf2	0.30856282
165	0xbdb83744	-0.08994916
166	0x3e5dff60	0.21679449
167	0xbe664a2d	-0.22489233
168	0xbebbb814	-0.36663878
169	0x3d73262c	0.059362575
170	0x3d1ac0ad	0.037781406
171	0x3df59aba	0.119924024
172	0x3e80cc22	0.2515574
173	0x3dcfaed9	0.101407714
174	0x3d4f3285	0.05058529
175	0x3b62eb19	0.0034624992
176	0xbe67ff4e	-0.22655985
177	0xbe072b8d	-0.13200207
178	0xbdd90f91	-0.10598672
179	0x3db7b591	0.08970178
180	0x3dc77cd5	0.09740607
181	0xbc3584f3	-0.011079061
182	0xbe608706	-0.21926507
183	0x3e29beea	0.16576734
184	0xbde24679	-0.11048598
185	0xbdde35be	-0.10850094
186	0x3e690a0f	0.22757743
187	0xbad203f2	-0.0016022904
188	0xbe4283e3	-0.18995623
189	0x3d0dab9a	0.03458748
190	0xbd56889c	-0.052376375
191	0x3ebbcc0c	0.36679113
192	0xbc261c1c	-0.010138538
193	0x3e6eb3d3	0.23310785
194	0x3ddc65cd	0.107616045
195	0x3d5e3c30	0.054256618
196	0x3e68cba1	0.22733928
197	0xbe5858df	-0.21127652
198	0xbe93d17d	-0.28870764
199	0xbcc12765	-0.023578355
200	0xbe7c7855	-0.24655278
201	0xbdd7b81e	-0.105331644
202	0xbde350fc	-0.11099431
203	0x3da35cdb	0.07976695
204	0x3d8bf263	0.06833341
205	0x3cee4088	0.029083505
206	0xbe4ff127	-0.20306836
207	0x3dbf8067	0.09350663
208	0xbe079f25	-0.13244303
209	0xbd84e85a	-0.0648963
210	0x3d3a97d9	0.04555497
211	0xbd80cc58	-0.062889755
212	0x3e02c165	0.12769087
213	0x3e2bd78c	0.16781443
214	0x3eaa57c9	0.332701
215	0xbdce29c7	-0.10066562
216	0x3ca463e2	0.02006716
217	0x3de80e21	0.1133082
218	0xbca6da79	-0.020367848
219	0x3ed08c8d	0.40732232
220	0xbe249ecd	-0.16076203
221	0xbeaa727f	-0.3329048
222	0xbe01753c	-0.12642378
223	0x3e6ffd7e	0.23436543
224	0x3ddcdacf	0.10783922
225	0x3e83d1fe	0.2574615
226	0x3e76286b	0.24038856
227	0x3ed2aa13	0.4114538
228	0x3dbc826a	0.09204562
229	0x3e9f64d3	0.3113161
230	0xbe36bc36	-0.17845234
231	0xbddb2371	-0.10700119
232	0x3dba6d17	0.091028385
233	0xbd8a3c90	-0.06749833
234	0x3e79d35c	0.24397033
235	0xbd5a17ff	-0.05324554
236	0xbc729397	-0.014805696
237	0xbd24bcec	-0.040219232
238	0xbe7092f6	-0.23493561
239	0xbe20ea5d	-0.15714402
240	0xbd082be4	-0.033244982
241	0xbe7988c0	-0.24368572
242	0xbe2ebeff	-0.17065047
243	0x3cdb881c	0.0267983
244	0xbefc0641	-0.4922352
245	0xbda109c6	-0.07863192
246	0xbd7bf90a	-0.0615168
247	0xbe21a6de	-0.15786311
248	0xbdee6675	-0.11640636
249	0x3e5d6efc	0.21624368
250	0x3e06d50d	0.1316721
251	0xbd7bccf8	-0.06147477
252	0xbe8e3d53	-0.27781162
253	0x3e0eb2d1	0.139354
254	0xbe413adb	-0.18870108
255	0x3e1bfe65	0.15233763

1.layers.0.0.bias f4 [74]
0	0xbd837a57	-0.06419819
1	0xbb21031a	-0.00245685
2	0xbd2e967f	-0.042623993
3	0xbac95524	-0.0015360457
4	0xbcaacd09	-0.020849722
5	0xbd6e3988	-0.058160335
6	0xbcc8b586	-0.02450062
7	0xbcc2922f	-0.023751346
8	0xbcec953b	-0.028879752
9	0xbd1bc9e8	-0.03803435
10	0xbc6c7609	-0.014432439
11	0xbd05b3fe	-0.032642357
12	0x3cdcd32f	0.026956169
13	0xbd15785e	-0.036491744
14	0xbd8044e9	-0.062631436
15	0xbd46e0da	-0.04855428
16	0xbc9744e6	-0.01846547
17	0xbd4bfe7d	-0.049803246
18	0x3b00617f	0.0019589362
19	0x3c2075eb	0.009793739
20	0xbcae8b15	-0.021306554
21	0x3ccd9585	0.02509571
22	0xbc05f09b	-0.008175041
23	0xbd027923	-0.031853806
24	0xbd3fd0e5	-0.046830077
25	0xbd1ca82b	-0.038246315
26	0xbccddb07	-0.025128854
27	0xbd58ab6b	-0.052897852
28	0xbd0a28f0	-0.033730447
29	0xbc6eeef5	-0.014583339
30	0x3b8b9907	0.0042601856
31	0xbcb5e74d	-0.02220502
32	0xbc802e46	-0.015647065
33	0x3b076940	0.00206621
34	0xbd381975	-0.044946153
35	0xbc8a6443	-0.016893512
36	0xbd5b799f	-0.053582784
37	0xbc94e85c	-0.018177204
38	0xbd2c261a	-0.042028524
39	0xbd4c4c4c	-0.04987745
40	0xbce715a4	-0.028208561
41	0xbc216727	-0.009851254
42	0x3c3d21e9	0.011543729
43	0xbb02c0db	-0.0019951377
44	0xbd53f950	-0.051751435
45	0xbc9257d0	-0.017864138
46	0xba9c8027	-0.0011940048
47	0xbcd3abcf	-0.02583876
48	0x3b534d86	0.0032242252
49	0x3d095813	0.03353126
50	0xbd25e7d7	-0.040504303
51	0x3d12adf9	0.035810445
52	0xbbdae3f2	-0.006680005
53	0xbd39ef7c	-0.045394406
54	0xbda1bad8	-0.07896966
55	0xbd1cf2fe	-0.038317673
56	0xbb156ce6	-0.0022800504
57	0xbc9120a8	-0.017715767
58	0x3bc442e8	0.005989421
59	0xbd26f50f	-0.04076105
60	0xbb86cc82	-0.0041137347
61	0xbad96c1a	-0.0016588003
62	0x3b9b8458	0.004746001
63	0xbd5aa0ff	-0.053376194
64	0xbc954fb6	-0.018226486
65	0xbabff872	-0.0014646186
66	0xbc0b05b0	-0.008485243
67	0xbc5e2202	-0.013557913
68	0xbd3c9b73	-0.046046685
69	0xbd2d131c	-0.042254552
70	0xbc40db85	-0.011771088
71	0xbcc1e4b7	-0.02366863
72	0xbcf5a12a	-0.029984076
73	0x3bda367e	0.006659328

1.layers.1.0.weight f4 [74, 148]
0	0x3df27418	0.118385494
1	0xbe4ebf11	-0.20190074
2	0x3d690c16	0.05689629
3	0xbe680adc	-0.22660393
4	0xbe2185ed	-0.15773745
5	0xbd4c7cee	-0.04992383
6	0x3d62c865	0.055366892
7	0x3dc3e6dd	0.09565518
8	0x3bf4aa24	0.0074665714
9	0xbd0f5a48	-0.03499821
10	0xbe01a934	-0.12662202
11	0xbdd8ac36	-0.10579722
12	0x3dfd4a82	0.12367727
13	0xbd040ed5	-0.032240707
14	0x3d5179e3	0.05114163
15	0xbd66d7e8	-0.056358248
16	0xbdc07806	-0.09397893
17	0xbccbe533	-0.024889564
18	0xbdacafef	-0.08431994
19	0xbe3d9484	-0.18513685
20	0xbe10c68a	-0.14138237
21	0xbe06d9ab	-0.13168971
22	0x3dade916	0.08491723
23	0xbdcc6a52	-0.099812165
24	0xbe6f2cb3	-0.23356895
25	0xbe42a70a	-0.19009033
26	0xbd718ce3	-0.05897225
27	0x3e8e6d95	0.2781798
28	0xbddff605	-0.109355964
29	0xbd0fbcbc	-0.0350921
30	0xbd8a7a5f	-0.06761622
31	0xbe1fb6a5	-0.15597017
32	0xbe3fc058	-0.18725717
33	0xbe45cfce	-0.19317552
34	0x3d93b966	0.07213096
35	0x3e247c94	0.16063148
36	0xbd34afa6	-0.044112824
37	0x3e1f0713	0.15530042
38	0xbd8facd2	-0.07015385
39	0x3d6f3aa0	0.05840552
40	0x3e02b7b4	0.1276539
41	0xbe912f4c	-0.28356397
42	0xbced1bd8	-0.028943941
43	0xbe87493f	-0.2642307
44	0xbd12375b	-0.035697322
45	0xbd50e206	-0.050996803
46	0xbd8b42de	-0.06799863
47	0x3e618b20	0.22025728
48	0xbdec6eb9	-0.11544556
49	0x3d27ddfd	0.04098319
50	0x3dcfd081	0.10147191
51	0x3e76b0b9	0.24090852
52	0xbe3ee2db	-0.18641226
53	0xbd091df0	-0.033475816
54	0xbe144903	-0.14480977
55	0xbe0d6bee	-0.13810703
56	0x3e744620	0.23854876
57	0xbe547956	-0.20749411
58	0xbddb6eed	-0.10714517
59	0x3da59344	0.08084729
60	0xbd28f329	-0.04124752
61	0x3c1785e4	0.009248231
62	0xbd222051	-0.0395816
63	0x3d871fa7	0.06597834
64	0x3ca1e1fa	0.019761074
65	0x3e0b0e1f	0.13579606
66	0xbdc47285	-0.09592155
67	0x3df3879e	0.11891101
68	0x3d81fff7	0.063476495
69	0xbab7faab	-0.0014036497
70	0xbe2823d1	-0.16419913
71	0x3e6febb3	0.23429756
72	0x3d6613ce	0.05617123
73	0x3d797c7d	0.060909737
74	0xbc68107b	-0.0141640855
75	0xbe456655	-0.19277318
76	0x3d63bc5e	0.055599563
77	0xbe54636d	-0.20741053
78	0xbe39c2ce	-0.18140718
79	0xbe33976d	-0.17538233
80	0xbcf87009	-0.03032686
81	0xbe10c47d	-0.14137454
82	0xbe817dca	-0.25291282
83	0xbe117ee9	-0.14208569
84	0x3e6d2562	0.23158792
85	0xbdadad63	-0.084803365
86	0xbe848c65	-0.25888363
87	0x3dd51e90	0.1040622
88	0xbd511c38	-0.051052302
89	0x3df16f8f	0.11788856
90	0xbd5032f3	-0.05082984
91	0x3d901206	0.07034688
92	0xbda7c19f	-0.08191227
93	0x3d71442a	0.058902897
94	0x3e18a3a9	0.14906181
95	0xbdaee772	-0.085402384
96	0xbdc3697a	-0.095416024
97	0xbde7fa70	-0.11327064
98	0x3d71f917	0.05907544
99	0x3e4140ff	0.1887245
100	0x3db9018c	0.09033498
101	0x3d9cc894	0.07655445
102	0xbdf7f144	-0.12106565
103	0xbc9fc306	-0.019502174
104	0xbce379fa	-0.027768124
105	0xbdd9dc73	-0.106377505
106	0x3ccd0cdf	0.025030551
107	0xbe21c52e	-0.15797874
108	0x3d420bdc	0.04737459
109	0x3e28f856	0.16500983
110	0xbda55e4e	-0.08074628
111	0xbdfbce21	-0.12295175
112	0x3e859ff2	0.2609859
113	0xbbfc9db3	-0.007709229
114	0xbe409afd	-0.18809123
115	0x3e90c1ac	0.2827276
116	0xbe21fcb2	-0.15819052
117	0xbd6039c9	-0.05474261
118	0xbceed93b	-0.029156318
119	0xbd16e5da	-0.036840297
120	0x3e02b376	0.12763771
121	0xbb9b23b1	-0.0047344794
122	0xbb864145	-0.004097136
123	0x3e1c1df0	0.15245795
124	0x3cd6a8f1	0.026203604
125	0x3baff7e3	0.0053701266
126	0xbd93f634	-0.07224694
127	0x3d69b2c6	0.057055257
128	0xbe0d6559	-0.13808192
129	0xbd5872c1	-0.052843813
130	0xbd8ba53f	-0.068186276
131	0x3d5e3d22	0.05425752
132	0x3e1dc5e8	0.15407526
133	0x3d46c6f5	0.048529584
134	0x3d9f859b	0.07789155
135	0x3da50754	0.08058038
136	0x3ce95459	0.028482603
137	0xbe132945	-0.14371212
138	0x3db64ac5	0.0890098
139	0x3de2d9e9	0.11076719
140	0xbe1ce7af	-0.15322755
141	0x3df3380a	0.11875923
142	0x3dcf7814	0.10130325
143	0xbdaa07a8	-0.083022416
144	0x3db96c97	0.09053915
145	0x3c9ba64a	0.019000191
146	0xbdbcf354	-0.09226099
147	0x3d1d6316	0.038424574
148	0xbc1b73b7	-0.009488038
149	0x3d1b2977	0.03788134
150	0xbe555757	-0.20834099
151	0xbcf76e81	-0.03020406
152	0xbcfeb5f1	-0.031092616
153	0xbd9cc517	-0.076547794
154	0xbe12ea0a	-0.14347091
155	0x3d5fa0a5	0.054596562
156	0x3b832c2f	0.00400307
157	0x3c8f8fe5	0.017524669
158	0xbd2770da	-0.040879108
159	0xbe826061	-0.25464156
160	0x3dd6432d	0.104620315
161	0xbdfaa5e3	-0.12238672
162	0xbcfb82dd	-0.030702049
163	0x3dde4681	0.10853291
164	0xbcfca43f	-0.030840037
165	0x3e400589	0.18752111
166	0x3cad1869	0.021129804
167	0xbdeee903	-0.11665537
168	0x3c82102f	0.015876858
169	0xbe647527	-0.22310315
170	0x3d0e982d	0.034813095
171	0xbe93850d	-0.28812447
172	0xbddb8231	-0.107181914
173	0xbe08e9c2	-0.13370422
174	0xbbae709a	-0.0053234817
175	0x3e427c07	0.18992625
176	0x3e429973	0.19003849
177	0xbd17f617	-0.037099924
178	0xbe69a481	-0.2281666
179	0x3d198a96	0.03748568
180	0xbce878dc	-0.028377943
181	0xbe8986b9	-0.26860598
182	0xbdd4c11f	-0.103883974
183	0xbd65294d	-0.05594759
184	0x3ce9834a	0.028504986
185	0x3a16e226	0.00057557446
186	0xbcf1a50c	-0.029497646
187	0x3d2a6c29	0.041607056
188	0xbb654e04	-0.0034989128
189	0xbe456b7c	-0.19279283
190	0xbe88fc87	-0.26755163
191	0x3d2dfc1f	0.04247677
192	0xbd4629a8	-0.04837957
193	0xbdd4ad7a	-0.103846505
194	0xbd943894	-0.07237354
195	0xbd05ea71	-0.032694284
196	0xbcb28b57	-0.021794958
197	0x3e1f92dd	0.15583368
198	0x3c4c5dc6	0.012473529
199	0x3d71a2e9	0.058993254
200	0xbd0af9c9	-0.03392962
201	0xbe61335e	-0.21992251
202	0x3cf8c598	0.030367658
203	0x3e0a0f1b	0.13482325
204	0xbda20232	-0.07910575
205	0x3dd753ae	0.105140075
206	0x3c93b44c	0.018030308
207	0x3d44e3d8	0.04806885
208	0x3d614de5	0.055005927
209	0x3d6020a5	0.054718632
210	0x3e1bc8e2	0.1521335
211	0x3d16f434	0.036853984
212	0xbdf29d3f	-0.118463986
213	0xbde3a34a	-0.11115129
214	0x3d630197	0.055421438
215	0x3e82ea9b	0.25569615
216	0xbcba0d75	-0.022711495
217	0xbe1d1ea1	-0.15343715
218	0xbe52fe7f	-0.20604895
219	0x3d7c5ee9	0.06161395
220	0x3de80313	0.11328711
221	0x3e23b6c9	0.15987696
222	0xbe358697	-0.17727123
223	0xbd1e3a67	-0.038629916
224	0x3e1aee9a	0.15130082
225	0x3d6d1d4a	0.05788926
226	0xbde6ec73	-0.11275568
227	0xbe55f7fe	-0.20895383
228	0x3e249c2c	0.160752
229	0x3e2ab9f7	0.16672502
230	0x3d9d063b	0.07667204
231	0xbdc6fcd8	-0.09716195
232	0x3cfd95fa	0.030955303
233	0xbe8d5880	-0.27606583
234	0xbddb9e55	-0.10723559
235	0xbe08aeff	-0.13348006
236	0xbdd0374b	-0.10166796
237	0xbe43a194	-0.19104606
238	0x3c565dcb	0.013083885
239	0xbe181cc8	-0.14854729
240	0x3d62a903	0.055336963
241	0x3e1dfab1	0.15427662
242	0xbde2c83e	-0.110733494
243	0x3bfb4753	0.0076684146
244	0x3e229277	0.15876184
245	0xbd01d667	-0.03169861
246	0x3c4d8d41	0.012545885
247	0xbd3dbc2d	-0.046322037
248	0x3d9928d7	0.07478493
249	0xbe01f6e7	-0.12691842
250	0x3d0e5de0	0.034757495
251	0x3e360bfc	0.17778009
252	0xbd65d7c7	-0.056113984
253	0xbe19cf53	-0.15020494
254	0x3e92b052	0.28650147
255	0xbe5ef201	-0.21772005

1.layers.1.0.bias f4 [74]
0	0xbb5b0b6e	-0.003342356
1	0xbd47f715	-0.04881962
2	0xbc84707a	-0.016166914
3	0xbc6fe82d	-0.014642757
4	0xbb923687	-0.0044620666
5	0xbc466963	-0.012110087
6	0xbd5b04db	-0.053471427
7	0x3bffe588	0.0078093447
8	0xbb0975d0	-0.0020974763
9	0xbcff4db2	-0.031164978
10	0xbc524425	-0.01283363
11	0xbd6081bb	-0.05481122
12	0x3ccfed86	0.025381815
13	0xbc4a775a	-0.012357557
14	0xbd18ab67	-0.037272837
15	0xbd6d1583	-0.057881843
16	0xbcd23019	-0.0256577
17	0xbd2bf5a8	-0.041982323
18	0x3b3deae1	0.002897911
19	0xbd0ef70f	-0.034903582
20	0xbcea9243	-0.028634196
21	0xbb485df0	-0.003057357
22	0xbd00160f	-0.031271037
23	0xbcc434c8	-0.02395095
24	0xbd768d46	-0.060193323
25	0xbd497e4c	-0.04919271
26	0xbc8ab35b	-0.016931226
27	0xbc192992	-0.00934829
28	0xbc45741f	-0.012051611
29	0xbd1ac954	-0.037789658
30	0x3b6e6fc3	0.0036382533
31	0xbc99101f	-0.018684445
32	0xbc1808ca	-0.009279439
33	0x3c6e4357	0.014542422
34	0x3ac7fab2	0.0015257208
35	0x3b2d9e03	0.0026491887
36	0xbc276172	-0.010216104
37	0xbd167e94	-0.036741808
38	0xbd05544d	-0.0325511
39	0xbd0e54e1	-0.034748916
40	0xbd11468a	-0.035467662
41	0xbc9a07fd	-0.018802637
42	0xbd940d68	-0.072291195
43	0xbd2e9da9	-0.042630825
44	0xbcb2116a	-0.02173682
45	0xbd17d2de	-0.037066333
46	0x3bb4d474	0.0055184904
47	0xbd7e318d	-0.062058974
48	0xbc622357	-0.013802371
49	0xbd90afaf	-0.07064759
50	0x3cb3e513	0.021959817
51	0xbc36d9e4	-0.011160348
52	0xbd6627c3	-0.056190263
53	0xbcfff7be	-0.031246062
54	0xbd46902f	-0.048477348
55	0xbcbd9902	-0.023144249
56	0xbcd99168	-0.026558593
57	0xbcd4aa4e	-0.025960114
58	0xbc57cce3	-0.013171407
59	0xbc5d3342	-0.01350099
60	0x3b33e863	0.0027451746
61	0xbd26329c	-0.04057561
62	0xbcc51859	-0.024059461
63	0xbc835b48	-0.016034737
64	0xbd239f95	-0.03994711
65	0xbcb638fb	-0.022243967
66	0xbd117ecb	-0.03552131
67	0xbc9cdfa6	-0.019149613
68	0xbd22a810	-0.03971106
69	0xbc0ebcc9	-0.008712002
70	0xbd52ff20	-0.051512837
71	0xbc6fe8db	-0.014642919
72	0xbd2196f3	-0.039450597
73	0xbd2db699	-0.042410467

1.layers.2.0.weight f4 [74, 222]
0	0x3ce12461	0.027483167
1	0x3c8a1591	0.016855987
2	0x3dddeb73	0.10835924
3	0x3dd33874	0.10313502
4	0xbd994681	-0.07484151
5	0xbc3bad0f	-0.011454835
6	0x3d883ea9	0.066525765
7	0x3e22e35a	0.1590704
8	0xbe0a71b3	-0.13519935
9	0xbd492a18	-0.04911241
10	0x3e44315e	0.19159457
11	0xbdb73f84	-0.089476615
12	0xbbdb317c	-0.0066892486
13	0xbb6a5140	-0.0035753995
14	0x3e862a9c	0.26204383
15	0xbdacf4cc	-0.08445129
16	0x3de66b40	0.11250925
17	0x3de068d8	0.10957497
18	0x3e02d194	0.1277526
19	0x3dc35f99	0.09539718
20	0xbe748159	-0.23877467
21	0xbca942a9	-0.020661669
22	0x3de256f7	0.110517435
23	0x3de764fe	0.112985596
24	0xbd845a6b	-0.06462558
25	0x3e4d10af	0.20025896
26	0xbe53f412	-0.20698574
27	0x3e221654	0.1582883
28	0xbc6e42bf	-0.014542281
29	0x3dc367e9	0.09541304
30	0x3df25df4	0.118343264
31	0x3e4ace85	0.19805343
32	0xbe1fbd7c	-0.15599626
33	0xbe5c3567	-0.21504746
34	0x3da15cd5	0.078790344
35	0xbe023f1c	-0.12719387
36	0x3d109657	0.035299625
37	0x3e467a1f	0.19382523
38	0x3e376955	0.17911275
39	0xbdac9e19	-0.08428592
40	0x3dcac677	0.099011354
41	0x3d3daf00	0.04630947
42	0x3d8d93b3	0.06912937
43	0xbe102e62	-0.14080194
44	0x3da72029	0.08160431
45	0x3e3edaf5	0.18638213
46	0xbd65738b	-0.056018393
47	0xbd531c22	-0.0515405
48	0xbc8f9097	-0.017525
49	0x3c5fc928	0.013658799
50	0xbde3414a	-0.11096437
51	0x3d53267e	0.05155038
52	0xbbdca2c9	-0.0067332727
53	0x3cd974ad	0.026544893
54	0xbe13a9a5	-0.14420183
55	0xbe976aab	-0.2957357
56	0xbc56eb1b	-0.013117577
57	0x3d01bf7a	0.031676747
58	0xbd2e6bff	-0.04258346
59	0x3c4e3f32	0.012588309
60	0x3dd656c8	0.10465771
61	0x3c4d4b9b	0.012530233
62	0xbbb3a9a3	-0.0054828688
63	0x3de73943	0.11290219
64	0x3c16237f	0.009163736
65	0x3d63a421	0.055576447
66	0x3e85e8d7	0.26154205
67	0x3e1b7617	0.15181766
68	0x3d81ad9d	0.06331942
69	0xbd3dd4b7	-0.04634544
70	0x3cc9f8d9	0.024654793
71	0xbdfff3bc	-0.124976605
72	0x3dff4716	0.124647304
73	0x3c089e0e	0.008338464
74	0x3d0d1fc5	0.034454126
75	0x3cad7fce	0.021179106
76	0x3daf5f9e	0.085631594
77	0xbe583d6f	-0.21117185
78	0x3e0d331e	0.13789031
79	0xbdd65a28	-0.10466415
80	0xbd31b948	-0.04338959
81	0xbd7c8e56	-0.06165918
82	0x3e1f200d	0.1553957
83	0x3b306138	0.0026913416
84	0x3d237f81	0.03991652
85	0x3d70e8b1	0.05881566
86	0xbda465ac	-0.08027205
87	0x3cbc28e1	0.022968711
88	0xbccd907e	-0.025093313
89	0xbd9eeff2	-0.0776061
90	0x3de5403f	0.111938946
91	0xbd9d316e	-0.076754436
92	0xbd9206f8	-0.071302354
93	0x3d48270f	0.048865374
94	0xbc959da3	-0.018263644
95	0x3decaf67	0.11556893
96	0x3d1353d4	0.035968617
97	0x3d11b393	0.035571646
98	0xbe5ce8b1	-0.2157314
99	0x3db3db67	0.08782082
100	0x3e14f4c4	0.14546496
101	0xbde2bd2d	-0.11071239
102	0x3dfb62f0	0.1227473
103	0xbe0429f3	-0.12906627
104	0xbd4309cd	-0.04761677
105	0xbd429804	-0.047508255
106	0x3a90e30b	0.0011053992
107	0x3dbe3b8b	0.09288701
108	0x3e26f554	0.16304523
109	0x3d8060ad	0.062684394
110	0x3da25602	0.07926561
111	0x3e08f845	0.13375957
112	0xbe6d12e6	-0.2315174
113	0x3cf937c9	0.030422108
114	0xbd3338a8	-0.043755203
115	0x3ab19080	0.0013547093
116	0xbc9ed3e5	-0.019388149
117	0xbd9cd795	-0.076583065
118	0xbe12103e	-0.14264008
119	0x3e1bf1ad	0.1522891
120	0x3c80b700	0.015712261
121	0xbdde2cee	-0.108484134
122	0x3df3cac2	0.11903907
123	0xbd721d67	-0.05911007
124	0x3d4ced93	0.050031256
125	0x3d42ee85	0.04759075
126	0xbde3c58b	-0.11121663
127	0x3e5057f7	0.20346056
128	0x3d35a105	0.044343013
129	0xbd929e7d	-0.071591355
130	0x3d18e69a	0.037329294
131	0x3c80a4cf	0.015703587
132	0xbbe967f4	-0.007122988
133	0x3dff1562	0.1245525
134	0xbe320522	-0.1738477
135	0x3e6f1fd7	0.2335199
136	0x3b9bc344	0.004753502
137	0x3e0d5289	0.13801016
138	0x3da22ddb	0.079189025
139	0x3dd0b447	0.10190635
140	0x3cd08b30	0.025456995
141	0x3c2adcea	0.010428647
142	0x3daec5f5	0.08533851
143	0x3d00643e	0.0313456
144	0xbc19edeb	-0.009395103
145	0xbe91221a	-0.2834633
146	0x3dcebba2	0.10094382
147	0x3dd2b06d	0.10287557
148	0x3d306925	0.043069024
149	0xbcceee49	-0.025260108
150	0x3e3f6df0	0.18694282
151	0xbe042a35	-0.12906726
152	0x3e33f100	0.17572403
153	0xbc9e3ed0	-0.01931706
154	0xbe97960f	-0.29606673
155	0x3dfe507a	0.124176934
156	0xbe1f229c	-0.15540546
157	0x3e017281	0.12641336
158	0x3e112c1b	0.14176981
159	0x3e3bb0ed	0.1832921
160	0x3e2b114e	0.1670582
161	0xbcdb17f3	-0.026744818
162	0xbdd0b910	-0.10191548
163	0x3e45e115	0.19324143
164	0xbdb296cb	-0.08720168
165	0xbd230f62	-0.039809592
166	0xbe56a4f5	-0.20961364
167	0xbbf967e2	-0.0076112607
168	0xbd0673e9	-0.032825384
169	0xbd64c387	-0.055850532
170	0x3d8dc807	0.06922918
171	0xbd815ed4	-0.06316915
172	0x3d0be69d	0.034155477
173	0x3d85f38e	0.06540595
174	0xbe445b01	-0.1917534
175	0x3e57e5a6	0.21083698
176	0xbc041001	-0.008060456
177	0xbdf35dfa	-0.11883159
178	0x3d5455ba	0.051839568
179	0xbbe97d1d	-0.0071255104
180	0x3ca98415	0.020692864
181	0x3d5e9dd8	0.05434975
182	0x3c4f57e4	0.012655232
183	0xbd71d82d	-0.059044052
184	0xbd670897	-0.056404676
185	0x3d1824c4	0.037144437
186	0xbdb51a83	-0.08842947
187	0xbda00f77	-0.0781545
188	0xbd675d95	-0.05648573
189	0xbdec649e	-0.11542629
190	0x3ded04c4	0.115731746
191	0x3d738775	0.059455354
192	0xbe319176	-0.17340645
193	0x3dba00de	0.09082197
194	0xbd881807	-0.06645208
195	0x3d9c4b11	0.07631505
196	0x3db11303	0.08646204
197	0xbdc16306	-0.09442715
198	0x3c755894	0.014974732
199	0x3e5a76f2	0.21334437
200	0x3cef2a01	0.029194834
201	0xbd73a51b	-0.05948363
202	0xbd12069e	-0.035650842
203	0x3e1b2107	0.15149318
204	0x3d37f826	0.044914387
205	0xbe57daec	-0.21079606
206	0x3dc3944e	0.09549771
207	0xbe54adee	-0.20769474
208	0x3dd02381	0.10163022
209	0x3d04403d	0.032287825
210	0x3b6f8c57	0.0036552155
211	0xbdf24f15	-0.1183149
212	0xbd66a9e9	-0.056314383
213	0xbc0c9788	-0.00858105
214	0x3d08a16d	0.033357073
215	0x3db09bcd	0.08623467
216	0x3dfa0acf	0.12209093
217	0x3d7bb818	0.061454862
218	0x3e1b5c29	0.15171875
219	0xbdfe68e2	-0.124223486
220	0x3d602e05	0.054731388
221	0xbe121f65	-0.14269789
222	0x3e6886f8	0.22707736
223	0xbd3442cc	-0.044009015
224	0xbe738ddf	-0.23784588
225	0xbd641882	-0.055687435
226	0xbd6b9d7a	-0.05752323
227	0xbd363bed	-0.044490743
228	0x3d6f6c36	0.058452807
229	0x3d781979	0.060571168
230	0xbe19f033	-0.15033035
231	0xbe653134	-0.22382051
232	0xbd27c770	-0.040961683
233	0xbd8131dd	-0.06308339
234	0x3d6680ea	0.056275286
235	0x3e0ec6ca	0.1394302
236	0x3cc24123	0.0237127
237	0xbd96de7b	-0.073666535
238	0x3d19b0d7	0.037522163
239	0x3e22a8f9	0.1588477
240	0xbd763af5	-0.06011482
241	0xbdc11ba0	-0.09429097
242	0xbd9def1a	-0.07711621
243	0x3d22dac1	0.0397594
244	0xbdcae0ce	-0.09906159
245	0xbd6e6cfa	-0.058209397
246	0x3df2e434	0.118599325
247	0x3e13d0c0	0.144351
248	0xbe3caf4c	-0.18426245
249	0xbe00c2d6	-0.12574324
250	0xbe7ab8f6	-0.2448462
251	0x3d9535ab	0.07285627
252	0xbd1c5874	-0.038170293
253	0xbd0a81a0	-0.033815026
254	0x3cf811ef	0.030281989
255	0xbddb2c75	-0.10701839

1.layers.2.0.bias f4 [74]
0	0xbd3e0abf	-0.046396967
1	0xbc570f06	-0.01312614
2	0xbc3f4016	-0.011672994
3	0xbcca08b5	-0.024662355
4	0xbcb673c0	-0.02227199
5	0xbd5a5213	-0.05330093
6	0xbcb18d33	-0.021673774
7	0x3c963773	0.018336987
8	0xbb4e8dc3	-0.0031517602
9	0xba8da122	-0.0010805468
10	0xbb8006a5	-0.003907042
11	0xbce2b382	-0.027673487
12	0xbccc2850	-0.024921566
13	0x3bd83fe2	0.0065994123
14	0xbc46e67a	-0.012139911
15	0xbc8c4dbc	-0.01712691
16	0xbcf9ec5b	-0.03050821
17	0xbc139c72	-0.009009467
18	0xbcf2e28a	-0.029649038
19	0xbc3f78e1	-0.011686535
20	0xbd22186b	-0.039574068
21	0xbd7d59b1	-0.061853115
22	0xbd15b229	-0.03654686
23	0xbcdda11d	-0.027054364
24	0xbc5426eb	-0.012948732
25	0xbd1ab685	-0.03777172
26	0xbd33029d	-0.043703664
27	0x3b972b29	0.0046132994
28	0xbd0c38d2	-0.034233876
29	0xbcb32ab9	-0.021870958
30	0xbccbee30	-0.02489385
31	0xbc13d783	-0.00902355
32	0xbd2eaae6	-0.04264345
33	0xbbcddd8b	-0.0062825135
34	0xbd4adac6	-0.049525045
35	0xbc5630ce	-0.013073159
36	0x3bb3f15c	0.0054914188
37	0xbbe84acc	-0.0070889946
38	0xbb6fe118	-0.0036602672
39	0xbd2a4585	-0.041570205
40	0xbcf28f20	-0.029609263
41	0x3be93f66	0.0071181534
42	0xbd31f5e0	-0.043447375
43	0xbcf18730	-0.029483408
44	0xbcd7f12a	-0.026360113
45	0xbd372087	-0.044708755
46	0xbd0918e5	-0.033471007
47	0x3ace2a57	0.0015729171
48	0xbc0c76a9	-0.008573213
49	0xbc19909b	-0.009372856
50	0xbc34139b	-0.010991002
51	0xbd043910	-0.03228098
52	0xbd01750c	-0.031605765
53	0xbcfacad2	-0.03061429
54	0xbd1b0f41	-0.037856344
55	0xbbed0716	-0.0072335107
56	0xbcd49024	-0.025947638
57	0xbcc4a354	-0.024003662
58	0xbc71bc9d	-0.014754442
59	0xbcfe3223	-0.031029766
60	0xbd848070	-0.0646981
61	0xbd46ae96	-0.048506342
62	0xbb36e765	-0.0027908918
63	0xbc4b6ce0	-0.012416095
64	0x3c5a3752	0.013318853
65	0xbd46f262	-0.048570998
66	0xbc4e7420	-0.012600929
67	0x3b8744b2	0.004128062
68	0xbd169550	-0.03676349
69	0xbbfe60c3	-0.0077629997
70	0x3c55e7cd	0.013055754
71	0xbd017338	-0.03160402
72	0xbd57796a	-0.052606024
73	0xbc65a707	-0.014016873

1.layers.3.0.weight f4 [74, 296]
0	0x3d301b7c	0.04299496
1	0x3d2ca89e	0.042152993
2	0xbcdd743f	-0.02703297
3	0xbd8c996a	-0.06865199
4	0xbd785f17	-0.06063756
5	0xbe030a05	-0.12796791
6	0x3ddf34c1	0.10898734
7	0x3cc6bd22	0.024260107
8	0xbb9f2a5d	-0.004857345
9	0x3c9e4e05	0.019324312
10	0x3e54c31e	0.20777556
11	0x3d182d4c	0.037152573
12	0xbd741912	-0.05959422
13	0xbca97403	-0.020685202
14	0x3ce559fa	0.027997006
15	0xbe2e62ab	-0.17029826
16	0xbd14449b	-0.03619824
17	0x3c9d4bc4	0.019201167
18	0x3e061c64	0.13096768
19	0x3c47deed	0.012199146
20	0x3dd8e4b4	0.10590497
21	0xbd459d8c	-0.04824595
22	0xbdfc93ae	-0.12332855
23	0xbe69f27d	-0.22846408
24	0x3ccf0efe	0.025275704
25	0x3d0b2791	0.03397328
26	0xbcd6bc16	-0.026212733
27	0x3d1a1def	0.037626203
28	0xbd150bd7	-0.036388244
29	0x3daa8c0b	0.08327492
30	0xbc7e5897	-0.015524051
31	0x3d0e2967	0.034707453
32	0x3d47e5b3	0.048803043
33	0xbdb045d7	-0.08607071
34	0xbd21f794	-0.03954275
35	0x3ce78ddb	0.028265884
36	0xbe8a5e1e	-0.2702493
37	0xbd146e25	-0.036237855
38	0x3c933d4f	0.01797357
39	0x3d0aa534	0.033848956
40	0xbd2a0f3f	-0.041518446
41	0x3d001800	0.03127289
42	0xbe0587fe	-0.13040158
43	0x3c799174	0.015232433
44	0xbd8e8ba9	-0.06960232
45	0x3bd4ec2f	0.006497882
46	0xbc71873b	-0.014741714
47	0x3d7b1334	0.06129761
48	0xbe1ccae3	-0.1531177
49	0xbe17b839	-0.14816369
50	0xbe0e7beb	-0.13914458
51	0xbca25f53	-0.019820845
52	0x3cdb1be0	0.02674669
53	0xbc15d598	-0.009145163
54	0x3cb91a78	0.02259563
55	0xbd9fdd63	-0.07805898
56	0x3d46a3c3	0.04849602
57	0xbdd26ded	-0.10274873
58	0xbc4446bb	-0.011979754
59	0x3d0dd387	0.034625556
60	0x3c71e936	0.0147650745
61	0xbe2789de	-0.16361186
62	0xbe5b16ce	-0.21395418
63	0x3bbbac75	0.0057273456
64	0xbcebe3b0	-0.028795093
65	0xbd941114	-0.0722982
66	0xbe019340	-0.12653828
67	0xbd07785d	-0.03307377
68	0x3de19e56	0.11016528
69	0xbd688e41	-0.05677629
70	0x3d0d39ca	0.03447894
71	0xbe299507	-0.16560756
72	0xbc00bc6a	-0.007857421
73	0xbe0312b8	-0.1280011
74	0x3dbb79fd	0.09154127
75	0x3cec477d	0.028842682
76	0x3c1833c1	0.009289683
77	0x3da2a65e	0.07941888
78	0x3b835854	0.0040083323
79	0xbcb34cb9	-0.02188717
80	0x3d123084	0.0356908
81	0x3db26850	0.08711302
82	0x3e1f2256	0.15540442
83	0x3bb83294	0.0056212638
84	0x3df01c05	0.11724094
85	0xbc389b0e	-0.011267437
86	0xbbbf851a	-0.0058447244
87	0xbb9baa94	-0.004750559
88	0xbe978d91	-0.29600194
89	0xbdc57a0e	-0.09642421
90	0xbde0c428	-0.10974914
91	0x3d3fec93	0.046856474
92	0x3cdc0901	0.026859762
93	0x3d2264e2	0.03964699
94	0xbca7dfb6	-0.020492416
95	0x3bd12f68	0.006383825
96	0xbde79d2b	-0.11309274
97	0xbdddb2eb	-0.108251415
98	0xbe366711	-0.17812754
99	0x3e113f53	0.14184313
100	0xbda37210	-0.0798074
101	0xbbf4a255	-0.0074656405
102	0xbdbd00ca	-0.09228666
103	0xbcbe42bc	-0.02322518
104	0x3cfed052	0.031105194
105	0x3d4268d8	0.047463268
106	0x3d80117f	0.06253337
107	0x3dce69d3	0.10078778
108	0xbd798920	-0.06092179
109	0x3ba81ec5	0.005130621
110	0xbe29cc8e	-0.16581938
111	0x3c8d200e	0.017227199
112	0x3d814123	0.06311252
113	0xb7b251f3	-2.1257414e-05
114	0xbd9d2757	-0.07673519
115	0xbd39c966	-0.045358084
116	0xbe16ba64	-0.1471954
117	0xbc34aafd	-0.011027095
118	0xbd06f0ac	-0.032944366
119	0xbd7a8a7a	-0.061167218
120	0x3da60350	0.081061006
121	0xbdee31c0	-0.11630583
122	0x3ac9f955	0.001540939
123	0xbd4133e7	-0.04716864
124	0x3e016697	0.12636791
125	0xbe7b13a3	-0.2451921
126	0x3e53a920	0.20669985
127	0x3c4d856a	0.012544015
128	0xbdd780f2	-0.10522641
129	0xbda859a7	-0.08220225
130	0x3d8626be	0.06550358
131	0xbd9a9b4b	-0.07549151
132	0xbe23cbba	-0.15995684
133	0x3dc288a1	0.09498716
134	0x3e151abf	0.14560984
135	0x3dd139e7	0.10216122
136	0xbd6d1f3d	-0.05789112
137	0xbda390a2	-0.07986571
138	0xbcc0ea5c	-0.023549251
139	0xbd9f1dde	-0.077693686
140	0xbcb08786	-0.021548998
141	0xbd3c3989	-0.045953307
142	0x3e04ef09	0.1298181
143	0xbd4c3549	-0.049855504
144	0xbdd0ec90	-0.10201371
145	0x3c766fed	0.015041334
146	0xbca8e60c	-0.020617507
147	0xbd62c798	-0.05536613
148	0xbdddd9b7	-0.108325414
149	0x3c30ab86	0.010783082
150	0xbda6f055	-0.081513084
151	0x3d380be6	0.044933222
152	0xbd2ce330	-0.04220885
153	0xbe898674	-0.26860392
154	0x3c996e6d	0.018729413
155	0xbe3ed517	-0.18635975
156	0xbda3c7d9	-0.07997102
157	0xbe511be8	-0.20420802
158	0x3e20ca1c	0.15702099
159	0x3cec48af	0.028843252
160	0x3ddaf59a	0.10691376
161	0xbd608bbc	-0.05482076
162	0x3be7a8d9	0.0070696888
163	0xbdab8145	-0.083742656
164	0xbc8cdc23	-0.017194813
165	0xbda44462	-0.080208555
166	0xbd2cb5b7	-0.042165484
167	0x3e81e22c	0.25367868
168	0x3c29ff52	0.0103758145
169	0x3d5339a9	0.05156866
170	0x3d2f6511	0.042820994
171	0xbbbe3abe	-0.0058053425
172	0xbd91d66e	-0.07120977
173	0xbdce0a10	-0.10060513
174	0xbe2fb73a	-0.17159739
175	0xbcdcb019	-0.026939439
176	0x3c4a4766	0.012346124
177	0x3ce7641f	0.028245984
178	0x3d3abc89	0.045589957
179	0x3d0a3352	0.03374035
180	0xbdf28f8f	-0.11843788
181	0xbe5c9baf	-0.21543764
182	0x3d99ceff	0.075101845
183	0x3ccd51cf	0.025063423
184	0xbcd283ed	-0.025697673
185	0x3dba0eba	0.0908484
186	0x3c83c693	0.016085899
187	0xbd9fab0e	-0.07796298
188	0xbd481aa1	-0.04885352
189	0xbdd543a8	-0.10413295
190	0x3ce4afea	0.027915914
191	0x3d2c22a8	0.04202524
192	0x3d771a7e	0.060328
193	0x3d2cd5ba	0.042196013
194	0x3c7148d0	0.0147268325
195	0x3cfa08a2	0.030521695
196	0xbd8deb28	-0.06929618
197	0xbdbd0118	-0.09228724
198	0x3c998240	0.018738866
199	0x3ae3b883	0.0017373714
200	0xbdc8e044	-0.098084
201	0xbdb3bceb	-0.087762676
202	0x3d2c5a73	0.042078447
203	0xbd91e2b3	-0.071233176
204	0xbb14f5b3	-0.0022729456
205	0xbd22aa30	-0.039713085
206	0x3d5c43fb	0.05377577
207	0xbd1ba46f	-0.037998613
208	0x3d79ec2b	0.061016243
209	0xbdaf0aa2	-0.0854695
210	0xbe2194f1	-0.15779473
211	0xbdc32215	-0.09527985
212	0xbd7a38ea	-0.061089434
213	0x3d82acbe	0.06380604
214	0xbd0e9920	-0.034814
215	0xbe318090	-0.17334199
216	0x3d84455d	0.064585425
217	0xbd21726d	-0.039415766
218	0x3d6d55da	0.057943203
219	0x3d3cf8e9	0.046135817
220	0x3afa79b1	0.0019109753
221	0x3dc2876c	0.09498486
222	0xbddef10c	-0.1088582
223	0x3de4c8f1	0.11171139
224	0x3db8a64c	0.090160936
225	0xbe4b8c91	-0.1987784
226	0x3eb96640	0.36210823
227	0xbdb08164	-0.08618429
228	0x3ddd1677	0.107953005
229	0xbdf869e3	-0.12129571
230	0xbda567d7	-0.080764465
231	0x3e469997	0.19394527
232	0x3e479ce4	0.19493443
233	0x3d82ad3c	0.06380698
234	0xbe1e01d0	-0.15430379
235	0x3d5d6dba	0.05405972
236	0x3c0939b5	0.008375575
237	0x3e572467	0.2100998
238	0x3e1faf46	0.15594205
239	0xbd941047	-0.07229667
240	0xbc574d08	-0.013140924
241	0xbd03edbe	-0.03220915
242	0xbda8ec31	-0.08248175
243	0x3d63982f	0.055565055
244	0xbe1d0f07	-0.15337764
245	0xbe23ac34	-0.15983659
246	0xbd8c632d	-0.06854854
247	0xbd01ff11	-0.03173739
248	0xbcce9e55	-0.025221983
249	0x3d36991c	0.04457961
250	0x3d0edbe1	0.03487766
251	0x3d58f618	0.05296907
252	0x3dc73879	0.09727568
253	0x3d74288d	0.059608985
254	0x3dce826c	0.1008347
255	0xbd32475a	-0.043525077

1.layers.3.0.bias f4 [74]
0	0xbcbd8cf3	-0.023138499
1	0xbd4e7d75	-0.050412614
2	0xbc7d4b9a	-0.015459919
3	0xbc5e8623	-0.013581785
4	0xbcdf6c9d	-0.02727347
5	0xbd19f5fa	-0.037588097
6	0xbc30709b	-0.010769035
7	0x3c530054	0.012878496
8	0xbccd5003	-0.025062567
9	0x3c8e471e	0.017367896
10	0xbcf16661	-0.029467763
11	0xbc184931	-0.009294794
12	0xbccf757e	-0.02532458
13	0xbce44e03	-0.02786923
14	0xbc23ebee	-0.0100049805
15	0xbd115eb8	-0.03549072
16	0xbd156f6d	-0.036483217
17	0xbd46851a	-0.04846678
18	0xbd2165a1	-0.03940356
19	0xbb9da263	-0.004810618
20	0xbc3ea13f	-0.011635124
21	0xbd1eb9cc	-0.03875141
22	0x3be05af6	0.006846781
23	0xbbcbe1a6	-0.0062219677
24	0xbd09cf3e	-0.033644907
25	0xbd4e3d52	-0.05035145
26	0x3a802487	0.0009776511
27	0x3b465c5e	0.0030267457
28	0xbd6f6647	-0.05844715
29	0xbc37b7d7	-0.011213264
30	0xbcae5cb3	-0.021284437
31	0x3bea9e77	0.0071600038
32	0xbc0790fb	-0.008274312
33	0xbc963e54	-0.018340267
34	0xbc945846	-0.018108498
35	0xbcb4de7b	-0.022078743
36	0xbc8724a0	-0.016496956
37	0xbcf13dd7	-0.029448433
38	0xbd046bf7	-0.032329526
39	0xbc704f25	-0.014667307
40	0xbd103383	-0.035205375
41	0xbc84f647	-0.016230715
42	0xbd277828	-0.040886074
43	0xbcf17e0c	-0.02947905
44	0xbd508f7b	-0.050918084
45	0xbcc6953d	-0.024241084
46	0xbc903bf4	-0.017606713
47	0xbd22db2f	-0.03975981
48	0xbd35bda9	-0.044370327
49	0xbd308bbc	-0.04310201
50	0xbcdc4ab6	-0.026891094
51	0xbcf18b1c	-0.029485278
52	0xbd18a80a	-0.03726963
53	0xbc9f145c	-0.019418888
54	0xbc0072ea	-0.007839898
55	0xba659895	-0.0008758393
56	0xbb1dca5e	-0.002407692
57	0xbcf0751a	-0.029352713
58	0xbcb10226	-0.02160747
59	0xbcc961a5	-0.024582693
60	0xbd11ac9a	-0.035564996
61	0xbc63c56a	-0.013902048
62	0xbcaf6eff	-0.021415232
63	0xbd3a216b	-0.045442026
64	0xbd2a0e8a	-0.04151777
65	0xbc54a539	-0.012978845
66	0xbc23d50e	-0.009999527
67	0xbd09ea74	-0.033670858
68	0xbcde6804	-0.027149208
69	0xbcb3534d	-0.021890307
70	0xbccad795	-0.024761
71	0xbcf920d4	-0.030411161
72	0xbd19a61b	-0.037511926
73	0xbcb573ab	-0.022149881

1.layers.4.0.weight f4 [74, 370]
0	0x3d95f968	0.07322961
1	0x3ca0f000	0.01964569
2	0x3d208262	0.039186843
3	0x3d90532e	0.07047115
4	0xbd0e9365	-0.034808535
5	0xbdee64e9	-0.11640341
6	0xbdf6775d	-0.120344855
7	0x3d31308b	0.043259185
8	0x3d81728a	0.06320675
9	0xbd6b9eab	-0.057524364
10	0xbd2e19c3	-0.042505037
11	0xbd4a8904	-0.049447075
12	0xbd1bbaf0	-0.038020074
13	0xbbf906e4	-0.0075996984
14	0x3d5aa7bd	0.053382624
15	0x3c98dd4d	0.018660212
16	0x3d2b3eb9	0.041807864
17	0xbd8e207d	-0.069397904
18	0xbbae0a6e	-0.005311302
19	0xbd3a05d0	-0.0454157
20	0xbd5b5175	-0.05354448
21	0x3d3a06cd	0.045416642
22	0x3e0386e1	0.12844421
23	0xbc2fb379	-0.010723942
24	0xbddd489f	-0.10804867
25	0x3e104a12	0.14090756
26	0xbd88afa9	-0.066741295
27	0x3b92e05e	0.004482313
28	0x3e2bf608	0.16793072
29	0x3d894472	0.06702508
30	0x3dabc379	0.08386893
31	0xbd271e07	-0.04080012
32	0xbd8f136a	-0.06986125
33	0x3d2dfe07	0.042478587
34	0xbe0d3100	-0.13788223
35	0x3d976051	0.07391418
36	0xbb89bee8	-0.004203666
37	0x3e0b3508	0.13594449
38	0x3d409e64	0.047026053
39	0xbb34e46c	-0.002760197
40	0xbc8cbfa4	-0.017181225
41	0x3d5260f8	0.051362008
42	0x3cbb1769	0.022838311
43	0x3e162df1	0.14665963
44	0xbd5c9f5d	-0.05386292
45	0x3d770efe	0.060317032
46	0xbc169671	-0.009191141
47	0xbd8d6d23	-0.06905582
48	0x3aab96d9	0.0013091221
49	0x3d16b3eb	0.036792677
50	0x3e4d270c	0.20034426
51	0xbd347596	-0.04405745
52	0x3c32724c	0.010891508
53	0x3d8ba898	0.06819266
54	0x3cca78a8	0.024715737
55	0xbd86a6b0	-0.06574762
56	0xbd1a948b	-0.037739318
57	0xbd0484b5	-0.03235312
58	0x3e1b499c	0.15164798
59	0xbc76eb69	-0.015070775
60	0x3d3d1a7d	0.04616784
61	0x3cb7e76d	0.02244922
62	0x3d094f97	0.03352317
63	0xbc94dac8	-0.01817073
64	0x3ce4bfca	0.027923483
65	0x3cac377a	0.021022547
66	0xbd24f35e	-0.040271156
67	0x3de731c2	0.112887874
68	0xbd0b701a	-0.034042455
69	0xbd2dd3fc	-0.042438492
70	0x3d698fdc	0.05702196
71	0xbbe71cb8	-0.007052984
72	0x3c6512f1	0.013981567
73	0xbd384b2b	-0.04499356
74	0xbd6d3634	-0.05791302
75	0xbd9f3ea2	-0.07775618
76	0xbd22df6f	-0.039763864
77	0x3cc4b6c1	0.024012925
78	0x3d042859	0.03226504
79	0xbd9dc557	-0.07703655
80	0x3c7a776c	0.015287261
81	0xbd2949c0	-0.0413301
82	0xbca299fb	-0.019848814
83	0x3d3f21e9	0.0466632
84	0x3de8e238	0.11371273
85	0xbddcb0cf	-0.10775911
86	0x3dbaf5fa	0.091289476
87	0xbe0ddd6d	-0.13853998
88	0xbdcbaad1	-0.0994469
89	0x3d99690d	0.0749074
90	0x3dcc44ff	0.099740975
91	0x3df3cf82	0.11904813
92	0x3cee945a	0.029123474
93	0x3c437b07	0.0119311875
94	0xbda2d8a0	-0.07951474
95	0xbcd5b079	-0.026085125
96	0x3cd5a151	0.026077898
97	0x3d691f55	0.056914646
98	0x3c51dd3f	0.012809097
99	0x3e331d72	0.17491701
100	0xbd414608	-0.047185928
101	0x3caf376a	0.021388728
102	0x3cf7976e	0.030223574
103	0xbaf4d38a	-0.0018678766
104	0x3cb8c383	0.022554165
105	0x3b89c0c9	0.00420389
106	0xbd870133	-0.065920256
107	0x3d334d36	0.043774806
108	0xbc2d1ecb	-0.010566424
109	0xbd9f0efc	-0.0776653
110	0xbc3dd651	-0.011586742
111	0x3e213cca	0.15745845
112	0xbb5113b6	-0.0031902618
113	0x3d9cd1dd	0.07657216
114	0x3dfbf16b	0.12301906
115	0xbd8b3b82	-0.067984596
116	0x3e00392f	0.12521814
117	0x3c82968e	0.01594093
118	0xbd968c99	-0.073510356
119	0xbce15c9f	-0.027509985
120	0xbccb1e41	-0.0247947
121	0x3b226100	0.0024777055
122	0xbe769698	-0.24080884
123	0x3e0fddf1	0.14049508
124	0x3d8dc747	0.06922775
125	0x3d129dd1	0.035795037
126	0xbe388096	-0.18017802
127	0x3d22cc34	0.039745525
128	0xbd12328b	-0.035692733
129	0xbbde7318	-0.0067886226
130	0xbd561fe7	-0.05227652
131	0xbd6f17c4	-0.058372274
132	0x3d76949d	0.060200322
133	0xbcd37f93	-0.025817668
134	0x3d938c90	0.072045445
135	0x3d8d9221	0.069126375
136	0x3d9f2a12	0.07771696
137	0xbde1f5bc	-0.11033198
138	0x3c00f7d9	0.0078715915
139	0x3c3ecbd4	0.011645276
140	0xbcbf0c8f	-0.023321418
141	0x3c8c14e2	0.017099801
142	0xbc966977	-0.018360836
143	0xba6636c3	-0.0008781964
144	0xbd74b4de	-0.0597428
145	0x3c143506	0.009045845
146	0xbcdc54ce	-0.026895907
147	0x3dbf8fa9	0.09353573
148	0x3d754d82	0.05988837
149	0x3dfd6c48	0.12374169
150	0xbd44c89c	-0.04804288
151	0xbcd5c910	-0.02609685
152	0xbd71a8f9	-0.058999036
153	0xbde1898f	-0.11012565
154	0xbcc17855	-0.02361695
155	0xbd802939	-0.062578626
156	0x3dab672d	0.083692886
157	0x3d7b96ea	0.06142322
158	0x3d9bd96d	0.0760983
159	0x3d836339	0.064154096
160	0xbca4d539	-0.020121204
161	0x3d96f25d	0.07370446
162	0xbd09c24b	-0.033632558
163	0xbc914c37	-0.017736537
164	0xbd5f8feb	-0.05458061
165	0x3df5dd0c	0.12005052
166	0xbd942867	-0.07234269
167	0x3d850860	0.06495738
168	0x3cf06a03	0.029347425
169	0xbcfbdf28	-0.030746058
170	0xbcb8ad70	-0.022543639
171	0x3d36fe4b	0.044676106
172	0xbda09ee3	-0.07842805
173	0x3d8913d4	0.06693235
174	0xbcfdb1ad	-0.030968511
175	0xbc63c45a	-0.013901794
176	0xbde40ec3	-0.11135628
177	0x3cff25d3	0.031145966
178	0x3c85e71b	0.016345551
179	0x3cb505a8	0.022097424
180	0x3c8f9fa4	0.017532177
181	0x3d6c75cd	0.05772953
182	0xbd005006	-0.031326316
183	0xbdf63369	-0.120215245
184	0x3e4a88aa	0.19778696
185	0x3e01be40	0.12670231
186	0x3d527876	0.05138441
187	0xbc8f8615	-0.01751999
188	0xbdc7bf4f	-0.09753286
189	0xbc31aaeb	-0.010843973
190	0x3e001d33	0.12511139
191	0xbc3cc001	-0.011520387
192	0x3d41e938	0.047341555
193	0xbdffbd10	-0.12487233
194	0x3e34ff64	0.17675549
195	0x3cab94f0	0.020945042
196	0xbd974245	-0.07385687
197	0x3d5e0403	0.054203045
198	0x3bea9232	0.007158541
199	0xbd8d72e6	-0.06906681
200	0xbd7b513b	-0.061356764
201	0x3df2c68c	0.11854276
202	0xbc748aaf	-0.014925643
203	0xbd04228c	-0.03225951
204	0x3cd428af	0.025898306
205	0x3d2b5298	0.041826814
206	0x3d5d9085	0.054092903
207	0xbd25b893	-0.040459227
208	0xbc92d453	-0.01792351
209	0xbded07d0	-0.11573756
210	0x3d64bfc9	0.055846963
211	0xbe216a91	-0.15763308
212	0x3d864761	0.06556583
213	0x3d866490	0.065621495
214	0x3e19c2ba	0.15015689
215	0x3cf5fed4	0.030028738
216	0x3d7e3f48	0.06207207
217	0x3bdf3a6a	0.0068123834
218	0xbe515431	-0.20442273
219	0x3d9c33e4	0.07627085
220	0x3d8f57b8	0.06999153
221	0x3a98bacf	0.0011652353
222	0x3e3d334d	0.18476601
223	0xbcf176f2	-0.029475663
224	0xbdf73f1e	-0.120725855
225	0x3cdb9591	0.026804717
226	0xbd50b19b	-0.050950628
227	0x3d9bbbd2	0.07604183
228	0x3d031d2d	0.032010246
229	0x3d895ba7	0.067069344
230	0x3b8b91c3	0.0042593195
231	0x3cc17dc5	0.023619542
232	0xbdecd157	-0.11563366
233	0x3d6eeb36	0.058329783
234	0xbe17fc61	-0.14842369
235	0xbdb1043d	-0.086433865
236	0xbdc76628	-0.09736282
237	0x3d067776	0.03282877
238	0x3d58ebfd	0.05295943
239	0x3e3c1915	0.18368943
240	0x3cea5616	0.028605502
241	0xbc4cdd23	-0.012503895
242	0x3e2d0be8	0.16899073
243	0x3b14ae90	0.0022687055
244	0xbd3ed8c1	-0.04659343
245	0xbdd9deea	-0.106382206
246	0xbc9abdd3	-0.018889343
247	0x3c8d2a18	0.017231986
248	0xbd306f25	-0.043074746
249	0xbe061fec	-0.13098115
250	0xbd23db09	-0.04000381
251	0xbda25b5e	-0.07927583
252	0xbd75e932	-0.060036846
253	0xba0e13a9	-0.00054197997
254	0xbda8434a	-0.08215959
255	0xbd04fb2d	-0.032466102
