DNNWeights/model/ensemble_0/selected_set_0_0_1.onnx (onnx, 872444 bytes, 17 tensors)

0.embeds.0.weight f4 [2, 1]
0.26659477 -0.16143572
00000000: 1c7f 883e 684f 25be

0.embeds.1.weight f4 [3, 2]
-0.51763064 -0.4251082 0.9357643 1.0818864 1.8047049 -1.1478031
00000000: 7183 04bf c8a7 d9be 408e 6f3f 417b 8a3f
00000010: 9200 e73f 36eb 92bf

0.embeds.2.weight f4 [2, 1]
0.48228112 -1.0352509
00000000: 8ded f63e 1a83 84bf

0.embeds.3.weight f4 [2019, 50]
-0.32174018 -1.5197955 1.512777 -1.3230574 -2.59197 -1.6014398 2.329434 0.45285988
0.28891778 0.96738446 1.7151821 -0.18530609 0.8898228 0.98231846 0.8566853 1.230145
-0.9529087 -0.19828534 -0.19753113 0.06755611 -0.09368498 0.95025736 -1.0507666 -0.42789727
-1.6525023 -0.79265547 1.673974 2.6302803 -0.62141293 -0.6754174 0.25824174 -0.81412804
0.5345988 -0.78433436 0.112029225 0.99787223 -2.611209 1.7825081 -0.13318248 0.20943272
0.9817284 0.8787769 1.1055046 -0.6280997 -0.40043572 -0.4104484 0.21259628 -0.6267694
2.024889 -0.9213382 -0.09956774 0.20842312 0.23536213 0.5504876 -0.34872392 1.413062
0.39209312 0.51602167 0.8068232 -1.308801 -0.11067968 1.7064844 1.4941 0.75241154
0.21586102 -0.1681038 0.37340143 -0.37049863 -2.3695257 0.5712035 -2.4476893 0.18644209
-1.549263 0.019460892 -0.83876914 0.6782533 0.9866896 -0.4276617 0.008336765 0.9142976
0.4066876 0.6235613 -0.3285821 -0.97038066 -0.6350921 0.05005906 -0.008882529 -1.1262579
0.30904964 0.8772619 1.2686272 0.63855577 -0.25178236 1.5059565 0.5954169 -1.3190421
1.4417739 -1.256745 -0.06976191 -1.3692093 0.377077 -1.6310606 0.7926885 0.19887683
-1.7338873 0.8570076 -2.6374426 -1.4992495 1.07689 -1.609478 0.96676767 1.1396202
-1.5820305 0.21227461 -0.07722144 -0.08982203 0.17227149 1.09188 -0.5626301 -0.44821167
-1.532612 -0.8322601 -0.0578577 -0.48900902 -0.17173514 -0.53308773 -0.13894778 -0.20853858
1.2673472 1.7541581 0.6432377 -0.10469907 0.014206718 -0.97873104 -1.8979515 0.044150367
-0.0902102 0.08716869 0.44460917 0.9573922 -1.16965 -0.22030528 1.4873669 1.0931731
-0.61638063 -0.020401381 -0.8397633 0.76770324 -1.2965529 -1.3103397 0.42661762 -0.5688613
-0.2800693 0.5202798 1.291034 -0.06480282 -0.2479586 0.35735217 -0.28495622 1.1087873
0.36969838 -0.4553358 0.06779865 -2.1445556 -0.33787182 -1.299676 2.0409806 -0.5476067
0.79320335 0.67603725 -1.138334 -1.514328 -0.41308868 0.18077157 -1.2705027 -2.2025394
-0.029475674 -0.6822183 -1.4661648 -0.16049348 -0.057081144 -1.0485286 -1.1586137 -0.31825268
0.33959717 -2.05 0.4273556 1.5584153 0.26681393 -0.49680594 -0.6431415 1.2795509
-0.19375212 -0.033876143 -0.986588 0.47116938 0.95691293 0.22408862 -0.5257797 -0.2079394
-0.5249805 -1.219484 -0.50857276 -1.3580756 0.53601056 0.23244025 0.16539925 -1.2489214
0.19924848 1.0389903 -1.0756063 -2.0146537 0.93963623 -1.5142345 -1.067982 0.64227265
-1.2908218 -0.40418023 0.6825134 0.010581129 0.32779258 0.6208933 -1.2750989 2.6729102
-0.70165604 -0.9737539 0.45644265 0.72241354 -0.18385297 -0.69387734 0.7824283 1.4766885
-2.125427 -2.843212 0.3427898 0.50710726 1.2157756 0.2486329 -2.443375 0.34567183
-0.2711335 -0.65527916 -1.0280786 1.7283468 3.8017056 -1.5720569 0.40078098 0.47740486
-0.48876783 -0.21019307 -0.63764507 0.4469602 0.25634345 0.8147793 1.7414383 0.7339382
00000000: 21bb a4be a988 c2bf ada2 c13f f259 a9bf
00000010: d6e2 25c0 fbfb ccbf 7215 1540 40dd e73e
00000020: 08ed 933e 82a6 773f 168b db3f e1c0 3dbe
00000030: 6dcb 633f 3979 7b3f ba4f 5b3f 6475 9d3f
00000040: d3f1 73bf 500b 4bbe 9a45 4abe dc5a 8a3d
00000050: e9dd bfbd 1144 733f 857f 86bf 5a15 dbbe
00000060: 3285 d3bf 78eb 4abf c844 d63f 8356 2840
00000070: eb14 1fbf 28e8 2cbf 4338 843e b26a 50bf
00000080: 78db 083f 23ca 48bf 946f e53d 8e74 7f3f
00000090: 0c1e 27c0 3a29 e43f fd60 08be 8875 563e
000000a0: 8d52 7b3f 86f7 603f 2d81 8d3f 24cb 20bf
000000b0: e905 cdbe 4b26 d2be d7b2 593e f673 20bf
000000c0: c897 0140 d2dc 6bbf 2cea cbbd df6c 553e
000000d0: c502 713e c1ec 0c3f f18b b2be 37df b43f
000000e0: 6ec0 c83e ff19 043f f78b 4e3f cb86 a7bf
000000f0: 07ac e2bd 156e da3f ab3e bf3f 0b9e 403f
00000100: ac0a 5d3e 6723 2cbe 792e bf3e ffb1 bdbe
00000110: 4fa6 17c0 643a 123f f1a6 1cc0 adea 3e3e
00000120: 404e c6bf 736c 9f3c 93b9 56bf 02a2 2d3f
00000130: b197 7c3f 79f6 dabe ed96 083c 680f 6a3f
00000140: 5b39 d03e b7a1 1f3f ea3b a8be de6a 78bf
00000150: 6595 22bf bb0a 4d3d 0788 11bc 3829 90bf
00000160: c13b 9e3e 3c94 603f 6062 a23f 6478 233f
00000170: 9ee9 80be 2fc3 c03f 3e6d 183f 5fd6 a8bf
00000180: 0c8c b83f 05dd a0bf 55df 8ebd 4042 afbf
00000190: 3d10 c13e 98c6 d0bf a2ed 4a3f 5ea6 4b3e
000001a0: 05f0 ddbf da64 5b3f dccb 28c0 68e7 bfbf
000001b0: 88d7 893f 6003 cebf 167e 773f 13df 913f
000001c0: fa7f cabf 845e 593e 4626 9ebd 9df4 b7bd
000001d0: f067 303e b9c2 8b3f 8708 10bf 007c e5be
000001e0: a12c c4bf ff0e 55bf 32fc 6cbd 645f fabe
000001f0: 56db 2fbe 7078 08bf 5448 0ebe 238b 55be
00000200: 6f38 a23f 4188 e03f 3aab 243f 776c d6bd
00000210: 4bc3 683c 1e8e 7abf 13f0 f2bf 04d7 343d
00000220: 20c0 b8bd 8085 b23d d0a3 e33e a817 753f
00000230: 17b7 95bf b597 61be 0a62 be3f 19ed 8b3f
00000240: 1fcb 1dbf cc20 a7bc bafa 56bf 3388 443f
00000250: 72f5 a5bf 36b9 a7bf a06d da3e e5a0 11bf
00000260: 3e65 8fbe 0f31 053f 9a40 a53f 57b7 84bd
00000270: dce8 7dbe ddf6 b63e c8e5 91be beec 8d3f
00000280: 1b49 bd3e c621 e9be 05da 8a3d 6640 09c0
00000290: 89fd acbe c85b a6bf 6d9f 0240 f42f 0cbf
000002a0: 600f 4b3f c710 2d3f eeb4 91bf 80d5 c1bf
000002b0: 5c80 d3be 2f1c 393e d59f a2bf 68f6 0cc0
000002c0: f876 f1bc dca5 2ebf 4aab bbbf 6758 24be
000002d0: ebcd 69bd 2f36 86bf 744d 94bf 04f2 a2be
000002e0: aedf ad3e 3333 03c0 5ace da3e 277a c73f
000002f0: d69b 883e 595d febe eca4 24bf 53c8 a33f
00000300: f566 46be b6c1 0abd 0891 7cbf 1d3d f13e
00000310: 3ff8 743f 7d77 653e 8099 06bf 11ee 54be
00000320: 1f65 06bf 0d18 9cbf d331 02bf 6cd5 adbf
00000330: fd37 093f d104 6e3e 6c5e 293e a8dc 9fbf
00000340: cb07 4c3e a2fd 843f 78ad 89bf 16f0 00c0
00000350: 008c 703f 70d2 c1bf a2b3 88bf fb6b 243f
00000360: a639 a5bf b6f0 cebe 33b9 2e3f 795c 2d3c
00000370: 6ed4 a73e ddf2 1e3f 7136 a3bf f610 2b40
00000380: bb9f 33bf f047 79bf dab2 e93e 18f0 383f
00000390: f443 3cbe f2a1 31bf 394d 483f 2104 bd3f
000003a0: ff06 08c0 2ff7 35c0 2582 af3e c8d1 013f
000003b0: 899e 9b3f 9f99 7e3e 4260 1cc0 e6fb b03e
000003c0: 03d2 8abe 60c0 27bf 1498 83bf 783a dd3f
000003d0: 254f 7340 2939 c9bf 2a33 cd3e 696e f43e
000003e0: c73f fabe da3c 57be b53c 23bf f8d7 e43e
000003f0: 733f 833e 6095 503f 73e7 de3f 60e3 3b3f

1.layers.0.0.weight f4 [74, 74]
-0.29731154 -0.23584904 -0.08467012 -0.1542536 0.23323084 -0.0735777 0.09362056 -0.23295838
0.010099084 -0.12471993 0.14229657 -0.039915875 0.093630016 0.20643292 0.16289005 0.54432476
0.06314946 0.3712905 0.21575671 -0.0034757524 0.24432525 0.39035982 0.25282606 0.18432036
-0.12534878 -0.15224904 0.04917826 -0.13849945 -0.11720615 0.16844082 -0.047687687 0.040737517
0.021545207 0.20721315 -0.058829036 -0.20472313 0.16353628 -0.09391014 0.12452617 0.0070163487
0.015382577 -0.013205401 0.35985026 0.09940251 -0.19897689 0.40211746 0.1528826 0.08524597
0.0021435202 -0.036081746 0.21806099 0.22593206 -0.23057418 0.008855638 0.05640946 -0.058577552
0.17563161 0.4039009 0.065960586 0.07977964 0.050734688 0.06280809 0.37218183 0.03095912
0.3031667 0.12698545 0.22720684 -0.21338956 -0.09609732 -0.21222512 0.34291232 -0.028126296
0.044968728 -0.28137854 0.11956163 -0.257846 0.06998613 0.090762764 0.48428014 -0.1194021
-0.37699237 -0.180397 0.39813012 -0.09252407 -0.3853547 -0.20551011 0.04686541 0.2934005
0.050506484 -0.29675278 -0.24614032 0.26932266 -0.16114521 0.1207678 -0.013180154 -0.022957278
-0.34239882 0.07181437 0.028543869 -0.19078904 0.029423203 -0.066110566 0.16429213 -0.054154243
0.07591263 -0.094394244 0.32173666 0.044322833 -0.15599586 -0.2717199 0.37547275 0.054448508
-0.079673424 0.012640547 0.10349427 0.33324623 -0.22386183 0.13888611 -0.06400805 0.01311143
-0.07068768 0.33757085 0.07270442 -0.15712084 -0.10812071 -0.120100215 -0.1943725 -0.06893406
-0.17436868 0.2288684 0.069636345 -0.096761264 0.00040448218 -0.07675458 -0.09047773 0.16487747
0.07600214 -0.18191257 -0.00553036 0.010977625 -0.15354489 0.052330144 -0.016294366 0.15699945
0.077862725 -0.05267534 0.00814905 0.09103577 0.08094571 -0.3120268 0.00280004 0.21800058
0.46468094 0.10802437 -0.05977016 -0.109126434 0.056840386 0.19947533 -0.3085744 -0.18824604
-0.12003379 -0.054992978 -0.2735002 -0.13668105 0.15758353 0.34770072 -0.079969615 -0.0027025142
-0.28365678 0.29905498 0.11743315 0.15799929 0.06658665 0.13731731 -0.05750071 -0.16362725
0.16537593 -0.15341677 -0.21266523 0.08798078 0.18089685 0.2749192 -0.06523035 -0.10427993
-0.048067495 -0.19824423 0.15801114 -0.09766884 0.1591692 0.058125112 0.19425048 0.16921058
0.08740982 0.37095255 0.30340272 -0.22233771 -0.099989615 0.17276141 -0.040095564 0.14846343
0.14320353 -0.061950516 -0.12847395 0.0005736769 -0.10727155 0.030580552 0.051971897 -0.070709795
-0.17247227 0.14173338 0.25704062 -0.25364602 -0.09504352 0.094162054 0.09427463 0.003058585
0.033098098 0.23137225 0.067234896 -0.17863335 0.15867817 -0.17273839 0.09743787 0.16987462
-0.5694034 0.052205235 0.04803799 -0.14974676 -0.0023497634 0.02270641 -0.028362967 -0.09997796
-0.57395864 1.0162326 0.06862147 0.081469566 0.10300147 -0.2168825 0.33267692 -0.34162006
-0.057836123 0.1560613 -0.12395204 -0.06293721 0.26736763 -0.024259245 0.16215594 -0.005795406
0.3011201 0.033543717 0.26556733 0.21994239 0.1474117 0.1793278 0.10896402 0.16154142
00000000: 3839 98be 6982 71be 8767 adbd a8f4 1dbe
00000010: 11d4 6e3e e8af 96bd 23bc bf3d a48c 6ebe
00000020: a176 253c 2a6d ffbd 31b6 113e d47e 23bd
00000030: 18c1 bf3d 2763 533e a6cc 263e de58 0b3f
00000040: 8154 813d ca19 be3e 54ef 5c3e 73c9 63bb
00000050: 6630 7a3e 3edd c73e 6b72 813e 7abe 3c3e
00000060: 6e5b 00be 2ce7 1bbe 256f 493d cdd2 0dbe
00000070: c709 f0bd c07b 2c3e 2a54 43bd 62dc 263d
00000080: 937f b03c af2f 543e b7f6 70bd f1a2 51be
00000090: 0e76 273e f653 c0bd 9407 ff3d 66e9 e53b
000000a0: 3407 7c3c 775b 58bc 4b3e b83e 8b93 cb3d
000000b0: 99c0 4bbe 57e2 cd3e 428d 1c3e 7095 ae3d
000000c0: 4d7a 0c3b 74ca 13bd 614b 5f3e bc5a 673e
000000d0: a31b 6cbe 3d17 113c 9b0d 673d 04ef 6fbd
000000e0: c6d8 333e 19cc ce3e 5816 873d 8263 a33d
000000f0: 2dcf 4f3d 87a1 803d 9e8e be3e fb9d fd3c
00000100: aa38 9b3e 7908 023e e9a8 683e cb82 5abe
00000110: acce c4bd 8b51 59be 3492 af3e 1e69 e6bc
00000120: 2131 383d d910 90be badc f43d 6404 84be
00000130: e354 8f3d d4e1 b93d 91f3 f73e 1789 f4bd
00000140: 2505 c1be feb9 38be b6d7 cb3e 427d bdbd
00000150: 364d c5be 3e71 52be f2f5 3f3d 9738 963e
00000160: e3df 4e3d fbef 97be 350c 7cbe a9e4 893e
00000170: 4003 25be 1c55 f73d 93f1 57bc e710 bcbc
00000180: e64e afbe 6a13 933d d5d4 e93c 345e 43be
00000190: ee08 f13c fa64 87bd 323c 283e d7d0 5dbd
000001a0: 1578 9b3d c551 c1bd abba a43e dc8b 353d
000001b0: 61bd 1fbe df1e 8bbe f73d c03e 6605 5f3d
000001c0: d22b a3bd 4c1a 4f3c cef4 d33d 409f aa3e
000001d0: 093c 65be 2938 0e3e a716 83bd 53d1 563c
000001e0: b4c4 90bd 16d6 ac3e 0ee6 943d 49e4 20be
000001f0: 646e ddbd 1af7 f5bd 9609 47be 4d2d 8dbd
00000200: b48d 32be 7a5c 6a3e 809d 8e3d c52a c6bd
00000210: ae10 d439 8131 9dbd 634c b9bd a4d5 283e
00000220: 03a7 9b3d 4a47 3abe 0638 b5bb 7fdb 333c
00000230: df3a 1dbe 2258 563d c37b 85bc 77c4 203e
00000240: 7e76 9f3d 19c2 57bd 9883 053c f670 ba3d
00000250: ddc6 a53d fac1 9fbe e080 373b 8b3b 5f3e
00000260: a9ea ed3e e23b dd3d 8ed1 74bd ae7d dfbd
00000270: 77d1 683d 4343 4c3e 77fd 9dbe 92c3 40be
00000280: 47d4 f5bd 5140 61bd 3808 8cbe 1ef6 0bbe
00000290: 945d 213e d405 b23e 1cc7 a3bd aa1c 31bb
000002a0: 763b 91be bc1d 993e cb80 f03d 91ca 213e
000002b0: 955e 883d e99c 0c3e dd85 6bbd e78d 27be
000002c0: 4f58 293e 4919 1dbe eac4 59be 442f b43d
000002d0: 063d 393e 36c2 8c3e 7d97 85bd b790 d5bd
000002e0: 6ce2 44bd 8900 4bbe accd 213e 9a06 c8bd
000002f0: 40fd 223e 9914 6e3d 99e9 463e 8a45 2d3e
00000300: eb03 b33d 7eed bd3e 9a57 9b3e 7fac 63be
00000310: 5bc7 ccbd 5ee8 303e 3f3b 24bd cc06 183e
00000320: f2a3 123e d3bf 7dbd ad8e 03be ce62 163a
00000330: 30b1 dbbd 1184 fa3c 7ce0 543d 4cd0 90bd
00000340: 929c 30be 8e22 113e d49a 833e e4dd 81be
00000350: 2da6 c2bd 09d8 c03d 0f13 c13d 8b72 483b
00000360: df91 073d d9ec 6c3e 73b2 893d a9eb 36be
00000370: 887c 223e 55e2 30be 828d c73d 9df3 2d3e
00000380: 6cc4 11bf 28d5 553d 7cc3 443d 3757 19be
00000390: 7dfe 19bb cb02 ba3c 7459 e8bc 3fc1 ccbd
000003a0: f4ee 12bf e913 823f 6a89 8c3d 84d9 a63d
000003b0: 6ff2 d23d 7216 5ebe a154 aa3e d3e8 aebe
000003c0: 92e5 6cbd 89ce 1f3e 91da fdbd 39e5 80bd
000003d0: 69e4 883e 53bb c6bc 350c 263e 64e7 bdbb
000003e0: 6a2c 9a3e 2365 093d 71f8 873e 9438 613e
000003f0: 18f3 163e b5a1 373e 8728 df3d 1d6b 253e

1.layers.0.0.bias f4 [74]
-0.110673785 -0.025927946 -0.06229239 -0.011890343 -0.012747716 -0.05203003 -0.008892692 -0.075868085
-0.024708029 -0.03504207 -0.042764783 -0.09667644 -0.07340371 -0.026684824 -0.017607857 -0.006411763
-0.011739475 -0.055207748 -0.050967947 0.011948165 -0.06094759 -0.081978776 -0.054070752 -0.0828382
-0.051119003 -0.020621158 -0.061546385 0.01108952 -0.048502054 -0.013426861 0.0075052287 -0.01511846
-0.009842925 -0.0063909823 -0.010382414 -0.06046425 -0.031728067 -0.0419674 -0.042937227 -0.079077445
-0.052109633 -0.07061711 -0.059208937 -0.0447084 -0.015063224 -0.02101195 0.008985439 -0.02871733
-0.09812216 -0.09495417 -0.042459264 -0.030386899 -0.030030876 -0.057903275 -0.04876326 -0.090103365
-0.033795483 -0.07043405 -0.032268908 -0.08475978 -0.0947968 0.024316458 -0.02512793 -0.014039593
-0.053213466 -0.033577003 -0.051980317 -0.05946887 -0.055596944 -0.012407659 -0.04132506 -0.04942846
-0.067165524 -0.05693624
00000000: f0a8 e2bd d866 d4bc 4e26 7fbd b7cf 42bc
00000010: ccdb 50bc 711d 55bd a7b2 11bc ba60 9bbd
00000020: 7e68 cabc 4688 0fbd 202a 2fbd 4cfe c5bd
00000030: af54 96bd 229a dabc 5a3e 90bc c419 d2bb
00000040: ed56 40bc 8521 62bd c4c3 50bd 3cc2 433c
00000050: 2ea4 79bd 7de4 a7bd 4b79 5dbd 13a7 a9bd
00000060: 2962 51bd b4ed a8bc 1018 7cbd d1b0 353c
00000070: 17aa 46bd 56fc 5bbc 6cee f53b 6bb3 77bc
00000080: 3844 21bc 726b d1bb 001b 2abc 5da9 77bd
00000090: 4af5 01bd 02e6 2bbd f2de 2fbd 5bf3 a1bd
000000a0: e970 55bd b49f 90bd 1285 72bd 2820 37bd
000000b0: becb 76bc 4121 acbc aa37 133c 9b40 ebbc
000000c0: 45f4 c8bd 5577 c2bd c4e9 2dbd f2ed f8bc
000000d0: 5003 f6bc fc2b 6dbd fcbb 47bd 1d88 b8bd
000000e0: 226d 0abd ba3f 90bd 672c 04bd 8996 adbd
000000f0: d324 c2bd 4f33 c73c 17d9 cdbc 5206 66bc
00000100: 5df6 59bd 0a88 09bd 50e9 54bd a195 73bd
00000110: 9fb9 63bd 7e49 4bbc 7744 29bd 7f75 4abd
00000120: 148e 89bd fa35 69bd

1.layers.1.0.weight f4 [74, 148]
-0.078612424 -0.23165497 0.31642422 -0.13519455 0.034576237 0.17178938 -0.06332667 0.048169613
-0.18613727 0.06158683 -0.09968836 0.14477645 0.17103243 0.049883716 0.20925348 -0.070382304
-0.119444005 0.17103 -0.05433884 -0.077847935 -0.06454883 -0.1650609 0.1832132 -0.08074283
0.09468703 -0.07150566 0.1814381 -0.0029373106 -0.10003155 0.038259685 -0.13184498 -0.15741284
0.13315202 -0.1664365 -0.04686404 -0.07191536 -0.09080131 0.04720132 0.042409584 -0.14338861
0.18751705 -0.06358431 0.022636272 -0.011176891 -0.013897572 0.16826761 -0.27312937 -0.037336994
-0.13782293 -0.02339308 0.0014854124 -0.12429678 -0.08211124 -0.17595686 -0.042163067 0.013316598
-0.18335006 0.06852749 0.10135818 -0.010256448 -0.21128559 -0.17138161 -0.008288855 -0.13018957
-0.1739123 -0.08172481 -0.21960129 0.06757172 0.03197531 -0.008683158 -0.24949157 0.029855954
-0.04117533 0.2035907 0.024693854 0.011511715 -0.23296918 0.04985205 -0.25889394 0.121832006
-0.14031707 0.06416477 0.34087324 0.020808237 -0.32608673 -0.06407543 -0.092228204 -0.17575036
-0.32047725 0.041952066 -0.07107031 -0.14128734 0.055258345 -0.06898078 -0.02947446 -0.07426478
-0.0064954143 -0.34460783 -0.046343435 0.023497393 -0.16591376 0.023411606 0.009800167 0.05434741
0.00021565515 -0.06529511 0.017565768 0.09601522 -0.07279589 -0.084087655 0.035505086 0.07303824
0.08009563 -0.10036947 0.048806444 -0.07387745 -0.08336797 -0.071502924 -0.16421062 -0.029955257
-0.15161897 0.22396024 0.10153684 0.079506174 0.055607192 0.011214076 -0.00687316 0.023860604
0.2922969 -0.057553623 0.032161254 -0.11074621 0.15149489 -0.050256163 0.0020137215 0.29578605
-0.004286592 0.071647234 0.12247927 0.1563935 -0.16658224 -0.050973732 -0.14285602 0.107585356
-0.099959835 0.27342117 -0.18031028 -0.0005545401 0.15272497 0.051789932 0.20488913 0.013095176
-0.20955805 -0.05446742 -0.031567123 0.017555192 0.35463214 -0.048588943 0.055589166 0.035379365
0.02717359 -0.17410131 -0.22266534 0.25978482 0.049646795 -0.20029335 -0.123558454 -0.034665406
-0.46560982 -0.16869481 0.034262307 0.04782692 -0.0035663783 0.039628945 -0.08468926 -0.107934296
0.23258434 -0.21116789 -0.15956049 0.012071307 -0.035801843 0.1949725 -0.11399686 0.10919611
-0.09787396 -0.04050389 -0.13884221 -0.1402105 -0.013347482 -0.23013605 -0.13833535 -0.1221879
-0.19164525 0.004768471 -0.033197448 -0.047886994 0.10366569 -0.06425569 -0.0068471557 -0.03564936
-0.057871524 0.042470712 0.19847973 0.18675779 -0.36973327 -0.0850871 -0.21366699 0.23922864
0.094827615 -0.09699817 -0.085930176 0.084216714 0.20934904 0.015593262 0.08897187 0.17332621
-0.13003945 -0.10535252 -0.17398462 -0.0875197 -0.37402675 0.055183828 -0.05071775 -0.007254576
0.018632986 -0.12249573 0.9223786 -0.38095242 0.21494727 0.037097726 0.28809053 -0.10254492
0.09082168 -0.111536555 -0.27591425 -0.028984193 0.09212452 0.053970557 -0.03398296 0.18065028
-0.14695525 -0.031265683 0.051645905 -0.050213195 0.370005 0.42231625 0.13795325 0.07223376
-0.038024176 0.031071516 0.013498296 0.023457045 -0.14097613 0.20148295 -0.25345168 -0.1986146
00000000: 8dff a0bd f636 6dbe 5b02 a23e 7170 0abe
00000010: d09f 0d3d 8ee9 2f3e 6ab1 81bd 804d 453d
00000020: c59a 3ebe 7942 7c3d 6929 ccbd 4740 143e
00000030: 2023 2f3e de52 4c3d 8b46 563e 9924 90bd
00000040: 0f9f f4bd 7d22 2f3e 6792 5ebd bd6e 9fbd
00000050: 2d32 84bd b905 29be 3e9c 3b3e 7f5c a5bd
00000060: 46eb c13d 8f71 92bd e9ca 393e e57f 40bb
00000070: 57dd ccbd 30b6 1c3d 5f02 07be d530 21be
00000080: 0159 083e 546e 2abe 82f4 3fbd 5c48 93bd
00000090: 0af6 b9bd 2c56 413d acb5 2d3d 77d4 12be
000000a0: 7804 403e 7e38 82bd b46f b93c 471f 37bc
000000b0: a4b2 63bc 584e 2c3e 9dd7 8bbe adee 18bd
000000c0: 7421 0dbe d8a2 bfbc 2bb2 c23a 4f8f febd
000000d0: f029 a8bd 092e 34be 2eb3 2cbd dc2d 5a3c
000000e0: 1ec0 3bbe 2458 8c3d e194 cf3d a90a 28bc
000000f0: 405b 58be a97e 2fbe facd 07bc 6a50 05be
00000100: 1116 32be 565f a7bd 29df 60be 0b63 8a3d
00000110: 8bf8 023d ce43 0ebc b87a 7fbe 7994 f43c
00000120: 76a7 28bd 157a 503e c44a ca3c a29b 3c3c
00000130: 798f 6ebe aa31 4c3d bf8d 84be 0f83 f93d
00000140: 47af 0fbe d268 833d f086 ae3e 0976 aa3c
00000150: d7f4 a6be fb39 83bd 24e2 bcbd e7f7 33be
00000160: 9815 a4be eed5 2b3d 508d 91bd a1ad 10be
00000170: 9356 623d cc45 8dbd 6c74 f1bc 2218 98bd
00000180: 7cd7 d4bb 7070 b0be 9dd2 3dbd 9b7d c03c
00000190: 4ce5 29be b2c9 bf3c e190 203c 649b 5e3d
000001a0: 7d21 6239 71b9 85bd 16e6 8f3c a1a3 c43d
000001b0: 0316 95bd 2636 acbd c86d 113d 1395 953d
000001c0: 2d09 a43d 828e cdbd 44e9 473d 0f4d 97bd
000001d0: d4bc aabd 2070 92bd d426 28be ba64 f5bc
000001e0: 0142 1bbe d555 653e 8cf2 cf3d 22d4 a23d
000001f0: 5ec4 633d 3ebb 373c 3f38 e1bb 5077 c33c
00000200: f0a7 953e 59bd 6bbd 85bb 033d e9ce e2bd
00000210: 7a21 1b3e 68d9 4dbd a4f8 033b 4571 973e
00000220: 8a76 8cbb c9bb 923d 69d6 fa3d 9e25 203e
00000230: 8994 2abe d5c9 50bd d948 12be b655 dc3d
00000240: beb7 ccbd dcfd 8b3e 42a3 38be 8e5e 11ba
00000250: ef63 1c3e ae21 543d 75ce 513e 268d 563c
00000260: 6396 56be 3b19 5fbd 874c 01bd e8cf 8f3c
00000270: 5892 b53e 3305 47bd 77b1 633d f4e9 103d
00000280: 269b de3c 9d47 32be 6202 64be 8402 853e
00000290: 705a 4b3d b319 4dbe 370c fdbd 50fd 0dbd
000002a0: 6964 eebe 55be 2cbe a256 0c3d 29e6 433d
000002b0: e6b9 69bb f651 223d 9071 adbd a80c ddbd
000002c0: 972a 6e3e 653c 58be d363 23be bbc6 453c
000002d0: f4a4 12bd dfa6 473e 3077 e9bd 36a2 df3d
000002e0: 2572 c8bd 68e7 25bd a72c 0ebe 5793 0fbe
000002f0: 66af 5abc c9a8 6bbe c8a7 0dbe a63d fabd
00000300: a73e 44be d540 9c3b 0cfa 07bd 2725 44bd
00000310: ad4e d43d 7d98 83bd 1b5e e0bb 1005 12bd
00000320: b10a 6dbd c5f5 2d3d 453e 4b3e 6f3d 3f3e
00000330: ae4d bdbe 2542 aebd 85cb 5abe 5af8 743e
00000340: fb34 c23d faa6 c6bd 29fc afbd d079 ac3d
00000350: 985f 563e e27a 7f3c e236 b63d 6d7c 313e
00000360: 1029 05be 10c3 d7bd 0629 32be 873d b3bd
00000370: 6f80 bfbe 7008 623d 6abd 4fbd cbb7 edbb
00000380: 34a4 983c 0bdf fabd 0121 6c3f 320c c3be
00000390: 231b 5c3e c9f3 173d 9a80 933e 1203 d2bd
000003a0: b800 ba3d 476d e4bd a244 8dbe 4270 edbc
000003b0: c8ab bc3d 3b10 5d3d b731 0bbd 63fc 383e
000003c0: 707b 16be 7210 00bd a88a 533d 5aac 4dbd
000003d0: 4c71 bd3e d639 d83e 9e43 0d3e 4bef 933d
000003e0: 3dbf 1bbd b189 fe3c f527 5d3c fd28 c03c
000003f0: 0c5c 10be 8c51 4e3e 6bc4 81be a061 4bbe

1.layers.1.0.bias f4 [74]
-0.013630549 -0.026567256 0.030961871 -0.025250873 -0.00085945026 -0.02548126 -0.054207183 -0.022944411
-0.06972986 -0.03814892 -0.03204681 -0.004503301 -0.051987387 0.004835954 -0.047449432 -0.038675692
-0.009407733 -0.009199181 -0.0594996 -0.04061954 -0.017827269 -0.012950303 -0.06871363 -0.045856033
-0.017831262 -0.055382185 -0.024263626 -0.028120771 -0.029095033 -0.01309863 -0.028734693 -0.07985685
0.010572182 -0.047532022 -0.026207324 -0.09661436 -0.03986147 -0.02803821 -0.01332959 -0.051829677
-0.012382464 -0.100756526 -0.075841054 0.017954554 0.018002966 -0.07124773 -0.028116783 -0.015562237
-0.015235766 -0.064190604 -0.06790176 -0.05716972 0.010839795 -0.08243323 -0.06909953 -0.1127878
-0.015583774 -0.02468452 -0.078127384 -0.045860145 -0.026701279 -0.051679038 -0.10052245 -0.06448793
-0.026159868 -0.02534688 0.000724328 -0.02221509 -0.10290337 -0.07678073 -0.0329541 -0.04681207
-0.041604847 0.010413478
00000000: ab52 5fbc 93a3 d9bc c0a3 fd3c ebda cebc
00000010: bb4c 61ba 13be d0bc 5a08 5ebd ebf5 bbbc
00000020: 87ce 8ebd 0b42 1cbd 8443 03bd 6d90 93bb
00000030: baf0 54bd ec76 9e3b 565a 42bd 676a 1ebd
00000040: e422 1abc 29b8 16bc dab5 73bd ad60 26bd
00000050: 7e0a 92bc 822d 54bc bbb9 8cbd 89d3 3bbd
00000060: de12 92bc 6ed8 62bd 83c4 c6bc 885d e6bc
00000070: b558 eebc a39b 56bc 0565 ebbc fd8b a3bd
00000080: f236 2d3c f0b0 42bd beb0 d6bc c0dd c5bd
00000090: c845 23bd 63b0 e5bc 5a64 5abc 5b4b 54bd
000000a0: d1df 4abc 7059 cebd 8e52 9bbd 6e15 933c
000000b0: f57a 933c 54ea 91bd 2b55 e6bc c1f8 7ebc
000000c0: 6f9f 79bc 5d76 83bd 1410 8bbd cc2a 6abd
000000d0: 6599 313c c1d2 a8bd 0e84 8dbd 4afd e6bd
000000e0: 1653 7fbc 3137 cabc 4001 a0bd d9d7 3bbd
000000f0: a4bc dabc 66ad 53bd b7de cdbd 3f12 84bd
00000100: 384d d6bc 43a4 cfbc d4e0 3d3a 6cfc b5bc
00000110: 01bf d2bd 373f 9dbd e1fa 06bd 03be 3fbd
00000120: d869 2abd 4b9d 2a3c

1.layers.2.0.weight f4 [74, 222]
-0.12090783 -0.22170834 -0.22352591 -0.13712104 0.26780725 -0.076691076 -0.09211631 -0.14953025
-0.223845 0.06468381 0.059707597 -0.092048466 0.07303151 -0.05443662 -0.2537819 -0.119693816
0.012389495 0.08441669 -0.07384364 0.043411765 0.019800363 0.07401338 0.081409626 0.13300227
-0.0051161675 0.03375659 0.0139338 -0.057760555 0.08148036 -0.13097723 0.07315154 0.089524
0.03766092 0.07325251 0.20182475 0.061131313 -0.06708403 0.10760354 -0.10371995 -0.010442537
-0.0025676833 -0.028194726 -0.09348 -0.108070605 0.110671125 0.091545515 0.051713064 0.03879742
-0.06879126 -0.04999449 0.004825166 -0.009160842 -0.10422924 -0.011358357 0.24738273 -0.0808565
0.05178902 -0.11529778 0.21348333 0.1122562 -0.14920962 0.040568877 -0.04440228 0.08823647
0.1260556 -0.27372023 -0.19189067 -0.07865292 0.011896149 -0.023444276 0.028178401 -0.09427718
-0.07181138 0.025895653 0.22562316 0.06708494 0.15634447 0.06015212 0.06440709 0.07486766
-0.05596622 0.09871342 -0.14160503 -0.19509469 -0.26744515 0.05858161 0.048153613 -0.059016783
-0.058277354 0.12122191 0.17287871 0.044285502 0.09849217 0.05161027 -0.16141886 -0.09110561
0.27308926 -0.1930334 -0.041743774 0.06769528 -0.064684875 0.058660697 -0.0013675207 -0.008589313
-0.016454466 -0.026889017 -0.06501411 -0.12680365 -0.025075672 0.12392005 0.0021852 0.12782145
0.010401152 0.003382033 -0.1285749 0.15342325 0.081699476 0.09706834 -0.026913922 -0.09493941
0.016478157 0.08321518 0.07707219 -0.021717044 0.044604823 0.06856185 0.004610293 0.01964646
-0.016967546 0.11602278 0.09723071 -0.059855312 0.1531487 -0.017286098 0.053498298 0.07475944
-0.21664828 -0.043835517 -0.1833333 -0.073176354 -0.060694177 0.040318564 -0.10779423 0.087179035
-0.041369885 0.02996726 0.07626601 0.15492067 -0.17211063 0.13081889 -0.33416438 -0.07051776
-0.05216882 -0.11707903 -0.012058508 0.09740407 0.027838834 -0.17204665 -0.37024024 0.42258227
-0.06944922 0.11446742 0.32717046 0.09065249 0.019862788 -0.07790118 0.1820241 -0.055476315
-0.110180184 0.1872703 -0.14805718 -0.16225193 -0.0038597947 0.094141774 -0.017929068 0.113622524
-0.02653436 0.026963051 -0.0135758445 0.052717157 -0.065480806 0.014695825 -0.09655472 -0.056276195
0.007922291 0.061384983 0.022818029 -0.13564418 0.060930334 -0.081692144 0.106490254 -0.18919964
-0.064881876 0.06378352 -0.077513985 0.18481004 -0.11527521 -0.102428176 0.038201824 0.13074377
0.13851173 0.058775336 -0.07564005 0.029408976 0.057814073 0.16223277 0.1135259 -0.05016963
0.012092167 -0.19354388 0.012957355 -0.04107168 -0.18023765 0.0045206957 -0.10013835 -0.098995544
0.040509354 -0.05179707 0.23309523 -0.09092668 0.037087414 -0.13674784 0.001931648 0.1251468
-0.14220445 -0.18400769 0.08785043 -0.07472713 -0.0012147821 -0.059207246 -0.15004154 -0.041218344
-0.21191502 -0.09027977 -0.07389605 -0.20034066 0.06982733 -0.009745534 0.06713313 0.16463687
0.009804404 -0.15206994 -0.002886904 0.015104373 0.01908023 0.05022947 0.04862424 -0.07491502
0.091745764 0.042636577 -0.074216165 -0.035086595 -0.01340228 0.06422074 -0.081008926 -0.095232524
00000000: 869e f7bd 8307 63be fae3 64be 7569 0cbe
00000010: 081e 893e 3610 9dbd 7aa7 bcbd 751e 19be
00000020: a037 65be f278 843d f48f 743d e883 bcbd
00000030: 8b91 953d eff8 5ebd b4ef 81be 0822 f5bd
00000040: 4ffd 4a3c a8e2 ac3d 563b 97bd 89d0 313d
00000050: 5f34 a23c 5494 973d 17ba a63d bf31 083e
00000060: 86a5 a7bb 5a44 0a3d 984a 643c 5596 6cbd
00000070: 2ddf a63d e51e 06be 79d0 953d 5c58 b73d
00000080: 5642 1a3d 6905 963d 26ab 4e3e d464 7a3d
00000090: 5a63 89bd 3f5f dc3d 206b d4bd 2d17 2bbc
000000a0: 9446 28bb a0f8 e6bc 7172 bfbd 1f54 ddbd
000000b0: 8ba7 e23d 377c bb3d 14d1 533d 0bea 1e3d
000000c0: 6fe2 8cbd 06c7 4cbd 6d1c 9e3b 5b17 16bc
000000d0: 2476 d5bd 6718 3abc e651 7d3e 1898 a5bd
000000e0: b920 543d 3e21 ecbd 609b 5a3e 94e6 e53d
000000f0: 68ca 18be 8d2b 263d 2adf 35bd 53b5 b43d
00000100: b814 013e 0f25 8cbe fd7e 44be c814 a1bd
00000110: 11e8 423c 360e c0bc 64d6 e63c 6514 c1bd
00000120: d811 93bd 1f23 d43c c209 673e d463 893d
00000130: c418 203e 1262 763d dde7 833d 3754 993d
00000140: d63c 65bd 432a ca3d e900 11be e7c6 47be
00000150: 92ee 88be 45f3 6f3d b93c 453d 95bb 71bd
00000160: 3cb4 6ebd 3143 f83d 1e07 313e b764 353d
00000170: 43b6 c93d 4a65 533d fc4a 25be 9495 babd
00000180: 5bd2 8b3e 8caa 45be 85fb 2abd d3a3 8a3d
00000190: 8179 84bd 3346 703d 613e b3ba 31ba 0cbc
000001a0: 84cb 86bc 5b46 dcbc 1e26 85bd d1d8 01be
000001b0: 7f6b cdbc ccc9 fd3d 9335 0f3b a0e3 023e
000001c0: 9869 2a3c 19a5 5d3b 23a9 03be fc1a 1d3e
000001d0: 0e52 a73d c4cb c63d 967a dcbc 986f c2bd
000001e0: 33fd 863c b86c aa3d 06d8 9d3d f1e7 b1bc
000001f0: 8cb3 363d 286a 8c3d f111 973b 9df1 a03c
00000200: 86ff 8abc 5a9d ed3d e520 c73d d82a 75bd
00000210: 03d3 1c3e 939b 8dbc 0821 5b3d 7a1b 993d
00000220: 0cd9 5dbe df8c 33bd b9bb 3bbe 7cdd 95bd
00000230: 759a 78bd 1425 253d 39c3 dcbd ec8a b23d
00000240: 7873 29bd e67d f53c 5b31 9c3d 86a3 1e3e
00000250: c53d 30be 63f5 053e 9817 abbe 9e6b 90bd
00000260: f9ae 55bd 21c7 efbd 0c91 45bc c97b c73d
00000270: 440e e43c ff2c 30be 2190 bdbe b45c d83e
00000280: 653b 8ebd e56d ea3d e382 a73e 03a8 b93d
00000290: 49b7 a23c a78a 9fbd 8764 3a3e 223b 63bd
000002a0: 26a6 e1bd c9c3 3f3e 4d9c 17be 5f25 26be
000002b0: 9cf4 7cbb 67cd c03d fbdf 92bc edb2 e83d
000002c0: 965e d9bc 9ee1 dc3c 386d 5ebc f2ed 573d
000002d0: cd1a 86bd c2c6 703c 7bbe c5bd de81 66bd
000002e0: 7fcc 013c d26e 7b3d e0ec ba3c 4fe6 0abe
000002f0: 1692 793d 364e a7bd 9017 da3d 8dbd 41be
00000300: cae0 84bd efa0 823d a7bf 9ebd d83e 3d3e
00000310: 6915 ecbd ddc5 d1bd 8479 1c3d b2e1 053e
00000320: 05d6 0d3e 68be 703d 2ce9 9abd 18eb f03c
00000330: 73ce 6c3d 5920 263e 4480 e83d ac7e 4dbd
00000340: 391e 463c 5e30 46be 164b 543c c73a 28bd
00000350: 3890 38be 5822 943b 5615 cdbd 2dbe cabd
00000360: 23ed 253d 2a29 54bd 84b0 6e3e c437 babd
00000370: f9e8 173d a007 0cbe 5a2f fd3a 7c26 003e
00000380: 0b9e 11be 836c 3cbe edea b33d 8a0a 99bd
00000390: 5339 9fba 4c83 72bd 7da4 19be 91d4 28bd
000003a0: 4000 59be 9ae4 b8bd d056 97bd 1a26 4dbe
000003b0: a201 8f3d bbab 1fbc 187d 893d 9196 283e
000003c0: a7a2 203c 39b8 1bbe 3632 3dbb 5578 773c
000003d0: 244e 9c3c 6bbd 4d3d 362a 473d 0c6d 99bd
000003e0: 34e5 bb3d b1a3 2e3d a5fe 97bd f6b6 0fbd
000003f0: 3d95 5bbc 2a86 833d 02e8 a5bd 4509 c3bd

1.layers.2.0.bias f4 [74]
-0.014966503 -0.008446142 -0.05014903 -0.016576966 -0.04033592 -0.024152122 -0.032068845 -0.03309979
-0.010089376 -0.057510514 -0.05959325 -0.04375359 -0.07905187 -0.020205667 -0.016759109 -0.039350927
-0.04141978 0.010292123 -0.0474442 -0.03270901 -0.0051616123 -0.01329947 -0.038304545 -0.0025857843
-0.04565511 -0.07093307 -0.039647423 -0.030138854 -0.08089578 -0.060016863 -0.047198392 -0.0027205138
-0.047400612 -0.034038078 -0.044310197 -0.025104677 -0.04148628 -0.03711574 -0.039611217 -0.07317954
-0.039852068 -0.06950613 -0.0004000338 -0.021211924 -0.050562322 -0.033026 -0.030041885 -0.027062867
-0.059723347 -0.037970737 -0.021045148 -0.040071044 -0.029751303 -0.026237842 -0.011645392 -0.003724702
-0.0412671 -0.009153768 -0.03788654 -0.0080423355 -0.012728612 -0.049129438 -0.050139263 -0.03674986
-0.065240815 -0.039338846 -0.021869501 -0.04604561 -0.024586473 0.007219252 -0.05983973 -0.023410449
0.0025397874 -0.025478046
00000000: 1036 75bc b061 0abc 1269 4dbd 6bcc 87bc
00000010: 4737 25bd acda c5bc 9f5a 03bd a593 07bd
00000020: e94d 25bc 2590 6bbd 0d18 74bd f736 33bd
00000030: f2e5 a1bd 5b86 a5bc 664a 89bc 702e 21bd
00000040: caa7 29bd 4ba0 283c d954 42bd e2f9 05bd
00000050: be22 a9bb 05e6 59bc 3ae5 1cbd 4376 29bb
00000060: da00 3bbd 5b45 91bd 5665 22bd c2e5 f6bc
00000070: b0ac a5bd 3ed4 75bd 1a53 41bd a64a 32bb
00000080: 2527 42bd 836b 0bbd 9c7e 35bd 53a8 cdbc
00000090: 84ed 29bd ad06 18bd 5f3f 22bd 28df 95bd
000000a0: ec3b 23bd 3b59 8ebd a1bb d1b9 a1c4 adbc
000000b0: 701a 4fbd 4546 07bd 661a f6bc f2b2 ddbc
000000c0: 78a0 74bd 3487 1bbd e066 acbc 8921 24bd
000000d0: 01b9 f3bc bef0 d6bc 50cc 3ebc 211a 74bb
000000e0: b107 29bd b0f9 15bc eb2e 1bbd 00c4 03bc
000000f0: ab8b 50bc f33b 49bd d45e 4dbd 0587 16bd
00000100: fa9c 85bd c521 21bd ab27 b3bc 529a 3cbd
00000110: 9269 c9bc 7a8f ec3b 811a 75bd 45c7 bfbc
00000120: 9072 263b 56b7 d0bc

1.layers.3.0.weight f4 [74, 296]
0.05866017 0.10606543 0.0874899 -0.16052121 -0.018887319 0.02375004 -0.06244973 -0.06758952
-0.14476715 0.058026988 0.09704272 0.0024608085 0.010052625 0.01967388 -0.1050372 0.04980857
-0.15873754 -0.04038663 0.011992069 0.15990956 0.111975186 0.09455487 0.0602618 -0.06262578
0.152585 0.04678856 0.06227495 0.059090864 0.044177514 0.018828621 -0.055438302 0.22812426
-0.092328474 0.038867302 -0.030729542 0.07490697 0.048041884 0.026791891 0.039855957 0.018344715
0.04786121 -0.014381135 0.11420171 -0.006397726 -0.06387366 0.03884456 0.1137664 -0.025108473
0.07637687 -0.20166011 -0.094617195 0.05042739 0.15197532 0.08915518 -0.019697722 -0.0714058
-0.030899523 0.06839661 -0.05249842 0.0396673 0.03793914 0.075927295 0.047983326 -0.0497767
-0.032883078 -0.07632356 0.16390546 0.007237145 -0.078703254 0.12842573 0.07693107 -0.13831675
-0.18940096 0.05980004 -0.034582425 0.032533895 -0.13606049 0.047068745 0.031088442 0.010278869
0.015062752 -0.053505 0.10041913 0.05872222 -0.013899774 -0.11414685 -0.16670653 0.13720989
-0.017532194 0.19856554 -0.08676055 0.08525045 0.014287301 0.10240444 0.06896988 0.02833711
-0.03922778 -0.08001968 -0.07886813 0.11268533 -0.13383898 0.026278188 -0.07604694 -0.05644146
0.120969884 -0.004635163 -0.07151327 0.05225402 -0.05672216 -0.10942727 -0.15402806 -0.051440597
0.09094165 -0.06936944 0.038791157 0.042280313 -0.07913461 0.056752518 -0.034562644 0.12073713
0.108711496 -0.16029851 0.047027834 0.09863573 0.010424711 -0.12840153 0.008588233 0.04780192
-0.2186592 -0.08201206 -0.05284798 -0.010025257 0.11679583 -0.061347965 0.061476775 -0.033548478
0.036787193 0.07638187 0.08798183 -0.06349185 -0.005784009 0.0103373 0.11320401 0.018907713
-0.12754159 0.10894997 0.064012915 0.15612246 -0.017007703 0.109685235 -0.017770926 0.0033957413
-0.12662336 0.0018011418 -0.012573805 0.018866107 -0.041177575 0.06633781 -0.021563336 -0.11658436
-0.1135949 0.07993634 0.050510347 0.089668736 -0.10524995 0.09312466 -0.104305394 0.13753073
-0.018348813 -0.08744862 -0.01547079 0.14996292 0.036301948 -0.14035675 -0.03589853 -0.07515564
0.0034842747 0.018488087 0.055454634 -0.03250273 0.20983286 0.027737087 -0.06493378 0.120444
0.010381788 0.0970227 -0.061122812 0.0931692 0.011003069 -0.044584747 0.032203015 0.024058858
0.12565193 0.082411975 0.08081495 -0.09758901 0.065611824 -0.004231488 0.14764857 0.00047895717
0.15713076 -0.11415996 -0.12549153 -0.09595972 0.00821464 -0.10358193 -0.11432327 0.13555667
0.025165597 0.010209396 -0.09737864 -0.18842988 -0.07722555 0.11473576 -0.15425244 0.061561093
-0.1668429 0.007379745 0.091610625 0.1389917 -0.15463787 -0.085363135 0.0055686864 -0.20285071
0.14108779 0.014561987 -0.04734051 0.01172035 -0.11903375 -0.061583757 0.016749898 0.026653944
0.066373564 0.2882488 -0.06253133 0.1183804 -0.06886497 -0.03133258 -0.07350295 0.013271637
0.061621264 0.04924172 -0.15063046 0.043985486 -0.009009231 -0.12947054 -0.10384583 -0.0221664
-0.12731369 -0.11968225 0.22191632 0.10345814 -0.104754575 0.011536997 -0.033493556 0.081137575
00000000: a545 703d d538 d93d e82d b33d ac5f 24be
00000010: 94b9 9abc 728f c23c 4acb 7fbd 606c 8abd
00000020: d73d 14be b5ad 6d3d 55be c63d 8445 213b
00000030: c4b3 243c 1e2b a13c be1d d7bd 1204 4c3d
00000040: 188c 22be 736c 25bd 627a 443c 55bf 233e
00000050: 3f53 e53d fca5 c13d 14d5 763d f241 80bd
00000060: 3e3f 1c3e 5ca5 3f3d 0514 7f3d 4309 723d
00000070: 7bf3 343d 7b3e 9a3c 4613 63bd 6899 693e
00000080: b616 bdbd 5233 1f3d 85bc fbbc d368 993d
00000090: 91c7 443d ab7a db3c 0040 233d a847 963c
000000a0: 1e0a 443d da9e 6bbc 96e2 e93d 04a4 d1bb
000000b0: 32d0 82bd 791b 1f3d 5cfe e83d 49b0 cdbc
000000c0: 7a6b 9c3d fd7f 4ebe a9c6 c1bd f38c 4e3d
000000d0: 6b9f 1b3e fe96 b63d 1e5d a1bc 343d 92bd
000000e0: ff20 fdbc 8613 8c3d 9508 57bd 2e7a 223d
000000f0: 1266 1b3d c57f 9b3d 2a8a 443d a7e2 4bbd
00000100: 68b0 06bd 874f 9cbd d5d6 273e 9325 ed3b
00000110: 2c2f a1bd 0982 033e 098e 9d3d e8a2 0dbe
00000120: 53f2 41be e3f0 743d 4da6 0dbd 4342 053d
00000130: 7153 0bbe 28cb 403d 30ad fe3c b468 283c
00000140: c3c9 763c 0f28 5bbd 8ba8 cd3d b686 703d
00000150: e1bb 63bc d3c5 e9bd 1eb5 2abe c080 0c3e
00000160: ad9f 8fbc c454 4b3e 84af b1bd ca97 ae3d
00000170: 4915 6a3c 6bb9 d13d 1540 8d3d 3a23 e83c
00000180: 4fad 20bd 5ce1 a3bd 9d85 a1bd 91c7 e63d
00000190: 160d 09be 5b45 d73c 80be 9bbd 292f 67bd
000001a0: 0fbf f73d 91e2 97bb 8d75 92bd 5008 563d
000001b0: 7f55 68bd 681b e0bd 88b9 1dbe 60b3 52bd
000001c0: 9e3f ba3d 9111 8ebd 7ae3 1e3d 1f2e 2d3d
000001d0: 5411 a2bd 5475 683d 8f91 0dbd 0745 f73d
000001e0: 22a4 de3d 4b25 24be 42a0 403d 8801 ca3d
000001f0: 68cc 2a3c b17b 03be a9b5 0c3c f2cb 433d
00000200: 33e8 5fbe f0f5 a7bd 2077 58bd fa40 24bc
00000210: a732 ef3d 0148 7bbd 12cf 7b3d 216a 09bd
00000220: 2bae 163d 196e 9c3d d12f b43d 0408 82bd
00000230: c987 bdbb c75d 293c 81d7 e73d 59e4 9a3c
00000240: 439a 02be 2921 df3d 3419 833d 91de 1f3e
00000250: bd53 8bbc a7a2 e03d 5594 91bc 168b 5e3b
00000260: 8ea9 01be 4a14 ec3a 5c02 4ebc 188d 9a3c
00000270: d1a9 28bd 1edc 873d 98a5 b0bc c8c3 eebd
00000280: 71a4 e8bd aab5 a33d f0e3 4e3d 3ea4 b73d
00000290: 498d d7bd 24b8 be3d 119e d5bd dbd4 0c3e
000002a0: 4050 96bc 4318 b3bd 3279 7dbc e18f 193e
000002b0: 5ab1 143d aeb9 0fbe 560a 13bd 33eb 99bd
000002c0: 6e58 643b 5474 973c 6624 633d 9521 05bd
000002d0: 6dde 563e e338 e33c 00fc 84bd 58ab f63d
000002e0: 6018 2a3c d6b3 c63d ea5b 7abd 7ecf be3d
000002f0: 3746 343c 7f9e 36bd 4fe7 033d 1517 c53c
00000300: e6aa 003e 9cc7 a83d 4f82 a53d bfdc c7bd
00000310: 7e5f 863d 4ba8 8abb 3031 173e 8b1c fb39
00000320: e3e6 203e b2cc e9bd da80 00be 8886 c4bd
00000330: b396 063c c322 d4bd 5222 eabd 5ecf 0a3e
00000340: 1528 ce3c 4f45 273c 746e c7bd c3f3 40be
00000350: 6e28 9ebd 95fa ea3d 5af4 1dbe 7c27 7c3d
00000360: ddd8 2abe cad1 f13b 5a9e bb3d d753 0e3e
00000370: 6459 1ebe ded2 aebd 8779 b63b 19b8 4fbe
00000380: 5179 103e 6695 6e3c 1fe8 41bd b606 403c
00000390: f7c7 f3bd 403f 7cbd 1537 893c 5f59 da3c
000003a0: ddee 873d 5995 933e 6d10 80bd 6c71 f23d
000003b0: 1409 8dbd 9756 00bd b788 96bd 4871 593c
000003c0: 9466 7c3d b0b1 493d df3e 1abe 202a 343d
000003d0: 749b 13bc ed93 04be 1fad d4bd 4f96 b5bc
000003e0: 855e 02be f81b f5bd 083e 633e dce1 d33d
000003f0: 9189 d6bd ac05 3d3c 8a30 09bd 752b a63d

1.layers.3.0.bias f4 [74]
-0.060782816 -0.0019963006 -0.07944437 -0.034229495 -0.065812774 -0.029107306 -0.013872766 -0.058442753
-0.038250737 -0.028644085 -0.05077444 -0.04650559 -0.03899869 -0.0101120155 -0.019963907 -0.06582843
-0.052314833 -0.018878222 -0.060651775 -0.020872507 -0.022912527 -0.05043 -0.04154513 0.0052147764
-0.055617716 -0.026386 -0.036536954 -0.051619977 -0.016117234 -0.039806347 -0.024360877 -0.008061931
-0.023542885 -0.049752742 -0.04224723 -0.002740473 -0.033795804 -0.030140689 -0.0074456558 -0.022859382
-0.014283203 -0.03809014 -0.023630444 -0.04685645 -0.005574546 -0.034789145 -0.06754862 -0.012436236
-0.031084063 -0.037884396 -0.05283138 -0.022450512 -0.026389584 -0.015085571 -0.0033859236 -0.035189327
-0.039823584 -0.008256854 -0.00813656 -0.029287484 -0.037670642 -0.067444 0.0047683846 -0.016098514
-0.018441802 -0.049827226 -0.02156272 -0.03887366 -0.04426362 -0.012112357 -0.039783154 -0.02388368
-0.026409104 -0.038893748
00000000: 67f7 78bd 5ed4 02bb bbb3 a2bd 3a34 0cbd
00000010: d9c8 86bd 7272 eebc 994a 63bc ab61 6fbd
00000020: ceac 1cbd 00a7 eabc dcf8 4fbd a57c 3ebd
00000030: 17bd 1fbd deac 25bc 598b a3bc 0ed1 86bd
00000040: 1448 56bd 80a6 9abc ff6d 78bd d2fc aabc
00000050: 0db3 bbbc b08f 4ebd 3a2b 2abd b7e0 aa3b
00000060: 67cf 63bd 7427 d8bc c6a7 15bd 786f 53bd
00000070: 4a08 84bc fb0b 23bd 7690 c7bc 3016 04bc
00000080: 02dd c0bc 88c9 4bbd 6e0b 2dbd 8299 33bb
00000090: 786d 0abd 9be9 f6bc b0fa f3bb 9943 bbbc
000000a0: 1804 6abc 6804 1cbd a294 c1bc 8dec 3fbd
000000b0: aeaa b6bb 107f 0ebd ee56 8abd 5bc1 4bbc
000000c0: 01a4 febc ab2c 1bbd b865 58bd 23ea b7bc
000000d0: f82e d8bc 7929 77bc 5fe6 5dbb af22 10bd
000000e0: 0e1e 23bd c147 07bc 354f 05bc 4eec efbc
000000f0: 884c 1abd 1420 8abd 1c40 9c3b 08e1 83bc
00000100: 4313 97bc a217 4cbd 4da4 b0bc fd39 1fbd
00000110: c54d 35bd e872 46bc a9f3 22bd b5a7 c3bc
00000120: e857 d8bc 0d4f 1fbd

1.layers.4.0.weight f4 [74, 370]
0.032413054 0.18130139 -0.023041468 0.06584077 0.18682298 0.031441223 -0.055227246 -0.07751246
0.0024914965 -0.06325431 -0.026363151 -0.13054079 0.08651669 0.049591724 0.12415671 0.008473242
0.1573695 0.06409049 -0.0407473 0.018391501 0.09474057 0.041702982 -0.08801115 -0.069579326
0.0040137703 -0.10925524 -0.0016679378 -0.07839952 -0.07457813 -0.05229666 0.11547848 0.066549666
-0.047808226 -0.034627773 0.014444682 -0.006545225 0.088792324 -0.035638828 -0.081464335 -0.003655455
-0.14977069 -0.016972208 0.025843984 0.0010042527 0.05934472 0.07725934 0.079620406 -0.03751128
-0.009461546 -0.18061578 0.116730765 0.033094533 0.04730728 -0.14197247 0.024703387 0.112826124
-0.070367515 0.10356405 0.0029713782 0.09968552 -0.010509883 -0.0034662564 -0.09210108 -0.009547174
0.10389243 0.036879312 -0.06320779 -0.06538103 -0.04277429 -0.06057404 -0.06112026 0.082626015
0.004420538 0.010329703 0.09486068 0.06466183 0.008235772 -0.12590028 -0.008559614 -0.045800593
0.011795562 -0.0016324827 -0.11182555 -0.01628028 0.027294252 -0.20293795 -0.106374264 -0.120287545
0.039789222 0.06451164 -0.07375009 0.01881163 0.027409505 0.15785854 -0.05325268 0.04557806
0.02297281 -0.01627684 -0.07029261 0.013003871 0.03399521 0.011789901 -0.049656138 0.042598866
0.0044046664 -0.061086852 -0.17067991 -0.098185465 0.06187839 -0.10316797 -1.2458459e-05 -0.079324365
0.018927347 0.0630993 -0.015926218 0.060274392 0.050029833 -0.024171062 0.08190335 0.11985223
0.056440327 -0.021973293 -0.03554701 -0.1218439 0.0776777 0.056239445 0.011824715 -0.013051637
-0.03468404 -0.07354719 -0.0036832187 0.071303055 0.01312249 0.07670772 -0.0648155 0.047505725
-0.061105214 0.029735465 -0.14299451 0.02857643 0.12202554 -0.017258732 0.089789435 0.00041915543
-0.025412416 -0.058394536 0.04446228 -0.034025893 -0.07345496 -0.06477633 -0.07504649 -0.0100320615
-0.009742515 0.01172162 0.06968283 -0.22315083 0.013163752 0.03559717 0.06320231 -0.0603824
0.041857082 0.0051457104 0.09312128 -0.023824167 0.09248716 -0.09567756 0.11383283 0.023859745
0.053811166 -0.14990413 0.024571076 -0.039124537 0.071929984 -0.11377973 -0.034398124 -0.037178505
0.11813353 -0.030060593 0.012353176 0.01530469 -0.06908687 -0.1122009 0.11207819 0.104736164
0.1661729 0.039271373 0.05925274 -0.009080082 0.025773654 0.04336678 -0.05070631 -0.09042085
0.011118369 -0.002613969 -0.07386942 -0.01806169 -0.03701971 -0.04530695 0.044248044 -0.0128124915
0.034811106 -0.0781613 -0.00576109 0.029795844 0.11258441 9.930461e-05 0.037115965 -0.1334522
-0.0080336975 -0.057349946 -0.003967883 0.14557505 -0.01836801 -0.22574244 -0.053017143 0.06966438
0.046410635 0.19734275 0.051852707 0.05217154 0.072031796 -0.033057608 0.10338184 0.040026024
0.07248201 0.13840444 -0.063965514 -0.07191092 0.0304571 0.08298391 -0.039855447 -0.061812196
-0.104378 -0.06178815 0.12551877 -0.06716105 0.09786101 -0.077970594 -0.011736488 -0.005676162
0.050653603 -0.008835049 -0.10669729 -0.009515778 0.07524362 -0.079215914 0.068123184 0.024229784
0.07024585 0.064896226 0.0448548 -0.048216738 -0.06456199 -0.05811849 0.11073561 0.10216484
00000000: 8dc3 043d 12a7 393e 76c1 bcbc 87d7 863d
00000010: 864e 3f3e 83c8 003d f735 62bd dabe 9ebd
00000020: 6048 233b 7a8b 81bd 89f7 d7bc 7cac 05be
00000030: aa2f b13d b120 4b3d e045 fe3d 5ad3 0a3c
00000040: 7825 213e e041 833d a4e6 26bd c6a9 963c
00000050: 5807 c23d bfd0 2a3d 313f b4bd 9b7f 8ebd
00000060: f285 833b 36c1 dfbd b59e daba ed8f a0bd
00000070: 6bbc 98bd 0635 56bd fb7f ec3d 314b 883d
00000080: 8fd2 43bd dad5 0dbd 63a9 6c3c 5479 d6bb
00000090: c0d8 b53d 05fa 11bd c6d6 a6bd 5c90 6fbb
000000a0: 7d5d 19be 4d09 8bbc c3b6 d33c 21a1 833a
000000b0: 7313 733d 253a 9e3d 0610 a33d 6ea5 19bd
000000c0: 9a04 1bbc 58f3 38be 8a10 ef3d 228e 073d
000000d0: 47c5 413d 3b61 11be c25e ca3c 6211 e73d
000000e0: d81c 90bd 6319 d43d 74bb 423b ec27 cc3d
000000f0: a531 2cbc 222a 63bb 7e9f bcbd c06b 1cbc
00000100: 8ec5 d43d c30e 173d 1673 81bd 7de6 85bd
00000110: 1834 2fbd 7c1c 78bd 3d59 7abd d437 a93d
00000120: 29da 903b ea3d 293c 5146 c23d 6c6d 843d
00000130: 55ef 063c 01ec 00be a03d 0cbc 6799 3bbd
00000140: 2c42 413c 08f9 d5ba cb04 e5bd 395e 85bc
00000150: 3298 df3c f7ce 4fbe c0da d9bd 5159 f6bd
00000160: 06fa 223d ae1e 843d 4a0a 97bd d91a 9a3c
00000170: e689 e03c aba5 213e 7b1f 5abd 0fb0 3a3d
00000180: 7931 bc3c 0257 85bc 92f5 8fbd 300e 553c
00000190: 903e 0b3d 6e2a 413c 3c64 4bbd 267c 2e3d
000001a0: 0555 903b 3536 7abd b7c6 2ebe 7615 c9bd
000001b0: 3274 7d3d bb49 d3bd ad04 51b7 d074 a2bd
000001c0: 860d 9b3c 353a 813d b377 82bc 48e2 763d
000001d0: 15ec 4c3d 6402 c6bc f2bc a73d 1675 f53d
000001e0: f92d 673d 5601 b4bc be99 11bd 4b89 f9bd
000001f0: 7c15 9f3d 555b 663d 73bc 413c 89d6 55bc
00000200: da10 0ebd e99f 96bd 2862 71bb 5607 923d
00000210: b6ff 563c f018 9d3d fdbd 84bd 5d95 423d
00000220: 7649 7abd ca97 f33c 276d 12be 1e19 ea3c
00000230: 87e8 f93d 2f62 8dbc 86e3 b73d 17c2 db39
00000240: b32d d0bc 1c2f 6fbd 141e 363d bc5e 0bbd
00000250: 8e6f 96bd 74a9 84bd f9b1 99bd 845d 24bc
00000260: 129f 1fbc 0a0c 403c dfb5 8e3d a781 64be
00000270: c7ac 573c 57ce 113d 3670 813d 8953 77bd
00000280: 5572 2b3d 599d a83b 5fb6 be3d e62a c3bc
00000290: e869 bd3d 99f2 c3bd 3021 e93d 8375 c33c
000002a0: 1969 5c3d 7880 19be 4849 c93c 0d41 20bd
000002b0: 0750 933d 5905 e9bd 0ce5 0cbd 7d48 18bd
000002c0: feef f13d a241 f6bc fa64 4a3c 86c0 7a3c
000002d0: 6b7d 8dbd 96c9 e5bd 4089 e53d ea7f d63d
000002e0: 3b29 2a3e 05db 203d 00b3 723d a0c4 14bc
000002f0: 4523 d33c 5da1 313d 6bb1 4fbd 912e b9bd
00000300: d229 363c 1f4f 2bbb da48 97bd 1cf6 93bc
00000310: fba1 17bd c893 39bd 703d 353d 7ceb 51bc
00000320: 1796 0e3d 0813 a0bd 87c7 bcbb 6a16 f43c
00000330: a892 e63d c241 d038 e906 183d b2a7 08be
00000340: c59f 03bc c7e7 6abd 0405 82bb a011 153e
00000350: 8278 96bc 0729 67be 8128 59bd 33ac 8e3d
00000360: 1419 3e3d 3814 4a3e 8163 543d d3b1 553d
00000370: 6885 933d 6a67 07bd dcb9 d33d 54f2 233d
00000380: 7371 943d e5b9 0d3e 5a00 83bd 0846 93bd
00000390: 2b81 f93c 78f3 a93d 773f 23bd c92e 7dbd
000003a0: 22c4 d5bd 9215 7dbd fe87 003e bc8b 89bd
000003b0: 5a6b c83d 0caf 9fbd 664a 40bc 19ff b9bb
000003c0: 277a 4f3d e2c0 10bc 1c84 dabd 11e8 1bbc
000003d0: 5419 9a3d f43b a2bd 2b84 8b3d 8a7d c63c
000003e0: 0edd 8f3d 50e8 843d abb9 373d ea7e 45bd
000003f0: 1439 84bd a70d 6ebd 5ac9 e23d cd3b d13d

1.layers.4.0.bias f4 [74]
-0.023902172 -0.019677207 -0.043002184 -0.02941298 -0.05732179 -0.036923733 -0.01298968 -0.03585662
-0.014823598 -0.043872688 -0.013178474 -0.013338437 -0.0060241036 -0.05844505 -0.016033273 -0.035642445
-0.028544901 -0.02263002 -0.022524498 -0.06082892 -0.03761974 -0.036491044 -0.024525877 -0.053839076
-0.03293388 0.012274458 -0.017872216 -0.06524366 -0.02920242 -0.07351042 -0.026181119 -0.03274958
-0.015344129 -0.050932076 -0.050311472 0.016161814 -0.03269711 -0.052987386 -0.03374389 -0.03681127
-0.04819209 -0.00040834126 0.0131619815 -0.034495726 -0.049270842 -0.025192177 -0.007011247 -0.023349866
0.0006097167 -0.073088825 -0.04616363 -0.08152689 -0.0063244007 -0.03285291 -0.050109856 -0.044535033
-0.0147819305 -0.054078598 -0.0077055874 -0.02543173 -0.020221291 -0.020836458 -0.03389851 -0.02457302
-0.046288643 -0.038594265 -0.023507528 -0.044181332 -0.02974187 -0.060716808 -0.029558433 -0.03178074
-0.03243056 -0.021810357
00000000: 7dce c3bc 1832 a1bc 0f23 30bd 7df3 f0bc
00000010: 41ca 6abd 573d 17bd abd2 54bc 64de 12bd
00000020: adde 72bc d9b3 33bd 87ea 57bc 7689 5abc
00000030: d865 c5bb 1464 6fbd 3658 83bc d0fd 11bd
00000040: ffd6 e9bc 9762 b9bc 4c85 b8bc bf27 79bd
00000050: 2817 1abd a277 15bd 7eea c8bc 5d86 5cbd
00000060: ade5 06bd cf1a 493c c168 92bc 789e 85bd
00000070: ea39 efbc a28c 96bd c979 d6bc 6c24 06bd
00000080: f165 7bbc 279e 50bd 6713 4ebd c865 843c
00000090: 68ed 05bd 4d09 59bd 0837 0abd 6ac7 16bd
000000a0: 1265 45bd a316 d6b9 5aa5 573c 644b 0dbd
000000b0: 39d0 49bd d35f cebc 9abe e5bb 3848 bfbc
000000c0: 65d5 1f3a 98af 95bd 1316 3dbd 92f7 a6bd
000000d0: eb3c cfbb c690 06bd fe3f 4dbd 5e6a 36bd
000000e0: e92f 72bc 8581 5dbd 277f fcbb 3456 d0bc
000000f0: 1fa7 a5bc 38b1 aabc 2ad9 0abd 5c4d c9bc
00000100: 2999 3dbd 0515 1ebd dc92 c0bc 7cf7 34bd
00000110: 39a5 f3bc 30b2 78bd 8724 f2bc 852c 02bd
00000120: e8d5 04bd a2ab b2bc
