DNNWeights/model/ensemble_0/selected_set_0_0_8.onnx (onnx, 872444 bytes, 17 tensors)

0.embeds.0.weight f4 [2, 1]
00000000: 77ad 093f a0db f9be
0.5378031 -0.48800373

0.embeds.1.weight f4 [3, 2]
00000000: 486a edbf e5df fc3e 4aaf 68bf 10f3 a1bf
00000010: f1d9 59bd d45b 843f
-1.854806 0.49389568 -0.9089247 -1.2652302 -0.05318636 1.0340524

0.embeds.2.weight f4 [2, 1]
00000000: 142b 0abf dc38 e23f
-0.5397198 1.7673602

0.embeds.3.weight f4 [2019, 50]
00000000: 09bc 8a3e dd1e 283e 7ea8 f6bc 06f9 bd3f
00000010: 0ffc f4bd 5545 2c3f 2b8e e2be d5f4 58be
00000020: ff74 113f 3295 223f f442 de3e 6d52 b83f
00000030: 450d a23e d6e2 15bf 68b9 e23e 1f26 d03e
00000040: a17d 183f ac5b 11c0 d408 823f 88cb 6d3f
00000050: db1f f1be 85a3 323f 2858 09bf a25d f8be
00000060: eeb8 abbf e233 5b3f e86d 98bf a0f9 973e
00000070: 567f 7ebe 559c 213f 5bcf 06bf 5f46 c5be
00000080: 9974 70bf 78cb 97bf 99f4 5dbd fccb 203f
00000090: 60bb 2d3d dfc0 8f3e 5434 2bbf f087 8e3d
000000a0: ac40 93bf 5b7f 92be 8c01 f43e 9fa6 d23c
000000b0: 3c34 893f 6ce6 583f 1a19 39bf 4388 7f3f
000000c0: 11bc 863f 7a6b 273f 5b9b ac3e 7878 59bf
000000d0: f88e 74be f611 58bf ea24 8cbf c838 a5bf
000000e0: 4bcc 2cbf 57d7 303f d9b4 793f 1056 e8bf
000000f0: ca0f 553f 4c9d 0e3f d2ba b1bd c0ba 60be
00000100: 572f 5cbf 52ea d83f e942 b43f f846 da3f
00000110: a700 5e3e b440 463d bda4 893f ebb2 2cc0
00000120: 4f1d 36be c1c4 ba3e 5f50 d93f 660c 9f3f
00000130: 1688 69bf 7636 cbbe 22ea 093e 0bc7 1e3e
00000140: 2101 ee3e 4014 aa3f cfc9 a6bf 089e 993e
00000150: 3c92 cbbe 3905 0bbf ea54 84bf 8d56 ad3f
00000160: e92d 4b3d ae5b c1bf e37a 22bf ec1f 7f3f
00000170: 4e25 ac3d 4c94 48bd 0595 e53e f363 ef3f
00000180: f6da 96bd d617 743f 452c 043f 8a51 77bd
00000190: 29c0 743e 9e7a 583f 8f1e 59be 3081 2bbf
000001a0: bee3 6e3f 24cf aebe 7d68 1ebe 3c3d b53f
000001b0: b5e9 ae3d c8c3 983f 9149 2a3d cb37 4f3f
000001c0: 4ee3 37bf 2d95 2740 1e88 2cbf b1a9 85bf
000001d0: 15f0 ea3d 8c6c b23e a0bd dbbe 22e5 9abe
000001e0: c254 c23e 5e5d 5f3d c599 03bf e4b0 27bd
000001f0: 5368 06c0 793c 10c0 dcf0 1bc0 021a 143f
00000200: d851 85bf 8907 0540 11fd 99be df67 c03f
00000210: 5d7a adbf cf0c 923f 82a9 993f 621a 9dbf
00000220: 1455 ae3f 2cac b43e d15e a7bf f9fe 9cbe
00000230: 90f1 893f ff88 053f c521 0440 ed19 cd3e
00000240: cecf 7d3f ad95 65bf 15a7 7bbf 616b 42bf
00000250: fa82 11bf e870 d5bd b51e 863f 4b45 553f
00000260: 498e 0040 d5fe 28bf d401 fd3f 4ec0 8ebf
00000270: 48d0 90bf b9c0 9cbf 61d5 643e a9a0 723f
00000280: 4cdf 693f ad66 33be 5ad9 183f 9eb6 3bbf
00000290: 4628 c43f ed2d 93bf bf11 713d 8a73 943e
000002a0: 1f7d 9cbd 1c6f 02bf 6efd 233f cf09 053f
000002b0: cec7 fdbe 5700 7dbf 569b 813e 1580 8b3f
000002c0: b663 8ebf f110 cdbe 5bd4 273e 21fe f8bc
000002d0: 3b07 393d e948 09bf c36a 033f e10d 91bf
000002e0: 3cdc 443e 64d0 6a3f 282f 15bf 0f40 b3be
000002f0: dcd3 72bf fa9c 85bf 94fd 093f 3881 adbf
00000300: af6d 8d3f 8f03 733f 5775 fabd abf6 97bf
00000310: b281 e13f 71a4 6d3f 080c a13f 9a61 fa3f
00000320: c31a 54bf fa33 b03d acee 7fbf 2072 53bf
00000330: d3ff d7bf 5d7b 993d fd53 ba3e 0d11 adbf
00000340: 4d06 c4bf 0abd db3f 1fff 0abf 6564 abbe
00000350: 2f88 efbd e800 d8bf 2c00 9dbf 52bc 313f
00000360: 26a6 293f bebe 2ebf d3c0 123f 054e ccbe
00000370: b903 1d3f b459 b6be 204a 213e 2e2f be3e
00000380: 6299 133c 3c20 76bf 529e d6bf 8ebf f9be
00000390: f5ba 92bf 70e1 e9bd 7839 af3f dff4 bf3f
000003a0: 3b20 233d 84dc d1bd cf39 2e3e a79d cf3c
000003b0: 4819 0cbf 9486 6e3f 3906 9ebf efe9 2b3d
000003c0: 23a5 efbe a611 03be bdd9 9b3f 7929 f5bd
000003d0: c490 1a3f 528c 9a3e 1559 c33f a7d8 973f
000003e0: 42a0 7d3e 3ae7 543d e202 48bf 413a 583f
000003f0: e63e 2b3e a6f4 12bf b1d9 a43f 7c0f 7cbf
0.27096584 0.16418023 -0.03010964 1.4841621 -0.11962139 0.6729329 -0.4424909 -0.21187146
0.56819147 0.63508904 0.43410456 1.4400154 0.3165075 -0.5854925 0.4428208 0.40654084
0.59566694 -2.2712202 1.0158944 0.9288869 -0.47094616 0.6978076 -0.5365014 -0.48508936
-1.3415811 0.8562604 -1.1908541 0.29682636 -0.24853262 0.6312917 -0.5266015 -0.3853025
-0.93927914 -1.1858969 -0.054188345 0.62811255 0.042415023 0.28076836 -0.6687672 0.06959522
-1.1504111 -0.2861279 0.4765743 0.025714217 1.0719066 0.84726596 -0.72303927 0.99817294
1.0526143 0.6539837 0.33712277 -0.84949446 -0.23882663 -0.84402406 -1.0948765 -1.2907953
-0.67499226 0.6907858 0.97541577 -1.8151264 0.8322722 0.55708766 -0.08678211 -0.2194624
-0.86009735 1.6946509 1.4082919 1.7052908 0.21679936 0.04840155 1.0753399 -2.6984203
-0.17784618 0.36478236 1.6977652 1.2425659 -0.91223276 -0.39689988 0.13468221 0.15505616
0.46485236 1.328743 -1.3030337 0.3000338 -0.39760005 -0.54304844 -1.0338414 1.3542038
0.04960433 -1.5106103 -0.6346876 0.99658084 0.08405553 -0.048969552 0.44840255 1.8702377
-0.07365982 0.9534887 0.5163005 -0.060380496 0.23901428 0.845621 -0.21203063 -0.66994
0.93316257 -0.3414241 -0.15469547 1.4159312 0.0854067 1.1934748 0.041574065 0.8094451
-0.71831214 2.61848 -0.673952 -1.0442411 0.11471573 0.3484844 -0.4291811 -0.3025294
0.3795529 0.0545324 -0.5140651 -0.04094018 -2.1001174 -2.253691 -2.436576 0.57852185
-1.0415602 2.078585 -0.30075887 1.5031699 -1.3552967 1.1410159 1.2004855 -1.2273676
1.3619714 0.35287607 -1.3075811 -0.3066328 1.0776844 0.52162164 2.0645611 0.40058842
0.9914521 -0.8968151 -0.9830182 -0.759451 -0.5684048 -0.10421926 1.0478121 0.8330886
2.0086844 -0.6601384 1.9766183 -1.1152437 -1.1313562 -1.2246314 0.22347023 0.947764
0.9135635 -0.17519636 0.5970665 -0.73325527 1.532479 -1.149839 0.058854815 0.289944
-0.076410525 -0.5095079 0.6405858 0.5196809 -0.495665 -0.98828644 0.25313824 1.0898463
-1.1124179 -0.40051988 0.16389601 -0.030394616 0.04517291 -0.5362688 0.5133478 -1.133236
0.19224638 0.9172423 -0.5827508 -0.3500981 -0.9485452 -1.043853 0.53902555 -1.355506
1.1049098 0.94927305 -0.12229412 -1.1872152 1.7617705 0.9282904 1.2581797 1.9561036
-0.82853335 0.08603664 -0.9997356 -0.82596016 -1.6874946 0.07494233 0.36392203 -1.3520828
-1.5314423 1.7167065 -0.54295534 -0.33475032 -0.11695897 -1.6875277 -1.2265677 0.6942798
0.6626915 -0.682598 0.57325476 -0.39903274 0.61333805 -0.35615313 0.15750933 0.3714537
0.009008737 -0.96142936 -1.6767066 -0.48778957 -1.1463305 -0.11419952 1.3689413 1.4996604
0.03982566 -0.10247138 0.1701424 0.02534373 -0.54726076 0.931741 -1.2345649 0.041971143
-0.46805677 -0.12799701 1.2175823 -0.11970801 0.60377145 0.3018518 1.5261561 1.1862992
0.24768165 0.051978327 -0.781294 0.8446389 0.16723213 -0.57404554 1.2878934 -0.9846113

1.layers.0.0.weight f4 [74, 74]
00000000: ff7f c9bd 411c 963e e293 10be 09c1 9b3e
00000010: b27d bc3d 40f9 9cbc 4440 a33e b346 77bd
00000020: 25fa db3c 2478 f13e dc34 79be 08b7 b23e
00000030: 471a 70bd 4e1b 7bbe adf0 9cbd 3261 7cbe
00000040: 2602 28bc c0c6 84be 1e48 633d fb08 d2bc
00000050: 2c1f c0bd c364 183d 3634 a4bd d710 b2bc
00000060: 1ad2 963d 3a68 e63c 43e8 07be edf1 0abc
00000070: ad7f 7d3c 13ea 2ebe 8267 2abc c7db a43d
00000080: 6906 31bc a80d 1b3e 3708 873d ab6d fd3d
00000090: ac98 803c 4b0c c2bb 8824 1fbd dc0e cfbd
000000a0: 967f aebd a085 823e 5254 39be 5de5 56be
000000b0: ed3f 10bb 0473 463e b370 debd ca7f f63d
000000c0: ab0a 02be d760 b83e 3281 48be 46ef f03d
000000d0: 454d 4b3e 49a9 b9bc 092d fb3d e356 0dbd
000000e0: 821c 9d3c 2926 13be 59e8 d5bd 95ff 8d3d
000000f0: ae0f 3bbd 625b 8abe e1ef cabb 6057 66bd
00000100: 0412 f73d 98e7 e03d 2242 e4bc e804 8f3d
00000110: 5a6c b7bd 73c0 4f3e bd65 623e 681b 353d
00000120: ac1e 573e 7127 fa3c 0dbc 1c3e 341d 2f3c
00000130: 9aa0 0e3e 3658 a6be 8067 0a3d f7b4 e2be
00000140: cc64 903d a259 09bc 7abf f0be 31f7 03be
00000150: 045b 983e fb52 613e e664 0dbf 850a b63c
00000160: 26bc 5e3e 3ee0 963e ce26 69be 25d5 8a3e
00000170: c89e 8b3d 92e1 acbe 5f6a 65be cfd1 89bc
00000180: 7daf c73d 5bfa fa3e 44ca 37be 4566 053e
00000190: ede8 be3d e40f be3b 0a1a 9a3d 690a cf3c
000001a0: fe08 4c3e 3efd c3ba 066e dcbd 064f a83e
000001b0: 3605 e3be 4ef9 3cbe 4a20 13bc 74da 80be
000001c0: 5d88 573d c617 563d dc77 db3b e49d 92bd
000001d0: be67 01bc 65ac bf3d 778d c3be 8fea af3c
000001e0: feb9 db3d c2c1 5b3e 0875 23bc 6842 d93c
000001f0: 9b06 013e b123 503e a1e2 1a3e 7d27 e5bc
00000200: e627 86be c8e0 503c 2d02 abbd 91f8 033b
00000210: c13c 4a3e 161c 14be 7fcc a1bc 7780 f1bd
00000220: 2988 87bd c43d 77be 8bfc 063e 0762 013e
00000230: 9e97 b23d c545 ea3c e9fe ec3c 0b92 c93d
00000240: 5ee3 b23d 61f8 253e c315 16be ee95 003e
00000250: b81f efbd d6e1 593e b3ab 01bc 9c58 c8bd
00000260: 0c86 533e 4d44 1abf 4566 cfbd 06f1 d73e
00000270: 2ea9 61be 60b1 44be 0a21 2e3e 3a12 363e
00000280: 4a83 173e dec6 5fbd 1e30 64bd 0ffd 103e
00000290: dd62 82be 06cf 1ebe 4d0e c43e 9068 c5bd
000002a0: 355b fdbd 0a33 c2be fadb 9b3e 8f5f 8abe
000002b0: c06b 26bd 106e 9cbd 8705 0c3c 20d7 24be
000002c0: 11c5 3c3e 7e9f aebd 22e1 6f3e 7f11 70bc
000002d0: 9188 c6bd 98f1 64be e9ad b6bd 22bb 51bd
000002e0: 9bfb 1f3d 589a 233d eefc 45be 7a71 bd3e
000002f0: 5d5f 66be 6590 eb3d a9cd a83e 2183 3d3e
00000300: 22ec 1cbe 717a edbd b7d6 69be 74fd 8cbe
00000310: a72c cdbe 14cb f43d d179 b4be 58d3 1fbe
00000320: 0ba7 9b3d e2e2 84bb 8239 233d aab7 8bbd
00000330: 2114 4a3d e426 a33e 7271 063e 2586 40be
00000340: 0613 d2bd fbbd 073e de13 acbd a8ba 36bd
00000350: be59 22bd feff 393e 4f10 ae3e 27e3 7f3d
00000360: b111 acbd ff6a 963d b9de 0e3d 6e9d 68bd
00000370: e814 113d 0e01 8abe cac9 acbc 600d 43be
00000380: 617b b43e a9c3 4abd d939 dd3d 80bd 46be
00000390: c4a2 38bd 5beb 28be 4153 7c3d b2e0 ff3d
000003a0: 45cc 403e 65e6 1d3c e875 c53d b518 8dbd
000003b0: 1561 bdbc 6689 d03d 4432 36bd 7950 4d3d
000003c0: 5cc5 cb3d e6f9 3ebe 7880 943d 9f06 03bd
000003d0: 156c fbbd 2af7 d0be 9d50 983c ce31 d03e
000003e0: 0583 343e af85 80bd 0f1a 063e 4026 79bd
000003f0: bb33 98bd 4586 4abe e781 9bbe bfb8 cf3e
-0.098388664 0.2931843 -0.14118913 0.30420712 0.09203662 -0.01916182 0.31884968 -0.06037016
0.026852677 0.47161973 -0.2433657 0.34905267 -0.05861881 -0.24522135 -0.07663093 -0.24646452
-0.0102544185 -0.25932884 0.0554887 -0.025639048 -0.093809456 0.03720547 -0.08017771 -0.021736545
0.073642924 0.028125871 -0.13272195 -0.008480531 0.015472335 -0.1708148 -0.010400655 0.08049732
-0.010804751 0.15141928 0.06593364 0.12374433 0.0156978 -0.0059218756 -0.0388532 -0.10110256
-0.08520429 0.25492573 -0.18098572 -0.20985933 -0.002201076 0.19379812 -0.108613394 0.120360926
-0.12699382 0.36011383 -0.19580534 0.11764388 0.19853695 -0.02266373 0.12264449 -0.03450669
0.019178633 -0.14370026 -0.104447074 0.06933514 -0.04566925 -0.27022845 -0.0061931466 -0.05623567
0.12063983 0.10981673 -0.027863566 0.06983358 -0.08956213 0.20288257 0.22109123 0.04421559
0.21007794 0.030536385 0.1530611 0.010688115 0.13928452 -0.32489175 0.03379011 -0.4427869
0.070504755 -0.0083831865 -0.47021085 -0.12887265 0.2975694 0.22004311 -0.55232084 0.022221813
0.2175146 0.29467958 -0.22768709 0.2711574 0.068173945 -0.33765846 -0.22403859 -0.016823677
0.097502686 0.4901913 -0.17948252 0.13027294 0.09321771 0.005800234 0.07524498 0.025273519
0.19925305 -0.0014952791 -0.10763173 0.3287279 -0.44339913 -0.18454477 -0.008979866 -0.25166667
0.05262028 0.052268766 0.006697638 -0.071590215 -0.007898269 0.093590535 -0.38193867 0.021474151
0.107288346 0.21460631 -0.009976633 0.026520923 0.12600176 0.20326115 0.15125515 -0.027972931
-0.26202315 0.0127489045 -0.08350024 0.002013717 0.19749738 -0.14463839 -0.019750832 -0.11792081
-0.06617767 -0.24144655 0.13182275 0.1263505 0.08720325 0.028597722 0.028930144 0.098423086
0.08734773 0.1620803 -0.14656739 0.12557194 -0.11675972 0.21277556 -0.007914471 -0.09782526
0.20656604 -0.6026047 -0.10126928 0.42176074 -0.22037193 -0.19208288 0.17004791 0.1778039
0.14796177 -0.054633014 -0.05570995 0.14159034 -0.25466052 -0.1550866 0.3829216 -0.09639084
-0.12370912 -0.37929565 0.30441266 -0.2702603 -0.040630102 -0.0763818 0.00854624 -0.16097689
0.1843455 -0.085265145 0.23425725 -0.014652609 -0.09694017 -0.22357786 -0.089198895 -0.051203854
0.03905831 0.039942116 -0.19334766 0.37000638 -0.22497316 0.115021504 0.32969406 0.18507053
-0.15324453 -0.115956195 -0.22835813 -0.2753712 -0.4007313 0.119527966 -0.3524919 -0.15607965
0.0760022 -0.004055367 0.039849766 -0.068221405 0.049335603 0.3186561 0.13129213 -0.18801172
-0.10257535 0.13256066 -0.08402227 -0.044611603 -0.039636366 0.1816406 0.33996817 0.06247249
-0.08401812 0.07344627 0.034880374 -0.05679076 0.03542033 -0.2695393 -0.021092314 -0.19048071
0.3525038 -0.049503002 0.10802049 -0.19408226 -0.0450771 -0.16496031 0.061602835 0.12494029
0.18827923 0.00963745 0.096416295 -0.06889478 -0.023117581 0.10182457 -0.04448153 0.050125573
0.09949753 -0.18650016 0.07251066 -0.031988736 -0.122764744 -0.4081357 0.018593127 0.40662998
0.17628105 -0.06275498 0.13095878 -0.060827494 -0.07431742 -0.19777782 -0.30372545 0.40570638

1.layers.0.0.bias f4 [74]
00000000: f887 74bd 0de6 25bd 105f c33b 8f43 3fbd
00000010: c23f b6bb 56b5 97bc e10d 1dbc 99bb bcbb
00000020: 18dd 8fbb edf6 febc db91 fbbc 1801 14ba
00000030: 6350 9f3b 0453 883b 4373 01bd 7e45 27bb
00000040: 5ab4 22bd 142e 81bc 2c39 55bc 8b41 96bc
00000050: 1684 6dbd 2b49 a33b 6531 4cbd 62a1 84bd
00000060: 3349 79bd 75c4 2fbc f9de 75bd 2fbe 66bd
00000070: ffc8 95bc 79e3 abbd d4e6 4cbd 1430 e5bd
00000080: d65f 73bb ec05 29bd 5d27 bcbc f9a2 cdb9
00000090: 8632 95bc 6ef3 ccbc f46c 9abd fdad 8dbd
000000a0: c679 5bbd 4aa4 b5bc 57dc 7bbd 526c 8cbd
000000b0: baac 07bd 8701 dcbc d3a9 eabc 606b 713c
000000c0: c390 98bc a601 d4bc 3057 52bd 6275 2abd
000000d0: a73c 0abd efc8 f9bc ef97 a83c 26ef adbb
000000e0: 8f5f a5bd b0c2 64bd 4218 2abd add9 b5bc
000000f0: 8099 16bd 8ead 82bc 9a46 2fbc c499 e2bc
00000100: f6f1 9ebc 564f 1f3c cf44 11bd 1c7f 1abd
00000110: ca45 afbd 3cd2 bdbc a094 e3bb 0970 e6bc
00000120: 12b1 12bc 8f1a 5fbd
-0.059699982 -0.040502597 0.00596226 -0.04669529 -0.0055617997 -0.018519085 -0.0095858285 -0.005759668
-0.00439037 -0.031123603 -0.030709198 -0.0005645915 0.0048618778 0.004160287 -0.031604063 -0.0025523598
-0.039722778 -0.015769042 -0.013014119 -0.0183418 -0.057987295 0.0049830875 -0.049851794 -0.06476094
-0.060860824 -0.010727991 -0.060027096 -0.056333717 -0.018284319 -0.08392996 -0.050024822 -0.11190811
-0.003713598 -0.041265413 -0.022967989 -0.0003922207 -0.018212568 -0.02501842 -0.075403124 -0.06917951
-0.05358293 -0.022173066 -0.06148943 -0.06856598 -0.03312371 -0.026856197 -0.028645432 0.014735073
-0.018623715 -0.025879692 -0.05135268 -0.04161585 -0.03374925 -0.03049132 0.02058026 -0.0053080497
-0.08074867 -0.05584973 -0.04152704 -0.022198522 -0.036767483 -0.015951898 -0.010697985 -0.027661212
-0.019402485 0.009723505 -0.03546601 -0.037718877 -0.08558233 -0.023171537 -0.0069452077 -0.028129594
-0.00895335 -0.054468688

1.layers.1.0.weight f4 [74, 148]
00000000: f7b6 883d f185 89bd 6286 833d bbda aebc
00000010: 78ed 38be 3a09 ae3d e349 223e df3f a9bc
00000020: 7a67 3a3e a330 a3bb 6eb2 ef3c b109 d7bd
00000030: db4c bfbd 8eb0 793e c9d6 3c3e ebb1 c63d
00000040: 2530 babc 4ad3 48bd 2289 2e3e 3763 843d
00000050: 159e 773d b0ff f8bc 1b75 223e 6c16 aebc
00000060: 79f6 ffbd 8b6e 253e 1169 db3d 12b4 473d
00000070: 62f7 b73c 0638 bebe 1b51 143e 9664 17be
00000080: e603 223c bd63 fdbd 994f a43d 18ab ca3d
00000090: 0821 12bd a445 60be 89be f53d 5877 72be
000000a0: b985 9ebd 493a 03be 1ddc 2a3e d0c0 bcbc
000000b0: 6c0f 5fbc a15d f03d b6fd c8bc acb3 813c
000000c0: d6f7 6239 5501 99be ad3c 4ebc ccd7 4b3e
000000d0: 3528 a03d 6b30 ad3e 647d acbd 3de6 093d
000000e0: 6cda 08be 3a83 4abd 55c5 3d3d dbbd a1bd
000000f0: da79 47bc 2756 103e c037 f0bb 9450 7d3d
00000100: fc10 48bd 6686 bd3d efb2 12be ea8b a73d
00000110: 8961 3bbc eff3 fdbc aea7 12be 52f2 2e3e
00000120: 39f4 113e 72af 8bbd d02b 82be 70eb 063e
00000130: 6977 39be c16e 1bbe 4d46 85bc e93e 0cbe
00000140: 5150 d63c 57c4 253e 7e20 533e b304 6bbe
00000150: 7913 0ebd 7e77 9c3e 673b 9c3e 8992 ce39
00000160: 3126 adbe 558c c43d 7f5b 2fbe d046 65be
00000170: 3065 5c3d f6a5 9b3d c5ca f1bb 30ed e1bd
00000180: 808b 26bd 3d68 a93d f23b 863d 595d d8bd
00000190: 09f8 dc3d 75c9 173d 20ea 753d 11fd 2fbe
000001a0: 372f 9a3d 8876 cc3d d428 54be 51be af3c
000001b0: e592 54bd e305 363e f950 68be 040d e2bc
000001c0: a34e d9bd aa59 ff3b ea76 c3bd 2be4 b3bc
000001d0: abf8 213d 95ee 2abe 82a4 f0bd 8117 c93d
000001e0: 7fc1 943b eca7 b8bd 6715 18bb 3125 fb3d
000001f0: 4fac 7a3e a53c ac3d 785f 19be 5cc1 5c3e
00000200: 0b4c 0f3d d45d 1a3e f302 b8bb bd1a 403e
00000210: 4962 3ebe 3daf cdbc b34e 8e3d 9203 373e
00000220: 2506 cdbd 8ab7 a33d 2b8b 8abd 4314 d7bd
00000230: 257d 113d 91ff 553c 08cc 873d ed30 0d3e
00000240: 03e1 e43c 5056 03bb 23db dabc a1ad 383c
00000250: 59aa d33c bd24 3ebd 440e a33c 2dd4 333e
00000260: 7391 f9bc 8b19 63be b9ed 02be f7cd debd
00000270: 0dbc d2bd 0e0d 6dbc a729 c13d 2218 02be
00000280: c802 9a3e dfe4 733d 9ebe 9cbd d832 673c
00000290: e10e 033d e49c 9dbe 6113 eabd 032d c73c
000002a0: 4177 a13d 6883 a13d 9c50 79be 9c28 4fbe
000002b0: 6be4 2f3c 8c29 103e 32ac d5bc b43f de3d
000002c0: eef8 7b3e 75ac a0bb 57cf 1bbe ee18 b03d
000002d0: b60a c3bd d440 c53d a118 2ebd 4387 4d3e
000002e0: 0603 413e dbf1 ddbc 7b8a 5bbd 24e7 3abe
000002f0: 059c a73d 2130 07be a5a8 56bc 1a40 67be
00000300: c1c6 923d 90a5 233d 6110 c63d a65b 7abe
00000310: 86b7 01be c3bd 263d d6aa 7fbe 0bff 903b
00000320: 27a8 393c c9a4 babd ec27 19be ff4a 893d
00000330: 01c6 653e b0e5 8c3e e978 fc3d c28a c03b
00000340: 75cd aebd fa0d 2c3c 58fa 073e 8935 183e
00000350: a2e0 ad3d 0892 6e3c 11a3 963d 8bb7 543e
00000360: 6e3f 16be 6d41 8b3d e6a0 25bd f600 753e
00000370: 2a77 01bd 6394 30bd 03b8 84bc 64f7 75bd
00000380: 859d 323e 9280 6fbd 2280 c3bd c9c2 29be
00000390: 4ffb 8fbe 7eba 5cbd 7faf 903e 5752 5d3d
000003a0: 21d7 87be 9952 ad3d 60b9 463d 3385 47bd
000003b0: 581c 1ebe dc2e 193e 2546 11be a7d6 3e3e
000003c0: eb7a 78bd afa3 babd 49dd 85be c1aa 1ebd
000003d0: a9f9 673c 7777 1bbe 7b9c 1fbd 17ce 623d
000003e0: ffbd 62bd 7ddb 783e cfc8 48be 2e11 663e
000003f0: b3da 6b3b 9e62 613e 3f14 c3bd f4c9 423e
0.06675523 -0.067150004 0.06422116 -0.021344533 -0.18059337 0.084978536 0.15848498 -0.020660339
0.18203536 -0.004980163 0.029259887 -0.10499895 -0.09340831 0.24383757 0.18441309 0.09701904
-0.022728035 -0.049029626 0.170445 0.06464236 0.060453493 -0.030395359 0.15864985 -0.021250926
-0.12498183 0.1615545 0.10713399 0.048755713 0.022456829 -0.37152117 0.14484064 -0.14784464
0.009888625 -0.12372539 0.080229945 0.09895915 -0.035676032 -0.21901566 0.11999232 -0.23678339
-0.07740349 -0.12815203 0.16685529 -0.023041159 -0.013614517 0.11736608 -0.024535041 0.015832745
0.00021645366 -0.2988383 -0.012587708 0.19906539 0.07820169 0.33826002 -0.08422354 0.033666838
-0.13364571 -0.049441554 0.04633077 -0.0789754 -0.012175048 0.14095365 -0.0073308647 0.061844423
-0.048844323 0.0925415 -0.1432607 0.08180983 -0.011436828 -0.031000106 -0.14321777 0.17084625
0.1425332 -0.06820573 -0.2542405 0.1317575 -0.18111958 -0.15178968 -0.016268874 -0.13695873
0.026161345 0.16188179 0.20617864 -0.22951011 -0.03468654 0.30559915 0.3051407 0.0003940056
-0.338182 0.09597079 -0.17124747 -0.22390294 0.053807437 0.07600014 -0.0073789083 -0.11031568
-0.04066038 0.08271835 0.065544024 -0.1056468 0.107894965 0.03705736 0.060037732 -0.17186381
0.07528537 0.099835455 -0.207187 0.021453055 -0.051897902 0.17775683 -0.22687139 -0.027594097
-0.10610702 0.007792671 -0.095441654 -0.021959385 0.03954379 -0.16692574 -0.117501274 0.09818936
0.004539668 -0.090164036 -0.0023206116 0.12262953 0.24479793 0.084100045 -0.14977825 0.21558136
0.03498463 0.15074855 -0.005615586 0.187602 -0.1859218 -0.025107974 0.069486044 0.17872456
-0.100109376 0.07993992 -0.067648254 -0.105019115 0.035519738 0.01306142 0.06630713 0.13788195
0.027939325 -0.002004046 -0.02671582 0.011271865 0.025838064 -0.046421755 0.019904263 0.17561407
-0.030464863 -0.22177713 -0.12785996 -0.108791284 -0.10289774 -0.0144684445 0.09431773 -0.12704518
0.30080247 0.05954444 -0.07653545 0.014111243 0.03199661 -0.3078376 -0.114294775 0.024313455
0.07884074 0.07886392 -0.24347156 -0.20230335 0.010735611 0.14078349 -0.026083086 0.10851994
0.24606678 -0.004903371 -0.15215813 0.08598505 -0.09523527 0.096315056 -0.042503957 0.2007113
0.1884881 -0.027092865 -0.053598862 -0.18252236 0.08184055 -0.13201953 -0.013101731 -0.22583047
0.071668155 0.039952815 0.09671093 -0.24449024 -0.12667665 0.040708315 -0.24967512 0.0044249347
0.011331595 -0.091134615 -0.14956635 0.067037575 0.22438814 0.27518988 0.12327749 0.005875916
-0.085352816 0.010501379 0.13279092 0.14864172 0.08490111 0.014561184 0.07355321 0.20773141
-0.14672634 0.06799588 -0.040436648 0.23926148 -0.031607784 -0.043110263 -0.016201025 -0.060050383
0.17442901 -0.058472224 -0.09545924 -0.16578211 -0.2812142 -0.05388879 0.28258893 0.054033604
-0.26531318 0.0846302 0.04851663 -0.048711013 -0.154405 0.14959282 -0.14186914 0.18636571
-0.0606641 -0.091132514 -0.2614539 -0.038737062 0.014158645 -0.15182291 -0.03896759 0.055372324
-0.055356976 0.24302478 -0.19607852 0.22467491 0.003598851 0.22010276 -0.09525346 0.19022352

1.layers.1.0.bias f4 [74]
00000000: e179 0bbc 337f 6bbd 2e63 3ebc a82e 0abd
00000010: fbb4 523c 6b9c df3b 80b1 f3bc 1493 f9bc
00000020: 8ee8 16bd 06ce 28bc 2bba 7fbd 9f50 513a
00000030: 43f8 26bd 3b54 aebc 876a 9dbc 46b8 54bd
00000040: 39cd 58bd 76a2 27bd 3864 4fbd 3332 24bd
00000050: 09b1 6ebd 1466 ef3c 645e 64bd 4035 abbc
00000060: 32b5 56bb daa7 a0bc 1a30 a0bd 1766 30bd
00000070: ae55 1fbd 24e2 30bd d5d7 37bd 16aa b7bc
00000080: d297 47bd 5365 55bd ff6b 9bbc a6a2 c2bc
00000090: 8f02 01bc c84f d8bb c979 bdbc d3e7 2bbc
000000a0: d7eb 27bd 3964 73bd 34ce b8bc beac 14bd
000000b0: 2b20 70bc c715 63bd 7e47 12bc 31d6 10bd
000000c0: 079f 03bd c274 94bc fe56 2fbd 1509 e8bc
000000d0: 617b c2bc aee0 b0bc 9eb9 3dbd 07b4 44bc
000000e0: 0cbf 1fbd 09d6 96bc 9c46 47bd ba61 35bd
000000f0: 8d9b debc eec5 19bd 1c91 c33b 85d3 29bd
00000100: 3645 34bd cd80 73bc ccc8 973c e212 63bc
00000110: ffed cfbc fef0 d7bc 816c 15bd 0ee8 93bc
00000120: 16ec 7dbd d4cf 0abd
-0.008512945 -0.057494354 -0.011620326 -0.0337359 0.012860532 0.0068240664 -0.029747725 -0.03046564
-0.036842875 -0.010303026 -0.062433403 0.0007984731 -0.040764105 -0.021280399 -0.019215835 -0.05193355
-0.05293009 -0.04092642 -0.050632685 -0.040086936 -0.058274303 0.02922348 -0.05575408 -0.020899415
-0.003276181 -0.019611288 -0.07821675 -0.04306611 -0.03890007 -0.043184415 -0.044883568 -0.02241997
-0.04872877 -0.052098583 -0.018972395 -0.023759197 -0.007874145 -0.0066013075 -0.02312936 -0.010492283
-0.0409964 -0.05942175 -0.022559263 -0.036297552 -0.014656107 -0.05544069 -0.008928178 -0.03536052
-0.032134082 -0.01812208 -0.04280757 -0.028324643 -0.023740472 -0.02159151 -0.046319596 -0.0120058125
-0.039000556 -0.018412607 -0.048651323 -0.044282652 -0.027173782 -0.037542276 0.005968226 -0.041461486
-0.044011317 -0.0148622515 0.018528365 -0.0138594825 -0.02538204 -0.026360031 -0.03648043 -0.018054988
-0.061992727 -0.033889607

1.layers.2.0.weight f4 [74, 222]
00000000: 3485 31bd 73bf cc3d b10a 733d 4477 e4bd
00000010: e7ca 7f3e 8550 1e3d f166 633e de54 ffbc
00000020: 40e3 883d 6896 69bd 4221 f13c 0ef9 f23b
00000030: 1f56 493e 9eff 773d 5745 533d 7ebe 313b
00000040: 75e3 13be 87eb eb3d b002 003e 0c0e 4e3d
00000050: 2b41 1e3c c6b3 bfbd 1312 823d d736 803d
00000060: 905c 79bd 0de3 0b3d 61b5 e23c 01dd 773d
00000070: 893b 043d 4797 743e 28ea babb 1e37 ffbc
00000080: 874d 13bd 9d95 e53b b2b7 9abe 5b56 2dbd
00000090: 059a 463d 3337 e83c 1567 b93d da06 3b3e
000000a0: 8029 b6bc 53f1 53bd 03f9 8abd a150 233d
000000b0: e355 613d d9cb 59bd e1f0 93bd 70a5 02be
000000c0: 68cf c4bc 822d 44be 543b 2dbd 234d 39bd
000000d0: bdc6 cbbc bff3 513e 06ed 13be 1611 90be
000000e0: 026e f23d ecc7 303e 5da3 903c 3f6e d33d
000000f0: f4a3 0a3e 26cf 2abc ec9c 89bd 2636 39bc
00000100: 691e 0d3e 6e77 883d 151a 713d ebf3 50bd
00000110: b0fa 763c b630 733d 59fe 4fbd 44c6 adbc
00000120: 0285 7a3d 6a63 e2bc 279c 283e 14fd 073d
00000130: 2547 db3a eb4f 90bc c5e3 243d ea0c 8bbc
00000140: 1634 debd 918a 9e3c ccb6 a63d f586 543d
00000150: 07fb 1abb ac61 1dbd 6847 12be 1ec7 acbd
00000160: 291e c83d 9c0c 0d3e 0c94 b93d 2634 0abe
00000170: bd25 a3bd f8f9 353d 6d57 4a3e 7213 a43c
00000180: 712f 143d 00a8 803d 3c60 093e 4631 963d
00000190: 2188 58bd 000c 12bd 134c 7bbe 5ec9 763d
000001a0: 16cf 443d a6fe e23d 0f9d 9bbd 0d81 fd3d
000001b0: 1273 a33c 1c76 5d3d 2484 6c3c 299c 013e
000001c0: 5614 b73d 3ebb 0bbe 2e72 c33d 5df9 c43d
000001d0: 9a91 99bd 3cda 6fbd 0d70 533e e855 db3d
000001e0: b623 87bd ee83 233b 0fd1 913c 789f bc3d
000001f0: f23c babd 684f bb3d f610 d43c acce 0fbe
00000200: 56f4 10bd 1c4c 2c3d 68e9 d73d 6c3c 0a3c
00000210: 368d 1c3e 291d 26be 9ab8 243d 2244 383d
00000220: ef7c 433d a9c4 dcbd b109 c8bd 0afd 4b3e
00000230: 7f5b 273e 512a 26bb 1c7a 64bd 905c 12be
00000240: fdcf 1cbe c6ea 013d 1243 e13c ba90 7e3e
00000250: 21b2 3fbd a29c 81be 97ca b73c b5a2 02be
00000260: 044d c7be 212f acbd be30 0e3d f5a0 b4bd
00000270: 97ec 2abd 1113 023d 7bea 0abe 4584 ed3e
00000280: d4af 13bd 1fe7 91bd cd8d e9bd 2446 cbbd
00000290: 435e e23c 7563 d43d 8238 98ba 51f3 2f3e
000002a0: b581 d3bc a779 d73d 2cde 753d 808d 03bc
000002b0: b78f cbbd c280 3bbd 8ba8 513c 6fba 68be
000002c0: 02c3 74bc 1f84 b4bd 85d4 d93c 04ef 283e
000002d0: ad87 07be 07ce 9e3d ab53 e7bd 7a62 cd3d
000002e0: fb45 ad3d 1f4b 003e 0a0b 203e c9ce 7a3d
000002f0: ef36 86bd cbc6 d93d 5e5b ea3c 1adc 023e
00000300: a876 b33c 50ee 6b3d 9120 16bb 7429 86bb
00000310: 7da2 b5bb 4ba4 d8bd 05d1 12be 8db7 21bb
00000320: afc5 ebbd 493a 383d bbb4 ef3d 2a2d 093d
00000330: 2431 dc3c bc62 f43c 2ccf 373d 87d1 793d
00000340: 7175 713b b27b 333e 6c9b ea3b 6502 febb
00000350: a692 fbbb d020 1b3e 6197 4ebe 2851 0e3e
00000360: 4e7a a3bd b206 1a3d a34a 5bbc 9b18 38be
00000370: 3ae1 0fbe 7f78 883d bc31 223e a2c7 8abd
00000380: b956 95bc f9d9 17bd c979 3cbd acb5 33be
00000390: 63ca 2b3d 2f8d eabd 198e d3bd 141e 05be
000003a0: 6a9c 633c b1a6 663d c5ae 2bbd 4561 2b3e
000003b0: a0fc 69be 18ca 683d e5a9 dc3b bdf8 4bbc
000003c0: 603e cb3c 3f45 13be 188a 563d 4d60 913d
000003d0: 6ba5 8cbc 7e1c 043e 0e3b d2bc 5a38 42bc
000003e0: 3c7e 083d cad4 843d c4c8 af3d 8600 403d
000003f0: efbf e43d 972a 463e f350 9e3c 7942 e9bd
-0.043339923 0.099974535 0.059336368 -0.111555606 0.24979745 0.03865101 0.22207238 -0.031168398
0.066839695 -0.057028204 0.029434804 0.0074149435 0.19661759 0.06054651 0.0515798 0.0027121599
-0.14442237 0.11519533 0.12501025 0.050306365 0.009659092 -0.09360461 0.06351104 0.0626046
-0.06087929 0.03415208 0.027674379 0.0605135 0.03228334 0.23885833 -0.005704183 -0.031154212
-0.035962608 0.0070063607 -0.30218273 -0.042318683 0.04848673 0.028346634 0.090528645 0.18264332
-0.022236586 -0.051743817 -0.067857765 0.039871816 0.05501355 -0.05317292 -0.072236784 -0.12758422
-0.02402468 -0.19157985 -0.042292908 -0.04523958 -0.02487504 0.20503138 -0.14445886 -0.28138036
0.118373886 0.17263764 0.017656023 0.10323762 0.13539106 -0.010425365 -0.067193836 -0.011304414
0.13781132 0.066634044 0.058862764 -0.05101387 0.015074417 0.059372626 -0.050779674 -0.021212704
0.061162002 -0.027635295 0.16465817 0.03320034 0.0016729577 -0.017616233 0.04025628 -0.016973931
-0.10849778 0.019353183 0.081403345 0.051886518 -0.002364816 -0.038423225 -0.14285052 -0.08436416
0.097713776 0.13774341 0.09061441 -0.13496456 -0.079661824 0.044427842 0.19759913 0.020028803
0.036178056 0.062820435 0.13415617 0.07333617 -0.052864198 -0.035655975 -0.24540739 0.060250632
0.048049055 0.110837266 -0.07598316 0.1237813 0.01995233 0.054067716 0.014435802 0.12657227
0.08939426 -0.13645646 0.095432624 0.09617875 -0.074984744 -0.058557734 0.20648213 0.10709745
-0.06598608 0.0024950462 0.017799882 0.09210104 -0.09093656 0.09146005 0.025886994 -0.14043683
-0.035389267 0.04206477 0.105425656 0.008437257 0.15288243 -0.16222061 0.040215112 0.04498685
0.047726568 -0.107796974 -0.097674735 0.19920745 0.16343497 -0.0025354812 -0.055780515 -0.14293122
-0.15313716 0.031718038 0.027497802 0.24859896 -0.046800736 -0.25314814 0.02243547 -0.1275738
-0.38925946 -0.084074266 0.034714453 -0.088197626 -0.041729536 0.031756464 -0.1356601 0.46389976
-0.036056355 -0.07124161 -0.114039995 -0.09925488 0.027632838 0.103705324 -0.001161352 0.17182662
-0.025818685 0.1052125 0.060026333 -0.008029342 -0.09939521 -0.04577709 0.012796531 -0.22727369
-0.014939072 -0.088142626 0.026590595 0.16497427 -0.1323535 0.0775414 -0.11295255 0.100285485
0.08460613 0.12528656 0.15629211 0.061232362 -0.065534465 0.1063362 0.02860802 0.12779275
0.021907166 0.05760032 -0.0022907595 -0.004094297 -0.0055430518 -0.105782114 -0.14337547 -0.0024676055
-0.115123145 0.04497746 0.117043935 0.033490337 0.0268789 0.029832236 0.04487531 0.060990836
0.0036843682 0.17527655 0.007159641 -0.0077517503 -0.007677394 0.15149236 -0.20174934 0.13898146
-0.07982312 0.03760404 -0.013384494 -0.17978136 -0.14050761 0.06663608 0.15839285 -0.06776358
-0.01822983 -0.03707311 -0.04601458 -0.17549771 0.041941058 -0.1145271 -0.10329837 -0.12999755
0.0138922725 0.056311313 -0.04191472 0.16736324 -0.22850275 0.056833357 0.00673412 -0.012449441
0.024810016 -0.14381884 0.05237779 0.07098446 -0.017168721 0.12901494 -0.025662925 -0.011854256
0.03332351 0.06485899 0.08583215 0.0468755 0.11169421 0.19352184 0.019325709 -0.11389632

1.layers.2.0.bias f4 [74]
00000000: c02a 86bc 2d4f bebc 314a f5bc c862 10bd
00000010: 7cfb a6bc dfb8 b7bc 4b1c 03bd 7d97 39bc
00000020: 3e7b 4f3c 2e0e 85bc c7d3 423c 8b58 d9bb
00000030: 01b5 07bd 5704 21bc 557c 9fbc c3f9 60bc
00000040: e0f7 2abd 9f0c d5bc 9031 21bc 37c7 28bb
00000050: a403 ccbc cecc 44bd f3af 08bd 0965 c1bc
00000060: 1650 25bb c855 e8bc 17a1 33bd 9cf6 8c3c
00000070: 6c03 68bc ae3e 603b bffb 403c b20f 9bbc
00000080: 33d8 b5bc 5411 303c b935 00bd 079f 2d3b
00000090: 5de2 81ba c058 80bb 4242 36bc 95c2 97bc
000000a0: 2373 53bd 1cd7 29bc 2dcf 94bc f1d5 24bd
000000b0: a576 43bd c27b 03bc 0f4a 0ebc 5631 09bd
000000c0: 35f5 c53b d520 c5bc 0ccd 4bbd 4f90 5cbc
000000d0: cc80 c5bc ec0b f8ba 6726 0ebd d337 2dbd
000000e0: a461 30bd 41ae d93a 20a8 b6bc 4b30 01bd
000000f0: ae97 b0bc fc72 56bd 881f e53b dffb 5ebc
00000100: 69cc 01bd df72 103c 94a6 b5bc fcfa b7bc
00000110: 9ee5 c4bc f9c3 3fbd f364 b0bc 5709 d1bc
00000120: 5161 b73b 3cf1 193a
-0.016377807 -0.023231113 -0.029942604 -0.035250455 -0.020383589 -0.02242702 -0.032009404 -0.0113276215
0.012663661 -0.016242113 0.011891312 -0.0066328696 -0.033131603 -0.009827695 -0.019468466 -0.013731423
-0.0417403 -0.026006995 -0.009838477 -0.0025753507 -0.02490408 -0.04804688 -0.033370923 -0.023607748
-0.0025224737 -0.028361216 -0.0438548 0.017207436 -0.014160972 0.0034217048 0.011778771 -0.018928383
-0.022197818 0.010746319 -0.031301234 0.0026492493 -0.000990938 -0.00391683 -0.0111241955 -0.018525401
-0.051623475 -0.0103662275 -0.018165195 -0.040243093 -0.04772057 -0.008025112 -0.008684649 -0.033494316
0.006041194 -0.024063507 -0.049756095 -0.01346214 -0.024109267 -0.0018924451 -0.034704592 -0.042289566
-0.043061867 0.0016607718 -0.022296965 -0.031540196 -0.021556702 -0.05235575 0.006992284 -0.013609855
-0.03168908 0.00881645 -0.022174157 -0.022458546 -0.024035271 -0.046817753 -0.021532511 -0.025517149
0.005596318 0.00058724335

1.layers.3.0.weight f4 [74, 296]
00000000: b23f 50bc c3fe d7bd 4a44 02be ee97 2d3e
00000010: 1d85 513c 8e4b 1f3c e4f6 443d 0448 e6bc
00000020: 27f7 3abd 847e 7cbd b334 ef3d b38b dabd
00000030: eb99 9ebd 5e6a 1f3e fe08 563c bc67 823d
00000040: b558 26be 2017 aa3d 9d6e 513e aaff 693d
00000050: 994c 1a3d c6aa b8bd ca37 16be 512c 02be
00000060: 1568 34bd 3d70 0cbe ca2f 9e3d f99a 8e3d
00000070: cfcf acbd 331e 47bd 131b 86bc 70fd 07be
00000080: 6d10 bb3c 911f 0abe 3bbf b2bd b5a4 253e
00000090: 8441 6b3d f608 8d3d 2df0 3e3d 7dd9 bdbc
000000a0: 6bc4 6c3b 9fa9 e9bd 4d93 b93d 61d6 f8bd
000000b0: c51a a4bd 1da5 c9ba ad42 fb3c 8a60 203e
000000c0: 676a 0abd 2b44 703d 0d55 2bbe 3db3 c1bd
000000d0: d0e6 00bd 7926 8cbd 2ab3 f13c 7d74 933d
000000e0: 20c2 3e3d 8313 bbbd d69c d03c e9e6 0bbc
000000f0: 87d8 3f3d 0d6f c2bc afd6 b8bd ae66 3b3d
00000100: 69ff 3bbb 9fe6 8b3d e073 cabd 97ce a2bd
00000110: 39e8 09bd defe 7abd af44 6ebc a535 85bd
00000120: 90bc d63c 81be 3d3c 4e6c b23d b339 00be
00000130: 5b99 213c f4e8 02be 7d4e 073d 5cb6 483c
00000140: d0a4 76bd 8383 5dbc 87d9 96bd 94b7 14bc
00000150: 7084 833d 394c b8bd 0bfd e53c 87f6 8d3d
00000160: f9ef 14bd c388 6ebd c2e7 343e 73fa 2c3d
00000170: 1b22 b5bd c63d babd 94eb 11be 66f0 a53d
00000180: b710 f63d 7dd9 eb3c 32fe 06be 25d0 57bc
00000190: a2d1 223d e0a8 01bd a5a7 adbd ed1a 79bd
000001a0: d66f 983c 75ea ec3b b9a2 b13c 96ec f43d
000001b0: 1b1c 39bb 2bb3 5abc 6b6e dc3d 05f0 16bd
000001c0: 4694 5e3c 6d55 373d 2102 a2bc 70dc b0bb
000001d0: f0c5 f0bc 5446 d0bd 237a e5bd 43c5 093e
000001e0: 26cb 2abd d956 343e 3619 f5bd 05a7 0fbd
000001f0: 9c79 41ba a9a4 9abd bdc0 86bd 55eb 2abd
00000200: 43cd 72bc 5b17 babd 025a 173e 27ee 343d
00000210: db6f 27bd 486d ef3c 5d7b 90bd d86d 01bd
00000220: d68a 9cbc a9d9 39be 95b3 09bc 3310 b2bd
00000230: 83c9 0dbe 2c78 cb3d 3be4 233b 6ca2 94bb
00000240: dcbb a13d 23d1 333c ef61 5abd 3cc6 a7bd
00000250: 5fac 12bd 2e69 febc 8c27 5e3c 7773 b33c
00000260: 7907 b8bd 5936 45bd 4e8d d9bd 89c6 143e
00000270: 0f5c 143d 0334 e03b 53d9 9e3d 2928 f33b
00000280: 9ef6 6fbd f21b c4bd 7fd6 e1bd 2b3e bfbd
00000290: 3d37 063e adac 0cbd 0fa2 bb3c 7574 42bc
000002a0: dc46 6bbd c17f 053d 2822 953d 60be 4b3d
000002b0: 0ff1 75bd 4873 513e 7abb 923d 9e79 42be
000002c0: a447 a73d b568 37bd cc5c 0abd 5361 48bd
000002d0: 4c3e 1ebe d2fe 98bc 1c91 06be acce e7bc
000002e0: da63 a73d 6ec1 553d 2419 983b bb4e 98bd
000002f0: ba3a 563d 3869 40be c240 1ebd 6631 883c
00000300: 9adb 99bd b9f0 50bd eeac c83d 64fa 8d3d
00000310: 01c1 e3bd e217 48bd 2b48 193e a31a 9a3d
00000320: 0162 1ebd b4fa 063d 4583 523d 3d42 85bd
00000330: 5e30 cf3d caab 3fbe 4808 10bc bc10 f1bd
00000340: 6a31 2bbd 8f87 49bd d3ec 383d 66cf 8a3c
00000350: e173 4d3e 18e0 10bd 3db7 04be a8de c73c
00000360: b775 c43d 8b34 54bd 9e62 8c3d 4440 883c
00000370: 3ec5 bcbd d4df 963c 9858 b43d e2e5 143d
00000380: 7d99 5b3e 0706 c1bd 6f0c ba3e 9d3a 153e
00000390: 72d6 6d3d 7842 993a c08f 2a3e a71d aabc
000003a0: c373 2f3e e4c1 683e 5a23 02be 5a97 8abd
000003b0: 3fd3 743e ac5a 2f3e 2826 36be 9f32 513e
000003c0: 02c5 c3bd c82b 09be 2f97 68bd f957 3abd
000003d0: 50d0 a9bc e71f 163d 403f 133d f7bb 133e
000003e0: 27e8 bc3c 6d0d 773c 10dd 9bbd ab8f b6bb
000003f0: 774f 80bd 77ec dc3d 03af 963d 54ef 2f3c
-0.012710499 -0.10546639 -0.12721363 0.16952488 0.012788084 0.0097226035 0.048087016 -0.028110512
-0.04564586 -0.061644092 0.116799735 -0.10671177 -0.07744201 0.1556792 0.013063667 0.06367442
-0.16244777 0.08305192 0.20452352 0.057128586 0.037670705 -0.090169474 -0.1466972 -0.12712218
-0.044044573 -0.1371469 0.07723959 0.069631524 -0.08438074 -0.048612785 -0.016370332 -0.13280272
0.02283498 -0.13488604 -0.087278806 0.16176112 0.057435527 0.06886475 0.04661577 -0.023174996
0.0036127816 -0.11409306 0.090612985 -0.121502645 -0.080129184 -0.0015384291 0.030671442 0.15661827
-0.03379288 0.05865876 -0.16731663 -0.09458015 -0.03147012 -0.068432756 0.029504377 0.07199953
0.04657185 -0.09134581 0.02546541 -0.00853894 0.046837356 -0.023734594 -0.09025323 0.04575222
-0.0028686172 0.06831097 -0.09885383 -0.0794956 -0.03366873 -0.061278217 -0.014542743 -0.065043725
0.02621296 0.011581064 0.08712064 -0.1252201 0.009863223 -0.12784177 0.033033837 0.012250509
-0.06021577 -0.013520124 -0.07365709 -0.009076972 0.06421745 -0.08998913 0.028074762 0.06931787
-0.03636167 -0.058235895 0.17666534 0.042231034 -0.08844396 -0.090938136 -0.14250022 0.08102493
0.12014907 0.02879023 -0.13182905 -0.013172184 0.039750703 -0.031655192 -0.08479241 -0.060816694
0.018608015 0.007230098 0.021684038 0.11959188 -0.0028245512 -0.013348381 0.10763248 -0.036849994
0.013585156 0.044759203 -0.019776406 -0.005397372 -0.029391259 -0.10169664 -0.11204936 0.13454156
-0.041697644 0.17611255 -0.11967699 -0.03507139 -0.0007380487 -0.07550938 -0.06579731 -0.041728336
-0.014819446 -0.09086486 0.14780429 0.044172432 -0.040878158 0.029226914 -0.0705478 -0.031598896
-0.01910917 -0.18149437 -0.008404632 -0.08694496 -0.13846402 0.0993503 0.0025007862 -0.0045359638
0.078971595 0.010975155 -0.053316053 -0.08192107 -0.035808917 -0.031056013 0.013559233 0.021905644
-0.089858 -0.048147533 -0.10622655 0.1452886 0.036220606 0.006842138 0.07756295 0.007420559
-0.0585848 -0.09575643 -0.1102724 -0.093380295 0.13107009 -0.034344364 0.022904424 -0.011868586
-0.057440624 0.03259254 0.072819054 0.049742103 -0.060044345 0.20454133 0.071646646 -0.18991706
0.08167961 -0.04477759 -0.033779904 -0.04892094 -0.15453452 -0.018676195 -0.13141292 -0.028296791
0.08173342 0.052186422 0.004641669 -0.07436892 0.0523021 -0.18790138 -0.038635977 0.016625118
-0.07512589 -0.05101082 0.09798609 0.06932524 -0.11120797 -0.0488509 0.14968936 0.07524612
-0.038667683 0.032953933 0.05139472 -0.065067746 0.10116647 -0.18717876 -0.008791037 -0.1177077
-0.04179517 -0.049201544 0.04514773 0.016944598 0.20063736 -0.035369962 -0.12960525 0.024398163
0.09592765 -0.05180792 0.06854747 0.016632207 -0.092173085 0.018417276 0.088059604 0.036352046
0.2144527 -0.09424978 0.3633761 0.1457314 0.05806584 0.0011692783 0.16656399 -0.020766092
0.17134003 0.22730213 -0.12708798 -0.06767149 0.23908709 0.17124432 -0.17787993 0.20429467
-0.09559061 -0.13395607 -0.056784805 -0.045494054 -0.020729214 0.03665152 0.03594899 0.14427172
0.023059918 0.015078885 -0.07610524 -0.005571326 -0.06265157 0.107872896 0.073575996 0.010738213

1.layers.3.0.bias f4 [74]
00000000: f51a 19bd 7c33 65bc 554a 04bd da63 2bbd
00000010: 93ec 23bd 3016 32bd f2eb 02bd ed57 1cbd
00000020: 8aaa 0fbd 62f9 72bb 8863 bebc 8bb7 42bd
00000030: 56ee 12bd 7ef2 21bc 9d0f 0cbd 8013 eabc
00000040: 230b 27bd ff9b 3ebc 70f6 24bd d715 e8bc
00000050: f90f 37bd 80c5 50bd 37f3 9cbb eb9d eebc
00000060: fa2c 613b 1f36 f13c e461 3cbc 9264 b4bc
00000070: fa8b cfbc 5f2f d0bc a12c b7bc 3d95 cebc
00000080: e66f 3cbd 0e06 49bd 4d78 38bd e3e9 d3bc
00000090: da36 02bd 2599 08bd 9275 00b9 9f76 44bc
000000a0: 439d 7cbc 94a4 97bc 5b25 ffbc 8723 2bbb
000000b0: 1f24 79bc 7db2 68bd 57df 39bd e849 cebc
000000c0: ce9b f7bc bbad ec39 b932 c4bc afe9 cbbc
000000d0: 8d32 8abb 45a2 f8bc 2ef2 16bd 9083 f7bc
000000e0: 2ed1 78bd fb4c c6bc 2f09 923c e70a 26bd
000000f0: c8f1 cfbc db5a 80b9 72d5 75bc 205d a8bc
00000100: 558c 5abd 38bb cdbc 4e7a 86bc 6ebc aabc
00000110: 3129 0dbd 849d c8bc 09e8 c7bc 8f58 22bc
00000120: 4a60 c8bc b1a8 e3bc
-0.037379224 -0.013989326 -0.03229745 -0.041843273 -0.040020537 -0.04347819 -0.031963296 -0.03816979
-0.035074748 -0.0037074913 -0.02324082 -0.04753832 -0.035871826 -0.009884475 -0.034194577 -0.028573751
-0.040782105 -0.011633872 -0.040274084 -0.028330727 -0.044692967 -0.0509696 -0.0047897357 -0.029128036
0.0034359084 0.029444752 -0.011497948 -0.022020612 -0.0253353 -0.025413213 -0.022360148 -0.025217647
-0.046005152 -0.04907804 -0.045036603 -0.025868362 -0.03179059 -0.033349175 -0.0001225083 -0.011991172
-0.0154183535 -0.018511094 -0.031145742 -0.0026113705 -0.015206366 -0.056810845 -0.04537901 -0.025181726
-0.03022566 0.00045142867 -0.023949968 -0.024891702 -0.004217452 -0.030350814 -0.036852054 -0.030214101
-0.060746364 -0.024206629 0.017826645 -0.04053774 -0.025383845 -0.00024481755 -0.015004503 -0.020552218
-0.053356487 -0.025113687 -0.016415741 -0.020841803 -0.03446311 -0.024489172 -0.024402635 -0.009908809
-0.024459977 -0.0277904

1.layers.4.0.weight f4 [74, 370]
00000000: c9ca 563c ad7a 04be a4f6 87bd 3f98 6ebd
00000010: 1fa7 20be 2266 1fbc 0a7c b6bd a020 033c
00000020: 8930 c63d f443 9fb7 5fa2 8d3b e340 763c
00000030: 9aad 34bd 809b dabc fd8b b63d c5b0 a4bc
00000040: 7818 573d 2977 6ebd f782 c4bc 49de 95bc
00000050: d77f e0bd 65df 1ebe 97db 3fbe 7eb2 193d
00000060: cefd 0cbd 8579 68bd 134f bcbc 55ca a03b
00000070: d57f d8bd 4634 8bbc 2c84 243d 0d0d 083d
00000080: eba3 c63d 07ee a23d 30fe a13d 6f5a b53c
00000090: e472 4b3c 7f36 3e3c a0f5 aa3d 57fb c4bc
000000a0: e665 283d 3c1d fc3c 1c4b 323d 4191 8abc
000000b0: 859f 4e3d 38e4 ca3d 6356 1cbe 458c 2ebb
000000c0: b458 8c3c 1971 4b3d d219 4dbe 6b46 8bbc
000000d0: c25d eebd 1c1a b2bd 05e0 e23c a4b4 03be
000000e0: 79fc a6bd d736 59bd efcb 903b 6456 b33c
000000f0: 1b2c 0e3d bf39 823b c479 3cbd 20e9 c2bd
00000100: b8d0 fbbd ac56 67bd 44a3 97bd a5ee f3bc
00000110: 8ec2 133d babb bdbb 34cb 88bd 2a52 813b
00000120: 1783 54bd 3050 293d 0408 81bd 53ba 9b3c
00000130: 051a 7ebd dbf3 0ebd 2bba 60bd 2fe7 9e3d
00000140: 6965 823c 40fb 9f3c 7000 433d e0a7 b43c
00000150: 276a 8cbd 7b20 803d 836a 543d eab6 a6bd
00000160: 8f84 f4bc 7364 123e 690d 983d 29fb 9bbd
00000170: 9390 b93d 79c9 623d b051 5c3d 7050 dd3d
00000180: dd81 513d aa65 a3bd 3b2a efbd c405 ccbd
00000190: c410 0abe 28e4 1bbd 7730 803c 7952 ef3c
000001a0: ba63 f73c 425d b43d 3026 023c 6776 f03d
000001b0: ca4c 7dbd 4ca9 0abd 8082 d3bd 51a8 c93c
000001c0: 3146 59bc 513a 1a3d b809 d73c 3b4a 84bd
000001d0: d580 ddbc ef27 6c3d cfcc 1dbd 0914 0bbd
000001e0: e491 d0bc d425 c2bd 46ec 243d c376 143e
000001f0: 01cd 0f3d 5d18 893c db1f a73d b9a4 43bd
00000200: c927 a23d 3f72 723d 56f5 92bc ad3b ac3d
00000210: 1508 50bd 22fe da3c 4528 ecba 0739 28b9
00000220: e9e9 ceba 8a38 fdbc bc17 6b3d 048a bc3d
00000230: e149 9bbd 4608 943d 6cd6 0b3e 2536 da3d
00000240: 073f a2bd 8730 ebbc 3e79 6f3c 6480 9f3d
00000250: c574 d63d 52db 6eba af8d 2a3d 3a7d 0abd
00000260: f3a0 20bd 08b2 92bd 6705 0ebe de88 b1bc
00000270: 4433 89bd a708 913c 5798 e63d f339 803a
00000280: 4d06 02bd 481d 143c f6af d6bd d7b7 033d
00000290: bcff 88bc 28b0 94bb fe6a fd3c f1e3 853d
000002a0: c5a4 203d 8028 433d 2c81 4c3e 4a2b d63d
000002b0: f792 a23c 321e 41bd d963 623d 3944 8f3d
000002c0: 281a 83bc 6d08 78bd bd09 b53d 80e3 243c
000002d0: baf1 b63d e1d4 74bd 0d4b 1e3d 43ab ac3d
000002e0: 9e56 d6bd 5eab a7b9 9a52 02bd f306 663d
000002f0: c37b 8abd d791 4dbd 476b 893d 27be 85bd
00000300: fe45 303d 136c 13bd 256b 42bd c3c1 b1bd
00000310: 5112 13bc 8256 2d3d d9ea aebd 8786 143d
00000320: ad8e 143e f17a dfbc 63ef a33d 4310 0a3c
00000330: 56a9 d03c df76 07be 3f27 133e bee1 2cbe
00000340: 3f01 89bd 50f2 973d afe3 60bc 35c9 743d
00000350: 875a c2bd ecdb fe3c 3944 653d 8b88 e13c
00000360: 875b 89ba da14 96bd 9cf6 55bd 08ad 1ebc
00000370: 3140 943c 58f0 15bd 2743 d6bb ca96 343d
00000380: f16d 063d c8dc c33d 1f2c 8b3c b154 0bbd
00000390: 5e5c 8a3d bb6d 16bd b600 72be a52e b73d
000003a0: b7f2 56be af16 563d 474d d1bc a3bf 00bd
000003b0: 1f4c 0abd afbc d1bd 5e57 023c 150a 0c3c
000003c0: 0ea3 80bd 6a74 d8bb d377 d0bb 3e59 3bbd
000003d0: 8234 0c3e 7c1f 13bd 5199 183e e961 38bd
000003e0: a1bd 7fbc e50e b5bd d1e4 b5bd cb06 943d
000003f0: de68 87bd c2ec 873d 2638 a43d 01d4 033e
0.013109871 -0.12937422 -0.0663884 -0.058250662 -0.15688752 -0.00972894 -0.08910377 0.008003384
0.09677226 -1.898592e-05 0.0043223347 0.015030119 -0.04411087 -0.026685476 0.089134194 -0.020103822
0.05251357 -0.05821911 -0.02398823 -0.01829447 -0.109618835 -0.15514906 -0.1873611 0.03752374
-0.034421735 -0.056756515 -0.022986924 0.0049069324 -0.10571257 -0.0169927 0.04016511 0.03321557
0.096992336 0.07955556 0.079098105 0.022137849 0.012417529 0.011609673 0.083476305 -0.02404563
0.041112803 0.030775659 0.04352866 -0.016914966 0.0504451 0.099068105 -0.15267329 -0.00266339
0.01713214 0.049668405 -0.20029381 -0.017001351 -0.11638977 -0.08696386 0.027694711 -0.12861878
-0.08153624 -0.053030815 0.004418842 0.02189178 0.03471003 0.003974169 -0.046014562 -0.09517121
-0.12295669 -0.05647914 -0.07404187 -0.02977688 0.036074214 -0.005790201 -0.06679383 0.0039465623
-0.05188283 0.04133624 -0.06300357 0.019009745 -0.062036533 -0.034900527 -0.054865044 0.077589385
0.015917497 0.019528985 0.04760784 0.022052705 -0.068561845 0.06256195 0.05185939 -0.08140357
-0.029848365 0.14296131 0.07424433 -0.076162644 0.090607785 0.05536792 0.05378884 0.10806358
0.051149238 -0.07978375 -0.11677977 -0.09962037 -0.13482958 -0.038059384 0.01564811 0.02921413
0.03019892 0.0880685 0.007943675 0.117413335 -0.06184081 -0.03385286 -0.10327625 0.024616392
-0.013261364 0.03765327 0.026249751 -0.06459471 -0.027038971 0.05765527 -0.0385254 -0.033954654
-0.025460191 -0.094798714 0.04026439 0.14498429 0.035107616 0.01673525 0.08160373 -0.047764514
0.07917745 0.059190985 -0.01793925 0.0840982 -0.050788958 0.026732508 -0.0018017372 -0.00016042973
-0.0015786263 -0.030910749 0.05739568 0.09206012 -0.07582451 0.072281405 0.13656014 0.106548585
-0.07922178 -0.028709663 0.014616309 0.077881604 0.10471491 -0.0009111661 0.041639026 -0.03381083
-0.039215993 -0.07162863 -0.13869248 -0.021671709 -0.06699231 0.017704321 0.11259525 0.0009782895
-0.03174429 0.009040184 -0.10482781 0.032157745 -0.016723506 -0.004537601 0.030934807 0.06537617
0.039219636 0.047646046 0.1997115 0.104574755 0.019845469 -0.047147937 0.055271003 0.06995434
-0.016003683 -0.06055491 0.08839748 0.010064006 0.089328244 -0.05977333 0.038645793 0.08431103
-0.1046574 -0.000319804 -0.031817056 0.05615897 -0.06761887 -0.05018791 0.06709915 -0.06530409
0.0430355 -0.03599174 -0.047465462 -0.08679535 -0.008976535 0.04231883 -0.085408874 0.036261108
0.14507551 -0.027280303 0.08004644 0.008426729 0.02547137 -0.1322894 0.1437044 -0.16882989
-0.06689691 0.07419264 -0.013726159 0.0597622 -0.09489923 0.031110726 0.055973265 0.02753093
-0.0010479548 -0.07328196 -0.05223714 -0.009684809 0.018097015 -0.036606163 -0.006538767 0.044089116
0.032819692 0.09563595 0.016988812 -0.034016315 0.06755899 -0.03672574 -0.23633084 0.089444436
-0.20991026 0.052267727 -0.025549544 -0.03143276 -0.033764 -0.10241067 0.0079554 0.008547326
-0.062811 -0.0066056745 -0.0063619404 -0.045739405 0.13691905 -0.035918698 0.14902236 -0.04501525
-0.015609176 -0.088407315 -0.08881534 0.07227858 -0.06611799 0.06636955 0.08018522 0.12873842

1.layers.4.0.bias f4 [74]
00000000: 10d7 32bd 877a 02bd 5b7a cabc 12dd d0bc
00000010: 63bc 50bd a700 e6bb 49cd bcbb ac04 42bd
00000020: 06f5 fcbc 4b1e 2cbc 527d 19ba dbd1 e3bc
00000030: b6d0 3dbd f4b9 28bd 7121 c8bc 6171 0bbd
00000040: 1858 14bd cfde 75bc f835 43bb 4486 5cbc
00000050: 3a28 e5bc 14c3 cfbb 37b2 82bc d68d 57bd
00000060: 6c60 99bd 9728 f2bc 2e9a 803b 63a2 17bc
00000070: a273 62bd 3ad4 8abd 4c8a 15bd e8b4 c6bc
00000080: f9e6 0dbb f423 25bd b841 1abc a84d 1bbd
00000090: 9008 0dbc e49b 58bb 388d 37bc 142f c0bc
000000a0: 406a 15bc 28ba fabc 2063 5a3b 1975 8abc
000000b0: 0db1 d2bc 0366 9abc 1ba1 5abc 67b2 8abb
000000c0: 06a9 d1bc 6ad4 4bbb 0e01 f4bc 1325 f7bc
000000d0: 7a2e f9bc 5020 bcbb 5819 e6bc 603a 45bd
000000e0: c4c4 8dba ec68 25bd 096e efbc 9971 93bc
000000f0: dfc2 5dbd df5e d6bc a914 00bc d834 ccbc
00000100: a9ea 5fbc 96ec 4abc a354 a0bc f718 0cbd
00000110: 4b45 97bc ec45 193c 8177 f7bc 942a 2bbd
00000120: 5d22 bb3b 0d93 02bc
-0.04366213 -0.031855132 -0.024716547 -0.02549604 -0.05096091 -0.0070191207 -0.0057617766 -0.047367737
-0.030878555 -0.010505269 -0.0005855161 -0.027810028 -0.04634162 -0.041192964 -0.024430009 -0.034043673
-0.036216825 -0.015006735 -0.0029786807 -0.013459746 -0.027973283 -0.006340394 -0.01595412 -0.0526255
-0.07489094 -0.02956037 0.0039246297 -0.009255025 -0.055286057 -0.0677876 -0.036508843 -0.024256185
-0.0021652563 -0.04031749 -0.009415083 -0.037915856 -0.0086079985 -0.0033051902 -0.011203103 -0.023459949
-0.00911957 -0.030606344 0.0033323243 -0.01690154 -0.02571919 -0.018847471 -0.013344075 -0.004232693
-0.025593292 -0.003110195 -0.02978566 -0.030169046 -0.03041767 -0.0057411566 -0.028088257 -0.048151374
-0.0010816087 -0.040383264 -0.029227274 -0.017998504 -0.05414092 -0.026168285 -0.007817426 -0.024927542
-0.013666787 -0.012385508 -0.019571608 -0.034203496 -0.018465659 0.00935505 -0.030208351 -0.041788653
0.0057108835 -0.00796963
