DNNWeights/model/ensemble_0/selected_set_0_0_6.onnx (onnx, 872444 bytes, 17 tensors)

0.embeds.0.weight f4 [2, 1]
0	0xbee2a0e9	-0.4426339
1	0x3f647f62	0.8925687

0.embeds.1.weight f4 [3, 2]
0	0x3ecfd1cc	0.4058975
1	0xbf33af9c	-0.70189834
2	0x3f007de3	0.5019209
3	0x3fa11196	1.2583492
4	0xbfff7e46	-1.996041
5	0xbc811b70	-0.015760154

0.embeds.2.weight f4 [2, 1]
0	0xbf4541a3	-0.7705328
1	0x3f982a72	1.1887953

0.embeds.3.weight f4 [2019, 50]
0	0xbfad3442	-1.3531573
1	0x3dcca69a	0.09992714
2	0xbf021831	-0.50818163
3	0x3fbbbb26	1.4666488
4	0xbf8c3e35	-1.0956484
5	0xbfdda996	-1.7317379
6	0xbf54a09d	-0.83057576
7	0xbd702ed8	-0.058638424
8	0xbf16c2a7	-0.58890766
9	0xbf046b2d	-0.5172604
10	0xbec6f862	-0.38861376
11	0xbd9da1ed	-0.076969005
12	0x3fae7c66	1.3631713
13	0x3ea2c454	0.3179041
14	0x3e811fb0	0.25219488
15	0x3f836acb	1.0266966
16	0x3f2c5479	0.67316395
17	0x40260bcf	2.5944707
18	0xbef3ffc4	-0.4765607
19	0x3e46759e	0.19380805
20	0x3fda53e6	1.7056854
21	0x3c909998	0.017651364
22	0xbf4f3c1c	-0.80951095
23	0xbf882196	-1.063525
24	0x3f9029ff	1.1262816
25	0x3fb2510e	1.3930986
26	0xbfd5a593	-1.6691154
27	0x3f5795c8	0.84212923
28	0x3fc8fd91	1.5702382
29	0xbd29874a	-0.041388787
30	0x3edc2f66	0.43004912
31	0xbcc42818	-0.0239449
32	0x3f682087	0.9067463
33	0xbf589fc7	-0.846188
34	0xbc665f73	-0.014060843
35	0xbf43448d	-0.76276475
36	0x3f8076c8	1.0036249
37	0xbfb64a7d	-1.4241482
38	0x3f3057eb	0.6888415
39	0x4002041f	2.0315015
40	0x3fe52f75	1.7905108
41	0x3d6e0f2b	0.058119934
42	0x3d39d16d	0.04536574
43	0xbf7da55d	-0.9908045
44	0xbdce30ad	-0.10067878
45	0xbc205f17	-0.009788296
46	0xbee73cca	-0.45163566
47	0x3ed3fc7b	0.41403565
48	0xbf79a620	-0.9751911
49	0xbeb6e6f0	-0.35723066
50	0x3f2f1ca0	0.68403053
51	0x3dbad91e	0.09123443
52	0xbddc4076	-0.107544824
53	0xbd65faae	-0.05614727
54	0x3ec4f621	0.3846903
55	0x3f51360f	0.8172311
56	0xbf4e6c61	-0.80634123
57	0xbf6dc7c0	-0.9288292
58	0xbfc6fecd	-1.5546509
59	0x3ede8b88	0.4346583
60	0xbf884ea0	-1.0648994
61	0x3f66bc60	0.9013119
62	0xbf4fa2d1	-0.81107813
63	0x3e891d96	0.26780385
64	0x3f7460bc	0.95460105
65	0x3f0e6b39	0.5563236
66	0xbfa5c9ca	-1.2952206
67	0x3f9634d3	1.1734871
68	0x3f973676	1.1813495
69	0xbf82f262	-1.0230219
70	0x3f0e38a1	0.5555516
71	0x3f149de6	0.58053434
72	0x3eea3ce7	0.4574959
73	0xbf27c1e3	-0.6553022
74	0xbef795d3	-0.48356494
75	0x3fed6042	1.8545
76	0x3f910783	1.1330417
77	0x3cdbf7af	0.026851503
78	0x3efe0d84	0.49619687
79	0x3f47f092	0.78101456
80	0xbf6786d3	-0.904401
81	0xbd95e647	-0.073193125
82	0xbf6341f9	-0.8877254
83	0x3f1fe2f2	0.62455666
84	0x3ef8f5a7	0.48624918
85	0xbf7b0ef9	-0.9806972
86	0x3f1140ab	0.567393
87	0xbf35087e	-0.70716083
88	0x3f15ffe5	0.5859359
89	0xbfe4adca	-1.7865536
90	0xbc12de8d	-0.008964193
91	0x3fbe7912	1.4880698
92	0x3ee86b6c	0.45394456
93	0x3f8085e9	1.0040866
94	0x3f2e388c	0.68055034
95	0xbf24a6bf	-0.64316934
96	0xbf8bdc6c	-1.0926642
97	0xc00a616b	-2.162196
98	0x3f20edde	0.62862957
99	0xbf5fc650	-0.87411976
100	0x3f243f6c	0.64159274
101	0xbeee3515	-0.46524873
102	0x3dc1550b	0.09440049
103	0x3f45b77b	0.77233094
104	0x3f8587a0	1.0432014
105	0x3ed3f64e	0.41398853
106	0x3f4fb140	0.8112984
107	0x3f2c27b3	0.67248076
108	0x4019938e	2.399631
109	0x3f11bff5	0.5693353
110	0xbee8bf7c	-0.4545859
111	0xbfd0d826	-1.6315963
112	0x3ec60a0b	0.38679537
113	0x3f67a3b7	0.90484184
114	0x3e670a3c	0.22562498
115	0xbf124fa3	-0.57152766
116	0xbfcf4114	-1.6191735
117	0x3ecf608a	0.4050334
118	0xbc5bf0c3	-0.013424101
119	0xc01cb46a	-2.4485116
120	0x3fac2fa0	1.3452034
121	0x3d55e06d	0.052215982
122	0xbf9a749c	-1.2066836
123	0x3fb080ff	1.3789366
124	0xbfdd34d4	-1.7281747
125	0x3f318837	0.6934847
126	0xbf3902db	-0.7226998
127	0xbeaceaa3	-0.33772764
128	0xbf2a690a	-0.66566527
129	0xbe896dee	-0.26841682
130	0xbc80b673	-0.015711999
131	0x3f813bbb	1.0096353
132	0xbff09414	-1.879519
133	0x3f9de615	1.233584
134	0xbd3e3b89	-0.046443496
135	0x3eda8826	0.42681998
136	0xbe91baf7	-0.28462955
137	0x3ebe8c2c	0.37216318
138	0xbcc78d3c	-0.024359338
139	0x3e3d3f6a	0.18481222
140	0x3dd34b7d	0.103171326
141	0x3f2003b4	0.6250565
142	0x3ec331ab	0.3812383
143	0x3e782300	0.24232101
144	0xbea385aa	-0.31937915
145	0x3f39064d	0.7227524
146	0x3fa18b1a	1.2620575
147	0xbe954e59	-0.29161337
148	0x3ffa649a	1.9561951
149	0xbee40726	-0.44536704
150	0x3e2c0cc9	0.16801752
151	0xbf8b56d4	-1.0885873
152	0xbf6a57b3	-0.9154007
153	0xbedb04bc	-0.4277705
154	0x3f3206f4	0.6954186
155	0x3fba01a7	1.4531754
156	0xbfd2eeef	-1.6479167
157	0xbf8d5916	-1.1042812
158	0x3f447dba	0.76754344
159	0x3f985517	1.1900967
160	0x3fafc132	1.3730834
161	0x3f046ca4	0.5172827
162	0x3ef05648	0.46940827
163	0xbff5db8d	-1.9207627
164	0xbfd1d5e1	-1.6393396
165	0x3f3971e1	0.7243939
166	0x3e1661c0	0.14685726
167	0x3e521bfa	0.20518485
168	0x3fdb5a9c	1.7137027
169	0xbedcbf4e	-0.43114704
170	0xbe49e808	-0.19717419
171	0xbe83e877	-0.25763294
172	0xbf4c133d	-0.79716855
173	0xbe55bc2e	-0.20872566
174	0xbf1330f5	-0.5749658
175	0xbfa4aad7	-1.2864636
176	0xbf0c8661	-0.54892546
177	0xbe0fb9d3	-0.1403573
178	0xbf74fe79	-0.95700794
179	0x3ddaf9ef	0.10692202
180	0xbf9aee60	-1.2103996
181	0x3e943584	0.2894708
182	0x3dee618f	0.116397016
183	0x3fb7f8bf	1.4372786
184	0x3b836bd6	0.004010658
185	0xbf546589	-0.8296743
186	0xbfbd500c	-1.4790053
187	0xbebb06ed	-0.3652872
188	0x3fa7dfc1	1.3115159
189	0x3fc6090b	1.547151
190	0x3f60ac28	0.8776269
191	0xbf975b86	-1.1824806
192	0xc03171c6	-2.7725692
193	0x3ed73cbf	0.42038533
194	0xbf2d7df4	-0.67770314
195	0x3f9581b5	1.1680208
196	0x3e257e44	0.16161448
197	0x3da0d894	0.07853809
198	0x3eb57138	0.35437942
199	0xbf85db4e	-1.0457551
200	0xbeca8c22	-0.39560038
201	0xbf957a63	-1.1677974
202	0x3e8d0264	0.27540886
203	0x3e53c304	0.20679861
204	0x3d6b1492	0.057392664
205	0xbf4ed91a	-0.8080002
206	0xc0159d16	-2.3377128
207	0x3f400c17	0.7501845
208	0xbf8dda17	-1.1082181
209	0x3fae3e8d	1.3612839
210	0xbf09729e	-0.53690517
211	0x3f72277a	0.94591486
212	0xbf0f4e5d	-0.5597895
213	0x3f12ff69	0.57420975
214	0x3eeb1ada	0.45918924
215	0x3ddcfeb4	0.10790768
216	0xbfd00c94	-1.6253839
217	0x3e5e2ece	0.21697542
218	0xbf71544c	-0.9426925
219	0x3fbb8fa6	1.4653213
220	0x3f812d46	1.0091941
221	0x3e36bb3f	0.17844866
222	0x3f8f9da4	1.1219983
223	0xbf28863f	-0.65829843
224	0xbfce4f58	-1.6117964
225	0xbe44ab76	-0.19206032
226	0xbe7df679	-0.24801053
227	0xbf72a448	-0.94781923
228	0x4035b92d	2.8394272
229	0xbfb8bbf1	-1.4432355
230	0xbf906ba8	-1.1282854
231	0x3f9de6b3	1.2336029
232	0xbf0c26e1	-0.54746825
233	0x3d80b346	0.06284194
234	0xbf749799	-0.9554382
235	0xbf961e07	-1.1727914
236	0xbf24ed45	-0.64424545
237	0x3f8429c3	1.0325245
238	0x3f1c7cb2	0.6112777
239	0xbf5454f5	-0.82942134
240	0xbe8b5017	-0.2720954
241	0x3f78edb4	0.97237706
242	0xbf5c7ebc	-0.8613088
243	0xbfd11f68	-1.633771
244	0x4016c22c	2.3556013
245	0xbf36ad75	-0.71358424
246	0x3f0d8c13	0.5529186
247	0xbf20bf91	-0.6279231
248	0x3fcec509	1.615388
249	0x3fed903a	1.855964
250	0xbf586af1	-0.8453818
251	0xbf091090	-0.535409
252	0x3f3f458a	0.74715483
253	0xbf1e6196	-0.61867654
254	0x3f28c52d	0.65925866
255	0x3f448c77	0.7677683

1.layers.0.0.weight f4 [74, 74]
0	0xbdd1181b	-0.10209676
1	0x3e002e77	0.12517725
2	0xbf8dcda0	-1.1078377
3	0x3db9253d	0.09040306
4	0xbe0b85a4	-0.13625199
5	0x3d583811	0.052787844
6	0xbd4fe325	-0.05075373
7	0xbdff66a3	-0.12470748
8	0x3e2ea2b7	0.17054258
9	0xbee9f552	-0.45694977
10	0xbea37469	-0.3192475
11	0x3f01f373	0.507621
12	0xbe9087f5	-0.28228727
13	0x3f15e940	0.58559036
14	0x3ed32a18	0.41243052
15	0x3d861622	0.0654719
16	0x3e8568b2	0.2605644
17	0xbe2bc608	-0.16774762
18	0xbd40cfc7	-0.047073152
19	0x3ecad35d	0.39614382
20	0x3d9747e2	0.073867574
21	0x3d9bd3e1	0.07608772
22	0xbcacb85f	-0.021084009
23	0xbd0d5c67	-0.03451195
24	0xbdfce0bf	-0.123475544
25	0x3e87a178	0.26490378
26	0x3d94e2c5	0.07269815
27	0x3bd99395	0.0066399076
28	0xbd7b9c78	-0.061428517
29	0x3c9aa693	0.018878257
30	0x3e05fbee	0.13084385
31	0xbe2e5a20	-0.17026567
32	0x3df22ac7	0.118245654
33	0x3dadda5e	0.08488916
34	0x3e8d83da	0.27639657
35	0x3db6a134	0.08917466
36	0x3e89b840	0.26898384
37	0x3baa31a5	0.0051939064
38	0x3e46088b	0.19339196
39	0x3e0957ed	0.13412447
40	0xbe263db6	-0.16234478
41	0xbd4b254b	-0.049596112
42	0x3dab5ced	0.083673336
43	0xbd11c497	-0.035587873
44	0x3e1701c2	0.14746764
45	0xbd4e8682	-0.050421245
46	0xbd4ac08a	-0.049500026
47	0xbd30c9fe	-0.043161385
48	0xbde2899c	-0.11061403
49	0x3d5dbc03	0.05413438
50	0xbea1c7e4	-0.31597817
51	0x3c2f2ea8	0.010692276
52	0x3e5f93bd	0.21833701
53	0xbd7cccb0	-0.061718643
54	0x3e285a1d	0.16440625
55	0xbe630c47	-0.22172652
56	0x3d347218	0.04405412
57	0xbe0cbb71	-0.13743378
58	0xbe160a22	-0.14652303
59	0x3e21e21d	0.15808912
60	0xbdfa2faf	-0.12216126
61	0xbcbc6d79	-0.02300142
62	0xbe77a669	-0.24184574
63	0x3eb7b651	0.35881284
64	0xbbdbfcb5	-0.0067134746
65	0xbdb7120a	-0.089389876
66	0x3cb5157d	0.022104973
67	0x3cf310c8	0.029671088
68	0xbd4dfc6d	-0.05028956
69	0xbcae2e1f	-0.021262227
70	0x3ed3e543	0.4138585
71	0x3d8a5aad	0.06755576
72	0x3dd8b89a	0.10582085
73	0xbb25044e	-0.0025179568
74	0x3ab4119b	0.0013738157
75	0x3e2970f7	0.16546999
76	0xbcfd6bc7	-0.030935181
77	0x3dede5d2	0.116161
78	0x3ea01e1b	0.3127297
79	0xbe06b8e6	-0.1315647
80	0xbd8978b2	-0.06712474
81	0x3d8cc839	0.06874127
82	0xbebb7120	-0.36609745
83	0xbe8c99b9	-0.2746103
84	0x3dd2cd79	0.10293097
85	0xbb15be06	-0.0022848858
86	0x3d6da1bc	0.05801557
87	0x3d89883f	0.0671544
88	0xbe5de3bd	-0.21668907
89	0x3e8df91c	0.27729118
90	0x3d9a3b24	0.075308114
91	0xbdd6e1e9	-0.10492308
92	0x3e1229d5	0.1427377
93	0xbe6ab105	-0.2291909
94	0x3e564c81	0.20927621
95	0xbe0535a6	-0.13008747
96	0x3e8d9edc	0.27660263
97	0x3d562182	0.05227805
98	0x3dc04745	0.093885936
99	0x3e1029fe	0.14078519
100	0x3ee02f5b	0.4378613
101	0x3eb3beda	0.35106546
102	0x3cb73ee4	0.022368856
103	0xbd1df0bb	-0.038559657
104	0xbe5703f0	-0.20997596
105	0x3e39ef6d	0.1815774
106	0x3bc31e61	0.005954549
107	0x3ce2dbae	0.027692642
108	0xbe6859c7	-0.22690497
109	0x3e3ea57c	0.18617815
110	0x3e71a420	0.23597765
111	0xbe76cff7	-0.2410277
112	0x3e10dd24	0.14146858
113	0x3ea63f30	0.32470083
114	0x3e197860	0.14987326
115	0x3d8b09f3	0.06789007
116	0x3e8d69fe	0.27619928
117	0xbe3c004b	-0.18359487
118	0x3e9683bb	0.29397377
119	0x3d493814	0.049125746
120	0x3e9a9117	0.3018882
121	0xbea51539	-0.32242754
122	0x3dbb296f	0.09138762
123	0xbed235bf	-0.4105663
124	0xbd903f84	-0.07043365
125	0x3dcca0fe	0.09991644
126	0x3f01c09f	0.5068454
127	0xbd258326	-0.040408276
128	0x3d7cf868	0.061760336
129	0xbeb52e2d	-0.35386792
130	0x3c3b58f5	0.011434783
131	0xbe2d0086	-0.16894731
132	0x3dc94057	0.09826725
133	0x3d021274	0.03175588
134	0x3e512868	0.2042557
135	0x3e82c889	0.2554362
136	0xbe1da5be	-0.15395257
137	0xbdc08ccd	-0.094018556
138	0xbdef3de4	-0.116817266
139	0xbb962cb3	-0.0045829653
140	0xbe216c38	-0.15763938
141	0xbdc729d8	-0.09724778
142	0xbe9d6320	-0.3073969
143	0x3ed9af1e	0.42516416
144	0x3d80d46b	0.062905155
145	0x3dfe7289	0.124241896
146	0xbe996fdb	-0.2996815
147	0xbd9023fd	-0.07038114
148	0xbf04b488	-0.5183797
149	0x3d8f4d51	0.06997169
150	0xbe3ef84d	-0.18649407
151	0x3cc26843	0.023731356
152	0x3e9494b1	0.29019693
153	0x3e3de12a	0.18542925
154	0x3dc9452b	0.09827646
155	0xbdcd483a	-0.10023542
156	0x3e8cebca	0.27523643
157	0x3e04f6c5	0.1298476
158	0xbe555a81	-0.20835306
159	0x3f14e8c3	0.58167666
160	0xbe3e0729	-0.18557419
161	0xbda9d1d6	-0.08291976
162	0x3ed31f9f	0.41235062
163	0xbe913ecc	-0.28368223
164	0x3dae6f0d	0.08517275
165	0x3d9f1c8a	0.07769115
166	0xbc936c74	-0.01799605
167	0xbbf309fc	-0.0074169617
168	0xbce2fa6a	-0.027707297
169	0x3e8e24ac	0.27762353
170	0x3e8434c0	0.25821495
171	0x3e91eb34	0.28499758
172	0x3df2599f	0.118335
173	0x3d2e8c7e	0.042614453
174	0x3e498137	0.19678198
175	0x3e879a8c	0.26485097
176	0x3d147003	0.036239635
177	0x3e1f0726	0.1553007
178	0xbd15fb15	-0.036616404
179	0xbe9b5757	-0.30340073
180	0xbe07d87a	-0.13266173
181	0x3dfc27a3	0.123122476
182	0xbcb6c63f	-0.022311328
183	0xbe276896	-0.1634849
184	0x3e267d49	0.1625873
185	0x3ea8bf30	0.32958364
186	0x3e1c7d64	0.15282208
187	0x3e0e8419	0.13917579
188	0xbe3e7190	-0.18598008
189	0xbe715376	-0.23566994
190	0xbe96319a	-0.29334718
191	0x3ce343e2	0.02774233
192	0x3de2b0a5	0.110688485
193	0x3dae9f1c	0.085264415
194	0x3e21b2ac	0.15790814
195	0xbc814454	-0.015779652
196	0x3e728445	0.2368327
197	0x3e180d1f	0.14848755
198	0x3e0f7468	0.14009249
199	0xbeb23d56	-0.3481242
200	0xbe4b8aa4	-0.19877106
201	0x3cd330c7	0.025780095
202	0xbe152092	-0.14563206
203	0xbc8a36a2	-0.016871754
204	0xbe8bef2f	-0.2733092
205	0xbd7cbe43	-0.061704885
206	0xbc217748	-0.009855099
207	0x3e965dfa	0.29368573
208	0x3ddeffcb	0.108886324
209	0xbd6d53d2	-0.057941265
210	0xbd167010	-0.036727965
211	0x3d51159e	0.051046006
212	0x3db2c29c	0.08728525
213	0xbdc56be2	-0.09639718
214	0xbe703959	-0.23459376
215	0x3e432123	0.1905561
216	0xbe720644	-0.23635203
217	0x3debc9d2	0.115131035
218	0xbd41e071	-0.047333185
219	0xbe1a8c47	-0.15092574
220	0x3d87347d	0.06601808
221	0xbd47e1ae	-0.04879921
222	0x3e6821a9	0.2266909
223	0xbed34617	-0.41264412
224	0x3e630be7	0.22172509
225	0xbcbae74d	-0.022815371
226	0x3f0f699e	0.56020534
227	0x3dc8b9a2	0.09801032
228	0x3e5d07e5	0.21585043
229	0x3e0ec609	0.13942732
230	0xbdbb09a1	-0.09132696
231	0x3d623e28	0.055235058
232	0x3ec2a29e	0.38014692
233	0x3dec6125	0.11541966
234	0xbe7fe75c	-0.249906
235	0x3d8fa893	0.07014575
236	0xbd0b059b	-0.033940893
237	0xbc59097c	-0.01324689
238	0x3b3cf209	0.0028830788
239	0x3e7c9fda	0.24670354
240	0x3e83d4d2	0.25748307
241	0xbdf8256b	-0.12116512
242	0x3e0ea4da	0.13930073
243	0x3ea36a5a	0.31917077
244	0x3e802552	0.25028473
245	0xbe1b399c	-0.15158695
246	0x3e4dc142	0.20093253
247	0xbdd14166	-0.10217552
248	0xbe13a336	-0.14417729
249	0xbdc98beb	-0.0984114
250	0x3c8a909f	0.016914664
251	0xbdf071e4	-0.11740473
252	0xbe2920d4	-0.16516429
253	0xbe7aaddb	-0.24480383
254	0xbd8514fb	-0.06498142
255	0x3d006107	0.031342532

1.layers.0.0.bias f4 [74]
0	0xbd44b908	-0.048028022
1	0xbd6cd440	-0.057819605
2	0xbcbf65bd	-0.023363942
3	0xbda1728b	-0.078831755
4	0xbd703dda	-0.058652736
5	0xbcf53020	-0.029930174
6	0xbe01b94a	-0.12668338
7	0xbda79c1c	-0.081840724
8	0xbc57f8a9	-0.013181844
9	0xbcd0e657	-0.02550046
10	0xba84fece	-0.0010146738
11	0x3b735b47	0.0037133263
12	0x3bae4a10	0.0053188875
13	0x3b379e03	0.0028017766
14	0x3cd160fe	0.025558945
15	0xbb8309b0	-0.0039989576
16	0xbbe31f00	-0.0069311857
17	0xbdab90b4	-0.08377209
18	0xbdca08ed	-0.09864984
19	0xbbed8bdc	-0.0072493386
20	0xbc29142f	-0.010319754
21	0xbd2f4657	-0.04279169
22	0xbd894d08	-0.06704146
23	0xbc9c0157	-0.019043608
24	0x3b249098	0.0025110599
25	0xbd37e4fc	-0.04489611
26	0xbd705ff1	-0.058685247
27	0xbba067fb	-0.004895208
28	0xbdab4c9b	-0.08364221
29	0xbd1d8d63	-0.038464915
30	0xbc172c0b	-0.009226809
31	0xbc89db1f	-0.016828118
32	0xbd71c69d	-0.059027303
33	0xbd8a0b63	-0.06740453
34	0xbc2e5c74	-0.01064216
35	0xbc450c6b	-0.012026886
36	0xbd03f56f	-0.032216486
37	0xbd8d571d	-0.06901381
38	0xbdc58c45	-0.09645895
39	0xbd85975c	-0.0652301
40	0xbd6ec4c6	-0.058293127
41	0xbce9baeb	-0.028531512
42	0xbc24d1de	-0.010059802
43	0xbcaf28db	-0.021381786
44	0xbc52d69c	-0.01286855
45	0xbab8f14f	-0.0014110002
46	0xbd15130e	-0.036395125
47	0xbd10fd53	-0.03539784
48	0xbd84f3d1	-0.06491817
49	0xbbded1dd	-0.00679992
50	0xbd0fe823	-0.035133492
51	0xbc9d900c	-0.019233726
52	0x3b809997	0.0039245593
53	0xbc9a5e59	-0.018843817
54	0xbdc042d3	-0.09387746
55	0xbcacbb75	-0.02108548
56	0xbc68b796	-0.014203927
57	0xbc0d5495	-0.008626123
58	0xbd8d0bbd	-0.068870045
59	0xbc1f6ec7	-0.009731001
60	0xbdbfef48	-0.09371811
61	0xbd19fa0d	-0.037591983
62	0xbdae3419	-0.085060306
63	0xbd11b724	-0.035575047
64	0xbd39c757	-0.04535612
65	0x3c082c6a	0.00831137
66	0xbbb5b5ac	-0.0055453386
67	0xbd919ee0	-0.07110381
68	0xbdbfe636	-0.09370081
69	0xbc907dc0	-0.017638087
70	0xbd80471e	-0.062635645
71	0xbd88f73c	-0.06687781
72	0xbb972a04	-0.004613163
73	0xbcab8441	-0.020937087

1.layers.1.0.weight f4 [74, 148]
0	0xbd4455f4	-0.047933534
1	0x3c041782	0.008062245
2	0xbe19dffd	-0.15026851
3	0x3cf669bb	0.030079713
4	0xbce43c56	-0.027860802
5	0xbeb3791d	-0.3505334
6	0x3d9790e6	0.07400684
7	0x3d98604f	0.074402444
8	0x3e134306	0.14381036
9	0xbd3bb1f2	-0.045824
10	0x3e7cecb0	0.24699664
11	0xbeb0a9c5	-0.34504524
12	0x3e83be28	0.25731015
13	0xbdebf9a1	-0.11522222
14	0x3dd58026	0.10424833
15	0xbd2bb702	-0.041922577
16	0x3e3eab1d	0.18619962
17	0x399f4346	0.00030376966
18	0x3df33bc4	0.11876634
19	0xbe25d48c	-0.16194361
20	0xbc38fd88	-0.011290915
21	0xbdc7db34	-0.097586066
22	0x3b08fbe6	0.0020902096
23	0x3e8c8702	0.27446753
24	0x3da1a227	0.07892256
25	0x3ea3883a	0.3193987
26	0x3e24b6ea	0.16085401
27	0x3d8a7749	0.06761033
28	0xbe9a6e3d	-0.3016223
29	0x3c9ae80b	0.018909475
30	0xbe2d5ba0	-0.16929483
31	0x3cda4f87	0.02664925
32	0xbdbc06ab	-0.09180959
33	0x3df6a471	0.120430835
34	0xba7c5d48	-0.0009626937
35	0x3d2f8dbe	0.042859785
36	0xbdd2eb44	-0.102987796
37	0x3ddc44a7	0.10755282
38	0xbdc2d428	-0.09513122
39	0x3d5f0f9e	0.054458253
40	0x3cc2668e	0.023730543
41	0x3e96fe88	0.29491067
42	0xbd91f018	-0.071258724
43	0x3de5b9ed	0.11217103
44	0x3dfab092	0.12240709
45	0x3db8477d	0.0899801
46	0x3d7adb3f	0.061244246
47	0x3c81c8c6	0.015842807
48	0x3e050691	0.12990786
49	0x3cbbb84e	0.022915032
50	0x3dd00d4d	0.10158787
51	0xbd6bf31e	-0.0576049
52	0x3e52a76f	0.20571683
53	0xbe243809	-0.16037
54	0x3de96bc1	0.113975056
55	0xbe0e935f	-0.13923405
56	0xbd0b0357	-0.033938732
57	0xbe32c3bc	-0.17457479
58	0xbce87a52	-0.02837864
59	0xbd2aad36	-0.041669093
60	0xbeb4a4a9	-0.35281876
61	0xbe32986f	-0.17440961
62	0x3e4444d2	0.19166878
63	0xbe56518c	-0.20929545
64	0x3e627e0c	0.22118396
65	0x3d31b826	0.04338851
66	0x3d7611f0	0.0600757
67	0xbe359d9e	-0.17735907
68	0xbd964a4d	-0.073383905
69	0x3c7ab818	0.01530268
70	0xbd00c040	-0.031433344
71	0x3d2cde91	0.042204443
72	0xbdc73cd8	-0.09728402
73	0xbb24d755	-0.0025152762
74	0x3da85f21	0.082212694
75	0x3e4f9a76	0.20273766
76	0xbe6b0203	-0.22949986
77	0xbde7708a	-0.11300762
78	0xbd03e2ef	-0.032198843
79	0x3ec6c81e	0.38824552
80	0x3e474ea1	0.19463588
81	0x3e3fe119	0.18738212
82	0xbe59248a	-0.21205345
83	0x3d2d257b	0.042272072
84	0x3d0ac03e	0.033874743
85	0x3d8ca742	0.068678394
86	0x3d71da20	0.05904591
87	0x3dd56da5	0.10421304
88	0xbe8cff28	-0.2753842
89	0xbe29618d	-0.16541119
90	0x3d4af30b	0.04954819
91	0xbe9a29f7	-0.30110142
92	0xbdaed66e	-0.08536993
93	0x3e55650c	0.20839328
94	0xbdb1f0e3	-0.086885236
95	0xbeb12f74	-0.34606516
96	0xbda44ec0	-0.08022833
97	0x3eca4448	0.3950522
98	0x3c8d5753	0.017253553
99	0x3e14a923	0.14517646
100	0xbcf24626	-0.029574465
101	0xbdca0faf	-0.09866273
102	0xbcbb0817	-0.022831006
103	0x3e55a5da	0.20864049
104	0xbe3bee97	-0.18352734
105	0xbcdc8402	-0.026918415
106	0x3cc7e6c2	0.024402026
107	0xbe268aa9	-0.16263832
108	0x3d72cc43	0.05927683
109	0xbde4c814	-0.111709744
110	0xbc398330	-0.011322781
111	0xbe414d8a	-0.18877235
112	0xbdd52e19	-0.10409183
113	0xbd407c7a	-0.04699371
114	0x3e448e58	0.19194925
115	0x3e086034	0.13317949
116	0x3dc4e9da	0.09614916
117	0xbd67f081	-0.056625847
118	0x3dd90bc7	0.105979495
119	0x3d4c6061	0.0498966
120	0x3dde392c	0.108507484
121	0xbdaa9a82	-0.08330251
122	0x3d07dcb0	0.03316945
123	0x3d5f711b	0.054551225
124	0x3e3c80de	0.18408534
125	0x3d07a76e	0.033118658
126	0xbc444b12	-0.011980789
127	0x3e6e3ee4	0.23266178
128	0x3b0f5f9d	0.0021877058
129	0x3d83be8e	0.0643283
130	0x3dc00a3a	0.093769506
131	0xbd6943f5	-0.056949575
132	0xbd5931f8	-0.05302617
133	0xbcd6bb34	-0.026212312
134	0x3e667bb6	0.2250813
135	0xbe813f31	-0.25243524
136	0x3ac1e4a1	0.0014792868
137	0xbe57f6a1	-0.21090175
138	0xbc13cab5	-0.009020497
139	0xbcba108a	-0.022712965
140	0xbdf7fee1	-0.12109161
141	0xbdc46d69	-0.09591181
142	0xbdcff796	-0.10154645
143	0x3d4fdeff	0.050749775
144	0x3dfeddbf	0.124446385
145	0xbc032957	-0.008005462
146	0x3d55d6eb	0.052206915
147	0xbdae04f4	-0.084970385
148	0xbe87897d	-0.26472083
149	0xbb527ce4	-0.0032117898
150	0x3e0e20ea	0.13879743
151	0xbce5e1fd	-0.028061861
152	0xbda4a42d	-0.080391265
153	0xbd65b8f7	-0.0560846
154	0xbe03f3ca	-0.12885967
155	0xbb4d7732	-0.0031351564
156	0x3dacff1f	0.08447098
157	0x3b88c807	0.0041742357
158	0xbdf7de8b	-0.121029936
159	0xbdaf188f	-0.08549606
160	0x3e52a28b	0.20569818
161	0x3db2918c	0.08719167
162	0x3d190565	0.03735866
163	0x3e4017cd	0.1875908
164	0xbc73db66	-0.014883852
165	0xbe0f0af1	-0.13969018
166	0xbe39ce87	-0.1814519
167	0xbdae53d8	-0.08512086
168	0x3d6861a1	0.05673373
169	0xbdd1578e	-0.10221778
170	0xbda7aa85	-0.08186821
171	0xbd9343ca	-0.07190664
172	0xbe120c03	-0.14262395
173	0xbe2aa7d7	-0.16665588
174	0x3dbfdfff	0.09368896
175	0xbdad5aae	-0.084645614
176	0x3cbaeec8	0.022818938
177	0xbe5f8fc6	-0.21832189
178	0x3d08e134	0.033417895
179	0xbd3da489	-0.04629949
180	0xbe8c7e00	-0.2743988
181	0xbda84302	-0.08215906
182	0x3da7bd5d	0.08190415
183	0x3e1dac54	0.15397769
184	0xbdc44111	-0.09582723
185	0x3d4ecebe	0.050490133
186	0xbd7daafa	-0.061930634
187	0xbe01a4c0	-0.12660503
188	0x3cdb4ea7	0.026770903
189	0xbe21c5a7	-0.15798055
190	0x3d4b8594	0.049687937
191	0xbdb697cf	-0.08915674
192	0x3e018fc0	0.12652493
193	0xbe3c2196	-0.18372187
194	0x3d9438c0	0.07237387
195	0x3d3dbea2	0.04632438
196	0x3ca44863	0.020054048
197	0x3e0c16de	0.13680598
198	0x3d67c6bd	0.056586016
199	0xbcff2c1f	-0.031148968
200	0xbe58776a	-0.21139303
201	0xbe868a56	-0.26277417
202	0x3d59226d	0.053011347
203	0x3d2a3a01	0.041559223
204	0xbcdb9812	-0.026805911
205	0xbe580076	-0.21093926
206	0x3c93bbad	0.018033827
207	0xbcd59bd7	-0.026075287
208	0xbe57a10b	-0.21057527
209	0x3bbbc604	0.0057303924
210	0x3e26028b	0.16211908
211	0xbd0ec1aa	-0.03485266
212	0xbe1b5a59	-0.15171184
213	0x3cb1ed6e	0.02171966
214	0x3e2034b7	0.15645109
215	0x3e08869d	0.13332601
216	0x3da5a332	0.08087768
217	0xbc8a956b	-0.016916951
218	0x3dac0d8d	0.08401022
219	0xbd5854b1	-0.052815143
220	0x3cb47b2a	0.022031385
221	0x3e5b6f41	0.21429159
222	0x3dd080d5	0.10180823
223	0x3eb08d89	0.34482983
224	0x3d5d3971	0.05400986
225	0xbe22ec25	-0.15910394
226	0xbc877e60	-0.016539752
227	0x3d92d93f	0.07170343
228	0x3e44c16b	0.19214408
229	0xbe022018	-0.12707555
230	0xbd9b7ceb	-0.075921856
231	0xbdb5eb2b	-0.08882745
232	0x3e6eaaa4	0.23307282
233	0xbea753f6	-0.32681245
234	0x3d9ac5d3	0.07557263
235	0x3e240d3b	0.16020672
236	0xbe4d893b	-0.2007188
237	0x3cad08ca	0.021122355
238	0xbd8e9aec	-0.06963143
239	0xbdda1dd8	-0.106502235
240	0xbe987007	-0.2977297
241	0x3c7bd2f2	0.0153701175
242	0x3db69f9f	0.08917164
243	0xbe03e6ed	-0.1288106
244	0xbdefc48e	-0.11707412
245	0xbd21c90d	-0.039498378
246	0x3cb1de2e	0.021712389
247	0xbe81a0fa	-0.25318128
248	0xbe0c84c6	-0.13722524
249	0xbcb1cddb	-0.021704605
250	0xbd5c5bdb	-0.053798538
251	0x3a956d85	0.0011400437
252	0x3d682f03	0.05668546
253	0x3caf1f0c	0.021377109
254	0xbd899ee1	-0.06719757
255	0xbdae97c2	-0.08525039

1.layers.1.0.bias f4 [74]
0	0xbc4dd202	-0.012562277
1	0xbd4b6f3e	-0.049666636
2	0xbcea2ff4	-0.028587319
3	0x3cb05296	0.021523755
4	0xbd1572f7	-0.036486592
5	0xbd6e06f1	-0.05811209
6	0xbc6e68f7	-0.014551393
7	0xbd85a086	-0.06524758
8	0xbdb4c5b2	-0.0882677
9	0xbd644df0	-0.05573839
10	0xbbed2f58	-0.00723831
11	0xbd41cb67	-0.04731312
12	0xbb6d61f5	-0.0036221717
13	0xbdeac4a5	-0.11463288
14	0xbd23a84e	-0.03995543
15	0xbcff421b	-0.031159451
16	0x3780c23f	1.5349242e-05
17	0xbdd3a473	-0.103341006
18	0xba9bee86	-0.0011896647
19	0xbdb1f439	-0.0868916
20	0xbc90eefa	-0.017692078
21	0x3c9e22f4	0.019303776
22	0xbc8a948b	-0.016916534
23	0xbd41e2ad	-0.047335315
24	0xbd92a0be	-0.071595654
25	0xbbeccd21	-0.0072266017
26	0x3c0e73a1	0.00869456
27	0xbd788e8d	-0.060682822
28	0xbcc40ef6	-0.023932915
29	0x3c86fc97	0.016477866
30	0xbdc48cc9	-0.09597165
31	0xbdaff619	-0.08591861
32	0xbd538e66	-0.051649474
33	0xbd37dc9e	-0.04488813
34	0xbd1dba6a	-0.038507856
35	0xbd3d81a4	-0.046266213
36	0xbd86543f	-0.065590374
37	0xbd1dc2c5	-0.038515825
38	0xbd3f6181	-0.046723846
39	0xbd9a4a75	-0.07533733
40	0xbb7af00d	-0.0038290054
41	0xbd721ea3	-0.05911125
42	0xbd1516fe	-0.03639888
43	0xbd19b355	-0.03752454
44	0xbd25d3e3	-0.040485274
45	0xbdab20d5	-0.083558716
46	0xbd4e5906	-0.050377868
47	0xbd508f7d	-0.05091809
48	0xbd7cfda4	-0.061765328
49	0xbd3253e0	-0.04353702
50	0xbd81d69c	-0.063397616
51	0xbd21a8e7	-0.03946772
52	0xbd744efe	-0.059645645
53	0xbd28a40c	-0.041172072
54	0xbcd0900b	-0.02545931
55	0xbd6c8772	-0.05774636
56	0xbd76e1e8	-0.060274035
57	0xbb21ea8c	-0.0024706451
58	0xbd469757	-0.048484173
59	0xbcf4cb67	-0.029882146
60	0xbca1462e	-0.019686785
61	0xbcdb546f	-0.02677366
62	0xbd2fd0cb	-0.04292373
63	0xbdc1f5de	-0.094707236
64	0xbd83920c	-0.064243406
65	0xbd8a329d	-0.06747935
66	0xbd4363e4	-0.047702685
67	0xbdb3cb9b	-0.08779069
68	0xbd3866ce	-0.045019917
69	0xbd1c3604	-0.03813745
70	0x3c777035	0.015102436
71	0xbd3ec6e4	-0.046576396
72	0xbd317f46	-0.043334268
73	0xbd3cfa0f	-0.046136912

1.layers.2.0.weight f4 [74, 222]
0	0xbcc5bec2	-0.024138812
1	0xbd730d60	-0.059338927
2	0x3cb4ad2f	0.022055237
3	0xbd53df12	-0.05172641
4	0xbe15e2d0	-0.14637303
5	0xbd714783	-0.05890609
6	0xbd9355bc	-0.07194087
7	0xbcec797e	-0.028866526
8	0xbe2b543d	-0.16731353
9	0xbe1976f5	-0.14986785
10	0x3cfceeb5	0.030875543
11	0xbdd4d7f0	-0.10392749
12	0x3cd27bf7	0.025693877
13	0xbcca3736	-0.02468453
14	0xbd137d8c	-0.036008403
15	0x3c988aac	0.018620811
16	0x3cc1b653	0.02364651
17	0x3c4e200c	0.012580883
18	0xbde43023	-0.11141994
19	0xbd9f16aa	-0.07767995
20	0xbe2837c6	-0.16427526
21	0xbc24015a	-0.010010088
22	0xbdc902e0	-0.098150015
23	0x3de26844	0.11055043
24	0x3d519dcd	0.05117588
25	0xbe11dd47	-0.14244567
26	0xbd3faf85	-0.046798248
27	0xbd3d52d5	-0.046221573
28	0x3d502db9	0.050824855
29	0xbdb03390	-0.08603585
30	0xbb721c3a	-0.0036943094
31	0xbd34a4da	-0.044102527
32	0x3dcff848	0.10154778
33	0x3e6b8967	0.23001634
34	0xbe3e0f26	-0.18560466
35	0xbc86b874	-0.016445376
36	0x3e64d460	0.2234664
37	0xbe782716	-0.2423366
38	0xbda26ecb	-0.07931288
39	0xbe2ed40f	-0.17073081
40	0x3dae59eb	0.08513244
41	0xbdb5e55d	-0.08881638
42	0xbde309b5	-0.11085836
43	0x3e2a983f	0.1665964
44	0x3d7fc62b	0.062444847
45	0xbd462788	-0.048377544
46	0xbe25ea06	-0.16202554
47	0x3d9675b1	0.073466666
48	0xbb9c4a6b	-0.0047696135
49	0x3dbef5c8	0.09324223
50	0xbd1f0339	-0.038821433
51	0xbdf0faf0	-0.117666125
52	0xbe4165a9	-0.18886437
53	0x3da234e1	0.07920242
54	0x3d816624	0.0631831
55	0x3d915c6a	0.07097705
56	0x3e5725c1	0.21010496
57	0xbda872e1	-0.082250364
58	0x3ddd569c	0.10807535
59	0x3d59da6a	0.05318681
60	0x3e122ce0	0.14274931
61	0xbe48d943	-0.19614129
62	0xbe2c9d5f	-0.16856907
63	0xbde6a806	-0.11262517
64	0xbd66c03a	-0.056335665
65	0xbe1e25a9	-0.15444054
66	0x3c9ead67	0.019369794
67	0xbd387c7d	-0.045040596
68	0x3d1177a4	0.03551449
69	0x3de43074	0.11142054
70	0x3dfa587a	0.12223907
71	0xbd0bc06d	-0.03411906
72	0xbd178bb3	-0.036998462
73	0xbd688be8	-0.05677405
74	0xbe3e8638	-0.18605888
75	0x3d7cc497	0.06171092
76	0x3da9702f	0.082733504
77	0x3e0e7755	0.13912709
78	0xbd784e12	-0.06062133
79	0x3d9aea50	0.07564223
80	0xbcdd6f74	-0.027030684
81	0x3d988870	0.074478984
82	0x3e038660	0.12844229
83	0xbdeab49a	-0.11460228
84	0x3dab6388	0.083685935
85	0xbdb03e4f	-0.086056344
86	0x3d999dad	0.075007774
87	0xbe319329	-0.17341293
88	0x3dfd1026	0.12356596
89	0xbe0b51db	-0.13605444
90	0xbd19e489	-0.037571464
91	0x3bbd0558	0.0057684593
92	0xbb4894a8	-0.0030606184
93	0xbd16903b	-0.036758643
94	0xbe32f020	-0.17474413
95	0xbdcb5995	-0.09929196
96	0xbde090ab	-0.10965093
97	0xbe2528fb	-0.16128914
98	0xbd27c8ed	-0.040963102
99	0xbd67ce3d	-0.05659317
100	0x3dbe1ad3	0.0928246
101	0xbd1341f7	-0.03595158
102	0x3d4878d6	0.048943363
103	0xbde8008b	-0.113282286
104	0x3c1122d8	0.008858405
105	0x3e31d75b	0.17367308
106	0x3e009a5b	0.12558882
107	0x3d9b1161	0.07571674
108	0xbdba3cf2	-0.09093656
109	0x3dd76996	0.10518186
110	0xbdc2a177	-0.09503453
111	0x3d064eb1	0.03278989
112	0xbdd332fe	-0.1031246
113	0xbc87b13f	-0.01656401
114	0xbd0f7081	-0.0350194
115	0xbde4a0a6	-0.11163454
116	0x3d9b80e8	0.07592946
117	0xbe04e5ec	-0.12978333
118	0x3ce71fe0	0.028213441
119	0xbd032d6a	-0.032025732
120	0xbdaf9107	-0.08572584
121	0xbe379a00	-0.1792984
122	0xbceb6e91	-0.028739246
123	0xbcbad006	-0.022804271
124	0xbde39f86	-0.11114411
125	0x3c00dbc4	0.007864896
126	0xbdfc2374	-0.1231145
127	0x3d2db1a7	0.04240575
128	0x3dada3c5	0.08478502
129	0x3d9cc16f	0.07654082
130	0xbd9573e1	-0.07297493
131	0xbdf3a8bc	-0.11897418
132	0x3daee7b1	0.085402854
133	0x3d87f848	0.06639153
134	0x3d96f481	0.07370854
135	0x3e40c035	0.18823321
136	0x3c3bfe2d	0.011474174
137	0xbbc4d6c6	-0.0060070483
138	0x3e1ad9ca	0.15122142
139	0x3b3d8909	0.002892079
140	0xbd756f6a	-0.059920706
141	0xbd075a73	-0.033045243
142	0xbca7399a	-0.020413209
143	0x3d1b7c51	0.037960354
144	0x3da3cd11	0.07998098
145	0x3d9288d7	0.071550064
146	0xbc7b97a8	-0.015355982
147	0x3e156be8	0.14591944
148	0xbe2a2949	-0.16617312
149	0xbe1b87a6	-0.15188465
150	0xbe6ea00d	-0.23303242
151	0xbe5825a5	-0.2110811
152	0xbd7c962d	-0.061666656
153	0xbd8d9f0e	-0.06915103
154	0xbd19ed9f	-0.03758013
155	0xbe473243	-0.19452767
156	0x3b5ecadc	0.0033995425
157	0xbd3bde5c	-0.045866355
158	0x3d6216f9	0.05519769
159	0x3d9d56af	0.07682549
160	0xbe0d9f4e	-0.13830301
161	0xba0dd93c	-0.00054110936
162	0x3cef233e	0.02919161
163	0x3c319ae4	0.010840151
164	0xbcd6296e	-0.026142802
165	0xbe21fafe	-0.15818402
166	0xbe7a33a7	-0.24433766
167	0x3dbf137f	0.093298905
168	0xbdf12169	-0.117739506
169	0xbd61c73b	-0.05512164
170	0x3e0ea803	0.13931279
171	0x3d8db6ca	0.0691963
172	0x3ced5b17	0.0289741
173	0x3de41f37	0.11138766
174	0xbec26cab	-0.37973532
175	0x3e490206	0.19629678
176	0x3e076369	0.13221516
177	0xbcede9d3	-0.02904216
178	0xbe3b975d	-0.1831946
179	0xbccca48a	-0.024980802
180	0xbd90192c	-0.07036051
181	0x3d8fb06a	0.0701607
182	0xbc665923	-0.014059338
183	0x3cd8fc1e	0.026487406
184	0xbded417c	-0.11584756
185	0xbd9ad06d	-0.07559285
186	0x3d99c79f	0.07508778
187	0x3da53c83	0.08068182
188	0x3bc4b7aa	0.00600334
189	0x3db6c3b3	0.089240454
190	0xbd397f36	-0.045287333
191	0xbc46234f	-0.012093379
192	0x3e25f4fa	0.16206732
193	0x3d8a0a90	0.06740296
194	0x3da5f735	0.081037916
195	0x3bc60b59	0.006043833
196	0xbc2257ec	-0.0099086575
197	0xbdf562ff	-0.11981773
198	0xbc4b7167	-0.012417174
199	0xbe371773	-0.17880039
200	0xbdcb4751	-0.09925712
201	0x3d1be287	0.03805783
202	0x3d2be846	0.04196956
203	0x3db382bd	0.08765171
204	0xbddace7d	-0.10683916
205	0x3d3535c9	0.044240747
206	0x3df40854	0.11915651
207	0xbd3b31c4	-0.045701757
208	0x3ccd91c1	0.025093915
209	0x3cca2601	0.024676325
210	0xbda3d4ef	-0.07999598
211	0x3c08f0ab	0.008358161
212	0xbd846197	-0.06463926
213	0xbc58e25e	-0.013237564
214	0xbde79663	-0.11307981
215	0xbd2efe28	-0.04272285
216	0xbdd5a5a5	-0.10431985
217	0xbbc676c4	-0.0060566384
218	0x3c135c37	0.008994154
219	0xbdecd7d0	-0.115646005
220	0xbdac9c45	-0.084282435
221	0xbd990a0c	-0.074726194
222	0xbdea68c1	-0.114457615
223	0xbd404caa	-0.046948113
224	0x3db357f2	0.087570086
225	0x3db75e74	0.089535624
226	0x3d0d977a	0.034568287
227	0x3d0bf5da	0.03417001
228	0xbe021f3e	-0.1270723
229	0x3d0bea84	0.0341592
230	0x3decf5ab	0.11570295
231	0x3d870707	0.06593137
232	0x3c180002	0.009277346
233	0xbbab7fee	-0.0052337563
234	0xbcbe5459	-0.02323358
235	0x3caf2f46	0.021384846
236	0x3e43169e	0.19051597
237	0x3e1797db	0.14804022
238	0x3d11ea55	0.035623867
239	0xbdae80ef	-0.08520686
240	0xbd226e77	-0.03965613
241	0x3e5ab3c1	0.21357633
242	0xbafbbdb9	-0.0019206322
243	0x3d37e113	0.044892382
244	0x3d8cb68e	0.06870757
245	0x3c242f2d	0.010021013
246	0x3d9adf4c	0.07562122
247	0x3dbbdc35	0.091728605
248	0xbd1e51f7	-0.038652387
249	0x3de76475	0.112984575
250	0xbc0e68f2	-0.008692013
251	0x3ded2ee5	0.1158121
252	0xbe1a44af	-0.15065263
253	0x3dcdb851	0.10044921
254	0xbcfbd315	-0.0307403
255	0x3c9bcd68	0.019018844

1.layers.2.0.bias f4 [74]
0	0xbbd6d457	-0.0065560746
1	0xbd2e31a4	-0.04252781
2	0xbc311e7c	-0.010810491
3	0xbd4e08d6	-0.050301395
4	0xbd79d322	-0.060992368
5	0xbd2d4a3a	-0.042307116
6	0xbc9a66a7	-0.018847777
7	0xbcc4aea6	-0.02400906
8	0xbc9b6e21	-0.018973412
9	0xbd285fd7	-0.041107025
10	0xbcbd2e6a	-0.023093421
11	0xbc078f00	-0.00827384
12	0xbd0b3f43	-0.033995878
13	0xbc842685	-0.016131649
14	0xbd864bdf	-0.0655744
15	0xbdacb5c5	-0.08433107
16	0xbce8a532	-0.028399084
17	0xbd011c03	-0.031520855
18	0xbb229e96	-0.0024813763
19	0xbcca4f82	-0.024696115
20	0xbc1e70b5	-0.009670426
21	0xbcc80bd4	-0.024419703
22	0xbcbb8807	-0.022892011
23	0xbd8bc402	-0.06824495
24	0xbc2e7eef	-0.0106503805
25	0xbd913a32	-0.07091178
26	0xbd66a12e	-0.056306057
27	0xbd02fdbc	-0.03198026
28	0xbd8cf704	-0.06883052
29	0xbd7366f8	-0.05942437
30	0xbdb503e0	-0.0883863
31	0xbcfb7fa2	-0.030700509
32	0xbd0f32c0	-0.03496051
33	0xbc99c47e	-0.018770453
34	0xbd602c95	-0.054730017
35	0xbd8a64aa	-0.067574814
36	0xbd3113fb	-0.043231945
37	0xbd2fc1e1	-0.042909507
38	0x3c1f86a0	0.009736687
39	0xbcd68bbc	-0.026189677
40	0xbd78e157	-0.060761776
41	0x3b6154cc	0.0034382818
42	0xbd1be808	-0.03806308
43	0xbd49a638	-0.049230784
44	0xbd95d712	-0.07316412
45	0xbbf71069	-0.007539798
46	0xbd41a7b7	-0.047279086
47	0xbc70348a	-0.014660964
48	0xbc6de705	-0.014520411
49	0xbb70e346	-0.003675656
50	0xbda88ca3	-0.08229949
51	0xbd1d19cf	-0.03835469
52	0xbd4659c5	-0.048425455
53	0xbd846d56	-0.06466167
54	0x3cb0df55	0.021590868
55	0xbdc87d76	-0.09789555
56	0xbd2ec070	-0.04266399
57	0xbd31bff1	-0.04339594
58	0xbd9ad2b7	-0.07559722
59	0xbcd1234e	-0.02552953
60	0xbd933fa7	-0.07189875
61	0xbd0fe630	-0.035131633
62	0xbd4c6c40	-0.049907923
63	0xbd009fca	-0.031402387
64	0xbc8b3b6c	-0.016996108
65	0x3ac30d80	0.0014881343
66	0xbdb3ae44	-0.08773473
67	0xbd84aa50	-0.06477797
68	0xbcf78f84	-0.0302198
69	0xbd05c968	-0.03266278
70	0xbd9b176e	-0.07572828
71	0xbce47452	-0.027887497
72	0xbdce5a74	-0.10075846
73	0xbc640630	-0.013917491

1.layers.3.0.weight f4 [74, 296]
0	0xbd92e945	-0.07173399
1	0x3dd89c4d	0.10576687
2	0xbc789caa	-0.01517407
3	0xbdd4dc1d	-0.10393546
4	0xbdbcef2f	-0.09225308
5	0x3d40d3b4	0.047076896
6	0xbce4ecbd	-0.027944917
7	0x3ddcd698	0.10783118
8	0x3d0ec7fc	0.03485869
9	0xbe3ce228	-0.18445647
10	0x3e6803f8	0.22657764
11	0xbcf78117	-0.030212922
12	0x3dfcb99d	0.123400904
13	0xbb9e0ea9	-0.004823525
14	0x3c203a98	0.009779595
15	0xbe249a8c	-0.1607458
16	0x3e209465	0.15681608
17	0xbd7c3f87	-0.061584022
18	0x3db44baf	0.08803498
19	0xbe07765c	-0.13228744
20	0xbc271586	-0.010198003
21	0x3e31f0f8	0.17377079
22	0xbd53cdd3	-0.05170996
23	0xbc8e2f5d	-0.017356569
24	0x3d609455	0.05482896
25	0xbd528849	-0.051399503
26	0xbd535a12	-0.05159957
27	0xbd6aca44	-0.0573218
28	0xbc0504bf	-0.008118807
29	0xbd2ee855	-0.042702038
30	0xbe33bc53	-0.17552309
31	0x3df39863	0.118943
32	0xbb39eac7	-0.0028368698
33	0x3d46bc9d	0.04851972
34	0x3dade23b	0.08490416
35	0x3d5cc87a	0.053902127
36	0x3e25fa43	0.16208749
37	0x3d8065db	0.062694274
38	0xbdca6ef5	-0.098844446
39	0xbc1c0610	-0.00952293
40	0x3e2a6181	0.16638757
41	0x3b8d8c23	0.004319684
42	0xbdfe77f1	-0.12425221
43	0x3da765b3	0.081736945
44	0x3dd13e9c	0.1021702
45	0x3ae91845	0.0017783722
46	0x3d92d38a	0.07169254
47	0x3d37ea24	0.04490103
48	0xbe11621d	-0.14197583
49	0x3d3bf92f	0.045891937
50	0x3d59dbc3	0.053188097
51	0xbd13a745	-0.036048193
52	0x3d09ac82	0.033611782
53	0xbc78551f	-0.015157013
54	0xbd4dab7e	-0.050212376
55	0xbe06a47a	-0.1314868
56	0x3dcaf966	0.0991085
57	0x3d96c1c0	0.07361174
58	0xba4967eb	-0.00076830265
59	0x3d833b5b	0.064078055
60	0xbc9ae055	-0.018905798
61	0xbe0222be	-0.12708566
62	0x3c1bcec5	0.009509747
63	0x3bb36689	0.0054748696
64	0x3d3e6a50	0.046488106
65	0x3d93679e	0.07197498
66	0x3e0d6465	0.13807829
67	0x3e16e630	0.14736247
68	0xbccdb766	-0.025111865
69	0x3da26de4	0.07931116
70	0x3dee32b3	0.11630764
71	0x3d8d4d3c	0.06899497
72	0x3b16e42a	0.002302418
73	0x3e6a2033	0.22863846
74	0xbe0a9df3	-0.13536815
75	0x3e5be532	0.2147415
76	0x3d40cfce	0.047073178
77	0x3dad303c	0.084564656
78	0xbd00f37e	-0.031482212
79	0xbb5fc51c	-0.0034144586
80	0x3c61ab0b	0.01377369
81	0xbd10f020	-0.03538525
82	0xbdf4954f	-0.11942541
83	0xbe0cc769	-0.13747944
84	0xbd78ab0f	-0.06071001
85	0xbd446923	-0.04795183
86	0xbdc97847	-0.09837394
87	0xbc6b261f	-0.0143523505
88	0x3d4ce920	0.050027013
89	0xbdf3e5a7	-0.11909037
90	0xbe14a40c	-0.14515704
91	0x3da998fa	0.08281131
92	0xbd16d77d	-0.0368266
93	0x3da8ad16	0.082361385
94	0xbe04b785	-0.12960632
95	0xbc9bb9cf	-0.019009499
96	0xbdae3131	-0.08505476
97	0x3d8103d0	0.06299555
98	0x3d959b04	0.073049575
99	0xbd1118d4	-0.03542407
100	0x3ca5ab02	0.020223144
101	0xbc9f15c9	-0.019419568
102	0xbcf602c7	-0.030030621
103	0x3d6101f5	0.054933507
104	0xbd3e462d	-0.046453644
105	0xbd0dc6ee	-0.034613542
106	0xbcce9157	-0.025215788
107	0x3d6af007	0.057357814
108	0xbd689460	-0.056782126
109	0x3baa309b	0.0051937825
110	0xbe2476e3	-0.16060977
111	0xbd742f0d	-0.059615184
112	0x3d943a14	0.0723764
113	0xbcab88cd	-0.020939255
114	0xbe0a56f3	-0.13509731
115	0xbd4493de	-0.04799258
116	0xbdaa5826	-0.08317594
117	0x3e63e2a8	0.22254431
118	0x3e181907	0.14853297
119	0xbc8f61c5	-0.017502675
120	0xbc9f13bf	-0.019418595
121	0xbc1c6dd5	-0.00954767
122	0xbdbcbbf4	-0.09215537
123	0x3da2c9b5	0.07948629
124	0xbd908d8d	-0.07058249
125	0xbd23d750	-0.04000026
126	0x3d819522	0.06327273
127	0x3d0f8b86	0.03504517
128	0x3deeb8cd	0.11656342
129	0xbc2be34c	-0.0104912035
130	0xbcaaa130	-0.020828813
131	0xbdeb2bdf	-0.11482977
132	0x3de5e864	0.112259656
133	0x3c5066ae	0.012719793
134	0xbcde355d	-0.027125055
135	0x3da1f032	0.07907142
136	0x3d509c47	0.050930288
137	0x3d764f9e	0.060134523
138	0x3db56423	0.0885699
139	0xbd8c1450	-0.06839812
140	0x3db6d3a4	0.08927086
141	0x3e08a679	0.13344754
142	0x3c923ac6	0.017850291
143	0xbd8b93ba	-0.06815286
144	0xbcb9335f	-0.022607503
145	0xbdb64872	-0.089005366
146	0x3df38b26	0.11891775
147	0x3d6f7733	0.058463287
148	0x3da39cc3	0.07988884
149	0xbd663f5d	-0.05621277
150	0xbd869919	-0.0657217
151	0xbe5dfa21	-0.21677448
152	0x3c467449	0.0121126855
153	0x3e1021f3	0.1407545
154	0xbe8665d2	-0.26249558
155	0x3ddad685	0.106854476
156	0x3df27bbd	0.118400075
157	0x3c6e3eb9	0.014541321
158	0x3e14b4b1	0.14522053
159	0x3dc9e93f	0.09858941
160	0xbc2ec7f9	-0.010667794
161	0x3c82aeea	0.015952546
162	0x3dbcdfc2	0.09222366
163	0xbbd256b8	-0.006419029
164	0x3dd9c4a9	0.10633213
165	0x3e0bf75a	0.13668576
166	0xbd13faea	-0.036127962
167	0x3da3adb5	0.07992116
168	0xbd8137c9	-0.06309468
169	0x3dbb6dbc	0.091517895
170	0xbd50e6dc	-0.051001415
171	0x3d9cfb28	0.07665092
172	0xbdc947ea	-0.0982817
173	0xbd83c93e	-0.06434868
174	0x3daa7f16	0.08325021
175	0xbd362f0a	-0.044478454
176	0x3da311c4	0.07962373
177	0xbded0c9b	-0.1157467
178	0x3de4f5b0	0.11179674
179	0xbc73d832	-0.014883088
180	0xbdd90d56	-0.10598247
181	0x3b439963	0.0029846064
182	0x3bd1fea2	0.0064085284
183	0x3d6c9dea	0.057767786
184	0xbb0204ad	-0.0019839213
185	0x3d1bada3	0.03800739
186	0xbd4aaac2	-0.049479254
187	0x3e0b70e5	0.13617285
188	0x3da765fb	0.08173748
189	0xbdcdde76	-0.10052197
190	0xbca98b5b	-0.020696333
191	0x3dbc7110	0.092012525
192	0x3dad2ceb	0.08455833
193	0xbb329794	-0.0027250992
194	0x3d03a4d5	0.032139618
195	0xbe082ab5	-0.13297541
196	0x3c6a7892	0.014310973
197	0x3be57062	0.0070019225
198	0xbdd114ad	-0.10209022
199	0xbd2e884c	-0.04261045
200	0xbce42867	-0.027851297
201	0xbd816e06	-0.063198134
202	0xbc052310	-0.008126035
203	0x3d0dbdd8	0.034604877
204	0x3c0c652a	0.008569041
205	0x3e09edcd	0.1346962
206	0xbb49bfb3	-0.0030784428
207	0x3dea381e	0.11436485
208	0x3c0ab8ba	0.008466894
209	0x3db025ea	0.086009815
210	0x3e01ed59	0.12688197
211	0x3d5bb9fe	0.053644173
212	0x3d8a8636	0.0676388
213	0xbd76d4a4	-0.060261384
214	0x3da46dd4	0.080287606
215	0x3d9a5cfe	0.07537268
216	0xbd0a87c7	-0.033820894
217	0xbdd27218	-0.10275668
218	0xbcbe834c	-0.023255967
219	0x3e0f4f4c	0.13995093
220	0x3cc0bda3	0.023527926
221	0x3dc33475	0.0953149
222	0xbd85a692	-0.065259114
223	0x3e5b8b46	0.21439847
224	0xbcef7bd3	-0.029233849
225	0xbd095e57	-0.033537235
226	0xbdd0c58f	-0.10193931
227	0x3dee8fb5	0.11648504
228	0xbe1e52df	-0.154613
229	0xbcdb8b76	-0.026799899
230	0x3ccb7863	0.024837678
231	0x3d215532	0.03938789
232	0x3d18145c	0.03712879
233	0xbe3b7e6d	-0.18309946
234	0x3d3c95c1	0.046041254
235	0xbcff0e90	-0.031134874
236	0x3d596c5c	0.053081855
237	0x3d64e600	0.055883408
238	0x3e0de9e6	0.13858756
239	0xbe2798f9	-0.16366948
240	0x3d643a0c	0.05571942
241	0x3dc32294	0.0952808
242	0x3e1124b4	0.14174157
243	0x3d7352b6	0.05940505
244	0x3d2cc349	0.042178426
245	0x3d1b8928	0.0379726
246	0xbd2ebc54	-0.042660072
247	0x3dd4be2a	0.103878334
248	0xbc929a93	-0.017895972
249	0xbd29a517	-0.041417208
250	0x3d9072e9	0.070531674
251	0xbd54a987	-0.051919486
252	0xbd7b30e1	-0.06132591
253	0xbe21048c	-0.15724391
254	0x3dbd0902	0.09230234
255	0xbda04cfc	-0.078271836

1.layers.3.0.bias f4 [74]
0	0xbd3df42c	-0.04637544
1	0xbd2fa2c1	-0.042879824
2	0xbcc30c39	-0.02380954
3	0xbd05618c	-0.03256373
4	0xbc8f9f8c	-0.017532133
5	0xbd39bc34	-0.0453455
6	0xbdb9939f	-0.090613596
7	0xbd598f20	-0.05311501
8	0xbb99bf2a	-0.004691978
9	0xbd0806d6	-0.033209644
10	0xbca8e2ee	-0.020616021
11	0xbcfcbb9a	-0.030851174
12	0xbd79778a	-0.060905017
13	0xbd7d237e	-0.061801426
14	0xbd1b20e5	-0.037873168
15	0xbd0b7d31	-0.03405494
16	0xbd7180eb	-0.058960836
17	0xbc81f697	-0.015864654
18	0xbce98f4d	-0.028510714
19	0xbd938cf6	-0.072046205
20	0xbce5c888	-0.028049722
21	0xbc4ae7b8	-0.012384348
22	0xbd1c135d	-0.038104404
23	0x3b20f069	0.0024557358
24	0xbcda0795	-0.026614944
25	0xbcbb42ec	-0.02285906
26	0xbc2ec91b	-0.0106680645
27	0xbbb4de84	-0.00551969
28	0xbd020ce3	-0.03175057
29	0xbd9e097b	-0.07716652
30	0xbd6be492	-0.05759103
31	0xbc48c4ee	-0.012253983
32	0xbd381fd6	-0.044952236
33	0xbb9e3c9e	-0.0048290035
34	0xbd01f0b6	-0.0317237
35	0xbd1d0e54	-0.038343742
36	0xbd0c8c86	-0.0343137
37	0xbc6463e3	-0.0139398305
38	0xba22547b	-0.0006192398
39	0xbd84ecfe	-0.06490515
40	0xbd644f27	-0.055739548
41	0xbcf20eee	-0.029548135
42	0xbd5cc116	-0.05389508
43	0xbc57b18b	-0.013164888
44	0xbd1e3368	-0.038623244
45	0xbcde6e68	-0.027152255
46	0xba186ab7	-0.00058142416
47	0xbc9632cd	-0.01833477
48	0xbd1d56cc	-0.038412854
49	0xbd550b3d	-0.05201267
50	0xbd9eb5c1	-0.077495106
51	0xbabbba37	-0.0014322464
52	0x3c1d5d9a	0.009604836
53	0xbd7aeb5d	-0.061259616
54	0xbcb29a5a	-0.021802116
55	0xbd549401	-0.05189896
56	0xbd3259f2	-0.04354281
57	0xbda1923b	-0.078892194
58	0xbd02b307	-0.031909015
59	0xbcbfda14	-0.023419417
60	0xbcb4ecd2	-0.022085581
61	0xbd8c538e	-0.06851874
62	0xbd2ab5ee	-0.041677408
63	0xbc8222f2	-0.015885804
64	0xbd09d195	-0.03364714
65	0xbd81b7b1	-0.063338645
66	0xbc897ea1	-0.016784014
67	0xbd2693fa	-0.040668465
68	0xbd0f5c1a	-0.034999944
69	0xbdd254b5	-0.10270063
70	0xbccccd06	-0.025000107
71	0xbd289d28	-0.0411655
72	0xbd0da80b	-0.034584086
73	0xbc2b4315	-0.010453005

1.layers.4.0.weight f4 [74, 370]
0	0x3c6c2fdd	0.014415708
1	0x3df391e9	0.118930645
2	0x3e03d83b	0.12875454
3	0x3df0ad82	0.11751844
4	0x3dab23b4	0.08356419
5	0x3d26d930	0.04073447
6	0x3d340f54	0.04395993
7	0xbc6ed9fb	-0.014578338
8	0xbe421530	-0.18953395
9	0xbd72a7ee	-0.05924218
10	0x3d8f9329	0.070104904
11	0x3cba341b	0.022729924
12	0xbcb278ec	-0.021786176
13	0xbcbf3950	-0.023342758
14	0xbd70163d	-0.058614958
15	0x3e628161	0.22119667
16	0xbc05776b	-0.008146147
17	0x3da43b55	0.08019129
18	0x3cd2ff5b	0.025756529
19	0xbd059a5f	-0.032617923
20	0x3d9a8c0c	0.07546243
21	0x3d993054	0.07479921
22	0xbd94a0e7	-0.07257252
23	0xbad9eed1	-0.0016626959
24	0xbd7c679b	-0.061622243
25	0xbcc6be04	-0.024260528
26	0x3cc320cc	0.02381935
27	0xbdbd3bf2	-0.09239949
28	0xbd040810	-0.03223425
29	0xbc4f7027	-0.012661017
30	0x3dcb8846	0.099381015
31	0xbcdc86fe	-0.026919838
32	0xbd838ca7	-0.06423312
33	0x3d71fe46	0.059080385
34	0xbc114c76	-0.008868327
35	0x3e0f1f9b	0.139769
36	0xbd162180	-0.03665304
37	0xbda8b11f	-0.08236908
38	0xba17cd80	-0.0005790815
39	0xbe191f5b	-0.14953367
40	0xbdc547ab	-0.0963281
41	0x3d46bfb1	0.048522655
42	0x3d2b5387	0.041827705
43	0xbbe8002f	-0.0070801
44	0x3d91ee7d	0.07125566
45	0x3d0b7f04	0.03405668
46	0x3e217526	0.15767345
47	0xbda02e90	-0.07821381
48	0xbd9790dd	-0.07400677
49	0x3c729e70	0.014808282
50	0xbe0e7bf3	-0.1391447
51	0x3dd5d7f2	0.10441579
52	0x3cf9f8e1	0.030514183
53	0x3cbae72c	0.02281531
54	0xbdd7b327	-0.105322175
55	0xbcdeba5d	-0.027188474
56	0xbcddae74	-0.027060725
57	0xb9e64c18	-0.00043925713
58	0xbcc47335	-0.023980716
59	0x3dd62c0f	0.10457622
60	0x3e853f6c	0.2602495
61	0xbd30126a	-0.04298631
62	0xbe565f58	-0.20934808
63	0x3c2045b3	0.009782243
64	0x3dabf2b4	0.08395901
65	0xbcd493fe	-0.025949474
66	0xbd0396ff	-0.032126423
67	0xbdb97e0d	-0.090572454
68	0x3c603713	0.013685006
69	0x3c3b4980	0.011431098
70	0xbcc96fca	-0.024589438
71	0x3de938fd	0.11387823
72	0xbd900200	-0.070316315
73	0xbc558f2b	-0.013034622
74	0xbc7845fd	-0.015153405
75	0x3d6f6773	0.058448266
76	0xbd7abc7d	-0.061214913
77	0xbd90131d	-0.070348956
78	0x3de8086b	0.113297306
79	0xbcdc6d82	-0.026907686
80	0xbc51c088	-0.012802251
81	0xbd8756b4	-0.06608334
82	0xbdbf3ba8	-0.093375504
83	0x3c6eb4b4	0.01456945
84	0x3cfe2998	0.031025693
85	0x3d6f5f6f	0.058440622
86	0xbc06117f	-0.008182882
87	0x3d4cc60e	0.049993567
88	0xbbb598c2	-0.005541892
89	0x3d64489a	0.0557333
90	0x3d121638	0.03566572
91	0x3d64a435	0.055820663
92	0x3cdd810d	0.027039075
93	0x3c0a56f6	0.008443585
94	0xbd11862d	-0.03552835
95	0x3e2e7173	0.17035465
96	0x3d11dec3	0.035612833
97	0x3d452429	0.048130188
98	0xbde43c26	-0.11144285
99	0x3ca4a49a	0.02009802
100	0xbd2fc626	-0.04291358
101	0xbdbc6230	-0.09198415
102	0x3c89c13f	0.01681578
103	0xbe10cb66	-0.1414009
104	0xbd522337	-0.051303115
105	0xbe224715	-0.15847428
106	0xbd502ce9	-0.05082408
107	0xbd7fa31d	-0.062411416
108	0xbe42fb20	-0.19041109
109	0xbd3a22fb	-0.045443516
110	0x3d611b14	0.054957464
111	0x3b659f46	0.0035037561
112	0xbd291859	-0.041282985
113	0x3d0fc7ad	0.035102535
114	0x3df2677a	0.11836143
115	0xbc04b04d	-0.008098674
116	0x3a50fa29	0.0007971847
117	0xbd3908cc	-0.045174405
118	0xbc03b7d2	-0.008039432
119	0x3dc3c846	0.095596835
120	0x3ce25479	0.02762817
121	0xbd660f11	-0.056166712
122	0x3d936800	0.07197571
123	0x3e81ad86	0.253277
124	0xbde7a4d1	-0.11310733
125	0x3dad1997	0.084521465
126	0xbe378071	-0.1792009
127	0xbc43f1cf	-0.011959507
128	0xbccc5eea	-0.024947602
129	0x3c9bb7e5	0.019008586
130	0xbb718ca8	-0.003685752
131	0xbe137405	-0.14399727
132	0xbc9199e9	-0.017773585
133	0xbd162bea	-0.036662973
134	0xbe00800d	-0.12548847
135	0x3c89eca6	0.016836476
136	0x3d7a6418	0.061130613
137	0x3d076aa7	0.033060696
138	0xbdb04f36	-0.08608858
139	0xbde7c376	-0.11316578
140	0xbd84077f	-0.06446742
141	0xbd879c48	-0.06621605
142	0xbc91f76a	-0.017818172
143	0xbd8aca7b	-0.06776901
144	0x3ccfc156	0.025360744
145	0xbd60d229	-0.054887924
146	0xba5ad208	-0.0008347337
147	0xbce7f135	-0.028313259
148	0x3d97a4ab	0.07404455
149	0xbbef54a9	-0.0073037934
150	0xbd864dd5	-0.06557814
151	0x3e4b5fbc	0.19860739
152	0x3c93d222	0.018044535
153	0x3bbf1fb2	0.005832636
154	0x3d201e3f	0.039091345
155	0xbd0fb99b	-0.035089117
156	0xbe028836	-0.12747273
157	0xbd8de025	-0.06927518
158	0x3e31410a	0.17309967
159	0xbd5f93e7	-0.05458441
160	0xbd997709	-0.07493407
161	0xbdae3208	-0.085056365
162	0xbd1f3488	-0.038868457
163	0xbd0ed7cb	-0.034873765
164	0x3c0a4568	0.008439399
165	0xbde7c47a	-0.11316772
166	0x3db0f0a7	0.08639651
167	0x3cf49101	0.0298543
168	0xbd83b4b9	-0.064309545
169	0xbdb4fa92	-0.08836855
170	0x3d319162	0.04335154
171	0xbc8d4b83	-0.01724792
172	0xbdb8973d	-0.090132214
173	0xbda93034	-0.08261147
174	0x3cc1c442	0.023653153
175	0x3a23c83c	0.0006247794
176	0x3d54aca9	0.051922474
177	0xbde87c95	-0.11351887
178	0x3e110186	0.14160737
179	0xbc976feb	-0.018485984
180	0xbd8242c3	-0.0636039
181	0xbcff17dc	-0.031139307
182	0xbcbd31bd	-0.023095006
183	0x3d5d139c	0.05397378
184	0x3be4f291	0.006986924
185	0xbd80ce4c	-0.06289348
186	0xbd2b3661	-0.041799907
187	0x3dd72b92	0.10506357
188	0xbd4ee02d	-0.05050676
189	0x3d56d0b3	0.052445125
190	0x3d70a1bb	0.05874799
191	0xbdff7a63	-0.12474515
192	0xbd8d8a6a	-0.06911166
193	0x3d190ff9	0.03736875
194	0x3de5043a	0.11182447
195	0x3cf0750d	0.02935269
196	0xbdddb50b	-0.10825547
197	0x3cab8cc7	0.020941151
198	0x3caf52f9	0.02140187
199	0xbd08215c	-0.03323494
200	0xbca2b8eb	-0.019863566
201	0x3da3d280	0.07999134
202	0x3cf8080d	0.030277276
203	0x3ce92ae0	0.028462827
204	0xbd4c345f	-0.049854632
205	0xbccae186	-0.024765741
206	0xbe201cf3	-0.15636043
207	0xbd35912b	-0.044327896
208	0x3d39064e	0.04517203
209	0xbd36407c	-0.04449509
210	0x38204b08	3.821685e-05
211	0x3cb32c78	0.02187179
212	0xbb4d8724	-0.0031361068
213	0xbb8a543b	-0.004221467
214	0x3be7d75b	0.007075233
215	0xbd99b2b3	-0.07504787
216	0x3c99169f	0.018687544
217	0x3ac342c0	0.0014897212
218	0x3d50e362	0.0509981
219	0xbd136795	-0.035987455
220	0x3d123206	0.035692237
221	0x3a4a8a4e	0.00077262975
222	0xbd9ddc01	-0.07707978
223	0xbd09c8fa	-0.03363893
224	0xbc97dfd2	-0.018539343
225	0x3c60c37d	0.013718483
226	0x3c971d98	0.018446729
227	0x3cb40a29	0.021977501
228	0x3c8e3ab6	0.01736198
229	0xbdb08f29	-0.08621056
230	0xbdc9d13d	-0.09854362
231	0xbd87eaa4	-0.06636551
232	0xbdc9fab2	-0.098622695
233	0xbe007279	-0.12543668
234	0xbbb5cffe	-0.0055484762
235	0xbd70128f	-0.05861145
236	0x3d4c9904	0.049950615
237	0xbc122969	-0.008921006
238	0xbe484771	-0.19558503
239	0xbe4f8c2f	-0.2026832
240	0xbd5d733d	-0.054064978
241	0x3c0b8470	0.008515462
242	0xbdd81592	-0.10550989
243	0xbd189f2b	-0.03726117
244	0x3c7b62a1	0.015343339
245	0x3d4e881b	0.05042277
246	0x3cb2e6cf	0.021838574
247	0x3dc17bf0	0.09447467
248	0xbe181f63	-0.14855723
249	0xbdcf5809	-0.10124213
250	0xbd092da7	-0.033490803
251	0xbd104de4	-0.035230532
252	0xbdbe978d	-0.0930625
253	0x3c751a37	0.014959863
254	0x3c3b10d0	0.011417583
255	0x3cc7bf8c	0.024383329
