DNNWeights/model/ensemble_0/selected_set_0_0_7.onnx (onnx, 872444 bytes, 17 tensors)

0.embeds.0.weight f4 [2, 1]
00000000: 0d82 513f 9fba 95be
0.81839067 -0.29243943

0.embeds.1.weight f4 [3, 2]
00000000: d0dc 443f 07df 69bf ce43 3dbf 47c1 d6bf
00000010: 4ba8 a1bf d772 b43e
0.76899433 -0.9135594 -0.73931587 -1.6777734 -1.2629484 0.35243866

0.embeds.2.weight f4 [2, 1]
00000000: e803 bd3e 2f06 cbbf
0.36917043 -1.5861262

0.embeds.3.weight f4 [2019, 50]
00000000: ced6 f83c 3c26 e3bf b957 39bf 62e8 b1be
00000010: 2a03 ac3f e9c1 a53d 315c 79bd 7c11 a43f
00000020: 1887 74bf 36f9 2040 3c51 2c3f 6783 e43e
00000030: 5782 973f fa0b a9be acba 38bf 3f67 b2bf
00000040: 3db0 5d3f 5511 fdbe fbf5 ea3f 1929 993e
00000050: 2031 b73f 534b 413f 268f 57bf e033 21c0
00000060: 180a 113f ba00 97bd 4016 0040 f191 273e
00000070: 3560 ecbe 3ffc 92bf 8954 abbf 10bf 6b3d
00000080: f471 03be 5ce9 4dbf ade6 5dbe 269c a03f
00000090: 7451 8ebe 95aa 0e3f 665a 47be 9f75 cd3f
000000a0: 7fef 26bf 82ac e23d 75ab 9dbe 96cc 2440
000000b0: a9ee 373e 507c f4bf dafd 3abf 19ef d9be
000000c0: a5a4 303d e3a2 8b3f 6fb7 41bd 4690 abbe
000000d0: bbb9 f93f 32a9 313f d21a 1bc0 b6d7 1abe
000000e0: 496d 9cbf 688f 4ebf 5751 56bf 8378 9abe
000000f0: 5a4f 37bf 3887 7cbf e307 47be 1b5a 503f
00000100: 6b6f 983e b151 1540 7073 67bf 8860 28c0
00000110: 1a72 693f 2804 aa3f 001f 533f 29e6 833f
00000120: 0e4e 183f 3e55 16bf 5918 043e babb 1c3f
00000130: 1578 a3be b105 df3e 4a23 1f40 896b b73f
00000140: 91b4 77bf c259 ed3e 47ca f7be 44ec 813e
00000150: 93da 023f 726a 683f cdff cf3f 5b7d 873f
00000160: a410 68bf 6f05 c4bf cc77 753f b735 b63f
00000170: 9a61 2b3d 3287 e93f 8809 d7be 1ced b2be
00000180: d97f c4be 6528 48bf 298b b33f 044d d23e
00000190: 28af 713f ff22 ea3e 74e2 a13f 5267 42be
000001a0: 076d 0f40 478c debe dda1 63bd 07c4 63bd
000001b0: 18d5 013f b733 9a3e e44a 25bf 90b7 03be
000001c0: 183a eebf a5cc 52be 2b8d 9f3c d752 2f3f
000001d0: d982 ab3f a5e7 b93f a459 c93f 3ee6 c7be
000001e0: 5afa c13e 2e1a 393f 1f05 323f 16bb 38bf
000001f0: dbdb 1abf 0f8f c03e ffc3 ae3d e521 5b3e
00000200: 04ac 10be ad37 dc3f a7a8 1c3e 979e 213f
00000210: e2fb ffbf cb0b c93e a254 a7be 8bb0 0bbf
00000220: 874c 173f aa36 59bf 2ce6 86bf 2e05 6cbf
00000230: 0fb8 a13f f709 23bf 9382 c7bd 9e4d 3ebf
00000240: be03 23bf 9e89 893e c586 bebe 5fcc de3f
00000250: 60f8 993f 838a 223f c07d 9b3f 6113 dd3e
00000260: c209 a4bf f97f c6bd d2b0 2f3f e237 1ec0
00000270: e3a4 97bf fe4b 23bf bfb6 2bbf 0be5 efbf
00000280: 9c8c 0ec0 bec7 873f 9ec0 813f 2a43 5cbf
00000290: 39a0 86bd c59f dfbe 7a44 da3f 3172 a73f
000002a0: 57bd 8dbe 58d9 2fbe 6432 01bf 57a0 d83f
000002b0: c517 853e 4aa9 aabf 5f4e ea3e 1c90 aebf
000002c0: 26c0 dd3d 47f6 f53f 25ed 8ebf 4858 8abf
000002d0: 8a62 943f c830 98bf 14c7 a43f 2298 dc3f
000002e0: d25f 313f 565b c33f e967 da3e 925a efbf
000002f0: e856 443d 12a0 2f3e bae2 8fbe 0373 46bf
00000300: 2577 b03f 65bb c83e 4945 9d3d 5660 d5bf
00000310: 6e25 f23e 36d3 0dbf 9d5f 0840 7bc3 54bf
00000320: 7024 de3e 770f 01bf 4603 98bf 6705 ff3f
00000330: 064e 903f 438f 8d3f 81a4 84bf b64d 323e
00000340: b982 98be 2399 74bf b549 3dbf 23d6 83bf
00000350: 3576 47be da16 b8bf 6018 943d a917 b0bf
00000360: 3176 0b3f 6d9f f7be 3774 a13e 893a c6bf
00000370: cd15 ad3e 18e6 86bf 9848 80be 955e 053f
00000380: 8f28 0bbf 670f 38bd fff5 ec3d acdc 113f
00000390: 8048 19bf 61aa d1be f928 e83e c01c 0cbe
000003a0: 84c0 fdbe 3bad 8bbd e54e 8cbe 632b 873e
000003b0: dfd2 8fbf 146c c4bf 20b1 f83f ae6e 56bf
000003c0: 65c3 f0be 653c 87bf 4c93 ee3f e9ee 28c0
000003d0: 6d1e 97bf cf2f 80bd 4a08 703f 09d5 a83f
000003e0: 57fd fdbe e2b8 c13e 4318 18be 761f adbe
000003f0: b219 cc3e 8130 453f 2ef7 f7bd 2a96 833f
0.030375864 -1.7746043 -0.7239948 -0.34747607 1.3438466 0.08093626 -0.060878936 1.2817836
-0.95518637 2.5152106 0.67311454 0.44631502 1.1836652 -0.3301695 -0.7215984 -1.3937758
0.86597043 -0.49427286 1.8356317 0.29914168 1.4311867 0.7550556 -0.842028 -2.5187912
0.56656027 -0.073731855 2.001358 0.16364266 -0.4616715 -1.1483229 -1.3385173 0.05755526
-0.12836438 -0.80434203 -0.21670027 1.2547653 -0.2779652 0.5572904 -0.19468078 1.605152
-0.6520919 0.110680595 -0.30794874 2.574987 0.17962135 -1.9100437 -0.73043597 -0.4256523
0.043125767 1.0909084 -0.047294077 -0.3350851 1.9509805 0.69398797 -2.423512 -0.1512135
-1.2220851 -0.8068757 -0.83717865 -0.30170068 -0.71605456 -0.9864383 -0.19436602 0.8138749
0.29772505 2.333111 -0.9041052 -2.6308918 0.9118973 1.3282518 0.8246918 1.0304614
0.594941 -0.5872382 0.12899913 0.6122395 -0.31927553 0.4355903 2.4865289 1.4329692
-0.967599 0.46357542 -0.48396513 0.2537557 0.5111477 0.9078742 1.6249939 1.058513
-0.9065039 -1.5314158 0.9588592 1.4235142 0.041841127 1.8244383 -0.4199946 -0.34946525
-0.3837879 -0.7818664 1.4026843 0.41074383 0.9440789 0.45729825 1.2647233 -0.18984726
2.2410295 -0.43466398 -0.055574287 -0.055606868 0.5071578 0.3011758 -0.645674 -0.12862992
-1.8611479 -0.20585878 0.019476494 0.6848578 1.3399307 1.4523817 1.5730481 -0.39042848
0.37886316 0.7230557 0.69539064 -0.7216047 -0.6049172 0.37609145 0.08533477 0.21399648
-0.14128119 1.7204491 0.15298711 0.63132614 -1.9998744 0.3926681 -0.32681757 -0.5456626
0.59101146 -0.84849036 -1.0538993 -0.92195404 1.2634295 -0.6368708 -0.09741702 -0.74337184
-0.63677585 0.26862806 -0.37212196 1.7406119 1.2028923 0.634926 1.2147751 0.43178847
-1.2815478 -0.096923776 0.6862918 -2.4721608 -1.1847194 -0.6378783 -0.67075723 -1.8741773
-2.227332 1.0607831 1.0136907 -0.86039984 -0.06573529 -0.43676582 1.7052147 1.3081723
-0.27683517 -0.17172754 -0.50467515 1.6923932 0.25994697 -1.3332913 0.45762917 -1.3637729
0.10827665 1.9215783 -1.1166121 -1.0808191 1.1592572 -1.1889887 1.2873254 1.7233927
0.69286835 1.5262249 0.42657402 -1.8699515 0.047934443 0.17150906 -0.28102666 -0.77519244
1.378636 0.3920547 0.07679231 -1.6670024 0.47294182 -0.5540041 2.1308358 -0.8311078
0.43387175 -0.5041422 -1.1875999 1.9923524 1.1273811 1.1059345 -1.0362703 0.17412457
-0.29787233 -0.9554617 -0.73940593 -1.0299724 -0.19478686 -1.4381974 0.07231212 -1.375722
0.5447722 -0.4836382 0.31533977 -1.5486614 0.33805695 -1.0538969 -0.25055385 0.52097446
-0.5435876 -0.044936564 0.115703575 0.56977344 -0.5987625 -0.409503 0.4534376 -0.13682842
-0.4956094 -0.068201505 -0.27403942 0.2640029 -1.1236228 -1.5345483 1.9429054 -0.83762634
-0.47024074 -1.0565306 1.8638701 -2.639582 -1.180616 -0.06259119 0.9376265 1.3190013
-0.49607345 0.37836367 -0.14853005 -0.33813065 0.39863354 0.77027136 -0.12107693 1.0280201

1.layers.0.0.weight f4 [74, 74]
00000000: a7ae ecbd b756 91be 4a33 2b3e 78cf 223d
00000010: 75b9 b83d 0aa8 0b3f 9232 613d 6983 61be
00000020: 9fef aebe 6592 283e 1161 a73e 5bc2 983d
00000030: 3959 123e a0ad 9e3d c333 91be d848 8b3e
00000040: 8644 2cbe 444a 43be b140 efbc dbc6 d3bd
00000050: 3029 703e 9ebe b8bc 09d1 36bd 9d44 80be
00000060: 7d3a a23d e58e 8a3e a689 eabd 8271 a03e
00000070: bb2c 5d3c 1f2f 92be 77ad 863d f1ad d43e
00000080: 542f 303e 7446 f8bc a095 b1bd 8a7d 5d3d
00000090: a58f 5b3e 3653 b93c f31d 433e 032e 993c
000000a0: 7eb2 2f3e b1c3 1e3b e381 b3bc b450 063e
000000b0: 3c84 a13b 118c 0f3e bb86 d33e 98bc 5d3d
000000c0: d01c 863e 6e10 33be 856b 2f3e eb46 81be
000000d0: d64c e33d 0e3f e1bd 0ed0 d4bd d1ae 533e
000000e0: 415f 52be 607c 033e 494c 933d 5ee2 703e
000000f0: a576 c13d 3ee7 0f3e dd77 6b3d 7dae 26bc
00000100: 39a9 8a3d 4007 cabc 83ed 4d3e 4c17 1cbe
00000110: 4a1b 693e ceef 8a3d 31d6 673e 32cb 993e
00000120: 3b6c 7a3e 58e9 123e 9469 443d d5b1 743e
00000130: c6d0 eb3d b0c5 7a3d 746e 74be b426 a3bd
00000140: 7b84 5c3c e83e c43d 3d9d dcbe 3f24 d83d
00000150: 59eb 12be d12f 023f 8745 52bd 5006 953d
00000160: 9d58 df3d 88b4 fc3d f2e3 e7bd b63f aa3c
00000170: 620b c63d 8880 213e b9cc 33bd f9e8 6f3e
00000180: 3c10 c3be 54b6 813c 6003 0e3e c9e0 203d
00000190: 4c74 4fbd 8e4d 34be d93b 313d ba24 7d3e
000001a0: 9262 68bd 6bbf 4a3d 19eb 373e 99f3 1e3e
000001b0: a2b5 0d3e 3a33 7cbe 23a6 e6bd 40be 8a3d
000001c0: 0126 f43d 12cb 423d 60de 6abd ed17 69bd
000001d0: 77c4 583e 70c3 af3d 341b fdbd d9d7 573d
000001e0: 6133 103e 6097 bfbc 103f 8a3e 49c4 763e
000001f0: b18d 92be 5939 3dbd 395f 71be 6932 713d
00000200: bda3 3d3d 0145 8dbe 1f03 b7bc 148a 0e3e
00000210: 2b6e 0a3e 2349 dabb baee c7be dd01 8d3d
00000220: 8160 b63d 2284 5b3e 28bc 9dbe 09cd 1e3d
00000230: f3bf ba3d 3dde 19be 4f98 b03e 5890 643e
00000240: 1e26 333e 9b5b 193e d1dd e9bc 048e 2cbd
00000250: 1404 d9bd 257b 363d 34b7 fabe 8fcf cbbe
00000260: 7ca8 10bd ccaf ec3d 04c2 d23d 178e a83e
00000270: 8853 3dbc 39ff 4bbe d248 a2be 3508 44be
00000280: 9f09 b1be f66a 983d 0fb2 cdbd 6ead c1be
00000290: 7ebd 233e 0efb 87be 16b4 823e e89e 863e
000002a0: dff6 91bc a232 71bd 398d 8f3e 7783 babd
000002b0: 9172 f3bd 88a6 58be a76c 9b3d 35ac 1d3d
000002c0: e295 d03d 311a a83e a7b4 143e 6572 0abc
000002d0: c72f 9fbe 34fb 613d 1710 a03d ec6c 81be
000002e0: 5237 acbd c38e d4bd b6cc ea3b d64d 043d
000002f0: 2571 d3bd 36c3 a5bd d5c7 763e 1d91 703e
00000300: 0899 503e 947b 563e 8978 3c3e 6c7e d2bd
00000310: 7888 0fbe 5983 9b3d c9ce e43d 779e 1abe
00000320: 3108 6cbe 152a 06be 2cff e23d 132a 9c3d
00000330: 85a5 10bd 733c 5dbe d8f3 fe3d f7fe 21be
00000340: 835e 7d3e dddc 8abc 04c6 b83d b35e 19be
00000350: 6fac 133d ca2d 7e3c f0b4 a6be f17a 6fbe
00000360: 212a ad3d bc49 61be 16fd e93d e080 5abe
00000370: e09c 053e afaf 15bc a358 eabe 0227 e03c
00000380: 0089 f0be 40b1 a83c 6c72 c5bd c85f ecbe
00000390: 9360 e2bd 7575 373e fbaa 9abe 840c 183e
000003a0: b95c c0bd 55cf a53e 4d79 b3bd b897 003e
000003b0: e17d 173d 39f3 68bb 0a09 ba3e 2ee1 e43c
000003c0: 1671 97bc 94cb 0fbe ef68 82bd d836 023d
000003d0: a690 29be 1e66 5b3d 0604 bf3c 515e b53d
000003e0: 3958 1d3e 4f42 a6bd 1426 2f3e e4d3 46be
000003f0: ddb1 523e 1a17 823c 7d19 3bbe 108a 953e
-0.1155675 -0.2838647 0.16718784 0.03974864 0.09019748 0.5455328 0.05497987 -0.22022785
-0.3416719 0.16462095 0.32691243 0.07458945 0.14291848 0.0774796 -0.28359804 0.27204013
-0.16823015 -0.19071299 -0.029205652 -0.10340663 0.23453212 -0.02255183 -0.044632945 -0.25052348
0.07921312 0.27062145 -0.114520356 0.313366 0.013499434 -0.28551576 0.065760545 0.41538957
0.17205554 -0.030307032 -0.08671117 0.0540748 0.21441515 0.022622686 0.19054393 0.018698698
0.17157933 0.0024225528 -0.02191252 0.13116723 0.0049290936 0.14018275 0.4131373 0.054134935
0.26193857 -0.17486736 0.17130859 -0.2524942 0.1109864 -0.10998355 -0.10391246 0.20672156
-0.20544149 0.12840414 0.071922846 0.23523852 0.09446458 0.14053056 0.057487357 -0.010173437
0.06770558 -0.02466166 0.20110135 -0.15243262 0.22764316 0.0678402 0.22640301 0.30037838
0.24455349 0.14346826 0.04795225 0.23895963 0.1151443 0.061223686 -0.2387026 -0.079663664
0.01345932 0.09582311 -0.43088713 0.105537884 -0.1434759 0.5085421 -0.051335838 0.07276595
0.109055735 0.12339121 -0.11322774 0.020782333 0.0967014 0.15771687 -0.04389641 0.23428716
-0.38098323 0.015834011 0.13868475 0.03927687 -0.05064802 -0.1760771 0.043269966 0.24721041
-0.05673463 0.049498957 0.17960776 0.15522613 0.13838819 -0.24628916 -0.11262157 0.067745686
0.11921311 0.047556944 -0.05734098 -0.056907583 0.21168695 0.085821986 -0.12358704 0.052696083
0.140821 -0.02338761 0.27001238 0.24098314 -0.28623727 -0.04619727 -0.23571481 0.058885965
0.04629873 -0.27591708 -0.022340355 0.1391986 0.13518588 -0.0066615506 -0.3904932 0.06885121
0.089051254 0.21437123 -0.30807614 0.038769756 0.09118643 -0.15026183 0.34491202 0.22320688
0.1749501 0.14976351 -0.028548153 -0.042127624 -0.10596481 0.044551034 -0.48967898 -0.39806792
-0.03531693 0.11556968 0.10290912 0.32920906 -0.01155556 -0.19921578 -0.31696182 -0.19143756
-0.34577653 0.07442276 -0.100437276 -0.3782763 0.15990254 -0.26558727 0.2552802 0.2629311
-0.017817913 -0.058886178 0.28037432 -0.09107106 -0.11887086 -0.21157277 0.07589083 0.038494308
0.10184838 0.32832482 0.14522038 -0.008450125 -0.3109114 0.055171207 0.07815569 -0.25278413
-0.08408989 -0.10378792 0.0071655167 0.032300793 -0.10324315 -0.08093874 0.24099667 0.23492856
0.20370877 0.20945579 0.18405356 -0.10278019 -0.14016902 0.07593412 0.11172254 -0.15099512
-0.2305 -0.1310199 0.110838264 0.076252125 -0.0353141 -0.21605091 0.12448853 -0.15819918
0.24743085 -0.016951019 0.090221435 -0.14977531 0.036053117 0.015513847 -0.3255992 -0.23386742
0.08455301 -0.22000784 0.114252254 -0.21338224 0.13048124 -0.0091361245 -0.4577075 0.02736235
-0.46979523 0.020592332 -0.09640965 -0.46166825 -0.11053576 0.179159 -0.30208573 0.14848524
-0.093926854 0.32384744 -0.08763371 0.12557876 0.03698528 -0.0035545363 0.3633502 0.027939405
-0.01848654 -0.14042503 -0.06367671 0.031790584 -0.16559085 0.053564183 0.023317348 0.0885588
0.15365686 -0.08118116 0.1710437 -0.19416767 0.20575662 0.015880156 -0.18271442 0.29206896

1.layers.0.0.bias f4 [74]
00000000: 8240 fbbb 6889 3c3c 8b08 56bd 4968 20bd
00000010: 81d8 51bd caf0 4abd 2d6a 98bd 5b40 4cbd
00000020: bc13 83bb d4e9 85bd 8747 b6bc 761f 99bd
00000030: f29b 79bd a745 b73b f56b 80bd 4a50 94bd
00000040: a960 70ba 35e7 36bd 603c 85ba 355d 57bd
00000050: 66cb 94bd 9367 d0bc 5a29 74bd d99f c0bc
00000060: 00c2 36bc 87ac 66bd b45b 50bd 1dbf 3abd
00000070: 9786 2abd 7c53 26bd 5d83 3fbd 2081 9fbd
00000080: 28ad d4bc 1720 fbbc 4566 11bc 12fc b7bc
00000090: 6f93 ddbc 43a1 12bd 72e6 6abd 3e83 45bd
000000a0: 2988 23bd 2983 6a3c 66d2 c5bb 669b 76bd
000000b0: 42ed 80bd 0aa1 d838 2998 30bd 2caf 153b
000000c0: 4762 9cbd 1818 01bb bae1 98bd 4008 2c3c
000000d0: c456 dbbd 4e74 ccbd bf1c 8ebd 83d6 74bd
000000e0: adc5 0bbd f61b 3cbd 8a0e 4bbd 8f10 e03b
000000f0: 270c 353d 258a 15bc b580 c9bc 2744 86bc
00000100: a196 babc 32c9 6fbd 9807 d0bc f350 9cbc
00000110: 3826 44bd 1df0 03bd 4d34 02bd 10a9 8cbd
00000120: 20c9 04bd 0645 14bd
-0.007667602 0.01150737 -0.05225424 -0.039161954 -0.051231865 -0.04954604 -0.074421264 -0.04986606
-0.0040001553 -0.0653874 -0.022250904 -0.07476704 -0.060939737 0.00559302 -0.06270591 -0.072418764
-0.0009169677 -0.04465409 -0.0010165088 -0.052579124 -0.07265358 -0.025440013 -0.05960975 -0.023513721
-0.011154652 -0.05631688 -0.050868705 -0.045592416 -0.04163226 -0.04060696 -0.046756137 -0.077883005
-0.025961474 -0.03065495 -0.008874481 -0.022459064 -0.02704784 -0.035798322 -0.057348676 -0.048220865
-0.039924774 0.014313498 -0.0060370443 -0.060206793 -0.06295253 0.000103296785 -0.04311386 0.0022840006
-0.076359324 -0.00196982 -0.07464929 0.010500014 -0.107099086 -0.09983121 -0.06939077 -0.059774887
-0.034124065 -0.045925103 -0.049574412 0.0068379114 0.044201043 -0.0091271745 -0.024597505 -0.01638992
-0.022776904 -0.058541484 -0.025394246 -0.019081568 -0.04788801 -0.03221141 -0.03178816 -0.068681836
-0.03241837 -0.03619864

1.layers.1.0.weight f4 [74, 148]
00000000: d14e 1dbe cf19 4cbd 34ec 6f3c 816f b5bd
00000010: b5e1 9b3c 9cdf 14bd 54ba c73a cbac 9b3c
00000020: 93c7 eebc 850a 5e3c d362 c7bd fd58 05bd
00000030: f6af 3fbe 325f 833e 7823 afbd d887 273d
00000040: 5ef8 c9bd a0ff 82bd 8925 593d 4274 78bd
00000050: ec5c 113d d745 4ebc dd92 6fbd e86f bc3d
00000060: fb13 223e d26e 173e 5f69 9ebd 56f8 e83c
00000070: a9e1 02be 82f3 dcbb 4980 afbc b90b d93c
00000080: 60f9 afbd 3daf aabc 3b59 d83c 27a1 b93d
00000090: fa47 8d3b c754 d6bd cfa3 083d 8a25 86bd
000000a0: 7099 11be 789d 27bd b696 e8bd 72fd 4d3d
000000b0: b1fc 00be a8bb 093d 17a0 3c3e dd12 19be
000000c0: 7d23 b63b 9400 ea3d 8477 663c e7e1 593d
000000d0: f775 04bd d36c c73c fbe5 3b3d eae3 33bd
000000e0: f77d 69be fe9e 1ebe 1de3 3bbd 6944 6ebb
000000f0: 6437 8d3b 9925 18be 010c 40be 4094 893c
00000100: 0308 b6bd 383b 12be face 0cbe 9652 29bd
00000110: ffd3 353e 676f f33c a1b4 e5bd 57ac d5bc
00000120: 9cb0 573d 9ee1 43bd fe3c 263e 8b66 41be
00000130: 351d 113d b3a4 233c aa63 503e 0a2f 8fbc
00000140: b13c b2bc 9991 0d3d 18fe 623d a7d2 c93a
00000150: 4be8 883e 1623 49be c0d1 a73d 5b50 a1bd
00000160: 2fb6 febd 4196 7e3d cab9 203e 9c9d 05be
00000170: e777 fe3d e8b3 acbc 2588 aebd 9f71 5bbd
00000180: 2380 623b a85b e63d 0105 3bbe 9aad 84bd
00000190: f3a8 17be a975 afbc 579d 09bc f4b7 253d
000001a0: 4583 19bd a36f d9bd 1d09 d73a 52bb 2bbd
000001b0: 551d a83c 35f5 dbbd a86a 3a3e 91d7 60bb
000001c0: c006 c9bd 0138 a2bd 74b8 ca3d 3fd3 2fbc
000001d0: f238 553d 9319 db3d 4d9e c7ba 26ca 683e
000001e0: eb81 3b3e a1c7 e0bc e976 033e ff7b dc3d
000001f0: 7e74 863e 3deb 30bd 9020 dbbd efb8 43bd
00000200: bdd6 df3b 7086 2e3d b428 d43c f165 5ebd
00000210: 698b 913d 0495 0b3d 090d bebd 1334 2c3d
00000220: e186 86bd f1aa 9d3d 387f 99bb cc22 b1bd
00000230: cf63 013e 7c60 a53b 051b 56bd 1cd2 92bc
00000240: 1f49 d03d 5de0 dcbd dc35 d1bc fb0a 913e
00000250: 93d5 52bd 65ec 063d 0860 a53d 64c6 4a3d
00000260: bd3d 70bd 6c07 f7bd dabb ce3d 0b9b 9c3d
00000270: 9422 b5bc c422 a13c f2f6 c4bc abe8 0a3e
00000280: 0d52 1d3e 971b 2e3e aeda 073e f09c cdbc
00000290: ed77 25be 05e2 943e 0bdf 273e f8aa 0e3e
000002a0: 983a 88bb 5514 21be 2549 dd3d 4851 1dbe
000002b0: a685 113e eaa5 13be a9c9 8fbd d443 39bc
000002c0: 65a0 62bc 2922 85bd 88a9 f3bd 1571 91be
000002d0: 3b74 dd3d a7e9 2e3d 936a c0bd b23b eabc
000002e0: 8087 d3bd 33f0 8d3d ce92 053e 37e4 edbd
000002f0: 7e88 aebd e599 4cbe 5ea4 a23e 8022 87bd
00000300: 644a 013e be69 4cbd 0b1b 9abd ce0c 6bbe
00000310: b58e 03be d0f7 613e f5f9 2e3e da93 043e
00000320: 1358 c7bd bdcc f2bd 258d 5cbd 9304 59bc
00000330: daa0 dbbd 34df c3bb 2133 3abe 2f59 a9bd
00000340: 2753 86bc 7f94 343e 1832 2bbd 9662 72bd
00000350: 66be 36bc 8dbe 883d d242 dd3d 436b 34be
00000360: aa48 5c3e a596 20bd e739 dbbc d6d5 933c
00000370: 5558 72be fd7b 22be 8328 f0be c61c 1c3e
00000380: f4b3 7fbf 4e89 27be 98db 64be 48aa 43bd
00000390: f967 103e d1dc 1b3e b7c1 203e 8361 8e3d
000003a0: 9693 eebe 389d b03d 2bd6 06be bbd8 c9bb
000003b0: 4a86 953d 3261 44bd d5d8 1cbc c920 883e
000003c0: 78e6 afbd 397a 9abd bbff 94be ac41 1cbd
000003d0: c646 343e 0fcd 503e b1f8 18bd e232 9cbd
000003e0: 57a3 323e efbf 4d3b 4c36 ffbc 47a1 1bbd
000003f0: 4dd2 073d 5ec9 a63c 365d 1abe 618b 843e
-0.15362097 -0.0498293 0.014643718 -0.08859158 0.019028524 -0.036346063 0.0015238025 0.019003293
-0.029147899 0.013552313 -0.09735646 -0.03255557 -0.18719468 0.25658566 -0.08551687 0.040901035
-0.098618254 -0.06396413 0.053014312 -0.060657747 0.035489008 -0.012589893 -0.05848967 0.09201032
0.15827934 0.14788368 -0.07734942 0.028438728 -0.12781395 -0.0067428956 -0.021423476 0.026494848
-0.085924864 -0.020835513 0.026409736 0.090639405 0.004311559 -0.10465389 0.033359345 -0.06550129
-0.14218688 -0.04092166 -0.11356871 0.050290532 -0.12596394 0.03362623 0.18420444 -0.14948602
0.0055584298 0.114258915 0.014066581 0.053193953 -0.032339063 0.024343884 0.045873623 -0.043918528
-0.22801958 -0.15490338 -0.04587089 -0.0036356694 0.0043095816 -0.14858092 -0.18754579 0.016794324
-0.08888247 -0.14280403 -0.1375083 -0.041338526 0.17756651 0.029716207 -0.11216093 -0.026083155
0.052658662 -0.047822587 0.16234204 -0.18886773 0.035428245 0.009987998 0.20350519 -0.017478485
-0.021757456 0.03456268 0.055418104 0.0015397862 0.26739725 -0.1964229 0.081943035 -0.07876655
-0.124370925 0.062155012 0.15695873 -0.13048404 0.12425213 -0.02108188 -0.08522061 -0.053575154
0.0034561239 0.11247951 -0.18263628 -0.06478424 -0.14810543 -0.02141841 -0.008399329 0.040458634
-0.037478704 -0.10616996 0.0016405914 -0.04192669 0.0205218 -0.10740129 0.18204749 -0.0034308175
-0.098157406 -0.07920838 0.09898463 -0.010731517 0.05205626 0.10698237 -0.0015229672 0.22733364
0.18311279 -0.02743894 0.1283833 0.10765838 0.2626075 -0.04319309 -0.1069957 -0.04778379
0.0068310187 0.04260868 0.025898315 -0.054296438 0.071066685 0.03407766 -0.0927983 0.04204185
-0.06568695 0.0769862 -0.004684355 -0.08649215 0.1263573 0.005046902 -0.05227186 -0.017922454
0.10170197 -0.107849814 -0.025538377 0.2832869 -0.05147321 0.032940287 0.08074957 0.049505606
-0.05865263 -0.120619625 0.100944236 0.076467596 -0.022111215 0.019669898 -0.024043534 0.13565318
0.15363331 0.17002712 0.13267013 -0.025099248 -0.1615903 0.2907869 0.16393678 0.13932407
-0.0041573755 -0.15730412 0.10804967 -0.15363038 0.14211139 -0.1441876 -0.070208855 -0.011307675
-0.013832186 -0.06500656 -0.1189757 -0.28406587 0.10813185 0.042703297 -0.093953274 -0.028592918
-0.10328579 0.0693058 0.13044283 -0.11615794 -0.085221276 -0.19980581 0.31766027 -0.06598377
0.12626034 -0.04990553 -0.07524689 -0.22954103 -0.12847407 0.22067189 0.17087539 0.12947026
-0.09733596 -0.11855457 -0.053845543 -0.0132457195 -0.107240394 -0.0059775356 -0.18183567 -0.082689635
-0.016397072 0.17634772 -0.04179582 -0.05917605 -0.011153793 0.0667697 0.108037606 -0.17619042
0.21512094 -0.039206166 -0.026761008 0.0180463 -0.23666508 -0.1586761 -0.46905908 0.15245351
-0.9988396 -0.16360971 -0.22349393 -0.047769815 0.14102162 0.15220954 0.15698896 0.06952193
-0.46596974 0.08623737 -0.13167636 -0.0061598695 0.07301004 -0.047944255 -0.009573181 0.26587513
-0.0858888 -0.07542843 -0.29101357 -0.038148567 0.17605123 0.20390724 -0.037346546 -0.076268926
0.17445122 0.003139492 -0.03115382 -0.037995603 0.033159543 0.020359691 -0.1507462 0.25887588

1.layers.1.0.bias f4 [74]
00000000: 7713 a9bd cc7d 39bc f007 02bc 5266 6abc
00000010: 3ae3 76bd 7297 4bbc cda9 dbbb dfbb 963b
00000020: 7ca7 0bbc fbae 42bd 9cb6 4fbd 76f0 3dbd
00000030: 03ae 32bd bcd4 24bd 8f1b 8abc bd70 9bbd
00000040: 84c5 673c 2629 49bc 5371 b1bc e271 63bd
00000050: eff8 92bd f727 c1bd a08e ebbc 1e1b 25bd
00000060: 5d96 c5bc ab26 a5bc cb61 90bb 5968 cdbb
00000070: 6832 6cbd 3745 ce3c e7fa 23bd a6bc 95bd
00000080: 4cea d1bc cc42 f8bc bfff 88bd 7603 3cbd
00000090: d569 aabd 82ee 60bd b1af 9abd 459d fbbc
000000a0: e68e 99bd 1875 2fbd 3cf6 92bc 4c68 11bd
000000b0: a224 90bd 9d66 7f3c 52c9 193c a233 26bc
000000c0: 23c3 523b f539 5abd 128e 86bc 6d80 43bd
000000d0: e265 e1bc c8f3 41bd 8969 8abc 050a 79bd
000000e0: f71b b6bc 13c4 37bd eab9 80bd e50d a0bc
000000f0: 65c9 9fbd 20b4 95bd c34f 99bb 9460 e6bc
00000100: 2d9e 18bd e171 73bd 13aa 99bd 3ade 4fbd
00000110: 4f08 19bd 7377 1abd e23c 52bd 42bc 94bc
00000120: 030d 27bd 28c6 7abd
-0.08255666 -0.011321496 -0.007936463 -0.014306622 -0.060275294 -0.012426244 -0.0067035914 0.0046000327
-0.008523818 -0.047530156 -0.05071126 -0.0463719 -0.04362298 -0.04024194 -0.016858844 -0.075898625
0.0141462125 -0.012277877 -0.021660483 -0.05552853 -0.071763866 -0.09431451 -0.028754532 -0.040309064
-0.02411955 -0.02016004 -0.004406189 -0.0062685427 -0.05766526 0.025179489 -0.0400342 -0.073113725
-0.025624417 -0.030305289 -0.06689405 -0.045901738 -0.08320967 -0.05491496 -0.07553042 -0.03071464
-0.07497959 -0.04283628 -0.01793968 -0.035499856 -0.07038237 0.01558843 0.009386377 -0.010144146
0.0032159768 -0.05327793 -0.016425166 -0.0477299 -0.027514402 -0.04735163 -0.016896026 -0.06080057
-0.022230132 -0.044864725 -0.0628546 -0.019537875 -0.07802085 -0.07309747 -0.004678698 -0.028122224
-0.037260223 -0.059434775 -0.07503142 -0.05074904 -0.03736144 -0.037711572 -0.051327594 -0.018156175
-0.040783893 -0.061224133

1.layers.2.0.weight f4 [74, 222]
00000000: 322f 5c3d b780 8f3c 042a d93d 5ad7 bd3b
00000010: 41e1 53bd 74f8 a13d b2aa 90bd d12f 8ebd
00000020: 4e4c c13c bd6e 243d d436 deba 8aff abbd
00000030: b585 163e c648 b4bc cdba cbbd bc1c f7bd
00000040: e1b5 4d3e c9d9 36bd 533a 513d 6223 a2bb
00000050: 8567 17bc d8f8 ea3d a205 51bd 8d4a 893d
00000060: 4449 30bd af69 f13d 5e70 5abd f6f6 ba3d
00000070: dc47 073e c98c c63c a20f 91bd a727 ba3c
00000080: e9f8 d63d 6c24 0b3e f0a0 093b dca6 47be
00000090: 98b3 dd3d 1820 023d 71df 2e3d 70a9 2cbd
000000a0: 1226 27bd 1a07 54bd c4a4 1dbe 364f 69bc
000000b0: 7a02 443d 380e 45be 9282 cfbd 6435 78be
000000c0: 3acc 10be d705 103d b41a 6a3e 59cf 47bc
000000d0: e241 d53d 432b a53c 8550 7bbe b0c5 77bc
000000e0: 3f03 3cbe 258b 22be 5f3a b43d 3bdf 7e3d
000000f0: 75f6 163e b730 f6bd 35cd 3b3c 5c5e b83d
00000100: a5db 67be 8309 82be a559 9b3d 68f2 cc3d
00000110: bfaf 52be 1a17 5bbd 26bd bbba 31ef 00be
00000120: e686 d63c f739 cebc b418 f43d bd4a 68bd
00000130: 5c4e 113e 521d c7bc fcdc a03d 644a 3ebc
00000140: 0d89 4b3e 0aa2 553e 203d bebd 187d ec3c
00000150: 39fb 413d 694d 46bd e7d5 51be a5e5 fdbd
00000160: 8e9a 55be 06b3 cebd 8eaa 4cbe 4d36 2bbd
00000170: 3082 a53d d473 6abe f789 f1bd 6cb4 13bc
00000180: e600 32be 3313 d4bd d8cf 713e c525 3a3d
00000190: cbea 5d3c ea4b 42bc a916 13be 4166 01be
000001a0: 2e4f dc3c e470 663e 2917 2e3e 1dd4 10be
000001b0: 4fb8 363e aa20 dabd 3ff0 8bbe b3ce 05be
000001c0: a64c b03c de4a 8b3d 8991 e93d c640 cfbb
000001d0: 2cb2 debd 3e36 3a3d 5efe 8f3d b569 e43d
000001e0: 2c3e 613d 92d3 803d 073b 8bbd c8de e9bd
000001f0: 8388 033e 3d61 d2bd 7928 883b 8018 3cbe
00000200: 7cc0 2ebe 80c3 b93d 70c9 8cbc cd4d 76bd
00000210: 9dc8 2bbe 9fa8 cfbc 977d bbbd e985 03be
00000220: 39c8 383e c3b7 a9bd d4e7 0c3d 3262 0b3e
00000230: f94b 4dbd 5344 05be 6032 0ebe b860 173e
00000240: adbd 2bbe 10d4 823d 3376 1ebd a4f5 7f3d
00000250: e4e2 c7bb a725 00bd 04bb 84bd ee79 d33d
00000260: 7599 b53c f66f b7ba 7237 373e 50f7 98be
00000270: 8002 413d bf90 c73d 19b4 8c3e 9881 a3bd
00000280: 7bda 913d 21ac 853d 275b f5bd 66e7 253e
00000290: 188b adbd a22b 413c 7a2f ae3d 4a49 fa3d
000002a0: 3f1f 01bd 1742 2dbe 3794 9c3e c507 493e
000002b0: 6406 cd3d 1fc6 3d3e fcd8 e3bc 2d1d 1b3c
000002c0: f597 19be 71f4 0c3d 92fd 2cbd 51fb 96bc
000002d0: d00d e6bc d594 49ba b2b2 963d 8d23 22bd
000002e0: 4b02 dcb9 a1a0 1b3d 3ec4 4dbe 4803 25be
000002f0: e9d0 bebd e3f8 28bc a853 933d c3fb 54be
00000300: d581 5ebc abf1 e3bc 258a 53bd af95 b93d
00000310: 0ab1 1cbd 8498 abbc 672d 853d a2ae ce3d
00000320: dcce 8e3c b86b 11bc f738 8abd 358f e43d
00000330: 0e04 153e c6cc 3d3e 9376 75bd 2fec 223e
00000340: 5832 ab3d e510 1abe d053 d6bd 88f2 063e
00000350: 9f51 c4bd 31dc 423d ba24 ae3d ade8 1bbe
00000360: 69c0 c4bc ff34 113d 3617 82bd ac06 043d
00000370: 7474 b1bc 5de6 acbd f111 7c3d 7328 58bd
00000380: 33f1 ed39 cb78 db3d 3b9e f5bd de1d 633e
00000390: abb7 253d 42fd bbbd 83f6 30bd d957 ecbd
000003a0: f108 3f3e 1f04 753e 01a3 71be efbc bb3d
000003b0: 36d4 14be ee7e 94bc cc38 3dbd bb9c 50bc
000003c0: 184e 92be 4e4d f73d 7d0a 1abd a2a3 323e
000003d0: 25bb c1bd 5da6 6cbe d4f9 153d c2c4 59bc
000003e0: 06e0 173e 8924 e8bd 0631 19be ef70 823d
000003f0: aee2 fd3b 8be9 2dbd 5b26 6bbd 0874 f3bc
0.053755946 0.01751743 0.10603717 0.005793494 -0.05172849 0.07908717 -0.070638075 -0.06942714
0.023595955 0.04014467 -0.0016953596 -0.083983496 0.14699443 -0.022007357 -0.09947739 -0.120660275
0.20088913 -0.04464129 0.051081013 -0.0049480656 -0.00924099 0.114732444 -0.051030762 0.067036726
-0.04303862 0.11787736 -0.053329818 0.09129135 0.13211006 0.024237053 -0.0708306 0.022723986
0.104966946 0.13588113 0.0021000467 -0.19497246 0.108252704 0.03176889 0.04269356 -0.042153776
-0.04080779 -0.051764585 -0.15394884 -0.014240077 0.047853924 -0.19243705 -0.10132326 -0.24239117
-0.14140406 0.03516182 0.22861749 -0.012195432 0.10412957 0.02016223 -0.24542435 -0.015122816
-0.18360613 -0.15873392 0.08800196 0.062224608 0.14742453 -0.1202101 0.011462499 0.090023726
-0.22642381 -0.25397882 0.07585458 0.10007173 -0.20574854 -0.05348883 -0.0014323338 -0.12591244
0.026187371 -0.025174124 0.11918774 -0.0567119 0.14190048 -0.024305973 0.078546494 -0.011614416
0.198765 0.20862594 -0.092890024 0.028868243 0.047358725 -0.048413668 -0.20491754 -0.12397317
-0.20859739 -0.1009274 -0.19986936 -0.041799832 0.08081472 -0.22895747 -0.11793893 -0.009015184
-0.17383155 -0.103552245 0.23614442 0.045446176 0.013544749 -0.01185892 -0.14364113 -0.12636663
0.026893225 0.22504002 0.17001022 -0.14143415 0.17843746 -0.106507614 -0.2733173 -0.1306713
0.021520924 0.06801389 0.11404712 -0.0063248603 -0.10873827 0.045461886 0.070309386 0.111529745
0.054990932 0.06290354 -0.06798368 -0.11419445 0.12845044 -0.10272453 0.0041552153 -0.18368721
-0.17065614 0.09070492 -0.017185897 -0.06013279 -0.16775747 -0.02534896 -0.09154814 -0.12844051
0.18045129 -0.08287003 0.034400776 0.13611677 -0.05012128 -0.13014345 -0.13886404 0.14782989
-0.16771574 0.06388104 -0.038686942 0.06249012 -0.0061000455 -0.031285908 -0.06480983 0.103259906
0.0221679 -0.0013995159 0.17892244 -0.29876184 0.047121525 0.09744405 0.27481154 -0.079837024
0.0712175 0.065269716 -0.119802766 0.16201553 -0.08473796 0.011790188 0.08505149 0.1222101
-0.03152394 -0.16919743 0.3058183 0.1963187 0.100109845 0.18532608 -0.027813427 0.009467405
-0.14999373 0.034412805 -0.04223401 -0.018430384 -0.028082758 -0.0007689719 0.07358302 -0.039584685
-0.00041963378 0.037994985 -0.20094392 -0.16114533 -0.0931719 -0.0103132455 0.071936905 -0.20799164
-0.013580759 -0.027825197 -0.051645417 0.09061753 -0.038254775 -0.020946749 0.065028004 0.10091902
0.017432623 -0.00887578 -0.067491464 0.11160127 0.14552328 0.18535146 -0.059927534 0.1591041
0.08359212 -0.15045507 -0.10465205 0.13178456 -0.095858805 0.047573272 0.08503099 -0.15225478
-0.02401753 0.03545093 -0.063520834 0.032232925 -0.021661974 -0.08442376 0.061540548 -0.05277295
0.0004538387 0.10716399 -0.11993071 0.22179362 0.040458363 -0.091791645 -0.043203842 -0.11540193
0.18655755 0.23927353 -0.23597337 0.091668956 -0.14534077 -0.018126931 -0.046196744 -0.01273268
-0.28575206 0.120752916 -0.03760766 0.17445233 -0.09459523 -0.23110338 0.036615208 -0.01329154
0.14831552 -0.113350935 -0.14960107 0.063691966 0.0077479696 -0.042459052 -0.057409626 -0.029718414

1.layers.2.0.bias f4 [74]
00000000: 7a0f d6bc 22fa 9fbc b5d8 84bd 58b8 31bd
00000010: 1ff5 3fbc 8505 a2bc db12 b8bc 6982 cebc
00000020: e19e 30bd e6f3 8dbc ab10 9fbd 57f1 d4bc
00000030: 5a38 8fbd 33d9 d3bc 28aa d0bc 1549 80bd
00000040: 9b42 0ebd 6595 5dbd 9701 b3bb a24d 013c
00000050: 03fa 43bd cb60 4abd 57e2 9fbc c96f fb3c
00000060: 2a74 89bc 8fd2 7fbd 4078 9abc a478 52bd
00000070: 7360 35bd 4458 0bbd 5674 bcbc 8f14 1dbd
00000080: cd79 24bd f83b c7bc ec9f 3abd 87e6 16bd
00000090: 4be7 4cbd d40b 20bd ef7d e03a 8398 b739
000000a0: 6adf 1fbd eb1a 7ebd a7d4 42bd df98 babc
000000b0: d30d 45bc 52d0 0abd 5734 cabb d075 86bc
000000c0: cbfc f1bc b75c 31bd 377f a9bc 9428 10bd
000000d0: 12bc d5bc 2814 5dbc bde7 0bbd cd22 24bd
000000e0: 8ad2 a3bc 3315 71bd 1c4e 04bd f91f 55bd
000000f0: 503f 5fbc 9460 d0bc 077c 2abd aa90 27bd
00000100: cef3 31bd 86ad f7bc 2624 fabc f3f9 9ebc
00000110: 09e9 6abb 3862 1a3b 651b 02bd a445 fbbc
00000120: 1d2c 90bd 37db a9bc
-0.026130427 -0.019528452 -0.06486646 -0.043388695 -0.011716156 -0.019778023 -0.022469928 -0.025208669
-0.04312027 -0.017328214 -0.07766851 -0.025993986 -0.0699317 -0.025860405 -0.025471762 -0.06263939
-0.03473149 -0.05409755 -0.005462836 0.007892044 -0.04784585 -0.049408715 -0.019517107 0.030692952
-0.016779024 -0.062456664 -0.018856168 -0.051384583 -0.044281434 -0.034019724 -0.023004692 -0.038349684
-0.04015522 -0.024320588 -0.04556267 -0.03684094 -0.050025266 -0.03907378 0.0017127375 0.0003501811
-0.039031424 -0.06203739 -0.047566082 -0.022777973 -0.012027222 -0.033890076 -0.00617079 -0.0164136
-0.029539486 -0.04330131 -0.020690544 -0.03519495 -0.026090655 -0.013493575 -0.03415655 -0.04007225
-0.019997854 -0.058858108 -0.032301053 -0.052032445 -0.013625935 -0.025436677 -0.041622188 -0.040909447
-0.0434454 -0.03023411 -0.030534815 -0.019406294 -0.0035844466 0.0023557078 -0.031764407 -0.030672856
-0.07039664 -0.020734413

1.layers.3.0.weight f4 [74, 296]
00000000: 52b8 1d3e 1fd7 c4bc 83c9 cebc 3447 98bd
00000010: af83 0cbd 3c2f 5b3d c344 8f3c 9692 5e3d
00000020: 4bd0 113d d453 82bc ca68 3d3c 65fa 113d
00000030: 3929 29be 7ee4 a93b f112 5d3e 00df 8ebd
00000040: 90af 08bc d4b8 30bd fa3e 17bd ce2f cf3d
00000050: 121a f3bd ebb8 b9bd 00d1 c5bd 8e63 ed3d
00000060: 6f74 c73d c16f df3c 3ce8 8b3c f4bc 4ebd
00000070: d8a1 84bc a393 8d3d 0827 8cbd 9d39 39be
00000080: 22d0 55bd 35b4 3dbe 10f2 213d 0bbd d6bc
00000090: 8d4a 313c 49d7 46bd e6ee ffbd 72be b7bc
000000a0: 0384 8abd 25b8 fa3d 406e c2bd 0635 1b3d
000000b0: cb5e ae3b 59bd 283e 964c 833c 8ce1 5d3d
000000c0: a7ad 85bd 7873 c63d 628b 983c c740 1fbd
000000d0: 1a08 92bd a00c 03be e90f 8ebd 46b5 033c
000000e0: 62fc 7e3d a781 0dbe a654 0bbd 1631 223b
000000f0: 59bf ccbd f69d f53d 1800 383d 3b14 e8bc
00000100: c915 903d b03d f73d d14e f2bc 9f26 233e
00000110: 5374 fd3b 9cf2 1a3d 5ed0 57be 8048 f3bd
00000120: 5720 cb3c f17b cd3d d7a9 043e b878 b9bd
00000130: a9b1 0b3e e8f1 a03c 7ce4 3e3e 568b d73d
00000140: c89b bfbc 4d52 573d 7cdb a8bd a6d1 10bd
00000150: 8e5b 8338 03a1 ffbd d8e6 88bd 0770 5a3e
00000160: caa5 91bd af50 c2bd 9d3a cebc 362c 2e3d
00000170: 3124 cb3c 6398 75bd 4e5d a23d 90fd 963d
00000180: ed3d 8c3d 1b09 853c c5c9 ccbd c48b 3c3e
00000190: 9bf3 34bd 0f2e e8bc c79d bbbd 39fb 023e
000001a0: a01a 183d 12ca e2bc 1a25 853e 858d 1f3e
000001b0: bb20 683b 8fa1 9ebc 1fc3 843d a3aa e13d
000001c0: fe61 a3bd 359c 803d f017 ec3d e0ae b8bd
000001d0: 46a0 2f3d cadd 02be fd77 e03d 2a38 52bd
000001e0: 3065 dbbd eb8b 2c3d 218b 14be 0cec 6d3c
000001f0: 966a 89bd b07c 10be a7fb e63d b5f0 32bc
00000200: 5063 27be 8287 cb3c 943f 4fbe 789f 033d
00000210: 91e1 703d d76a 073d 1524 5b3c ccd1 4ebc
00000220: 2027 523d 3c9d 10be efde 26be 898e dcbd
00000230: b7c5 263a 57b2 eebd 27fe 1ebc 67b5 dc3c
00000240: deaa 453e a08a 0a3d 82fe 2f3d e535 54be
00000250: 1b4b 103e d84e 0c3e c4ba b63d 2816 c53c
00000260: 696d c83d e91d 09be 2cb4 213d 2885 e33d
00000270: 9e89 c0bd 5033 383e a381 cfbb 063a 8dbd
00000280: 9abb 123e a894 ba3d 3a64 7fbd a495 7e3d
00000290: 7b52 24be b940 d13d 9a7b ef3d ba22 383d
000002a0: 40bd 8bbd 2e81 a23c 3a61 19be fb4d a93d
000002b0: 8dc9 053d b9c1 103c e891 c73d e739 163e
000002c0: 43c2 be3d 9b77 e7bd 4bc0 55bd 5306 aebc
000002d0: 8f69 37bd 1104 843d 4f77 b0bd 61c0 22be
000002e0: bcfa ee3d c63b 6ebd 7ffa d13d 4cf0 f4bd
000002f0: 26ba d2bb 5487 89bd 94ef ebbb 0eee 97bd
00000300: 9bdf ee38 163c 00be 60a5 28bd 2f6e 1e3e
00000310: 7dc0 4a3e 8c27 aa3d e582 b2bd c4be ef3d
00000320: 5989 00bd b102 9d3d 8eda 0ebe 7f16 193e
00000330: 1caa 0abd 3e5f 28be 8c75 933c 3b1c 0e3e
00000340: 359c 613d 7f96 a83c f587 d8bd ee1d c5bb
00000350: a221 19be 632a e8bd 8f3d e2bb c06a 0e3d
00000360: e11b 51bc 31c8 003e 7d61 a8bd 0780 3d3d
00000370: e043 c53d 8d24 423e 7315 f03d d83f ddbc
00000380: 9ab6 d43d 56c9 62bc 47b6 9e3e 8c15 833e
00000390: 33d2 e53d 27e6 bebc a19b 773d c541 013f
000003a0: 826d b5bd 9cef cf3d e957 d83d 54bd 523e
000003b0: 782e 0cbe ce97 713e e298 df3d 2af6 54bd
000003c0: 236d 12be 3822 2cbe ba9e 32be e113 98bd
000003d0: 65b3 3abe 651c 3bbd 2f68 1c3e deb9 6abd
000003e0: e0c1 0dbd 481d 88bd ba95 abbd a740 a03c
000003f0: 5a22 a9bd 55a4 09be 6012 2a3d 9946 033e
0.15402344 -0.024028359 -0.025242573 -0.07435456 -0.03430527 0.053511843 0.017488843 0.054339014
0.035599034 -0.015909113 0.011560628 0.035639185 -0.16519631 0.005184709 0.21589257 -0.069761276
-0.008342639 -0.043145016 -0.036925294 0.1011654 -0.11870207 -0.090684734 -0.09659004 0.11591254
0.09739005 0.027274968 0.017078511 -0.05047317 -0.016190454 0.06912925 -0.06843382 -0.18088384
-0.052200444 -0.18525775 0.03953749 -0.02621319 0.010820997 -0.048545156 -0.12496738 -0.022429679
-0.067634605 0.12242154 -0.09493685 0.037892364 0.005321359 0.1647848 0.01602773 0.054170176
-0.06527262 0.09689993 0.01862115 -0.038880136 -0.071304515 -0.12797785 -0.06936628 0.008038824
0.06225241 -0.1381899 -0.034016274 0.0024748496 -0.09997434 0.11993019 0.044921964 -0.02832996
0.07035405 0.12072313 -0.029578598 0.15932702 0.007734814 0.037829027 -0.2107558 -0.11879063
0.024795694 0.100334056 0.12955414 -0.090562284 0.1364199 0.0196466 0.18641847 0.10524623
-0.023389712 0.052568723 -0.08244988 -0.035356186 6.26362e-05 -0.124818824 -0.06684655 0.21331798
-0.071117 -0.094880454 -0.025174433 0.04252263 0.02479753 -0.05995978 0.07927953 0.07372582
0.06847749 0.016239693 -0.09999422 0.18412691 -0.044177633 -0.028342275 -0.09160953 0.12791146
0.037134767 -0.027684245 0.2600487 0.15581329 0.00354199 -0.019364147 0.06482529 0.110188745
-0.07977675 0.06279794 0.11528003 -0.0901773 0.042877458 -0.12779918 0.10960386 -0.051323093
-0.10712659 0.042125624 -0.14506198 0.01452161 -0.06709783 -0.14110065 0.112784676 -0.010921647
-0.16346478 0.024844889 -0.20239097 0.032134503 0.058808867 0.033060875 0.013375302 -0.012623262
0.051306844 -0.1412248 -0.1629598 -0.10769374 0.0006361859 -0.116551094 -0.009704149 0.026941968
0.19303462 0.03382361 0.042967327 -0.20723684 0.1409115 0.13701952 0.089223415 0.024058416
0.09786493 -0.13390316 0.039478466 0.11109382 -0.094012484 0.17988324 -0.0063325926 -0.06895833
0.14329377 0.09110385 -0.062351443 0.062154427 -0.16047089 0.10217423 0.11693497 0.044954993
-0.06823206 0.019836988 -0.14978495 0.08266827 0.032662917 0.00883525 0.09744626 0.14670525
0.09314396 -0.1130211 -0.052185338 -0.02124325 -0.044778403 0.06446088 -0.08616506 -0.15893699
0.116689175 -0.058162473 0.102528565 -0.119598955 -0.006430882 -0.06715265 -0.007200191 -0.07418452
0.00011390374 -0.12522921 -0.04117334 0.15471719 0.19799991 0.08308324 -0.087163724 0.117063075
-0.031380985 0.07666529 -0.1395056 0.14949988 -0.033853635 -0.16442582 0.018000387 0.13877957
0.05508061 0.020579575 -0.10572807 -0.006015531 -0.14954236 -0.113362096 -0.006904311 0.034769773
-0.0127629945 0.12576367 -0.082217194 0.046264675 0.09632087 0.18959256 0.11722841 -0.027007982
0.10386391 -0.013841948 0.30998442 0.25602376 0.11221733 -0.023303105 0.060451154 0.5049098
-0.088587776 0.10153124 0.105636425 0.20580035 -0.13689601 0.23593065 0.10917832 -0.051992573
-0.14299445 -0.16809928 -0.17443362 -0.074256666 -0.18232496 -0.045681376 0.15274118 -0.057306163
-0.03460872 -0.0664621 -0.083781675 0.019562079 -0.08258505 -0.13441594 0.04152143 0.128199

1.layers.3.0.bias f4 [74]
00000000: 3652 64bd 6f6e 9fbd eb96 7ebc 5597 10bd
00000010: 3c55 3abc 2491 5fbd 256d cebc 6ebd 54bd
00000020: 9922 f6bc 59ea 30bd 8d62 70bd ae49 8dbd
00000030: 27a2 7ebd 39bb 8fba cf26 f3bc 5e0e 7fbd
00000040: a61e 02bd fc2a 3dbd 4fda a5bb f7ce 71bd
00000050: 8a99 08bd 4450 fbbc faa7 54bb 8438 96bc
00000060: 8e9c 55bd 5373 7abc c8d0 6cbd ebf4 26ba
00000070: edc0 87bd 23f0 93bb 69e6 05bd 2cb0 a3bd
00000080: 148a b6bc 20cf 2cbd 532e 2bbd 8306 57bd
00000090: 5bc2 8fba f7a9 2d3c 53df 38bd 11df f3bc
000000a0: b14a a33b e5e3 45bc b5ec 01bd 325e 4bbd
000000b0: b110 32bd 675a cabc 08d6 e9bb aaa2 3bbd
000000c0: 8d93 47bd c4e6 d0bc 1e4b 20bb 07f3 e0bc
000000d0: f17c 69bd de5e 12bc c479 43bd f4da dabc
000000e0: bb10 6ebd 09c4 c4bc 1bc0 a3bc b75a 47bd
000000f0: 52ed edba d80d faba 371b b1bc dd0f 43bd
00000100: ef24 9abc 2a8b 2bbd f950 fdbc feac 55bd
00000110: cc7d 21bd c8c0 b13c e896 a5bc e4de 7dbd
00000120: 41fd b3bc 1a9e 47bd
-0.055742465 -0.077847354 -0.015538911 -0.03530057 -0.0113728605 -0.054581776 -0.025198529 -0.051938467
-0.030045794 -0.04319224 -0.058687735 -0.06898819 -0.06216636 -0.0010965831 -0.029681591 -0.06226956
-0.03176751 -0.04618357 -0.005061425 -0.059035268 -0.03334955 -0.030677922 -0.0032448755 -0.018337496
-0.052151255 -0.0152862845 -0.057816297 -0.0006368893 -0.066285945 -0.0045147105 -0.03269044 -0.079925865
-0.022282638 -0.042189717 -0.041792225 -0.052496444 -0.0010967957 0.010599605 -0.045134854 -0.029769452
0.004983269 -0.01207826 -0.031719882 -0.04965038 -0.04347295 -0.02470131 -0.00713611 -0.045809425
-0.0487247 -0.025500663 -0.0024458836 -0.027459634 -0.05700392 -0.008933751 -0.047723547 -0.026715733
-0.058121424 -0.024019258 -0.019989064 -0.048670497 -0.0018152392 -0.0019077612 -0.021619422 -0.04762255
-0.01881644 -0.041880764 -0.0309224 -0.05216693 -0.03942661 0.02169837 -0.02021356 -0.061980143
-0.021971347 -0.04873476

1.layers.4.0.weight f4 [74, 370]
00000000: f7df c6bc 4f93 ba3c 858b b23d 4049 9d3c
00000010: cf2e 02bc fa66 2bbe 549d 22bd 61ae 503d
00000020: 407e 02be e5e6 fdbb 247d b83d 6406 08bd
00000030: cda6 27bd ef86 f33d e338 4cbd 18e4 5f3d
00000040: ee10 b53d f709 54bd 6448 88bd 3856 f6bc
00000050: 8b8c 8f3c d000 5cbd 3553 6dbd 5b4f 8f3d
00000060: 1dc6 863d 4336 abbc 200b a2bc 75c1 80bd
00000070: 4aec fcbc 8a1f 0dbd e6c6 8cbd c03e 9f3c
00000080: b958 093d 7106 7f3c a078 99bd 2fe7 e13d
00000090: 05ce 4c3d 935f 1fbd f6d6 08be b0f3 f83d
000000a0: ece9 9fbc 3734 df3d 3153 a73d ed76 b13d
000000b0: f940 a43c 5c93 373d f597 62bd 7158 ec3d
000000c0: 04f3 63bd cc5d 2e3c 5703 e2bc 8d6f bcbd
000000d0: 2a56 97bd 64e1 b9bc fa46 193d a001 48bd
000000e0: 9c86 9e3c 8fde eb3c 8f79 b2bc 0e9e cfbb
000000f0: c4fb 673d af6f 6e3c 712f 3e3e b5f2 04be
00000100: 4122 803d bc3e 68bd e59a 683d 6f09 143e
00000110: f278 e13d 3234 9f3c c536 95bd 8985 943d
00000120: 3962 52bd a50c bb3d f411 913c 7274 8fbd
00000130: a0d3 163d dbaf 9e3d f046 163b 271b 093c
00000140: 4cde 9c3d a046 ec3d a667 ca3d 2b46 6abc
00000150: 8f9e aabd f8d4 8fbd 1b2a 693c 1080 b33b
00000160: f779 c0bc a0ca f0bd 30c4 ebbc fd9f 393d
00000170: d843 753d 82c7 34bd afde 88bd bdee a23d
00000180: 74f5 00be 19a6 a6bd c4d2 943c 3810 243d
00000190: c334 893d c67c 433e e026 babd f56e 693e
000001a0: 335e 81ba 16ae e7bb 2c7a af3d 1c93 b73d
000001b0: 86a0 1ebe 2675 a1bc 6a5c a33d 0768 a6bc
000001c0: 3526 08be 1dca c63d e986 b7bc ad8f c6bd
000001d0: 364c 843d 22d8 773d 2941 9f3d e6ac b6bc
000001e0: a825 6bbd 29b0 153c c5cb 23be 3105 15be
000001f0: 45ec 42bd 8dc8 b33d 6d83 c6bc 85bf fabc
00000200: 2a2e 49bc 4b10 f93d 6326 fcbc fe97 6c3d
00000210: da54 abbd a114 5d3d 32e6 8bbd 42ca 93bc
00000220: 42d5 8a3c 17e9 a93c 5fec 6d3d ba13 ef3c
00000230: a15b 133e 9c5f a6bd 79fa c3bd 9a26 d13d
00000240: c912 0bbe 8d69 27bd 028c c7bd 5f72 803c
00000250: cca6 b3bb 8fc2 923b 6a2c ffbd c223 843c
00000260: 5366 e1bd 7585 b3bd 6833 793d 9c54 b93d
00000270: 8e7e f03d 2751 fd3c 93c3 d3bb 18c7 2a3d
00000280: 3f3b 31bc 5f38 28bd cc37 18be 4c1d e2bc
00000290: 17c5 dd3c 76ff 9ebc e054 c7bd 694b fe3a
000002a0: d2e6 cd3d dd71 c7bc 0d42 af3d d6d5 503d
000002b0: 8570 df3d 4c1a d23c fbb8 d33d 3ada aa3c
000002c0: 3f0f d9bc d0fb 91bd 35cc b23d 2420 eb3d
000002d0: b6c8 cc3c 9d61 313e 5c41 0bbd dda8 3bbd
000002e0: 5509 09bd 1c56 133d 8ff3 083d c97f 04be
000002f0: bb39 d0bb db95 833d 814e 5dbd f697 17be
00000300: acc6 063c f9d5 febd 26f4 093d 0374 95bd
00000310: b7be 0f3d 0697 593e 3194 86bc d00f bf3d
00000320: 6992 a83d 7dd6 8abd 1a22 3c3d 7a4b 293d
00000330: f7d3 9bbc 7aea c1bd 2285 40bd c1b5 8f3d
00000340: 3dc0 b13d 83cf 12be e560 8e3d 4f9b f9b9
00000350: afa0 daba e800 283e 0de9 503e 3052 5e3d
00000360: f1d0 acbd 74b0 0c3e b627 abbd 0d76 b63c
00000370: b047 4fbd 7044 96bd 315b 7c3c 945f 133e
00000380: 0261 4dbe 5b30 71bd 8f89 bfbd 0d95 d6bc
00000390: 11f8 90bd 16f1 cdbd 74ad 6bbd 46ec 3f3d
000003a0: 877a 32bd 41c4 31be bdd3 d43d 2d77 c8bd
000003b0: b81a 41bd a9bf a73c 2ab1 493c 3a53 213c
000003c0: 4331 003e ed5c 10bd 0dd7 d33c 7d33 38bd
000003d0: a2cb c2bd 2732 aabd 06af 173e 0e17 c03c
000003e0: f20f 06bd a438 3fbd 8d9d be3d 5ad4 45bc
000003f0: 8fa8 74bd 0fb4 863d e3d9 aa3d e973 87bc
-0.024276717 0.02277532 0.087180175 0.019199967 -0.00794573 -0.16738501 -0.03970082 0.05094755
-0.12743473 -0.007748472 0.09008244 -0.03320922 -0.040930558 0.11890971 -0.04985894 0.054660887
0.0884112 -0.051767316 -0.066544324 -0.03007041 0.01752307 -0.053711712 -0.05794068 0.06997558
0.06580756 -0.020899897 -0.019780695 -0.06286899 -0.03087439 -0.034453906 -0.06873874 0.019439101
0.03353188 0.015565501 -0.074937105 0.11030423 0.050001163 -0.038909506 -0.13363251 0.12155855
-0.019520722 0.10898631 0.081701644 0.086652614 0.020050513 0.044818267 -0.0553207 0.11540306
-0.05565168 0.01064248 -0.027589483 -0.09200964 -0.07389481 -0.022690482 0.037421204 -0.048829675
0.019351296 0.028792648 -0.02178648 -0.0063359803 0.056636587 0.014552995 0.18572785 -0.1298321
0.062565334 -0.056700453 0.056788344 0.14456724 0.110093966 0.019434068 -0.07285837 0.07252032
-0.051363204 0.09133271 0.017708756 -0.07004632 0.036822915 0.077483855 0.0022930466 0.00836829
0.07659587 0.11536908 0.098830506 -0.014298956 -0.08331024 -0.070230424 0.01423123 0.0054779127
-0.023495657 -0.11757398 -0.028780073 0.045318592 0.059879154 -0.044135578 -0.066830985 0.07955692
-0.12593633 -0.08137149 0.018166907 0.04005453 0.066995166 0.19090566 -0.09089446 0.22796233
-0.0009869993 -0.007070313 0.08568224 0.08963606 -0.15490922 -0.019709181 0.07976611 -0.020313276
-0.13295825 0.09706519 -0.022403197 -0.09695373 0.064598486 0.060508855 0.077761 -0.022299241
-0.05740896 0.009136238 -0.159957 -0.14552762 -0.047588605 0.087784864 -0.02423259 -0.030608902
-0.012279073 0.12161311 -0.030780023 0.05776214 -0.083657935 0.05397475 -0.06831016 -0.01804078
0.016947392 0.020741029 0.05808675 0.029184211 0.14390422 -0.08123705 -0.09569258 0.10212441
-0.13581385 -0.040872145 -0.09743501 0.015679536 -0.00548253 0.0044787596 -0.12459643 0.016130332
-0.11005845 -0.08765689 0.06084004 0.09049341 0.117428884 0.030922486 -0.0064625232 0.041693777
-0.010817348 -0.041069385 -0.14865035 -0.02760186 0.027071519 -0.019408923 -0.097329855 0.0019401136
0.10053791 -0.024346286 0.0855752 0.05098518 0.10910133 0.025647305 0.103380166 0.020856012
-0.026496528 -0.071281075 0.08730356 0.1148074 0.02499805 0.17322393 -0.03399788 -0.045815337
-0.033456165 0.035970792 0.0334354 -0.12939371 -0.0063545383 0.06425067 -0.054029945 -0.14804062
0.008226078 -0.12443156 0.033680104 -0.07297518 0.03509399 0.21249017 -0.016428085 0.09329188
0.082310505 -0.06779192 0.04593096 0.041331746 -0.019021971 -0.09468551 -0.047001965 0.07017089
0.08679245 -0.14336972 0.06952075 -0.00047608695 -0.0016679968 0.16406596 0.20401402 0.0542776
-0.0843829 0.13739187 -0.08357184 0.022273088 -0.050605476 -0.07337272 0.015402601 0.14391929
-0.20056537 -0.058884006 -0.09352409 -0.02619412 -0.07078565 -0.10055749 -0.057538465 0.046856187
-0.043573882 -0.17360021 0.10391948 -0.09788356 -0.04714462 0.020477133 0.012310306 0.009846503
0.12518792 -0.03524487 0.02585938 -0.044970978 -0.09511496 -0.08310347 0.1481286 0.023448493
-0.03273005 -0.046684876 0.09307394 -0.012074554 -0.059731063 0.06577312 0.0834234 -0.016534762

1.layers.4.0.bias f4 [74]
00000000: b1a8 b7bc 8443 19bd 0fd7 42bd 6e42 e7ba
00000010: 7b46 61bd 53f0 b1bc 2cc9 16bd 0082 8bbc
00000020: c1e4 95bb 6cbf 31bd f1b8 5bbc 2736 46bd
00000030: 6538 adbd 831f f4bc 3cba 26bd 1440 7abd
00000040: 3945 97bc d0e4 43bd 23d1 53bd 72cf debc
00000050: 9cd1 8bbc 4e8f 13bd f18d ccbc c0c3 d1bc
00000060: c506 bfbc d902 cdbc ebb2 3abd 2923 11bd
00000070: 9bb9 01bc f91a 61bc 117b e23b 5855 89bc
00000080: b786 46bd 0eca 81bd 8fae 29ba fc9f f1bc
00000090: a6b8 e8bc 78cc 4bbd d2cc e0bc b8d9 1dbd
000000a0: 845b 1ebd 8d6b 35bd 6edd cfbc cfc9 38bc
000000b0: f92a cbbc e24f 3ebd 2c68 2cbd 986f 41bd
000000c0: a401 d8bc 5cf8 1dbd dc4f 42bd b05b 2ebd
000000d0: ec47 2abb 82c6 3ebd 7e19 64bc 8b1a 6fbc
000000e0: ef8c 01bd 9b8f 3dbd 9793 0cbd 27bb 98bc
000000f0: 3fd7 79bd 2133 03bd 2c60 8abc 43ce 4cbd
00000100: 9c39 a139 feb9 34bd 62d1 72bd 6719 9fbc
00000110: 34cf 15bd 07a8 fdbc dbe3 27bd 46eb c7bc
00000120: 6795 5ebc c783 52bd
-0.022419306 -0.037417904 -0.047568377 -0.0017643699 -0.054998856 -0.02172104 -0.036812946 -0.017029762
-0.0045743887 -0.043395445 -0.013410793 -0.048391487 -0.08458022 -0.029800182 -0.04070495 -0.061096266
-0.018465625 -0.047825634 -0.05171312 -0.027198527 -0.017067723 -0.036025338 -0.024970027 -0.025606036
-0.023318658 -0.025025772 -0.045580786 -0.035433922 -0.007917787 -0.013739341 0.0069116433 -0.016764328
-0.048468318 -0.06337367 -0.00064728496 -0.029495232 -0.02840836 -0.049755543 -0.027441416 -0.03853771
-0.038661495 -0.04429202 -0.02537414 -0.011278584 -0.024800764 -0.0464629 -0.042091534 -0.047225565
-0.02636797 -0.038566932 -0.04743944 -0.04256791 -0.002598281 -0.04657603 -0.013922093 -0.014593731
-0.031628545 -0.04627953 -0.03432044 -0.018643929 -0.06099629 -0.032031182 -0.016891561 -0.050001394
0.00030751235 -0.04412269 -0.059281714 -0.019421292 -0.036574557 -0.03096391 -0.040988784 -0.02440418
-0.013585425 -0.051395204
