DNNWeights/model/ensemble_1/selected_set_1_0_9.onnx (onnx, 872444 bytes, 17 tensors)

0.embeds.0.weight f4 [2, 1]
00000000: 0a5c b33e 36a5 1abf
0.35031158 -0.6040834

0.embeds.1.weight f4 [3, 2]
00000000: ea16 a3be e703 ac3f 605a 56bf 8276 5f3f
00000010: 45f2 3a3f e704 2dbe
-0.3185342 1.3438691 -0.8373165 0.87290204 0.73025924 -0.16896401

0.embeds.2.weight f4 [2, 1]
00000000: 3acd 8abf 98c5 403f
-1.084388 0.75301504

0.embeds.3.weight f4 [2019, 50]
00000000: b25b 9abd a8c8 02be f60d 043d c7b5 81be
00000010: 4666 8dbf 4d00 ba3e 2ddc 373f d676 b8be
00000020: 74ca 1e3e 9cf5 ac3e aa65 32bf 60e0 8dbf
00000030: 735e 763f b9a0 06bf fcf7 26bf 0be5 903f
00000040: 1ea5 613f 337b ccbf 4fba fdbd 6dbf c4be
00000050: fef0 33c0 c585 cb3c 2e93 8bbf dff7 d1bf
00000060: edd0 273f da85 023f 3f7d 87bf fda0 b03f
00000070: 4538 d3be b903 85bf 8e38 513f 551b 94bf
00000080: 982a 2a3f 9186 35bd 1377 6e3e 6645 b5bf
00000090: 2e1b 4bbe 90c2 bc3e d21a cd3f d585 55bf
000000a0: f3cf d7bf 0e4f 89bf 3e61 cf3e 43b6 c8be
000000b0: 42e8 c33f bcaa 5b3f db9d bc3e 22ea d93f
000000c0: f4e5 72be c5b3 913e b657 11bf e3d4 3040
000000d0: 8beb bfbd a2f7 44bf 9e81 e73e 0883 c2be
000000e0: 2b31 1fbf 6900 9bbf 4b6c fd3c e949 acbd
000000f0: 6d68 fabc f461 e13f 80e5 843f 324d 6fbf
00000100: 3d0e 0d3e f0c9 b53f 1ddd 1abd dcce 553f
00000110: b0fd 803f c997 8c3f b63a 813f 9afd ad3e
00000120: f44d 51bd ca97 c93f f3fc a2bf cfad acbe
00000130: b757 fcbe 6e1d 1c3e b2ce 993f a10d d2bf
00000140: 54b1 abbf c9d1 8e3f f064 273f 5494 6abe
00000150: 9fae b13e 18af 18bf 8a0a 823e 933e 973f
00000160: 6722 1abe 2b74 25bf 321f c5bf e12d eb3d
00000170: 1b19 6d3f baaa 0540 939e bf3f a1cf 26be
00000180: 3c93 5f3d 8b73 0cc0 242d 823e c04a 253f
00000190: 7d9b 69bf 2735 c1bc 6639 4b3f 57be 07bf
000001a0: 82bd 61be b85b e5bf 50c8 92bf fadc b1bf
000001b0: 5f59 e53e f5f2 8dbf e687 ed3f 8d4e 91bf
000001c0: f352 7e3f febd 95bf a4e1 9b3e 5503 00bf
000001d0: 3d87 14bd 3304 1f40 f48a e33f c4dd 833f
000001e0: f811 c2bf 8159 113f 55ad 4bbe 891f 94be
000001f0: e856 6b3d d37a bf3f fdd8 5fbf 92ee 22bf
00000200: e7ee 66bf 056e 513f cff4 a5be db40 b9bf
00000210: b4ce 67bf 1360 ca3f bec8 fdbe 05a4 59be
00000220: c562 1dbe bb42 783f 292a 38be a420 97bf
00000230: 372e 1bbf 72df 44bf d331 f33e 0b54 89bf
00000240: 0ee7 0140 0432 c13f 0deb 54be 4b25 f2bd
00000250: f858 8fbf 6f8b 683e 4484 4c3f 9f83 d2be
00000260: a742 643e a4c7 b7bf c0c8 ddbe 53a6 363f
00000270: 0ea8 37be a506 f33f 037c d7be 995e f13f
00000280: fcdf 603e 6f9d c63d 28bb 9dbf c495 38be
00000290: 89e4 403f c836 443f 2c4f 893e e5cd ca3d
000002a0: 186b 54be e8bd b1bf 8d0d c63f ce27 89bf
000002b0: d3ad 473f 6567 cf3e c836 a53d f728 1a3f
000002c0: 6a87 46be 7f7b 1a3f 41aa 2c3e b222 76bf
000002d0: a67b e6bf d894 ea3d 8203 023f 1baa c6bd
000002e0: 5b25 93bf 4f8d bb3e 4f66 e3bf e143 17bf
000002f0: 216f 6dbf 90f7 1bbf bc32 b8bf 39f6 4cbe
00000300: b590 fbbe d97e 0abe 769b f1be 2711 243f
00000310: 5286 1e40 3294 c23e 1b83 1e3e 948a 4e3f
00000320: 3253 e53d 4535 d13e c101 82bc 9b29 cbbe
00000330: 6365 07bf 5ba0 203f 9f60 9b3e 5193 b73e
00000340: a9f5 f5be cf3e 75be fb90 363f 38f7 b23e
00000350: bcb3 433f c139 5b3f 47e4 5c3e f2d0 3f3f
00000360: cdba 68bf 78ee cfbf a58f 523f 2fa3 803f
00000370: eca9 ae3f 80c7 9ebf dd95 82bf f012 163f
00000380: c7e0 c4be d65f adbe de89 883d 7a4e 833f
00000390: 9ebb 0abf 83ff b8bf 22a5 3e3f be8e a93f
000003a0: ad4f 18bf 202d a2be c702 453f 8c24 1b3f
000003b0: 0696 29c0 4476 793f 842e a6be b8af 51bf
000003c0: f6b1 4bbe 8196 9cbe a829 29bf a20c 293f
000003d0: 1e76 f93e e2d9 a4bf 75df 9a3f 4f69 493f
000003e0: be00 b0bd 866e 8f3e 4903 31bf fed2 f23f
000003f0: d374 cbbf 7ece 4240 7a08 24be d6d4 a3bf
-0.07537021 -0.12771857 0.032239877 -0.25333998 -1.1046836 0.36328354 0.71820337 -0.36028165
0.15506917 0.33781135 -0.6968638 -1.1084099 0.9623787 -0.52588993 -0.65222144 1.1319898
0.88142574 -1.5975097 -0.12389051 -0.38427296 -2.811584 0.02484406 -1.0904291 -1.6403769
0.6555317 0.5098549 -1.0585097 1.379913 -0.41253868 -1.0391761 0.8172692 -1.1570841
0.6647124 -0.044317786 0.2328761 -1.4161804 -0.19834587 0.3686719 1.602381 -0.83407336
-1.6860336 -1.072725 0.40503877 -0.39201555 1.5305254 0.85807395 0.36839184 1.7024577
-0.23720533 0.28457466 -0.5677446 2.7629936 -0.09371098 -0.7694036 0.45216078 -0.37990594
-0.621844 -1.21095 0.030935427 -0.08412535 -0.030567372 1.7608018 1.0382538 -0.93477166
0.13774963 1.4202251 -0.037808526 0.8351877 1.0077419 1.0983821 1.0096042 0.33982545
-0.051099733 1.5749447 -1.2733444 -0.33726355 -0.4928567 0.15245602 1.2016203 -1.6410409
-1.3413491 1.1157771 0.65388393 -0.22908145 0.34703538 -0.5964217 0.25398666 1.1815971
-0.15052186 -0.64630383 -1.5400145 0.1148336 0.9261643 2.0885453 1.4970268 -0.16290142
0.054583773 -2.1945522 0.25425065 0.64567184 -0.9125288 -0.023584915 0.7938446 -0.5302481
-0.22044948 -1.7918615 -1.146738 -1.3895562 0.44794747 -1.108977 1.8557098 -1.1352097
0.9934532 -1.1698606 0.30445588 -0.50005084 -0.036261786 2.4846313 1.777678 1.0302052
-1.5161734 0.567772 -0.1989034 -0.2893031 0.057455927 1.4959358 -0.8744047 -0.6364528
-0.90208286 0.818085 -0.32413337 -1.4472917 -0.9054978 1.581057 -0.49567217 -0.21253975
-0.15369709 0.9697682 -0.17984833 -1.1806836 -0.60617393 -0.7690345 0.4749895 -1.0728773
2.0297275 1.5093389 -0.2079279 -0.11823519 -1.1199026 0.2270944 0.7988932 -0.41116044
0.22291051 -1.43578 -0.43317223 0.7134754 -0.17935202 1.8986403 -0.420868 1.8856994
0.21960443 0.09697997 -1.232274 -0.18025881 0.75348717 0.7664609 0.26818216 0.099025525
-0.20743978 -1.388608 1.5472885 -1.0715272 0.7799961 0.4050857 0.08067089 0.6021876
-0.19387594 0.6034469 0.16861822 -0.9614669 -1.8006485 0.11454171 0.507866 -0.09700414
-1.1495775 0.36631247 -1.7765597 -0.5908795 -0.92747694 -0.60924625 -1.4390483 -0.20015801
-0.4913384 -0.13524951 -0.4718892 0.6408867 2.4769483 0.3800369 0.154797 0.80680203
0.11197509 0.40860954 -0.015869977 -0.3968018 -0.5288908 0.62744683 0.30347154 0.3585458
-0.48038986 -0.23949741 0.7131497 0.34954238 0.7644613 0.85635 0.21571456 0.749282
-0.90910035 -1.624465 0.82250434 1.00498 1.3645606 -1.2404633 -1.0201985 0.58622646
-0.38452742 -0.3386218 0.06666921 1.0258324 -0.5419253 -1.4452976 0.7447072 1.3246686
-0.59496576 -0.31675053 0.7695736 0.6060264 -2.6497817 0.97446084 -0.32457364 -0.8190875
-0.19892105 -0.30583575 -0.6607919 0.660349 0.4872293 -1.2878993 1.2099444 0.78676313
-0.085938916 0.2801401 -0.6914564 1.897064 -1.5895027 3.0438533 -0.16018859 -1.2799327

1.layers.0.0.weight f4 [74, 74]
00000000: 62e3 ce3e 79c0 85be ed08 5f3d a72c 2e3d
00000010: 9bab ebbc 7e77 8bbe 159e 853d 913c 923d
00000020: 8d9a 38bd 7944 3abe c273 803e cabb 26be
00000030: 403c 17be 8ab1 09be 2987 403e 6d1a 4cbe
00000040: 6e8c 32be 63b4 0b3f fb17 a2be b8c0 373e
00000050: ba25 b83e 9011 cc3d f3df 00bf e6c8 cfbe
00000060: 07d7 fc3d a7d1 7cbe 227a a13e 6f5a 7f3d
00000070: 91f5 85be c57b 3e3e 651f a93e 2144 823e
00000080: 8d41 c93e 6c61 673e fc8f 4cbd 427b 8dbd
00000090: bb30 d83c 9452 efbd f840 fc3c 78ba 213d
000000a0: bbca 323e 923b 723c 6ead 37be 7428 efbc
000000b0: d36b 32be 6d67 8ebd 90df 04bc e39e fdbd
000000c0: 75b0 69bd 0abd 23bd 7fc0 af3d b7dc a53e
000000d0: e653 0fbc 33ce d7bc 79c9 39be 0b99 b23d
000000e0: 7c4b bcbd cd3c 5e3e caf8 a33d 2413 d6bd
000000f0: 8580 a6bd f00c 863b 90a5 febe 2b15 ebbc
00000100: 1947 90bd c51a 28bd 0c02 4cbd 5d00 123d
00000110: f152 4cbb f7d3 09bd 2cc0 70be 1d1e 3fbc
00000120: 2a6e d1bd f028 353d d9f2 e6bd e372 673e
00000130: 67a1 c5be 581b 96be 76de 373e a61e 7fbe
00000140: 168c 393d a1b6 903e 27c3 173e 817d 41be
00000150: d636 fabe 67f0 943c 6180 ae3d f685 843e
00000160: 8626 8c3e 3c7e 14be 0c44 be3d d400 333d
00000170: 55a6 bd3c 2fc9 ecbe 26a8 4c3e 123a e63e
00000180: 1168 dcbe ce74 8e3c 386a 543e 3b0d fa3d
00000190: 593e c8bd 771c e6bd c073 213e 50b1 f7bd
000001a0: e76b 593e d66b ba3e ec8b a03e 989b 303e
000001b0: c50b d6bb 739f 62be ab7b 823c 6f51 5e3d
000001c0: 4d0b 9fbd a4e2 6bbd a3ed c3bc d4ef 753e
000001d0: f7cd 9fbd 4bf3 3fbd f8d8 6abd 94b5 61bd
000001e0: 9527 f0bd d461 e53d 7ced 383e 4b77 e63d
000001f0: 3286 503d d6ec 9b3e 21cd d9bd 9fc9 bbbd
00000200: f75e 92be 26fe 103e dfac a03c 96ad 95bc
00000210: 8125 a83c dfdf 17be 6e00 09be 6bcb ef3d
00000220: 4784 6d3e f736 533e 3602 b03e 3ca7 88bd
00000230: 6932 623d c5b8 ee3d 8153 9f3e 1b3d 34bd
00000240: 53ab 183d 69d7 c63c 712d b9bd a217 a13d
00000250: d4c2 f83e 91ce 19be 994d cc3d 4c1b 963c
00000260: 5335 193f ebbc 56be a53a b73c d932 c53d
00000270: d014 b23e a2e8 a23d b854 0d3e 377d 13be
00000280: d40a b8bc f93c 9f3e 4400 ac3d 76da f23d
00000290: 115a 763e fe1a 733e 82a5 a33b 1a55 cb3c
000002a0: 6106 113e 9095 163e f6d4 7dbd 2970 1bbe
000002b0: b4eb 40be 8ebf 81bd 2014 adbe a569 34be
000002c0: c632 75be a703 b9bd 2db0 c9bd 44c6 0b3d
000002d0: 6162 c9ba 49fe 9dbe c6aa aabb 568e 73be
000002e0: 1e10 b5bc 98c6 9dbd 3b93 52be e446 cdbe
000002f0: 2abe 15be ed3d 5dbe cdb0 913d 2477 b7bc
00000300: 965e 443d 9cc1 6a3e 26b1 833e c195 9f3c
00000310: c090 a83d ab2f 35be 586b 05be dce6 693d
00000320: 82a5 a5be 7a85 803c 88f5 8d3d b9ed 8a3e
00000330: be50 213d 765d 513e dfc1 96bd f740 f83d
00000340: ada5 2d3c 76dc 98be b02a 7c3e d387 9b3d
00000350: b17a 1bbe a526 153e 6e88 873e 8c75 783d
00000360: 7d10 d4bd 9705 dbbd c935 ae3e a4f4 9c3d
00000370: 78da 3a3e a9cd f3be d851 c03e cf97 343e
00000380: 9835 5c3e 61a8 1cbf e29b 0a3f d057 463e
00000390: 9723 393e 4d25 78bd 2376 1abe de97 953e
000003a0: a008 033f 16c8 143e 7c78 1ebd 0b82 cd3d
000003b0: a442 a7bd 68b7 803d 90ab 5d3e 7861 213d
000003c0: c29a 813e f27d bdbc c395 823e ac2e fcbe
000003d0: fae3 623c b6e5 843d ef4d d33d 0425 53bd
000003e0: d23a 3cbe c1a1 793e 9eaa 2dbe 603c 5abe
000003f0: 7f13 493e 50ca a83d ab12 64be b613 b13d
0.40407854 -0.26123407 0.05445187 0.042523053 -0.028768351 -0.27239603 0.065242924 0.071404584
-0.045069266 -0.18190183 0.25088316 -0.16282573 -0.14769077 -0.13446632 0.1880156 -0.19931956
-0.17436382 0.54572123 -0.3165892 0.1794461 0.35966283 0.09964287 -0.5034172 -0.4058296
0.12345701 -0.24689351 0.31538492 0.062342104 -0.26163915 0.18601902 0.33031765 0.25442603
0.39307824 0.22595757 -0.049942 -0.06908275 0.026390424 -0.116856724 0.030792698 0.03948447
0.17460148 0.0147847105 -0.17937252 -0.029194094 -0.17423944 -0.06953321 -0.008109942 -0.12383821
-0.05705305 -0.039975204 0.085816376 0.32394955 -0.00874803 -0.02634344 -0.18143262 0.08720597
-0.09194085 0.21702881 0.08006437 -0.104528695 -0.08129982 0.0040908977 -0.4973569 -0.028696617
-0.07044811 -0.041041154 -0.04980664 0.035644878 -0.0031177367 -0.03364941 -0.23510808 -0.011664894
-0.1022609 0.044228494 -0.11276788 0.2260242 -0.38599703 -0.29317737 0.17955956 -0.24914035
0.045299612 0.28264335 0.14820538 -0.18895532 -0.48869962 0.018181039 0.0852058 0.25883454
0.2737314 -0.1450128 0.09290323 0.04370196 0.023150602 -0.4624724 0.19986019 0.4496618
-0.43048146 0.017389681 0.20743644 0.12209555 -0.09777517 -0.11235898 0.15766811 -0.120943666
0.21232568 0.36410397 0.31356752 0.17246854 -0.0065321648 -0.22131138 0.01592811 0.05427688
-0.07765827 -0.05758919 -0.023917025 0.24017268 -0.078029566 -0.04686288 -0.057335824 -0.055104807
-0.117263 0.112003 0.18059343 0.11253222 0.05090923 0.3045413 -0.10634828 -0.091693155
-0.28588077 0.1415945 0.019613681 -0.018271249 0.020525696 -0.14831494 -0.1337907 0.11708721
0.23194991 0.20626436 0.34376687 -0.066725224 0.055223856 0.11656336 0.31118396 -0.044003587
0.037272763 0.024272637 -0.090418704 0.07865836 0.48586142 -0.15020205 0.09975738 0.018323563
0.5984699 -0.20970504 0.022366831 0.09628839 0.34781504 0.079545274 0.13801849 -0.14403234
-0.0224661 0.31101206 0.08398488 0.11858074 0.24057795 0.23740765 0.0049940953 0.024820853
0.1416259 0.14705491 -0.061970674 -0.15179504 -0.18839914 -0.06335364 -0.33804417 -0.17618425
-0.2394515 -0.090339 -0.09848056 0.034124628 -0.0015364402 -0.30858067 -0.005208346 -0.23784766
-0.022102412 -0.077038944 -0.20563976 -0.40093148 -0.14623323 -0.21605654 0.071138 -0.022395678
0.047941767 0.22925419 0.2572109 0.019480588 0.08230734 -0.17693965 -0.1302923 0.05710493
-0.32352835 0.015688647 0.06931597 0.27134493 0.039383642 0.20445809 -0.07361197 0.12121766
0.010598582 -0.29855698 0.24625659 0.07594266 -0.15183522 0.14565523 0.26471275 0.060658976
-0.103547074 -0.106944256 0.3402541 0.07663849 0.18247402 -0.47617844 0.37562442 0.17636035
0.2150482 -0.61194426 0.5414411 0.19369435 0.18079983 -0.060582448 -0.15084128 0.29217428
0.51185036 0.14529452 -0.03868912 0.10034569 -0.081670076 0.06284982 0.21647477 0.039399594
0.25313383 -0.023131344 0.25504884 -0.49254358 0.013848299 0.064891264 0.10317599 -0.051548973
-0.18381813 0.2437811 -0.16959617 -0.21312094 0.19636343 0.08241713 -0.22272746 0.08646338

1.layers.0.0.bias f4 [74]
00000000: 4013 b5bd 29b1 4fbd 2a96 04bd fe4f f1bc
00000010: 9d5b 28bd a270 81bd 1b4c a5bc 90e7 8ebc
00000020: fe85 423c 1522 41bc f135 acbd 7983 33bd
00000030: 2781 043d 6536 43bd d23d 2d3c 6327 e8bc
00000040: 1435 5cbd 0e73 9fbc ce9d 823b 1e71 08bc
00000050: 83c7 b4bc c975 89bc 995a f33c 3f1a 7c3b
00000060: 5f57 23bd b0ab d7bc 889b f9bc 4c09 85bd
00000070: 38f9 42bd ef0d a0bd ee8a e2bc 568f 0ebc
00000080: c14b 75bd d213 1ebd cad1 49bd 41f0 aebc
00000090: 311e 4abd 0141 4dbd 466a 78bc ce54 e7bc
000000a0: 4b7a 553c dab5 bdbc f0f8 23bd a5fd d8bc
000000b0: 388f 91bc 2632 9abd 8760 36bd a8b8 32bd
000000c0: 2f33 8abb 45f1 72bd c560 8cbc ac67 393c
000000d0: 2bf2 5abd 8898 31bc 3156 c7bc 64b0 8d3c
000000e0: 1455 50bd 96df 97bd 95f7 81bd b26f 20bd
000000f0: 4550 7fbd bbe7 70bd e0ba ba3a 6699 84bc
00000100: 5653 1b3b 0cda 17bc c35e 3a3b afad 8ebd
00000110: 70ab 0ebd f7cc 34bd 9c6d ebbc f0ce 24bd
00000120: 9de0 4dbd 83df 08bd
-0.08841562 -0.050706062 -0.03236977 -0.029457089 -0.041102994 -0.06320311 -0.020177891 -0.017444402
0.011872767 -0.011787911 -0.08408726 -0.043826554 0.03234973 -0.047659297 0.010573821 -0.028339094
-0.053761557 -0.019464042 0.003986097 -0.0083277505 -0.02206779 -0.016779797 0.029706286 0.0038467792
-0.039878245 -0.026326984 -0.03046967 -0.06495914 -0.047600955 -0.078151576 -0.027654137 -0.008701166
-0.059886698 -0.03859312 -0.049272336 -0.021354796 -0.0493452 -0.05011082 -0.015162056 -0.02823868
0.013029645 -0.023158003 -0.040032327 -0.026488135 -0.017768487 -0.07529096 -0.04452565 -0.043633133
-0.0042175273 -0.059312124 -0.017135987 0.011316221 -0.053453606 -0.010839589 -0.024333091 0.017296024
-0.050862387 -0.074156925 -0.06346051 -0.03916902 -0.06233241 -0.058814745 0.0014246367 -0.016186427
0.0023700795 -0.009268295 0.002843783 -0.06966721 -0.034831464 -0.044140782 -0.02873879 -0.040236413
-0.050263036 -0.033416282

1.layers.1.0.weight f4 [74, 148]
00000000: dd82 2ebe aa94 18be 974d f6bd 94c7 fa3d
00000010: a80a 77be c090 96be 7e03 3c3e d36c 5b3e
00000020: 40a1 013e 3e8c 2dbd 9211 1ebe ca46 c5bd
00000030: 1506 a03d af0f 86be d477 85bd 4b5d 143d
00000040: ba3f d6be 6c89 a2bc 3633 d4bd 87ec c7bd
00000050: ee6f e43d 367f b0bc 5da4 313d 5fbf bb3d
00000060: 8ec6 36be 659a 183c df93 63be 03f0 0b3e
00000070: 094b d63d 6aa7 f83d 3e73 0c3d 87c4 d3bc
00000080: 7ef7 13bd 12af b6bd af1f d73d 6f92 5abb
00000090: f327 eebc 9760 e4bd f75a ccbd 76b1 2fbe
000000a0: b6af 64bd 9778 173e c282 00be fcef 82bc
000000b0: 607b 043e d08a 0d3e b5e5 1d3c 6fec c9bd
000000c0: 120f 8dbd f0d9 2bbd 5738 4a3d 650a 8237
000000d0: ea9c 24bd fe6a 38bc 138b ec3c c9e6 7e3e
000000e0: 5fb9 f1bd dca5 3c3d 08ad afbd 94fe 65bc
000000f0: 4073 9fbd 497f 353d ca02 e43d 7070 df3c
00000100: 20b3 153e 7084 023c adeb 883e 4340 eabc
00000110: ff96 53be 6ecb 01bd 0c37 06be 6a2e 27be
00000120: 886e 9fbd 5d1d 36be 0866 26bc 4e3b 80be
00000130: a660 183d 0450 72bd 011f 22bd d5bc 883e
00000140: 4ac5 a03c d417 313e 3dec 7abe 63d2 80be
00000150: c5ab 473d a7fc 8a3e ebd3 20be 4b5e 34be
00000160: 56cd 5b3e 1e92 28be 0187 7e3d 2d9b 3fbe
00000170: 3ef3 1d3e 734b 18be 7f16 41be 8891 2b3d
00000180: d69c 5f3e 9bd0 a03e bdb0 c1bd b169 f63c
00000190: 2ecd 53bd c4c0 54bb fc8a 2f3d b6e4 3dbe
000001a0: d264 c73d 2a35 783e 549f f6bd ff79 f5bc
000001b0: bcac 463e fb82 13bd c0a6 03bd f538 40bd
000001c0: 5bd9 3fbd 9183 563e 20dd 07be ec43 7cbe
000001d0: 75f6 173d 0487 39be 0328 683e 0824 42be
000001e0: 18a8 0f3c 6979 85bc 505f 093c fa3b d63c
000001f0: b3a0 183e 77ff 5a3d 5fe5 99bd b612 143d
00000200: 981a f1bd 9fd6 30bc 366a 9d3d 953e 193c
00000210: 74b8 0f3e 3a9d 75be 1998 9b3d e5a7 853d
00000220: bf04 153d 8ad4 f93c 3a9e 813d 900d 43be
00000230: e0ce 363e c131 7bbd f5dc 613d be5a 82bd
00000240: 1676 403b 7188 213e bf8d 4dbd b742 083e
00000250: 4a1b 933d d2d6 0d3d b3fb b2bc bfd4 c8bc
00000260: 166a 1e3d 3011 283d 8d58 3f3d 5b1e 1dbd
00000270: d825 fabd 654a 943d 739d 3fbe 278e 043e
00000280: 9448 773d e713 a4bd 006b 163e 4755 cabd
00000290: fe04 19bd 8b79 aa3d 5c19 37bd 2196 6fbe
000002a0: d418 c73d c784 c6bd 6b2f c9bd 222e a6bd
000002b0: 393e 9a3c ce61 d4bd fa10 9c3d 51de aa3d
000002c0: ff19 47bd 1fa4 87bd 3123 fd3c 5b36 e8bd
000002d0: c9c8 a3bb 533d 2bbd 7854 49be 1914 ca3c
000002e0: 42b6 4dbd 14b6 48be 49d3 bfbc 1dcf 30bd
000002f0: 32ec 5cbd 4474 c3bd ee63 a0bd d5af 0c3e
00000300: a1e8 37be c07d 393c c1f1 993d db07 25be
00000310: 0c76 b9bd 7e96 22be e424 733d 08db 52bd
00000320: 45f2 5abc 583e bcbd fba5 153e 6d82 66bd
00000330: beef 94bc 356a b03d 8a97 333d da61 d1bc
00000340: 56c1 b33d 6f87 83be 866e e53c 65a8 2ebe
00000350: 4460 d63d 2d0f 40be 4707 efbd 825b 1dbe
00000360: d436 4d3e 3768 b53d 3cfd e5bd 88d5 5bbe
00000370: 3b64 093e 5e33 2fbd 63cb 91bd a8ed ddbd
00000380: b6a9 d9bc d0a2 b93c 5302 4d3e a261 713e
00000390: 1000 fb3a a8b6 7b3d 79a7 d53d 29c6 21be
000003a0: e32b c9bd a4f2 ddbd fe9f 223c 50a6 52be
000003b0: a60d 58bd bb75 f7bd 80c0 b03c e48a 07be
000003c0: a91a 6d3e a1a5 c33c cbf4 b1bc 5c0d f0bd
000003d0: f418 6b3d c58b 1b3e e04e 7b3c 5ad0 01bd
000003e0: 39d1 133e d9cc b73d cb9b 15bd 3419 03bd
000003f0: fc5f 013c d24d 78bd 7fa9 a5bd 4fd4 f63b
-0.17042108 -0.14900461 -0.12026518 0.12245098 -0.24125159 -0.2940731 0.18360707 0.21428232
0.12659168 -0.042370073 -0.1543639 -0.096326426 0.0781366 -0.2618384 -0.06516996 0.036221784
-0.41845495 -0.019840918 -0.1036133 -0.09761911 0.111541614 -0.021545034 0.04336964 0.091673605
-0.1784918 0.009314154 -0.22224377 0.13665776 0.104635306 0.12141307 0.03428959 -0.025850547
-0.0361247 -0.08920111 0.1050409 -0.0033351441 -0.029071784 -0.111512356 -0.09978288 -0.1715754
-0.055831634 0.14792095 -0.1254988 -0.015983574 0.12937689 0.13822484 0.009637286 -0.09859549
-0.0688764 -0.04195589 0.049370136 1.5502048e-05 -0.040188707 -0.011255978 0.02887491 0.24892725
-0.11802935 0.046056613 -0.08577925 -0.014037747 -0.07785654 0.04431084 0.111333445 0.027275294
0.14619112 0.007966146 0.26742306 -0.028595096 -0.20663069 -0.031688146 -0.13106936 -0.163263
-0.07784754 -0.17784639 -0.010156162 -0.25045246 0.037201546 -0.05915834 -0.03958035 0.26706567
0.019625325 0.17294246 -0.2450418 -0.25160512 0.048747797 0.27145883 -0.1570584 -0.17614095
0.21465048 -0.1646199 0.06214047 -0.18711539 0.15424821 -0.14872532 -0.18856238 0.041886836
0.21837172 0.31409153 -0.09457538 0.030079694 -0.051709346 -0.003246353 0.042857155 -0.18544278
0.09736027 0.2423903 -0.12042108 -0.029965399 0.1940183 -0.036013585 -0.032141447 -0.04692932
-0.046838146 0.20948626 -0.13267946 -0.24635285 0.037100274 -0.1811791 0.22671513 -0.18959057
0.008768104 -0.016293244 0.008384541 0.026151646 0.14905052 0.053466287 -0.07514452 0.036150657
-0.117726505 -0.010793357 0.07686274 0.0093533 0.14035207 -0.23985758 0.0759737 0.06526164
0.03638148 0.030496854 0.063290074 -0.19048142 0.17852354 -0.061326746 0.05514236 -0.06364964
0.002936726 0.15774705 -0.050184008 0.133067 0.07182939 0.034628697 -0.021848535 -0.024515508
0.03867539 0.041032016 0.046715308 -0.038359027 -0.12214249 0.07240752 -0.18712406 0.12944852
0.06037195 -0.080116086 0.14689255 -0.098795466 -0.037358277 0.08323964 -0.04470192 -0.23397113
0.097215325 -0.09693294 -0.098234974 -0.08114268 0.018828498 -0.10370217 0.076204255 0.08343185
-0.048608776 -0.066231005 0.03090057 -0.113384925 -0.0049983007 -0.04180653 -0.19661129 0.024667786
-0.050222643 -0.19600707 -0.023416178 -0.04316627 -0.05393619 -0.0954366 -0.0783156 0.1373895
-0.17959835 0.011321485 0.07516814 -0.16116278 -0.09055719 -0.1587772 0.059361354 -0.051478416
-0.013363426 -0.091915786 0.14614098 -0.056276727 -0.018180724 0.086140074 0.04384569 -0.025559355
0.0877711 -0.25689265 0.028006803 -0.17056425 0.1046758 -0.18755789 -0.1167131 -0.15366939
0.20040447 0.08857768 -0.11229941 -0.21468174 0.13417141 -0.042773597 -0.07118871 -0.10836345
-0.026570182 0.022660643 0.20020418 0.235724 0.0019149799 0.06145349 0.104323335 -0.15798248
-0.09822824 -0.10837296 0.00992584 -0.20571256 -0.05274739 -0.12083002 0.021576166 -0.13236576
0.23154701 0.023882689 -0.021723172 -0.11721298 0.057396844 0.15190037 0.0153386295 -0.03169284
0.14435281 0.089746185 -0.03652553 -0.032006457 0.00789642 -0.06062109 -0.080889694 0.0075326334

1.layers.1.0.bias f4 [74]
00000000: 1798 0abd 62c4 64bc 28d1 24bd 1923 ffbc
00000010: b36d 23bd a04a a63b ebdb 483c 8b1a 28bd
00000020: 51ea 3cbd b572 5ebc bdc0 e5bc f26b 503c
00000030: 1c0f b5bc 67bf 3cbb 469f d73b 6e30 f5bb
00000040: b323 44bd bbde e8bc 864a 0dbd 6724 c8bc
00000050: f24d 9bbc 8759 90bc a412 16bd 2ce3 9cbc
00000060: 51c2 04bd cb17 0abd 4db0 15bc dffc 37bd
00000070: 43c0 26bd d62a 8fbd a3e5 4abd 5712 3fbd
00000080: 4201 6ebd 080a 30bd 8015 8dbc 2893 84bc
00000090: b500 4cbd a9a0 58bd 976a 63bd 9a20 4dbd
000000a0: 3351 49bd 83c2 8bbd 543e 21bd d489 5d3b
000000b0: f08c a0bc d660 b3bc 67a4 82bc f193 f1bc
000000c0: 423f bcbc dc88 34bd d81e 3abd 9a18 18bd
000000d0: 6281 a2bc f7ae 50bd cfbf 05bd 8336 2abd
000000e0: 329a d03b 07fc 0e3c 2b4a 2bbd eb2f 34bd
000000f0: b534 4abd bc96 f23b 4a1e 34bd 6c63 58ba
00000100: 2c69 12bc 12b4 4dbd 9688 5dbd 4157 7ebc
00000110: 0207 2cbd a937 a1bc a19a 06bd 55e0 1dbd
00000120: 0dd6 f9bc ef5f f3bc
-0.03383645 -0.013962837 -0.04023853 -0.031144666 -0.03989954 0.005074814 0.012259464 -0.04104094
-0.0461219 -0.013577153 -0.028046006 0.012721049 -0.022101931 -0.0028800608 0.006580266 -0.00748258
-0.047885608 -0.028426519 -0.0344949 -0.02443142 -0.018958066 -0.017620815 -0.03663887 -0.019151293
-0.032411877 -0.033714097 -0.009136272 -0.04491889 -0.0407107 -0.06990592 -0.049535405 -0.04664835
-0.05810667 -0.042978317 -0.017222166 -0.01618345 -0.04980536 -0.052887592 -0.055521574 -0.05007992
-0.049149703 -0.068242095 -0.03936608 0.0033804076 -0.019598454 -0.02189676 -0.015947534 -0.02948949
-0.022979382 -0.04407583 -0.04543957 -0.037132837 -0.019837085 -0.05094811 -0.032653626 -0.041555893
0.0063660378 0.00872708 -0.04181878 -0.04399101 -0.04936667 0.007403223 -0.0439742 -0.0008254561
-0.008936208 -0.050220557 -0.054085337 -0.015523733 -0.04199887 -0.019679861 -0.03286231 -0.038544018
-0.030497575 -0.02970883

1.layers.2.0.weight f4 [74, 222]
00000000: c98f 6dbd 46c6 273e 93ba 2fbd 09f3 8ebc
00000010: 388f 653e 5e39 8cbd 76d4 37be 7dcb 72be
00000020: 7232 23bc e353 153e d876 04be 57ff 1e3e
00000030: f487 c23c c73b b8bd b7fa de3b 7b32 443d
00000040: 4339 44bd 0064 85bd 5fef a4bd efba afbd
00000050: 49de b33c 606a 3abd 7762 393c b2a6 02be
00000060: 42ee 27be 324b f23d a925 2a3d ca12 f3bd
00000070: 5fa0 29be 4ac7 53bd 9416 393d e487 42bc
00000080: f715 f93c 50bd 1ebd 37c8 e33d 4b27 03be
00000090: e873 443d 1fcb 8d3d b632 08be 2a27 21be
000000a0: 4a1b 12bd 26ab 9e3d 0b5d 023e c402 f7bd
000000b0: c89a 773d 5336 7dbd d7e6 293d ba75 ab3d
000000c0: e247 a2bd 0145 ffbd 3c00 3c3d c845 6fbe
000000d0: ef61 afbc dcb4 b1bd 1cfa 57bd 4fc1 243e
000000e0: 7d04 dabd 4310 013d 85eb d23d 578e a6bc
000000f0: 159b 073e e6fa 2bbc 9a53 2a3d 8ec6 5f3d
00000100: da6f 58bc 0d59 123e 957a 83bd 44e8 86be
00000110: 8a77 23be 88fe d8bd 6b42 78be 8784 9e3d
00000120: cf4b a33d eb23 b13c 094d 1cbe 6b3e ccbd
00000130: d6a0 993d 287c cebc ec4f 8bbe 46ed 8bbd
00000140: eea2 6e3d a792 f6bd 2572 e0bc f7d6 ee3d
00000150: 9cc6 5cbe 5051 02be 4df0 043d 3a7c 53be
00000160: 8d71 b43d fc3e 27bd aec3 5dbe 3f20 a0bc
00000170: 104d dbbd f0df ddbc f9b3 e9bd 00bd 4f3d
00000180: 1a3d 9dbd c380 263e acdd 97bd 1a42 343e
00000190: cd53 4e3d 5690 d73c 6e86 d1bd 50f9 6dbe
000001a0: ee8b 27bc 0a3c ca3d af11 90bd ade5 91bd
000001b0: 15c8 ecbc c683 1a3c fe1f a8bb 0bc3 073d
000001c0: 30d1 ba3d cb6e 8b3d 68b2 d6bd a1c4 c63d
000001d0: e059 e3bb ed09 09bd 946c 30bd b323 28bc
000001e0: 55eb 5abe 86fa 873c 19c0 93bc 3a9c 1c3e
000001f0: 4857 793b 9300 6fbd 1d2b 673d 9567 c8bc
00000200: 137f bebc d419 3fbd 420c 1a3e 663a e43c
00000210: 39e9 40be aa0b 25be 32d7 91bd 20dc a43d
00000220: c8b6 f5bc b0a5 1dbe 3757 5bbe a669 193e
00000230: 6295 7abe 0d60 4ebe d60f 45be 93a0 c03d
00000240: da6b 183d 9f9c 4f3d 924c 963d 0f17 acbd
00000250: 349a d5bd 44a4 b63e bf7c 433e 8d26 9cbe
00000260: 17b5 173c 4fb6 a9bb 0a78 98bd 49da cabe
00000270: d379 5abc d27e e6bd 827b 293e a66e 8fbe
00000280: b8b0 b0bd 4f60 05be bbdc 7b3e e8c3 0e3e
00000290: 3b15 183d b7e8 483e a4d0 223e 038d 5fbd
000002a0: fabb 8bbc 83a3 fabd 7455 7f3e c928 883d
000002b0: 0393 bd3d 6508 07be 942e 07bd 7544 07be
000002c0: 8bb4 723b 492e 61bc e06e f0bd 3010 61bc
000002d0: 3c90 3d3d 4476 debd baeb c6bc 530d 523e
000002e0: 2605 5dbe 32ae 1bbe 0479 59bd 0a8f 1ebe
000002f0: 05c4 d1bd 0f51 f83c 8c0e e93c ae13 083e
00000300: 3e4c 48bd d13c 813c 7af3 85bd b82e d2bd
00000310: e6b0 1abd 839e 91be 90d9 89bd 6cc9 08bb
00000320: 6695 25bb 58df b8bd 295a 9b3d 33f4 abbd
00000330: 65d4 2e3d c82e 363d 96ef 963d a12e b2bd
00000340: d5f4 13be 2c1a 39be c1d5 fb3d f83b 693e
00000350: d7ea 11be c12d f3bd c513 f1bd 7faa 2e3d
00000360: 606c 903d 1697 b5bd 8715 08be 6a8f 3a3e
00000370: 5161 133b 9392 87bd 969d 18bd 8632 443e
00000380: 2182 8b3d e6f7 e7bb 9cb3 1b3c 893e 5abc
00000390: 9321 3a3d 085c d5bd 8cd6 00be 1f97 eabd
000003a0: 0634 973c 6699 173e 09a0 48be ff31 18bc
000003b0: 6198 a0bc f8b0 003c 1ba8 11be d76a 4dbd
000003c0: ddb1 7bbd c98d 24be a7a0 ebbd d491 383d
000003d0: 7328 1abe 79d4 753e c41e a6bd b0c0 993d
000003e0: b220 5aba 5727 11bc 8a22 6cbd 0937 7cbc
000003f0: 13ba 73bd 2c6f b63c 4126 ac3d abf2 20be
-0.057998452 0.16384229 -0.04290254 -0.017449873 0.22417915 -0.068468794 -0.17952141 -0.23710437
-0.009960758 0.14582781 -0.1293596 0.15527092 0.023746468 -0.089957766 0.00680479 0.047899704
-0.04790617 -0.06513214 -0.08053469 -0.08580577 0.02195658 -0.045511603 0.01131498 -0.12758902
-0.16399482 0.118307486 0.04153982 -0.11868818 -0.16565083 -0.05170373 0.045187548 -0.011873219
0.030405981 -0.03875476 0.11122172 -0.12807958 0.0479621 0.06923508 -0.13300595 -0.15737596
-0.035670556 0.07747488 0.12730806 -0.120610744 0.060450345 -0.061819386 0.04147991 0.08372064
-0.07923867 -0.12464333 0.04589866 -0.23366463 -0.021409003 -0.08677074 -0.052728757 0.16089366
-0.10645387 0.03150965 0.10298828 -0.020331545 0.13242753 -0.010496831 0.041583635 0.054632716
-0.013210261 0.14291783 -0.06419865 -0.2634908 -0.1596357 -0.10595423 -0.24244086 0.07740121
0.07973444 0.021623572 -0.15263762 -0.09972843 0.0750138 -0.025205687 -0.27209413 -0.06832366
0.05826085 -0.120396905 -0.027398178 0.11662095 -0.21560138 -0.12726331 0.03245573 -0.20652857
0.088107206 -0.04083155 -0.21656677 -0.019546626 -0.10708058 -0.02708432 -0.1141128 0.050717354
-0.0767767 0.16260056 -0.074153274 0.1760334 0.050372887 0.026313942 -0.102307186 -0.23239636
-0.010226233 0.09874733 -0.07034623 -0.07123885 -0.028904 0.009430831 -0.005130767 0.03314499
0.091219306 0.068082415 -0.10483247 0.09705473 -0.006938204 -0.03345673 -0.0430723 -0.010262418
-0.21378835 0.016598951 -0.018035935 0.1529397 0.0038046408 -0.058350157 0.0564376 -0.024463454
-0.023253953 -0.04665549 0.15043738 0.027859878 -0.18838967 -0.1611773 -0.071211234 0.08049798
-0.029994383 -0.15395236 -0.21419989 0.14981708 -0.24471048 -0.20153828 -0.19244322 0.09405627
0.03721223 0.050686475 0.073388234 -0.084028356 -0.104298025 0.356722 0.19090556 -0.30498162
0.009259484 -0.0051792036 -0.07444771 -0.39619663 -0.013334709 -0.11254658 0.1655102 -0.28014106
-0.086274564 -0.1302502 0.2459592 0.1394192 0.037129622 0.19620024 0.15899903 -0.05457784
-0.017057408 -0.12238219 0.24934942 0.06648404 0.09256556 -0.13186796 -0.033003405 -0.13209708
0.0037033882 -0.013743945 -0.11739898 -0.01373677 0.04628013 -0.10862401 -0.024282325 0.20512895
-0.21583995 -0.15203169 -0.053093925 -0.15484253 -0.10242466 0.03031209 0.02844932 0.13288757
-0.048900835 0.01577607 -0.0654058 -0.10262817 -0.03776636 -0.28441247 -0.0673095 -0.002087201
-0.002526605 -0.090269744 0.07585556 -0.08396187 0.042683024 0.044478208 0.07369916 -0.087003
-0.14448865 -0.1807639 0.1229663 0.22776783 -0.1424974 -0.11873961 -0.11771349 0.042643066
0.07051921 -0.08866708 -0.13289462 0.1821877 0.0022488425 -0.06619754 -0.03725966 0.19159898
0.068119295 -0.0070791123 0.009503271 -0.013320574 0.045442175 -0.10417944 -0.12581843 -0.11454605
0.018457424 0.1480461 -0.19592299 -0.009289264 -0.01960391 0.007854693 -0.14224283 -0.05015072
-0.06144892 -0.16069712 -0.115052514 0.045060948 -0.15054493 0.24006833 -0.08111337 0.07507455
-0.0008320912 -0.008859477 -0.057650127 -0.015393981 -0.059503626 0.022269808 0.08405734 -0.1571757

1.layers.2.0.bias f4 [74]
00000000: 9364 8ebc 357b 04bd 6e44 9cbc ae48 793c
00000010: f8cb 4fbd 5c24 31bb ba21 babc 1693 1a3c
00000020: 1e60 64bc bad1 4bbd 2eff 9ebc f0e9 54bd
00000030: f05d 3cbd 701f 15bd 4232 07bd 5bd0 b0bc
00000040: e2a2 5bb8 6521 26bd 3ff1 0439 f9b1 06bc
00000050: 68a5 6abd 2382 74bc aa09 babc efd9 103b
00000060: 3654 99bc f9d3 0a3c 7c96 07bd 22b7 a8bc
00000070: f5d9 893a 1391 05bd b9f9 80bd 2dfb e9bc
00000080: 288f c23c 196c b4bc cc73 62bc bfc9 97bc
00000090: 9db2 82bc fd4b e0bc 8873 9abc 97e7 38bd
000000a0: 0024 2dbd 522c 14bb ad5d 8abc 482c 79bb
000000b0: b9f6 f1bc 52d1 98bc 1602 dcbc 4ce2 89bc
000000c0: 87ae 87bc 2395 c0bc 1db7 3dbd 91e0 6ebd
000000d0: 31bf ccbc d4f9 24bd 7cd3 98bc 57ca 02bd
000000e0: b1f6 9abd 288c 5fbc fa8d 4abd 2a4c 15bd
000000f0: b06e acbc 62dc e4bc 3765 e6ba 2d80 3dbd
00000100: 6751 e8bc 3e4a 41ba 58a1 afbc 324c 3dbd
00000110: 409d a8bc d2ea 36bc 31ac 35bd e9e2 68bd
00000120: 2ae5 c3bc 5505 67bd
-0.017381942 -0.032344062 -0.019075599 0.015215082 -0.05073163 -0.0027029729 -0.02272116 0.009434482
-0.013938932 -0.049760558 -0.019408789 -0.051980913 -0.045988023 -0.036406934 -0.033006914 -0.021583727
-5.2365365e-05 -0.04055919 0.00012678372 -0.008221143 -0.05728665 -0.014923605 -0.022709686 0.0022102555
-0.018716913 0.00847339 -0.033102497 -0.020595137 0.0010517227 -0.032609057 -0.06297631 -0.028562153
0.023749903 -0.022024201 -0.013821553 -0.018528817 -0.01595431 -0.027379984 -0.018853918 -0.045142736
-0.04227066 -0.0022609425 -0.016890371 -0.0038020778 -0.029536592 -0.0186545 -0.026856463 -0.01683154
-0.016562713 -0.023508614 -0.04631721 -0.058319632 -0.02499351 -0.040277317 -0.018655531 -0.031931248
-0.07566584 -0.013644256 -0.049451806 -0.03644959 -0.021048874 -0.027937118 -0.0017577772 -0.046264816
-0.028359128 -0.00073734287 -0.02143924 -0.046215244 -0.020582795 -0.011164384 -0.044353668 -0.056857023
-0.023912985 -0.05640157

1.layers.3.0.weight f4 [74, 296]
00000000: ef37 2f3c 28e7 7ebd 287f b6bd 9042 023e
00000010: be70 35bd 990d 35bd bd0b a43d 0b1b 3c3c
00000020: 58f0 923d 003f 01bd c9e1 e83d 235a bbbd
00000030: 8248 0ebe 087b ccbb eb92 d03d 6145 613b
00000040: c1f6 a2bd 3bd8 553d b8f5 5abd 3b8d 263d
00000050: cedf d13c 11f3 c03d c89c 36bc fb22 c83c
00000060: 73c3 cdbd 6790 a6bb 13df 9a3d 99ee 2f3e
00000070: 860c c6bd d2af a63d 4167 413d d4ba 6abd
00000080: defb 313e 13df 3cbd e991 cabd e3de 653d
00000090: f218 2a39 c1bd 143c 3134 ed3c 30a6 803d
000000a0: 3a50 3cbe 0d82 ed3d f714 243c 5641 c13c
000000b0: ac74 dcbd 376d 053d 514f 07be ee95 733c
000000c0: 6d55 053e db9e 5d3d 4b98 693d 4ef5 45be
000000d0: fc89 ccbd c711 90bd 17d8 a5bd 6efc 71bc
000000e0: 9770 2a3e 5b1a fdbd 0d49 3e3e 0460 a13d
000000f0: 2096 98bb 7dc5 7a3d 2950 c6bd a249 2e3e
00000100: 6a44 943c 3c20 31bd 1890 943d e26f ec3b
00000110: 8e13 86bd 474f 9e3d b8f9 2abd d67a 7abd
00000120: cd37 903d ca73 873d 4956 153d b7db 723d
00000130: 7476 f03c 8fb7 0b3e 48b8 283e 105c 3ebd
00000140: 25de ccbd 5f53 44bc 4a96 b43c 4065 a9bd
00000150: c93e 86bd c660 e13b 9aef c4bd 5ba0 543d
00000160: b13b fc3c 7d25 493d 01b1 c73c a0cb 933d
00000170: 1471 81bd 844c 83bc 080b bdbd 7d3a 32be
00000180: e4dd 133e 4e0c 043e 4c0a 743d 9cf7 e8bc
00000190: 18a3 b03b 3743 00bd 65b5 b53d dc45 df3c
000001a0: 3dca afbd 6960 8a3a f624 c8bd 1aa7 d3bc
000001b0: 6dd8 4c3d 3cba 8fbd fe1f c23d 8278 f1bc
000001c0: 0d4b edbd 4937 1cbd bc98 5b3d 98bc 973d
000001d0: 40ca 2c3d a08a 003e e18e b53c 9201 b7bd
000001e0: 7b2e 8abd 2be2 dabd 7bb8 17bd be63 0c3d
000001f0: 61a1 9c3c 3f4c a1bd 68e6 b93d 35be 59be
00000200: 6c5f 4a3d e9fc 85bd c75a 9fbc c126 adbc
00000210: bda2 8dbd d5fa dcbd 0804 1ebd a99b b33d
00000220: 06c2 5abc 2682 acbd 3786 f2bc d6ea 813c
00000230: e31a 5d3d bce7 e33c c186 8ebd 57b0 343d
00000240: ba5e ffbd 38fb 94bd d654 d03c 096c c53c
00000250: f9d5 0c3e 8c6a 6e3d b00f 04bc 1f31 89bc
00000260: 4ade 4cbd 5afc 2abd e5b2 d0bc 305e c93d
00000270: ac6e 823e 592e 833c 4fe1 3cbe 92a5 af3d
00000280: 9454 f23d 9109 5a3e 9c1e 96bd 9212 9d3d
00000290: 6ddb 40bd a32a 98bc 8e70 32be 876b 18bc
000002a0: dd8d 833d 9978 86bd cc4a a93d fd71 cb3d
000002b0: 9782 e5bb a52b 12bb 0339 393d 002e b13d
000002c0: 1a3b 043e ffb5 1ebd fa16 a9bd 44d4 3abd
000002d0: e8ef b7bc 2c6a dc3d 11de e0ba efbf 40be
000002e0: 9eda dc3d 5275 9b3d c282 893d f4b7 90bc
000002f0: 2d6f 343e 80f2 7f3d cf75 073e efca 033e
00000300: b917 c9bd c1fc f43d f14c 863b f6d0 63be
00000310: 4bb2 1b3e 2942 46ba 6f4b 9c3d 94de 073e
00000320: ed87 7f3d 97e2 e4bd 7aa7 02be 78f8 993d
00000330: 25ba 86bd 5031 5dbe fa36 403d d16d fcbd
00000340: 5115 82bd 0d70 43bd 3fae a33d 2af8 8e3d
00000350: 0a15 fd3c 2e9e 90bd 4c95 c6bd 4f14 0c3e
00000360: ddc6 c83c d36c 9bbb eb95 e73d 0e95 d1bd
00000370: ed8a d33d 1f1f 353d 0288 dd3c cc33 553d
00000380: b8bc 0c3d b9a6 e6bd 5e37 ef3c 54eb 6abe
00000390: 2fd3 e83d ff56 8a3d 70be 193d ca7f f9bd
000003a0: e5c5 4bbc f0a4 a23c 1d8e 71be 4ce6 4abb
000003b0: 0ec3 123d 8ff6 713d 7178 9c3d 9bf0 d7bc
000003c0: c745 94bd 5e3e 4e3d 61ae 973d d9cf dd3d
000003d0: ce9a e73c 5d8b 6d3d a9b9 a1bd 13d9 a6bd
000003e0: b904 033e 8afe 753c e72d 02be 414e a53d
000003f0: 4341 d0bc e9fb 833d 3920 223c 4a31 69bd
0.010694488 -0.062232167 -0.08910972 0.12720704 -0.044296972 -0.04420242 0.080100514 0.011481057
0.07174748 -0.031554222 0.1137119 -0.091480516 -0.13894847 -0.0062402524 0.101842724 0.0034373628
-0.07957221 0.052208167 -0.053456992 0.04066203 0.025619414 0.09421361 -0.011145778 0.024430742
-0.100470446 -0.005083132 0.07562079 0.17180862 -0.096703574 0.08139004 0.04721761 -0.05730708
0.17381236 -0.046111178 -0.098911114 0.056120764 0.00016221756 0.009078444 0.02895555 0.06281698
-0.18389979 0.11597071 0.010014764 0.023590725 -0.10764441 0.03257486 -0.1321385 0.014867289
0.13020869 0.054106575 0.057030004 -0.19331858 -0.09987256 -0.07034641 -0.080978565 -0.014769657
0.16644512 -0.123585425 0.18582554 0.07879642 -0.004656568 0.061223496 -0.09683258 0.17020276
0.018099029 -0.04324363 0.07254046 0.007215486 -0.065466985 0.07729965 -0.041742057 -0.0611523
0.07041893 0.06613882 0.03645924 0.059291568 0.029353358 0.13644241 0.16476548 -0.046474516
-0.10003308 -0.011982768 0.02204432 -0.08271265 -0.06554944 0.0068779914 -0.09616013 0.05191074
0.030790182 0.049108017 0.024376394 0.07216573 -0.06320396 -0.016027696 -0.0923062 -0.17405124
0.14440113 0.12895319 0.059580132 -0.028438382 0.005390536 -0.0313141 0.08872489 0.027254991
-0.08583496 0.0010557297 -0.09772675 -0.025836516 0.050011087 -0.07017943 0.09478758 -0.029476408
-0.115865804 -0.03813866 0.053612456 0.07409018 0.042185068 0.12552881 0.022162857 -0.089358464
-0.06747147 -0.10687669 -0.03704117 0.03427481 0.01911992 -0.07875871 0.0907715 -0.21263964
0.049407408 -0.065423794 -0.019452466 -0.021136643 -0.069158055 -0.1079003 -0.038578063 0.08769924
-0.013351923 -0.08423261 -0.029605014 0.015859049 0.05398072 0.02782046 -0.06959296 0.044113483
-0.124692395 -0.07274479 0.025431078 0.024099367 0.13753499 0.05820708 -0.008060381 -0.016747056
-0.05001668 -0.041744567 -0.025475929 0.09832418 0.2547506 0.016013311 -0.18445323 0.08576502
0.11832538 0.21292712 -0.07330057 0.07669558 -0.04708426 -0.018575018 -0.17425749 -0.00930298
0.06423543 -0.06565971 0.082662195 0.09933851 -0.007004093 -0.0022303846 0.045220386 0.08651352
0.1291317 -0.038747784 -0.082563356 -0.04561259 -0.022453263 0.10762438 -0.0017156025 -0.18823217
0.107838854 0.075907364 0.06714393 -0.01766584 0.17620535 0.062487125 0.13228534 0.12870382
-0.09818978 0.119622715 0.0040985276 -0.22247681 0.15204732 -0.0007562959 0.07631575 0.132685
0.06238549 -0.11176031 -0.127592 0.07518095 -0.06578473 -0.21600842 0.04692743 -0.12325633
-0.06351722 -0.04771428 0.07992219 0.06980927 0.030893821 -0.070614204 -0.09696445 0.13679622
0.024508888 -0.0047431975 0.113078915 -0.10233508 0.10329232 0.044219133 0.027042393 0.05205135
0.034359664 -0.112622686 0.029201206 -0.22941333 0.11368405 0.067548744 0.03753513 -0.12182577
-0.012437318 0.019854039 -0.23589368 -0.0030960022 0.03583055 0.059073027 0.0764016 -0.026359847
-0.072398715 0.050352447 0.07406307 0.108306594 0.028272059 0.057994235 -0.0789674 -0.08146872
0.1279477 0.0150143 -0.12712823 0.080715664 -0.025421744 0.064445324 0.009895378 -0.05693177

1.layers.3.0.bias f4 [74]
00000000: 14e5 00bd eadd c6bc c524 e43a 1e41 0dbd
00000010: e90b 99bd 1ee0 a6bc dc2f abbc 785d 05bd
00000020: b33a e9bb 8369 06bd c0e2 acbb 2450 b9bb
00000030: 7ba8 01bd dfb7 f1bc 4ffa 313c 957e 9439
00000040: 78c0 03bd f93b 133b 0f1a e6bc 6042 e9bc
00000050: 4fcf 82bd d484 f9bb 2673 f0bc 03dc b8bc
00000060: b1fb 44bc fee3 c7bc d440 fbbc 674b 67bb
00000070: e439 63bd 81b7 4bbd 268b eebc 42ad 43bc
00000080: 6eea 19bd 939e dfbc 49fd 87bd 3ca9 1ebb
00000090: 11a9 4ebc 0630 f7bc 61df 6cbd 30c9 84bc
000000a0: 57cf 85bd 9219 c7bc acc8 a63b d7e7 caba
000000b0: cc14 79bc f550 56bc 327e 23bc 690c 08bd
000000c0: 7476 41bc 3364 49bc 9085 e6ba 848a e5bc
000000d0: 8dfb 38bc 38bc 68bc 1851 363b b9da 11bc
000000e0: 1029 bdb9 9741 1cbd 753a 93bb c68b 933c
000000f0: 9cf4 69bc 257d 1ebb 1fae 17bc c6f0 2abd
00000100: 3d20 f8bc 25b1 12bd a9dd a6bc 4cde 81bd
00000110: 37aa 58bc da84 45bd 8b99 b4bb b12f 63bd
00000120: f590 d0bc b133 3abd
-0.031468466 -0.024275739 0.0017405978 -0.03448593 -0.07472975 -0.02037054 -0.020896845 -0.032559842
-0.007117593 -0.032815468 -0.005276054 -0.0056553055 -0.031654816 -0.029506622 0.010862901 0.0002832307
-0.032165974 0.0022466166 -0.028088598 -0.028474033 -0.06387197 -0.0076147113 -0.029351782 -0.022565847
-0.0120228985 -0.024400707 -0.03067056 -0.0035292746 -0.05547513 -0.04973555 -0.029119086 -0.011943163
-0.037577085 -0.027297294 -0.06640107 -0.0024209758 -0.012613551 -0.030174267 -0.05783022 -0.016209215
-0.065336876 -0.024304185 0.00508984 -0.0015480471 -0.015202712 -0.013080825 -0.009978818 -0.03321496
-0.011808027 -0.012291956 -0.0017587412 -0.028020151 -0.011290443 -0.014205031 0.0027819332 -0.008902245
-0.00036079483 -0.03814849 -0.0044930526 0.018010985 -0.014279511 -0.0024183479 -0.009257822 -0.041733526
-0.03028881 -0.03581347 -0.020369368 -0.06341228 -0.013224176 -0.0482224 -0.005511468 -0.055465404
-0.025459746 -0.045459453

1.layers.4.0.weight f4 [74, 370]
00000000: 6ff7 a1bc 8a3a 8e3d 2153 b8bc 60c5 8d3d
00000010: 03e7 5d3c e4c3 8ebd f8f8 ed3c e24c 673d
00000020: 55c9 87bd fee6 493d 0b5e d53c a9fc 22bd
00000030: cd06 44bd 6407 9cbd 931a 253d 4c0b 96bc
00000040: 1cf3 b7bc 57ba 1e3b d714 193c a8d8 bf3c
00000050: 7734 9e3d 5103 873d e4f1 c1bc 3171 973d
00000060: db96 2a3c 16c5 853d 6fbe db3d b5b1 413c
00000070: ae30 90bd e923 c3bb 086f 053e a83d 03bd
00000080: 62e6 c93d e525 3fbc bccc 933d aeb5 22be
00000090: 8301 11be 6de3 7e3d 7759 14be d338 3fbc
000000a0: b228 123e 8a78 57bd cc16 83bd 2d09 5fbc
000000b0: 8905 ae3d 019b cc3d 57c3 553d 9d8c 8a3c
000000c0: 2295 083d ed95 cebd 9fd7 92bc 385f 0dbe
000000d0: b444 af3d a52c 3f3d ced9 d13c e2d0 7a3d
000000e0: 0ddf 553e d29f babc 7a54 473c 530b 733d
000000f0: fde0 9f3c 867a bbbd dd03 2fbd d84a 453d
00000100: b6f0 9ebb 4ed6 a6bc 0724 813c 17cc 4cbd
00000110: 1830 b83d 53dc 293c faa6 3ebd 7433 023d
00000120: 12f4 953c 84c8 bdbd 3b68 d3bd 01da b4bd
00000130: 9a89 ad3b 7031 acbd 3c2a 013e 8228 bebd
00000140: 2ff4 923d 6b63 f13b 5896 f4bc 9f41 203c
00000150: 3d52 f3bc 6dcb 50bd f27c 633c 0efb b1bd
00000160: a1d6 e63c 595f 073d 6822 043d fcd3 aabd
00000170: 3595 063d 6e76 273d b47f 273d e0f3 a43d
00000180: bac5 c5bc c917 a53c 793a d23d dfac a93c
00000190: 4dc7 62bd 17c5 163c 4a1a acbc 8112 b7bb
000001a0: bfda 183d 3556 8c3d ec90 093e 7948 e53d
000001b0: 1dfb 43bd 4c5d 303c 1286 f7bd f36f c3bd
000001c0: 83e3 843a 8c5e 5fbe 1dfd 70bd cd60 e3bd
000001d0: fe08 b03d 02a9 fa3d 8a42 d1bd 3960 083c
000001e0: 8f05 37bd d588 9abd 3b96 dbbb 5ffa 2abd
000001f0: 16f3 11be 018b 353d 0ff1 8f3d a66e ebbc
00000200: eb48 983c 599d 11bc 3f88 293d b4f9 243e
00000210: 19c3 15bd 1ef7 a9bd 573d 093d c702 9abd
00000220: e006 efbd db8c 0b3e c628 f03c d62c 7e3d
00000230: 11b5 6bbd 1502 b0bd f572 5eb9 f4e8 e7bb
00000240: 7551 4e3d c2b7 22bd 57ea bbbd 2dbb 133e
00000250: 0e03 32be 7543 cf3c 31e1 d6bc d428 3ebc
00000260: 1c00 673d 19b1 cfbc d1c8 073c dff1 5ebd
00000270: 9a7d cf3d f14c 153e 8c35 12bd b0dd 19bd
00000280: f363 44bc 179e afbd 1bde 143d 8fb6 bdbc
00000290: 54c6 403d a7fe eabd ee07 c7bc ab88 863d
000002a0: 0dde d43d 507e e5bc b54e ffbc 15bc ccbc
000002b0: 7ac1 34bc 2478 8abc 5a60 233e 16cd e5bd
000002c0: 94e2 04bd 4871 543c 591e baba 8092 c3bd
000002d0: 1e22 a8bc c4f5 e9bd e6a6 f93a 3e25 1ebd
000002e0: 9cf4 2fbd 90c4 2f3d 93e3 aabd 722a 18be
000002f0: 287c a1bd d148 86bc b22b 94bd 0e8a 02bd
00000300: 563d 8abd 7eb6 8c3c 0132 57bd fdec 80bd
00000310: fc5a 21bd 29d4 c4bd 0195 fdbd cedf 933c
00000320: c85e e7bd d066 abbd cf8a ad3b bd2c a13c
00000330: a7e3 a53d 7ea9 0f3c 832a b3ba 09fc bd3d
00000340: d1ae a83c 7825 fb3c b51a 553d ce62 0a3d
00000350: 1569 6ebd e200 8abd c02a 2b3b c415 61bd
00000360: 1cb0 693d 4a74 74bd dd73 a7bb 32fd 0dbe
00000370: 89d9 413d 9244 83bd 97b8 b0bd 9c0d 05be
00000380: 8f0e 4bbe b1b7 153d 9a94 c0bd af6c 1a3d
00000390: ec67 6f3b 572e 3c3d 7975 b6bd 93e7 cebd
000003a0: e7d6 6cbd 5004 123d 19b3 8a3c 23f3 0cbd
000003b0: 0e01 4fbe 7b7f 223d 9d66 9dbb a3b3 febd
000003c0: 9345 4dbc 47a2 b3bd 7b60 c93d dfb1 34bd
000003d0: b82e c13c ee3c 143e 7907 ecbd 186b 8c3d
000003e0: 255e 07be ffe1 0c3c 107f f33d 3f9d 8abd
000003f0: 0476 35bc beb1 1a3d c4d0 0bbe def7 cfbc
-0.019771306 0.06944759 -0.022500576 0.06922412 0.013543847 -0.06970957 0.029049382 0.056469806
-0.06630198 0.049292557 0.02604582 -0.039791737 -0.04785805 -0.07618597 0.040308546 -0.018315934
-0.02245479 0.0024219954 0.0093433475 0.02341874 0.077248506 0.065924294 -0.023674913 0.073946364
0.010411943 0.06531732 0.10729682 0.011822154 -0.07040535 -0.0059552086 0.13030636 -0.03204122
0.09858395 -0.01166675 0.07216784 -0.15889618 -0.14160733 0.06222861 -0.14487253 -0.011671263
0.14273337 -0.05260519 -0.064008325 -0.0136130275 0.084971495 0.09990502 0.052188244 0.016912753
0.03334535 -0.1008719 -0.017925082 -0.13805854 0.08558026 0.046673436 0.025616553 0.061234362
0.20885868 -0.022781286 0.012166137 0.05933697 0.019516462 -0.09154229 -0.042728294 0.04816708
-0.0048504723 -0.02036586 0.01576425 -0.049999323 0.08993548 0.010367471 -0.04654596 0.03178735
0.018304858 -0.09266761 -0.10322615 -0.088306434 0.0052959444 -0.08407867 0.12613767 -0.0928507
0.071754806 0.007366588 -0.029856846 0.00978127 -0.0297023 -0.050975252 0.01388477 -0.08690463
0.028178515 0.033049915 0.032259375 -0.08341214 0.03285714 0.040884428 0.04089327 0.08054328
-0.024142135 0.020152943 0.10265059 0.020712314 -0.05536585 0.009202263 -0.02100863 -0.0055869226
0.037317988 0.0685238 0.1343419 0.11195464 -0.047846902 0.010764431 -0.12086119 -0.09542837
0.0010138605 -0.2181341 -0.058835138 -0.11102448 0.08595465 0.12239267 -0.102177694 0.0083237225
-0.044683035 -0.0754563 -0.0067012585 -0.04174268 -0.14252886 0.044322018 0.070284 -0.028739285
0.018589457 -0.008887612 0.0413897 0.16110879 -0.036563013 -0.08299087 0.033505764 -0.07520061
-0.11671233 0.13627951 0.029316317 0.062054478 -0.057545725 -0.08594147 -0.00021214395 -0.0070773307
0.050370652 -0.039726026 -0.09175556 0.1442687 -0.17383978 0.02530072 -0.026230427 -0.011606414
0.05639659 -0.025353001 0.008287624 -0.054429885 0.101313785 0.14580132 -0.035695598 -0.037564933
-0.01198672 -0.08575075 0.03634463 -0.02315834 0.04706414 -0.11474352 -0.024295773 0.06569036
0.10393915 -0.028014332 -0.03116546 -0.024992028 -0.0110324565 -0.01690299 0.15954724 -0.11220758
-0.032442644 0.0129664615 -0.0014199718 -0.09549427 -0.02052408 -0.11423829 0.0019046932 -0.038609736
-0.042957887 0.042912066 -0.083441876 -0.14859942 -0.07885009 -0.016392143 -0.07234897 -0.03186994
-0.0674998 0.017176863 -0.05253792 -0.06295202 -0.03939341 -0.09610779 -0.12381936 0.018051054
-0.11297375 -0.08369219 0.0052960883 0.019674653 0.08100062 0.008768437 -0.0013669286 0.092765875
0.020591171 0.030657515 0.052027423 0.033785634 -0.058205683 -0.0673845 0.002611801 -0.054952398
0.057052717 -0.059681214 -0.0051102475 -0.13866118 0.0473266 -0.06409563 -0.08628958 -0.12993473
-0.19829772 0.036552135 -0.094033435 0.037701305 0.0036530448 0.04594263 -0.08909125 -0.10102763
-0.057822134 0.035648644 0.016931104 -0.03441156 -0.20215246 0.039672356 -0.004803492 -0.12436607
-0.012528795 -0.08771186 0.09832855 -0.044114944 0.023581848 0.14476368 -0.11524863 0.06856364
-0.13219507 0.008598804 0.118894696 -0.067682736 -0.0110755 0.037767164 -0.13653857 -0.025386747

1.layers.4.0.bias f4 [74]
00000000: 5981 1fbc 485d 73bb 8255 34bd 34d7 63bb
00000010: fc42 2ebc aeec c0bc e8cf cbbc 97f8 bbbc
00000020: 197e 0ebd d131 ccbc 2fe8 c8bc f174 8abc
00000030: 5c7b dabc a215 5cbc 0664 56bd 1210 84bd
00000040: a02b 28bd 262e 8fbd 1f14 14bd 8093 9dbc
00000050: 8498 8abc 7baa 4bbd 3461 08bd 357a 23bd
00000060: 6c19 81bc e3bd 4abc 2b56 d7bc 45d4 3fbd
00000070: 33b9 3cbd 57de e53a 4f6f 89ba bfb9 3bbc
00000080: f10c bcbc 6447 cdbc 7320 e1bc 361a 1cbd
00000090: 86f0 26bd c94a d8bc fb2a b8bc 2ecd e13a
000000a0: 06e9 c3bb 79c8 85bc bf77 4fbc 1ae8 a7bc
000000b0: dbda f3bc fcd0 aabc 943c 31bd d908 bdbc
000000c0: db70 ca3c 7c0c febb ce3c 81bc 7524 ef3a
000000d0: 262d 50bd 937e 90bc 7e36 39bd f779 a4bc
000000e0: 75ce ffbc 235a b8bc 8d85 14bd 94a7 cebc
000000f0: 34e8 c9bc 4465 09bc 41ba 13bd 041e 88bc
00000100: 7ee7 99bb f7f3 d7bc 0af5 92bc f95d 8dbb
00000110: 3d57 303b 5659 18bd 04ee 1fbc 0df7 81bc
00000120: a4ae 4bbc f708 e9bc
-0.009735429 -0.0037134457 -0.04402686 -0.0034765722 -0.0106360875 -0.023550358 -0.02487941 -0.022945685
-0.034788225 -0.024926098 -0.024524776 -0.016901465 -0.02667015 -0.013432892 -0.052341484 -0.06448378
-0.04105723 -0.06991224 -0.036152 -0.019235373 -0.016918428 -0.04972313 -0.033295825 -0.039911468
-0.015759192 -0.012374374 -0.026286205 -0.046833295 -0.046075057 0.0017537576 -0.0010485443 -0.01145786
-0.02295539 -0.025058456 -0.027481293 -0.038110934 -0.040756725 -0.026402848 -0.022481432 0.0017227286
-0.0059787063 -0.016330944 -0.012662827 -0.020496417 -0.029767444 -0.020851605 -0.043270662 -0.023075508
0.024712017 -0.007752953 -0.015776064 0.0018245118 -0.050824307 -0.01763848 -0.045217983 -0.020077689
-0.031226376 -0.022503918 -0.036260176 -0.025226392 -0.024646856 -0.00838596 -0.036066297 -0.016615875
-0.0046967855 -0.026361449 -0.01793911 -0.004314181 0.0026907467 -0.037194572 -0.009761337 -0.015864873
-0.012431774 -0.028446658
