DNNWeights/model/ensemble_1/selected_set_1_0_8.onnx (onnx, 872444 bytes, 17 tensors)

0.embeds.0.weight f4 [2, 1]
00000000: 1bea d7be 7497 403f
-0.42170796 0.752311

0.embeds.1.weight f4 [3, 2]
00000000: d21b b53f 4c4c fd3e c328 8c3d dc4f e43f
00000010: 2250 82bf 7d7d e9bf
1.4149115 0.49472272 0.06843712 1.7836871 -1.0180705 -1.8241421

0.embeds.2.weight f4 [2, 1]
00000000: 6a20 4abf 2958 833f
-0.7895571 1.0261279

0.embeds.3.weight f4 [2019, 50]
00000000: 1ad2 4f3f ca9d ff3e 3355 413f 1642 fa3f
00000010: 485d ae3f 7fd5 613f 31ef 9fbe 5fd1 d83f
00000020: 2a84 7b3f e818 cf3e 5d0b 2540 06c2 173f
00000030: 50f6 f3bf 44bd 643e 2774 6bbf e979 b93f
00000040: 4179 8f3f 1ee1 403b eb24 9dbf 1c62 0a3f
00000050: bd3d d4bf 963a 193d 12a2 34bf 1b75 40be
00000060: 7e80 f73e 1299 8fbe e41a 783e 0022 cdbe
00000070: 5e7c 2cbf 03b4 51bf 1dce 843e 4a37 26be
00000080: a2d7 a0bf 3d75 1c40 913a 8f3f 6503 1140
00000090: d675 873f 1841 8c3e 767c b4be fe9d 8cbf
000000a0: 1987 54be 0c68 0abf dcf5 58bf 08fe 37bf
000000b0: 51e1 efbf 1b7d 9dbe e885 0dbe 78fa 893f
000000c0: 139c 37bf 823d 08c0 156a bf3e a7c8 f2be
000000d0: ce11 6abf 4314 ae3f 6a23 92bf c2e8 70bf
000000e0: 5fda f03c 6615 ed3e f24c a33e 9ef6 6ebf
000000f0: e89a c6bf 7c8e 3ebf 03e1 c73f 0c03 e1bf
00000100: 57cc 303f 4788 1d3f f8bc 4cbf 9405 edbe
00000110: c756 e43f 82be bcbe f2e1 803e 4110 203c
00000120: 19a8 52be 3522 0abf 4762 973d a782 993f
00000130: 5e45 44bf 4cfa 88bf 9b14 063f 69d9 0a3f
00000140: c339 8d3f 97ef f73f cd26 6c3e e294 65bf
00000150: e756 02bf c14a 143f 97db 8abe f790 05c0
00000160: 567f 963f 8a2e 3dbf 147a 17bf 84e1 713f
00000170: 0e19 13c0 0baf 9abf ddc0 a4bf 8aa9 aabe
00000180: 6547 5bbf 4e26 dcbf 1db2 a5bf 2d4d 8e3f
00000190: 40ca 1b40 95da 8c3d a247 16bf e5b9 1340
000001a0: c1f8 9abd c46b 8e3c f1d6 0640 5498 f83d
000001b0: 3252 6d3f 9bc7 3dbf 932e 223f 50ef f53d
000001c0: 26d1 5d3f 2bb2 c83e 86a0 2dbf 30d7 60be
000001d0: 41b0 953e 9020 a1bf b0c9 123f 031f e63f
000001e0: 7340 5abf fcf6 c83f 8f68 a0bf dd24 153f
000001f0: 8f33 9fbf 938a a13f 3d70 efbd ffb0 f53d
00000200: 35a0 96bf 158c b2bf cf5b 0640 f213 633f
00000210: 5990 d03f bf46 003f 70b8 a9be df3f a6bf
00000220: 1091 35bf 0f45 693f ec44 bbbe d03e 1abe
00000230: c6c2 be3b de75 1a3e 5ee0 21bf a67b ad3e
00000240: 3d52 193d 8991 15bf 6eb3 05be 5682 cebf
00000250: b3b9 443f 4486 47be 78d2 8a3f abbb 9bbf
00000260: 59fa 62be e517 04c0 9bd8 dc3f 498c e23e
00000270: c602 693e ba9a a0be 5f39 3e3e b4e8 3b3f
00000280: 72ce 213e 5c18 17bf d784 533f 3456 2fbf
00000290: 882e e2be 9371 c6be 001c 91bf b54b d83e
000002a0: 9a4b b3bd 3baa f5be 2e4e 99bf b748 a43d
000002b0: 2521 88be 466c e2be 289a 96bf 8ec3 91bf
000002c0: 320b 363e c50d ed3e 3c01 8fbe 9647 b93f
000002d0: 71b9 42bf 39d2 b1be 5156 06c0 b01a 223f
000002e0: 2a5f c2bf 1317 88bf c82e 483f c242 1a3f
000002f0: c6c8 ecbf 318c 363f 2ec4 bebe ce50 5c3f
00000300: c86d d63e d0e4 64bf bb2d 03bf 2049 fbbe
00000310: 96bf ad3f 2812 073f 420d 503f 00e6 033f
00000320: f6f0 cabf aa03 a6be d08f 5d3e a2b5 713f
00000330: 5eb5 7bbf ac9b e43e 1f62 48be 23f9 7dbf
00000340: 306a d2bf 6918 0c3f 3db1 12bf 00c0 e6bd
00000350: 2169 4f3e 9a53 8dbf 6ce0 fa3f 0512 adbf
00000360: 9717 523f 3d12 dabf f884 9dbf ebad 04bf
00000370: ffe2 2c3f ee6f c53f 48cf 8abe ff59 ae3f
00000380: cee2 f03e caf1 3dbf 4b85 3b3f 57ed 49bf
00000390: 6423 013f 628f bb3a 5910 4740 a9bf c13e
000003a0: 45ba 193f 4812 1f40 3a09 53bf 47e5 bcbf
000003b0: 4db5 0ebf 2033 3fbf 725c 1cbf 396a 6b3f
000003c0: 0e18 b3bd e5f7 c1be 075b 2dbf c219 823f
000003d0: c908 8a3f 87d6 08bf db6a 3ec0 d5cd aa3f
000003e0: 4fea a23f 556e 99bf 28c4 76be 7c25 b53e
000003f0: 5d88 9c3f 07a4 d4bf aa19 97bf 04c8 61bf
0.81179965 0.4992507 0.7552063 1.9551418 1.3622217 0.88216394 -0.31237176 1.6938895
0.9824854 0.4044869 2.5788186 0.5928043 -1.9059544 0.22337824 -0.9197411 1.4490329
1.1208879 0.0029431055 -1.2276891 0.54055953 -1.6581341 0.037409388 -0.705598 -0.18794672
0.4834022 -0.2804647 0.24229008 -0.40065002 -0.6737727 -0.819153 0.25938502 -0.16232029
-1.2565806 2.4446557 1.1189748 2.2658322 1.0582836 0.27393413 -0.35251206 -1.0985715
-0.2075466 -0.5406501 -0.8475015 -0.71871996 -1.8740636 -0.3075951 -0.13820612 1.0779562
-0.71722525 -2.1287541 0.37385622 -0.4741871 -0.9143342 1.3599933 -1.1417058 -0.9410516
0.029401002 0.46305388 0.31894642 -0.9334506 -1.5516024 -0.74436164 1.5615543 -1.7579055
0.690618 0.6153607 -0.79975843 -0.46293318 1.7838982 -0.36864096 0.25172383 0.0097695
-0.20571937 -0.53958446 0.07391792 1.1992997 -0.76668346 -1.0701385 0.5237519 0.5423799
1.1033252 1.9369992 0.23061676 -0.896803 -0.5091385 0.57926565 -0.2712066 -2.086973
1.175761 -0.7389914 -0.5917065 0.94484735 -2.2984042 -1.2084669 -1.2871357 -0.33332473
-0.85655814 -1.719919 -1.2944981 1.1117302 2.4342194 0.06877629 -0.58703053 2.308221
-0.07566977 0.017385371 2.106869 0.12138429 0.92703545 -0.741327 0.63352317 0.12008536
0.8664726 0.3919843 -0.67823064 -0.21957088 0.29236034 -1.2588062 0.57339 1.7978214
-0.8525459 1.5700374 -1.2531909 0.58259374 -1.243761 1.2620414 -0.1169133 0.1199665
-1.1767641 -1.3949 2.0993536 0.8870231 1.6294051 0.5010795 -0.33148527 -1.2988242
-0.7092447 0.91121 -0.3657602 -0.15063024 0.0058215586 0.15084025 -0.6323298 0.338834
0.037431944 -0.58425194 -0.13056728 -1.6133525 0.76845855 -0.19484812 1.084548 -1.2166647
-0.22165813 -2.0639584 1.7253603 0.44247654 0.22754964 -0.31368047 0.18576573 0.7340195
0.15801409 -0.59021544 0.8262457 -0.6849091 -0.44176126 -0.38758525 -1.133667 0.4224526
-0.08754654 -0.47981438 -1.1976984 0.08021682 -0.26587787 -0.4422323 -1.1765795 -1.1387804
0.17777708 0.46299568 -0.2793063 1.4474971 -0.7606421 -0.347307 -2.0990183 0.6332197
-1.5185292 -1.0632042 0.7819638 0.60258114 -1.8498771 0.71307665 -0.37259048 0.860608
0.4188063 -0.8941164 -0.51241654 -0.49079227 1.3574092 0.5276208 0.8127023 0.5152283
-1.5854785 -0.3242467 0.21636891 0.94417775 -0.9832362 0.44650018 -0.1956868 -0.9920828
-1.6438656 0.54724747 -0.57301694 -0.1126709 0.20254947 -1.1041138 1.9599738 -1.3521124
0.82067245 -1.7036816 -1.2306204 -0.5182788 0.6753387 1.5424783 -0.27111268 1.3621215
0.47048038 -0.74197066 0.73250264 -0.78877777 0.50444627 0.0014309699 3.1103728 0.37841538
0.6004985 2.4854908 -0.82435954 -1.475747 -0.55745393 -0.74687386 -0.6107856 0.9195896
-0.087448224 -0.3788444 -0.6771702 1.0164111 1.0783931 -0.5345234 -2.975272 1.3344065
1.2727755 -1.1986796 -0.24098265 0.3538016 1.2229115 -1.6612557 -1.1804707 -0.88195825

1.layers.0.0.weight f4 [74, 74]
00000000: 639c 603b 8600 d3be ef3e 823d c2c8 67be
00000010: 8849 5a3e 9b35 ee3e 8ad1 f0bc ba45 e6bd
00000020: e625 62bc 98fd 64be c15f 82bc d454 f0be
00000030: 7016 a93e 692f 013e bddc b6bd 09a6 6fbe
00000040: a0f6 ecbd c10f bcbe 2213 43be 98f4 f33d
00000050: 55b3 b3bd d652 56be 25ec 2fbd fa7e edbd
00000060: c9a6 093d d9a8 373e 0b19 823e a1aa 033d
00000070: ba6f 353b 85a6 07bb 7dc6 8f3d 1e90 c03d
00000080: a907 a83d 8642 99bd 2530 9cbc 5ce0 9a3d
00000090: a93b 6f3e 17ea 24bd a8c7 dd3e 1e9f e3bd
000000a0: afd7 7b3e 7adf 153d 22ac 193e 8bc9 c5bb
000000b0: a886 a5be e527 9bbd d6ba 05be 96d9 293e
000000c0: 152e ed3d f5f8 8cbc c752 883d 3845 203e
000000d0: 77fb 203e 63f5 883e 8fb1 60bc 481f bb3d
000000e0: ed29 97bc b25b 5b3e 5f9c 963d 4d5b 8d3e
000000f0: 158a b2bc 42bd b13d da04 073e 60b1 b63e
00000100: 909b 953b 35b9 09bf 56d6 fe3a 8e76 1d3e
00000110: 1b58 2a3d e129 f43d dd87 f1bd d3af 4b3e
00000120: 0fd5 253d 396e 8cbe 94fb b3bd f84c da3e
00000130: 3742 0f3e 28a4 8ebe 7d52 4b3e f32f 82be
00000140: b2f9 1b3e 261b 1ebe ae68 bbbd 282b 2a3e
00000150: d2d0 103d a8be 513e b935 25bc a56b 203e
00000160: e3a2 c23e 5fe7 b13e 7ea6 273d 13a8 883e
00000170: f4e1 fdbd e347 74bd 090f 9e3d 7a8d cb3d
00000180: e61e 7abd 0ef9 113f 5914 29bd 98e8 93be
00000190: 5ebf e8bc c1a0 c53e 5a13 9a3c e111 fdbd
000001a0: 0ee1 82bd 3c4b 9d3b ec14 4ebd af35 d8bd
000001b0: 687a 923e de32 69be 345c 6cbd 0b41 543e
000001c0: 0dfd 2bbd 6740 773e 6904 09be 9a8e bfbd
000001d0: b430 a33d 18e9 04be 4546 593e d224 31be
000001e0: c930 a53c 86b7 333e 1a8a 573b 292c 0e3e
000001f0: 13dd 43be 59be 6abe 4829 bbbe 55ff 433e
00000200: 0cc8 7a3d 9a80 d93c b97f b1bd ac8a 863d
00000210: 3488 cdbd 6c71 2c3e 76f7 4bbd 2ffd 0f3d
00000220: 6ae9 8abd c2ea 69be ce7b b33d b0d9 203e
00000230: a0b2 ae3d acf6 203c c1e5 ae3c d7aa 25be
00000240: 9625 5a3e eeca 5f3e 7c09 cfbd 354e 4bbe
00000250: f962 6dbd 0ba3 b23e 51c5 32bd 1697 33bd
00000260: 4320 5cbe d990 13be db54 933e b885 66be
00000270: 142c 3bbd 325a 9d3e 7410 873d ca34 b73e
00000280: d077 f3bc 32f7 083e 06e4 10be a629 6ebd
00000290: 14e5 623e 64fc 6bbe 8f79 91be e293 703d
000002a0: 5d08 903e 8b28 943e c9a2 3cbe 20b6 57be
000002b0: 691e 603e db47 e13d f0e4 48bd df5c 94bc
000002c0: ec56 2abe f2b6 b23d 168c 86be 0682 db3d
000002d0: aab1 9bbe 113e c83d 4101 e33d 39aa 7b3b
000002e0: 5988 b33d dc93 a43d 2f39 df3d 1271 1dbd
000002f0: 2fb1 c63d 1244 c4bb 04bb 363d b058 37bc
00000300: 7a53 37be 3d33 61bd 3e3a 4e3d eb4e 413e
00000310: ac45 793d c092 ed3d f213 b0be 244d 053d
00000320: b9d0 62bc ec00 0a3d 35bf 153e 5134 dc3d
00000330: 3256 c4bd a34e 273e efa2 c7bd 178d 0cbc
00000340: 45e7 3d3e db96 413d 882d 853e f99b afbd
00000350: b82e abbd e716 f73d 2a1a cf3d 3a3f 56bc
00000360: b205 13be 8435 8e3e af1b 17be c41f ec3a
00000370: 11d5 c0be a19d 0abe 2431 23be 6fa6 d63e
00000380: da4a 543e 130a ad3d 6d3c ff3e 91fe c23e
00000390: 903f 7bbe 79ac 343e 409b b1be 4635 dfbd
000003a0: bcf1 e7be c93d 0ebd 8ad2 303d 3f72 ca3d
000003b0: 7e29 71be 5730 b0be bbfb 9b3e 3327 00bd
000003c0: d694 c73d f0ee 79be b009 ffbd 4ec3 51be
000003d0: c389 333c a5aa 8a3e 34c4 c6bd d96b 2d3e
000003e0: 2950 31be d550 6bbe bef5 d5bd d54d b4be
000003f0: d8e1 7b3e cbe9 d13d b254 65bd c995 123e
0.0034272901 -0.41211337 0.0635966 -0.22635177 0.21317112 0.46525273 -0.029396791 -0.11243768
-0.013802981 -0.22362363 -0.0159148 -0.4693972 0.3302493 0.12615742 -0.08928821 -0.23403181
-0.115704775 -0.3673077 -0.19050267 0.11911887 -0.08774439 -0.20930037 -0.042949814 -0.115964845
0.033606324 0.17935504 0.2540973 0.032145146 0.0027685002 -0.0020698619 0.070202805 0.09402488
0.08204586 -0.074833915 -0.019065926 0.075623244 0.23362602 -0.040262308 0.43316388 -0.111143336
0.24593996 0.036590077 0.1500707 -0.0060359887 -0.32329297 -0.07575969 -0.13059554 0.16586909
0.11581055 -0.017208556 0.066564135 0.15651405 0.15720926 0.26749715 -0.013714208 0.09136826
-0.018452609 0.21421698 0.07354044 0.2760872 -0.021794358 0.08678676 0.13185444 0.356822
0.0045656636 -0.5379823 0.0019442539 0.15377256 0.04158793 0.1192205 -0.11793492 0.1989129
0.04048639 -0.27427843 -0.08788219 0.42636847 0.13990103 -0.27859616 0.19855686 -0.25427207
0.1523197 -0.15440044 -0.091508254 0.16618025 0.035355397 0.20482886 -0.010083609 0.15666063
0.38014898 0.34746835 0.040930264 0.2669073 -0.12396613 -0.05963887 0.077177115 0.09939094
-0.061064623 0.5702065 -0.04127917 -0.28888392 -0.028411563 0.38599208 0.018808056 -0.12356926
-0.06390582 0.0048002284 -0.05031292 -0.10557114 0.28609014 -0.2277331 -0.05770512 0.20727937
-0.041989375 0.24145661 -0.13380589 -0.09353371 0.07968274 -0.12979543 0.21218212 -0.17299202
0.020164864 0.17550477 0.0032888711 0.13884033 -0.19127302 -0.22924174 -0.36554933 0.1914037
0.061225936 0.02655058 -0.08666939 0.06569418 -0.10035744 0.16840142 -0.049796544 0.035153564
-0.067828014 -0.22843459 0.08763848 0.15708041 0.08530164 0.009824436 0.02134979 -0.16178451
0.213034 0.21854755 -0.10109231 -0.19854052 -0.057955716 0.34890017 -0.043645207 -0.04384526
-0.21496682 -0.14410724 0.28775677 -0.22511947 -0.045696333 0.30732876 0.06594935 0.35782462
-0.029720217 0.13375548 -0.14149484 -0.058145188 0.22157699 -0.23045498 -0.28413054 0.058734782
0.2813138 0.28937182 -0.18421473 -0.21065569 0.218866 0.110000335 -0.049046457 -0.01811069
-0.1663472 0.087263 -0.26278752 0.107181594 -0.30408984 0.09777463 0.110842235 0.003840102
0.087662406 0.080360144 0.10899579 -0.03843791 0.09701764 -0.00598956 0.044611946 -0.011190578
-0.17902938 -0.054980505 0.050348513 0.18877761 0.06085746 0.11600256 -0.34390217 0.03254427
-0.013843709 0.033692285 0.14623721 0.10752166 -0.09586753 0.16338591 -0.09747874 -0.00857856
0.18545254 0.047263008 0.260113 -0.08574671 -0.0835852 0.12064915 0.10112412 -0.013076598
-0.14357641 0.27775204 -0.14756654 0.0018014838 -0.37662557 -0.13536693 -0.15936714 0.41923854
0.20731679 0.08449187 0.4985079 0.38084844 -0.24535966 0.17643918 -0.3468876 -0.10898833
-0.45301616 -0.03472689 0.043169536 0.09885072 -0.23550984 -0.3441188 0.30465493 -0.031287383
0.09745185 -0.24407554 -0.124530196 -0.20484659 0.010958138 0.27083316 -0.097053915 0.16935672
-0.17315735 -0.22980054 -0.10447262 -0.3521563 0.24597871 0.102496706 -0.055988975 0.14314951

1.layers.0.0.bias f4 [74]
00000000: a6b7 7dbd 20b7 a03b cf71 dabb 314f 23bb
00000010: a742 54bd 1d13 803b 85ca 63bd 38b9 71bc
00000020: 806e c4bb ed31 b9bc 2a3a e73a 431e cfbc
00000030: d589 73bd abd6 65bd 5dbe 26bd 8f19 81bd
00000040: 4eb9 15bd 8d5a febc 482f edbb 6ca5 913b
00000050: 9140 8bbd 3a1b f33c bc7e 2cbd 0981 4b3c
00000060: 06ff 80bc ff7b b9bd b7f3 75bd 7d60 9abd
00000070: 1be1 9d3b dfc8 d1bc 8472 0fbd d1e6 38bd
00000080: 5686 e7bd 7541 2cbd a1e1 01bd 3121 a1bd
00000090: 87d1 a7bd 0052 2fbd b1ab d7bc 6cd4 25ba
000000a0: bd0e a3bd 1439 cfbd 77b8 bcbd 9fa2 afbc
000000b0: 9516 41bd cb67 e7ba 07f4 a0bd e3d1 14bd
000000c0: 363e 10bd 26c4 1bbd 77c6 7fbd fc81 4fbd
000000d0: 0961 7cbd ed2e 6fbd 6a8c 6bbd 5791 1d3c
000000e0: e6d5 d0bc e715 06bd c876 16bd f4dc e8bd
000000f0: 8f45 03bc ff2a c1bc ef37 10bd 2400 67bd
00000100: 621b 04bd 4090 91bd e742 41bd 20d2 1bbd
00000110: 1881 fcbc ea80 21bc 3093 d6bc 30d5 77bd
00000120: 5e73 6ebc cab0 12bd
-0.06194272 0.0049046427 -0.006666399 -0.0024919028 -0.051821377 0.0039085285 -0.05561306 -0.014753632
-0.005994618 -0.022606814 0.0017641236 -0.025282985 -0.05945762 -0.056112926 -0.04070889 -0.06303703
-0.036553673 -0.031049037 -0.0072383024 0.0044447687 -0.067994244 0.029676069 -0.04211305 0.012420901
-0.015746605 -0.090568535 -0.060046878 -0.07537935 0.0048180944 -0.025608478 -0.03502132 -0.045142
-0.113049194 -0.042054612 -0.031709317 -0.07867659 -0.08194261 -0.04280281 -0.026326986 -0.0006325904
-0.079617955 -0.10118309 -0.092148714 -0.021439848 -0.047140677 -0.0017654834 -0.078590445 -0.036332976
-0.03521558 -0.03802886 -0.06244513 -0.050661072 -0.061615977 -0.05839436 -0.057506956 0.009617171
-0.02549262 -0.03273573 -0.036734372 -0.113702685 -0.0080121895 -0.023580072 -0.035209592 -0.05639662
-0.032252677 -0.07107592 -0.047182944 -0.038042188 -0.030823275 -0.009857396 -0.026193231 -0.060506046
-0.014553873 -0.03581313

1.layers.1.0.weight f4 [74, 148]
00000000: 1b23 e13d 9872 38be db59 f6bd 2976 843e
00000010: 58aa c3bd fd72 9c3d 2580 07bd 6260 0bbe
00000020: b072 e1be d97e 6c3c 1886 893e 924d 97bb
00000030: 38d2 2f3e b3ee d8be f0d2 c4bc 2fd3 06be
00000040: 0dfb b13d 2f40 f8bd 052b 55be c5e9 dbbd
00000050: 954d e43d 4b60 d73e 4c65 00bd 3f91 17ba
00000060: 5fc9 86bd 5db2 98be 3328 be3d 09ab 31bd
00000070: eade f4bc deef 38bd e5ef 883d e193 f6bd
00000080: dd52 90be 2213 b73d 93e9 92bd f3e1 48be
00000090: 1dbc 1c3e 2e98 873e 313b cc3c a5be e23c
000000a0: 1757 c13d 4257 ffbc 0b7d d0bd 82e2 f9bd
000000b0: 7fc6 0f3b 9586 b5bc 1c79 47be 0659 c53c
000000c0: 9037 93bd d760 9abd 8123 0abd a60b 85bd
000000d0: 1863 dc3d 635f 863e 8825 6ebe 70ec d7bd
000000e0: e4a8 703e 81ee 1e3e 56d6 c33d 071a 583e
000000f0: 355c 543c 9bcb 94be f8d8 18b9 f19b e73d
00000100: f5dc 913b 73ee 07be b271 3abd 723a 3b3c
00000110: 5459 4c3d d27e 303e a5ab 333d 19f6 bcbd
00000120: 7639 6ebe 0e37 bb3d 36c6 6bbd 6a72 5dbe
00000130: c743 56bd e087 ec3d 8457 623f 6c5b 4fbe
00000140: ba7c 843e 1805 963d 0212 423e 5b6d 0ebe
00000150: ea62 5a3e f213 cbbd a26d 2e3e 3f4d 8abd
00000160: b538 19be bfe1 193e fdfa b33e 080b a9be
00000170: 83d2 68be a1a2 44be 9d0d 3d3e 7033 bcbe
00000180: 78a4 f63e d741 19be c09c 55be ced4 ecbc
00000190: c96b 383e 0cc1 fcbd 6f91 803d e9d9 603c
000001a0: e709 1bbe bd97 4b3e f373 7cbe b201 a4bb
000001b0: 231e dcbd 5ead bc3d 664a c6be 9958 49be
000001c0: 10eb 55bc aade 053e 17d2 183e 187c 853d
000001d0: ef6f 7a3d 67fe 01bd 187c 743e 1b3c 263d
000001e0: eda1 873d bb14 32bd e132 7bbc 1792 60be
000001f0: c735 183e 5d19 0bbd d0e4 64be c312 523e
00000200: 86eb 08be f2c8 13be b6af 8ebe da38 13bc
00000210: fb7a 953d c286 013e b480 a9bd 65e0 2bbe
00000220: 8b2b 06bd 1909 193e b410 4b3e e7f0 92be
00000230: 713c ed3c 6680 203e 9e27 12be ae6d 2bbe
00000240: c9f4 25be 952c 50bd 3043 4abd 0fe3 493d
00000250: 8337 453d ce25 a43d 4436 f6bd 0d35 bcbc
00000260: f7d1 39be 332a 76be 599a 23bd 7c73 a8be
00000270: 901d 7abd 6a2d 183d c073 d3bd c787 eb3d
00000280: 5cd0 453e a2c0 cc3d d58c 5a3d 2d3a 523d
00000290: 2f6d 4c3e e36e 843c bb5b 12be e525 d03d
000002a0: e653 6d3d a6f4 f53c b598 783d 64a0 a03d
000002b0: 75d1 be39 59bd df3d bad7 11be 9ded 88bd
000002c0: 6056 c53d ca21 81bd 8c13 ca3c 6341 223d
000002d0: 86b6 4abd 531a 4e3e ac13 9dbe b18a fc3b
000002e0: 9c79 2abe 7373 64bd bf27 1a3d 7f45 e8bc
000002f0: bb65 683d 9929 7abd 6bfe 7f3d cb08 e9bb
00000300: f983 813d 31a3 ccbd b57d c03d 3d3d 06be
00000310: 9281 dfbd cb91 6cbe b316 3dbd a6de 4e3c
00000320: 7c3d b3bd 71e7 d43d 352b 53be 7199 0abd
00000330: 78a0 b8bd 69a2 a43d 0801 e2bc d309 e23c
00000340: 3e9e b13d fb26 3c3d 9189 f8bb d133 233e
00000350: 357f c33d e4ff a2bd 5825 4bbd cdb5 a73d
00000360: 058e 9c3d 11f1 233d 6b58 9a3d c1c4 3e3e
00000370: 89aa ccbd 8de6 53be 0e41 45be c115 f1bd
00000380: 1188 c23b 7b21 10be d983 ddbd 7176 b13d
00000390: 9056 5fbd dea7 513e a7da 043e 04c4 40be
000003a0: ca5e b13d 322b a0ba 814c c33c 0aef be3e
000003b0: cd6c 3c3e b39d 3ebe 6246 44bd 92c9 dfbd
000003c0: 509a 973c bfcf a53d 418b ab3d bf3b 89be
000003d0: de23 083e 6b65 c2bd de30 47bd 9f77 6f3c
000003e0: 71a4 fe3d 459d 0bbd 7d46 873e 3235 7bbd
000003f0: 625c bbbc c4fd 413e 0202 0bbe a658 4839
0.10993024 -0.18012464 -0.12028857 0.258714 -0.09553975 0.0763912 -0.033081193 -0.13610986
-0.44032812 0.01443454 0.26860118 -0.0046174014 0.17170036 -0.42369613 -0.024026364 -0.13166498
0.08690462 -0.12121617 -0.20817192 -0.107379474 0.1114761 0.42065653 -0.031346604 -0.0005781836
-0.06581377 -0.2982358 0.09285011 -0.043376002 -0.02989145 -0.04515063 0.06686381 -0.120399244
-0.2818822 0.08939196 -0.07173457 -0.19617443 0.15306135 0.2648329 0.024930568 0.027678797
0.09440439 -0.031169537 -0.101801 -0.12201406 0.0021938381 -0.0221589 -0.19479793 0.024090301
-0.07188332 -0.07538002 -0.033725265 -0.064963624 0.10761088 0.2624465 -0.23256505 -0.10543144
0.23501927 0.1552067 0.09562366 0.21103679 0.012961437 -0.2906159 -0.00014576677 0.1130904
0.004451389 -0.13274555 -0.045518585 0.011427509 0.049889877 0.17235878 0.043864865 -0.09226627
-0.23264107 0.0914136 -0.057562076 -0.21625677 -0.05231073 0.115493536 0.8841479 -0.20249718
0.2587641 0.0732519 0.18952182 -0.13908903 0.21326795 -0.09915914 0.17034009 -0.06753015
-0.14963038 0.15027522 0.35152426 -0.3301623 -0.22736554 -0.19202663 0.18462224 -0.36757994
0.48172355 -0.14966522 -0.20860577 -0.028910067 0.18009867 -0.12341508 0.06277739 0.013723829
-0.15140496 0.19882102 -0.24653606 -0.005005085 -0.107479356 0.09212755 -0.38728637 -0.19662704
-0.013056532 0.13073221 0.14923893 0.0651781 0.061141904 -0.031736758 0.23875463 0.040584665
0.06622682 -0.0434768 -0.015331955 -0.21930729 0.14864264 -0.033959735 -0.2235291 0.2051497
-0.13371095 -0.14432123 -0.27868432 -0.008985722 0.07298847 0.12649062 -0.08276501 -0.16784818
-0.03275637 0.14944877 0.1983059 -0.2869942 0.028959485 0.1567398 -0.14272925 -0.16741058
-0.1620666 -0.050823767 -0.04938048 0.049288806 0.048148643 0.08015023 -0.12022069 -0.022974515
-0.18146501 -0.24039535 -0.03994212 -0.32900608 -0.06106335 0.037152685 -0.10324812 0.11500507
0.19317764 0.09997679 0.053356964 0.051325012 0.19963525 0.016166156 -0.14292805 0.10163478
0.05794134 0.030023884 0.060692508 0.07843092 0.00036395682 0.10924787 -0.1424245 -0.06685946
0.09635615 -0.06305273 0.024667524 0.03961314 -0.049490474 0.2012723 -0.3067907 0.007706963
-0.16647953 -0.055774163 0.03763556 -0.02835345 0.056737643 -0.061074827 0.06249849 -0.007111644
0.06324 -0.09992064 0.09398977 -0.13109298 -0.109133855 -0.2310249 -0.046164226 0.012626326
-0.087519616 0.103957064 -0.20621951 -0.03383774 -0.09014982 0.0803879 -0.027588382 0.027592575
0.086727604 0.045935612 -0.0075847586 0.15937735 0.09545747 -0.079589635 -0.04959616 0.081889726
0.076442756 0.04002482 0.07536396 0.18629743 -0.099934645 -0.20693417 -0.19263098 -0.11771727
0.0059366305 -0.14075272 -0.108161636 0.08665169 -0.05452591 0.20474193 0.12974034 -0.18824774
0.08660658 -0.0012219904 0.02384019 0.37291747 0.18400879 -0.18614845 -0.047918685 -0.10927118
0.0185062 0.08096265 0.0837617 -0.26803395 0.13294932 -0.09492 -0.048630588 0.014615922
0.124337085 -0.03408553 0.26420966 -0.061330028 -0.0228712 0.1894446 -0.13574985 0.0001910651

1.layers.1.0.bias f4 [74]
00000000: 617d 41bd c9e3 c9bb 3bdf e1bc 4aba 6abd
00000010: 270d 01bd 9f1d 62bd bf03 c1b9 08b4 26bd
00000020: 08b8 8cbc 56a5 7bbd 453e eabc 7b56 cdbd
00000030: 754f c5bc f96c 49bd 88dc cbbd 63de 82bd
00000040: e391 47bd c78f ff3b 095b f4bc dcac 9cbd
00000050: e7a3 b1bc efa2 16bd eae0 7ebd aaa8 5abd
00000060: 5a12 0cbd fa7b 0bbd 4358 b6bd 63aa 78bd
00000070: c539 a8bd d1ff 85bc ada4 86bb 650f 21bd
00000080: 07b7 a0bd 320d 14bd a262 9ebd 97e7 06bc
00000090: e28f 013c 6be9 47bd a518 50bd bf2d 4ebd
000000a0: 057f 263b d7a8 1dbc aae3 6cbd 49e2 45bd
000000b0: 27bb 5dbd 127e 31bd 763e 09bd 190a 8bbd
000000c0: e618 84bd ad54 81bd 7e5f 66bd 5611 68bd
000000d0: c447 11bd 0e47 69bd 9fd4 5cbc e76a 34bd
000000e0: 1dcb 9dbd 4dc8 9abd fb4f 6dbd d8ec 2fbc
000000f0: d461 6abc fee3 c2bc 9011 27bd 8d9b 8bbd
00000100: d1d2 1cbd fbb6 46bc 7a7e 58bd 247a 64bd
00000110: 3fe5 69bd 3af0 ecbc 6f89 e8bc f718 4cbd
00000120: 061d 97bd 6412 d3bd
-0.04723871 -0.0061611873 -0.027572265 -0.057306565 -0.031506684 -0.05520403 -0.0003681462 -0.040699035
-0.017177597 -0.061436974 -0.028594146 -0.100262605 -0.02408574 -0.04917619 -0.099541724 -0.06390073
-0.048723113 0.007799122 -0.029828565 -0.07650158 -0.0216846 -0.03677648 -0.062226214 -0.053383507
-0.03419719 -0.03405378 -0.08903553 -0.06070937 -0.08214144 -0.016357334 -0.0041089864 -0.039321322
-0.0784741 -0.036145397 -0.077336565 -0.008233926 0.0079078395 -0.04880659 -0.050804753 -0.050336596
0.00254053 -0.009622774 -0.057834305 -0.048311505 -0.05413356 -0.04333312 -0.033506833 -0.06789035
-0.064500615 -0.06314979 -0.056243412 -0.056657158 -0.03546883 -0.05695253 -0.013478427 -0.044047263
-0.077047564 -0.075577356 -0.057937603 -0.01073762 -0.014305551 -0.023790356 -0.040788233 -0.06816778
-0.038286988 -0.012128587 -0.052854992 -0.055780545 -0.05710339 -0.028923143 -0.028385846 -0.049828496
-0.07378583 -0.10306242

1.layers.2.0.weight f4 [74, 222]
00000000: c745 003e c5f0 b63d 5eb8 65bd 2402 283c
00000010: 5e52 a3bc 0a2b 07bc 1225 69bd 75b8 4bbc
00000020: 1d44 42bc 705b 1c3e 2769 fe3d c3b3 2c3e
00000030: 65eb 003e 4792 1fbb 1beb e33c e8b9 88be
00000040: 7136 103e 10f4 923d a75a 6bbd 98cb f3bd
00000050: 8df0 25be aa6e 9cbd 666d 04be 66e1 12bd
00000060: c0c3 cc3d 05dc 9fbd cb08 383e e987 ab3d
00000070: 80d2 183d 1ccd 17bd 286b f4bd 4ab3 20be
00000080: cdcd f63d 485a 05be 594c 163e 0d79 fdbc
00000090: 0173 023e 3384 423e 27da a23c 56d6 8e3d
000000a0: 7d8d 3fbe c97f dd3c 3bdc 8ebd cbc3 c93d
000000b0: 836c f0bd a8d7 d33d 07ad 143d 7a27 a6bd
000000c0: 4b07 0abc c718 abbc 1516 7b3c fbce a43d
000000d0: 7647 173d 98b8 08be dff9 5e3d 0a29 2d3d
000000e0: 9c61 e93c 6125 183e 9347 0e3e b4f1 f13b
000000f0: 0785 abbd f091 0a3d 0ff1 293c 8c77 80bc
00000100: 4aa4 f03d 7d5e 063e b352 4dbd ba12 a1bd
00000110: 799c 22bd b55b 2e3e 8a0a 463c 6bf0 34bd
00000120: 4bf5 0bbc 9f20 213e 60f5 a1bd a4d7 1cbd
00000130: 28f1 c5bd caa4 f0bb d336 043c 546d 07be
00000140: a96f b1ba bd8f bf3d 8635 bebd f61a 2ebe
00000150: fc95 233d b8af 6abe 9eab 8fbc 6832 04bc
00000160: c25c e33d 6e86 a2bd 45e3 9c3a ce14 58bd
00000170: c418 debd c3ef 42be 0511 193e 8976 1ebd
00000180: d0d0 af3d ed2a 1abe d3e1 c9bd c697 63be
00000190: 52c7 8ebd f2a4 c53d 05f8 bc3d 7d9b 1f3c
000001a0: eec0 9bbd 98e3 3b3e f8a2 613c d1a7 36bd
000001b0: 720c 2abd b644 8ebd 3632 993d be84 f8bc
000001c0: 8e89 39be fa46 9cbe be38 0dbe d2f7 ee3d
000001d0: 97ca 4ebe 6bf3 93bc 94db 07bd 8bcf 243e
000001e0: a4c5 94bd 0011 d9bd 4d89 5ebe 9328 a8bd
000001f0: 0c5b 64bd 1e59 1d3d 6ef8 893d 2075 a13d
00000200: bc6c 0cbe 40f7 0f3e a01d 61bd 3865 8bbd
00000210: 1c8c aebd 3798 993e 3d5b b1bd a7f8 3c3d
00000220: cb96 8fbd 712f 773d 7b11 77bd 402e a13d
00000230: 4086 8f3d 9cc5 70be 807b 0f3d dda6 dfbd
00000240: 0d51 6fbe 1c75 303d d66a 27bd 2e65 333d
00000250: 240c 7d3e f415 6ebe ed04 3a3d a0d9 fcbd
00000260: 7a2d 7f3e b45a a33d a91b 7dbd 66e1 ae3d
00000270: 970f 193e 3037 903d 034e 4b3e 0e74 b73c
00000280: c2b2 233d 26f8 3fbd 47c5 233e 2bb9 dabc
00000290: 8106 d1bd 662b 25be be9a c4bd 04e5 a73c
000002a0: a68a dabc 3ec6 063c e482 b63b 144c 96be
000002b0: d01b 49bd 1d87 86bc 7f73 07be 33da 5cbe
000002c0: 93f0 1c3c 5ac5 a83d e080 563d a064 383e
000002d0: b8c4 9ebd d8b9 30bd c5ec d23c 2dd3 1f3e
000002e0: f412 c0bd dd48 12be f65d f1bd 119c 81be
000002f0: d8c9 2cbe 2b82 b33d e175 a0bd 49d0 6abe
00000300: e2dc 7abd d85b cdbd a10f 543e 6ae6 e1bd
00000310: 97a5 29be 0aad e53b e2bf 023e f899 1bbb
00000320: 4c8d 19be 9a52 773d cd32 adbd 1585 203e
00000330: f8d0 30ba fb72 b23b 8adb 8ebd e651 a63d
00000340: 42aa 57bd 7bca 3bbe 293e 453d ef29 d83d
00000350: ee7b f43d 22ae c7bd 33ab b4bd 7120 d4bd
00000360: 5664 be3d 8e0b 003e b15a 8fbd 0413 4bbd
00000370: b329 403d e569 be3c b552 be3c 5fd7 9ebd
00000380: 9f8b e2ba f3ed 893c 2381 853d dd18 babd
00000390: 6490 23bd 9404 34bb bc4b e83d e38c 193d
000003a0: b762 07bd 1c2b 49bd d480 d33d 9246 01bd
000003b0: 508a 0e3c edff 283e 7e02 b2bb 32ff 5e3d
000003c0: 1a9d 2bbe a7db 48bd e8ed 13bd e7aa 7f3d
000003d0: ddb6 6abe 2864 fa3d 1f36 d93d c5b3 a43b
000003e0: 0409 d43d d5e4 f83c 8b93 e7bb 27c1 05be
000003f0: 220b a6bd 2685 e1bd a667 173d 4c54 cc3d
0.12526618 0.08932642 -0.05608403 0.010254417 -0.019936737 -0.008250007 -0.05692012 -0.012434115
-0.01185706 0.15269256 0.124224 0.16865449 0.12589796 -0.0024348663 0.027822068 -0.26704335
0.14083268 0.071754575 -0.0574595 -0.11904067 -0.16205044 -0.07638295 -0.12932357 -0.035859488
0.09998274 -0.07805637 0.17972104 0.08375532 0.037310123 -0.037060842 -0.11934501 -0.15693393
0.12050972 -0.13022721 0.14677562 -0.03094151 0.12739183 0.18995742 0.019879414 0.06974475
-0.18706317 0.027038472 -0.069755994 0.09851798 -0.11739447 0.103438675 0.036297824 -0.08112998
-0.00842459 -0.020885838 0.015325089 0.08047291 0.036933385 -0.13351667 0.054437514 0.042275466
0.028488927 0.14858009 0.13894491 0.0073835496 -0.08374982 0.033830583 0.010372414 -0.015682004
0.11750086 0.13121982 -0.050127696 -0.078649 -0.039700005 0.17027171 0.012087474 -0.044174593
-0.008542369 0.157351 -0.0790813 -0.03829159 -0.096651375 -0.007343863 0.008069712 -0.13225299
-0.0013537306 0.09353588 -0.092875525 -0.17002472 0.039937958 -0.22918594 -0.017537888 -0.008068658
0.111016765 -0.07935797 0.0011969587 -0.052754216 -0.108445674 -0.19036774 0.14947899 -0.038687263
0.0858475 -0.15055437 -0.09857526 -0.22225866 -0.06971611 0.096506014 0.092269935 0.009741661
-0.07605158 0.18348539 0.013771765 -0.044593636 -0.041515775 -0.06946699 0.0748028 -0.030336734
-0.18118879 -0.305229 -0.13791177 0.11668362 -0.2019447 -0.018060407 -0.03316839 0.16094796
-0.072642595 -0.105989456 -0.21732064 -0.08210864 -0.05575089 0.038415067 0.06736837 0.07883668
-0.13713354 0.14059162 -0.054959893 -0.06806415 -0.085228175 0.29998943 -0.086599804 0.04613557
-0.07011183 0.060347978 -0.060319405 0.078701496 0.07008028 -0.23512882 0.03502989 -0.109204985
-0.23370762 0.043080434 -0.04087337 0.043797664 0.24711663 -0.23250562 0.045414854 -0.12346196
0.24919692 0.079762846 -0.061793957 0.08539085 0.14947353 0.07041776 0.19853978 0.022394206
0.0399654 -0.046867512 0.15993224 -0.026699623 -0.10206319 -0.16129836 -0.09599827 0.020494945
-0.02667744 0.008225976 0.0055698026 -0.29354918 -0.04909879 -0.016421849 -0.13227652 -0.21567611
0.009578842 0.08240767 0.052369 0.18007135 -0.07752365 -0.043145984 0.025747666 0.15607901
-0.09378615 -0.14285608 -0.117855 -0.25314382 -0.16873872 0.08765062 -0.078349836 -0.22931017
-0.061245807 -0.100272834 0.20709087 -0.11030276 -0.16567074 0.0070091533 0.1276851 -0.0023742896
-0.14995307 0.06038151 -0.08456955 0.15675767 -0.0006745006 0.0054458356 -0.069754675 0.0812109
-0.052652605 -0.18338959 0.048154984 0.10554873 0.119377 -0.0975001 -0.08821716 -0.1035775
0.09296481 0.12504408 -0.0699972 -0.04957868 0.046914767 0.023243854 0.023232797 -0.077559225
-0.0017284042 0.016837096 0.065187715 -0.090867735 -0.039932624 -0.002746855 0.1134257 0.037487876
-0.033053126 -0.049113378 0.103273064 -0.03156144 0.008699968 0.16503878 -0.005432426 0.054442592
-0.16759148 -0.0490376 -0.036115557 0.062418845 -0.2292132 0.122261345 0.10606026 0.005026313
0.10353282 0.030382553 -0.007067149 -0.13061963 -0.08107592 -0.11011724 0.03696408 0.09977016

1.layers.2.0.bias f4 [74]
00000000: 24ce 7bbd 90c7 89bd 7d78 45bd 7b97 d4bc
00000010: d10d 20bd d6a9 85bd 1d2f 2fbd 320e febc
00000020: b2d2 3bbd 4eab 60bd 8316 2ebc 2c2a 70bd
00000030: e0ff 213b b05d 33bd 3a41 12bd 59a3 46bd
00000040: d640 48bd 5139 33bd 667f a8bd d03e b73b
00000050: e96a aebc 3338 a4bc ef13 7bbd 12e1 41bd
00000060: 7c03 58bd bf3a bbbc 29e7 33bd 085b c2bc
00000070: 44e1 62bd 0ad0 93bb 5ed8 77bd d3ab 3dbd
00000080: b2f1 26bd 0f79 42bd f0ef edbc 4fbe 19bd
00000090: 40e2 9dbd ac99 91bd 8abe f4bc cb3a f2bc
000000a0: 18ab 06bd 2def 88bd abb7 53bc 85ec 14bd
000000b0: 41b6 15bd 8d3f 8dbc 2213 1bbc 6154 d33b
000000c0: c7d3 13bd d845 d4bc 2132 9dbd 404f e5bc
000000d0: dd16 ecbc d5a5 aabc cc08 5bbd 321f 05bd
000000e0: 4b01 d1bc 537e 14bd a2d6 1cbd c3cf 30bd
000000f0: 9f6e 6abd 2c91 f3bc f825 c2bd 5922 28bd
00000100: 4756 c7bb 54b6 3bbd a28c 08bd ef11 bd3c
00000110: ab72 16bd 208f 0a3c 14a8 f8bc 2309 cfbc
00000120: 03b5 c1bc 8dad 7fbd
-0.061475888 -0.06727517 -0.04821061 -0.025951138 -0.039075676 -0.06526534 -0.04276954 -0.031012628
-0.04585523 -0.05485087 -0.010625484 -0.05863397 0.0024719164 -0.04379052 -0.035706736 -0.048495624
-0.048889957 -0.043755833 -0.08227424 0.0055922046 -0.021291213 -0.02004633 -0.061298307 -0.047333784
-0.052737698 -0.02285516 -0.043921623 -0.023725048 -0.05539061 -0.004510884 -0.06050908 -0.046306442
-0.040757842 -0.04747873 -0.029045075 -0.037535008 -0.077091694 -0.07109389 -0.029876012 -0.02956905
-0.03287801 -0.06686244 -0.012922208 -0.036358375 -0.036550764 -0.017242217 -0.009465011 0.0064492677
-0.03609064 -0.02591221 -0.07675577 -0.02799189 -0.028819496 -0.020831028 -0.053475186 -0.032500453
-0.025513312 -0.036253285 -0.038290627 -0.043166887 -0.057234403 -0.02973231 -0.09479898 -0.04104838
-0.006083283 -0.04582818 -0.033337243 0.02307984 -0.03673045 0.008456975 -0.030353583 -0.025272911
-0.023645883 -0.06242137

1.layers.3.0.weight f4 [74, 296]
00000000: cd6e 653c e256 b93d 40c5 e33d e17b 6ebc
00000010: f4d9 e33d af92 67bc b73e c53d bb2e d53d
00000020: 9da8 6bbe 2c80 d8bd 96fb 913d d230 30bd
00000030: 04be 493d e376 e6bc 2f90 17bb 21de a6bd
00000040: 1e57 24bc 99b3 8b3d 27f7 eabc bcd4 393e
00000050: cbdd efbc b532 1a3d 068f ce3d 4d0e 043e
00000060: 46ec fd3b 737c d8bc 3b3e fa3d bbc8 da3c
00000070: ba1b 043e 0b40 8ebc 9715 bebd 4030 b8bc
00000080: 769b 1b3d af80 fe3c 868d 4fbd 7334 ff3d
00000090: bd67 423d f139 103e 96c0 0b3c e6ee 06be
000000a0: 2972 aabd b202 91bc 2aa0 5c3d de28 aabd
000000b0: 8894 5a3b 4a58 0b3e 4ca4 703d 9333 093e
000000c0: 9836 593e 5fbb 3d3d ed08 51bd dda8 c73d
000000d0: 13de ac3b 52e7 4f3d 6b40 b23c 9397 54bd
000000e0: d5b9 48bd fcb3 3bbd e19f 593c 9b40 9dbb
000000f0: 21a4 63bd 14ee 9abd 69fe 1f3e 17a4 803d
00000100: d3cd d23d e87a 5b3b 526d 2e3d 4d00 933d
00000110: f17c 203d 716d 51bd 0502 ad3c 6c76 e6bd
00000120: f330 153d 61de e93d 66c5 513d 2954 103d
00000130: 7cd9 453d e8d3 193d f2f4 3cbe 1dbd d2bc
00000140: 9f3a c6bc 2f24 453e 0c30 3ebe f8c5 693d
00000150: bb85 5bbd 9002 4d3d 8fc3 873d 4f17 fa3c
00000160: 59eb 033c 5b60 bcbc cb5d d4bb 268a 02be
00000170: 98db 073c 7761 623d 3840 e8bc 22a9 8a3d
00000180: 47cf 4e3d 4d9b cebd 30de a5bc c377 13bd
00000190: bea1 ae3d 56ea 473e 637f e93c c607 d3bd
000001a0: 86e7 613d ef83 da3d 9fe0 5fbe 8e43 8dbd
000001b0: 4bcc 6a3e 1025 df3d 3181 ad3d b8c1 f23d
000001c0: b880 1a3d ebc1 373e aab5 61bb b3b0 603e
000001d0: 0810 afbd ebb4 b3bd 4080 c1bc 710e 31bd
000001e0: 1c80 c2bd 6f13 26be 12f5 6ebd 6a61 8a3c
000001f0: 7dc1 7ebd 3f8a efbd 08b6 503e 9b68 093e
00000200: 46ae 05be e3f0 5d3d 4228 8dbd 37e7 6dbd
00000210: 6e84 973d eb8e 30bd fb02 953c 2767 d73d
00000220: c481 c1bd de48 acbd 849a 7f3d b9aa 11bd
00000230: d3fb f3bd 83b2 8abd 6a1b beba 0cda 76bd
00000240: b200 1abd 7d2a 65bd 401f c2bc bb0c 4c3d
00000250: e60b 503e 9844 41be d03b cfbb 6b4c 083d
00000260: 6773 08be 8d9e 5bbc 56c0 eb3c 935f 3ebd
00000270: 15bd 863d 8dbc 353b 9c1a f6bd c2b1 76bc
00000280: f54b a13b 6d7b 073e 01e3 a13d 1d19 133e
00000290: 1587 0f3d 6adb 89bd 9c9b 56be b892 e2b9
000002a0: fcee 413d 52bf 30bd 5e91 5c3e 11b9 c23d
000002b0: 8017 363c e8d0 b1bd 688f f73d bc27 81bd
000002c0: 6176 f3bd a774 f13d 1f91 9e3d 9038 083d
000002d0: 2395 eabc 1b57 b9bd 573e 7e3d da66 d4bd
000002e0: 0e48 4f3c edbb bc3d d13d 12bd 058f 22be
000002f0: b887 c5bd c920 1bbd d036 383d 568f c5bb
00000300: 66aa 46bd e1d4 db3c 43aa 0fbc 2297 b33c
00000310: 0d4b a5bd 3cb0 c63d 31a8 9c3d 4903 9eba
00000320: 7854 163d d690 9fbd 7a06 9abd 64ba f33d
00000330: 998e ecbc 1b49 753d 9e06 18be 0aa2 7f3c
00000340: 3f4b ca3d f9bc c2bd d860 e2bd 85e2 b3bd
00000350: 6176 f73c 020f 35be 8000 1dbe be7d a6bd
00000360: c73d 343e 9ac5 85be 6331 38bd 081a 8fbd
00000370: 2da3 c5bb 2ea0 a43d d6ad 0a3e 24bf 3dbe
00000380: 9bf8 c93c 2680 08bc d9fd c53e bf19 f93d
00000390: df40 e63c 84e8 c23d 445d ba3d fe92 02bd
000003a0: 70aa 4cbd e4b0 b0bd 5b73 613e 2563 f73d
000003b0: 826b 0a3e a982 623d 74d0 2f3e 0a7a 5d3d
000003c0: 126c fb3d 871f 8d3d b7df 553e 276e 22bb
000003d0: bb78 213d a066 40be 7e51 5cbd 8b38 513d
000003e0: f626 0bbe 80b5 7dbd fb09 2b3d b3d4 e6bd
000003f0: 6b48 1d3d 2655 a03d f1c3 71bd c1b1 2e3e
0.014003468 0.09049775 0.11121607 -0.014555902 0.11125556 -0.014134093 0.096311025 0.10409304
-0.2301354 -0.10571322 0.07128064 -0.04301531 0.04925348 -0.028132861 -0.0023126712 -0.081478365
-0.010030536 0.06821365 -0.028682305 0.18147558 -0.029280564 0.037646014 0.10085873 0.1289608
0.0077491133 -0.02642653 0.12218901 0.026707044 0.12901202 -0.017364522 -0.09281462 -0.022483945
0.037990056 0.03106722 -0.050672077 0.12461176 0.047462214 0.14084603 0.008529803 -0.1317707
-0.083225556 -0.01770148 0.05386368 -0.08308576 0.0033352692 0.13607898 0.058750436 0.1339858
0.21212232 0.04632127 -0.051033903 0.09749005 0.0052754967 0.050757714 0.021759233 -0.051902365
-0.04900535 -0.045825943 0.013282747 -0.0047989613 -0.055576447 -0.07564941 0.15624394 0.06281298
0.10293164 0.0033490006 0.042584725 0.07177792 0.039181653 -0.051129762 0.021119127 -0.11253056
0.036423635 0.114193685 0.051213644 0.03523651 0.048303112 0.037555605 -0.18452814 -0.025724942
-0.024197875 0.19252084 -0.18573016 0.057073563 -0.053594332 0.050051272 0.06629097 0.030528693
0.008051717 -0.022995165 -0.0064809076 -0.12748012 0.008292101 0.05526873 -0.028350934 0.06770541
0.050490644 -0.10088215 -0.020247549 -0.036002886 0.085269436 0.19522986 0.028503126 -0.10304217
0.05515244 0.106696956 -0.2186303 -0.06897651 0.22929494 0.10895741 0.08471907 0.11853355
0.037720412 0.17945068 -0.0034440556 0.21942405 -0.085479796 -0.08774742 -0.023620725 -0.043226663
-0.09497091 -0.16218351 -0.058339186 0.016892154 -0.062196244 -0.1169629 0.2038194 0.1341881
-0.13054761 0.054184806 -0.06892444 -0.05808183 0.07398306 -0.043105047 0.018189898 0.105177216
-0.09448579 -0.08412336 0.062403217 -0.035563204 -0.11913266 -0.0677233 -0.001450402 -0.06026654
-0.03759832 -0.055948723 -0.023696542 0.04981683 0.20317039 -0.18873823 -0.006324269 0.033276003
-0.13325273 -0.013404501 0.028778236 -0.046477865 0.06579033 0.0027730793 -0.12016794 -0.015057029
0.004922385 0.13230677 0.07904626 0.14365049 0.035040934 -0.06731303 -0.20957798 -0.00043215393
0.047347054 -0.043151207 0.21539828 0.09507955 0.011114001 -0.08682424 0.120878994 -0.06306407
-0.11887813 0.11789828 0.077425234 0.033257067 -0.028635567 -0.09049817 0.06207117 -0.1037118
0.0126514565 0.092155315 -0.035703484 -0.1587487 -0.09645027 -0.037873063 0.04497415 -0.00602905
-0.04850235 0.026834907 -0.008768621 0.021922652 -0.080709554 0.09701583 0.076492675 -0.0012055422
0.03670165 -0.07791297 -0.075207666 0.119007856 -0.02887659 0.059884172 -0.14846274 0.015602598
0.09877633 -0.095087 -0.11053628 -0.087834395 0.030207815 -0.17681506 -0.15332222 -0.08129452
0.17601691 -0.2612732 -0.044968974 -0.06987387 -0.006031415 0.08038364 0.13542876 -0.18529946
0.024654677 -0.008331334 0.38670233 0.12163114 0.028107105 0.09517005 0.0909982 -0.031878464
-0.04996723 -0.08627489 0.22016661 0.12079457 0.13517573 0.05530039 0.17169362 0.054071464
0.12276472 0.06890779 0.20886122 -0.0024784894 0.03942178 -0.18789148 -0.053788655 0.051079314
-0.13589081 -0.06194067 0.041757565 -0.11271038 0.03839914 0.07828741 -0.059024755 0.17059995

1.layers.3.0.bias f4 [74]
00000000: 1fa0 77bd a87a 0ebd f2ce 82bc 78ff d0bc
00000010: 68ef a7bd d6ad ebbc 287d 71bd 3439 1ebd
00000020: 63cf 3cbc 1a3b acbc 3238 57bd a6a2 81bd
00000030: 95b3 a3bc ecc0 4abd 1eb5 74bb 599d c1bc
00000040: a527 efbc 88a9 baba d4b6 48bd 3db1 7cbd
00000050: 79f2 18bd fd74 54bc a04c 93bd dc4d a3bc
00000060: 0496 92bc a9e0 80bd 782d 07bd f030 c1bc
00000070: 933e 67bd f06b eabc bb2d 0dbb eea7 25bd
00000080: c2d4 2fbc 6c08 efbc 4ce8 f1bc ce6a 25bd
00000090: 7c5b eebc a272 753c af25 8abd d115 00bc
000000a0: c46a 3bbd 0fb6 9ebc 6dcb 3dbd a195 5dbc
000000b0: 8bbd 96bb 72d9 00bd 7197 cdbc 9d74 ad3b
000000c0: f620 28bd fa73 6bbd 522d 8dbc 6717 1dbd
000000d0: a36c c5bc 3427 91bc 3208 c9bc d9ce 13bd
000000e0: 5ef0 09bd 1d18 0b3c 83f0 34bd c9e0 16bd
000000f0: a6dd d8bc ff23 62bd 6612 61bd 6c13 42bd
00000100: 3441 30bd 4af6 3cbd 4a55 9bbd 7446 87bd
00000110: 2275 debd 1c40 00bc d694 c2bc 6c84 aabc
00000120: b570 f0bc bbd5 a2bc
-0.060455438 -0.034784943 -0.01596782 -0.025512442 -0.0819996 -0.028769415 -0.05895725 -0.038628772
-0.011524054 -0.021024276 -0.052543826 -0.06329851 -0.019983092 -0.04950039 -0.00373394 -0.0236346
-0.029193709 -0.0014241198 -0.049002483 -0.061692465 -0.037340615 -0.012967345 -0.071923494 -0.019934587
-0.017893799 -0.062928505 -0.033002347 -0.023582906 -0.05645616 -0.028615922 -0.002154215 -0.040443353
-0.010731878 -0.02917882 -0.029529713 -0.04038506 -0.029096358 0.014980944 -0.06745469 -0.007817701
-0.045756117 -0.019373922 -0.04633658 -0.013524444 -0.004600232 -0.031457372 -0.025096627 0.0052934424
-0.04104706 -0.05748365 -0.017233524 -0.038352396 -0.024099654 -0.017718889 -0.02454004 -0.036085937
-0.033676498 0.008489636 -0.044174682 -0.036835466 -0.026472878 -0.05521011 -0.054949187 -0.047381803
-0.043030933 -0.046133317 -0.07584627 -0.06605235 -0.10862185 -0.007827785 -0.023752611 -0.020815097
-0.029350618 -0.019877305

1.layers.4.0.weight f4 [74, 370]
00000000: 3094 2c3e 8c29 333c facf abbd 2198 063e
00000010: f1e4 823d 33ce aabd 7228 edbd 6041 02bd
00000020: 3e94 b2bc 43f2 76bd 918a 88bd 3693 833d
00000030: 0d26 a2bd 1434 b3bd 4ba6 a03c ad60 c9bd
00000040: e705 bebc cff6 343d 8467 8cbd c9d5 ed3c
00000050: b140 b5bc 8df9 2c3c 43dc 133e 94d2 abba
00000060: 3388 30bd 1b1b cc3d 488b 9f3d 2c83 b63d
00000070: bff1 513c 5451 fd3c 48a2 073e 7824 6a3d
00000080: b83d a03d 5f64 2bbd b49f b43d 7867 523d
00000090: 7750 b8bc 4f6c da3d 5855 13be 3038 153e
000000a0: fa2e b5bc 8b50 113b 01d8 8e3d aa2a 8a3d
000000b0: b630 95bb 9a5f 40bd 922d b23d 3eb4 2d3d
000000c0: e529 5bbd 9dd5 173c e075 283d 3bcf 4c3d
000000d0: 3dff e43d e60f 0b3d ca77 823d 8053 a9bd
000000e0: aed3 3d3d 421c 603c bd05 ba3d bac7 3abd
000000f0: c3d9 913d 7662 a2bd 9980 97bb b25e adbd
00000100: 7bfe 34bd a494 95bb cc5d e4bb e652 323d
00000110: ee84 65bc f143 983d ad13 be3d 9e49 083c
00000120: 3688 69bd f10d 033d 4289 95bd 8b8b 87bd
00000130: 1dc9 d03d ff1a a83b f6e6 bbbd b38b 87bc
00000140: 62fb 3e3c 0974 353c 2642 86bd de0a d5bd
00000150: df0a d6bc 0746 27bd 5e7a debc 6acf d63c
00000160: 0aeb ee3b 8ae4 28bd dace 0dbb fa7a e43d
00000170: a861 ed3c 2be1 4a3e 9762 a63d af1e 853d
00000180: 7544 213e d654 fb3b 0321 2bbc 7342 62bc
00000190: 3404 c03d fd4d f13c 863f 403d 40eb 58bc
000001a0: 22bc 993d 019f 8e3c d974 7d3d 71e1 0cbd
000001b0: 1bf3 cf3c 1286 f0bd 9c22 f93b ab51 a9bc
000001c0: e7ad a03d 7dd1 a23c 4566 a5bd 04bc 07bb
000001d0: 3acc e6bd da9a 55bb 7c51 ffbd eab9 4abd
000001e0: 7199 f83d 25d8 ad3d 2d48 713d be8a 203e
000001f0: 0f8e de3c d365 94bc 884c 09bd 44d4 8a3d
00000200: 148e 3ebd 0cb6 a9bd c791 de3c 1e98 cbbc
00000210: 9ac5 713d fdb1 ee3c 712c a43b 5754 333c
00000220: 2de8 a9bd 0b34 e8bc fc52 48bc ba48 e3bd
00000230: 6275 723d 25f4 d83c fc43 a63d de67 8a3b
00000240: f522 ab3d 89f5 16be 23ca 023e 29f2 9cbb
00000250: 5f26 20be e71e b83d 63a0 15bc 5565 3d3d
00000260: be51 b93c 53ad 503e 6723 12be cf00 f23b
00000270: fd87 0dbd c6d9 f63d 58b3 7e3c 645c eebc
00000280: 0195 b7bd c690 023e ce2b c3bd f911 473b
00000290: 47c5 d23c cbad b7bd ee51 c5bd 03b1 803c
000002a0: 0a8c 05bd ca43 a73c 1ab0 e23c 740e e13c
000002b0: b554 1dbc 4070 a13d 91a0 24be 7ee6 203e
000002c0: bda9 de3c 05c8 f7bd 9519 8b3d 3a2a 80bd
000002d0: 3b5f 313c 32b6 bebd bf73 bc3b 2c29 463e
000002e0: 6355 093e 78b1 c83c cb56 973d 7aa7 ab3c
000002f0: a3fa 1ebb 9768 a1bd 8cdb 433c 3e42 ab3c
00000300: 640e 2b3d 7aac 0ebe de96 b13d d4d3 cf3d
00000310: 120a 4ebd 6d69 413e f5e4 53bd d67c 1a3d
00000320: c843 a03d 184d 243d 7175 c73b 62e4 2dbc
00000330: 4865 333d 1d89 143d 2cff c73d 54f7 f8bd
00000340: ca60 95bc fcb2 bcbd fdf3 d2bc 2f9e afbc
00000350: 0018 a63d 9e83 bfbc 0835 8cbc 96b0 96bd
00000360: 0a0f d0bd d3f3 763c acd1 913c 594f 6cbc
00000370: 942f 0f3d d0ff a13d 2da7 87bd 73d2 efbd
00000380: 8fec 353d f972 ed3c 2064 a1bd 295e 9ebc
00000390: e937 2e3d c75a 3b3d 6970 443d 65cb 98ba
000003a0: 0d8d 38bc 8944 f6bd 0965 a3bd 1a3d e4bc
000003b0: aa22 fbbc e3ef 5dbd b509 59bd 0bf1 cfbc
000003c0: 1682 fa3c b37e 063e 2a3a 9ebd 14b1 1cbe
000003d0: 92d1 5dbc 36e7 66bd 9051 08bd 5f91 af3d
000003e0: f91d 693c f3bd bd3c 4f95 48bc 3dd9 2abd
000003f0: 4307 083d 4a57 b13d bd58 aa3d de4a aebd
0.16853404 0.0109351985 -0.08389278 0.1314397 0.06391323 -0.08340111 -0.1157998 -0.031800628
-0.021799203 -0.060289633 -0.066670544 0.06424563 -0.07917414 -0.087501675 0.019610545 -0.098328926
-0.023196174 0.044180688 -0.068556815 0.029032605 -0.022125574 0.010557544 0.14439492 -0.0013109022
-0.04309864 0.099661075 0.07790238 0.08911738 0.012813984 0.03092257 0.13245499 0.057163686
0.07824272 -0.04184377 0.088195235 0.051368207 -0.022499306 0.106651895 -0.14388025 0.14572215
-0.022117127 0.0022173251 0.06974793 0.06746419 -0.004552926 -0.046966173 0.08700098 0.04240822
-0.05350675 0.009267238 0.04112804 0.050002318 0.11181495 0.03395071 0.06370504 -0.082678795
0.04634445 0.013678612 0.09083126 -0.04560063 0.07121613 -0.07928936 -0.0046234843 -0.08465327
-0.044188004 -0.0045648385 -0.0069691893 0.04353609 -0.014008744 0.07434834 0.092810966 0.008318333
-0.057014666 0.031995717 -0.073015705 -0.066184126 0.10194609 0.0051301713 -0.09174912 -0.016546106
0.011656614 0.011075028 -0.065555856 -0.104024634 -0.02612823 -0.040838268 -0.027157959 0.02622195
0.0072912024 -0.041233577 -0.0021638186 0.111562684 0.02897723 0.19812457 0.08124273 0.06499993
0.1574877 0.0076700253 -0.010444882 -0.013809788 0.09375802 0.029456133 0.04693558 -0.013239682
0.075065866 0.017409803 0.061879013 -0.034394685 0.025384476 -0.11744322 0.0076030027 -0.020668825
0.07845669 0.019875282 -0.08076147 -0.0020711431 -0.11269422 -0.003259352 -0.12466714 -0.049493708
0.121386416 0.08488492 0.058906723 0.15677926 0.027167348 -0.01811496 -0.03352025 0.06778768
-0.046522215 -0.08286676 0.027169121 -0.024852809 0.05902634 0.029137606 0.0050101806 0.010945401
-0.08296237 -0.028345129 -0.012226816 -0.11097856 0.059193976 0.026483605 0.08118436 0.0042238077
0.08356277 -0.14742102 0.12772422 -0.00478961 -0.15639637 0.08990269 -0.009132477 0.046239216
0.022621986 0.20378618 -0.14271317 0.0073853503 -0.034553517 0.12053256 0.015545689 -0.02909679
-0.08963967 0.12750539 -0.095298395 0.0030375703 0.025728835 -0.08968695 -0.096347675 0.015709406
-0.032604255 0.020418067 0.027671862 0.027472712 -0.009602715 0.07882738 -0.16076876 0.15712926
0.027180547 -0.120986976 0.06791989 -0.06258054 0.010825927 -0.09312095 0.0057511027 0.19351643
0.13411479 0.024498686 0.07389601 0.020953882 -0.0024258278 -0.07881277 0.0119541995 0.02090561
0.04176177 -0.13932982 0.08671354 0.10147825 -0.050302573 0.18887873 -0.051732022 0.03771671
0.07825428 0.040112585 0.006086998 -0.010613533 0.04379776 0.036263574 0.09765467 -0.12156549
-0.01823463 -0.09213826 -0.025751108 -0.021437733 0.081100464 -0.02337819 -0.017115131 -0.073579
-0.101591185 0.015072781 0.017800175 -0.014423215 0.034957483 0.079101205 -0.06623683 -0.11710062
0.044415053 0.028985487 -0.078804255 -0.019332008 0.04253379 0.04574087 0.047958765 -0.0011657296
-0.011264098 -0.12024791 -0.07978255 -0.027861167 -0.030656178 -0.054183852 -0.052987773 -0.025383493
0.030579608 0.1313427 -0.07725938 -0.15301925 -0.013538735 -0.056372844 -0.03328091 0.08572649
0.014228337 0.023161864 -0.012242629 -0.04171108 0.03321005 0.08659227 0.08317707 -0.085103735

1.layers.4.0.bias f4 [74]
00000000: 4437 61bd d27f dbbb beb9 7fbd 34fb b6bc
00000010: 795f 81bc 44ea 66bb 187b 2bbc ea84 e3bb
00000020: 16f9 0bbd 70ed 5abd 76bb 1dbd 1be4 17bd
00000030: 0867 fdbb 1364 fa3b 1d2d 6abd 4396 2dbd
00000040: 59ef 8fbc ae80 9dbc f48a 1dbd 0a4a f6bc
00000050: d71c 48bd 147c 80bd 41f0 1ebd c055 b3bc
00000060: 9929 2dbd c1ca 28bd d6af 84bd 643b 12bd
00000070: acc5 96bd dbec f8bc c7c3 01bd 5f63 31bd
00000080: 39f7 d4bc 0e47 23bd 1d78 05bd f777 91bd
00000090: 1c06 e3bc f2e3 01bd d550 9dbc 530d e5bc
000000a0: 751d e9bc c203 91b9 951a 32bd 0329 f6bc
000000b0: 82c5 16bd d3e6 82bc 2190 55bc a140 1bbd
000000c0: 60dd 13bd 39cc 9ebd 396b 06bd f5b5 68bc
000000d0: dd08 21bd 1134 bdbb 2df0 4bbd 931b 7bbc
000000e0: a38e 15bd 750e 46bd 30e5 c2bc fb97 18bd
000000f0: c4c8 16bc 5001 4dbd 11ea e6bc 73bc 50bc
00000100: 5551 80bc 3b4a 0dbd cba2 6bbd 0eae 2ebc
00000110: 7e4a 34b9 5971 3dbd b1d5 19bd 01d1 47bc
00000120: 4e89 d0bc 3e83 45bd
-0.054984346 -0.006698587 -0.062432997 -0.02233658 -0.015792595 -0.0035234848 -0.01046636 -0.006943335
-0.034173094 -0.053449094 -0.038508855 -0.037082773 -0.0077332295 0.0076413243 -0.05717193 -0.04237963
-0.017570185 -0.019226398 -0.038462594 -0.030064601 -0.04885563 -0.06273666 -0.038803343 -0.021891475
-0.042276 -0.041208986 -0.064788505 -0.03570117 -0.07361922 -0.030386379 -0.03168085 -0.04330766
-0.025996791 -0.039862685 -0.032585252 -0.071029596 -0.027712874 -0.031711526 -0.019203583 -0.027960455
-0.028456429 -0.00027659355 -0.04348238 -0.030048853 -0.036809452 -0.015979206 -0.013034851 -0.03790343
-0.03609979 -0.07753796 -0.0328171 -0.014203538 -0.039315093 -0.005774029 -0.049789596 -0.015326398
-0.036512982 -0.04835363 -0.023790926 -0.037254315 -0.00920314 -0.05005008 -0.028187783 -0.012740242
-0.015663782 -0.03449462 -0.0575283 -0.010661615 -0.00017193888 -0.046250675 -0.037557308 -0.0121958265
-0.025456097 -0.048220865
