DNNWeights/model/ensemble_1/selected_set_1_0_6.onnx (onnx, 872444 bytes, 17 tensors)

0.embeds.0.weight f4 [2, 1]
00000000: b785 8dbe 19c4 c6bf
-0.2764108 -1.5528594

0.embeds.1.weight f4 [3, 2]
00000000: 8b2a 10bf 43e1 6e3f 2ee7 8c3f 156b 1b3f
00000010: 537e 80be e400 7bbf
-0.56314915 0.9331247 1.100805 0.6071027 -0.25096378 -0.98048234

0.embeds.2.weight f4 [2, 1]
00000000: b41a 28be 3414 c63f
-0.16416436 1.5474916

0.embeds.3.weight f4 [2019, 50]
00000000: 8487 c1be 71da ccbd aea4 e8bf 7081 43bf
00000010: dfb3 0140 f9b3 d63f d552 fa3f 9630 bcbf
00000020: ed7f 393f 0c4c f03f 4c7d 7d3d 57d7 0040
00000030: 626e a03f 5cbd 69bf 5efe 68be 375d b6bf
00000040: 5777 0dbe 2b5c 693e 87ba 903f 8cba 883f
00000050: 14f6 f7bd d25f 963f 6f64 953f fd2b 3a3e
00000060: ada3 95be fec3 b3bd 9663 c2bd 8185 483f
00000070: b0d7 a93f a7e9 cb3f 69fc 0cbf 4fa8 3dc0
00000080: 02a6 bcbf 4972 a4be 9379 4e3f 6412 1f40
00000090: db47 a7be bbe6 b6bf febb b6bb 6218 a0be
000000a0: 49c2 1abf b5ae 84bf 45bc 963f 2ae5 683f
000000b0: fb4c 303d 452c 523e bb6a 093f e394 f73e
000000c0: 1612 2bbf e3f9 32bf fe93 e83e 6654 f1bf
000000d0: d2fe 55bf b44f 9fbe 381d b03e 977b c9bf
000000e0: 3e4d aabe 9f2f 9b3f 1ea9 31bf eb85 0840
000000f0: f125 913e 2a29 a1bf 25ab 6c3e d3f0 1abf
00000100: 06df 4b3b 9eaf 843f 1d8d 5e3f ef20 2bbf
00000110: 449f 913f 802b 88bf f7ab c6bf 4740 90be
00000120: 6e6a 023f 61ab 9fbf eb1d 8fbe 6ca2 82bf
00000130: 5f86 993e 94e1 49bf 7d20 983f 842e 313f
00000140: 7e7f 44bf 2ef0 973f b5ec 07c0 e8a5 813f
00000150: 74b3 723d 04e4 b0be f0fb 61bf 691f a33f
00000160: 68e7 2f3f 8f29 afbf 5cf4 99bf d32f 8c3f
00000170: 6485 0d40 2091 63bf f929 94bf 6ce2 e2be
00000180: fd5f 54be a74a 0c3e 637c be3e 3cc4 413f
00000190: a6d4 0dbf 5024 bf3f 95fa 233f 7654 d4be
000001a0: e145 fc3e a65f 8fbf bb8f a9be 45e2 0ebf
000001b0: 4071 943f 0426 9d3f fa77 3abe 05fa 93bf
000001c0: 2f96 c1be 5a3b 343e 6518 1b40 0e46 a03f
000001d0: 2128 80bf 469b d73e c132 1940 ce45 fe3f
000001e0: 5a53 093e 8b5d 5f3e 7870 db3d c642 9d3e
000001f0: d189 b33d ae40 69bf 6a2c dd3f d2e8 0840
00000200: 971b e5bf bee1 f1be 1f4a 09bf af68 f03f
00000210: 7dbf 753f b261 0e3e 2527 89bf f586 7fbf
00000220: 4e5e 933e 6d2d 903f 2c70 81bf 8e81 a8bf
00000230: b209 e33e 33da 30be b5b1 e83e def2 0abf
00000240: 8d7d 443f 4f1e 603f 80bc c43e aded 9d3f
00000250: 537d ca3f 140d 213f 0f11 193f 9c49 47bf
00000260: a74f 25bf a873 83be e072 24c0 cd74 e1be
00000270: 4db6 36bf 7f0b a63f 6dce 56bd 2edc 07be
00000280: 30bd 8f3f e74b 7fbd d4b3 ad3f fa96 58bf
00000290: 864f d5bf fa74 50be f201 d73e f4d7 34bf
000002a0: a3a7 d9be fc03 fb3e 20c0 e8be 87a1 1940
000002b0: cd08 9abf e70f 873e 4751 28bf 8961 423d
000002c0: c059 3bc0 4c67 1d3f 580c 9fbf ca47 a53f
000002d0: 28fd 783e b655 d73f d825 97bf 8a58 1d3f
000002e0: 8faa 853f cab8 13bf 7da1 ce3e 48bd 4040
000002f0: 3b21 793f d629 e5be 43f9 febe f55b 843f
00000300: 8832 c63f adf3 46bf 63e7 ecbf 26c0 5bbe
00000310: 7da4 3c3e e551 313e efe1 8cbf 8219 d83e
00000320: b579 0c40 ad0a 2b3f d7a2 ea3e 99c8 1c3f
00000330: 8333 0340 71af 2fbf b689 83bf e92f 09be
00000340: 5208 b9bf c4ca 54bf f9da 92be b229 b1bf
00000350: 61b2 59bf b38f 12bf 6c24 323f fedc b1bf
00000360: 1f7d 7e3e ac7b 173f 8908 73bf 102c 0dbf
00000370: 5d04 aa3e 8e31 853e 11a6 043e 12e9 53bf
00000380: 13dd 8dbe 75a4 9d3e f2e5 d4bf e609 c43f
00000390: 0919 a73f 3cc0 06c0 c440 d63f 7199 e23d
000003a0: 6646 f3bf 6902 19c0 26d2 ffbf f75c 9bbe
000003b0: 6ead 9b3e 6277 923f 1f24 463b d4b8 163e
000003c0: c0ba b23f 6045 ad3e 34cd 8c3f 9d2f 4bbd
000003d0: 16c6 103f 6959 21c0 ac00 533f f9f9 9fbf
000003e0: 3fed 56bd 8ee6 853f 8b11 803f 80bf 0140
000003f0: a5c1 d03e 1e36 833e 5c59 44bf 4f2a acbe
-0.37798703 -0.10002602 -1.8175256 -0.7636938 2.0266035 1.6773673 1.9556528 -1.4702327
0.72460824 1.8773208 0.06188707 2.0131433 1.2533686 -0.91304564 -0.22753283 -1.4247197
-0.13815056 0.22789066 1.1306924 1.068193 -0.121074826 1.1747992 1.1671275 0.18180843
-0.29226437 -0.08777617 -0.09491651 0.7832871 1.3268948 1.593068 -0.5507265 -2.9633977
-1.4738162 -0.32118443 0.8065426 2.4854975 -0.3267201 -1.4289163 -0.0055766096 -0.31268603
-0.60452706 -1.0365816 1.1776205 0.90974677 0.043042164 0.205247 0.5367848 0.4835578
-0.6682447 -0.69912547 0.4542541 -1.8853881 -0.8359195 -0.31115496 0.34397292 -1.5740842
-0.33262056 1.2123908 -0.6939868 2.1331737 0.2834926 -1.2590687 0.23112161 -0.6052372
0.0031108274 1.0366094 0.8693407 -0.6684713 1.1376729 -1.0638275 -1.552123 -0.2817404
0.5094365 -1.2474176 -0.27952513 -1.0205817 0.2998533 -0.7885983 1.1884915 0.692116
-0.7675704 1.1870172 -2.1238225 1.0128756 0.05925317 -0.34548962 -0.8827505 1.2743961
0.6871247 -1.3684558 -1.2027698 1.0952095 2.2112665 -0.8889332 -1.1575309 -0.4431337
-0.20739742 0.13700353 0.37204275 0.75690055 -0.554026 1.4932957 0.6405423 -0.4147069
0.49272063 -1.1201065 -0.3311747 -0.5581401 1.1597061 1.2277226 -0.1820983 -1.1560675
-0.37809893 0.17600766 2.423364 1.2521379 -1.0012246 0.42110652 2.3937228 1.9865053
0.13410702 0.21813028 0.10714811 0.30715007 0.08766521 -0.9111432 1.7279179 2.1392102
-1.7899045 -0.4724254 -0.53628725 1.8781947 0.9599531 0.13904455 -1.0715071 -0.99815303
0.28782886 1.1263863 -1.0112357 -1.3164537 0.44343334 -0.17270736 0.4544808 -0.54276836
0.76754075 0.8754625 0.38425064 1.2338158 1.5819496 0.6291058 0.59791654 -0.77846694
-0.64574665 -0.25674176 -2.5695114 -0.44034424 -0.7137192 1.2972258 -0.052442957 -0.13267586
1.122961 -0.062328245 1.3570504 -0.8460537 -1.6664894 -0.20357123 0.41993672 -0.7064202
-0.4251071 0.49026477 -0.4545908 2.4004838 -1.2033936 0.2637932 -0.6574902 0.047456298
-2.927353 0.61485744 -1.2425642 1.2912533 0.24315321 1.6823032 -1.1808424 0.61463225
1.0442675 -0.5770384 0.4035758 3.0115528 0.9731633 -0.4475848 -0.49799547 1.0340563
1.5484171 -0.7771557 -1.8508114 -0.21460018 0.18422122 0.17316397 -1.100645 0.4220696
2.1949284 0.66813165 0.45827362 0.6124359 2.050019 -0.6862708 -1.0276401 -0.13397183
-1.4455664 -0.83121896 -0.28682688 -1.3840849 -0.8503781 -0.5725052 0.69586825 -1.3895566
0.24852417 0.59173083 -0.949349 -0.5514536 0.33206454 0.2601437 0.12953974 -0.8277751
-0.2770773 0.30789533 -1.6632674 1.5315521 1.3054515 -2.105483 1.6738515 0.11064423
-1.9005859 -2.390772 -1.9986007 -0.30344364 0.30405754 1.1442683 0.0030233932 0.14718944
1.3963242 0.3384199 1.1000123 -0.049605954 0.56552255 -2.5210822 0.824229 -1.2498161
-0.05247235 1.0460985 1.0005354 2.0273132 0.4077274 0.25627226 -0.7669885 -0.3362603

1.layers.0.0.weight f4 [74, 74]
00000000: 2e8a 1b3e ae3c b53e 3114 f03c 03f3 d9bd
00000010: e4d8 433e 749d b93d dc30 40be 2f86 edbd
00000020: 1750 c6bc da53 903c 43db 9dbe ca90 b5be
00000030: 2ff4 e2be 88aa 83bb fbfb fabe 5089 163d
00000040: da88 abbd d618 52bd d023 1c3e 4cb4 33bb
00000050: 5b8a 943d dd0e 3dbc 4912 313e 68db ce3c
00000060: 6a0c bcbd 0a52 073e 7551 d6be 27ba 3cbe
00000070: 12cc 51bd 611f bcbd 0aba 8dbe 4f30 a9bd
00000080: 8a00 083e 2023 abbd b162 fb3d 6cec 53be
00000090: 3e1f 723c dfeb 32be adf3 1dbe 6e18 573e
000000a0: 1ba6 de3e 7376 a5bd 2157 6d3c 689d 33be
000000b0: b086 a63d fa61 0fbe c0da 1cbe f192 b63e
000000c0: 1bc4 9f3d febb f43c 7414 5cbe eee5 3ebe
000000d0: 0f5c bcbe 43f5 9cbc 8072 363e 3319 8abe
000000e0: 2fe8 a53d ab04 15bc 47a9 c5bd 4954 563d
000000f0: c073 e53d 3033 c83d c893 8dbd ea72 01be
00000100: c636 203d d478 02be 3fc8 b43e b384 13bd
00000110: afc6 cf3d 7365 dcbd 1ece f43d 1edc 213e
00000120: 850d 5c3e 9c32 c9bc 3b8f 11be 2cbd ad3d
00000130: 31bf fcbe 87af 80bd 6b4b c2be 19a7 bebd
00000140: 443b 01be 61d9 ad3e f745 d3bc 8c22 3e3d
00000150: 7991 c43c cdd5 1e3d 449b ccbe 8416 16be
00000160: 773f 3cbf 84de a13d 48ab a8be 4187 533e
00000170: c3f1 2fbd 1e0e a2be 64e5 04be 9a1a 993d
00000180: f987 b9bd 0fde 56be 339c 2e3e 805c b939
00000190: 04f1 1ebe 1184 68bd f711 9ebd 4e86 cbbe
000001a0: 7be7 5bbe f0c4 f33c 0ae3 053d 1bf4 bcbc
000001b0: cdcf 12be bfa7 1ebc d94e 6abd d628 82be
000001c0: 12cb 473e 6d30 b63d ec2a 783e 00c6 89be
000001d0: 9aab 7cbd 3192 ca3c ce03 c7bd 1d9a 8bbd
000001e0: db1e 3dbb e949 ecbd 83e2 b73e 7b2c 5e3d
000001f0: c185 2dbe 1cca 443c 93df 43be c61f 473e
00000200: 9250 59bd 7b52 18bb 01a6 333e 368f dcbd
00000210: 5dfd 88be 4686 1bbd ad74 983d c421 1c3e
00000220: 04bf bcbc 1812 593d 212f 7e3d baac 023e
00000230: 9535 4a3e 943b 64be 219a 753d 352d 31be
00000240: acbd 8c3e b842 8abd 463d aa3e 47fb a23e
00000250: b14b 8abd 3878 e13d bbfb 64bc 3606 ecbb
00000260: 9f13 253e 3e99 943e fd42 5dbc f1a7 54be
00000270: 7117 ddbd 20df 913d 7bfb 22bd 17b4 3fbe
00000280: 82e8 8cbd 305b 473d 8d4c 3a3d 8b56 133e
00000290: f46f 453e f84f 113e 91b0 433e b588 2b3d
000002a0: b24d d13d a0fb 8bbd 4eeb 1cbe 1ba0 64bd
000002b0: 4393 153e 805e e73d 1902 7f3e ce2c ee3c
000002c0: 8cb2 30be c55a cb3d 76f4 f1bc f28c 933e
000002d0: af56 bfbc 773c 793e b69f e53d c171 c6bd
000002e0: 0955 473e 57e3 75be 5c43 27be 19c6 6b3e
000002f0: 4bdc 8a3c 1134 b0bc fa96 a1bd d5ad 0bbe
00000300: 6b20 293e 15e4 9e3e b3fc 04be d8fc b1be
00000310: 7764 993e 9784 00be 893b 6b3e fc73 503e
00000320: b1c9 103e c9ff b4bc 3e89 8abe 93cb bdbd
00000330: 3db3 ab3c 03dc 70be 2c1d 483e faee 3f3e
00000340: b0dc d33c 5e4f 9b3e aa47 62be 9a07 633c
00000350: 3150 a9bd cc05 75be 5ea6 94bc a883 82bd
00000360: 67c3 b93d b7f2 843d a8b0 3f3d 9ba1 8cbc
00000370: 1b4e bd3d 997a 11be a4fb 1ebe 9626 cabd
00000380: 4c90 203e 8ac9 9d3c 8d5b 6ebe 8845 793e
00000390: e62d 60be eeb1 81bd 0ce7 e43d a5f0 4fbe
000003a0: 5852 a03e 822a 08bf 18a2 f33d f098 b53e
000003b0: 52a3 b4bd fe39 8fbd d682 d8bd e000 8c3d
000003c0: dab6 2c3e 3490 0d3f 145f 58bc b97a 3ebe
000003d0: 4e89 8fbe 62a4 a7be 0f0d 4cbe 31cd 423e
000003e0: 8191 273e 3a25 0cbe 4cbf 9dbe 017e ef3d
000003f0: f7d9 3d3d 9744 e7bd a5f6 8a3d e8c4 9b3d
0.1518943 0.35397857 0.029306503 -0.10642054 0.19125706 0.09063235 -0.18768638 -0.11597859
-0.024208112 0.017618109 -0.30831346 -0.35462028 -0.44326922 -0.0040181316 -0.4902037 0.036752045
-0.08375712 -0.051293217 0.15248036 -0.0027420698 0.07252952 -0.011539188 0.17292131 0.025251105
-0.09182055 0.13214889 -0.41859022 -0.18430386 -0.051220007 -0.091856726 -0.27681 -0.08261167
0.13281456 -0.08356309 0.12274683 -0.20695657 0.0147779565 -0.1747279 -0.15424986 0.21005413
0.43486103 -0.08079233 0.014486105 -0.17540514 0.08131158 -0.14002219 -0.15317822 0.35658982
0.07801076 0.029874798 -0.21492177 -0.18642399 -0.36788985 -0.019159919 0.17817116 -0.2697235
0.08100926 -0.009095351 -0.09651428 0.052326474 0.11203718 0.09775388 -0.06912953 -0.12641492
0.039114736 -0.12741405 0.35309026 -0.036015224 0.10145318 -0.107615374 0.11953376 0.15806624
0.21489532 -0.024560265 -0.14214794 0.08483347 -0.49364617 -0.06283479 -0.37948164 -0.09309215
-0.12620264 0.3395491 -0.025790198 0.046419665 0.023995148 0.038778115 -0.39962208 -0.14657027
-0.7353434 0.079037696 -0.32943177 0.20657064 -0.04295517 -0.31651396 -0.1297813 0.07475777
-0.09059138 -0.20983146 0.17051773 0.00035354868 -0.15521628 -0.056766573 -0.0771827 -0.39750904
-0.21475022 0.029756993 0.032687224 -0.023065617 -0.14337082 -0.0096835485 -0.0572041 -0.2542178
0.19511059 0.08895955 0.24235123 -0.26908875 -0.06168709 0.024727913 -0.097175226 -0.06816504
-0.0028857503 -0.11537535 0.35915002 0.05424164 -0.16945554 0.012011077 -0.19128256 0.19445714
-0.053055353 -0.0023242522 0.17543794 -0.10769503 -0.267558 -0.03796985 0.07444129 0.15247256
-0.023040302 0.05299577 0.062056664 0.12761202 0.19747002 -0.22288352 0.059961442 -0.17302401
0.27488458 -0.06751007 0.33249873 0.31832334 -0.06752718 0.11009258 -0.013976033 -0.007202889
0.16120766 0.29023165 -0.013504741 -0.2076719 -0.10795487 0.07122636 -0.03979061 -0.18721043
-0.06880285 0.048670948 0.04548316 0.14388482 0.19280988 0.14190662 0.19110323 0.04187842
0.10219897 -0.06835103 -0.15324137 -0.05581675 0.14606957 0.11297321 0.24903144 0.029074099
-0.1725561 0.09929422 -0.029535513 0.2881847 -0.023356764 0.24339472 0.11212103 -0.096896656
0.19466032 -0.24012505 -0.1633429 0.23024787 0.016950747 -0.021509202 -0.078901246 -0.1364053
0.16516273 0.31033388 -0.12987022 -0.34763217 0.2995946 -0.12550579 0.2297193 0.20356745
0.14139439 -0.022094624 -0.27057832 -0.09267344 0.02095949 -0.23521428 0.19542378 0.18743506
0.025862068 0.3033399 -0.2209765 0.013856793 -0.082672484 -0.23927993 -0.018145736 -0.06372768
0.09070473 0.06491607 0.046799332 -0.017166903 0.09243413 -0.14206924 -0.15525681 -0.09870641
0.15680045 0.01926114 -0.23277111 0.2434293 -0.21892509 -0.063327655 0.11176881 -0.20306642
0.31312823 -0.5318986 0.11896151 0.35468245 -0.088202134 -0.06993483 -0.1057183 0.068361044
0.16866627 0.5529816 -0.013206262 -0.18601502 -0.28034443 -0.32742602 -0.19926856 0.19023587
0.16364099 -0.13686076 -0.3081001 0.11693955 0.046350446 -0.11292379 0.06785325 0.07605916

1.layers.0.0.bias f4 [74]
00000000: 031a d7bc 9092 63bc 043e 5bbd a2b6 94bc
00000010: 19cd 8bbc f16c b8bd 61e5 8fbd 9f7e 62bd
00000020: 6dee febb 3e17 91bd d7be 7ebd 3e60 ae3b
00000030: 6ed5 74bd c28f 2a3b 9562 40bd 247f 82ba
00000040: 5267 c3bc 3a30 e3bc c7de 7dbd bf4a 8cbd
00000050: 8a31 a93c 1010 4cbd 3167 b5bc 1e0a 1cbd
00000060: 7791 e8bc 565c a2bd f5a7 a1bc 9b4c 6fbd
00000070: 5754 95bd 2cd9 afbc 2fdd b5bc 99b9 edbc
00000080: 214c 06bc 5718 0fbd 6496 f9bc 836f a33c
00000090: 8013 2bbd 5724 c6bc bd43 ffbc 1673 85bd
000000a0: dc03 00bd 618f 0fbd d46c ccbc 1b3e 57bd
000000b0: 868b dabc 95d7 dc3c d4a2 08bd c39b d2bd
000000c0: 37ab d7bd f586 8cbc 6247 acbb e6e2 c73b
000000d0: ff1e 1fbd 57f8 afbc a04c 0cbc 6f8c 4fbd
000000e0: af1a 81bc 2001 75bd b40c 8fbd e366 33bd
000000f0: 634d 2fbb 1eba 1bbd 22ea 9dbd 902d fb3b
00000100: 18fb 15bd f800 243c c812 acbd 2366 20bd
00000110: 1ca5 6bbd 334d 2abd bb34 ecbc f8a6 ecbc
00000120: 7e10 05bc 6e26 92bd
-0.02625752 -0.013889924 -0.05352594 -0.018153492 -0.017065572 -0.09005154 -0.070261724 -0.055296537
-0.0077798874 -0.07084511 -0.062193718 0.0053215316 -0.059773855 0.0026025628 -0.046969015 -0.0009956104
-0.023852978 -0.027732957 -0.061980035 -0.06850194 0.020653505 -0.049820006 -0.022143932 -0.038095586
-0.028389676 -0.07927768 -0.019733408 -0.058422666 -0.07291477 -0.02146586 -0.022200195 -0.029019164
-0.0081968615 -0.03493532 -0.03046722 0.019950634 -0.041766644 -0.02418725 -0.03116023 -0.065160915
-0.03125368 -0.035048846 -0.024954237 -0.052549463 -0.026677858 0.026958266 -0.03335841 -0.102836154
-0.105307035 -0.017154196 -0.005257533 0.0061000464 -0.03884792 -0.021480722 -0.008563191 -0.050671037
-0.015759794 -0.059815526 -0.06984845 -0.043799292 -0.0026749007 -0.038019292 -0.07710673 0.0076653436
-0.036616415 0.010009997 -0.0840202 -0.039159905 -0.057530507 -0.04157753 -0.028833738 -0.02888821
-0.008121608 -0.07136236

1.layers.1.0.weight f4 [74, 148]
00000000: 8472 4cbe 4390 803d 79de eb3d c969 cdbc
00000010: f544 ea3d 0109 313e 0c1e a53d 83d3 8a3d
00000020: 7e89 993d d6c7 693d 853c 873d f48c 953e
00000030: f11b 74bd 4e67 27bd 10fa f93c d2ff 123e
00000040: 2520 083d fa8a 6e3d c94f 523d 0281 15be
00000050: 9e37 aa3d 23b3 9e3d 9e61 283e f16b 0d3e
00000060: a1d0 2ebd 1637 a4be 7f6f 36bd 4187 293e
00000070: d181 ebbc cfa9 c5ba ecc1 8c3d ed0a 5a3d
00000080: 8552 7bbc 8090 dfbc 411d febd 4bbe 013e
00000090: 9545 02bd 81f0 27be f5ef 093e 56c9 9f3b
000000a0: 05e9 7b3d cb0a 05be e073 bb3c 9f57 b1bd
000000b0: 0d23 33bd 7ed4 f03c 8d03 44be ffd8 50bd
000000c0: bedb 56bd a255 cb3d 7155 61be ff79 cebd
000000d0: f94a 35be 35ab e23d 8f51 a73c 6f14 8bbd
000000e0: 4c83 0abd 0852 32be 082a 01bd 03b3 00be
000000f0: f890 573d 0a6f f53c eb8c 4ebd 7fe1 283e
00000100: e647 eb3c 8c13 82be ab72 c83d acf4 0bbd
00000110: 99bb a23e 6eca bb3d ecc2 9abd b6c6 7e3d
00000120: f34a 053e 3f9b 48bc a3cb 70bd 46a2 873d
00000130: d127 4f3a 83b4 2abe e992 65bd c38b 30be
00000140: 3fc6 87bd fbbc d7bd d9e8 d0bd f4f4 c53c
00000150: 36e4 5d3c 3e8a b5bd e8e1 2cbe a90d dfbb
00000160: d08e 56be 4585 2dbd cd8b 75be f364 5f3a
00000170: 6c1c 4a3c 7997 f9bc 9721 8b3d 5c78 093e
00000180: 5d0c 68be 641b 73be 87b2 6ebc 179d 9c3d
00000190: b57b 3a3d 2b33 433c c8a7 b9bc a33b e63c
000001a0: b8a4 60be 51d7 bb3d c895 403c 6720 8b3d
000001b0: df35 e6ba 71bc b83d 1fb2 2cbe fd3c 2fbe
000001c0: 386b e1bd 2654 06be 9636 07be 4932 1bbe
000001d0: 34e2 76bc 739b 7fbc cff3 73be 1dbe 00be
000001e0: 1623 55bd 0e15 0a3e 0f0b e33d 675c 063d
000001f0: f8d4 82bc d683 44be 9b01 cc3d 4e41 8d3d
00000200: a223 dbbc 4bac 063d 429f 303e ca64 38bc
00000210: 54d0 4e3e f86d b5bd 60d0 9d3d 8689 bb3d
00000220: 6460 083d d534 973c 94ee 563e 32a7 0b3d
00000230: f959 05be 3dcc 61be f08b d83d fd57 c0bc
00000240: 140a 1b3e 0ad9 babc 452f 90bd 74ec c33c
00000250: 2a24 2b3d 1380 18be 4e6d da3d e88c d1bd
00000260: 3b32 68bc 6159 3f3b 92fd 57bd db94 ee3d
00000270: 7b23 c5be 7a27 793d 55f7 783d f67e e13b
00000280: 207b ee3c 174a 09be f46c 09bd 307d 483e
00000290: bb49 2c3e 61e6 fc3d 838c 88be 8abd 8d3c
000002a0: 4af1 833d 64bc 4a3e 40fb 183e 285d b43c
000002b0: 1b03 bcbe 5621 5c3d f862 533d 7f80 a6be
000002c0: 2085 123e de0f 003d 16fd 6f3d f6d5 c7bd
000002d0: f858 b23b 4ac4 3bbd 329f 91bd 750a 3fbe
000002e0: ccc7 13be 2b0e 913e 678c 873e 04b0 463e
000002f0: 310a 0bbe 5ed9 ee3b 387d e0bd fe45 653e
00000300: eb80 a03d 802e 19be f86e fdbd a67b e53d
00000310: 60e7 5dbd 5988 01be 82b0 db3b 2369 83bb
00000320: 2901 4ebe 1da5 793c 9671 7abc c8d8 87bd
00000330: f9ea 09be 55d6 b83d b25b 58be ed0a 8cbc
00000340: d08e 54be 8191 6d3e b9a6 1a3d 9180 7dbd
00000350: fa85 3abd 9a95 18be 8f40 20be 436e 73be
00000360: 1884 e33d 6acb 3abe bf84 8fbd 9086 953d
00000370: 1c08 a13d 824a b6bd 5de3 9dbe 88c4 e93e
00000380: d4a3 9e3e 23bd 15bf 3367 593e 469f 36be
00000390: 7b8d a83d ff04 9abe 23c3 41be 99ca 47be
000003a0: edfa cc3e f58b 95bc 4df2 86be 71da bcbe
000003b0: 906d 773c 0e69 b83e e6a0 f43c 6935 263d
000003c0: 0b45 28be 73db 77be 9aeb 79be a012 223e
000003d0: 7c58 893e 5b66 fd3c cd44 f53d ddb2 68be
000003e0: 4a7f 85be 0114 273e e585 3ebe 9f4e d4bd
000003f0: a24d 323e 4e92 0dbe 6242 6a3c 89d1 2bbe
-0.19965559 0.06277516 0.11517043 -0.025074856 0.11438934 0.17288591 0.080623716 0.06778624
0.07496928 0.057075344 0.0660334 0.292091 -0.05959696 -0.040870003 0.030514747 0.143554
0.03323378 0.058238007 0.05134562 -0.14599994 0.083113894 0.07749011 0.16443488 0.13810708
-0.042679433 -0.32073277 -0.044539925 0.16555502 -0.028748425 -0.0015080514 0.06872925 0.053233076
-0.015339498 -0.027290583 -0.124079235 0.12670247 -0.03180464 -0.16400339 0.13470443 0.004876296
0.06150152 -0.12992398 0.022882402 -0.086592905 -0.0437346 0.0293982 -0.1914198 -0.050988194
-0.052455656 0.099284425 -0.2200525 -0.10081863 -0.17704381 0.110678114 0.020424632 -0.06791007
-0.03381662 -0.17414105 -0.031534225 -0.12568288 0.052628487 0.029960174 -0.05042736 0.1649227
0.028720807 -0.25405538 0.09787496 -0.034168884 0.3178375 0.0916947 -0.0755671 0.062201224
0.13016872 -0.012244045 -0.058787953 0.06622748 0.00079023564 -0.16670422 -0.056048308 -0.17240815
-0.06629609 -0.10534092 -0.10200662 0.024164654 0.013543179 -0.08864258 -0.16883051 -0.0068070483
-0.20952916 -0.042363424 -0.23979111 0.00085218175 0.012335878 -0.030467736 0.06793516 0.1342482
-0.22660966 -0.23740917 -0.014568931 0.0764715 0.045528132 0.011914055 -0.022663012 0.028104609
-0.21937835 0.09171928 0.011754461 0.0679329 -0.0017563662 0.09020317 -0.16864823 -0.17113109
-0.110067785 -0.13118038 -0.13204417 -0.15155901 -0.015068579 -0.015601027 -0.23823474 -0.12572522
-0.052035414 0.13484594 0.11086094 0.032802965 -0.015970692 -0.19190916 0.09961244 0.068972215
-0.02675039 0.032879155 0.17248252 -0.011254499 0.20196658 -0.088588655 0.0770576 0.0915709
0.03329505 0.01845781 0.20989448 0.034094997 -0.13022603 -0.22050567 0.10573566 -0.023479456
0.15140563 -0.02280857 -0.07040266 0.02391646 0.041782536 -0.14892606 0.106653795 -0.10231954
-0.014172132 0.002919756 -0.052732058 0.11649486 -0.38503632 0.060828663 0.06078275 0.00688159
0.029111445 -0.1340717 -0.03355117 0.19579005 0.16825001 0.12348629 -0.26669702 0.017302293
0.064425066 0.19798428 0.14939594 0.022017077 -0.3672112 0.05374273 0.051608056 -0.3251991
0.14308596 0.031265132 0.05859097 -0.09757607 0.005442735 -0.045841493 -0.07110442 -0.18656333
-0.14431685 0.28331122 0.26474306 0.19403082 -0.13578106 0.007289096 -0.109613836 0.22389981
0.07837089 -0.14959145 -0.12374681 0.11205225 -0.054175735 -0.12649669 0.006704391 -0.004010336
-0.2011763 0.01523712 -0.01528587 -0.066331446 -0.13468541 0.090252556 -0.21128729 -0.017095054
-0.20757604 0.23200037 0.037756655 -0.06189019 -0.045537926 -0.14900818 -0.15649627 -0.2377253
0.11109179 -0.18241659 -0.07007741 0.073010564 0.07862875 -0.0890093 -0.30837527 0.45657754
0.30984366 -0.58491725 0.21230774 -0.17834195 0.0823011 -0.30081937 -0.18922095 -0.19510879
0.4003519 -0.018255213 -0.26356736 -0.36885408 0.015101805 0.3601765 0.029861879 0.04057828
-0.16432588 -0.24204807 -0.24406281 0.15827417 0.2682532 0.030932596 0.11976013 -0.22724481
-0.26073676 0.16316225 -0.18605764 -0.10366558 0.17412427 -0.13825342 0.014298053 -0.1677915

1.layers.1.0.bias f4 [74]
00000000: 1368 09bd 8085 abbc e9a4 e73b 5ef9 d1bc
00000010: c30b 28bd f6a6 063c 571b 86bd be02 5abd
00000020: 5348 5abc 5ae4 75bd 6783 84bc d99e 5cbd
00000030: 9fda d5bc 9142 51bc 4ce1 30bd cee4 8ebc
00000040: 9f8d 22bc d7e1 52bd e8b9 883b 3715 0abc
00000050: dd5b f5bc 0a38 9ebc 4b30 f83a a552 4abd
00000060: c43e aa3c 17c0 babd 8224 3ebd c2cc 9dbd
00000070: 6cac 4cbd c662 95bd 35d4 a0bd 24de 61bd
00000080: f52c 4a3c 974e 42bd 403f 69bc ffd2 65bd
00000090: 2001 5ebd c197 15bd 9c25 9cbd a113 f1bb
000000a0: d5f5 fb3a 3675 18bd 1c31 82bd 0300 28bd
000000b0: 66c2 17bc 2a9b 34bd ca7f f3bc a2fb 37bd
000000c0: 6ba0 78bd bcc2 cbbd 3e7c 4c3b cc48 5fbd
000000d0: bd39 50bd f822 86bc d10c 25bd 4b37 d2bb
000000e0: 33d8 ccbc a00b 86bc c81d 68bc e65d 073c
000000f0: 77b8 e83b 5d15 fcbc f183 dabc 26bf 94bd
00000100: b503 06bd edf5 14bd 6ac2 4c3c 2ba5 7bbc
00000110: 5c4d e4bc eacd 2abd df0d 86bd a0e5 f0bb
00000120: e956 4dbc 0426 31bd
-0.03354652 -0.020937681 0.0070692194 -0.025631603 -0.04102684 0.0082185175 -0.065481834 -0.05322527
-0.0133229075 -0.060032226 -0.016175939 -0.053862426 -0.026105223 -0.012772218 -0.04318361 -0.017443087
-0.00992146 -0.05148491 0.0041725524 -0.00842791 -0.02995103 -0.01931383 0.0018935291 -0.049395222
0.020781882 -0.091186695 -0.046421535 -0.0770507 -0.04996912 -0.0729423 -0.07852975 -0.05514349
0.01233982 -0.04743823 -0.014236271 -0.056109425 -0.05420029 -0.036521677 -0.07624361 -0.0073570763
0.0019223044 -0.037221156 -0.06357023 -0.041015636 -0.009262657 -0.04409329 -0.02972402 -0.04491771
-0.06069986 -0.09949252 0.0031201984 -0.054512784 -0.050836314 -0.016374096 -0.040295426 -0.006415283
-0.025005436 -0.016362965 -0.014167257 0.008262133 0.007102068 -0.030771906 -0.026674243 -0.07263021
-0.03271838 -0.036367346 0.012497524 -0.015359203 -0.02786892 -0.04170028 -0.065456145 -0.007351592
-0.012532928 -0.043249145

1.layers.2.0.weight f4 [74, 222]
00000000: 4661 eabd 8352 4ebc 6dae 04be b9c5 1bbe
00000010: ac65 883d c10f 893c ff92 5b3c 0a1d d5bd
00000020: 86a1 1cbc 990a a6bd bca1 a53c 5d85 6fbe
00000030: 5a03 773d e505 12bd 114a 4fbc a2bb 10be
00000040: e4a7 ed3c a4f6 37bc cc50 c9bd f045 8a3c
00000050: c5a0 9d3d 3ccf 37bd 25ff 3b3e 391c 93bd
00000060: c0c9 4fbe 4df2 363d a5d6 1bbb ba3e 10be
00000070: a4f6 8e3d d39f 05be ac40 c5bd 1075 9dbd
00000080: f21e 253d d4f1 3dbd edf9 53be 0125 893e
00000090: dff0 713d 3200 82bd aef0 043c d4e9 933c
000000a0: 1647 283e 38d6 23be 2837 96bd 03da e6bc
000000b0: eb7c 263e 9abb cabd 0677 1e3d e209 8cbc
000000c0: bf97 32be 3361 393e 3b3a afbd 9416 9bbd
000000d0: 60f2 91bd 87f8 f7bc e358 b3bd acad 1bbd
000000e0: b1a0 323e 65b7 503d 250a ffbd 49f1 06be
000000f0: 59e2 0d3e dd05 703d d837 1fbe 92b4 cc3c
00000100: cbd3 dd3c 16da 05bc 36b3 9bbd 35e4 c3bd
00000110: 6d38 123d af99 f83c fd4e dbbd 061c 323d
00000120: 2313 173c 0ca5 233c 30ef dc3d eb37 5fbe
00000130: fe19 c03d df80 813d e973 1cbd 48e9 1bbd
00000140: 81b6 623c 370b 80bd 1a43 64bd 3a41 dd3d
00000150: a128 b7bc 4b99 5ebd 75f8 a8bd fc0e 2e3e
00000160: 9f1b f73c 6dc4 90bd c5c8 0c3e 63d4 243d
00000170: 660f a5bb d042 303e abe9 00bc 0c15 c23c
00000180: f97a 92bc 672c 7abe 515f 44bd 7789 b63d
00000190: 2893 773b 8237 8b3d e4f9 103e acf7 cc3c
000001a0: 72ad 7b3d 101f 25be f579 1bbb 8bc9 f43d
000001b0: 212e 39bd 3955 713e ef99 4f3d 0f51 223d
000001c0: e02b 123d 9d51 6e3d 921e 6b3e 4438 79bc
000001d0: 449b f8bc a845 b3bd d99b 29be 4aaa 7ebd
000001e0: 11fc c9bd 67e9 e6bc f39b 51bd 8413 493d
000001f0: 2ef6 b2bd 5ff5 453e 92ee 213e e55b 063e
00000200: ff2a 3bbe e57f 9bba 4a02 de3d 75de 263d
00000210: abf0 2cbc 814b b1bc db65 43bd 444e c03c
00000220: d08a 14be 8ee7 10bc 874b 1abd 0ff5 10bd
00000230: 2b72 fb3c 4ab9 343c dab9 69bd 4aaf 46bd
00000240: d9c4 18be fc12 fdbc 5def e33d e75a 2d3d
00000250: 59dc ad3c 4c85 f13d c24f fc3d 01df 5dbc
00000260: 9cdf fcbd ade5 9d3d 517c 08be 183d 53be
00000270: 657b b23d 02a0 ab3d 5f6a 203d 5e74 dd3e
00000280: 34b6 1b3e 6433 733d b1a5 043d 33fd d6bd
00000290: 77b7 56be 71d9 153e c25e 833d 87d9 d93d
000002a0: dc97 a13d 7a73 fdbd 0f8c 3f3e 9a1f 6f3e
000002b0: 3672 f73d c960 a8bd 5de9 11bd f0fa 1ebe
000002c0: a2c0 13be adb7 a53c 8181 c1bc 6904 763d
000002d0: 0ad9 43bd a906 033e e1e8 c23d 40ec 2cbe
000002e0: 8958 01be 8f1c 98bd 8dbd b23d 31c3 8d3d
000002f0: 8a4f 243e e152 dfbc aadc c3bd 14da b9bb
00000300: b72d 023e 9ad2 f1bc 62b7 8c3d 5278 e8bc
00000310: de0b 583d 0bea ac3d 459c 8b3e b03f 05be
00000320: cb9f 4a3e f1bf b5bb f6a4 82be 9e24 6dbd
00000330: e199 2c3e 3ce3 873d e4e9 bebd 6e46 b5bd
00000340: 8145 db3d 3649 b83d 3464 0e3b bad0 663d
00000350: fd96 b5bd b647 ba3d 13a0 04be 3648 19be
00000360: 5bc5 823c 46bc 65be ba35 95bb 6390 583d
00000370: 8fa8 eb3d 2ca1 8abb 82f4 83bd 07c3 813d
00000380: 0a69 39bd 7660 b43c cfe5 913c 9df7 99bd
00000390: f536 9b3d 3ee0 a2bc 7126 233c 19be 6c3e
000003a0: b822 bebd c565 cbbd 7df7 8a3e ce63 6ebc
000003b0: e1cc 983c c8ac d03d d1f4 b13c d583 453d
000003c0: e2e9 a23c e35a aebd 8b6f 993d 3e3d 1ebe
000003d0: 7fec c63c d64d bcbd 0402 abbc 2767 d13c
000003e0: 52dc 10bd 2591 5bbd 54ca 213e 3b47 843d
000003f0: 06d8 09bd d0ca 053e 47b2 4d3e 3801 d5bd
-0.11444335 -0.0125929145 -0.12957163 -0.15212144 0.06660017 0.016731145 0.013401746 -0.104059294
-0.009559995 -0.0810749 0.020218723 -0.23390718 0.06030593 -0.035650153 -0.012651936 -0.14134076
0.02901072 -0.011228237 -0.09829864 0.016879052 0.0769668 -0.04487537 0.18359049 -0.071831174
-0.20291805 0.04466467 -0.002377906 -0.14086428 0.06980637 -0.1304925 -0.09631476 -0.076883435
0.040312715 -0.046373203 -0.20700808 0.26786044 0.059067603 -0.063476935 0.008114023 0.018055834
0.16433367 -0.15999687 -0.07334739 -0.028180128 0.1625859 -0.098990634 0.03868773 -0.017094556
-0.17440699 0.18103485 -0.085560285 -0.07572666 -0.071263075 -0.030269874 -0.08757188 -0.038007423
0.17444111 0.05095615 -0.12453107 -0.1317798 0.13855876 0.05859934 -0.15548646 0.024988446
0.02707853 -0.0081696715 -0.07602541 -0.095650114 0.035698343 0.03034672 -0.10708425 0.043483756
0.009220871 0.009988081 0.10787809 -0.21798675 0.093799576 0.06323408 -0.038196478 -0.03806427
0.013837458 -0.06252139 -0.055728056 0.108034566 -0.02235824 -0.05434541 -0.082505144 0.16997904
0.030164538 -0.07068715 0.13748462 0.04024161 -0.005037236 0.17212987 -0.007868211 0.023691677
-0.017880904 -0.24431 -0.047942463 0.08912938 0.003777692 0.06797697 0.14157826 0.025020443
0.061444707 -0.1612513 -0.0023723815 0.11952504 -0.045210008 0.23567666 0.050683912 0.039628085
0.035686374 0.0581833 0.2296088 -0.015211169 -0.030347474 -0.0875352 -0.16563357 -0.06217412
-0.09862531 -0.028187467 -0.051174115 0.049090877 -0.08738361 0.19331883 0.15813664 0.13120992
-0.1827812 -0.0011863677 0.1084028 0.040739495 -0.010555427 -0.021642448 -0.04770456 0.02347482
-0.14506078 -0.008844269 -0.037669685 -0.035389956 0.030694088 0.0110305045 -0.057062007 -0.048507012
-0.14918841 -0.030892842 0.11129639 0.04232302 0.021223234 0.117930025 0.123199 -0.013541938
-0.123473376 0.07709823 -0.13328673 -0.20628774 0.08714942 0.083801284 0.039163943 0.43252844
0.15206224 0.05937518 0.03238458 -0.10497513 -0.20968424 0.14633729 0.06414558 0.10637193
0.07890293 -0.12375541 0.18705772 0.23351899 0.12082331 -0.08221585 -0.035622943 -0.15525413
-0.14428952 0.020229185 -0.023621323 0.0600628 -0.047814406 0.1279551 0.095170744 -0.16886997
-0.1263143 -0.07427322 0.0872756 0.069219954 0.16045967 -0.0272612 -0.09563573 -0.005671749
0.12712751 -0.029519368 0.06870915 -0.028377686 0.052745692 0.08443078 0.27267662 -0.13012576
0.19787519 -0.005546563 -0.2551648 -0.05789625 0.16855575 0.066351384 -0.09321955 -0.08851324
0.10706616 0.08998339 0.0021727206 0.0563514 -0.08866689 0.09095709 -0.12951688 -0.14968953
0.015963247 -0.22435102 -0.004553524 0.052872073 0.115067594 -0.004230639 -0.064431205 0.06336027
-0.04526619 0.022018652 0.017809777 -0.075179316 0.075788416 -0.019882318 0.009957896 0.23119392
-0.09283966 -0.099315204 0.27141944 -0.0145501625 0.018652381 0.101892054 0.021723183 0.048221428
0.019886915 -0.08513429 0.07491978 -0.1545305 0.024282692 -0.091945335 -0.020874985 0.025561882
-0.035366364 -0.053605217 0.15799838 0.06458899 -0.03365328 0.13065648 0.20087539 -0.10400623

1.layers.2.0.bias f4 [74]
00000000: 4296 71bd 2dd1 5dbd fdf4 f9bc 497d 45bd
00000010: c100 75bd aa2d 02bd 2429 3fbd 6960 063c
00000020: cdcb 8bbc 556e 3ebd 741f c7bc cede 56bd
00000030: aa70 9cbc 4697 58bd 8057 57bd 7ea8 a8bc
00000040: 413c c93c fb75 17bd 0f2a c83b 1f92 1bbd
00000050: d985 04bd e84c 05bc 61dc c0bc 80f0 7bbc
00000060: 7f37 b1bc 1f38 52bd 8ccf 683c 044c 0fbd
00000070: 8fad d7bc 9064 dfbc d5fd bfbc 0cf3 1bbc
00000080: 9aa3 91bc 1705 15bd 4d67 1cbd 234b ebbc
00000090: 6953 c83a c744 91bb 8d3e adbc 1516 63bc
000000a0: 2ba8 633b 8bcf 253c d209 2ebc 38fe dcbc
000000b0: 1d57 81bb bb5c 3bbd 84ce e4bc 2e83 23bd
000000c0: 7ed9 14bd ed70 0ebd da74 93bc 086e 85bc
000000d0: c7fb fdba 20b5 c2bc 5445 f5bc 747a 32bd
000000e0: 80c2 27bc a51e 03bb 8d24 83bd e7bb 2ebd
000000f0: 2774 95bc b2e8 12bc b7ba cdbc ba9b 53bd
00000100: 4889 35bd fb5f 73bd d768 afbc a8a0 36bd
00000110: 4617 91bc 1a6c 07bd ec7a 46bc ab8a 233b
00000120: 1a12 c7bc f1c4 b8bc
-0.058981188 -0.054154564 -0.030512327 -0.048215184 -0.059815172 -0.03178183 -0.046670094 0.008201697
-0.017064953 -0.04649194 -0.02430699 -0.052458577 -0.019096691 -0.05287864 -0.05257368 -0.020588156
0.024564864 -0.03697775 0.0061085294 -0.03798115 -0.03235421 -0.008136012 -0.023542585 -0.015377164
-0.021632908 -0.051323052 0.014209639 -0.034984604 -0.026327876 -0.027269632 -0.023436466 -0.009518396
-0.017778207 -0.036381807 -0.038184453 -0.028722351 0.0015283647 -0.0044332477 -0.02114799 -0.013860245
0.0034737687 0.010120283 -0.0106224585 -0.02697669 -0.0039471523 -0.04574273 -0.027930506 -0.039920025
-0.03634023 -0.034775663 -0.018000055 -0.016287819 -0.0019377404 -0.023768008 -0.029940285 -0.04357381
-0.0102392435 -0.002000728 -0.06403456 -0.042659666 -0.018243862 -0.008966612 -0.025113447 -0.051662184
-0.044320375 -0.059417706 -0.021412296 -0.044586807 -0.017711293 -0.033062078 -0.012114268 0.0024954479
-0.024300624 -0.022554846

1.layers.3.0.weight f4 [74, 296]
00000000: 023e 903d e0eb ecbd c14e 17bd a427 933d
00000010: 0054 2fbd fc77 2bbd e154 f5bc 2e7f e83d
00000020: 28fa 8ebd 959a db3c a1e5 653e 4c09 9f3d
00000030: 918f 70bc 271b 1b3c 9774 96bd 85d9 ddbd
00000040: 667a d43d 60d4 31bd 789a 0dbd 3dc7 de3d
00000050: 646b a7bd b52c 0b3d 910a 0b3d c0a2 dbbd
00000060: fc73 963d 4d38 f9bd e54a a4bd 0dd6 89bc
00000070: e1e9 a4bd 4cca f33c a95a 303e 16b9 08bd
00000080: 08ec c13c 7e94 a03c 4125 5fbe f545 9aba
00000090: f863 fdbd 9222 083e 6295 be3d 5ea2 3dbd
000000a0: b258 b3bd 4e54 00bd 47cc 0abd 4365 d73c
000000b0: e2d7 d0bd 070a 31bd 0533 c33d bfa4 86bd
000000c0: e572 10be 6551 4d3c dcc3 753d dd70 8a3d
000000d0: 20d9 a9bd 1d6e e0bd 5877 713d 5f67 a6bc
000000e0: 8e45 68bd c43a 203e 9461 84bc ae52 d53c
000000f0: 5098 bcbd c92e 80bb 0648 1c3d df04 e83b
00000100: 5e63 6a3d cbea 983d 85b3 913d ba56 823c
00000110: 4c69 323d 1689 503c 1fc6 d03b 1632 bfbd
00000120: 6b4d 30be e921 20be a8f6 063e 359a 1dbd
00000130: 71c6 dd3c 0ad6 78be b691 313d d6ea b23c
00000140: e0c0 03be bb51 833d eb31 d43a 4190 ff3d
00000150: a563 0e3e 5b77 e6bd 2374 ca3d b564 11be
00000160: 6f32 97bd 7890 0dbe 9103 2e3d 0050 95bc
00000170: 0658 3a3c ebff 973d 057d 82bc 40ac 503d
00000180: a183 bb3d 0448 0e3c 6928 b43d 9835 bb3c
00000190: 12ba 12bd a867 5bbd 75d6 c03d bfc7 f2bd
000001a0: 32a1 e9bd 538c d33d 9979 993d 46e9 f5bd
000001b0: 1dad 6dbd 2888 b43d 88b1 ddbd 1b70 d4bd
000001c0: af9b 2bbd cf57 073e 64f1 8a3d f680 50bd
000001d0: c00e 333c 404d f33b ff4a 623d cb90 90bd
000001e0: 7d1f 06bc 11e4 d2bc 6f7d aabd 26b8 53bd
000001f0: 115a 91bd 1290 4c3c 3a3d df3c e6e4 04bc
00000200: 8183 f3bd 35fb 78bd aa43 b1bd e36a b53c
00000210: 5de6 2c3e 8097 74bc 26c7 033d eb86 c7bd
00000220: 3490 3abd 437a 123d 3c4e 9b3d 2464 c23c
00000230: c077 d23a d119 22bd ebd6 2d3d 7021 5d3d
00000240: 80b9 be3d 6382 033e ece7 debd 8ec0 b93c
00000250: 062d fb3c f1a1 55bd d36b 653d 6261 4f3d
00000260: 2a9d d2bd a84d 5dbd 29bd 6f3d 4fb2 5cbd
00000270: efea 333e 8548 543d a853 08bd ee8c 88bd
00000280: 2641 363d 4956 abbd d5cc adbd d295 5fbd
00000290: 18ca 953d 35df ebbd 5dca f5bd ebdf d0bb
000002a0: ae27 e2bd f52d c6bd 278f 0fbd 35ca 093d
000002b0: ec1c 943d ccb2 dbbd a6e8 34bd 6fe4 07be
000002c0: 8928 bb3d 40e2 98bd 867e ce3c 8a88 353e
000002d0: b8ca cdbd e9b8 833b 9b21 923c 014d 11be
000002e0: eae3 273d 8e47 043b 293f eabc 9ec3 983b
000002f0: b61c e2bd 87a3 433e 3764 1b3d d61a 143d
00000300: bc53 c5bd b24c 67ba 10d5 23be 6148 f2bd
00000310: cbce 31bd 5d9d c5bd f302 b23d 1ecd cabd
00000320: 4043 383d 69ec d53b 19c2 36bd 33a5 e23d
00000330: 4709 02bd 10fd 77be b3a5 ecbd c51b 83bd
00000340: 654a 76bd 19b7 393d dc69 de3d 3011 823d
00000350: 164c 0abe 69ad af3d ed1a c1bd b640 82bd
00000360: f696 9dbd 1bd4 8fbd a2e3 3bbe cb83 a6bd
00000370: 279f da3d b064 6b3d 4941 a3bd 1c48 793d
00000380: f609 793d 7695 c8bd 21f6 d13c c52e bfbd
00000390: 4d1e 4f3d fcc7 8ebd debe 6d3d f853 eb3d
000003a0: 22b5 06bc 898f ed3d 46fb 3ebe 3d01 393d
000003b0: c02a e13d 0893 c13d e432 56bc b02b ea3d
000003c0: b75e 523d f2ad 74be 061b dd3d bd04 0ebe
000003d0: f995 8d3d e28d b6bb 81c6 26bd efbe 093d
000003e0: cbb2 05be e797 b33d e260 58bd f96e bc3b
000003f0: 2d08 b73d e0e3 533d 1973 e5bd 15ab 39be
0.07043077 -0.11568427 -0.03694034 0.07185295 -0.042804718 -0.041862473 -0.0299477 0.113523826
-0.06981307 0.026807109 0.22450878 0.07765445 -0.014682666 0.009466923 -0.073464565 -0.10832504
0.10374908 -0.043415427 -0.03457114 0.108778454 -0.0817478 0.033978183 0.033945624 -0.107244015
0.07346341 -0.12168942 -0.080220975 -0.0168257 -0.08052421 0.029759549 0.17222084 -0.033379637
0.023672119 0.019602057 -0.21791555 -0.0011770116 -0.12372583 0.13294438 0.09305836 -0.046297424
-0.08757152 -0.0313304 -0.03388622 0.026293403 -0.101974264 -0.043222453 0.095312156 -0.065743916
-0.14106329 0.012531613 0.06000124 0.06759808 -0.082933664 -0.109585024 0.058951706 -0.020312963
-0.056706958 0.15647417 -0.01615981 0.026040401 -0.09208739 -0.003911827 0.038154624 0.007080659
0.05722367 0.07466658 0.07114319 0.015910495 0.04355745 0.012727996 0.006371274 -0.09335725
-0.17217033 -0.15637936 0.1318003 -0.03847714 0.027072163 -0.243004 0.04335185 0.021840494
-0.12866545 0.06412073 0.0016189193 0.12478686 0.13905199 -0.11253234 0.098854326 -0.14198573
-0.07382666 -0.13824642 0.04248387 -0.018226624 0.0113735255 0.07421859 -0.015928755 0.05094552
0.091559656 0.008684162 0.0879677 0.022852704 -0.03582198 -0.05356565 0.094159044 -0.11854505
-0.11407699 0.10329499 0.07493896 -0.12007384 -0.05802642 0.08815032 -0.10824877 -0.10372945
-0.04189652 0.1321709 0.06784323 -0.050904237 0.01092881 0.0074249804 0.055247303 -0.07058867
-0.008186218 -0.025743516 -0.08324706 -0.05168929 -0.07097257 0.012485521 0.027250875 -0.008111214
-0.11890317 -0.060786445 -0.08655484 0.022145694 0.16884752 -0.014928699 0.032172345 -0.097425304
-0.04554768 0.03576113 0.075832814 0.023729391 0.0016057417 -0.0395754 0.04244129 0.053986967
0.09312725 0.12842707 -0.10884079 0.022674825 0.030661117 -0.052156392 0.056011032 0.05062998
-0.10283883 -0.054029137 0.058530007 -0.053880986 0.17570089 0.051826973 -0.033282906 -0.06667505
0.044495724 -0.08366067 -0.08486334 -0.05458624 0.07313937 -0.11517183 -0.12001488 -0.0063743494
-0.110427245 -0.09676734 -0.03504863 0.033640105 0.07232079 -0.10727462 -0.044167183 -0.13270734
0.09138591 -0.07465029 0.025206815 0.17727867 -0.10048431 0.0040198457 0.01783829 -0.14189531
0.04098884 0.0020184251 -0.02859457 0.0046619913 -0.110406324 0.1910535 0.03793737 0.036158405
-0.09635112 -0.0008823379 -0.15999246 -0.118302114 -0.043410104 -0.09649155 0.08691969 -0.09902404
0.04498601 0.0065284264 -0.0446187 0.110666655 -0.03174713 -0.2421763 -0.11555042 -0.06401781
-0.060129542 0.04534063 0.10860035 0.063509345 -0.13505587 0.08577997 -0.09428964 -0.06359999
-0.07694809 -0.07022878 -0.18348554 -0.08130606 0.10674887 0.05746907 -0.079714365 0.060859784
0.060800515 -0.097941324 0.025630059 -0.093350925 0.050566006 -0.06971738 0.058043353 0.11490625
-0.008221896 0.11599643 -0.1865054 0.045167197 0.10994482 0.09451872 -0.013073657 0.11434114
0.05135986 -0.2389448 0.1079617 -0.13868995 0.06913371 -0.005571113 -0.04071665 0.033629354
-0.13056485 0.087692074 -0.05282677 0.0057505337 0.08937106 0.05173099 -0.11203594 -0.18131669

1.layers.3.0.bias f4 [74]
00000000: 57cd 5abc a1c0 47bd af2f a9bc e7bb 65bd
00000010: 4971 eebc b600 0dbd 7be0 80bc 1f6b dfbc
00000020: 97c9 06bc 0ea8 8abc 75eb 0abd 4605 4abc
00000030: 2aa0 ffbb 15ad f8bc 2299 ebbc b568 f7bc
00000040: e95b 7fbc 3f2f 80bd 3714 69bc 1170 69bc
00000050: 8eee 8cbd 7941 0bbd f572 23bc 3bdc b4bc
00000060: 5af2 d2bc e157 f1bc 8d75 313c 8727 b3bc
00000070: 1494 95bc af8c 97bc 6e3d dcbc 0b79 94bd
00000080: 5cfe 24bd e0ac c1bc 47c9 1eba 6ce2 db3a
00000090: cb58 5abc b405 4c3a 3571 7ebd a196 84bb
000000a0: bfe4 e3bb df15 b93b 5a49 87bd aa46 d7bb
000000b0: 9227 02bc 0a2b d8bc 88cb 15bd 0525 d739
000000c0: f4b0 17bd 095c e3bc ae20 b6bb 1298 11bd
000000d0: 21a4 46bd 7582 86bc a69f 20bd 2aac 13bc
000000e0: 9a8b 21bd 7dbc 21bd e58a 2f3a c8a3 83bd
000000f0: 91ad 44bd 467a 00bd d842 07bd 2147 83bb
00000100: 6229 14bd f333 6bbd 7a6b 82bc b4a4 22bd
00000110: 946d e93b 90ce 95bc c9c8 dbbc 291d adb8
00000120: adfd 1bbd 39bb 0ebd
-0.013354621 -0.04876769 -0.02065262 -0.0560874 -0.029106753 -0.034424506 -0.01573204 -0.027272759
-0.008226774 -0.016925838 -0.033915956 -0.012330359 -0.0078010755 -0.03035597 -0.028759543 -0.030201295
-0.015585878 -0.062590115 -0.014226011 -0.01424791 -0.06881438 -0.033997986 -0.009976138 -0.02207767
-0.025750328 -0.02946085 0.010831249 -0.021869434 -0.018259086 -0.0184997 -0.02688476 -0.072496496
-0.04028164 -0.023642004 -0.00060572143 0.0016775853 -0.013326834 0.0007782832 -0.06211968 -0.0040462767
-0.006954759 0.005648359 -0.066057876 -0.006569703 -0.007944005 -0.02638771 -0.036571056 0.00041035577
-0.03703399 -0.027753847 -0.005558095 -0.035545416 -0.04849637 -0.016419629 -0.039214753 -0.009013215
-0.039439775 -0.039486397 0.0006696417 -0.06427723 -0.04801709 -0.03136661 -0.03302273 -0.004006282
-0.03617228 -0.05742259 -0.01592039 -0.039707854 0.0071236584 -0.018286973 -0.02682914 -8.254714e-05
-0.03808372 -0.03484652

1.layers.4.0.weight f4 [74, 370]
00000000: 4719 40bd 05af 2bbd 9f12 a6bc 6cd9 8ebc
00000010: aa83 c9bc 4abb a03c 2cbc 7abc 11d3 d1bc
00000020: 30ab 29ba 200c f13b a136 3bbd d15e 12be
00000030: 0b5f 7bbd 2ca2 e13d bff3 003c c385 37bc
00000040: 4e2c e53d ad26 b9bd ed77 6b3d c0f1 06be
00000050: d6c3 8abd 6f43 38bd 05ca c0bb 940f 0cbe
00000060: 5a89 12be f346 f9bd b081 c93d d682 07bd
00000070: 2e3d 82bc ded6 d6bd a52d 053d 9019 79bd
00000080: 6dce 96bc 0387 6e3d d42d 0abe 5fda 883d
00000090: 3696 4fbe e7fa 4abd 4807 1b3b 8740 c0bd
000000a0: f272 993c 4b45 c6bc c23c d9bc 036e 133e
000000b0: 48b1 dcbb 1c49 d93d ff3c 053e 619c 9dbd
000000c0: 8f18 74bd 0da6 a3bc 559a 45bd 115a 023e
000000d0: f2e3 aabd d225 e5bd 7cb6 4ebe 02a9 80bd
000000e0: be41 82bd 255d 193c 369f 383d 240d 0b3e
000000f0: 1cbe 7abc 4607 6cbd cf63 233d 0ff4 a9bd
00000100: 6ccc 4e3d fcce 043d 808c e73c 3d1a 9f3d
00000110: 36e8 a4bd 10b6 45be 20b8 96bc 00b7 613d
00000120: 2b3c 8abc 44b7 84bd e8bb 493d 5cea 8fbc
00000130: 24c3 883d 81d0 01bc a333 babc 7851 19be
00000140: f948 7dbc 01eb 013c a3f9 083e 85d8 a6bd
00000150: ce2a 3abe 1bbb c13d 5da4 1e3d fa27 773d
00000160: e7c4 a53d e99e de3c f0c3 28bd e654 b03d
00000170: 5ddc d63b 2d56 9fbd 4d91 ec3d 0d52 c9bd
00000180: a6e3 bdbd 14e5 fa3c 4759 fb3c 0685 46bd
00000190: 4e82 d33b 3120 4fbe 65e7 28be 60f3 b93c
000001a0: eb46 18bc bef6 033e 1638 8e3c 686d 8fbd
000001b0: 8f28 3dbe fbdc ac3d 4626 09be 4941 ecbd
000001c0: 4292 a4bd 1146 473d f420 5abe cb9a 303d
000001d0: ba99 213d c867 fc3d 73eb d1bc d72e 20bc
000001e0: 3fae c9bc 18fb 9d3d ca54 443d 9c59 973d
000001f0: 1bc5 083c 3e72 fabc 0bd2 e6bc 1c22 b9bd
00000200: 35a8 593d 760c 003d da4d 0d3e 065b f43d
00000210: 1c12 e2bc f8e7 3a3d 19e3 0fbe cabd cebc
00000220: d5f3 323d 7ebd 5cbd 4b7c 2cbd b996 303e
00000230: 1511 b8bd 9235 f5bb d395 fcbd b36a fb3c
00000240: f389 16bd 0254 31bc 992e 4e3c 8176 50bb
00000250: 899c 25be 6207 043e ba78 91bd 824e 28bd
00000260: 25da c7bd 74e7 f93d 287a ccbc e9fb f5bd
00000270: c334 c23d dc58 a03d 6322 553d a500 5bbd
00000280: 9ea5 2e3e 2620 c6bc 0eb3 e83c 2b9b c4bd
00000290: 0247 67be 52a4 263d 0480 0ebd 0aa7 67bd
000002a0: 407d c53d f215 f9bd a38a cb3c 906d c43a
000002b0: ced5 b6bd 15a8 7c3d 5c2c 9cbd feba 763c
000002c0: 02e9 30bc 6839 133b 1c61 ef3d a598 c2ba
000002d0: 8dcf 113e 03eb acbd 3b74 04be 86ce f9bd
000002e0: 52bc f8bd da1c 943c 8b8c 1fbe 55ab dcbc
000002f0: 1b41 8bbc 1ad9 27ba 6930 14bd 9b89 c8bc
00000300: 78ff 173d 18a6 193e 56eb b73c 1d8b 213c
00000310: e117 2abd f179 8a3c 1312 0d3d 78e9 5cbd
00000320: 2149 1dbd a7bb 233d 70f9 7b3e 093e cd3c
00000330: 7907 a5bc 1c64 32bd f7ea 253e 6670 52bd
00000340: 9232 bc3d 2db1 b8bd c1e4 113d 3e48 f63c
00000350: f3d0 053e 7423 6bbd a9cd 11bd ce74 3abd
00000360: 00e8 d63b c893 793d 9b9c 1abd b411 103e
00000370: a101 bf3b 7035 16bd 7df4 f43d 13a8 8d3d
00000380: 3dc7 06be 77c4 b1bc 6562 0cbd 2f34 ec3c
00000390: b030 8fbd fe4b 023e 4fc1 05be 221a d63d
000003a0: 0291 56be cb66 cdbb 5dca 803d f57b 673d
000003b0: 302a a9bd 468c 57bd ac5f d8bd d141 19be
000003c0: 6d13 bfbd f884 273e 7dd6 42be 1e0c cfbd
000003d0: 5213 193e 1e02 79bd b7d5 e3bd b8b3 783d
000003e0: af48 8bbd 1ae4 89bc f632 e13c 992f d13d
000003f0: afa9 95bd dd5f 2dbd ee25 2dbe d99e 9a3d
-0.046899106 -0.04191496 -0.020272551 -0.01743766 -0.024598915 0.019620556 -0.015303653 -0.02561334
-0.00064723473 0.0073561817 -0.045706395 -0.14293982 -0.061369937 0.1101726 0.007870614 -0.011201325
0.11190091 -0.0904058 0.057487417 -0.13178158 -0.06775634 -0.044986185 -0.0058834576 -0.13677818
-0.14310208 -0.121717356 0.09839189 -0.03308376 -0.015898313 -0.104902014 0.032514233 -0.060815394
-0.018408978 0.058234226 -0.13494045 0.06682276 -0.20272145 -0.049555685 0.0023655463 -0.093873076
0.018731568 -0.024202963 -0.02651823 0.14397435 -0.0067350008 0.10609648 0.1301155 -0.076958425
-0.059593733 -0.01997664 -0.048242886 0.1272967 -0.08344258 -0.11188854 -0.201868 -0.06282236
-0.063601956 0.009360586 0.04507371 0.13579232 -0.015304115 -0.057624124 0.039890107 -0.082985036
0.05048792 0.03242396 0.028265238 0.077686764 -0.08052103 -0.19307733 -0.018398345 0.055106163
-0.016874393 -0.06480268 0.049251467 -0.017567806 0.06677845 -0.007923246 -0.0227297 -0.14972484
-0.015459293 0.007929564 0.13376479 -0.081467666 -0.18180391 0.09459516 0.038730968 0.06034086
0.08094197 0.027175384 -0.041202486 0.08609943 0.006557031 -0.077801086 0.115511514 -0.09830103
-0.09271936 0.030626811 0.03068222 -0.048466705 0.0064547425 -0.20227124 -0.1649452 0.022699058
-0.009294252 0.12887093 0.017360728 -0.070032895 -0.18472503 0.08440586 -0.13393506 -0.1153589
-0.08035709 0.048650805 -0.21301633 0.043116372 0.039453246 0.12324482 -0.025624966 -0.0097767925
-0.02461922 0.07713908 0.047932424 0.073901385 0.008347775 -0.030572053 -0.028176328 -0.09039709
0.05313893 0.031261884 0.1379923 0.11931424 -0.027596526 0.04563138 -0.14051475 -0.025236983
0.043689568 -0.05389165 -0.042110723 0.17244996 -0.08987633 -0.0074831927 -0.12333264 0.030690527
-0.036752652 -0.010823252 0.012584352 -0.0031808915 -0.16172995 0.12893441 -0.07103105 -0.041090496
-0.09758405 0.12202349 -0.024960592 -0.12010939 0.0948272 0.078294486 0.052034747 -0.05346741
0.17055365 -0.024185251 0.028405692 -0.095999084 -0.22585681 0.04068405 -0.034790054 -0.056555785
0.0964303 -0.12162389 0.02484638 0.0014986265 -0.08927499 0.061683733 -0.076256484 0.015059231
-0.010797741 0.0022464637 0.11688444 -0.0014846517 0.1423933 -0.084432624 -0.12934963 -0.12197594
-0.12145294 0.018080164 -0.15580957 -0.026937166 -0.016998818 -0.0006402895 -0.03617898 -0.024479678
0.03710887 0.15004766 0.022451084 0.009859827 -0.04152668 0.01690385 0.034441065 -0.05393359
-0.03839982 0.03997388 0.24606872 0.025053995 -0.020145165 -0.043552503 0.16202913 -0.051376723
0.09189333 -0.090181686 0.035618547 0.030063745 0.13067989 -0.057406858 -0.035596523 -0.04552155
0.0065584183 0.06093195 -0.037747007 0.14069253 0.0058290516 -0.036672056 0.11960695 0.06916823
-0.13161941 -0.021700127 -0.034273524 0.028833477 -0.06991708 0.12724301 -0.13062023 0.10454203
-0.20953754 -0.0062683574 0.06288598 0.0565147 -0.0826 -0.05262401 -0.10565123 -0.14966513
-0.09329877 0.16359317 -0.19027133 -0.10109733 0.14948776 -0.060793035 -0.11124747 0.06071827
-0.06800973 -0.0168324 0.02749012 0.10214157 -0.07307755 -0.04232775 -0.16909 0.07549829

1.layers.4.0.bias f4 [74]
00000000: 6061 86bc 0fb4 00bd 634e 07b9 03a1 27bc
00000010: 9cdf f1bc 0de5 0fbd 4cd4 c9bc 2fc7 2dbc
00000020: 92bb 72bd 5f3a 88bc eb03 11bd 74c7 93bc
00000030: 1a5d cbbc 8591 bcbc 37a9 3cbd 2078 ddbc
00000040: 126b 0dbd 3e1b 07bd c75d f9bc e96d 533b
00000050: 5481 3abd 575d 12bd 74cb 98bc 9ab2 eebc
00000060: f44d 95bc f799 dfbc cd91 0dbd a255 0abd
00000070: 8879 f5bc 8e1c 5fbd 97bf eebc d63c 82bc
00000080: 8b14 62bd 0f06 14bd fc26 81bb aeec a3ba
00000090: 6ddd efbc 8a70 30bd c798 5fbd 5662 37bd
000000a0: e5bc bdbc 7d50 4abc ffee 0fbc e295 e0bc
000000b0: 40ad 0fbd 1fbc 8cbc bf9f 77bb 92b0 b3ba
000000c0: a161 52bc 97c7 7cbc 4ba2 99bc bc3a d5bb
000000d0: a66e 1dbd 9456 25bd 2e58 d5bc eb79 07bd
000000e0: 339c a6bc 7db8 babc d787 19bc ce64 a8bc
000000f0: dbd8 36bc 5fd7 22bd 00b4 3bbd 1065 32bc
00000100: d9a2 a2bc c3b0 6cbd 8216 18bd f1b7 35bd
00000110: a5cd acbc 8325 bcbc d394 f0bc d771 75bc
00000120: 9ccf f5bc 3f3e 0dbc
-0.016403854 -0.031421717 -0.00012903805 -0.010231259 -0.02952557 -0.03513055 -0.024637364 -0.010606571
-0.059260912 -0.016629396 -0.035404127 -0.018039443 -0.024824668 -0.023018608 -0.046059813 -0.02703482
-0.03452594 -0.032984965 -0.030440224 0.0032261556 -0.045533493 -0.035733547 -0.018651702 -0.029137898
-0.018225648 -0.027295096 -0.034562875 -0.033773072 -0.029965177 -0.05447059 -0.029144092 -0.01589815
-0.055195373 -0.03613859 -0.003941415 -0.0012506449 -0.029280389 -0.043076076 -0.05458906 -0.044771515
-0.023161361 -0.012348291 -0.008785008 -0.02741522 -0.035077333 -0.017179547 -0.0037784425 -0.0013709238
-0.012840659 -0.015428445 -0.018754145 -0.006507246 -0.0384356 -0.04036577 -0.026043024 -0.033075254
-0.020338153 -0.022793049 -0.009370766 -0.02055588 -0.011160101 -0.039756175 -0.04582596 -0.010888353
-0.019853042 -0.05778576 -0.03713084 -0.044364873 -0.021094153 -0.022967106 -0.02936784 -0.014980755
-0.030006222 -0.008620798
