DNNWeights/model/ensemble_1/selected_set_1_0_7.onnx (onnx, 872444 bytes, 17 tensors)

0.embeds.0.weight f4 [2, 1]
0	0x3f95b9ac	1.1697288
1	0x3ec2c4c9	0.3804076

0.embeds.1.weight f4 [3, 2]
0	0x3f54fa45	0.8319438
1	0xc0238bec	-2.5554152
2	0x3f677b9c	0.9042299
3	0xbecb3d42	-0.39695174
4	0xbf887e7a	-1.0663598
5	0xbf65dac2	-0.8978692

0.embeds.2.weight f4 [2, 1]
0	0xbd698529	-0.057011757
1	0xbfe721c1	-1.8057176

0.embeds.3.weight f4 [2019, 50]
0	0xbfc4ef70	-1.538557
1	0xbea31a52	-0.31856018
2	0xbdd16979	-0.102251954
3	0x3f888de2	1.0668299
4	0x3f2b4115	0.6689618
5	0xbf243e44	-0.6415751
6	0x3fcd494a	1.6037991
7	0xbf3b0618	-0.73056173
8	0x3eecfa7d	0.46284857
9	0x3fae6d4e	1.3627107
10	0x3e065c9e	0.13121268
11	0x3e462035	0.19348224
12	0xbf47be67	-0.78024906
13	0xbf99aca3	-1.200581
14	0xbe93e12b	-0.28882727
15	0xbf279a75	-0.6547006
16	0xc04a59df	-3.1617353
17	0xbfcd1102	-1.6020815
18	0xbf4f806c	-0.8105533
19	0x3fad85ec	1.3556495
20	0x3f1a7146	0.6032909
21	0xbec00fe3	-0.3751212
22	0x3e0a11a4	0.13483292
23	0xbffeab45	-1.9896017
24	0xbfb9fb34	-1.4529786
25	0x3f268c5d	0.6505793
26	0xbe21f9fc	-0.15818018
27	0x4000e0af	2.0137136
28	0xbf6d53a1	-0.9270573
29	0xbfb74c13	-1.4320091
30	0x3e85f966	0.26166838
31	0xbf849102	-1.0356753
32	0x3f93299a	1.1497071
33	0xbd597cf3	-0.053097676
34	0x3f302055	0.68799335
35	0xbebf7295	-0.37392107
36	0x3d62de1d	0.055387605
37	0x3f90c63f	1.13105
38	0xbf343a40	-0.7040138
39	0xc0545a26	-3.3180022
40	0xbf870687	-1.0548867
41	0xbebd9894	-0.3703047
42	0x3f9ee01f	1.2412146
43	0x3ed25e92	0.41087776
44	0x3f0acb60	0.54216576
45	0xbfd69f33	-1.6767334
46	0x3f2767df	0.6539287
47	0xbf6b133c	-0.91826224
48	0x3f90621b	1.127994
49	0x3eefc819	0.4683235
50	0xbf16fa8d	-0.5897606
51	0xbeffc81a	-0.49957353
52	0x3f391b70	0.7230749
53	0x3eead1c5	0.45863166
54	0xc0041ce2	-2.0642629
55	0x3f194ba0	0.5988102
56	0x3e94b3d5	0.2904345
57	0x3f27f227	0.6560387
58	0xc0009c5e	-2.009544
59	0xbec79b3d	-0.38985625
60	0x3fbd7a42	1.4802935
61	0x3f941e82	1.157181
62	0x3f8a43db	1.0801958
63	0xbfb00620	-1.3751869
64	0x3f539857	0.8265433
65	0x3f7ef579	0.9959331
66	0x3f4af6fa	0.79283106
67	0x3fa2a582	1.2706759
68	0xbf7f1644	-0.9964335
69	0xbecd93cd	-0.40151826
70	0xc010dbcb	-2.263415
71	0x3ec72170	0.38892698
72	0x3f2bb51d	0.6707323
73	0x4001ae6a	2.0262704
74	0x3f668e01	0.9006043
75	0x3f8de28e	1.1084764
76	0xbf6c20e9	-0.92237717
77	0xbf2b971b	-0.67027444
78	0xbf812b17	-1.0091275
79	0xbfa3fa62	-1.2810786
80	0xbe45820d	-0.19287892
81	0xbfaf2b21	-1.3685037
82	0x3edd64b5	0.43240896
83	0x3f83eb8b	1.0306257
84	0x40109d1a	2.2595887
85	0xbda500ef	-0.08056819
86	0xbe597785	-0.21237
87	0x3f929aff	1.1453551
88	0xbea155d8	-0.31510806
89	0xbf958f55	-1.1684366
90	0x3f6565dc	0.8960855
91	0x3e0b7133	0.13617401
92	0x3fc6f1cc	1.554254
93	0xbf417b76	-0.7557901
94	0x3ed55cc3	0.41672334
95	0x3f06afc4	0.5261195
96	0x3d0eeb0f	0.034892138
97	0xbfc04623	-1.5021404
98	0x3f868bdb	1.051143
99	0xbf5edd4f	-0.8705644
100	0xbe454ff7	-0.19268785
101	0x3dcd9a84	0.10039237
102	0xbebe30b5	-0.37146536
103	0xbf9d8d8a	-1.2308819
104	0x3e84cd66	0.25937957
105	0xbf4ea90c	-0.80726695
106	0xbf620d3f	-0.8830146
107	0xbef19dd6	-0.47190732
108	0x3e716ba2	0.23576215
109	0xbeb60230	-0.35548544
110	0x3f9cd34a	1.225198
111	0x3eb688aa	0.3565114
112	0xbf07e8b5	-0.5308946
113	0x3f15daa6	0.58536756
114	0x3d93d1bc	0.07217738
115	0x3fec09e2	1.8440516
116	0xbe873e90	-0.2641492
117	0x3f849b4d	1.0359894
118	0xbf03ec04	-0.51532006
119	0xbf1168c7	-0.568005
120	0xbe3c65e7	-0.18398248
121	0xbf695cf1	-0.9115744
122	0x3d9dd443	0.07706501
123	0xbb69142d	-0.0035565004
124	0xbffd42a5	-1.9785963
125	0xc0187682	-2.3822331
126	0xbf106c75	-0.5641549
127	0xbd798ac7	-0.060923364
128	0xbe755e01	-0.23961641
129	0x3f4c61c6	0.7983669
130	0xbff24549	-1.8927394
131	0x3f58e3d4	0.8472264
132	0xbe909065	-0.28235164
133	0xbc947ec1	-0.018126847
134	0x3d13bdc1	0.036069635
135	0xbdbc352e	-0.09189831
136	0xbf8b9658	-1.0905256
137	0xbe136a4e	-0.14396021
138	0x401acf34	2.4188967
139	0xbfdda6f8	-1.731658
140	0x3f224ceb	0.6339862
141	0xbe31eef6	-0.17376313
142	0x3feb526f	1.8384532
143	0x3ef314ef	0.4747691
144	0x3fe15c73	1.7606338
145	0xbfd107f9	-1.6330558
146	0x3e7fa8b8	0.24966705
147	0xbee364fa	-0.44412977
148	0xbfe66351	-1.7999059
149	0x3f0350e6	0.51295316
150	0xbc82e5fb	-0.015978804
151	0x3ec7399d	0.38911143
152	0xbef4bcb1	-0.4780021
153	0x3eef691b	0.46759877
154	0xbffbaae5	-1.9661528
155	0xbf8fd708	-1.1237497
156	0x3fa3231f	1.2745093
157	0xbf59c5b4	-0.85067296
158	0x3ef2897c	0.47370517
159	0x3f2684d6	0.6504644
160	0xbd68b6f1	-0.05681509
161	0xbf32597c	-0.6966779
162	0xbf2d923e	-0.6780127
163	0x3f46f05c	0.7771051
164	0xbf590be6	-0.8478378
165	0xbef72820	-0.482728
166	0x3e05c246	0.1306239
167	0x3d0fbf8d	0.035094786
168	0xbe93f738	-0.2889955
169	0xbf36f768	-0.7147126
170	0x4003a3f7	2.0568826
171	0x3f9694b5	1.1764132
172	0x3f373c5c	0.71576476
173	0x3ebea5f2	0.3723598
174	0x3e253c51	0.1613629
175	0xbe0cc84a	-0.13748279
176	0x3e030424	0.12794548
177	0xbf643693	-0.89145774
178	0x3f062536	0.5240053
179	0xbba2d299	-0.004968953
180	0xc024a29b	-2.5724247
181	0x3e24c79a	0.16091767
182	0xbe99c814	-0.3003546
183	0xbe664aee	-0.22489521
184	0xbe0fe643	-0.14052682
185	0xbff08e06	-1.8793342
186	0x3fc69702	1.5514834
187	0xbfc181c4	-1.5117726
188	0xbff86a6b	-1.9407476
189	0x3e1bbd77	0.15208994
190	0x3f63e9c0	0.8902855
191	0x3f3d3fbb	0.7392537
192	0x3f6ae94e	0.91762245
193	0xbecd8b4b	-0.40145335
194	0x3f2b8155	0.6699422
195	0xbe2f2d02	-0.17107013
196	0xbeac4b2a	-0.33651096
197	0xbf3343de	-0.7002543
198	0x3f3f7990	0.74794865
199	0x3fecdb8d	1.8504502
200	0x3ba84330	0.0051349625
201	0x3fa97dea	1.3241551
202	0x3f852a15	1.0403467
203	0xbfe09abe	-1.7547224
204	0x3e81ffdd	0.2539052
205	0xbe380041	-0.17968847
206	0x3ef15136	0.47132272
207	0xbf03e7e6	-0.51525724
208	0x3ea08ef8	0.31359076
209	0xbfcd5db3	-1.604422
210	0x3fe2f0f1	1.772978
211	0xbf3fb9a3	-0.74892634
212	0x3e923827	0.28558466
213	0x3f3803a7	0.71880573
214	0xbfa4fdcd	-1.2889954
215	0xbf81a76a	-1.0129216
216	0xbfc0beed	-1.5058266
217	0xbfb606c1	-1.4220811
218	0x3c49faea	0.012327889
219	0xbf98a2f5	-1.192473
220	0x3fb90003	1.4453129
221	0xbf9c763b	-1.2223581
222	0xbf8a3769	-1.079816
223	0x3ffe30bf	1.9858626
224	0xbfa50dd6	-1.2894847
225	0x3f20d28b	0.62821263
226	0x3fb611ef	1.4224223
227	0xbffbb592	-1.9664786
228	0xbf0a51e4	-0.54031205
229	0x3fe84079	1.8144675
230	0x3e1b8946	0.15189084
231	0x3d24ea49	0.040262494
232	0x3ec13bd8	0.3774097
233	0x3faeb970	1.3650341
234	0xc0023720	-2.0346146
235	0xbf0deb62	-0.5543729
236	0xbf62ac86	-0.885445
237	0x3fc2b182	1.5210421
238	0x3feda297	1.8565243
239	0xbe991fb7	-0.2990701
240	0x3e70aa9c	0.23502582
241	0x3cc68dbc	0.024237506
242	0xbf4a8f22	-0.79124653
243	0x3e8ec66a	0.27885753
244	0x3f444356	0.76665246
245	0xbf997628	-1.1989183
246	0x3e03e120	0.12878847
247	0xbef9de91	-0.48802617
248	0x3dfe0e91	0.12405122
249	0xbe0d2bb9	-0.1378621
250	0x3fc83596	1.5641353
251	0xbe39904b	-0.1812145
252	0xbf7ea34e	-0.99467933
253	0xbf93bf3a	-1.1542733
254	0x3cd9b6d3	0.026576435
255	0x3f9a4c88	1.2054605

1.layers.0.0.weight f4 [74, 74]
0	0xbe5fcbb6	-0.21855053
1	0x3d837332	0.06418456
2	0xbebc88cc	-0.36823118
3	0x3df9afea	0.12191756
4	0x3da2fc70	0.07958305
5	0x3eb6789a	0.35638887
6	0x3e887eac	0.26659143
7	0xbcfe1eeb	-0.031020602
8	0xbcc997a5	-0.024608443
9	0x3c8597ff	0.016307829
10	0xbe833815	-0.25628725
11	0x3e9076fb	0.28215775
12	0x3a9617f1	0.0011451227
13	0xbc84cb52	-0.016210232
14	0xbd8f8ebf	-0.070096485
15	0x3daa72d0	0.0832268
16	0xbe24510e	-0.16046545
17	0xbda7b3d7	-0.081885986
18	0xbe4457fc	-0.19174188
19	0x3da70c86	0.081566855
20	0x3e19f9d4	0.15036708
21	0x3ba2239f	0.004948094
22	0x3da3d394	0.0799934
23	0x3ea77a21	0.32710364
24	0x3dc7c3b7	0.097541265
25	0xbce73473	-0.028223252
26	0x3d69e564	0.05710353
27	0x3d0af713	0.033927035
28	0x3c50eb62	0.012751432
29	0xbe3b6553	-0.18300371
30	0x3e1c90a5	0.15289553
31	0xbe2d088b	-0.1689779
32	0x3e97a85c	0.29620636
33	0x3d5b2542	0.05350233
34	0x3de39732	0.111128226
35	0xbd8dd4ef	-0.069253795
36	0x3ab05678	0.0013453504
37	0xbe563701	-0.2091942
38	0x3e09e824	0.13467461
39	0xbdba2c63	-0.09090497
40	0xbd3326e3	-0.043738257
41	0x3d3d9602	0.046285637
42	0x3cefdc8c	0.02927997
43	0x3d085dc5	0.03329255
44	0xbdd9f97d	-0.10643289
45	0xbc2c9b47	-0.010535068
46	0xbd5ac0ae	-0.05340641
47	0xbdebd442	-0.11515094
48	0x3e28d98a	0.16489235
49	0x3ccefcd4	0.025267042
50	0xbe2c34aa	-0.16816965
51	0xbe17fc93	-0.14842443
52	0xbdc43fe5	-0.095824994
53	0xbebe0ebb	-0.37120613
54	0xbe9e2ff0	-0.30895948
55	0xbe62cbca	-0.22148052
56	0x3e8cab2e	0.2747435
57	0xbe1bea65	-0.15226133
58	0x3cbda479	0.023149716
59	0xbe6b4b02	-0.22977832
60	0xbe803085	-0.25037017
61	0xbc81442c	-0.015779577
62	0x3e1c3bd3	0.15257196
63	0xbe738058	-0.23779428
64	0x3d1196ca	0.035544194
65	0x3e16b72c	0.14718312
66	0xbe5662ce	-0.20936128
67	0x3c9e03cd	0.019288922
68	0x3e9dff3a	0.30858785
69	0x3e47dc56	0.19517645
70	0xbde4306f	-0.111420505
71	0x3f02c8ee	0.51087844
72	0x3deb3a8b	0.114857756
73	0xbd438812	-0.04773719
74	0xbe975739	-0.29558733
75	0x3e0a913d	0.13531967
76	0x3d29cafb	0.041453343
77	0xbe4f32d5	-0.20234235
78	0xbe2dab2c	-0.16959828
79	0xbdaefc49	-0.08544213
80	0x3e0b8618	0.13625371
81	0x3e803b50	0.25045252
82	0x3c3cef09	0.0115316
83	0xbe699b10	-0.22813058
84	0xbf18aed8	-0.5964179
85	0x3d07b37d	0.033130158
86	0xbe5eae89	-0.21746267
87	0x3edbebe9	0.42953423
88	0x3e0ed5ec	0.13948792
89	0xbdda0830	-0.10646093
90	0x3dae5d38	0.08513874
91	0x3cee20a9	0.029068308
92	0xbe65d169	-0.22443165
93	0xbe3beb6b	-0.18351524
94	0xbda0542b	-0.07828554
95	0xbf19290f	-0.59828275
96	0x3da33faf	0.07971131
97	0x3d4d4d49	0.050122533
98	0xbea12420	-0.31472874
99	0x3de0194b	0.10942324
100	0x3cff19aa	0.031140167
101	0x3eed5999	0.4635742
102	0xbd3b11f1	-0.045671407
103	0xbd97bd5c	-0.07409164
104	0xbd944dd9	-0.07241411
105	0xbdd8385d	-0.105576254
106	0x3d519780	0.051169872
107	0xbe81291b	-0.25226673
108	0x3e3b92f7	0.18317781
109	0xbd52123f	-0.051286932
110	0x3e80110a	0.25013
111	0xbcc983bd	-0.02459895
112	0x3c8ac9e8	0.01694198
113	0xbd139844	-0.036033884
114	0x3d470217	0.048585977
115	0xbe3ddd89	-0.1854154
116	0x3d753900	0.059868813
117	0xbc775597	-0.01509609
118	0xbe4c7c35	-0.19969256
119	0xbcf0bb37	-0.029386146
120	0x3d423193	0.04741056
121	0xbdbc0dcd	-0.0918232
122	0x3e031586	0.1280118
123	0xbcef090c	-0.029179119
124	0xbe50759d	-0.20357366
125	0xbdcc7b80	-0.09984493
126	0xbd14b44a	-0.03630475
127	0x3d409e7b	0.04702614
128	0x3e037009	0.12835707
129	0xbcde3798	-0.027126119
130	0x3d2d6a77	0.04233786
131	0xbea7f593	-0.32804546
132	0x3df34515	0.11878411
133	0xbda0d877	-0.078537874
134	0x3da3cc3e	0.079979405
135	0x3d976165	0.073916234
136	0xbdfb9518	-0.12284297
137	0xbc7cb9d2	-0.015425162
138	0xbe03f3d5	-0.12885983
139	0xbe853176	-0.26014298
140	0xba0fcf69	-0.00054859236
141	0x3d12f912	0.035882063
142	0x3e60fde3	0.2197185
143	0x3d082bc9	0.03324488
144	0xbe7d5c4a	-0.24742237
145	0x3dc48637	0.09595912
146	0xbedec3be	-0.43508714
147	0xbdbe950f	-0.093057744
148	0x3dde5831	0.10856665
149	0xbd125909	-0.03572944
150	0xbda1af72	-0.07894792
151	0xbddaa519	-0.10676021
152	0x3e302592	0.17201832
153	0x3e62436c	0.22096032
154	0x3dfdaac6	0.12386088
155	0xbebd5849	-0.3698142
156	0xbe3c17a7	-0.18368398
157	0x3e9742a5	0.29543033
158	0x3e9ca7f3	0.30596885
159	0xbd9240fd	-0.07141302
160	0x3ce13a90	0.027493745
161	0xbf006dd7	-0.501676
162	0xbe30bc75	-0.1725939
163	0x3cf36da7	0.029715372
164	0xbe2a3793	-0.16622762
165	0xbdaa875b	-0.08326598
166	0xbe96bc9d	-0.29440776
167	0xbdebe1e5	-0.11517695
168	0xbdef0960	-0.1167171
169	0xbdda367b	-0.106549226
170	0x3e956d44	0.29184926
171	0xbd0cdba1	-0.034389142
172	0x3d510d3b	0.05103801
173	0xbe8af661	-0.27141097
174	0xbdb485e2	-0.088145986
175	0x3dd6f14f	0.10495245
176	0xbb1d5a57	-0.0024010146
177	0xbd5777b5	-0.052604396
178	0xbe0bc22f	-0.13648294
179	0xbc17192c	-0.00922231
180	0xbdce55e1	-0.10074974
181	0xbd809344	-0.06278089
182	0xbd46445c	-0.048405036
183	0x3e270891	0.16311862
184	0xbe2bddb5	-0.16783793
185	0xbccfaeab	-0.025351843
186	0xbe1da726	-0.15395793
187	0x3e6f7450	0.23384213
188	0xbe20fae5	-0.15720709
189	0x3ea22fd9	0.3167713
190	0x3d0328a6	0.032021187
191	0x3e59bb54	0.21262866
192	0xbe0c8d4b	-0.13725774
193	0xbd6b7e64	-0.057493582
194	0x3db50466	0.088387296
195	0x3a509470	0.0007956689
196	0xbe0723ec	-0.13197297
197	0xbe316c19	-0.17326392
198	0x3c5f9f44	0.013648812
199	0xbdbc8b8f	-0.09206306
200	0x3d264cb0	0.04060048
201	0x3d50971b	0.050925355
202	0x3e17a66b	0.14809577
203	0x3dc01ec5	0.09380869
204	0xbddf8f46	-0.10915999
205	0x3d5c07ba	0.053718306
206	0x3eb3d23c	0.35121334
207	0x3e6c02d6	0.23047957
208	0x3d43c347	0.047793653
209	0xbe0aa33a	-0.13538828
210	0xbe3ad347	-0.18244658
211	0xbe2aa7dd	-0.16665597
212	0x3e2141da	0.15747777
213	0x3dd0504e	0.10171567
214	0xbdb4a36c	-0.08820233
215	0x3d83be2f	0.06432759
216	0x3e6954d8	0.22786272
217	0xbcd35a79	-0.025799977
218	0xbdcd0518	-0.10010737
219	0xbd959004	-0.073028594
220	0xbdfb7c23	-0.122795366
221	0x3e1af015	0.15130647
222	0x3ef0a18a	0.46998245
223	0xbec95bf4	-0.39327967
224	0x3dc6ff06	0.097166106
225	0x3ea1586f	0.31512782
226	0xbe80acdf	-0.2513189
227	0x3e4f8890	0.20266938
228	0x3e24f336	0.16108403
229	0x3e862c5e	0.26205724
230	0x3d5bfcb1	0.053707782
231	0xbe730ef6	-0.23736176
232	0x3d509c75	0.05093046
233	0xbe7b706d	-0.24554606
234	0xbe522421	-0.20521595
235	0x3d5d98f6	0.054100953
236	0xbb8b57e8	-0.0042524226
237	0x3d8f9275	0.07010356
238	0xbd41ec35	-0.047344405
239	0x3dde6c38	0.10860485
240	0xbec322ee	-0.38112587
241	0xbe1ad061	-0.15118553
242	0x3e39fd0a	0.18162933
243	0xbec38a06	-0.3819124
244	0x3c1f618f	0.00972785
245	0xbe85ac58	-0.2610805
246	0x3cdde24a	0.027085442
247	0xbbdfc174	-0.0068284813
248	0x3cda0a3c	0.026616208
249	0x3e41eada	0.18937245
250	0x3b8a9f47	0.004230413
251	0x3e48b115	0.19598801
252	0xbd962733	-0.073316954
253	0x3e8104b0	0.2519889
254	0x3ea3b098	0.31970668
255	0x3e893fba	0.26806432

1.layers.0.0.bias f4 [74]
0	0xbd635bfa	-0.055507638
1	0xbd25e452	-0.040500946
2	0xbd3b65d1	-0.045751397
3	0xbd47dcd1	-0.04879457
4	0xbd83bcd9	-0.06432504
5	0xbb70ce1a	-0.003674394
6	0xbd36d978	-0.044640988
7	0xbc787398	-0.015164278
8	0x397a2491	0.0002385548
9	0xbbac1304	-0.0052512903
10	0xbcefe71b	-0.029285004
11	0xbd05d6f6	-0.032675706
12	0xbd862276	-0.06549542
13	0xbce2e782	-0.027698282
14	0xbc19eb32	-0.009394454
15	0xbd1ab9d1	-0.037774865
16	0xbd958dca	-0.07302435
17	0xbcdc29d1	-0.026875408
18	0xbdbe14cd	-0.09281311
19	0xbcfc67d3	-0.030811226
20	0xbd105471	-0.03523678
21	0xbc6be0f1	-0.014396892
22	0xbd67bba0	-0.056575418
23	0xbd174d1a	-0.036938764
24	0xbd36e436	-0.044651233
25	0xbd19f15d	-0.037583698
26	0xbdb70f09	-0.089384146
27	0xbc05be05	-0.00816298
28	0xbdb603c9	-0.08887441
29	0xbd602a38	-0.054727763
30	0xbd5e63e5	-0.054294486
31	0xbd6684e0	-0.056279063
32	0xbca45cb0	-0.020063728
33	0xbd6a603e	-0.05722069
34	0xbb83c443	-0.004021199
35	0xbccd9e11	-0.025099786
36	0xbcc6c8c2	-0.02426565
37	0xbae9afee	-0.001782892
38	0xbd6687fa	-0.05628202
39	0xbae95ab1	-0.0017803517
40	0x3c160b61	0.009157986
41	0xbcd56647	-0.026049746
42	0xbd06dc00	-0.032924652
43	0xbd9618ad	-0.07328925
44	0x3c33aa0d	0.010965836
45	0xbd25af98	-0.040450662
46	0xbd118119	-0.035523508
47	0xbd4e0ffb	-0.05030821
48	0xbd2a4eab	-0.04157893
49	0xbda9e14e	-0.082949266
50	0xbc6f0244	-0.0145879425
51	0xbd5bb1a8	-0.053636223
52	0xbc02b29a	-0.007977152
53	0xbcb59bef	-0.022169081
54	0xbda3d8f6	-0.080003664
55	0x3b561f45	0.0032672447
56	0xbd84e35a	-0.06488676
57	0xbd764bd6	-0.060130917
58	0xbce0c1ac	-0.0274361
59	0x3c817d7d	0.015806908
60	0xbd56aa7f	-0.05240869
61	0xbc207271	-0.00979291
62	0xbceca4f3	-0.028887248
63	0x3b211e5b	0.0024584744
64	0xbdb36c6a	-0.08760913
65	0xbc116070	-0.00887309
66	0xbd3e7b9f	-0.046504613
67	0xbd34aa52	-0.044107743
68	0xbdac0237	-0.0839886
69	0xbd1c8eea	-0.03822223
70	0xbc82f245	-0.015984664
71	0x3c610a20	0.013735324
72	0xbd034301	-0.03204632
73	0xbd12ede8	-0.035871416

1.layers.1.0.weight f4 [74, 148]
0	0xbdc44c00	-0.09584808
1	0x3d32fded	0.043699194
2	0xbb345801	-0.0027518275
3	0xbae85ac8	-0.001772725
4	0x3d3c9b52	0.046046562
5	0x3d0abc78	0.033871144
6	0xbdc2d4a0	-0.09513211
7	0x3dd8b744	0.1058183
8	0x3e1fa4d8	0.15590227
9	0x3e7e39ea	0.2482678
10	0xbcc61796	-0.024181169
11	0xbb8ff166	-0.0043927906
12	0x3d59a355	0.05313428
13	0xbd8922c0	-0.06696081
14	0x3e3c88c7	0.18411551
15	0x3d01161b	0.031515222
16	0x3d216dc1	0.03941131
17	0x3c945343	0.018106109
18	0x3e0c2586	0.13686189
19	0x3d67bcfb	0.05657671
20	0x3e65c87b	0.22439758
21	0x3e57ed42	0.210866
22	0x3e2623c5	0.16224582
23	0xbe09da00	-0.13462067
24	0xbdb8b2c2	-0.0901847
25	0xbd965e9a	-0.073422626
26	0xbdad8750	-0.084730744
27	0x3dd7a94a	0.10530336
28	0x3e4049da	0.18778172
29	0xbcfb7d51	-0.030699404
30	0xbeacded0	-0.33763742
31	0x3d9f7f52	0.07787956
32	0x3d1174ad	0.03551166
33	0x3d09b384	0.033618465
34	0xbdfb206a	-0.12262042
35	0x3cff1d4c	0.0311419
36	0xbdbc63fe	-0.091987595
37	0xbdcc559a	-0.09977265
38	0xbdd40b31	-0.10353697
39	0x3d9d4cc7	0.0768066
40	0xbe2b4296	-0.1672462
41	0xbd4b9028	-0.049698025
42	0x3e0aad0e	0.13542578
43	0x3d300743	0.042975675
44	0x3d975b85	0.07390503
45	0x3d7f0016	0.06225594
46	0xbdf05be0	-0.11736274
47	0x3e196210	0.14978814
48	0xbe08fd58	-0.13377893
49	0x3ddcd013	0.107818745
50	0x3e00b7bf	0.12570094
51	0x3d6d4171	0.057923738
52	0xbe0dca90	-0.13846803
53	0xbde3ade3	-0.11117151
54	0x3df0fecb	0.11767348
55	0xbbed3891	-0.0072394093
56	0x3d89993a	0.06718679
57	0x3dd57e0c	0.10424432
58	0x3e03a655	0.1285642
59	0xbe7789ef	-0.24173711
60	0x3bb800ba	0.005615321
61	0x3d282ba5	0.041057248
62	0x3cdbad4c	0.026816033
63	0xbd61b4ad	-0.055103946
64	0x3ce25f0f	0.027633218
65	0x3dcd14b3	0.10013714
66	0x3d14e1be	0.036348097
67	0x3df22f81	0.11825467
68	0x3e1f21fc	0.15540308
69	0xbd8d9d54	-0.069147736
70	0x3e6374dd	0.22212549
71	0xbdafaed4	-0.08578268
72	0x3dd9ac29	0.1062854
73	0x3ce089db	0.027409485
74	0xbda8244f	-0.0821005
75	0x3de25ab9	0.1105246
76	0x3d3266e7	0.043555167
77	0xbdfd6fe7	-0.12374859
78	0xbe1c0110	-0.1523478
79	0xbdb7607a	-0.08953948
80	0x3c7c9980	0.015417457
81	0xbd28d169	-0.041215334
82	0x3dd5ba88	0.10435969
83	0x3e3fbf16	0.18725237
84	0x3d98c3a3	0.0745919
85	0x3e8891b8	0.26673675
86	0x3e43b2a2	0.19111112
87	0x3d355892	0.04427392
88	0x3e003cf6	0.12523255
89	0x3de9b7c5	0.114120044
90	0xbe1cdcca	-0.153186
91	0x3d873585	0.06602005
92	0xbd9308ce	-0.07179414
93	0x3c9ce052	0.019149933
94	0xbe1b3b27	-0.15159284
95	0xbe036be4	-0.12834126
96	0x3d28b143	0.041184675
97	0x3bb9101a	0.0056476714
98	0x3e0dc3a0	0.13844156
99	0x3cfa9ccb	0.030592343
100	0xbdf277a2	-0.118392244
101	0xbe559848	-0.20858872
102	0xbe0fd333	-0.1404541
103	0xbeb09b44	-0.34493458
104	0xbe069262	-0.13141778
105	0x3de3d09c	0.111237735
106	0xbe282326	-0.16419658
107	0xbdd741cc	-0.10510597
108	0xbd337219	-0.043809984
109	0x3ce29afd	0.027661795
110	0xbd763cfa	-0.060116746
111	0xbd4f1efb	-0.050566655
112	0x3eca827a	0.3955267
113	0xbde6f09e	-0.11276363
114	0x3cacb7b4	0.02108369
115	0x3e4f03aa	0.20216241
116	0xbdf6e2d0	-0.1205498
117	0xbcd67255	-0.026177565
118	0xbde5d34c	-0.11221942
119	0x3d2705ef	0.040777143
120	0xbcccb330	-0.024987787
121	0x3e36b961	0.17844154
122	0x3d2fb5a4	0.042897835
123	0xbdd3256b	-0.10309871
124	0x3e0d9a11	0.13828303
125	0x3dcd944e	0.100380525
126	0x3de6d551	0.112711556
127	0x3dfc0ccd	0.12307129
128	0x3d05dbf6	0.032680474
129	0xbe09a07a	-0.13440123
130	0x3d5e420b	0.054262202
131	0x3e03a0e8	0.1285435
132	0x3d7f7a90	0.062372744
133	0x3d3efa9f	0.04662573
134	0x3da8072b	0.08204492
135	0x3de46542	0.11152126
136	0x3d9d90a1	0.076936014
137	0x3dc10b90	0.094260335
138	0x3da0756e	0.07834898
139	0x3d089672	0.0333466
140	0xbe0687eb	-0.13137786
141	0xbe0bd821	-0.13656665
142	0x3e50f0c9	0.20404352
143	0x3d562f93	0.052291464
144	0x3cb595ea	0.022166211
145	0xbcd987a6	-0.02655394
146	0xbe806175	-0.25074354
147	0x3d8a9063	0.06765821
148	0x3d0834c0	0.03325343
149	0xbc45ca57	-0.012072167
150	0x3e069ac0	0.1314497
151	0x3df2cc4b	0.11855372
152	0x3b8acb86	0.0042356877
153	0xbd9a9e15	-0.07549683
154	0x3d83e46e	0.06440054
155	0x3de4e026	0.111755654
156	0x3e70e9c2	0.23526672
157	0x3c63a279	0.013893717
158	0x3d1a7017	0.037704553
159	0x3e0c51b4	0.13703042
160	0xbc2593f9	-0.01010608
161	0x3c03c4e3	0.008042547
162	0xbdcff396	-0.10153882
163	0x3e0aaf45	0.13543423
164	0x3dd120be	0.10211323
165	0x3c43d82e	0.011953397
166	0xbde5b8d2	-0.11216892
167	0xbd28560e	-0.041097693
168	0x3cb448a3	0.022007292
169	0x3df52104	0.11969188
170	0xbc891ff2	-0.016738866
171	0x3e54ecac	0.20793408
172	0xbe081e96	-0.13292918
173	0xbde86a29	-0.113483734
174	0xbdbed4a6	-0.09317903
175	0x3c8d4475	0.017244557
176	0xbc20f27e	-0.00982344
177	0xbe3b5699	-0.18294753
178	0x3b4df350	0.0031425543
179	0x3c10d0ac	0.008838814
180	0x3c4e0251	0.012573794
181	0xbc95b8dc	-0.018276624
182	0x3cb67100	0.02227068
183	0xbe219d0f	-0.1578257
184	0xbcd342d1	-0.025788696
185	0x3b87e3bf	0.0041470225
186	0xbe22dde6	-0.1590496
187	0xbcc69a79	-0.02424358
188	0xbab7db8e	-0.0014027224
189	0x3d4f8fbd	0.05067419
190	0x3df2b55a	0.11850996
191	0xbd5c284a	-0.05374936
192	0xbd8596c9	-0.065229006
193	0x3cf65d82	0.030073885
194	0xbd84518a	-0.06460865
195	0xbdb89c3a	-0.09014173
196	0xbd0b2977	-0.03397509
197	0xbb0bc89d	-0.0021329292
198	0x3e041056	0.12896857
199	0xbdb0e695	-0.0863773
200	0xbdbed7f1	-0.09318531
201	0xbd95cdaf	-0.07314622
202	0x3d21dd0b	0.039517444
203	0x3d936c50	0.07198393
204	0x3e24996b	0.1607415
205	0x3e1e3de3	0.15453295
206	0xbd890ce9	-0.066919155
207	0xbd66019b	-0.056153875
208	0xbd3c6ee4	-0.04600419
209	0xbca4003c	-0.020019643
210	0xbe7c8291	-0.24659182
211	0x3e166ca5	0.14689882
212	0xbde76c71	-0.112999804
213	0x3e8e6d45	0.2781774
214	0xbd358a80	-0.044321537
215	0xbd4868bc	-0.048928007
216	0x3e154dc4	0.14580446
217	0xbdc3e706	-0.095655486
218	0x3d8e2787	0.06941133
219	0x3d21f597	0.039540853
220	0x3b5d4a40	0.003376618
221	0x3c316f68	0.010829784
222	0x3e03f542	0.12886527
223	0xbd8b8d0a	-0.068140104
224	0x3c696c10	0.0142469555
225	0xbd0d3a11	-0.034479205
226	0x3d4542f0	0.04815954
227	0xbd29ede5	-0.04148664
228	0xbd536b38	-0.051615924
229	0xbe8f5489	-0.27994183
230	0x3d16437f	0.036685463
231	0x3ddb87e0	0.107192755
232	0xbdeb44eb	-0.114877544
233	0x3cae549c	0.02128058
234	0x3cf5c979	0.030003296
235	0x3e2c90cf	0.16852115
236	0xbe55cc53	-0.20878725
237	0xbd712cbb	-0.05888055
238	0x3c473e8b	0.0121609075
239	0xbe617d54	-0.22020465
240	0x3dfb6201	0.12274552
241	0x3c620347	0.013794727
242	0x3bceb96f	0.0063087265
243	0x3d99f0f1	0.07516659
244	0x3e4d2eeb	0.20037429
245	0x3d9193ec	0.07108292
246	0xbde4df0d	-0.11175356
247	0xbd90d63d	-0.07072113
248	0x3d8dc27c	0.069218606
249	0x3db3713a	0.08761831
250	0xbbd26786	-0.0064210324
251	0x3cf7d967	0.030255033
252	0xbc8297bf	-0.015941499
253	0x3d351cfd	0.0442171
254	0x3e25ae70	0.16179824
255	0xbe5e2735	-0.21694644

1.layers.1.0.bias f4 [74]
0	0xbd8d9d61	-0.06914783
1	0xbd3db5f3	-0.0463161
2	0xbd2a7150	-0.04161197
3	0xbb82aad7	-0.003987651
4	0xbc8deb23	-0.017324036
5	0xbccf65d9	-0.02531712
6	0xbd1ad2db	-0.037798744
7	0xbd567632	-0.052358814
8	0xbbfe7229	-0.007765074
9	0xbd2e9cef	-0.042630132
10	0xbd89dade	-0.06731199
11	0x39fcc07f	0.00048208606
12	0x39dbcec5	0.0004192499
13	0xbd0c9a11	-0.034326617
14	0xbd137784	-0.03600265
15	0xbd90b131	-0.070650466
16	0xbd771caa	-0.06033007
17	0xbcbc20d6	-0.022964876
18	0xbc80b69d	-0.015712077
19	0xbd268b19	-0.040659998
20	0xbbacdcf0	-0.0052753612
21	0xbd9f48fc	-0.077775925
22	0xbd128e03	-0.035779964
23	0xbcc1a7b2	-0.023639534
24	0x3c05767b	0.008145924
25	0xbd8f1419	-0.06986255
26	0xbc3c589e	-0.011495737
27	0xbd362985	-0.04447319
28	0xbcc61cb5	-0.02418361
29	0xbd03d537	-0.03218576
30	0xbd2a4839	-0.041572783
31	0xbd03f174	-0.03221269
32	0x3bbdd512	0.005793222
33	0xbd422509	-0.0473986
34	0xbcf51436	-0.029916864
35	0xbd99fc65	-0.075188436
36	0xbcafe707	-0.021472467
37	0xbc68be46	-0.014205521
38	0xbc857a33	-0.01629362
39	0xbd206c09	-0.03916553
40	0xbcb10dda	-0.02161305
41	0xbd04e661	-0.03244627
42	0xbd79833e	-0.060916178
43	0xbda1334b	-0.078711115
44	0xbcfc8921	-0.030827107
45	0xbd96b574	-0.07358828
46	0xbc4665ff	-0.012109279
47	0xbd80fb0f	-0.062978856
48	0xbceba4f8	-0.028765187
49	0xbd027c3f	-0.03185677
50	0xbd1797c7	-0.03700998
51	0xbd9c0d09	-0.07619674
52	0xbd85ed31	-0.06539381
53	0xbd1d9540	-0.038472414
54	0xbc9ae42f	-0.018907635
55	0xbd2e7e44	-0.042600885
56	0xbc618fbf	-0.013767182
57	0xbd02a6ac	-0.031897232
58	0xbd51128c	-0.05104308
59	0xbc209c83	-0.00980294
60	0xbd18593d	-0.03719448
61	0xbcbac453	-0.022798693
62	0xbcb4cd40	-0.022070527
63	0xbccbfe96	-0.02490167
64	0xbc68b297	-0.014202735
65	0xbd4690b5	-0.048477847
66	0xbc164058	-0.009170614
67	0xbd036cdb	-0.032086235
68	0xbd52c1f2	-0.051454492
69	0xbd04a05f	-0.032379504
70	0xbd267949	-0.04064301
71	0xbcb5b22e	-0.02217969
72	0xbcf16f29	-0.02947195
73	0xbcab6b68	-0.020925239

1.layers.2.0.weight f4 [74, 222]
0	0x3db4f2a1	0.0883534
1	0x3da60530	0.08106458
2	0x3e03eb24	0.12882668
3	0x3db11ec7	0.086484484
4	0x3e887195	0.26649156
5	0xbd950ed5	-0.072782196
6	0xbe02702b	-0.12738101
7	0xbcef36d6	-0.029200953
8	0x3e64eff9	0.22357167
9	0x3d657bff	0.056026455
10	0x3e102cb3	0.14079551
11	0xbd90a791	-0.07063211
12	0xbdd5e974	-0.10444918
13	0xbab6f487	-0.0013958373
14	0xbe10ce36	-0.14141163
15	0xbdba5990	-0.09099114
16	0xbe43fb67	-0.19138871
17	0xbdb80576	-0.089854166
18	0x3da06f99	0.078337856
19	0x3b99d244	0.004694255
20	0xbda0d137	-0.078524046
21	0xbd603010	-0.054733336
22	0xbdbd0366	-0.09229164
23	0x3d31578e	0.04329639
24	0x3e441427	0.19148313
25	0x3dc784ba	0.097421125
26	0x3d2b9779	0.041892502
27	0x3db8e496	0.09027974
28	0xbd724aae	-0.05915325
29	0xbdba0731	-0.09083403
30	0xbd5c5e06	-0.053800605
31	0xbd0444e2	-0.032292254
32	0xbc37bb40	-0.0112140775
33	0xbcbad243	-0.022805339
34	0xbe0d3f00	-0.13793564
35	0xbcef4dd6	-0.02921192
36	0x3dae9633	0.08524742
37	0xbb1b5685	-0.0023702693
38	0x3e77bd16	0.24193224
39	0xbd068055	-0.03283723
40	0xbe58b5d6	-0.21163115
41	0x3e10a4d7	0.14125381
42	0xbcacc61f	-0.021090565
43	0x3be04369	0.0068439734
44	0x3de5e6f6	0.11225693
45	0x3d5328a5	0.051552434
46	0x3e18fd07	0.14940272
47	0x3d34b292	0.04411561
48	0xbdf0cab8	-0.117574155
49	0xbe08e962	-0.13370278
50	0x3e242bec	0.1603238
51	0xbdefec4e	-0.117149934
52	0x3e20b75f	0.1569495
53	0x3d7e8d05	0.062146205
54	0x3df86a0f	0.12129604
55	0xbd14efa9	-0.03636137
56	0xbd7da8c9	-0.061928544
57	0xbd660d98	-0.056165308
58	0xbd977609	-0.0739556
59	0xbd00acc0	-0.031414747
60	0xbde632a6	-0.11240129
61	0x3dd99c92	0.106255665
62	0xbd4a7659	-0.04942927
63	0xbdb709e1	-0.08937431
64	0xbb728fcd	-0.0037011981
65	0xbdf9fc41	-0.12206317
66	0x3e08608e	0.13318083
67	0xbd516718	-0.05112371
68	0x3e562cfb	0.20915596
69	0xbcb97dc8	-0.022642985
70	0xbe86e22f	-0.2634444
71	0xbe570274	-0.2099703
72	0xbde1f0d6	-0.11032264
73	0xbd3aae66	-0.045576476
74	0xbdb0d1ba	-0.08633752
75	0x3e18f33c	0.14936537
76	0xbdb27099	-0.087128825
77	0xbc56b162	-0.013103815
78	0xbdecfa1c	-0.11571142
79	0xbe5178a1	-0.20456173
80	0x3dd86a27	0.10567122
81	0x3b8365c1	0.0040099327
82	0x3d312e53	0.04325707
83	0x3d21b656	0.03948053
84	0xbd4d3284	-0.050097004
85	0x3b243f6e	0.002506222
86	0xbd3f0797	-0.046638098
87	0xbd533edf	-0.05157363
88	0x3dcf577c	0.10124108
89	0xbd6c521d	-0.057695497
90	0xbdd62aa7	-0.10457354
91	0x3e2be041	0.16784765
92	0xbd403b1f	-0.046931382
93	0xbdb55f7b	-0.08856102
94	0x3d389c66	0.04507103
95	0xbcfaf2bf	-0.030633328
96	0x3c9efb67	0.019406987
97	0x3d7acdf2	0.06123156
98	0x3dac48da	0.08412333
99	0x3c8f5c63	0.017500108
100	0x3e557ea0	0.20849085
101	0x39280b3e	0.00016025917
102	0x3dc77545	0.09739164
103	0xbe54ac44	-0.20768839
104	0x3e330657	0.17482887
105	0x3e50a6e8	0.2037617
106	0xbd05f6e2	-0.03270615
107	0xbd736fb3	-0.059432697
108	0x3e0818a6	0.13290653
109	0xbe4582ab	-0.19288127
110	0xbdeb75a6	-0.11497049
111	0xbcbb38fa	-0.022854317
112	0xbdeeb37b	-0.11655327
113	0x3bce2ce5	0.006291973
114	0xbd85aea9	-0.065274544
115	0xbd4af78f	-0.049552497
116	0x3dd0105b	0.101593696
117	0x3bfee58e	0.00777883
118	0xbc5bf15e	-0.013424246
119	0xbdbb250f	-0.09137928
120	0xbd82c981	-0.0638609
121	0x3e1c495b	0.15262358
122	0xbc459a59	-0.012060725
123	0x3e09f96f	0.13474058
124	0x3e52bc38	0.20579612
125	0x3d60b898	0.054863542
126	0x3d85e6ed	0.06538186
127	0x3d744e75	0.059645135
128	0x3e07c686	0.13259324
129	0xbe031a84	-0.12803084
130	0x3e7a0a36	0.24417958
131	0xbe0e5770	-0.13900542
132	0xbe45f816	-0.19332919
133	0xbe0878f3	-0.13327388
134	0xbdd8f3fb	-0.105934106
135	0x3c6cebf6	0.014460554
136	0x3e060ed9	0.13091601
137	0x3e595202	0.2122269
138	0xbdc7176a	-0.09721263
139	0xbd8223c3	-0.06354477
140	0x3e0557f9	0.1302184
141	0xbd864e4c	-0.06557903
142	0xbddfa92a	-0.10920937
143	0xbe0f0dfe	-0.13970181
144	0xbd95fe2b	-0.07323869
145	0xbd73fb66	-0.059565924
146	0x3dbac2f7	0.09119218
147	0x3dfdd4ef	0.123941295
148	0xbd20cb4e	-0.039256386
149	0xbbb8de53	-0.0056417375
150	0x3d2011ed	0.039079595
151	0xbdd202e7	-0.1025446
152	0x3d3f1242	0.04664827
153	0xbe1551d2	-0.14581993
154	0x3e3d9ade	0.18516108
155	0xbd50361b	-0.05083285
156	0x3dadbf97	0.084838085
157	0xbd9cb4bb	-0.07651659
158	0x3e138f05	0.14410026
159	0xbe849600	-0.2589569
160	0x3db04823	0.08607509
161	0x3eb61a0f	0.35566756
162	0x3d6cb1f2	0.05778689
163	0xbdf56f32	-0.119840994
164	0x3e1d5884	0.15365797
165	0xbe05daf3	-0.13071804
166	0xbca48bd6	-0.02008621
167	0xbd133c62	-0.035946257
168	0x3da26874	0.07930079
169	0xbe4d25f5	-0.2003401
170	0x3d144049	0.03619412
171	0x3da4698c	0.08027944
172	0x3daa0baa	0.08303006
173	0x3d9f9a07	0.0779305
174	0xbe9114be	-0.28336138
175	0x3dbc077a	0.091811135
176	0xbda1f25f	-0.07907557
177	0xbdb00b76	-0.08595936
178	0x3d763922	0.06011308
179	0x3e2d4da4	0.16924149
180	0xbc65f09e	-0.014034418
181	0x3cf1f1f6	0.029534321
182	0x3bc9c559	0.006157559
183	0xbc8992ba	-0.016793597
184	0xbc664d5e	-0.014056532
185	0xbde68eb4	-0.11257687
186	0xbbe377a4	-0.0069417525
187	0xbd85c9ca	-0.06532629
188	0xbde52e89	-0.111905165
189	0xbcdedfa6	-0.027206253
190	0xbe35d1a7	-0.17755757
191	0x3deffcc0	0.1171813
192	0x3d97e8d2	0.07417454
193	0x3ddff992	0.10936274
194	0xbdd91ab3	-0.106007956
195	0x3d1d1838	0.038353175
196	0xbdb8e4d8	-0.090280235
197	0x3d991300	0.07474327
198	0x3defea5c	0.117146224
199	0xbc792d4f	-0.015208556
200	0x3cfd331d	0.030908162
201	0xbd9f46dc	-0.07777187
202	0x3df45cc2	0.11931755
203	0x3a01fe02	0.00049588096
204	0xbd417b70	-0.04723686
205	0x3e04f620	0.12984514
206	0xbd1169c8	-0.03550127
207	0xbd919330	-0.07108152
208	0x3c422c7f	0.011851429
209	0x3e0e7406	0.13911447
210	0xbce9d544	-0.028544076
211	0x3d0a39e5	0.03374662
212	0xbd7c6c5a	-0.06162677
213	0x3bdade38	0.0066793226
214	0xbdeb7b1c	-0.114980906
215	0x3bea827f	0.0071566696
216	0x3dca7d98	0.09887236
217	0x3d069e1c	0.03286563
218	0x3ce3e889	0.027820842
219	0x3e0a50fe	0.13507459
220	0xbce721db	-0.028214386
221	0x3bb44d66	0.0055023907
222	0x3cdff6e4	0.027339406
223	0xbd76829a	-0.060183145
224	0xbda45831	-0.08024634
225	0x3dbf276a	0.093336895
226	0xbc25e655	-0.010125716
227	0x3ca995f7	0.020701392
228	0x3e10bd83	0.14134793
229	0x3e29e8e4	0.16592747
230	0xbdca5854	-0.098801285
231	0xbdc1d6d9	-0.09464807
232	0x3e258766	0.16164932
233	0xbc990dd9	-0.01868336
234	0x3db006f8	0.08595079
235	0x3d9593f4	0.073036104
236	0xbdf3ff12	-0.11913885
237	0x3e29b3a2	0.1657243
238	0xbe236f8a	-0.15960518
239	0xbd93b23b	-0.07211729
240	0x3e23404b	0.15942495
241	0x3dcef482	0.1010523
242	0xbccec796	-0.025241654
243	0xbdb83fd2	-0.08996548
244	0xbe185101	-0.1487465
245	0x3b478536	0.003044439
246	0x3ce9be10	0.028533012
247	0xbdad01ce	-0.0844761
248	0xbe2ca828	-0.16861022
249	0xbd76d642	-0.060262926
250	0xbcf84dbe	-0.030310508
251	0xbdce09d4	-0.10060468
252	0xbe1ad577	-0.15120493
253	0x3dcf9be7	0.10137158
254	0xbdb2e45c	-0.08734962
255	0x3db230af	0.08700692

1.layers.2.0.bias f4 [74]
0	0xbcd04e7b	-0.025428047
1	0xbd09e6e8	-0.033667475
2	0xbcb03826	-0.021511149
3	0xbcf34011	-0.029693635
4	0xbcd260d9	-0.025680946
5	0xbd27e33b	-0.04098819
6	0xbc238241	-0.009979785
7	0xbd169416	-0.03676232
8	0xbcf1ffa3	-0.029540842
9	0xbcc190d9	-0.023628639
10	0xbc7188ab	-0.014742057
11	0xbd07af18	-0.033125967
12	0xbd13ada4	-0.03605427
13	0xbcf6dcc3	-0.030134564
14	0xbbb49a7c	-0.00551158
15	0xbd853b1b	-0.06505414
16	0xbcd636c3	-0.02614916
17	0xbbd1fbe5	-0.006408202
18	0xbc9f9596	-0.019480508
19	0xbcbefa5c	-0.02331274
20	0xbca3617f	-0.01994395
21	0xbd41c909	-0.047310863
22	0xbcebc171	-0.028778763
23	0xbd5e45d5	-0.054265816
24	0xbd415d2f	-0.047208007
25	0xbd7885cb	-0.06067447
26	0xbbe154e9	-0.006876577
27	0xbd093b69	-0.033503924
28	0xbd26a7a1	-0.040687207
29	0xbca01fe5	-0.019546458
30	0xbd141ac6	-0.036158346
31	0xbc6c4cd3	-0.014422613
32	0xbce1223b	-0.027482143
33	0xbd217cae	-0.039425544
34	0xbd2e119a	-0.042497255
35	0xbd4b6443	-0.049656164
36	0xbd51cbed	-0.05121987
37	0x3c85e7e4	0.016345926
38	0xbd7dc736	-0.06195756
39	0xbd3d1b04	-0.046168342
40	0xbcec29d5	-0.02882854
41	0xbd7edbba	-0.062221266
42	0xbc5a3054	-0.013317186
43	0xbd5bc85d	-0.05365788
44	0xbce5180e	-0.027965572
45	0xbd49d1b2	-0.049272247
46	0xbc88d6e0	-0.016704023
47	0xbd315082	-0.04328967
48	0xbd8eae82	-0.069668785
49	0xbbd69241	-0.0065481965
50	0xbd013ef6	-0.031554185
51	0x3b899331	0.004198455
52	0xbd48965e	-0.048971526
53	0xbd7e9d80	-0.062161922
54	0xbc1a6557	-0.009423575
55	0xbd9a8992	-0.07545771
56	0xbd04067e	-0.032232754
57	0xbd1ac94f	-0.03778964
58	0xbd9b679f	-0.075881235
59	0xbcf194a4	-0.029489823
60	0xbd2e7e38	-0.04260084
61	0xbd82cf2f	-0.063871734
62	0xbda29992	-0.079394475
63	0xbcedb434	-0.029016592
64	0xbcdda2f8	-0.027055249
65	0xbc97e072	-0.018539641
66	0xbc9f3063	-0.019432252
67	0xbd808b44	-0.06276563
68	0xbd58a0a6	-0.05288758
69	0xbd0b4f82	-0.03401137
70	0xbdb7325f	-0.089451544
71	0xbbb59e1f	-0.005542531
72	0xbd565a74	-0.052332357
73	0xbd0aabde	-0.03385531

1.layers.3.0.weight f4 [74, 296]
0	0x3d753a4c	0.05987005
1	0x3d0e7507	0.034779575
2	0xbe161df6	-0.14659867
3	0x3e295a59	0.16538371
4	0xbd7bf6af	-0.061514553
5	0xbdcfab5a	-0.101401046
6	0x3d2eddd3	0.042692017
7	0xbc956085	-0.0182345
8	0xbe06067a	-0.13088408
9	0x3dcb05fb	0.0991325
10	0xbe3c6ea1	-0.18401577
11	0xbdfba971	-0.12288178
12	0xbe05f1aa	-0.13080469
13	0x3cece091	0.028915675
14	0x3ccb35e0	0.024805963
15	0xbdd4629e	-0.10370372
16	0xbd70f69b	-0.05882893
17	0x3c889c4e	0.016676094
18	0xbc676e92	-0.014125483
19	0xbe1af993	-0.15134268
20	0xbd9ee082	-0.07757665
21	0x3cb45583	0.022013431
22	0xbd9b3688	-0.075787604
23	0x3e19a180	0.15003014
24	0xbe1f53fa	-0.15559378
25	0xbd07cffb	-0.03315733
26	0xbc9c81b6	-0.01910482
27	0x3cb35d62	0.021895114
28	0xbda86308	-0.08222014
29	0xbe070fbb	-0.13189594
30	0xbe4c5953	-0.1995595
31	0xbac4f45d	-0.0015026439
32	0xbe11f3db	-0.1425318
33	0x3db177ba	0.08665414
34	0x3cf8db50	0.030378014
35	0x3d3e01e3	0.046388518
36	0xbdaee16d	-0.0853909
37	0x3e08ebbd	0.13371177
38	0xbdb2f232	-0.08737601
39	0xbd4707ad	-0.048591305
40	0x3dc02c30	0.09383428
41	0xbcbabe80	-0.022795916
42	0x3c03e47e	0.008050082
43	0xbd1530e2	-0.03642357
44	0xbcb4d09e	-0.022072133
45	0x3d4e0ab2	0.05030317
46	0xbde33e5f	-0.11095881
47	0xbce8e470	-0.02842924
48	0xbd5be255	-0.053682644
49	0x3da6c5ad	0.081431724
50	0xbd78aedc	-0.060713634
51	0xbd2c4f8f	-0.04206806
52	0xbdf07811	-0.11741651
53	0xbd3f3218	-0.046678632
54	0x3d4f7e14	0.050657347
55	0x3cb1decf	0.021712689
56	0xbe0b9eee	-0.13634846
57	0xbe2d0860	-0.16897726
58	0x3cd5b275	0.026086072
59	0x3d135f23	0.0359794
60	0xbd296ee5	-0.041365523
61	0xbc012ec4	-0.007884685
62	0xbe30198b	-0.17197244
63	0xbd0fb220	-0.035081983
64	0xbe1b6e99	-0.15178908
65	0x3c968f95	0.018379012
66	0x3bc49554	0.0059992466
67	0x3d0ef56a	0.034902014
68	0x3df70201	0.12060929
69	0xbdf14a14	-0.117817074
70	0x3caefaad	0.021359766
71	0xbdc9415e	-0.09826921
72	0x3c24e439	0.010064178
73	0xbbe9b4b8	-0.007132139
74	0xbdc5346b	-0.096291386
75	0xbe045969	-0.12924732
76	0x3b4fc8dc	0.0031705415
77	0x3caa922e	0.020821657
78	0xbe0143af	-0.12623475
79	0x3d282548	0.04105118
80	0x3d12bd1b	0.035824876
81	0x3d67b8a8	0.056572586
82	0xbd4f593f	-0.05062222
83	0x3d09a279	0.03360221
84	0x3cb41e3a	0.02198707
85	0xbd56de68	-0.052458197
86	0x3dde59df	0.10856985
87	0xbda5b621	-0.08091379
88	0xbc0b1094	-0.008487839
89	0x3dd6ddf8	0.10491556
90	0x3da298f2	0.07939328
91	0xbd7a3f33	-0.061095428
92	0x3c750814	0.014955539
93	0xbca8fcd0	-0.020628363
94	0xbc533a11	-0.012892262
95	0xbde3e9da	-0.11128588
96	0x3bd2baf0	0.006430976
97	0xbc1bfccb	-0.00952072
98	0x3c37d8d5	0.01122113
99	0xbd46eb5f	-0.04856431
100	0x3d439da8	0.047757775
101	0xbd01c1db	-0.031679016
102	0x3d16dfd9	0.03683457
103	0x3bfe1eb5	0.0077551254
104	0xbd90d2fd	-0.07071493
105	0x399f1635	0.0003034339
106	0x3c805fc8	0.015670672
107	0xbe19f5a7	-0.15035115
108	0x3cb11ed5	0.021621147
109	0x3e27b887	0.16378985
110	0x3c5a806e	0.013336284
111	0xbd895669	-0.067059346
112	0xbddab9da	-0.106799796
113	0xbda360c4	-0.07977441
114	0xbe08f71e	-0.13375518
115	0xbcdba1b5	-0.026810506
116	0x3cea3097	0.028587623
117	0x3de602fa	0.112310365
118	0xbd07b752	-0.033133812
119	0x3d98aa3e	0.07454346
120	0x3dcc5f7a	0.09979148
121	0xba865ebc	-0.0010251622
122	0x3d9556b8	0.07291931
123	0xbdd77a57	-0.10521381
124	0xbdc95e44	-0.09832433
125	0xbd6b9e05	-0.057523746
126	0xbe020c9e	-0.12700126
127	0x3d376c76	0.04478117
128	0x3dd10945	0.10206846
129	0xbdbf074d	-0.093275644
130	0x3d4746ec	0.04865162
131	0x3c450cd5	0.012026985
132	0x3c913f80	0.017730474
133	0xbdd00f82	-0.10159208
134	0xbc42f2f2	-0.011898743
135	0xbbc67631	-0.00605657
136	0xbd1bfc2d	-0.03808229
137	0x3d16e5dd	0.03684031
138	0x3dba3b94	0.09093395
139	0xbd855a7e	-0.06511401
140	0xbb25f84e	-0.0025325003
141	0xbbec96ab	-0.0072201095
142	0x3c9a1671	0.018809529
143	0xbd1041aa	-0.035218872
144	0xbd5f37e7	-0.054496672
145	0xbe1bfa4e	-0.15232202
146	0x3dbea7b9	0.09309334
147	0x3d53b05c	0.05168186
148	0x3c598e3b	0.013278539
149	0xbc97c271	-0.018525334
150	0x3cfdff7a	0.03100561
151	0xbd7c2ffd	-0.061569203
152	0xbdab9636	-0.0837826
153	0xbcd5002e	-0.026001062
154	0xbdffd8a5	-0.124924935
155	0xbd631b3c	-0.055445895
156	0x3c6afb54	0.014342148
157	0x3db798bc	0.08964679
158	0x3d118a93	0.035532545
159	0xbe1f461b	-0.15554087
160	0x3c402617	0.011727831
161	0x3d3b93e5	0.04579534
162	0xbdbb8380	-0.09155941
163	0x3c8217ae	0.015880432
164	0xbd8230b6	-0.06356947
165	0x3b1c444f	0.0023844426
166	0x3d11c3fa	0.03558729
167	0x3cc48faa	0.023994286
168	0xbdc6bb48	-0.0970369
169	0xbddc9a25	-0.10771588
170	0xbd023958	-0.03179297
171	0x3d3618a6	0.0444571
172	0xbcafd4ee	-0.021463837
173	0xbd7db332	-0.061938472
174	0x3d24909c	0.040176973
175	0x3d3f51f8	0.04670903
176	0x3d626050	0.055267632
177	0x3e11cecb	0.14239042
178	0xbc08d14b	-0.008350681
179	0x3bf9422b	0.007606765
180	0x3ca9fa95	0.02074937
181	0x3dc25cd3	0.09490361
182	0xbc2ae67f	-0.010430931
183	0xbe1c68d0	-0.15274358
184	0xbe23769f	-0.15963219
185	0x3e05fba7	0.13084279
186	0xbd9c4ad8	-0.07631463
187	0xbd6e5f93	-0.058196615
188	0xbcc3bbd0	-0.023893267
189	0x3c720431	0.014771507
190	0xbc9e70db	-0.019340923
191	0x3c0eb90e	0.008711113
192	0x3bc11eb6	0.0058935536
193	0xbe1333d7	-0.14375244
194	0x3c2dd167	0.010609007
195	0xbda7eb23	-0.08199146
196	0xbda23013	-0.07919326
197	0x3daa70fd	0.08322332
198	0x3e1a7513	0.15083723
199	0x3dff73ed	0.12473283
200	0xbe24dcde	-0.16099879
201	0x3daf3476	0.08554928
202	0xbe4fed30	-0.20305324
203	0xbd8baf0a	-0.068204954
204	0x3b7804bf	0.0037844626
205	0x3c72b2a2	0.014813097
206	0xbe01a4fd	-0.12660594
207	0xbd5404a3	-0.051762234
208	0xbd45400c	-0.048156783
209	0x3cc84faa	0.02445205
210	0xbe3a583e	-0.18197724
211	0x3c83fe72	0.01611254
212	0x3d03548f	0.032063063
213	0xbd27abe4	-0.040935412
214	0x3d5351f1	0.051591817
215	0xbcf40a0b	-0.029789945
216	0xbde74b54	-0.112936646
217	0x3db0e7a4	0.08637932
218	0xbc2526a7	-0.010080016
219	0x3cb1a2a8	0.021684006
220	0xbcf8c78b	-0.030368587
221	0x3bf5079d	0.007477714
222	0xbe777c34	-0.24168473
223	0x3e1be17d	0.15222736
224	0xbc0a2d6f	-0.008433684
225	0xbcfff6bd	-0.031245584
226	0x3d624c03	0.05524827
227	0xbe53dc61	-0.20689537
228	0xbc4463d7	-0.011986694
229	0xbd85117a	-0.06497474
230	0xbc6cf77d	-0.014463303
231	0x3daec5d2	0.08533825
232	0xbace945d	-0.0015760768
233	0x3df8a385	0.12140564
234	0xbe11a303	-0.1422234
235	0xbdbee12d	-0.093202926
236	0x3d997288	0.07492548
237	0x3ddb9ee6	0.10723667
238	0x3d6519b0	0.0559327
239	0x3d30412f	0.043030914
240	0xbc5cb123	-0.013469967
241	0x3d0296f1	0.03188223
242	0xbdc92a83	-0.098225616
243	0x3e1e6208	0.15467083
244	0x3e12d326	0.14338359
245	0xbe4e978d	-0.20175
246	0xbde62f08	-0.11239439
247	0x3cef40ca	0.029205699
248	0xbde6a6ec	-0.112623066
249	0x3dddda21	0.108326204
250	0x3d839660	0.06425166
251	0x3d6b770b	0.057486575
252	0xbd2396a6	-0.03993859
253	0x3db3fffe	0.08789061
254	0xbda215cc	-0.07914314
255	0x3ca2f010	0.019889861

1.layers.3.0.bias f4 [74]
0	0xbc0c417b	-0.008560534
1	0xbcfbbd85	-0.030730018
2	0xbd9921e7	-0.074771695
3	0xbc46fe83	-0.012145641
4	0xbdc33cb1	-0.0953306
5	0xbd52b813	-0.051445078
6	0xbc9060ee	-0.017624345
7	0xbcdc25e6	-0.02687354
8	0xbd28e146	-0.041230462
9	0xbd184997	-0.037179556
10	0xbb11daf3	-0.0022255748
11	0xbc0d07e0	-0.008607835
12	0xbc9b2362	-0.01893777
13	0xbd8732df	-0.066015
14	0xbc27bd26	-0.010237968
15	0xbd89f631	-0.067364104
16	0xbd14fd5f	-0.036374446
17	0xbcbff99c	-0.023434453
18	0xbcfac025	-0.0306092
19	0xbd229cde	-0.03970038
20	0xbc6c4943	-0.014421764
21	0xbd53258b	-0.051549476
22	0xbce402a4	-0.02783329
23	0xbc83783d	-0.016048545
24	0xbcd42a7b	-0.025899163
25	0xbd91f552	-0.07126869
26	0xbcf7ea8c	-0.030263208
27	0x3ba06392	0.004894682
28	0xbd8c3aa7	-0.068471245
29	0xbd0426da	-0.032263614
30	0xbd387b68	-0.045039564
31	0xbcfa63b5	-0.030565122
32	0xbc7bc412	-0.015366571
33	0x3b557070	0.0032568239
34	0xbc68d497	-0.014210842
35	0x3c042051	0.008064345
36	0x3c0228f1	0.0079443315
37	0xbc861832	-0.01636896
38	0xbd1473a7	-0.036243107
39	0xbd0dd6ba	-0.034628607
40	0xbd87f0f3	-0.06637754
41	0xbcf1a64e	-0.029498246
42	0xbca1f98b	-0.019772312
43	0xbcb347d9	-0.021884846
44	0xbd076b6e	-0.033061437
45	0xbc12aa03	-0.008951667
46	0xbd456a07	-0.04819682
47	0xbcd7355d	-0.026270563
48	0xbd0321cb	-0.03201465
49	0xbd13734d	-0.03599863
50	0xbcdf5a6e	-0.0272648
51	0xbcb1a152	-0.021683369
52	0xbcbfacf4	-0.0233979
53	0xbca2384e	-0.019802239
54	0xbceb7c39	-0.028745757
55	0xbd010601	-0.031499866
56	0xbd7a64ae	-0.061131172
57	0xbd1fa32b	-0.03897397
58	0xbca40cad	-0.020025576
59	0xbcb3c3ae	-0.021943893
60	0x3b43fbcd	0.0029904724
61	0xbd8d3189	-0.06894214
62	0xbd33fcdb	-0.043942314
63	0xbcf9b33b	-0.030480972
64	0xbbc2e093	-0.0059471815
65	0xbd315450	-0.043293297
66	0xbccf018f	-0.025269298
67	0xbcb5e869	-0.022205548
68	0xbcde6d9e	-0.027151879
69	0xbcf1b8f2	-0.029507134
70	0xbd0d855e	-0.034551017
71	0xbd2a10f4	-0.041520074
72	0xbd00e978	-0.031472653
73	0xbcad76c5	-0.021174798

1.layers.4.0.weight f4 [74, 370]
0	0x3d4e4d46	0.050366662
1	0xbd2986fb	-0.041388493
2	0x3d1b9276	0.037981473
3	0xbd151a34	-0.036401942
4	0x3d371bac	0.044704124
5	0x3a5aaa18	0.0008341386
6	0xbd54ed68	-0.05198422
7	0x3d7f2d58	0.062299103
8	0xbca83930	-0.020535082
9	0xbbde84c8	-0.006790731
10	0x3d4aaa45	0.049478788
11	0x3dd257f2	0.102706805
12	0xbdb7dd08	-0.08977705
13	0x3df444b8	0.119271696
14	0x3af6a956	0.0018818777
15	0xbe666eac	-0.22503155
16	0xbd0070be	-0.03135752
17	0x3d147538	0.0362446
18	0xbe54c13a	-0.20776835
19	0xbd04e0b6	-0.032440864
20	0xbc835bf7	-0.016035063
21	0xbd115924	-0.0354854
22	0xbd4f7b00	-0.05065441
23	0x3dd9ed83	0.10641005
24	0xbc2c9954	-0.010534603
25	0xbddc9b80	-0.10771847
26	0xbe1a925a	-0.15094891
27	0x3e3d8295	0.18506844
28	0xbe0893d0	-0.13337636
29	0xbd25b9d3	-0.04046042
30	0x3a3e7285	0.00072649895
31	0x3c3d69f3	0.011560905
32	0x3e4c5f5f	0.19958256
33	0xbd8fc6f6	-0.07020371
34	0x3db27b5a	0.08714934
35	0xbd82c4fe	-0.063852295
36	0x3c418e84	0.0118137635
37	0x3e02cb08	0.12772763
38	0xbd1ff364	-0.039050475
39	0x3bdfee66	0.006833839
40	0xbe9fc3e1	-0.3120413
41	0xbdbb8114	-0.09155479
42	0xbd8ed8b6	-0.06974928
43	0x3dfc94b9	0.12333054
44	0x3df593f0	0.119911075
45	0x3dd2b676	0.10288708
46	0xbe17cc6c	-0.14824075
47	0xbdf6c9a2	-0.12050177
48	0xbd10b93d	-0.035332907
49	0xbca2e05e	-0.019882377
50	0xbdc82b19	-0.09773845
51	0xbd23d982	-0.040002353
52	0xbd07f31b	-0.033190828
53	0xbdc461c8	-0.09588963
54	0xbd4872d7	-0.048937645
55	0xbde79c88	-0.11309153
56	0xbe0c258a	-0.13686195
57	0xbd1414ae	-0.036152534
58	0x3d001de3	0.031278502
59	0x3cbc040c	0.022951148
60	0xbd2fdf93	-0.042937826
61	0xbd1499e1	-0.036279563
62	0xbcd6add2	-0.02620593
63	0x3bf44255	0.0074541965
64	0x3cb33c36	0.021879297
65	0xbd3be19b	-0.04586945
66	0x3b3b88ce	0.0028615477
67	0xbd1d1f7e	-0.03836011
68	0x3c1812f7	0.009281865
69	0xbcafd41b	-0.021463444
70	0x3d220897	0.039558973
71	0xbde052ae	-0.1095327
72	0x3d560f83	0.052260887
73	0xbe1068a8	-0.14102423
74	0xbdfaff3e	-0.12255715
75	0xbde6d75c	-0.11271545
76	0xbe3e8eb4	-0.18609124
77	0x3d2740d1	0.040833298
78	0x3d7e289e	0.062050454
79	0xbe0295aa	-0.12752405
80	0x3da8c288	0.08240229
81	0x3e0beff6	0.13665757
82	0xbd5774b4	-0.05260153
83	0x3d904e61	0.070461996
84	0xbe0ff173	-0.1405695
85	0xbd0402f8	-0.032229394
86	0xba68b3ed	-0.00088769087
87	0xbc9bfa24	-0.019040175
88	0x3d3a906f	0.0455479
89	0x3d57a144	0.05264403
90	0xbccecc43	-0.025243884
91	0x3dfb3c20	0.12267327
92	0xbd99a15b	-0.07501479
93	0xbcac56ec	-0.021037541
94	0xbdd346c8	-0.10316235
95	0x3d0d5ca0	0.034512162
96	0xbd4518a6	-0.04811921
97	0xbd480d76	-0.048840962
98	0xbd869f96	-0.06573407
99	0x3d05925a	0.032610275
100	0x3daee478	0.08539671
101	0xbccfa623	-0.025347775
102	0xbd4a7b6c	-0.04943411
103	0xbdedc344	-0.116095096
104	0xbcf5745c	-0.029962711
105	0xbdcd1803	-0.100143455
106	0xbcf91cfc	-0.030409329
107	0x3d81c0eb	0.06335624
108	0xbd040c1b	-0.032238107
109	0x3dd5b6af	0.10435235
110	0xbdd823c7	-0.10553699
111	0xbcd4856e	-0.02594253
112	0xbd8a533b	-0.06754156
113	0xbde3fcd1	-0.11132205
114	0x3be20c7f	0.0068984623
115	0x3c9c37a4	0.0190695
116	0xbe2465f5	-0.16054519
117	0x3c1103b5	0.0088509815
118	0x3c0245fe	0.007951258
119	0xbddf8137	-0.10913318
120	0x3d99701a	0.07492085
121	0x3c07671c	0.008264329
122	0xbd77b673	-0.06047673
123	0x3da80970	0.08204925
124	0x3d5ca2e2	0.053866275
125	0x3d24150a	0.040059127
126	0xbded8197	-0.11596983
127	0xbbaa1edb	-0.0051916665
128	0xbc90a2c4	-0.017655738
129	0xbe3f897b	-0.18704788
130	0x3d0ee41d	0.034885515
131	0xbd2732c4	-0.0408199
132	0xbd24080c	-0.040046737
133	0xbd463c2b	-0.048397224
134	0x3cf96576	0.030443888
135	0x3d12220a	0.035676993
136	0xbdac2497	-0.084054165
137	0x3d3a2eb2	0.04545469
138	0xbe27b57f	-0.16377829
139	0xbd665ce9	-0.05624095
140	0x3c3fc3ec	0.011704426
141	0xbd2d2426	-0.042270802
142	0xbc76b003	-0.015056613
143	0xbd3fbe77	-0.0468125
144	0xbbba4779	-0.0056847897
145	0xbd24f15b	-0.040269237
146	0xbd496dac	-0.049176857
147	0x3cd314d6	0.025766771
148	0x3c2761e6	0.010216212
149	0x3bc2a659	0.0059402403
150	0x3ce92791	0.02846125
151	0xbd1d42ac	-0.03839366
152	0x3c559bca	0.013037631
153	0x3dac348e	0.084084615
154	0x3d94fc97	0.0727474
155	0xbe14b8d5	-0.14523633
156	0xbc997a3d	-0.018735046
157	0x3db60b99	0.08888931
158	0xbe4ffd33	-0.20311432
159	0x3d2abec0	0.04168582
160	0xbdc80661	-0.09766842
161	0x3ca11969	0.019665437
162	0xbd213420	-0.03935635
163	0x3d6b663a	0.057470538
164	0x3cd2a3ed	0.025712932
165	0xbd2ab3a2	-0.041675217
166	0xbd0a12f8	-0.033709496
167	0x3d47827c	0.048708424
168	0x3d4b1770	0.0495829
169	0x3d6b44d3	0.057438683
170	0x3de5558e	0.11197959
171	0xbd3b516b	-0.045731943
172	0x3ccb9562	0.024851505
173	0xbd900645	-0.07032446
174	0xbda68daf	-0.08132493
175	0xbe44cd39	-0.19218911
176	0xbe0be7d3	-0.13662653
177	0xbcae72d0	-0.021294981
178	0xbd76c042	-0.060241945
179	0x3dda1379	0.10648245
180	0x3da79292	0.08182253
181	0xbd922d31	-0.07137526
182	0xbd236b3c	-0.03989719
183	0xbe110bdc	-0.1416468
184	0x3d0916f6	0.033469163
185	0xbcf247f3	-0.029575324
186	0x3c0e86c6	0.008699125
187	0xbc8e4f0e	-0.01737168
188	0xbd26f0b8	-0.04075691
189	0x3e1f947f	0.1558399
190	0xbe5c6be1	-0.21525528
191	0x3d5caa0a	0.0538731
192	0xbb68a3a9	-0.003549794
193	0x3d2bcb1f	0.04194176
194	0xbd65216b	-0.055940073
195	0xbc66ecde	-0.0140945595
196	0x3b27e73a	0.002562
197	0x3c58da61	0.013235659
198	0x3a8bf311	0.0010677298
199	0x3e673efa	0.22582617
200	0x3e172da4	0.14763504
201	0x3dfa5772	0.1222371
202	0x3d8fed87	0.070277266
203	0xbd88671c	-0.066602916
204	0x3ddcf817	0.10789507
205	0xbe3863c2	-0.18006805
206	0x3e761b13	0.24033765
207	0x3da0cd15	0.07851616
208	0x3d68fef3	0.056883764
209	0xbde0f6ca	-0.10984571
210	0xbd68805a	-0.05676303
211	0xbe131f39	-0.14367379
212	0xbe3524b0	-0.17689776
213	0xbdd929b0	-0.106036544
214	0xbc79170e	-0.015203251
215	0xbe44f895	-0.19235452
216	0xbd62bce6	-0.05535593
217	0xbcb8f157	-0.022576017
218	0x3d641015	0.0556794
219	0xbdae7848	-0.085190356
220	0xbc7753a5	-0.015095626
221	0xbcf09fb2	-0.029373024
222	0xbe6b8c21	-0.23002674
223	0xbe1e6af8	-0.15470493
224	0xbdd9d87b	-0.106369935
225	0x3d410c55	0.0471309
226	0xbcaf8de8	-0.02142997
227	0x3d11d87b	0.035606842
228	0x3c865fc8	0.016403094
229	0xbd981937	-0.07426684
230	0xbc68f0a7	-0.014217532
231	0x3d253ee4	0.04034318
232	0xbda32159	-0.07965345
233	0xbcab46cd	-0.020907784
234	0xbc05d2c4	-0.008167926
235	0xbe24ed6b	-0.16106193
236	0xbcd66b8d	-0.026174331
237	0x3cf48c2f	0.029852001
238	0x3cad56b2	0.021159504
239	0xbe810bbd	-0.25204268
240	0x3e01d803	0.12680058
241	0x3dde9a67	0.10869294
242	0xbc993d83	-0.018706089
243	0x3ccbefcc	0.024894617
244	0x3da02d1d	0.07821105
245	0x3d85d53f	0.06534814
246	0xbd00004e	-0.03125029
247	0x3e32b49b	0.17451708
248	0x3d86f96f	0.065905444
249	0x3e4c0663	0.19924311
250	0xbdf7941d	-0.12088797
251	0xbc185582	-0.00929773
252	0xbe514b45	-0.2043887
253	0xb7b1f538	-2.1214233e-05
254	0x3b21fbe0	0.002471678
255	0xbde26a57	-0.11055439
