DNNWeights/model/ensemble_1/selected_set_1_0_1.onnx (onnx, 872444 bytes, 17 tensors)

0.embeds.0.weight f4 [2, 1]
-0.10409559 -1.004573
00000000: 1230 d5bd d995 80bf

0.embeds.1.weight f4 [3, 2]
0.10287115 -1.471611 -0.4707355 0.10422432 2.289809 -0.83454055
00000000: 1cae d23d c05d bcbf 3e04 f1be 8f73 d53d
00000010: 3b8c 1240 73a4 55bf

0.embeds.2.weight f4 [2, 1]
0.32283866 -1.6216383
00000000: 1c4b a53e d891 cfbf

0.embeds.3.weight f4 [2019, 50]
-0.4207011 -1.1174908 -1.3131324 0.06337765 -0.5423309 -0.37636358 -0.4771175 0.2821251
0.6189695 0.8412551 0.10855861 1.5852168 -0.30405122 -0.88402903 2.3627055 -1.470742
-0.98244 1.0633266 -0.5749809 -1.1596 -0.7892259 0.07667899 -0.500838 -0.06611523
-0.32227287 0.10353487 -1.1867813 0.13955177 1.2967085 -0.063285984 -1.0720762 -1.3622509
-0.062548146 0.32951805 -0.05151362 -2.260482 -0.5721307 -2.0141757 -0.27348658 -1.3402553
1.3381633 0.7393482 -1.0479692 -1.5708671 1.5591707 -0.8362839 0.45306402 0.73548955
1.2031883 3.063819 -1.6304728 -0.07520988 -2.1538181 -1.0068307 -0.73643917 -0.23465072
0.30375594 -0.12823254 0.54895043 1.1792375 0.82566756 -1.21151 -0.28055388 -0.47252783
-1.2893424 1.2054633 -0.8556139 2.0904753 0.78282267 1.3299543 -0.5445283 -0.07820725
-0.46935052 1.9651088 0.8884829 0.20561954 0.6131187 0.084976256 0.22599883 -0.8693202
-1.0594409 1.2504729 -1.048301 -0.28762698 -1.091299 1.5389531 0.624175 -1.7281201
0.74702173 -0.14205621 -0.4570414 -1.6451882 -1.0908285 0.6279337 -2.1632893 0.48760408
0.5893696 0.012207347 -0.18642159 -0.30118296 -0.31265536 -0.08048773 -0.7714731 -0.29910558
0.21806474 0.14034848 -0.05177874 1.1778519 -0.56891686 -0.3463414 0.4480574 1.7491759
-0.20956121 0.37319767 -0.08034464 0.7536512 0.30295923 -0.92520314 1.041443 0.15394302
0.43012974 0.85236925 -1.1300386 -1.2920505 -0.011152118 1.2988226 0.8983005 -0.24724133
-0.90087193 -0.2528425 1.3317375 -0.4110976 1.0427021 0.23233342 1.2163458 -0.93555176
-0.20461635 -0.16954567 -0.11518595 1.1044432 0.3839752 0.91270876 -0.24087664 0.68660575
1.2605803 0.9648951 -0.11422578 -1.5028796 -1.3619672 1.012082 -0.4566601 -0.036061443
-1.4098219 -0.10750385 -0.61142975 -1.8249415 -0.62252134 -0.6556163 1.4603131 0.30372128
0.6840146 -1.1853704 -0.41608697 -1.4656769 -0.6393062 0.5903904 1.6452204 0.28588292
-1.4147593 -0.3377277 0.016418517 1.5138481 2.2220957 0.86647075 -0.008436324 1.7847747
0.21586609 1.4697425 0.9569701 0.7178436 1.1427488 -0.46979526 0.6660647 1.6903731
0.48795065 -1.5298984 0.48497608 -0.6402735 -0.48909175 -1.4454606 -0.024852516 -0.32654163
0.20387755 0.77026665 0.10063869 0.1557541 1.8421444 -0.5349178 -0.35808274 -0.8398098
0.3212199 1.0592988 -0.9524634 0.9005864 -1.7041632 1.4073316 1.5105555 0.5341747
-0.80366766 -0.84495544 1.7720393 0.2102131 1.1651742 -1.9987768 -0.55309844 -0.6988375
1.094439 -0.7468893 -2.6146672 2.0490806 0.40231723 0.7758595 0.21050717 -0.7756907
-0.77850354 0.74199235 -0.057283424 0.14898475 -0.5160831 -0.6425833 -0.80842936 -0.022077383
1.1653548 -2.050296 -1.8347706 0.19501626 -0.5317183 0.91184664 1.7204007 -0.6708645
-1.0162469 -1.6639282 -0.968507 0.30649057 0.04963925 1.061327 0.60892445 -0.7555712
0.7206347 -0.7651947 -0.17209616 -0.21916342 1.6635481 -1.1006905 -0.10407019 -0.5730797
00000000: 2266 d7be f009 8fbf b914 a8bf 24cc 813d
00000010: 33d6 0abf bab2 c0be bf48 f4be b372 903e
00000020: c974 1e3f 7f5c 573f fa53 de3d 62e8 ca3f
00000030: 9aac 9bbe ba4f 62bf 9136 1740 4641 bcbf
00000040: 3081 7bbf 161b 883f f331 13bf c66d 94bf
00000050: b50a 4abf e009 9d3d eb36 00bf 6c67 87bd
00000060: f300 a5be 170a d43d 73e8 97bf a9e6 0e3e
00000070: 8bfa a53f 159c 81bd cb39 89bf 3d5e aebf
00000080: 3e19 80bd 97b6 a83e f2ff 52bd bdab 10c0
00000090: 2877 12bf 41e8 00c0 6f06 8cbe 7c8d abbf
000000a0: ef48 ab3f ec45 3d3f db23 86bf 2c12 c9bf
000000b0: e892 c73f b416 56bf 02f8 e73e 0b49 3c3f
000000c0: 1302 9a3f 9c15 4440 55b3 d0bf a307 9abd
000000d0: 28d8 09c0 d4df 80bf 4787 3cbf 4748 70be
000000e0: e685 9b3e 644f 03be 0488 0c3f 41f1 963f
000000f0: f35e 533f c212 9bbf c2a4 8fbe 2bef f1be
00000100: 2c09 a5bf 9f4c 9a3f 8309 5bbf 59ca 0540
00000110: 1167 483f f13b aa3f 3566 0bbf 1f2b a0bd
00000120: b64e f0be af88 fb3f 9e73 633f ee8d 523e
00000130: 59f5 1c3f 0808 ae3d 3d6c 673e c58b 5ebf
00000140: c29b 87bf 7f0f a03f ba2e 86bf d843 93be
00000150: b0af 8bbf 6afc c43f efc9 1f3f 0a33 ddbf
00000160: d13c 3f3f 2f77 11be 5501 eabe 8795 d2bf
00000170: 45a0 8bbf 43c0 203f 5573 0ac0 3ea7 f93e
00000180: ede0 163f 5301 483c 4de5 3ebe a734 9abe
00000190: 5d14 a0be c0d6 a4bd 437f 45bf 5e24 99be
000001a0: 5d4c 5f3e 83b7 0f3e f215 54bd dac3 963f
000001b0: 89a4 11bf a953 b1be c867 e53e ffe4 df3f
000001c0: 3797 56be c413 bf3e bb8b a4bd 49ef 403f
000001d0: 791d 9b3e 1dda 6cbf 014e 853f 3da3 1d3e
000001e0: f739 dc3e df34 5a3f 1ba5 90bf e961 a5bf
000001f0: 60b7 36bc d23f a63f 06f7 653f d52c 7dbe
00000200: 8b9f 66bf 9274 81be 6076 aa3f 627b d2be
00000210: 4377 853f d0e8 6d3e 38b1 9b3f 5280 6fbf
00000220: f386 51be 619d 2dbe 9de6 ebbd 655e 8d3f
00000230: 6698 c43e 48a7 693f 5ea8 76be 65c5 2f3f
00000240: b25a a13f 5e03 773f 35ef e9bd 5c5e c0bf
00000250: f154 aebf e78b 813f 5acf e9be 2ab5 13bd
00000260: 0b75 b4bf fa2a dcbd a986 1cbf af97 e9bf
00000270: 8f5d 1fbf 78d6 27bf 8aeb ba3f 5b81 9b3e
00000280: 951b 2f3f 38ba 97bf 5a09 d5be 4d9b bbbf
00000290: 92a9 23bf d323 173f 9596 d23f 3f5f 923e
000002a0: d516 b5bf a5ea acbe 2080 863c c6c5 c13f
000002b0: d136 0e40 07d1 5d3f 8238 0abc 7f73 e43f
000002c0: 000c 5d3e 8620 bc3f fefb 743f 99c4 373f
000002d0: 9845 923f 0189 f0be 3783 2a3f 255e d83f
000002e0: abd4 f93e b6d3 c3bf c94e f83e f7e8 23bf
000002f0: 3c6a fabe da04 b9bf 8197 cbbc 7730 a7be
00000300: 47c5 503e 3230 453f a81b ce3d 017e 1f3e
00000310: 63cb eb3f 5ff0 08bf 9f56 b7be c6fd 56bf
00000320: ef76 a43e 1a97 873f a4d4 73bf d58c 663f
00000330: 0522 dabf 7123 b43f e259 c13f acbf 083f
00000340: 2abd 4dbf 004f 58bf 2fd2 e23f 1a42 573e
00000350: 6e24 953f ebd7 ffbf dc97 0dbf 04e7 32bf
00000360: 9416 8c3f 2334 3fbf b556 27c0 2324 0340
00000370: 86fc cd3e ba9e 463f 318f 573e aa93 46bf
00000380: 024c 47bf 36f3 3d3f 06a2 6abd 758f 183e
00000390: 061e 04bf 5780 24bf 3af5 4ebf a1db b4bc
000003a0: 592a 953f 0d38 03c0 c3d9 eabf 58b2 473e
000003b0: b11e 08bf c86e 693f 1736 dc3f c7bd 2bbf
000003c0: 6114 82bf 99fb d4bf 13f0 77bf 55ec 9c3e
000003d0: 8752 4b3d 90d9 873f 79e2 1b3f 1d6d 41bf
000003e0: 847b 383f cde3 43bf fa39 30be 606c 60be
000003f0: 25ef d43f 6de3 8cbf c022 d5bd 5ab5 12bf

1.layers.0.0.weight f4 [74, 74]
0.2969159 0.03726046 0.15166123 -0.27934733 -0.23657058 -0.17875853 0.011624982 -0.51382667
-0.11544794 -0.47403198 0.33271477 0.23139927 -0.092458196 -0.22169043 0.13267565 -0.009155473
0.21675348 0.0736849 0.002897074 -0.15302743 -0.20893602 -0.33734778 -0.13860022 -0.57346034
0.036261305 -0.058473174 0.27864003 0.1431739 0.21025807 -0.0011465292 -0.0065694912 -0.023002854
0.35291016 0.02634031 0.09840586 -0.11185315 0.08438786 -0.04740862 -0.15058652 -0.17886996
0.23912899 -0.16311109 -0.11519862 0.07542826 0.024463447 0.08008326 -0.123549394 -0.122098595
-0.19014114 0.14000425 -0.130207 -0.00044398854 -0.018859984 0.030818593 0.055026133 -0.33886763
-0.17506672 -0.5742835 -0.03855597 -0.07560419 0.27317742 -0.08185508 0.040446464 0.10616679
-0.029214563 0.014446978 -0.17958765 -0.18722576 -0.04470992 0.04597255 -0.15923803 0.18920498
-0.29986054 -0.011480948 0.14306092 -0.38740668 0.14103767 -0.0983506 0.83033437 -0.1544992
-0.026227046 -0.08107811 0.08802882 0.035233222 0.1822726 -0.06270152 0.30177534 0.20747802
0.00010415285 -0.20434467 0.09312578 0.049718086 0.37035263 -0.26865798 0.22098921 0.021741413
0.19690683 0.54101956 -0.09479841 -0.24033388 0.056802824 0.00863792 0.07616789 -0.09446036
0.027974004 -0.17292044 0.22181912 0.07976223 0.04936315 -0.04753691 -0.05960761 0.019309843
0.09112252 0.03351687 0.034530863 0.008009705 -0.035947315 -0.06441271 0.05488097 0.06896832
-0.07445407 -0.13420072 0.018600492 0.35206822 -0.1164779 -0.26316074 0.08026496 -0.017011696
0.13545732 -0.05039397 -0.17218398 -0.035900123 -0.37270242 -0.04990456 -0.14555386 0.07033145
0.21144342 0.085004516 -0.19262986 0.2171444 0.019131921 -0.11799645 -0.0905667 0.20502146
-0.036733948 -0.14755985 -0.09850088 0.324672 0.1388884 -0.29614908 -0.051844012 0.24420886
-0.19075772 0.09088186 0.004792201 0.06317271 0.37592065 -0.011077642 -0.15807852 -0.4340221
0.15467168 0.120486535 -0.3629826 -0.056523237 -0.31420234 -0.8943511 0.14838518 0.10816017
-0.10424684 0.3090328 -0.107923575 -0.045102384 -0.27384672 0.029168492 -0.05765801 -0.17690068
-0.032288656 0.055945534 -0.10641371 -0.016029926 0.27444056 0.09524213 -0.051362254 -0.10380996
0.15253784 0.16914627 0.09936821 -0.17829727 -0.052285638 -0.17493242 -0.025306959 -0.2795413
0.18808568 -0.09892217 0.24071649 -0.43287483 -0.0529211 -0.34286964 0.25501466 -0.006079301
-0.01261692 -0.094089985 0.20760094 -0.09394773 0.07330725 -0.22973599 -0.0763307 -0.2797885
0.1372258 -0.19779943 -0.27018544 0.06878275 -0.11153603 -0.10143043 -0.1439401 0.061221477
-0.075554386 -0.11598013 0.034004383 -0.19974017 -0.03529474 0.050246492 -0.19743861 -0.34483698
-0.3221714 -0.17896475 0.02852166 -0.15904827 0.07183364 0.34999552 -0.030650657 -0.083862476
-0.059089653 -0.15710333 -0.14603709 -0.092355266 -0.08196922 0.10489917 0.16936506 0.32664567
-0.25356197 0.20534554 0.34886947 0.114290334 0.34283587 -0.022414165 -0.142262 -0.13007922
-0.02711421 0.35006508 -0.07812022 -0.10504784 -0.013469604 -0.015759254 0.07675945 -0.062415004
00000000: 5c05 983e 6d9e 183d 154d 1b3e 9d06 8fbe
00000010: 8f3f 72be 7a0c 37be b576 3e3c 258a 03bf
00000020: f86f ecbd 52b4 f2be 9759 aa3e eef3 6c3e
00000030: b95a bdbd d102 63be 20dc 073e d600 16bc
00000040: a0f4 5d3e 1ce8 963d d6dc 3d3b 39b3 1cbe
00000050: 53f3 55be d9b8 acbe 37ed 0dbe 4cce 12bf
00000060: bc86 143d 9181 6fbd e8a9 8e3e 2e9c 123e
00000070: e44d 573e 2347 96ba e344 d7bb 7b70 bcbc
00000080: a4b0 b43e a2c7 d73c 0389 c93d 4413 e5bd
00000090: 8bd3 ac3d 8b2f 42bd 5a33 1abe b029 37be
000000a0: 3bde 743e 9806 27be 41ed ebbd 227a 9a3d
000000b0: 9167 c83c b102 a43d 7707 fdbd d40e fabd
000000c0: 5cb4 42be 465d 0f3e fc54 05be 22c7 e8b9
000000d0: 4180 9abc 4677 fc3c 1563 613d 0f80 adbe
000000e0: b144 33be 3e04 13bf ddec 1dbd 5fd6 9abd
000000f0: e9dd 8b3e a3a3 a7bd 31ab 253d f96d d93d
00000100: 6153 efbc 05b3 6c3c d3e5 37be 1cb8 3fbe
00000110: c021 37bd b64d 3c3d 4b0f 23be f3be 413e
00000120: 5287 99be 961a 3cbc 907e 123e 2b5a c6be
00000130: 2e6c 103e 0a6c c9bd cb90 543f 0a35 1ebe
00000140: 1ada d6bc 480c a6bd 7448 b43d b650 103d
00000150: aba5 3a3e a869 80bd 4c82 9a3e 1e75 543e
00000160: a36c da38 bb3f 51be bbb8 be3d 31a5 4b3d
00000170: dc9e bd3e 8a8d 89be ff4a 623e 0c1b b23c
00000180: f2a1 493e 4280 0a3f ab25 c2bd 161a 76be
00000190: 14aa 683d 1086 0d3c e9fd 9b3d 6f74 c1bd
000001a0: bd29 e53c 0e12 31be 8d24 633e 615a a33d
000001b0: 0431 4a3d 10b6 42bd 1c27 74bd ad2f 9e3c
000001c0: 729e ba3d fc48 093d 3c70 0d3d 233b 033c
000001d0: 7e3d 13bd d0ea 83bd deca 603d 433f 8d3d
000001e0: 607b 98bd ea6b 09be 0f60 983c 4942 b43e
000001f0: f78b eebd 01bd 86be f561 a43d 1d5c 8bbc
00000200: 53b5 0a3e e869 4ebd ff50 30be 020c 13bd
00000210: dad2 bebe b968 4cbd 120c 15be ef09 903d
00000220: a084 583e d916 ae3d c340 45be 1a5b 5e3e
00000230: 8cba 9c3c 1fa8 f1bd 097b b9bd 25f1 513e
00000240: 5676 16bd ee19 17be d4ba c9bd 693b a63e
00000250: c338 0e3e daa0 97be 635a 54bd e311 7a3e
00000260: fe55 43be 4520 ba3d e507 9d3b b260 813d
00000270: ac78 c03e 007f 35bc 56df 21be 2538 debe
00000280: 4162 1e3e a5c1 f63d dbd8 b9be e984 67bd
00000290: 21df a0be 32f4 64bf 49f2 173e 1483 dd3d
000002a0: 5e7f d5bd 8c39 9e3e 0907 ddbd 47bd 38bd
000002b0: a335 8cbe c3f2 ee3c ce2a 6cbd 7425 35be
000002c0: 1c41 04bd 2527 653d 6eef d9bd 3151 83bc
000002d0: 7983 8c3e 4e0e c33d 3a61 52bd 519a d4bd
000002e0: e132 1c3e ae34 2d3e 8f81 cb3d 8f93 36be
000002f0: 7729 56bd 7c21 33be 8a50 cfbc 0a20 8fbe
00000300: 8899 403e b597 cabd 627e 763e c5a1 ddbe
00000310: ccc3 58bd 9c8c afbe 4891 823e df34 c7bb
00000320: 33b7 4ebc 40b2 c0bd 5795 543e ab67 c0bd
00000330: 1d22 963d e93f 6bbe 4553 9cbd 7040 8fbe
00000340: ec84 0c3e ef8b 4abe bf55 8abe f8dd 8c3d
00000350: 016d e4bd c2ba cfbd 0965 13be 5fc3 7a3d
00000360: 42bc 9abd fe86 edbd 2e48 0b3d b088 4cbe
00000370: 3891 10bd 44cf 4d3d 592d 4abe 798e b0be
00000380: a6f3 a4be 8942 37be 42a6 e93c 8ddd 22be
00000390: 841d 933d 9d32 b33e 1617 fbbc 17c0 abbd
000003a0: fe07 72bd b2df 20be bf8a 15be c224 bdbd
000003b0: 7adf a7bd 60d5 d63d 096e 2d3e 1a3e a73e
000003c0: e0d2 81be 1a46 523e 059f b23e 0d11 ea3d
000003d0: 2f88 af3e e99d b7bc 21ad 11be 7d33 05be
000003e0: 9f1e debc bb3b b33e 7efd 9fbd 5223 d7bd
000003f0: 9daf 5cbc 8d19 81bc 0f34 9d3d e0a6 7fbd

1.layers.0.0.bias f4 [74]
0.0055782846 -0.12511289 -0.09243248 -0.08930588 -0.058948766 -0.019855706 -0.09981641 -0.14145102
0.013422719 -0.008128666 -0.099297985 -0.020481225 -0.044099327 -0.034016613 -0.059817187 0.020670436
0.011876839 -0.0285352 -0.07627333 -0.09143647 -0.04549199 -0.086114176 -0.05011383 -0.04818433
-0.06001469 -0.0640829 -0.0013432208 0.013185462 -0.054479055 -0.08115984 -0.0124508375 -0.027579617
-0.065974586 -0.07969263 -0.09101093 -0.03318483 -0.07804085 -0.030039234 -0.03772969 -0.06685587
-0.032053914 -0.06075565 -0.023716243 -0.014355974 -0.024775745 -0.0360479 -0.048044957 0.015990471
-0.05602485 -0.033335928 -0.02151331 -0.010796073 0.026449878 -0.025473697 -0.044380818 0.043537296
-0.04488214 -0.078047134 -0.016920786 -0.06636638 -0.026111754 -0.035002016 -0.05067813 -0.028428605
-0.08293262 -0.057729013 -0.086744756 -0.11286052 -0.020751912 -0.07972117 -0.07842737 -0.06068548
-0.099756576 -0.023408048
00000000: 0bca b63b 981d 00be 3d4d bdbd 00e6 b6bd
00000010: 4374 71bd 6fa8 a2bc 8c6c ccbd 89d8 10be
00000020: f7ea 5b3c 192e 05bc be5c cbbd 3ec8 a7bc
00000030: 7fa1 34bd 0155 0bbd de02 75bd 0c55 a93c
00000040: 1397 423c a7c2 e9bc 3135 9cbd 0b43 bbbd
00000050: cf55 3abd a15c b0bd 2944 4dbd ef5c 45bd
00000060: f7d1 75bd e53d 83bd 030f b0ba d607 583c
00000070: 6e25 5fbd 2137 a6bd 99fe 4bbc a6ee e1bc
00000080: af1d 87bd e435 a3bd f063 babd d1ec 07bd
00000090: e2d3 9fbd d714 f6bc 738a 1abd bbeb 88bd
000000a0: f74a 03bd ebda 78bd 9148 c2bc 5235 6bbc
000000b0: 81f6 cabc f6a6 13bd caca 44bd 73fe 823c
000000c0: 507a 65bd 418b 08bd ae3c b0bc 03e2 30bc
000000d0: 6aad d83c 37ae d0bc a9c8 35bd 2a54 323d
000000e0: 56d6 37bd 2dd7 9fbd 769d 8abc 19eb 87bd
000000f0: 51e8 d5bc 465e 0fbd df93 4fbd 1be3 e8bc
00000100: 94d8 a9bd 4275 6cbd 3ca7 b1bd 6b23 e7bd
00000110: eaff a9bc da44 a3bd 879e a0bd 5691 78bd
00000120: 2d4d ccbd 3cc2 bfbc

1.layers.1.0.weight f4 [74, 148]
-0.0016433217 0.14284228 -0.28175256 -0.09718392 -0.0014986453 -0.07934673 0.045647997 0.052041665
0.022843065 -0.054209292 0.19074298 0.07566284 0.083718285 -0.070470765 -0.05846679 0.18709156
-0.109365545 -0.1363115 0.16442037 -0.05410939 -0.17780879 0.21360725 0.08535538 -0.058277167
-0.16060837 -0.12210302 0.104856156 -0.14665233 -0.095744826 -0.09561543 0.21927965 -0.07674709
0.03592227 0.21307139 0.075518854 0.03919687 0.09076934 0.08637338 -0.09312801 0.07339151
0.059246194 -0.11967837 0.17769845 -0.24233787 0.029823544 0.02009635 0.016394718 0.017484896
-0.123311035 0.051098805 0.08755043 0.050492615 0.092091165 -0.17764999 -0.09269171 -0.044438012
0.059416514 0.1550994 0.104776226 0.042787682 0.17041034 -0.169234 0.16658537 0.15149806
0.1552206 0.06762699 -0.2921145 -0.04700479 -0.1936049 -0.024892678 -0.2463035 0.2153461
0.10563586 0.22874872 -0.06764627 -0.14280888 0.03935542 0.02349438 -0.026903482 -0.38970992
0.04606817 -0.07520857 0.025068738 0.1995896 0.3896995 0.2094774 -0.05310313 0.05827623
0.16299379 -0.10656026 -0.16212234 -0.05076699 0.099905655 0.138554 0.27782723 0.17737785
-0.09489511 -0.03280147 -0.13129264 0.063005544 0.17747715 -0.0117628155 0.089510195 -0.017888468
0.023370434 -0.007894778 0.008799383 0.07199407 0.0042423843 0.179692 -0.00051505823 0.028281905
-0.046862118 -0.022619499 -0.049952675 -0.03273056 0.11093887 0.043951668 -0.06048524 0.006076509
-0.04252932 0.09327746 -0.119201355 -0.03916717 -0.23199497 0.19856662 -0.038373694 -0.1374766
0.17668428 -0.21054713 -0.16904333 -0.33521056 -0.066167 0.028795615 0.027959056 -0.24607694
-0.02317287 -0.037797622 0.112314194 0.19345787 0.026123535 -0.13802516 0.00474664 -0.021871768
0.056347687 0.005502481 0.18908119 0.14797781 -0.19356015 -0.24541314 -0.009436319 0.1810565
0.058784213 0.12465279 -0.020062517 0.06783738 -0.13975582 0.263082 0.14123365 0.0440749
-0.24619061 0.0645655 -0.1482385 -0.25288746 -0.051230013 0.1492196 -0.057205763 0.3285128
-0.11842379 0.00032383413 -0.000593201 0.06798567 0.03290325 0.15513851 -0.03182269 -0.19085085
-0.10996783 0.025001146 -0.14736372 -0.037024822 0.035307884 0.034451343 0.1547745 0.22029766
0.17417556 0.022618417 0.010989208 0.10899161 -0.16607013 0.095528826 0.0843093 0.149496
-0.31884074 -0.04775571 -0.059449103 0.12623343 0.030859992 0.18380097 -0.03777025 -0.0817651
0.11201298 0.06937258 0.063080326 0.011685033 -0.060222328 0.15885915 0.101169825 0.045582585
-0.12049176 0.018323457 -0.013540354 0.21536508 0.029836861 0.13799895 0.04777826 0.02237963
0.064918354 -0.018418634 -0.07754895 0.22657071 0.22749218 0.30207804 0.091542676 -0.007321187
0.16650687 0.07145413 -0.02575271 -0.023584265 0.14606863 0.095242545 0.067555204 -0.28858265
-0.20924075 -0.24078953 0.11683238 0.22152266 0.17371373 -0.059376538 -0.014358417 0.030363604
-0.27861696 0.111034326 0.020999514 0.027981643 -0.10144173 -0.14450033 -0.1106532 0.023042249
0.03395933 0.050589267 0.06700123 -0.016907943 -0.11775259 0.12917505 -0.17333892 -0.17104028
00000000: ba64 d7ba 3f45 123e df41 90be 5d08 c7bd
00000010: 316e c4ba 8a80 a2bd 65f9 3a3d a429 553d
00000020: 6121 bb3c 900a 5ebd 2152 433e 1ef5 9a3d
00000030: 7e74 ab3d fa52 90bd df7a 6fbd ee94 3f3e
00000040: 0bfb dfbd 3e95 0bbe d05d 283e cfa1 5dbd
00000050: 8213 36be dcbb 5a3e cdce ae3d 0ab4 6ebd
00000060: 8576 24be 2611 fabd d3be d63d 072c 16be
00000070: dd15 c4bd 06d2 c3bd d88a 603e 942d 9dbd
00000080: 3b23 133d 632f 5a3e a1a9 9a3d e68c 203d
00000090: 47e5 b93d 87e4 b03d e6b9 bebd 4a4e 963d
000000a0: 23ac 723d ef19 f5bd 95f6 353e 6b27 78be
000000b0: 8150 f43c 1aa1 a43c 374e 863c 7c3c 8f3c
000000c0: 7f8a fcbd fb4c 513d a44d b33d 58d1 4e3d
000000d0: 4b9a bc3d e1e9 35be 27d5 bdbd a204 36bd
000000e0: bb5e 733d 61d2 1e3e eb94 d63d 2342 2f3d
000000f0: 0c80 2e3e ad4b 2dbe 5b95 2a3e 4f22 1b3e
00000100: 26f2 1e3e 0580 8a3d 0890 95be 1888 40bd
00000110: 5d40 46be bbeb cbbc fc36 7cbe b083 5c3e
00000120: 9d57 d83d 1b3d 6a3e 218a 8abd 7e3c 12be
00000130: 2633 213d 4977 c03c b164 dcbc 0f88 c7be
00000140: fab1 3c3d f306 9abd f45c cd3c 3761 4c3e
00000150: b186 c73e 3e81 563e ab82 59bd 0eb3 6e3d
00000160: d8e7 263e 443c dabd 6603 26be 0cf1 4fbd
00000170: 569b cc3d 1ae1 0d3e 5f3f 8e3e 8aa2 353e
00000180: 5e58 c2bd d65a 06bd 9471 06be 0d09 813d
00000190: 92bc 353e d3b8 40bc 1f51 b73d d68a 92bc
000001a0: 5a73 bf3c 1959 01bc 4a2b 103c a171 933d
000001b0: b303 8b3b 2e01 383e f904 07ba 74af e73c
000001c0: 7ef2 3fbd 874c b9bc 2d9b 4cbd 7b10 06bd
000001d0: eb33 e33d aa06 343d 5fbf 77bd 741d c73b
000001e0: 3933 2ebd 4108 bf3d d71f f4bd c16d 20bd
000001f0: 1790 6dbe 0c55 4b3e bc2d 1dbd aac6 0cbe
00000200: b9ec 343e ab99 57be b219 2dbe b8a0 abbe
00000210: 9082 87bd c8e4 eb3c 640a e53c 98fb 7bbe
00000220: 08d5 bdbc aed1 1abd fc04 e63d d219 463e
00000230: 0601 d63c 7856 0dbe b489 9b3b 6c2c b3bc
00000240: d5cc 663d 284e b43b 809e 413e 7f87 173e
00000250: a234 46be 954d 7bbe ca9a 1abc e066 393e
00000260: b7c7 703d f649 ff3d 265a a4bc 53ee 8a3d
00000270: 261c 0fbe afb2 863e 8e9f 103e e287 343d
00000280: 6419 7cbe eb3a 843d d5cb 17be 777a 81be
00000290: 90d6 51bd 06cd 183e 9750 6abd d432 a83e
000002a0: 2c88 f2bd 48c8 a939 0c81 1bba 123c 8b3d
000002b0: 8fc5 063d a1dc 1e3e 8258 02bd 686e 43be
000002c0: d036 e1bd 34cf cc3c 84e6 16be 57a7 17bd
000002d0: 009f 103d da1c 0d3d 357d 1e3e b695 613e
000002e0: 145b 323e 424a b93c 140c 343c fe36 df3d
000002f0: 4a0e 2abe 9ea4 c33d 5baa ac3d 7b15 193e
00000300: 183f a3be 7e9b 43bd e780 73bd 5643 013e
00000310: 18ce fc3c 5236 3c3e fab4 1abd 7674 a7bd
00000320: 1067 e53d 3613 8e3d 4230 813d 9572 3f3c
00000330: b0ab 76bd f9ab 223e 2032 cf3d ceb4 3a3d
00000340: 62c4 f6bd 131b 963c 5cd8 5dbc aa88 5c3e
00000350: 6f6c f43c 994f 0d3e 23b3 433d 7c55 b73c
00000360: eaf3 843d ade2 96bc fcd1 9ebd 2702 683e
00000370: b6f3 683e f9a9 9a3e ba7a bb3d 91e6 efbb
00000380: c780 2a3e 8b56 923d 59f7 d2bc ca33 c1bc
00000390: 0493 153e 860e c33d 625a 8a3d 1bc1 93be
000003a0: 3543 56be 8891 76be d145 ef3d d6d6 623e
000003b0: 03e2 313e d034 73bd 913f 6bbc 18bd f83c
000003c0: e2a6 8ebe f765 e33d 2c07 ac3c c239 e53c
000003d0: afc0 cfbd e5f7 13be 259e e2bd 19c3 bc3c
000003e0: f018 0b3d b136 4f3d f137 893d 8782 8abc
000003f0: 4528 f1bd 7746 043e c27f 31be 2f25 2fbe

1.layers.1.0.bias f4 [74]
-0.05665406 -0.08329743 -0.093171194 -0.05604987 -0.052562352 -0.053962417 -0.048725605 -0.041037317
-0.026199562 -0.026739327 -0.05683047 0.0048146676 -0.12651147 -0.06985321 -0.020971717 -0.06927396
-0.072637625 -0.045021534 -0.056253385 -0.110510424 -0.032873426 -0.018759497 -0.03594682 -0.04499187
-0.05768656 -0.035592724 -0.06601518 -0.045209657 -0.08671621 -0.07973243 -0.018921167 -0.009075474
-0.0122087905 -0.077471696 -0.02030521 -0.022830961 -0.06407363 -0.053901635 -0.04102159 -0.035204966
-0.0044074906 -0.08308527 -0.031496197 -0.05671863 -0.05971359 -0.035279687 -0.08439305 0.03496856
-0.0460998 -0.025253696 -0.051316712 -0.043927714 -0.010095146 -0.052101705 -0.08014833 -0.041111305
-0.074870765 -0.020463048 -0.063976154 -0.031951897 -0.096370004 -0.006620167 -0.02661414 -0.038237907
-0.05485148 -0.096601754 -0.04744431 -0.045748565 -0.09863267 -0.088088825 -0.07786748 -0.047326833
-0.027872663 -0.07291087
00000000: 160e 68bd d897 aabd 8ad0 bebd 8c94 65bd
00000010: 9f4b 57bd b207 5dbd 8094 47bd bf16 28bd
00000020: 77a0 d6bc 6f0c dbbc 11c7 68bd 5cc4 9d3b
00000030: 398c 01be 330f 8fbd e1cc abbc 82df 8dbd
00000040: 09c3 94bd 8068 38bd f369 66bd 4a53 e2bd
00000050: 49a6 06bd 84ad 99bc f93c 13bd 6549 38bd
00000060: be48 6cbd adc9 11bd f732 87bd c32d 39bd
00000070: 4598 b1bd c24a a3bd 9000 9bbc 4cb1 14bc
00000080: 6107 48bc 7ba9 9ebd 1d57 a6bc ff07 bbbc
00000090: 0939 83bd f6c7 5cbd 4106 28bd 1533 10bd
000000a0: b66c 90bb 9c28 aabd 2802 01bd cb51 68bd
000000b0: 3d96 74bd 6f81 10bd 43d6 acbd 313b 0f3d
000000c0: 25d3 3cbd d7e0 cebc 7931 52bd 8ced 33bd
000000d0: 1c66 25bc 9968 55bd cf24 a4bd 5464 28bd
000000e0: d855 99bd 1fa2 a7bc ee05 83bd fedf 02bd
000000f0: a35d c5bd fced d8bb e605 dabc 5a9f 1cbd
00000100: f2ab 60bd 24d7 c5bd f754 42bd d962 3bbd
00000110: edff c9bd ea67 b4bd fc78 9fbd c8d9 41bd
00000120: 3655 e4bc 4b52 95bd

1.layers.2.0.weight f4 [74, 222]
0.05058172 -0.12978919 -0.1714113 -0.03092313 0.1845031 0.071072266 0.08311288 -0.14271958
-0.06501943 0.08289551 0.34771374 0.020339701 -0.010458105 -0.10181438 -0.094649196 -0.014587241
0.010169236 0.06301995 0.03828903 -0.0994814 -0.041789394 -0.23718892 0.10261484 -0.034228735
-0.09505267 0.05761845 0.027346093 0.06334799 0.08287705 -0.0442711 0.11238785 -0.0775994
0.011346689 -0.047381584 -0.3024711 -0.04549743 0.10644226 -0.13852286 -0.013805014 0.08648003
-0.029997315 0.20570076 -0.17206098 -0.045702152 0.085888684 -0.052555244 -0.02511982 -0.061052233
-0.024510277 0.019616067 0.02219577 -0.009347804 -0.0013753236 -0.043731116 0.03689656 0.044634067
-0.08364896 0.01976314 0.07286012 0.07940603 -0.071871035 0.15454003 -0.028822668 -0.061521444
0.0070262076 0.08854687 -0.019133685 0.020174652 -0.144481 0.06178399 -0.017919976 0.048599333
-0.058123685 -0.14241399 -0.06786886 -0.02826141 -0.03312826 -0.053465515 0.06706287 -0.029144676
-0.13411494 0.060467962 -0.051773623 -0.059107807 0.08926478 0.012490293 -0.08655231 -0.0077842586
-0.14454295 0.11533602 -0.22339576 0.026118604 -0.21042924 0.14221247 -0.121643156 0.0044415668
-0.047925133 0.068255246 -0.032704193 0.03007838 -0.24152146 -0.04433183 0.051535908 0.032758694
-0.0066153132 -0.17930816 0.026005827 -0.030123064 0.006085108 -0.24659239 0.0020043526 -0.12310409
-0.0022933176 -0.055552013 0.06527849 0.08751805 -0.12398841 -0.042158213 -0.06948666 0.24401775
-0.041140877 -0.04145449 0.15563115 -0.19533041 -0.085064955 0.0002704997 0.15237497 0.054285068
-0.13507819 -0.08068422 -0.11141186 0.047095094 0.022297455 -0.042103566 -0.11173414 -0.15244794
0.035686992 -0.092815064 -0.027876185 0.19884402 0.042078633 -0.04584462 0.122314975 0.2140436
0.026237924 -0.07451093 -0.037630215 -0.040743392 0.24484731 0.057248842 0.061804928 -0.19015154
-0.06301888 -0.02629147 -0.058327544 0.0040385216 0.025294546 0.2673821 -0.24065006 0.06666655
-0.13836338 -0.15813474 -0.026440747 -0.034435105 -0.056554902 -0.010521883 0.085836045 0.16924645
0.04001985 0.09101023 -0.04182773 -0.14477791 -0.035067108 -0.2583021 0.059783466 0.11025698
-0.014305453 -0.034078494 -0.07337114 -0.13747914 0.0019046084 0.028637776 0.08970738 0.13025494
0.107187286 -0.05688408 0.020518621 -0.21224573 -0.06353852 0.016669674 -0.16013396 -0.12449784
0.05372966 0.05590212 0.0076285736 0.01423466 -0.028626224 0.061153613 -0.022161495 -0.012099414
0.11204678 0.024271984 0.11706057 0.043312334 -0.013304917 -0.0905843 -0.019630363 -0.11806212
-0.1687929 0.11739266 0.05122499 0.005542771 -0.10969353 0.02419378 -0.110528074 -0.25373423
0.02629471 -0.07175509 -0.16039957 0.00051608443 -0.090968825 0.31164083 0.14623602 -0.2999199
-0.11083164 -0.058024686 0.17189331 0.054142855 -0.10840277 -0.20244709 -0.010765234 -0.06711334
-0.14174908 0.006854764 0.015444747 0.08870931 0.018614916 -0.15434435 0.08028476 0.0029768462
-0.049978953 0.09185463 -0.13415685 0.020381393 0.1485717 -0.0005111608 -0.015408679 -0.07392598
-0.025720103 -0.21885775 -0.07222459 0.19956325 0.05246535 0.18386024 0.09223525 -0.16804783
00000000: c72e 4f3d 75e7 04be 7286 2fbe 8152 fdbc
00000010: 61ee 3c3e 568e 913d 1637 aa3d 1525 12be
00000020: e828 85bd 1fc5 a93d 8907 b23e 729f a63c
00000030: 7958 2bbc 0f84 d0bd 70d7 c1bd 53ff 6ebc
00000040: de9c 263c 9b10 813d f5d4 1c3d e7bc cbbd
00000050: 5b2b 2bbd a7e1 72be bb27 d23d 6e33 0cbd
00000060: f9aa c2bd 5301 6c3d ea04 e03c 97bc 813d
00000070: 71bb a93d 9d55 35bd 9a2b e63d 6fec 9ebd
00000080: 77e7 393c 3113 42bd 7edd 9abe 835b 3abd
00000090: 66fe d93d f0d8 0dbe 6d2e 62bc 711c b13d
000000a0: eebc f5bc 38a3 523e c130 30be 2e32 3bbd
000000b0: 68e6 af3d 2b44 57bd 15c8 cdbc e811 7abd
000000c0: c7c9 c8bc e0b1 a03c e7d3 b53c 8827 19bc
000000d0: 3444 b4ba 661f 33bd d920 173d 36d2 363d
000000e0: 2550 abbd 4fe6 a13c b037 953d a19f a23d
000000f0: 1f31 93bd be3f 1e3e 841d ecbc e9fd 7bbd
00000100: 1a3c e63b 1058 b53d 3fbe 9cbc 5045 a53c
00000110: d4f2 13be 3611 7d3d eacc 92bc 1810 473d
00000120: 1a13 6ebd f9d4 11be d4fe 8abd 7984 e7bc
00000130: 80b1 07bd a8fe 5abd 4258 893d d1c0 eebc
00000140: 6d55 09be 41ad 773d 9410 54bd 071b 72bd
00000150: 74d0 b63d 16a4 4c3c 5642 b1bd 1813 ffbb
00000160: 1103 14be 4b35 ec3d dcc1 64be aff6 d53c
00000170: c37a 57be 25a0 113e 0c20 f9bd 908a 913b
00000180: 254d 44bd 68c9 8b3d d5f4 05bd ef66 f63c
00000190: 6751 77be 4b95 35bd 5117 533d fb2d 063d
000001a0: 45c5 d8bb 8f9c 37be 2c0a d53c a5c4 f6bc
000001b0: 9665 c73b b782 7cbe 755b 033b ff1d fcbd
000001c0: 7c4b 16bb 828a 63bd bbb0 853d aa3c b33d
000001d0: a3ed fdbd 17ae 2cbd 064f 8ebd cadf 793e
000001e0: 5683 28bd 2fcc 29bd c65d 1f3e b204 48be
000001f0: 8936 aebd dbd1 8d39 2f08 1c3e 055a 5e3d
00000200: f051 0abe c53d a5bd e72b e4bd c9e6 403d
00000210: 27a9 b63c ca74 2cbd ded4 e4bd 501b 1cbe
00000220: 862c 123d d315 bebd 995c e4bc c49d 4b3e
00000230: a55a 2c3d 91c7 3bbd 4680 fa3d 3f2e 5b3e
00000240: eaf0 d63c 3099 98bd 2422 1abd 8be2 26bd
00000250: 41b9 7a3e c37d 6a3d 2a27 7d3d 16b7 42be
00000260: 0b10 81bd 3561 d7bc dde8 6ebd 9355 843b
00000270: 8236 cf3c 4ee6 883e f86c 76be 7988 883d
00000280: 21af 0dbe 13ee 21be 449a d8bc d30b 0dbd
00000290: 1da6 67bd fa63 2cbc cfca af3d f14e 2d3e
000002a0: dbeb 233d 9263 ba3d 8e53 2bbd a940 14be
000002b0: 87a2 0fbd 2c40 84be 82df 743d 69ce e13d
000002c0: 6b61 6abc e495 0bbd 9c43 96bd 55c7 0cbe
000002d0: 0ea4 f93a c599 ea3c 81b8 b73d 8d61 053e
000002e0: 0285 db3d 48ff 68bd ab16 a83c f256 59be
000002f0: 7c20 82bd d78e 883c 28fa 23be b9f8 febd
00000300: a213 5c3d 9ff9 643d 1df9 f93b 7e38 693c
00000310: 8b81 eabc 367c 7a3d 068c b5bc 9f3c 46bc
00000320: c878 e53d 0ad6 c63c 74bd ef3d 4668 313d
00000330: defc 59bc 4384 b9bd dbcf a0bc 8eca f1bd
00000340: 0cd8 2cbe 906b f03d 4cd1 513d 22a0 b53b
00000350: 00a7 e0bd 0932 c63c 8b5c e2bd 74e9 81be
00000360: 0168 d73c 55f4 92bd c93f 24be d749 073a
00000370: dd4d babd 638f 9f3e e5be 153e 1a8f 99be
00000380: b3fb e2bd 4bab 6dbd cd04 303e e6c4 5d3d
00000390: 4502 debd 4a4e 4fbe aa60 30bc b872 89bd
000003a0: ac26 11be ee9d e03b f70b 7d3c 3aad b53d
000003b0: 4f7e 983c 720c 1ebe 566c a43d 3117 433b
000003c0: bbb6 4cbd 481e bc3d 6a60 09be e1f6 a63c
000003d0: 2e23 183e 6cff 05ba af74 7cbc 8166 97bd
000003e0: f7b2 d2bc 3f1c 60be 7cea 93bd 4f5a 4c3e
000003f0: e8e5 563d dc45 3c3e d6e5 bc3d bb14 2cbe

1.layers.2.0.bias f4 [74]
-0.054711536 -0.03054416 -0.008250002 -0.02173626 -0.00041239773 -0.022743411 -0.014156663 -0.10034034
-0.07382637 -0.031768285 -0.024301851 -0.058071207 -0.09002437 -0.008759833 0.01674213 -0.042821884
-0.0959641 -0.06740494 -0.095146716 -0.012807482 -0.033328947 -0.058525737 -0.074596494 -0.013453575
-0.016511802 -0.03058475 -0.031351995 -0.006342282 -0.018792504 -0.023873797 -0.05570125 -0.057697907
-0.12664369 -0.07202207 -0.06460304 -0.0590993 -0.03557378 -0.016489916 -0.057767294 0.002797344
-0.065479286 -0.0069811805 -0.09427476 -0.015901262 -0.043957107 0.021955932 -0.0386176 -0.044593163
-0.093173176 -0.05447141 -0.03465769 -0.028955223 -0.028169082 -0.08466917 -0.05909313 -0.059685268
-0.06606108 -0.079839006 0.0054758275 0.011419019 -0.007981774 -0.109818205 -0.099563494 -0.025996728
-0.062226813 -0.028321035 -0.06201711 -0.05374936 0.00013293208 0.0038043272 0.005571191 -0.09924118
-0.05180228 -0.021012934
00000000: 3419 60bd bf37 fabc 042b 07bc 3e10 b2bc
00000010: 1637 d8b9 6450 babc 59f1 67bc 3c7f cdbd
00000020: 4832 97bd 761f 02bd ad14 c7bc 13dc 6dbd
00000030: b25e b8bd 6785 0fbc cb26 893c 0066 2fbd
00000040: d388 c4bd 9a0b 8abd 48dc c2bd 79d6 51bc
00000050: ef83 08bd afb8 6fbd 0cc6 98bd 626c 5cbc
00000060: c243 87bc df8c fabc f36a 00bd ebd2 cfbb
00000070: bdf2 99bc fb92 c3bc fe26 64bd a454 6cbd
00000080: e2ae 01be 4f80 93bd 994e 84bd 1c12 72bd
00000090: d0b5 11bd dc15 87bc 669d 6cbd a553 373b
000000a0: 011a 86bd 63c2 e4bb 2013 c1bd 5d43 82bc
000000b0: 5e0c 34bd eddc b33c 7d2d 1ebd 52a7 36bd
000000c0: 94d1 bebd 6a1d 5fbd 39f5 0dbd 8133 edbc
000000d0: d9c2 e6bc 0867 adbd a30b 72bd 8a78 74bd
000000e0: 084b 87bd a282 a3bd 926e b33b d616 3b3c
000000f0: fdc5 02bc 5ee8 e0bd f2e7 cbbd 17f7 d4bc
00000100: 8be1 7ebd 8401 e8bc a705 7ebd 4a28 5cbd
00000110: af63 0b39 0552 793b 8a8e b63b f63e cbbd
00000120: a12e 54bd 5123 acbc

1.layers.3.0.weight f4 [74, 296]
0.10793195 0.08735473 0.12636372 -0.08494822 -0.10318475 0.13842155 -0.053698685 -0.05696171
-0.04724203 0.09681656 -0.037122473 -0.15936501 0.024221009 0.0046266103 -0.01635952 0.08346318
-0.014087697 -0.024361838 -0.14326768 1.6092861e-05 -0.0047539207 -0.039933197 -0.05969291 -0.112269655
-0.012988318 -0.03499103 0.09772119 0.053472072 -0.0009074798 0.007965224 -0.0009981141 -0.18742968
-0.10557487 0.03510025 0.056765765 0.11359671 -0.088582166 -0.020866044 0.029183036 -0.0046597295
-0.096194826 -0.12923665 0.05567799 -0.08251414 0.010169771 -0.024440203 -0.056256026 0.039695915
0.009462178 0.00057746563 0.08464203 -0.08453553 -0.17988488 0.04294768 0.07683677 0.010627275
-0.08955802 0.07482333 -0.14828038 -0.07996323 -0.023000853 0.13665289 -0.057630025 0.08762325
-0.13341226 0.0557951 -0.06780245 -0.056830585 -0.012622129 -0.05969021 0.012971411 -0.0794406
0.05931514 -0.002618271 -0.04390235 -0.026170561 -0.18848039 0.11014665 0.03654909 -0.049716555
-0.12853959 -0.046585605 -0.041010007 -0.0895266 0.013765787 0.15024367 -0.014782976 0.10702953
0.07380183 0.03953949 0.0021330349 0.111933514 -0.1562227 -0.002433615 -0.1334042 0.090635754
0.0054373518 -0.06895073 0.02542116 0.12567729 0.047503345 0.15855998 0.003479006 -0.16409667
0.09055672 0.0019814705 0.032741085 -0.15764458 -0.028458433 0.0055508227 0.020436369 0.14615934
-0.006456543 -0.023354182 0.1563822 0.05359367 0.054094117 -0.08354664 -0.013828226 -0.11884749
-0.07162742 -0.09565535 -0.17781319 0.06576885 -0.045111038 -0.045044012 -0.12513888 -0.095154494
0.082201295 -0.07936516 -0.09955285 0.07974494 -0.11313027 -0.16154172 0.07090985 0.107473806
-0.03340387 -0.25315008 0.04365411 0.053707805 -0.043512475 -0.11627021 0.08051428 -0.071930446
0.09478988 -0.05294429 -0.015926637 0.08933859 0.12561741 -0.045256272 0.053237434 -0.12093847
-0.0061188266 0.16360793 0.14624308 -0.051866863 -0.15195802 0.14941105 -0.014808684 -0.022913089
-0.2635915 -0.1199065 -0.11606356 -0.10987589 -0.16377944 0.00584497 -0.1866298 0.1240818
0.14272359 -0.12700254 0.022271836 0.023345526 0.011482538 0.0591157 0.07820292 -0.09604428
0.25388974 0.07746246 0.0141674215 -0.05130397 -0.014695091 -0.047004808 -0.12908792 0.10992141
0.09024016 -0.114019945 -0.013309554 0.05734821 -0.03717413 0.110421166 -0.049559925 -0.09426104
0.107662424 0.012826289 -0.02503739 0.005396433 0.04434254 0.051409792 0.10916283 0.19323558
-0.02337763 -0.013898011 -0.021302972 0.12752531 -0.13629204 0.121225715 -0.07362811 0.0774232
-0.07683673 0.027546652 -0.0500913 -0.03845042 0.078969955 0.012959491 0.060768284 -0.06610577
-0.07265453 0.020029949 0.045182712 0.033846095 -0.031805094 -0.030390797 -0.10602924 0.08465577
-0.019922521 0.07434316 -0.06798666 -0.16684951 0.099257216 -0.040908035 0.075022474 -0.14762466
-0.14935951 -0.09673388 0.03446604 0.11039292 -0.09024488 -0.15432808 -0.10544827 0.00024231504
0.024316512 -0.0044959565 0.02261066 0.06706245 0.043672748 0.24633381 0.064233124 0.12114724
-0.013107348 -0.11387837 -0.007899872 0.13453302 0.021032637 0.019288048 0.0017297947 -0.21249811
00000000: 6d0b dd3d 09e7 b23d 7e65 013e 55f9 adbd
00000010: 8752 d3bd 61be 0d3e 27f3 5bbd af50 69bd
00000020: dc80 41bd c347 c63d bc0d 18bd 9530 23be
00000030: 236b c63c d29a 973b 6604 86bc beee aa3d
00000040: 15d0 66bc 7a92 c7bc c3b4 12be 28ff 8637
00000050: c7c6 9bbb fe90 23bd 8e80 74bd a2ed e5bd
00000060: f4cc 54bc c152 0fbd 0c22 c83d 8805 5b3d
00000070: f0e3 6dba 9280 023c 27d3 82ba 91ed 3fbe
00000080: a337 d8bd 48c5 0f3d 3883 683d 64a5 e83d
00000090: 916a b5bd 44ef aabc 4311 ef3c a5b0 98bb
000000a0: cb01 c5bd 9d56 04be 9b0e 643d 2cfd a8bd
000000b0: 1c9f 263c d236 c8bc b86c 66bd 2f98 223d
000000c0: 4007 1b3c 1061 173a cd58 ad3d f720 adbd
000000d0: be33 38be e8e9 2f3d 995c 9d3d 061e 2e3c
000000e0: 326a b7bd f93c 993d d0d6 17be c3c3 a3bd
000000f0: 496c bcbc bcee 0b3e 760d 6cbd d273 b33d
00000100: 399d 08be 6789 643d 03dc 8abd 30c7 68bd
00000110: 0ccd 4ebc b97d 74bd 0b86 543c c1b1 a2bd
00000120: 6ff4 723d 4c97 2bbb f3d2 33bd a563 d6bc
00000130: 0101 41be 9194 e13d 80b4 153d 96a3 4bbd
00000140: e29f 03be 8cd0 3ebd 1cfa 27bd b959 b7bd
00000150: e589 613c 7ad9 193e 4c34 72bc 4c32 db3d
00000160: 6a25 973d 29f4 213d 63ca 0b3b 663d e53d
00000170: d8f8 1fbe 497d 1fbb 1c9b 08be 3d9f b93d
00000180: d02b b23b 0a36 8dbd 0940 d03c 8cb1 003e
00000190: de92 423d 8c5d 223e 0900 643b f508 28be
000001a0: cd75 b93d 8fdb 013b 841b 063d 956d 21be
000001b0: a921 e9bc ade3 b53b 2c6a a73c cbaa 153e
000001c0: 6991 d3bb 4551 bfbc a822 203e 0985 5b3d
000001d0: cb91 5d3d 801a abbd c98f 62bc 5066 f3bd
000001e0: 66b1 92bd f4e6 c3bd a914 36be d2b1 863d
000001f0: 5ac6 38bd 1280 38bd 6824 00be 5ce0 c2bd
00000200: 2759 a83d 338a a2bd 5de2 cbbd 5151 a33d
00000210: d8b0 e7bd 316b 25be 2f39 913d 3a1b dc3d
00000220: 7fd2 08bd e39c 81be a7ce 323d b7fc 5b3d
00000230: 233a 32bd 131f eebd ace4 a43d 4550 93bd
00000240: 3221 c23d 1ddc 58bd 9478 82bc 27f7 b63d
00000250: daa1 003e a45e 39bd 7f0f 5a3d 97ae f7bd
00000260: 7080 c8bb d688 273e bfc0 153e 5972 54bd
00000270: e29a 1bbe 36ff 183e 1fa0 72bc 3bb4 bbbc
00000280: 77f5 86be 8a91 f5bd bbb2 edbd 9c06 e1bd
00000290: ccb5 27be 2987 bf3b e21b 3fbe 991e fe3d
000002a0: 2226 123e f40c 02be 6d73 b63c 1e3f bf3c
000002b0: 4121 3c3c 4e23 723d da28 a03d ddb2 c4bd
000002c0: d6fd 813e a3a4 9e3d 791e 683c 1d24 52bd
000002d0: aec3 70bc 1d88 40bd a02f 04be 7a1e e13d
000002e0: d5cf b83d 4a83 e9bd 5110 5abc f5e5 6a3d
000002f0: e743 18bd 7e24 e23d 59ff 4abd ef0b c1bd
00000300: 1e7e dc3d 5b25 523c 361b cdbc 90d4 b03b
00000310: 86a0 353d 1393 523d c390 df3d 8cdf 453e
00000320: 7282 bfbc 7cb4 63bc 9283 aebc ff95 023e
00000330: 2490 0bbe 3045 f83d 56ca 96bd 0e90 9e3d
00000340: 935c 9dbd 84a9 e13c 892c 4dbd 307e 1dbd
00000350: 00bb a13d 0c54 543c 2ae8 783d 7662 87bd
00000360: e6cb 94bd d915 a43c 8211 393d 34a2 0a3d
00000370: 0f46 02bd 1ff6 f8bc dc25 d9bd 0160 ad3d
00000380: 8e34 a3bc 3a41 983d 973c 8bbd 99da 2abe
00000390: 5e47 cb3d 2f8f 27bd 62a5 993d eb2a 17be
000003a0: b3f1 18be 6a1c c6bd 432c 0d3d af15 e23d
000003b0: 4fd2 b8bd 2e08 1ebe 43f5 d7bd f315 7e39
000003c0: 6c33 c73c d152 93bb fe39 b93c 0a58 893d
000003d0: 32e2 323d ee3e 7c3e a88c 833d 0b1c f83d
000003e0: 34c0 56bc 1039 e9bd 776e 01bc 06c3 093e
000003f0: a34c ac3c f801 9e3c 47ba e23a 1b99 59be

1.layers.3.0.bias f4 [74]
-0.04799262 -0.053725228 -0.015652515 -0.0347103 -0.015546031 -0.03878297 -0.05427638 -0.023185585
-0.030747525 -0.04924579 -0.104694694 -0.046812005 -0.0062100813 -0.04305673 -0.005804709 -0.0339358
-0.059115347 -0.031110346 -0.0153236175 -0.043361977 -0.004018792 -0.061131354 -0.026442813 -0.08961949
-0.055464987 -0.026120355 -0.046277065 -0.040235016 -0.019754682 -0.026651407 0.024911229 -0.021870188
-0.05712028 -0.0024170317 -0.003187114 0.011318069 -0.028772216 -0.008559065 -0.03669021 -0.014451498
-0.08347101 -0.029460618 -0.03792609 -0.089246094 -0.05751108 -0.04111256 -0.04795722 -0.06197947
0.019735 0.00669113 -0.06292608 -0.039174933 -0.03950524 -0.04813344 -0.014394791 -0.01420493
-0.09908063 -0.03896865 -0.02148107 0.0008063923 -0.045418765 -0.02759065 -0.039818153 -0.045396738
-0.008073046 0.008513054 -0.10054434 -0.022020934 -0.036569346 -0.054014653 -0.041856617 -0.030229017
-0.049434528 -0.07814814
00000000: e993 44bd fc0e 5cbd b439 80bc 632c 0ebd
00000010: c8b4 7ebc e4da 1ebd e950 5ebd b2ef bdbc
00000020: 3ce2 fbbc f4b5 49bd 2c6a d6bd f2bd 3fbd
00000030: f07d cbbb 415c 30bd 6e35 bebb 4400 0bbd
00000040: ef22 72bd 20db febc e90f 7bbc 549c 31bd
00000050: 12b0 83bb df64 7abd 999e d8bc 6c8a b7bd
00000060: 412f 63bd 5bfa d5bc 058d 3dbd 79cd 24bd
00000070: 92d4 a1bc 0d54 dabc a212 cc3c 1c29 b3bc
00000080: f4f6 69bd 1067 1ebb e6de 50bb 6c6f 393c
00000090: b6b3 ebbc 523b 0cbc 7948 16bd fac5 6cbc
000000a0: d9f2 aabd 6557 f1bc 6358 1bbd a8c6 b6bd
000000b0: bd90 6bbd a565 28bd ca6e 44bd 2fde 7dbd
000000c0: 4bab a13c 4441 db3b 63df 80bd e575 20bd
000000d0: 3fd0 21bd 9227 45bd 21d8 6bbc cbbb 68bc
000000e0: c9ea cabd 979d 1fbd 12f9 afbc 1264 533a
000000f0: 0709 3abd c905 e2bc 5c18 23bd eef1 39bd
00000100: cf44 04bc 567a 0b3c 31ea cdbd 3f65 b4bc
00000110: bdc9 15bd 783e 5dbd d871 2bbd d8a2 f7bc
00000120: dc7b 4abd 220c a0bd

1.layers.4.0.weight f4 [74, 370]
0.14410245 -0.075585596 -0.08848892 0.11734116 0.00029729673 -0.022591084 0.10534622 0.064540446
-0.08315635 -0.1322171 -0.12223553 -0.013662405 0.08229579 -0.009000111 -0.031985722 -0.113147154
0.004940753 -0.017572725 -0.09108235 -0.09396603 -0.1026856 0.033390805 -0.018530244 0.11820968
-0.063608795 0.03601791 0.1001369 0.11257069 -0.17842194 0.035681065 0.046971507 0.08220242
0.01285308 0.033995595 0.07483826 -0.07818613 0.006490973 -0.16331866 0.08757025 0.038053136
0.022720208 -0.013892991 0.040798273 -0.0023287304 -0.10608835 0.09121344 -0.089255035 0.07281311
-0.077120304 -0.027361596 -0.012221029 0.006410437 -0.011652396 -0.10961694 0.031859487 -0.023786979
-0.21090925 -0.034625277 0.03951628 0.110811904 -0.015812611 0.006949378 0.13843544 -0.19734983
-0.11613227 -0.04408303 0.06395289 -0.012131137 -0.09280841 -0.14425942 0.01817715 -0.13186128
0.09969124 -0.09382402 0.09596868 -0.030384254 0.051364586 0.05221079 0.110350765 0.16907857
-0.12313764 -0.0072716996 0.12826504 -0.07950796 -0.03848807 -0.02437352 -0.14605515 0.005984215
-0.012988496 0.052417513 -0.0434302 0.038913127 -0.050423272 -0.054563116 -0.05883081 -0.117335066
-0.016375426 -0.07054216 -0.12948805 -0.21330631 -0.06348464 0.051420506 0.14576896 0.093718395
0.09517286 0.011492923 -0.021786457 0.078237325 -0.12195762 -0.08407777 0.041663047 0.06716044
-0.15142821 0.01808085 -0.0645473 0.020113515 0.037857912 0.07368511 0.14466254 0.13381363
-0.054132413 0.0020153192 0.09642595 0.013942076 -0.01652344 0.073580906 -0.032722335 -0.043346725
0.01142313 0.098816134 -0.0113211395 -0.015530553 -0.09479495 0.013407025 -0.039196312 -0.022299942
0.08975441 0.012187583 0.11694971 -0.009130437 0.14788413 0.1568337 -0.11013744 0.041022576
-0.0014435727 0.08370057 0.011706215 -0.08589802 0.011369736 0.099331655 -0.123777665 -0.0955836
0.039719652 -0.102006756 0.119159736 0.08360411 -0.1333692 0.100432634 0.17546023 -0.09626212
-0.055242494 -0.0700044 0.01237288 0.039488833 -0.09629481 -0.13794237 -0.063487664 -0.009463633
-0.18969545 -0.0776184 0.057273913 -0.098650485 0.08787617 0.14326057 -0.13498016 0.07604103
-0.014651734 -0.13062724 -0.088640295 0.022852108 0.17371157 -0.10892027 -0.044930376 -0.0957717
-0.078698345 0.007151313 -0.0010832289 -0.10721642 0.0034138765 0.04007263 -0.22293198 -0.03755173
-0.088803366 0.10782484 -0.07848944 -0.13456342 0.097783595 0.021797262 0.075702235 -0.015937764
0.07872909 -0.06107949 -0.020461561 0.054737017 -0.1169124 -0.0010646961 -0.042401243 -0.1095375
0.0038238168 -0.14801255 0.04679161 0.05088597 0.029578896 -0.016787168 0.027221708 0.07201498
-0.10725945 0.043008614 -0.11998256 0.14733958 -0.04993845 0.017073074 -0.12334856 -0.015045414
-0.01908208 0.17162953 -0.018541623 -0.02870911 -0.032151926 -0.10565021 0.030363346 0.007688216
0.053637795 0.16990195 -0.012695534 -0.033859383 0.19518588 -0.12848446 -0.061204888 -0.03834693
-0.2784991 0.116500355 0.037999034 0.10901398 0.053310234 0.04352175 0.08773239 0.05777417
-0.06072887 -0.1435658 0.025509248 0.05983942 0.052998316 -0.06168383 0.042165138 0.0074112862
00000000: 988f 133e 9fcc 9abd ae39 b5bd 9050 f03d
00000010: 7ede 9b39 f010 b9bc c2bf d73d c82d 843d
00000020: e04d aabd eb63 07be 9f56 fabd 48d8 5fbc
00000030: b28a a83d 3475 13bc 7603 03bd b2b9 e7bd
00000040: 0ae6 a13b adf4 8fbc 6289 babd 4371 c0bd
00000050: d44c d2bd ccc4 083d bdcc 97bc eb17 f23d
00000060: 5445 82bd 8487 133d 9314 cd3d 768b e63d
00000070: 3eb4 36be 4f26 123d 3265 403d be59 a83d
00000080: ba95 523c f73e 0b3d cd44 993d 0d20 a0bd
00000090: 3ab2 d43b 023d 27be 0858 b33d 9bdd 1b3d
000000a0: bb1f ba3c 6d9f 63bc 171c 273d 9d9d 18bb
000000b0: d944 d9bd 1dce ba3d 58cb b6bd 0a1f 953d
000000c0: 40f1 9dbd 6d25 e0bc b63a 48bc a50e d23b
000000d0: b1e9 3ebc d97e e0bd 187f 023d e9dc c2bc
000000e0: 98f8 57be 3cd3 0dbd d3db 213d 5af1 e23d
000000f0: 7389 81bc 9cb7 e33b 05c2 0d3e 1316 4abe
00000100: c1d6 edbd 6890 34bd bcf9 823d adc1 46bc
00000110: 5612 bebd beb8 13be 3fe8 943c a506 07be
00000120: ec2a cc3d cf26 c0bd 3a8b c43d 66e8 f8bc
00000130: ac63 523d fbda 553d 95ff e13d ef22 2d3e
00000140: 962f fcbd 7047 eebb e957 033e 12d5 a2bd
00000150: aba5 1dbd faaa c7bc 7b8f 15be 3c17 c43b
00000160: b3cd 54bc bfb3 563d dee3 31bd 5f63 1f3d
00000170: a288 4ebd 937d 5fbd 93f8 70bd 5e4d f0bd
00000180: c225 86bc 6878 90bd 8498 04be f86c 5abe
00000190: 3c04 82bd 4f9e 523d 7544 153e 6eef bf3d
000001a0: fde9 c23d d04c 3c3c 8379 b2bc e43a a03d
000001b0: ebc4 f9bd f730 acbd dfa6 2a3d 6a8b 893d
000001c0: ff0f 1bbe 4a1e 943c 6031 84bd 19c5 a43c
000001d0: e610 1b3d 38e8 963d 6b22 143e 7106 093e
000001e0: f3b9 5dbd 7213 043b f87a c53d 4e6d 643c
000001f0: 2a5c 87bc 96b1 963d db07 06bd 568c 31bd
00000200: 1428 3b3c 1d60 ca3d 4d7c 39bc dc73 7ebc
00000210: db23 c2bd 23a9 5b3c 508c 20bd 5eae b6bc
00000220: 29d1 b73d 6eae 473c 5483 ef3d d497 15bc
00000230: f06e 173e 0399 203e bd8f e1bd 4a07 283d
00000240: 4336 bdba 346b ab3d 6dcb 3f3c 4deb afbd
00000250: 2148 3a3c 656e cb3d 257f fdbd 56c1 c3bd
00000260: 13b1 223d ebe8 d0bd 050a f43d a238 ab3d
00000270: f091 08be a0af cd3d d9ab 333e 1325 c5bd
00000280: f445 62bd 785e 8fbd 9fb7 4a3c 0bbf 213d
00000290: 3736 c5bd c440 0dbe d205 82bd 5b0d 1bbc
000002a0: 863f 42be 65f6 9ebd 0d98 6a3d 4409 cabd
000002b0: 6cf8 b33d e6b2 123e 3d38 0abe 66bb 9b3d
000002c0: d40d 70bc 26c3 05be 0b89 b5bd 5834 bb3c
000002d0: 72e1 313e 9711 dfbd ea08 38bd f423 c4bd
000002e0: 992c a1bd 9055 ea3b 21fb 8dba 4894 dbbd
000002f0: 58bb 5f3b 3323 243d 4848 64be d8cf 19bd
00000300: 8ade b5bd 45d3 dc3d 12bf a0bd feca 09be
00000310: c442 c83d 2c90 b23c c609 9b3d ea8f 82bc
00000320: b83c a13d 7d2e 7abd 019f a7bc ec33 603d
00000330: c56f efbd 468d 8bba edac 2dbd 3255 e0bd
00000340: 0099 7a3b 9a90 17be 8fa8 3f3d cf6d 503d
00000350: 714f f23c 3e85 89bc 0f00 df3c 977c 933d
00000360: d8aa dbbd cd29 303d 6bb9 f5bd 30e0 163e
00000370: 438c 4cbd d5dc 8b3c 2b9e fcbd 0a81 76bc
00000380: 0652 9cbc a7bf 2f3e 9ae4 97bc 5e2f ebbc
00000390: bdb1 03bd 235f d8bd 8dbc f83c 6eed fb3b
000003a0: 4eb3 5b3d c7fa 2d3e ee00 50bc 23b0 0abd
000003b0: cfde 473e 6e91 03be fab1 7abd ac11 1dbd
000003c0: 6f97 8ebe bd97 ee3d e0a4 1b3d b942 df3d
000003d0: d55b 5a3d dd43 323d 0aad b33d 9ca4 6c3d
000003e0: d6be 78bd ea02 13be c5f8 d03c 2e1a 753d
000003f0: c314 593d 2fa8 7cbd 5ab5 2c3d 60da f23b

1.layers.4.0.bias f4 [74]
-0.076076515 -0.035587147 -0.04715399 -0.060123224 -0.03743548 -0.08422194 -0.021259524 -0.035950307
-0.030070221 -0.032766752 0.050196134 -0.012304944 -0.054571953 -0.027997026 -0.01800494 -0.025925878
-0.011777271 -0.019295266 -0.029706573 -0.05522951 -0.024443366 -0.03193994 -0.019073699 -0.04222115
-0.07362262 -0.019693354 -0.04593289 -0.0648541 0.012277728 -0.0025088133 -0.0261826 -0.023118218
-0.05520596 -0.056043196 -0.066488415 -0.048837505 0.0001957714 -0.00055043754 -0.01444276 -0.042213902
-0.071648225 -0.0629259 -0.062649444 -0.080177344 -0.063923456 -0.007114324 -0.097600356 -0.06914959
-0.00410004 -0.020356067 -0.026692096 -0.06157029 -0.051952656 -0.031209346 -0.024235405 -0.016254362
-0.047318727 -0.04302751 -0.026010212 -0.038498584 -0.045831785 -0.07783743 -0.09345299 -0.012828417
-0.047746263 -0.10352058 -0.015789734 -0.104426906 -0.030293766 -0.076057054 -0.02653685 -0.015159223
0.018787628 -0.03464294
00000000: 01ce 9bbd d4c3 11bd 8b24 41bd c543 76bd
00000010: f255 19bd 8d7c acbd 7428 aebc a140 13bd
00000020: d355 f6bc 6e36 06bd 769a 4d3d ad9a 49bc
00000030: d786 5fbd 055a e5bc 197f 93bc 8262 d4bc
00000040: 74f5 40bc 1b11 9ebc 335b f3bc 5738 62bd
00000050: 743d c8bc 74d3 02bd 7240 9cbc 16f0 2cbd
00000060: 75c7 96bd f553 a1bc 2024 3cbd 3ad2 84bd
00000070: 8628 493c e76a 24bb e47c d6bc 6b62 bdbc
00000080: a51f 62bd 8d8d 65bd 142b 88bd d609 48bd
00000090: fc47 4d39 3d4b 10ba 53a1 6cbc 7ce8 2cbd
000000a0: 4ebc 92bd 4bdf 80bd 5a4e 80bd 0534 a4bd
000000b0: 4dea 82bd 461f e9bb b2e2 c7bd 4d9e 8dbd
000000c0: a159 86bb c4c1 a6bc 62a9 dabc 2131 7cbd
000000d0: 4fcc 54bd beaa ffbc 5489 c6bc de27 85bc
000000e0: 48d1 41bd 9d3d 30bd 5e13 d5bc b1b0 1dbd
000000f0: 1cba 3bbd 3b69 9fbd 4864 bfbd 482e 52bc
00000100: 9691 43bd 9902 d4bd 7959 81bc c6dd d5bd
00000110: a22a f8bc cdc3 9bbd cf63 d9bc 645e 78bc
00000120: 83e8 993c c1e5 0dbd
