DNNWeights/model/ensemble_1/selected_set_1_0_2.onnx (onnx, 872444 bytes, 17 tensors)

0.embeds.0.weight f4 [2, 1]
-0.3221749 1.4301744
00000000: 1cf4 a4be f40f b73f

0.embeds.1.weight f4 [3, 2]
-1.2815635 -0.35887197 -0.14267507 -1.385341 0.3736912 0.7949533
00000000: 460a a4bf 11be b7be 6a19 12be db52 b1bf
00000010: 7454 bf3e 0f82 4b3f

0.embeds.2.weight f4 [2, 1]
0.68171823 -1.6065345
00000000: 1685 2e3f eca2 cdbf

0.embeds.3.weight f4 [2019, 50]
-0.6881239 0.6668468 -1.4548613 1.4621615 -0.39253646 -0.81951326 0.68543965 -0.7476042
0.45892087 -0.8358122 -0.14885984 1.2376381 0.77775383 0.12360532 -0.81118184 0.94735587
-1.2997962 0.30180973 -0.95296985 0.35470736 0.76615894 1.4518439 1.7335039 -1.2662878
1.2404009 0.37702963 -0.474599 1.2001203 -1.0592493 -1.3298932 -1.9377087 -0.33766887
-0.25070608 2.1843626 1.2326938 1.5943196 -0.44743848 -0.51247334 0.52297944 -0.47656158
-1.5453817 1.0592713 -0.022186708 -0.0927512 0.19160701 -1.2422545 0.061704516 0.56344837
-0.819883 -1.1742122 -0.71939254 0.6110864 0.08654744 -0.6761658 0.15025967 -0.117885694
0.8134009 -0.6393318 1.1119897 0.49230844 -0.58708316 -0.7192519 0.08676205 -0.12042524
2.610833 0.85401547 -1.0770682 0.40845585 0.3161556 1.433596 -0.16795132 0.24959452
0.20068328 0.570295 -1.1587588 0.11473534 0.5209898 0.87031865 -0.25636753 0.25508788
-2.1176932 -0.043317903 1.0111839 -0.49126023 1.952832 -1.0400888 0.26341814 0.2005361
-1.5926654 1.4338104 0.42219618 0.3913203 1.5694865 -1.5182518 -0.098339915 -0.1581225
-0.9833984 -0.5037411 -2.5539155 -1.2432513 -0.96080846 0.62821716 -0.42332774 0.5512652
0.9136945 0.38957757 -0.6610477 -0.48061478 -1.1288372 0.32949984 0.68103975 -0.54738235
1.1804714 -1.7900587 0.06764685 -2.2565978 0.61694294 -1.2423108 0.040356155 -0.1580231
-0.44027328 -0.12542902 1.3865726 -0.49764666 -1.2916218 -1.0956026 -0.3157974 -0.20196101
-3.3515646 0.7244915 0.21125504 -0.22879714 -0.18415198 0.7816334 0.5327647 -0.5365922
-0.64847744 -2.5008304 0.31731963 0.76413554 -1.172231 -0.66323525 -1.014624 0.7160263
-0.41930225 -0.1519271 0.43019614 2.8570228 -1.2942834 0.31761962 1.4263954 0.598135
0.082454726 -1.0261347 0.37736532 0.68705964 1.0602485 -2.1371808 -0.27036282 1.2320179
1.1206063 -1.1187176 -0.89252895 -0.27440584 0.9168367 1.0250896 0.25140968 -0.4620052
-0.6134684 1.557933 -0.3992707 -0.1319255 -0.37225458 -0.21749419 -0.3161117 -1.1047505
0.7650123 -0.5573343 0.40972152 0.31932557 -0.32941708 -0.096400805 -1.3762031 -0.67538714
0.5075595 0.5295042 0.35630953 -0.22364622 1.7882321 1.6220701 0.0041600293 0.96663094
-1.0935831 -2.1719127 0.75049484 -0.8034665 0.4462209 1.0023699 -0.5696665 -1.2740237
0.70292026 0.06543842 0.14988735 0.64237905 1.0569009 -0.51082146 -0.08594119 -1.1345433
-2.0477886 -0.44200492 0.32742277 0.9316297 0.22851315 0.5658294 -0.21863003 0.43022755
-0.9594808 0.37580287 0.08644062 1.19703 -0.3976896 -0.22612707 2.206899 -0.15915225
0.9196122 0.7592371 -1.1738199 1.8623705 0.29123953 1.1546994 0.0035498769 -0.6252227
0.58233464 -0.8849821 0.7379802 -1.2422253 0.21720375 -0.34412894 -0.08392301 -0.12349955
-0.72602683 0.75781506 0.12148212 -0.75496256 0.8722683 -0.08113342 0.49123037 -0.26204342
-1.2076546 -1.3204265 1.4314809 -0.58742714 0.14132154 -1.577574 -2.2888963 -1.0896006
00000000: e328 30bf 79b6 2a3f e538 babf 1c28 bb3f
00000010: 8afa c8be 9fcb 51bf f978 2f3f fd62 3fbf
00000020: adf7 ea3e caf7 55bf b76e 18be ed6a 9e3f
00000030: e01a 473f c924 fd3d 9da9 4fbf ea85 723f
00000040: b95f a6bf ce86 9a3e d5f5 73bf 349c b53e
00000050: fe22 443f 05d6 b93f 75e3 dd3f b815 a2bf
00000060: 75c5 9e3f 070a c13e a4fe f2be 8b9d 993f
00000070: 7b95 87bf f139 aabf d706 f8bf efe2 acbe
00000080: 8c5c 80be 99cc 0b40 e9c8 9d3f aa12 cc3f
00000090: a816 e5be 7431 03bf fbe1 053f e1ff f3be
000000a0: 11cf c5bf 3496 873f e6c0 b5bc 57f4 bdbd
000000b0: a134 443e 3202 9fbf e0bd 7c3d 273e 103f
000000c0: dae3 51bf 964c 96bf 1c2a 38bf 2970 1c3f
000000d0: c93f b13d 3419 2dbf acdd 193e 0e6e f1bd
000000e0: 0b3b 503f 40ab 23bf ae55 8e3f da0f fc3e
000000f0: 154b 16bf e420 38bf 4db0 b13d 82a1 f6bd
00000100: e317 2740 c2a0 5a3f 5fdd 89bf 2021 d13e
00000110: 26df a13e 1380 b73f 6efb 2bbe b595 7f3e
00000120: eb7f 4d3e dafe 113f 3552 94bf 5dfa ea3d
00000130: 965f 053f 34cd 5e3f 9b42 83be e19a 823e
00000140: 4988 07c0 1d6e 31bd 796e 813f 7686 fbbe
00000150: 66f6 f93f a121 85bf bede 863e 5659 4d3e
00000160: 76dc cbbf 1987 b73f 192a d83e 225b c83e
00000170: efe4 c83f 1356 c2bf 7066 c9bd ddea 21be
00000180: ffbf 7bbf 2df5 00bf 5a73 23c0 dc22 9fbf
00000190: 8bf7 75bf d7d2 203f 6abe d8be b71f 0d3f
000001a0: e2e7 693f b676 c73e 6c3a 29bf 2413 f6be
000001b0: bd7d 90bf 34b4 a83e 9f58 2e3f 4021 0cbf
000001c0: b019 973f a520 e5bf 6f8a 8a3d 196c 10c0
000001d0: f9ef 1d3f 0a04 9fbf 7f4c 253d cfd0 21be
000001e0: 806b e1be 7770 00be 367b b13f 8bcb febe
000001f0: dd53 a5bf b53c 8cbf 32b0 a1be dece 4ebe
00000200: 0980 56c0 4678 393f 3e53 583e cc49 6abe
00000210: 5692 3cbe 2019 483f 4463 083f 1b5e 09bf
00000220: 9e02 26bf 9b0d 20c0 b877 a23e 639e 433f
00000230: aa0b 96bf c9c9 29bf 33df 81bf 804d 373f
00000240: c9ae d6be c792 1bbe ab42 dc3e 76d9 3640
00000250: 14ab a5bf 0a9f a23e 2094 b63f 601f 193f
00000260: 06de a83d 6258 83bf 0736 c13e 24e3 2f3f
00000270: 39b6 873f 92c7 08c0 ff6c 8abe c3b2 9d3f
00000280: 0770 8f3f 2332 8fbf c77c 64bf ec7e 8cbe
00000290: cfb5 6a3f 2336 833f c5b8 803e f28b ecbe
000002a0: 440c 1dbf 596a c73f 366d ccbe 7a17 07be
000002b0: 2798 bebe ccb6 5ebe 65d9 a1be 7768 8dbf
000002c0: d9d7 433f 76ad 0ebf 05c7 d13e a47e a33e
000002d0: 5ba9 a8be c96d c5bd 6c27 b0bf 2ce6 2cbf
000002e0: 6bef 013f 968d 073f 346e b63e 8403 65be
000002f0: cae4 e43f fe9f cf3f db50 883b 2075 773f
00000300: 88fa 8bbf 9e00 0bc0 6e20 403f fbaf 4dbf
00000310: 1177 e43e a84d 803f aad5 11bf 3513 a3bf
00000320: 95f2 333f 9404 863d 127c 193e f472 243f
00000330: 8748 873f 32c5 02bf ef01 b0bd b738 91bf
00000340: f80e 03c0 784e e2be f5a3 a73e 497f 6e3f
00000350: 5aff 693e 32da 103f 8de0 5fbe c946 dc3e
00000360: 89a0 75bf 3c69 c03e c807 b13d 4738 993f
00000370: f99d cbbe db8d 67be d53d 0d40 cff8 22be
00000380: b56b 6b3f 5d5d 423f bb3f 96bf 2862 ee3f
00000390: 591d 953e 31cd 933f 0da5 683b 980e 20bf
000003a0: e213 153f 308e 62bf 45ec 3c3f 3d01 9fbf
000003b0: a96a 5e3e ab31 b0be d4df abbd 55ed fcbd
000003c0: e5dc 39bf 2b00 423f 9ecb f83d 3a45 41bf
000003d0: fa4c 5f3f 4729 a6bd 8c82 fb3e 8e2a 86be
000003e0: 6d94 9abf bc03 a9bf c43a b73f a061 16bf
000003f0: 98b6 103e f2ed c9bf 477d 12c0 0878 8bbf

1.layers.0.0.weight f4 [74, 74]
0.4852513 -0.19958769 -0.213715 -0.2832601 0.3317794 0.24219193 -0.21714024 0.036827754
0.26785028 0.0699812 -0.22123264 -0.05375187 0.2865226 -0.2103471 0.14811982 0.031170739
0.062055815 0.11551263 0.2784446 -0.04683224 -0.25819242 0.287567 0.35573685 0.029162608
-0.07421314 0.15882672 -0.084735304 0.0138190845 0.41498345 -0.17012261 -0.31886214 -0.20916528
0.0138957715 -0.32841304 0.03417381 -0.32234266 0.21012545 -0.019881614 0.034133516 0.015939726
-0.22344632 -0.00033663865 0.07070636 -0.01441408 0.04335297 -0.015470199 0.3115209 -0.063608535
-0.13310671 0.21267323 0.07479202 -0.023538085 -0.12323381 -0.013386133 0.15730706 0.13299848
0.07333682 -0.09886055 0.37850234 0.028066443 -0.20000966 -0.009138059 0.047363516 0.18444881
0.10375524 0.10067442 -0.021476435 -0.186467 -0.30540827 0.03986688 0.04423582 -0.11581598
0.011059804 0.07686053 0.4444587 -0.104666665 0.18482134 -0.09099606 -0.3132534 -0.07449249
-0.1111859 0.18509014 0.11830538 0.14345175 0.11835885 -0.20246954 -0.04444945 -0.30802396
-0.08356295 -0.23928793 -0.023629976 0.15885846 -0.08769377 0.30860114 -0.017536711 0.029321376
0.25701296 0.07035082 0.23302852 -0.007932218 0.028049273 -0.113419585 -0.34036937 0.059810042
0.08446876 0.0872521 0.00037449476 0.22003661 0.0651923 -0.0060527665 -0.002836507 -0.010190741
0.119184025 0.12072725 -0.006368962 -0.07166979 -0.27533042 0.21419089 -0.16052797 -0.17520632
0.13680233 -0.030594457 -0.05353587 0.17364146 -0.016141905 -0.021105852 -0.069539316 -0.04413896
0.07828431 -0.10658556 -0.11188947 0.060935974 0.12104602 0.011634548 -0.06469177 0.04561547
0.19015439 -0.24438109 -0.008266571 0.19574697 -0.029153233 0.04891793 -0.075371824 -0.10038103
0.008598859 -0.26927933 0.088092014 -0.018914469 0.5262894 -0.1219413 0.15745595 -0.12286435
0.0956905 1.0784149 -0.30049968 -0.2102748 -0.05273538 0.023816293 -0.2400991 -0.26790097
-0.1151043 -0.09643677 0.21958481 -0.028021036 0.1063043 -0.051969983 0.11147894 -0.58008456
-0.23011085 -0.25290635 0.078277566 -0.56018597 -0.06214253 -0.12843989 -0.01794691 -0.016783783
0.19909774 0.066820554 0.050889842 0.2468767 0.023629913 -0.04618052 -0.18818335 0.14888358
-0.1199113 0.19704556 -0.29338616 0.0096147405 0.10627505 0.01019582 0.27019155 0.06097979
-0.026420804 -0.0076955995 0.2169461 -0.31093183 0.1230452 0.23840772 0.10989489 0.048131745
0.19423193 0.116683185 0.023184653 0.14559388 0.12607382 0.11992705 -0.23189601 -0.07068316
0.22486761 0.10550992 0.17678277 -0.37552387 -0.10556495 -0.030768376 0.0032659345 -0.075198166
0.09219894 -0.13406785 -0.16552277 -0.15717234 0.02222235 -0.22443813 -0.18323343 0.23766945
0.22532617 -0.39743873 0.45979428 0.38483426 0.26372322 -0.3016516 -0.46046194 -0.33199078
0.14138627 0.27386534 0.17141713 -0.2832535 -0.24029481 0.19881283 -0.058400545 -0.27906778
-0.12827176 -0.15360998 0.08457637 -0.040094495 0.07860798 -0.016230768 -0.035480063 0.15239766
-0.21490684 -0.11884577 -0.10340545 -0.0786036 0.012512712 0.042256124 0.09145988 0.29096618
00000000: dc72 f83e b760 4cbe 1bd8 5abe 7807 91be
00000010: fdde a93e 2901 783e 035a 5ebe b3d8 163d
00000020: ac23 893e 4e52 8f3d cf8a 62be ec2a 5cbd
00000030: 17b3 923e 3b65 57be b9ac 173e c759 ff3c
00000040: 3d2e 7e3d e391 ec3d 4a90 8e3e 2ad3 3fbd
00000050: cc31 84be fb3b 933e 2423 b63e 6ce6 ee3c
00000060: 0ffd 97bd 79a3 223e b489 adbd 7169 623c
00000070: b678 d43e 9f34 2ebe e641 a3be 6c2f 56be
00000080: 17ab 633c c125 a8be d6f9 0b3d 190a a5be
00000090: 202b 573e c4de a2bc 96cf 0b3d 0794 823c
000000a0: 1dcf 64be e07e b0b9 7fce 903d 0929 6cbc
000000b0: e292 313d b876 7dbc ab7f 9f3e 3145 82bd
000000c0: 204d 08be 03c7 593e 8f2c 993d f1d2 c0bc
000000d0: 0262 fcbd 8351 5bbc 1a15 213e c130 083e
000000e0: 9d31 963d 6677 cabd 0fcb c13e 99eb e53c
000000f0: 55cf 4cbe ccb7 15bc 3f00 423d 26e0 3c3e
00000100: a17d d43d 642e ce3d 59ef afbc 35f1 3ebe
00000110: 795e 9cbe 744b 233d 9f30 353d ee30 edbd
00000120: 2e34 353c 0e69 9d3d 1790 e33e 7a5b d6bd
00000130: ce41 3d3e 245c babd c062 a0be 858f 98bd
00000140: 6fb5 e3bd 4588 3d3e 174a f23d 04e5 123e
00000150: 2066 f23d 2d54 4fbe a010 36bd 51b5 9dbe
00000160: 0d23 abbd e507 75be a793 c1bc cbab 223e
00000170: cb98 b3bd f800 9e3e 26a9 8fbc 6233 f03c
00000180: 3497 833e 1714 903d 079f 6e3e 22f6 01bc
00000190: 97c7 e53c 8748 e8bd e544 aebe 60fb 743d
000001a0: f5fd ac3d 3bb1 b23d d657 c439 4751 613e
000001b0: 8a83 853d 4956 c6bb b1e4 39bb 11f7 26bc
000001c0: c116 f43d d93f f73d bab2 d0bb 9cc7 92bd
000001d0: 1cf8 8cbe db54 5b3e 7261 24be 4969 33be
000001e0: e915 0c3e 3aa1 fabc 6e48 5bbd 11cf 313e
000001f0: 073c 84bc 2ee6 acbc a16a 8ebd 0ecb 34bd
00000200: 8653 a03d 8849 dabd 4e26 e5bd 0098 793d
00000210: fae6 f73d d59e 3e3c 1e7d 84bd 49d7 3a3d
00000220: d5b7 423e 093f 7abe 8370 07bc e571 483e
00000230: c3d2 eebc 2b5e 483d 8b5c 9abd 9294 cdbd
00000240: 3be2 0c3c fbde 89be 9669 b43d 84f2 9abc
00000250: e7ba 063f 5cbc f9bd 223c 213e 4ea0 fbbd
00000260: 62f9 c33d 8009 8a3f 18db 99be 4752 57be
00000270: 0e01 58bd 631a c33c 8adc 75be 512a 89be
00000280: cebb ebbd a480 c5bd d7da 603e 5f8c e5bc
00000290: 12b6 d93d 7ade 54bd 124f e43d 6c80 14bf
000002a0: 2ea2 6bbe f17c 81be fd4f a03d 5968 0fbf
000002b0: 2a89 7ebd bf85 03be 6605 93bc 257e 89bc
000002c0: 47e0 4b3e 37d9 883d de71 503d 3fcd 7c3e
000002d0: 8593 c13c c927 3dbd 23b3 40be f074 183e
000002e0: 0e94 f5bd 50c6 493e b636 96be 2587 1d3c
000002f0: bca6 d93d 5e0c 273c 8c56 8a3e f2c5 793d
00000300: 7170 d8bc 5e2b fcbb 1e27 5e3e 7532 9fbe
00000310: 1fff fb3d 2721 743e 9210 e13d cb25 453d
00000320: bce4 463e 98f7 ee3d beed bd3c 9016 153e
00000330: 7f19 013e 509c f53d 2676 6dbe 55c2 90bd
00000340: b243 663e 9615 d83d 8b06 353e aa44 c0be
00000350: 7032 d8bd f60d fcbc 4a09 563b 7f01 9abd
00000360: ccd2 bc3d 1549 09be cd7e 29be c9f1 20be
00000370: a50b b63c 1cd3 65be 8ba1 3bbe 9f5f 733e
00000380: e7bb 663e 177d cbbe 286a eb3e ff08 c53e
00000390: bb06 873e 1472 9abe abc1 ebbe b2fa a9be
000003a0: 90c7 103e 1438 8c3e f987 2f3e 9a06 91be
000003b0: d80f 76be 9795 4b3e 6935 6fbd f9e1 8ebe
000003c0: ac59 03be ef4b 1dbe 6036 ad3d 203a 24bd
000003d0: 38fd a03d 63f6 84bc 8b53 11bd 220e 1c3e
000003e0: 8a10 5cbe 6965 f3bd 3dc6 d3bd edfa a0bd
000003f0: 1e02 4d3c c214 2d3d 514f bb3d 85f9 943e

1.layers.0.0.bias f4 [74]
-0.05168332 -0.07302115 0.0061409003 -0.020480465 -0.067994304 -0.011478921 -0.07893999 -0.016654942
-0.035343684 -0.100022584 -0.099198155 -0.018105838 -0.04701249 -0.032099027 -0.08335637 -0.06588709
-0.04385396 -0.13522024 0.014332333 -0.07134111 -0.05553516 -0.035229113 -0.043087073 -0.022062454
-0.07475605 0.0017708457 -0.018663317 -0.015629731 -0.067715116 0.006135742 -0.0058996277 -0.05463707
-0.107231684 -0.031723123 -0.07107536 -0.061126355 -0.05980125 -0.09419724 -0.052683648 -0.035943728
-0.08354604 -0.007738227 -0.0122807 -0.068712905 0.038905766 -0.09118324 -0.06289505 -0.061966598
-0.06918891 -0.049868025 -0.010247608 -0.043368272 -0.038795684 -0.077871 -0.086362846 0.027047113
-0.023386398 -0.034748893 -0.0988635 -0.022251746 -0.05677674 -0.08776055 -0.052612912 -0.00935872
-0.03974106 -0.0020518827 -0.071360834 -0.06623146 -0.059338372 0.0010079426 0.015600604 -0.029117562
-0.016038438 -0.017299049
00000000: e4b1 53bd 1d8c 95bd 9b39 c93b a6c6 a7bc
00000010: 9940 8bbd 1612 3cbc 4aab a1bd f26f 88bc
00000020: 8ac4 10bd a4d8 ccbd 6728 cbbd b252 94bc
00000030: 2b90 40bd 457a 03bd bfb6 aabd d0ef 86bd
00000040: 36a0 33bd 2d77 0abe 29d2 6a3c 4a1b 92bd
00000050: d678 63bd 674c 10bd 127c 30bd 52bc b4bc
00000060: b319 99bd b91b e83a d0e3 98bc ec09 80bc
00000070: 39ae 8abd 560e c93b aa51 c1bb 1fcb 5fbd
00000080: 499c dbbd 1bf0 01bd f58f 91bd a15f 7abd
00000090: 28f2 74bd 7cea c0bd cfca 57bd bb39 13bd
000000a0: 301a abbd f490 fdbb fd34 49bc 5ab9 8cbd
000000b0: a75b 1f3d 47be babd 1fcf 80bd b0d0 7dbd
000000c0: eab2 8dbd 6a42 4cbd 95e5 27bc eea2 31bd
000000d0: 39e8 1ebd d57a 9fbd 01df b0bd e891 dd3c
000000e0: d594 bfbc db54 0ebd f278 cabd 4b49 b6bc
000000f0: ba8e 68bd cebb b3bd a380 57bd 5155 19bc
00000100: 86c7 22bd e178 06bb a125 92bd 5ca4 87bd
00000110: cb0c 73bd f11c 843a ad99 7f3c f487 eebc
00000120: 0b63 83bc bcb6 8dbc

1.layers.1.0.weight f4 [74, 148]
0.01711303 0.13553797 -0.059587788 -0.112519495 -0.05817877 0.107117794 0.13235268 -0.20453931
-0.11272337 -0.055468462 -0.03532417 -0.15675463 -0.025984565 -0.070550784 -0.115856074 -0.024484167
0.09185145 0.06891096 -0.1841344 0.17360185 -0.095486216 -0.02507506 0.04242935 0.050228324
-0.22255738 -0.065257385 -0.30890772 0.05921405 -0.1250148 0.10672803 0.072310776 -0.13207641
0.08377007 -0.11042765 0.23778154 0.012910825 0.03453973 -0.094039336 0.010337255 0.12805678
0.05465779 -0.06309308 0.09624654 0.12968646 -0.02497709 0.080926 0.13534887 -0.04441784
0.031860825 -0.14340456 -0.03711454 -0.13941258 0.074580856 -0.121010885 0.115163654 -0.26014572
0.22538045 0.0010754226 0.345745 0.20060438 0.10131096 0.12617688 0.0031591533 0.08935991
0.12399372 -0.18394478 -0.06588317 -0.053495288 0.02042662 -0.0143821845 0.02516794 0.017200217
0.07666612 0.07730554 -0.3512835 0.41594142 0.08318071 -0.19258885 0.093602456 -0.1283263
0.15482877 0.033614527 -0.055310797 -0.009383991 -0.31391034 0.17139089 0.0752839 0.18030162
-0.21742876 -0.3608265 0.3087691 -0.08878019 -0.009125673 -0.17981468 0.29470187 0.14207818
0.47736797 0.16761102 -0.09847884 0.11060398 -0.18613704 0.047300298 0.10764281 -0.10695697
0.18003355 0.0015854194 0.20154227 0.059761826 0.004136148 0.13746096 0.17968483 0.20098646
0.04890517 0.35684356 -0.09216266 0.09476961 0.18709761 -0.026047336 -0.15288273 0.102569796
0.1384479 -0.06280873 0.15421465 0.06293796 -0.088806555 -0.11688951 0.04291511 -0.047697768
0.11383996 0.028646963 -0.18032557 -0.013713772 0.014001869 -0.0066529666 -0.029445974 0.17198905
-0.11094191 -0.060014203 -0.03678379 0.0130817145 0.011667386 0.058145784 0.085548624 0.025871687
0.01374914 0.08356291 0.11005312 -0.12557663 0.28268477 -0.17271918 -0.2562231 0.021231614
-0.1279521 0.23930427 -0.20916681 -0.18399908 0.0141849285 0.06942192 -0.21452495 0.06274494
-0.081230395 0.03629162 0.07190934 -0.061376326 0.018776428 0.15390712 0.0606814 -0.024974909
0.04032847 -0.10807319 0.09188126 -0.03671955 -0.082109794 -0.04618948 0.07527324 -0.040066306
-0.11099636 -0.1546237 0.0940579 -0.101477206 0.0008037209 0.07955277 0.04942459 0.048978183
0.059865367 0.026521029 0.28534555 0.10978168 -0.094787255 0.035806846 -0.020293152 0.26442987
-0.1104263 -0.031974528 0.19041216 -0.18199508 0.35296494 0.055175748 -0.064071804 -0.030269096
0.12001849 -0.15460809 -0.060901087 0.034913603 -0.017627472 0.13020274 0.061899193 -0.105308056
0.13358572 0.03543411 0.3466324 -0.16657835 0.07673836 -0.038892984 -0.10068664 -0.12243383
-0.029739888 -0.1784954 -0.04637189 0.018093757 -0.0598723 -0.15311994 -0.004302958 0.24582483
-0.046156462 0.10011806 0.23098895 -0.30004737 0.069446295 -0.060566664 0.3074181 -0.14233968
-0.41411766 0.0739447 0.040029407 0.08864748 -0.09441621 0.18840714 -0.022506954 -0.08414808
0.25426963 0.19465996 0.044238534 0.20768735 -0.0533281 -0.015771162 -0.08363594 -0.16967455
0.15746957 0.14097422 -0.03132376 -0.0013179486 -0.12607172 0.00058932765 0.03434606 -0.0061509623
00000000: a030 8c3c 77ca 0a3e 5312 74bd 9f70 e6bd
00000010: dd4c 6ebd 9360 db3d 7687 073e c172 51be
00000020: 83db e6bd e632 63bd 14b0 10bd 4984 20be
00000030: 95dd d4bc ee7c 90bd f345 edbd 0593 c8bc
00000040: 9d1c bc3d 3021 8d3d ba8d 3cbe afc4 313e
00000050: 478e c3bd 366a cdbc 66ca 2d3d 37bc 4d3d
00000060: 15e6 63be aaa5 85bd 2729 9ebe 6f8a 723d
00000070: e103 00be 3a94 da3d ac17 943d 0a3f 07be
00000080: a48f ab3d e427 e2bd 017d 733e ed87 533c
00000090: 8879 0d3d b297 c0bd 975d 293c 5121 033e
000000a0: d9e0 5f3d f236 81bd e81c c53d 87cc 043e
000000b0: c19c ccbc 88bc a53d e598 0a3e 7bef 35bd
000000c0: 7f80 023d a5d8 12be 6a05 18bd 2cc2 0ebe
000000d0: d9bd 983d 8ed4 f7bd ecda eb3d d231 85be
000000e0: 22ca 663e 32f5 8c3a 7d05 b13e 3c6b 4d3e
000000f0: 1f7c cf3d 8334 013e cc09 4f3b 5402 b73d
00000100: 6bf0 fd3d 055c 3cbe c1ed 86bd e01d 5bbd
00000110: ba55 a73c 41a3 6bbc ff2c ce3c 78e7 8c3c
00000120: 2003 9d3d 5e52 9e3d 6edb b3be 46f6 d43e
00000130: a65a aa3d 0336 45be a5b2 bf3d f867 03be
00000140: 6f8b 1e3e 63af 093d 938d 62bd 50bf 19bc
00000150: dbb8 a0be 1881 2f3e 722e 9a3d fda0 383e
00000160: a5a5 5ebe 40be b8be fc16 9e3e 63d2 b5bd
00000170: d983 15bc 5721 38be 2ae3 963e f17c 113e
00000180: 9369 f43e 39a2 2b3e 46af c9bd 5784 e23d
00000190: b59a 3ebe f5bd 413d d573 dc3d 420c dbbd
000001a0: b75a 383e d9cd cf3a 1961 4e3e d1c8 743d
000001b0: 8688 873b 91c2 0c3e 4dff 373e 65cf 4d3e
000001c0: ca50 483d 33b4 b63e c7bf bcbd 9216 c23d
000001d0: 8496 3f3e 3961 d5bc 4a8d 1cbe 1d10 d23d
000001e0: 49c5 0d3e dda1 80bd 72ea 1d3e 9ee5 803d
000001f0: 36e0 b5bd c463 efbd c1c7 2f3d bc5e 43bd
00000200: ed24 e93d 09ad ea3c 44a7 38be bbaf 60bc
00000210: 1868 653c 2101 dabb af38 f1bc e61d 303e
00000220: 8335 e3bd 74d1 75bd 99aa 16bd b054 563c
00000230: 9028 3f3c 462a 6e3d 1e34 af3d dcf0 d33c
00000240: 1344 613c 0823 ab3d 8863 e13d 2997 00be
00000250: 0fbc 903e 4cdd 30be ad2f 83be eced ad3c
00000260: e005 03be 2e0c 753e d32f 56be 416a 3cbe
00000270: e767 683c 142d 8e3d 6eac 5bbe 6b80 803d
00000280: 1f5c a6bd 86a6 143d 3445 933d be65 7bbd
00000290: 06d1 993c d499 1d3e 0f8d 783d 2e98 ccbc
000002a0: 772f 253d 7a55 ddbd 3e2c bc3d 3d67 16bd
000002b0: 2e29 a8bd 2e31 3dbd db28 9a3d 911c 24bd
000002c0: 0f52 e3bd ad55 1ebe 6ea1 c03d 48d3 cfbd
000002d0: ccb0 523a 90ec a23d 7071 4a3d 599d 483d
000002e0: 6335 753d a142 d93c d018 923e 38d5 e03d
000002f0: d21f c2bd 33aa 123d d33d a6bc 5a63 873e
00000300: 2f27 e2bd b9f7 02bd 68fb 423e eb5c 3abe
00000310: d2b7 b43e f7ff 613d 1438 83bd e5f6 f7bc
00000320: 41cc f53d 9551 1ebe 6b73 79bd 9101 0f3d
00000330: 7d67 90bc de53 053e 028a 7d3d c0ab d7bd
00000340: b2ca 083e 5b23 113d cd79 b13e 8493 2abe
00000350: 0029 9d3d 404e 1fbd cc34 cebd 96be fabd
00000360: 11a1 f3bc 80c7 36be 73f0 3dbd 5c39 943c
00000370: a83c 75bd 79cb 1cbe d4ff 8cbb 81b9 7b3e
00000380: 8f0e 3dbd b30a cd3d 5e88 6c3e cf9f 99be
00000390: dc39 8e3d c014 78bd e865 9d3e 7ec1 11be
000003a0: 3b07 d4be 5270 973d e0f5 233d cf8c b53d
000003b0: 495d c1bd cded 403e 8160 b8bc d455 acbd
000003c0: a12f 823e f154 473e 7733 353d feab 543e
000003d0: 916e 5abd 8632 81bc 5249 abbd 2abf 2dbe
000003e0: b43f 213e 8c5b 103e 584d 00bd 04bf acba
000003f0: f218 01be 1c7d 1a3a 74ae 0c3d 038e c9bb

1.layers.1.0.bias f4 [74]
-0.018336946 -0.027150203 -0.026143838 0.003206033 -0.02093588 -0.037340898 -0.0797833 -0.03901098
-0.09565512 -0.025584584 -0.04435968 -0.0356986 -0.1025604 -0.016551698 -0.048204124 -0.010592953
-0.057356946 -0.0309548 0.0015652851 -0.032370206 -0.09104514 -0.059496082 -0.02575081 -0.07249907
-0.056352824 -0.02775218 -0.02566224 -0.05938361 -0.0073794755 -0.01876884 -0.06424686 -0.043771636
-0.0031775483 -0.064492255 -0.018725872 -0.03585433 -0.052757405 -0.014130833 -0.07146172 -0.03854989
-0.0141288815 -0.017922483 -0.003855262 0.014703399 -0.07159608 -0.021595513 -0.045593735 -0.021802286
-0.01792756 -0.043209303 -0.079340935 -0.018929929 -0.056498695 -0.039529413 -0.04139381 -0.01858614
-0.047375634 -0.06908391 -0.06857793 0.012063495 -0.07443417 -0.03098819 -0.018679278 -0.03563194
-0.05577382 -0.08761738 -0.020368973 -0.09867317 -0.03617187 -0.07657343 -0.04417049 -0.02536824
-0.0521942 -0.024157211
00000000: 5d37 96bc 1a6a debc 9a2b d6bc 4f1c 523b
00000010: b981 abbc c5f2 18bd 6d65 a3bd fac9 1fbd
00000020: d5e6 c3bd c396 d1bc 7fb2 35bd b238 12bd
00000030: 300b d2bd 6d97 87bc b071 45bd 118e 2dbc
00000040: 1eef 6abd ec94 fdbc 412a cd3a 9f96 04bd
00000050: e075 babd 2ab2 73bd 5df3 d2bc 647a 94bd
00000060: 38d2 66bd 8a58 e3bc 9e39 d2bc 3a3c 73bd
00000070: 87cf f1bb 1cc1 99bc dc93 83bd e349 33bd
00000080: 6a3e 50bb 8414 84bd 0067 99bc fddb 12bd
00000090: 2618 58bd 0285 67bc 865a 92bd 7de6 1dbd
000000a0: d37c 67bc 2cd2 92bc 90a8 7cbb 86e6 703c
000000b0: f7a0 92bd 13e9 b0bc 7fc0 3abd b59a b2bc
000000c0: d1dc 92bc 3dfc 30bd 807d a2bd f012 9bbc
000000d0: 2d6b 67bd 98e9 21bd 8e8c 29bd f641 98bc
000000e0: f40c 42bd dd7b 8dbd 9672 8cbd f7a5 453c
000000f0: f170 98bd f2da fdbc 4905 99bc ccf2 11bd
00000100: 1773 64bd be70 b3bd d5dc a6bc 2915 cabd
00000110: f428 14bd 88d2 9cbd 1eec 34bd 0ed1 cfbc
00000120: 96c9 55bd 58e5 c5bc

1.layers.2.0.weight f4 [74, 222]
-0.07130594 -0.06104571 -0.03124129 -0.19970673 -0.01649753 0.05012459 0.18234377 -0.03462878
0.07973586 -0.022722468 0.036554743 -0.01019492 -0.19379674 0.048846275 0.042587947 -0.07050038
-0.041127276 0.17037986 -0.1214999 0.15332592 0.09807124 0.037002817 -0.08634754 -0.072084345
-0.16046725 -0.03003854 -0.12421221 0.011941733 -0.06999163 -0.00952065 0.12960735 0.14262266
0.20583391 0.10900078 0.085186094 0.049237117 0.031677905 0.15920722 -0.034613714 0.06557972
-0.018300375 -0.0035683094 0.10409478 0.1483475 0.10790577 0.026485229 0.053757127 -0.05060241
0.18154766 -0.033501744 -0.06526237 -0.17013581 0.03947973 -0.16211851 0.13031246 -0.10290335
-0.05815282 -0.11946403 -0.0038834284 -0.0058078915 -0.006083799 0.06662924 0.04433567 0.09431258
0.1318555 0.036188584 0.03538895 -0.089047685 -0.030560689 -0.0059359493 0.1868445 -0.008550926
-0.13019143 -0.062412307 0.008106201 -0.12964758 -0.094828956 -0.08353187 -0.030985707 0.033155553
0.112548955 -0.13577351 0.03260164 0.111294195 -0.13983053 -0.07960663 0.042411014 -0.15036725
0.16187532 0.0980589 -0.031578753 -0.0417248 -0.0008032239 -0.19166583 0.18700157 -0.062904455
0.10032526 0.006115024 -0.09744263 0.021076355 -0.060901288 -0.14060265 -0.043925628 -0.1808213
0.25094324 -0.0441407 0.029154517 0.011054782 0.24396704 0.015689917 0.15890823 -0.10201526
-0.28802988 -0.11509626 0.1963417 0.012368777 -0.15921308 -0.0879226 0.021828227 -0.0240228
0.020281937 -0.040560003 0.15952061 0.02422029 -0.09040385 -0.12919748 -0.09998222 -0.0012464587
0.11751962 -0.011708826 -0.06593996 0.07883532 -0.032484595 0.011498976 0.024967946 0.059645273
-0.13353044 -0.07412835 0.050534025 0.1210815 0.06940131 -0.051584184 -0.042740043 -0.040811215
0.030820392 -0.06261953 0.18510479 -0.053757846 -0.28076762 -0.039424576 -0.13368814 -0.13425274
-0.17762648 0.18309666 0.07104605 -0.00031827166 -0.15188025 0.09650746 -0.0725829 0.18120947
0.08890045 0.19639824 0.111405425 -0.19879979 0.09962453 -0.15820238 -0.16013406 0.14382295
0.1001719 0.19469377 -0.26053917 0.081400916 0.10239814 -0.033004344 0.010359539 -0.11295873
-0.05314265 -0.0039110905 -0.027382215 -0.11869249 -0.0035519958 -0.17826267 -0.14796247 0.076115176
-0.04021298 -0.024212044 0.040630925 0.15306477 -0.031975295 0.1984127 -0.16151078 0.094191015
-0.07823509 -0.12872548 0.09120319 0.08483143 0.040406562 0.007229739 0.10167579 0.03414599
-0.024410607 0.09329005 0.2054253 0.12873279 -0.12353402 -0.009305847 0.15297064 -0.02488213
-0.0018743618 -0.019249681 -0.062998645 -0.13845868 -0.085746825 0.06689927 0.08541992 -0.016604373
-0.040402688 0.07572684 0.06525548 -0.1064208 -0.06311298 0.11387072 0.102387324 -0.19293031
0.12965314 0.19770698 0.16796233 0.19511764 0.2280585 0.058446307 0.03964795 -0.13791502
0.015993495 0.05853213 -0.09517132 0.099408776 -0.00371918 0.116646625 -0.057024114 0.20725182
-0.058946546 -0.027272182 0.044151902 0.082868434 0.05843945 0.056913294 -0.046888597 0.059796892
0.07250626 0.21866404 0.020407628 -0.0053608115 0.20277523 -0.0070777033 -0.198183 0.2119152
00000000: d908 92bd 110b 7abd bced ffbc ec7f 4cbe
00000010: d425 87bc 714f 4d3d 53b8 3a3e e8d6 0dbd
00000020: 8e4c a33d 7824 babc 6dba 153d 9808 27bc
00000030: a772 46be 0813 483d b370 2e3d 8162 90bd
00000040: 1375 28bd 0f78 2e3e f1d4 f8bd 7801 1d3e
00000050: 93d9 c83d 4490 173d fbd6 b0bd f5a0 93bd
00000060: 8751 24be 6213 f6bc f962 febd 42a7 433c
00000070: c657 8fbd 80fc 1bbc cab7 043e ad0b 123e
00000080: 20c6 523e cd3b df3d 0c76 ae3d dcac 493d
00000090: b1c0 013d 3807 233e 1cc7 0dbd a94e 863d
000000a0: abea 95bc 4cda 69bb a52f d53d 68e8 173e
000000b0: b3fd dc3d 8df7 d83c 6f30 5c3d 7944 4fbd
000000c0: a1e7 393e 2039 09bd 47a8 85bd 1538 2ebe
000000d0: 7fb5 213d 6502 26be a170 053e febe d2bd
000000e0: a731 6ebd 8fa9 f4bd 1e81 7ebb 2050 bebb
000000f0: 9b5a c7bb e974 883d 5299 353d f426 c13d
00000100: 2105 073e 7b3a 143d 01f4 103d a25e b6bd
00000110: 695a fabc 5a82 c2bb 2a54 3f3e 2f19 0cbc
00000120: e750 05be 0ca4 7fbd dfcf 043c 56c2 04be
00000130: af35 c2bd c212 abbd bdd5 fdbc 1ece 073d
00000140: 1180 e63d 3608 0bbe 4c89 053d 36ee e33d
00000150: bc2f 0fbe cd08 a3bd 2cb7 2d3d dff9 19be
00000160: a5c2 253e 1bd3 c83d b958 01bd a0e7 2abd
00000170: 728f 52ba 0c44 44be 577d 3f3e 0dd4 80bd
00000180: 5477 cd3d 8a60 c83b 0090 c7bd 52a8 ac3c
00000190: a173 79bd 24fa 0fbe 5ceb 33bd 3829 39be
000001a0: a27b 803e e1cc 34bd 74d5 ee3c 1e1f 353c
000001b0: 7fd2 793e 2488 803c d7b8 223e 60ed d0bd
000001c0: a778 93be 97b7 ebbd cc0d 493e 69a6 4a3c
000001d0: c108 23be c410 b4bd 1cd1 b23c 77cb c4bc
000001e0: 4e26 a63c 3f22 26bd 5f59 233e a169 c63c
000001f0: a725 b9bd 584c 04be 7ac3 ccbd 3760 a3ba
00000200: 20ae f03d 60d6 3fbc 880b 87bd 6a74 a13d
00000210: 910e 05bd 3366 3c3c 9489 cc3c 9a4e 743d
00000220: 34bc 08be 9bd0 97bd c4fc 4e3d 94f9 f73d
00000230: 4622 8e3d f049 53bd 2f10 2fbd a929 27bd
00000240: 0c7b fc3c ab3e 80bd 1c8c 3d3e 3031 5cbd
00000250: c6c0 8fbe aa7b 21bd 8be5 08be 8d79 09be
00000260: b7e3 35be b17d 3b3e 9780 913d b3dd a6b9
00000270: 7f86 1bbe b4a5 c53d 58a6 94bd fa8e 393e
00000280: 7011 b63d 9f1c 493e 8728 e43d 2c92 4bbe
00000290: f207 cc3d ceff 21be 2ffa 23be 5346 133e
000002a0: ed26 cd3d ce5d 473e 6465 85be 86b5 a63d
000002b0: 1eb6 d13d 902f 07bd 0ebb 293c e856 e7bd
000002c0: 1bac 59bd 9b28 80bb ab50 e0bc 0c15 f3bd
000002d0: 9ac8 68bb 7d8a 36be 7983 17be 46e2 9b3d
000002e0: 5eb6 24bd 5658 c6bc 9d6c 263d 03bd 1c3e
000002f0: 87f8 02bd b32c 4b3e 1563 25be 38e7 c03d
00000300: b839 a0bd 9dd0 03be bdc8 ba3d 1abc ad3d
00000310: 5a81 253d 72e7 ec3b 663b d03d aadc 0b3d
00000320: c1f8 c7bc db0e bf3d 035b 523e 87d2 033e
00000330: 67ff fcbd 8d77 18bc 56a4 1c3e 9cd5 cbbc
00000340: 25ad f5ba 82b1 9dbc 6f05 81bd 1dc8 0dbe
00000350: 089c afbd 7c02 893d a4f0 ae3d e505 88bc
00000360: 4a7d 25bd ac16 9b3d aaa4 853d 26f3 d9bd
00000370: 6141 81bd 0d35 e93d 72b0 d13d 868f 45be
00000380: cbc3 043e b373 4a3e 51fe 2b3e ebcc 473e
00000390: 2b88 693e 6565 6f3d e465 223d 9839 0dbe
000003a0: ca04 833c 63bf 6f3d 2ee9 c2bd d496 cb3d
000003b0: 7cbd 73bb 6de4 ee3d 1e92 69bd d239 543e
000003c0: ef71 71bd e969 dfbc a0d8 343d edb6 a93d
000003d0: 345e 6f3d ea1d 693d 420e 40bd 96ed 743d
000003e0: 297e 943d 77e9 5f3e e62d a73c bfa9 afbb
000003f0: 4fa4 4f3e 14ec e7bb 7cf0 4abe 4c00 593e

1.layers.2.0.bias f4 [74]
-0.035757676 -0.036487702 -0.015736658 -0.019755172 -0.061536122 -0.048841804 -0.04459162 -0.077862315
-0.079562694 -0.050103642 -0.041886512 -0.05823934 -0.06178118 -0.059516378 -0.07861787 -0.09136708
-0.03611867 -0.066238865 -0.036458135 -0.05477023 -0.073718406 -0.019751554 -0.033422474 -0.026246596
-0.009592187 -0.047346935 -0.09754607 -0.03437984 -0.017317493 -0.042076495 -0.03867649 -0.059420515
-0.039151568 -0.026271429 -0.08131937 -0.041968476 -0.036725666 -0.056486093 -0.04580995 -0.03806829
-0.04958404 -0.014476792 -0.033208966 -0.019707179 -0.071593754 -0.058869436 -0.021224387 -0.07213176
-0.018776564 -0.008400054 -0.050134756 -0.029119868 -0.046289448 -0.04167043 -0.01756591 -0.05813456
-0.020279415 -0.01844645 -0.084529266 -0.033611096 -0.06098687 -0.056796357 -0.012201317 -0.014987035
-0.034062136 -0.032221958 -0.019244729 -0.026027055 -0.028673654 -0.035636343 -0.049959626 -0.03259672
-0.042759806 -0.04632636
00000000: a476 12bd 2174 15bd 2aea 80bc 99d5 a1bc
00000010: 4d0d 7cbd 580e 48bd b4a5 36bd 4776 9fbd
00000020: c4f1 a2bd 7a39 4dbd 3191 2bbd 608c 6ebd
00000030: 430e 7dbd 72c7 73bd 6802 a1bd aa1e bbbd
00000040: 2cf1 13bd 3ea8 87bd 2055 15bd c056 60bd
00000050: adf9 96bd 03ce a1bc 01e6 08bd 1a03 d7bc
00000060: 8c28 1dbc dcee 41bd 3cc6 c7bd e0d1 0cbd
00000070: 6add 8dbc 6758 2cbd 3d6b 1ebd ed62 73bd
00000080: 655d 20bd 2e37 d7bc c58a a6bd 23e7 2bbd
00000090: a76d 16bd f65d 67bd 37a3 3bbd 7fed 1bbd
000000a0: a218 4bbd 1130 6dbc 2006 08bd f370 a1bc
000000b0: bf9f 92bd 1421 71bd c4de adbc d1b9 93bd
000000c0: 4fd1 99bc 61a0 09bc 1a5a 4dbd ca8c eebc
000000d0: 019a 3dbd 9dae 2abd 62e6 8fbc 811e 6ebd
000000e0: 0421 a6bc 021d 97bc ae1d adbd caab 09bd
000000f0: 5ecd 79bd 4ca3 68bd 08e8 47bc 2e8c 75bc
00000100: bd84 0bbd 2cfb 03bd 1fa7 9dbc b136 d5bc
00000110: 03e5 eabc 6af7 11bd 77a2 4cbd 2384 05bd
00000120: e824 2fbd b6c0 3dbd

1.layers.3.0.weight f4 [74, 296]
0.021304961 -0.16654718 0.083738096 -0.028063158 -0.031630144 -0.04850916 -0.13727635 -0.035704315
-0.011648671 0.050534856 0.08098723 0.026871158 0.05643815 -0.022001825 -0.06252172 -0.091639616
-0.009081848 -0.10246797 -0.04831242 0.12738262 -0.0058357147 0.04229992 0.0030177578 -0.10495788
0.116546385 -0.012992666 0.037708554 -0.059110202 -0.04085421 -0.06273251 0.039414663 0.08339234
0.04707293 -0.02989262 0.100788 0.1320139 0.049794633 0.15190928 -0.0045271465 -0.05298196
0.08171787 -0.010319688 -0.07808702 0.055841956 -0.11937171 -0.11814841 0.11715878 -0.20857605
-0.054931674 0.091291375 -0.13779818 0.09548829 0.03402466 -0.045809034 0.06761877 0.051009875
-0.0665527 -0.113203146 0.063606314 0.059262518 -0.113775 -0.067195445 0.00692805 -0.01327139
0.09092813 -0.19611718 -0.100506544 0.062503405 0.11768708 0.02188568 -0.03301056 -0.00559309
0.040073097 -0.05004224 -0.023124067 -0.048277427 0.03978813 -0.0069525507 0.17040712 -0.010443037
0.015069291 0.026800573 0.012203187 -0.027230369 -0.1531213 0.031951375 0.10741681 -0.15955587
0.07300258 -0.19287238 0.03255373 0.0077340133 -0.060870294 -0.02720578 -0.07203807 -0.047692407
0.019209813 0.087077595 -0.04149632 -0.009522734 -0.025952058 0.029131275 0.107585296 0.10835437
-0.050786145 0.004893736 0.13329695 -0.023563897 0.034107592 -0.0021543037 -0.1000093 0.036723286
-0.009491042 0.14567286 -0.014150493 0.032469757 0.038223792 0.07656696 -0.059898898 -0.015263932
0.13128626 -0.072212756 -0.17974944 -0.064028114 0.08537482 -0.12936184 -0.093201295 0.05855689
0.061234757 -0.056636594 -0.14513573 0.1317835 -0.08482648 -0.01768702 0.0022912677 0.116904065
0.13269408 0.06251663 -0.091245264 0.016728496 -0.13023871 -0.004890433 0.1509835 -0.03040673
0.08719457 0.08897303 0.080890305 -0.054069385 0.029434055 -0.10593772 -0.12471575 -0.12544413
-0.068575755 0.063133106 -0.045480765 0.05439518 -0.099541456 -0.04328671 0.1179608 -0.12315479
-0.05618096 0.04032156 0.0455884 0.029178724 -0.18442234 -0.10771552 -0.031662956 -0.04165887
0.004578498 -0.068349175 -0.10574329 0.10646888 -0.11720565 0.15348078 0.06903004 -0.032115974
0.05585725 0.020198615 -0.1526372 0.006115238 -0.13854292 0.017446224 0.0667602 -0.03669232
0.003249785 -0.11655807 0.063645095 0.07113953 0.08739064 0.0056360452 -0.010512727 -0.091722324
-0.034105804 -0.087120764 0.03153551 -0.022385446 -0.10018316 0.13993914 -0.28581363 -0.20147686
-0.06355136 -0.06310247 0.04524759 0.038262118 -0.078422576 -0.08650948 -0.019179063 -0.030210663
0.07134754 0.016083749 0.11247974 0.053658754 0.08454011 -0.09030324 -0.0063588154 -0.12718424
-0.18184185 -0.086914115 -0.051500514 -0.044863503 -0.011346453 -0.055642333 -0.020644683 -0.10985021
0.08362163 0.033587653 -0.0090712765 -0.25243345 0.057957772 -0.14011845 -0.21362391 -0.35658717
-0.017297294 -0.2540304 0.12214635 -0.086965404 -0.10200529 0.029054785 -0.16093823 -0.013052711
0.037019793 -0.07163552 -0.029859137 -0.08179125 0.019396579 0.01553552 -0.041256603 -0.049256127
0.030126872 0.114277095 0.0009646271 0.021136155 -0.021662721 -0.046140462 0.035552606 -0.015624036
00000000: be87 ae3c 588b 2abe e17e ab3d b5e4 e5bc
00000010: 9c8e 01bd 8ab1 46bd 2c92 0cbe b03e 12bd
00000020: 11da 3ebc a3fd 4e3d a2dc a53d e720 dc3c
00000030: b12b 673d 2c3d b4bc 630b 80bd 8dad bbbd
00000040: 08cc 14bc bada d1bd 3ee3 45bd 9770 023e
00000050: 8639 bfbb ae42 2d3d 93c5 453b 28f4 d6bd
00000060: dfaf ee3d 31df 54bc 4974 1a3d 8a1d 72bd
00000070: be56 27bd e779 80bd 4571 213d 9ac9 aa3d
00000080: 8bcf 403d 5ee1 f4bc f069 ce3d a72e 073e
00000090: 75f5 4b3d 1b8e 1b3e 7558 94bb 9d03 59bd
000000a0: b35b a73d e913 29bc 16ec 9fbd 89ba 643d
000000b0: 2879 f4bd cbf7 f1bd f1f0 ef3d f694 55be
000000c0: 0900 61bd f9f6 ba3d f71a 0dbe 5d8f c33d
000000d0: 715d 0b3d 41a2 3bbd b67b 8a3d bbef 503d
000000e0: c84c 88bd 0dd7 e7bd 0744 823d 41bd 723d
000000f0: de02 e9bd c49d 89bd b204 e33b 3f70 59bc
00000100: 8738 ba3d f1d2 48be 60d6 cdbd c901 803d
00000110: ec05 f13d 9949 b33c 1536 07bd 3d46 b7bb
00000120: b023 243d 18f9 4cbd af6e bdbc 8dbe 45bd
00000130: e1f8 223d 39d2 e3bb 347f 2e3e 4619 2bbc
00000140: 30e5 763c e08c db3c e0ef 473c 3912 dfbc
00000150: d4cb 1cbe 72df 023d 58fd db3d 9d62 23be
00000160: 6082 953d 5680 45be 0f57 053d 9b6d fd3b
00000170: 2153 79bd a8de debc b288 93bd 1d59 43bd
00000180: e65d 9d3c bd55 b23d 0cf8 29bd 3e05 1cbc
00000190: 6999 d4bc b6a4 ee3c ae55 dc3d e5e8 dd3d
000001a0: 2205 50bd a25b a03b ff7e 083e 1309 c1bc
000001b0: 67b4 0b3d 382f 0dbb add1 ccbd 286b 163d
000001c0: 5180 1bbc 442b 153e 78d7 67bc 02ff 043d
000001d0: 8d90 1c3d 23cf 9c3d 8c58 75bd 9215 7abc
000001e0: e86f 063e 48e4 93bd 3d10 38be 2c21 83bd
000001f0: fed8 ae3d 6e77 04be 52e0 bebd 59d9 6f3d
00000200: 4cd1 7a3d c6fb 67bd 769e 14be 41f2 063e
00000210: 81b9 adbd 5fe4 90bc 1829 163b 666b ef3d
00000220: f5e0 073e b808 803d ccde babd 330a 893c
00000230: 4c5d 05be ed3f a0bb 6b9b 1a3e 8917 f9bc
00000240: 1193 b23d 7e37 b63d d1a9 a53d dc77 5dbd
00000250: b01f f13c e0f5 d8bd f96a ffbd 6d74 00be
00000260: 7271 8cbd ee4b 813d 0a4a 3abd 7bcd 5e3d
00000270: 64dc cbbd 684d 31bd 6f95 f13d 9438 fcbd
00000280: 021e 66bd 3828 253d e7ba 3a3d 3808 ef3c
00000290: 36d9 3cbe f499 dcbd 04b1 01bd 7ea2 2abd
000002a0: 3a07 963b a7fa 8bbd f08f d8bd 5b0c da3d
000002b0: 8409 f0bd 112a 1d3e 9f5f 8d3d 0a8c 03bd
000002c0: 92ca 643d 9177 a53c ed4c 1cbe 5662 c83b
000002d0: 32de 0dbe 62eb 8e3c 92b9 883d b04a 16bd
000002e0: 58fa 543b ffb5 eebd 5c58 823d 9ab1 913d
000002f0: ddf9 b23d 93ae b83b 933d 2cbc ead8 bbbd
00000300: 87b2 0bbd 5f6c b2bd 612b 013d af61 b7bc
00000310: d42c cdbd 354c 0f3e 2a56 92be f34f 4ebe
00000320: 3727 82bd de3b 81bd 8955 393d bdb8 1c3d
00000330: 049c a0bd e22b b1bd 691d 9dbc 5a7c f7bc
00000340: a91e 923d 11c2 833c c75b e63d 48c9 5b3d
00000350: 5d23 ad3d e8f0 b8bd 9c5d d0bb 963c 02be
00000360: c034 3abe 0700 b2bd 34f2 52bd cbc2 37bd
00000370: 79e6 39bc 37e9 63bd 0a1f a9bc 26f9 e0bd
00000380: d141 ab3d 3593 093d b19f 14bc f53e 81be
00000390: 2165 6d3d 367b 0fbe 3ac0 5abe 9892 b6be
000003a0: 0eb3 8dbc 4610 82be de27 fa3d eb1a b2bd
000003b0: 26e8 d0bd 4d04 ee3c fecc 24be 0adb 55bc
000003c0: 11a2 173d a5b5 92bd 269b f4bc 2c82 a7bd
000003d0: 93e5 9e3c b288 7e3c affc 28bd cbc0 49bd
000003e0: a1cc f63c 1c0a ea3d 07df 7c3a bb25 ad3c
000003f0: 0576 b1bc c8fd 3cbd 9c9f 113d f5fb 7fbc

1.layers.3.0.bias f4 [74]
0.007639073 -0.09137003 -0.08272397 -0.055485018 -0.03212583 -0.04477846 -0.0006126876 -0.034041982
-0.045553967 -0.018708251 -0.047804367 -0.023717519 -0.029386168 -0.04684757 -0.037187457 -0.061654232
-0.04965555 -0.027971666 -0.011948013 -0.018864654 -0.029109797 -0.030909847 -0.04287859 -0.0342845
-0.016601775 -0.05406458 -0.009330638 -0.020872803 -0.07775526 -0.05043019 -0.013246288 -0.053477187
-0.05881784 -0.025926506 -0.06941776 -0.02749032 -0.013463675 -0.018657377 -0.06070273 -0.042685825
-0.016201776 -0.014640169 -0.01493655 -0.02153884 -0.068658195 -0.029076891 -0.035457194 -0.039754044
-0.04644313 -0.04593118 -0.06360931 0.005329158 -0.05647599 -0.043190237 -0.05520837 -0.034080684
-0.015104909 -0.056784112 -0.03208111 -0.0038434248 -0.03306508 -0.04228735 -0.03623839 -0.004092397
-0.023751909 -0.025873365 -0.053913783 0.0053122775 -0.036582965 -0.012411227 -0.019143589 -0.030996947
-0.01895109 -0.030556152
00000000: 3051 fa3b 3620 bbbd 2f6b a9bd 4244 63bd
00000010: 6096 03bd 9e69 37bd c59c 20ba 9b6f 0bbd
00000020: cc96 3abd 0c42 99bc 83ce 43bd 3e4b c2bc
00000030: 43bb f0bc 3de3 3fbd e051 18bd 2689 7cbd
00000040: 9e63 4bbd d624 e5bc 99c1 43bc 0c8a 9abc
00000050: ab77 eebc a636 fdbc 76a1 2fbd e76d 0cbd
00000060: 7200 88bc d272 5dbd 88df 18bc 71fd aabc
00000070: 263e 9fbd e38f 4ebd f506 59bc e50a 5bbd
00000080: faea 70bd d363 d4bc e62a 8ebd 6133 e1bc
00000090: bf96 5cbc 5bd7 98bc 6da3 78bd 55d7 2ebd
000000a0: 96b9 84bc 52dd 6fbc 6eb8 74bc 3972 b0bc
000000b0: ab9c 8cbd a932 eebc 903b 11bd 23d5 22bd
000000c0: 273b 3ebd 5522 3cbd 9945 82bd 38a0 ae3b
000000d0: 5e53 67bd 3fe8 30bd 2c22 62bd 3098 0bbd
000000e0: 957a 77bc 7596 68bd 7b67 03bd f8e1 7bbb
000000f0: 406f 07bd 8035 2dbd b56e 14bd 8419 86bb
00000100: 5d93 c2bc 61f4 d3bc b3d4 5cbd 9d12 ae3b
00000110: 05d8 15bd 7658 4bbc 04d3 9cbc 4fed fdbc
00000120: 513f 9bbc e550 fabc

1.layers.4.0.weight f4 [74, 370]
0.07357927 0.18837665 0.10511689 -0.021108922 -0.041049685 0.10559531 0.097808175 0.08747144
0.03648339 0.053242426 0.031666007 -0.031144273 0.07432911 0.003653427 -0.012798336 -0.003055419
-0.0899559 -0.16158524 -0.07866758 0.10547564 -0.09531051 0.04837293 -0.029631702 -0.041389517
-0.084998 0.107179 0.064148515 -0.07399812 0.000371143 0.037260104 -0.11190112 0.0069655655
0.19577727 -0.0047571147 0.017586457 0.028426185 0.05312671 -0.06312377 -0.07982077 -0.0756275
-0.1010355 0.014387292 -0.11433827 0.13212515 -0.012022746 0.059570514 0.084370576 0.0043749367
0.033769518 0.022785854 0.021211877 0.036730353 -0.2030632 0.03629109 -0.09439862 0.035537314
-0.039901428 -0.024813315 0.02243439 0.046415456 -0.14405979 0.052699182 0.087642394 0.122043125
0.1215763 0.05721687 0.056900643 -0.14587992 0.22210023 -0.0048127603 -0.003994605 -0.024476849
-0.026667647 -0.049536593 -0.010727315 0.0058012777 0.13866118 0.025852278 -0.014471305 0.22391726
0.02141228 -0.060197722 -0.027687065 0.061934862 0.119703524 -0.12799475 0.08085709 -0.022383198
0.13570525 0.0041868226 0.061319314 -0.011325923 0.059246488 0.0578125 0.07154152 -0.08750998
0.018113235 -0.10539553 0.053992994 -0.06486991 0.012254659 0.00072564767 -0.043539166 -0.10418339
0.032021366 0.03589952 -0.073831394 0.00528575 0.1245964 0.076463155 0.10124754 -0.08169832
0.050179858 -0.058919903 -0.24479796 0.05593051 -0.03648794 -0.17519265 0.1676695 -0.0001793997
0.03618097 0.16431338 -0.0005956294 0.05825574 0.043207332 -0.03691518 0.047722217 0.022456698
-0.017029181 0.0041666925 0.14565246 -0.057016395 0.02963435 0.020778758 -0.030937487 0.03272695
0.07292922 0.13636622 0.009763221 -0.004825908 -0.10151475 -0.14179161 0.09029446 -0.07959327
-0.0138482805 0.10743066 -0.012484954 0.054088857 0.066105865 -0.025835713 0.0438525 -0.005476721
0.017928746 -0.21470693 0.015805 0.12668665 0.028793436 -0.09264046 -0.0106163435 0.12514098
0.14793865 0.014207495 -0.01169572 -0.14390616 0.06910754 -0.049179837 -0.0014120205 0.11628356
-0.0028742265 7.357419e-05 -0.02160732 -0.020149998 0.0642509 0.07354664 -0.055710115 -0.016263535
-0.07348721 -0.06023923 -0.029195357 -0.07599769 -0.1423322 -0.14663854 -0.08878118 0.02399878
0.010448425 -0.04621491 0.030838754 -0.15440136 -0.07062545 -0.09268942 0.061319485 0.10780733
0.002193524 -0.17551707 0.045161244 -0.026847241 0.018483467 0.113447525 0.12312934 -0.029926762
-0.10606486 0.023072185 0.18834618 -0.09469051 0.2318781 0.049136356 -0.054595284 -0.34051654
-0.08905123 -0.11410843 0.10844671 0.061669648 0.004828424 -0.13608758 -0.039476473 0.15636727
0.22965576 -0.023319067 0.06870205 0.16360727 0.014235466 -0.027287956 0.06496434 0.03624341
-0.02825451 0.024591373 0.08689375 0.024452848 0.16543862 -0.06264776 0.08641606 -0.055620763
0.09921908 0.03527824 0.08700186 -0.1507033 -0.0728664 -0.17546457 0.055480815 -0.046117228
0.043652434 0.043883234 -0.012371101 0.0055268276 -0.1199803 0.12406529 0.30066943 0.0059801047
-0.029792871 0.07943541 -0.12838177 -0.024997827 0.088158034 -0.0040177833 0.039218668 -0.07200073
00000000: bab0 963d cfe5 403e 8647 d73d 9eec acbc
00000010: b723 28bd 5b42 d83d a74f c83d 3a24 b33d
00000020: 9b6f 153d bb14 5a3d 37b4 013d 4622 ffbc
00000030: dc39 983d 556e 6f3b 1db0 51bc 6d3d 48bb
00000040: cd3a b8bd 9a76 25be 781c a1bd 9d03 d83d
00000050: 2832 c3bd b222 463d 2fbe f2bc 0e88 29bd
00000060: 6e13 aebd aa80 db3d 4c60 833d 548c 97bd
00000070: f895 c239 0d9e 183d 6a2c e5bd 663f e43b
00000080: d679 483e 92e1 9bbb 7911 903c 08de e83c
00000090: 659b 593d 0947 81bd 1279 a3bd 97e2 9abd
000000a0: b3eb cebd adb8 6b3c 2f2a eabd d14b 073e
000000b0: 0dfb 44bc 3600 743d 7bca ac3d a15b 8f3b
000000c0: e851 0a3d 66a9 ba3c 88c4 ad3c 9172 163d
000000d0: cdef 4fbe f7a5 143d 1054 c1bd 938f 113d
000000e0: ae6f 23bd 4b45 cbbc 53c8 b73c 221e 3e3d
000000f0: 6984 13be 19db 573d db7d b33d bff1 f93d
00000100: fffc f83d 3d5c 6a3d a610 693d 8c61 15be
00000110: 3e6e 633e 5cb4 9dbb 2de5 82bb ac83 c8bc
00000120: 1c76 dabc e2e6 4abd 9fc1 2fbc a518 be3b
00000130: 32fd 0d3e 28c8 d33c 0d19 6dbc 914a 653e
00000140: ce68 af3c e391 76bd fccf e2bc 69af 7d3d
00000150: 1f27 f53d 0e11 03be 6798 a53d f85c b7bc
00000160: 51f6 0a3e 9d31 893b f629 7b3d 5d90 39bc
00000170: 72ac 723d cdcc 6c3d 5c84 923d 6f38 b3bd
00000180: 3562 943c 9dd9 d7bd c227 5d3d 84da 84bd
00000190: c4c7 483c 6439 3e3a 2056 32bd 1a5e d5bd
000001a0: d628 033d 600b 133d ea34 97bd 1634 ad3b
000001b0: 662c ff3d b798 9c3d df5a cf3d 7351 a7bd
000001c0: 6589 4d3d ff55 71bd 51ac 7abe 6417 653d
000001d0: 6174 15bd b465 33be 8eb1 2b3e 3e1d 3cb9
000001e0: 7f32 143d c441 283e 0324 1cba 929d 6e3d
000001f0: 2cfa 303d 5f34 17bd 5f78 433d 1cf7 b73c
00000200: c880 8bbc c088 883b eb25 153e 068a 69bd
00000210: bdc3 f23c 3738 aa3c 9d70 fdbc b20c 063d
00000220: ea5b 953d 96a3 0b3e ebf5 1f3c a722 9ebb
00000230: f7e6 cfbd d231 11be 4dec b83d cc01 a3bd
00000240: e6e3 62bc 9b04 dc3d b18d 4cbc 478c 5d3d
00000250: 8362 873d 6ba5 d3bc ae9e 333d 1176 b3bb
00000260: 4edf 923c 22dc 5bbe 7d79 813c 25ba 013e
00000270: 36e0 eb3c 48ba bdbd 2cf0 2dbc f524 003e
00000280: 3b7d 173e 8ec6 683c 689f 3fbc 235c 13be
00000290: 4188 8d3d cc70 49bd 8c13 b9ba 1326 ee3d
000002a0: 855d 3cbb d84b 9a38 d601 b1bc 9c11 a5bc
000002b0: fa95 833d 9f9f 963d 4a30 64bd 1b3b 85bc
000002c0: 7680 96bd 69bd 76bd 1a2b efbc ada4 9bbd
000002d0: 88bf 11be 6a28 16be e8d2 b5bd 1799 c43c
000002e0: df2f 2b3c d84b 3dbd 8ea1 fc3c 641b 1ebe
000002f0: 13a4 90bd f3d3 bdbd 242a 7b3d 17ca dc3d
00000300: 3ac1 0f3b bfba 33be fffa 383d bfee dbbc
00000310: a46a 973c 2d57 e83d 3c2b fc3d f828 f5bc
00000320: 8938 d9bd e101 bd3c d2dd 403e 19ed c1bd
00000330: 7471 6d3e 3443 493d 4e9f 5fbd 2f58 aebe
00000340: 7e60 b6bd aeb1 e9bd 4f19 de3d 5099 7c3d
00000350: c237 9e3b 8b5a 0bbe 15b2 21bd be1e 203e
00000360: e12a 6b3e a107 bfbc a9b3 8c3d aa88 273e
00000370: df3b 693c fe8a dfbc 060c 853d f873 143d
00000380: 0176 e7bc d973 c93c 5af5 b13d 5751 c83c
00000390: be68 293e 784d 80bd e7fa b03d 99d2 63bd
000003a0: 5f33 cb3d ea7f 103d 082e b23d f751 1abe
000003b0: fb3a 95bd fcac 33be da3f 633d 6be5 3cbd
000003c0: e5cc 323d e8be 333d 29b0 4abc 641a b53b
000003d0: 3bb8 f5bd f115 fe3d 58f1 993e c1f4 c33b
000003e0: 2e10 f4bc 08af a23d 8376 03be 3ec8 ccbc
000003f0: 338c b43d 9ca7 83bb c1a3 203d 1e75 93bd

1.layers.4.0.bias f4 [74]
-0.030713081 -0.024951398 -0.0094794445 -0.0530582 -0.07603336 -0.023004573 -0.05906085 -0.030936865
-0.025617262 -0.04969495 -0.04231102 -0.0039178394 -0.038004473 -0.0062558088 -0.05148631 -0.04849227
-0.035622444 -0.066153556 -0.05296679 -0.054697663 -0.03232828 -0.03875598 0.014774411 -0.036113594
-0.07177389 -0.002275971 -0.037149787 0.002577716 -0.026586425 -0.02064881 -0.040848415 -0.04105069
-0.011865749 -0.078705266 -0.050171677 -0.032888178 -0.06642378 -0.050843924 -0.021409692 -0.034431193
-0.045861717 -0.0027812608 -0.039949726 -0.07200151 -0.03225412 -0.043612193 -0.0355748 -0.047177676
-0.0053872126 -0.067468494 -0.018139072 -0.047510426 -0.035840772 -0.033131808 -0.028354453 -0.014601479
-0.018407539 -0.037187584 -0.047411308 -0.013177294 -0.031624384 -0.04435553 -0.013563606 -0.0156678
-0.034567814 -0.01331902 -0.04603164 -0.040445033 -0.062630825 -0.016000897 -0.009895561 -0.01826992
-0.019275576 -0.022963284
00000000: 009a fbbc e066 ccbc ac4f 1bbc 8e53 59bd
00000010: 61b7 9bbd 1674 bcbc cae9 71bd 4f6f fdbc
00000020: 4bdb d1bc ef8c 4bbd 524e 2dbd 3861 80bb
00000030: 94aa 1bbd 87fd ccbb 4fe3 52bd d59f 46bd
00000040: d7e8 11bd 847b 87bd b4f3 58bd a80a 60bd
00000050: a96a 04bd 97be 1ebd 5f10 723c d9eb 13bd
00000060: 30fe 92bd 7528 15bb 602a 18bd e6ee 283b
00000070: c6cb d9bc b127 a9bc ab50 27bd c524 28bd
00000080: 8f68 42bc 3a30 a1bd d180 4dbd c1b5 06bd
00000090: 3109 88bd b841 50bd 6163 afbc b907 0dbd
000000a0: 7fd9 3bbd d045 36bb 53a2 23bd 8775 93bd
000000b0: e51c 04bd b3a2 32bd e2b6 11bd 613d 41bd
000000c0: 3787 b0bb ec2c 8abd 6498 94bc 4b9a 42bd
000000d0: c6cd 12bd 38b5 07bd 9947 e8bc 0b3b 6fbc
000000e0: 68cb 96bc 0252 18bd 5c32 42bd 94e5 57bc
000000f0: 9288 01bd 25ae 35bd e339 5ebc c259 80bc
00000100: fb96 0dbd 0538 5abc ac8b 3cbd b1a9 25bd
00000110: 9744 80bd 5014 83bc fe20 22bc cdaa 95bc
00000120: d0e7 9dbc 7f1d bcbc
