DNNWeights/model/ensemble_1/selected_set_1_0_3.onnx (onnx, 872444 bytes, 17 tensors)

0.embeds.0.weight f4 [2, 1]
0.39504716 -2.1793482
00000000: 9f43 ca3e 717a 0bc0

0.embeds.1.weight f4 [3, 2]
-0.6990112 -0.42500898 0.00085302006 -2.273959 0.8485877 0.33187908
00000000: 66f2 32bf c79a d9be 359d 5f3a 8b88 11c0
00000010: 0b3d 593f 0eec a93e

0.embeds.2.weight f4 [2, 1]
0.8424016 -1.2778231
00000000: a2a7 573f b58f a3bf

0.embeds.3.weight f4 [2019, 50]
0.4807946 2.3127594 1.278338 -0.06715848 -0.5738389 -1.2295477 1.4730058 -0.014172805
-0.7425147 -0.36612058 -0.09519199 0.9916506 -0.3230038 1.2301095 0.42072198 -0.16631456
-0.8641648 -0.6772065 -0.18520483 -0.79886127 -0.36198136 0.6961383 1.3373866 -0.5830662
1.7102911 -0.63705665 1.341124 1.0525184 -0.47961596 -0.32764474 -0.38689783 -0.052703597
-0.8315892 -0.17314705 0.53327465 -1.9277803 0.6127537 2.3185565 -1.2268171 -0.91420114
-1.6989765 -2.6496956 -1.3921884 -1.4337891 0.6670733 -0.7778573 -0.8228677 1.1189877
1.689724 -0.3012852 -0.49037674 0.6086256 0.61712176 0.5010184 -0.2713281 0.6167019
1.750509 -0.7099998 -0.17547536 -0.5461242 1.0031784 -0.4793782 0.6982752 -0.5238718
-0.77275956 -1.2032523 2.149226 0.13808882 0.30587918 0.25536048 0.5583073 -1.0511297
0.776261 0.058616016 -1.1555675 -0.3220688 -0.091214485 -0.8581074 0.8278797 1.9099764
0.61705613 1.1579661 0.44668895 0.26079416 2.5898855 0.4762712 0.272203 1.1792427
0.8511306 -1.1984171 -0.610425 -2.0824506 0.97359395 -0.03323562 0.45610967 -0.76535016
-0.7305234 -0.62000114 -1.7076058 0.2723428 -0.047445137 -0.5507745 -0.20881271 0.23020086
-0.11136782 -0.5538129 0.24690156 -0.2822672 0.8110985 -0.124958485 1.2622118 2.5525537
-0.23371607 -2.4046285 -1.588202 0.2094745 -1.2991571 -0.9429962 0.06587456 -0.4716015
0.41376603 0.7266085 1.9187341 -0.73966116 0.5245101 -0.038854305 -1.1601381 1.1283581
-0.005170986 1.0239109 0.50867045 -0.6067102 0.66168565 -0.9665458 -0.20211145 -1.4834353
-1.2973226 1.9693971 -0.7403713 -1.3308837 0.43456554 0.23822947 0.63733006 -0.046232384
1.4029653 -1.1889405 -0.14646745 1.2747573 -0.42218974 -0.60665715 -1.2150865 2.032741
0.7760556 -0.64909333 1.428626 -1.2708527 2.1211457 1.294194 0.41978848 -0.7429285
0.42886406 0.8298089 0.73984575 0.204616 -1.8860009 0.15613796 2.2831502 -0.40006998
-0.58112913 -1.6099799 -1.0292851 1.1192703 -1.0547322 2.3626094 1.056887 -0.032648474
-0.5987633 1.5636855 -1.1898546 0.75430214 0.4372639 2.1605644 -1.7526232 -0.19790345
-1.1622142 -0.24345051 0.6252354 -1.0723821 0.61344266 1.0922406 0.6370875 -0.09439191
0.5960795 0.02678333 0.67519736 1.3672444 0.50484544 -0.4943984 -0.8879694 -0.9611023
1.9305121 0.8842079 -1.6893896 0.09189553 -1.625031 0.42735747 1.6096799 0.9239881
-1.0685612 0.7874224 0.93398523 1.6939152 0.05889295 0.1553129 -1.0864137 -0.26684862
0.8564019 0.6349243 0.89920163 1.3218802 -0.022156281 0.037047572 -0.54006803 1.1092852
-0.21229094 0.32278213 0.27631527 -1.5967917 -1.5048403 -0.58004725 -0.28879467 0.077199616
-0.27033854 -0.2694713 1.509542 1.8128213 0.269866 1.2676767 -0.06781617 0.3342654
-0.43915632 -0.40153116 -0.34851938 0.065144055 1.3712803 1.1719848 -0.7328973 -1.105321
0.27542755 0.8307817 1.1406572 0.63462794 -0.0006189821 0.4416864 -0.10012546 -0.63949466
00000000: b62a f63e 4004 1440 94a0 a33f 638a 89bd
00000010: 1be7 12bf d261 9dbf 748b bc3f 0d35 68bc
00000020: 7215 3ebf 2874 bbbe 05f4 c2bd d0dc 7d3f
00000030: c160 a5be 3a74 9d3f df68 d73e 5d4e 2abe
00000040: e839 5dbf 685d 2dbf 56a6 3dbe 2c82 4cbf
00000050: 9f55 b9be 1f36 323f 7c2f ab3f d443 15bf
00000060: d2ea da3f 2516 23bf f4a9 ab3f ecb8 863f
00000070: 3990 f5be 0dc1 a7be 7917 c6be badf 57bd
00000080: 08e3 54bf 764d 31be b084 083f 81c1 f6bf
00000090: 6ddd 1c3f 3b63 1440 5808 9dbf 1609 6abf
000000a0: 1078 d9bf 9d94 29c0 3b33 b2bf 6786 b7bf
000000b0: 51c5 2a3f a821 47bf 75a7 52bf fd3a 8f3f
000000c0: e048 d83f 0e42 9abe a912 fbbe e3ce 1b3f
000000d0: b1fb 1d3f be42 003f 84eb 8abe 2de0 1d3f
000000e0: ae10 e03f 8cc2 35bf d0af 33be ccce 0bbf
000000f0: 2668 803f 0f71 f5be 2ac2 323f 761c 06bf
00000100: 92d3 45bf 2c04 9abf eb8c 0940 2867 0d3e
00000110: 329c 9c3e 9cbe 823e 3aed 0e3f 6b8b 86bf
00000120: 0ab9 463f 5917 703d a3e9 93bf 34e6 a4be
00000130: a9ce babd edac 5bbf edef 533f 1b7a f43f
00000140: 64f7 1d3f 3c38 943f 6ab4 e43e d086 853e
00000150: afc0 2540 d2d9 f33e 315e 8b3e 6df1 963f
00000160: b2e3 593f bb65 99bf d044 1cbf df46 05c0
00000170: 743d 793f 1322 08bd 3587 e93e fded 43bf
00000180: 9503 3bbf 65b8 1ebf d492 dabf 8470 8b3e
00000190: d555 42bd 8fff 0cbf 00d3 55be c6b9 6b3e
000001a0: d014 e4bd afc6 0dbf c3d3 7c3e 5485 90be
000001b0: 27a4 4f3f 3cea ffbd 2890 a13f 0a5d 2340
000001c0: 4453 6fbe 6fe5 19c0 344a cbbf 7c80 563e
000001d0: c84a a6bf 3368 71bf 3ee9 863d c075 f1be
000001e0: 24d9 d33e 0403 3a3f 1499 f53f 6f5a 3dbf
000001f0: 4b46 063f b125 1fbd 687f 94bf 0a6e 903f
00000200: 6071 a9bb 830f 833f 3a38 023f 5c51 1bbf
00000210: 3b64 293f 8c6f 77bf 4ef6 4ebe 35e1 bdbf
00000220: ab0e a6bf 3415 fc3f f988 3dbf 665a aabf
00000230: 607f de3e 6df2 733e 1028 233f 2b5e 3dbd
00000240: 5e94 b33f 342f 98bf 90fb 15be 3f2b a33f
00000250: 4129 d8be e24d 1bbf f487 9bbf 6e18 0240
00000260: 94ab 463f fb2a 26bf 37dd b63f 4dab a2bf
00000270: dac0 0740 26a8 a53f 84ee d63e 9030 3ebf
00000280: 1294 db3e 5b6e 543f 8866 3d3f db86 513e
00000290: 7a68 f1bf a1e2 1f3e 221f 1240 f9d5 ccbe
000002a0: e1c4 14bf d213 cebf 9dbf 83bf 4044 8f3f
000002b0: 7701 87bf fe34 1740 1348 873f 68ba 05bd
000002c0: 8d48 19bf d926 c83f 284d 98bf f219 413f
000002d0: 0ee1 df3e b046 0a40 f555 e0bf 34a7 4abe
000002e0: 6fc3 94bf 174b 79be 6d0f 203f d143 89bf
000002f0: 940a 1d3f 8ace 8b3f 2b18 233f 8c50 c1bd
00000300: ab98 183f b768 db3c bcd9 2c3f dd01 af3f
00000310: 8d3d 013f c921 fdbe f651 63bf cd0a 76bf
00000320: 051b f73f 735b 623f eb3d d8bf b933 bc3d
00000330: 0401 d0bf 99ce da3e fe09 ce3f 7c8a 6c3f
00000340: 9dc6 88bf 8494 493f a819 6f3f 37d2 d83f
00000350: bc39 713d 580a 1f3e 9b0f 8bbf 62a0 88be
00000360: 283d 5b3f 668a 223f 1432 663f 5f33 a93f
00000370: 1781 b5bc 32bf 173d e641 0abf 0ffd 8d3f
00000380: cc62 59be b343 a53e 3279 8d3e ac63 ccbf
00000390: 9b9e c0bf fa7d 14bf e5dc 93be d51a 9e3d
000003a0: d069 8abe 24f8 89be ac38 c13f 870a e83f
000003b0: e02b 8a3e 3b43 a23f 34e3 8abd d624 ab3e
000003c0: 19d9 e0be 7e95 cdbe 2271 b2be 3f6a 853d
000003d0: 1d86 af3f 9903 963f 289f 3bbf 297b 8dbf
000003e0: d704 8d3e 1cae 543f 0e01 923f fa76 223f
000003f0: 3043 22ba b824 e23e 940e cdbd ecb5 23bf

1.layers.0.0.weight f4 [74, 74]
0.4601715 0.19485423 0.47635233 -0.22602323 1.2018143 -0.06740301 0.2465483 -0.041778516
0.1687047 -0.14575239 0.18418038 -0.1610166 -0.12174945 -0.112245806 0.104381695 0.04290995
-0.033930473 0.4199775 -0.18207432 -0.14662291 0.020843236 0.0036081919 -0.2674742 0.11214371
0.3738008 0.20453295 0.025388524 -0.08242126 0.14332601 -0.016965032 -0.04033247 -0.07839953
-0.14939356 -0.0323889 0.1143305 0.020858724 0.12583134 -0.20849702 0.1337541 0.017193278
-0.019067109 0.06982014 -0.047882967 -0.16146807 0.18550901 0.03744449 0.11756346 0.077077314
-0.11827025 0.016821187 0.30257478 -0.05603549 -0.063484676 -0.030065339 0.02245265 0.12673533
-0.096716434 0.21823832 0.08683001 0.030140642 0.067568764 0.02460186 -0.04407208 -0.11987942
0.114315905 0.007728572 -0.1119409 0.26085395 0.14317629 -0.0040741367 0.13023244 0.13716196
-0.3282626 -0.16386162 0.06571181 -0.17889419 -0.2238203 -0.034560245 0.049168173 0.1957937
0.07970219 0.124825396 0.22235368 0.025212286 0.23552835 -0.14571612 0.012960692 0.18838257
-0.08829307 -0.29093456 0.12040951 -0.15121226 -0.3570856 -0.20970874 0.04544221 0.08467732
-0.062430132 0.11620794 0.12141853 -0.043712437 -0.16534366 0.24837615 0.10162996 -0.013231925
0.26391825 0.017096538 0.1855939 0.031180251 0.061369672 0.06839957 -0.20014651 0.184913
-0.057704765 0.052279472 -0.22965255 -0.18403792 0.5005313 -0.12580273 -0.019192215 0.013542727
0.02621491 -0.090036266 -0.04117359 -0.056120306 -0.30960992 -0.013924023 0.12757717 -0.029925192
0.329111 -0.015685633 -0.09515748 -0.046327118 0.30745068 -0.019559199 0.13769972 -0.0480131
-0.12423098 0.06214399 0.16492252 0.07586693 0.040905472 -0.16234243 -0.10058872 -0.1192084
0.28298348 -0.047960658 0.20688872 0.11171869 -0.26847562 0.058022514 -0.14389615 -0.046202447
-0.13583538 0.45792294 -0.0045515057 -0.041805245 0.20090555 0.1330289 -0.3598828 0.22240648
-0.1817021 0.059149984 -0.0016470484 -0.14852645 0.03862302 0.06494213 -0.07425111 -0.08474743
-0.32344875 0.06827401 0.20960984 0.0023481532 -0.023790726 0.17793058 0.28152674 0.17980966
0.4216462 0.07042697 -0.274516 -0.17341794 0.041875675 -0.08161551 0.006506498 -0.010969816
0.22192289 -0.13987747 -0.07546983 0.08302388 0.20553632 0.017179348 0.14014487 0.11485977
0.2874009 -0.24341479 -0.034630153 0.18651417 -0.098572664 0.085569054 0.109504566 0.1947909
-0.016158704 0.33319205 0.011403928 0.18243542 0.08143433 -0.30539733 -0.21389109 -0.032300614
-0.05415131 -0.20560682 -0.0665662 0.17366193 -0.013646211 0.20910962 -0.10703815 -0.06699364
-0.287405 -0.08943899 0.02574039 0.034925736 -0.0741884 -0.2800068 0.07248999 -0.37045765
0.063506775 0.102902584 -0.055683456 0.08785783 0.05906038 0.2103225 0.37888172 -0.23688002
0.30753997 -0.37862808 -0.07168746 0.36555928 -0.01737005 -0.24319255 -0.28830844 0.09262397
0.32096 0.42726186 0.07314508 0.01244392 0.060057446 0.18285654 0.12566157 -0.28126758
-0.19985867 -0.08921739 0.1252684 0.19147615 -0.18085775 -0.12868628 0.15268466 0.15316287
00000000: 999b eb3e de87 473e 74e4 f33e a272 67be
00000010: 0dd5 993f 970a 8abd 2877 7c3e f31f 2bbd
00000020: edc0 2c3e 1d40 15be c899 3c3e 89e1 24be
00000030: c757 f9bd 21e1 e5bd 12c6 d53d 58c2 2f3d
00000040: aefa 0abd 4a07 d73e b171 3abe 5124 16be
00000050: 6fbf aa3c 6a77 6c3b 61f2 88be 9aab e53d
00000060: d262 bf3e 1671 513e 98fb cf3c 7acc a8bd
00000070: 0ec4 123e 40fa 8abc a933 25bd ef8f a0bd
00000080: a0fa 18be 39aa 04bd 1c26 ea3d eadf aa3c
00000090: eed9 003e 3e80 55be d6f6 083e ebd8 8c3c
000000a0: a032 9cbc ddfd 8e3d ee20 44bd e357 25be
000000b0: 13f6 3d3e 655f 193d 1cc5 f03d b6da 9d3d
000000c0: ac37 f2bd 96cc 893c 15eb 9a3e 7885 65bd
000000d0: 4104 82bd 964b f6bc 9fee b73c e8c6 013e
000000e0: 4413 c6bd de79 5f3e efd3 b13d 82e9 f63c
000000f0: 7e61 8a3d d789 c93c ed84 34bd 5783 f5bd
00000100: 751e ea3d f63f fd3b 4541 e5bd a68e 853e
00000110: ce9c 123e 5680 85bb a75b 053e 2f74 0c3e
00000120: 0912 a8be 57cb 27be ea93 863d 0a30 37be
00000130: 2631 65be 0b8f 0dbd 9164 493d 257e 483e
00000140: e73a a33d 75a4 ff3d afb0 633e ff89 ce3c
00000150: 582e 713e 9b36 15be 1559 543c 5ce7 403e
00000160: ffd2 b4bd 60f5 94be 4399 f63d 63d7 1abe
00000170: ecd3 b6be e3bd 56be 9c21 3a3d 4e6b ad3d
00000180: bdb6 7fbd 6efe ed3d 47aa f83d d00b 33bd
00000190: d94f 29be 5156 7e3e 5e23 d03d b7ca 58bc
000001a0: 4b20 873e 0a0e 8c3c 540c 3e3e ba6d ff3c
000001b0: c45e 7b3d 1315 8c3d 35f3 4cbe d559 3d3e
000001c0: d55b 6cbd 0023 563d 0a2a 6bbe 7074 3cbe
000001d0: d222 003f 6ed2 00be fe38 9dbc 50e2 5d3c
000001e0: a7c0 d63c ef64 b8bd a3a5 28bd 68de 65bd
000001f0: 3185 9ebe 9621 64bc 97a3 023e ad25 f5bc
00000200: 3d81 a83e 287f 80bc ede1 c2bd 81c1 3dbd
00000210: 2d6a 9d3e 9d3a a0bc 2801 0d3e 62a9 44bd
00000220: d06c febd b28a 7e3d 73e1 283e 1f60 9b3d
00000230: 7f8c 273d 183d 26be 7501 cebd 8923 f4bd
00000240: 36e3 903e 6572 44bd a3da 533e c5cc e43d
00000250: a375 89be 04a9 6d3d 8359 13be c73e 3dbd
00000260: 6e18 0bbe e074 ea3e cc24 95bb fa3b 2bbd
00000270: 2fba 4d3e ba38 083e 8f42 b8be 86be 633e
00000280: 1e10 3abe 4147 723d c6e1 d7ba 5117 18be
00000290: 2c33 1e3d 6100 853d f710 98bd 1090 adbd
000002a0: 139b a5be 3fd3 8b3d f6a3 563e 79e3 193b
000002b0: c5e4 c2bc 6f33 363e 4624 903e 0620 383e
000002c0: 03e2 d73e 043c 903d 5c8d 8cbe 7994 31be
000002d0: d485 2b3d 0826 a7bd 7634 d53b beba 33bc
000002e0: c13f 633e 0a3c 0fbe ed8f 9abd 6d08 aa3d
000002f0: 1d78 523e b4bb 8c3c 2382 0f3e 993b eb3d
00000300: 3626 933e ba41 79be 59d8 0dbd 92fd 3e3e
00000310: 77e0 c9bd d43e af3d ee43 e03d 4477 473e
00000320: 425f 84bc 2698 aa3e 8ad7 3a3c 5ad0 3a3e
00000330: 0bc7 a63d 0a5d 9cbe 4406 5bbe a64d 04bd
00000340: c4cd 5dbd 988a 52be dc53 88bd 6fd4 313e
00000350: 5b94 5fbc d520 563e d136 dbbd f633 89bd
00000360: c026 93be ca2b b7bd 83dd d23c 4a0e 0f3d
00000370: 16f0 97bd 0d5d 8fbe a275 943d a0ac bdbe
00000380: d70f 823d 97be d23d 5614 64bd ceee b33d
00000390: 4ce9 713d c85e 573e c9fc c13e ad90 72be
000003a0: e175 9d3e 8adb c1be e0d0 92bd 962a bb3e
000003b0: a34b 8ebc 7807 79be 2a9d 93be a3b1 bd3d
000003c0: de54 a43e 11c2 da3e 16cd 953d 95e1 4b3c
000003d0: ccfe 753d bf3e 3b3e 6dad 003e 4e02 90be
000003e0: c0a7 4cbe 9bb7 b6bd 5c46 003e 5312 443e
000003f0: c632 39be 56c6 03be 5e59 1c3e bad6 1c3e

1.layers.0.0.bias f4 [74]
-0.024512574 -0.053399675 0.018941388 -0.0041783815 -0.034033254 -0.05982953 -0.048134346 -0.04220478
-0.03574526 -0.031550344 0.016969293 -0.010290303 -0.08430201 -0.011963816 -0.0047625224 -0.08521428
-0.10535666 -0.032805614 -0.059724845 -0.027468484 0.019698508 -0.010930219 -0.049978536 -0.095164135
-0.074829705 0.016462147 -0.025814958 -0.09273113 -0.08695471 -0.07055426 -0.08056621 -0.030735165
-0.055227254 -0.10931222 -0.069405496 -0.04831608 -0.03485757 -0.0103064375 -0.015121505 -0.041260764
-0.01522654 -0.016271714 -0.011767584 -0.022040792 -0.054897238 -0.09087163 0.022404736 -0.05992229
-0.054480683 -0.03992575 -0.034551527 0.024457311 -0.05153223 -0.04802306 -0.0977089 -0.042334896
-0.009674982 0.02970046 -0.08146082 -0.06925653 -0.040813718 -0.077663094 -0.060783107 0.011964417
-0.012678266 0.0021090729 -0.03298103 -0.017916061 -0.065003864 -0.0069417213 -0.060610212 -0.006376739
-0.06480248 -0.011458146
00000000: 98ce c8bc 9eb9 5abd f82a 9b3c ceea 88bb
00000010: 7466 0bbd cf0f 75bd 8528 45bd ebde 2cbd
00000020: 9f69 12bd ef3a 01bd 3003 8b3c a998 28bc
00000030: 88a6 acbd e203 44bc ef0e 9cbb d384 aebd
00000040: 3cc5 d7bd 2e5f 06bd 0aa2 74bd 9605 e1bc
00000050: c45e a13c a914 33bc 4bb6 4cbd 6ae5 c2bd
00000060: 5140 99bd a0db 863c e479 d3bc d2e9 bdbd
00000070: 5015 b2bd c07e 90bd e6ff a4bd 50c8 fbbc
00000080: f935 62bd 16df dfbd 7824 8ebd 15e7 45bd
00000090: d0c6 0ebd 55dc 28bc 30c0 77bc 0c01 29bd
000000a0: bd78 79bc 424c 85bc d3cc 40bc e48e b4bc
000000b0: eddb 60bd e81a babd 238a b73c 1371 75bd
000000c0: 2327 5fbd 2f89 23bd e785 0dbd b35a c83c
000000d0: 7613 53bd d4b3 44bd 9b1b c8bd 5b67 2dbd
000000e0: d183 1ebc 614e f33c eed4 a6bd 5ed6 8dbd
000000f0: 492c 27bd d40d 9fbd b5f7 78bd 6706 443c
00000100: 80b8 4fbc 5f38 0a3b 1e17 07bd b4c4 92bc
00000110: bf20 85bd 6177 e3bb 6a42 78bd f7f3 d0bb
00000120: 2ab7 84bd f3ba 3bbc

1.layers.1.0.weight f4 [74, 148]
0.07379453 -0.033833586 0.07107837 0.0126367 0.0011590641 -0.05049108 -0.12775278 0.006380571
-0.012275596 0.05919866 0.047581434 0.17379065 0.11755291 -0.07198732 0.046364184 0.13275598
0.077538066 0.010765847 -0.022079354 -0.10279643 -0.006341167 -0.14279859 -0.07455082 0.3023665
0.23027043 -0.06603259 0.036968756 0.08662849 0.19094989 -0.08108461 -0.1480486 0.08387983
-0.058370896 0.2669245 -0.12979802 0.08373209 -0.10916702 -0.13796863 -0.12622969 -0.10647764
-0.0419544 -0.19277294 -0.22058226 -0.018745573 0.034148123 0.08833056 0.12204367 -0.03618363
-0.21829051 -0.062466413 -0.023299761 0.042899862 0.1946665 -0.091863446 -0.056539275 -0.17154442
0.07014566 -0.00807965 -0.040950447 -0.11923432 0.012717562 -0.08652011 0.02421139 -0.022586217
0.06178614 0.18578248 -0.130609 -0.0080786785 0.029858213 0.050607696 0.08350746 -0.018186923
-0.015555693 -0.16689081 0.12297089 -0.32199046 -0.113270484 0.00890035 0.3497515 0.078433216
-0.02591885 0.037514642 0.09648335 0.0508628 0.3618392 -0.13802177 0.009509541 0.10986205
-0.09112153 -0.11836709 0.11439337 0.039094318 -0.0003742249 -0.21598142 -0.18029177 0.053707007
0.3921589 0.27495107 -0.26726615 -0.078638285 0.05190589 -0.2275917 -0.024083406 -0.2118065
0.07167661 -0.11331093 -0.018582772 -0.08786631 0.13164526 0.09182893 0.26514685 -0.05069061
-0.10169992 -0.14315194 0.25404462 0.10399253 -0.023202978 -0.21100259 -0.044113588 0.0720973
-0.008738155 0.081515275 0.09494226 0.07093508 -0.18415344 -0.18754409 -0.028990222 0.058516543
0.17334011 0.11789797 -0.23272233 -0.02982396 -0.07556364 -0.12224837 0.24148223 -0.038465045
0.22068779 -0.10867656 -0.00517088 0.11908196 -0.08529751 -0.04284093 0.009948309 -0.19395384
0.008394265 0.21766299 -0.2331898 -0.08231174 0.16486594 -0.03937659 -0.05535196 -0.39586407
-0.05588904 0.13707373 -0.17037573 -0.08782597 0.08231008 -0.039814506 0.043797925 0.10964046
0.008846087 0.130951 -0.15737851 -0.18413594 -0.05774093 0.22323057 -0.034333568 0.088334225
-0.0055164895 0.021039695 0.0023326345 -0.2065958 0.046520762 0.07786468 -0.18147731 -0.21206167
-0.11478189 0.07534791 -0.17377608 -0.13398145 0.13553867 -0.16636033 0.02130356 -0.06951535
-0.018755097 0.059951063 -0.20755666 0.16494177 -0.086007655 0.29605857 0.08682458 0.09504205
-0.16276263 0.023864971 -0.121473625 0.2332136 -0.09817392 -0.34400097 0.068960585 -0.043567467
-0.019502752 0.019439934 0.17387225 -0.3293655 -0.084711716 0.1258617 -0.12870443 -0.14372598
0.25695592 0.04725963 0.31164598 -0.012131079 -0.059994113 0.06768913 -0.12966228 -0.04224104
-0.0828882 0.0439243 0.01467998 0.1795741 0.03795329 0.24953201 -0.4578855 0.29472145
0.44037482 -0.2942788 -0.115159415 -0.4270701 0.15114537 -0.1916908 -0.418084 0.06537113
0.41567618 0.13771218 -0.52251256 -0.04763442 -0.0071692113 0.27722234 -0.025462452 -0.2783831
-0.054024246 -0.03523818 -0.113921955 -0.4513052 -0.07494628 -0.19847064 -0.26689795 -0.06711771
0.037796218 0.07194194 0.010220253 -0.016276231 -0.02910982 0.06994092 -0.0039201328 -0.21864882
00000000: 9621 973d 1695 0abd 8991 913d 290a 4f3c
00000010: bdeb 973a bccf 4ebd a0d1 02be 1c14 d13b
00000020: 951f 49bc 4b7a 723d c0e4 423d 2df6 313e
00000030: 94bf f03d 176e 93bd 5fe8 3d3d 2ff1 073e
00000040: 47cc 9e3d 3c63 303c c3df b4bc ef86 d2bd
00000050: 90c9 cfbb cb39 12be 1aae 98bd c8cf 9a3e
00000060: 03cc 6b3e 183c 87bd 8d6c 173d 476a b13d
00000070: 5e88 433e b00f a6bd 0d9a 17be 30c9 ab3d
00000080: 5216 6fbd 54aa 883e c6e9 04be bb7b ab3d
00000090: f592 dfbd a647 0dbe 5b42 01be f310 dabd
000000a0: 60d8 2bbd 4566 45be 51e0 61be 5190 99bc
000000b0: e7de 0b3d a7e6 b43d 08f2 f93d 4935 14bd
000000c0: 8c87 5fbe c8dc 7fbd 24df bebc c4b7 2f3d
000000d0: a856 473e e722 bcbd ba95 67bd 57a9 2fbe
000000e0: 87a8 8f3d 8260 04bc a8bb 27bd 2031 f4bd
000000f0: 525d 503c 7531 b1bd f756 c63c bb06 b9bc
00000100: 7713 7d3d c33d 3e3e 5ebe 05be 6f5c 04bc
00000110: 3699 f43c 044a 4f3d f605 ab3d befc 94bc
00000120: 4edd 7ebc 6de5 2abe 29d8 fb3d efdb a4be
00000130: 5bfa e7bd c6d2 113c a112 b33e 98a1 a03d
00000140: c553 d4bc f4a8 193d 1099 c53d 8355 503d
00000150: fd42 b93e 9455 0dbe e8cd 1b3c 5bff e03d
00000160: ed9d babd 726a f2bd 1247 ea3d 5d21 203d
00000170: 9e33 c4b9 3c2a 5dbe 689e 38be e1fb 5b3d
00000180: 0dc9 c83e 63c6 8c3e 1cd7 88be 1c0d a1bd
00000190: 459b 543d cc0d 69be 904a c5bc cee3 58be
000001a0: 30cb 923d 900f e8bd e63a 98bc 40f3 b3bd
000001b0: 04ce 063e ce10 bc3d 54c1 873e f5a0 4fbd
000001c0: 0c48 d0bd 6c96 12be 2312 823e 09fa d43d
000001d0: 2c14 bebc 1011 58be 73b0 34bd c0a7 933d
000001e0: 7a2a 0fbc 7bf1 a63d 1671 c23d 6946 913d
000001f0: b892 3cbe 8f0b 40be e77c edbc 0baf 6f3d
00000200: 1280 313e 7e74 f13d c34e 6ebe 6151 f4bc
00000210: 1cc1 9abd 5a5d fabd 1e47 773e 868d 1dbd
00000220: fbfb 613e d191 debd 7c70 a9bb 3ee1 f33d
00000230: 76b0 aebd f979 2fbd 3bfe 223c d69b 46be
00000240: 1988 093c 0ce3 5e3e 4fc9 6ebe 0f93 a8bd
00000250: 9ed2 283e 5949 21bd bdb8 62bd b2ae cabe
00000260: e8eb 64bd 0e5d 0c3e fa76 2ebe 1ade b3bd
00000270: 3092 a83d 8914 23bd 7465 333d 2d8b e03d
00000280: 2eef 103c 0518 063e d527 21be 228e 3cbe
00000290: c181 6cbd 8e96 643e 5ba1 0cbd 93e8 b43d
000002a0: abc3 b4bb 705b ac3c 1ddf 183b d98d 53be
000002b0: 8e8c 3e3d 8477 9f3d 30d5 39be b226 59be
000002c0: c412 ebbd 0150 9a3d 5bf2 31be 6f32 09be
000002d0: a6ca 0a3e 5d5a 2abe ce84 ae3c 105e 8ebd
000002e0: 4aa4 99bc 3f8f 753d bc89 54be 7fe6 283e
000002f0: c824 b0bd fd94 973e 16d1 b13d 68a5 c23d
00000300: 3fab 26be 7980 c33c 2ac7 f8bd 8ccf 6e3e
00000310: 680f c9bd e520 b0be 353b 8d3d cd73 32bd
00000320: 3cc4 9fbc 7f40 9f3c 910b 323e 98a2 a8be
00000330: 567d adbd e4e1 003e 18cb 03be e72c 13be
00000340: ba8f 833e 5093 413d 1090 9f3e 6fc1 46bc
00000350: 63bc 75bd 99a0 8a3d 30c6 04be f104 2dbd
00000360: 4ac1 a9bd f7e9 333d 4d84 703c 46e2 373e
00000370: e974 1b3d 5285 7f3e f86f eabe bbe5 963e
00000380: cf78 e13e b6ab 96be b3d8 ebbd efa8 dabe
00000390: dac5 1a3e 984a 44be 1b0f d6be 4de1 853d
000003a0: 82d3 d43e 6c04 0d3e 62c3 05bf 4f1c 43bd
000003b0: b4eb eabb 16f0 8d3e a296 d0bc 3b88 8ebe
000003c0: 8748 5dbd e955 10bd ea4f e9bd 7a11 e7be
000003d0: 6f7d 99bd e33b 4bbe d9a6 88be 0375 89bd
000003e0: 35d0 1a3d 4c56 933d d972 273c bb55 85bc
000003f0: b877 eebc 2f3d 8f3d 7574 80bb 7ae5 5fbe

1.layers.1.0.bias f4 [74]
-0.103115655 -0.045006603 -0.068431966 -0.006864348 -0.03416584 -0.10355842 -0.01092761 -0.043947276
-0.05691077 -0.061801713 -0.015245479 -0.027837357 -0.06401219 -0.058728307 -0.0918934 -0.049086474
-0.045500867 -0.05749092 -0.047584873 -0.03494397 -0.03709122 -0.063403286 -0.068346016 -0.00671188
-0.055576332 -0.09084743 -0.0648221 -0.06986651 -0.059061915 -0.005063353 -0.07337049 -0.09523655
-0.025849065 -0.033979375 -0.02727337 -0.050687883 -0.049761083 0.008553404 -0.046916272 -0.07528817
-0.012333606 -0.061610054 -0.05392335 -0.053070035 -0.012277672 -0.070908435 -0.078974575 0.03450083
-0.0875981 -0.10605068 -0.011207666 -0.0034510386 -0.03441231 -0.046751477 0.009306545 0.0012507478
-0.01351551 -0.03453275 -0.07157857 -0.07472354 -0.013119131 -0.028203603 -0.059007723 -0.010192596
-0.06475659 -0.050423957 -0.04458928 -0.054683995 -0.033076935 -0.00850337 -0.04814862 -0.049643293
-0.01566405 -0.025076423
00000000: 4d2e d3bd d858 38bd 0f26 8cbd 53ee e0bb
00000010: 7bf1 0bbd 7016 d4bd b809 33bc 0f02 34bd
00000020: 441b 69bd cb23 7dbd 2cc8 79bc 2b0b e4bc
00000030: d318 83bd 188d 70bd 9b32 bcbd e60e 49bd
00000040: 1e5f 3abd 997b 6bbd 5be8 42bd 6921 0fbd
00000050: f7ec 17bd 95d9 81bd fff8 8bbd 55ef dbbb
00000060: 02a4 63bd 380e babd 73c1 84bd 2c16 8fbd
00000070: e8ea 71bd 7cea a5bb 4443 96bd 610b c3bd
00000080: 6bc1 d3bc f52d 0bbd 676c dfbc 199e 4fbd
00000090: 47d2 4bbd 9423 0c3c 472b 40bd af30 9abd
000000a0: e512 4abc d35a 7cbd bbde 5cbd f75f 59bd
000000b0: 4a28 49bc 7138 91bd 6cbd a1bd be50 0d3d
000000c0: a266 b3bd 1931 d9bd 5ca0 37bc d22a 62bb
000000d0: ecf3 0cbd 7a7e 3fbd 7b7a 183c 22f0 a33a
000000e0: 2870 5dbc 3672 0dbd c997 92bd a808 99bd
000000f0: a0f1 56bc 3e0b e7bc 15b2 71bd d9fe 26bc
00000100: 1a9f 84bd 5a89 4ebd 40a3 36bd 53fc 5fbd
00000110: ae7b 07bd b851 0bbc 7d37 45bd c456 4bbd
00000120: e551 80bc 126d cdbc

1.layers.2.0.weight f4 [74, 222]
0.060696606 -0.07927923 0.14358212 0.03895559 -0.18042055 0.016106557 0.10779041 -0.0055522616
0.057869244 0.056661054 -0.08441227 -0.045194365 -0.08172652 0.118242465 -0.25538975 -0.0065360437
0.022655332 -0.0071119512 0.036903042 -0.107124306 -0.039306838 0.03578697 -0.091074616 -0.014845721
0.0003639822 -0.05874071 -0.011958514 -0.014247902 -0.122500844 -0.13168801 0.04237432 0.041048795
-0.00577791 0.10322609 0.058087487 -0.036290858 -0.12339235 0.15989552 0.035323713 -0.050538566
-0.05873756 0.0054863165 0.013727644 0.11467218 0.0526368 0.101939775 -0.18364146 0.026999006
-0.031115325 0.038673762 0.028954552 0.059322927 0.09338859 -0.02424885 0.02038068 -0.0011109917
0.25866508 -0.10426518 -0.20264588 0.17671032 0.018326648 -0.016658818 -0.03643821 0.05729305
0.098164596 0.0055140066 0.13923162 -0.010947243 -0.09170171 -0.17870113 0.059557453 -0.056708485
-0.112816334 -0.055727463 -0.1384324 -0.056952205 -0.07807213 -0.0009036889 -0.043951046 -0.020068618
0.10061587 -0.09050537 0.15425621 -0.0202561 0.13210368 -0.12811607 0.0054246993 -0.021598123
-0.039620347 0.08872145 -0.06278758 -0.05019196 0.110906094 -0.07617613 -0.008667806 -0.08250997
0.24194768 0.21375191 0.08418093 -0.10871317 -0.017756863 0.13459082 0.08167811 0.024081426
-0.014825448 0.04676175 -0.17885706 0.15416697 0.07588612 -0.07651668 0.14598626 0.06671368
-0.14580096 0.16208057 -0.0070499266 -0.098726295 0.08570544 0.22822265 -0.14465609 -0.05135126
-0.010656232 -0.16080256 -0.00848229 -0.21128015 -0.03785026 0.14414166 0.037799466 -0.064508684
-0.08102065 -0.09626087 0.05289422 -0.007699637 0.04895157 0.10449812 -0.11099009 0.2598351
-0.21921256 -0.03261031 -0.16561241 -0.1361501 -0.28182846 0.024306633 0.20496583 0.043359425
0.01581939 -0.030070582 0.036961924 -0.04893201 -0.03643758 0.004094495 0.012376999 0.04239399
0.42871696 0.29182702 0.045295764 -0.011034896 0.43761548 -0.23269457 0.07496619 -0.027920071
0.11273284 0.025029877 -0.124883235 -0.06044953 0.03185204 -0.12000866 0.44058827 -0.07057401
-0.09832149 0.07566144 -0.13298811 0.11366597 -0.19348007 -0.069882244 -0.0395461 -0.04769755
-0.21175964 -0.061797068 0.070948005 0.06317996 -0.020426514 -0.024988825 -0.0856076 0.15166694
-0.0026533199 -0.033386137 -0.005814892 0.036403973 0.057642218 -0.060217164 0.12667403 -0.08762369
-0.12730251 0.16205736 -0.0064732987 -0.13303058 -0.11500894 0.077498555 -0.040889796 -0.11961802
0.00873133 0.028031532 0.05212787 0.024502497 0.1784013 -0.047515247 -0.047281098 -0.007967109
-0.0473742 -0.07480781 0.12587765 0.09342326 0.024884999 0.035384323 -0.11825676 -0.10274575
-0.027421666 0.08901311 0.040179886 0.012349385 -0.007045774 -0.0034232847 -0.15561207 0.33658522
-0.08359603 -0.022301534 0.17370395 -0.12093744 -0.12429231 0.0056597833 -0.23152009 -0.05508384
0.07271752 -0.0012300411 0.11363551 -0.26192394 -0.012147555 0.059586383 0.06961094 0.12806448
0.10533735 0.08005986 -0.3374325 -0.03934149 0.04715233 -0.0040958747 0.044281546 -0.0795055
-0.08760404 -0.071075395 -0.119216174 0.0021302528 -0.04960379 0.0060289586 0.20892282 0.01345948
00000000: 019d 783d 265d a2bd 3107 133e e68f 1f3d
00000010: 2ac0 38be e6f1 833c 38c1 dc3d bfef b5bb
00000020: 4d08 6d3d 6c15 683d 57e0 acbd ba1d 39bd
00000030: 3c60 a7bd 1b29 f23d 72c2 82be 4f2c d6bb
00000040: ad97 b93c 5f0b e9bb a527 173d fd63 dbbd
00000050: 3500 21bd 5c95 123d 5485 babd 783b 73bc
00000060: ddd4 be39 199a 70bd a5ed 43bc 0870 69bc
00000070: b9e1 fabd 39d9 06be b290 2d3d c822 283d
00000080: 9f54 bdbb 3368 d33d 25ed 6d3d b9a5 14bd
00000090: 21b5 fcbd a7bb 233e 99af 103d 8701 4fbd
000000a0: cc96 70bd 8fc6 b33b eae9 603c 3fd9 ea3d
000000b0: af99 573d cdc5 d03d 820c 3cbe 052d dd3c
000000c0: 91e5 febc 6168 1e3d 1932 ed3c 99fc 723d
000000d0: 8442 bf3d 86a5 c6bc 62f5 a63c b29e 91ba
000000e0: c06f 843e fc88 d5bd 6782 4fbe 8df3 343e
000000f0: c421 963c 1378 88bc 3c40 15bd 1eac 6a3d
00000100: 850a c93d d7ae b43b bc92 0e3e 115c 33bc
00000110: 1bce bbbd 6efd 36be 84f2 733d 2847 68bd
00000120: 400c e7bd 7b42 64bd 39c1 0dbe b746 69bd
00000130: 48e4 9fbd 89e5 6cba 0306 34bd f166 a4bc
00000140: b10f ce3d e15a b9bd 57f5 1d3e 1ff0 a5bc
00000150: 3046 073e dc30 03be adc1 b13b 8cee b0bc
00000160: f248 22bd 97b3 b53d c696 80bd 1696 4dbd
00000170: bc22 e33d 3b02 9cbd 6a03 0ebc fdfa a8bd
00000180: 22c1 773e c8e1 5a3e 0d67 ac3d 03a5 debd
00000190: d776 91bc 2dd2 093e da46 a73d 6946 c53c
000001a0: 70e6 72bc 4089 3f3d 4e26 37be f2dd 1d3e
000001b0: 2f6a 9b3d c7b4 9cbd 6c7d 153e 2fa1 883d
000001c0: d94c 15be 73f8 253e 1203 e7bb 0331 cabd
000001d0: 5586 af3d 33b3 693e ba20 14be b355 52bd
000001e0: 7a97 2ebc 6da9 24be 4ef9 0abc d359 58be
000001f0: e008 1bbd df99 133e 9dd3 1a3d 211d 84bd
00000200: 28ee a5bd 6b24 c5bd 9ca7 583d 3d4d fcbb
00000210: 7181 483d 1c03 d63d c64e e3bd 1b09 853e
00000220: 4279 60be 6392 05bd 4d96 29be ef6a 0bbe
00000230: d24b 90be b41e c73c 90e2 513e a799 313d
00000240: aa97 813c 9556 f6bc 6365 173d ee6c 48bd
00000250: 923f 15bd 1d2b 863b e5c8 4a3c 52a5 2d3d
00000260: ca80 db3e 5a6a 953e 0d88 393d b5cb 34bc
00000270: 230f e03e 7c47 6ebe e087 993d a2b8 e4bc
00000280: 7ae0 e63d 750b cd3c c8c2 ffbd ed99 77bd
00000290: 4977 023d 1ac7 f5bd c994 e13e 1b89 90bd
000002a0: c75c c9bd 63f4 9a3d 092e 08be b4c9 e83d
000002b0: a41f 46be 6c1e 8fbd 17fb 21bd 825e 43bd
000002c0: 85d7 58be ec1e 7dbd 304d 913d 7f64 813d
000002d0: 8155 a7bc 5db5 ccbc 0a53 afbd 944e 1b3e
000002e0: 52e3 2dbb e7bf 08bd d98a bebb 551c 153d
000002f0: 3f1a 6c3d 46a6 76bd d6b6 013e 0d74 b3bd
00000300: 975b 02be 5df2 253e f71d d4bb 2b39 08be
00000310: cf89 ebbd 90b7 9e3d 0f7c 27bd 4bfa f4bd
00000320: da0d 0f3c 62a2 e53c 0984 553d 76b9 c83c
00000330: d5ae 363e 599f 42bd d3a9 41bd 7a88 02bc
00000340: 730b 42bd d634 99bd 12e6 003e b254 bf3d
00000350: a0db cb3c 27ef 103d 9a30 f2bd 5d6c d2bd
00000360: 67a3 e0bc 814c b63d aa93 243d 1355 4a3c
00000370: 3ce0 e6bb 3059 60bb c558 1fbe e654 ac3e
00000380: 6534 abbd b5b1 b6bc 73df 313e 0cae f7bd
00000390: f78c febd b475 b93b 9a13 6dbe 989f 61bd
000003a0: ecec 943d 5539 a1ba bcb9 e83d e51a 86be
000003b0: 8a06 47bc da10 743d 2e90 8e3d 5623 033e
000003c0: 1cbb d73d 6df6 a33d f4c3 acbe 8b24 21bd
000003d0: cd22 413d b036 86bb 9160 353d c8d3 a2bd
000003e0: bf69 b3bd fa8f 91bd 9c27 f4bd b69b 0b3b
000003f0: 582d 4bbd 928e c53b ddef 553e 2785 5c3c

1.layers.2.0.bias f4 [74]
-0.059131026 -0.09356784 -0.037839603 -0.0673382 -0.07291507 -0.034985863 -0.010345222 -0.078965515
-0.042533956 -0.019919366 -0.017125888 -0.05156637 -0.014259616 -0.008490858 -0.041944567 0.004777751
-0.042321213 -0.00053672027 -0.022226311 -0.027118398 -0.027074873 -0.03088787 -0.0038275346 -0.049559753
-0.08285426 -0.04010883 -0.05908538 -0.012440407 -0.024129437 -0.044036597 -0.026214134 -0.0372675
-0.052750025 -0.026940208 -0.020849781 -0.0039008001 -0.023277508 0.009327678 -0.028563729 -0.041103438
-0.082260154 -0.02172877 -0.05119308 -0.06062108 -0.083568 -0.04347051 -0.023077073 -0.03647094
-0.021381985 -0.030374348 -0.06292131 -0.009878518 -0.065054566 -0.015847743 -0.03180756 -0.033810444
-0.013748445 -0.072658144 -0.022860901 -0.019757332 -0.046363987 -0.06421155 -0.03569519 -0.015649773
-0.08557434 -0.041609127 -0.030287322 -0.0046411417 -0.05893048 -0.06944046 -0.02916711 -0.055643782
-0.06122647 -0.04284213
00000000: 6033 72bd 7fa0 bfbd b3fd 1abd 9ce8 89bd
00000010: 7f54 95bd 564d 0fbd 027f 29bc acb8 a1bd
00000020: 1638 2ebd f02d a3bc 974b 8cbc 4237 53bd
00000030: 2aa1 69bc 3d1d 0bbc 11ce 2bbd ae8e 9c3b
00000040: 0259 2dbd b0b2 0cba f413 b6bc 6727 debc
00000050: 20cc ddbc 8f08 fdbc 60d7 7abb 2bff 4abd
00000060: 7faf a9bd 2849 24bd 8303 72bd d9d2 4bbc
00000070: 19ab c5bc b85f 34bd 06bf d6bc cea5 18bd
00000080: 6910 58bd b6b1 dcbc 29cd aabc 91a4 7fbb
00000090: 79b0 bebc 1ed3 183c 7bfe e9bc 145c 28bd
000000a0: 0378 a8bd 8900 b2bc d6af 51bd cf4d 78bd
000000b0: b325 abbd 220e 32bd 210c bdbc 8d62 15bd
000000c0: 4629 afbc a0d3 f8bc e3dc 80bd 82d9 21bc
000000d0: 543b 85bd 20d3 81bc a548 02bd d27c 0abd
000000e0: 2841 61bc cbcd 94bd c946 bbbc 21da a1bc
000000f0: 2ae8 3dbd 5881 83bd 1f35 12bd f433 80bc
00000100: 9941 afbd 556e 2abd 1e1d f8bc b814 98bb
00000110: 1661 71bd cd36 8ebd ddef eebc bcea 63bd
00000120: 9bc8 7abd 3b7b 2fbd

1.layers.3.0.weight f4 [74, 296]
0.044695787 0.25415638 0.055168528 0.04020566 0.12521555 0.17640525 -0.0048845056 0.14513484
0.1367207 0.073053606 0.108502194 -0.06750523 0.0107621215 0.045655347 0.00990084 -0.06150902
-0.06157183 0.123320356 0.047524855 0.07540244 -0.0021235195 -0.060624897 0.0080785835 0.020179793
-0.057729337 0.09371605 0.08920219 0.008750038 0.038567368 0.21035098 -0.16120474 -0.06666619
0.024789486 -0.011911823 -0.025147164 -0.0016712123 -0.14498384 -0.07570479 0.0032584614 0.16766413
0.0053966 0.01799766 0.07321343 0.011884952 -0.0016301102 -0.011696904 0.06212787 0.12948945
0.04117163 -0.12940584 -0.051097438 -0.0027267523 -0.05040363 0.061544262 0.10664631 -0.13260786
-0.06915728 -0.17994858 0.0057084993 -0.09009494 0.096072264 -0.021655083 -0.05044708 0.22486621
0.018580427 0.01560057 0.007310777 0.060751572 0.036224235 0.19633365 -0.17616038 0.009004881
0.06785596 -0.032607418 0.015424296 0.051918842 -0.04638365 0.069184735 0.08718574 0.026128653
0.012187902 -0.10179291 0.04967308 0.04561921 -0.18173075 0.0029818178 0.021276651 -0.042844854
-0.019877251 0.13370088 0.12134911 -0.040921774 0.036434866 -0.22685918 -0.069042504 -0.037460703
-0.09148045 -0.138003 -0.045716047 -0.10981362 -0.032815095 0.12534384 0.0084032025 -0.04383547
0.1708318 0.0812759 0.033440612 -0.08405426 0.20864098 -0.090870894 0.10842192 -0.16713993
0.06009892 -0.10890359 -0.06214389 -0.07087089 0.07962029 -0.0038077848 0.08552549 0.18298987
0.13548055 0.025582226 0.02790741 0.008540838 0.02524685 -0.01316628 -0.16209616 -0.2510014
0.11246524 -0.026531339 -0.13300048 -0.067877315 -0.042548515 -0.065880165 0.05707177 0.014294329
-0.14698307 0.10368911 -0.0232327 -0.016258134 -0.13427767 -0.037049502 0.09188843 -0.027114747
-0.0707471 0.026858147 -0.050785713 -0.028006881 0.18502948 0.010187037 0.1546658 0.09440173
-0.1111069 -0.04093507 -0.031426724 0.08956216 -0.007911435 0.06732337 0.10917947 -0.1752108
0.07979732 0.030063832 0.017955575 -0.016454266 -0.015812337 -0.029574335 -0.062740035 -0.10406739
0.13515094 0.11005594 -0.004302082 0.14824295 -0.06316653 0.08969575 0.034055658 0.013358742
0.042429708 -0.0010027187 0.24563782 -0.0032099434 -0.08496467 0.05367943 -0.020114074 -0.10280021
0.07012046 0.044995107 -0.068579584 -0.110157944 -0.028249051 -0.02854278 -0.07775778 -0.0023840514
-0.024751108 0.0070079523 -0.06107387 0.015527847 0.05922055 0.010143013 -0.124919854 -0.0737734
0.07556437 -0.0123246275 -0.020957397 0.008400596 0.013901953 -0.014599494 -0.022369504 -0.01451853
0.09171551 0.008528525 -0.018382346 0.018734002 -0.0423636 0.12943944 -0.14695306 -0.0060475958
-0.0017592217 -0.12614742 0.027204463 0.20343913 0.041674066 0.12559679 -0.21236995 0.2507341
0.120638415 -0.04091407 0.19266933 -0.12928894 -0.05373168 -0.14201388 -0.036749944 0.06840149
-0.0038224405 0.05552053 -0.02701525 -0.048472036 0.09539362 0.11551631 0.06383812 -0.0572283
-0.00878003 -0.012137891 0.07890581 -0.04917121 0.21307203 -0.026170721 0.085243024 -0.08490987
-0.001464004 -0.039686617 0.08249274 -0.026170783 0.07818211 0.08572757 -0.008071598 0.059452906
00000000: ee12 373d c920 823e 65f8 613d b1ae 243d
00000010: 8138 003e 94a3 343e 340e a0bb 3a9e 143e
00000020: 8300 0c3e 219d 953d 6636 de3d 2f40 8abd
00000030: 9c53 303c 1a01 3b3d 2237 223c e2f0 7bbd
00000040: be32 7cbd 628f fc3d 6ca9 423d 986c 9a3d
00000050: bf2a 0bbb d051 78bd 095c 043c 1850 a53c
00000060: 9975 6cbd 33ee bf3d a3af b63d 525c 0f3c
00000070: d1f8 1d3d 3f66 573e db12 25be 4988 88bd
00000080: 5213 cb3c cf29 43bc 6d01 cebc 940c dbba
00000090: a576 14be 1d0b 9bbd e98b 553b 25b0 2b3e
000000a0: f6d5 b03b d46f 933c ecf0 953d 1ab9 423c
000000b0: 6ca9 d5ba 5fa4 3fbc cb79 7e3d e298 043e
000000c0: 95a3 283d f782 04be 8c4b 51bd 50b3 32bb
000000d0: 0974 4ebd d615 7c3d 6169 da3d 5bca 07be
000000e0: 55a2 8dbd 7144 38be 5d0e bb3b b283 b8bd
000000f0: 89c1 c43d 0066 b1bc 99a1 4ebd 5443 663e
00000100: fb35 983c 8899 7f3c 3e8f ef3b a4d6 783d
00000110: dd5f 143d b00b 493e 6363 34be 3589 133c
00000120: 11f8 8a3d 5b8f 05bd 30b6 7c3c daa8 543d
00000130: c8fc 3dbd bab0 8d3d 708e b23d c20b d63c
00000140: c4af 473c cd78 d0bd 0076 4b3d 35db 3a3d
00000150: a017 3abe 9a6a 433b 5f4c ae3c 167e 2fbd
00000160: 9ed5 a2bc e2e8 083e e285 f83d 979d 27bd
00000170: ba3c 153d c64d 68be 2866 8dbd 6570 19bd
00000180: 1a5a bbbd a950 0dbe c040 3bbd f7e5 e0bd
00000190: 1f69 06bd 235a 003e 96ad 093c d28c 33bd
000001a0: 88ee 2e3e fb73 a63d 06f9 083d a424 acbd
000001b0: fba5 553e 851a babd 500c de3d bb26 2bbe
000001c0: 492a 763d d808 dfbd 978a 7ebd c224 91bd
000001d0: f60f a33d 078c 79bb fd27 af3d b261 3b3e
000001e0: 6abb 0a3e d191 d13c 159e e43c dfee 0b3c
000001f0: 7bd2 ce3c 62b7 57bc 89fc 25be 4183 80be
00000200: 2d54 e63d 4058 d9bc 4731 08be 4303 8bbd
00000210: 5a47 2ebd 2eec 86bd 17c4 693d c332 6a3c
00000220: bb82 16be f55a d43d 8152 bebc c72f 85bc
00000230: 1680 09be 38c1 17bd 0030 bc3d bf1f debc
00000240: dbe3 90bd 9e05 dc3c ae04 50bd b06e e5bc
00000250: 5e78 3d3e 88e7 263c b660 1e3e b255 c13d
00000260: 048c e3bd 88ab 27bd 4fb9 00bd 5e6c b73d
00000270: f79e 01bc d6e0 893d 7c99 df3d 766a 33be
00000280: c76c a33d 6d48 f63c 9217 933c 19cb 86bc
00000290: e088 81bc e045 f2bc d97d 80bd 4921 d5bd
000002a0: 0265 0a3e 0265 e13d 7bf8 8cbb 00cd 173e
000002b0: 745d 81bd 68b2 b73d f27d 0b3d a0de 5a3c
000002c0: c6ca 2d3d a86d 83ba 7b88 7b3e ea5d 52bb
000002d0: f501 aebd f6de 5b3d 45c6 a4bc eb88 d2bd
000002e0: 519b 8f3d ca4c 383d 7473 8cbd 7d9a e1bd
000002f0: 8e6a e7bc 8cd2 e9bc 793f 9fbd bf3d 1cbb
00000300: d6c2 cabc f7a2 e53b 9828 7abd 8368 7e3c
00000310: 3f91 723d e12e 263c fbd5 ffbd 8216 97bd
00000320: 7ec1 9a3d 3ced 49bc d9ae abbc a7a2 093c
00000330: 04c5 633c b732 6fbc 4040 b7bc 21df 6dbc
00000340: 57d5 bb3d 3abb 0b3c 9396 96bc 0d78 993c
00000350: 7485 2dbd c68b 043e dd7a 16be e92a c6bb
00000360: af95 e6ba ca2c 01be e5db de3c 5952 503e
00000370: 6db2 2a3d 729c 003e 8277 59be 3860 803e
00000380: 4611 f73d 8395 27bd 1c4b 453e 5264 04be
00000390: c015 5cbd 166c 11be 1c87 16bd 1516 8c3d
000003a0: e981 7abb 7f69 633d 164f ddbc 9d8a 46bd
000003b0: bb5d c33d d193 ec3d 8fbd 823d 3968 6abd
000003c0: 1dda 0fbc 01de 46bc 5f99 a13d c067 49bd
000003d0: 8e2f 5a3e fb63 d6bc e593 ae3d 3ae5 adbd
000003e0: d3e3 bfba 6f8e 22bd f4f1 a83d 1c64 d6bc
000003f0: f11d a03d f091 af3d bc3e 04bc e484 733d

1.layers.3.0.bias f4 [74]
-0.06718503 -0.03957952 -0.041772477 -0.039911374 -0.042659074 -0.00515088 -0.04517218 -0.010169957
-0.049302902 -0.05851581 -0.04228495 -0.021821018 -0.02159546 -0.03889575 -0.031851538 -0.0068637026
-0.038633637 -0.037345067 -0.03283537 -0.008540513 -0.05781724 -0.04628501 -0.013722928 -0.025469683
-0.04445302 0.014131504 -0.002337853 -0.06500678 -0.00020071004 -0.050458428 -0.05988098 -0.03124115
-0.007222465 -0.06758557 -0.012497491 -0.02981344 -0.04921714 -0.06338206 -0.042161312 -0.015587009
-0.06837987 -0.0610543 -0.03992917 -0.026503993 -0.03778188 -0.036461584 -0.10089076 -0.047998656
-0.036354095 -0.06127107 -0.020226989 -0.044646777 -0.05315208 -0.016291052 -0.075303555 -0.049627855
-0.03369913 -0.0228337 -0.038626872 -0.019337112 -0.044203956 -0.01601478 -0.010626094 -0.024895752
-0.08172446 -0.042840213 -0.04588788 -0.0048076147 -0.010028708 -0.027947392 -0.012648047 -0.063880615
-0.04200746 -0.06602674
00000000: 4e98 89bd 221e 22bd 9e19 2bbd 1c7a 23bd
00000010: 48bb 2ebd b7c8 a8bb 7706 39bd e49f 26bc
00000020: d7f1 49bd 46ae 6fbd fc32 2dbd fec1 b2bc
00000030: f6e8 b0bc 2651 1fbd c276 02bd e9e8 e0bb
00000040: 4e3e 1ebd 24f7 18bd 627e 06bd 82ed 0bbc
00000050: c5d1 6cbd 5a95 3dbd 22d6 60bc cca5 d0bc
00000060: 5f14 36bd d387 673c aa36 19bb 4622 85bd
00000070: b175 52b9 7fad 4ebd c245 75bd 71ed ffbc
00000080: 6daa ecbb 4e6a 8abd 47c2 4cbc 513b f4bc
00000090: e997 49bd 74ce 81bd 57b1 2cbd a760 7fbc
000000a0: bf0a 8cbd 1314 7abd c58c 23bd e71e d9bc
000000b0: 2cc1 1abd be58 15bd d19f cebd 3d9a 44bd
000000c0: 08e8 14bd 60f7 7abd 12b3 a5bc 8adf 36bd
000000d0: ffb5 59bd d074 85bc c038 9abd 9446 4bbd
000000e0: 1908 0abd bd0d bbbc 3637 1ebd dd68 9ebc
000000f0: 350f 35bd 6e31 83bc 1219 2ebc 2df2 cbbc
00000100: 275f a7bd 3879 2fbd eef4 3bbd 3289 9dbb
00000110: 734f 24bc eef1 e4bc c139 4fbc d7d3 82bd
00000120: 0410 2cbd 0739 87bd

1.layers.4.0.weight f4 [74, 370]
0.16659829 2.6433241e-05 -0.0054216916 -0.034543715 0.06978995 0.010588856 0.09520546 -0.0059859296
0.11719175 0.03929846 0.15798755 0.040990077 -0.07353374 0.061843265 -0.12823755 -0.13508177
-0.04040941 0.09939414 -0.09922674 0.029318769 0.13071904 0.048676092 0.10131892 -0.017219953
-0.090941556 0.04355403 0.026755271 0.0070480946 0.035966236 -0.0036712987 -0.008536377 -0.044626113
0.023895144 0.052409034 -0.013062938 0.052865352 0.0785355 -0.069719136 0.018181333 -0.10593918
0.038367502 0.026164817 -0.022992155 0.06029757 0.10285725 0.048991118 -0.04361926 -0.08831712
0.11843561 -0.05618874 0.003205258 -0.089110374 -0.1379683 -0.01791431 0.008758134 0.009824699
0.09947393 -0.027842212 -0.15676597 0.02172047 -0.064400144 0.0455547 0.015581897 0.0638327
-0.029663123 0.013670023 0.12541969 -0.021073231 -0.0035662623 0.055603553 -0.055880874 -0.014445003
0.026551615 0.051227514 -0.11732861 -0.07150559 0.049954534 -0.1234329 0.035896588 0.02441196
-0.019123461 -0.0060505597 -0.082743295 0.07323835 0.012865388 0.04128184 0.038103208 -0.07987745
0.03531462 0.022677865 -0.13516775 0.09876992 -0.12349138 -0.07127081 0.08248879 0.047933277
0.056251716 -0.040201392 0.06820597 -0.025789423 0.021487812 -0.09180331 0.026756408 0.067560665
0.025980636 0.045406073 -0.015971556 0.039254744 0.09411065 -0.07898772 0.06620544 -0.055401515
-0.016511753 -0.099109 0.13362138 0.18134867 0.026956433 0.054298032 0.11214177 -0.10895361
0.021403553 -0.008130034 0.050182838 0.06891428 0.013577028 -0.0924706 -0.03333117 -0.05105806
0.040415835 -0.06621503 0.020300813 0.034812972 -0.008498783 0.086203486 0.014765698 0.09735483
0.0042060483 -0.08980885 -0.09719721 -0.03208639 -0.034799147 -0.004008373 -0.093496576 0.0075467904
0.019372754 0.025707433 0.035236876 -0.0699652 -0.023718482 -0.033788476 0.04359193 0.0035409837
-0.14604037 0.005205685 0.004965375 0.07228651 -0.0053838342 -0.12092814 0.040584333 0.017852828
-0.14179513 0.009395287 -0.019129248 0.1765238 -0.08963412 -0.064225264 -0.139546 0.154916
0.05991286 -0.0018675359 0.04266787 -0.11447833 -0.04055729 -0.090474695 0.04587881 -0.017873863
-0.12880413 -0.06674655 -0.09432692 0.04258357 -0.025757378 0.029741757 0.052827813 -0.10884087
-0.105956815 0.02637172 0.05833364 -0.012944911 -0.14068158 -0.02337839 0.05073588 -0.02927411
0.04464251 0.012099284 -0.023285307 -0.083543 -0.1356015 0.060968503 -0.06019563 -0.119376026
-0.06248407 0.099636674 -0.13639379 -0.040744003 0.04426906 0.02964264 -0.112391636 0.018888324
0.0023319535 -0.13167833 0.026334304 0.020589422 -0.073310636 -0.0397794 0.018816723 0.007549705
0.057500724 0.0740229 -0.15294498 -0.13758852 -0.061865572 0.11286157 0.07162658 -0.03215952
-0.054957166 0.06841061 -0.06374477 -0.04823099 0.026649151 -0.0082880445 0.022155454 0.061050326
0.048353445 0.03663109 0.073376514 0.010956632 0.038545214 -0.113182195 -0.005577386 0.12640157
-0.0063599134 0.10988742 -0.0045584845 -0.075578086 0.053062256 0.040489256 0.056110967 0.06749191
0.03614309 -0.13525058 -0.06685959 0.14392078 -0.05528296 0.0068284906 0.1122027 -0.021303693
00000000: be98 2a3e f4bc dd37 72a8 b1bb b67d 0dbd
00000010: 09ee 8e3d e27c 2d3c 15fb c23d 9e25 c4bb
00000020: 3a02 f03d 6cf7 203d 7dc7 213e 36e5 273d
00000030: dc98 96bd 5d4f 7d3d b450 03be e052 0abe
00000040: 5684 25bd 288f cb3d 6437 cbbd ea2d f03c
00000050: 36db 053e 9560 473d 4b80 cf3d dc10 8dbc
00000060: 913f babd b665 323d df2d db3c b4f3 e63b
00000070: 5551 133d 2c9a 70bb 29dc 0bbc dfc9 36bd
00000080: c0bf c33c dbaa 563d ef05 56bc 5789 583d
00000090: 38d7 a03d e8c8 8ebd 05f1 943c a4f6 d8bd
000000a0: 3e27 1d3d 9957 d63c 0b5a bcbc 96fa 763d
000000b0: d2a6 d23d e9aa 483d 1caa 32bd 9bdf b4bd
000000c0: 5e8e f23d 2a26 66bd 4e0f 523b 807f b6bd
000000d0: 9047 0dbe 08c1 92bc 477e 0f3c c6f7 203c
000000e0: fdb8 cb3d 5a15 e4bc 4287 20be 21ef b13c
000000f0: 39e4 83bd 9197 3a3d 374b 7f3c b8ba 823d
00000100: 1400 f3bc 3bf8 5f3c 056e 003e c5a1 acbc
00000110: f4b7 69bb 8dc0 633d 58e3 64bd bcaa 6cbc
00000120: c682 d93c f1d3 513d fb49 f0bd 8671 92bd
00000130: 209d 4c3d 63ca fcbd 4d08 133d 97fb c73c
00000140: cea8 9cbc c643 c6bb 5175 a9bd fdfd 953d
00000150: 59c9 523c 2617 293d 1c12 1c3d ca96 a3bd
00000160: 10a6 103d eec6 b93c 6a69 0abe e247 ca3d
00000170: 0ce9 fcbd 6ef6 91bd e2ef a83d af55 443d
00000180: 3368 663d 37aa 24bd 92af 8b3d 5744 d3bc
00000190: 3507 b03c 6003 bcbd 4130 db3c 3f5d 8a3d
000001a0: 58d5 d43c b8fb 393d c8d6 82bc 95c9 203d
000001b0: 16bd c03d 50c4 a1bd b896 873d b3ec 62bd
000001c0: a843 87bc a9f9 cabd 0bd4 083e 77b3 393e
000001d0: bdd3 dc3c 9d67 5e3d 96aa e53d 1223 dfbd
000001e0: 8156 af3c d633 05bc 858c 4d3d ee22 8d3d
000001f0: 2f72 5e3c 3a61 bdbd 4486 08bd 4222 51bd
00000200: 138b 253d bf9b 87bd e44d a63c 0c98 0e3d
00000210: 7b3e 0bbc 748b b03d d4eb 713c f861 c73d
00000220: e4d2 893b b4ed b7bd 550f c7bd 056d 03bd
00000230: 8d89 0ebd ab58 83bb 227b bfbd 114b f73b
00000240: 9cb3 9e3c 6598 d23c 8b54 103d ea49 8fbd
00000250: 434d c2bc c965 0abd 748d 323d d90f 683b
00000260: 9b8b 15be 7394 aa3b 96b4 a23b f30a 943d
00000270: e06a b0bb 2ca9 f7bd c23b 263d 1840 923c
00000280: be32 11be b1ee 193c f1b4 9cbc a8c2 343e
00000290: 1892 b7bd 8988 83bd 26e5 0ebe 4da2 1e3e
000002a0: 3067 753d 1bc8 f4ba 81c4 2e3d 9d73 eabd
000002b0: 671f 26bd cc4a b9bd 6beb 3b3d 356c 92bc
000002c0: 3be5 03be 6ab2 88bd 792e c1bd 1c6c 2e3d
000002d0: 2301 d3bc fca4 f33c fa61 583d f6e7 debd
000002e0: e3ff d8bd 8109 d83c 41ef 6e3d e416 54bc
000002f0: d50e 10be 0a84 bfbc 6dd0 4f3d 42d0 efbc
00000300: 11db 363d 133c 463c d4c0 bebc 9818 abbd
00000310: 1fdb 0abe 1cba 793d b18f 76bd 6b7b f4bd
00000320: 4cef 7fbd 500e cc3d d0aa 0bbe 2fe3 26bd
00000330: 7953 353d 1fd5 f23c 962d e6bd b0bb 9a3c
00000340: b0d3 183b afd6 06be 0abb d73c 26ab a83c
00000350: e323 96bd b9ef 22bd 8725 9a3c 8463 f73b
00000360: e185 6b3d 5199 973d 9c9d 1cbe 01e4 0cbe
00000370: c166 7dbd f823 e73d f5b0 923d b3b9 03bd
00000380: c41a 61bd dd1a 8c3d 9e8c 82bd dc8d 45bd
00000390: 524f da3c 94ca 07bc 5b7f b53c e80f 7a3d
000003a0: 430e 463d 7b0a 163d 6d46 963d 7283 333c
000003b0: 96e1 1d3d 11cc e7bd 81c2 b6bb 6a6f 013e
000003c0: d266 d0bb a80c e13d 575f 95bb afc8 9abd
000003d0: cf57 593d 10d8 253d 9dd4 653d 3339 8a3d
000003e0: c70a 143d 217f 0abe aeed 88bd f85f 133e
000003f0: 6370 62bd 88c1 df3b 87ca e53d 1585 aebc

1.layers.4.0.bias f4 [74]
-0.02105308 -0.07326521 -0.09624307 -0.021444129 -0.044780683 -0.031169364 -0.027256005 -0.019050974
-0.031192476 -0.0395553 -0.005085307 -0.041442525 -0.033430826 -0.027966347 -0.069022544 -0.050341226
-0.022008048 -0.058627285 -0.021067297 0.00017727657 -0.028906373 -0.017252432 -0.002329206 0.0037561408
-0.01334167 -0.05662341 -0.04525335 -0.017254714 -0.040505547 -0.030989908 -0.028515663 -0.05412503
-0.021481425 -0.052062303 -0.032910097 -0.0673981 -0.07529499 -0.041009683 -0.084887475 -0.005815187
-0.046695482 -0.02135449 -0.01750876 -0.05561806 -0.05887107 -0.06861144 -0.025470456 -0.039116614
-0.03419822 -0.025988474 -0.017486256 -0.034460492 -0.043753583 -0.068757124 -0.006110522 -0.0043527996
-0.073845364 -0.021001002 -0.02599249 -0.032711916 -0.0019320298 0.007787367 -0.04417864 -0.061652843
-0.021888211 -0.01369447 -0.017870951 -0.05656269 -0.026181843 -0.02418014 -0.05212121 -0.039225288
-0.044190805 -0.07613122
00000000: 8277 acbc 120c 96bd 161b c5bd 99ab afbc
00000010: f36b 37bd e556 ffbc fc47 dfbc ca10 9cbc
00000020: 5d87 ffbc bd04 22bd a6a2 a6bb a3bf 29bd
00000030: c3ee 08bd ae19 e5bc b15b 8dbd 9a32 4ebd
00000040: 394a b4bc 2a23 70bd 5395 acbc 51e3 3939
00000050: 0fcd ecbc f954 8dbc 98a5 18bb 9629 763b
00000060: 0597 5abc f3ed 67bd 945b 39bd c259 8dbc
00000070: 25e9 25bd 8cde fdbc ae99 e9bc 35b2 5dbd
00000080: d0f9 afbc 483f 55bd bdcc 06bd 0408 8abd
00000090: 4234 9abd c5f9 27bd 7cd9 adbd 538d bebb
000000a0: c343 3fbd 9def aebc 886e 8fbc c3cf 63bd
000000b0: cb22 71bd 2884 8cbd 6ba7 d0bc be38 20bd
000000c0: 6f13 0cbd c8e5 d4bc 563f 8fbc 7226 0dbd
000000d0: f536 33bd 89d0 8cbd c63a c8bb eea1 8ebb
000000e0: 3d3c 97bd 4b0a acbc 34ee d4bc eefc 05bd
000000f0: 2a3c fdba 2b2d ff3b a9f4 34bd b187 7cbd
00000100: e84e b3bc c55e 60bc 1a66 92bc 47ae 67bd
00000110: 4e7b d6bc 6e15 c6bc 0d7d 55bd b2aa 20bd
00000120: 6b01 35bd afea 9bbd
