DNNWeightsDefault/model_0/ensemble_1/zz_bbtt_2.onnx (onnx, 947112 bytes, 19 tensors)

0.embeds.0.weight f4 [2, 1]
0.457117 -0.30994067
00000000: 3d0b ea3e 8bb0 9ebe

0.embeds.1.weight f4 [3, 2]
-0.60625017 -0.12892565 1.5001087 0.1288578 0.21803397 1.6964438
00000000: 3633 1bbf 1605 04be 9003 c03f 4df3 033e
00000010: 4c44 5f3e 1225 d93f

0.embeds.2.weight f4 [2, 1]
-0.007942781 -1.7977132
00000000: 7022 02bc 771b e6bf

0.embeds.3.weight f4 [5, 3]
-0.053659588 -0.24220568 1.8233184 -0.5113988 -1.2462779 1.0127214 -0.32499608 -0.8185713
-0.6843948 -0.9150026 0.10501623 -1.9916743 1.4109931 1.3108445 -0.263768
00000000: 28ca 5bbd c404 78be 7f62 e93f 08eb 02bf
00000010: 0986 9fbf dba0 813f e365 a6be e48d 51bf
00000020: 7f34 2fbf 9c3d 6abf c012 d73d 2fef febf
00000030: 6c9b b43f c1c9 a73f 990c 87be

0.embeds.4.weight f4 [5, 3]
0.13737543 0.2850151 0.09591339 -0.7778753 -0.38602015 -1.2756355 -1.6326481 -0.8120358
1.2694892 0.69372416 1.5648531 -0.4960987 0.6331168 1.1018302 1.1074511
00000000: 25ac 0c3e 80ed 913e 3d6e c43d d622 47bf
00000010: 6fa4 c5be 0648 a3bf 9dfa d0bf 94e1 4fbf
00000020: 9f7e a23f e897 313f 1b4d c83f a600 febe
00000030: f113 223f c608 8d3f f5c0 8d3f

0.embeds.5.weight f4 [2019, 50]
1.3799385 -0.17368867 0.43419766 1.4331 -0.70167375 1.1698632 -0.20346452 -0.51449484
0.3381654 -0.0043671867 -0.53626895 0.23345509 1.0906138 -0.15619008 2.197098 0.57126105
-2.1266005 0.4442901 0.12398972 -1.0889397 -0.79056674 -0.7280084 -1.2826517 2.188872
-1.9772629 -0.87124795 -1.1374632 -2.3727756 1.77831 -0.70443135 -0.9563042 -0.8782523
-0.76534367 -0.85272515 -0.99829423 0.25935972 1.1396487 -2.1571674 0.44848192 -2.6977434
1.3234807 0.07202556 0.023976604 -0.06942783 1.2552881 1.146797 0.024179509 0.050624926
0.033863742 1.1975939 0.5436104 -0.10633927 2.3795464 -0.8769745 0.38348684 -1.4942055
0.09603853 0.67518044 0.34933552 0.70494217 0.39846054 0.64547056 -0.798779 -0.5445504
0.13961224 -0.5147655 -1.3704292 -1.5659142 -0.32234558 -1.0321703 1.36687 -1.82894
0.5431066 -0.32963 0.62507623 -0.6087782 -0.48134553 1.044459 -0.6018327 0.8648657
0.7451483 -1.4546465 -0.42018324 -0.82608134 -1.1935838 -1.0964214 -2.3320484 -0.99178183
-0.47185495 0.19357525 0.85742676 0.49547607 0.0744502 -0.8059744 1.0430543 -0.69881797
-0.68391067 0.79738367 0.36107606 -0.3753446 0.47194955 -1.4274007 0.3131484 1.8130739
1.4921453 0.6245453 0.07694549 -0.0716108 0.074252315 0.041642886 1.684164 -0.52797306
0.7948791 -2.055793 -0.8901007 0.730652 0.7734352 0.35176972 -0.78908694 -1.5146987
-1.5560879 0.31677407 -0.037255205 0.75623167 0.034525968 -0.19847816 0.011468008 0.3783941
-0.5148715 0.84586644 0.32807615 -2.2443101 -0.27238107 0.8280312 -0.9592909 1.0890783
-1.0873355 0.27081642 -0.2660706 -0.32411256 -2.2987716 -1.048802 -0.9360871 -1.4521818
-0.12380592 -2.0183628 -1.1973952 -0.030915195 -0.30217507 -0.33234742 -0.7119015 -1.8154614
1.0713308 0.7734432 -0.2092936 -1.5792253 -0.53639275 0.2984537 -0.18748288 -0.47591817
0.07440754 -1.7335138 0.15511642 -0.80904466 -0.50794923 -0.28573194 -0.7024104 -0.45681453
1.0109074 0.95841897 -0.039977506 0.056015693 -0.15895179 1.1028136 1.1712878 0.38908404
0.5352587 -0.7269215 -1.5879024 -0.54819477 0.63557506 -1.3239803 0.7957241 1.961669
-0.32730556 -0.23125891 -0.5170979 -1.6538739 -0.7037299 -0.760568 0.7596357 -0.4689302
-0.37875956 0.4148249 -0.9259922 1.6105676 0.8088804 -0.27719882 0.25708565 1.1030494
1.1917224 -0.88589656 0.9940124 -1.2407317 0.1989465 -0.08294537 -0.7791574 -0.8974238
0.020577379 0.09838628 0.9980829 -0.14313246 -0.5442084 -1.664818 -1.3999482 0.17786069
-1.3153987 1.4969761 -0.23681802 -0.2671147 0.97688925 1.6114271 -0.015596678 0.9188276
-1.486992 0.49621892 0.66301084 -1.5841061 -0.5062257 0.2165793 0.4422115 0.95473045
-1.3077766 1.2726892 0.8746238 -1.5991932 -0.30280507 -0.7879413 -0.058185015 -0.58559394
-0.21158692 -0.71351355 1.7097614 0.020114016 -0.053191602 0.60564095 -0.11594295 0.5390986
0.2072453 -0.24341388 0.9904079 0.37759683 0.5371221 0.7341552 -0.72719085 -1.4308512
00000000: d3a1 b03f 71db 31be 284f de3e d26f b73f
00000010: e4a0 33bf 14be 953f 0159 50be efb5 03bf
00000020: 0424 ad3e 9e1a 8fbb ec48 09bf da0e 6f3e
00000030: 3c99 8b3f 4bf0 1fbe 419d 0c40 2a3e 123f
00000040: 391a 08c0 fe79 e33e 53ee fd3d 6062 8bbf
00000050: 9562 4abf c25e 3abf ee2d a4bf 7b16 0c40
00000060: f316 fdbf 1b0a 5fbf 6598 91bf 8edb 17c0
00000070: a99f e33f 9d55 34bf 5ad0 74bf 25d5 60bf
00000080: 90ed 43bf 324c 5abf 3690 7fbf ccca 843e
00000090: 02e0 913f 080f 0ac0 6c9f e53e d4a7 2cc0
000000a0: d167 a93f 2382 933d 956a c43c 2e30 8ebd
000000b0: 48ad a03f 3eca 923f 1b14 c63c 155c 4f3d
000000c0: b5b4 0a3d c24a 993f 0d2a 0b3f 67c8 d9bd
000000d0: 7d4a 1840 6781 60bf 6358 c43e 2042 bfbf
000000e0: d9af c43d a0d8 2c3f 1bdc b23e 1777 343f
000000f0: 0503 cc3e 8f3d 253f c87c 4cbf a867 0bbf
00000100: 83f6 0e3e acc7 03bf 396a afbf e06f c8bf
00000110: 7b0a a5be 281e 84bf 99f5 ae3f b51a eabf
00000120: 0909 0b3f 43c5 a8be ff04 203f e3d8 1bbf
00000130: ec72 f6be d5b0 853f b511 1abf d767 5d3f
00000140: 0ac2 3e3f db31 babf 4222 d7be 117a 53bf
00000150: 5bc7 98bf 8957 8cbf 4840 15c0 6ae5 7dbf
00000160: f996 f1be 9738 463e 5280 5b3f 0aaf fd3e
00000170: 5979 983d 5754 4ebf ce82 853f bce5 32bf
00000180: c514 2fbf 5621 4c3f f6de b83e 2b2d c0be
00000190: 5fa3 f13e 11b5 b6bf fd54 a03e ce12 e83f
000001a0: 9efe be3f 33e2 1f3f 9995 9d3d afa8 92bd
000001b0: 9911 983d bb91 2a3d b092 d73f 3e29 07bf
000001c0: 327d 4b3f 1d92 03c0 a4dd 63bf 020c 3b3f
000001d0: d9ff 453f 291b b43e 9a01 4abf a6e1 c1bf
000001e0: e32d c7bf 3630 a23e ea98 18bd 6698 413f
000001f0: 1a6b 0d3d dc3d 4bbe 50e4 3b3c dfbc c13e
00000200: 9ece 03bf b48a 583f 99f9 a73e c7a2 0fc0
00000210: 8875 8bbe daf9 533f 1794 75bf eb66 8b3f
00000220: cf2d 8bbf 73a8 8a3e 683a 88be 15f2 a5be
00000230: 131f 13c0 253f 86bf 67a3 6fbf 18e1 b9bf
00000240: f58d fdbd db2c 01c0 3f44 99bf dd41 fdbc
00000250: b1b6 9abe 7129 aabe 2d3f 36bf 0a61 e8bf
00000260: 5e21 893f 6000 463f 1051 56be 0e24 cabf
00000270: 0951 09bf ecce 983e 83fb 3fbe 8cab f3be
00000280: fb62 983d c8e3 ddbf d7d6 1e3e 8d1d 4fbf
00000290: f608 02bf 754b 92be 2bd1 33bf 98e3 e9be
000002a0: 6a65 813f f25a 753f 74bf 23bd b670 653d
000002b0: 42c4 22be ff28 8d3f c2ec 953f 0636 c73e
000002c0: b706 093f 8717 3abf 6340 cbbf 7e56 0cbf
000002d0: 0cb5 223f 3078 a9bf 93b4 4b3f f817 fb3f
000002e0: 9894 a7be 23cf 6cbe 8760 04bf 24b2 d3bf
000002f0: a527 34bf 96b4 42bf 7c77 423f 9f17 f0be
00000300: c6ec c1be ee63 d43e d30d 6dbf 1427 ce3f
00000310: c912 4f3f 01ed 8dbe bba0 833e b930 8d3f
00000320: 5c8a 983f 1eca 62bf 9977 7e3f 4cd0 9ebf
00000330: a2b8 4b3e 43df a9bd dc76 47bf 91bd 65bf
00000340: e491 a83c bf7e c93d 5c82 7f3f 5191 12be
00000350: 3e51 0bbf c218 d5bf 8131 b3bf 1d21 363e
00000360: fc5e a8bf ea9c bf3f 6c80 72be 42c3 88be
00000370: 6a15 7a3f 3e43 ce3f 3589 7fbc 4938 6b3f
00000380: c155 bebf 6810 fe3e 14bb 293f fdc3 cabf
00000390: 0298 01bf f7c6 5d3e 8c69 e23e 3769 743f
000003a0: 3965 a7bf 7be7 a23f 58e7 5f3f 5db2 ccbf
000003b0: 4409 9bbe 85b6 49bf 6953 6ebd 7ce9 15bf
000003c0: 3eaa 58be d3a8 36bf 76d9 da3f 26c6 a43c
000003d0: 70df 59bd 490b 1b3f 7f73 edbd 5e02 0a3f
000003e0: 1d38 543e 7d41 79be 5f8b 7d3f 5f54 c13e
000003f0: d580 093f 98f1 3b3f 2e29 3abf 2226 b7bf

1.layers.0.0.bias f4 [80]
-0.017926985 -0.085739285 -0.03963227 -0.09514973 -0.08738266 -0.061234035 -0.055152528 -0.034766912
-0.023151731 -0.064649925 0.024638169 -0.06696963 -0.04570764 -0.041611724 0.004652506 -0.045767907
-0.03416228 -0.040149987 -0.044353586 -0.14473636 -0.03142157 -0.046705905 0.026665675 -0.044979475
-0.08651787 -0.068252094 -0.0004129677 -0.09145651 0.0045071696 -0.11179678 -0.050319888 0.003295613
-0.021632468 -0.015743718 -0.025963198 -0.051418252 -0.07451793 0.000682369 -0.016070677 -0.013126253
-0.055916347 -0.02284316 -0.06498332 -0.01436932 -0.04100677 -0.0240196 -0.015060023 0.0029032754
0.02262623 -0.049597137 -0.030464558 -0.049629733 -0.023271326 -0.07007472 -0.065301225 -0.05400622
-0.07101147 0.012550874 -0.028544076 -0.05595275 0.027548244 -0.010491453 0.019012155 -0.046139333
-0.06381812 -0.052602116 -0.08670079 -0.030769363 -0.0040711006 0.015547437 -0.063891985 -0.016340828
-0.02603238 -0.06952424 -0.04503003 -0.09586337 -0.06555723 -0.124307424 -0.032642152 -0.13784094
00000000: 9ddb 92bc 1498 afbd 7255 22bd dddd c2bd
00000010: aef5 b2bd 8ad0 7abd 9ee7 61bd c067 0ebd
00000020: b3a8 bdbc 2e67 84bd fcd5 c93c 6027 89bd
00000030: ef37 3bbd 0e71 2abd 0d74 983b 2177 3bbd
00000040: bfed 0bbd 5074 24bd 1bac 35bd c535 14be
00000050: e7b3 00bd b14e 3fbd f971 da3c 663c 38bd
00000060: 4830 b1bd c1c7 8bbd 9683 d8b9 8d4d bbbd
00000070: e1b0 933b b6f5 e4bd 3a1c 4ebd 36fb 573b
00000080: 9336 b1bc f8f8 80bc c6b0 d4bc f29b 52bd
00000090: db9c 98bd 02e1 323a a7a6 83bc 7f0f 57bc
000000a0: 8a08 65bd 9421 bbbc fa15 85bd 4c6d 6bbc
000000b0: b7f6 27bd c1c4 c4bc 51be 76bc e144 3e3b
000000c0: a55a b93c 5e26 4bbd cf90 f9bc 8c48 4bbd
000000d0: 82a3 bebc 5683 8fbd a6bc 85bd a035 5dbd
000000e0: 766e 91bd 2ea2 4d3c 44d5 e9bc b62e 65bd
000000f0: dbac e13c 58e4 2bbc 61bf 9b3c 99fc 3cbd
00000100: 13b3 82bd 5175 57bd 2f90 b1bd 0810 fcbc
00000110: de66 85bb adba 7e3c cdd9 82bd 33dd 85bc
00000120: dc41 d5bc ba62 8ebd 6971 38bd 0454 c4bd
00000130: de42 86bd e494 febd c7b3 05bd 2d26 0dbe

1.layers.0.0.weight f4 [80, 80]
0.07308986 -0.03927159 0.18823071 0.0025485726 -0.061818253 0.118622534 0.3054826 0.03744666
0.24243072 -0.15563959 0.16195019 -0.34641466 0.09696894 0.26874495 0.029208312 0.099219665
0.1689064 0.13182056 -0.19688423 -0.09795594 0.3841162 -0.2645843 0.23530276 -0.04930641
-0.18918581 -0.14925279 -0.05587214 -0.043860376 0.029678201 0.45792186 -0.23717257 0.2396594
0.11779561 -0.36667264 0.081083484 0.056910455 -0.2071845 0.21811822 0.02455556 -0.16896477
-0.095322125 -0.030714707 0.07228116 -0.22608483 -0.022974143 0.118282065 0.111334644 0.28756893
0.16528696 -0.011689863 -0.01992081 -0.2412194 0.08426163 0.01775835 0.14153977 0.1838831
0.1599061 -0.11123787 0.34623507 -0.18592833 -0.031061519 0.031979855 0.032604862 0.07000617
0.036743626 0.12126303 -0.010413085 -0.032012165 -0.00096093526 -0.14108801 -0.07011949 0.20818467
0.007887122 -0.08298818 -0.315106 -0.035525918 -0.036355786 0.17888515 -0.23794648 -0.36335668
-0.09280772 0.06412172 0.017702714 -0.01642234 0.19851997 -0.18671153 0.1744165 0.14467427
0.031246932 -0.16675977 0.18422265 0.22150981 -0.056712855 0.017052695 0.29477265 -0.13193014
0.0061756764 0.34162557 0.15716559 0.091223836 0.0025824923 -0.2376567 -0.51963454 0.32475382
-0.17367521 0.023037834 0.1404646 -0.18061912 0.110340886 0.11161436 -0.08347812 0.17998141
-0.011949822 -0.39069209 -0.0009028175 0.32131287 -0.09734969 -0.102238834 0.114351735 0.24195123
0.25924903 0.15388629 0.056473933 -0.15961869 0.06362593 -0.24419256 -0.081861384 -0.32217264
-0.076032504 -0.01728807 0.052975573 -0.1559179 -0.15180793 -0.07048226 0.27475673 0.020865416
-0.28813398 -0.0037895716 0.17986886 0.011036504 0.008517101 0.024350917 -0.03164492 0.045993492
-0.22614461 -0.037284117 -0.04521234 -0.00649613 -0.2424563 -0.41528985 0.12214849 0.15276566
-0.016383698 -0.095670365 -0.122197255 -0.009586706 -0.11118439 0.09077035 0.12801059 0.14515348
0.07265105 0.23222195 -0.12904021 0.014737458 0.2948533 -0.37097457 0.17222981 -0.10160225
-0.27616033 0.49496827 0.20785768 -0.1578156 0.08970625 -0.4392628 -0.31093156 0.022912491
-0.024974018 -0.0017971711 0.16160405 -0.17681071 0.03407675 0.11724291 0.09603194 -0.23041478
-0.11953618 -0.20575286 -0.086879425 -0.16974516 0.14858006 -0.23001768 -0.3081817 -0.09273509
0.049320508 0.14882539 0.09164448 -0.09762734 -0.17731313 0.03766822 -0.098966 -0.049470715
0.02366013 0.0495522 -0.026160711 0.034567945 0.06911522 -0.08601773 0.19799118 0.021746607
-0.2926054 -0.062657945 -0.13076745 -0.075115316 -0.14649975 -0.14861749 0.0026858093 0.00299853
-0.087071694 -0.092779525 0.058404185 0.09703171 0.09046113 0.057596743 0.08691012 -0.16947111
-0.28427556 -0.26205677 0.06188852 0.072101615 -0.024435652 -0.14434633 0.13480298 -0.02314488
0.12272931 0.013266236 -0.10985437 0.07050961 -0.049206227 0.025720378 0.0015720804 -0.14077643
0.0017934699 0.32074717 0.09617133 -0.036977097 0.26915622 0.07013317 0.011311026 -0.12199344
-0.17104845 -0.045954004 0.15011519 0.11555395 0.17069864 0.016755896 0.10392731 -0.35977346
00000000: 23b0 953d 3fdb 20bd 8dbf 403e f405 273b
00000010: 2335 7dbd 5ff0 f23d 3768 9c3e ab61 193d
00000020: c23f 783e fc5f 1fbe 45d6 253e 435d b1be
00000030: a797 c63d f098 893e 4546 ef3c ae33 cb3d
00000040: cdf5 2c3e f8fb 063e 059c 49be 209d c8bd
00000050: e1aa c43e 9877 87be 35f3 703e 85f5 49bd
00000060: edb9 41be b9d5 18be 2fda 64bd f0a6 33bd
00000070: b31f f33c bc74 ea3e 5edd 72be 4669 753e
00000080: d33e f13d 84bc bbbe 190f a63d f01a 693d
00000090: 2c28 54be 625a 5f3e be28 c93c 1a05 2dbe
000000a0: 3f38 c3bd 699d fbbc 2508 943d c882 67be
000000b0: 4534 bcbc de3d f23d 6b03 e43d 3c3c 933e
000000c0: fc40 293e d786 3fbc f730 a3bc 3802 77be
000000d0: 5d91 ac3d f679 913c cdef 103e da4b 3c3e
000000e0: 6dbe 233e aed0 e3bd b945 b13e ff63 3ebe
000000f0: ba74 febc 4ffd 023d ad8c 053d 655f 8f3d
00000100: 7c80 163d c058 f83d a59b 2abc 301f 03bd
00000110: 46e7 7bba 6079 10be cf9a 8fbd 5d2e 553e
00000120: fd38 013c b5f5 a9bd 9355 a1be a083 11bd
00000130: cee9 14bd ab2d 373e 3ea8 73be e309 babe
00000140: f911 bebd 4052 833d 4805 913c 2588 86bc
00000150: d248 4b3e 4f31 3fbe 3d9a 323e 7e25 143e
00000160: 91f9 ff3c 13c3 2abe dda4 3c3e 78d3 623e
00000170: bd4b 68bd 18b2 8b3c 71ec 963e b218 07be
00000180: 545d ca3b 8ce9 ae3e 04f0 203e 90d3 ba3d
00000190: 083f 293b 475c 73be c506 05bf 2246 a63e
000001a0: ead7 31be d7b9 bc3c f4d5 0f3e 38f4 38be
000001b0: 67fa e13d 1296 e43d 94f6 aabd 0c4d 383e
000001c0: 30c9 43bc cb08 c8be 0fab 6cba 1f83 a43e
000001d0: 465f c7bd 9862 d1bd 3e31 ea3d 10c2 773e
000001e0: 4abc 843e 5e94 1d3e 3651 673d 1573 23be
000001f0: 504e 823d 9d0d 7abe f1a6 a7bd d0f3 a4be
00000200: eeb6 9bbd b69f 8dbc eafc 583d f1a8 1fbe
00000210: 8a73 1bbe 0159 90bd eaac 8c3e f3ed aa3c
00000220: 4c86 93be 765a 78bb 8b2f 383e 74d2 343c
00000230: 508b 0b3c 937b c73c 1b9e 01bd ac63 3c3d
00000240: 7492 67be 3bb7 18bd 9330 39bd 7ddd d4bb
00000250: 7746 78be dfa0 d4be fd28 fa3d 9a6e 1c3e
00000260: 1b37 86bc d3ee c3bd 8e42 fabd 8f11 1dbc
00000270: a4b4 e3bd cee5 b93d 3515 033e 1da3 143e
00000280: 13ca 943d 97cb 6d3e 1e23 04be 6175 713c
00000290: 03f7 963e 61f0 bdbe 035d 303e d714 d0bd
000002a0: e364 8dbe 7b6c fd3e a5d8 543e 6a9a 21be
000002b0: e9b7 b73d 0ee7 e0be 6c32 9fbe fab2 bb3c
000002c0: 5096 ccbc 0e8f ebba 887b 253e de0d 35be
000002d0: 1094 0b3d 0d1d f03d 65ac c43d daf1 6bbe
000002e0: 62cf f4bd e1b0 52be d7ed b1bd add1 2dbe
000002f0: 5f25 183e c189 6bbe fec9 9dbe e5eb bdbd
00000300: 4d04 4a3d af65 183e 1ab0 bb3d d8f0 c7bd
00000310: 9391 35be fe49 1a3d b0ae cabd cea1 4abd
00000320: e4d2 c13c 3ff7 4a3d fd4e d6bc 1e97 0d3d
00000330: 488c 8d3d 102a b0bd 33be 4a3e f125 b23c
00000340: 60d0 95be cf52 80bd e7e7 05be 0fd6 99bd
00000350: 0804 16be 2f2f 18be 6704 303b fc82 443b
00000360: a552 b2bd 3103 bebd 3a39 6f3d 90b8 c63d
00000370: af43 b93d 90ea 6b3d effd b13d d689 2dbe
00000380: 918c 91be 4e2c 86be d17e 7d3d 03aa 933d
00000390: 472d c8bc 86cf 13be cb09 0a3e 559a bdbc
000003a0: 8159 fb3d a05a 593c 54fb e0bd 5867 903d
000003b0: 788c 49bd 8bb3 d23c 440e ce3a b227 10be
000003c0: dd12 eb3a f938 a43e 79f5 c43d 4c75 17bd
000003d0: d8ce 893e fba1 8f3d e251 393c b2d7 f9bd
000003e0: 5327 2fbe 443a 3cbd ccb7 193e 8da7 ec3d
000003f0: a0cb 2e3e a943 893c d7d7 d43d 3a34 b8be

1.layers.1.0.bias f4 [80]
-0.071397915 -0.054279182 -0.029904895 -0.06809172 -0.024574326 -0.0066233887 -0.054730233 -0.058784198
-0.047397844 -0.017868388 -0.045792155 -0.044221584 -0.06393301 -0.048034344 -0.037975136 -0.049791932
-0.022492835 -0.042135745 -0.02177003 -0.027568012 -0.037082694 -0.006236467 -0.048023622 -0.020062353
-0.07953178 -0.078515366 -0.044303086 -0.040430725 -0.04328172 -0.022143764 0.000715451 -0.06560337
-0.055766687 -0.028195499 -0.05123975 -0.07834708 -0.05758968 -0.018846285 -0.028888633 -0.020758683
-0.03805863 -0.049313236 -0.050578482 -0.06587534 -0.09103732 -0.10177813 -0.032065623 -0.018897213
-0.046571303 -0.061539236 -0.05315993 -0.059839062 -0.044766467 -0.014119194 -0.047288455 -0.05146118
-0.033331443 -0.037563264 -0.07930051 -0.046258148 -0.026353097 -0.038133115 -0.044389915 -0.05932945
-0.018362608 -0.05224699 -0.02838835 -0.08734815 -0.027448056 -0.07610951 -0.07320882 -0.07764781
-0.05581877 -0.035053603 -0.028844029 -0.0075461715 -0.057224996 -0.05581407 -0.020130562 -0.027026186
00000000: 1239 92bd d953 5ebd 1cfb f4bc ac73 8bbd
00000010: 1950 c9bc 0309 d9bb cf2c 60bd b3c7 70bd
00000020: 3e24 42bd ba60 92bc 8e90 3bbd b121 35bd
00000030: 4fef 82bd a9bf 44bd d18b 1bbd a0f2 4bbd
00000040: e542 b8bc 8896 2cbd 1057 b2bc 50d6 e1bc
00000050: 06e4 17bd 475b ccbb 6bb4 44bd ce59 a4bc
00000060: 8fe1 a2bd aacc a0bd 2777 35bd b09a 25bd
00000070: 2c48 31bd d766 b5bc 1b8d 3b3a 0f5b 86bd
00000080: 9c6b 64bd 3ffa e6bc c6e0 51bd 6f74 a0bd
00000090: 28e3 6bbd 8663 9abc dba7 ecbc 1d0e aabc
000000a0: 5ee3 1bbd adfc 49bd 622b 4fbd a6e9 86bd
000000b0: c671 babd 0d71 d0bd 3e57 03bd 54ce 9abc
000000c0: 8dc1 3ebd 9110 7cbd 3abe 59bd ce19 75bd
000000d0: 0b5d 37bd 3154 67bc 8ab1 41bd f5c8 52bd
000000e0: 8d86 08bd f0db 19bd 4e68 a2bd 2f79 3dbd
000000f0: 73e2 d7bc 7831 1cbd 33d2 35bd 7003 73bd
00000100: 2e6d 96bc f100 56bd af8e e8bc 96e3 b2bd
00000110: bfda e0bc 4edf 9bbd 81ee 95bd d105 9fbd
00000120: 39a2 64bd 5e94 0fbd 504a ecbc e045 f7bb
00000130: c264 6abd 4b9d 64bd d9e8 a4bc 0566 ddbc

1.layers.1.0.weight f4 [80, 160]
-0.102586396 0.041320052 0.0101051945 -0.01927202 0.098251045 -0.023700794 0.1649568 0.15446448
-0.09621364 -0.12597913 -0.2563242 -0.050735746 -0.10544481 -0.22780195 0.023250941 0.1205339
0.103181496 -0.2177076 0.01017429 -0.0487456 0.21219087 0.025417374 -0.08273617 -0.13411413
0.17974544 -0.19858992 -0.00556932 -0.026293203 -0.12643155 -0.031777095 -0.04193375 -0.055383544
-0.06501778 0.033665236 -0.21652506 0.06990669 -0.356705 0.080571726 0.031219758 -0.22585312
0.13439822 -0.052871663 0.045643453 0.028206594 -0.23627956 -0.046484597 0.1009195 0.055091836
-0.0600959 -0.04695556 -0.10406026 0.16413297 0.021818355 -0.019145595 -0.071798794 -0.045161087
-0.04489685 -0.1843895 0.10509119 -0.11113001 0.02144996 0.23669289 0.03780812 0.017268209
-0.164961 -0.12391277 -0.077674784 -0.008783752 -0.11594821 -0.13278504 -0.24962643 0.13567245
0.16846089 -0.17283538 0.037464637 -0.1953156 0.013445636 -0.053808257 0.1247801 0.05693041
-0.069220014 -0.13914593 0.03925897 0.32660288 0.05122716 0.18112233 0.03568659 -0.017570145
-0.09412648 0.16932325 0.039612576 -0.10579474 0.16934235 -0.088580474 0.17222303 -0.037980117
-0.064711265 -0.17420831 -0.016358439 -0.020372486 -0.019835232 0.094978124 0.11043178 0.035338964
-0.17401063 -0.05884365 -0.21633595 0.017307688 0.19631912 0.22598274 -0.16254602 0.062702596
0.05822692 0.030079236 0.17131262 0.16319546 -0.08993082 0.026450915 0.12726146 -0.000109284614
-0.24452002 -0.24796067 0.21564513 0.060480777 0.11094527 0.09400326 0.057600703 0.018112747
-0.19026075 -0.09713897 0.17223515 0.049973033 -0.047801018 -0.062318604 0.13726711 -0.14858365
-0.022868257 0.12363247 0.18580554 0.0196785 0.16849107 0.05477636 0.11538528 0.3103733
-0.10097988 0.05804267 -0.07529376 0.02032651 0.11693738 0.039023947 0.02514258 -0.040509336
-0.03406496 0.045320556 -0.003676825 0.00474463 0.021223802 0.31876147 0.0030540559 -0.0796849
-0.2430728 0.2810894 -0.05584707 0.17209102 -0.19503325 -0.103552744 -0.07845769 -0.02643171
-0.0081357155 0.0369228 -0.04077675 -0.22032078 0.14243205 0.13534853 -0.048657663 -0.10355361
0.16646168 -0.07555709 0.033914816 0.109145395 -0.22314394 0.05560114 -0.11388255 -0.041851338
-0.10430882 0.091313556 0.121786505 0.014855723 0.007981477 0.034454044 0.070486896 0.076188795
-0.20159253 0.111813836 -0.061387215 -0.021046568 -0.075078346 -0.0639578 0.104368806 -0.05231871
-0.22907564 -0.043744374 0.3046295 0.12298733 -0.23594682 -0.08568571 -0.22387168 -0.056133363
0.16289744 -0.09482667 0.15869999 -0.212542 -0.35586393 -0.05164082 -0.045060787 0.030057034
-0.034202587 -0.12596865 -0.23464015 -0.14250694 0.109903984 -0.12833482 0.15514386 0.12782875
-0.09328681 -0.0151594 0.2296537 0.002109167 0.08021298 0.15877464 -0.10923913 -0.0755475
0.16846979 0.0459209 0.11067298 0.0616383 -0.17261401 -0.034133445 -0.061415546 0.033749238
-0.010912955 -0.04567457 -0.2554023 0.018652597 0.0044156155 -0.12770568 -0.14171436 -0.20973086
0.062442236 -0.057321385 0.059158314 0.047505107 0.124008015 0.04070191 0.15781203 -0.08641056
00000000: d118 d2bd 373f 293d 4290 253c 5be0 9dbc
00000010: d837 c93d 2b28 c2bc 6fea 283e f02b 1e3e
00000020: a80b c5bd ac00 01be ed3c 83be 49d0 4fbd
00000030: 73f3 d7bd ea44 69be c278 be3c 7ada f63d
00000040: d250 d33d beee 5ebe 11b2 263c 77a9 47bd
00000050: 9048 593e 1938 d03c 9571 a9bd 3755 09be
00000060: 300f 383e 285b 4bbe d87e b6bb d864 d7bc
00000070: 4677 01be b328 02bd b9c2 2bbd dbd9 62bd
00000080: 0b28 85bd 8fe4 093d bfb8 5dbe 3d2b 8f3d
00000090: 0aa2 b6be ca02 a53d 94c0 ff3c 0a46 67be
000000a0: b09f 093e f58f 58bd a1f4 3a3d 8411 e73c
000000b0: 45f3 71be a266 3ebd e2ae ce3d faa7 613d
000000c0: 1e27 76bd 7954 40bd 8c1d d5bd 7912 283e
000000d0: 68bc b23c 39d7 9cbc 3f0b 93bd d5fa 38bd
000000e0: c2e5 37bd 9ad0 3cbe 0d3a d73d 2198 e3bd
000000f0: d4b7 af3c 9f5f 723e b0dc 1a3d 0f76 8d3c
00000100: 89eb 28be fac5 fdbd f513 9fbd bae9 0fbc
00000110: 4176 edbd cdf8 07be 129e 7fbe b8ed 0a3e
00000120: 0381 2c3e c2fb 30be 8574 193d d000 48be
00000130: 164b 5c3c 0c66 5cbd b68c ff3d dd2f 693d
00000140: 39c3 8dbd 457c 0ebe 04ce 203d 7e38 a73e
00000150: 92d3 513d 2278 393e 1a2c 123d 44ef 8fbc
00000160: 62c5 c0bd 1363 2d3e cc40 223d eaaa d8bd
00000170: 1568 2d3e ae69 b5bd 3c5b 303e 0a91 1bbd
00000180: 5787 84bd aa63 32be 2202 86bc 33e4 a6bc
00000190: 7f7d a2bc e483 c23d 0f2a e23d 97bf 103d
000001a0: d82f 32be 0a06 71bd 2c87 5dbe dac8 8d3c
000001b0: e107 493e 0568 673e 7772 26be 386a 803d
000001c0: 5a7f 6e3d bb68 f63c 936c 2f3e b61c 273e
000001d0: a62d b8bd 97af d83c d450 023e bb2f e5b8
000001e0: 7563 7abe 67e9 7dbe 14d2 5c3e b1ba 773d
000001f0: 4637 e33d c884 c03d b7ee 6b3d 2f61 943c
00000200: b7d3 42be ccf0 c6bd 695e 303e 86b0 4c3d
00000210: 00cb 43bd cb41 7fbd c08f 0c3e 5026 18be
00000220: 3656 bbbc 0533 fd3d cf43 3e3e ce34 a13c
00000230: ec88 2c3e 2d5d 603d 1e4f ec3d 40e9 9e3e
00000240: 8ace cebd 27be 6d3d 9d33 9abd c883 a63c
00000250: dd7c ef3d 93d7 1f3d d0f7 cd3c 1eed 25bd
00000260: b387 0bbd 0ca2 393d e3f6 70bb d778 9b3b
00000270: 8add ad3c b434 a33e 8e26 483b d631 a3bd
00000280: 13e8 78be f3ea 8f3e e6bf 64bd a138 303e
00000290: ccb6 47be 7613 d4bd 6dae a0bd 5087 d8bc
000002a0: aa4b 05bc 5d3c 173d 8505 27bd c59b 61be
000002b0: b5d9 113e ce98 0a3e 424d 47bd ea13 d4bd
000002c0: ee74 2a3e adbd 9abd 43ea 0a3d 9f87 df3d
000002d0: d87f 64be 05be 633d 413b e9bd 4f6c 2bbd
000002e0: dd9f d5bd 9a02 bb3d 346b f93d 6b65 733c
000002f0: bec4 023c af1f 0d3d 6f5b 903d df08 9c3d
00000300: 466e 4ebe a7fe e43d 2971 7bbd da69 acbc
00000310: adc2 99bd 4ffc 82bd 50bf d53d 254c 56bd
00000320: ce92 6abe 4d2d 33bd 66f8 9b3e c8e0 fb3d
00000330: 0b9c 71be fd7b afbd 9e3e 65be 19ec 65bd
00000340: 96ce 263e 7c34 c2bd 4082 223e 9ca4 59be
00000350: cc33 b6be 5385 53bd a991 38bd 2b3a f63c
00000360: 0318 0cbd edfd 00be 8245 70be 57ed 11be
00000370: 5715 e13d 346a 03be 08de 1e3e 8ae5 023e
00000380: 280d bfbd 225f 78bc 572a 6b3e f339 0a3b
00000390: b446 a43d d295 223e c4b8 dfbd a6b8 9abd
000003a0: 5883 2c3e 8e17 3c3d 84a8 e23d 7178 7c3d
000003b0: bac1 30be 83cf 0bbd de8e 7bbd a43c 0a3d
000003c0: 40cc 32bc 4215 3bbd 17c4 82be 55cd 983c
000003d0: deb0 903b 47c5 02be 921d 11be b0c3 56be
000003e0: 6ec3 7f3d d4c9 6abd fd4f 723d b794 423d
000003f0: eaf7 fd3d 0cb7 263d 7a99 213e 05f8 b0bd

1.layers.2.0.bias f4 [80]
-0.06530321 -0.03147661 -0.013474966 -0.026415065 -0.042581387 -0.04466848 -0.028253628 -0.052988578
-0.039056364 -0.018713845 -0.05608252 -0.045007963 -0.09699886 -0.028744176 -0.046713807 -0.039228495
-0.029715793 -0.015284927 -0.08664199 -0.01794241 -0.028686559 -0.062010925 -0.057147175 -0.05187045
-0.05533886 -0.057403963 -0.06111965 -0.05768873 -0.037125867 -0.06758049 -0.045753237 -0.039524406
-0.05089044 -0.056149885 -0.013317323 -0.058014993 -0.009588108 -0.044699024 -0.0029121353 -0.065205105
-0.09806113 -0.048851233 -0.042666133 -0.059890967 -0.024864111 -0.046610773 -0.038456667 -0.034046844
-0.010483113 -0.017940909 -0.03600068 -0.045381743 -0.056243837 -0.07288337 -0.027113177 -0.031653136
-0.092990905 -0.05429306 -0.10070181 -0.04533178 -0.030824246 -0.048895378 -0.04194333 -0.015403179
-0.0787949 -0.02091567 -0.03526123 -0.035458215 -0.023572646 -0.07166766 -0.055932596 -0.06496334
-0.0391805 -0.061865382 -0.024967434 -0.04317025 -0.040304665 -0.028395722 -0.030746274 -0.05388627
00000000: b0bd 85bd 9eed 00bd 1bc6 5cbc 6864 d8bc
00000010: d269 2ebd 4cf6 36bd 2774 e7bc 8d0a 59bd
00000020: 91f9 1fbd c74d 99bc c9b6 65bd 455a 38bd
00000030: 57a7 c6bd e878 ebbc fa56 3fbd 0fae 20bd
00000040: 896e f3bc a16d 7abc 5b71 b1bd f6fb 92bc
00000050: 1300 ebbc 2bff 7dbd 2813 6abd 1c76 54bd
00000060: 00ab 62bd 6b20 6bbd 9958 7abd 054b 6cbd
00000070: 4b11 18bd a467 8abd bf67 3bbd 58e4 21bd
00000080: 7e72 50bd 6cfd 65bd e730 5abc 21a1 6dbd
00000090: 7117 1dbc 5316 37bd 86d9 3ebb 418a 85bd
000000a0: 46d4 c8bd 3b18 48bd afc2 2ebd 3b50 75bd
000000b0: d2af cbbc f0ea 3ebd bd84 1dbd b474 0bbd
000000c0: 5dc1 2bbc d0f8 92bc 7375 13bd 35e2 39bd
000000d0: f05f 66bd e043 95bd 741c debc b8a6 01bd
000000e0: 0472 bebd 6662 5ebd c03c cebd d1ad 39bd
000000f0: 2183 fcbc 8546 48bd c5cc 2bbd 9e5d 7cbc
00000100: 385f a1bd 5757 abbc 146e 10bd a23c 11bd
00000110: 6c1b c1bc 7ec6 92bd 9419 65bd 800b 85bd
00000120: bb7b 20bd 8e66 7dbd 8188 ccbc 4ad3 30bd
00000130: 8116 25bd 259e e8bc 9cdf fbbc d9b7 5cbd

1.layers.2.0.weight f4 [80, 240]
0.013264954 0.11964003 -0.07297795 -0.108230785 -0.04403597 -0.028408077 -0.0061150203 -0.07237998
-0.055850644 0.027837744 0.033302344 0.029145205 -0.05352796 0.16496305 0.010413559 -0.033330373
0.0018402032 0.06624168 -0.027783005 -0.054549236 0.025538042 0.017385555 -0.073081575 -0.07381441
0.019224778 -0.10733193 -0.06484313 0.14321835 -0.012200386 -0.11483131 -0.15637445 -0.06931408
0.0027229167 0.13635291 0.13364454 -0.045299467 -0.102588944 -0.008172215 0.02812303 -0.18100686
-0.07574759 -0.08900609 -0.11767258 0.030723646 -0.17671935 -0.09470086 -0.12537348 -0.001484912
-0.21458195 0.09666414 -0.10095271 -0.006674616 -0.0343314 0.07660819 -0.19957845 -0.18538429
-0.11524572 0.010904365 -0.21848512 0.14563653 -0.04381901 -0.06032295 0.16905801 -0.0809931
-0.00033820866 -0.068063 0.13171807 0.10441442 0.18978168 -0.07404418 0.053237002 -0.21215208
-0.075932965 -0.010295257 -0.05044291 -0.0054763104 0.07187084 -0.067776605 -0.113640964 0.04845936
0.043439794 0.08420592 0.17028853 0.045135383 -0.1018854 0.039147314 0.075113066 -0.027164096
-0.010592543 -0.030822758 0.014553976 0.20204253 0.022713114 -0.048220836 -0.13840668 -0.03927288
0.12049737 -0.025820035 0.0364795 -0.10161034 -0.016082844 0.03414417 -0.1985309 -0.20116077
0.04244504 -0.08876633 0.05716729 -0.16473003 0.036185693 0.00834054 -0.09252133 -0.0035437294
0.1229522 0.024776336 -0.03762837 -0.08059918 -0.025052471 -0.0040013636 -0.0013327403 -0.16005217
-0.017206114 -0.06020878 -0.090415545 -0.12826566 -0.021547332 -0.026484203 -0.18658961 0.07155401
-0.00040189322 -0.07946427 -0.17596447 -0.041026488 0.009063295 -0.037091825 0.022016019 0.00991075
0.22221415 -0.06228039 -0.05890847 0.04996484 -0.0377332 0.036401574 -0.08132005 -0.21967542
-0.16887842 -0.14843425 -0.009044413 0.021970186 -0.2209545 0.055141103 0.014092838 0.013058385
0.10961288 0.11416302 -0.01647634 -0.1265981 -0.1300522 0.0130844265 0.031515345 -0.21937537
0.0027127967 -0.040148243 -0.005622484 0.05696166 -0.011612828 -0.044187795 -0.16274089 -0.09423518
-0.08923275 -0.000719039 0.12071047 -0.01255333 0.20728557 -0.12060941 -0.124824256 -0.1351096
-0.009739809 -0.15773433 0.008937818 0.079146124 -0.038263753 -0.0014668881 0.14048007 -0.019455323
0.06445418 0.11431741 0.07122358 -0.114592955 0.10534353 0.039758917 -0.07117303 -0.011981926
0.03636446 0.010769854 0.078648165 -0.15444246 -0.058835804 -0.06805764 -0.007613883 0.20082511
-0.09649152 -0.0034023754 0.08112964 -0.03067906 0.038724117 -0.05424618 -0.08947921 0.03583995
-0.058692683 -0.07729331 0.11201548 0.032987166 -0.18178897 0.030949626 0.040447585 -0.23672551
-0.042751584 0.11253525 0.14949262 -0.025487525 -0.021708257 0.019258462 -0.03278591 -0.03080612
-0.033792328 -0.07898922 0.091005065 0.058962874 0.00041676022 -0.0020839751 -0.08304119 0.06888027
-0.11439893 0.20091331 0.0033177915 0.0873389 -0.0684445 0.11626688 0.06286308 0.100961916
0.20000105 -0.15381345 -0.023002286 0.07255508 -0.043711156 -0.06701094 -0.27153707 -0.03138153
-0.024224052 0.064216554 -0.03144623 0.021866737 -0.17235595 -0.14252529 0.05912764 -0.11740646
00000000: 4055 593c d505 f53d 7775 95bd 1aa8 ddbd
00000010: 105f 34bd 0eb8 e8bc 8260 c8bb f43b 94bd
00000020: a5c3 64bd fb0b e43c 0a68 083d edc1 ee3c
00000030: 2240 5bbd 13ec 283e a29d 2a3c 6e85 08bd
00000040: f932 f13a b8a9 873d 2f99 e3bc 056f 5fbd
00000050: 2835 d13c 276c 8e3c cbab 95bd 022c 97bd
00000060: 487d 9d3c d8d0 dbbd 7acc 84bd d5a7 123e
00000070: 21e4 47bc ae2c ebbd a020 20be 8af4 8dbd
00000080: f672 323b 19a0 0b3e 1dda 083e ef8b 39bd
00000090: 271a d2bd c1e4 05bc 4562 e63c dd59 39be
000000a0: 8d21 9bbd d348 b6bd 52fe f0bd 28b0 fb3c
000000b0: ebf5 34be 86f2 c1bd e861 00be 61a1 c2ba
000000c0: 5fbb 5bbe d9f7 c53d 4bc0 cebd bdb6 dabb
000000d0: 159f 0cbd c1e4 9c3d 4b5e 4cbe 61d5 3dbe
000000e0: f305 ecbd 39a8 323c 90ba 5fbe be21 153e
000000f0: 907b 33bd 3315 77bd 8b1d 2d3e b6df a5bd
00000100: 9951 b1b9 9d64 8bbd 1ae1 063e 3ad7 d53d
00000110: 2156 423e 7aa4 97bd 0b0f 5a3d 653e 59be
00000120: be82 9bbd 70ad 28bc 3a9d 4ebd 9f72 b3bb
00000130: 0531 933d 76ce 8abd 98bc e8bd 527d 463d
00000140: eded 313d 2774 ac3d 1e60 2e3e e1df 383d
00000150: 4ba9 d0bd ef58 203d e1d4 993d 3d87 debc
00000160: 588c 2dbc 0280 fcbc cd73 6e3c 3de4 4e3e
00000170: da10 ba3c 3683 45bd 7bba 0dbe 99dc 20bd
00000180: 53c7 f63d 8a84 d3bc 876b 153d 1519 d0bd
00000190: 2bc0 83bc c2da 0b3d af4b 4bbe 17fd 4dbe
000001a0: dada 2d3d 1fcb b5bd 4028 6a3d fdae 28be
000001b0: 7337 143d c3a6 083c d37b bdbd ea3d 68bb
000001c0: 5dce fb3d bef7 ca3c 3520 1abd 2f11 a5bd
000001d0: d73a cdbc df1d 83bb 58af aeba b7e4 23be
000001e0: d6f3 8cbc 7b9d 76bd c92b b9bd 1358 03be
000001f0: 0884 b0bc 66f5 d8bc 5911 3fbe e98a 923d
00000200: 32b5 d2b9 2abe a2bd 0830 34be 640b 28bd
00000210: 377e 143c 99ed 17bd f05a b43c b360 223c
00000220: 1b8c 633e b919 7fbd 024a 71bd efa7 4c3d
00000230: 218e 1abd d119 153d 208b a6bd 98f2 60be
00000240: 77ee 2cbe 26ff 17be 052f 14bc d2fa b33c
00000250: e541 62be a3db 613d a6e5 663c d6f2 553c
00000260: b87c e03d 4dce e93d 64f9 86bc efa2 01be
00000270: 672c 05be 1060 563c 3c16 013d f0a3 60be
00000280: 2dc9 313b 7c72 24bd d03c b8bb a150 693d
00000290: bb43 3ebc 43fe 34bd 8ca5 26be 60fe c0bd
000002a0: a9bf b6bd e47d 3cba 0d37 f73d 7bac 4dbc
000002b0: ab42 543e 1102 f7bd dca3 ffbd 2c5a 0abe
000002c0: b893 1fbc 1c85 21be ed6f 123c 5d17 a23d
000002d0: 74ba 1cbd 9944 c0ba 02da 0f3e c560 9fbc
000002e0: 8e00 843d 3f1f ea3d abdd 913d b6af eabd
000002f0: 59be d73d 3fda 223d 2ac3 91bd d74f 44bc
00000300: e6f2 143d 0b74 303c 4a12 a13d 2a26 1ebe
00000310: d0fd 70bd ce61 8bbd e17d f9bb 19a5 4d3e
00000320: 599d c5bd 63fa 5ebb 4c27 a63d a752 fbbc
00000330: 2e9d 1e3d 3e31 5ebd e040 b7bd e9cc 123d
00000340: bd67 70bd f44b 9ebd 5f68 e53d 8d1d 073d
00000350: e326 3abe 128a fd3c 5eac 253d 2c68 72be
00000360: 491c 2fbd e278 e63d 9814 193e 37cb d0bc
00000370: 84d5 b1bc ecc3 9d3c 854a 06bd 1e5d fcbc
00000380: d369 0abd 1ac5 a1bd dd60 ba3d 0e83 713d
00000390: 9c80 da39 4d93 08bb 8011 aabd 1911 8d3d
000003a0: fc49 eabd 38bc 4d3e 4e6f 593b bdde b23d
000003b0: a12c 8cbd 541d ee3d 5cbe 803d 1fc5 ce3d
000003c0: 13cd 4c3e 4681 1dbe 4a6f bcbc c297 943d
000003d0: 780a 33bd 083d 89bd e806 8bbe eb89 00bd
000003e0: 8571 c6bc f883 833d c3cd 00bd df21 b33c
000003f0: 147e 30be 26f2 11be d32f 723d cc72 f0bd

1.layers.3.0.bias f4 [80]
-0.060692105 -0.03395304 -0.027877849 -0.0053941007 -0.01168959 -0.029416533 -0.054189693 -0.068257
-0.034709487 -0.058867067 -0.07497203 -0.031970892 -0.073466495 -0.031346034 -0.07320315 -0.024946066
-0.047409903 -0.017333047 0.004048143 -0.07161711 -0.03770585 -0.04742776 0.0067973314 -0.056001898
-0.07654 -0.03169381 -0.0706388 -0.06721585 -0.054074485 -0.03437041 -0.057409003 -0.0065461216
-0.037369255 -0.04650026 -0.04175143 -0.05039233 -0.039218623 -0.067819744 -0.024723958 -0.056408584
0.0062704794 -0.020316334 -0.058672298 -0.045054045 -0.057144266 -0.014875226 -0.013485722 -0.048051246
-0.06524601 -0.020637477 -0.02173667 -0.038297135 -0.028440487 -0.064502075 -0.03171792 -0.056703508
-0.05267673 -0.032298237 -0.061542824 -0.024850665 -0.027933288 -0.014274057 -0.04634561 -0.058809277
-0.015102037 -0.018849637 -0.05948593 -0.075005874 -0.035393354 -0.035799697 -0.039850842 -0.02970498
-0.017846264 -0.06299712 -0.043496415 -0.046727423 -0.05175258 -0.05272821 -0.03587035 -0.02286478
00000000: 4998 78bd 5812 0bbd 1660 e4bc ffc0 b0bb
00000010: b285 3fbc f1fa f0bc 03f6 5dbd 53ca 8bbd
00000020: 892b 0ebd 981e 71bd f08a 99bd e9f3 02bd
00000030: 9a75 96bd b364 00bd 88eb 95bd b15b ccbc
00000040: e330 42bd 09fe 8dbc 49a6 843b feab 92bd
00000050: 7371 1abd 9c43 42bd 26bc de3b 3f62 65bd
00000060: 01c1 9cbd 5ed1 01bd 13ab 90bd 77a8 89bd
00000070: 357d 5dbd fdc7 0cbd b425 6bbd d980 d6bb
00000080: 8110 19bd 0e77 3ebd 8c03 2bbd 3068 4ebd
00000090: b5a3 20bd 14e5 8abd e689 cabc b00c 67bd
000000a0: 9878 cd3b 716e a6bc 5d52 70bd 978a 38bd
000000b0: 1b10 6abd 38b7 73bc 38f3 5cbc 62d1 44bd
000000c0: b39f 85bd ed0f a9bc 1a11 b2bc 75dd 1cbd
000000d0: 06fc e8bc aa19 84bd a6ea 01bd f041 68bd
000000e0: 8ec3 57bd 284b 04bd 5414 7cbd 9f93 cbbc
000000f0: 5ad4 e4bc bcdd 69bc e5d4 3dbd ffe1 70bd
00000100: 896e 77bc 8e6a 9abc 85a7 73bd ae9c 99bd
00000110: 9ff8 10bd b4a2 12bd a33a 23bd dc57 f3bc
00000120: 5432 92bc a204 81bd 4c29 32bd 4165 3fbd
00000130: 83fa 53bd 89f9 57bd caec 12bd eb4e bbbc

1.layers.3.0.weight f4 [80, 320]
-0.05980488 0.066557206 -0.06941701 0.05059849 0.086409315 0.0122898435 -0.07263173 -0.14700341
-0.005889076 0.039121583 0.040947594 -0.029141426 0.06204777 -0.081875145 -0.04855324 0.08259556
-0.04075989 -0.11816718 -0.03628032 -0.050539754 0.06701737 0.082256004 0.027313188 -0.023500323
0.027261158 0.028780611 0.014400794 0.08201436 -0.08895967 -0.025531733 -0.037928596 0.03698488
-0.07841667 0.13985954 -0.03050078 0.037004817 -0.12673129 0.015869604 0.031761147 0.00039397326
0.028361795 -0.0073048766 0.11370999 -0.032545026 0.085948475 -0.011410744 0.121069804 0.047605053
-0.10253518 0.010939472 0.05933071 0.038418103 -0.02682159 -0.12570307 0.038192235 0.040087093
0.062616095 0.06864194 0.0960674 0.025110824 0.017632937 0.04469393 -0.061019056 -0.031075003
0.079641834 -0.020439586 -0.080620594 0.10100733 0.035861533 0.0946446 0.006362525 -0.06036448
-0.020349946 0.034638494 0.0036504848 -0.02665983 -0.049572177 0.02741175 0.1771009 0.11782519
-0.034456164 0.013292991 -0.010592029 0.031044632 -0.14116836 0.09384889 0.03559507 -0.040405855
-0.03747995 0.023951352 -0.051483456 0.121269815 0.1446024 -0.1535729 -0.040346995 0.037957236
0.17981762 -0.026325097 -0.029206254 0.0011826237 -0.0949282 0.12166176 0.05228507 -0.04509058
0.1648814 -0.07442743 0.009576002 0.12085545 0.036433965 0.06656165 -0.014830748 -0.14556402
0.06865093 0.048780177 -0.15557864 0.19253808 0.06000474 -0.07664792 0.05400225 0.0007768683
-0.013391691 0.095740534 0.103539586 -0.10831482 0.009542655 0.07142712 -0.19372022 0.0065222154
0.046111573 0.020802476 0.031897336 0.005109848 0.18783584 -0.026075894 0.13399251 -0.023291007
-0.07126766 -0.24473155 0.06777377 -0.10179602 -0.00944634 0.0379281 0.055101115 0.053010467
-0.03896469 0.08728511 -0.0338949 -0.10902531 -0.1274901 -0.06381165 0.010646291 0.099480435
0.045110077 -0.06172247 0.0017311863 0.124246456 0.017043164 -0.05357071 0.033239167 0.14997031
-0.039907575 0.17989166 -0.037449703 0.056542628 -0.044641204 -0.048157964 -0.026458932 -0.13163097
-0.09828961 0.037873656 -0.029937156 -0.054853696 0.048554588 0.011332439 0.031735457 -0.039388705
-0.23593685 0.06164798 -0.14092584 0.042853802 0.050087783 -0.07722381 0.11030462 0.022110045
-0.03552425 0.10523673 0.02560467 0.03873565 0.052448895 0.12031256 -0.009904465 -0.042200428
-0.030228978 -0.0470286 -0.070354484 -0.036638178 0.09156555 0.07294875 0.1307653 0.06225977
-0.107819006 -0.07321195 0.1531182 0.05581857 -0.037344668 -0.11856282 0.069501 0.09287416
0.08769275 0.060332887 0.11158997 0.106249385 -0.08058395 -0.028500106 -0.008508032 -0.033043977
-0.08658757 -0.1808842 0.027972996 -0.039959174 -0.08099694 -0.11360757 0.16730459 -0.01129358
0.09791148 0.11766443 -0.11979763 0.10153757 -0.024955044 0.04492003 -0.0018075312 -0.023018854
0.054373946 -0.07330613 0.034007944 0.021369552 -0.16629814 -0.030834792 -0.113298245 -0.10060882
-0.04133051 -0.27056357 0.11166766 0.10666641 -0.057471476 0.09272378 0.2866024 -0.013267262
0.109076224 -0.13028836 -0.0073282486 -0.025766253 0.003360331 -0.1997745 0.045233242 0.042310555
00000000: f6f5 74bd 254f 883d 812a 8ebd 5d40 4f3d
00000010: 5ef7 b03d 575b 493c f2bf 94bd 1088 16be
00000020: 26f9 c0bb f43d 203d aab8 273d 00ba eebc
00000030: cd25 7e3d 28ae a7bd c3df 46bd dc27 a93d
00000040: d8f3 26bd a201 f2bd ac9a 14bd c602 4fbd
00000050: 6740 893d d675 a83d e8bf df3c c083 c0bc
00000060: cb52 df3c 51c5 eb3c 4ff1 6b3c 25f7 a73d
00000070: 7d30 b6bd ed27 d1bc 045b 1bbd 757d 173d
00000080: eb98 a0bd 5737 0f3e c6dc f9bc 5d92 173d
00000090: d9c5 01be f900 823c fa17 023d 328e ce39
000000a0: ff56 e83c bf5d efbb c9e0 e83d ef4d 05bd
000000b0: c105 b03d 21f4 3abc 72f3 f73d 84fd 423d
000000c0: f7fd d1bd 793b 333c c204 733d 4d5c 1d3d
000000d0: f3b8 dbbc 4eb8 00be 766f 1c3d 5d32 243d
000000e0: de3c 803d 2594 8c3d fcbe c43d 37b5 cd3c
000000f0: f372 903c fb10 373d 1eef 79bd 0191 febc
00000100: 421b a33d eb70 a7bc 691c a5bd eedc ce3d
00000110: 8be3 123d 07d5 c13d ba7c d03b bf40 77bd
00000120: eeb4 a6bc 18e1 0d3d f93c 6f3b b765 dabc
00000130: 320c 4bbd 9b8e e03c f059 353e 554e f13d
00000140: e821 0dbd d8ca 593c 318a 2dbc 5051 fe3c
00000150: 708e 10be d933 c03d 23cc 113d 9c80 25bd
00000160: 9384 19bd a035 c43c 51e0 52bd 4f5c f83d
00000170: a712 143e 3742 1dbe e442 25bd 0c79 1b3d
00000180: 1c22 383e bba7 d7bc f441 efbc 4402 9b3a
00000190: b769 c2bd cd29 f93d df28 563d e6b0 38bd
000001a0: abd6 283e 696d 98bd aae4 1c3c 1083 f73d
000001b0: c83b 153d 7951 883d aafc 72bc bc0e 15be
000001c0: dc98 8c3d b9cd 473d 0250 1fbe b428 453e
000001d0: 88c7 753d 96f9 9cbd 7731 5d3d c0a6 4b3a
000001e0: d368 5bbc 9d13 c43d 900c d43d 29d4 ddbd
000001f0: cc58 1c3c 6248 923d 985e 46be 4fb8 d53b
00000200: 7ddf 3c3d f469 aa3c c8a6 023d 8370 a73b
00000210: 0a58 403e 1d9d d5bc 5535 093e c8cc bebc
00000220: c7f4 91bd e89a 7abe f9cc 8a3d 6f7a d0bd
00000230: d2c4 1abc 7f5a 1b3d b5b1 613d 8121 593d
00000240: 7099 1fbd 89c2 b23d 61d5 0abd a948 dfbd
00000250: c48c 02be afaf 82bd c86d 2e3c 66bc cb3d
00000260: 58c5 383d b3d0 7cbd f9e8 e23a ed74 fe3d
00000270: 1b9e 8b3c f66c 5bbd cb25 083d d191 193e
00000280: 2076 23bd 8535 383e dc64 19bd 3e99 673d
00000290: b2d9 36bd 4941 45bd 67c0 d8bc 45ca 06be
000002a0: 104c c9bd 6821 1b3d c43e f5bc 45ae 60bd
000002b0: 2de1 463d b2ab 393c 0afd 013d 0d56 21bd
000002c0: 6e99 71be 9882 7c3d dd4e 10be 7887 2f3d
000002d0: d928 4d3d 8427 9ebd 63e7 e13d 2020 b53c
000002e0: e081 11bd 5b86 d73d e3c0 d13c 46a9 1e3d
000002f0: a7d4 563d 6e66 f63d 5646 22bc 5bda 2cbd
00000300: c3a2 f7bc 10a1 40bd 0316 90bd ea11 16bd
00000310: b886 bb3d 2766 953d 57e7 053e 1a04 7f3d
00000320: 36d0 dcbd 26f0 95bd 04cb 1c3e 03a2 643d
00000330: b9f6 18bd 10d1 f2bd 8a56 8e3d cf34 be3d
00000340: 4298 b33d 9e1f 773d 4889 e43d 4799 d93d
00000350: 3309 a5bd 0e79 e9bc 4665 0bbc 1f59 07bd
00000360: d354 b1bd b539 39be a027 e53c 3bac 23bd
00000370: b9e1 a5bd 16ab e8bd e551 2b3e b508 39bc
00000380: d085 c83d 0cfa f03d 7658 f5bd eef2 cf3d
00000390: 856e ccbc 11fe 373d afea ecba 0992 bcbc
000003a0: 37b7 5e3d 8621 96bd ea4b 0b3d 330f af3c
000003b0: 0f4a 2abe 3f99 fcbc e908 e8bd ff0b cebd
000003c0: 2e4a 29bd 4f87 8abe 04b2 e43d eb73 da3d
000003d0: 3667 6bbd f7e5 bd3d 8dbd 923e ee5e 59bc
000003e0: 5b63 df3d 506a 05be ce21 f0bb c013 d3bc
000003f0: 0039 5c3b b091 4cbe 7e46 393d d54d 2d3d

1.layers.4.0.bias f4 [80]
-0.05452761 -0.061744493 -0.027908223 -0.048988998 -0.03750856 -0.041584343 -0.04629576 -0.030640705
-0.028998708 -0.029479867 -0.051595625 -0.036902394 -0.048308063 -0.04563327 -0.016998803 -0.0554881
-0.06679171 -0.05646557 -0.03868493 -0.043250907 -0.04451712 -0.03924904 -0.07321341 -0.042477585
-0.028506018 -0.023646621 -0.04085416 -0.061015595 -0.050084822 -0.011608639 -0.048585318 -0.037449356
-0.028808106 -0.029937807 -0.04284906 -0.044615794 -0.03661727 -0.02196801 -0.029373841 -0.058764674
-0.0076129483 -0.050478015 -0.085836746 -0.0748903 -0.06695539 -0.05798136 -0.063116156 -0.030496346
-0.049794175 -0.036525726 -0.0292519 -0.03533198 -0.037164398 -0.036363807 -0.050928902 -0.045064557
-0.047958773 -0.027905205 -0.06290413 -0.042698365 -0.033367537 -0.03436276 -0.07157473 0.00055712136
-0.0388149 -0.04435091 -0.043297496 -0.018243365 -0.062405333 -0.025931835 -0.046530873 -0.026667858
-0.02118887 -0.02033558 -0.010996954 -0.04152571 -0.019288117 -0.06546269 -0.026482023 -0.065116175
00000000: 5858 5fbd cbe7 7cbd c99f e4bc b0a8 48bd
00000010: 93a2 19bd 5854 2abd 9fa0 3dbd 3702 fbbc
00000020: b38e edbc c37f f1bc ef55 53bd f726 17bd
00000030: adde 45bd f4e9 3abd 1341 8bbc 7d47 63bd
00000040: 18ca 88bd 7148 67bd 1774 1ebd dd27 31bd
00000050: 9557 36bd 9ac3 20bd eaf0 95bd fafc 2dbd
00000060: 7485 e9bc 8fb6 c1bc b156 27bd 7deb 79bd
00000070: be25 4dbd 2932 3ebc 6601 47bd 7f64 19bd
00000080: fafe ebbc 2240 f5bc 7f82 2fbd 0dbf 36bd
00000090: fefb 15bd 42f6 b3bc 69a1 f0bc 3ab3 70bd
000000a0: 0a76 f9bb 09c2 4ebd 2dcb afbd 1660 99bd
000000b0: e81f 89bd dd7d 6dbd 0b43 81bd 79d3 f9bc
000000c0: faf4 4bbd 009c 15bd aea1 efbc 44b8 10bd
000000d0: b239 18bd 37f2 14bd d39a 50bd 9d95 38bd
000000e0: 6b70 44bd 7599 e4bc e1d3 80bd 7be4 2ebd
000000f0: 66ac 08bd f7bf 0cbd c695 92bd c80b 123a
00000100: 5ffc 1ebd 4da9 35bd b758 31bd 1c73 95bc
00000110: bc9c 7fbd 006f d4bc 2897 3ebd 8d76 dabc
00000120: 4894 adbc cd96 a6bc 912c 34bc dd16 2abd
00000130: 1d02 9ebc 4e11 86bd d4f0 d8bc a15b 85bd

1.layers.4.0.weight f4 [80, 400]
-0.19843681 0.09398086 -0.0562662 0.0062681083 -0.022821018 -0.0629928 -0.08381561 -0.067811415
0.088999055 -0.09311228 0.00677923 0.036963955 -0.050100427 0.01494992 -0.12885316 -0.005538324
-0.017576817 -0.12962985 0.060362604 -0.03594173 0.034163527 0.017160483 0.04731665 0.11146113
-0.020056266 -0.12839617 -0.024647301 0.011443685 -0.08617757 -0.12486913 -0.07390249 -0.012717544
0.006664884 -0.1115032 0.04718255 -0.010089269 -0.055345193 0.048307672 0.032156397 -0.0017975913
-0.024141992 -0.03284144 -0.06650874 -0.0551933 0.009954499 0.10950052 -0.06496255 -0.0467546
-0.019881034 -0.0031271488 0.009010321 0.041475717 -0.13210824 -0.01486214 0.03813546 0.08727611
-0.0127650695 0.009413153 0.013785506 -0.061362974 0.097657725 -0.0044722664 0.13588904 0.03802664
0.10009904 0.08648501 0.12546751 -0.03354874 -0.010176295 -0.039166085 0.04646355 0.018904917
-0.11417933 -0.012906052 -0.014607088 -0.021926658 -0.060344987 0.044463173 0.055301603 0.07029154
-0.07757485 0.039446857 0.041045576 -0.012039014 -0.08237193 0.011250105 0.1112508 0.049601234
-0.13323843 -0.036585186 -0.04980264 0.07810317 -0.064024605 0.10025016 0.066262685 0.050163142
-0.06340074 -0.08051225 -0.0041692955 -0.05220179 -0.0055156616 0.046526458 0.018420212 0.037093364
-0.025840849 0.083797865 -0.0907811 -0.14675507 -0.029683037 0.018386807 0.0073690866 0.018253848
0.026938628 -0.059572987 0.023275273 0.00044265363 -0.04954471 0.022745974 -0.010479826 0.014864801
-0.11543795 -0.017952431 -0.034416493 -0.03398546 -0.0950229 0.13844004 -0.11363912 0.011430146
0.07795797 0.04946791 -0.02752142 0.10155241 -0.09729049 -0.042064663 -0.1050205 -0.02949962
-0.024563957 0.031231469 -0.112855986 -0.06388177 -0.056562975 -0.0066312696 -0.063285574 -0.0082381265
0.056722492 0.035684075 -0.03420943 -0.057350703 -0.09297996 0.052755333 -0.1758315 -0.05581636
0.07282146 -0.051097654 0.11445459 0.00020401971 0.02849259 -0.11549769 0.016688943 -0.09684171
0.0332853 -0.037328385 0.09016463 0.025064038 -0.03701486 -0.06633433 -0.09397042 -0.0058775954
0.006285526 0.095275715 -0.0076734233 0.0001258187 -0.14277093 -0.03672324 0.100929596 -0.030877529
0.0008587131 -0.08773384 -0.07113165 0.10012927 -0.060313962 0.019107819 0.062212456 -0.019363988
-0.04269133 0.0054735295 0.033782586 -0.05634109 0.1250766 0.027030172 -0.14348686 0.057937074
-0.13035642 0.041988235 0.07127245 0.021673007 -0.034679063 -0.043831103 0.05156948 0.035962727
0.111217834 -0.072327316 -0.05736041 -0.10160244 -0.08625702 0.1301918 0.07021679 -0.04773078
0.06535428 0.015636347 -0.076384775 0.11096815 -0.026612246 -0.025056737 -0.07912169 0.00049621833
-0.17366046 -0.0021315755 -0.053206477 -0.08513538 0.066095136 -0.012309573 0.047488946 0.009204349
-0.13733256 0.06445472 0.09486292 -0.10390452 0.005201245 0.050041657 -0.009065385 0.03813503
0.03678814 -0.06305156 -0.0061855954 0.124475785 -0.011877867 0.03462439 -0.103229426 -0.014823887
0.018341554 -0.008866383 0.023095863 0.121611916 0.07187664 0.008053104 -0.1265994 -0.029888539
0.011632238 0.02260949 0.095988 -0.08243734 0.11263416 0.13576697 0.0882414 0.016245449
00000000: 0533 4bbe 0a79 c03d 6377 66bd b464 cd3b
00000010: 25f3 babc 5e02 81bd 85a7 abbd b6e0 8abd
00000020: 2345 b63d a7b1 bebd 4e24 de3b 8467 173d
00000030: 1b36 4dbd 82f0 743c 15f2 03be d47a b5bb
00000040: 42fd 8fbc b0bd 04be c73e 773d a337 13bd
00000050: 0eef 0b3d 2494 8c3c 1bcf 413d bc45 e43d
00000060: 0a4d a4bc 497a 03be 23e9 c9bc 4b7e 3b3c
00000070: de7d b0bd 63bb ffbd 305a 97bd 3f5d 50bc
00000080: 1965 da3b ca5b e4bd 7d42 413d 764d 25bc
00000090: a4b1 62bd 44de 453d 6db6 033d 289d ebba
000000a0: 6dc5 c5bc bf84 06bd bc35 88bd 5f12 62bd
000000b0: 3218 233c cf41 e03d 160b 85bd c081 3fbd
000000c0: 8ddd a2bc daf0 4cbb 07a0 133c 71e2 293d
000000d0: 6247 07be 5580 73bc ee33 1c3d d1bd b23d
000000e0: 9524 51bc a039 1a3c 9adc 613c be57 7bbd
000000f0: c600 c83d 178c 92bb 7f26 0b3e d2c1 1b3d
00000100: ba00 cd3d 0e1f b13d 8e7a 003e 676a 09bd
00000110: 7aba 26bc 9e6c 20bd 9050 3e3d 7cde 9a3c
00000120: dad6 e9bd e873 53bc 9152 6fbc 899f b3bc
00000130: 4e2c 77bd 041f 363d ef83 623d 03f5 8f3d
00000140: 90df 9ebd 0793 213d 681f 283d 493f 45bc
00000150: 9db2 a8bd 5c52 383c 76d7 e33d aa2a 4b3d
00000160: a86f 08be 59da 15bd dafd 4bbd 8ef4 9f3d
00000170: 551f 83bd f54f cd3d bbb4 873d de77 4d3d
00000180: 3fd8 81bd 9be3 a4bd 969e 88bb 8bd1 55bd
00000190: b9bc b4bb 8792 3e3d fce5 963c 36ef 173d
000001a0: 30b0 d3bc 379e ab3d 71eb b9bd f646 16be
000001b0: d729 f3bc ee9f 963c 6178 f13b 1889 953c
000001c0: 66ae dc3c ce02 74bd c9ab be3c f713 e839
000001d0: 65ef 4abd c455 ba3c 93b3 2bbc 7f8b 733c
000001e0: bb6a ecbd fa10 93bc 4ff8 0cbd 5634 0bbd
000001f0: 5e9b c2bd 3ac3 0d3e a0bb e8bd 8245 3b3c
00000200: 6ea8 9f3d dd9e 4a3d 9a74 e1bc b6fa cf3d
00000210: 3d40 c7bd ff4b 2cbd fd14 d7bd 30a9 f1bc
00000220: 5a3a c9bc 23d9 ff3c 0a21 e7bd 72d4 82bd
00000230: 94ae 67bd 1f4b d9bb de9b 81bd 35f9 06bc
00000240: d855 683d 7729 123d 301f 0cbd 92e8 6abd
00000250: 476c bebd fa15 583d 2c0d 34be b29f 64bd
00000260: 6b23 953d c64b 51bd 2b67 ea3d 20ee 5539
00000270: 4b69 e93c 0e8a ecbd 40b7 883c f254 c6bd
00000280: 2b56 083d a6e5 18bd 3ca8 b83d 1953 cd3c
00000290: e59c 17bd 4bda 87bd 9073 c0bd d898 c0bb
000002a0: d0f6 cd3b ea1f c33d 5771 fbbb 33ee 0339
000002b0: 8b32 12be 1c6b 16bd 2db4 ce3d dff2 fcbc
000002c0: 431b 613a cdad b3bd 78ad 91bd 9310 cd3d
000002d0: c60b 77bd 0088 9c3c 7dd2 7e3d 3aa1 9ebc
000002e0: 1bdd 2ebd 4b5b b33b 9c5f 0a3d eac5 66bd
000002f0: 1514 003e 616e dd3c 38ee 12be 6d4f 6d3d
00000300: 277c 05be dbfb 2b3d 4af7 913d 978b b13c
00000310: a20b 0ebd 3e88 33bd 853a 533d a74d 133d
00000320: 2dc6 e33d 5820 94bd c0f2 6abd f114 d0bd
00000330: 85a7 b0bd 0051 053e d2cd 8f3d 5a81 43bd
00000340: 77d8 853d cc17 803c 9f6f 9cbd 4543 e33d
00000350: ed01 dabc c943 cdbc 8d0a a2bd a614 023a
00000360: 0cd4 31be e7b1 0bbb 09ef 59bd 755b aebd
00000370: e35c 873d 17ae 49bc c583 423d d6cd 163c
00000380: e8a0 0cbe d600 843d 7e47 c23d e5cb d4bd
00000390: 356f aa3b 7bf8 4c3d fb86 14bc 7a33 1c3d
000003a0: 29af 163d 2d21 81bd 89b0 cabb 29ed fe3d
000003b0: 639b 42bc 4ed2 0d3d f369 d3bd e3df 72bc
000003c0: 0741 963c 4e44 11bc 8933 bd3c ab0f f93d
000003d0: 0f34 933d 2bf1 033c 46a3 01be cfd8 f4bc
000003e0: 2495 3e3c 8a37 b93c 5b95 c43d e8d4 a8bd
000003f0: bdac e63d 7f06 0b3e e8b7 b43d 2d15 853c
