DNNWeightsDefault/model_0/ensemble_1/zz_bbtt_1.onnx (onnx, 947112 bytes, 19 tensors)

0.embeds.0.weight f4 [2, 1]
0	0xbf1c5fd5	-0.6108373
1	0x3e868d68	0.2627976

0.embeds.1.weight f4 [3, 2]
0	0xbfdc9f3c	-1.7236094
1	0x3e59d6bd	0.21273322
2	0x3d8494bb	0.064736806
3	0xbfa867cd	-1.3156677
4	0x3f01c921	0.50697523
5	0x3d1b36ff	0.037894245

0.embeds.2.weight f4 [2, 1]
0	0x3fec8680	1.8478546
1	0xbea7c132	-0.32764584

0.embeds.3.weight f4 [5, 3]
0	0x40054a64	2.0826654
1	0xbf85b520	-1.04459
2	0x3f8b5f95	1.0888544
3	0xbfc709a1	-1.5549814
4	0xbf195045	-0.59888107
5	0xbf47ce54	-0.78049207
6	0xbf26e911	-0.6519938
7	0xbe62ffd8	-0.22167909
8	0x3fcac35e	1.5840871
9	0x3e4b1b2d	0.19834585
10	0x3fa93b9c	1.3221316
11	0x3fa3dbb8	1.2801428
12	0x3faa35ab	1.3297628
13	0xbefa0094	-0.48828566
14	0xbe8ab6f4	-0.27092707

0.embeds.4.weight f4 [5, 3]
0	0x3e7727ce	0.24136278
1	0xbf25af9f	-0.647211
2	0xbe3c1203	-0.18366246
3	0xbe372e64	-0.1788879
4	0xbf3da27f	-0.74076074
5	0x3e88326f	0.26600978
6	0xbf85d81e	-1.0456579
7	0x3f474f6d	0.7785557
8	0x3eee028c	0.46486318
9	0x3f6ea8b8	0.93226194
10	0x3e53af82	0.2067242
11	0xbfed5154	-1.8540444
12	0xbe933a43	-0.28755388
13	0x3ffff09a	1.9995301
14	0xbf96ca72	-1.1780531

0.embeds.5.weight f4 [2019, 50]
0	0x3f06cca1	0.5265599
1	0xbf4f0602	-0.8086854
2	0x3f191331	0.5979491
3	0xbe53c7c7	-0.20681678
4	0x3f60f02c	0.87866473
5	0x3ed02d53	0.4065958
6	0xbf83aa2a	-1.0286305
7	0x3f2fdf31	0.6869994
8	0x3ed1027b	0.40822205
9	0x3ea2ff2f	0.31835315
10	0x3f1eb3a1	0.6199284
11	0x3ece4c9e	0.4029283
12	0xbfa0718b	-1.253465
13	0x3f47b0b7	0.7800402
14	0xbee5b3a4	-0.44863617
15	0x3f395848	0.7240033
16	0xbfc60bc3	-1.5472339
17	0xbf69c000	-0.91308594
18	0xbf539cf8	-0.8266139
19	0xbf558987	-0.83412975
20	0x3f135e98	0.57566214
21	0xbd746ed6	-0.059676014
22	0xbfcfd860	-1.6237907
23	0x3e8d6ba5	0.2762119
24	0xbfb1ddde	-1.3895833
25	0xbcaafdd3	-0.020872986
26	0xbe371bf1	-0.17881753
27	0xbf516415	-0.8179334
28	0xbf7c016f	-0.9843969
29	0x3fa53a60	1.290844
30	0xbe9e34dd	-0.30899706
31	0xbf1a8f87	-0.60375255
32	0xbe341b8d	-0.17588635
33	0x3d979eae	0.074033126
34	0xbdc38b4d	-0.09548054
35	0x3e2443a1	0.16041423
36	0x3e7e0751	0.24807478
37	0xbfa41cbf	-1.2821273
38	0xbf819610	-1.012392
39	0x3fa55c49	1.2918788
40	0xbf21f370	-0.6326208
41	0x3f5da339	0.86577183
42	0xbe6abf88	-0.22924626
43	0xbd2f2244	-0.042757288
44	0x3faca5ad	1.348806
45	0xbf77d063	-0.9680235
46	0xbf08070e	-0.53135765
47	0x3fd6ef3f	1.6791762
48	0x3dffb6ff	0.124860756
49	0x3ea13216	0.31483525
50	0x3e42b831	0.19015576
51	0x3face37f	1.3506926
52	0x3e810530	0.2519927
53	0x3f883c44	1.0643392
54	0x3f46e0f7	0.7768702
55	0x3ed59627	0.4171612
56	0x400aa1b5	2.1661198
57	0x3f00ab5f	0.5026149
58	0xbfdcaef4	-1.7240891
59	0xbe954bc5	-0.2915937
60	0x3fa534f7	1.2906789
61	0x3f9518e5	1.1648222
62	0xbee3c58c	-0.44486654
63	0xbf022aff	-0.50846857
64	0xbe06497a	-0.13113967
65	0x3f746e38	0.9548068
66	0x3e726568	0.23671496
67	0xbd81fcef	-0.063470714
68	0xbedf3493	-0.43594798
69	0x3f553537	0.83284324
70	0x3ec72651	0.3889642
71	0xbe880a4a	-0.2657035
72	0x4001e967	2.0298707
73	0xbd5364f0	-0.051609933
74	0xbf9b69a4	-1.2141614
75	0x3fc7940c	1.5592055
76	0x3f20aa2f	0.6275968
77	0xbf46931b	-0.77568215
78	0xbfaf3d93	-1.3690666
79	0x3ec18e2c	0.3780378
80	0x3f04d0d3	0.5188114
81	0xbeec3514	-0.46134245
82	0x3f8fb8f8	1.1228323
83	0xbf17ea47	-0.59341854
84	0x3f5d479c	0.8643739
85	0xbf849381	-1.0357515
86	0xbf954fc2	-1.1664965
87	0xbf29edc3	-0.6637842
88	0xbef4397b	-0.47700104
89	0x3ee4eccc	0.44711912
90	0x3f5761fb	0.8413388
91	0xbf1061a6	-0.56399
92	0x3f7cf1cb	0.98806447
93	0x3ee979a4	0.45600617
94	0x3e024d54	0.12724811
95	0xbf207ca1	-0.6269017
96	0xbee8df60	-0.45482922
97	0x3f69166f	0.91049856
98	0xbef522eb	-0.47878203
99	0xbff6e121	-1.9287454
100	0xbe7b296f	-0.24527524
101	0x3fddc60c	1.7326064
102	0x3a5d9e24	0.0008454046
103	0x3e2229a4	0.15836197
104	0x3e9be332	0.30446774
105	0xbebcfebf	-0.36913106
106	0x3f574704	0.84092736
107	0xbfd1bbf4	-1.6385484
108	0x40096845	2.146989
109	0x3f81a6ab	1.0128988
110	0xbf099e9c	-0.53757644
111	0x3f18697c	0.59535956
112	0x3f0119a7	0.5042977
113	0x3f7f69d0	0.9977083
114	0x3eae17ba	0.34002477
115	0x3ec0172a	0.37517673
116	0x3ead0681	0.33794025
117	0xbf94bf89	-1.1620952
118	0xbf2ba526	-0.6704887
119	0x3f264b23	0.649584
120	0x3ecb4226	0.39698905
121	0x3e5e7423	0.2172399
122	0xbf253265	-0.6453002
123	0x3e214072	0.1574724
124	0x3f7b3dcb	0.98141164
125	0xbfcba42e	-1.5909479
126	0x3e99e122	0.30054575
127	0xbf5de87c	-0.8668287
128	0x3fc2826b	1.519605
129	0xbf2e34e2	-0.6804944
130	0x3fba21c4	1.4541554
131	0x3fad120a	1.352113
132	0x3e8e44d9	0.27786902
133	0xc003be4b	-2.0584896
134	0x3f15bd41	0.58491904
135	0xbfa158fa	-1.2605278
136	0x3f2679e0	0.65029716
137	0x3d4129c4	0.04715897
138	0xbe0ba097	-0.13635479
139	0xbf2a04bb	-0.6641347
140	0x3ebdda4d	0.37080613
141	0x3f2d4b45	0.6769298
142	0xbe24b734	-0.16085511
143	0xbe423aa4	-0.18967682
144	0xbf2fe723	-0.6871206
145	0x3d7bc660	0.061468482
146	0x3f409256	0.7522329
147	0xbed1c597	-0.40971062
148	0xbe086185	-0.13318451
149	0x3faeed74	1.3666215
150	0xc00ad5fd	-2.1693108
151	0xbebf1d21	-0.3732691
152	0xbf618d77	-0.88106483
153	0xbd9617e1	-0.07328773
154	0x3f646689	0.89218956
155	0x3cc782a9	0.024354296
156	0x3e4f3921	0.20236637
157	0xbf687d8c	-0.9081657
158	0xbd18b793	-0.037284445
159	0xbf01c0da	-0.50684893
160	0x3fc51a6d	1.539869
161	0xbf7a6303	-0.9780733
162	0x3fc1045c	1.5079455
163	0x3d01c535	0.031682212
164	0x3eabd5fb	0.33561692
165	0x3fb85b86	1.4402931
166	0xbfca286b	-1.5793585
167	0x3f0a526e	0.5403203
168	0x3f696a8f	0.9117822
169	0x3f508264	0.8144896
170	0x3e2efa59	0.17087688
171	0x3f8b28dd	1.0871845
172	0x3d3e0979	0.046395753
173	0xbfbb6170	-1.463911
174	0x3f15ae4c	0.5846908
175	0xbe6df472	-0.2323778
176	0xbfc20fc7	-1.5161065
177	0x3eecad9c	0.46226203
178	0xbf9ab8d4	-1.2087655
179	0x3f9e011f	1.2344092
180	0xbeedb9c9	-0.46430805
181	0x3f50e5b0	0.81600475
182	0xbfde1477	-1.7349995
183	0xbed84a4c	-0.42244184
184	0xbe6257f1	-0.2210386
185	0xbf51f3f3	-0.8201286
186	0x3ef36505	0.4753801
187	0xbef475d2	-0.4774614
188	0x3eb4445e	0.3520841
189	0xc011ac3f	-2.276138
190	0x3e8e031f	0.27736756
191	0x3e91b327	0.28456995
192	0xbf3babb2	-0.7330886
193	0x3f636e96	0.88840616
194	0x3f941141	1.1567765
195	0xbf29f22b	-0.66385144
196	0xbf99ca09	-1.2014781
197	0xbf722c54	-0.9459889
198	0x3fd5ce85	1.670365
199	0xbe12434f	-0.14283489
200	0xbff82292	-1.938555
201	0x3ff8469f	1.9396552
202	0xbfb14c40	-1.3851395
203	0xbdbd3f5e	-0.09240602
204	0xbda68eec	-0.08132729
205	0x3efc4cd9	0.4927738
206	0xbee2951c	-0.44254386
207	0xbff10648	-1.8830042
208	0xbeba6fc5	-0.36413398
209	0x3fda708d	1.7065598
210	0x3f845b5a	1.0340378
211	0x3de787b5	0.11305181
212	0xbf587cd8	-0.84565496
213	0x3d603490	0.054737628
214	0x3ecda7a9	0.40166977
215	0xbec21951	-0.3790994
216	0x3f0c745d	0.54865056
217	0x3e09a72a	0.13442674
218	0x3e0c440a	0.1369783
219	0xbfb81daa	-1.4384053
220	0x3d787a9f	0.060663816
221	0x3fb46a00	1.4094849
222	0xbf703dc2	-0.93844235
223	0xbf47352f	-0.77815527
224	0xbe7473e0	-0.23872328
225	0x3f357215	0.708772
226	0x3f926ede	1.1440084
227	0xbf8928bb	-1.0715555
228	0x3f7c7619	0.986177
229	0xbe8811a0	-0.26575947
230	0xbf1696fb	-0.5882413
231	0x40133d18	2.3006039
232	0xbf2f7916	-0.6854414
233	0xbe2a3ce5	-0.16624792
234	0x3dede478	0.116158426
235	0xbdeac895	-0.11464039
236	0x3f3d4915	0.7393964
237	0x3effa9e6	0.4993431
238	0x3e2ebb2f	0.17063592
239	0xbf72d75f	-0.9485988
240	0x3eb93e6c	0.36180437
241	0x3f056bd9	0.5211769
242	0x3ea37530	0.31925344
243	0xbf7447d5	-0.95422107
244	0xbf405f24	-0.75145173
245	0x3e411811	0.18856837
246	0xbfec3621	-1.8454019
247	0x3fa77b19	1.3084441
248	0x3ffbf001	1.9682618
249	0x3f1e5531	0.6184874
250	0xbf7eb322	-0.99492085
251	0x3f4d86bc	0.80283713
252	0xbd9827a7	-0.07429438
253	0xbfed68a8	-1.8547564
254	0x3f1747c1	0.5909386
255	0xc02843b8	-2.6291332

1.layers.0.0.bias f4 [80]
0	0xbd54e6c0	-0.051977873
1	0xbc0dbe47	-0.008651323
2	0xbcf59923	-0.029980248
3	0xbad56bfe	-0.0016282795
4	0xbc4a2b60	-0.012339443
5	0x3ba2dce8	0.0049701817
6	0xbd61248f	-0.054966506
7	0xbb9ff676	-0.0048816754
8	0xbcdd5acd	-0.027020836
9	0xbd53a993	-0.05167539
10	0xbd31acc4	-0.043377653
11	0xbcda6480	-0.02665925
12	0x3cbb8963	0.02289266
13	0xbd9ad17c	-0.07559487
14	0xbd4de954	-0.050271347
15	0xbd14cb67	-0.036326792
16	0x3c0591db	0.00815245
17	0xbcae5d1e	-0.021284636
18	0xbd63097b	-0.055428963
19	0xbd173d26	-0.03692355
20	0xbd4cb038	-0.049972743
21	0xbd7eeba0	-0.06223643
22	0xbd3f8257	-0.04675516
23	0xbc82c4c8	-0.015962973
24	0xbc7c544a	-0.015400955
25	0xbc248cc4	-0.010043327
26	0xbc45d340	-0.012074292
27	0x3affd34e	0.001951793
28	0xbcaf57bd	-0.021404142
29	0xbd79ee68	-0.061018378
30	0x3af00370	0.0018311571
31	0xbc5c8eeb	-0.013461809
32	0xbd11252e	-0.035435848
33	0xbd0a209a	-0.033722498
34	0xbc448307	-0.01199413
35	0xbd11c798	-0.035590738
36	0xbd005dd6	-0.03133949
37	0xbd866ef9	-0.06564135
38	0x3b0eda42	0.0021797572
39	0xbcfeaa14	-0.031086959
40	0xbd0d230c	-0.03445725
41	0xbd32dce1	-0.043667678
42	0xbd6896d8	-0.05678448
43	0xbc8cfeb5	-0.017211298
44	0xbd77a2da	-0.06045804
45	0xbcbd4f49	-0.023109095
46	0xbce08e6e	-0.027411666
47	0xbb6fbb8e	-0.0036580297
48	0xbceccca8	-0.028906181
49	0xbc90ebe9	-0.017690616
50	0xbc38efac	-0.011287611
51	0xbc31f69b	-0.010862018
52	0xbd6b1738	-0.05739519
53	0xbd2cc535	-0.04218026
54	0xbd6e87d9	-0.058235023
55	0xbc7356e3	-0.014852258
56	0xbd4f597f	-0.05062246
57	0xbd17460e	-0.036932044
58	0xbda89f4f	-0.08233511
59	0x3b674dab	0.0035294096
60	0xbce33815	-0.027736703
61	0xbd671e8a	-0.05642561
62	0xbd2ac6a3	-0.04169334
63	0x3abd6ce1	0.0014452004
64	0xbd530918	-0.051522344
65	0xbd675658	-0.05647883
66	0xbd2e0fe4	-0.042495623
67	0xbd855569	-0.06510431
68	0xbc7be124	-0.015373502
69	0xbc95bdcc	-0.018278979
70	0xbd5202d2	-0.05127222
71	0xbd013981	-0.03154898
72	0xbd8b4600	-0.06800461
73	0xbc987bed	-0.01861378
74	0xbd3badd6	-0.04582008
75	0xbd382576	-0.0449576
76	0xbd73cf4f	-0.059523877
77	0xbda5b3aa	-0.08090909
78	0xbd2ce55d	-0.042210925
79	0xbcaaa421	-0.020830216

1.layers.0.0.weight f4 [80, 80]
0	0x3d779cce	0.060452275
1	0x3e99c2cc	0.3003143
2	0x3eb024c0	0.34403038
3	0x3dd84433	0.10559883
4	0x3e91e6eb	0.2849649
5	0xbee9ca86	-0.45662326
6	0x3e4dbf13	0.2009242
7	0xbdfb9657	-0.122845344
8	0xbe87867c	-0.2646979
9	0xbc1d0dbc	-0.009585794
10	0x3e89719d	0.26844493
11	0x3efdf4d2	0.49600846
12	0x3e9ab18e	0.30213588
13	0xbd1cbd35	-0.03826638
14	0xbe0ddff4	-0.13854963
15	0xbc950341	-0.018190028
16	0x3eadb231	0.33925012
17	0xbec9c381	-0.3940697
18	0x3cdc4ac7	0.026891125
19	0xbddbf883	-0.10740759
20	0x3ee33d37	0.4438264
21	0x3ea15838	0.31512618
22	0x3e51fded	0.20507021
23	0x3e1a79b2	0.15085486
24	0x3e29d0a4	0.16583496
25	0x3d93e480	0.07221317
26	0x3ea020d0	0.31275034
27	0x3df73423	0.12070491
28	0x3d9639a3	0.07335212
29	0x3dacf5a3	0.08445289
30	0x3d8675bf	0.06565427
31	0xbe058d6d	-0.13042231
32	0xbe6ad8e6	-0.22934303
33	0x3e41749c	0.18892139
34	0xbe2b333f	-0.16718768
35	0x3e2ca933	0.1686142
36	0x3db12b71	0.08650864
37	0xba85cb58	-0.0010207696
38	0x3d0d604f	0.034515675
39	0xbd2bba58	-0.041925758
40	0xbb795c6f	-0.003804948
41	0x3d3e8046	0.04650905
42	0x3e3fed3e	0.18742844
43	0x3ce33dd7	0.027739448
44	0x3c0ad87c	0.008474465
45	0x3daf56c0	0.08561468
46	0xbd704e91	-0.058668677
47	0xbcffe6fc	-0.031238072
48	0xbe7a2093	-0.24426489
49	0xbd6be27f	-0.05758905
50	0xbe073aad	-0.13205977
51	0xbe04fe44	-0.1298762
52	0x3e9f962b	0.31169257
53	0x3e48c8a6	0.19607791
54	0xbd2c98ac	-0.042137787
55	0x3e2b67c8	0.16738808
56	0xbe68cf32	-0.22735289
57	0xbb9b560a	-0.0047404813
58	0xbe4ad794	-0.19808799
59	0xbc915944	-0.01774276
60	0x3cbdb40f	0.023157148
61	0x3dfd60fe	0.123720154
62	0xbeaa5c66	-0.3327362
63	0x3dd95bfb	0.10613247
64	0x3e255b92	0.16148213
65	0xbc90fa64	-0.01769752
66	0xbe009599	-0.12557067
67	0xbe7ccf3f	-0.24688433
68	0xbe30f351	-0.17280318
69	0xbe0ee13a	-0.13953105
70	0x3d091425	0.033466477
71	0xbe37fb03	-0.17966847
72	0xbe1b54c1	-0.1516905
73	0xbe65ff93	-0.22460775
74	0x3e5dc5ec	0.21657532
75	0x3da0246f	0.07819449
76	0xbe1c33a7	-0.15254079
77	0xbcc11133	-0.023567772
78	0x3ef9bc55	0.48776498
79	0xbdcead68	-0.10091668
80	0x3e0896ab	0.13338725
81	0xbea7277b	-0.3264731
82	0xbd1eacb1	-0.03873891
83	0x3e7f201b	0.24914591
84	0xbec242c4	-0.37941563
85	0xbd2bbca9	-0.041927967
86	0x3e7e6cb6	0.24846157
87	0x3e3e4e43	0.18584542
88	0x3e8985bc	0.26859844
89	0xbdfa9b0d	-0.12236605
90	0xbbd251b2	-0.0064184302
91	0xbd4af454	-0.049549416
92	0xbda40c64	-0.08010176
93	0x3ec62576	0.38700455
94	0x3dec4936	0.115374014
95	0x3d8ef707	0.069807105
96	0x3dc37fd6	0.09545867
97	0xbb7e5fb1	-0.003881436
98	0x3db4b5c2	0.0882373
99	0xbe5fa68a	-0.21840873
100	0x3dada2af	0.08478295
101	0xbd9caf0f	-0.07650577
102	0xbed91d14	-0.42404997
103	0xbd797f95	-0.060912687
104	0xbb9ba0cf	-0.0047493945
105	0x3f0307a8	0.5118356
106	0x3d638dd4	0.05555518
107	0x3d07f3f7	0.033191647
108	0x3e2b57b6	0.16732678
109	0x3a83a5a6	0.0010043874
110	0x3bd3b9c6	0.006461355
111	0xbd8c457a	-0.06849189
112	0xbe405721	-0.18783237
113	0xbc08c893	-0.008348602
114	0x3cf86e99	0.030326175
115	0x3e121083	0.14264111
116	0xbe4d4a3d	-0.20047851
117	0x3d4128bd	0.04715799
118	0xbc9f02dc	-0.019410543
119	0x3dcd68c8	0.10029751
120	0xbdc2e5b1	-0.095164664
121	0x3d703c9a	0.058651544
122	0x3e7fa7ff	0.24966429
123	0x3e7b6eb0	0.24553943
124	0x3e93b031	0.2884536
125	0xbe9920db	-0.2990788
126	0xbe0ca064	-0.13733059
127	0xbda36293	-0.07977786
128	0xbe303cb0	-0.1721065
129	0x3e01cd3e	0.1267595
130	0xbd65d54b	-0.056111615
131	0x3caec7b0	0.021335453
132	0x3cd5411a	0.02603202
133	0xbd963a4d	-0.07335339
134	0x3e2d9766	0.16952285
135	0x3d666619	0.05624971
136	0x3dcf97bd	0.10136364
137	0xbdabb9c6	-0.08385043
138	0xbe55caaa	-0.20878091
139	0xbd779747	-0.060447004
140	0xbd29ad87	-0.041425254
141	0x3e712691	0.23549868
142	0xbc822a02	-0.015889172
143	0xbd4d7982	-0.050164707
144	0xbb8a03c8	-0.0042118765
145	0xbe3fd332	-0.18732908
146	0x3b97478c	0.0046166833
147	0x3ab9c803	0.0014173988
148	0x3c91de8b	0.017806312
149	0x3eaafd7e	0.33396524
150	0x3ca4b6cd	0.020106697
151	0xbd4ea423	-0.0504495
152	0x3eefa739	0.46807268
153	0xbe067988	-0.13132298
154	0x3ea9c4ae	0.33157867
155	0xbc032a60	-0.008005708
156	0x3e432bb8	0.19059646
157	0x3e5e91e1	0.21735336
158	0x3e9328fe	0.28742212
159	0xbda27e1b	-0.07934209
160	0x3df2b042	0.11850025
161	0xbe37fbb7	-0.17967115
162	0xbe3a48b7	-0.18191801
163	0x3e128a6f	0.1431062
164	0x3e2033e5	0.15644796
165	0x3c7d4539	0.0154583985
166	0x3d041cf1	0.032254163
167	0x3f0f19ad	0.55898553
168	0xbed44f99	-0.41466978
169	0x3c722da3	0.014781388
170	0x3de78a0e	0.11305629
171	0x3dd0a497	0.10187643
172	0x3e2ffd83	0.17186551
173	0x3e5d284e	0.21597406
174	0x3e185c7b	0.14879028
175	0x3dda1d25	0.1065009
176	0x3e420b91	0.18949725
177	0x3ea0566e	0.3131594
178	0xbc02b1eb	-0.007976989
179	0xbe293a51	-0.16526152
180	0x3de221dd	0.11041615
181	0x3da5bb7e	0.08092402
182	0xbd377531	-0.044789497
183	0xbb30963a	-0.002694501
184	0x3ee30fd4	0.44348013
185	0xbec203a6	-0.3789341
186	0x3b200990	0.0024419762
187	0x3df09ce1	0.11748672
188	0xbdc713ac	-0.09720549
189	0x3d383aba	0.04497788
190	0xbdff5872	-0.124680415
191	0xbd0312f9	-0.032000516
192	0xbc0021fe	-0.007820604
193	0xbeab1cf8	-0.3342054
194	0x3cbbc17a	0.022919405
195	0xbe05d49c	-0.13069385
196	0xbe372422	-0.17884877
197	0x3ba1117f	0.004915416
198	0x3da00b24	0.07814625
199	0xbd0c496f	-0.03424972
200	0xbea07460	-0.31338787
201	0xbe95870c	-0.29204595
202	0xbe16c822	-0.14724782
203	0xbe20195b	-0.15634672
204	0xbb8da460	-0.0043225735
205	0xbd38a0d1	-0.04507524
206	0xbd1ab90b	-0.037774127
207	0x3d040303	0.032229435
208	0x3e2a149a	0.16609421
209	0xbe2ff136	-0.17181858
210	0x3e593ec7	0.21215354
211	0xbe39ca73	-0.18143634
212	0x3e066961	0.13126136
213	0xbe81eb04	-0.25374615
214	0xbd238d6f	-0.039929803
215	0x3ebb536c	0.36587083
216	0x3d9402a3	0.072270654
217	0xbd68181c	-0.056663617
218	0x3ea2db7b	0.31808075
219	0xbe1d7654	-0.1537717
220	0xbd03d19d	-0.032182325
221	0xbdc73240	-0.09726381
222	0x3cba5fbc	0.022750728
223	0xbe3ddd1a	-0.18541375
224	0x3e8c60e5	0.27417675
225	0x3e2087fc	0.15676874
226	0xbe2bdf3f	-0.1678438
227	0xbe794971	-0.24344422
228	0x3d247009	0.040145908
229	0xbdf2c0ed	-0.11853204
230	0xbe8a1309	-0.26967648
231	0x3e4a4e66	0.19756469
232	0x3c85e2af	0.016343443
233	0xbe21fb79	-0.15818585
234	0xbe09c85d	-0.13455339
235	0x3e75bcb3	0.23997764
236	0x3ea737f0	0.32659864
237	0xbddfbc95	-0.10924641
238	0x3d5503d8	0.05200562
239	0x3d83f034	0.064422995
240	0x3e1534ec	0.1457097
241	0xbceb9e1c	-0.028761916
242	0x3e6cb9bc	0.23117727
243	0x3d6afdac	0.057370827
244	0xbe48b4e6	-0.19600257
245	0xbe174e53	-0.14775972
246	0xbd459d41	-0.048245672
247	0x3d575064	0.0525669
248	0x3f0c02ec	0.5469196
249	0xbee778ba	-0.45209295
250	0xbe81b43a	-0.25332814
251	0x3d03083a	0.031990267
252	0x3c54c026	0.012985265
253	0x3bf47eb3	0.007461393
254	0xbde89576	-0.113566324
255	0x3db881fd	0.09009168

1.layers.1.0.bias f4 [80]
0	0xbce97fcc	-0.028503321
1	0xbc8d7fb8	-0.017272815
2	0xbca89153	-0.020577108
3	0xbd2e511a	-0.042557813
4	0xbd1fa465	-0.03897514
5	0xbd1d88b5	-0.038460452
6	0xbd410720	-0.047125936
7	0xbd30a816	-0.04312905
8	0xbd6c10d2	-0.05763323
9	0xbcad8011	-0.02117923
10	0xbd530a77	-0.051523652
11	0xbcfdad8a	-0.030966539
12	0xbd42df81	-0.04757643
13	0xbcf6d2b1	-0.030129762
14	0xbc51d970	-0.012808189
15	0xbc67a219	-0.014137768
16	0xbd24b8e8	-0.040215403
17	0xbd56528c	-0.052324817
18	0xbb932e19	-0.0044915793
19	0xbbe7cdf0	-0.00707411
20	0xbc65ed4e	-0.014033629
21	0xbd84d2fd	-0.06485555
22	0xbd155bf0	-0.03646463
23	0xbcc31c7b	-0.023817291
24	0xbd0d0d4e	-0.034436516
25	0xbd0ce7c3	-0.034400713
26	0xbc555708	-0.013021238
27	0xbcc0586b	-0.023479661
28	0xbd2b13d3	-0.041766953
29	0x3c031707	0.008001096
30	0xbd4cdd29	-0.050015602
31	0xbcc96604	-0.024584778
32	0xbd6e0c2c	-0.058117077
33	0xbd57b27d	-0.052660454
34	0xbd138321	-0.036013726
35	0xbcfe034f	-0.031007437
36	0x3b5e5250	0.0033923574
37	0xbcd2c7cb	-0.025730034
38	0xbcb0a83b	-0.021564594
39	0xbcd1f230	-0.02562818
40	0xbcd24681	-0.025668385
41	0xbd368082	-0.04455615
42	0xbcced4c8	-0.025247946
43	0xbd738e76	-0.059462033
44	0xbc861ded	-0.016371692
45	0xbce61b8c	-0.028089307
46	0xbccf8f4f	-0.02533689
47	0x3bf2457b	0.0073935366
48	0xbd21edf8	-0.039533585
49	0xbd4e4d5a	-0.050366737
50	0xbd0239f8	-0.031793565
51	0xbd18ab05	-0.037272472
52	0x3d01aa4b	0.031656545
53	0xbcee8c7e	-0.029119726
54	0xbceadf57	-0.02867095
55	0xbacd3be1	-0.0015658104
56	0xbbf952d7	-0.007608752
57	0xbd07ee2b	-0.03318612
58	0xba6bd895	-0.0008996812
59	0xbd84be0f	-0.06481563
60	0xbbf93eac	-0.007606348
61	0xbd005a44	-0.031336084
62	0xbd6b5ef3	-0.057463598
63	0xbd258508	-0.04041007
64	0x3c092e38	0.008372836
65	0xbd0b257e	-0.033971302
66	0xbd60c610	-0.054876387
67	0xbd1c5399	-0.038165662
68	0xbcbb1632	-0.022837732
69	0x3c30141e	0.010746984
70	0xbc4dde28	-0.012565173
71	0xbd21e718	-0.03952703
72	0xbd226a09	-0.039651904
73	0xbcbfbe6d	-0.023406232
74	0xbd1842cc	-0.037173077
75	0xbd7db73e	-0.06194233
76	0xbcb2033a	-0.021730054
77	0xbcb6b8c9	-0.02230491
78	0xbcf07d70	-0.029356688
79	0xbc8f6fb3	-0.017509317

1.layers.1.0.weight f4 [80, 160]
0	0xbd56b93e	-0.052422754
1	0xbe32d543	-0.17464165
2	0x3d33cae3	0.04389466
3	0x3d2f5dad	0.042813946
4	0x3e05661d	0.13027234
5	0x3ca06126	0.019577574
6	0x3e2b3d7a	0.1672267
7	0xbe3d477a	-0.18484297
8	0xbdaccefe	-0.08437918
9	0x3bde167b	0.006777582
10	0xbe0b4852	-0.13601807
11	0xbcdbcf38	-0.026832208
12	0x3d6f4f22	0.058425076
13	0xbdd8ae14	-0.10580078
14	0xbd5d968e	-0.05409866
15	0x3cb9981b	0.022655537
16	0xbc256d59	-0.010096871
17	0x3d9b59f6	0.07585518
18	0xbc452442	-0.01203257
19	0x3e3b78f0	0.18307853
20	0x3e754908	0.2395364
21	0xbde97515	-0.11399285
22	0xbceb627f	-0.02873349
23	0x3e588cc9	0.21147455
24	0xbe683d6c	-0.2267968
25	0x3c4a99b2	0.012365745
26	0xbb21c431	-0.002468359
27	0xbc794b23	-0.015215668
28	0x3d63d313	0.055621218
29	0x3d81fdc2	0.063472286
30	0x3d81dd92	0.06341089
31	0x3c7a375a	0.015271986
32	0x3da28654	0.07935777
33	0xbd17bdf0	-0.037046373
34	0x3e02f2b7	0.12787901
35	0xbb8d081d	-0.0043039457
36	0xbdc73f23	-0.09728839
37	0x3e3ce2e9	0.18445934
38	0x3e0ad6ce	0.13558504
39	0xbc8a4564	-0.016878791
40	0x3d834118	0.064089
41	0x3c7f05ef	0.0155653795
42	0xbd531571	-0.05153412
43	0xbc4bb11e	-0.012432365
44	0x3e215eb3	0.15758781
45	0x3d83a90a	0.06428726
46	0xbd81cad2	-0.06337513
47	0x3e9989e5	0.29988018
48	0x3d4da869	0.050209437
49	0xbd8e93e2	-0.069618
50	0x3d36603a	0.044525363
51	0xbd4cc93b	-0.049996596
52	0xbe3f069f	-0.1865487
53	0x3d50302f	0.0508272
54	0x3e4d9a02	0.2007828
55	0xbd19492d	-0.0374233
56	0x3cace1bf	0.021103738
57	0xbdeee9d5	-0.11665694
58	0x3cd931f7	0.026513083
59	0x3c92f25b	0.01793783
60	0xbe0139db	-0.12619726
61	0x3d9a2e78	0.075283945
62	0x3d517e10	0.051145613
63	0xbd5e7abd	-0.05431627
64	0x3d8ece7e	0.06972979
65	0xbdd557f2	-0.10417165
66	0xbc014893	-0.007890838
67	0xbe48613c	-0.19568342
68	0x3dd459eb	0.10368713
69	0xbba84161	-0.005134747
70	0x3dda6371	0.10663498
71	0xbd9c1496	-0.07621114
72	0x3e135b97	0.14390408
73	0xbdf0aece	-0.11752091
74	0x3d551c27	0.0520288
75	0x3dab569d	0.083661295
76	0x3c8fb701	0.017543318
77	0x3e15458f	0.14577316
78	0x3e4f0ce4	0.20219761
79	0x3e0d69d3	0.138099
80	0x3d4c8992	0.049935885
81	0x3c842ced	0.016134704
82	0xbe732f41	-0.23748495
83	0xbe9a7559	-0.30167654
84	0x3d36ead1	0.044657532
85	0xbdf83948	-0.121203005
86	0xbe434021	-0.19067432
87	0x3e209ab0	0.15684009
88	0x3e965880	0.29364395
89	0xbdc41cb2	-0.09575786
90	0xbd77f12f	-0.060532745
91	0xbd46d9e7	-0.04854765
92	0x3ca19f87	0.019729389
93	0x3def58eb	0.11686882
94	0xbe326109	-0.17419828
95	0x3dbd0499	0.092293926
96	0x3dbee153	0.09320321
97	0x3c5f3c7b	0.0136252595
98	0x3dca2ddb	0.098720275
99	0x3e5f6636	0.21816334
100	0x3d876841	0.06611682
101	0x3dec3657	0.11533802
102	0x3caa495c	0.020786934
103	0x3db5fb07	0.0888577
104	0x3e7d5169	0.24738087
105	0xbe198cad	-0.1499507
106	0xbdad6b04	-0.08467677
107	0xbe153e5f	-0.14574574
108	0xbe3bf46d	-0.1835496
109	0x3e4e4086	0.20141801
110	0x3d816aef	0.06319224
111	0xbc8f74a3	-0.017511671
112	0x3b53ba35	0.0032307033
113	0x3e86f604	0.2635957
114	0x3db5b09a	0.08871575
115	0xbca9cefa	-0.020728577
116	0xbd5a4eb5	-0.053297717
117	0xbdc24d5e	-0.09487413
118	0xbe39b252	-0.1813443
119	0x3d2ef551	0.04271442
120	0x3e53db17	0.20689045
121	0xbe34916a	-0.17633596
122	0xbdd6984c	-0.10478267
123	0xbe171887	-0.1475545
124	0xbd8b4f4c	-0.06802234
125	0xbd9bee1c	-0.07613775
126	0xbcd192aa	-0.02558263
127	0x3dd98f51	0.106230386
128	0x3e121696	0.14266428
129	0xbc4b1e49	-0.012397357
130	0xbdadf813	-0.08494582
131	0x3dcb5bff	0.09929656
132	0xbdd2d4d8	-0.10294503
133	0xbc0ded22	-0.008662494
134	0xbe2f8d24	-0.17143685
135	0xbe05c8e1	-0.1306491
136	0x3b8d22c0	0.004307121
137	0x3cdb7fc8	0.02679433
138	0x3d9c0708	0.076185286
139	0xbe122b28	-0.14274275
140	0xbe68bccf	-0.22728275
141	0xbcba3836	-0.022731882
142	0x3cf8c74a	0.030368466
143	0xbe43d0f6	-0.19122681
144	0x3d3e496f	0.04645675
145	0x3cac4df8	0.021033272
146	0xbe7e493b	-0.24832623
147	0xbe036f1d	-0.12835355
148	0x3de5e45a	0.11225195
149	0xbbf9ff11	-0.0076292832
150	0x3dddd2e6	0.10831241
151	0x3bfd06cb	0.007721757
152	0x3e672611	0.22573115
153	0xbe86e7ff	-0.26348874
154	0x3e07a881	0.13247873
155	0x3cfda06f	0.03096029
156	0xbe42f93a	-0.19040385
157	0x3d8221f8	0.06354135
158	0x3e01347c	0.12617677
159	0x3de96958	0.11397046
160	0xbdcc7fe0	-0.09985328
161	0xbd51bdb5	-0.05120631
162	0xbe48c763	-0.1960731
163	0xbd1b3a48	-0.03789738
164	0xbdca5489	-0.09879405
165	0x3da7c20d	0.08191309
166	0xbdfb53e0	-0.12271857
167	0xbd9f8fac	-0.07791075
168	0xbdcf3d39	-0.10119099
169	0x3d58e214	0.05294998
170	0xbde4a247	-0.111637644
171	0xbe05c0df	-0.13061856
172	0x3df85284	0.121251136
173	0xbe6bc2b6	-0.23023495
174	0x3c13729c	0.008999493
175	0xbe088e56	-0.13335547
176	0x3da415c1	0.08011962
177	0xbc8794c3	-0.016550427
178	0xbd57320c	-0.052537963
179	0x3da4c72e	0.08045803
180	0xbe24d631	-0.16097333
181	0xbd9b3dd3	-0.075801514
182	0x3d59ed24	0.05320467
183	0x3d2722dc	0.04080473
184	0xbd38de0d	-0.04513364
185	0xbda82043	-0.082092784
186	0xbbed1880	-0.0072355866
187	0xbd9b63b5	-0.07587377
188	0x3cf6cb2a	0.030126173
189	0xbd8cea6f	-0.06880652
190	0xbe62b9be	-0.22141168
191	0x3d56c3bd	0.052432764
192	0xbd909f02	-0.07061578
193	0xbd4a852b	-0.049443405
194	0x3de9d09a	0.11416741
195	0xbd3f5d72	-0.046719976
196	0xbe8c0cdc	-0.2735356
197	0xbbe14576	-0.0068747355
198	0x3e001195	0.12506707
199	0xbe0acb4d	-0.13554116
200	0xbe1e0e9a	-0.15435258
201	0x3e59ec8c	0.21281642
202	0xbe15d447	-0.14631759
203	0x3dd8926d	0.105748035
204	0xbde40df8	-0.11135477
205	0xbd350565	-0.044194598
206	0x3e1a98d5	0.15097363
207	0xbd9aec76	-0.075646326
208	0xbe16089c	-0.14651722
209	0xbd53b3c1	-0.0516851
210	0xbdb6c290	-0.089238286
211	0xbe90d0d5	-0.28284326
212	0xbdfde0ba	-0.12396379
213	0x3c27cf81	0.010242344
214	0x3e339064	0.1753555
215	0x3d45b6ed	0.048270155
216	0xbed8b6d4	-0.42326987
217	0x3e6b79bc	0.22995657
218	0x3c1f9120	0.00973919
219	0x3dec2091	0.11529649
220	0xbe202eb2	-0.15642813
221	0xbe37827d	-0.17920871
222	0x3e23b08d	0.15985318
223	0xbe3e627d	-0.18592258
224	0xbe18526c	-0.14875191
225	0xbdee209b	-0.11627313
226	0x3d861b89	0.06548221
227	0x3c98f381	0.0186708
228	0xbd9d19d2	-0.076709405
229	0xbdafb837	-0.08580058
230	0xbdb4e790	-0.088332295
231	0xbdae9131	-0.08523787
232	0xbb05a740	-0.0020393878
233	0x3d9b9e84	0.07598594
234	0xbc0775bb	-0.008267815
235	0xbdb2d8e5	-0.087327756
236	0x3d92db1f	0.071707
237	0xbc858ece	-0.016303446
238	0x3e1beab7	0.15226255
239	0xbe0ee911	-0.13956095
240	0x3e1d082e	0.15335152
241	0x3bed56fe	0.0072430363
242	0xbe5b0397	-0.21388088
243	0x3de87478	0.1135034
244	0xbe4cfc04	-0.20018011
245	0x3c29e9bf	0.010370671
246	0xbec54ed7	-0.38536713
247	0x3c689971	0.0141967395
248	0x3e9313b7	0.2872598
249	0x3e0485c4	0.12941653
250	0x3b32e325	0.0027296033
251	0xbe858cb7	-0.2608392
252	0x3e35e866	0.17764434
253	0x3e7e1c4d	0.24815483
254	0xbe882ef6	-0.26598328
255	0xbd5ffcaa	-0.05468432

1.layers.2.0.bias f4 [80]
0	0x3ad1b77c	0.0016000117
1	0xbcaa4623	-0.020785397
2	0xbce3d667	-0.027812196
3	0xbd3ce435	-0.046116073
4	0xbc43c729	-0.011949339
5	0xbd1f715f	-0.03892648
6	0xbd1a7bdf	-0.03771579
7	0xbca7bfc6	-0.020477187
8	0xbc76e8b5	-0.01507013
9	0xbd3fdde0	-0.046842456
10	0xbcdbdfb4	-0.026840068
11	0xbd4837dd	-0.0488814
12	0xbd9dd1c7	-0.077060275
13	0xbcb1f462	-0.021722976
14	0xbd1f0482	-0.03882266
15	0xbd3bc0cb	-0.04583816
16	0xbd1165f7	-0.035497632
17	0xbcca1a5a	-0.024670769
18	0xbd391374	-0.045184568
19	0xbc941e5c	-0.018080883
20	0xbd03d9a4	-0.03218998
21	0xbd2fffbb	-0.042968493
22	0xbccfb4bb	-0.025354734
23	0xbd4057b2	-0.046958633
24	0xbd1efbc1	-0.03881431
25	0xbd203864	-0.03911628
26	0xbd8cc864	-0.06874159
27	0xbd0e0e46	-0.03468158
28	0xbd1cc5cc	-0.03827457
29	0xbd3d04fb	-0.046147328
30	0xbd47b30e	-0.048754744
31	0xbd3fca61	-0.046823863
32	0xbbae5c84	-0.0053210873
33	0xbd37d754	-0.044883087
34	0xbd6a8af8	-0.057261437
35	0x3c58622b	0.013206999
36	0xbd2479f8	-0.04015538
37	0x3ba158f9	0.0049239364
38	0xbc66ba85	-0.014082556
39	0x3abe8822	0.001453642
40	0xbc62f34e	-0.013851954
41	0xbd4b51d0	-0.04963857
42	0xbd2b82b6	-0.041872703
43	0xbd62451c	-0.05524169
44	0xbd131a5d	-0.035913814
45	0xbcaf0f25	-0.021369526
46	0xbd336a8a	-0.043802775
47	0xbbd31f89	-0.0064429683
48	0xbce5e319	-0.02806239
49	0xbcfca2d4	-0.030839361
50	0xbd63be02	-0.055601127
51	0xbd0aef93	-0.033919882
52	0xbc7cf3a5	-0.015438949
53	0xbd2cbc81	-0.04217196
54	0xbcda2a62	-0.026631538
55	0xbcb1e308	-0.021714702
56	0xbc928336	-0.017884832
57	0xbcd7f1a1	-0.026360335
58	0xbd1eccf4	-0.038769677
59	0xbd05b3b2	-0.032642074
60	0xbcf6c03f	-0.030120967
61	0xbc8fdbb3	-0.017560815
62	0xbd3d1a7b	-0.046167832
63	0xbd209b5d	-0.039210666
64	0xbd0ebf5f	-0.034850474
65	0xbcdbe86d	-0.026844228
66	0xbc13128b	-0.008976589
67	0xbd11ee86	-0.035627864
68	0xbd52468a	-0.051336803
69	0xbd8b2244	-0.06793645
70	0xbda2b268	-0.079441845
71	0xbc8840c5	-0.016632447
72	0xbd12f17f	-0.03587484
73	0xbd1d4f6c	-0.03840582
74	0xbc8d1ba6	-0.017225098
75	0xbcc2c8af	-0.023777334
76	0xbc9a0940	-0.018803239
77	0xbd215cea	-0.03939525
78	0xbd7d1b07	-0.061793353
79	0xbc82d634	-0.01597128

1.layers.2.0.weight f4 [80, 240]
0	0x3b30df22	0.0026988466
1	0x3d82ee89	0.06393153
2	0x3ded92c7	0.11600261
3	0xbe81c886	-0.253483
4	0xbd713b4a	-0.058894433
5	0x3ddfc935	0.10927049
6	0x3de77075	0.11300746
7	0x3cfffb30	0.031247705
8	0x3d848848	0.06471306
9	0xbd24d07c	-0.04023789
10	0x3d178a6f	0.036997255
11	0xbd03199d	-0.03200685
12	0x3e53a834	0.20669633
13	0xbdda7277	-0.10666364
14	0xbc544e60	-0.012958139
15	0x3d22c8d8	0.03974232
16	0x3e9cc144	0.306162
17	0xbd3f79df	-0.046747085
18	0xbdbb757d	-0.091532685
19	0x3e5d2e7f	0.21599768
20	0xbdec648b	-0.115426145
21	0xbdc7d338	-0.09757084
22	0x3db1e2b0	0.08685815
23	0x3da727b1	0.081618674
24	0xbc7afb4c	-0.015318703
25	0x3d9a7df7	0.07543557
26	0x3d854635	0.065075316
27	0xbcfcfce0	-0.030882299
28	0x3d9ec5d4	0.077525765
29	0x3d3ce2ee	0.046114855
30	0xbdb4e5aa	-0.088328674
31	0xbcaedff2	-0.02134702
32	0xbe427d4c	-0.1899311
33	0xbd81de5b	-0.06341239
34	0x3e865251	0.26234677
35	0xbd9b01ab	-0.075686775
36	0xbd37c11a	-0.04486189
37	0xbd185817	-0.037193384
38	0xbd90a594	-0.070628315
39	0x3d9379e2	0.07200982
40	0xbda7e4bd	-0.08197925
41	0x3e296bcf	0.16545032
42	0xbc17a2c6	-0.009255117
43	0xbdc1a101	-0.09454537
44	0x3df6ce8d	0.12051115
45	0xbe570297	-0.20997082
46	0xbe8f1562	-0.27946
47	0x3c652527	0.013985909
48	0x3e27ffa3	0.16406111
49	0x3cd47bf1	0.025938006
50	0x3d6ce0ad	0.057831455
51	0xbe3f7b8c	-0.18699473
52	0xbdac3618	-0.08408755
53	0x3d08876a	0.033332266
54	0xbc122eaf	-0.008922263
55	0x3dafd376	0.08585255
56	0x3c4681a2	0.012115868
57	0xbde9d339	-0.11417241
58	0xbcee849f	-0.029115973
59	0x3e617abb	0.22019474
60	0xbdab9b1d	-0.08379195
61	0xbe33a65f	-0.17543934
62	0xbda99a21	-0.08281351
63	0xbe6a0355	-0.22852834
64	0x3c9e623b	0.01933395
65	0xbe499b3e	-0.19688126
66	0xbd448445	-0.047977705
67	0xbd70c0a8	-0.05877748
68	0x3c6f96cd	0.014623356
69	0x3e18219d	0.14856572
70	0xbc06437e	-0.008194802
71	0x3d0cb10e	0.03434854
72	0x3d95c207	0.073123984
73	0x3db973ff	0.090553276
74	0xbd8e2f18	-0.06942576
75	0xbe54a179	-0.20764722
76	0x3dfcd40e	0.12345134
77	0xbe0780b9	-0.13232698
78	0x3e1a3000	0.15057373
79	0xbcf92757	-0.030414267
80	0xbcd30cc7	-0.025762929
81	0x3e6caef2	0.23113611
82	0x3e2047bb	0.15652363
83	0x3df7388c	0.12071332
84	0xbe135326	-0.14387187
85	0x3cbf659e	0.023363885
86	0x3d08c2e8	0.033389002
87	0x3cf738de	0.030178484
88	0xbe1eef5e	-0.15520999
89	0xbcc9df72	-0.02464268
90	0x3dfa8ee5	0.12234286
91	0x3d9a3217	0.07529085
92	0x3d2389f0	0.03992647
93	0xbd5d97fe	-0.05410003
94	0xbe166a1a	-0.14688912
95	0x3cac4d46	0.02103294
96	0xbde19c73	-0.110161684
97	0xbb8cf5aa	-0.0043017464
98	0xbe034ef0	-0.12823081
99	0xb9ea9b37	-0.00044747602
100	0xbd6d69fd	-0.057962406
101	0xbad95b5a	-0.0016583011
102	0xbd9ee28b	-0.077580534
103	0x3d800c12	0.06252302
104	0xbd1f8601	-0.038946155
105	0x3e1d731c	0.15375942
106	0x3df0e149	0.1176172
107	0x3d19c1d2	0.037538357
108	0x3c22e23a	0.009941632
109	0x3e7199f9	0.23593892
110	0x3d484adc	0.048899516
111	0x3d15f38f	0.03660923
112	0xbe0eebba	-0.1395711
113	0x3da90123	0.0825217
114	0x3d1ace27	0.03779426
115	0xbda84217	-0.08215731
116	0xbe26bb7e	-0.1628246
117	0x3d8fcf11	0.07021917
118	0xbe06887e	-0.13138005
119	0x3d0e11de	0.03468501
120	0x3e3a337a	0.18183699
121	0xbcbb3da1	-0.022856535
122	0x3e01e9b9	0.12686814
123	0x3d9c5ca4	0.07634857
124	0x3d970ece	0.07375871
125	0xbdc60f5c	-0.09670898
126	0xbdd40889	-0.103531905
127	0xbe0071ee	-0.1254346
128	0xbda2d233	-0.079502486
129	0x3c8562f9	0.016282545
130	0xbd728aaa	-0.05921427
131	0x3e2390b5	0.1597317
132	0x3deda057	0.11602848
133	0xbde4dea7	-0.1117528
134	0xbe831540	-0.2560215
135	0x3d017a1e	0.0316106
136	0x3ceeec16	0.029165309
137	0x3c963c36	0.018339258
138	0x385820b4	5.152887e-05
139	0xbdc6d545	-0.09708647
140	0xbd808445	-0.062752284
141	0xbd7c9d43	-0.061673414
142	0x3d99cb05	0.07509426
143	0x3db78745	0.089613475
144	0x3e2cf858	0.1689161
145	0xbdb2ae9d	-0.08724711
146	0xbda92376	-0.08258717
147	0xbe79240d	-0.24330159
148	0xbd9b8861	-0.075943716
149	0xbd3be629	-0.045873795
150	0xbd527568	-0.0513815
151	0xbd4ad721	-0.04952157
152	0xbd4e0759	-0.050299976
153	0x3e6201df	0.22071026
154	0xbcc907af	-0.024539797
155	0xbdd06c1d	-0.10176871
156	0x3e19f6c1	0.15035535
157	0x39ca3479	0.00038567538
158	0xbdfad967	-0.122484975
159	0x3d53ea12	0.0517369
160	0x3e3b9e30	0.18322062
161	0xbeb478f9	-0.35248545
162	0x3ebe257b	0.3713797
163	0x3e9c7846	0.3056051
164	0xbdbbf596	-0.09177701
165	0x3e93927a	0.2882269
166	0x3dc1fa54	0.094715744
167	0x3e9f85ec	0.31156862
168	0x3e7aa8c9	0.24478449
169	0xbdd1be04	-0.10241321
170	0x3db56802	0.088577285
171	0xbc80f50e	-0.015741851
172	0x3e437aac	0.19089764
173	0x3e75465a	0.23952618
174	0x3e0fad21	0.14030887
175	0x3e998bde	0.29989523
176	0x3bb0669d	0.005383326
177	0xbea248bd	-0.3169612
178	0x3d68070b	0.05664734
179	0xbdd91d02	-0.10601236
180	0xbdb1a5af	-0.0867418
181	0x3d9d5b87	0.07683473
182	0xbde56e35	-0.11202661
183	0xbc8c017c	-0.017090552
184	0x3dc5ef8d	0.09664831
185	0xbd298193	-0.041383337
186	0x3e4107cd	0.18850632
187	0x3e730542	0.23732474
188	0x3c7c3ada	0.015394891
189	0xbe63e052	-0.2225354
190	0x3cd5fe34	0.02612219
191	0xbd088f9e	-0.03334009
192	0x3de379cc	0.11107215
193	0xbe0fb025	-0.14032038
194	0xbd5b63a2	-0.053561814
195	0xbd8a25a0	-0.06745458
196	0xbd7393be	-0.05946707
197	0xbc777801	-0.015104295
198	0x3dfd9bfc	0.12383267
199	0x3ad50cd3	0.0016254432
200	0xbd3676b3	-0.044546794
201	0xbc0f7ae0	-0.008757323
202	0xbde8d39e	-0.11368488
203	0x3e3f119c	0.18659061
204	0x3b0ddf99	0.0021648167
205	0x3dbf835a	0.09351225
206	0x3c9b2575	0.01893876
207	0xbe5596fe	-0.2085838
208	0x3d296d05	0.041363735
209	0xbd995ec3	-0.074887775
210	0xbc58de59	-0.013236606
211	0xbc5eaa5a	-0.01359042
212	0x3dafcdab	0.0858415
213	0x3d353ccc	0.044247434
214	0xbd6fc507	-0.05853751
215	0x3dfc2205	0.12311176
216	0x3d792ccf	0.06083375
217	0x3e1039a8	0.14084494
218	0xbcb7efb5	-0.022453168
219	0x3cabd587	0.020975841
220	0xbda10f0b	-0.07864197
221	0xbdb78ad2	-0.08962025
222	0x3d1075d9	0.03526864
223	0xbb4c1355	-0.0031139452
224	0x3db95187	0.09048753
225	0x3d9ffebc	0.078122586
226	0xbcc340bd	-0.02383458
227	0xbc5777ee	-0.013151152
228	0x3de34d13	0.11098685
229	0x3e0b0110	0.13574624
230	0x3dba1862	0.09086682
231	0xbd9b0bf7	-0.075706415
232	0xbdb2aae3	-0.08724
233	0xbdc39888	-0.095505774
234	0xbca582bd	-0.020203942
235	0x3c3a5f69	0.011375287
236	0xbdbd28b2	-0.09236278
237	0xbab237fd	-0.0013597008
238	0x3c853bf7	0.016263945
239	0xbc5200d9	-0.012817585
240	0x3bef9177	0.007311042
241	0xbdf6af39	-0.1204514
242	0xbe887c9c	-0.2665757
243	0xbca267d7	-0.019824905
244	0xbd5f36bd	-0.054495562
245	0xbdb87cbc	-0.09008166
246	0xbdaa6bfb	-0.08321377
247	0x3bca0fd7	0.006166439
248	0x3d99fedf	0.07519316
249	0xbda6b3af	-0.08139741
250	0xbdc37629	-0.09544022
251	0xbe13b725	-0.14425333
252	0xbc9b3205	-0.01894475
253	0x3cdfceac	0.027320229
254	0xbd876a42	-0.06612064
255	0x3dfc711f	0.12326264

1.layers.3.0.bias f4 [80]
0	0xbd5bf952	-0.053704567
1	0xbca32f94	-0.019920148
2	0xbd40bf27	-0.047057297
3	0xbc8ab809	-0.016933458
4	0xbd3a04d7	-0.045414772
5	0x3c1b8251	0.009491519
6	0xbca991a3	-0.020699328
7	0xbd802329	-0.06256706
8	0xbce5fc79	-0.02807449
9	0xbb8f03c0	-0.0043644607
10	0xbca2a7b4	-0.019855358
11	0xbc25f982	-0.010130288
12	0xbd134c97	-0.035961714
13	0xbd2e34db	-0.042530876
14	0xbc3a4de3	-0.011371109
15	0xbc94f149	-0.01818146
16	0xbce4948e	-0.027902868
17	0xbcea37b9	-0.028591024
18	0xbd0b1ab7	-0.033961024
19	0xbd373089	-0.04472402
20	0xbca392e4	-0.019967504
21	0xbc94521c	-0.018105559
22	0xbd2ded48	-0.042462617
23	0xbcc0de9d	-0.02354365
24	0xbcbbfdd0	-0.022948176
25	0x3c278315	0.0102241235
26	0xbcbc1fd8	-0.022964403
27	0xbd02b1b3	-0.03190775
28	0xbd2e8ed3	-0.042616677
29	0xbd660ea5	-0.05616631
30	0xbd387713	-0.045035433
31	0xbc416562	-0.011803957
32	0xbc76c0c7	-0.01506061
33	0xbc9df5f8	-0.019282326
34	0xbbda24d5	-0.0066572228
35	0xbd00e86d	-0.03147166
36	0xbd301cee	-0.04299634
37	0xbd1ebad5	-0.038752396
38	0xbd1a18cc	-0.037621304
39	0xbcc88e48	-0.024481907
40	0xbc890c30	-0.016729444
41	0xbca765e2	-0.020434324
42	0xbd30a190	-0.043122828
43	0xbd0a1d9b	-0.03371964
44	0xbd446fcc	-0.04795818
45	0xbd80e0f0	-0.062929034
46	0xbd1fa88d	-0.038979102
47	0xbd00c297	-0.031435575
48	0xbd873763	-0.06602361
49	0xbce11229	-0.02747448
50	0xbcfa8493	-0.030580794
51	0xbd33947a	-0.04384277
52	0xbc7aebee	-0.015315039
53	0xbcd6aa85	-0.026204357
54	0xbbd2ae3d	-0.006429462
55	0xbcd920d1	-0.026504906
56	0xbcb65c31	-0.022260757
57	0xbd6f409c	-0.058411226
58	0xbd4c377c	-0.0498576
59	0xbd589453	-0.052875828
60	0xbcf37dda	-0.029723097
61	0xbd0fccbb	-0.035107356
62	0xbce5da6b	-0.028058251
63	0xbc9358f7	-0.017986758
64	0xbd2ea9bd	-0.042642344
65	0xbd578e74	-0.05262609
66	0xbcdefd17	-0.027220292
67	0xbd4d1991	-0.05007321
68	0xbcb0433e	-0.021516439
69	0xbd440e6c	-0.047865316
70	0xbccb087d	-0.024784321
71	0xbdc56cad	-0.09639869
72	0xbd29ba29	-0.0414373
73	0xbcd47868	-0.02593632
74	0xbcd58db2	-0.026068542
75	0xbcf77941	-0.030209186
76	0xbd10c0ef	-0.035340246
77	0xbd3ea2af	-0.046541866
78	0xbd1de663	-0.038549792
79	0xbd0daff2	-0.034591623

1.layers.3.0.weight f4 [80, 320]
0	0x3dcdc69f	0.100476496
1	0xbc92bbcc	-0.017911814
2	0xbd66d74d	-0.05635767
3	0x3c8617d6	0.016368788
4	0xbd023a2a	-0.03179375
5	0x3c91d2f6	0.01780079
6	0xbc1e8fcd	-0.009677839
7	0xbd943f46	-0.07238631
8	0x3c44476e	0.011979921
9	0xbd5c9409	-0.053852115
10	0x3c5f6051	0.013633803
11	0xbafb1e78	-0.0019158861
12	0x3e38ed08	0.1805917
13	0x3de1cb7d	0.110251404
14	0x3d7b1324	0.06129755
15	0xbc8c4644	-0.017123349
16	0x3e1ad9ae	0.151221
17	0xbcc0ea69	-0.023549275
18	0xbdca2e53	-0.09872117
19	0xbd01a050	-0.031647027
20	0x3e4dc4da	0.20094624
21	0x3d79a840	0.06095147
22	0xbd983b5f	-0.07433199
23	0xbde7c588	-0.11316973
24	0x3e015841	0.12631322
25	0xbe2f42a5	-0.17115267
26	0x3da3066b	0.079602085
27	0x3d9e46e2	0.077283636
28	0x3c7c23c1	0.015389384
29	0x3d93b22f	0.0721172
30	0x3e2afc7a	0.16697875
31	0xbd2d17ca	-0.042259015
32	0x3c05775b	0.008146132
33	0x3dac82d3	0.0842339
34	0x3d1ccfee	0.038284235
35	0x3b840e01	0.0040299897
36	0xbd88e010	-0.066833615
37	0xbe142c84	-0.14470106
38	0xbe160577	-0.14650522
39	0x3c8cb761	0.017177286
40	0x3e1aa3a7	0.15101491
41	0xbcbf2801	-0.023334505
42	0x3d8ebcba	0.069695905
43	0xbcd537ed	-0.026027644
44	0xbcd8cf84	-0.026466139
45	0xbd1c99a3	-0.038232457
46	0x3de33c3b	0.110954724
47	0x3cc946bb	0.02456986
48	0xbcb1786d	-0.021663869
49	0x3d813cb8	0.06310409
50	0xbd834167	-0.06408959
51	0xbc1dc26e	-0.009628875
52	0x3d91b7e9	0.07115156
53	0xbc40b349	-0.011761495
54	0x3d75df7d	0.06002759
55	0xbd568f16	-0.05238255
56	0xbccb1ba5	-0.024793455
57	0xbc77841b	-0.01510718
58	0xbb8052f4	-0.003916139
59	0x3d42f891	0.047600333
60	0xbd024554	-0.031804398
61	0xbd33164e	-0.043722443
62	0x3d53bf15	0.051695902
63	0x3dddb607	0.108257346
64	0x3df1556b	0.1178387
65	0x3d83db45	0.06438307
66	0x3b008f52	0.0019616676
67	0xbbcd8989	-0.006272499
68	0xbdbf7fe3	-0.09350564
69	0x3be30785	0.0069283866
70	0x3c83448f	0.016023902
71	0x3df15c17	0.11785143
72	0x3be62309	0.0070232195
73	0xbc5822c5	-0.013191883
74	0xbd4381fd	-0.04773139
75	0x3e01ae8d	0.12664242
76	0x3d98c2eb	0.07459053
77	0xbc210edf	-0.009830206
78	0xbd862f4b	-0.06551989
79	0xbdb3ccc7	-0.087792926
80	0xbd3c4e2e	-0.045972995
81	0xbdb32e0b	-0.087490164
82	0x3cc6eff6	0.024284344
83	0xbdecca29	-0.115619965
84	0x3d9a1c7c	0.07524964
85	0xbde14829	-0.110000916
86	0x3e265628	0.16243804
87	0x3d43c8fa	0.047799088
88	0x3c959e5a	0.018263984
89	0x3de01a15	0.10942475
90	0xbce14775	-0.027499894
91	0x3c36066c	0.0111099295
92	0x3d290dd9	0.04127297
93	0x3e003bf0	0.12522864
94	0x3d7102dd	0.05884062
95	0xbd2cf1da	-0.042222835
96	0xbcb52dc7	-0.022116555
97	0x3d3c599c	0.045983896
98	0x3d9f389f	0.077744715
99	0x3c965020	0.018348753
100	0xbb39b3df	-0.0028335971
101	0xbd672b2e	-0.056437664
102	0x3d849b82	0.06474973
103	0xbe25d0de	-0.16192958
104	0x3cd2fffd	0.02575683
105	0x3cc3e20b	0.023911497
106	0xbd97c2f4	-0.07410231
107	0x3dfa9843	0.12236073
108	0x3b3594a4	0.0027707005
109	0xbd823d0b	-0.06359299
110	0x3d5d24ad	0.053990055
111	0xbc439ad7	-0.011938772
112	0x3e0a0266	0.13477477
113	0x3d3ba56e	0.045812063
114	0xbe01a471	-0.12660386
115	0x3d314579	0.043279145
116	0xbe017ddb	-0.12645666
117	0x3b5812d0	0.0032970197
118	0xbe26b880	-0.16281319
119	0x3c9f6a27	0.019459797
120	0xbd69c190	-0.05706936
121	0x3dcb5539	0.09928364
122	0x3df165b8	0.117869794
123	0xbe400b45	-0.18754299
124	0x3c09126d	0.008366209
125	0x3e184196	0.14868769
126	0x3d9605dd	0.07325337
127	0xbdd8c2cb	-0.10584029
128	0xbe3463a3	-0.17616133
129	0xbd15f917	-0.036614504
130	0x3c2e9bd8	0.010657273
131	0xbcf9f214	-0.03051094
132	0x3d75027a	0.059816815
133	0xbd661edf	-0.056181785
134	0xbe012582	-0.12611964
135	0xbd309850	-0.043114007
136	0x3d610e6b	0.05494539
137	0xbd125867	-0.03572884
138	0xbb9ad6be	-0.0047253063
139	0xbc29345d	-0.010327426
140	0x3dc9d8e7	0.09855824
141	0xbe1b3d4c	-0.15160102
142	0x3bd315d9	0.0064418134
143	0x3d5c2800	0.053749084
144	0x3dc2fec2	0.095212474
145	0x3cb8ba80	0.022549868
146	0x3d8a50de	0.067537054
147	0x3d002ad5	0.031290848
148	0x3e5d3470	0.21602035
149	0x3e35ac9b	0.17741625
150	0x3dd5b750	0.10435355
151	0x3ccb09d7	0.024784965
152	0x3d4eadbb	0.05045865
153	0x3e1aab3f	0.15104388
154	0xbda4a010	-0.08038342
155	0x3dd2369c	0.10264322
156	0x3d7d219a	0.061799623
157	0xbd0d5698	-0.03450641
158	0xbd81e7e3	-0.06343057
159	0x3e073bba	0.13206378
160	0x3e072132	0.13196257
161	0x3d0a5d6d	0.033780504
162	0xbca423d6	-0.02003662
163	0x3c965913	0.01835302
164	0x3b2f2901	0.002672732
165	0x3c83df49	0.016097682
166	0x3d835957	0.064135246
167	0x3c43db80	0.011954188
168	0x3beea611	0.0072829803
169	0x3dc4f8b1	0.096177466
170	0xbde2dbd8	-0.11077088
171	0x3d903703	0.07041743
172	0x3cf53b26	0.02993543
173	0x3d4a439b	0.04938088
174	0x3d91b271	0.07114113
175	0x3dde34a8	0.10849887
176	0xbd5acd40	-0.053418398
177	0x3d6f0219	0.05835161
178	0xbda647d4	-0.08119169
179	0xbd894ebb	-0.0670447
180	0xbd700cb4	-0.058605865
181	0xbc3b85b8	-0.011445455
182	0x3dbe8469	0.09302599
183	0x3b6fcaa8	0.0036589298
184	0xbdaa8bfe	-0.08327483
185	0xbb81fea8	-0.003967125
186	0xbe64d8e0	-0.22348356
187	0xbca48c54	-0.020086445
188	0xbd459472	-0.04823727
189	0xbd88f371	-0.06687058
190	0x3d2ab866	0.041679762
191	0xbdcf46c2	-0.10120918
192	0xbc7ddced	-0.015494567
193	0xbad5d38a	-0.0016313654
194	0x3d53d9c1	0.05172134
195	0x3ac3206d	0.0014886983
196	0x3cebe4f9	0.028795706
197	0xbcd5e5f3	-0.026110625
198	0xbd507d00	-0.05090046
199	0xbd51c23a	-0.05121062
200	0x3d950970	0.07277191
201	0xbd7fec76	-0.062481366
202	0x3d7fea73	0.062479448
203	0xbdece15e	-0.11566423
204	0xbb452c78	-0.003008632
205	0x3d19b39b	0.0375248
206	0xbd7782c8	-0.060427457
207	0x3e11296e	0.1417596
208	0x3e09af5c	0.134458
209	0xbe300ebc	-0.1719312
210	0x3d021ebd	0.031767596
211	0x3d987150	0.07443488
212	0xbc154003	-0.0091095
213	0xbcf9287d	-0.030414814
214	0x3e40ced6	0.18828902
215	0xbdb09745	-0.086226024
216	0x3c87e9d5	0.016590992
217	0x3d85c6c6	0.06532054
218	0x3d23a9ea	0.039956965
219	0x3e13cae0	0.1443286
220	0x3e3d20b2	0.18469504
221	0xbe167acc	-0.14695281
222	0x3d3d08a9	0.046150837
223	0xbdab5562	-0.08365895
224	0x3e8d3343	0.27578172
225	0x3db14234	0.08655205
226	0xbe42e536	-0.1903275
227	0xbcb435cc	-0.021998309
228	0x3d90d017	0.0707094
229	0x3c02de66	0.007987594
230	0xbd136ca4	-0.03599228
231	0xbd06c0f9	-0.032898877
232	0xbe25500a	-0.16143814
233	0x3dec57a1	0.115401514
234	0xbd7d1e35	-0.061796386
235	0x3e6b5469	0.22981419
236	0xbd81112f	-0.06302106
237	0xbc6f79cf	-0.014616444
238	0x3ddd601d	0.10809348
239	0xbd0e6fa7	-0.03477445
240	0xbdfa4f9d	-0.12222216
241	0xbe28585d	-0.16439958
242	0xbdbb6934	-0.09150925
243	0xbdb97732	-0.09055938
244	0xbe41ae44	-0.18914133
245	0x3cb38863	0.02191562
246	0x3cbf95c4	0.023386844
247	0x3d9544ef	0.07288539
248	0xbea363b7	-0.31912014
249	0x3da38630	0.079845786
250	0x3e4e0998	0.20120847
251	0x3db127bc	0.08650157
252	0xbc509e70	-0.012733087
253	0xbe035135	-0.12823947
254	0xbd55eb1b	-0.052226167
255	0x3de0c248	0.10974556

1.layers.4.0.bias f4 [80]
0	0xbc7a44cc	-0.0152751915
1	0xbd1af2c6	-0.037829183
2	0xbd48e91f	-0.049050447
3	0xbcf6004a	-0.030029435
4	0xbd24c352	-0.040225334
5	0xbd03cdb5	-0.0321786
6	0xbd08295f	-0.03324258
7	0xbd137611	-0.03600127
8	0xbce05403	-0.02738381
9	0xbd4556b0	-0.048178375
10	0x3a2e192b	0.00066413236
11	0xbd2bc9b5	-0.04194041
12	0xbce687eb	-0.028140983
13	0xbd479612	-0.048727103
14	0xbc38b6dc	-0.011274066
15	0xbd0d697e	-0.034524433
16	0xbbc66027	-0.0060539427
17	0xbced0188	-0.028931394
18	0xbd0a6e26	-0.033796452
19	0xbc9c6c5c	-0.019094639
20	0xbd6b6a84	-0.057474628
21	0xbbd5211b	-0.0065041906
22	0xbcc33e7e	-0.02383351
23	0xbd597ddc	-0.053098544
24	0xbc40a29a	-0.011757517
25	0xbc497cbf	-0.012297808
26	0xbd293193	-0.041307043
27	0xbd46c82a	-0.048530735
28	0xbb67fb22	-0.003539749
29	0xbc453439	-0.012036377
30	0xbc9e8e5d	-0.019354993
31	0xbd2430c9	-0.040085588
32	0xbc0dcfc9	-0.008655497
33	0xbd147bd9	-0.036250923
34	0xbc2c2464	-0.010506723
35	0xbd4e12a6	-0.050310753
36	0xbd1ffe32	-0.03906078
37	0xbcaae34c	-0.020860337
38	0xbce9f0c5	-0.02855719
39	0xbd71163b	-0.05885909
40	0xbce0ebf3	-0.02745626
41	0xbce128dc	-0.027485304
42	0xbcdf9d88	-0.027296796
43	0xbd396b55	-0.045268375
44	0xbcdd7353	-0.02703253
45	0xbd11f7c2	-0.03563667
46	0xbc762afb	-0.015024896
47	0xbd0128f7	-0.031533208
48	0xbc2581de	-0.0101017635
49	0xbba74136	-0.0051042093
50	0xbd368982	-0.04456473
51	0xbcdcbe83	-0.026946312
52	0xbd258321	-0.040408257
53	0xbca894a8	-0.020578697
54	0xbc5a4416	-0.013321897
55	0xbd2d98dd	-0.04238211
56	0xbd47f802	-0.048820503
57	0xbceff9eb	-0.029293975
58	0xbbd5fce4	-0.006530391
59	0xbd035a5b	-0.03206859
60	0xbd425e1a	-0.047453023
61	0xbc968afe	-0.018376824
62	0xbd1243e7	-0.035709288
63	0xbcefd1da	-0.02927487
64	0xbd1ccec6	-0.038283132
65	0xbd58c498	-0.05292186
66	0xbcd92a33	-0.02650938
67	0xbd2304ec	-0.039799616
68	0xbbfb94ed	-0.0076776654
69	0xbd720d14	-0.059094504
70	0xbcf27e9a	-0.029601384
71	0xbd17f1e1	-0.037095908
72	0xbd1d7c9f	-0.038448926
73	0xbd32b89b	-0.043633085
74	0xbcdc561d	-0.02689653
75	0xbd48a3d4	-0.048984364
76	0xbd543ba8	-0.051814705
77	0xbcd17f18	-0.025573298
78	0xbc385251	-0.0112500945
79	0xbc201f5b	-0.009773101
