DNNWeightsDefault/model_0/ensemble_1/zz_bbtt_4.onnx (onnx, 947112 bytes, 19 tensors)

0.embeds.0.weight f4 [2, 1]
000000 ab 3b 77 bf bd c2 87 3f
       -0.9657542 1.0606304

0.embeds.1.weight f4 [3, 2]
000000 4d f4 01 3f d9 bc bf 3e d3 03 97 3f 6f 5c ab bf
       0.507634 0.37448767 1.1798042 -1.3387583
000010 d4 17 92 bd bf 93 a7 bf
       -0.07133451 -1.3091964

0.embeds.2.weight f4 [2, 1]
000000 4d 8e 0b 3e 5e e7 df 3f
       0.13628502 1.7492483

0.embeds.3.weight f4 [5, 3]
000000 d8 ce dd bf 50 c7 af 3f 7d fd a7 3e b5 a7 58 3f
       -1.7328749 1.37327 0.32810584 0.846309
000010 10 28 b3 bf 8f 54 fe 3f 9d 3b 0b c0 14 dd 2f 3e
       -1.3996601 1.9869555 -2.1755135 0.17174178
000020 09 70 df 3f 6f 1b 33 bf 36 34 9d bf eb c2 69 be
       1.7456065 -0.69963735 -1.2281559 -0.22828262
000030 dc 71 c1 be 3f 79 a4 3d e8 0d de bd
       -0.3778218 0.08030938 -0.10842496

0.embeds.4.weight f4 [5, 3]
000000 94 34 95 3f dc c8 a5 3e e7 37 25 3e 7c 8f b3 3f
       1.165667 0.32379806 0.16134606 1.4028163
000010 ed ee 8c 3f 40 f9 c5 3f be 67 c7 3f c3 5b 98 3f
       1.1010414 1.546669 1.5578535 1.1903003
000020 9c d5 be bf 48 a7 0c bf 2e 3c 9b 3e 10 86 c0 3a
       -1.4908938 -0.5494275 0.3031935 0.0014688391
000030 16 b7 16 3e e0 e3 a3 bf 42 54 ba 3f
       0.14718279 -1.2803917 1.4556963

0.embeds.5.weight f4 [2019, 50]
000000 d3 ee 2d bf 41 be 95 bf 1e bf aa 3e 41 cf b4 bf
       -0.6794254 -1.1698686 0.33348936 -1.4125749
000010 98 50 4b bf ab 77 be 3e 65 c1 13 bf 58 09 1b be
       -0.7941985 0.37200674 -0.5771697 -0.15140283
000020 ac 93 9c bf 9d 41 f5 be 3c b2 e2 3d 26 ae a6 3f
       -1.2232566 -0.4790162 0.11069152 1.3021896
000030 44 3e 00 3f c8 55 52 3e e0 ff 27 3f 47 64 a7 bf
       0.5009501 0.20540535 0.6562481 -1.3077477
000040 21 22 7b 3e 67 01 7a 3f 31 1a d3 3e e2 ab 5d bf
       0.24524738 0.9765839 0.4123092 -0.865904
000050 1b 4b 8c 3c 44 63 43 bf e7 08 c8 3e b7 45 c8 3f
       0.017125657 -0.7632334 0.39069292 1.5646275
000060 2c b7 76 bf 64 2a 35 40 79 eb 8d bf 22 89 70 be
       -0.9637325 2.8307123 -1.1087486 -0.23489812
000070 82 b3 15 3f 73 fa 9f bf ad 6e a0 be f1 af e0 be
       0.5847703 -1.2498306 -0.3133444 -0.43884233
000080 5b 3b 91 bf 07 f5 30 bf 11 bb e3 3f 7b 5f 87 bf
       -1.1346239 -0.6912388 1.7791463 -1.0576013
000090 dc 91 e7 3f 62 ed 1f 3e a7 f4 ac 3f 75 8f 4e bf
       1.8091388 0.15617898 1.3512162 -0.8068765
0000a0 bb 1d 27 3c a6 9b 85 be bc 17 93 3f d8 4b ed 3f
       0.010199959 -0.26095313 1.1491618 1.8538771
0000b0 96 b2 4c 3e 77 0d 8b be 6b 1f 1e 3f 3d bc e9 bf
       0.1999 -0.2715871 0.6176669 -1.8260571
0000c0 d8 c7 ae 3f 27 f2 59 3f a5 57 c2 bf 0f ba 7e bd
       1.3654737 0.8513512 -1.5182997 -0.062189158
0000d0 a2 26 eb be 15 d8 22 be bc 5f 51 be 5e 55 66 3f
       -0.45927912 -0.15902741 -0.20446676 0.8997401
0000e0 fe 6a c3 3e f6 63 98 3f 88 7d 05 c0 77 05 49 3e
       0.38167566 1.1905506 -2.0857868 0.19630991
0000f0 a1 1f 77 bf 2b 6a 9f bf d5 9c 33 bf d4 21 db be
       -0.96532637 -1.2454275 -0.7016118 -0.42799246
000100 b5 c2 b5 bf b7 4d 4e bf f0 03 04 3f 86 83 61 3f
       -1.4200045 -0.80587333 0.5156851 0.88091314
000110 ca e2 7c 3e e9 26 5a bf 3e 6e 0b bf 9f 4c 82 bd
       0.24695888 -0.8521562 -0.5446509 -0.063622706
000120 3e 45 26 bf 54 d5 92 bf fb 7b d8 3f ce 9c f0 3e
       -0.64949405 -1.1471353 1.6912836 0.46994632
000130 9e 05 d6 bf 36 32 e9 3f a6 9b b0 bf 02 04 7e bf
       -1.6720464 1.8218448 -1.37975 -0.99224865
000140 44 40 97 bf a3 cc b7 3e 37 7a f0 bf be 48 67 3f
       -1.1816487 0.35898313 -1.8787297 0.9034537
000150 ca 11 ef 3f a7 ab 0f be a8 c9 9f bc 64 f7 3e bf
       1.8677304 -0.14030324 -0.019505337 -0.7459624
000160 27 46 33 bf 03 15 80 3f 49 ec 6b bf b3 fa a5 3f
       -0.7002892 1.0006412 -0.9215742 1.2967132
000170 de 41 9f bf 74 0e 31 bf da e1 5a 3f 1f 27 a4 3f
       -1.2441976 -0.6916268 0.8550087 1.2824439
000180 75 c7 de bd 4f 85 71 3e b2 96 52 3f 2a d3 03 3f
       -0.10877887 0.2358601 0.8226119 0.51494086
000190 a1 f3 bc 3e ae 19 00 3e 67 a3 a0 bf 51 d5 cf 3e
       0.36904624 0.12509796 -1.2549866 0.40592435
0001a0 87 83 6f 3f 31 f1 c2 3e 91 42 df 3e 40 09 8b 3e
       0.9356007 0.3807464 0.43605474 0.27155495
0001b0 90 41 19 3c 9b f5 9c 3e 8a 31 1e be 64 66 25 bf
       0.00935401 0.30656132 -0.15448585 -0.6460936
0001c0 16 e5 f9 3c d9 27 e2 be 41 bd 97 3f 98 46 22 bf
       0.030504744 -0.44171026 1.1854631 -0.6338897
0001d0 76 dd 6e bf d9 7f 25 3f 08 c7 79 bf 6e a3 ab 3c
       -0.9330667 0.64648205 -0.9756932 0.020951953
0001e0 8f b9 99 3f 31 46 f1 3f 85 c2 34 3f af 4d 8a 3f
       1.2009753 1.8849546 0.70609313 1.0804957
0001f0 2e 23 0e c0 7d 76 3c 3d 0e 74 c4 3f 24 f7 88 bf
       -2.2208972 0.046011437 1.5347917 -1.0700421
000200 65 0f 24 3d 9c 10 3b bf 0e 1e a2 bf f5 79 c0 be
       0.040053744 -0.7307222 -1.2665422 -0.37593046
000210 0b 5c 4d be 2c cc 6b 3a 73 d9 ac bd 12 3c a1 3d
       -0.20054643 0.00089949626 -0.08439913 0.07872786
000220 5d 4a 80 bf 7b 9c 29 bd 64 9b c8 bf c2 c9 96 3f
       -1.0022694 -0.041408997 -1.5672421 1.1780322
000230 b1 51 a3 3e 5f 75 2a bf 8a ee b0 bf 14 ad b7 3e
       0.31898263 -0.66585344 -1.3822796 0.35874236
000240 f1 af a6 bf 94 bd 4f 3f c8 b7 2c 3f 19 84 5b 3f
       -1.3022443 0.8114865 0.6746793 0.8574844
000250 df a4 b5 3e 79 89 d6 be c9 21 d6 be 33 be 46 3f
       0.3547735 -0.41901758 -0.4182265 0.7763397
000260 78 73 ef bd b6 5f df 3f 51 68 f8 3e 6e 4c c7 bf
       -0.11691946 1.7451084 0.48517087 -1.55702
000270 43 29 8f bf 32 b7 3f 3f 27 d6 a1 be 00 0a 9e bd
       -1.1184467 0.7488891 -0.31608698 -0.07716751
000280 6b 74 83 3f b9 24 6b 3f f8 a7 93 be 97 d2 b2 bd
       1.0269903 0.9185291 -0.28839087 -0.08731573
000290 06 c6 a1 3f c7 e5 2a 3e 68 23 79 bd 3b e6 99 3e
       1.2638557 0.16689216 -0.06082478 0.30058464
0002a0 c8 13 3e 3f c2 7d 49 bd c6 56 d7 3e 35 0d 32 bf
       0.74248934 -0.049192198 0.4205839 -0.695514
0002b0 d8 cb 12 bd b5 d4 98 bf 41 22 81 bf 69 2c f8 3e
       -0.03583893 -1.1939913 -1.0088578 0.48471382
0002c0 21 03 0a 3f 09 98 7a be a1 6c b4 bf 76 ec 47 bf
       0.53911024 -0.2447206 -1.4095651 -0.78095186
0002d0 5b 57 07 3e 15 be df 3f 70 1a 58 bc b1 d9 5f bf
       0.13216917 1.7479883 -0.013189897 -0.87441546
0002e0 e5 a0 88 bf 6f 4b 05 3f ba 94 f1 bf 4e ce f6 3e
       -1.0674101 0.5206823 -1.8873513 0.48204273
0002f0 da 3b 87 3f cb ba c5 be df 67 62 3f 00 dd 0b bf
       1.056514 -0.38619074 0.88439745 -0.54634094
000300 b3 57 0d 3e 57 1a 94 3f d7 0a 5c be ee ea 68 bf
       0.13802986 1.1570538 -0.2148851 -0.90983474
000310 30 39 42 bf 0d 69 00 c0 fd 70 61 3f d8 2a 94 be
       -0.7586851 -2.0064118 0.8806303 -0.28938937
000320 9e a2 20 40 03 e1 8d bf dc dc 51 be ac e4 1b be
       2.5099254 -1.1084293 -0.20494407 -0.1522395
000330 22 2f f0 3f 6b f3 34 be 3a be 74 3e 87 a2 98 bf
       1.8764384 -0.17670982 0.2390069 -1.19246
000340 2b 7a 55 3e 71 ba 15 3e c7 1b 84 bd 6e f6 e9 bf
       0.20847385 0.14621903 -0.064506106 -1.8278329
000350 4f b1 ae bf 08 21 a7 3f c7 1e 94 3f fa 67 dd 3e
       -1.364786 1.3056955 1.1571892 0.4324339
000360 db d1 7d 3d 29 e1 14 3f 76 c1 1d 3d 05 7d f8 3f
       0.061967712 0.5815607 0.038514577 1.9413153
000370 6c a5 8e bf 75 1d cc 3e 9a f3 53 3f df 50 9b be
       -1.1144233 0.39866224 0.8279358 -0.30335137
000380 ef 51 05 40 c0 97 b1 3f 31 ae 6f be 1f 3d a3 3f
       2.0831258 1.3874435 -0.23406292 1.2753028
000390 a0 d1 ca 3d b5 97 99 be 14 53 cf 3f 8f 43 a9 3f
       0.09903264 -0.29998556 1.6197228 1.3223742
0003a0 70 d8 0f bd ba 75 2c 3f ee 13 a2 3e 8b 7d 44 3d
       -0.03511852 0.67367136 0.3165583 0.04797129
0003b0 95 bf 1a 3f 12 a1 46 be bc 26 5f bf 30 ce b1 bf
       0.6044858 -0.19397381 -0.8716848 -1.3891048
0003c0 e4 7c 04 3d 32 39 c8 3f 45 b4 f4 3f e4 2e e2 3e
       0.032345667 1.5642455 1.9117514 0.441764
0003d0 0f 50 cb be 16 d4 bc be 6e e2 5b 3f a0 12 8a bf
       -0.39709517 -0.3688056 0.8589238 -1.0786934
0003e0 ef 7d 05 3f c5 07 8b bf 47 19 52 3f 1e 2f c9 3d
       0.52145284 -1.0861746 0.8206982 0.0982344
0003f0 03 14 cb 3e 46 21 5f 3f b1 a5 da bf a1 9c 9a 3e
       0.39663705 0.87160146 -1.7081815 0.30197623

1.layers.0.0.bias f4 [80]
000000 59 92 0c bd 70 9c 4e bd d7 fa 30 bc 62 fe 10 bd
       -0.034319256 -0.05044216 -0.010801992 -0.03539885
000010 aa f4 cc bc 7b 66 b3 bc ac 32 60 bd 84 81 ad bc
       -0.025019009 -0.021899452 -0.054735824 -0.021179922
000020 ff d1 a3 bd 16 4c 5d ba 5d 45 dd 3a 35 3f 28 bd
       -0.07999038 -0.00084418186 0.0016881634 -0.041075904
000030 b6 f7 2f bd 33 c7 da bc 9c 9e cc bc 6a 0d a7 3b
       -0.042960845 -0.026706314 -0.024977975 0.0050980346
000040 97 ce b6 3b 0b 1a 17 bd f0 9e d6 bc 46 21 1c bd
       0.0055788266 -0.03689007 -0.026198834 -0.03811767
000050 0d ba 4a bd 1e 61 2a bd f9 18 bf bd 89 10 86 ba
       -0.049493838 -0.041596524 -0.09330935 -0.0010228317
000060 82 03 2c bc 1b 09 2d bd 64 b7 51 bd 7c 0a 31 bd
       -0.010498883 -0.04224501 -0.051200286 -0.04322289
000070 b5 26 82 bd c1 31 64 3b 35 bc 27 bd b9 27 0d bd
       -0.06355039 0.0034819695 -0.040950973 -0.03446171
000080 b7 b1 88 bc 25 a7 3e bd 52 c2 fd bc 3a 09 84 3a
       -0.016686304 -0.04654612 -0.030976448 0.001007355
000090 e4 d9 29 bc 54 f7 ed bc 27 7e cf bc 2a b7 81 bd
       -0.010366891 -0.0290486 -0.025328709 -0.06333764
0000a0 03 48 89 bc 69 d6 76 bc 2b 3c 10 3c ff 8f c4 bd
       -0.01675797 -0.015065768 0.008803408 -0.095977776
0000b0 f7 b5 87 bd fc 92 e8 bc a0 09 0a bd d0 52 a7 bb
       -0.06626504 -0.0283904 -0.033700585 -0.0051063076
0000c0 1b 76 78 bd d3 04 4f bd 67 cf 58 bd 44 8b 8d bd
       -0.06065951 -0.05054171 -0.05293217 -0.069113284
0000d0 57 6c b1 bc 27 2b 0a bd ca e5 ee 3a 9c 0b 60 bc
       -0.021658106 -0.03373256 0.0018226441 -0.013674643
0000e0 56 7c 91 3b f7 f8 ad 3b e5 0f 55 bd 7e 94 73 bc
       0.004439871 0.00530922 -0.05201711 -0.014866946
0000f0 76 2d 04 bc c7 84 c8 bc 46 8f 00 bd 4b 5b 18 bd
       -0.008067479 -0.024477376 -0.031386636 -0.03719644
000100 09 27 a0 bd a8 dd 5f 3b 8b a5 23 bd 0b 67 1e bd
       -0.07819945 0.0034159217 -0.039952796 -0.03867249
000110 7b 4b e0 bc 35 d9 31 bd 2f d0 bf bc 7a 3f 4c bd
       -0.027379742 -0.043420035 -0.0234147 -0.049865223
000120 0b 0a a8 bc 9b 51 20 bc 42 28 67 3c e9 1b f7 bc
       -0.020512601 -0.009785081 0.014108719 -0.030164676
000130 6a b2 46 bc 47 aa 68 bd da db ab bd a8 13 ce ba
       -0.012127498 -0.056803014 -0.08391543 -0.0015722411

1.layers.0.0.weight f4 [80, 80]
000000 68 95 c9 3d 84 b6 34 3e e7 99 58 bc 05 77 0c 3e
       0.0984295 0.17647749 -0.013220287 0.13717277
000010 e2 32 3b be b0 53 1e be ec 36 b1 bd 47 92 12 bf
       -0.18281129 -0.15461612 -0.08653054 -0.5725445
000020 bf 85 08 bf 66 4e 55 bd e4 10 c8 3d e2 9e 21 be
       -0.5332908 -0.05207672 0.09768847 -0.15783265
000030 96 eb 86 3d ac ec b0 3d 54 ea f6 bd ce 62 37 be
       0.06587903 0.086388916 -0.12056413 -0.17908785
000040 fe 71 d1 bd 25 bd 2f be 2e 66 92 bc aa f0 40 be
       -0.102268204 -0.17161997 -0.017870989 -0.18841806
000050 0c 1e 02 3e af 6d c9 3c 37 48 4f 3e 87 25 2b 3d
       0.12706774 0.024588434 0.20242392 0.041783836
000060 6e 5d 26 be 55 38 e8 3d 5c 55 ff 3b c4 6b 0f 3c
       -0.16246578 0.113388695 0.007792158 0.008753721
000070 d1 e2 8e be 01 70 e7 3d b1 f5 f4 3d c2 a5 56 be
       -0.27907422 0.1130066 0.119609244 -0.20961669
000080 75 27 85 3d 4e f8 5b be 0d de 7b 3d e2 9c dc 3d
       0.065016665 -0.2148144 0.06149106 0.107721105
000090 5a 23 47 3e c9 2e f9 bd 03 96 50 be 1a 90 cc 3d
       0.1944708 -0.12167127 -0.20369725 0.09988423
0000a0 15 bc 83 3d 74 f8 d2 bd 8b 2d 45 be 9a 06 33 be
       0.06432358 -0.10301295 -0.19255655 -0.17482987
0000b0 30 0a 60 3e 50 8f a7 3d 48 62 f4 3d dc ec bb bd
       0.21878886 0.081816316 0.11932808 -0.09176037
0000c0 75 35 7d 3d 51 a1 0d 3e af 37 73 3e 17 55 82 3d
       0.06181856 0.13831069 0.2375171 0.06363886
0000d0 87 44 92 3e 3f b1 31 bd 68 fa 8a bc 75 54 e5 bd
       0.28567907 -0.043381926 -0.016965106 -0.111977495
0000e0 fd 26 22 3e 78 b0 8d bd bf da ae 3c 39 d4 2a 3e
       0.15835185 -0.06918424 0.02134454 0.16682519
0000f0 30 2d b9 3d a2 05 f4 bd 27 17 eb bd fc e8 16 3e
       0.09041822 -0.11915137 -0.11479025 0.14737314
000100 ae d7 26 be ac 3d 3e bb 1c 5e 4c 3d 03 7e 05 3d
       -0.16293213 -0.0029028459 0.049894437 0.032590877
000110 f5 99 1d be 2c ce f8 bd 89 46 1a be cf a6 d5 3d
       -0.15390761 -0.12148699 -0.1506597 0.10432207
000120 b8 03 9e 3e 15 cf 14 3d 3a 62 e3 bd 36 5a f2 bd
       0.30862212 0.0363303 -0.111027196 -0.118336126
000130 17 13 1a 3d fa 77 6a be 06 69 a9 ba 19 92 fc bd
       0.03761586 -0.2289733 -0.0012924976 -0.123325534
000140 21 7d ae bd e4 ea 37 be 54 af 84 3d 96 a7 14 3e
       -0.0851996 -0.17960697 0.06478754 0.14517054
000150 f7 d7 34 bc de 39 03 bd 56 46 93 be 27 99 30 3e
       -0.011037818 -0.03203761 -0.287646 0.17245923
000160 1a 78 a8 3d 6e 6a 55 3e 6b 49 1f be fd b7 b9 bc
       0.082260326 0.20841381 -0.1555535 -0.02267074
000170 6a 25 18 3e 13 75 34 3e 2c 25 80 3d 7d 20 f7 3d
       0.14858022 0.17622785 0.0625709 0.120667435
000180 43 1d 08 be 3b 02 56 3d 66 33 4e bb 3f e1 20 3d
       -0.13292412 0.05224822 -0.0031463741 0.03927731
000190 c0 5a a0 3e cc 40 ce 3e 16 ae 1b 3e 30 c7 4d be
       0.31319237 0.4028381 0.15203127 -0.20095515
0001a0 12 eb 98 3d 50 55 a2 be ba 70 41 3e 1c f1 6d bd
       0.07466711 -0.31705713 0.18890658 -0.058091268
0001b0 6e 84 33 bd fe a9 93 3e 54 b3 dd 3d bb e9 38 3e
       -0.043827467 0.2884063 0.1082522 0.18057911
0001c0 39 46 22 3e ae 45 27 bd 98 96 e2 bd 16 f2 78 3e
       0.158471 -0.040837936 -0.1106388 0.24311098
0001d0 07 89 ba 3c 43 37 4b 3e d5 13 40 3e 16 e6 84 bc
       0.022770418 0.198453 0.18757565 -0.016222995
0001e0 3b 99 07 3e d1 98 2c 3e 10 e9 0a be b0 d2 c7 3e
       0.13242047 0.1685517 -0.13565469 0.3902793
0001f0 ce da 49 be cb 70 3e be 30 84 4a 3d 3a 65 45 3e
       -0.19712374 -0.18597715 0.04944247 0.19276896
000200 26 02 c4 3a 95 e1 ee 3d 08 9c 13 3d cc fd da 3d
       0.0014954254 0.1166412 0.036037475 0.10692939
000210 ba be 64 3e 7c 17 29 bd f4 94 be bd 9d 5e 26 be
       0.22338381 -0.041282162 -0.09305754 -0.1624703
000220 23 16 c4 bb fd 6a 8e be b6 5e 91 bd 75 a0 de 3d
       -0.005984084 -0.27816 -0.07098143 0.108704485
000230 59 14 b3 3d 3d 32 36 3c 44 48 46 3d ec 36 29 3d
       0.087441154 0.011120376 0.04840876 0.041312143
000240 cb f0 28 be 2c 00 22 bd 7e 31 04 3e bc 5c 40 3c
       -0.16498105 -0.039550945 0.12909505 0.01174086
000250 b0 1f 68 be c1 1e 04 bd c4 3f 92 be b6 8c 39 3e
       -0.22668338 -0.03225589 -0.28564274 0.18120083
000260 18 4c 38 bb f6 39 71 3d 24 06 3b 3e f8 25 73 3d
       -0.0028121527 0.058893166 0.18264061 0.05936238
000270 6c 26 8c be c0 5d 42 bd a1 97 d6 3d 82 7c 01 3e
       -0.27373064 -0.04745269 0.1047814 0.12645152
000280 a3 f5 08 3e 6d 4a c0 3d 90 9c af be 19 c1 ad bd
       0.13374953 0.093891956 -0.34299135 -0.08484096
000290 d7 53 c2 bd 9a cf 9c 3d 9b 16 5e bd 15 a4 a5 bd
       -0.094886474 0.07656784 -0.054220777 -0.08087937
0002a0 01 f6 c7 3c 8e 5f b8 be 5e b5 7b 3c 36 70 ba 3d
       0.024409296 -0.36010402 0.0153630655 0.09103434
0002b0 7d c9 ca bd 53 71 13 be d7 a6 cc be 99 c0 19 3e
       -0.09901712 -0.14398699 -0.3997104 0.15014876
0002c0 0a 9b a1 be 9e 86 cb 3d f6 58 32 3e 46 86 91 bd
       -0.31563598 0.099377856 0.17416748 -0.07105689
0002d0 f5 d6 64 3d 97 d2 12 bf 84 fa d7 be 36 9f 9e be
       0.05586906 -0.57352585 -0.42183316 -0.30980843
0002e0 84 c6 c9 3c 23 3a 4e 3e 35 7a 5b be f6 ba a4 3d
       0.024630792 0.20139365 -0.21433337 0.080434725
0002f0 88 33 f7 bb 9c 2a 2b bd d0 61 87 3e d3 d7 89 be
       -0.007543985 -0.041788682 0.26441813 -0.26922473
000300 23 f6 96 3d 15 d3 7a be f2 9e 41 bd 72 a8 a4 3d
       0.073711656 -0.24494584 -0.047270723 0.08039941
000310 e9 92 9c bd 2f b0 08 bd 65 9c 1a 3d 1d 0b d8 3d
       -0.076452084 -0.033371147 0.037746806 0.10548995
000320 e5 a6 bf 3c c2 9c e0 bc b6 5e 85 be 6b e1 48 3d
       0.023395011 -0.027418498 -0.2604882 0.0490431
000330 d8 85 9a 38 38 ba dc bd ce e0 61 be 7c e7 f0 3d
       7.3682226e-05 -0.10777706 -0.22058412 0.11762902
000340 66 d1 d2 bd a3 7d 54 3c 82 3c 36 be 88 3c 35 3e
       -0.10293846 0.012969407 -0.1779652 0.17698872
000350 d1 99 e9 bd c6 fd 8a 3d 93 58 37 be 55 75 ac bc
       -0.11406291 0.06786685 -0.17904882 -0.021052042
000360 b2 2a 6e be d8 40 3c bd cb d5 36 be 22 c2 71 bd
       -0.23258474 -0.045960277 -0.17854993 -0.05902303
000370 f5 37 22 be 2d 76 80 bc 85 18 de bd ec 70 f9 bd
       -0.15841658 -0.01568135 -0.108445205 -0.12179741
000380 eb 64 e6 3d fa 9e 26 3e e1 49 52 3d 99 d1 9a 3e
       0.11249717 0.16271582 0.051339988 0.30238035
000390 44 4a 54 be e7 e9 2d be 07 08 9c 3d e1 a4 97 be
       -0.20731455 -0.16983758 0.076187186 -0.2961798
0003a0 53 82 09 3e 72 92 17 3e 89 10 38 be 1b f9 07 be
       0.13428621 0.14801958 -0.17975058 -0.1327862
0003b0 bf e7 d7 3d cb fd 25 bd bb 00 c3 bd 57 51 1c bd
       0.10542249 -0.04052524 -0.09521624 -0.03816351
0003c0 fe 08 39 3e a5 3f ff 3d e1 7a 93 bc eb 80 67 3c
       0.18069836 0.12463311 -0.01800293 0.0141298575
0003d0 f4 91 be bd 76 14 8a bd 52 bd bb bd ca fa 81 be
       -0.09305182 -0.06742184 -0.09166969 -0.2538665
0003e0 2a 5c bd bd e6 82 03 3f 5b 88 a1 bd 7d ae a4 be
       -0.092460945 0.5137161 -0.07887336 -0.32164374
0003f0 64 37 a1 be 80 20 2a bc f2 2e 62 3e e9 f9 2d be
       -0.31487572 -0.010383725 0.2208822 -0.16989864

1.layers.1.0.bias f4 [80]
000000 49 b6 09 bd 2c 96 38 bc d4 e8 37 bd 48 3c 00 bd
       -0.033621106 -0.0112662725 -0.044899777 -0.03130749
000010 08 45 0a bd 1c 74 0c bd 3a f6 a4 bc 3d b7 ea bc
       -0.03375724 -0.034290418 -0.020136941 -0.028651828
000020 59 e7 70 bc 73 ad a9 bc 25 07 6e bd f3 66 4b bd
       -0.014703595 -0.02071259 -0.058112282 -0.049658727
000030 45 fa f2 38 17 81 3e bc f4 50 e6 bb d8 f7 48 bd
       0.000115860756 -0.011627457 -0.0070286933 -0.049064487
000040 c3 c9 fa bc 84 b7 44 bd 13 3c 83 bd 76 ca 8f 3b
       -0.030613786 -0.048026577 -0.064079426 0.004388149
000050 a3 b8 b3 ba fe 6e 36 bd 76 8b 70 bc bd e2 24 bd
       -0.0013711642 -0.044539444 -0.014681688 -0.040255297
000060 20 a5 6d bd ef c3 18 bd 15 22 64 bd fe 0f 39 bd
       -0.058018804 -0.03729623 -0.055696566 -0.045181267
000070 a6 e3 2e 3c 16 28 b5 bc ca da 83 bd 7a a8 db bc
       0.010674393 -0.022113841 -0.06438215 -0.026813734
000080 ac 1b b4 bc 61 be a4 3b bd 0d 67 bd 8f 05 1d bd
       -0.021985851 0.0050275777 -0.056409586 -0.03833538
000090 ce cf a1 bc 28 c9 3a 3c 13 09 91 bc 80 5e 05 bd
       -0.01975241 0.011400498 -0.017704522 -0.032560825
0000a0 30 63 6b bc 41 55 6b bd ef 44 d9 ba 6a 4c 13 bd
       -0.01436691 -0.05745435 -0.001657633 -0.035961546
0000b0 4e 77 13 ba 73 8d d7 bc eb 4b 0c bd 1c 4e 0d 3c
       -0.0005625383 -0.026312565 -0.03425209 0.00862458
0000c0 f6 a3 34 bd 29 c0 e8 bb 02 12 27 bd 96 25 4f bc
       -0.044101678 -0.0071029854 -0.040788658 -0.0126432385
0000d0 46 cf 97 3c 57 85 0e bd 60 a2 02 bd 0a 6a 40 bd
       0.018531453 -0.03479513 -0.031893134 -0.046976127
0000e0 ee 67 85 bc 8d b1 52 3c 3d 32 7e bd 4d aa 1c bd
       -0.01628491 0.012859714 -0.06205963 -0.03824835
0000f0 6a 63 e8 bb 6f 0c 24 bb f7 1e 8e bc db 6e ef bc
       -0.007091929 -0.0025031825 -0.01734875 -0.029227665
000100 f4 13 a4 bc 72 8f 57 bd f4 35 93 bd 2c 17 83 bc
       -0.020029046 -0.052627034 -0.07188025 -0.01600226
000110 5b fa 28 bd 2e 57 76 bd 22 a6 78 bd 69 ff d6 bb
       -0.041254383 -0.060141735 -0.06070531 -0.006561209
000120 05 13 0f bd b8 c3 6e bd 90 57 c8 bc cf 78 3f bd
       -0.034930248 -0.05829212 -0.024455816 -0.04674607
000130 d8 d2 00 bd 18 cd 64 bc cd 05 bf bc e2 f5 52 3b
       -0.031451076 -0.013964914 -0.023318196 0.0032190015

1.layers.1.0.weight f4 [80, 160]
000000 d5 1b cd 3d 03 77 f0 bd 03 c9 33 be 49 22 6f be
       0.10015074 -0.1174145 -0.17557149 -0.23352922
000010 93 39 9e bd 21 34 e5 bd 23 fa cf 3c ee 17 9b 3c
       -0.07725825 -0.111915834 0.02538783 0.018932309
000020 37 81 9c 3d b7 c4 8b bd 0a de 3c bd f2 94 8c be
       0.07641833 -0.0682463 -0.04611019 -0.27457386
000030 94 dd 0c 3c af f3 65 3e 9f 0d 00 be 6e c1 b8 3c
       0.00859775 0.22456239 -0.12505196 0.022553172
000040 9d 20 82 3d 63 42 b5 bd 80 0e c8 3d dc 6f 5f bd
       0.06353877 -0.08850553 0.09768391 -0.054550037
000050 75 39 0b be 4c 93 1c 3e 76 55 56 3d 34 25 94 bc
       -0.13596137 0.15290564 0.052327596 -0.018084146
000060 7d cb 6d 3e 5a 35 44 3e 86 59 6e be 85 a1 b6 3d
       0.23222156 0.19160977 -0.23276338 0.08917526
000070 78 46 08 3e 62 ae 00 be 97 ff 75 bd d2 08 4e 3e
       0.13308132 -0.12566522 -0.060058203 0.20120552
000080 e3 c6 1d bc 40 7c d6 3a 41 f4 7b bd d2 e7 b3 3d
       -0.009629938 0.0016363934 -0.061512236 0.087844506
000090 16 a9 17 3e f8 0f 84 3d 08 57 1c be 79 28 aa 3d
       0.14810595 0.06448358 -0.15267575 0.08308501
0000a0 43 05 7d 3d f3 8a 73 3b 26 f5 6c bd 19 10 ef bd
       0.061772596 0.0037161678 -0.05785098 -0.11672992
0000b0 dd f3 1f be 4e 7c fb bc aa 42 9b bd a3 71 94 bd
       -0.1562037 -0.030698922 -0.075810745 -0.07248237
0000c0 e8 5c 4b be 59 a2 07 3e 1d 46 00 3e f5 ca 70 3e
       -0.1985966 0.13245524 0.12526746 0.23514922
0000d0 f8 00 97 3d 97 a4 c2 bd 42 ab 04 3e 1d c1 17 3c
       0.07373232 -0.09504049 0.12955955 0.00926235
0000e0 a4 83 2d bd 27 d9 1f 3e 09 3c 5e bd bb 3a 3c be
       -0.04236187 0.15610181 -0.054256473 -0.18381779
0000f0 60 dc 16 be eb 1c 7c 3d e2 6e 2c be 77 35 7d 3d
       -0.14732504 0.061551016 -0.16839173 0.061818566
000100 d5 76 4f be f6 1a 50 3e 0c 25 f0 bc 7c dd 4c be
       -0.20260175 0.20322785 -0.02931454 -0.20006365
000110 32 dd 56 3d 18 78 92 3c cf a6 41 be 8c a8 80 bd
       0.052457042 0.01787953 -0.18911289 -0.06282148
000120 19 e1 10 be 19 e4 36 3c 46 24 c7 bd 36 ff 3c 3e
       -0.14148368 0.011162781 -0.097237155 0.1845673
000130 a1 87 d0 bc 9b 94 26 bd 49 71 23 bd fd ff b4 bd
       -0.025455298 -0.040669065 -0.03990296 -0.088378884
000140 66 db e0 3d b9 05 f8 bc 9c 8e 13 be a1 23 0f bc
       0.10979347 -0.030276166 -0.1440987 -0.008736522
000150 e8 5a fa 3d 98 9b 0b be a8 50 96 3d c6 c5 03 3e
       0.1222437 -0.13633573 0.07339603 0.12868413
000160 9c 7d 53 3e 6a f3 67 be 46 c4 18 3e 7a e3 b2 bd
       0.20653385 -0.22651449 0.14918622 -0.08734794
000170 e6 b7 4b be 65 5b 6f be 3e 6f c1 3d c5 e7 c6 bd
       -0.1989437 -0.23374708 0.09445046 -0.09712175
000180 17 07 2e bd 20 8e ef 3d 3b 56 95 bd 2b 52 78 be
       -0.04248723 0.1169703 -0.07291838 -0.24250095
000190 25 3b 5f 3c 21 7b 5f 3a bf 37 c7 bb e9 76 f6 3d
       0.013624941 0.00085251225 -0.0060796435 0.12034399
0001a0 ea 97 5b be 80 f6 20 3d 0e 52 96 3b ac 48 b7 bd
       -0.2144467 0.03929758 0.0045874184 -0.08949408
0001b0 93 42 cf bd 09 7a 12 bd 04 c8 a8 3c ec b4 f4 3c
       -0.1012012 -0.035760913 0.020603187 0.029871427
0001c0 ac 6b 07 be 19 85 f4 bd bf bc d3 3d 50 93 22 be
       -0.13224667 -0.11939449 0.10338735 -0.15876508
0001d0 81 9e 04 be 5b 2a 27 bc bc b1 3d bd 30 f6 75 3d
       -0.1295109 -0.010202969 -0.04631208 0.060049236
0001e0 d8 de c5 3d 27 4c 65 be ed be 9d 3d 56 c2 58 bd
       0.09661645 -0.22392331 0.07702432 -0.05291971
0001f0 04 e1 bc ba b0 c8 8c bc 5b 20 99 3c c7 42 b0 3d
       -0.0014410322 -0.017185539 0.018692186 0.08606487
000200 e2 84 f6 3c 86 38 50 bc 24 8e d3 3d 16 ba 4a 3d
       0.03009266 -0.012708789 0.103298455 0.04949387
000210 73 5d 0c be 3c 7c 78 3e ed e8 63 3e e6 37 3c be
       -0.13707523 0.24266142 0.22256823 -0.18380699
000220 9f 58 fd 3d d0 9f 09 be 35 d0 a8 3d 52 d7 51 3c
       0.12370419 -0.1343987 0.08242837 0.012807684
000230 99 b3 00 3d df 82 52 3d 1b 61 0d be e5 2d 84 bc
       0.031421278 0.05139434 -0.13806574 -0.016135165
000240 59 86 9f be ca c1 02 3e 87 a8 5e 3a 60 8e 97 be
       -0.31157187 0.12769237 0.00084937405 -0.2960081
000250 02 de e9 3d 0a 01 f7 3d 2c 5c 87 be 5e 0f 38 bd
       0.11419298 0.12060745 -0.2643751 -0.04493653
000260 74 7d 8f 3d cb 74 89 3e 58 2c f1 3d a9 3f fa 3d
       0.0700635 0.26846918 0.11776036 0.122191735
000270 18 1c 9f bd 9b 5f 13 be b7 49 02 3e d3 61 42 3e
       -0.0776903 -0.1439194 0.12723432 0.1898263
000280 50 b8 a2 3d d6 09 00 be a1 4d 92 3d f5 6f 87 3d
       0.07945311 -0.12503752 0.07143713 0.06613151
000290 8b fe 2b be bf f8 00 be 88 fa 84 bd 5d b8 89 bd
       -0.16796319 -0.12594889 -0.064930975 -0.06724618
0002a0 78 cb e1 3c 40 3a c5 bd a7 c4 18 be 8a 8e d4 be
       0.027562842 -0.09630251 -0.14918767 -0.41515
0002b0 d0 5e f4 bd ee cb bd bd 34 af 83 be 82 15 31 bd
       -0.119321465 -0.09267412 -0.25719607 -0.043233402
0002c0 58 29 35 3e 77 14 28 be 5a ca 45 bd 14 ce 64 bd
       0.17691553 -0.16414057 -0.04828868 -0.055860594
0002d0 37 53 c3 bc c0 d5 de bd ac 7e 8f bd d1 9d 1b 3e
       -0.02384339 -0.10880613 -0.070065826 0.15196921
0002e0 ff 42 ea bb b1 17 74 3d de 51 87 3d f1 db cb bd
       -0.0071491 0.059592906 0.06607412 -0.0995406
0002f0 96 ed 17 be 84 1c d1 3d d1 6e 57 3d 0e db c6 bd
       -0.14836726 0.10210517 0.052595917 -0.0970975
000300 e3 b4 81 3e 81 d1 0b 3e a0 fb 6e bd 42 cd 77 be
       0.25333318 0.13654138 -0.058345437 -0.24199393
000310 dc 3f 09 3e c7 6c 1c 3d 88 17 69 3d 9d 79 40 3e
       0.13403267 0.038189676 0.056907207 0.18796392
000320 64 20 39 3e c9 d9 f9 bd 39 45 41 be 42 53 5e be
       0.18078762 -0.12199742 -0.18874063 -0.21711448
000330 ee 51 0d 3e 29 19 a7 bd b8 6a 2f 3d de 33 ae 3d
       0.13800785 -0.08159096 0.042826384 0.08505987
000340 e3 af d3 bd 6b 4d 61 be e0 f3 90 bd ca 16 35 be
       -0.10336282 -0.22002189 -0.070777655 -0.17684475
000350 05 91 f8 bc fc eb 5d bd 28 ea f6 3c 10 46 07 be
       -0.030342588 -0.05418013 0.030140951 -0.1321032
000360 fa bb 99 bd ea 5d 14 bd 38 61 07 3d e5 93 14 3e
       -0.07506557 -0.036222376 0.0330517 0.14509542
000370 4c 7b 20 3e 1b 26 f8 3d 22 26 05 be 56 02 99 bd
       0.15672034 0.12116643 -0.13002828 -0.07471149
000380 9e 86 e7 bd be ff 0c 3d 70 0d 61 bd 47 b8 5b be
       -0.11304973 0.034423582 -0.054944456 -0.21457015
000390 5a 47 f4 bd e1 bb 1b bd 89 da 42 3e ad 96 aa 3d
       -0.11927672 -0.038020972 0.19028677 0.083295204
0003a0 10 27 cb bd 0c 61 c9 bd fd 64 ef bd 63 f3 9b 3d
       -0.0991956 -0.09832963 -0.11689184 0.07614782
0003b0 6a 36 23 be a8 f5 ae bd 9d 58 39 be 9b e1 c3 bc
       -0.15938726 -0.08542949 -0.1810021 -0.023911288
0003c0 97 c1 b5 bd e2 35 30 be af f1 59 3c 96 e8 cb 3d
       -0.08874815 -0.17208055 0.013302251 0.099564716
0003d0 ba d5 95 be 3e 54 0f be 2d 64 c8 3d 4b 00 56 3e
       -0.29264623 -0.1399698 0.09784732 0.2089855
0003e0 32 5d 8d 3d 5f 75 86 bd 64 a7 f6 bd f5 59 88 bd
       0.06902541 -0.065653555 -0.12043646 -0.06657783
0003f0 d0 05 a4 bd 52 ba e6 bd 87 cb 31 3c 89 a4 4b be
       -0.08008921 -0.112660065 0.010851747 -0.19886984

1.layers.2.0.bias f4 [80]
000000 86 5e 8f 3b c8 72 6f bd ae f3 56 bd 51 68 cc bc
       0.0043752817 -0.058459073 -0.052478485 -0.024952086
000010 74 43 f3 bc 9b cc 81 3a 1b ad 87 bb b9 0c 01 bd
       -0.02969525 0.0009902896 -0.004140509 -0.031506274
000020 fa 16 82 bd 59 ce a7 ba 5b b3 8b bc fa 28 16 bd
       -0.06352039 -0.0012802585 -0.017053297 -0.036660172
000030 db 33 be bb b7 1f 83 bd 91 c4 e1 bc 91 58 45 bd
       -0.0058045215 -0.064025335 -0.02755955 -0.048180167
000040 92 c9 b5 bc 28 ec 18 bd bb f4 bf bc 51 95 18 bd
       -0.022190843 -0.03733459 -0.023432126 -0.037251774
000050 87 17 ec bc 87 7f 13 bd e8 7d e6 bc f4 9f db bc
       -0.028819812 -0.03601029 -0.028136209 -0.02680967
000060 5c 4c b6 bc e1 d6 d8 bc 82 18 f8 bb 94 40 e1 bc
       -0.022253208 -0.02646965 -0.007571281 -0.027496614
000070 f4 3e 35 bd 34 ef 9a bc 8f 38 32 bd 28 6d f4 bc
       -0.04424949 -0.018912889 -0.04351097 -0.029837206
000080 af 4b 2a bd 1f b0 28 bc d8 99 10 bd 6a 00 17 bd
       -0.041576084 -0.010295897 -0.035302967 -0.03686563
000090 7b 82 05 bd a7 fd 9b 3c a9 db 11 bd ff 03 04 bd
       -0.03259514 0.01904185 -0.035609875 -0.032230373
0000a0 e4 98 64 bd 54 97 65 bc 21 52 e8 bb e9 c0 58 bd
       -0.05580987 -0.01401313 -0.0070898687 -0.05291835
0000b0 7d 86 a5 bc 1a a8 55 bd 93 21 ee bb 71 c1 ae bc
       -0.02020573 -0.052162267 -0.007267186 -0.021332474
0000c0 90 ea 20 bb 8e cf ff bc e2 ed 1c bd 5e 2d 3f 3c
       -0.0024553873 -0.0312269 -0.0383128 0.011668531
0000d0 60 27 f5 bc 05 b5 76 bd fc 86 4a bd 3a c6 b6 bd
       -0.029926002 -0.060231227 -0.049445137 -0.089245275
0000e0 68 1f b3 bc 78 5b e0 bc 83 29 25 bd e0 ca ad bc
       -0.021865562 -0.027387366 -0.04032279 -0.021214902
0000f0 0d d1 06 bd da a2 34 bd 85 a7 97 bd a2 24 60 bc
       -0.03291421 -0.04410062 -0.07404999 -0.013680609
000100 32 2d 58 bd 49 00 1f bd 76 91 0b 3c fe c9 1f bd
       -0.052777477 -0.03881863 0.008518567 -0.039010994
000110 95 ed 82 bc a5 83 bb ba 90 7d 1f bd 53 54 f3 bc
       -0.015982429 -0.0014306201 -0.038938105 -0.029703295
000120 e5 dc 90 bc 44 7b e8 bc 21 fd ab bc 5c 38 42 bc
       -0.017683456 -0.02837909 -0.020994725 -0.011854257
000130 67 5a bd bc 49 d6 29 bc 0d e8 0f bc 1d 45 60 bc
       -0.023114396 -0.010366031 -0.008783353 -0.013688353

1.layers.2.0.weight f4 [80, 240]
000000 1c e0 75 3d a9 8f d5 bd 26 e2 af 3d 7b 4f 02 bc
       0.06002818 -0.104277916 0.08588056 -0.00795352
000010 ca a8 05 bd 00 37 9a 3d aa 3e ac 3c 45 34 37 bd
       -0.032631673 0.07530022 0.021025974 -0.044727582
000020 a0 b1 c4 3d 53 0c 4b bd 51 0d a3 bd 01 95 5c 3d
       0.09604192 -0.0495723 -0.07961524 0.05385304
000030 c5 3a b9 bd 73 3a 8c 3d a4 09 c5 bd 7a 32 cf 3d
       -0.090444125 0.06847086 -0.096209794 0.101170495
000040 b3 03 00 be 9b 08 21 be 30 78 f4 bd 7c fc 34 3e
       -0.12501411 -0.15725939 -0.119369864 0.1767444
000050 5e 1f 3a be 86 9c 06 bd c5 fd 10 3e e1 1c 36 bd
       -0.18176028 -0.032864116 0.14159305 -0.044461135
000060 33 ac 0e 3e cc 1e 0a be d7 1e 75 3d 29 30 f9 3d
       0.13932876 -0.1348831 0.059843864 0.12167389
000070 17 c1 98 bc d6 83 5b 3e 65 d6 14 3e 55 76 1b be
       -0.01864676 0.2143701 0.1453491 -0.15181859
000080 98 ed 88 3d 0d de 29 3e bb 6d 41 3d e5 5e bf bd
       0.066859424 0.16588612 0.047223788 -0.093442716
000090 6f 52 0b bc 43 e8 4f 3d 84 55 a4 3b df 8d c9 3c
       -0.00850354 0.05075861 0.005015077 0.024603782
0000a0 f7 53 1e 3e 30 61 76 bb 32 53 bc 3c 3e 1e 91 bd
       0.15461718 -0.003759455 0.02298889 -0.07085846
0000b0 3a 56 9f bd ef 23 00 be 65 fb ae 3d 3a 85 cb bc
       -0.07780118 -0.12513708 0.085440435 -0.0248438
0000c0 64 2d cf 3d 69 0d 42 be 92 1a eb 3c 3a 43 53 3d
       0.101160794 -0.18950428 0.028699193 0.051577784
0000d0 b7 85 d6 bc de 41 98 3d 23 db c9 3d 38 8a 8a bd
       -0.026186807 0.07434438 0.0985625 -0.067646444
0000e0 0c a4 75 be 8f 32 40 bd 42 33 0e 3e 08 40 a2 bd
       -0.2398836 -0.046923216 0.13886741 -0.07922369
0000f0 c5 0f 0e be 22 ca 1c bd c3 5f a8 bd f9 16 04 be
       -0.13873203 -0.038278706 -0.0822139 -0.12899388
000100 46 e3 15 be 78 ae 75 bd 3a d8 be bb 30 2b 13 ba
       -0.14637479 -0.05998084 -0.005824116 -0.00056140404
000110 59 4b ef 3d 94 a5 cb bd 16 3e be 3d ab 7b 40 be
       0.11684293 -0.09943691 0.09289186 -0.18797176
000120 f3 23 3b 3d 8b 8a 65 bd 29 d1 53 bd 10 91 41 3e
       0.04568858 -0.056040328 -0.051713143 0.18902993
000130 ef ba 50 bd 8d 45 04 3e b7 9f 09 be 81 b5 fc bc
       -0.050959524 0.12917157 -0.13439833 -0.030848267
000140 a2 bb 87 3b c3 36 aa bb 51 a7 59 3e 29 4b cc bc
       0.0041422406 -0.0051945164 0.21255232 -0.024938183
000150 fe f8 ca bd ac f4 d6 3b 15 21 7a 3d 97 6c a0 3d
       -0.09910773 0.006559929 0.061066706 0.07833212
000160 c0 2f 1b 3e 27 4b b8 bd d0 59 cd bb ca 18 20 3e
       0.15154934 -0.08998709 -0.00626681 0.15634456
000170 b9 7d 9b 3d 8a 76 b9 bc df 31 60 bd 1b 0e a4 3d
       0.07592339 -0.022639532 -0.05473506 0.08010503
000180 a6 18 b3 3c 0d b1 3e 3d 9b ab 82 bd 24 95 43 3d
       0.02186234 0.046555568 -0.063803874 0.047749653
000190 27 05 b9 3d 9a 9b de bd fe ef 47 3c 4b e0 a5 3b
       0.09034186 -0.108695224 0.012203215 0.005062138
0001a0 e7 7f 82 3d f1 4b cd bb 2b 70 e0 bc 6d ca 79 3d
       0.06372052 -0.0062651564 -0.027397236 0.060984064
0001b0 27 76 6e 3e ce 54 51 bc 92 6a ac 3d ed e9 21 3e
       0.23287259 -0.012776567 0.08418764 0.15811892
0001c0 3a b9 d0 bd e8 0f e7 3c 1e 86 50 bd b4 05 78 3d
       -0.10191579 0.028205827 -0.050909154 0.060552314
0001d0 3c 13 99 bd 3f e9 e2 bc 26 df af 3c d9 cd 3d be
       -0.07474372 -0.027699111 0.02146871 -0.18535556
0001e0 9e 28 16 3e 6d d4 cb bd 6f 9c a0 3c 36 7b 79 3d
       0.14663932 -0.099526264 0.019605843 0.06090852
0001f0 2b 5a 11 3e 9b 00 7a bd bc 61 c6 bc a3 df 73 3d
       0.14194553 -0.061035734 -0.024216525 0.05953945
000200 a2 f8 2e bc a7 d5 91 bb 1c ef 0e bd f3 7b 04 be
       -0.010679396 -0.004450518 -0.034896 -0.12937908
000210 27 a5 2f 3d 58 c4 33 3c ca 00 90 bd 46 b9 9a bd
       0.04288211 0.010972105 -0.070314005 -0.07554869
000220 da 3c 41 bd 53 6d fa bd 57 c7 e8 bd ce 5f 46 3e
       -0.047177173 -0.12227883 -0.11366146 0.19372484
000230 db 87 ed 3d 64 22 a7 bc 0d 5e c3 bc 34 13 29 bd
       0.11598178 -0.02040214 -0.023848558 -0.04127808
000240 b7 b4 ea bd 21 77 93 3d 48 e1 47 3d 12 06 dc bd
       -0.1146025 0.072004564 0.04879883 -0.10743345
000250 6a c1 28 bd 87 df 1b bb 4d db 04 bd c2 2f 31 3e
       -0.04120008 -0.0023784356 -0.032435704 0.17303374
000260 9d 76 18 3e ea 67 5f bb 4c 33 16 bd 8e de 83 bd
       0.14888997 -0.0034089037 -0.036670014 -0.06438933
000270 3c 5e 7c bd 19 60 32 be 89 50 1b 3d 62 5e 94 3c
       -0.061613306 -0.17419471 0.0379186 0.018111411
000280 77 9e ea 3d 5e 4c 27 3d 61 17 b9 3d 4e 21 2e 3c
       0.11456006 0.040844314 0.09037662 0.010628058
000290 a5 57 46 3e 92 69 fa bb 73 04 bc 3d aa c1 66 3d
       0.19369371 -0.0076419795 0.09180536 0.056337036
0002a0 fb 28 a1 bc 1b ca f3 bc a9 a2 2e 3d bd 21 ee 3d
       -0.019672861 -0.029759457 0.042635594 0.11627529
0002b0 f8 d0 81 3d 2d d4 1d 3e bf 54 02 be 05 3e 49 be
       0.06338686 0.1541297 -0.1272764 -0.19652565
0002c0 f1 23 91 3d fd 76 40 3e 91 06 bf 3b 28 7c ee 3b
       0.070869334 0.1879539 0.00582964 0.007277984
0002d0 4f 18 a1 3d 34 52 9f bd 4e 97 82 3d 95 1e 0d 3e
       0.078659646 -0.07779351 0.06376515 0.13781197
0002e0 2e ce ec bc 1a 83 a1 3c 0a b1 08 be 23 b3 00 3a
       -0.028906908 0.019715834 -0.13348785 0.0004909506
0002f0 c6 56 dd 3d 19 4c 39 3d 7c e7 c9 bd e7 6a ff 3d
       0.10807566 0.045238588 -0.09858605 0.12471562
000300 e2 ad 98 bd 71 52 f5 3c b0 6e be 3d 83 f5 1b be
       -0.074550405 0.029946538 0.09298456 -0.15230374
000310 6c e5 a8 bd 14 57 40 3d f0 24 b6 bb 8c fc 3d 3b
       -0.08246884 0.046958044 -0.0055586025 0.002898964
000320 e0 89 33 bd 48 c6 78 bd 61 6d 28 3b e0 7e 1d 3e
       -0.04383266 -0.06073597 0.002569996 0.1538043
000330 e1 4b 19 3e 29 f4 fd bd 25 67 d1 3c 92 16 92 bd
       0.14970352 -0.124000855 0.025561878 -0.07133211
000340 64 49 dd bc 18 d6 05 bd 9f 5b f3 3d 48 6b 11 be
       -0.027012534 -0.03267488 0.1188271 -0.14201081
000350 e5 af a5 bc c7 3e 72 bd 5b c8 a7 3d dc 5f 23 bd
       -0.020225475 -0.0591419 0.08192512 -0.03988634
000360 28 f5 1b 3c 27 1e 96 bd 25 5d 4c 3d e3 b0 48 bd
       0.009518899 -0.0732997 0.049893517 -0.048996817
000370 33 41 1c 3e b1 ed c5 bd ff 0b 56 3d 01 e2 0c bd
       0.15259247 -0.09664477 0.052257534 -0.03439522
000380 04 c9 14 be e9 f3 c6 3b 27 b1 48 3d 43 b2 3c 3e
       -0.14529806 0.006071557 0.04899707 0.18427376
000390 e8 f6 39 bd a1 25 83 3b 59 1c a7 b8 ee 3e cf 3d
       -0.045401484 0.0040022884 -7.968461e-05 0.10119425
0003a0 14 70 d4 bd 72 b6 ee 3c c0 6b 9a 3b 97 2f 2d bd
       -0.1037294 0.029139731 0.004712552 -0.042281713
0003b0 cb 90 82 bd b5 68 0a bd 10 3f fe bd de c6 47 bd
       -0.06375273 -0.033791263 -0.12414372 -0.04877364
0003c0 d5 d9 eb 3d 02 0e f4 bd 75 cc f3 bc b7 34 2d 3d
       0.115161575 -0.11916734 -0.029760579 0.0422866
0003d0 ec 86 ef 3c 7a 21 9d bb c1 3b 61 bd 40 30 65 bc
       0.02923914 -0.0047952505 -0.054988626 -0.0139885545
0003e0 79 71 46 3d 02 c4 df 3d 2b 97 c5 bd 4c 8b 4a 3c
       0.04844806 0.109260574 -0.096479736 0.0123623125
0003f0 c0 d4 81 bc 14 27 20 3e 40 18 c1 3d c6 44 39 be
       -0.015848517 0.15639907 0.094284534 -0.18092641

1.layers.3.0.bias f4 [80]
000000 f9 a2 49 bc 16 90 ba bc 32 d2 02 bd 05 56 47 39
       -0.012306922 -0.022773784 -0.03193874 0.00019010164
000010 65 68 0e bd 02 7f 6e bd df 0e c9 3b 12 e3 05 bd
       -0.034767527 -0.058226593 0.006135806 -0.032687254
000020 97 29 12 bd 47 d9 c3 bc d3 9b 28 bd 6d 44 6f bc
       -0.035684194 -0.023907317 -0.04116423 -0.014603716
000030 17 e0 03 bd 21 41 f6 bc 86 0f a1 bc 95 c4 b4 3a
       -0.03219613 -0.030060353 -0.019660722 0.0013791496
000040 bc c3 90 bc 3d d1 1d bb 27 74 41 bd ab 34 2b bc
       -0.017671458 -0.0024081015 -0.047229912 -0.010449569
000050 e8 7b c9 bc 5d 58 87 bb e9 bb 41 bd 4f 95 0f bb
       -0.024595216 -0.004130407 -0.047298346 -0.0021909063
000060 ce 39 e7 bc 4a 7b 61 3c 19 c1 d6 bc 43 25 41 bd
       -0.028225806 0.013762305 -0.026215123 -0.047154676
000070 5c fc f6 bc 4a 5f 81 bd 0a 55 8c bc c7 e8 b0 bc
       -0.030149631 -0.06317003 -0.017130394 -0.021595372
000080 5f 06 75 bd a1 b2 2d bd c6 7a c7 ba 29 8e 1d bd
       -0.05982053 -0.042406682 -0.0015219084 -0.038465653
000090 01 8f 9a 39 17 ab 9b bc 1c ed 1c bd 8a f5 dd 3b
       0.00029479715 -0.01900248 -0.038312063 0.0067736553
0000a0 37 52 09 bd b0 99 be bc 14 8b 91 bc 1f b3 86 bc
       -0.03352567 -0.023266643 -0.017766513 -0.016442833
0000b0 97 2e a3 bc 5e b8 ff bc fa 99 81 bc 1a 71 67 bd
       -0.019919677 -0.031215843 -0.015820492 -0.056504346
0000c0 56 41 40 bc 20 8e b6 bc 4d cf 9b bc fe a9 10 bc
       -0.011734327 -0.022284567 -0.019019747 -0.008829592
0000d0 6a ef 42 bc b4 8e b2 bc dc 21 4f bc 93 0b f9 bc
       -0.011897901 -0.021796562 -0.01264235 -0.030401027
0000e0 e2 98 85 bb 95 51 6a bc 0c d6 c0 bb ab 40 be bc
       -0.004077063 -0.014301677 -0.0058848914 -0.023224195
0000f0 f3 7d 13 bd ad 17 12 bd 43 7b 60 bd 44 81 8d bc
       -0.036008786 -0.03566711 -0.05480505 -0.017273553
000100 9d 2a cc 3b 8a d3 88 bc 25 cb 9e bb be d2 49 bd
       0.006230666 -0.016702432 -0.004845994 -0.049273245
000110 39 64 2a bc 48 e2 a5 bc 83 90 90 bc 7c 55 74 bc
       -0.0103998715 -0.0202495 -0.017647034 -0.014912959
000120 ee 39 f3 bc 77 d4 d9 bc 58 df 48 bd d7 dc 0e bd
       -0.029690709 -0.026590569 -0.049041122 -0.034878578
000130 d1 d5 8d bd d6 2f 2b bc 0b f5 8d bc 3e 6f 51 bc
       -0.06925548 -0.010448417 -0.01732876 -0.01278287

1.layers.3.0.weight f4 [80, 320]
000000 1f 08 cb bc 56 0b d5 3c a5 15 b1 bc 3a 83 4b bd
       -0.024784146 0.026006382 -0.021616766 -0.049685694
000010 48 8c 05 bd 43 17 c1 3d 76 bf 7f bd 25 94 f1 3a
       -0.032604486 0.09428265 -0.06243845 0.0018430991
000020 65 ac 3e bc 39 d9 d0 bc 4e e7 2e 3a e3 42 e5 3d
       -0.011637782 -0.025494205 0.00066720403 0.11194398
000030 e6 a3 ec 3c 3a e9 4a 3e 19 b7 80 bd 37 98 9d bd
       0.028886747 0.19815531 -0.06284923 -0.07695048
000040 bb b6 07 3e c0 66 fd bb 71 dd 35 be 8a ff 94 bd
       0.132533 -0.007733196 -0.17760254 -0.07275303
000050 07 c7 01 3d 0f 0c f7 3d 46 96 dd bd 88 93 ac 3d
       0.031683948 0.12062847 -0.10819678 0.08426577
000060 83 8c 0d bd 2b 44 b9 3d a6 2f ad 3b 54 c5 b1 3d
       -0.03455783 0.09046205 0.005285221 0.086802155
000070 d4 fa b7 3d f4 6a 45 bd fa b7 bc 3a 28 dc 4d 3d
       0.089833885 -0.0481977 0.0014398091 0.050258785
000080 7d f0 e4 bc 22 41 d2 3d 4e 0a d3 bc 42 83 d3 3d
       -0.027946705 0.10266329 -0.02576175 0.1032777
000090 21 2b fe 3d 5a 91 2b 3c d2 69 28 bd 76 2b cc bd
       0.1241057 0.010471666 -0.041116543 -0.09969227
0000a0 3a 7f cb bd b8 a9 0e 3d 41 44 e0 bc 1b df b4 bd
       -0.09936376 0.034829825 -0.027376296 -0.088316165
0000b0 db 56 80 3c b4 23 2a bd 8d 45 7f 3c 89 de f0 bd
       0.015666416 -0.041537955 0.015580547 -0.11761195
0000c0 7d d4 c4 3c 44 1d 70 3b 78 32 1e 3e 73 9b 87 bd
       0.024027104 0.0036638537 0.1544894 -0.066214465
0000d0 84 3e 14 bd 9e 0e 41 be f9 b1 ed 3d 43 fe 99 3d
       -0.036192432 -0.18853232 0.11606211 0.075192
0000e0 96 cf f7 bd 84 c9 d9 bc 8b 16 3a 3c 80 a7 29 3e
       -0.12100141 -0.026585348 0.011357914 0.16567802
0000f0 72 d0 f9 3a 09 0d e3 3b fd 57 85 3d ac 44 ef 3b
       0.0019059314 0.006929044 0.06510923 0.0073018875
000100 8b 41 1c bd b5 8b 86 3d ec cf a0 bc f9 b4 c1 3d
       -0.038148444 0.06569616 -0.019630395 0.09458346
000110 83 95 c1 3d ed 32 ba 3c d6 ca df 3c 13 7f 04 be
       0.09452345 0.022729361 0.0273184 -0.129391
000120 b9 b3 48 3b 92 33 c0 bc ce e9 b0 bd 93 6c 4c bc
       0.0030624701 -0.02346209 -0.08638345 -0.012477058
000130 3a dc 35 bd d4 9b ea bd cd 0d 2a bd 67 7b 78 bd
       -0.044399478 -0.11455503 -0.041517068 -0.06066456
000140 b6 b9 4e 3d 85 c3 0a bc 75 61 72 3d 60 a5 c6 bd
       0.050470077 -0.008469467 0.059174974 -0.096995115
000150 13 f2 df bd 02 b2 84 bd 60 7f ee bd 4a 08 ba bd
       -0.10934844 -0.06479265 -0.116453886 -0.09083612
000160 47 80 45 bb 09 b6 af bd d9 4a 8d bd 73 e5 16 3e
       -0.0030136274 -0.08579642 -0.06899042 0.14735965
000170 b8 dd 6c bd 7a 9e 9b bd 46 e2 bd bd 5d 71 29 bd
       -0.057828635 -0.075985864 -0.09271674 -0.041367877
000180 c4 89 8d bc 22 32 f7 bc 87 39 ef 3c 28 7e 97 bd
       -0.017277606 -0.030175272 0.029202236 -0.07397109
000190 01 8b 00 3c d3 13 52 3d e5 27 80 bc 61 5b 12 be
       0.007845641 0.051288437 -0.015644023 -0.14292671
0001a0 92 be bf 3c d6 d7 db bd 4b 27 8c bd ba f7 cc 3a
       0.0234063 -0.10734527 -0.06843432 0.0015637793
0001b0 4c bf 57 3d e8 c6 f5 bd a5 35 74 3c 39 09 d4 3d
       0.05267267 -0.12000829 0.014905368 0.103533216
0001c0 a0 06 39 bc e7 27 bc 3d f8 2b 2e be 5a 2e 3a bd
       -0.011293083 0.09187298 -0.1700896 -0.04545436
0001d0 08 3b 40 3d 0f 48 1d 3d ec 36 a4 bc 1f a8 c9 3d
       0.046931297 0.0383988 -0.02004572 0.0984652
0001e0 f1 85 2f be 2d 20 8d 3d 40 04 2f bd 6b 09 ec 3d
       -0.17140938 0.06890903 -0.042728662 0.11525234
0001f0 00 79 4d 3b 6d 53 61 3e c6 0f 3a be 81 8c 2d 3d
       0.003135264 0.2200448 -0.1817008 0.042370323
000200 83 f7 8a 36 f4 da 99 3d 08 58 6c bd 20 19 bc 3c
       4.1415346e-06 0.07512465 -0.05770114 0.0229612
000210 f3 de 9e bd be 74 32 3d df 78 ab bd e7 8a 09 bd
       -0.07757368 0.043568365 -0.08372664 -0.033579733
000220 01 ed e4 3c db 07 b0 3c 99 77 41 3d c7 56 41 3d
       0.027945044 0.02148812 0.047233198 0.047201898
000230 c2 45 1a 3e 7c 84 d5 bc ba d8 19 3c 71 42 10 be
       0.15065673 -0.02606415 0.009390051 -0.14087845
000240 e6 a4 aa bd a8 a2 40 bd a3 84 28 3e cd fc 8f 3c
       -0.08332233 -0.04703012 0.16456847 0.0175766
000250 c4 03 23 3d 0e ad ad 3d 57 7e 6f bd 0b 2a 02 3d
       0.039798513 0.08480273 -0.058470096 0.031778377
000260 96 d1 00 be 82 c0 28 bd 92 66 6e 3c 60 6e 0e be
       -0.1257995 -0.041199215 0.014550822 -0.13909292
000270 09 dc 8f 3d c5 08 bb 3d 98 4d db 3c c0 ee e1 3d
       0.0702439 0.09132532 0.026770398 0.11031866
000280 ee 13 1d 3d 78 26 19 bd 73 78 e5 3d e6 01 b5 3c
       0.038349085 -0.037390202 0.112046145 0.022095632
000290 94 2f 1b 3e 75 07 ce 3c 0a cf da 3d 72 5a 02 be
       0.15154868 0.02515004 0.10684021 -0.12729815
0002a0 17 97 1c 3b 4d 0f e2 bb 3c b8 9d bc 98 9c aa bb
       0.0023893768 -0.0068987967 -0.019252889 -0.0052066557
0002b0 ed 9b 6f bd dc e9 d3 bd 37 d9 10 bd 8f ef ca bd
       -0.05849831 -0.103473395 -0.035363402 -0.099089734
0002c0 f2 a5 2a be 30 be 8d bc b6 5a d0 3d 1d b1 fc 3b
       -0.16664866 -0.017302603 0.10173552 0.0077115432
0002d0 96 ad 00 3e c8 d6 1c 3d e3 a8 60 3d 72 8e 78 bc
       0.12566218 0.03829077 0.054848563 -0.01517068
0002e0 e7 1f 97 3d 92 42 ac bd 52 28 b4 bd ea 18 d8 bd
       0.07379132 -0.08411135 -0.08796753 -0.10551627
0002f0 25 06 a8 bd 7a b5 a2 3d 3b 70 b4 3d 0a 25 04 be
       -0.08204297 0.0794477 0.08810469 -0.12904754
000300 2a 8a c9 3c f3 c3 30 bd 61 47 85 bd e8 16 48 bd
       0.024602015 -0.04315562 -0.06507755 -0.04884997
000310 7b c3 01 bb bc 90 f8 bd f5 da ba 3d f1 3c 5f 3c
       -0.0019800353 -0.12136981 0.09123794 0.013625369
000320 1b 89 c1 bb b1 3a ba bc d3 e8 82 3d 51 73 f6 3c
       -0.005906237 -0.022733064 0.06392064 0.030084284
000330 fc ed ed bd 92 e9 92 bd 35 b9 0e 3d 07 04 84 bd
       -0.116176575 -0.07173456 0.034844596 -0.06446081
000340 44 c3 49 3d 8d 3a 27 bd 3d ce 0c 3d b5 f8 43 3e
       0.049258485 -0.040827323 0.03437637 0.19137843
000350 1e 5f c6 bb 76 51 9d bd eb d0 4d 3d 6b 72 4c be
       -0.0060538193 -0.07681553 0.050248068 -0.19965522
000360 b1 6a 93 3b 6d a7 e8 bd 31 24 2a bd f3 e7 05 bd
       0.0044988026 -0.11360059 -0.04153842 -0.032691907
000370 3c 70 8a 3c 72 7f 9b 3c a5 7b 40 bd df 0c 64 3d
       0.01689922 0.01898167 -0.046992917 0.055676337
000380 5d fa 48 bd 0c 08 ca bd 23 d1 1d 3d 14 20 c8 bd
       -0.04906689 -0.09864816 0.038529526 -0.097717434
000390 18 70 d3 3b 42 fa af bd ea 00 83 3e a5 32 b2 3d
       0.0064525716 -0.08592655 0.25586635 0.08701066
0003a0 4f 9b 12 be d0 91 c2 3c 1e 72 70 3c 8b 10 0c 3e
       -0.14317058 0.02375117 0.014675645 0.13678186
0003b0 dc 2a 22 3d 5d ed 77 3d fc 59 5c bc 4e 14 1d bd
       0.039591655 0.0605291 -0.013449188 -0.038349442
0003c0 73 5c 69 3d 6a 87 4d 3d de f3 1e bd a0 f0 bd bb
       0.056972932 0.05017797 -0.03880679 -0.005796507
0003d0 ad 68 1a bd ae e6 31 bd 2a be cc bc d4 21 a3 bc
       -0.037697483 -0.043432884 -0.024993021 -0.019913591
0003e0 c9 28 f2 3d 0c 71 d7 3d bb 8d aa 3d a1 48 9c bc
       0.118241854 0.10519609 0.08327814 -0.0190776
0003f0 33 0d 7d 3b e7 3f 82 bc 3b 70 fd bd 4f 69 a6 bd
       0.0038612604 -0.015899612 -0.12374922 -0.08125555

1.layers.4.0.bias f4 [80]
000000 55 2e e7 bc 87 d7 73 bc df 23 40 3b 96 5a 67 bd
       -0.028220335 -0.014882929 0.0029318256 -0.056482874
000010 aa 30 8b bc fa 1c 49 bc 17 e9 cf bb fd b3 a0 bc
       -0.016990978 -0.012274975 -0.006344925 -0.019617075
000020 56 a1 56 bd 6c f4 92 bc 82 63 c0 bc d3 8b 91 bc
       -0.052399956 -0.017938815 -0.023484949 -0.017766869
000030 84 b9 0f bd 0f 83 c3 bc e6 9c 02 bd 15 71 1e bd
       -0.03508903 -0.023866205 -0.03188791 -0.038682062
000040 92 d7 2d bc d1 49 87 bc 3c c0 c0 bc cc c2 f7 bc
       -0.010610478 -0.01651469 -0.023529164 -0.030244254
000050 46 b0 05 bd 5c 35 92 bc 67 ef f6 bc 31 f8 2d bd
       -0.03263881 -0.01784771 -0.030143453 -0.042473022
000060 0a 9b b7 bc ef 3f 11 bd 85 8d 3c bc 6e 5d 11 bd
       -0.022412796 -0.035461362 -0.01150835 -0.035489492
000070 f6 8d 0b bd e5 8a f4 bc 18 98 2b bc 29 ab 2f bd
       -0.03407093 -0.029851386 -0.010473274 -0.04288784
000080 14 25 41 bc aa 4f e2 bc 37 1b dc bc b5 11 19 bc
       -0.011788625 -0.027625877 -0.026868446 -0.009342601
000090 75 22 4d 3a e8 28 f5 bc 5a 55 80 bc 5e 64 b3 bc
       0.0007825264 -0.029926732 -0.015665699 -0.021898445
0000a0 02 21 5d bc 62 10 01 bd a6 52 9a bc 8b 26 d0 bc
       -0.013496639 -0.031509764 -0.018838238 -0.025409004
0000b0 8e cd 09 bd 6a b5 25 bd eb a9 9c bc be 78 2a bb
       -0.033643298 -0.040456213 -0.019123992 -0.002601191
0000c0 ed d8 11 bd 76 ca 7f bc d5 5b 39 bc 00 9a a3 bc
       -0.035607267 -0.015612235 -0.011313398 -0.019970894
0000d0 9d 70 2d bb 7b 01 d4 3a aa 13 b6 bc c7 50 91 bc
       -0.0026464828 0.0016174758 -0.022226173 -0.017738713
0000e0 ec f2 20 bc c9 b7 04 bd 91 ec 6c bc 6d 63 6e bd
       -0.009823542 -0.032401834 -0.014460699 -0.05820029
0000f0 40 5a 08 bd 3b c4 0e bd 37 7a af bc 14 dd d2 bc
       -0.033289194 -0.03485511 -0.021420581 -0.025740184
000100 4d 2a b9 bc a0 aa 74 3a 7d 3c 0e bc 68 c8 83 bc
       -0.022603178 0.00093332864 -0.008681414 -0.016086772
000110 b8 9d ea 3b 5e 00 80 bc de a2 30 bd c8 0f 48 bd
       0.007159915 -0.015625175 -0.043124072 -0.048843175
000120 c3 3f f5 bc 21 3c fc bc db 46 0d bd 19 80 f7 bc
       -0.02993763 -0.03079039 -0.0344914 -0.030212449
000130 3c 3c 48 bc 46 26 5c bc 9d a0 ee bc 37 0f e9 bc
       -0.012221392 -0.0134368595 -0.02912932 -0.028449638
