DNNWeightsDefault/model_0/ensemble_1/zz_bbtt_6.onnx (onnx, 947112 bytes, 19 tensors)

0.embeds.0.weight f4 [2, 1]
-0.364358 0.4645724
00000000: 228d babe 6fdc ed3e

0.embeds.1.weight f4 [3, 2]
1.2872821 0.011166976 -0.07717684 2.23214 -0.8395363 -0.46875742
00000000: a9c5 a43f b1f5 363c e40e 9ebd 62db 0e40
00000010: daeb 56bf f900 f0be

0.embeds.2.weight f4 [2, 1]
0.46076885 -1.5575598
00000000: e5e9 eb3e 1f5e c7bf

0.embeds.3.weight f4 [5, 3]
0.15005194 1.5026636 0.2983681 1.0422168 1.3492153 1.0424485 -0.3452138 0.32432842
0.5410001 0.5806887 0.049562145 -0.7095928 -0.538534 -1.4883307 0.45331416
00000000: 37a7 193e 4857 c03f b4c3 983e 5c67 853f
00000010: 16b3 ac3f f46e 853f ddbf b0be 600e a63e
00000020: fc7e 0a3f 04a8 143f ad01 4b3d e0a7 35bf
00000030: 5ddd 09bf 9f81 bebf cb18 e83e

0.embeds.4.weight f4 [5, 3]
-0.24352382 0.08881942 1.6432127 -1.1074141 0.9481367 -1.2213964 -0.80691344 -0.50092715
0.36923024 0.2832951 0.8182631 0.6599548 1.2137704 0.10662427 -0.06795748
00000000: 4f5e 79be f5e6 b53d cb54 d23f bfbf 8dbf
00000010: 16b9 723f b856 9cbf e191 4ebf c33c 00bf
00000020: bf0b bd3e 0e0c 913e b179 513f ccf2 283f
00000030: d45c 9b3f d35d da3d 4b2d 8bbd

0.embeds.5.weight f4 [2019, 50]
0.74799263 0.13918959 0.067302875 -0.87572765 -0.4633401 1.0359547 -0.7324906 0.25637358
0.029556602 -0.46781838 -0.7543098 -1.3237727 0.20092492 0.9051226 -0.7209102 -0.8683855
-0.800208 -1.0913886 -0.48203737 -0.6617167 -0.6098355 -1.0401082 -0.082788765 0.5699042
-0.6678559 -0.30983278 0.2994831 1.1282005 1.0972 1.3283672 -1.539497 0.9426839
-1.1359217 -1.6294626 -1.9909787 -0.46235 -0.02665442 1.2585393 -0.24053659 -0.52440906
0.49892682 -0.5793304 1.1715981 0.54261476 -1.6772809 0.5959654 -1.7377777 1.0782858
-0.012863346 0.24382849 -0.18432759 -0.227401 -0.8674459 -0.031086877 0.30055082 -0.21194972
-0.55293345 -0.107070014 2.9018996 0.79726464 -0.76606244 -1.1025963 -1.142385 0.72495955
0.16213116 -0.91787755 -2.0925596 1.5150889 -1.4584711 1.6210365 0.75046986 1.5819222
0.065362446 -0.81297576 -0.30563 -0.44394395 0.0011644092 0.41686657 -0.6401473 -0.74445873
0.11725079 1.2773043 0.34721074 0.3128498 -1.2017965 -1.0861292 -2.2223716 0.5901186
-0.4998853 2.020704 -1.0286727 -0.616015 0.39878526 1.126121 -0.0029043294 0.8425679
0.5356931 0.100525275 0.28657162 -1.2822493 -0.79513747 -2.2735088 1.3053987 -1.1730733
-0.1236422 -0.6117612 -0.108533025 -0.6680824 0.3167974 -1.2358022 0.345644 -0.629229
-2.3248522 -1.5295112 0.3660764 0.0870968 0.6546247 -0.8895161 -1.4374076 -0.43975285
-1.803266 0.5537024 0.4199018 0.113043725 -0.5702266 -1.4813352 0.45099708 0.43289542
-0.3228947 0.36373 -0.42381737 1.2515211 2.3693094 -0.5296758 1.697054 1.2462047
-0.9499154 -0.5758516 0.028695162 0.8342954 -1.0144902 -2.5427437 -0.32411933 1.0639771
0.5237563 0.17705388 2.3020127 0.28665146 0.32854474 -1.7799101 0.662292 -0.9228988
-0.60821915 -0.88930947 -0.6073302 -1.4101772 -0.26060468 0.48484492 0.7591588 1.4998996
-1.7687896 -0.5473469 0.23395693 -0.2417787 0.018131085 0.45122546 0.24908425 1.0154524
-1.269318 1.1509725 -0.13556409 -0.031329866 0.61246914 0.16534702 0.09826352 -0.61033857
0.38390377 -1.4568081 0.5594971 -1.4035935 -0.6075294 0.08545361 0.9367071 -2.0845811
0.20940952 0.4367775 0.1415935 -1.6165473 -1.382456 -0.111369014 -0.1579858 0.18583357
0.8996141 0.5438637 -0.43636033 -0.040765624 -0.6111632 1.848913 -1.0404512 0.3428404
0.23820344 0.13659231 -0.6482555 -2.1081462 -2.2707803 -0.34698677 0.8322626 -1.0317736
-0.7896383 -0.40892994 0.94471294 -0.3840513 1.2707491 0.84290576 0.55842316 0.65469843
1.0664531 -0.76068616 0.48481816 0.18912329 -1.18349 0.036377173 -0.43926638 -0.6018058
-0.2852255 0.52852035 0.54897696 0.08154198 -0.14056599 -0.22755913 0.8734623 -0.19747613
-0.05514727 -0.46341592 -0.53191817 1.6691765 0.74924 -1.0215133 -1.3144735 -0.65422136
0.32234246 1.1597433 -0.4982203 0.7496287 -0.1692564 -0.41884726 -0.06409667 -0.6272427
2.0432398 -1.5618085 0.08050063 -0.7099442 -0.6130095 0.94079936 -0.42158535 -0.5260505
00000000: 727c 3f3f b787 0e3e 17d6 893d b02f 60bf
00000010: ea3a edbe 2a9a 843f 8184 3bbf 6643 833e
00000020: b020 f23c e485 efbe 721a 41bf 6271 a9bf
00000030: 43bf 4d3e 1db6 673f 928d 38bf 834e 5ebf
00000040: 6eda 4cbf 9fb2 8bbf 9acd f6be 4466 29bf
00000050: 2e1e 1cbf 4422 85bf 288d a9bd 3ee5 113f
00000060: 9bf8 2abf 67a2 9ebe d955 993e e068 903f
00000070: 0d71 8c3f f007 aa3f 3d0e c5bf bb53 713f
00000080: e265 91bf 3b92 d0bf 64d8 febf 24b9 ecbe
00000090: 5f5a dabc d117 a13f 394f 76be ac3f 06bf
000000a0: 5673 ff3e ff4e 14bf edf6 953f cde8 0a3f
000000b0: 24b1 d6bf 3091 183f 806f debf 4505 8a3f
000000c0: c9c0 52bc 2dae 793e 5fc0 3cbe cfdb 68be
000000d0: ef10 5ebf e8a9 febc cce1 993e 5909 59be
000000e0: 0c8d 0dbf 8647 dbbd b9b8 3940 8919 4c3f
000000f0: ab1c 44bf e021 8dbf ac39 92bf f396 393f
00000100: b605 263e 06fa 6abf 7fec 05c0 6fee c13f
00000110: 2eaf babf 207e cf3f cb1e 403f 6d7c ca3f
00000120: bfdc 853d 2e1f 50bf 897b 9cbe 9f4c e3be
00000130: 179f 983a 896f d53e b2e0 23bf d994 3ebf
00000140: 2f21 f03d b57e a33f 9bc5 b13e d92d a03e
00000150: 78d4 99bf 4806 8bbf 563b 0ec0 0312 173f
00000160: f7f0 ffbe 3753 0140 8cab 83bf 29b3 1dbf
00000170: 952d cc3e bc24 903f 9056 3ebb 88b2 573f
00000180: 2f23 093f 32e0 cd3d 84b9 923e bf20 a4bf
00000190: 218e 4bbf 2b81 11c0 4e17 a73f 4427 96bf
000001a0: 1f38 fdbd 629c 1cbf 9046 debd 7307 2bbf
000001b0: 4533 a23e c42e 9ebf 40f8 b03e 2715 21bf
000001c0: 61ca 14c0 06c7 c3bf 5e6e bb3e cf5f b23d
000001d0: 7c95 273f 54b7 63bf f9fc b7bf 4927 e1be
000001e0: 6cd1 e6bf 71bf 0d3f 5efd d63e 7883 e73d
000001f0: 5ffa 11bf 649c bdbf 17e9 e63e 78a4 dd3e
00000200: 7452 a5be d23a ba3e 97fe d8be d831 a03f
00000210: c4a2 1740 d598 07bf 1139 d93f a383 9f3f
00000220: a82d 73bf 036b 13bf 1e12 eb3c 6294 553f
00000230: d1da 81bf 50bc 22c0 f8f2 a5be 6730 883f
00000240: e514 063f 9d4d 353e 2d54 1340 fbc3 923e
00000250: 0437 a83e 18d4 e3bf f88b 293f 1943 6cbf
00000260: 40b4 1bbf c9a9 63bf fe79 1bbf b080 b4bf
00000270: fa6d 85be 983d f83e 3b58 423f b6fc bf3f
00000280: b367 e2bf ed1e 0cbf 6892 6f3e d694 77be
00000290: a487 943c 0607 e73e f10f 7f3e 58fa 813f
000002a0: 0379 a2bf 1153 933f 50d1 0abe bf53 00bd
000002b0: c7ca 1c3f bb50 293e 623e c93d 263f 1cbf
000002c0: 098f c43e b078 babf 343b 0f3f f4a8 b3bf
000002d0: 0c87 1bbf 4d02 af3d 09cc 6f3f c769 05c0
000002e0: 736f 563e 4da1 df3e e3fd 103e 06eb cebf
000002f0: 51f4 b0bf 7015 e4bd 08c7 21be 284b 3e3e
00000300: 1c4d 663f a73a 0b3f 9f6a dfbe dbf9 26bd
00000310: 3175 1cbf 2ea9 ec3f 812d 85bf c788 af3e
00000320: 9aeb 733e dbde 0b3e 13f4 25bf deeb 06c0
00000330: 7754 11c0 40a8 b1be 290f 553f 2811 84bf
00000340: bc25 4abf 445f d1be b5d8 713f 5fa2 c4be
00000350: e8a7 a23f acc8 573f d2f4 0e3f 519a 273f
00000360: 8981 883f 54bc 42bf 163a f83e 89a9 413e
00000370: 9a7c 97bf 3b00 153d 86e7 e0be f20f 1abf
00000380: 1409 92be 1c4d 073f c189 0c3f 7bff a63d
00000390: 88f0 0fbe 4305 69be 3a9b 5f3f 2f37 4abe
000003a0: 1be2 61bd da44 edbe ca2b 08bf 93a7 d53f
000003b0: 31ce 3f3f f3c0 82bf ab40 a8bf 0d7b 27bf
000003c0: 120a a53e 7872 943f bb16 ffbe abe7 3f3f
000003d0: 8d51 2dbe 2673 d6be 1d45 83bd fa92 20bf
000003e0: 71c4 0240 57e9 c7bf 84dd a43d e7be 35bf
000003f0: 31ee 1cbf 3ad8 703f 09da d7be 3fab 06bf

1.layers.0.0.bias f4 [80]
-0.026885463 -0.03305015 0.021339362 -0.042897586 -0.0332789 -0.050824672 -0.047130466 -0.038090628
-0.01071237 -0.009389451 -0.0119873 -0.046348922 -0.032481045 -0.036733534 -0.051514544 -0.044662945
-0.084051475 -0.07377056 -0.040894106 -0.025364293 -0.037110046 -0.06635482 -0.057703324 0.0011181417
-0.020266302 -0.055814754 -0.025942551 -0.04037538 -0.025614908 -0.06719377 -0.040606827 0.006465199
-0.048456416 -0.05173057 -0.04322841 -0.07277985 0.009845198 -0.04341107 -0.10251293 -0.08042531
-0.054989256 -0.023937726 -0.054047085 0.027768403 -0.0427248 -0.016922204 -0.09187288 -0.017071007
-0.0065730084 -0.05329019 -0.045445323 -0.054162912 -0.035599504 0.0026709808 -0.028226044 0.012247448
0.007013236 -0.032413837 -0.028374199 -0.056924127 -0.021568773 -0.018784774 -0.008746119 -0.05686303
0.015860936 -0.08334363 -0.035323396 -0.04492387 -0.038022812 -0.07569695 -0.018386167 -0.04592316
-0.004523643 -0.043578647 -0.008171378 -0.035122406 -0.006630399 -0.033768576 -0.023307236 -0.018244438
00000000: e73e dcbc 985f 07bd e3cf ae3c 61b5 2fbd
00000010: 754f 08bd 882d 50bd e00b 41bd eb04 1cbd
00000020: f082 2fbc 36d6 19bc 6166 44bc 5ed8 3dbd
00000030: d80a 05bd e775 16bd ea00 53bd 7ef0 36bd
00000040: 2e23 acbd 0515 97bd 9480 27bd c7c8 cfbc
00000050: b400 18bd 09e5 87bd 525a 6cbd 9c8e 923a
00000060: 8405 a6bc 039e 64bd 7985 d4bc a860 25bd
00000070: 5bd6 d1bc e39c 89bd 5853 26bd 05da d33b
00000080: 3c7a 46bd 6fe3 53bd 4610 31bd 9a0d 95bd
00000090: c14d 213c cecf 31bd 4df2 d1bd 06b6 a4bd
000000a0: 6a3c 61bd 0d19 c4bc 7a60 5dbd 907a e33c
000000b0: 3300 2fbd 6fa0 8abc d927 bcbd 7fd8 8bbc
000000c0: 6462 d7bb d046 5abd e024 3abd eed9 5dbd
000000d0: c9d0 11bd 9f0b 2f3b 4e3a e7bc 85a9 483c
000000e0: 4acf e53b 5fc4 04bd 0271 e8bc 4629 69bd
000000f0: ffb0 b0bc 87e2 99bc e24b 0fbc 35e9 68bd
00000100: cbee 813c 11b0 aabd 44af 10bd 1802 38bd
00000110: cfbd 1bbd 0107 9bbd 969e 96bc ec19 3cbd
00000120: 113b 94bb 867f 32bd 3ee1 05bc 83dc 0fbd
00000130: d143 d9bb eb50 0abd d1ee bebc 5c75 95bc

1.layers.0.0.weight f4 [80, 80]
0.03990265 0.10672793 0.30722263 -0.17456222 -0.45276672 0.07120316 0.26335377 0.22227891
0.13893656 0.25431538 -0.0060175764 -0.10959745 -0.09873582 0.12027227 -0.23374818 0.35541534
-0.1404732 0.31760758 -0.01384279 -0.08421371 -0.049126808 -0.005376731 -0.05125994 0.23072144
-0.015203087 -0.066048905 0.20114641 0.19397385 0.30233777 -0.40666154 0.043252084 0.073151745
0.43711054 -0.25597298 0.103747666 -0.24524933 0.30254617 0.013626841 0.07366595 0.010231306
0.10746592 -0.19417424 0.17177601 -0.03305408 -0.058749557 -0.18393706 -0.1550238 0.20738187
-0.01217077 -0.17351957 0.07370418 -0.007152646 -0.27345464 -0.04123297 0.14418593 -0.035286017
0.0011866692 0.15049441 0.02450225 -0.06022084 -0.12169366 0.096847005 -0.0654521 0.0686587
-0.03318394 0.08574417 -0.16219664 -0.016919268 -0.0886676 -0.07214096 0.0028269787 -0.20294872
-0.059966926 0.096440315 0.21299231 -0.070850566 -0.07738438 -0.32612103 -0.15441988 0.09869499
-0.44176915 0.22046758 0.09333967 0.11420948 -0.44407684 -0.45312807 0.1979977 0.024211986
0.10366801 0.1574468 0.21486999 -0.126827 -0.07138294 -0.27214667 -0.52436423 -0.5529667
0.13870315 0.05838264 0.025854407 -0.183073 0.22178832 -0.038212754 0.13360308 0.12490361
-0.08138228 -0.18330482 0.040595163 0.029823128 0.042477403 0.04201752 0.17653245 0.31918707
0.21430175 0.14718404 0.120320514 0.17958163 0.3156569 -0.17897333 0.2491002 -0.21069781
-0.06716636 -0.006015252 0.21078564 -0.014883888 0.108509265 -0.019469813 0.044793736 -0.2936156
-0.087222084 0.036270797 -0.16123886 0.13681749 0.09123665 -0.015376443 -0.11285439 0.25770825
-0.057554673 0.0344061 -0.055666547 -0.10037303 -0.17025772 -0.23755687 -0.16551186 0.034421068
0.010793965 -0.36481136 0.30385092 0.17178337 0.11670665 -0.03771243 0.015994463 0.07102358
0.05533783 0.24772792 -0.058810994 -0.09769257 -0.1912471 -0.0934409 -0.0037029232 0.08146548
-0.20706291 0.19741836 0.2294734 0.13954565 0.0944679 -0.15374328 -0.15140055 -0.35366878
0.07170736 -0.22975376 -0.16858225 -0.24556766 -0.11444856 -0.15749435 0.0044527873 0.032857314
-0.098709494 0.022611713 -0.2684547 -0.09027098 0.08503954 0.1629854 0.025252169 0.44153166
0.27064025 -0.002079716 -0.28941038 -0.23540056 0.071352005 -0.08230156 0.09077292 -0.057281684
-0.059369363 0.19836292 0.2828047 -0.25608203 0.10916793 0.035442293 -0.05694393 -0.027300788
0.010632063 0.103484794 0.14652687 0.18175423 -0.11119124 0.007678429 -0.30927777 0.13589299
0.061186343 -0.20582184 0.03508419 0.042996 -0.018354814 -0.12637477 0.094536126 -0.15336393
-0.042847447 -0.015483944 0.034813404 -0.17275563 -0.15507455 0.088262424 -0.37140694 -0.13470209
0.11093618 0.14433351 0.044736326 -0.10521147 0.031922143 -0.20104814 0.11943597 0.09416694
0.21566845 0.27502987 0.022499343 0.45271334 -0.13574676 0.10751789 -0.14518192 0.05610757
-0.1789448 0.11144883 0.041012727 0.04672033 0.054219987 -0.030931322 0.19603454 0.14935264
-0.124050274 -0.38252676 0.017949322 0.05293929 -0.18638895 0.15631849 0.110843256 0.16082044
00000000: f670 233d 2c94 da3d 494c 9d3e 70c0 32be
00000010: 0ad1 e7be f6d2 913d 4ed6 863e 159d 633e
00000020: 6345 0e3e a035 823e 172f c5bb a174 e0bd
00000030: 0136 cabd 4f51 f63d af5b 6fbe 00f9 b53e
00000040: 35d8 0fbe 769d a23e dfcc 62bc 3d78 acbd
00000050: 3139 49bd 4a2f b0bb f1f5 51bd 3e42 6c3e
00000060: 5e16 79bc a644 87bd 53f9 4d3e 15a1 463e
00000070: 04cc 9a3e f135 d0be 1929 313d 95d0 953d
00000080: f4cc df3e e40e 83be a879 d43d a422 7bbe
00000090: 55e7 9a3e 1d43 5f3c 2cde 963d 35a1 273c
000000a0: 1817 dc3d 9dd5 46be 0de6 2f3e b763 07bd
000000b0: 60a3 70bd ff59 3cbe 8fbe 1ebe ea5b 543e
000000c0: e967 47bc 1daf 31be 38f2 963d be60 eabb
000000d0: 3f02 8cbe e7e3 28bd 7aa5 133e 1288 10bd
000000e0: 038a 9b3a 351b 1a3e f1b8 c83c 21aa 76bd
000000f0: 873a f9bd b957 c63d c00b 86bd ef9c 8c3d
00000100: e2eb 07bd a49a af3d e016 26be 479a 8abc
00000110: 5c97 b5bd a4be 93bd d544 393b cad1 4fbe
00000120: e19f 75bd 8082 c53d a81a 5a3e 1a1a 91bd
00000130: b47b 9ebd 56f9 a6be 3f20 1ebe 9920 ca3d
00000140: 912f e2be 41c2 613e de28 bf3d a9e6 e93d
00000150: 0a5e e3be 6700 e8be e9bf 4a3e 3758 c63c
00000160: e54f d43d bc39 213e e106 5c3e f0de 01be
00000170: 3831 92bd cf56 8bbe bc3c 06bf 3a8f 0dbf
00000180: 3308 0e3e a322 6f3d 9fcc d33c 7d77 3bbe
00000190: 7a1c 633e fa84 1cbd 3fcf 083e 77cd ff3d
000001a0: c1ab a6bd 42b4 3bbe 1d47 263d a24f f43c
000001b0: c9fc 2d3d 901a 2c3d ecc4 343e 7d6c a33e
000001c0: eb71 5b3e 6ab7 163e 9a6a f63d 3fe4 373e
000001d0: c89d a13e c944 37be 1f14 7f3e 2bc1 57be
000001e0: 848e 89bd 971b c5bb 31d8 573e 8ddb 73bc
000001f0: 1b3a de3d 287f 9fbc a379 373d c954 96be
00000200: 7ea1 b2bd b090 143d cd1b 25be e219 0c3e
00000210: 48da ba3d 7aed 7bbc 3420 e7bd 56f2 833e
00000220: 73be 6bbd 69ed 0c3d 9b02 64bd 6090 cdbd
00000230: 0a58 2ebe 1c42 73be f17b 29be 1bfd 0c3d
00000240: 2cd9 303c 8ec8 babe 5992 9b3e fbe7 2f3e
00000250: e503 ef3d 5978 1abd d206 833c d074 913d
00000260: eca9 623d 63ac 7d3e cce3 70bd 0b13 c8bd
00000270: 48d6 43be f15d bfbd beac 72bb 60d7 a63d
00000280: 4d08 54be 0a28 4a3e 13fb 6a3e 0ee5 0e3e
00000290: 6378 c13d e16e 1dbe bf08 1bbe 1314 b5be
000002a0: 4fdb 923d 9244 6bbe d3a0 2cbe 1776 7bbe
000002b0: 0264 eabd 3346 21be b0e8 913b 6495 063d
000002c0: 3428 cabd 333c b93c e572 89be fedf b8bd
000002d0: 3629 ae3d a5e5 263e a3dd ce3c 7010 e23e
000002e0: 5c91 8a3e d84b 08bb 992d 94be d80c 71be
000002f0: 0021 923d b88d a8bd 27e7 b93d 33a0 6abd
00000300: 4a2d 73bd a61f 4b3e c7cb 903e 2f1d 83be
00000310: 7093 df3d f02b 113d 0a3e 69bd e7a5 dfbc
00000320: 1b32 2e3c d6ef d33d 240b 163e c81d 3a3e
00000330: 3cb8 e3bd 559b fb3b a859 9ebe 8827 0b3e
00000340: 889e 7a3d f6c2 52be 71b4 0f3d 931c 303d
00000350: d65c 96bc 6368 01be 289c c13d 6f0b 1dbe
00000360: ce80 2fbd 5eb0 7dbc 8098 0e3d dae6 30be
00000370: ddcb 1ebe eec2 b43d 0d29 bebe 58ef 09be
00000380: 8232 e33d 2acc 133e 703d 373d 1c79 d7bd
00000390: cbc0 023d 90df 4dbe d99a f43d 99da c03d
000003a0: 31d8 5c3e b7d0 8c3e 8b50 b83c 0bca e73e
000003b0: 3301 0bbe 5732 dc3d 92aa 14be 0dd1 653d
000003c0: 4e3d 37be 493f e43d f6fc 273d d15d 3f3d
000003d0: c715 5e3d af63 fdbc 47bd 483e e6ef 183e
000003e0: 120e febd 8cda c3be 750a 933c ded6 583d
000003f0: bfdc 3ebe f411 203e ca01 e33d 1dae 243e

1.layers.1.0.bias f4 [80]
0.008814357 -0.054160472 -0.01864545 -0.029339606 -0.060537744 -0.016099408 -0.015620709 -0.026558839
-0.027708534 -0.017328722 -0.03452288 -0.019766074 -0.035170514 -0.05919718 -0.03987466 -0.034523204
-0.041636072 -0.049718704 -0.012403918 -0.026794365 -0.051248215 -0.040628094 -0.062792614 -0.060598947
-0.074315675 -0.058260053 -0.047758445 -0.026183201 -0.021746244 -0.032543927 -0.031002 -0.01827728
-0.0645686 -0.0073209256 -0.044586167 -0.043402016 0.008247815 0.022812942 -0.031780124 -0.013970366
-0.06185521 -0.03394456 -0.035787735 -0.016304493 -0.0317161 -0.05557808 -0.012258979 -0.027249528
-0.032225877 -0.04590767 -0.0129256 -0.060941756 -0.061054163 -0.076569915 -0.079175726 -0.058771852
-0.052962586 -0.009638627 -0.021605296 0.009708717 -0.011203655 -0.05073123 -0.062816925 -0.057995208
-0.026247324 -0.002371068 -0.045853745 -0.09096055 -0.06651853 -0.057596684 -0.034681324 -0.029292457
-0.02686939 -0.027381541 -0.024540853 -0.03743505 -0.052393302 -0.025580673 -0.04270045 -0.00095225143
00000000: 186a 103c 5fd7 5dbd 58be 98bc 9d59 f0bc
00000010: 6df6 77bd e8e2 83bc 01ee 7fbc ec91 d9bc
00000020: 02fd e2bc f7f4 8dbc dd67 0dbd 76ec a1bc
00000030: f50e 10bd be78 72bd 9d53 23bd 3468 0dbd
00000040: 968a 2abd d7a5 4bbd ce39 4bbc db7f dbbc
00000050: a6e9 51bd a569 26bd 6a99 80bd 9a36 78bd
00000060: d132 98bd 18a2 6ebd 5c9e 43bd 277e d6bc
00000070: 2e25 b2bc c84c 05bd e8f7 fdbc 3cba 95bc
00000080: 8b3c 84bd 60e4 efbb fc9f 36bd 50c6 31bd
00000090: d821 073c 35e2 ba3c e02b 02bd f6e3 64bc
000000a0: e45b 7dbd 7309 0bbd 2996 12bd 0091 85bc
000000b0: bee8 01bd d7a5 63bd e2d9 48bc 673a dfbc
000000c0: 48ff 03bd ae09 3cbd e5c5 53bc 109e 79bd
000000d0: ee13 7abd b0d0 9cbd e226 a2bd c1ba 70bd
000000e0: 4cef 58bd 55eb 1dbc 97fd b0bc 5011 1f3c
000000f0: 898f 37bc 8dcb 4fbd 29a6 80bd 628c 6dbd
00000100: a104 d7bc ec63 1bbb 23d1 3bbd 8649 babd
00000110: de3a 88bd 80ea 6bbd 010e 0ebd bcf6 efbc
00000120: 321d dcbc 414f e0bc e609 c9bc 7f55 19bd
00000130: 5c9a 56bd 8f8e d1bc abe6 2ebd 83a0 79ba

1.layers.1.0.weight f4 [80, 160]
0.20494236 0.04307752 0.22976895 -0.04740847 0.09257059 0.017220883 -0.10924112 -0.18702652
-0.17106836 -0.007486511 -0.077020235 -0.16162968 -0.23577139 -0.14582425 -0.07608865 0.0023126262
0.15371644 -0.07280959 0.24803802 -0.16846557 0.055604827 0.084701024 0.1417239 -0.12503612
-0.17983542 0.014462172 -0.04964025 -0.18206073 -0.037633475 0.04349031 0.032407224 0.049502097
-0.14656688 0.024841387 -0.013848591 -0.03484767 0.013828558 0.18323258 -0.10528599 -0.07682381
0.09196411 0.102489576 -0.15901072 -0.06524028 -0.28955898 -0.14139697 0.15369317 -0.080953956
0.02171951 -0.15257268 0.1144037 -0.043403424 -0.12191452 -0.1541668 0.048238628 0.20550498
-0.03598605 -0.066232115 -0.107132524 0.17841345 0.01957605 -0.04686993 -0.05186911 0.041756056
-0.018505655 -0.069602616 -0.13373554 0.24463777 -0.032035556 -0.18947934 -0.10482363 0.002959616
0.07441545 -0.117854424 -0.10264355 -0.18665409 -0.039384156 -0.09950673 0.10150734 -0.18007341
-0.4183674 0.24539407 -0.16315693 -0.12028217 -0.3942564 -0.26911238 -0.024239205 -0.200439
-0.18060313 0.11127346 0.28422147 -0.57134897 -0.029791739 0.010872514 -0.20176347 -0.023580233
-0.006788717 0.09873922 0.08854858 0.040797234 0.10585681 -0.13819923 0.040124767 -0.27419713
0.019710375 0.04057013 -0.04408175 0.31588107 0.018261863 -0.14546229 0.076102994 -0.10487253
0.041775506 0.026552383 -0.05850781 -0.05890097 -0.15657097 -0.016040146 0.08828457 0.1940053
0.06759573 0.036421694 0.01749177 -0.16193658 -0.13748898 0.106078506 -0.00517947 0.02928748
-0.2052971 -0.15429641 -0.086598046 0.015505242 0.049064957 -7.890555e-05 -0.085040495 -0.021614404
-0.021007678 0.14095429 -0.17607275 0.108022265 0.07068237 -0.11212785 0.013094763 0.076540746
-0.0864193 -0.0925108 -0.053058323 -0.05345405 0.10400214 -0.014504071 0.024592055 -0.05156042
0.07119203 0.14524473 0.010479702 -0.1895514 -0.01243025 -0.002997221 -0.027478455 0.13639815
-0.034628388 0.19663492 0.08357126 -0.0050637606 0.108492196 -0.15167634 -0.04475106 -0.023750503
-0.051957723 0.047426596 -0.0052710306 -0.0108396355 0.1024588 0.069370694 0.080463685 -0.059666134
0.013385416 -0.07790474 -0.20554188 0.16943601 0.10710505 0.13805519 -0.11549066 -0.067436025
-0.15248169 -0.106016226 0.020642405 -0.02227516 0.020419696 0.16323549 0.12224608 0.016958317
-0.17721945 -0.00023656327 0.03678066 0.048566416 0.35574514 0.0072994092 -0.039843094 0.264502
0.26438084 0.009867662 -0.15826449 -0.20878713 -0.20846353 0.18353921 0.042831015 0.082605936
-0.2964312 -0.06485043 0.007155468 0.00017020508 0.001111343 -0.08087121 -0.07031869 -0.02272229
-0.057714965 -0.06846939 0.00022611418 -0.031572264 -0.08590413 -0.11538303 -0.14221328 0.025372824
-0.16979125 -0.082715794 0.2726946 -0.15314744 0.087661125 -8.313997e-05 0.15766066 0.13396764
0.13664214 0.079518296 0.12618062 -0.14046003 0.05496013 0.0035568292 0.009548255 -0.08414526
-0.07409916 -0.03736609 0.022580435 0.030443363 0.15285434 -0.007813667 0.14028472 -0.13520508
0.20887274 -0.19766717 -0.13769405 0.2718559 0.12510109 -0.111575104 0.059710607 0.13714452
00000000: 69dc 513e 0e72 303d 8d48 6b3e 622f 42bd
00000010: a695 bd3d cf12 8d3c cfb9 dfbd e183 3fbe
00000020: 8b2c 2fbe 6851 f5bb c9bc 9dbd 4082 25be
00000030: 0e6e 71be f452 15be 5ed4 9bbd 6e8f 173b
00000040: d867 1d3e 321d 95bd aefd 7d3e 3d82 2cbe
00000050: e3c1 633d bb77 ad3d 1220 113e 7809 00be
00000060: c726 38be bff2 6c3c 9353 4bbd 216e 3abe
00000070: 8f25 1abd e522 323d 70bd 043d b6c2 4a3d
00000080: a115 16be 2a80 cb3c 33e5 62bc 6ebc 0ebd
00000090: 2d91 623c 52a1 3b3e 2ea0 d7bd cd55 9dbd
000000a0: ae57 bc3d 0ee6 d13d b5d3 22be b29c 85bd
000000b0: 1341 94be 5eca 10be be61 1d3e 30cb a5bd
000000c0: 1ded b13c 033c 1cbe 7d4c ea3d cac7 31bd
000000d0: 52ae f9bd e7dd 1dbe de95 453d e66f 523e
000000e0: 1c66 13bd b4a4 87bd 4c68 dbbd 04b2 363e
000000f0: f45d a03c affa 3fbd b474 54bd 6608 2b3d
00000100: 2c99 97bc d18b 8ebd f8f1 08be 5382 7a3e
00000110: b737 03bd df06 42be c5ad d6bd 1ef6 413b
00000120: 2167 983d a95d f1bd c836 d2bd 4022 3fbe
00000130: 4851 21bd 2fca cbbd 15e3 cf3d 2a65 38be
00000140: 4034 d6be 9548 7b3e 9c12 27be 8056 f6bd
00000150: fadb c9be 19c9 89be 4c91 c6bc e23f 4dbe
00000160: 07f0 38be 57e3 e33d 7a85 913e ed43 12bf
00000170: ce0d f4bc a122 323c 159b 4ebe 552b c1bc
00000180: e373 debb ca37 ca3d f558 b53d 001b 273d
00000190: 75cb d83d 1984 0dbe de59 243d 9163 8cbe
000001a0: a777 a13c dd2c 263d 118f 34bd 2abb a13e
000001b0: e799 953c 11f4 14be e3db 9b3d 69c7 d6bd
000001c0: cb1c 2b3d 6284 d93c e3a5 6fbd 2542 71bd
000001d0: 2454 20be a066 83bc 8ace b43d 53a9 463e
000001e0: a16f 8a3d ea2e 153d e74a 8f3c b4d2 25be
000001f0: e9c9 0cbe b03f d93d 8bb8 a9bb 4cec ef3c
00000200: 6739 52be e1ff 1dbe 515a b1bd b309 7e3c
00000210: 56f8 483d 187a a5b8 b629 aebd b110 b1bc
00000220: 4b18 acbc 5256 103e 6a4c 34be c73a dd3d
00000230: ebc1 903d 49a3 e5bd 6b8b 563c 65c1 9c3d
00000240: 9afc b0bd 4d76 bdbd af53 59bd a2f2 5abd
00000250: 13ff d43d 7ca2 6dbc 4775 c93c 0531 53bd
00000260: 21cd 913d 09bb 143e 0eb3 2b3c c319 42be
00000270: 3fa8 4bbc 066d 44bb 7f1a e1bc f5ab 0b3e
00000280: 7fd6 0dbd aa5a 493e 6927 ab3d e7ed a5bb
00000290: 2831 de3d 0b51 1bbe e34c 37bd 6a90 c2bc
000002a0: 9fd1 54bd 6442 423d 9cb8 acbb ba98 31bc
000002b0: ebd5 d13d 3912 8e3d 25ca a43d 7a64 74bd
000002c0: 814e 5b3c 858c 9fbd 9279 52be a280 2d3e
000002d0: e459 db3d 575e 0d3e 5e86 ecbd e61b 8abd
000002e0: 2924 1cbe 091f d9bd 431a a93c 657a b6bc
000002f0: 3547 a73c 3427 273e 275c fa3d 2bec 8a3c
00000300: 0479 35be f80d 78b9 51a7 163d 94ed 463d
00000310: 3a24 b63e e22f ef3b 8332 23bd ce6c 873e
00000320: ed5c 873e f9ab 213c 1610 22be 4bcc 55be
00000330: 7777 55be b4f1 3b3e 936f 2f3d 4d2d a93d
00000340: d5c5 97be 4dd0 84bd 6b78 ea3b 1479 3239
00000350: 7caa 913a ce9f a5bd 3f03 90bd 1924 babc
00000360: 8766 6cbd ae39 8cbd 1019 6d39 eb51 01bd
00000370: 81ee afbd f04d ecbd 5ca0 11be abda cf3c
00000380: c2dd 2dbe e666 a9bd a09e 8b3e afd2 1cbe
00000390: ad87 b33d 6e5b aeb8 cc71 213e d02e 093e
000003a0: ebeb 0b3e 7dda a23d 7e35 013e c1d4 0fbe
000003b0: e01d 613d b119 693b 4970 1c3c 5a54 acbd
000003c0: 4dc1 97bd 2f0d 19bd 9bfa b83c 5c64 f93c
000003d0: d985 1c3e e504 00bc cca6 0f3e 3373 0abe
000003e0: bce2 553e 4369 4abe abff 0cbe b230 8b3e
000003f0: 801a 003e 7d81 e4bd 1c93 743d 9d6f 0c3e

1.layers.2.0.bias f4 [80]
-0.0356768 -0.01699273 -0.06270253 -0.06527701 -0.012316718 -0.04116886 -0.024021832 -0.03475653
-0.055486877 -0.03960949 -0.044921353 -0.02239915 -0.026306968 -0.036533963 -0.006845155 -0.022761192
-0.06270987 0.007548345 -0.03412897 -0.008503704 -0.009429003 -0.051878102 -0.030557716 -0.039867826
-0.006763505 -0.055326134 -0.05733464 -0.01955653 -0.021794265 -0.0143140955 -0.03006752 -0.021951685
-0.0029715563 -0.011655358 -0.027572054 -0.032991663 -0.014383225 -0.037215218 -0.052903954 -0.036503006
-0.029173017 -0.043796442 -0.0076183174 -0.021940136 -0.017204195 -0.012570672 -0.04571052 -0.055891395
-0.053700186 -0.037489157 -0.031359233 -0.034786295 -0.0150062945 -0.0341983 -0.050695173 -0.037497893
-0.022070821 -0.024074359 -0.007222869 -0.021970866 -0.03684858 -0.04314117 -0.034135826 -0.04856631
-0.03163008 -0.050690513 -0.046999823 -0.056882843 -0.058372434 -0.030700332 -0.042444956 -0.035157803
-0.04576504 -0.05069187 -0.044872068 -0.021084182 -0.05249335 0.0005262028 -0.053692963 -0.031485166
00000000: d621 12bd 5634 8bbc 2f6a 80bd f4af 85bd
00000010: 0fcc 49bc aea0 28bd 6fc9 c4bc dd5c 0ebd
00000020: 3546 63bd 903d 22bd 74ff 37bd 6c7e b7bc
00000030: b681 d7bc a3a4 15bd 524d e0bb ae75 babc
00000040: 086e 80bd 1b58 f73b d2ca 0bbd 1f53 0bbc
00000050: 1b7c 1abc 227e 54bd 2d54 fabc 724c 23bd
00000060: 64a0 ddbb a89d 62bd bad7 6abd 0435 a0bc
00000070: e389 b2bc ab85 6abc 2950 f6bc 05d4 b3bc
00000080: 71be 42bb 1df6 3ebc cade e1bc 4422 07bd
00000090: 9ea7 6bbc fc6e 18bd d1b1 58bd 2d84 15bd
000000a0: 40fc eebc e663 33bd 14a3 f9bb cdbb b3bc
000000b0: d0ef 8cbc 38f5 4dbc f43a 3bbd 60ee 64bd
000000c0: baf4 5bbd 3b8e 19bd 8a72 00bd 137c 0ebd
000000d0: f6dc 75bc 8413 0cbd bea5 4fbd 6497 19bd
000000e0: decd b4bc 9737 c5bc d1ad ecbb 3ffc b3bc
000000f0: 89ee 16bd ccb4 30bd 02d2 0bbd 78ed 46bd
00000100: 8b8e 01bd dba0 4fbd e382 40bd fcfd 68bd
00000110: ef17 6fbd 437f fbbc c3da 2dbd a101 10bd
00000120: 1f74 3bbd 47a2 4fbd c6cb 37bd bcb8 acbc
00000130: 4403 57bd dff0 093a 27ed 5bbd 97f6 00bd

1.layers.2.0.weight f4 [80, 240]
0.009277186 -0.023403153 0.04003502 0.084955685 -0.015514536 -0.12697428 0.22682805 -0.06432225
0.036928598 -0.23081334 0.05614252 -0.095850356 -0.00026228267 0.1360841 0.11964589 -0.026670262
-0.12472425 0.12778984 0.22802131 -0.08309464 0.20959231 -0.19785275 -0.097551085 0.11066869
0.042215034 -0.12110248 0.096644945 0.11697716 0.056087334 0.053462427 -0.07096076 -0.04142194
-0.09079383 0.04250381 0.04610616 0.10013451 -0.0029247848 -0.08841473 -0.11291571 -0.054150507
0.18930215 -0.033839304 -0.057203785 -0.0656334 0.16746823 -0.023334889 0.04483093 0.08098887
0.08254774 -0.18926485 -0.061890997 -0.05459162 -0.028045822 -0.01441766 -0.09844755 0.01572985
-0.08715272 -0.15091637 -0.03143376 -0.038787767 -0.15056168 0.21103753 -0.0056377626 0.055864766
0.09130973 0.07594891 -0.09202706 -0.12322661 0.10929327 0.07890134 -0.11531025 0.10613259
-0.03387561 -0.17719463 -0.069043234 -0.013871496 0.04592461 0.007287997 0.06514332 -0.03385309
-0.033563312 -0.091209315 0.16236454 0.17308426 0.21710762 -0.024514839 0.07606339 -0.062849715
0.05773513 0.06628923 0.12134003 0.114942856 0.14066777 -0.0066771614 -0.06503044 0.002992157
-0.08983195 0.083771825 0.08291285 0.14564607 0.07713128 -0.042221792 0.13830806 0.08226917
-0.096990444 -0.046334285 -0.0256622 0.0075599044 -0.14336011 -0.14281698 -0.0590248 0.053740975
-0.05627653 -0.079522 -0.19236377 -0.049455263 0.02535638 0.17656778 -0.062051456 0.123217344
0.11477737 -0.10356404 0.08819038 0.056757815 0.11446743 0.0020635799 -0.13203534 0.26053557
-0.04136173 0.13005343 0.090956025 -0.059529316 -0.07083026 0.0075026713 0.13893245 0.0825637
-0.023700863 -0.010744907 -0.018117266 -0.034742102 0.036579944 0.03896763 0.053763036 -0.059044402
0.18457885 0.07900931 0.06799262 -0.012401486 0.033698775 0.014420608 0.095320895 -0.23218037
0.049761575 0.06762234 -0.17553921 0.20074649 0.0036689183 0.030446883 -0.057483643 -0.04304839
0.036215313 -0.05330056 -0.039041985 0.008649307 -0.096329845 -0.10781061 -0.014088247 0.07669258
0.004358624 0.015085831 0.10968669 -0.009088801 0.14133303 -0.057468113 -0.122363895 0.09440623
0.085929185 -0.051900823 0.048001703 -0.0041364026 -0.10842626 -0.012359023 -0.18779866 -0.11796339
0.008361269 -0.12926999 0.017136805 0.051119983 -0.0020425573 0.07311491 0.1256581 -0.07416822
0.06622638 -0.13017286 -0.13198927 0.14332928 0.114172734 -0.042460054 0.029500067 -0.14589475
-0.12862864 0.016737072 -0.14817527 0.021379884 -0.18233173 -0.05143636 0.18588802 -0.081484795
-0.3222655 0.1333386 0.03846714 0.14619441 -0.16987152 -0.10329598 -0.06701688 0.06721641
-0.062126126 0.19806556 -0.12742333 -0.080203064 -0.072087176 -0.13466105 -0.17601185 -0.010110862
-0.18067819 -0.08043043 0.19329536 0.06919327 -0.042226236 -0.006629534 0.0031160626 0.10634224
0.2144569 0.027912 -0.0069322437 -0.0778329 0.09103414 -0.18762167 0.06904954 0.05315579
-0.0647366 0.044387158 0.110290244 0.04841203 0.1674769 -0.04386919 -0.07302302 -0.07440316
0.047692932 -0.046584293 0.09492454 0.031163704 -0.025223393 -0.09880871 0.08873941 0.18284065
00000000: 57ff 173c f8b7 bfbc c3fb 233d 3ffd ad3d
00000010: ae30 7ebc 8c05 02be 9d45 683e 62bb 83bd
00000020: 7142 173d 555a 6cbe b3f5 653d 314d c4bd
00000030: fc82 89b9 a159 0b3e e808 f53d 987b dabc
00000040: 6d6f ffbd 57db 023e 6b7e 693e 862d aabd
00000050: 5e9f 563e e999 4abe ddc8 c7bd 44a6 e23d
00000060: ace9 2c3d 9404 f8bd c9ed c53d b991 ef3d
00000070: d5bb 653d 6bfb 5a3d e053 91bd 0daa 29bd
00000080: 1ef2 b9bd 7a18 2e3d d0d9 3c3d 5213 cd3d
00000090: bfad 3fbb c812 b5bd 5a40 e7bd eccc 5dbd
000000a0: 6cd8 413e 159b 0abd 844e 6abd ce6a 86bd
000000b0: cb7c 2b3e cf28 bfbc a3a0 373d 7edd a53d
000000c0: ca0e a93d a5ce 41be 6a81 7dbd 769b 5fbd
000000d0: 5ac0 e5bc 0d38 6cbc de9e c9bd e3db 803c
000000e0: 207d b2bd d289 1abe b0c0 00bd ecdf 1ebd
000000f0: d72c 1abe 391a 583e fbbc b8bb 74d2 643d
00000100: 9900 bb3d 1a8b 9b3d af78 bcbd 3c5e fcbd
00000110: 26d5 df3d 0797 a13d c827 ecbd 0b5c d93d
00000120: 27c1 0abd 8272 35be 8a66 8dbd 4545 63bc
00000130: 721b 3c3d 26d0 ee3b dc69 853d 8aa9 0abd
00000140: af79 09bd f3cb babd e442 263e 003d 313e
00000150: 7651 5e3e 58d3 c8bc 1fc7 9b3d 5ab7 80bd
00000160: ac7b 6c3d a6c2 873d 1f81 f83d 2967 eb3d
00000170: 360b 103e 17cc dabb ae2e 85bd 1018 443b
00000180: d0f9 b7bd 9090 ab3d 36ce a93d 3e24 153e
00000190: 01f7 9d3d c2f0 2cbd a1a0 0d3e bd7c a83d
000001a0: eda2 c6bd 05c9 3dbd 8939 d2bc 13b9 f73b
000001b0: fecc 12be 9d3e 12be fdc3 71bd 7f1f 5c3d
000001c0: 3882 66bd 6edc a2bd 02fb 44be 9a91 4abd
000001d0: 2fb8 cf3c 2fce 343e ab29 7ebd 6059 fc3d
000001e0: 6610 eb3d 6219 d4bd 289d b43d e27a 683d
000001f0: e66d ea3d 203d 073b 4634 07be eb64 853e
00000200: eb6a 29bd ba2c 053e 2747 ba3d 03d5 73bd
00000210: 750f 91bd f8d8 f53b 4f44 0e3e 2817 a93d
00000220: 5028 c2bc 680b 30bc a96a 94bc bc4d 0ebd
00000230: dad4 153d 869c 1f3d a136 5c3d 8bd8 71bd
00000240: 3d02 3d3e a2cf a13d b73f 8b3d 9a2f 4bbc
00000250: ba07 0a3d 6a44 6c3c 9a37 c33d b1c0 6dbe
00000260: cbd2 4b3d 957d 8a3d 8dc0 33be 7d90 4d3e
00000270: 3c72 703b be6b f93c f873 6bbd 8253 30bd
00000280: 8256 143d b051 5abd 7dea 1fbd d3b5 0d3c
00000290: 9548 c5bd cfcb dcbd 64d2 66bc 0011 9d3d
000002a0: cad2 8e3b 902a 773c 6aa3 e03d 32e9 14bc
000002b0: 9bb9 103e af63 6bbd ec99 fabd 0e58 c13d
000002c0: a4fb af3d f595 54bd 6f9d 443d a98a 87bb
000002d0: 960e debd 807d 4abc 4b4e 40be ca96 f1bd
000002e0: b4fd 083c 5a5f 04be 7c62 8c3c 3063 513d
000002f0: 6ddc 05bb 45bd 953d 84ac 003e 82e5 97bd
00000300: b2a1 873d 094c 05be 3228 07be e9c4 123e
00000310: 65d3 e93d 98ea 2dbd 20aa f13c 6f65 15be
00000320: 3ab7 03be 2f1c 893c 42bb 17be de24 af3c
00000330: 2bb5 3abe efae 52bd 6e59 3e3e 80e1 a6bd
00000340: fcff a4be ea89 083e b88f 1d3d fdb3 153e
00000350: cdf2 2dbe d88c d3bd 2540 89bd c2a8 893d
00000360: f777 7ebd b3d1 4a3e 437b 02be 8141 a4bd
00000370: 71a2 93bd 96e4 09be 733c 34be 07a8 25bc
00000380: b403 39be b6b8 a4bd 38ef 453e 33b5 8d3d
00000390: 6bf5 2cbd 903c d9bb db36 4c3b f6c9 d93d
000003a0: 979a 5b3e b5a7 e43c e027 e3bb db66 9fbd
000003b0: 1b70 ba3d e51f 40be d869 8d3d e3b9 593d
000003c0: 9f94 84bd 4fcf 353d dadf e13d b14b 463d
000003d0: 117f 2b3e 2eb0 33bd 188d 95bd af60 98bd
000003e0: aa59 433d 2ccf 3ebd cc67 c23d 064b ff3c
000003f0: 4aa1 cebc 395c cabd 02bd b53d 943a 3b3e

1.layers.3.0.bias f4 [80]
-0.044047754 -0.021452853 -0.043684624 -0.04529971 -0.021343023 -0.03957125 -0.0035963838 -0.03521995
-0.035067793 -0.0080276895 -0.03381909 -0.06616235 -0.02764541 -0.040560506 -0.0303284 -0.019247916
-0.020325193 -0.0059498227 -0.040110238 -0.04801182 -0.029764438 -0.020785674 -0.04569422 -0.00016735488
-0.022846043 0.010260733 -0.01983374 -0.024346082 -0.021686517 -0.024020486 -0.036381986 -0.018024975
-0.06815278 -0.02137801 -0.04151376 -0.03661583 -0.012865088 0.0029611252 -0.018535316 -0.015677594
-0.029742487 -0.032583572 -0.041720316 -0.03549558 -0.044055462 -0.039469395 -0.047329713 -0.034522697
-0.08740162 0.008174437 -0.044891544 -0.033865783 -0.038211327 -0.021058269 -0.033970967 -0.060983147
-0.06676598 -0.016783077 -0.039121058 -0.03757215 -0.03283618 -0.023865538 -0.012773123 -0.023652269
0.023412937 -0.039112553 -0.05864219 -0.024850158 -0.011076706 -0.04474441 -0.01934302 -0.012077234
-0.0051174276 0.004652109 -0.010403296 -0.04710189 -0.037496332 -0.037252784 -0.029298125 -0.057197906
00000000: 6b6b 34bd e5bd afbc a6ee 32bd 308c 39bd
00000010: 90d7 aebc 7715 22bd 4fb1 6bbb cb42 10bd
00000020: 3fa3 0fbd 9286 03bc e385 0abd 2080 87bd
00000030: a078 e2bc c622 26bd 4473 f8bc cead 9dbc
00000040: 0581 a6bc bbf6 c2bb a24a 24bd 0ba8 44bd
00000050: 8dd4 f3bc b846 aabc dd29 3bbd fc7b 2fb9
00000060: a027 bbbc a21c 283c 5e7a a2bc 6f71 c7bc
00000070: eca7 b1bc 9cc6 c4bc 4705 15bd 1da9 93bc
00000080: af93 8bbd f020 afbc 550a 2abd 7bfa 15bd
00000090: 17c8 52bc 700f 423b 60d7 97bc 4c6e 80bc
000000a0: 84a6 f3bc 5a76 05bd ece2 2abd d063 11bd
000000b0: 8073 34bd a9aa 21bd cddc 41bd ac67 0dbd
000000c0: 9fff b2bd 13ee 053c 32e0 37bd d9b6 0abd
000000d0: 7b83 1cbd 6482 acbc 2425 0bbd 77c9 79bd
000000e0: 9abc 88bd aa7c 89bc 673d 20bd 41e5 19bd
000000f0: 3b7f 06bd a981 c3bc 5c46 51bc 67c2 c1bc
00000100: 7dcc bf3c 7c34 20bd cb32 70bd 8f92 cbbc
00000110: 137b 35bc ea45 37bd 4175 9ebc 97df 45bc
00000120: 18b0 a7bb b870 983b 9672 2abc e9ed 40bd
00000130: c195 19bd 6096 18bd 9f02 f0bc 5a48 6abd

1.layers.3.0.weight f4 [80, 320]
-0.12052234 -0.08480606 0.09186782 0.030306485 -0.11620888 0.08358946 -0.061939467 0.015522631
0.12980416 0.015048129 0.058578372 -0.0918364 0.030744435 -0.05265062 0.06501989 -0.010487485
-0.06689963 0.02925844 0.045572452 0.03216236 0.016893327 -0.02659738 -0.06936184 -0.14472516
-0.08507611 0.13414839 0.1299839 -0.10156037 0.028899835 -0.024302993 0.035205435 -0.05977541
0.036600925 0.06094714 -0.035661634 -0.03677348 -0.11155122 0.11866274 0.1300122 0.059867583
-0.038434748 0.14476718 0.10051693 0.038656946 0.10781595 -0.0607915 0.05977052 0.028480878
0.031410914 0.00074538484 0.07412686 -0.037338965 0.031092431 -0.06336832 -0.17174268 -0.10607263
-0.027299035 0.06905745 0.078234345 -0.024784537 0.032171577 -0.016187502 -0.054897957 -0.08185494
-0.05519544 0.053575933 0.10493774 0.04255775 0.0218606 0.008496179 -0.09708971 0.031502612
-0.0054693753 0.07064659 -0.021102792 0.06747174 -0.031603497 0.01894486 -0.029385293 -0.17229721
-0.017848063 -0.028022364 -0.07031835 0.021302633 0.17020908 0.059706945 -0.03820188 -0.028734943
0.09964879 0.0614048 0.028832491 0.02782089 0.04605267 0.10406132 -0.17955077 0.0032586919
0.059735768 -0.115192875 -0.023671266 -0.006461965 0.15698127 -0.16678444 0.04486528 0.048332237
-0.11003844 0.06672551 0.024146304 -0.07941362 -0.08834888 -0.041896217 -0.027984263 0.08468188
0.00062486576 0.07994022 0.11293632 -0.0057839137 0.09046157 0.12858535 0.028447058 0.022434685
-0.015601081 0.11022901 -0.046644367 -0.07489337 -0.014215236 -0.05985993 0.04350514 0.16772687
0.03250016 0.04611052 0.17584492 0.055154826 -0.082559034 0.057813834 -0.022214236 0.034676496
-0.036537115 0.011172696 0.05364974 -0.08500046 0.08631166 -0.15317592 -0.08853947 0.030357353
8.440925e-05 0.043489363 0.093827985 -0.14445607 -0.08555743 0.017744174 -0.014983018 -0.08903185
-0.05893142 0.07728869 -0.09221768 -0.06588512 -0.02220417 -0.099655956 0.122623675 0.1633263
0.13837698 0.086276785 0.07221453 0.1029599 -0.08908165 0.038673393 -0.14029 -0.07035226
-0.04061928 0.14972678 -0.010248065 -0.06785887 0.012791469 0.04375596 -0.020224648 0.17289826
0.20892908 -0.0982041 0.10796754 0.088782266 -0.11388562 -0.04685491 -0.027814314 -0.045107655
-0.09554303 -0.07358737 -0.068013206 0.03888688 -0.065519795 0.052694395 -0.018548982 -0.032519538
0.078569815 -0.09075295 -0.0155472355 -0.04242234 0.010079383 -0.06938691 -0.07460984 0.055196054
0.0947903 -0.09068897 -0.06090556 -0.018139027 0.01942986 0.069038674 -0.15127067 -0.13902704
0.08534437 0.11180587 0.10249855 0.008764927 0.066757664 0.1743363 0.04082452 0.08511761
0.20046556 0.13390315 -0.08146281 0.12148713 0.11550393 0.03487181 0.12722751 0.22382058
0.0017383328 -0.015439491 -0.008874944 -0.0029298787 -0.09636251 0.21595183 -0.025619572 0.046587173
-0.05856688 -0.08669866 0.049939055 -0.10994448 0.017401623 -0.09717673 0.051041123 -0.09748511
0.06743499 0.08561555 -0.108538434 0.15256268 -0.19884513 -0.07732859 0.021739302 -0.21429996
0.05807918 0.15281741 -0.028649347 -0.015544405 -0.042412627 0.09200977 -0.27567732 -0.014990582
00000000: 6bd4 f6bd cdae adbd 3225 bc3d 4e45 f83c
00000010: ecfe edbd f330 ab3d 3db4 7dbd a252 7e3c
00000020: 62eb 043e 6d8c 763c e0ef 6f3d b914 bcbd
00000030: c1db fb3c 2da8 57bd 2629 853d b3d3 2bbc
00000040: ac02 89bd 65af ef3c 2eaa 3a3d aebc 033d
00000050: e063 8a3c c0e2 d9bc 950d 8ebd d532 14be
00000060: 623c aebd 325e 093e 801a 053e e2fe cfbd
00000070: 59bf ec3c 1217 c7bc 9333 103d 0fd7 74bd
00000080: daea 153d b5a3 793d ef11 12bd ca9f 16bd
00000090: f774 e4bd 7305 f33d eb21 053e b637 753d
000000a0: c16d 1dbd d93d 143e d2db cd3d bf56 1e3d
000000b0: 9cce dc3d 8200 79bd efd1 743d bb50 e93c
000000c0: bba8 003d ee65 433a d3cf 973d bef0 18bd
000000d0: 8eb5 fe3c 40c7 81bd 50dd 2fbe 9b3c d9bd
000000e0: 3aa2 dfbc fe6d 8d3d 5439 a03d f108 cbbc
000000f0: 58c6 033d a79b 84bc aedc 60bd 90a3 a7bd
00000100: 9d14 62bd 7072 5b3d 99e9 d63d 0951 2e3d
00000110: 0015 b33c 8f33 0b3c f8d6 c6bd e208 013d
00000120: 7238 b3bb 29af 903d c3df acbc a02e 8a3d
00000130: ab72 01bd 4032 9b3c 6db9 f0bc ae6e 30be
00000140: 1a36 92bc 288f e5bc 1103 90bd dc82 ae3c
00000150: 4a4b 2e3e 458f 743d 9379 1cbd 8b65 ebbc
00000160: aa14 cc3d 9983 7b3d 1e32 ec3c a3e8 e33c
00000170: b9a1 3c3d 1a1e d53d 28dc 37be c78f 553b
00000180: 7ead 743d 3eea ebbd 3eea c1bc e4be d3bb
00000190: b3bf 203e 8ac9 2abe a8c4 373d 06f8 453d
000001a0: d55b e1bd 62a7 883d 78ce c53c 9ca3 a2bd
000001b0: 42f0 b4bd 5e9b 2bbd 413f e5bc b26d ad3d
000001c0: 08ce 233a b3b7 a33d 284b e73d fc86 bdbb
000001d0: ea43 b93d e1ab 033e ce09 e93c f2c8 b73c
000001e0: ad9b 7fbc bfbf e13d 2a0e 3fbd b261 99bd
000001f0: 05e7 68bc b02f 75bd 7232 323d 98c0 2b3e
00000200: e31e 053d 62de 3c3d b110 343e 07ea 613d
00000210: b614 a9bd 33ce 6c3d a1fa b5bc f108 0e3d
00000220: f1a7 15bd af0d 373c d4bf 5b3d b914 aebd
00000230: 2bc4 b03d 26da 1cbe 2f54 b5bd fcaf f83c
00000240: df04 b138 e721 323d e328 c03d 4bec 13be
00000250: bc38 afbd 3b5c 913c 557b 75bc 5556 b6bd
00000260: 1362 71bd 8849 9e3d 9fdc bcbd c7ee 86bd
00000270: 85e5 b5bc 6c18 ccbd 1f22 fb3d 023f 273e
00000280: b2b2 0d3e e2b1 b03d 36e5 933d a4dc d23d
00000290: 7170 b6bd fe67 1e3d 2fa8 0fbe d814 90bd
000002a0: 6760 26bd fa51 193e 80e7 27bc 97f9 8abd
000002b0: 4f93 513c 7339 333d 29ae a5bc 3e0c 313e
000002c0: 81f1 553e 3b1f c9bd 161e dd3d 7ad3 b53d
000002d0: dd3c e9bd efea 3fbd d8da e3bc cec2 38bd
000002e0: 10ac c3bd fab4 96bd 824a 8bbd d947 1f3d
000002f0: 3e2f 86bd 14d6 573d 09f4 97bc 3533 05bd
00000300: 36e9 a03d afdc b9bd d5b9 7ebc 0cc3 2dbd
00000310: ff23 253c b91a 8ebd 0bcd 98bd 4215 623d
00000320: 6b21 c23d 24bb b9bd 1c78 79bd 4c98 94bc
00000330: 5f2b 9f3c 2664 8d3d b3e6 1abe 1b5d 0ebe
00000340: 07c9 ae3d 7afa e43d c3ea d13d c59a 0f3c
00000350: 3eb8 883d 3785 323e 9d37 273d 2452 ae3d
00000360: d846 4d3e e81d 093e f9d5 a6bd 3fce f83d
00000370: 538d ec3d bed5 0e3d ee47 023e 3931 653e
00000380: c5d8 e33a ebf5 7cbc 3768 11bc 3503 40bb
00000390: b559 c5bd 7a22 5d3e 23e0 d1bc 31d2 3e3d
000003a0: d3e3 6fbd 118f b1bd e58c 4c3d 922a e1bd
000003b0: d98d 8e3c 9804 c7bd 7f10 513d 46a6 c7bd
000003c0: 5b1b 8a3d 3557 af3d 6649 debd 6439 1c3e
000003d0: 0f9e 4bbe 745e 9ebd 9f16 b23c 7371 5bbe
000003e0: 6fe4 6d3d 2b7c 1c3e 09b2 eabc f6ad 7ebc
000003f0: ddb8 2dbd 9e6f bc3d 9425 8dbe 0f9b 75bc

1.layers.4.0.bias f4 [80]
-0.03614509 -0.039669115 -0.03625201 -0.008999871 -0.026322981 -0.025446104 -0.064786404 -0.006956845
-0.048664708 -0.05433982 -0.020710524 -0.012155809 -0.011305875 -0.00532961 -0.026224885 -0.029707996
-0.010154936 -0.011986769 -0.011449708 -0.048719633 -0.012141621 -0.031810362 -0.014517162 -0.032754283
-0.02032794 -0.048983604 -0.03351595 -0.025406899 -0.02312016 -0.026608653 -0.026447576 -0.017389895
-0.026514515 -0.04584274 -0.0398195 -0.022691468 -0.03296574 -0.023937674 -0.017620828 -0.019458363
0.0023182062 -0.011304641 -0.04304997 -0.030530078 -0.027855879 0.0016354755 -0.03938448 -0.03488851
-0.039282978 -0.0638951 -0.021663686 -0.05942676 -0.04590538 -0.015864173 -0.019417772 -0.0477956
-0.01814715 -0.005322831 -0.04184532 0.003953237 0.00073056633 -0.038811505 -0.01976101 -0.05046112
-0.043042704 -0.0035360178 -0.03991235 -0.03772724 -0.018372687 -0.03576454 -0.012898119 -0.029995665
-0.021026187 -0.006469206 -0.029334445 -0.045511074 -0.037666924 -0.00068293704 -0.007887591 -0.02977361
00000000: e00c 14bd 157c 22bd fd7c 14bd 3274 13bc
00000010: 4ba3 d7bc 5974 d0bc bcae 84bd 3ff6 e3bb
00000020: a554 47bd 6e93 5ebd 1ea9 a9bc 2929 47bc
00000030: 473c 39bc 02a4 aebb 92d5 d6bc 2f5e f3bc
00000040: e460 26bc 2764 44bc 8e97 3bbc 3d8e 47bd
00000050: a6ed 46bc 954b 02bd 64d9 6dbc 5b29 06bd
00000060: c886 a6bc 08a3 48bd 0548 09bd 2122 d0bc
00000070: 7d66 bdbc 64fa d9bc 96a8 d8bc 4175 8ebc
00000080: f834 d9bc 99c5 3bbd c619 23bd 75e3 b9bc
00000090: 1507 07bd f118 c4bc 8e59 90bc 2567 9fbc
000000a0: 0ced 173b 1a37 39bc 2a55 30bd 371a fabc
000000b0: 0332 e4bc 745d d63a 9f51 21bd 41e7 0ebd
000000c0: 30e7 20bd 6fdb 82bd 0b78 b1bc 7969 73bd
000000d0: 4807 3cbd 95f5 81bc 0512 9fbc 52c5 43bd
000000e0: 55a9 94bc 256b aebb 0066 2bbd 288a 813b
000000f0: 7a83 3f3a d0f8 1ebd d7e1 a1bc 52b0 4ebd
00000100: 8c4d 30bd 89bc 67bb 227b 23bd e187 1abd
00000110: 5182 96bc d77d 12bd a252 53bc 78b9 f5bc
00000120: 1c3f acbc a2fb d3bb ca4e f0bc d269 3abd
00000130: a248 1abd 2107 33ba f43a 01bc c9e7 f3bc

1.layers.4.0.weight f4 [80, 400]
0.059024513 0.00993945 0.060959164 -0.017633883 -0.031559803 0.02027664 0.008782166 -0.079734266
0.0421963 0.040959243 0.1427669 -0.025381314 -0.022346137 0.19753782 -0.09112862 -0.009739393
0.050633956 -0.10964174 -0.09600787 0.24055459 -0.036517404 -0.026677962 -0.11368467 -0.001378524
0.047373883 0.107274264 -0.09262421 0.08355587 0.15346542 0.005730254 0.033681735 0.15313666
-0.10023771 0.05265054 -0.027494226 0.02443639 0.07228744 0.065015964 -0.034585603 0.03275448
-0.19663982 0.10192344 -0.018194586 0.028466087 -0.08167764 -0.15691793 -0.10262452 0.031305525
0.023125354 0.054835327 0.053360887 -0.16103582 0.11094361 -0.1881178 0.024299795 0.013338762
-0.08371179 -0.011726925 -0.014998153 -0.018787265 0.23585922 0.08798784 0.121786796 0.06143467
0.0967371 -0.054875206 0.021973832 0.17427859 -0.061794374 -0.08466113 -0.079982415 0.026120186
-0.18760017 -0.00045669888 -0.15340823 0.13965347 -0.11239385 -0.0024724596 -0.17566657 -0.010523678
0.13005176 0.08568297 0.080261424 -0.035456087 0.0689532 -0.024796428 0.040251613 0.06844878
0.0073433826 0.040115554 0.02492646 0.08802762 -0.124024086 0.18626973 0.024931429 0.059589744
-0.108422175 -0.010802149 -0.04142094 -0.034975074 0.10410319 0.044282403 0.123430364 0.04625495
-0.0966712 -0.034094043 0.0119759785 -0.03535804 -0.008112311 -0.040595893 0.12695934 -0.0020730204
-0.0761209 0.08149909 0.013145232 0.08397908 -0.17265135 0.025098069 -0.05550323 0.025114063
-0.033804104 0.12386386 -0.0054464997 0.056439403 -0.11268614 -0.049608238 -0.027949508 0.0502889
-0.015720192 -0.09818228 -0.014149077 -0.0017288175 -0.05699643 0.06381338 0.08598947 0.08239117
-0.11154963 0.02865202 0.0990967 0.07522211 -0.06498007 0.09289941 -0.0030901164 0.039159067
0.030496402 0.047355246 -0.030989768 0.12313381 0.07775232 -0.1435853 0.018262072 -0.07661591
-0.06850143 -0.0029160795 0.13127865 0.043317426 0.13268326 0.044545002 -0.06484262 -0.23808783
0.17866404 -0.015656183 -0.08649491 0.102492765 -0.03359962 -0.058046125 -0.03353052 0.057808388
-0.00074370496 0.114359 -0.003002545 0.06171081 -0.0058371956 -0.025237162 0.07153955 -0.034071315
0.045386326 0.0388097 -0.061129723 0.026820963 0.15069441 0.16217798 -0.08888786 -0.036679585
-0.118594125 -0.050425254 -0.05565526 0.01656204 0.060752198 0.022337923 -0.117554456 -0.046633296
-0.07627022 -0.07589176 -0.012571979 0.060165074 0.06007926 -0.013548574 0.0025479505 -0.018167568
0.0316982 -0.053192403 0.12154936 0.09677233 -0.09167188 -0.086413816 0.124259055 -0.07585505
-0.05185715 0.05957854 0.044726428 -0.09742306 -0.10204756 0.08726087 -0.07092317 -0.1254823
0.040013686 -0.010890071 0.02335844 -0.07524342 0.003573981 -0.062805176 -0.0574417 0.050316833
-0.02527007 0.015256175 0.021367552 -0.071650475 -0.1865714 0.09956504 -0.019853719 0.029168734
0.15930152 0.028258966 -0.04754327 -0.052637137 0.006774732 -0.095597684 -0.025956148 -0.060246296
0.1806738 0.12536632 -0.05243783 0.06289269 -0.053519443 -0.021061854 0.06911868 0.115476586
0.059315577 -0.08006941 -0.103978835 -0.1304567 0.11985827 -0.08999593 -0.028358694 -0.11805631
00000000: b0c3 713d 13d9 223c 51b0 793d ef74 90bc
00000010: da44 01bd 321b a63c 13e3 0f3c b84b a3bd
00000020: 07d6 2c3d e1c4 273d 7c31 123e 79ec cfbc
00000030: 3f0f b7bc 5b47 4a3e a4a1 babd fa91 1fbc
00000040: 8d65 4f3d d98b e0bd c69f c4bd f153 763e
00000050: 4693 15bd be8b dabc 82d3 e8bd 97af b4ba
00000060: 1e0b 423d 9cb2 db3d c3b1 bdbd 571f ab3d
00000070: 0a26 1d3e dbc4 bb3b dcf5 093d dbcf 1c3e
00000080: 6e49 cdbd 18a8 573d 923b e1bc d32e c83c
00000090: 700b 943d 1727 853d a2a9 0dbd 9029 063d
000000a0: f35b 49be 3dbd d03d d00c 95bc b631 e93c
000000b0: 9b46 a7bd 18af 20be ce2c d2bd 393a 003d
000000c0: 6271 bd3c 029b 603d f290 5a3d 93e6 24be
000000d0: 6736 e33d f4a1 40be 5d10 c73c d38a 5a3c
000000e0: 1671 abbd 4a22 40bc d0ba 75bc c0e7 99bc
000000f0: 1485 713e f832 b43d 5b6b f93d eca2 7b3d
00000100: 1a1e c63d d3c4 60bd 7702 b43c 1676 323e
00000110: 191c 7dbd d162 adbd d2cd a3bd 00fa d53c
00000120: 421a 40be 1671 efb9 0c17 1dbe 5201 0f3e
00000130: bf2e e6bd fd08 22bb f0e1 33be 816b 2cbc
00000140: 4a2c 053e 8e7a af3d 1a60 a43d 673a 11bd
00000150: 5637 8d3d e121 cbbc e0de 243d e02e 8c3d
00000160: c2a0 f03b 3550 243d 9332 cc3c d347 b43d
00000170: 5700 febd 7ebd 3e3e ff3c cc3c 6014 743d
00000180: 720c debd 7ffb 30bc 01a9 29bd 0642 0fbd
00000190: 0e34 d53d 7761 353d 0fc9 fc3d d575 3d3d
000001a0: 8dfb c5bd 32a6 0bbd e536 443c 98d3 10bd
000001b0: 80e9 04bc e147 26bd a101 023e 83db 07bb
000001c0: 46e5 9bbd ffe8 a63d 195f 573c 39fd ab3d
000001d0: 84cb 30be 779a cd3c 5b57 63bd 02bc cd3c
000001e0: 2c76 0abd 56ac fd3d 8d78 b2bb 012d 673d
000001f0: fec7 e6bd 0232 4bbd 5ef6 e4bc bcfb 4d3d
00000200: a2c7 80bc cb13 c9bd 88d1 67bc 7d99 e2ba
00000210: 1775 69bd 97b0 823d 3f1b b03d b4bc a83d
00000220: 2274 e4bd a4b7 ea3c 36f3 ca3d 0d0e 9a3d
00000230: 4514 85bd 0c42 be3d 8d83 4abb 4265 203d
00000240: 97d3 f93c 93f7 413d 41de fdbc 942d fc3d
00000250: 9c3c 9f3d 0608 13be 579a 953c cde8 9cbd
00000260: 7a4a 8cbd b21b 3fbb e96d 063e 9d6d 313d
00000270: 1fde 073e d274 363d 35cc 84bd 4ccd 73be
00000280: b5f3 363e 6541 80bc 3e24 b1bd bae7 d13d
00000290: c19f 09bd c6c1 6dbd 4c57 09bd 7dc8 6c3d
000002a0: 32f5 42ba 0d35 ea3d 59c6 44bb 79c4 7c3d
000002b0: f245 bfbb 2abe cebc 5483 923d 5d8e 0bbd
000002c0: 03e7 393d ecf6 1e3d 2963 7abd a3b7 db3c
000002d0: a34f 1a3e fc11 263e d70a b6bd 553d 16bd
000002e0: 7ae1 f2bd b68a 4ebd c5f6 63bd 1ead 873c
000002f0: 4cd7 783d 05fe b63c 64c0 f0bd 8e02 3fbd
00000300: 9033 9cbd 246d 9bbd b4fa 4dbc a76f 763d
00000310: ac15 763d d7fa 5dbc 84fb 263b 27d4 94bc
00000320: f9d5 013d 47e0 59bd dfee f83d 9230 c63d
00000330: 77be bbbd baf9 b0bd 887b fe3d e459 9bbd
00000340: 2a68 54bd a108 743d 0f33 373d be85 c7bd
00000350: 50fe d0bd d4b5 b23d 2b40 91bd 6f7e 00be
00000360: 64e5 233d 456c 32bc 335a bf3c 3919 9abd
00000370: 7439 6a3b 00a0 80bd fd47 6bbd 0619 4e3d
00000380: 2e03 cfbc 09f5 793c 010b af3c 7cbd 92bd
00000390: 930c 3fbe c1e8 cb3d 44a4 a2bc 45f3 ee3c
000003a0: f01f 233e 597f e73c bbbc 42bd 0a9a 57bd
000003b0: 92fe dd3b b8c8 c3bd fda1 d4bc d2c4 76bd
000003c0: 8d02 393e 0760 003e 0dc9 56bd e2cd 803d
000003d0: 3437 5bbd e989 acbc 188e 8d3d fd7e ec3d
000003e0: e4f4 723d 6efb a3bd dbf2 d4bd 7196 05be
000003f0: 4178 f53d c94f b8bd 7e50 e8bc 82c7 f1bd
