DNNWeightsDefault/model_0/ensemble_1/zz_bbtt_7.onnx (onnx, 947112 bytes, 19 tensors)

0.embeds.0.weight f4 [2, 1]
0	0x3e78eece	0.24309847
1	0x3f94f3d5	1.1636912

0.embeds.1.weight f4 [3, 2]
0	0x3f74dacb	0.9564635
1	0xbff8614d	-1.9404694
2	0xbef035ce	-0.4691605
3	0x3f7a3bc6	0.9774746
4	0x3f0f7111	0.560319
5	0x3fc495ce	1.5358217

0.embeds.2.weight f4 [2, 1]
0	0x3ef53866	0.4789459
1	0xc0041115	-2.0635426

0.embeds.3.weight f4 [5, 3]
0	0x3e628738	0.22121894
1	0xbfdd4552	-1.728678
2	0xbe3a28db	-0.18179648
3	0x3f58e764	0.84728074
4	0x3fa03e48	1.2519007
5	0xbf6c2960	-0.92250633
6	0xbf83e218	-1.0303373
7	0xbed9924c	-0.42494428
8	0xbffd1614	-1.9772363
9	0xbf8edafe	-1.1160581
10	0xbf767f0e	-0.9628762
11	0x3f1b9e77	0.60788673
12	0x3f0a87f4	0.541137
13	0x3f198f8b	0.59984654
14	0x3efa27c1	0.48858455

0.embeds.4.weight f4 [5, 3]
0	0x3f0c42a5	0.5478919
1	0xbf589fca	-0.8461882
2	0xbef28062	-0.47363573
3	0x3f812c60	1.0091667
4	0x3fc82a1e	1.5637853
5	0xbf8dfbca	-1.1092465
6	0x3b202bf1	0.0024440254
7	0x3f538a00	0.82632446
8	0xbfab206a	-1.3369267
9	0xbf1d964e	-0.6155747
10	0x3f2bc3d4	0.67095685
11	0x3da23c7e	0.07921694
12	0xbec1164d	-0.37712327
13	0xbf0de734	-0.5543091
14	0x3f0b3690	0.5438013

0.embeds.5.weight f4 [2019, 50]
0	0xbf52ec0b	-0.82391423
1	0x402ae62b	2.6702983
2	0xbf2f2111	-0.6840983
3	0xbef3854e	-0.4756264
4	0xbec3a87d	-0.38214484
5	0x3f0b4d16	0.544145
6	0x400a209c	2.1582403
7	0xbf24fd0a	-0.64448607
8	0x3fc19e29	1.5126392
9	0xbe74bb5b	-0.23899595
10	0x3f650758	0.8946433
11	0xbef1f0c0	-0.4725399
12	0x3edbd748	0.42937684
13	0x3f3c3c09	0.73529106
14	0xbf842bfa	-1.032592
15	0x3c4e8ba3	0.012606534
16	0xbfc3e3de	-1.5303915
17	0x3e9dea07	0.3084261
18	0x3f88d976	1.0691364
19	0x3eadf574	0.33976328
20	0x3e31f008	0.17376721
21	0x3ed34b44	0.4126836
22	0x3f96b5c7	1.1774224
23	0xbfdd6170	-1.729536
24	0xbec21261	-0.37904647
25	0x3d8ee9d3	0.06978192
26	0xbf6699a5	-0.9007819
27	0x3e07db15	0.13267167
28	0xbfea5dbe	-1.8309858
29	0xbf0f2c3a	-0.5592686
30	0xbe00fd39	-0.12596597
31	0xbee0bb7b	-0.43893036
32	0x3e26abdf	0.16276501
33	0x3fd7bd55	1.6854655
34	0xbea62f60	-0.3245802
35	0xbfce7361	-1.6128961
36	0x3fd60d98	1.6722898
37	0x3e1054a2	0.14094785
38	0x3fe112e2	1.7583888
39	0x3f320152	0.69533265
40	0x3fd70418	1.6798124
41	0xbefee942	-0.49787337
42	0xbb77036f	-0.0037691256
43	0x3f3d43ac	0.73931384
44	0xbec1ae2b	-0.37828192
45	0x3f52e0b1	0.823741
46	0x3f275678	0.65366316
47	0x3fe3a606	1.7785041
48	0x3e943f68	0.28954625
49	0x3fc42f13	1.5326866
50	0x3c70b277	0.014690987
51	0x3e210412	0.15724209
52	0x400a30db	2.159232
53	0x3d756527	0.05991092
54	0x3f39e1a7	0.72609943
55	0xbe5334d1	-0.20625617
56	0x3e489b0a	0.19590393
57	0xbf2e2b34	-0.6803467
58	0xbf7ffbba	-0.9999348
59	0xbe97cc41	-0.2964802
60	0xbfa4d6cb	-1.287805
61	0xbf32207e	-0.6958083
62	0xbf85e1e4	-1.0459561
63	0xbf5770b2	-0.84156334
64	0x3e52bcf2	0.2057989
65	0x3f09bc67	0.53803104
66	0x3fa8d054	1.3188577
67	0xbf62cfaa	-0.8859812
68	0x3dbdb835	0.0926365
69	0x3f0d56aa	0.55210364
70	0xbeb5202d	-0.3537611
71	0x3e67b68c	0.2262823
72	0xbf118706	-0.56846654
73	0x3f22102d	0.6330593
74	0xbfbf8569	-1.4962589
75	0x3f3fed29	0.7497125
76	0xbe80babf	-0.25142476
77	0x3eb488ce	0.35260624
78	0x3fb273a5	1.3941542
79	0xbf854bfb	-1.0413812
80	0x3f134abb	0.57535905
81	0x3fd40467	1.6563843
82	0xbede7866	-0.43451232
83	0xbdd24920	-0.10267854
84	0x3f1aca6e	0.60465133
85	0x3e1bf9c5	0.15231998
86	0xbc45f88f	-0.012083187
87	0x3d7bf3a3	0.061511647
88	0x3f3b62cf	0.73197645
89	0x3db19e4e	0.08672772
90	0xbf03cc67	-0.5148377
91	0xbf9866ea	-1.1906407
92	0x3d364eef	0.04450887
93	0xbe43a3ef	-0.19105504
94	0x400ae865	2.1704342
95	0xbf19ba33	-0.6004974
96	0xbf35e08b	-0.7104575
97	0x3e6d4ea6	0.23174533
98	0x3f06dfe7	0.526854
99	0xbf5e7350	-0.868947
100	0x3eae1c43	0.34005937
101	0xbf7c6d37	-0.9860415
102	0xbe725fee	-0.23669407
103	0x3d87eb6b	0.06636699
104	0xbf3dd1d5	-0.74148303
105	0x3fad674d	1.354715
106	0x3fab38c3	1.3376697
107	0xbf7d3c21	-0.98919874
108	0x3eb71112	0.3575521
109	0xbe2b0183	-0.16699795
110	0x3f298da6	0.66231763
111	0x3febd242	1.842354
112	0x3e87d787	0.26531622
113	0x3ef2b580	0.474041
114	0xbed79036	-0.42102212
115	0xbefa9194	-0.48939192
116	0xbfec172e	-1.8444574
117	0x3f9486c9	1.1603633
118	0xbee0697d	-0.4383048
119	0xbfa2db32	-1.2723143
120	0x3f01d8d8	0.507215
121	0xbfcb3d54	-1.5878091
122	0x3eb096c5	0.34490028
123	0xbf76a980	-0.96352386
124	0x3f9a5b8c	1.2059188
125	0xbec73fdc	-0.38915908
126	0x3f2af7fd	0.6678465
127	0x3f879c48	1.0594568
128	0xbf8d35f9	-1.1032096
129	0xbfa99288	-1.3247843
130	0x3f9e6e76	1.237746
131	0x3f0396d7	0.5140204
132	0xbf55b1cc	-0.8347442
133	0xbf23050e	-0.6367959
134	0x3fad7baf	1.355337
135	0x3f019b25	0.50627357
136	0xbeab19c8	-0.33418107
137	0xbfd3a1c2	-1.653374
138	0x3f3fb43e	0.748844
139	0xc0077481	-2.1164858
140	0xbe11c8f0	-0.14236808
141	0xbe286227	-0.16443692
142	0xbfc76a62	-1.557934
143	0x3f197d93	0.59957236
144	0x3cce907d	0.025215382
145	0x3fbf850e	1.496248
146	0x3f433beb	0.762633
147	0x3efcfcfa	0.49411756
148	0x3f21a92a	0.6314875
149	0x3ffa5e52	1.9560034
150	0xbea336fb	-0.31877884
151	0xbf8d612c	-1.104528
152	0x3e01ba38	0.12668693
153	0xbedc8bb1	-0.43075326
154	0x3fa7efeb	1.3120092
155	0xbef644db	-0.48099408
156	0x3eb7b6ac	0.35881555
157	0xbef3908a	-0.47571212
158	0x3fa1bd1d	1.2635838
159	0x3fa70ef3	1.3051437
160	0xbf362671	-0.71152407
161	0x40358231	2.8360713
162	0x3efdfcd4	0.49606955
163	0xbdccecc3	-0.10006096
164	0xbfc56ff9	-1.5424796
165	0xbf7fb5f3	-0.9988701
166	0x3eb3be51	0.35106137
167	0xbcab3ac2	-0.020902041
168	0x3f266f2c	0.65013385
169	0xbf9c9066	-1.2231567
170	0xbf4b22cb	-0.79349965
171	0x3f212d84	0.62960076
172	0xbf2b0aca	-0.6681334
173	0xbd18fdcb	-0.03735141
174	0xbe90c172	-0.28272587
175	0x3fa31c76	1.274306
176	0xbfa1ce49	-1.2641078
177	0xbefd3317	-0.4945304
178	0xc015c1f0	-2.339962
179	0x3e92485b	0.28570828
180	0x3f2256ec	0.6341388
181	0xbf844f86	-1.0336769
182	0x3f3297c1	0.6976281
183	0x3f6a6812	0.9156505
184	0xbfa5af64	-1.294415
185	0xbfd93340	-1.6968765
186	0x3e6e6e5a	0.23284283
187	0x40040a0b	2.063113
188	0xbf6b9245	-0.92020065
189	0x3f187eb8	0.5956836
190	0xbfaa2081	-1.329117
191	0x3de680a4	0.11255005
192	0x3f49b391	0.7878962
193	0xbec03ea0	-0.3754778
194	0x3fb83f68	1.439435
195	0xc006141f	-2.094978
196	0xbef1d1ea	-0.47230464
197	0xbf20c0e8	-0.6279435
198	0xbf9eaa0a	-1.2395642
199	0x3ed12554	0.40848792
200	0x3fecc9a2	1.8499033
201	0xbfe213ce	-1.7662294
202	0x3e112bd1	0.14176871
203	0x3f29cc24	0.6632712
204	0xbe8474e5	-0.25870433
205	0xbf612df0	-0.8796072
206	0x3f82cf5b	1.021953
207	0x400ea27a	2.2286668
208	0xbf05ef0e	-0.52317894
209	0xbf816dc8	-1.0111628
210	0x3e23772e	0.15963432
211	0xbf25584e	-0.6458787
212	0x3e95b78a	0.29241592
213	0x3f44f811	0.7694102
214	0xbfa238ca	-1.2673581
215	0xbfb48332	-1.4102538
216	0x3dca3877	0.09874051
217	0x3fcefdd6	1.6171215
218	0xbff3f998	-1.9060545
219	0xbe85abd7	-0.26107666
220	0xbfce645c	-1.6124377
221	0x3f1650fd	0.5871733
222	0xbf99809a	-1.1992371
223	0x3ed7bf66	0.42138213
224	0xbf6762cb	-0.9038512
225	0xbfa0d18d	-1.256395
226	0x3fc2593a	1.518348
227	0xbe4aa0cb	-0.197879
228	0xbfa391e0	-1.2778893
229	0x3e13f936	0.14450535
230	0x3fa5b72f	1.2946528
231	0xbed954df	-0.42447564
232	0x3f3e45ee	0.74325454
233	0x3f5ff465	0.8748229
234	0x3fbc2905	1.4700018
235	0xbfb4582e	-1.408941
236	0x3ff7864e	1.9337862
237	0x3fc3af5a	1.5287888
238	0x3fcfc119	1.6230804
239	0x3fab770d	1.3395706
240	0x3de22020	0.110412836
241	0x3fc527b1	1.5402738
242	0x3f754a32	0.9581634
243	0xbded5b81	-0.115897186
244	0xc0103e00	-2.2537842
245	0x3f533c72	0.8251411
246	0x3fab3a81	1.3377229
247	0x3ff5a792	1.9191763
248	0x3f909fac	1.1298728
249	0x3f6b03fc	0.91802955
250	0x3e5a385f	0.21310566
251	0x3ecce590	0.40018892
252	0xbf3303b9	-0.69927555
253	0x3f1179c1	0.56826407
254	0x3fbe6f11	1.4877645
255	0x3faad2c3	1.3345569

1.layers.0.0.bias f4 [80]
0	0xbca9023d	-0.02063095
1	0xbc8a33dd	-0.016870433
2	0xbd0a871e	-0.033820264
3	0xbc6938eb	-0.014234762
4	0xbca7154e	-0.020395901
5	0xbcc5e1de	-0.024155553
6	0xbc7e39d1	-0.015516714
7	0xbca444ad	-0.020052278
8	0xbcee14fb	-0.029062739
9	0xbc357b88	-0.011076815
10	0xbbe00c38	-0.006837394
11	0xbd33072d	-0.043708015
12	0xbca2874e	-0.019839909
13	0xbcf4f7aa	-0.029903252
14	0x3b579650	0.003289599
15	0xbd646299	-0.055758093
16	0xbda7daa0	-0.08195996
17	0xbc6d78ff	-0.01449418
18	0xbc8201c5	-0.015869984
19	0xbd15272f	-0.03641432
20	0xbd3d62db	-0.046236854
21	0xbcce1860	-0.025158107
22	0xbd110fd1	-0.035415474
23	0xbc079874	-0.008276094
24	0xbd3d6f18	-0.046248525
25	0xbc627928	-0.013822831
26	0xbd29f649	-0.04149464
27	0xbc920739	-0.01782571
28	0xbd85e641	-0.06538058
29	0xbbdb1259	-0.006685537
30	0xbd977774	-0.07395831
31	0xbbb5b457	-0.00554518
32	0xbd2a1e94	-0.041533068
33	0xbb1cf5ba	-0.0023950175
34	0xbd3750a5	-0.044754643
35	0xbcc7bc97	-0.024381919
36	0xbd8fb1d5	-0.07016341
37	0x3a1e8883	0.00060475635
38	0xbce8ee87	-0.028434051
39	0xbd25450c	-0.04034905
40	0x3bfaca90	0.007653542
41	0xbd37f456	-0.04491075
42	0xbcaf7e7e	-0.02142262
43	0xbd0592ad	-0.032610584
44	0xbd103fa0	-0.035216928
45	0xbd0f6b52	-0.035014458
46	0xbda6550f	-0.081216924
47	0xbd6e6e2a	-0.05821053
48	0xbcc93bd3	-0.02456466
49	0x3b205e5a	0.00244703
50	0xbda0ea86	-0.07857232
51	0xbc45ee4b	-0.012080739
52	0x3be78b65	0.0070661777
53	0x3aa23aab	0.0012377104
54	0xbd1efb28	-0.03881374
55	0xbd3b67c9	-0.045753274
56	0xbc9a6364	-0.018846221
57	0xbcb85838	-0.022503003
58	0xbd4e41a7	-0.05035558
59	0xbd89fe52	-0.06737961
60	0xbd1decb0	-0.0385558
61	0xbc832375	-0.016008118
62	0x3bfcb24a	0.0077116834
63	0xbc8470a1	-0.016166987
64	0xbd26ec8b	-0.04075293
65	0xbcfec40b	-0.03109934
66	0xbdbd76b6	-0.09251158
67	0xbd2a4043	-0.04156519
68	0xbc30131a	-0.010746742
69	0x3c89172c	0.016734682
70	0xbd270a57	-0.040781345
71	0xbbf270c4	-0.0073986966
72	0xbc4f9507	-0.012669808
73	0xbd191a09	-0.037378345
74	0xbd2cea38	-0.042215556
75	0xbcdf5fc4	-0.027267344
76	0xbce820e3	-0.028335994
77	0xbc15816e	-0.009125097
78	0xbd34e04e	-0.044159226
79	0xbca506cd	-0.020144844

1.layers.0.0.weight f4 [80, 80]
0	0xbe1a539f	-0.15070961
1	0x3e273775	0.16329749
2	0xbd9f0560	-0.07764697
3	0x3e44deb9	0.19225587
4	0xbe6204c9	-0.22072138
5	0x3e6ea6fd	0.23305888
6	0xbe2ff9a6	-0.17185077
7	0x3d7549f8	0.059884995
8	0xbdc50c63	-0.09621503
9	0xbea6cada	-0.32576638
10	0xbdecb38d	-0.11557684
11	0x3ecdc39a	0.40188295
12	0x3dfba0d6	0.122865364
13	0xbe96af2d	-0.29430524
14	0xbc9052b1	-0.017617555
15	0xbdceb420	-0.1009295
16	0xbd0533b7	-0.032520022
17	0x3e1fc4b3	0.15602379
18	0x3eac4575	0.33646742
19	0x3cc47ed4	0.023986258
20	0xbd26f659	-0.04076228
21	0x3dff7c20	0.12474847
22	0x3e0a9e02	0.13536838
23	0x3d498f6d	0.049209047
24	0xbdbc8dc5	-0.09206728
25	0xbe73cbe0	-0.23808241
26	0x3e846339	0.2585695
27	0x3bd826fd	0.0065964446
28	0x3d9744fa	0.07386203
29	0xbceecbaa	-0.029149849
30	0x3e2326c2	0.15932754
31	0xbe0bdc5c	-0.13658279
32	0xbd7259ff	-0.05916786
33	0xbdf78730	-0.12086332
34	0x3ddd4523	0.108042024
35	0xbeb77f65	-0.35839382
36	0x3e9c0e87	0.30479833
37	0xbdac983b	-0.08427473
38	0x3d240fe1	0.040054206
39	0xbe86fa44	-0.26362813
40	0xbdaad02c	-0.08340487
41	0xbdba6cfa	-0.09102817
42	0x3d991974	0.07475558
43	0x3df2107f	0.11819553
44	0x3d44355d	0.047902454
45	0xbe0263e7	-0.12733422
46	0x3d13513e	0.03596615
47	0xbe5abb44	-0.21360499
48	0x3e3df56b	0.18550651
49	0xbd830d63	-0.06399038
50	0x3dd14eac	0.102200836
51	0x3d65687d	0.05600785
52	0x3c0708e3	0.008241865
53	0x3dd87e06	0.10570912
54	0xbcbf2e9e	-0.023337658
55	0xbe550d49	-0.20805849
56	0x3ddceeef	0.107877605
57	0x3c8f4ee9	0.017493682
58	0x3e09422c	0.13404149
59	0xbeb44271	-0.3520694
60	0x3d843c9d	0.064568736
61	0xbe12cd16	-0.14336047
62	0xbc85c2e7	-0.016328288
63	0xbd09797f	-0.033563133
64	0xbe66ff5b	-0.22558348
65	0x3d973481	0.07383061
66	0x3e2cf5be	0.16890618
67	0x3d4c37f3	0.049858045
68	0x3d3b9e17	0.045805063
69	0xbc1c4c01	-0.009539605
70	0x3de1bd3d	0.110224225
71	0xbd7f4c37	-0.062328544
72	0x3cfcb211	0.030846627
73	0xbe273c8d	-0.16331692
74	0x3e67bcae	0.2263057
75	0x3e2b62b5	0.16736872
76	0x3de88432	0.11353339
77	0x3d07332b	0.033007782
78	0x3dcf6a21	0.10127664
79	0x3ea604f7	0.32425663
80	0xbe9aa81c	-0.30206382
81	0xbde562cf	-0.11200487
82	0xbecdd54c	-0.40201795
83	0xbe42634b	-0.1898319
84	0xbe37f246	-0.17963514
85	0x3d4c2adc	0.04984556
86	0xbe82077e	-0.2539634
87	0xbb9bf6d4	-0.004759649
88	0x3e6ccdbe	0.2312536
89	0xbecd8261	-0.40138534
90	0xbe0a694a	-0.13516727
91	0xbe27d277	-0.1638888
92	0xbdc8363e	-0.09775971
93	0xbe155431	-0.14582898
94	0x3dd70e22	0.105007425
95	0x3dce788e	0.10081588
96	0x3ec08027	0.37597772
97	0xbe1d218d	-0.1534483
98	0xbdcb1141	-0.099154
99	0x3ecaa48b	0.3957866
100	0x3e6c4167	0.23071824
101	0xbe63c2a4	-0.22242218
102	0x3d4b05cf	0.049566086
103	0x3dfa4302	0.12219812
104	0xbd91994c	-0.07109317
105	0x3dc087be	0.09400891
106	0xbdc6e072	-0.09710778
107	0xbea042de	-0.31301016
108	0xbdf921ca	-0.12164648
109	0xbd7d199d	-0.061792005
110	0xbded91de	-0.116000876
111	0xbdecddf4	-0.11565772
112	0x3d7e4dab	0.06208579
113	0x3e8a9181	0.27064136
114	0x3e54ade8	0.20769465
115	0xbd6f5c40	-0.058437586
116	0xbe4cb252	-0.19989899
117	0x3db42974	0.08796969
118	0xbd83de6d	-0.06438909
119	0x3d971bd2	0.07378353
120	0xbd4f848c	-0.050663516
121	0xbe527ea0	-0.20556116
122	0xbc118e14	-0.008883972
123	0xbcd0263b	-0.025408855
124	0x3c025413	0.007954615
125	0x3e2d018d	0.16895123
126	0x3e163bb8	0.14671218
127	0x3e4934e9	0.1964909
128	0x3cc3810e	0.023865249
129	0x3e5833d4	0.21113521
130	0x3d5c7e76	0.05383154
131	0xbe5907b5	-0.21194346
132	0x3e3630be	0.17792031
133	0x3e208b4f	0.15678142
134	0xbd2a3152	-0.04155094
135	0xbc883304	-0.016625889
136	0x3e2270e0	0.15863371
137	0x3dad82f6	0.084722444
138	0xbd208441	-0.039188627
139	0x3e865ae2	0.26241213
140	0xbd146608	-0.036230117
141	0xbd32fbd3	-0.04369719
142	0xbe961d29	-0.29319122
143	0xbdadd339	-0.08487553
144	0xbcb7991d	-0.022411877
145	0xbe8a7ccf	-0.27048346
146	0xbbb89ec0	-0.005634159
147	0xbdad4186	-0.08459763
148	0x3e028636	0.1274651
149	0xbd16631c	-0.03671561
150	0x3d9d4ca6	0.07680635
151	0x3e2dc532	0.16969755
152	0x3d997481	0.074929245
153	0xbc561cac	-0.013068359
154	0xbcf1ccde	-0.029516634
155	0x3d43d024	0.04780592
156	0x3d9e5122	0.077303186
157	0x3e78ec08	0.24308789
158	0x3e55dd6f	0.20885251
159	0xbcceebe3	-0.025258964
160	0xbe635034	-0.22198564
161	0xbe990ccb	-0.29892573
162	0x3e587c69	0.21141209
163	0x3cae9853	0.021312868
164	0xbdb45bd5	-0.08806578
165	0x3ecf6642	0.40507704
166	0xbd4a6ad1	-0.049418274
167	0x3cafd574	0.021464087
168	0x3d430510	0.04761225
169	0x3e49f1fd	0.19721217
170	0x3e86c674	0.26323283
171	0xbe3c70f6	-0.18402466
172	0xbd6e9890	-0.058250964
173	0x3e040bf9	0.12895192
174	0xbae8ec9c	-0.001777071
175	0x3e38c1a2	0.18042615
176	0x3e987a8d	0.29781
177	0xbdbb73c7	-0.09152942
178	0xbe20054d	-0.15627022
179	0xbe25566c	-0.16146249
180	0x3c90dbe3	0.017682975
181	0x3e32df1e	0.17467925
182	0x3c8b25f8	0.016985878
183	0xbd47873d	-0.048712958
184	0x3dbd09e2	0.092304006
185	0xbe76525a	-0.24054852
186	0x3c6bf8ae	0.014402552
187	0xbe35c142	-0.17749503
188	0xbcae607c	-0.021286242
189	0x3db10057	0.08642643
190	0xbddd9bea	-0.10820754
191	0xbd8d3219	-0.06894321
192	0x3e1aecb5	0.15129359
193	0x3c0ffc0c	0.00878812
194	0x3de05c44	0.10955098
195	0x3c950828	0.018192366
196	0x3e8dc99d	0.2769288
197	0x3e9f1d75	0.3107716
198	0x3cdfded4	0.027327932
199	0x3cc99f37	0.024612052
200	0x3d99242f	0.074776046
201	0x3e1b989e	0.15194938
202	0x3d9d885b	0.07692023
203	0xbe784bf7	-0.24247728
204	0x3da4323d	0.08017395
205	0xbe06f678	-0.13179958
206	0x3c7975b8	0.01522582
207	0x3d8c7490	0.0685817
208	0x3eab3f5e	0.33446783
209	0x3e7c6975	0.24649604
210	0x3e86fc2f	0.26364276
211	0xbe224857	-0.15847908
212	0xbdbf13ef	-0.09329974
213	0x3da3426a	0.07971652
214	0xbe677bbb	-0.22605793
215	0xbe8c2422	-0.27371317
216	0xbde90720	-0.11378312
217	0xbb16633f	-0.002294734
218	0x3bd1c99d	0.006402208
219	0x3e497a2f	0.19675516
220	0xbe4fc56a	-0.20290151
221	0xbdf9a4f6	-0.12189667
222	0xbd0f8287	-0.03503659
223	0xbe80947e	-0.2511329
224	0x3dc293ce	0.09500848
225	0xbd377604	-0.044790283
226	0x3d14431c	0.036196813
227	0xbdaaa75b	-0.08332702
228	0x3d18ecf8	0.037335366
229	0x3d6f325e	0.058397643
230	0x3c8b1b29	0.016980724
231	0xbecad325	-0.39614215
232	0x3d06cefa	0.032912232
233	0xbd53e3ca	-0.05173091
234	0xbe05088e	-0.12991545
235	0xbca249c9	-0.019810574
236	0xbd80d405	-0.062904395
237	0x3da0cd15	0.07851616
238	0xbd143e59	-0.03619227
239	0x3e0a0a8a	0.13480583
240	0xbe413539	-0.18867959
241	0x3e094aac	0.13407391
242	0xbdc41426	-0.095741555
243	0xbe121166	-0.1426445
244	0xbe6699d5	-0.2251962
245	0xbe89970a	-0.26873046
246	0x3ce9632e	0.028489675
247	0x3d301944	0.042992845
248	0x3e6e2b11	0.23258616
249	0x3d19ec50	0.03757888
250	0x3e072d14	0.1320079
251	0xbccbc41c	-0.024873786
252	0xbdc320d3	-0.09527745
253	0x3dff009e	0.124512896
254	0xbe0c8480	-0.1372242
255	0xbca81218	-0.02051644

1.layers.1.0.bias f4 [80]
0	0xbcfd3633	-0.030909633
1	0xbce95ca6	-0.028486561
2	0x3b2f03fd	0.0026705258
3	0xbd4ee589	-0.05051187
4	0xbd31f593	-0.04344709
5	0xbca3a5ad	-0.019976461
6	0xbc643809	-0.013929375
7	0xbd4895a4	-0.048970833
8	0xbd1d88da	-0.03846059
9	0xbd3c8304	-0.046023384
10	0xbd8204ea	-0.063485935
11	0xbd156248	-0.03647068
12	0xbcd4d6c6	-0.025981318
13	0xbce5bdd6	-0.028044622
14	0xbd18516b	-0.03718702
15	0xbd435c5a	-0.047695495
16	0xbd1ff693	-0.03905351
17	0xbd0f18df	-0.03493583
18	0xbc918ce9	-0.017767387
19	0xbd77cfd9	-0.060500953
20	0xbd2aa3a6	-0.041659974
21	0xbcb0c8c0	-0.0215801
22	0x3a4d9884	0.0007842856
23	0xbd321f0a	-0.043486632
24	0xbb9f15e9	-0.004854907
25	0xbd15232d	-0.0364105
26	0xbd2b54a7	-0.041828778
27	0xbd3cfd18	-0.046139807
28	0xbcd920ce	-0.0265049
29	0xbcb6f429	-0.022333222
30	0xbca41df1	-0.020033808
31	0xbd485c2a	-0.04891602
32	0xbc631fd2	-0.013862567
33	0xbd4b9a0d	-0.04970746
34	0xbd2fa40d	-0.04288106
35	0xbd514a97	-0.051096525
36	0xbd836e83	-0.06417563
37	0xbd48e5fe	-0.049047463
38	0xbd40e14a	-0.047089852
39	0xbd12c266	-0.035829924
40	0xbd3137ef	-0.043266233
41	0xbd9f495b	-0.07777663
42	0xbd45d557	-0.04829916
43	0xbcd663c1	-0.026170613
44	0xbd253ed3	-0.040343117
45	0xbbed7661	-0.007246778
46	0xbd0ce980	-0.03440237
47	0xbd323081	-0.04350329
48	0xbd4822a6	-0.04886117
49	0xbcecc4f6	-0.028902512
50	0xbd18df2b	-0.037322205
51	0xbd334f22	-0.04377664
52	0xbcb34a54	-0.021886028
53	0xbc1d87e9	-0.009614923
54	0xbcac7a44	-0.021054395
55	0x3cab743b	0.020929446
56	0xbb18ebd2	-0.002333392
57	0xbc0811cc	-0.008305024
58	0xbd490591	-0.049077574
59	0xbb815bb8	-0.0039477013
60	0xbd48ef2b	-0.049056213
61	0xbb3b3697	-0.0028566474
62	0xbd144bff	-0.036205288
63	0xbd17de92	-0.037077494
64	0xbd031e77	-0.032011475
65	0xbd2965f8	-0.04135701
66	0xbce81996	-0.028332513
67	0xbd197eff	-0.03747463
68	0xbc91b436	-0.017786127
69	0xbd3e312e	-0.04643362
70	0xbd06878b	-0.032844108
71	0xbc71a81e	-0.014749555
72	0xbcd0ca14	-0.025486983
73	0xbc90db2a	-0.01768263
74	0xbca84b00	-0.020543575
75	0xbc89c54f	-0.016817717
76	0xbc856004	-0.016281135
77	0xbc96f5fd	-0.018427843
78	0xbcbe8bce	-0.023260023
79	0xbcaa0bea	-0.020757634

1.layers.1.0.weight f4 [80, 160]
0	0xbdb02ec4	-0.0860267
1	0xbde8c1a1	-0.11365057
2	0xbc8f54cf	-0.017496495
3	0xbd7d8c0e	-0.061901145
4	0xbd838011	-0.06420911
5	0x3de10b7d	0.10988519
6	0x3e5ccb37	0.21561895
7	0xbd6255ab	-0.05525748
8	0x3d55777d	0.052115906
9	0xbe0c37e7	-0.136932
10	0x3e0bebaa	0.13664117
11	0x3d2a7a11	0.041620318
12	0x3dd3baed	0.10338388
13	0xbd7d53bb	-0.06184743
14	0xbe7ea6f3	-0.24868374
15	0x3dc311d9	0.095248885
16	0xbddcf2c5	-0.10788492
17	0xbd46efd2	-0.048568554
18	0x3d0cc238	0.03436491
19	0x3e0d6e0b	0.1381151
20	0xbe2ad4e9	-0.16682781
21	0x3dd77cf1	0.105218776
22	0xbe1a1396	-0.15046534
23	0xbde0d7e2	-0.109786764
24	0xbced5555	-0.028971354
25	0x3e3e49ff	0.18582915
26	0x3db4b9f5	0.08824531
27	0x3de2dda3	0.1107743
28	0x3e3f63c0	0.18690395
29	0x3e67c18e	0.22632429
30	0x3d9ce4b3	0.076608084
31	0x3dd92898	0.10603446
32	0xbe4e367b	-0.2013797
33	0xbd68b1c8	-0.05681017
34	0xbcc7c6a7	-0.024386717
35	0xbb87686e	-0.004132322
36	0x3c3c9c8e	0.011511935
37	0xbdcfe0ee	-0.10150324
38	0x3d31c6f7	0.04340264
39	0x3e392247	0.18079482
40	0xbd356985	-0.044290084
41	0x3c82372c	0.015895449
42	0xbe2b3703	-0.16720204
43	0x3d45fdbd	0.048337687
44	0xbe22cd6e	-0.15898678
45	0xbc9eb9b7	-0.019375665
46	0xbdab9e95	-0.083798565
47	0x3d71dfdb	0.059051376
48	0x3e04cbc8	0.12968361
49	0x3e8afc3b	0.27145562
50	0x3ce18d47	0.027533187
51	0xbe34aa95	-0.17643197
52	0x3d977852	0.07395996
53	0xbd95b0f6	-0.07309143
54	0x3d570ef4	0.052504495
55	0xbceab068	-0.02864857
56	0x3d8f94f9	0.07010836
57	0x3e1c2bb7	0.15251051
58	0xbdc3130a	-0.09525116
59	0xbbd36ba0	-0.006452039
60	0x3d0a83dd	0.03381716
61	0xbdeb81dd	-0.11499379
62	0x3d7628a0	0.060097337
63	0xbdf82573	-0.12116518
64	0xbda7ebc0	-0.081992626
65	0xbb33e743	-0.0027451075
66	0x3ccd735c	0.025079422
67	0xbe05ff9b	-0.13085787
68	0x3dc16675	0.0944337
69	0xbd3054d6	-0.043049656
70	0xbd90cc53	-0.07070222
71	0x3e29ede3	0.16594653
72	0xbe590dbb	-0.21196644
73	0x3a3e807f	0.0007267072
74	0xbe0974bc	-0.13423437
75	0xbceae353	-0.02867285
76	0xbdf5d0d4	-0.120027214
77	0xbdf90434	-0.12159005
78	0x3de78b7f	0.11305904
79	0x3e5639ca	0.20920482
80	0xbedb83a5	-0.42873874
81	0x3d597b77	0.05309626
82	0xbd163272	-0.036669202
83	0xbde411c1	-0.11136199
84	0xbdd6939b	-0.10477372
85	0xbd46af15	-0.048506815
86	0xbd942793	-0.07234111
87	0xbdcab284	-0.098973304
88	0xbe34e8b0	-0.17666888
89	0xbd96acfe	-0.073572144
90	0x3e34f078	0.17669857
91	0x3d6ad5bd	0.057332743
92	0xbe0a3633	-0.13497238
93	0xbdab99ae	-0.083789214
94	0x3e3eaf6b	0.18621604
95	0xbe7554f6	-0.23958191
96	0xbdfd08a0	-0.12355161
97	0xbc3fca17	-0.011705897
98	0xbd570bd1	-0.052501503
99	0xbddc0528	-0.10743171
100	0xbc449712	-0.011998909
101	0x3d7cd00f	0.061721858
102	0xbdfe490d	-0.12416277
103	0xbe29f578	-0.16597545
104	0xbdbbe310	-0.09174168
105	0xbd556d99	-0.052106474
106	0xbb42ec2c	-0.002974282
107	0x3d66067d	0.05615853
108	0xbcaafb41	-0.02087176
109	0xbc216350	-0.009850338
110	0x3d6120ac	0.0549628
111	0xbdac665a	-0.084179595
112	0x3e263d1a	0.16234246
113	0x3e23c193	0.15991811
114	0x3d990385	0.074713744
115	0xba901231	-0.001099175
116	0x3cc1278b	0.023578426
117	0xbd18b201	-0.037279133
118	0x3db0525d	0.086094595
119	0xbc301444	-0.010747019
120	0x3d921630	0.07133138
121	0xbe45edc3	-0.1932898
122	0x3d209f83	0.039214622
123	0x3ca0e728	0.019641474
124	0x3da2faed	0.079580165
125	0xbe029e01	-0.12755586
126	0x3caa2f11	0.020774396
127	0x3e8097cb	0.2511581
128	0x3d26d450	0.04072982
129	0xbbcce7fa	-0.0062532397
130	0xbaf49ecd	-0.0018663049
131	0x3dfc37dd	0.123153426
132	0x3de4d1a2	0.11172797
133	0xbe121d7a	-0.14269057
134	0x3d3cc6d9	0.046088073
135	0xbafd6bac	-0.0019334457
136	0x3d9b263b	0.07575651
137	0xbdccfa93	-0.10008731
138	0x3de25ba7	0.110526375
139	0xbdcc0bb2	-0.09963168
140	0x3da3ab76	0.07991688
141	0xbe054f9e	-0.13018653
142	0x3e01aaa3	0.12662749
143	0x3ce69f2a	0.028152067
144	0xbe04d6ab	-0.12972514
145	0xbdb74ca8	-0.08950168
146	0x3e51dad5	0.20493634
147	0xbd57c472	-0.05267758
148	0x3df82ae1	0.121175535
149	0xbe08a304	-0.13343436
150	0x3d5ab830	0.05339831
151	0x3d7e6e35	0.06211682
152	0xbd52f435	-0.051502425
153	0x3d0bf436	0.034168445
154	0x3ba82b0e	0.0051320856
155	0xbddf4148	-0.10901123
156	0x3dd3f925	0.10350255
157	0xbe148a57	-0.14505897
158	0x3ddb004a	0.106934145
159	0x3dabce5d	0.0838897
160	0xbcd36f88	-0.025810018
161	0x3cf3a6de	0.029742654
162	0x3d137469	0.03599969
163	0x3c36b4a7	0.011151469
164	0xbe08b463	-0.13350062
165	0xbdcaf7af	-0.09910523
166	0xbdba541b	-0.09098073
167	0x3ce56a9a	0.028004933
168	0x3e21374f	0.15743755
169	0x3decd9a5	0.1156495
170	0xbd279e4b	-0.040922444
171	0xbb497d8b	-0.0030744995
172	0xbdb8e090	-0.09027207
173	0xbe243143	-0.16034417
174	0xbddc0b52	-0.10744347
175	0xbe10f84d	-0.14157219
176	0x3dda3aad	0.10655723
177	0x3d26ea5c	0.040750846
178	0x3dab95b1	0.08378161
179	0xbcfd4ddb	-0.030920913
180	0xbd933c1d	-0.071892
181	0x3dd2f1ed	0.1030005
182	0xbe1a547d	-0.15071292
183	0xbd6263dd	-0.05527102
184	0x3b6777e9	0.0035319275
185	0x3db5e977	0.088824205
186	0x3c3690e0	0.011142939
187	0xbdcc0da1	-0.09963537
188	0x3d9245d0	0.07142222
189	0xbc593c8e	-0.013259066
190	0x3d01cf0d	0.0316916
191	0xbe062816	-0.13101229
192	0x3e16102f	0.14654611
193	0x3ddc1b3b	0.10747381
194	0x3e2802ee	0.16407368
195	0x3d6e7401	0.0582161
196	0xbda4ecdc	-0.0805299
197	0xbdc5bee7	-0.09655552
198	0x3d755d37	0.05990335
199	0x3d22574d	0.039634038
200	0x3e1c4e66	0.15264282
201	0x3d684aa7	0.05671182
202	0x3e1dac9d	0.15397878
203	0x3c333c23	0.010939631
204	0xbe0808ee	-0.13284656
205	0x3e7f22ef	0.2491567
206	0x3d59e375	0.053195436
207	0xbd797bd4	-0.060909107
208	0x3d707e78	0.05871436
209	0x3da2891e	0.07936309
210	0xbd9de9c0	-0.077106
211	0xbcbcb72f	-0.023036567
212	0x3cdfcd3d	0.027319545
213	0xbdc01257	-0.09378498
214	0x3d9b8aad	0.0759481
215	0x3dbfef93	0.09371867
216	0x3d9a6c85	0.0754023
217	0xbd898f82	-0.06716825
218	0xbd757557	-0.059926357
219	0x3da884e7	0.08228474
220	0x3de550b5	0.11197034
221	0xbe2d7bf2	-0.16941813
222	0x3da2cb38	0.07948917
223	0x3e80e6a4	0.25175965
224	0xbd9b46b3	-0.07581844
225	0x3e5a51cb	0.21320264
226	0xbd251f14	-0.04031284
227	0x3e29b27d	0.16571994
228	0x3ce83818	0.02834706
229	0xbe0f04c3	-0.1396666
230	0xbd0e363c	-0.03471969
231	0x3d6d33ce	0.057910733
232	0x3dfcd9d1	0.12346233
233	0xbc171964	-0.009222362
234	0xbe290208	-0.16504681
235	0xbccf1bfe	-0.025281902
236	0x3ce17403	0.027521139
237	0x3da27a4a	0.07933481
238	0x3e175bf6	0.14781174
239	0xbdbaca80	-0.09120655
240	0xbd0d923b	-0.034563284
241	0xbd84cddd	-0.06484578
242	0x3d8dc2e4	0.06921938
243	0x3e910337	0.28322765
244	0x3dac05aa	0.08399518
245	0xbd109a9a	-0.03530369
246	0xbcfa459e	-0.030550774
247	0x3dade429	0.08490784
248	0x3cc03cb7	0.023466451
249	0x3e565c81	0.20933725
250	0x3bb48d1b	0.005509985
251	0xbc1ffe90	-0.009765282
252	0xbd95503a	-0.072906926
253	0x3d28e195	0.041230757
254	0x3e0f29fc	0.1398086
255	0x3cce3a9f	0.025174437

1.layers.2.0.bias f4 [80]
0	0xbb957933	-0.004561567
1	0xbcb6ec50	-0.02232948
2	0xbd233226	-0.039842747
3	0xbd4cfb8d	-0.050044585
4	0xbd017605	-0.031606693
5	0xbd653148	-0.0559552
6	0xbb9197f6	-0.004443164
7	0xbd5a9d7a	-0.053372838
8	0xbc79cfe3	-0.015247318
9	0xbcc0dc93	-0.023542678
10	0xbd0fcbce	-0.035106473
11	0xbc2df26d	-0.010616881
12	0xbcb2a3c6	-0.021806609
13	0xbd52736c	-0.051379606
14	0xbd01506d	-0.03157084
15	0xbd0aa834	-0.033851817
16	0xbc6c17b0	-0.014409944
17	0xbc8640b9	-0.016388284
18	0xbcce8a7d	-0.02521252
19	0xbc0af86f	-0.008482083
20	0xbced14bc	-0.028940551
21	0xbc37b283	-0.011211994
22	0xbd214c4e	-0.03937941
23	0xbb7c9c55	-0.003854533
24	0xbd34876c	-0.04407446
25	0xbd323819	-0.04351053
26	0xbc4ceabb	-0.012507136
27	0xbd03ae67	-0.032148745
28	0xbb6d677d	-0.0036225014
29	0xbd020581	-0.03174353
30	0xbc454be3	-0.012042019
31	0xbb36ad74	-0.0027874382
32	0xbcc59de4	-0.02412314
33	0xbd610797	-0.05493888
34	0xbb1727d4	-0.002306451
35	0xbd3c7d0c	-0.04601769
36	0xbc74a848	-0.0149326995
37	0xbbcf2e9f	-0.0063226963
38	0xbcc46ba4	-0.023977108
39	0xbcc28345	-0.023744235
40	0xbcb3ce89	-0.02194907
41	0xbcdc9f89	-0.026931541
42	0xbce8551f	-0.028360901
43	0xbd1fa0c5	-0.03897168
44	0xbd21c2ad	-0.039492298
45	0xbd13eb40	-0.036113024
46	0xbd7fded7	-0.062468376
47	0xbd44dabf	-0.048060175
48	0xbc819063	-0.01581592
49	0xbaeaa68d	-0.0017902419
50	0xbd72ef3e	-0.05931019
51	0xbd0817c9	-0.03322581
52	0xbcfbd358	-0.030740425
53	0x3c56f3d1	0.013119654
54	0xbcfed1fc	-0.031105988
55	0xbd41df11	-0.047331873
56	0xbceddc55	-0.029035727
57	0xbd282a56	-0.041056
58	0xbd0a15e0	-0.033712268
59	0xbbf4e3fa	-0.007473466
60	0xbc44c20c	-0.012009155
61	0x3a9d589b	0.0012004556
62	0xbc8d79a6	-0.01726992
63	0xbc0cda2b	-0.008596937
64	0xbc785f6f	-0.015159472
65	0xbc820798	-0.015872762
66	0xbc8ad1e1	-0.016945781
67	0xbcc61ec9	-0.024184601
68	0xbd118cae	-0.035534553
69	0xbc1cbe75	-0.009566893
70	0xbd58c3c4	-0.05292107
71	0xbcf9daac	-0.030499779
72	0xbcbd7d2a	-0.023130972
73	0xbcc4bd79	-0.024016129
74	0xbc5e6098	-0.013572834
75	0xbcbd7a26	-0.023129534
76	0xbd012699	-0.03153095
77	0xbc7f9cce	-0.01560135
78	0xbcdc55ad	-0.026896322
79	0xbd0aca62	-0.033884414

1.layers.2.0.weight f4 [80, 240]
0	0x3dcb2c69	0.0992058
1	0xbd91131c	-0.07083723
2	0x3b4da2e7	0.0031377615
3	0x3daa310e	0.08310138
4	0xbe0b1cb1	-0.13585164
5	0x3bc022ff	0.005863547
6	0xbd95cfa2	-0.073149934
7	0xbcaee7f2	-0.021350835
8	0x3ca33f10	0.019927531
9	0xbc5591e8	-0.013035275
10	0x3d8c2715	0.06843392
11	0xbb99c105	-0.004692199
12	0x3c3e9efc	0.0116345845
13	0x3ce2cf19	0.027686642
14	0xbdfa9e5f	-0.12237238
15	0xbdb7b25e	-0.08969568
16	0xbbfbcf4e	-0.0076846248
17	0x3aeb8619	0.0017969041
18	0xbd6824f8	-0.05667588
19	0xbd5556fc	-0.052084908
20	0x3d9e0880	0.07716465
21	0x3e31c463	0.17360072
22	0x3dc54922	0.096330896
23	0xbdb11571	-0.08646668
24	0xbdcda72d	-0.10041652
25	0xba670dd0	-0.0008814009
26	0x3c419888	0.011816151
27	0xbbe67c24	-0.0070338417
28	0x3d635e54	0.05550988
29	0x3cb4fa36	0.022091966
30	0xbde54855	-0.11195437
31	0xbc45da15	-0.012075921
32	0x3d384602	0.04498864
33	0x3d39be92	0.045347758
34	0xbd9028d7	-0.070390396
35	0x3e06cb76	0.13163552
36	0x3e60336c	0.21894616
37	0xbdbbd1ae	-0.091708526
38	0xbe342748	-0.1759311
39	0xbd8ccdaf	-0.068751685
40	0x3c3dbf8e	0.011581315
41	0xbd434648	-0.047674447
42	0xbe25b1a4	-0.16181046
43	0xbd3f3cbb	-0.046688776
44	0xbd469949	-0.048486028
45	0x3d2e8972	0.042611547
46	0xbc24d60a	-0.0100607965
47	0xbd9dc84b	-0.077042185
48	0xbe0437b8	-0.1291188
49	0x3d97b4cd	0.07407532
50	0x3ddc4ddd	0.10757039
51	0x3d192db2	0.037397094
52	0x3bfe9845	0.007769617
53	0x3cf69282	0.030099157
54	0x3d1e1df0	0.03860277
55	0xbcde9143	-0.027168876
56	0xbd87f1d2	-0.066379204
57	0x3e0e2a8b	0.13883416
58	0xbe05ba75	-0.13059409
59	0xbe38b60a	-0.18038192
60	0x3dc76282	0.09735586
61	0x3d7d3aeb	0.061823767
62	0xbe5c0d31	-0.21489407
63	0x3d846934	0.064653784
64	0xbd41c892	-0.04731042
65	0xbd97ae7d	-0.07406328
66	0x3e01094f	0.12601207
67	0x3d04d84b	0.032432836
68	0xbe48c8e7	-0.19607888
69	0x3d778baf	0.060435947
70	0x3df85011	0.121246465
71	0xbe4a05f4	-0.19728833
72	0xbd6369ac	-0.0555207
73	0x3d171aa3	0.036890637
74	0xbd9bca04	-0.07606891
75	0xbddc7422	-0.10764338
76	0x3d8f12ea	0.069860294
77	0xbd50e299	-0.05099735
78	0x3dab7330	0.0837158
79	0xbcd8da98	-0.026471421
80	0x3db006a2	0.08595015
81	0x3dbbefb6	0.091765806
82	0x3d3a414c	0.04547243
83	0xbd80712c	-0.06271586
84	0x3aebf040	0.0018000677
85	0xbe007197	-0.12543331
86	0x3cab634b	0.02092137
87	0x3d15b7df	0.036552306
88	0x3c62a63c	0.013833579
89	0xbe1d7882	-0.15378001
90	0x3df9f5ee	0.122051105
91	0xbd31ccde	-0.043408267
92	0x3cc1e4eb	0.023668727
93	0xbe1631ca	-0.1466743
94	0xbd6a9c41	-0.05727792
95	0xbde74a77	-0.112935
96	0x3db2360a	0.087017134
97	0x3bec2f95	0.0072078207
98	0xbd4fcfcd	-0.050735284
99	0x3d200aa2	0.03907264
100	0x3d655943	0.05599333
101	0xbd5ac121	-0.05340684
102	0x3c812414	0.015764274
103	0x3d27b97e	0.040948384
104	0xbd1fda77	-0.039026704
105	0x3e899b76	0.2687642
106	0xbdb77754	-0.08958307
107	0xbe0d81ff	-0.13819121
108	0x3ba5ec02	0.0050635347
109	0xbd0c4488	-0.034245044
110	0x3cea3f70	0.028594702
111	0x3dc3dfcf	0.095641725
112	0x3d3dd359	0.046344135
113	0xbe09be26	-0.13451442
114	0x3dc02f88	0.09384066
115	0xbd17661b	-0.03696261
116	0xbe095c19	-0.13414039
117	0xbdd2ad0c	-0.10286912
118	0x3db23dc4	0.08703187
119	0x3e554457	0.20826851
120	0xbe199953	-0.14999895
121	0x3c05e159	0.008171403
122	0xbe0e31b4	-0.13886148
123	0x3d72763c	0.05919479
124	0xbd20e44b	-0.039280217
125	0xbb51f651	-0.0032037685
126	0x3d5da28b	0.05411009
127	0x3b2f5a48	0.0026756693
128	0x3c2db82c	0.010602992
129	0x3ca25d11	0.019819768
130	0xbce3b59a	-0.027796555
131	0xbe1676c4	-0.14693743
132	0x3da751d8	0.08169907
133	0x3dec4fc1	0.11538649
134	0xbe078416	-0.1323398
135	0xbc62a1a6	-0.013832485
136	0xbce01bf4	-0.02735708
137	0xbdee1053	-0.11624207
138	0x3d15f4fc	0.03661059
139	0x3d1761ad	0.036958385
140	0x3d825a61	0.06364895
141	0xbdf95862	-0.12175061
142	0x3c6e5fdd	0.014549223
143	0x3d8d0512	0.06885733
144	0x3d95a46b	0.07306751
145	0xbd8ec8dc	-0.06971905
146	0x3d825567	0.063639455
147	0x3e482287	0.19544421
148	0x3e0945d2	0.1340554
149	0x3d5a2383	0.053256523
150	0xbd5a15cb	-0.05324344
151	0xbde07098	-0.109589756
152	0xbc911b02	-0.017713074
153	0xbbac2a6d	-0.005254081
154	0x3cf4fcde	0.029905733
155	0xbdc0a035	-0.09405557
156	0xbe04a1ee	-0.12952396
157	0xbd2e1940	-0.04250455
158	0xbe1585ce	-0.14601824
159	0xbcc116c1	-0.02357042
160	0x3d426081	0.047455315
161	0xbdbe77e6	-0.093002126
162	0x3e4dc8bf	0.2009611
163	0x3db5eb06	0.08882718
164	0xbddaa481	-0.10675908
165	0x3e0274ed	0.12739916
166	0x3e31b1c1	0.17352964
167	0x3ce14ac6	0.027501475
168	0x3d88466f	0.06654059
169	0x3dcc899c	0.099871844
170	0x3da18ea1	0.078885324
171	0x3e1337fd	0.14376827
172	0x3d1127e7	0.035438444
173	0x3d14e5be	0.03635191
174	0x3c969af3	0.018384432
175	0xbe01df33	-0.126828
176	0xbdfe4ee5	-0.12417392
177	0xbc639528	-0.013890542
178	0x3dc3b2a8	0.0955556
179	0x3d4bf4de	0.04979407
180	0x3d0790e8	0.033097178
181	0x3d1a7c62	0.037716277
182	0xbd1c3147	-0.038132932
183	0xbe18c3b2	-0.14918402
184	0xbd5164ae	-0.051121406
185	0xbdc9ee28	-0.09859878
186	0x3df9cb8f	0.12197029
187	0x3c1fd8a7	0.009756244
188	0xbd9553ac	-0.0729135
189	0xbd8f2fc8	-0.069915354
190	0x3cbf09fa	0.023320187
191	0xbd8335ae	-0.06406723
192	0xbd85393a	-0.06505056
193	0x3dc416ae	0.09574638
194	0x3dbea32c	0.09308466
195	0xbdf84b62	-0.12123753
196	0xbdf200d1	-0.11816562
197	0x3de8492e	0.11342083
198	0xbdea5cbe	-0.114434704
199	0x3dfb1f86	0.12261872
200	0xbe1dbeed	-0.15404864
201	0xbd8ab135	-0.06772081
202	0xbdd222d0	-0.10260546
203	0x3c891de3	0.016737884
204	0x3deb2ca1	0.11483122
205	0xbab9f700	-0.0014187992
206	0x3d3475c8	0.044057637
207	0x3e220d6e	0.15825436
208	0xbd5137a0	-0.05107844
209	0xbd71a105	-0.05899145
210	0xbd9ce65d	-0.07661126
211	0xbd872d70	-0.066004634
212	0x3c3b4abc	0.011431392
213	0xbd39eb6e	-0.04539054
214	0xbd9dca65	-0.07704619
215	0xbda3e3ee	-0.080024585
216	0x3d4ef6bf	0.050528284
217	0xbd7a44f8	-0.06110093
218	0xbd31d2d3	-0.04341395
219	0x3d3f3813	0.046684336
220	0x3d09a42d	0.033603836
221	0x3e0417fc	0.12899774
222	0x3d9ffe8d	0.078122236
223	0xbd89ae4f	-0.067227
224	0xbd2d5376	-0.042315923
225	0xbe036568	-0.12831652
226	0x3e01737a	0.12641707
227	0xbd9a21c6	-0.07525973
228	0x3dbd4bdf	0.09242987
229	0x3e51a4b1	0.20472981
230	0x3a8e8ae5	0.0010875134
231	0xbd9c8f3f	-0.076445095
232	0xbe0043e0	-0.12525892
233	0x3da9d57b	0.08292671
234	0xbd9ef5a6	-0.077616975
235	0x3d80ea03	0.06294634
236	0x3cc811c0	0.024422526
237	0x3d189ec9	0.037260804
238	0x3d548848	0.05188778
239	0x3dd75830	0.10514867
240	0x3d3bba0d	0.04583173
241	0xbbd32130	-0.0064431652
242	0x3d89f8ce	0.06736909
243	0xbe08c451	-0.13356139
244	0x3dfae696	0.12251012
245	0xbd11ef4d	-0.035628606
246	0x3d8baff5	0.068206705
247	0xbe4b100f	-0.19830345
248	0xbc60bab3	-0.013716388
249	0xbe3b8c0e	-0.18315145
250	0xbda0a841	-0.07844592
251	0xbd5c18f3	-0.05373473
252	0xbd666146	-0.05624511
253	0x3dbac68b	0.091199
254	0x3e178697	0.14797436
255	0x3d37edda	0.044904567

1.layers.3.0.bias f4 [80]
0	0xbd33f41a	-0.043933965
1	0xbd1a0c8d	-0.037609626
2	0xbc170ad0	-0.0092188865
3	0xbcaf70fd	-0.021416182
4	0xbbedd989	-0.007258598
5	0xbb430b2d	-0.00297613
6	0xbd0dcded	-0.034620214
7	0xbcd1da34	-0.025616743
8	0xbcd281f8	-0.02569674
9	0xbd06afeb	-0.032882612
10	0xbc765a66	-0.015036201
11	0xbcf30c14	-0.029668845
12	0xbcee7a86	-0.029111158
13	0x3b869610	0.0041072443
14	0xbc830142	-0.01599181
15	0xbad095cf	-0.0015913787
16	0xbd8bdb7f	-0.06828975
17	0xbcd65c83	-0.02616716
18	0x3c5feab6	0.013666799
19	0xbcd0d504	-0.025492199
20	0xbcce9ee6	-0.025222253
21	0xbd0119f6	-0.0315189
22	0xbca5f8d4	-0.020260252
23	0xbcd9d109	-0.026588934
24	0xbb8e0c38	-0.0043349527
25	0xbd34e83c	-0.04416679
26	0xbc956415	-0.0182362
27	0x3c0299e4	0.007971261
28	0xbd4bc289	-0.04974607
29	0xbd07ab29	-0.033122215
30	0xbc827dc1	-0.015929105
31	0xbcb405e3	-0.021975463
32	0xbbb92a90	-0.005650826
33	0xbc53f437	-0.012936643
34	0xbce5a05c	-0.028030567
35	0xbc2a0111	-0.010376231
36	0xbc8504d6	-0.016237658
37	0xbc9d15eb	-0.01917549
38	0xbc67feb0	-0.014159843
39	0xbd59d060	-0.053177238
40	0xbc5db618	-0.013532184
41	0xbbb434b0	-0.005499445
42	0xbc213d6d	-0.009841305
43	0xbcf35635	-0.029704193
44	0xbc922988	-0.01784207
45	0xbc9b797f	-0.018978832
46	0xbca76aa0	-0.020436585
47	0xbc27aae5	-0.0102336155
48	0xbce7d86c	-0.02830144
49	0xbcdc6470	-0.026903361
50	0xbd10d756	-0.03536161
51	0xbc18eae9	-0.009333351
52	0xbc2750b0	-0.0102121085
53	0xbca5eba4	-0.020253964
54	0xbcae1390	-0.021249563
55	0xbd2347a1	-0.039863233
56	0xbcd767cb	-0.02629461
57	0xbcd8a068	-0.026443675
58	0xbcf88de8	-0.030341104
59	0xbd11fb22	-0.03563989
60	0xbcff0f20	-0.031135142
61	0xbc3c08be	-0.011476694
62	0xbd097f50	-0.03356868
63	0xbca858e5	-0.0205502
64	0xbc81ee06	-0.015860569
65	0xbd119d1e	-0.03555023
66	0xbd001536	-0.03127023
67	0xbd63bbb6	-0.055598937
68	0xbcf7bf0f	-0.030242471
69	0xbc57fe36	-0.013183167
70	0xbc054fc3	-0.008136692
71	0xbd06775b	-0.03282867
72	0xbc7bb8a5	-0.015363847
73	0xbd4d5ee1	-0.05013931
74	0xbca76ebb	-0.020438543
75	0xbd2a5502	-0.041584976
76	0xbc91de99	-0.017806338
77	0xbc814fb9	-0.015785085
78	0xbcd82a9f	-0.02638751
79	0x3a005d5c	0.0004896724

1.layers.3.0.weight f4 [80, 320]
0	0x3d236763	0.03989352
1	0xbd8ce6f5	-0.06879989
2	0xbd669f80	-0.056304455
3	0x3dde61cd	0.10858498
4	0xbd122a90	-0.035685122
5	0x3cabc458	0.020967647
6	0xbca366fd	-0.01994657
7	0x3e515eb0	0.20446277
8	0xbd3c1917	-0.045922365
9	0x3ca204ad	0.01977762
10	0xbc087ab9	-0.008330041
11	0x3df3a6ca	0.11897047
12	0x3dbf5c4b	0.09343775
13	0x3db17d6f	0.08666503
14	0x3d867e0c	0.0656701
15	0xbcb5a3cd	-0.022172833
16	0xbd1a1242	-0.03761507
17	0x3d8d45aa	0.06898053
18	0xbc7b6ec6	-0.015346235
19	0xbb8f14e3	-0.0043665036
20	0xbd6dec8e	-0.058086924
21	0xbdaf6895	-0.08564869
22	0xbe18c1ae	-0.14917633
23	0x3d9f9d9a	0.07793732
24	0xbcf97d47	-0.030455245
25	0x3d0feddb	0.035138946
26	0x3c7a5b28	0.015280522
27	0x3d339a90	0.043848574
28	0x3d9743b2	0.07385959
29	0x3d089645	0.033346433
30	0xbda475e4	-0.08030298
31	0xbc189d37	-0.009314827
32	0x3d9ea079	0.077454515
33	0x3d20d48a	0.039265193
34	0x3d0a3db1	0.03375024
35	0x3dc507f3	0.09620657
36	0xbcac3e7c	-0.021025889
37	0x3ddae106	0.10687451
38	0xbd76dd9a	-0.06026993
39	0xbd22990b	-0.039696734
40	0x3d0652bc	0.032793745
41	0x3db15939	0.08659596
42	0xbd899b9e	-0.06719135
43	0xbcffa5dc	-0.031207018
44	0x3d1f2622	0.038854726
45	0xbd1c56d8	-0.03816876
46	0x3d2283e9	0.03967658
47	0xbd98a33d	-0.0745301
48	0xbe103e8f	-0.14086364
49	0x3bbffd83	0.0058590784
50	0xbd56a9c9	-0.052408013
51	0x3dd89bb3	0.10576572
52	0xbdf8cedf	-0.121488325
53	0x3e0be4e0	0.13661528
54	0x3d0c1754	0.034201935
55	0x3deaf925	0.11473302
56	0x3cddff93	0.027099406
57	0x3d9f8738	0.07789463
58	0xbca411db	-0.020028045
59	0x3c14ca73	0.009081471
60	0xbd488311	-0.04895312
61	0x3e339e5c	0.17540878
62	0x3da0ab65	0.07845191
63	0xbd4dd3ab	-0.05025069
64	0xbd2cb97f	-0.04216909
65	0x3e1b943a	0.15193263
66	0xbc159a83	-0.009131077
67	0x3dbaca31	0.09120596
68	0xbd318abf	-0.04334521
69	0xbd0f8a4c	-0.035044
70	0x3c3e5899	0.011617803
71	0xbe23173f	-0.15926836
72	0x3e31be09	0.17357649
73	0x3d771d2a	0.060330547
74	0x3c5a8d09	0.013339289
75	0xbd7ced32	-0.061749645
76	0xbcd2a343	-0.025712615
77	0xbd80d2e8	-0.06290227
78	0x3d29e947	0.041482236
79	0x3d76f596	0.060292803
80	0x3d79fa7f	0.061029907
81	0x3c954ec4	0.018226035
82	0x3d664cf1	0.05622572
83	0xbd7a6e82	-0.061140545
84	0x3d49f81b	0.049308877
85	0xbda18102	-0.078859344
86	0x3d72ab6d	0.059245516
87	0x3dfdf823	0.12400844
88	0x3c075a1c	0.00826123
89	0x3e1ec5de	0.15505168
90	0xbc87cc7d	-0.016577
91	0xbd4169b6	-0.047219954
92	0x3d38ce8a	0.045118846
93	0xbd097952	-0.033562966
94	0x3d20b2a0	0.03923285
95	0x3bee9d22	0.0072819153
96	0xbdd020af	-0.10162484
97	0xbd46bd52	-0.048520394
98	0x3c463555	0.012097676
99	0x3c81c876	0.015842658
100	0x3ce58032	0.02801523
101	0x3e1169a6	0.14200458
102	0xbcc9915e	-0.02460545
103	0x3dea33a5	0.11435632
104	0xbcbbe3c8	-0.022935763
105	0x3d356f7f	0.044295784
106	0x3cec4e06	0.028845798
107	0x3c063ea6	0.0081936475
108	0xbce4e95e	-0.02794331
109	0xbd4771d5	-0.048692543
110	0xbbc57d81	-0.006026924
111	0xbd4237d9	-0.04741654
112	0x3cc910b3	0.024544096
113	0xbd4120cc	-0.04715042
114	0x3b183ecd	0.0023230792
115	0xba42dece	-0.0007433713
116	0x3d1890ed	0.037247587
117	0xbc9be0f3	-0.019028163
118	0xbded5130	-0.11587751
119	0x3bc37e07	0.0059659514
120	0x3acebbaf	0.0015772487
121	0xbdbf84b5	-0.09351484
122	0xbdb9ad08	-0.09066206
123	0x3dd8cbd8	0.10585755
124	0x3d8bb7f9	0.068221994
125	0x3d5d1c77	0.053982224
126	0x3d16b2f8	0.03679177
127	0xbe180ccf	-0.14848636
128	0x3ba917aa	0.0051602917
129	0x3d9968a5	0.074906625
130	0x3c058d5e	0.00815138
131	0xbd1209db	-0.03565393
132	0x3aa43dc8	0.0012530619
133	0x3c6ef96a	0.014585832
134	0xbd88a9ca	-0.0667301
135	0x3e04b4a4	0.12959534
136	0xbcf02055	-0.029312292
137	0x3ce6631e	0.028123435
138	0xbd9af569	-0.075663395
139	0x3da24213	0.07922759
140	0xbce4820a	-0.027894039
141	0xbd2941fa	-0.041322686
142	0x3ce2236a	0.027604777
143	0x3d8c9f03	0.068662666
144	0x3c9d5d43	0.01920951
145	0x3e251d3c	0.16124433
146	0x3d7bd404	0.06148149
147	0x3de59d73	0.11211672
148	0xbd7114b7	-0.058857646
149	0xbddfeeaf	-0.10934197
150	0xbdca8b5e	-0.098898634
151	0x3d18d5a0	0.037313104
152	0xbd8ab900	-0.06773567
153	0x3d8d384d	0.06895504
154	0x3d1b455f	0.037907954
155	0xbdbb296d	-0.09138761
156	0x3d213e1a	0.039365865
157	0x3dce81d3	0.10083356
158	0xbde07c43	-0.10961201
159	0xbb2b57b2	-0.00261448
160	0x39b58bb0	0.00034627086
161	0xbc5ea8ec	-0.013590079
162	0xbcf2e570	-0.02965042
163	0x3de9206b	0.11383136
164	0x3e1e01f5	0.15430434
165	0x3cfd317b	0.030907383
166	0xbc9170b9	-0.017753946
167	0x3cd7a73a	0.026324857
168	0xbd1e859d	-0.038701642
169	0xbb9e17ef	-0.0048246305
170	0x3c951d2a	0.018202383
171	0xbd91bcf3	-0.07116117
172	0xbd5b5eaa	-0.053557076
173	0xbd3f1a9d	-0.04665624
174	0x3d5884b4	0.05286093
175	0x3c85c831	0.01633081
176	0x3d419620	0.04726231
177	0x3dc2075e	0.094740614
178	0x3aa8662f	0.0012847836
179	0x3c8e247c	0.017351381
180	0xbd991413	-0.07474532
181	0x3c971d3f	0.018446563
182	0x3c976905	0.018482694
183	0x3a4a0624	0.00077066035
184	0xbb8cf370	-0.004301481
185	0x3c242af9	0.010020011
186	0xbb21d438	-0.0024693143
187	0x3d6b4b05	0.05744459
188	0xbd35a38c	-0.044345424
189	0xbcb5e854	-0.02220551
190	0x3ca5261b	0.020159772
191	0xbbfa7af6	-0.0076440526
192	0x3c813b47	0.015775336
193	0xbd9cf4ce	-0.0766388
194	0x3de0c3ea	0.10974868
195	0xbe302afb	-0.17203896
196	0x3cbd8318	0.0231338
197	0x3c9ab026	0.018882822
198	0xbd3f5818	-0.046714872
199	0x3c8d3679	0.017237889
200	0x3d057017	0.0325776
201	0xbb121a76	-0.0022293604
202	0xbd0ab665	-0.03386535
203	0xbd86fa13	-0.065906666
204	0x3c12e57e	0.008965848
205	0xbd69927f	-0.057024475
206	0xbd8bd54f	-0.06827795
207	0x3d72a38d	0.059238005
208	0x3d76fe6e	0.060301237
209	0x3d08c97a	0.033395268
210	0xbceb9792	-0.028758798
211	0xbcdb8267	-0.02679558
212	0x3db20020	0.0869143
213	0x3c436b2e	0.011927409
214	0xbd9c2eeb	-0.076261364
215	0x3dcc4f97	0.09976118
216	0xbde01c0f	-0.10942852
217	0x3d865dda	0.065608695
218	0xbcca546b	-0.024698457
219	0xbb5f6923	-0.0034089766
220	0x3d515446	0.05110576
221	0x3d030a4d	0.031992245
222	0xbd87a5fe	-0.06623457
223	0x3e5f664f	0.21816371
224	0x3bb1ba0a	0.005423789
225	0xbd842069	-0.06451494
226	0xbdd1ccdd	-0.10244153
227	0x3e0d0a73	0.13773517
228	0x3db8f6dc	0.0903146
229	0x3e085006	0.13311777
230	0x3dd86b73	0.10567369
231	0x3d232754	0.039832428
232	0x3e19fe83	0.15038495
233	0xbd168e63	-0.036756884
234	0x3c0c85b3	0.008576798
235	0x3d680949	0.05664948
236	0x3e345ce3	0.17613558
237	0x3d3c69d5	0.045999367
238	0x3e09d9c6	0.1346198
239	0x3dad2b8f	0.08455574
240	0x3e3d267c	0.18471712
241	0xbd89346e	-0.06699453
242	0x3bad5644	0.0052898247
243	0xbdcf4f9e	-0.10122608
244	0x3e90053a	0.28128988
245	0xbdef3c4f	-0.11681425
246	0xbd895141	-0.06704951
247	0x3e0df4c9	0.1386291
248	0x3e03f669	0.12886967
249	0xbb3620d5	-0.0027790566
250	0xbd842382	-0.06452085
251	0xbcb37b79	-0.021909462
252	0xbe30c72a	-0.17263475
253	0xbcd72275	-0.026261548
254	0x3d18684f	0.03720885
255	0xbe0fd6d6	-0.14046797

1.layers.4.0.bias f4 [80]
0	0xbc7d0b13	-0.015444535
1	0xbcce2b57	-0.02516715
2	0xbca2269e	-0.019793805
3	0xbd1982b4	-0.037478164
4	0xbd374001	-0.044738773
5	0xbd059e2a	-0.03262154
6	0xbcb7f8f5	-0.02245758
7	0xbcb8903c	-0.022529714
8	0xbc6e5595	-0.0145467715
9	0xbd19bfd6	-0.037536465
10	0xbd53fda9	-0.05175558
11	0x3a6d27fc	0.00090467907
12	0xbc7f4ba1	-0.015581996
13	0xbd166f39	-0.036727164
14	0xbcf37355	-0.02971808
15	0xbb01b3af	-0.0019790938
16	0xbc50a4e3	-0.012734625
17	0xbd4d5e55	-0.05013879
18	0xbca16530	-0.01970157
19	0xbd002de3	-0.03129376
20	0xbc3da222	-0.0115743
21	0xbc57f43d	-0.01318079
22	0xbba133fb	-0.0049195266
23	0xbd0d65e9	-0.034521017
24	0xbcb72cc4	-0.022360213
25	0xbd309257	-0.04310831
26	0xbd199b63	-0.037501704
27	0xbd405f99	-0.04696617
28	0xbcca2a4d	-0.024678374
29	0xbc2cc2ed	-0.010544521
30	0xbc80b3ea	-0.01571079
31	0xbc9d6261	-0.01921195
32	0xbb2b0d47	-0.0026100443
33	0xbce1313f	-0.027489303
34	0xbcbd66b3	-0.02312026
35	0xbc43ec8e	-0.0119582545
36	0xbd31db8c	-0.043422267
37	0xbd587f56	-0.052855812
38	0xbc8120b5	-0.015762666
39	0xbc794241	-0.01521355
40	0xbd0daa11	-0.034586016
41	0xbcc22f20	-0.023704112
42	0xbd4ae092	-0.049530573
43	0xbd2aa1f9	-0.041658375
44	0xbcce39ea	-0.0251741
45	0xbce7c1a8	-0.028290585
46	0xbc11baf3	-0.00889467
47	0xbc1396e1	-0.00900814
48	0xbc37e365	-0.011223649
49	0xbd0c91fc	-0.03431891
50	0xbcc8080e	-0.024417903
51	0xbce53c86	-0.027982961
52	0xbcdb175a	-0.026744533
53	0xbd0d5a73	-0.034510087
54	0xbb139fe0	-0.0022525713
55	0xbc8276a8	-0.01592572
56	0xbd232de4	-0.039838687
57	0x3b06ae8b	0.0020550813
58	0xbcac2716	-0.021014731
59	0xbcb3f691	-0.021968158
60	0xbd00fbe0	-0.031490207
61	0xbcc166b1	-0.023608537
62	0xbcc409af	-0.023930399
63	0xbb9b1655	-0.004732887
64	0xbc8705aa	-0.016482193
65	0xbbe99ede	-0.007129534
66	0xbbe953e8	-0.007120598
67	0x3c4e51b9	0.012592726
68	0xbcd7bda9	-0.026335554
69	0xbc3d3d26	-0.011550223
70	0xbd20daf4	-0.03927131
71	0xbc8207a2	-0.01587278
72	0xbcd2a9d3	-0.025715744
73	0xbd187238	-0.037218302
74	0xbcc57a75	-0.024106244
75	0xbc9a7d62	-0.018858615
76	0xbce75f8a	-0.028243799
77	0xbd1eb5c5	-0.038747568
78	0xbceff7a6	-0.029292893
79	0xbc8eba9f	-0.017422972
