DNNWeightsDefault/model_0/ensemble_1/zz_bbtt_5.onnx (onnx, 947112 bytes, 19 tensors)

0.embeds.0.weight f4 [2, 1]
0	0x3d801dea	0.06255706
1	0x3fe64c5d	1.7992054

0.embeds.1.weight f4 [3, 2]
0	0xbf67525a	-0.90360034
1	0xbf382215	-0.71927005
2	0xbdad7aaf	-0.08470666
3	0x3fb42f87	1.4077004
4	0x400a68f4	2.1626558
5	0xbf221d8d	-0.6332634

0.embeds.2.weight f4 [2, 1]
0	0xbe7381ea	-0.23780027
1	0x3fd0a373	1.6299881

0.embeds.3.weight f4 [5, 3]
0	0x3f62d165	0.8860076
1	0xbf9d0867	-1.2268189
2	0xbeb1f969	-0.34760597
3	0x3fa07211	1.253481
4	0x3f9048cf	1.127222
5	0x3f00f51d	0.50374013
6	0xbf6f7ff4	-0.93554616
7	0x3f25dddb	0.6479165
8	0x3e83bb9c	0.25729072
9	0xc0096f25	-2.1474087
10	0xbd10fee6	-0.03539934
11	0xbf437f24	-0.76365876
12	0xbd0676b6	-0.032828055
13	0xbef2bc94	-0.474095
14	0xbf3256bd	-0.696636

0.embeds.4.weight f4 [5, 3]
0	0x3f28db64	0.65959764
1	0xbfb06c8c	-1.3783126
2	0xbfce8401	-1.6134034
3	0xbf41bb03	-0.7567598
4	0xbe921f57	-0.28539535
5	0xbf70d8ba	-0.940807
6	0x3ebdbe8d	0.3705944
7	0x3f120a00	0.5704651
8	0xbf963334	-1.1734376
9	0xbee3ebc3	-0.4451581
10	0x3fe30837	1.7736882
11	0x3f68d970	0.90956783
12	0x3f8f4615	1.1193262
13	0x3fa51fae	1.2900293
14	0x3f1a8433	0.6035797

0.embeds.5.weight f4 [2019, 50]
0	0x3efe603f	0.49682805
1	0xbe2c91fb	-0.16852562
2	0x3db05bb9	0.08611245
3	0xbea13b2f	-0.31490466
4	0x3f6f241c	0.93414474
5	0xbe51de2c	-0.20494908
6	0x3e16211c	0.14661068
7	0x3e4703c1	0.19435026
8	0x3f881f73	1.0634598
9	0x3ede46b2	0.4341331
10	0xbf9bbea1	-1.216755
11	0x3f151413	0.58233756
12	0xbeb2bdb8	-0.3491037
13	0x3fe6a2d0	1.8018436
14	0xbf87d964	-1.0613217
15	0x3e67c2cb	0.22632901
16	0xbf726d69	-0.94698197
17	0x3dc8f195	0.09811703
18	0xbf5c7932	-0.8612243
19	0x3d2322c2	0.03982807
20	0x3fa26ff9	1.2690421
21	0x3eacb04e	0.3372826
22	0x3f0c2d10	0.5475626
23	0xbe2230c1	-0.1583891
24	0x401940d5	2.394582
25	0x3f9bbcb8	1.2166967
26	0xbf288ead	-0.65842706
27	0x3e8eaa1c	0.27864158
28	0xbf684699	-0.90732723
29	0x3fa04c84	1.2523351
30	0xbe2e9400	-0.17048645
31	0xbf304bd4	-0.68865705
32	0xbf13a058	-0.5766654
33	0xbeccc451	-0.39993528
34	0x3f025a74	0.5091927
35	0x3e9b794e	0.30365986
36	0xbdc0edef	-0.09420382
37	0xbb2b27d8	-0.0026116278
38	0x3fd3802a	1.6523488
39	0xbdbdaec5	-0.0926185
40	0x3e88dd63	0.26731405
41	0xbe8dfdd8	-0.2773273
42	0xbf11edb2	-0.5700332
43	0x3f0f95ff	0.5608825
44	0xbf61c3e4	-0.8818953
45	0xbd4f1c83	-0.0505643
46	0xbed5bb8d	-0.41744652
47	0xc004dd42	-2.0760045
48	0x3f6d6acf	0.927411
49	0xbe1b8041	-0.15185644
50	0x3f1e0b2e	0.6173581
51	0xbf06f5d8	-0.5271888
52	0x3f0c9060	0.549078
53	0x3f5bb6fb	0.8582608
54	0x3f7c163b	0.9847142
55	0x3f48f332	0.78496087
56	0xbfc1803e	-1.5117261
57	0xbecfa984	-0.40559018
58	0xbfc1b886	-1.5134437
59	0xbf3a185b	-0.72693413
60	0x3f8a81ca	1.0820858
61	0x3f8fb909	1.1228343
62	0xbfe51971	-1.7898389
63	0xbce40fa9	-0.027839499
64	0x3d27f2de	0.0410031
65	0xbf35f657	-0.7107901
66	0x3db857f3	0.0900115
67	0xbfe4b837	-1.7868718
68	0xbf67ca12	-0.9054271
69	0x3f4a9e6a	0.7914797
70	0xbe0c8661	-0.13723136
71	0xbef14298	-0.4712112
72	0x3fbf2637	1.4933537
73	0xc04876c0	-3.132248
74	0x3ecfc80a	0.40582305
75	0x3f512820	0.8170185
76	0xbee8a588	-0.4543879
77	0xbd97e890	-0.07417405
78	0xbf7528c8	-0.9576535
79	0x3e350ca2	0.176806
80	0x3fb9ab93	1.4505485
81	0xbf12bf2a	-0.57322943
82	0x3f59a8ce	0.850232
83	0x3e93babe	0.2885341
84	0xbfb39d20	-1.4032326
85	0x4025ab99	2.5885985
86	0x3fa74419	1.3067657
87	0x3f080c3c	0.5314367
88	0x3f64e521	0.8941212
89	0x3c8b715a	0.017021824
90	0x3f48bb8c	0.78411174
91	0x3e3460c9	0.17615046
92	0xbea810b7	-0.32825252
93	0x3f8ebf58	1.1152143
94	0xbf67f848	-0.9061322
95	0x3ee47d96	0.44627064
96	0xbe8c63eb	-0.2741998
97	0x3e501cef	0.20323537
98	0x3e4362fd	0.1908073
99	0x3eaea9a4	0.341138
100	0xbf24bb00	-0.6434784
101	0x3f38de63	0.72214335
102	0xbfa0447a	-1.2520897
103	0xbfa8806b	-1.316419
104	0x3fe8e779	1.819564
105	0xbfed0641	-1.8517534
106	0xbefa8338	-0.48928237
107	0x3f15bc75	0.5849069
108	0xbf85d5f9	-1.0455924
109	0xbe8b3542	-0.2718907
110	0x3fac664f	1.3468722
111	0x3ead067c	0.3379401
112	0x3fd664b2	1.674948
113	0x3ea2f1ce	0.31825107
114	0xbe263d84	-0.16234404
115	0xbf79098b	-0.97280186
116	0xbf61a18c	-0.88137126
117	0x3c603ec8	0.013686843
118	0xbf9bf9e0	-1.2185631
119	0x3ebbc435	0.36673132
120	0x3e34c365	0.17652662
121	0xbfb83e68	-1.4394045
122	0x3f4fdc8c	0.811959
123	0xbfc11a5a	-1.5086167
124	0xbf1765f4	-0.59139943
125	0x3fd7e812	1.6867697
126	0xbfea12a9	-1.8286945
127	0xbec77e0f	-0.38963363
128	0xbf2e0732	-0.6797973
129	0x3f3dec60	0.74188805
130	0x3fcb2e90	1.5873585
131	0x3f249828	0.6429467
132	0xbf0565cc	-0.52108455
133	0xbfbda5da	-1.4816239
134	0x400a17b8	2.1576977
135	0xbf95b77f	-1.1696624
136	0xbdf43990	-0.11925042
137	0x3f3e9b9d	0.744562
138	0x3f6566aa	0.8960978
139	0xbe2fe370	-0.17176604
140	0xbf13bf11	-0.5771342
141	0x3f272e62	0.6530515
142	0xbddfb980	-0.10924053
143	0xbed7c988	-0.42145944
144	0x3f07324b	0.52811116
145	0xbfb1474d	-1.3849884
146	0x3cea91e9	0.028634029
147	0x3f1719e2	0.5902387
148	0xbeacac2b	-0.33725104
149	0x3e451320	0.19245577
150	0x3f8cf76a	1.1013005
151	0x3d823be8	0.063590825
152	0xbed20e9e	-0.41026777
153	0x3f903b47	1.126809
154	0xbe381acc	-0.17978972
155	0x3d38d91c	0.045128927
156	0xbf1b2d43	-0.6061594
157	0xbf83ba7a	-1.0291283
158	0xbc86774b	-0.016414305
159	0x3eb9dcfb	0.36301407
160	0x3e5eda92	0.21763065
161	0x3fe062b9	1.7530128
162	0x3f6af8c5	0.9178584
163	0x3f781d8a	0.96920073
164	0xbfc392cc	-1.5279174
165	0xbe2e7231	-0.17035748
166	0x3f3ef4d4	0.7459233
167	0x3a1b6d86	0.0005929101
168	0x3ed7bb01	0.4213486
169	0x3fb26901	1.3938295
170	0xbf5b1b42	-0.8558847
171	0xbefe2cd1	-0.49643567
172	0xbf159676	-0.5843271
173	0xbf0774cc	-0.5291259
174	0x3d513119	0.051072214
175	0xbecd5d0e	-0.40110058
176	0x3e3a129c	0.18171161
177	0x3da0315d	0.07821915
178	0xbf8fa246	-1.1221397
179	0x3f1e0535	0.61726695
180	0xbfaa29ca	-1.3294003
181	0xbf02a98c	-0.5103996
182	0x3fa189ed	1.2620217
183	0xbcddfa7c	-0.02709698
184	0xbfb93c9d	-1.4471623
185	0x3f4b7183	0.7947008
186	0x3e92c83d	0.28668395
187	0x4003b40f	2.057865
188	0x3f5d981e	0.8656024
189	0x3f587251	0.84549433
190	0xc00a66dc	-2.162528
191	0x3ef4550c	0.47721136
192	0xbf05d43c	-0.5227697
193	0x3fbce251	1.4756566
194	0x3ff8a167	1.9424256
195	0x3fa44120	1.2832375
196	0xbe1f149c	-0.15535206
197	0x3e908132	0.28223568
198	0x3f43effb	0.76538056
199	0xbd2d20ad	-0.04226749
200	0x3f20ab19	0.62761074
201	0x3ef41a1f	0.4767618
202	0xbeb14d3d	-0.3462924
203	0x3dfdd66d	0.12394414
204	0xbfe2c7cd	-1.7717224
205	0x3f06cde3	0.5265791
206	0x3f94cc3d	1.1624829
207	0x3ea68ca0	0.32529163
208	0x3e82683b	0.25470147
209	0xbf231455	-0.637029
210	0xbf0012d4	-0.5002873
211	0x3de1eb74	0.11031237
212	0xbd335e34	-0.04379101
213	0xbfc4596c	-1.5339789
214	0x3ec9bfdd	0.39404193
215	0x3dd64823	0.10462978
216	0x3f758878	0.9591136
217	0x3e9e893f	0.30964085
218	0x3fd7fd2a	1.6874135
219	0x3ed582a2	0.41701227
220	0x3cb30e1c	0.021857314
221	0x3e9c3bda	0.30514413
222	0x3f90d52c	1.1315055
223	0x3f2d217e	0.6762923
224	0xbfd359c8	-1.6511774
225	0xbf5a918d	-0.8537834
226	0xbf24770b	-0.64244145
227	0xbff69d1a	-1.9266694
228	0x3e180a19	0.14847602
229	0xbfc94e23	-1.572697
230	0xbe65faed	-0.22459002
231	0xbfb6c4f3	-1.4278854
232	0x3d64f079	0.055893395
233	0xbfcec617	-1.6154202
234	0x3f552d28	0.8327203
235	0xbed74892	-0.42047554
236	0x3f60687a	0.8765942
237	0xbef54391	-0.47903112
238	0xbde161a1	-0.11004949
239	0x3f8ad30f	1.084566
240	0x3f4dc666	0.80380857
241	0xbf477452	-0.77911866
242	0x3f7b7449	0.9822431
243	0xbecbb995	-0.39790025
244	0x3f482597	0.7818236
245	0x3fa53c46	1.2909019
246	0xbefe0348	-0.49611878
247	0x3f3aad7b	0.7292096
248	0xbf7b8b4c	-0.98259425
249	0xbf39245f	-0.7232112
250	0xbef8e1d8	-0.48609805
251	0xbea246e0	-0.31694698
252	0x3fe95efe	1.8232114
253	0x3f6fa335	0.9360841
254	0xbdfbc483	-0.12293341
255	0x3db8addf	0.09017538

1.layers.0.0.bias f4 [80]
0	0xbbef6457	-0.0073056626
1	0xbd89ebcd	-0.067344286
2	0xbd9be6d5	-0.07612387
3	0xbd0286a9	-0.031866703
4	0xbd0f9367	-0.035052683
5	0xbd764b8c	-0.06013064
6	0xbcae8e97	-0.021308227
7	0xbb8adffb	-0.0042381263
8	0xbd45c472	-0.048283048
9	0xbd87c413	-0.06629195
10	0xbd4737bb	-0.048637133
11	0xbd2c0a4c	-0.042002007
12	0xbcf24c7d	-0.029577488
13	0xbd56b8e0	-0.052422404
14	0xbb85cfe4	-0.0040836204
15	0xbd5da81e	-0.054115407
16	0xbd049718	-0.032370657
17	0xbd0985a9	-0.033574734
18	0xbd0cd928	-0.034386784
19	0xbd3a27e2	-0.04544819
20	0xbd16556e	-0.036702566
21	0xbd336a93	-0.04380281
22	0xbd2e7ad1	-0.042597596
23	0xbdb74105	-0.08947948
24	0xbd9046fb	-0.070447885
25	0xbc852992	-0.016255174
26	0xbcfec384	-0.031099088
27	0xbd42638d	-0.04745822
28	0xbdb93f4f	-0.09045278
29	0xbba95e64	-0.005168723
30	0xbd35880f	-0.04431921
31	0xbd843c6d	-0.06456838
32	0xbc45ae18	-0.012065433
33	0xbd142180	-0.03616476
34	0xbcfdf625	-0.03100116
35	0xbd4bc6e8	-0.04975024
36	0xbd1ac81d	-0.0377885
37	0xbcfee8af	-0.031116812
38	0xbdcf720c	-0.101291746
39	0xbd275052	-0.040848084
40	0xbcbe027d	-0.023194546
41	0xbd2d13e0	-0.042255282
42	0xbd1af1c8	-0.037828237
43	0xbd5631f4	-0.052293733
44	0xbd067316	-0.0328246
45	0x3be89424	0.007097738
46	0xbd1acd16	-0.03779324
47	0xbd431fdd	-0.04763781
48	0xbc776029	-0.01509861
49	0xbd1ce43c	-0.0383036
50	0x3bdf6f7d	0.0068187104
51	0xbbb75636	-0.005594994
52	0xbc3d6f15	-0.011562129
53	0xbc22358e	-0.009900464
54	0xbd2ab9dd	-0.04168116
55	0xbb376be3	-0.002798789
56	0xbc5a8b80	-0.013338923
57	0xbd98997b	-0.07451149
58	0xbd4c6d99	-0.049909208
59	0xbcf9d482	-0.03049684
60	0xbdf28de7	-0.11843472
61	0xbd5f5fd4	-0.05453475
62	0xbd0ce633	-0.034399223
63	0xbdc61646	-0.09672217
64	0xbd014fca	-0.031570233
65	0xbd0d70d4	-0.03453143
66	0xbd82ef96	-0.06393354
67	0xbd3e354c	-0.046437547
68	0xbd5b698d	-0.053567458
69	0xbd82c91b	-0.06386014
70	0xbd8c1073	-0.06839075
71	0xbccac4ae	-0.024751987
72	0xbcbb404a	-0.022857804
73	0xbcd27834	-0.025692083
74	0xbd53c867	-0.05170479
75	0xbda2996c	-0.07939419
76	0x3c71265b	0.014718617
77	0xbd60badd	-0.054865707
78	0xbcd7a0e2	-0.026321832
79	0xbc8ee0c6	-0.017441165

1.layers.0.0.weight f4 [80, 80]
0	0xbe0a5ac6	-0.1351119
1	0x3b96e7d5	0.0046052733
2	0x3e5bd24d	0.21466942
3	0xbe2328af	-0.15933488
4	0xbe749caf	-0.23887895
5	0x3d2e9d98	0.04263076
6	0xbd279ade	-0.040919177
7	0xbddb9ecb	-0.10723647
8	0xbd1a9d9a	-0.037747957
9	0xbda89904	-0.082323104
10	0xbea56d92	-0.32310158
11	0x3eef4003	0.46728525
12	0xbeaee9a3	-0.34162626
13	0xbb0c9499	-0.0021450876
14	0xbe715219	-0.23566474
15	0x3e8109fa	0.25202924
16	0x3c02da1a	0.00798657
17	0xbdeaa630	-0.11457479
18	0x3da2ccf9	0.07949252
19	0x3d7e70f7	0.06211945
20	0xbcadcd60	-0.021216094
21	0xbd7e3c4c	-0.062069222
22	0xbdf155c0	-0.11783934
23	0xbe352479	-0.17689694
24	0xbd940eaa	-0.072293594
25	0xbe6b8aad	-0.2300212
26	0xbe18306a	-0.14862218
27	0x3d3f8ffc	0.046768174
28	0x3d6e8cf1	0.05823988
29	0x3c65f1dc	0.014034715
30	0x3d6f0c27	0.0583612
31	0x3e196d70	0.14983153
32	0x3e682410	0.22670007
33	0x3b117b12	0.00221986
34	0x3e3b4bc3	0.1829062
35	0x3cef52fd	0.029214377
36	0x3d3e42f8	0.046450585
37	0x3da62f93	0.08114543
38	0x3d4e853c	0.05042003
39	0xbea7f482	-0.32803732
40	0x3e5b106c	0.21392983
41	0xbdcb7909	-0.09935195
42	0xbdb0d5b7	-0.08634513
43	0xbdcf64f2	-0.10126676
44	0xbdad42b6	-0.0845999
45	0x3dd51090	0.1040355
46	0x3e3f3bd5	0.18675168
47	0x3de69c44	0.11260274
48	0x3e34b6dc	0.1764788
49	0x3e9250af	0.28577182
50	0xbb48f344	-0.0030662576
51	0xbde44b8c	-0.11147222
52	0x3d97873c	0.07398841
53	0x3dbd66c3	0.09248116
54	0xbd1561cb	-0.036470216
55	0x3dd3d917	0.10344141
56	0xbe2a4d6e	-0.166311
57	0xbd8fff57	-0.07031124
58	0x3e12ad3d	0.14323898
59	0xbb8877e7	-0.004164684
60	0xbe0d2ea9	-0.1378733
61	0xbe14ad61	-0.14519264
62	0x3e981239	0.29701403
63	0xbe203416	-0.15644869
64	0xbe2cb234	-0.16864854
65	0x3daba91d	0.08381865
66	0x3e451f63	0.19250254
67	0x3ca5cc71	0.020239087
68	0xbdbe72f0	-0.09299266
69	0x3c9d7812	0.019222293
70	0xbd585402	-0.05281449
71	0x3e09f755	0.13473256
72	0x3d895200	0.067050934
73	0xbd28ec65	-0.04124107
74	0xbe5325c8	-0.20619881
75	0xbd10ee59	-0.035383556
76	0x3dad29b1	0.08455218
77	0x3d90d0b5	0.07071058
78	0xbceee549	-0.029162066
79	0x3d9ddefc	0.077085465
80	0xbd030f8b	-0.031997245
81	0xbe9202e0	-0.28517818
82	0x3ea321f1	0.31861833
83	0x3e15a078	0.14611995
84	0x3f031976	0.51210725
85	0x3dcea2ee	0.1008967
86	0x3e26e7b8	0.16299331
87	0xbde47ec4	-0.11156991
88	0x3d59073a	0.052985407
89	0xbe9e0df4	-0.3087002
90	0xbe63a225	-0.22229822
91	0xbca852eb	-0.02054735
92	0x3e4ffcc2	0.20311263
93	0xbd53fc34	-0.05175419
94	0x3e1f3b61	0.15549995
95	0xbeb15454	-0.3463465
96	0x3de1ebca	0.11031301
97	0x3d90165f	0.07035517
98	0x3cdac5dd	0.026705677
99	0x3d7c2185	0.061555404
100	0xbe139e4a	-0.14415851
101	0x3e0769ec	0.13224
102	0x3c295bdf	0.010336845
103	0xbdd75460	-0.1051414
104	0x3eb5a9b4	0.35481036
105	0xbcf54614	-0.029940642
106	0x3e206489	0.15663351
107	0xbd23e116	-0.04000958
108	0xbcbe188d	-0.023205066
109	0xbe801b3e	-0.25020784
110	0xbd176815	-0.036964495
111	0xbe73c8d7	-0.23807083
112	0xbe442e5d	-0.19158311
113	0x3d88d5ea	0.06681426
114	0x3d0dd454	0.03462632
115	0x3ca45bd0	0.02006331
116	0xbe2742fc	-0.16334146
117	0x3d7c0ede	0.061537616
118	0x3e139ed3	0.14416055
119	0x3daf7bbe	0.08568524
120	0xbdd4471f	-0.10365128
121	0xbd3268d1	-0.043556992
122	0xbe172cc5	-0.14763172
123	0xbd868333	-0.06567993
124	0xbda403e0	-0.080085516
125	0xbe301f80	-0.17199516
126	0x3e3a032f	0.18165277
127	0xbdd2773c	-0.102766484
128	0xbd96d7df	-0.07365393
129	0x3d60506f	0.054764207
130	0x3e0fcb4b	0.14042394
131	0xbe90a3f3	-0.28250083
132	0xbe0d5406	-0.13801584
133	0xbd210725	-0.039313454
134	0x3e11bde1	0.1423259
135	0x3e396bd4	0.1810754
136	0x3e708169	0.23486866
137	0xbe06dd09	-0.13170256
138	0x3e5bf890	0.21481538
139	0x3e966439	0.2937334
140	0xbdc07188	-0.09396654
141	0x3ec87554	0.39152014
142	0xbaecab4d	-0.0018056423
143	0xbdb99b48	-0.09062821
144	0x3dee57b2	0.1163782
145	0x3e7e2844	0.24820048
146	0x3d12676f	0.035743173
147	0xbdbb5be9	-0.0914839
148	0xbd3109ed	-0.043222357
149	0x3d1228de	0.035683505
150	0x3dbf538d	0.09342108
151	0x3e705424	0.23469597
152	0xbe780c38	-0.24223411
153	0x3c796d8f	0.015223875
154	0x3db411da	0.087924674
155	0xbe55ceee	-0.20879719
156	0xbe421b8b	-0.1895582
157	0xbe8537a6	-0.2601902
158	0x3de19d69	0.11016352
159	0xbefe1c9e	-0.49631208
160	0x3e164cb9	0.14677705
161	0x3c6fefe5	0.014644598
162	0xbc7a6d1b	-0.015284802
163	0xbda618ab	-0.08110174
164	0x3e99c32d	0.3003172
165	0x3e064f53	0.13116197
166	0x3e3f1ffd	0.18664546
167	0xbd81f8d7	-0.063462906
168	0xbd851463	-0.06498029
169	0xbec9a8bb	-0.39386544
170	0x3e876876	0.26446885
171	0xbe90c087	-0.28271887
172	0xbdeda935	-0.11604539
173	0x3e92e31f	0.28688905
174	0x3b3c95ac	0.0028775735
175	0x3ddb21c3	0.10699799
176	0xbe0cab61	-0.13737251
177	0x3d9500da	0.07275553
178	0xbeb6ac30	-0.35678244
179	0x3e3fe197	0.187384
180	0xbdcb259a	-0.09919281
181	0x3dd6ec79	0.10494322
182	0xbd6f74b0	-0.05846089
183	0xbe258d70	-0.16167235
184	0xbe8d1340	-0.2755375
185	0x3e14651e	0.14491698
186	0x3e52b524	0.20576912
187	0xbe123fec	-0.14282197
188	0xbe7b9039	-0.24566735
189	0xbee022d4	-0.43776572
190	0xbdf64bb3	-0.12026157
191	0x3eba934d	0.36440507
192	0x3dc350ea	0.095369175
193	0x3e99e5ac	0.30058038
194	0x3d784fd0	0.06062299
195	0x3d12a05c	0.035797462
196	0x3d6f3c44	0.058407083
197	0x3dd8dc33	0.10588875
198	0x3dd5a8bd	0.10432575
199	0xbdb828e4	-0.08992174
200	0xbd6fc2dc	-0.05853544
201	0xbc75e99c	-0.01500931
202	0x3e05e8a7	0.13077031
203	0x3ec3ade4	0.38218606
204	0x3e6c3689	0.23067679
205	0xbe2d3100	-0.16913223
206	0xbdc162e2	-0.094426885
207	0x3d3061f5	0.04306217
208	0xbd59fb97	-0.05321845
209	0xbddbd0bc	-0.10733172
210	0xbe813dfe	-0.2524261
211	0x3d9c2c9d	0.07625697
212	0xbd008395	-0.031375486
213	0xbe61177a	-0.21981612
214	0x3e8bb25d	0.27284518
215	0xbe08e565	-0.13368757
216	0x3daea090	0.085267186
217	0x3dfeb0f2	0.124360934
218	0x3eaa6d19	0.3328636
219	0xbd75933b	-0.059954863
220	0x3e9adb68	0.3024552
221	0x3d4a6098	0.049408525
222	0x3d9c5506	0.076334044
223	0x3e31cd40	0.17363453
224	0xbe254c61	-0.16142417
225	0x3e7f67f1	0.24941994
226	0xbe030ce3	-0.12797885
227	0xbd4190d2	-0.047257252
228	0xbd1ef8e2	-0.038811572
229	0xbe29cfa8	-0.16583121
230	0x3e12ae4e	0.14324304
231	0xbea3fa08	-0.32026696
232	0xbdf742ec	-0.12073311
233	0xbe6ee342	-0.2332888
234	0x3e52832b	0.20557849
235	0xbcbde2bc	-0.023179404
236	0x3d0c4644	0.034246698
237	0x3c80794c	0.015682839
238	0x3e3935da	0.18086949
239	0xbc8af99d	-0.016964728
240	0x3e16a503	0.14711384
241	0xbe31d5d3	-0.17366724
242	0xbc4ae8d1	-0.012384609
243	0x3e070473	0.13185291
244	0x3e0ed320	0.13947725
245	0x3e4344aa	0.19069162
246	0x3e839f18	0.25707316
247	0x3df02c7a	0.11727233
248	0xbda20264	-0.07910612
249	0xbe384147	-0.17993651
250	0xbeb86210	-0.36012316
251	0x3dd8cfcc	0.10586509
252	0x3ea0ed38	0.31430984
253	0x3e2b7295	0.16742928
254	0x3d0d2d79	0.034467194
255	0x3dc73790	0.097273946

1.layers.1.0.bias f4 [80]
0	0xbd2a1e79	-0.041532967
1	0xbd231b7a	-0.039821126
2	0xbd812573	-0.06305971
3	0xbd1461eb	-0.036226194
4	0xbd8c556b	-0.0685223
5	0xbd462a91	-0.04838044
6	0xbcbdc8bb	-0.023167005
7	0xbd54a8bd	-0.051918734
8	0xbd0701ae	-0.032960586
9	0xbd150a45	-0.036386747
10	0xbd25968a	-0.04042677
11	0xbd54d747	-0.051963117
12	0xbad127ac	-0.0015957258
13	0xbd45e14d	-0.048310567
14	0xbc777daf	-0.015105649
15	0xbb36e094	-0.0027904855
16	0xba254a6f	-0.0006305342
17	0xbd74a2ef	-0.059725698
18	0xbb85dafa	-0.004084942
19	0xbc8301e1	-0.015992107
20	0xbcab365c	-0.020899944
21	0xbcbbc012	-0.022918735
22	0xbd227363	-0.039660823
23	0xbd27431a	-0.040835477
24	0xbced59ec	-0.028973542
25	0xbc374ddc	-0.011187997
26	0xbd5b4cbf	-0.053539988
27	0xbcf082b0	-0.029359192
28	0xbd3443e2	-0.04401005
29	0xbd8041d1	-0.062625535
30	0xbc274bf6	-0.010210982
31	0xbd57103e	-0.052505724
32	0xbd041641	-0.032247785
33	0xbce860a8	-0.028366402
34	0xbd738379	-0.059451554
35	0xbd51e3c3	-0.0512426
36	0xbd1c9f13	-0.038237642
37	0xbd89875f	-0.06715273
38	0xbd0f8855	-0.035042126
39	0xbd2467b9	-0.04013798
40	0xbd068f37	-0.032851424
41	0xbd1a061e	-0.03760349
42	0xbcf47f20	-0.029845774
43	0xbd003eec	-0.031310007
44	0xbcdb14d9	-0.02674334
45	0xbd388246	-0.045046113
46	0xbd8d2bf4	-0.06893149
47	0xbcf33741	-0.029689433
48	0xbd1ebb38	-0.038752764
49	0xbc29d454	-0.010365564
50	0xbd75e17e	-0.0600295
51	0xbd83e6be	-0.06440495
52	0xbd74bcc4	-0.059750333
53	0xbd8206cc	-0.06348953
54	0xbc8ea3c8	-0.017412081
55	0xbc034e97	-0.008014343
56	0xbcc33fe6	-0.02383418
57	0xbd188c35	-0.037243087
58	0xbc546bee	-0.012965186
59	0xbd5008ee	-0.050789766
60	0xbda31f7a	-0.07964988
61	0x39cb2657	0.00038747743
62	0xbd43a7db	-0.0477675
63	0xbd05beb1	-0.03265256
64	0xbd164b48	-0.036692888
65	0xbd1a3d1a	-0.037655927
66	0xbd0c9067	-0.0343174
67	0xbd4a27fb	-0.049354535
68	0xbd5a20b9	-0.053253863
69	0xbc32445e	-0.010880558
70	0xbd829079	-0.06375212
71	0xbd0f4c73	-0.034985017
72	0xbcbeedfa	-0.023306835
73	0xbd042091	-0.03225762
74	0xbcfb1d72	-0.030653689
75	0xbd380001	-0.04492188
76	0xbcf9cc78	-0.030493006
77	0xbd0f219b	-0.034944158
78	0xbd709334	-0.058734134
79	0xbcf5ca3a	-0.030003656

1.layers.1.0.weight f4 [80, 160]
0	0x3d847c37	0.064690046
1	0xbe15a2b6	-0.1461285
2	0x3bd714f2	0.006563776
3	0x3db0f893	0.08641162
4	0x3d873ecb	0.06603774
5	0xbdaa0541	-0.08301783
6	0x3e0ef4f7	0.13960634
7	0x3c576a9d	0.013147977
8	0xbda257da	-0.079269126
9	0x3e1eac46	0.15495405
10	0xbe4507f2	-0.19241312
11	0xbd83c52f	-0.06434094
12	0xbdd66e77	-0.10470288
13	0xbe5b4490	-0.21412873
14	0xbe28c4e8	-0.16481364
15	0x3e0d9940	0.13827991
16	0xbd1656b3	-0.036703777
17	0xbc8ac8bf	-0.016941426
18	0x3d4b8e76	0.04969641
19	0x3e0f79f0	0.14011359
20	0x3d41ff97	0.04736289
21	0xbe40bf45	-0.18822964
22	0xbd1203e1	-0.03564823
23	0xbda6072c	-0.08106837
24	0x3d811f29	0.063047715
25	0xbdb87605	-0.090068854
26	0xbe159a87	-0.14609729
27	0xbc9a9eee	-0.018874612
28	0x3df999e3	0.12187555
29	0x3d94c0a8	0.07263309
30	0xbdbb2223	-0.091373704
31	0x3da4c451	0.08045257
32	0x3d824749	0.06361253
33	0x3d2fedb0	0.042951286
34	0xbd98f4d6	-0.07468574
35	0xbe844521	-0.2583399
36	0xbdc5461c	-0.09632513
37	0xbe107c15	-0.14109834
38	0xbc365333	-0.011128235
39	0xbe1fd114	-0.156071
40	0x3e0bc907	0.13650905
41	0xbdafac75	-0.085778154
42	0x3cd07c08	0.025449768
43	0xbb62af51	-0.003458936
44	0x3d6146be	0.054999106
45	0x3c46381f	0.012098341
46	0xbdf9e179	-0.122012086
47	0xbd287d7b	-0.041135293
48	0xbde154d8	-0.11002511
49	0x3e309fee	0.17248508
50	0x3d2fb8dc	0.042900905
51	0xbe6d5551	-0.23177077
52	0xbd202b69	-0.0391039
53	0x3c345b94	0.011008162
54	0x3e05fadf	0.13083981
55	0x3e30dee4	0.17272526
56	0x3d5f38fb	0.0544977
57	0xbc71972a	-0.014745513
58	0x3e764026	0.24047908
59	0xbe2b2c45	-0.16716106
60	0xbdabbc86	-0.08385567
61	0x3cdc41fd	0.026886934
62	0xbe6619ba	-0.22470751
63	0x3dcec04f	0.10095274
64	0x3ce84c79	0.028356778
65	0xbd4fd419	-0.05073938
66	0x3cf5b5b3	0.029993868
67	0x3e221adb	0.15830557
68	0xbe4db6c5	-0.20089252
69	0x3e2e88ac	0.17044324
70	0x3dfc42b5	0.12317411
71	0xbd8fc090	-0.0701915
72	0x3e8fd50a	0.28092223
73	0xbbe28497	-0.0069127786
74	0xbd9766e8	-0.07392675
75	0xbde01a11	-0.10942472
76	0x3e1f2c16	0.15544161
77	0xbe2c05d7	-0.16799103
78	0x3e1788cd	0.14798279
79	0x3dd0b9a7	0.101916604
80	0xbe0a425d	-0.13501878
81	0xbe8f39d8	-0.2797382
82	0x3ecd3a9f	0.40083787
83	0x3e3aa26e	0.18226025
84	0x3d4446db	0.047919136
85	0xbd651c25	-0.055935044
86	0x3da1c06f	0.07898032
87	0x3cedc07b	0.029022446
88	0x3b979f30	0.004627131
89	0xbd09a255	-0.033602078
90	0xbd61a070	-0.055084646
91	0x3e9def23	0.3084651
92	0xbd97eb94	-0.0741798
93	0xbd10f900	-0.035393715
94	0x3e8d60f6	0.27613038
95	0x3e6e0f46	0.23248014
96	0xbc6126e0	-0.013742179
97	0xbdd9df6e	-0.10638319
98	0x3dc90781	0.098158844
99	0x3b7701aa	0.00376902
100	0x3e117d56	0.14207968
101	0xbd3923d5	-0.045200188
102	0xbe715f28	-0.23571455
103	0xbebf15e9	-0.37321404
104	0x3debe0bc	0.11517474
105	0x3d88a3b7	0.06671851
106	0x3dd957bd	0.10612438
107	0xbe01966a	-0.12655035
108	0xbe09b33e	-0.13447282
109	0xbe22a6eb	-0.15883987
110	0x3c68fb8c	0.01422013
111	0x3d3eeee8	0.046614558
112	0x3d0fa43a	0.035068728
113	0x3c5db417	0.013531706
114	0x3de92286	0.11383538
115	0xbd288fcc	-0.04115276
116	0x3e771c84	0.24131972
117	0x3df0f626	0.11765699
118	0x3d8a2b9e	0.067466006
119	0x3c3f783f	0.011686384
120	0xbc399517	-0.01132705
121	0x3ddc37cf	0.10752832
122	0xbbf05033	-0.0073337792
123	0x3d6fa77f	0.058509346
124	0xbe18cf91	-0.1492293
125	0xbd91801a	-0.071045116
126	0xbdc5459c	-0.096324176
127	0x3db828cf	0.089921586
128	0xbcbb0319	-0.022828626
129	0xbcf745b5	-0.030184606
130	0xbd818495	-0.06324116
131	0xbd0bcf32	-0.034133144
132	0x3e054556	0.13014731
133	0xbd5d0e47	-0.053968694
134	0x3c107aca	0.008818338
135	0x3e0e6d44	0.13908869
136	0x3d528649	0.051397596
137	0x3ddc4918	0.10756129
138	0x3da02026	0.07818632
139	0x3bec6535	0.0072142133
140	0x3e05d5a8	0.13069785
141	0x3e63f2b8	0.22260559
142	0xbe71579d	-0.23568578
143	0x3e1baffc	0.15203851
144	0x3da557e7	0.08073407
145	0xbe3b1b9d	-0.18272252
146	0x3d10ac1d	0.03532039
147	0x3c78cb3c	0.015185174
148	0xbd443876	-0.047905408
149	0xbe0c2280	-0.13685036
150	0x3bcb02ff	0.0061954255
151	0xbded8f3e	-0.11599587
152	0x3d876204	0.06610492
153	0xbd6ad80b	-0.05733494
154	0xbd66e9c3	-0.056375276
155	0xbdb036e9	-0.08604223
156	0x3bb322f0	0.0054668114
157	0xbe6180aa	-0.22021738
158	0xbdabce42	-0.0838895
159	0xbd94ea00	-0.072711945
160	0xbe3c5fb8	-0.18395889
161	0xbdee2a2a	-0.11629136
162	0x3af489cf	0.0018656793
163	0x3ccca6e1	0.024981918
164	0x3d17e272	0.03708119
165	0xbe444508	-0.19166958
166	0x3bd402d2	0.006470063
167	0x3b38f35c	0.0028221225
168	0xbd0d329c	-0.034472093
169	0xbe711695	-0.2354377
170	0x3e0ccf40	0.13750935
171	0xbe8a6ec8	-0.27037644
172	0xbdf2a715	-0.118482746
173	0x3df9a11c	0.12188932
174	0x3dd86e79	0.10567946
175	0xbdeab2fa	-0.11459918
176	0xbe456f65	-0.19280775
177	0x3e13cc04	0.14433295
178	0x3b8e65de	0.0043456396
179	0xbdb34809	-0.08753974
180	0x3e3c14eb	0.18367355
181	0xbe407e89	-0.1879827
182	0xbdbb7c2d	-0.09154544
183	0x3ddd88dd	0.1081712
184	0xbda33756	-0.07969539
185	0xbe3e2087	-0.18567096
186	0xbe427765	-0.18990858
187	0xbd632583	-0.055455696
188	0x3d2abba2	0.041682847
189	0x3e139f7a	0.14416304
190	0xbbf60140	-0.007507473
191	0xbd2ce4e0	-0.04221046
192	0x3d858cfa	0.0652103
193	0xbe1375ae	-0.1440036
194	0x3cbdfbd1	0.023191364
195	0x3e195f11	0.14977671
196	0x3e1c302b	0.1525275
197	0x3d8a15c8	0.06742436
198	0x3d2300dc	0.03979574
199	0xbd6fc399	-0.058536146
200	0x3e9beb12	0.30452782
201	0xbe10ff5b	-0.1415991
202	0xbd001fcc	-0.031280324
203	0x3e42ba44	0.19016367
204	0xbd159be5	-0.036525626
205	0x3ce729fa	0.028218258
206	0xbea4f5ae	-0.3221869
207	0xbd425726	-0.047446392
208	0x3dff86df	0.124768965
209	0xbb801f7a	-0.0039100023
210	0xbc856907	-0.016285433
211	0xbe467039	-0.19378747
212	0x3e42685a	0.1898512
213	0x3d617623	0.055044305
214	0xbe318a5b	-0.17337935
215	0xbd7969e5	-0.060892005
216	0xbe3e1cea	-0.18565717
217	0xbe05fbbe	-0.13084313
218	0x3deb0084	0.11474708
219	0xba91977f	-0.0011107771
220	0xbdd9d52a	-0.10636361
221	0xbdc77ea1	-0.097409494
222	0xbbe2e70f	-0.006924517
223	0x3d71997f	0.058984276
224	0x3dfcf777	0.12351888
225	0xbd0d3d70	-0.03448242
226	0xbbb8105d	-0.005617185
227	0xbcd8643b	-0.026414981
228	0xbd9f4cb0	-0.07778299
229	0x3e24f776	0.16110024
230	0x3c8695bc	0.01642882
231	0xbd79b707	-0.060965564
232	0x3e452ee2	0.19256166
233	0x3df5722b	0.119846664
234	0x3ea50525	0.32230487
235	0xba1bf789	-0.00059496664
236	0xbec76517	-0.38944313
237	0x3dad3de3	0.084590696
238	0xbd73b6c4	-0.05950047
239	0xbc9e313b	-0.019310584
240	0xbe95c738	-0.29253554
241	0xbe56f12c	-0.20990437
242	0xbda1a16a	-0.078921154
243	0xbdb7825b	-0.0896041
244	0x3d76a61b	0.060217004
245	0x3e7407e0	0.23831129
246	0xbe179f9e	-0.14806983
247	0x3e510667	0.20412599
248	0xbe22b623	-0.15889792
249	0x3dab8960	0.083758116
250	0xbdc288ca	-0.09498747
251	0xbd8033e1	-0.06259895
252	0x3e18eace	0.14933321
253	0xbddfdf2c	-0.109312385
254	0x3d4ca288	0.04995969
255	0x3c97ccd2	0.018530283

1.layers.2.0.bias f4 [80]
0	0xbcf2583f	-0.029583095
1	0xbc6832c9	-0.014172264
2	0xbbfd9bae	-0.0077395057
3	0xbd0742d0	-0.0330227
4	0xbcc3f950	-0.023922592
5	0x3c35da6f	0.011099442
6	0xbc6c12a5	-0.014408742
7	0xbcc2787d	-0.023739094
8	0xbc80cf80	-0.015723944
9	0xbd5b6e11	-0.053571764
10	0xbc4a40d3	-0.012344557
11	0xbccf0c46	-0.025274407
12	0xbd850cac	-0.064965576
13	0xbd1101c9	-0.035402093
14	0xbd1fbe69	-0.03899995
15	0xbb3dca40	-0.0028959662
16	0xbcc4a3d0	-0.024003893
17	0xba9a8329	-0.0011788356
18	0xbca00892	-0.019535337
19	0xbcba04c6	-0.022707354
20	0xbd612484	-0.054966465
21	0xbc72a821	-0.014810593
22	0xbd42df76	-0.04757639
23	0xbcb60717	-0.022220178
24	0xbd89af19	-0.0672285
25	0xbd69336d	-0.05693381
26	0xbd88c5bf	-0.06678342
27	0xbd71e05e	-0.059051864
28	0xbd5eeed2	-0.054426976
29	0xbcf622e8	-0.030045941
30	0xbce26566	-0.027636241
31	0xbd6d9036	-0.05799886
32	0xbd112729	-0.035437737
33	0xbd5b3697	-0.053518858
34	0xbbfaa0ef	-0.0076485793
35	0xbd680070	-0.056641042
36	0xbd02c247	-0.03192356
37	0xbd64121a	-0.055681325
38	0xbd1833fb	-0.037158947
39	0xbd993038	-0.074799
40	0xbd993f2f	-0.074827544
41	0xbd23ef4d	-0.040023137
42	0xbd10c3eb	-0.035343092
43	0xbd26df49	-0.040740285
44	0xbcf07aaa	-0.029355366
45	0xbd024bfc	-0.031810746
46	0xbd20d159	-0.03926215
47	0xbd9d0e03	-0.07668688
48	0xbd46f315	-0.048571665
49	0xbd516622	-0.051122792
50	0xbca28206	-0.01983739
51	0xbd0b127b	-0.03395317
52	0xbd612903	-0.054970752
53	0xbd1ae4dc	-0.037815914
54	0xbd14735e	-0.036242835
55	0xbd546bed	-0.05186074
56	0xbd25be0c	-0.040464446
57	0xbcf7d4e6	-0.030252885
58	0xbd0fd10e	-0.03511148
59	0xbb23aa50	-0.002497334
60	0xbc3f0823	-0.011659655
61	0xbcc14d98	-0.02359657
62	0xbcb8b83e	-0.022548791
63	0xbd6991c5	-0.057023782
64	0xbceca9d5	-0.028889576
65	0xbcc19298	-0.023629472
66	0xbcfc94e7	-0.03083272
67	0xbd12c95c	-0.035836563
68	0xbd498f56	-0.04920896
69	0xbd603aa3	-0.05474342
70	0xbd2e6471	-0.042576257
71	0xbcc8de44	-0.024520047
72	0xbd4734ad	-0.04863422
73	0xbc7ef1e1	-0.015560598
74	0xbc177f98	-0.009246729
75	0xbc94d5f2	-0.018168423
76	0xbc1f8de6	-0.009738421
77	0xbcdf3b90	-0.027250081
78	0xbd42c0ec	-0.047547266
79	0xbd6683f2	-0.056278177

1.layers.2.0.weight f4 [80, 240]
0	0xbc19f185	-0.009395962
1	0x3e6a319e	0.2287049
2	0x3d027cf0	0.03185743
3	0x3d923759	0.07139463
4	0x3e06adb5	0.13152201
5	0x3d2feee0	0.04295242
6	0x3d49727b	0.049181443
7	0xbdbd5c18	-0.09246081
8	0xbc9a6122	-0.018845145
9	0xbdf11cf7	-0.11773103
10	0xbd8ef051	-0.069794305
11	0x3dbc9cdf	0.09209608
12	0x3c40a9d0	0.011759236
13	0x3e77d887	0.24203692
14	0xbe110bb7	-0.14164625
15	0x3d0fa08a	0.03506521
16	0x3d0d61fa	0.034517266
17	0xbe038758	-0.12844598
18	0x3d5c68af	0.05381077
19	0xbd5765aa	-0.05258719
20	0x3ebcb799	0.36858824
21	0xbb389598	-0.0028165337
22	0xbda497d7	-0.08036774
23	0xbdc6a2d5	-0.096990265
24	0xbcaee6eb	-0.021350345
25	0xbdef01f2	-0.11670293
26	0x3d477799	0.04869804
27	0x3debfe3b	0.115231
28	0x3e0cf69a	0.13765946
29	0x3d084454	0.033268288
30	0xbd96b65b	-0.07359
31	0xbe2256c1	-0.15853406
32	0xbdba995b	-0.091112815
33	0xbd88e5d2	-0.0668446
34	0x3c80bfb4	0.015716411
35	0x3d340648	0.043951303
36	0x3df399e5	0.118945874
37	0x3cca9bb4	0.024732448
38	0x3d0bfce3	0.03417672
39	0x3dd5cb5f	0.104391806
40	0x3db6c59f	0.08924412
41	0x3d827183	0.06369307
42	0x3d3f189b	0.046654325
43	0x3d94a0a0	0.07257199
44	0xbe4cc8d0	-0.19998479
45	0x3dfb63e4	0.12274912
46	0xbcfe289a	-0.03102522
47	0x3e177232	0.14789656
48	0x3ddbceed	0.10732827
49	0x3dca8686	0.098889396
50	0xbd42e3d9	-0.047580574
51	0xbcae6464	-0.021288104
52	0xbb1bf263	-0.0023795597
53	0x3db95128	0.090486825
54	0xbe255c8a	-0.16148582
55	0x3de17fe8	0.11010724
56	0xbc5a2a7a	-0.013315791
57	0x3c999adb	0.018750599
58	0xbcd8b194	-0.026451863
59	0x3cf0c851	0.029392393
60	0xbd90db39	-0.070730634
61	0xbdc0bd23	-0.09411075
62	0x3e15b2e8	0.14619029
63	0x3db735f4	0.089458376
64	0x3ba275a6	0.0049578724
65	0xbe24c0db	-0.16089194
66	0x3e586fa3	0.21136336
67	0x3d8ee574	0.069773585
68	0x3e6dad01	0.23210527
69	0xbc87ead0	-0.01659146
70	0x3c38d164	0.011280391
71	0x3e149578	0.14510143
72	0x3dbaf43c	0.09128615
73	0xbd974b6b	-0.07387432
74	0x3c25f2e6	0.010128712
75	0xbb200b52	-0.002442081
76	0x3dd47c22	0.10375239
77	0x3d268f23	0.04066385
78	0xbd6776a5	-0.056509633
79	0x3e1d8d27	0.15385877
80	0xbd0bc20b	-0.0341206
81	0xbd8dd3d9	-0.06925172
82	0x3cab4c03	0.020910269
83	0x3e0df278	0.13862026
84	0x3d95aeb6	0.07308714
85	0x3bdc23a5	0.0067181163
86	0x3cb11a6e	0.021619048
87	0x3d2183ee	0.03943246
88	0x3d807d6d	0.06273923
89	0xbd7cebc8	-0.061748296
90	0xbbaaa255	-0.00520734
91	0xbe11a2b5	-0.14222224
92	0x3d9191c9	0.071078844
93	0x3e0b9754	0.13631946
94	0xbc430e0a	-0.011905203
95	0xbd0ccce6	-0.034375094
96	0xbd081a5e	-0.03322827
97	0x3dcbc663	0.09949949
98	0xbdb321ae	-0.08746658
99	0x3c14428c	0.009049069
100	0x3b1cc099	0.0023918508
101	0xbe7ac2e8	-0.24488413
102	0xbd3b45b5	-0.045720775
103	0xbd1aa9df	-0.037759658
104	0xbd1b1bb0	-0.0378682
105	0xbdf4de24	-0.119564325
106	0x3e28b72f	0.16476129
107	0x3d0ae547	0.033910062
108	0x3de653db	0.11246463
109	0xbe07b7a1	-0.13253643
110	0xbcce4ff9	-0.025184618
111	0x3d33bbe0	0.043880343
112	0x3d2f0ef6	0.042738877
113	0xbccda72d	-0.02510413
114	0xbb96fa4a	-0.0046074735
115	0xbc59b38f	-0.013287439
116	0xbc134cea	-0.008990506
117	0xbe0eea6d	-0.13956614
118	0xbcf28ed7	-0.029609127
119	0xbe6fa333	-0.234021
120	0xbde9515f	-0.113924734
121	0xbe2a6536	-0.16640171
122	0xbe2f77e6	-0.17135581
123	0x3c55ceee	0.013049824
124	0x3cd891df	0.026436744
125	0xbd07a2ed	-0.033114363
126	0x3c548627	0.012971438
127	0x3b180dd0	0.0023201592
128	0x3d96f64e	0.07371198
129	0xbcfba7df	-0.030719696
130	0x3dffb2a7	0.12485247
131	0xbd8ae9a3	-0.06782844
132	0xbe192267	-0.1495453
133	0x3c8647a8	0.01639159
134	0x3d82fe22	0.06396128
135	0xbd979e5e	-0.07403253
136	0xbc036708	-0.00802017
137	0x3d4979d7	0.04918846
138	0x3d91fbb2	0.07128085
139	0x3ccd7645	0.02508081
140	0x3d45cf9f	0.048293706
141	0xbdc72933	-0.09724655
142	0x3d141f38	0.036162585
143	0xbd85127d	-0.06497667
144	0x3c7ac6c0	0.015306175
145	0xbdc2079b	-0.09474107
146	0x3d141f17	0.036162462
147	0xbe098591	-0.13429858
148	0x3c098207	0.008392817
149	0xbdc1e4dc	-0.094674796
150	0x3e1b52c7	0.15168296
151	0xbd9503cc	-0.07276115
152	0xbd0ad704	-0.03389646
153	0xbe08a6b3	-0.1334484
154	0x3dd17dbc	0.1022906
155	0xbda335f5	-0.07969276
156	0xbdcae1c6	-0.09906344
157	0xbe80d3b6	-0.25161523
158	0xbe1f0697	-0.15529858
159	0xbdbc3879	-0.09190459
160	0xbe7ff953	-0.24997453
161	0x3e11dd69	0.14244618
162	0xbd493982	-0.04912711
163	0xbdb2fbf3	-0.08739462
164	0x3d11d968	0.035607725
165	0xbdd96202	-0.10614397
166	0x3d1619a1	0.036645535
167	0x3ddb529c	0.10709116
168	0x3de87e82	0.113522545
169	0x3d23286b	0.039833467
170	0xbe9dad77	-0.30796406
171	0xbcd193ff	-0.025583265
172	0x3ce9bd43	0.02853263
173	0xbda4dd68	-0.080500424
174	0x3d4d693e	0.050149195
175	0x3c6e5adf	0.014548033
176	0xbe85131c	-0.25991142
177	0xbd813753	-0.063093804
178	0xbc82d34f	-0.0159699
179	0xbd74925d	-0.059709895
180	0x3df40e29	0.11916763
181	0x3da6a580	0.08137035
182	0xbe60b31a	-0.21943322
183	0x3e4a13de	0.19734141
184	0x3db298f4	0.0872058
185	0x3dcbd888	0.099534094
186	0x3d101fc4	0.035186544
187	0x3e575307	0.21027766
188	0x3e153520	0.14571047
189	0x3e84f3e8	0.25967336
190	0xbd7293f7	-0.05922314
191	0x3ddf477f	0.10902309
192	0x3e308d48	0.17241395
193	0x3d31aaf8	0.04337594
194	0xbb86fdfc	-0.0041196328
195	0xbc970e65	-0.018439481
196	0xbe50a13c	-0.20374006
197	0xbd82fa4e	-0.06395398
198	0x3d74ff6c	0.0598139
199	0xbccb914e	-0.02484956
200	0xbbf4dfa2	-0.007472948
201	0xbdd42ba9	-0.1035989
202	0x3e32edcc	0.17473525
203	0xbd546c44	-0.051861063
204	0x3b2516a4	0.0025190497
205	0xbd85b309	-0.06528289
206	0xbe9b33c0	-0.3031292
207	0x3df82f6d	0.12118421
208	0xbe20ac65	-0.15690763
209	0x3e2802e0	0.16407347
210	0x3d1321b7	0.035920825
211	0x3d9a011a	0.07519741
212	0xbc8e53e0	-0.01737398
213	0xbc2c63cb	-0.010521839
214	0x3e007dc9	0.12547983
215	0xbd977f70	-0.07397354
216	0x3ccfe45f	0.02537745
217	0xbb190674	-0.0023349794
218	0x3e1bb286	0.1520482
219	0xbdc164b3	-0.09443035
220	0xbbafe50f	-0.005367882
221	0xbe181a5f	-0.1485381
222	0x3c877cf7	0.01653908
223	0x3e1d6966	0.15372238
224	0x3cc62429	0.024187164
225	0x3dae8952	0.085222855
226	0xbae8e784	-0.0017769192
227	0x3cea37f7	0.02859114
228	0x3ce27f87	0.0276487
229	0xbdb25277	-0.08707135
230	0x3d8d609e	0.06903194
231	0xbe177532	-0.147908
232	0x3c8d5073	0.017250275
233	0x3c98cb05	0.018651495
234	0xbce5805e	-0.028015312
235	0x3e32c1e3	0.17456774
236	0x3e694b9b	0.22782747
237	0x3bcae3c6	0.0061917035
238	0x3dd5f2be	0.1044669
239	0xbc82f400	-0.015985489
240	0xbdff1e4a	-0.12456949
241	0xbd18f095	-0.037338812
242	0x3d329d5a	0.043607093
243	0x3d9861f2	0.074405566
244	0xbe08e7c6	-0.13369665
245	0x3d3d738d	0.046252776
246	0xb99a18d0	-0.00029391656
247	0x3e0fd048	0.14044297
248	0x3b122490	0.0022299625
249	0x3cd3e828	0.025867537
250	0xbd5ddbd4	-0.054164723
251	0x3e08961d	0.13338514
252	0x3e1c3b4b	0.15256993
253	0x3b9bb12d	0.0047513456
254	0x3ca663e5	0.020311305
255	0x3d221d79	0.03957889

1.layers.3.0.bias f4 [80]
0	0xbc783ecc	-0.015151691
1	0xbcbd2b66	-0.023091983
2	0xbd1deaf1	-0.038554136
3	0xbd37adbe	-0.044843428
4	0xbcf2746e	-0.029596534
5	0xbd2ccba6	-0.0421864
6	0xbc9eaaaf	-0.019368498
7	0xbc69add6	-0.014262637
8	0xbc813c1e	-0.015775736
9	0xbd4ae08a	-0.049530543
10	0xbd318916	-0.043343626
11	0xbc9f15f3	-0.019419646
12	0xbcdda6a4	-0.027057
13	0xbcefc704	-0.029269703
14	0xbd0059dc	-0.031335697
15	0xbd10413f	-0.035218474
16	0xbd5519c5	-0.05202653
17	0xbd362767	-0.04447117
18	0xbce9cb94	-0.028539456
19	0xbd825614	-0.06364074
20	0xbcc8be7f	-0.024504898
21	0xbd8cc294	-0.0687305
22	0xbd66d50d	-0.056355525
23	0xbca6c0a2	-0.020355526
24	0xbc76c28c	-0.015061032
25	0xbc93c253	-0.018036997
26	0xbd538ed2	-0.051649876
27	0xbcf034a4	-0.029321976
28	0xbd0d65f9	-0.034521077
29	0xbd3dfff1	-0.046386663
30	0xbd047554	-0.032338455
31	0xbc18bcd5	-0.009322365
32	0xbd38da6d	-0.045130182
33	0xbc8ccd0c	-0.017187618
34	0xb9e370b5	-0.00043380787
35	0xbcb8f028	-0.022575453
36	0xbbc11f6f	-0.0058936398
37	0xbd9b7100	-0.075899124
38	0xba11120f	-0.0005534002
39	0xbd54c751	-0.051947895
40	0xbcf0eed4	-0.029410757
41	0xba81f714	-0.0009915554
42	0xbd252b33	-0.0403244
43	0xbd0b6bd4	-0.03403838
44	0xbd18474d	-0.037177373
45	0xbcf9a03b	-0.030471912
46	0xbd3b4d37	-0.045727935
47	0xbd3b2465	-0.045689005
48	0xbd50e280	-0.050997257
49	0xbd1d2aa8	-0.03837076
50	0xbcc216c6	-0.0236925
51	0xbd0cc304	-0.03436567
52	0xbd0682b1	-0.03283948
53	0xbd153303	-0.0364256
54	0xbd41679e	-0.047217958
55	0xbca0f982	-0.019650225
56	0xbd99ee33	-0.07516136
57	0xbcf9658c	-0.03044393
58	0xbb8b2f08	-0.00424755
59	0xbd1dd098	-0.03852901
60	0xbd4810be	-0.04884409
61	0xbd7ed7fd	-0.0622177
62	0xbd001b8b	-0.031276267
63	0xbd330202	-0.043703087
64	0xbb80e100	-0.003933072
65	0xbcbf3501	-0.023340704
66	0xbcd3a360	-0.02583474
67	0xbcb120d7	-0.021622105
68	0xbd25704e	-0.040390305
69	0xbcb15fe6	-0.021652173
70	0xbd535e33	-0.051603507
71	0xbd04962e	-0.032369785
72	0xbd089dd7	-0.033353653
73	0xbce307f2	-0.02771375
74	0xbc400895	-0.011720796
75	0xbc8e5909	-0.01737644
76	0xbd157908	-0.036492378
77	0xbcd5ec06	-0.026113521
78	0xbd2e4354	-0.042544678
79	0xbd24ca0f	-0.04023176

1.layers.3.0.weight f4 [80, 320]
0	0xbc2e10e4	-0.010624144
1	0x3cceeb55	0.0252587
2	0xbce257f6	-0.027629834
3	0x3e249bd5	0.1607507
4	0xbdf4d7c8	-0.119552195
5	0x3c5ae488	0.01336015
6	0x3dbf97dc	0.09355137
7	0xbdfe4005	-0.124145545
8	0x3d8f0eae	0.06985222
9	0x3d28d6e7	0.04122057
10	0x3e377657	0.17916237
11	0xbe308d75	-0.17241462
12	0x3dd66515	0.104684986
13	0x3d45c3f3	0.048282575
14	0xbd7f35c1	-0.062307123
15	0x3d867bf4	0.06566611
16	0xbdd8d54f	-0.105875604
17	0x3ceaf4a5	0.028681109
18	0x3bf287c9	0.0074014408
19	0xbc959c12	-0.018262897
20	0xbc407727	-0.011747158
21	0x3e036632	0.12831953
22	0xbb7316dd	-0.0037092485
23	0x3e4a8d08	0.19780362
24	0xbd750a15	-0.059824068
25	0x3d123b44	0.03570105
26	0xbb88fd75	-0.004180605
27	0x3da5fdd4	0.081050545
28	0x3a2b2a0b	0.0006529397
29	0x3da78c01	0.081810005
30	0xbc9f0e04	-0.019415863
31	0x3d19159b	0.03737412
32	0x3de3471c	0.110975474
33	0xbc834e33	-0.0160285
34	0xbbe3479b	-0.0069360263
35	0x3cbb649d	0.022875125
36	0x3d3d2b21	0.04618371
37	0xbd8f5340	-0.069983006
38	0xbd93e915	-0.07222191
39	0xbdf69fca	-0.12042196
40	0xbd88ef8c	-0.06686315
41	0xbc731ba6	-0.014838135
42	0xbdc6758d	-0.0969039
43	0x3dab4b1f	0.083639376
44	0x3d3c9262	0.04603804
45	0x3abd1bf3	0.0014427885
46	0xbbfaeb0c	-0.0076574143
47	0x3cab8242	0.020936135
48	0x3c0af871	0.008482085
49	0xbcf2bbba	-0.02963053
50	0x3d8405ad	0.06446395
51	0x3dd243a3	0.10266807
52	0x3ccef763	0.025264448
53	0xbca1cd25	-0.01975114
54	0xbcf66c51	-0.030080946
55	0xbc146f54	-0.009059746
56	0xbda2bda2	-0.07946326
57	0x3d55f276	0.052233182
58	0xbd125da3	-0.03573383
59	0xbd66730d	-0.056262065
60	0xbb6cda8e	-0.003614101
61	0xbdc1801e	-0.094482645
62	0xbc1f9176	-0.00973927
63	0x3d7b3781	0.06133223
64	0xbd28179e	-0.041038148
65	0x3dec3bdb	0.11534854
66	0x3d8e9fab	0.06964048
67	0x3affde8b	0.0019521279
68	0x3d91f732	0.07127227
69	0x3c9b6388	0.018968359
70	0x3ddc2567	0.107493214
71	0x3d23405f	0.03985631
72	0xbe273c91	-0.16331698
73	0xbd5514b4	-0.052021697
74	0xbde36a15	-0.11104218
75	0x3de7bc2d	0.113151886
76	0x3c63f481	0.013913275
77	0x3de9af21	0.11410356
78	0x3d90e364	0.07074621
79	0x3da17921	0.07884432
80	0x3d67ed31	0.056622688
81	0x3dc07297	0.09396856
82	0xbc7cf387	-0.015438921
83	0x3e2c67ca	0.16836467
84	0xbcd14742	-0.025546674
85	0xbd4c2e45	-0.049848814
86	0xbd9a012e	-0.07519756
87	0x3b3e910c	0.0029078154
88	0x3de0c301	0.10974694
89	0xbd3adc9b	-0.045620542
90	0xbd46ff12	-0.048583098
91	0xbd8a76b8	-0.06760925
92	0xbd25b53f	-0.040456053
93	0x3d656558	0.056004852
94	0xbd81c8ef	-0.06337153
95	0xbdf16cb1	-0.11788309
96	0xbdf278c8	-0.118394434
97	0xbc0685d2	-0.008210616
98	0xbd0c57d9	-0.034263466
99	0xbcc28ff3	-0.023750281
100	0xbbf008fd	-0.0073252902
101	0xbd260995	-0.040536482
102	0xbdba8513	-0.09107413
103	0x3e0508b6	0.12991604
104	0xbd5aecd3	-0.05344851
105	0x3ca2e7e0	0.019885957
106	0x3dc49e02	0.0960045
107	0xbdc6e782	-0.09712125
108	0x3e08497b	0.1330928
109	0x3e4006f7	0.18752657
110	0xba331ed8	-0.0006832904
111	0xbd1c94c6	-0.03822782
112	0xbe048b66	-0.12943801
113	0x3d9b1a19	0.07573337
114	0xbaa93bcc	-0.0012911498
115	0x3db68bec	0.08913407
116	0xbc93e46b	-0.018053254
117	0xbd102f11	-0.035201136
118	0x3df43d2a	0.119257286
119	0x3e0d713a	0.13812724
120	0xbe413f64	-0.18871838
121	0x3dbc1f89	0.09185702
122	0xbd967e0f	-0.073482625
123	0x3d1fdf7b	0.039031487
124	0x3d8898cb	0.06669768
125	0x3d20c30d	0.039248515
126	0xbd087769	-0.033317003
127	0x3de17db0	0.11010301
128	0xbd8248d6	-0.063615486
129	0x3d251dd8	0.040311664
130	0xbdaebf15	-0.0853254
131	0x3cb79cd0	0.022413641
132	0x3d08f678	0.033438176
133	0xbd849961	-0.06474567
134	0x3c4839de	0.012220828
135	0x3c7eb96f	0.0155471405
136	0x3a79196e	0.00095023855
137	0xbdaa5eca	-0.08318861
138	0x3d71ab7a	0.059001423
139	0x3d0d423e	0.034487
140	0xbd200f67	-0.03907719
141	0xbc19542e	-0.009358449
142	0x3d85e057	0.0653693
143	0x3dc30eda	0.09524317
144	0x3d8fb2bf	0.07016515
145	0xbe2731bb	-0.16327564
146	0x3d8b2b83	0.067954086
147	0x3a137e0a	0.0005626386
148	0xbd1ee762	-0.038794883
149	0x3c046d29	0.008082666
150	0x3b92b938	0.004477646
151	0xbd331834	-0.043724254
152	0x3dba7863	0.09104993
153	0x3d0e54d5	0.03474887
154	0x3e1b460d	0.15163441
155	0x3c419db3	0.011817384
156	0xbdf29738	-0.11845249
157	0xbe20abcb	-0.15690534
158	0xbcdd4920	-0.027012408
159	0xbd851db4	-0.06499806
160	0x3ce59f14	0.028029956
161	0x3d6d10ac	0.057877228
162	0x3c963215	0.018334428
163	0x3a121bf9	0.0005573626
164	0x3c668344	0.014069382
165	0xbbb67135	-0.0055676945
166	0xbd86654d	-0.0656229
167	0xbd0fb9d5	-0.035089333
168	0xbdf28491	-0.11841691
169	0x3d59c27a	0.053163983
170	0x3d89621b	0.06708165
171	0xbe524926	-0.20535716
172	0xbd25815f	-0.04040658
173	0x3dc795cc	0.09745368
174	0x3b923905	0.0044623637
175	0xbd0333c1	-0.03203178
176	0x3d851159	0.064974494
177	0x3d6f5bd9	0.058437202
178	0xbca75c51	-0.020429762
179	0xbe58145b	-0.21101515
180	0x3d6a3f52	0.057189293
181	0xbd84a0bd	-0.06475971
182	0xbd2fabf6	-0.042888604
183	0x3d95270b	0.072828375
184	0x3de26067	0.110535435
185	0x3dc61545	0.096720256
186	0x3d520f45	0.051284093
187	0x3dbc349a	0.091897205
188	0xbe2da326	-0.16956767
189	0x39905718	0.0002753071
190	0xbd9a867c	-0.07545182
191	0xbdfc497c	-0.123187035
192	0x3db3dd03	0.08782389
193	0xbd258487	-0.04040959
194	0x3d75e1be	0.060029738
195	0xbd25bf08	-0.040465385
196	0x3d9dc416	0.07703416
197	0xbcb852fd	-0.02250051
198	0x3d84a664	0.06477049
199	0x3d28feed	0.04125874
200	0x3db20689	0.08692653
201	0xbdf67bce	-0.120353326
202	0xbc749205	-0.014927392
203	0x3dd229af	0.10261857
204	0xbd2975af	-0.041371997
205	0x3bb26643	0.0054443195
206	0xbe3fa7f7	-0.18716417
207	0xbdee08f1	-0.11622799
208	0x3d1e980d	0.038719226
209	0xbdcf90eb	-0.10135063
210	0xbd28e4e7	-0.041233923
211	0x3d091f5e	0.03347718
212	0x3d2ec8be	0.04267191
213	0xbd0a2174	-0.03372331
214	0x3cb40d84	0.021979101
215	0x3c1daacd	0.009623242
216	0x3c121852	0.008916931
217	0x3e0a60d7	0.13513504
218	0xbdaeeb77	-0.08541005
219	0xbd5d4d49	-0.054028783
220	0x3d9f0fac	0.07766661
221	0x3bccee3b	0.006253985
222	0x3da86816	0.08222978
223	0xbd6f429e	-0.05841314
224	0x3d9eab8d	0.077475645
225	0xbdec13af	-0.11527192
226	0xbc75e63c	-0.015008505
227	0xbd79e642	-0.061010607
228	0xbdf9b1f2	-0.121921435
229	0x3c8c4695	0.0171235
230	0x3d86533f	0.06558847
231	0x3d582f4b	0.052779477
232	0xbd4d4b64	-0.050120726
233	0xbe1fbf9f	-0.15600441
234	0x3d80ecf6	0.06295197
235	0x3e04ee06	0.12981424
236	0xbe0732cf	-0.13202976
237	0xbd524494	-0.051334932
238	0xbd3b0e93	-0.045668196
239	0x3c2deb39	0.0106151635
240	0xbde3f235	-0.11130182
241	0xbc8bfadc	-0.017087393
242	0xbd933ca9	-0.071893044
243	0x3d787db5	0.06066676
244	0x3e4db680	0.2008915
245	0xbce9527a	-0.02848171
246	0x3e032bce	0.12809679
247	0x3d3d14ad	0.046162296
248	0xbd8cdf68	-0.06878549
249	0x3c723307	0.014782674
250	0x3d0fd049	0.035110746
251	0xbca3373f	-0.019923804
252	0x3e14a127	0.145146
253	0xbd0f1b79	-0.03493831
254	0xbdbd66c3	-0.09248116
255	0xbe0b6576	-0.13612923

1.layers.4.0.bias f4 [80]
0	0xbd34d053	-0.044143986
1	0xbd3a81e3	-0.045534026
2	0xbc8553fa	-0.016275395
3	0xbd8181b4	-0.06323567
4	0xbd70b65c	-0.05876766
5	0xbd37cc0c	-0.04487233
6	0xbc986326	-0.018601965
7	0xbce981ba	-0.028504241
8	0xbce7498b	-0.02823331
9	0xbcaf4508	-0.021395221
10	0xbca7931e	-0.020455893
11	0xbc81d93e	-0.01585066
12	0xbd017cab	-0.031613033
13	0xbd312204	-0.04324533
14	0xbd254a71	-0.040354196
15	0xbcb8cb39	-0.022557842
16	0xbcfaaf47	-0.030601157
17	0xbbb674b9	-0.0055681136
18	0xbc5d163a	-0.013494069
19	0xbd4bc11b	-0.049744707
20	0xbd13e14a	-0.036103524
21	0xbd471369	-0.048602495
22	0xbd553a26	-0.052057408
23	0xbcaaa193	-0.020828998
24	0xbc02587b	-0.007955666
25	0xbd3a3ae5	-0.045466322
26	0xbc4c7e94	-0.01248135
27	0xbcbc0bb0	-0.022954792
28	0xbd0fed4c	-0.035138413
29	0xbcdeb305	-0.027184973
30	0xbcfd3500	-0.030909061
31	0xbc95fdeb	-0.018309554
32	0xbcf4fb86	-0.029905092
33	0xbd03439e	-0.032046907
34	0xbcc58302	-0.024110321
35	0xbd1ebaab	-0.03875224
36	0xbd1ee69a	-0.038794138
37	0xbc1c3115	-0.009533186
38	0xbbb0d3ed	-0.0053963573
39	0xbd183c75	-0.03716703
40	0xbcd0256f	-0.025408475
41	0xbcb1dcbf	-0.021711705
42	0xbd2c3766	-0.04204502
43	0xbd354db6	-0.044263564
44	0xbca639ff	-0.020291327
45	0xbd1c4d5a	-0.038159706
46	0xbcf868f7	-0.030323489
47	0xbcfdaeb7	-0.0309671
48	0xbcf348ab	-0.029697737
49	0xbc8b5b28	-0.01701124
50	0xbd087c5b	-0.03332172
51	0xbcec7c00	-0.028867722
52	0xbd1d4ebd	-0.03840517
53	0xbcc3d0cd	-0.023903275
54	0xbc8b69ea	-0.017018277
55	0xbca150c9	-0.019691842
56	0xbcc2c7c4	-0.023776896
57	0xbd15940c	-0.03651814
58	0xbcab8d1f	-0.020941315
59	0xbd2f50cb	-0.04280166
60	0xbd37c37d	-0.044864167
61	0xbd7a346e	-0.061085157
62	0xbd350039	-0.044189665
63	0xbcd1eec8	-0.025626555
64	0xbcd422b7	-0.02589546
65	0xbcce1d15	-0.025160352
66	0xbce20cf1	-0.027594062
67	0xbc98fdc0	-0.018675685
68	0xbc88d2ba	-0.016702045
69	0xbd4e3d80	-0.05035162
70	0xbca8bd65	-0.020598123
71	0xbccbeb9c	-0.02489262
72	0xbc7118e9	-0.014715412
73	0xbc6a5057	-0.014301381
74	0xbce7f25c	-0.028313808
75	0xbd035da0	-0.03207171
76	0xbd19d5f5	-0.03755756
77	0xbc9f2dfe	-0.01943111
78	0xbd40f7c4	-0.047111288
79	0xbcd6d78d	-0.02622583
