DNNWeightsDefault/model_0/ensemble_1/zz_bbtt_8.onnx (onnx, 947112 bytes, 19 tensors)

0.embeds.0.weight f4 [2, 1]
0.046503138 -1.1261894
00000000: 137a 3e3d f926 90bf

0.embeds.1.weight f4 [3, 2]
-0.6571534 -1.0480531 0.71343017 0.40951124 1.2766881 -0.47314733
00000000: 353b 28bf 9b26 86bf 5ca3 363f 75ab d13e
00000010: 846a a33f 5e40 f2be

0.embeds.2.weight f4 [2, 1]
1.2834632 -0.18787828
00000000: 8648 a43f 2a63 40be

0.embeds.3.weight f4 [5, 3]
0.5592399 -1.5170747 -0.1993359 1.5961862 0.68841004 -0.41093475 -0.14808473 0.56655073
-1.2530695 -0.33766985 1.3962667 1.254892 -1.1470715 -0.032731496 0.54794025
00000000: 592a 0f3f 812f c2bf b61e 4cbe d44f cc3f
00000010: a43b 303f 0a66 d2be 86a3 17be 7809 113f
00000020: 9564 a0bf 10e3 acbe deb8 b23f 4da0 a03f
00000030: 3dd3 92bf 7611 06bd d045 0c3f

0.embeds.4.weight f4 [5, 3]
0.5673682 1.1551685 0.8642295 -0.17393343 -0.79448766 0.77558184 0.41605732 0.10668123
1.128713 -0.150727 1.0721109 -0.09113697 1.476762 0.46708393 -0.36812598
00000000: 0b3f 113f 90dc 933f 253e 5d3f 9b1b 32be
00000010: 8b63 4bbf 888c 463f 7705 d53e b07b da3d
00000020: ab79 903f 2e58 1abe ee3a 893f 05a6 babd
00000030: 8a06 bd3f a025 ef3e 027b bcbe

0.embeds.5.weight f4 [2019, 50]
0.5465173 0.5747829 -0.56386065 1.1247315 -0.65259504 1.6640601 1.4630305 -0.82457376
-0.902447 0.4572462 0.59810364 -1.8774102 0.88627934 0.55673516 0.8653504 1.090737
-0.59626895 -2.139583 0.13875563 0.055065047 0.16433313 -1.8768592 -1.0712652 -0.1301825
0.94369173 0.03127013 -0.5945173 -0.51450074 -1.3444456 -0.052613202 -0.9358239 -0.23399924
0.89449495 -0.45379013 1.0796614 0.29863733 -0.41927245 -0.18750848 -0.5167106 -0.6540482
-1.5079403 -1.4961748 0.023436034 0.26380432 1.1715941 -0.37142906 -0.95823354 -0.39536807
0.56202775 0.5545663 0.019083155 -0.71178126 -1.3171142 -0.7982878 -0.36542416 -0.36718214
0.5072367 -2.7482738 -1.5621144 0.967897 -0.04339766 2.0526724 0.41661853 -0.6997033
0.6433669 1.6389927 -1.6080488 -0.15247338 0.088631615 1.179317 -0.68569803 0.63035935
-0.52910775 0.04384539 0.3395879 0.84115636 0.9220955 1.1512581 -0.34859213 -2.7903125
-1.9767168 -0.23565342 1.3953248 -0.76004416 1.6230026 -1.1050236 -1.6828575 -0.7582906
-0.5769344 0.08409193 -1.5177761 0.32324728 -0.53067744 0.35587004 2.2353928 1.9755532
-0.6624034 -0.7457803 0.11295587 0.94995105 0.64642113 -0.7467643 -0.3246066 0.56562513
0.5411274 -0.168403 0.37322444 -1.4881266 0.88912195 0.6782877 -0.9444446 -0.25568086
1.707426 0.80318433 -0.06389147 -0.6315881 0.5377931 -0.6168021 -1.1478319 -0.4254431
0.78626627 1.3505275 -0.3256284 1.402595 -0.5600115 1.6706134 1.2784265 0.3890416
-1.1895667 -1.8303688 -0.13583183 1.1740308 -1.1495066 -1.2519524 -0.9437834 0.7394612
1.0141269 -0.52042824 -1.2538766 -1.6459311 0.018054234 -0.6490188 0.6945676 -0.1381978
1.1004163 -0.54266286 -0.8514631 -0.050368167 -1.0175285 0.8848809 -1.2881455 0.82040006
-0.9835764 -0.86531967 -0.8834051 -0.21795358 0.756101 -0.011417019 0.074860126 -0.6326177
0.22579372 -0.14129648 0.58857155 -1.3649474 -0.692593 -0.057290524 1.3842223 -0.90319896
1.219361 -0.10019738 0.43358645 -0.09410531 -0.8908518 -1.665529 0.8606651 0.51830953
-1.0050244 0.97039837 -0.45490557 0.8860562 0.35878062 0.63377845 -1.6487377 -0.00212362
0.77658373 -0.61772996 0.1914482 0.35266906 -0.94346243 0.93943524 1.0532551 0.8464253
1.7607073 2.4344528 -0.9276131 1.4122615 0.73627734 0.17445 0.15091094 -0.9538447
0.73390657 -0.54586864 -0.33542898 -0.4120939 -3.0531628 -1.234283 0.8420324 -0.2633347
-0.38597187 -0.34724864 1.0993222 1.3309946 -1.0132443 -0.018611288 0.8912527 0.20770001
-1.5954267 0.03085669 -1.2063681 0.58526844 -0.5706879 -0.5225726 0.22785111 -0.1762868
1.8484244 -0.6854937 -1.072429 -1.444009 0.7172669 1.3987205 2.1536703 -1.8829864
0.93147486 -0.3813429 -1.8917996 -0.36866885 0.6046956 -0.6303858 -0.06236215 1.4977604
0.64512783 0.24906512 0.31380972 0.42116848 1.0984284 0.9875201 -0.7878232 -1.1143843
1.4258673 0.05693245 -1.911934 -1.2629269 -0.77279395 1.3650668 0.15741415 0.5898767
00000000: 8fe8 0b3f f924 133f 2c59 10bf 34f7 8f3f
00000010: 7810 27bf ecff d43f 9544 bb3f 4417 53bf
00000020: c406 67bf 2d1c ea3e 521d 193f fa4e f0bf
00000030: 34e3 623f 3286 0e3f 9b87 5d3f 459d 8b3f
00000040: 15a5 18bf eeee 08c0 f515 0e3e e38b 613d
00000050: f246 283e ec3c f0bf 381f 89bf 904e 05be
00000060: c895 713f 1c15 003d 4932 18bf 52b6 03bf
00000070: cb16 acbf f180 57bd 2892 6fbf 7f9d 6fbe
00000080: 9ffd 643f 2e57 e8be 5832 8a3f fee6 983e
00000090: e1aa d6be 3902 40be 2547 04bf b46f 27bf
000000a0: 3004 c1bf a882 bfbf edfc bf3c 5c11 873e
000000b0: ccf6 953f f32b bebe cb4e 75bf af6d cabe
000000c0: 0de1 0f3f 0ff8 0d3f 4754 9c3c 4c37 36bf
000000d0: 3397 a8bf 975c 4cbf e018 bbbe 4cff bbbe
000000e0: 44da 013f b8e3 2fc0 5df3 c7bf 19c8 773f
000000f0: bfc1 31bd fc5e 0340 064f d53e c11f 33bf
00000100: b1b3 243f 83ca d13f 8bd4 cdbf fb21 1cbe
00000110: 7e84 b53d dcf3 963f e889 2fbf 3b5f 213f
00000120: 9b73 07bf 3997 333d 77de ad3e 0656 573f
00000130: 730e 6c3f 6d5c 933f ab7a b2be 7b94 32c0
00000140: 0e05 fdbf 214f 71be 019a b23f 4192 42bf
00000150: 8dbe cf3f 6a71 8dbf e067 d7bf 551f 42bf
00000160: f9b1 13bf 6438 ac3d 7d46 c2bf ab80 a53e
00000170: 7ada 07bf 9934 b63e ad10 0f40 edde fc3f
00000180: 4593 29bf 75eb 3ebf 6855 e73d fe2f 733f
00000190: db7b 253f f22b 3fbf d632 a6be cfcc 103f
000001a0: 5387 0a3f d671 2cbe 4617 bf3e ef7a bebf
000001b0: 7f9d 633f 43a4 2d3f 1fc7 71bf 9ae8 82be
000001c0: ef8c da3f 7d9d 4d3f 88d9 82bd c2af 21bf
000001d0: cfac 093f bee6 1dbf 28ec 92bf aed3 d9be
000001e0: bf48 493f 16de ac3f c4b8 a6be 3c88 b33f
000001f0: ea5c 0fbf a9d6 d53f 7ba3 a33f 7630 c73e
00000200: b943 98bf 8649 eabf 8017 0bbe a446 963f
00000210: 0823 93bf fa3f a0bf ca9b 71bf 544d 3d3f
00000220: e9ce 813f c93a 05bf 077f a0bf dfad d2bf
00000230: 79e6 933c 1926 26bf 2fcf 313f b983 0dbe
00000240: 71da 8c3f f4eb 0abf 7cf9 59bf da4e 4ebd
00000250: 603e 82bf 8e87 623f f4e1 a4bf bd05 523f
00000260: aacb 7bbf 9785 5dbf d626 62bf 392f 5fbe
00000270: d68f 413f 730e 3bbc 4450 993d 3cf3 21bf
00000280: 7836 673e 06b0 10be a0ac 163f 99b6 aebf
00000290: c64d 31bf 78a9 6abd 322e b13f 0c38 67bf
000002a0: 0514 9c3f 4934 cdbd 0bff dd3e 49ba c0bd
000002b0: dd0e 64bf 0e30 d5bf 8c54 5c3f efaf 043f
000002c0: a4a4 80bf 076c 783f 62e9 e8be 94d4 623f
000002d0: 18b2 b73e 4e3f 223f d609 d3bf 6e2c 0bbb
000002e0: 31ce 463f 8d23 1ebf ff0a 443e 0a91 b43e
000002f0: c186 71bf d47e 703f 10d1 863f 54af 583f
00000300: db5e e13f 13ce 1b40 0d78 6dbf fcc4 b43f
00000310: ac7c 3c3f 05a3 323e 6688 1a3e 2b2f 74bf
00000320: 4de1 3b3f 0cbe 0bbf 59bd abbe f9fd d2be
00000330: 0567 43c0 fcfc 9dbf 6f8f 573f ced3 86be
00000340: 1b9e c5be 93ca b1be 97b6 8c3f 085e aa3f
00000350: fdb1 81bf b376 98bc 2329 643f 50af 543e
00000360: f136 ccbf 2bc7 fc3c 456a 9abf 27d4 153f
00000370: 9a18 12bf 51c7 05bf cd51 693e 8784 34be
00000380: 2c99 ec3f 847c 2fbf 5a45 89bf 49d5 b8bf
00000390: ce9e 373f 4609 b33f bcd5 0940 b305 f1bf
000003a0: 2375 6e3f 603f c3be 7d26 f2bf 2ac2 bcbe
000003b0: 55cd 1a3f f760 21bf 746f 7fbd 9db6 bf3f
000003c0: 1927 253f ed0a 7f3e abab a03e 65a3 d73e
000003d0: 4d99 8c3f 1ece 7c3f c8ae 49bf 25a4 8ebf
000003e0: d282 b63f 0032 693d 41ba f4bf 97a7 a1bf
000003f0: d3d5 45bf 82ba ae3f 2d31 213e 2902 173f

1.layers.0.0.bias f4 [80]
-0.0042803027 -0.014738561 -0.014636322 -0.049612004 -0.046950184 -0.018839847 -0.0062456275 -0.046550594
6.419773e-05 -0.051925108 -0.04378012 -0.07000389 0.0078062173 -0.0046972954 -0.009959332 -0.0066940817
-0.017536484 -0.026335381 -0.07415711 -0.09230276 -0.0586556 -0.06724043 -0.03438372 -0.04029245
0.0037100755 -0.032613702 -0.07962918 -0.040841684 -0.019078884 0.03179668 -0.010697842 -0.006847159
-0.053274073 -0.0067824144 -0.022378981 -0.047529086 0.002757944 -0.0042834333 -0.041521538 -0.054205418
-0.016725866 -0.00030358817 -0.032987397 -0.09339563 0.02555308 -0.07441162 -0.018206472 -0.02731383
-0.07664632 0.0040724357 0.0024530035 -0.07634615 0.01899975 -0.057209592 -0.043123476 -0.035043504
-0.023240019 0.011612501 -0.049618155 -0.024324456 -0.048867196 -0.10483966 -0.05453575 -0.0670905
-0.07756772 -0.035322003 -0.08789587 -0.060537856 -0.014182589 -0.054960277 -0.0786074 -0.05433524
-0.06938716 0.0034616631 -0.0015124355 -0.036618732 0.0105795525 -0.031225359 -0.013154047 -0.029471366
00000000: c841 8cbb 017a 71bc 2fcd 6fbc f535 4bbd
00000010: d64e 40bd 0656 9abc 1fa8 ccbb d6ab 3ebd
00000020: e5a1 8638 6caf 54bd c852 33bd 335e 8fbd
00000030: 4ccb ff3b c5eb 99bb 772c 23bc 075a dbbb
00000040: aca8 8fbc 4cbd d7bc afdf 97bd 3b09 bdbd
00000050: db40 70bd 5ab5 89bd f2d5 0cbd b209 25bd
00000060: bd24 733b f295 05bd a014 a3bd 9c49 27bd
00000070: 524b 9cbc 3c3d 023d 0046 2fbc 225e e0bb
00000080: ea35 5abd 043f debb 2054 b7bc dcad 42bd
00000090: 9fbe 343b 0b5c 8cbb 7d12 2abd 8006 5ebd
000000a0: af04 89bc ea2a 9fb9 cb1d 07bd 3546 bfbd
000000b0: b154 d13c 1f65 98bd bd25 95bc 41c1 dfbc
000000c0: bff8 9cbd 1172 853b 92c2 203b 5f5b 9cbd
000000d0: 5da5 9b3c 9b54 6abd 3ea2 30bd c789 0fbd
000000e0: da61 bebc 5c42 3e3c 683c 4bbd 1544 c7bc
000000f0: f828 48bd 2db6 d6bd e160 5fbd be66 89bd
00000100: d3db 9ebd cead 10bd c002 b4bd 8bf6 77bd
00000110: 175e 68bc 071e 61bd ebfc a0bd a18e 5ebd
00000120: db1a 8ebd 12dd 623b ea3c c6ba 86fd 15bd
00000130: dc55 2d3c 53cc ffbc 1284 57bc ef6d f1bc

1.layers.0.0.weight f4 [80, 80]
-0.13892204 0.20443887 0.0968068 -0.0440629 0.04465642 0.20544901 -0.20621169 -0.2918154
-0.3585295 0.08643888 0.09386146 -0.2243178 -0.03872238 -0.3190403 -0.06921928 -0.17205988
-0.064259276 -0.047414847 0.26243192 -0.09002764 -0.07186019 0.03785661 -0.40306985 -0.21441126
-0.13431634 0.022288201 0.08017538 0.07536496 -0.15569082 0.110755466 0.13701391 -0.1268718
0.12758783 -0.04679719 -0.16369031 -0.14349917 -0.008732851 0.087463215 -0.16154219 0.0014131812
-0.41864377 -0.40386498 -0.37313342 -0.35352275 0.07121886 0.022867471 -0.327362 0.13101682
0.11871104 -0.007190609 0.038331483 0.28348944 0.05821998 -0.23209605 0.03207446 0.059850194
0.034977145 -0.14973383 0.012999745 0.31516233 -0.06565029 0.01740356 0.16079114 0.08550099
0.039585788 -0.041149084 -0.32046777 -0.1890756 0.13886118 0.14809768 -0.16928042 0.04190545
-0.06630616 -0.23101519 -0.1202215 -0.157148 -0.24571824 0.14703155 0.14172712 0.07570512
0.18847512 0.28053865 -0.05494573 0.016282301 -0.33035678 0.10532115 0.24144438 -0.066063896
0.4007896 -0.16182788 -0.0045000347 0.28792638 0.12798768 -0.10079694 0.026854616 -0.18150908
-0.2096121 0.04876225 -0.015877573 -0.23494947 -0.1632331 0.03812091 0.009218625 -0.23217899
-0.034414217 -0.24532923 -0.2690232 -0.207567 -0.23326509 0.34403864 -0.08350723 0.0069926567
0.045254037 0.091910295 0.016309999 -0.32596776 0.020869622 0.059274092 -0.02457506 -0.17758489
0.2768926 0.17813021 0.1507535 -0.36903197 -0.15972844 0.058578197 -0.0918649 -0.003371698
-0.089233294 0.09316983 0.15524279 0.39147213 -0.048835397 -0.08559277 -0.04256801 -0.13935667
0.21076086 0.028516691 0.09262456 0.06956943 -0.060760535 -0.23556301 -0.13151042 0.13721187
-0.13926913 -0.07104281 0.15833603 0.2096616 -0.10884102 -0.17316084 0.056514107 0.091262326
0.056910764 0.09153486 0.19142814 -0.19026919 -0.120629266 -0.06430429 0.17194963 -0.013360222
0.05802891 -0.095840916 0.11982924 0.17285384 0.12367878 0.29599842 0.10006485 0.2526611
-0.15583584 -0.40386388 0.13845532 0.0934361 -0.071786635 -0.48312646 0.16183366 0.024958555
-0.0104933 -0.1605819 0.2808769 0.0074885134 -0.12691522 -0.3690181 -0.23358935 -0.15518546
-0.3174616 -0.27128458 -0.121258266 0.2726163 0.12989643 -0.07273973 0.095918834 0.17586167
0.21338077 -0.007988751 -0.0043414477 0.13550675 -0.07395447 0.25624612 0.22185205 0.06936115
-0.0212923 0.124776304 -0.017847646 -0.21472779 -0.11182302 0.050428327 0.20782314 0.17921534
-0.094674066 0.1452156 0.06722281 0.07156886 -0.031513877 -0.027013304 0.34140736 -0.04985265
0.0512444 -0.12519735 0.047898058 -0.09507008 -0.23138289 -0.11504287 -0.061051134 0.05414698
0.28619415 -0.19911988 0.05556854 -0.0016289122 0.03678185 -0.04705331 -0.05270163 -0.12788862
-0.04773904 0.15157668 0.01407224 0.27614182 0.0887276 0.05665316 -0.24022333 -0.3982666
0.026521707 -0.2842232 0.19118403 -0.17799443 -0.12397799 0.081360884 0.14829277 0.17051864
0.25479406 -0.19510579 -0.26016182 -0.26542008 0.11719707 0.022889707 0.061975632 0.10252533
00000000: 9441 0ebe 6c58 513e a542 c63d 4d7b 34bd
00000010: a6e9 363d 3a61 523e 2829 53be d468 95be
00000020: 2e91 b7be de06 b13d 703a c03d 91b3 65be
00000030: 5c9b 1ebd 4059 a3be d6c2 8dbd 7730 30be
00000040: 5e9a 83bd 1236 42bd 7a5d 863e 6960 b8bd
00000050: 6f2b 93bd 880f 1b3d 2c5f cebe a08e 5bbe
00000060: 398a 09be bf95 b63c fd32 a43d f258 9a3d
00000070: 6a6d 1fbe c3d3 e23d 604d 0c3e aeea 01be
00000080: 62a6 023e 69ae 3fbd 6f9e 27be 72f1 12be
00000090: 3b14 0fbc ea1f b33d 516b 25be 7e3a b93a
000000a0: 7a58 d6be 64c7 cebe 580b bfbe ef00 b5be
000000b0: 32db 913d 9054 bb3c fe9b a7be 4629 063e
000000c0: c61e f33d 339f ebbb 7901 1d3d 8725 913e
000000d0: 1378 6e3d 96aa 6dbe 8260 033d 7a25 753d
000000e0: 3244 0f3d d353 19be e2fc 543c f55c a13e
000000f0: a973 86bd e991 8e3c 6fa6 243e 251b af3d
00000100: b524 223d f18b 28bd 5a14 a4be 099d 41be
00000110: a031 0e3e eba6 173e d957 2dbe 0da5 2b3d
00000120: 86cb 87bd 3f8f 6cbe b136 f6bd 68eb 20be
00000130: 909d 7bbe 708f 163e ea20 113e 490b 9b3d
00000140: 9fff 403e c3a2 8f3e c60e 61bd 7662 853c
00000150: 8624 a9be 9db2 d73d 323d 773e 824c 87bd
00000160: 4b34 cd3e 35b6 25be 0775 93bb 166b 933e
00000170: 340f 033e a06e cebd 36fe db3c 84dd 39be
00000180: 8ea4 56be edba 473d af11 82bc 9896 70be
00000190: 9426 27be ac24 1c3d b709 173c 54c0 6dbe
000001a0: ecf5 0cbd 9637 7bbe 69bd 89be 728c 54be
000001b0: 0bdd 6ebe d525 b03e d705 abbd a822 e53b
000001c0: 4c5c 393d 773b bc3d 8c9c 853c 3fe5 a6be
000001d0: c5f6 aa3c 64c9 723d a351 c9bc d0d8 35be
000001e0: dec4 8d3e c467 363e 205f 1a3e c2f1 bcbe
000001f0: da8f 23be b1ef 6f3d aa23 bcbd b5f7 5cbb
00000200: f2bf b6bd d3cf be3d f7f7 1e3e 096f c83e
00000210: a007 48bd 434b afbd cb5b 2ebd 84b3 0ebe
00000220: b2d1 573e d69b e93c f2b1 bd3d 6b7a 8e3d
00000230: 0ae0 78bd 6e37 71be abaa 06be 4581 0c3e
00000240: 919c 0ebe e57e 91bd d722 223e 88b1 563e
00000250: 0ae8 debd 1351 31be 567b 673d bee7 ba3d
00000260: 431b 693d a176 bb3d bd05 443e edd5 42be
00000270: 7a0c f7bd f8b1 83bd 9013 303e d5e4 5abc
00000280: b9af 6d3d 3e48 c4bd 0869 f53d 9900 313e
00000290: 4d4b fd3d 1b8d 973e cdee cc3d cc5c 813e
000002a0: 6e93 1fbe 3fc7 cebe 3bc7 0d3e 6d5b bf3d
000002b0: df04 93bd 5a5c f7be b9b7 253e e275 cc3c
000002c0: 17ec 2bbc 956f 24be 19cf 8f3e 3462 f53b
000002d0: 10f6 01be f1ef bcbe 0c32 6fbe f0e8 1ebe
000002e0: 548a a2be d0e5 8abe 4156 f8bd 5d94 8b3e
000002f0: 9203 053e 91f8 94bd 1871 c43d 1515 343e
00000300: 7d80 5a3e 40e3 02bc b442 8ebb 48c2 0a3e
00000310: 7175 97bd b132 833e 2f2d 633e 380d 8e3d
00000320: 316d aebc b88a ff3d 3a35 92bc 9ae1 5bbe
00000330: 7803 e5bd ef8d 4e3d 97cf 543e 3a84 373e
00000340: 7ae4 c1bd 66b3 143e 1dac 893d b292 923d
00000350: b214 01bd 014b ddbc f2cc ae3e 4b32 4cbd
00000360: a6e5 513d bc33 00be c130 443d 1ab4 c2bd
00000370: a3ef 6cbe 999b ebbd c110 7abd 39c9 5d3d
00000380: 0a88 923e 15e6 4bbe d69b 633d 3981 d5ba
00000390: 91a8 163d f9ba 40bd aadd 57bd 3cf5 02be
000003a0: 038a 43bd eb36 1b3e 418f 663c 7662 8d3e
000003b0: d1b6 b53d 250d 683d 1bfd 75be 9ae9 cbbe
000003c0: 0d44 d93c b485 91be bfc5 433e 2c44 36be
000003d0: 2ce8 fdbd 89a0 a63d 0fda 173e 709c 2e3e
000003e0: 5e74 823e d0c9 47be ee33 85be 24e5 87be
000003f0: 0405 f03d 3283 bb3c 29da 7d3d cdf8 d13d

1.layers.1.0.bias f4 [80]
-0.06763235 -0.035962295 -0.035910066 -0.034143593 -0.02889298 -0.044236183 -0.039108902 -0.014880147
0.0010155948 -0.047918696 -0.07419633 -0.009367753 -0.0002257158 -0.011311146 -0.030857766 0.004535657
-0.0665687 -0.021501115 -0.034976166 -0.04433089 -0.060185026 0.019606708 -0.03994727 -0.01629511
-0.012874282 -0.021620525 -0.004165119 -0.054684427 -0.028373333 -0.06738789 -0.031026008 -0.01758972
-0.02272258 -0.06780454 -0.0026339723 -0.018738607 -0.038186513 -0.000532922 -0.01093773 -0.057444744
-0.019947726 -0.02671978 0.019936463 -0.037830975 -0.05986718 -0.040656287 -0.043281443 -0.054383326
-0.049589712 0.02360518 -0.0037435323 -0.07371876 -0.034717545 -0.03308895 -0.015008745 0.015612372
-0.023702582 -0.012181118 -0.07142658 0.01116032 -0.018980063 0.023578128 -0.041349463 -0.020216696
-0.012546569 -0.05598664 -0.06798818 -0.04694917 -0.004661425 -0.035080697 -0.01397831 -0.05775882
0.0086824875 0.028018923 0.004010943 -0.06979339 -0.10409082 -0.010649441 -0.02409842 -0.059056494
00000000: d482 8abd 334d 13bd 6f16 13bd 27da 0bbd
00000010: f9b0 ecbc 0031 35bd a830 20bd dccb 73bc
00000020: b51d 853a 6546 44bd 3ff4 97bd 347b 19bc
00000030: 20ae 6cb9 6352 39bc 6dc9 fcbc d99f 943b
00000040: 2c55 88bd 1b23 b0bc 2b43 0fbd 4f94 35bd
00000050: 9384 76bd 3f9e a03c c09f 23bd 537d 85bc
00000060: a7ee 52bc 871d b1bc 8d7b 88bb c7fc 5fbd
00000070: 316f e8bc a902 8abd 412a febc 5118 90bc
00000080: b424 babc 1bdd 8abd b99e 2cbb b581 99bc
00000090: 7669 1cbd cab3 0bba 2a34 33bc 2e4b 6bbd
000000a0: 6a69 a3bc 71e3 dabc cb51 a33c a7f4 1abd
000000b0: 4a37 75bd 3587 26bd e247 31bd 0dc1 5ebd
000000c0: 951e 4bbd a75f c13c 0d56 75bb dcf9 96bd
000000d0: fc33 0ebd 4788 07bd 3de7 75bc 09cb 7f3c
000000e0: eb2b c2bc 5093 47bc 1948 92bd c6d9 363c
000000f0: 147c 9bbc eb26 c13c 0e5e 29bd 7c9d a5bc
00000100: 2090 4dbc 3f52 65bd 633d 8bbd c64d 40bd
00000110: debe 98bb c7b0 0fbd 4805 65bc 8394 6cbd
00000120: fe40 0e3c f187 e53c 3b6e 833b d6ef 8ebd
00000130: 912d d5bd fe7a 2ebc 0d6a c5bc 39e5 71bd

1.layers.1.0.weight f4 [80, 160]
-0.08936936 -0.052348122 0.070189685 0.09494559 0.043763936 -0.0032236434 -0.05841408 0.09542832
-0.16293092 0.30519122 0.105544 -0.14420407 -0.09405398 0.13459906 -0.11346265 -0.04720093
-0.11752808 -0.11384237 -0.22123653 -0.056854136 -0.052684397 -0.025710758 -0.2314623 0.18237086
-0.16620107 -0.04801133 0.037357613 0.34179145 0.08202975 0.03907453 -0.062149122 -0.031975932
0.08779032 -0.14254408 0.04194358 0.1424935 -0.001960434 0.032707214 0.11086625 0.045547087
-0.026239617 0.021321502 0.07241845 -0.19000255 -0.11769252 -0.19258846 0.03956221 -0.12205702
0.049520053 0.107112065 0.030319044 -0.18371631 -0.049528062 -0.14439431 -0.046868432 0.050242085
0.03206867 0.0037223422 0.3481263 0.0041507166 0.17189443 -0.22028233 -0.09646488 -0.12002125
0.06625282 -0.053055093 -0.039343502 -0.07589644 0.18003087 -0.087882236 -0.03648998 -0.13487025
0.068305686 -0.3138489 0.0043683955 -0.10530037 -0.01784916 -0.033077907 -0.093930796 0.13697824
-0.066665344 -0.0829326 0.053878065 0.2257505 0.17884734 0.0077546276 0.22511095 0.05385857
-0.05388557 -0.07720973 -0.05632191 0.05787517 0.06497365 -0.047706556 0.063441336 0.13052559
0.19319847 -0.058388893 0.09287227 0.18029194 0.06604982 0.09615538 -0.11583364 0.22833402
-0.049454376 -0.009151363 0.08529852 0.18175079 -0.05494712 0.042131953 0.00335859 -0.17343643
0.06404382 0.10990108 -0.06413545 -0.10280024 -0.1508719 0.17604704 0.014687912 0.07139784
0.01667171 -0.17849259 0.12861405 0.18234949 0.14226536 -0.02303412 -0.08099397 -0.065886736
-0.025019078 0.08539838 -0.023683771 -0.043361478 -0.100405306 -0.036105674 0.0474317 0.00908425
-0.076348834 0.04546677 -0.048710432 0.064134315 -0.11174493 -0.07434355 0.122868106 -0.10214461
-0.12728749 -0.13182119 0.11592681 -0.15405297 0.023212064 -0.014868558 -0.09887814 0.054562964
-0.102653764 -0.1098718 -0.044062253 -0.033756483 -0.031239754 0.13169177 0.0351642 -0.05153795
-0.30977514 -0.022814913 -0.05004022 -0.033599988 0.05420725 0.016999375 -0.028737707 -0.13617432
-0.072220005 0.017944258 -0.22389147 -0.19369566 0.22093977 0.047113873 0.09772705 -0.07573074
0.13058627 0.1994262 -0.06071697 0.1383861 -0.26295117 -0.080863126 -0.12073347 0.0071039856
0.36399645 -0.104055986 0.08132582 0.049828272 0.123262554 0.12163058 -0.10685854 -0.0661215
-0.06660686 0.21689971 -0.065075025 -0.05576212 0.26189098 0.08005469 0.07142684 0.07306047
-0.006705064 0.1817889 0.18594334 -0.07164786 0.07837371 0.07707037 0.21782556 0.1283522
-0.1388646 -0.02577713 -0.06969573 0.08629345 0.05691451 -0.09615447 0.02577503 -0.06444005
0.09894044 0.046126377 -0.094678946 -0.09781323 0.10482257 -0.05787814 -0.054524884 0.14429878
0.07306334 -0.16712664 0.059830368 0.002917097 0.12569498 -0.047122013 0.27623972 -0.047495764
-0.022853272 -0.12763622 0.0069748946 0.11073667 0.18895905 0.034252472 -0.16920508 -0.0007725508
-0.026629517 -0.09559888 0.069418736 0.17714253 -0.25332227 -0.08221108 -0.22086084 -0.25151452
-0.039835013 -0.081377596 0.0024908464 0.042827662 0.044825263 -0.054776035 -0.042202633 0.07277187
00000000: 4807 b7bd fc6a 56bd 9cbf 8f3d d572 c23d
00000010: d041 333d c343 53bb 9a43 6fbd ec6f c33d
00000020: 5dd7 26be 0642 9c3e 7427 d83d 3baa 13be
00000030: 609f c0bd 56d4 093e 1b5f e8bd c355 41bd
00000040: 90b2 f0bd 3026 e9bd d48b 62be e2df 68bd
00000050: 98cb 57bd 5e9f d2bc 7404 6dbe 6dbf 3a3e
00000060: 9d30 2abe 87a7 44bd 4c04 193d 4aff ae3e
00000070: 37ff a73d 9d0c 203d 1490 7ebd 32f9 02bd
00000080: 69cb b33d 13f7 11be 08cd 2b3d d1e9 113e
00000090: a07a 00bb 00f8 053d d80d e33d 958f 3a3d
000000a0: 77f4 d6bc 6eaa ae3c 2050 943d 0790 42be
000000b0: c708 f1bd e935 45be fc0b 223d 08f9 f9bd
000000c0: 8ad5 4a3d 925d db3d a55f f83c 2120 3cbe
000000d0: f0dd 4abd 1adc 13be 1df9 3fbd a5ca 4d3d
000000e0: 705a 033d 8af2 733b 9c3d b23e bc02 883b
000000f0: 1805 303e b191 61be 618f c5bd b3cd f5bd
00000100: 8faf 873d 4c50 59bd a726 21bd 986f 9bbd
00000110: 035a 383e 9afb b3bd 8476 15bd 6d1b 0abe
00000120: dae3 8b3d ceb0 a0be c224 8f3b b8a7 d7bd
00000130: 6738 92bc b37c 07bd ca5e c0bd 0644 0c3e
00000140: d787 88bd 91d8 a9bd 3faf 5c3d 242b 673e
00000150: c223 373e 881a fe3b 7c83 663e ce9a 5c3d
00000160: 1eb7 5cbd 2320 9ebd ceb1 66bd 840e 6d3d
00000170: e810 853d f367 43bd 88ed 813d 80a8 053e
00000180: d2d5 453e 3129 6fbd d133 be3d 739e 383e
00000190: 2145 873d 1ded c43d 303a edbd 65d0 693e
000001a0: ac90 4abd 99ef 15bc feb0 ae3d e11c 3a3e
000001b0: 3b10 61bd 8e92 2c3d ca1b 5c3b 5299 31be
000001c0: 6829 833d d113 e13d 7259 83bd ef88 d2bd
000001d0: 2a7e 1abe ad45 343e 91a5 703c 0839 923d
000001e0: 1c93 883c c3c6 36be 67b3 033e d3b9 3a3e
000001f0: 03ae 113e 0db2 bcbc 2be0 a5bd a0ef 86bd
00000200: cff4 ccbc 59e5 ae3d 7804 c2bc ce9b 31bd
00000210: 4ca1 cdbd 8be3 13bd be47 423d 1bd6 143c
00000220: c75c 9cbd 5d3b 3a3d 9784 47bd da58 833d
00000230: 87da e4bd 6e41 98bd 46a2 fb3d 3131 d1bd
00000240: a757 02be 22fc 06be 096b ed3d 10c0 1dbe
00000250: 3a27 be3c 419b 73bc 9f80 cabd 6a7d 5f3d
00000260: 233c d2bd 7704 e1bd 9f7a 34bd 3d44 0abd
00000270: 83ea ffbc 35da 063e 5608 103d 7519 53bd
00000280: d99a 9ebe 57e6 babc f9f6 4cbd 24a0 09bd
00000290: 6c08 5e3d 4642 8b3c 576b ebbc 4871 0bbe
000002a0: 15e8 93bd d6ff 923c ce43 65be 2858 46be
000002b0: 093e 623e 7afa 403d 1f25 c83d b818 9bbd
000002c0: 68b8 053e 6236 4c3e 5cb2 78bd 16b5 0d3e
000002d0: 89a1 86be 919b a5bd 1c43 f7bd 8dc8 e83b
000002e0: be5d ba3e 4e1b d5bd 278e a63d bb18 4c3d
000002f0: 1471 fc3d 7419 f93d a6d8 dabd b66a 87bd
00000300: 2d69 88bd f51a 5e3e 0e46 85bd d266 64bd
00000310: 9316 863e b7f3 a33d 3c48 923d baa0 953d
00000320: 27b6 dbbb df26 3a3e ee67 3e3e 1dbc 92bd
00000330: 6582 a03d 12d7 9d3d aa0d 5f3e c26e 033e
00000340: 8632 0ebe 8f2a d3bc a3bc 8ebd 9fba b03d
00000350: 301f 693d a3ec c4bd 2826 d33c 25f9 83bd
00000360: 49a1 ca3d 03ef 3c3d 09e7 c1bd 4d52 c8bd
00000370: 37ad d63d a111 6dbd 7c55 5fbd 0fc3 133e
00000380: 3ba2 953d 3f23 2bbe b010 753d c42c 3f3b
00000390: 2fb6 003e 0303 41bd 4b6f 8d3e eb8a 42bd
000003a0: c936 bbbc 12b3 02be a88d e43b e8c9 e23d
000003b0: 7b7e 413e 524c 0c3d 1944 2dbe 0285 4aba
000003c0: 2526 dabc 58c9 c3bd 692b 8e3d da64 353e
000003d0: 75b3 81be 485e a8bd 5829 62be 83c6 80be
000003e0: 0a2a 23bd 4ca9 a6bd 783d 233b 0f6c 2f3d
000003f0: b29a 373d d65c 60bd abdc 2cbd 6b09 953d

1.layers.2.0.bias f4 [80]
-0.039303403 -0.04754884 0.010494365 -0.016574044 -0.05064708 -0.007220074 -0.032993153 -0.0025907184
-0.017763736 -0.0046958392 -0.028289517 -0.039758906 -0.044969253 -0.024696184 -0.03486857 -0.04588141
0.016551664 -0.06277857 -0.019736681 -0.025952399 -0.020297075 0.008804202 -0.024342736 -0.022580186
-0.050002977 -0.036687333 -0.054337144 -0.016612768 -0.034399323 -0.02747912 0.007675453 -0.021317758
-0.055095892 -0.048025228 -0.014518356 -0.048739012 -0.022450518 -0.048365932 -0.05042068 -0.03012882
-0.032092102 -0.05803313 -0.036014944 -0.0352528 -0.028196443 -0.0250086 -0.024259217 -0.04983335
-0.036632378 -0.039438035 -0.050636157 0.0029817082 -0.014568892 -0.038246393 -0.0003051953 -0.029147988
-0.0041917767 -0.021436501 -0.017842472 -0.030147716 -0.04010976 -0.008720005 -0.0353716 0.0071496107
-0.024557604 -0.028804217 0.007832704 -0.038249094 -0.012982821 -0.039406218 -0.033435058 -0.044286624
-0.009914559 -0.050394833 -0.019038452 -0.022858264 -0.028699482 -0.052745163 -0.012724735 -0.016175374
00000000: 9bfc 20bd 93c2 42bd 8ff0 2b3c 4ac6 87bc
00000010: 5073 4fbd 5f96 ecbb d423 07bd 0bc9 29bb
00000020: 4185 91bc 8edf 99bb 6bbf e7bc 3cda 22bd
00000030: ae31 38bd a74f cabc 58d2 0ebd 25ee 3bbd
00000040: 5b97 873c 0d92 80bd d2ae a1bc 209a d4bc
00000050: 0d46 a6bc 803f 103c 6b6a c7bc 15fa b8bc
00000060: eccf 4cbd 7545 16bd a090 5ebd 8017 88bc
00000070: 4ee6 0cbd e41b e1bc 5e82 fb3b 94a2 aebc
00000080: 3bac 61bd 1ab6 44bd 66de 6dbc 8fa2 47bd
00000090: 26ea b7bc 5b1b 46bd ea85 4ebd b7d0 f6bc
000000a0: 0273 03bd 26b4 6dbd 6884 13bd 3d65 10bd
000000b0: 3afc e6bc d6de ccbc 44bb c6bc 0e1e 4cbd
000000c0: d50b 16bd c789 21bd dc67 4fbd c368 433b
000000d0: 5db2 6ebc 40a8 1cbd 9f02 a0b9 c3c7 eebc
000000e0: 2c5b 89bb 9a9b afbc 602a 92bc 58f8 f6bc
000000f0: 224a 24bd 5ade 0ebc d0e1 10bd 4847 ea3b
00000100: 072d c9bc d2f6 ebbc be54 003c 15ab 1cbd
00000110: e6b5 54bc 6a68 21bd 33f3 08bd e465 35bd
00000120: ad70 22bc d06a 4ebd 87f6 9bbc 4141 bbbc
00000130: 2d1b ebbc 500b 58bd 687b 50bc 3882 84bc

1.layers.2.0.weight f4 [80, 240]
-0.03490865 0.06467675 0.089389555 -0.045673024 0.20248057 -0.052107625 0.23904955 0.009519349
-0.16076407 -0.04373256 0.15504876 0.09261982 -0.19075276 0.049226046 -0.033723045 -0.005542624
0.016301334 -0.112109296 -0.12877952 0.039026607 -0.02086583 -0.029044904 -0.04303468 -0.06620768
0.11475355 -0.06310227 -0.12495307 0.043713793 -0.077835865 -0.017512476 0.046252593 -0.11719007
-0.1719684 -0.025297843 -0.0018603787 -0.16587532 -0.06213999 0.0075641675 0.07835388 -0.06530994
-0.08822322 0.056160584 0.014356516 0.08348279 -0.04977868 0.14061661 -0.16357836 -0.105301395
0.17252167 0.033633605 -0.038528115 0.13442019 0.0022496036 0.06551068 -0.13261613 -0.04673132
0.01032145 0.08606948 0.052302428 -0.120700315 -0.07600544 -0.10667283 -0.020899326 -0.0036365027
0.0054160254 0.26942876 -0.007398792 0.0585088 -0.14616221 0.18166342 0.003526257 -0.0019990131
-0.124767914 -0.11651848 -0.07324122 0.10926636 0.10935851 0.020491568 0.11142985 0.00046963713
0.057958867 0.1670662 -0.21282649 -0.03092507 -0.0027690826 0.14558807 -0.10042161 -0.03357538
0.18248625 0.063452125 -0.028941706 0.06039472 0.12936243 -0.065021865 -0.17964388 -0.010728788
0.091669396 0.0055044587 -0.03730573 0.05187105 -0.029510703 -0.05091391 -0.0702386 0.009000193
-0.09927409 -0.059197873 0.02528907 0.0034070744 0.12435865 0.056786522 -0.021143569 0.0007621242
0.0881535 0.05302069 -0.052001934 -0.092544645 -0.2537778 -0.06690855 -0.02228965 0.045627847
0.12689272 0.08560086 -0.15122545 0.23085956 0.044735588 -0.04041006 0.023618294 0.17431304
0.026248507 -0.09650289 0.05797619 -0.042232174 0.08625265 0.068659574 -0.102157325 0.13740209
-0.017541895 0.03238118 0.23399113 0.15413019 -0.005042738 -0.10065245 0.06343201 0.02112794
0.11776118 -0.06989263 0.06932253 0.019412156 0.020543246 0.113080785 -0.15864202 0.06057954
-0.24721307 0.09251775 -0.0728249 -0.13120298 -0.13322994 -0.009253403 -0.069935426 -0.0006855719
0.10222783 0.08618042 0.04201292 -0.04873368 -0.12508903 -0.10128691 0.09420207 -0.0013642038
-0.057030987 0.009130595 0.07984643 -0.024225488 0.0072652744 0.04898911 -0.07506124 -0.057473417
-0.04448948 0.051193666 0.058501236 -0.08232927 0.08365433 -0.018649647 0.11586373 0.07425658
-0.20380709 -0.11433247 -0.0036284744 -0.2400233 -0.37059417 0.13073923 -0.08130053 0.087802045
0.06927382 -0.10284751 0.16521761 0.11974178 -0.012496786 0.11536381 -0.15525857 0.12520117
0.056552555 0.04212174 -0.017944727 -0.061664995 -0.07947792 -0.19027786 0.06143244 -0.028616281
0.07417209 0.11454695 0.030134168 0.036439907 -0.0702207 0.042817444 -0.16347267 -0.08713782
-0.008041524 0.025796512 -0.0061550653 -0.05597935 -0.073504284 -0.015893625 0.09947532 -0.022548558
0.002928985 -0.18396217 0.097843386 -0.011977733 -0.02319857 -0.20588468 -0.009987792 -0.03793685
-0.08190257 -0.006801693 -0.1912738 -0.13488574 0.0022037583 0.06347934 0.025668126 0.13292561
0.0058811293 -0.010864466 0.08687257 0.13127542 -0.095849186 0.022981517 -0.12695934 -0.00519176
-0.0117495535 0.015020872 -0.00619651 -0.11678712 -0.085220575 0.16259558 0.12133813 -0.04201131
00000000: 5ffc 0ebd 3e75 843d df11 b73d a313 3bbd
00000010: 1157 4f3e ce6e 55bd 68c9 743e 0bf7 1b3c
00000020: 569f 24be ea20 33bd 1ac5 1e3e 76af bd3d
00000030: b154 43be 40a1 493d 2d21 0abd e69e b5bb
00000040: 608a 853c 8f99 e5bd c7de 03be 5dda 1f3d
00000050: d1ee aabc 94ef edbc 2245 30bd e497 87bd
00000060: e903 eb3d c33b 81bd 65e7 ffbd 3c0d 333d
00000070: 6968 9fbd 5376 8fbc 5c73 3d3d 5901 f0bd
00000080: 7c18 30be 6c3d cfbc f3d7 f3ba 38db 29be
00000090: 8186 7ebd d6dc f73b 0078 a03d 38c1 85bd
000000a0: 60ae b4bd a408 663d 9837 6b3c 06f9 aa3d
000000b0: bbe4 4bbd cdfd 0f3e 1681 27be 42a8 d7bd
000000c0: 85a9 303e 64c3 093d a8cf 1dbd 72a5 093e
000000d0: 166e 133b 772a 863d 86cc 07be 5769 3fbd
000000e0: 4d1b 293c 3245 b03d 123b 563d ba31 f7bd
000000f0: bda8 9bbd 4977 dabd 1035 abbc 6452 6ebb
00000100: ea78 b13b 91f2 893e 9171 f2bb eca6 6f3d
00000110: 8cab 15be fa05 3a3e c618 673b e001 03bb
00000120: 5286 ffbd 3ea1 eebd 7eff 95bd 0bc7 df3d
00000130: 5bf7 df3d efdd a73c 5535 e43d a139 f639
00000140: 4766 6d3d 6713 2b3e 30ef 59be 9356 fdbc
00000150: 7f79 35bb 0a15 153e d8a9 cdbd 5686 09bd
00000160: addd 3a3e 30f3 813d 2817 edbc 7460 773d
00000170: 9677 043e 2f2a 85bd 91f4 37be ccc7 2fbc
00000180: 2abd bb3d bf5e b43b e5cd 18bd bd76 543d
00000190: 6ec0 f1bc 1b8b 50bd 41d9 8fbd 8c75 133c
000001a0: 3750 cbbd 7879 72bd 062b cf3c 3949 5f3b
000001b0: bfaf fe3d fc98 683d 4735 adbc 4ac9 473a
000001c0: d289 b43d 392c 593d fbff 54bd 0c88 bdbd
000001d0: 2aef 81be 5a07 89bd c998 b6bc 44e4 3a3d
000001e0: 2af0 013e 814f af3d d8da 1abe 7366 6c3e
000001f0: aa3c 373d 0585 25bd 277b c13c 1e7f 323e
00000200: 1c07 d73c 4fa3 c5bd 7178 6d3d a5fb 2cbd
00000210: 3ba5 b03d 649d 8c3d dc37 d1bd 22b3 0c3e
00000220: 05b4 8fbc 21a2 043d 5f9b 6f3e 4ed4 1d3e
00000230: 8d3d a5bb df22 cebd a4e8 813d 8014 ad3c
00000240: c62c f13d de23 8fbd f8f8 8d3d 3e06 9f3c
00000250: 4f4a a83c e696 e73d 0e73 22be 4022 783d
00000260: 6c25 7dbe f279 bd3d 3925 95bd 135a 06be
00000270: 6e6d 08be 969b 17bc 4e3a 8fbd f4b7 33ba
00000280: d35c d13d 5c7f b03d bd15 2c3d f89c 47bd
00000290: 5717 00be 836f cfbd 04ed c03d 15cf b2ba
000002a0: 5399 69bd 7e98 153c 8686 a33d 8874 c6bc
000002b0: 8a11 ee3b cea8 483d b5b9 99bd 3f69 6bbd
000002c0: 9a3a 36bd 73b0 513d fe9e 6f3d 409c a8bd
000002d0: f652 ab3d 25c7 98bc f749 ed3d d513 983d
000002e0: ceb2 50be 2427 eabd b3cb 6dbb abc8 75be
000002f0: 85be bdbe 81e0 053e e480 a6bd 8fd1 b33d
00000300: 6fdf 8d3d b7a1 d2bd ce2e 293e 2e3b f53d
00000310: 52bf 4cbc dc43 ec3d 1afc 1ebe bc34 003e
00000320: a7a3 673d d887 2c3d d200 93bc 6f94 7cbd
00000330: 52c5 a2bd 33d8 42be 95a0 7b3d b16c eabc
00000340: 89e7 973d 9797 ea3d eedb f63c 0342 153d
00000350: dfcf 8fbd 5861 2f3d 6165 27be 5075 b2bd
00000360: 99c0 03bc 3553 d33c 6eb0 c9bb 9a4a 65bd
00000370: 6a89 96bd 5933 82bc b7b9 cb3d c1b7 b8bc
00000380: 37f4 3f3b 9460 3cbe 1d62 c83d 413e 44bc
00000390: ed0a bebc 6fd3 52be d6a3 23bc ac63 1bbd
000003a0: 89bc a7bd bce0 debb 47dd 43be 7d1f 0abe
000003b0: ee6c 103b 7501 823d f645 d23c a71d 083e
000003c0: 7db6 c03b e000 32bc 3fea b13d 106d 063e
000003d0: 944c c4bd bc43 bc3c a101 02be a41f aabb
000003e0: 3381 40bc 1a1a 763c 180c cbbb 162e efbd
000003f0: 2088 aebd 757f 263e 2080 f83d 0d14 2cbd

1.layers.3.0.bias f4 [80]
-0.044525485 -0.03382488 -0.0040756934 -0.05737432 -0.016424544 -0.043661345 -0.050538402 -0.055246953
-0.065642856 -0.014923076 -0.00060820713 0.0003129399 -0.042810246 -0.014419729 -0.015923362 -0.021900887
-0.01721377 -0.03568106 -0.013553503 -0.04516687 -0.015442168 -0.043486875 -0.011835806 -0.022392591
-0.027163392 -0.010568815 0.0059991525 -0.0354563 -0.036048863 -0.03028577 -0.0097266985 -0.012135111
-0.017231489 -0.0063085714 -0.015336084 -0.03348807 -0.045373656 -0.037534088 -0.026754081 -0.023471652
-0.019358117 -0.026234614 -0.038439482 -0.04371665 -0.011761429 -0.020041302 -0.033405595 -0.0425751
-0.02348228 -0.032936033 -0.025241291 -0.013189117 -0.062498834 -0.020272914 -0.038036127 -0.06743023
0.013105063 -0.040426865 -0.052069593 -0.027745228 -0.025857363 0.0015929897 -0.032603752 -0.012010428
-0.039556433 -0.02569634 -0.015604712 -0.026454236 -0.011280342 0.00718999 -0.028383212 -0.015810166
-0.028806964 -0.01800477 -0.052010007 -0.02855781 -0.025047196 -0.03124943 -0.034348384 -0.011103585
00000000: 5b60 36bd f58b 0abd 658d 85bb 5601 6bbd
00000010: c48c 86bc 3dd6 32bd 5b01 4fbd a14a 62bd
00000020: c36f 86bd eb7f 74bc 1770 1fba 1512 a439
00000030: cc59 2fbd ba40 6cbc b671 82bc 7d69 b3bc
00000040: e403 8dbc 4e26 12bd 830f 5ebc e500 39bd
00000050: 2601 7dbc 4b1f 32bd f8ea 41bc ab70 b7bc
00000060: c385 debc d328 2dbc 8a94 c43b a03a 11bd
00000070: f9a7 13bd dd19 f8bc bb5c 1fbc 58d2 46bc
00000080: 0d29 8dbc 22b8 cebb 3344 7bbc c92a 09bd
00000090: bad9 39bd 58bd 19bd 602b dbbc 9f47 c0bc
000000a0: ea94 9ebc f9e9 d6bc b872 1dbd 3b10 33bd
000000b0: 02b3 40bc a82d a4bc 4ed4 08bd 3a63 2ebd
000000c0: e95d c0bc efe7 06bd d3c6 cebc 2b17 58bc
000000d0: c7fe 7fbd 6213 a6bc c5cb 1bbd dc18 8abd
000000e0: 9eb6 563c a496 25bd ed46 55bd f649 e3bc
000000f0: d2d2 d3bc ddcb d03a 838b 05bd 63c7 44bc
00000100: ed05 22bd 2181 d2bc e8aa 7fbc 8eb6 d8bc
00000110: 2fd1 38bc 029a eb3b e983 e8bc 5284 81bc
00000120: 95fc ebbc bd7e 93bc 7208 55bd 11f2 e9bc
00000130: c72f cdbc cefe ffbc e4b0 0cbd d0eb 35bc

1.layers.3.0.weight f4 [80, 320]
-0.05056012 0.1805759 -0.10476533 -0.031819623 -0.06776907 -0.15621673 -0.11669006 0.051321413
-0.022657186 -0.008837371 0.04142091 0.07570508 0.17164376 -0.060572818 -0.00074357854 -0.06102154
-0.01846333 -0.044824235 0.07245829 -0.10515696 -0.059623115 -0.048552275 0.019850455 0.120473474
0.08812821 -0.050262388 -0.027342312 0.048212666 0.1041421 0.09295483 -0.023870299 -0.018626358
-0.09775903 0.02902774 0.11219366 0.09288746 -0.0016267303 -0.15779863 0.102031834 -0.04137403
0.060715944 -0.05994996 0.18082996 0.0063566687 0.010767968 -0.040944345 0.034976717 0.10742375
0.1609704 0.13881226 -0.10317389 0.116499245 0.054046612 -0.015475505 -0.06819885 -0.04167985
-0.10572882 -0.15789254 -0.016252646 -0.090514205 0.0521341 -0.069097765 -0.054308802 -0.25203764
0.022723217 0.13602903 0.08067578 0.104698285 0.06632587 -0.03876877 -0.123192266 0.08699146
0.01798578 -0.01782454 -0.11064766 0.07047327 -0.21392535 0.09779052 -0.13317463 -0.029399207
0.049931996 -0.043215208 0.05672561 -0.020085227 0.0828275 -0.07115527 0.016002676 -0.011053594
0.06624217 0.04062877 -0.11715402 0.053364508 0.12827267 -0.013384952 -0.065195605 -0.13570072
-0.015627047 -0.035847835 -0.06212624 0.03792547 0.08892773 0.0015168115 0.01542807 0.017640674
0.14465001 0.029821634 0.021689212 -0.041539017 -0.15085496 0.056769796 -0.07553891 -0.08035356
-0.0086993445 -0.037291717 -0.015798898 -0.08313748 -0.116714746 0.08145592 -0.12689015 0.003528523
-0.032006815 0.047597077 0.08209639 -0.049836226 0.10932966 -0.06505811 0.17928743 0.16646753
-0.008481408 0.056585025 0.04239999 0.005926893 0.03207446 0.017471347 0.01674946 0.1300562
0.11547565 -0.22470407 0.0069515016 0.021587 -0.1750647 -0.13697469 -0.018516243 0.08044063
-0.046054192 -0.029185839 -0.048331935 0.10206729 0.0004574725 0.18615519 0.007528197 -0.02977406
0.09130299 -0.11624416 0.026085759 -0.081523515 0.027246013 0.11615446 -0.05359658 -0.02139517
-0.066981934 -0.015678996 -0.012223102 -0.10895063 0.044417836 0.052578658 -0.0057355035 0.089502335
-0.095365115 0.006562348 0.031213665 -0.06125716 -0.03270788 0.025228117 0.065774016 0.11236771
0.10082032 -0.16668849 -0.10524303 -0.26037398 0.021900162 0.027740408 0.039991893 -0.06893488
-0.045880377 0.024435006 -0.13704222 -0.13161448 -0.029452126 0.15570408 -0.07305621 -0.038358144
0.11255007 0.024826504 0.060655016 0.01204998 -0.041793585 0.08785629 -0.09970871 -0.13232215
0.0075495527 0.08589265 0.17799088 -0.05044304 0.024787849 0.051170636 -0.09036804 -0.057424627
0.044860847 -0.07221007 -0.10028187 -0.04695837 0.00224181 -0.10344034 -0.032583974 0.120412335
-0.027326463 -0.10717606 0.00023366336 -0.057073243 -0.058423612 -0.055533234 -0.024623308 0.02948757
-0.021625875 -0.016199084 -0.03534123 -0.07372491 0.04693126 0.03383535 -0.008969081 -0.25574377
0.06150581 -0.037224997 0.031710442 0.058857724 -0.079556435 -0.06719171 -0.028183656 -0.037820715
-0.048747953 -0.04709629 -0.05231496 -0.038546246 0.15671618 -0.024350794 0.13440333 -0.033753175
0.11236517 -0.12058667 -0.15330657 0.038288902 -0.0034312704 -0.011669028 0.027720124 0.13620694
00000000: 2118 4fbd e4e8 383e 358f d6bd 4b55 02bd
00000010: 83ca 8abd 47f7 1fbe 33fb eebd 6736 523d
00000020: 909b b9bc 9fca 10bc f9a8 293d 440b 9b3d
00000030: 62c3 2f3e 341b 78bd b6ec 42ba b9f1 79bd
00000040: 6940 97bc 9e99 37bd 0365 943d 885c d7bd
00000050: 5e37 74bd c0de 46bd 6c9d a23c ccba f63d
00000060: 907c b43d efdf 4dbd fcfc dfbc a57a 453d
00000070: 7448 d53d 1a5f be3d a58b c3bc 4e96 98bc
00000080: e335 c8bd 95cb ed3c cac5 e53d c83b be3d
00000090: 0338 d5ba f795 21be 11f6 d03d d177 29bd
000000a0: 48b1 783d 178e 75bd 7d2b 393e 9a4b d03b
000000b0: 226c 303c 42b5 27bd bf43 0f3d fc00 dc3d
000000c0: 6dd5 243e cd24 0e3e d54c d3bd 2897 ee3d
000000d0: fb5f 5d3d f98c 7dbc d7ab 8bbd 7eb8 2abd
000000e0: 5a88 d8bd 95ae 21be 4524 85bc 835f b9bd
000000f0: 918a 553d 2183 8dbd e872 5ebd 140b 81be
00000100: 0a26 ba3c 324b 0b3e 5839 a53d 0e6c d63d
00000110: dcd5 873d 00cc 1ebd 3a4c fcbd 9428 b23d
00000120: ea56 933c c504 92bc 3e9b e2bd 4a54 903d
00000130: 3f0f 5bbe 6546 c83d ee5e 08be 9bd6 f0bc
00000140: 7e85 4c3d 6e02 31bd 1d59 683d c689 a4bc
00000150: 77a1 a93d dbb9 91bd 0b18 833c 221a 35bc
00000160: faa9 873d 5a6a 263d 72ee efbd be94 5a3d
00000170: e959 033e 8f4c 5bbc 4685 85bd 21f5 0abe
00000180: 4b04 80bc 2ed5 12bd 1678 7ebd bd57 1b3d
00000190: be1f b63d c0cf c63a 04c6 7c3c 2d83 903c
000001a0: 221f 143e 804c f43c 93ad b13c d124 2abd
000001b0: b979 1abe 7287 683d 25b4 9abd 6890 a4bd
000001c0: b287 0ebc 33bf 18bd b16c 81bc fc43 aabd
000001d0: 2408 efbd 5dd2 a63d 7eef 01be cb3e 673b
000001e0: 9419 03bd 27f5 423d 2722 a83d 1221 4cbd
000001f0: 3be8 df3d 303d 85bd 2097 373e 7776 2a3e
00000200: 9af5 0abc b3c5 673d 9dab 2d3d 6236 c23b
00000210: 8260 033d 1220 8f3c 2a36 893c 742d 053e
00000220: 7f7e ec3d d318 66be 6cc9 e33b 38d7 b03c
00000230: 2944 33be 1843 0cbe 60af 97bc 0fbe a43d
00000240: 52a3 3cbd 2417 efbc b5f7 45bd a808 d13d
00000250: ebd8 ef39 779f 3e3e 18af f63b bbe8 f3bc
00000260: 10fd ba3d 6b11 eebd cdb1 d53c cdf5 a6bd
00000270: 0833 df3c 64e2 ed3d 1688 5bbd ec44 afbc
00000280: d32d 89bd 3d71 80bc 6843 48bc 8221 dfbd
00000290: 7aef 353d b85c 573d e4f0 bbbb 004d b73d
000002a0: c94e c3bd f708 d73b cdb3 ff3c cae8 7abd
000002b0: b3f8 05bd 32ab ce3c 87b4 863d 0b21 e63d
000002c0: e27a ce3d 63b0 2abe a889 d7bd bd4f 85be
000002d0: f867 b33c da3f e33c 8ace 233d bb2d 8dbd
000002e0: 10ed 3bbd ec2b c83c cc54 0cbe f2c5 06be
000002f0: 9645 f1bc e470 1f3e 7f9e 95bd 6e1d 1dbd
00000300: a780 e63d f460 cb3c 6571 783d 486d 453c
00000310: c02f 2bbd 00ee b33d 1534 ccbd 757f 07be
00000320: 3d62 f73b 7ce8 af3d 3e43 363e 5c9d 4ebd
00000330: e30f cb3c 4d98 513d e112 b9bd 1636 6bbd
00000340: 02c0 373d e0e2 93bd 9560 cdbd 6b57 40bd
00000350: 55eb 123b 87d8 d3bd c676 05bd be9a f63d
00000360: bfdb dfbc 1f7f dbbd 8803 7539 a2c5 69bd
00000370: 994d 6fbd d176 63bd d2b6 c9bc eb8f f13c
00000380: bf28 b1bc f1b3 84bc f7c1 10bd 16fd 96bd
00000390: fe3a 403d f096 0a3d 0df3 12bc d9f0 82be
000003a0: 84ed 7b3d 3d79 18bd cfe2 013d cc14 713d
000003b0: 7cee a2bd cf9b 89bd 69e1 e6bc e5e9 1abd
000003c0: efab 47bd 0ae8 40bd 3648 56bd abe2 1dbd
000003d0: 357a 203e 517b c7bc 07a1 093e c540 0abd
000003e0: b61f e63d 25f6 f6bd 66fc 1cbe d3d4 1c3d
000003f0: 2adf 60bb 732f 3fbc 5015 e33c d579 0b3e

1.layers.4.0.bias f4 [80]
-0.028632648 -0.05390302 -0.034219977 -0.017045172 -0.026660401 -0.01894148 -0.027985953 -0.033681612
-0.016600082 -0.030296793 -0.031892244 -0.023073325 -0.0618073 -0.039161794 -0.010657862 -0.054432593
-0.03961868 -0.039582778 -0.033384133 -0.017392572 -0.01733559 -0.029972434 -0.01831872 -0.0037738753
-0.0018894052 -0.024216553 -0.052262332 -0.037364833 -0.007622749 -0.02500615 -0.021630932 -0.03190114
-0.016705122 -0.027536632 -0.024401208 0.0029414075 -0.032181058 -0.035109557 -0.0052290973 -0.024212737
-0.026263712 -0.05896749 -0.024622014 -0.005521129 -0.03753342 -0.024935178 -0.001789755 -0.030759986
-0.022104494 -0.0258599 -0.011682906 -0.0065997234 -0.011365776 -0.020617297 -0.012301727 -0.014942913
-0.02623638 -0.017959733 -0.03293736 -0.030383069 -0.020821458 -0.0101140095 -0.03667961 -0.038337834
-0.020944558 -0.007464621 -0.025482206 -0.021679398 -0.035306707 -0.022402002 -0.04529082 -0.017271698
-0.06777781 -0.03895393 -0.020633353 -0.02183318 -0.038644526 -0.011067584 -0.031584155 -0.04236552
00000000: 048f eabc 6ac9 5cbd 3f2a 0cbd 51a2 8bbc
00000010: ea66 dabc 2a2b 9bbc cc42 e5bc bbf5 09bd
00000020: e5fc 87bc fb30 f8bc 71a1 02bd 4504 bdbc
00000030: a729 7dbd 1e68 20bd 509e 2ebc b6f4 5ebd
00000040: 3247 22bd 8d21 22bd cdbd 08bd de7a 8ebc
00000050: 5e03 8ebc c088 f5bc 2411 96bc 1f53 77bb
00000060: eba5 f7ba cb61 c6bc 0711 56bd de0b 19bd
00000070: 41c8 f9bb b3d9 ccbc 5a33 b1bc c5aa 02bd
00000080: 2ed9 88bc 8194 e1bc 0be5 c7bc a1c4 403b
00000090: 49d0 03bd 0acf 0fbd d958 abbb ca59 c6bc
000000a0: ff26 d7bc e587 71bd 1bb4 c9bc 96ea b4bb
000000b0: a5bc 19bd dc44 ccbc 3696 eaba 5efc fbbc
000000c0: 7c14 b5bc 24d8 d3bc a969 3fbc 7e42 d8bb
000000d0: 8537 3abc 9be5 a8bc 2f8d 49bc 1fd3 74bc
000000e0: aded d6bc 4a20 93bc 53e9 06bd eae5 f8bc
000000f0: c391 aabc 3bb5 25bc 5c3d 16bd 2208 1dbd
00000100: ec93 abbc c899 f4bb 0fc0 d0bc fe98 b1bc
00000110: c49d 10bd 6784 b7bc de82 39bd 607d 8dbc
00000120: 18cf 8abd 288e 1fbd 4707 a9bc 7fdb b2bc
00000130: b949 1ebd d054 35bc 635e 01bd 7887 2dbd

1.layers.4.0.weight f4 [80, 400]
-0.03466166 -0.001778821 0.06404381 -0.1769763 -0.015141848 -0.03815195 -0.005402679 0.007231859
0.0063122194 0.036083788 -0.17847101 0.02070496 -0.093834184 0.13800938 -0.004284015 0.013669753
-0.019947434 -0.035100937 -0.029013941 0.015701467 -0.10771013 -0.06789636 -0.056865048 0.046020065
0.065669425 -0.103606544 -0.10333683 -0.02604769 -0.050323 0.03743574 0.028665584 0.024165994
0.12191875 -0.22520617 -0.29032722 -0.0001722575 -0.07398954 -0.054788407 0.02570424 -0.05003809
0.01404286 -0.04385475 -0.1286275 -0.0026550014 0.046530213 0.044183414 0.05049818 -0.023691786
0.058490064 -0.07676342 -0.04724554 -0.14933842 0.04879076 0.031475805 0.104090475 -0.06585199
0.027118295 -0.016717983 -0.008636092 0.033420775 0.0837103 -0.04868 0.05644259 0.03908505
-0.03486244 -0.09807514 0.0420348 0.08099311 -0.20216668 -0.061531696 -0.08075412 -0.09078545
-0.06349609 -0.10186378 -0.002180175 0.055581063 0.11876138 -0.03585936 0.022667719 0.09070891
-0.038566172 0.035021264 -0.095884494 -0.033810925 -0.058718536 -0.16019383 -0.042717952 -0.03274255
-0.07482668 -0.08947896 -0.07489532 -0.0030764937 -0.057168454 -0.09218179 -0.046961263 -0.0826044
-0.04105911 -0.07513288 0.12049761 -0.1055109 -0.1410952 0.07935791 -0.07943568 0.05712331
-0.028112935 -0.0842509 -0.04990934 0.008999343 -0.023251878 0.074142426 -0.016551362 -0.11827564
-0.03955691 0.019135956 -0.03393137 0.20059508 -0.00913118 -0.023739453 0.07277738 -0.047830198
0.07793892 0.05355724 0.14963564 0.0428251 -0.00056417385 -0.0053896694 0.031400353 -0.021303697
-0.05624973 0.08799043 -0.060607042 0.12556127 -0.09451574 0.006123441 0.025854036 0.029484197
-0.005517089 0.023273086 -0.006522806 -0.041197702 -0.0841941 0.18425135 0.0666164 -0.026065873
-0.024100978 -0.10056631 -0.04108524 -0.080682606 0.19846639 -0.15607344 0.016119486 0.011259954
-0.06554505 -0.106074 0.11071458 -0.014189913 0.035020754 0.015556667 -0.038718123 -0.08206969
0.016024988 0.018813236 -0.019649621 0.03656098 -0.008210917 -0.043928754 -0.04550821 0.08159112
0.015236242 0.007091374 -0.028759737 -0.058979668 0.12353346 -0.014418514 0.038174745 0.039072618
0.003601938 -1.5255289e-05 0.023154944 -0.049055237 0.031439044 0.018746343 0.037298094 -0.10243921
-0.10154067 -0.02619072 -0.10131958 -0.051136095 -0.03001277 -0.113378696 -0.023711083 0.0055725016
-0.11588753 -0.06375414 0.020128403 0.1320614 -0.010643343 -0.010419124 0.04461243 0.061249547
0.108674474 0.056001667 0.14041975 0.008160928 -0.10581551 0.061265096 0.06306555 0.035343148
0.0759286 0.18671541 0.118634045 -0.08342173 0.059303924 -0.112375855 0.016246514 -0.013601778
0.016393727 0.095551565 -0.052868962 -0.0018482511 -0.054529928 -0.026787037 0.026625548 0.044889096
0.13813937 -0.15151648 0.0572548 -0.107098006 0.032746885 0.14914396 -0.015188685 0.018494416
-0.07987862 -0.111434825 -0.012739413 -0.204032 -0.05083947 -0.04632577 0.06787072 0.070168935
-0.010796336 0.08248048 -0.041745488 -0.008807888 -0.013325945 0.016624797 -0.04975146 -0.012042167
0.023200087 -0.01936359 -0.19231826 -0.017634792 -0.08118157 0.07191953 -0.061116453 0.0144750625
00000000: 63f9 0dbd 5427 e9ba 6729 833d 4639 35be
00000010: 8315 78bc 3845 1cbd f508 b1bb 3bf9 ec3b
00000020: bcd6 ce3b 98cc 133d 1bc1 36be 739d a93c
00000030: 232c c0bd 5552 0d3e ec60 8cbb 1af7 5f3c
00000040: cd68 a3bc 00c6 0fbd a5ae edbc 5da0 803c
00000050: 2197 dcbd 3f0d 8bbd 53eb 68bd 897f 3c3d
00000060: b17d 863d ab2f d4bd 43a2 d3bd f761 d5bc
00000070: 7d1f 4ebd 3856 193d 16d4 ea3c c3f7 c53c
00000080: 8ab0 f93d 729c 66be c5a5 94be 05a0 34b9
00000090: d487 97bd cf69 60bd b391 d23c bef4 4cbd
000000a0: 0614 663c 0aa1 33bd edb6 03be 88ff 2dbb
000000b0: 7796 3e3d abf9 343d 2ed7 4e3d 4715 c2bc
000000c0: 4793 6f3d 2436 9dbd 8a84 41bd 2cec 18be
000000d0: d2d8 473d c6ec 003d 632d d53d 68dd 86bd
000000e0: 3027 de3c 27f4 88bc 657e 0dbc 39e4 083d
000000f0: 4e70 ab3d ae64 47bd 5830 673d a517 203d
00000100: ebcb 0ebd 9edb c8bd af2c 2c3d b7df a53d
00000110: c804 4fbe a908 7cbd 6b62 a5bd b9ed b9bd
00000120: 3d0a 82bd f59d d0bd 44e1 0ebb f8a8 633d
00000130: 2b39 f33d 44e1 12bd a7b1 b93c 98c5 b93d
00000140: 90f7 1dbd 7572 0f3d 175f c4bd 537d 0abd
00000150: d982 70bd da09 24be 05f9 2ebd 0d1d 06bd
00000160: bb3e 99bd bf40 b7bd b862 99bd 009f 49bb
00000170: 7829 6abd cec9 bcbd 745a 40bd 7f2c a9bd
00000180: 992d 28bd 44df 99bd 73c7 f63d 1916 d8bd
00000190: 437b 10be 6686 a23d 2caf a2bd 22fa 693d
000001a0: 194d e6bc bc8b acbd bc6d 4cbd fb71 133c
000001b0: b97a bebc fcd7 973d b996 87bc 803a f2bd
000001c0: 6d06 22bd 02c3 9c3c 9ffb 0abd cc68 4d3e
000001d0: f29a 15bc 3e79 c2bc 4f0c 953d 99e9 43bd
000001e0: 719e 9f3d d65e 5b3d 163a 193e 5f69 2f3d
000001f0: 11e5 13ba d39b b0bb a89d 003d 1785 aebc
00000200: 1e66 66bd 5434 b43d 173f 78bd 2293 003e
00000210: 7891 c1bd 25a7 c83b d8cb d33c d888 f13c
00000220: b2c8 b4bb 33a7 be3c 43bd d5bb ecbe 28bd
00000230: f56d acbd 63ac 3c3e 2e6e 883d 1988 d5bc
00000240: 6a6f c5bc b6f5 cdbd ff48 28bd ec3c a5bd
00000250: c63a 4b3e b7d1 1fbe 030d 843c ac7b 383c
00000260: 7c3c 86bd 533d d9bd 53be e23d cf7c 68bc
00000270: ec71 0f3d 64e1 7e3c e596 1ebd 2714 a8bd
00000280: d646 833c 371e 9a3c 3ef8 a0bc f7c0 153d
00000290: 1587 06bc a3ee 33bd d166 3abd 3f19 a73d
000002a0: 6ea1 793c c25e e83b 8a99 ebbc aa94 71bd
000002b0: 1cff fc3d a23b 6cbc 1f5d 1c3d 9c0a 203d
000002c0: 7e0e 6c3b f8f0 7fb7 70af bd3c 25ee 48bd
000002d0: 3ac6 003d ee91 993c e3c5 183d a6cb d1bd
000002e0: 8ef4 cfbd ec8d d6bc a480 cfbd 1574 51bd
000002f0: 57dd f5bc 1733 e8bd bf3d c2bc 8899 b63b
00000300: 7156 edbd 8891 82bd 52e4 a43c 1b3b 073e
00000310: 6b61 2ebc f9b4 2abc 86bb 363d cee0 7a3d
00000320: b990 de3d 0162 653d 32ca 0f3e 6ab5 053c
00000330: cdb5 d8bd 1cf1 7a3d 8328 813d fac3 103d
00000340: 7480 9b3d 5332 3f3e 68f6 f23d 03d9 aabd
00000350: ace8 723d 5025 e6bd 6917 853c fed9 5ebc
00000360: 234c 863c 8ab0 c33d 208d 58bd 0441 f2ba
00000370: c65a 5fbd 7d70 dbbc d21d da3c a1dd 373d
00000380: 6874 0d3e 2327 1bbe 0284 6a3d 3356 dbbd
00000390: 9921 063d 32b9 183e f6d9 78bc 9a81 973c
000003a0: 6797 a3bd f137 e4bd f9b8 50bc c4ed 50be
000003b0: 0c3d 50bd 17c0 3dbd ceff 8a3d bbb4 8f3d
000003c0: 1ee3 30bc 87eb a83d 51fd 2abd f64e 10bc
000003d0: 1055 5abc ba30 883c 30c8 4bbd 824c 45bc
000003e0: 1c0e be3c 64a0 9ebc 14ef 44be d776 90bc
000003f0: 8642 a6bd 8c4a 933d 3f55 7abd d028 6d3c
