DNNWeightsDefault/model_0/ensemble_1/zz_bbtt_9.onnx (onnx, 947112 bytes, 19 tensors)

0.embeds.0.weight f4 [2, 1]
000000 8b fa 47 be 72 36 2f 3f
       -0.19529168 0.6844245

0.embeds.1.weight f4 [3, 2]
000000 3d 72 e4 bf 91 0c 68 bf ea 16 2d bf 96 0e 6f 3f
       -1.7847363 -0.90644175 -0.6761309 0.9338163
000010 50 16 18 3e 51 5a ad 3e
       0.14852262 0.33857968

0.embeds.2.weight f4 [2, 1]
000000 09 40 65 bf b7 d7 ae 3f
       -0.89550835 1.3659581

0.embeds.3.weight f4 [5, 3]
000000 4c 2b 8c bf 0f 74 41 3f 3c 3d f7 bf f4 70 7a 3f
       -1.0950713 0.75567716 -1.9315562 0.978286
000010 4f b0 b8 3d f1 28 4e 3d 39 a1 53 bf b4 5e ec be
       0.09018003 0.050332014 -0.8266788 -0.46166003
000020 6d 45 90 3e 97 cd ef bd 88 c8 99 bd 77 41 c6 bf
       0.28177968 -0.11709135 -0.075089514 -1.5488728
000030 d6 76 ec be b3 f8 f9 3e 39 49 8c bf
       -0.46184415 0.48822555 -1.0959846

0.embeds.4.weight f4 [5, 3]
000000 e1 17 5b bf ec be 25 bf 81 6c e9 3e b0 ec 1b bf
       -0.8558331 -0.6474445 0.45590594 -0.6090803
000010 48 f0 43 3f 58 af d4 3e 4b 79 b4 3f 53 47 5d 3f
       0.76538515 0.41540027 1.4099516 0.8643696
000020 58 c9 4a be 2d 18 72 bf 2c 71 eb 3d 2f e5 d6 bf
       -0.19803369 -0.9456814 0.11496195 -1.6788691
000030 6e 97 22 3f bf 1b 83 bf 30 1a c6 bf
       0.63512313 -1.0242842 -1.5476742

0.embeds.5.weight f4 [2019, 50]
000000 34 65 50 3f db cb dc bf b8 21 eb bf 25 06 4b 3f
       0.81404424 -1.7249712 -1.8369665 0.7930625
000010 3b c2 85 be a5 18 b4 3e 5a e6 e2 bf 00 d5 ed be
       -0.2612475 0.35175052 -1.7726548 -0.4645157
000020 7d 0d 1a 3d 70 88 63 3f 04 bf cf bd 94 5c 0c 3e
       0.03761052 0.8888006 -0.10143855 0.13707191
000030 dd 30 8c bf 93 52 94 3d e7 e8 10 bf 6b 48 21 3f
       -1.0952412 0.07242312 -0.5660538 0.63001126
000040 63 70 8e bf b4 a9 8d bf 19 93 77 be fd 41 f1 3e
       -1.1128048 -1.1067414 -0.24177207 0.47120658
000050 5e ed 58 3f 77 17 0b bf 85 2d 2a c0 75 96 83 3e
       0.84737194 -0.5433268 -2.6590283 0.25700727
000060 cc df 96 3f 03 f4 f0 bc 0d 82 4a 3f 2a a7 bb 3f
       1.1787047 -0.029413229 0.7910469 1.466039
000070 32 ed b2 bf ec 5b eb 3f 81 2c e0 3d d7 c9 f8 3e
       -1.3978636 1.8387427 0.109459884 0.48591492
000080 f3 0c 64 3e cb 5b d5 3e 75 00 8f bf 82 15 f5 3f
       0.22270565 0.41671595 -1.1172014 1.9147189
000090 89 e1 f9 3f fc cf 3b be a1 bf 7d 3f 7b 0f be 3e
       1.9521953 -0.18341058 0.9912053 0.37121186
0000a0 94 35 e6 3e e3 ec e2 bc 0d ed 59 bf 82 d0 6b 3e
       0.44962752 -0.027700847 -0.85127336 0.23028758
0000b0 17 78 af 3d 6c 8f a9 bf d9 85 93 bf 6b 16 ff bf
       0.08567827 -1.3246894 -1.1525222 -1.9928716
0000c0 99 e0 dd bd af 31 8a 3f 47 e8 95 bf b4 25 50 be
       -0.10833854 1.0796412 -1.171151 -0.20326883
0000d0 ad a2 99 be 01 ff 02 c0 aa 89 98 bf 58 31 48 bf
       -0.30006924 -2.0468142 -1.1917012 -0.7820029
0000e0 7c 4d 13 c0 0c ce 5e 3f f9 f2 1f bf 5c 29 e7 3d
       -2.3016043 0.8703315 -0.6248012 0.112871855
0000f0 10 fb ab 3c 82 ca 84 3f f7 d4 9b be f5 d7 b3 bf
       0.02099374 1.03743 -0.30435917 -1.405028
000100 11 8e e6 bd be ad f7 3e 9f 72 5f be e9 0f 0a 3e
       -0.11257566 0.48374742 -0.21821068 0.13482632
000110 eb ba bb 3f e2 29 d4 3f 89 6f d2 3f 17 67 0c 3f
       1.4666418 1.6575282 1.6440288 0.548448
000120 65 2e 73 3f bd df aa bf 39 cb 96 3f f9 7d 93 bf
       0.9499267 -1.334953 1.1780769 -1.1522819
000130 48 a4 81 3f b9 64 f2 be 7b f3 e1 bf 86 3a 7c 3f
       1.012826 -0.4734247 -1.7652429 0.985268
000140 b1 f2 83 bf ff 8e 06 3e 25 ba 6c be 00 68 32 3f
       -1.0308439 0.13140486 -0.23117884 0.6968994
000150 b8 56 50 3e d9 2c 01 40 76 02 d4 3f 8e eb 17 bf
       0.2034558 2.0183623 1.6563251 -0.593438
000160 cb 9d 9c 3f 38 c4 b8 bf 77 fd ef bd c9 2e d6 3a
       1.2235655 -1.4434881 -0.117182665 0.0016340847
000170 c0 e9 96 3e ec 8d b2 3e 1b 31 5c bf 39 28 bd be
       0.29475212 0.34873903 -0.8601243 -0.3694475
000180 e7 ea 39 3f 15 1c 45 bf d5 0e 08 bf f0 21 0d bf
       0.7262406 -0.76995975 -0.5314763 -0.5512991
000190 29 ac 08 40 2b 07 4e be c7 d1 d8 bf 51 9f d0 3f
       2.1355078 -0.20119922 -1.6939019 1.629862
0001a0 0a fa c9 3f ac fb 92 3f df 99 7c 3e 75 19 30 3f
       1.5779431 1.1483054 0.24668072 0.68788844
0001b0 3e a7 67 3f c7 26 1b 3e 5b 29 48 be 1f 14 8d bf
       0.90489566 0.15151511 -0.19547026 -1.1021765
0001c0 c5 57 83 bf 1a 6c 85 3e 20 a8 d0 be 73 62 f5 be
       -1.026116 0.26059037 -0.4075327 -0.47926673
0001d0 c2 22 bd be c0 e9 a9 3f bf a5 ee 3e 41 08 8b bf
       -0.3694058 1.327446 0.4661083 -1.0861894
0001e0 79 14 18 bf 4d 82 28 bf f3 91 8d 3f 64 ee 81 bf
       -0.5940624 -0.65823823 1.1060165 -1.0150876
0001f0 36 c1 de 3f 54 83 3c 3f a4 b9 76 bf 14 fa ec 3f
       1.7402713 0.7363789 -0.96377015 1.8513818
000200 31 f5 26 3f d6 b1 d4 bf f2 ac a5 bf 17 b4 2a 40
       0.6521788 -1.6616771 -1.2943404 2.6672418
000210 ed 19 51 3e 8f 47 82 3e 61 78 8f bf 2a 70 02 3f
       0.20420046 0.2544522 -1.1208612 0.509524
000220 1c 10 2b 40 be c9 78 3e c6 ad 4c 3f 32 24 2f 3f
       2.6728582 0.24295709 0.7995266 0.68414605
000230 1f 14 1a bf 35 a4 7e bf 58 39 96 bf 27 a5 78 bf
       -0.6018695 -0.9946931 -1.173625 -0.97127
000240 be fb 9e 3f 57 3f f0 be 5c 16 b9 be b3 03 0d c0
       1.2420576 -0.46923324 -0.3614987 -2.2033508
000250 f0 e6 45 bd d6 46 fd be 51 81 14 bf 29 73 8f 3e
       -0.048315942 -0.49468106 -0.5800982 0.28017548
000260 87 f9 8d be 01 46 98 bf 82 f8 90 3f 6b 3b 80 bf
       -0.27729437 -1.1896363 1.1325839 -1.0018133
000270 a2 f5 f5 bf ff 28 d9 3a 66 41 59 3f d1 f1 7d bf
       -1.9215586 0.0016568004 0.84865415 -0.9919711
000280 49 62 06 3f 9c 2e 53 3e 3d 89 d6 be 6e 85 41 3f
       0.5249372 0.20623249 -0.4190158 0.7559422
000290 23 6f 52 bf 49 94 dc bf b3 69 c0 3b 04 11 cc bf
       -0.8220083 -1.7232753 0.0058719753 -1.5942693
0002a0 6e ec f4 be 18 ff 95 bf 03 b0 7d bd 84 6f 9d bf
       -0.47836632 -1.1718473 -0.061935436 -1.2299657
0002b0 f9 16 50 bf 48 8d 44 be 88 9e 8e bf c0 94 63 bf
       -0.81285053 -0.1919452 -1.114213 -0.8889885
0002c0 c0 e9 84 3e 41 a1 9f bf 58 c2 ce bf 17 c0 a7 3d
       0.25959587 -1.2471086 -1.6153059 0.08190935
0002d0 35 25 1a bf 9d 10 cd 3d 70 10 83 bf a4 81 6d 3f
       -0.60213023 0.10012934 -1.0239391 0.9277594
0002e0 04 ef 40 3f b8 1e 0f 3e 0f c7 5e 3f 4e 98 32 bf
       0.7536471 0.13976562 0.8702249 -0.6976365
0002f0 6e 3c 1b 3f 61 6f 52 3f 41 ea 3b 3d 71 15 89 bf
       0.60639083 0.822012 0.0458777 -1.0709668
000300 ff 0d 02 40 53 53 cc bf 43 f6 61 bf 81 84 63 3f
       2.0321043 -1.5962929 -0.8826639 0.8887406
000310 33 38 75 bf ca 79 7c 3e c1 1e a2 be 0f 52 14 bf
       -0.9578888 0.24655834 -0.31664088 -0.5793771
000320 d5 fd 8c 3f 48 0c 1d 3f 31 01 ca 3f 9a 85 c3 bf
       1.1014963 0.61346865 1.5781614 -1.5275147
000330 d1 fc 9e 3c dc 6f a8 3f 31 99 dd bf 0f d1 43 bf
       0.019407662 1.3159137 -1.7312375 -0.76490873
000340 5e 3a cb 3e cc 16 06 bf 0b 64 33 bf d9 de 65 3f
       0.39692968 -0.52378535 -0.7007453 0.89793164
000350 6f c3 81 3e 5e 50 a9 3b d4 6e 71 3f 24 df cd bf
       0.25344416 0.005167051 0.94309735 -1.6083722
000360 0a 27 b0 bf 28 3c 5f bd 8d ae 8a bf 28 a7 2d bf
       -1.3761914 -0.05450073 -1.0834519 -0.67833185
000370 03 be 4c 3f e2 04 a4 3f 2a ce ef 3e e3 72 2a 3e
       0.79977435 1.281399 0.46836978 0.16645388
000380 61 ed 63 3f 40 98 f7 be 49 c2 e1 3e 93 27 1a 3f
       0.89034086 -0.48358345 0.4409354 0.60216635
000390 bd 8e 3e be 38 e5 32 c0 d1 d4 d2 bd 26 a9 83 bf
       -0.18609138 -2.7952404 -0.10294498 -1.0285995
0003a0 d4 68 2f 3f 50 aa 62 3d d2 03 4c 3f e0 1c 38 3f
       0.6851933 0.055338204 0.7969333 0.7191906
0003b0 86 a4 14 3e 65 91 79 bf be ba 19 c0 84 1f 69 bf
       0.14515886 -0.9748748 -2.4020228 -0.91063714
0003c0 ec 8d b0 bf 33 12 e6 3d f5 06 3d 3e a5 d8 e0 3f
       -1.3793311 0.1123394 0.18459685 1.7566115
0003d0 72 83 c4 be 79 5e c1 bf 6b 02 b4 3e 77 d8 72 bd
       -0.38381535 -1.5106956 0.35158095 -0.05928847
0003e0 92 a9 85 3e ed fe e1 3e f7 2c 25 3f ed 13 d7 3f
       0.26105934 0.44139805 0.64521736 1.6802956
0003f0 1b 3a ef 3e 56 fe 55 bf a2 27 53 bf 75 44 c9 bd
       0.46724018 -0.8359121 -0.8248235 -0.0982751

1.layers.0.0.bias f4 [80]
000000 bf b3 1f bd d3 af 24 bd 6f 25 2b bd cc a7 f7 bc
       -0.03898978 -0.04020674 -0.041783746 -0.030231379
000010 68 2d 45 3c 50 9e 54 bc 5b 6b 39 b9 cf 31 3c bd
       0.0120347515 -0.012977198 -0.00017682968 -0.04594594
000020 85 7d 27 bd 99 d5 45 bd a0 61 53 bd e2 da 83 bd
       -0.04089119 -0.048299406 -0.051606774 -0.06438233
000030 82 7b 1a bd cd 45 4c bc 83 42 71 3b f4 8b 32 bd
       -0.037715442 -0.012467814 0.0036813326 -0.0435905
000040 47 b6 be bc 6e 6c 82 bd c7 b2 c5 bc 04 8a 95 bd
       -0.023280276 -0.063683376 -0.0241331 -0.07301715
000050 ad ce 8d bd 90 37 6a bd a3 17 38 bd 49 eb 4b bd
       -0.06924186 -0.057181895 -0.044944417 -0.049784932
000060 d3 d5 42 3c 79 28 fb bb b6 08 2c bd 86 4c 96 bc
       0.0118918 -0.007664737 -0.042000495 -0.018347036
000070 70 46 20 bc 68 44 65 bd 90 00 62 bd 55 da 39 b9
       -0.009782419 -0.05597344 -0.055176318 -0.0001772431
000080 c2 17 86 bd 4b 59 1d bd 03 4d 60 bd cb cd 73 bd
       -0.065475 -0.038415235 -0.054760944 -0.05952243
000090 61 66 8f bc a9 3c df bc 47 d7 68 3c e1 0c 0c bd
       -0.017504873 -0.027250605 0.014211482 -0.03419197
0000a0 f9 ee 45 3c c2 c9 79 bd 42 42 8b bb cc 80 88 bd
       0.012080901 -0.060983427 -0.004249842 -0.06665191
0000b0 b8 27 4f bd 9f 9d cb bc 7a be f0 bc ea 69 b1 bd
       -0.050574988 -0.024855433 -0.029387701 -0.0866278
0000c0 34 2e d5 bb 52 12 e2 bc d3 3d 80 bd b9 03 d4 bc
       -0.006505752 -0.027596626 -0.06261792 -0.025880681
0000d0 61 aa ab bc c2 98 b3 3c 36 c3 46 bd 92 1b 69 bd
       -0.020955266 0.021923427 -0.04852601 -0.05691106
0000e0 a5 8c b5 bc 55 34 12 bc ad 18 6b bd 52 b0 27 bd
       -0.022161791 -0.00892361 -0.05739658 -0.040939637
0000f0 7e d2 9d 3b b2 e9 af bc bc ca 65 bc 5d ef 66 bd
       0.0048163524 -0.02147374 -0.014025386 -0.05638062
000100 a5 42 63 bd d7 cb be 3c 1e 7f 34 bd 36 6b 7c bd
       -0.05548348 0.023290558 -0.04406654 -0.06162568
000110 8b e3 57 bd db 98 25 bd 94 dc 8b bd 00 86 43 bd
       -0.052707236 -0.040428977 -0.06829181 -0.047735214
000120 71 e3 7a bd de c1 b7 bd 7f ad 08 bd 14 33 63 bd
       -0.06125206 -0.08972524 -0.033368584 -0.055468634
000130 52 e6 50 bd 70 74 2b bd 68 ee 87 bd 92 49 96 bd
       -0.0510009 -0.04185909 -0.06637269 -0.07338251

1.layers.0.0.weight f4 [80, 80]
000000 79 21 36 be f0 e3 eb 3c 82 d6 27 3e 63 e8 d5 3c
       -0.17786206 0.028795213 0.16390422 0.026111787
000010 c7 02 1e bd 38 d8 12 3e 54 ca c0 bd a7 57 e0 3d
       -0.038576867 0.14340293 -0.09413591 0.10954218
000020 b4 eb 0e be 57 cd b9 be d1 3d 85 3d 38 03 bb bd
       -0.13957101 -0.36289474 0.06505931 -0.09131473
000030 27 7a e8 bd 8f 9a 2c 3e 4b 54 33 3e c6 e8 fb 3d
       -0.11351424 0.16855834 0.17512624 0.123002574
000040 71 d5 fb bd cc fa b0 3e 15 8a 73 be e0 16 91 3e
       -0.1229657 0.34566343 -0.23783143 0.28337765
000050 3f 80 0b be 91 ea 75 be 3a fc 97 be c3 ed 90 bc
       -0.13623141 -0.24015261 -0.2968462 -0.017691499
000060 d4 06 b4 3e 5b 55 80 be 09 3e 87 3e 92 88 0b 3d
       0.3516146 -0.2506512 0.26414517 0.03406579
000070 35 25 80 3e a4 65 ca 3e 12 e8 6a bd 4d d7 3c be
       0.25028387 0.3953067 -0.057350226 -0.18441506
000080 93 54 3c bd cb e7 57 3d 10 63 ac bd df ba d7 3d
       -0.045979094 0.05271129 -0.08417332 0.1053369
000090 93 1c 0a 3b e4 49 bd bc b1 95 4b 3e 5a 27 81 bd
       0.002107416 -0.023106523 0.19881321 -0.06306334
0000a0 c4 40 ef bc fc 94 96 bd 44 cb a7 3d 9d 9d a8 bd
       -0.029205687 -0.07352635 0.08193067 -0.08233187
0000b0 83 ae d3 3c 9e 95 31 bc cc 01 90 bd 7f 9b a7 3c
       0.02584005 -0.010838894 -0.07031593 0.020459889
0000c0 3a d0 67 bd 48 90 56 3e a1 7a ab 3c 37 15 98 be
       -0.056595065 0.20953476 0.020932497 -0.29703686
0000d0 d4 c6 c6 3d 6f eb 94 bd 73 65 d0 bd 35 41 03 bc
       0.09705892 -0.07271468 -0.101756 -0.008011152
0000e0 1c 36 a9 be e4 b9 b9 be 0b 14 3c 3e e0 d7 a0 3d
       -0.33049095 -0.36274636 0.18367021 0.07853675
0000f0 d0 c2 07 3e 67 5f d0 bd a6 0c 6d be 40 f4 fe bd
       0.13257909 -0.101744466 -0.23149356 -0.12448931
000100 e4 40 b9 3b 6d 14 55 bd a7 79 96 bd f7 32 fb 3d
       0.0056534875 -0.052021433 -0.07347422 0.1226558
000110 8a 41 49 3e c2 e3 a1 3e 47 0c 48 3e 1c 04 67 bd
       0.19653907 0.31619078 0.19535933 -0.056400403
000120 32 49 1f be d4 20 f9 bc b1 89 02 3e 41 70 a8 be
       -0.15555266 -0.030411161 0.12747838 -0.32898143
000130 55 82 47 3e c7 6a a1 be bd 1f 1d be 78 af a0 3d
       0.19483311 -0.31526777 -0.15344138 0.07845968
000140 0e df 9d be 22 41 8b be 58 e2 4c 3f 9e 50 3e be
       -0.3083424 -0.2719813 0.80032873 -0.1858544
000150 59 a0 6a 3e 6c b8 85 bd 60 31 4e be 1b a8 4e 3d
       0.2291273 -0.06529316 -0.20136023 0.050453287
000160 38 d7 70 3e ff d5 80 3d a3 c0 1a be 8e 68 e0 bc
       0.235196 0.062908165 -0.15112548 -0.027393606
000170 da 7f b8 be d2 b8 c2 3d 1a d2 c9 3d b2 71 99 bd
       -0.36035043 0.09507908 0.09854527 -0.07492389
000180 28 98 a4 bd 45 08 ef 3d 80 3e 89 3d 5f f4 27 3d
       -0.08036834 0.11671499 0.06701374 0.041004535
000190 3f d5 45 be bb 03 e3 bd fb f5 15 3d d6 53 4b bd
       -0.19319628 -0.11084696 0.03661154 -0.0496405
0001a0 58 e1 bf be 7d 2b 12 3d 9c 4f 40 be a4 4c 0f bd
       -0.3747661 0.035686005 -0.18780369 -0.0349852
0001b0 9f 3f 6b 3e f5 31 44 3c 59 a0 04 be b3 b5 a4 be
       0.22973488 0.011974801 -0.12951793 -0.32169876
0001c0 21 be bf 3d 4c 8c 0c 3c e4 ff e8 3d 0a 94 f7 3a
       0.09362436 0.008578371 0.11376932 0.0018888724
0001d0 01 8e e2 bd e7 f5 ee 3d 70 5c 51 be 9d 8e 16 3d
       -0.11062241 0.11667996 -0.20445418 0.0367571
0001e0 39 eb 62 3e 7e f5 74 bd c1 cf 37 3d e0 48 6e 3d
       0.22160043 -0.059804432 0.044875864 0.058174968
0001f0 ae 66 06 3d 49 ee ac 3d 0f 4f 93 bd b6 08 96 3c
       0.032812767 0.08443887 -0.071928136 0.0183147
000200 36 78 49 bd ae 9d f6 3b 00 b6 25 3e af 88 50 be
       -0.049186908 0.007526121 0.16182709 -0.2036464
000210 99 5c 05 3e a9 9e 3a 3e c9 13 a3 bc 5b b8 0c be
       0.13023604 0.18224587 -0.019906895 -0.13742201
000220 48 bf c1 bc b4 b1 92 3e 81 e8 2b 3e bd 13 bc 3d
       -0.02365078 0.28651202 0.16787912 0.09183452
000230 2b f0 6b 3d 31 21 f8 bd b3 f8 1d be 22 86 8e be
       0.05760209 -0.12115706 -0.15426902 -0.2783671
000240 35 ce f0 bc 3c 72 a2 3c ef f2 20 3e 86 c9 ea 3d
       -0.029395202 0.019829862 0.15717672 0.11464219
000250 10 0b 79 3d f0 96 3c 3d 58 94 cb bd 25 21 4b 3e
       0.060801566 0.046042383 -0.09940404 0.19836862
000260 97 27 a1 3e ae d1 17 be 55 cc 00 be 61 81 0a 3e
       0.31475517 -0.1482608 -0.12577946 0.13525917
000270 85 50 e7 3d 92 87 f8 3c c9 9c d8 be 6d bd 48 3a
       0.11294655 0.030338082 -0.42307118 0.0007657621
000280 e9 b6 01 be dd e2 e6 3c ce b4 16 3e 82 92 86 3d
       -0.12667431 0.028184349 0.14717409 0.06570913
000290 ba e3 e9 3d 13 ec 1e be 76 4d 3d bd ab 27 8f be
       0.114203885 -0.15519743 -0.04621645 -0.27959952
0002a0 8b b2 ba 3d e3 4e 84 be a9 28 46 bd db 0c 9c 39
       0.091160856 -0.25841436 -0.04837862 0.00029764217
0002b0 13 bc 4e 3d 26 46 12 3e c9 2c c8 3e 86 bd 42 be
       0.05047233 0.14284572 0.39096668 -0.1901761
0002c0 b4 76 6f be ae 92 f5 3d 03 bb c4 3d 8c 5c 61 3e
       -0.23385125 0.119908676 0.09605982 0.2200796
0002d0 8f 99 d8 3d d0 53 5b 3d 45 b8 52 3e e0 77 2d be
       0.10576164 0.053546727 0.20578106 -0.1694026
0002e0 20 59 77 3e b9 63 bb 3e 7f e4 7d 3e 23 61 af 3e
       0.24155092 0.3659952 0.24794196 0.34253797
0002f0 3d f3 38 3e 8e 84 33 3e 5a 96 1e 3e 48 be bf bc
       0.18061538 0.17531034 0.15487042 -0.023406163
000300 23 82 23 be 44 a0 a4 bc cd 5d 12 3e 1d 4c 84 be
       -0.15967612 -0.020095952 0.14293595 -0.2583932
000310 09 5b 2a be 3a 12 34 be 40 c4 e3 3d 56 72 f7 3d
       -0.1663629 -0.17585078 0.11121416 0.12082355
000320 5c bb e0 ba f0 cb d2 bc c6 18 87 3d 58 fb d5 3d
       -0.0017145681 -0.02573201 0.06596522 0.10448331
000330 bb 59 4c 3d e3 36 07 be 20 22 9f 3d c9 68 70 3e
       0.04989026 -0.13204531 0.07770181 0.23477472
000340 cd 3a 04 bc 7e f7 8c bc fd 2d 97 bd 46 f5 92 bd
       -0.00807066 -0.017207857 -0.073818184 -0.071756884
000350 c0 b2 1d 3e f4 bd f3 bd 67 5b ce bd de 10 a7 3d
       0.15400219 -0.11901465 -0.10076027 0.08157514
000360 ec 1c 66 3e e6 36 0f 3e 16 a1 5e 3e d2 68 80 bd
       0.2247197 0.13985786 0.21741137 -0.06269993
000370 16 a4 98 3e 94 9f 36 be a1 93 1d 3c 7f 8f db 3d
       0.29812688 -0.17834312 0.009617717 0.10720729
000380 d0 d9 ca 3d d1 9f 44 3d c3 d4 8a 3e 2f c4 3b bd
       0.09904826 0.048003975 0.2711545 -0.045841392
000390 b9 ef fd bd e6 f6 81 3e a4 02 0f be 2e ea 07 3e
       -0.12399239 0.2538368 -0.13965851 0.13272926
0003a0 d6 ea 27 be cb 20 53 be 1d e7 85 be 55 0d 28 be
       -0.16398177 -0.20617978 -0.26152888 -0.16411336
0003b0 5a b6 ae 3c 39 83 be bc 80 a3 1c be a6 3b a2 3c
       0.021327186 -0.023255931 -0.15296745 0.019803833
0003c0 70 7e 73 bc d2 e1 61 3e d5 15 74 bc d4 06 8d 3e
       -0.014861688 0.220588 -0.014897783 0.27544272
0003d0 24 d5 c3 bd 4b 4b 03 bf 90 da 81 3e 43 0c 33 be
       -0.09562138 -0.5128676 0.25362062 -0.17485146
0003e0 fd 92 ad bd 00 c6 fe 3e 63 58 fe 3a 1c 5d 58 3d
       -0.084753014 0.49760437 0.0019405003 0.05282317
0003f0 05 a3 2e 3e b8 11 b1 be 1e 88 28 be 27 48 82 be
       0.17054375 -0.3458383 -0.16458175 -0.25445673

1.layers.1.0.bias f4 [80]
000000 45 49 04 3d 5a 9f 0a bd a6 a4 9a bc 83 b8 f6 ba
       0.032296438 -0.033843376 -0.018877339 -0.0018823299
000010 42 af 8b bd f4 9d d9 bc ee 64 ad 3b 10 dc 3e bd
       -0.06820537 -0.026564576 0.005291573 -0.046596587
000020 01 aa b5 3b 4c fc 8d ba 9f f8 96 bd 94 2b 22 bd
       0.0055439477 -0.0010832637 -0.073716395 -0.03959234
000030 2b bf 83 bd 2f cb 8e bd 91 c1 43 bd a6 d5 07 bc
       -0.06432947 -0.06972348 -0.04779202 -0.008290684
000040 11 c3 dd bc 3e 60 01 bd 41 1f 6e bd 33 b1 1d bd
       -0.027070554 -0.031585924 -0.058135275 -0.03849907
000050 87 02 97 bd 2e 6b 3c bd e8 8d a3 bc 73 54 c8 bc
       -0.07373529 -0.046000652 -0.019965127 -0.024454331
000060 0f 8b 0b bd 9a c5 32 bd 79 c5 61 bd 26 ba a1 ba
       -0.034068163 -0.04364548 -0.055119965 -0.0012338802
000070 14 a7 cc bc 0d 3d 36 bd 13 57 30 bd ff ed 44 bc
       -0.024982013 -0.044491816 -0.04305179 -0.012019633
000080 a8 13 89 bd 64 48 84 bc c0 b6 28 bd 33 65 a5 bc
       -0.06693202 -0.0161478 -0.04118991 -0.020189857
000090 d4 3a 52 bc b8 27 2f bd 35 77 bd bc 5d a6 8b bd
       -0.0128314085 -0.042762488 -0.023128131 -0.06818841
0000a0 ca ab 31 bd 9c da 73 bc a2 92 00 bd c8 38 98 bc
       -0.04337672 -0.0148836635 -0.03138984 -0.018581763
0000b0 20 2f 35 bd bf d4 6f bd fe 60 91 bc ac 00 47 bd
       -0.044234395 -0.0585525 -0.017746445 -0.048584625
0000c0 bd 13 9f bd 36 0d 7d 3c dc 5a 76 bd 94 4d c8 bc
       -0.07767437 0.015445044 -0.060145244 -0.024451055
0000d0 df d1 9a bb 95 13 13 3b ce a1 a7 bc ab f1 e3 3c
       -0.0047247256 0.0022442092 -0.020462897 0.027825197
0000e0 de 26 6c bd 07 ac 8d bb d8 a4 f0 3b ab 14 e3 bc
       -0.057654254 -0.004323486 0.0073438697 -0.027719816
0000f0 c2 53 34 bd 3c 89 16 bd 51 bd 5e bb ea eb 25 bc
       -0.04402519 -0.03675197 -0.0033987353 -0.010127047
000100 2f 84 5b bc 13 6d 34 bd 1b 69 53 bd 89 79 45 bd
       -0.013398214 -0.044049334 -0.05161391 -0.048211608
000110 b4 fe 11 bd 6a de 9e bc 32 d4 52 bc bf 15 27 bd
       -0.035643294 -0.019393165 -0.012867974 -0.040792223
000120 b3 38 85 bd 13 d2 9a bc 6c ba 99 bd 28 ae 1c bd
       -0.06504955 -0.018899 -0.0750626 -0.038252026
000130 0b 26 57 bd 1a cd 4b bd b1 0e 8f 3c 70 d4 5b bd
       -0.052526515 -0.049756147 0.01746306 -0.053669393

1.layers.1.0.weight f4 [80, 160]
000000 0d df 23 be dd 84 60 bd 10 f4 9e 3d ea 2e 3b 3e
       -0.16003056 -0.05481421 0.07761395 0.18279615
000010 a7 f1 14 be b7 50 c0 bd f3 94 e4 bd 79 48 1c be
       -0.14545308 -0.09390395 -0.11161222 -0.15262021
000020 f5 88 b6 bd c3 12 1a 3d 42 15 75 3d 9e 01 22 3e
       -0.08912841 0.03761555 0.059834726 0.1582093
000030 c5 d9 35 3e e8 10 8d 3d dc e6 a8 3d 77 28 5d 3c
       0.17758854 0.0688799 0.08247158 0.013498417
000040 7d 4b 07 3e 7f c4 f0 3d 8a ca 0a 3e 5b da cd bd
       0.1321239 0.11756229 0.13553825 -0.100514136
000050 30 5d 07 3e cf ac 11 3d 4a 8a 80 3d af 6e 81 be
       0.13219142 0.035565194 0.062763765 -0.25279757
000060 63 40 7b bc bf ce 7a be 70 21 23 be f5 f5 7e be
       -0.015335175 -0.2449293 -0.15930724 -0.24898513
000070 46 81 29 be f2 93 36 bd 92 68 19 bd bc e9 78 3e
       -0.1655322 -0.044574685 -0.03745324 0.24307913
000080 80 46 fa 3d 83 21 a6 bb 25 eb 26 be 14 0f d8 bd
       0.12220478 -0.005069913 -0.16300638 -0.10549751
000090 26 f9 af bd ef fb 05 be 32 1f 99 bc 44 fc bc 3d
       -0.08592443 -0.13084386 -0.018691633 0.09227803
0000a0 81 9c 20 3e ee a1 53 bd 4e d6 18 3e 31 c0 db bd
       0.15684702 -0.0516681 0.14925501 -0.10730017
0000b0 39 4e 2a be 2d 14 ec bd 23 3c db bd b2 5b 3b 3d
       -0.16631402 -0.11527286 -0.107048295 0.045741744
0000c0 0c b1 f8 3d b7 91 a6 3d 47 c4 a9 bb 2a dd f2 3d
       0.12143144 0.08133262 -0.005180869 0.1185859
0000d0 b1 6a 82 bd 07 43 43 3d 11 0f 9e bd cb 02 ba 3d
       -0.06368006 0.047671344 -0.077177174 0.09082564
0000e0 1d 20 86 3d 63 f5 ac bb fa 21 5d be 95 44 c2 bd
       0.06549094 -0.005278276 -0.21594992 -0.09485737
0000f0 35 02 24 be 97 2e ac 3c ba 96 51 3e 7a 26 18 be
       -0.16016467 0.02101831 0.20467654 -0.14858428
000100 cf 06 2e bc 76 93 85 3e dd de 4d be 48 89 4c be
       -0.0106217405 0.26089066 -0.20104547 -0.19974244
000110 26 70 0b 3e 24 38 9a 3d 8d 10 4d 3e 24 44 14 be
       0.13617 0.07530239 0.20025845 -0.14479119
000120 8f b0 18 be dd 06 44 3d d9 ea c8 3c d2 a2 9f 3d
       -0.14911102 0.047858108 0.024526047 0.077947274
000130 62 9c 02 be 7c 69 83 be 17 84 79 bd c0 fd b4 3d
       -0.12754968 -0.25666416 -0.060916986 0.088374615
000140 fe a2 35 3e b0 b2 e9 be 5f f2 e2 3e 5a 11 23 3f
       0.17737958 -0.4564414 0.4432554 0.6369835
000150 f1 fc 85 3e 89 5c 2b bd df c0 ae 3d a6 ce fc 3c
       0.2616954 -0.041836295 0.08532881 0.030860256
000160 aa 29 96 3e de c2 97 3e c7 83 21 be 82 47 a2 be
       0.29328662 0.2964086 -0.15772925 -0.3169518
000170 82 bd 3c bd ab ec 74 bd 7b 6c b1 3c 5d 3b 65 3d
       -0.046079166 -0.059796017 0.021658173 0.055964816
000180 9f ea 0a 3d c9 69 1d be b9 18 5c 3d 6c 92 17 be
       0.03391516 -0.15372385 0.053734515 -0.1480195
000190 61 20 31 bc 11 0f 53 3e 77 07 a1 3e bf f4 d8 3d
       -0.010810942 0.20611216 0.31451008 0.105935566
0001a0 c7 72 0e be 2a 98 10 3d 9f 0e a1 39 10 18 29 3d
       -0.13910972 0.035301365 0.00030719207 0.041282713
0001b0 e7 b4 0a bc 90 32 02 3e af 5d 9a bd 84 80 94 bd
       -0.008465982 0.127146 -0.075374 -0.07251075
0001c0 e3 0d 0b be 9d 60 15 bd 25 9a e0 3c 9c bb 9b 3d
       -0.13579516 -0.03646909 0.027417252 0.07604143
0001d0 29 a0 c1 3d 32 41 21 3e 99 14 7c 3d 5b 38 58 3d
       0.09454376 0.15747526 0.06154308 0.05278812
0001e0 a6 18 24 3e 1b 6a 18 be 21 f1 cc 3b bb f0 f8 bd
       0.16025028 -0.14884226 0.0062543307 -0.12155291
0001f0 ae 0b 24 3e a6 b2 48 bd cc 07 00 bd a7 40 2d be
       0.1602008 -0.048998497 -0.031257436 -0.16919194
000200 83 48 08 bd fa ea ca 3d 4b 4c 86 3d 90 03 1d be
       -0.033272278 0.099080995 0.065575205 -0.1533339
000210 15 71 80 be af cb 73 3e ab e1 a7 3e 7c 43 f9 bc
       -0.25086275 0.23808168 0.32789358 -0.030427687
000220 9c 77 13 3e b6 ed 32 3e 26 10 1b 3d 63 f2 7e bc
       0.14401096 0.17473492 0.037857197 -0.015560719
000230 18 d4 1a 3d ec a8 0d 3e ed 21 08 bc 51 85 2d 3e
       0.037799925 0.1383397 -0.00830887 0.16945387
000240 69 9e a0 3d ee a5 2f 3e 5f 46 e7 bd 23 c8 0d bd
       0.07842714 0.17153141 -0.11292719 -0.034614693
000250 28 79 02 bc de bd 92 bd 82 20 53 bd e6 f4 6f 3c
       -0.007963456 -0.071651205 -0.051544674 0.014645791
000260 1f b7 c6 bc 31 a3 31 bc 3b ee 21 3d c0 f2 ff bd
       -0.02425724 -0.0108421305 0.039533835 -0.12497473
000270 0e 53 66 3d 8c 3d ac 3d 12 eb 50 3e d8 b6 07 bd
       0.05623155 0.08410177 0.20402172 -0.033133358
000280 3a 5c 6d 3e ac 96 04 be e3 19 1c be 83 56 bc 3d
       0.23179713 -0.12948102 -0.1524425 0.09196188
000290 be a9 87 bd 26 b9 b6 bb f0 63 c9 bd 9d dd 17 bc
       -0.06624173 -0.0055762706 -0.09833515 -0.009269145
0002a0 4c 52 33 bc 90 e2 da bc f5 de ad bc 11 8c 15 3e
       -0.010944914 -0.026719362 -0.021224478 0.14604212
0002b0 fd 52 59 bd 95 82 0c 3d 32 a5 a4 3c 2b 03 58 be
       -0.05305766 0.03430422 0.020098303 -0.21094958
0002c0 e8 b2 16 be 3f 7a 08 3e a0 b0 04 be 62 88 25 3c
       -0.14716685 0.13327883 -0.12958002 0.010103317
0002d0 1d 3b 87 be 4a 4d e9 bd 05 d2 c2 bc 70 4b 4d 3d
       -0.26412287 -0.11391695 -0.023781786 0.05012077
0002e0 99 61 00 3e ba 7a a2 bc 20 97 ba 3d 86 da bc 3d
       0.1253723 -0.019833911 0.09110856 0.092213675
0002f0 45 33 60 3d 98 9d 53 3d 39 44 59 3e 0a 74 90 3d
       0.054736394 0.051663965 0.21217431 0.07053383
000300 b6 d3 56 3d 3d 8a 23 be 1a 12 44 be 78 b8 10 3e
       0.052447997 -0.15970702 -0.1914753 0.14132869
000310 f1 51 39 bc e9 ae 13 bd 20 30 5c 3e ac b3 02 3e
       -0.01131104 -0.03605548 0.21502733 0.12763852
000320 55 62 8e bd 24 72 aa 3d 61 e8 cf 3c a1 bf 5e be
       -0.06952349 0.08322552 0.025379362 -0.21752788
000330 af c6 84 bd f1 43 80 bd 12 91 cb 3c d4 0e a1 be
       -0.064832084 -0.06262959 0.024849448 -0.31456625
000340 07 b1 16 3e 44 42 11 bd dc 40 5d 3e 8a 15 82 3e
       0.14715968 -0.035463586 0.21606773 0.25407058
000350 6b a3 1d 3e 5e 98 c3 3c 19 92 16 bd a3 c9 1e 3d
       0.1539437 0.023876365 -0.036760423 0.038766515
000360 de 8a 88 bd ab 79 aa bd 11 e1 59 3d b3 6e f9 3c
       -0.06667112 -0.083239876 0.053193156 0.030448293
000370 55 c5 dd bd 9b be 9f be 33 e3 59 3e b0 6d f1 bd
       -0.10828654 -0.31200108 0.21278076 -0.11788499
000380 22 58 24 3e f1 09 22 3d 1c 1b 15 bd 44 2d 9b bb
       0.16049245 0.039560262 -0.036402807 -0.0047356207
000390 0e 1d 27 be 6e df c0 bc 94 4b 11 bd fd ae 6d be
       -0.16319677 -0.02354404 -0.035472468 -0.23211284
0003a0 66 0e 2c bd ab 25 88 be 1f 4c 7c bd 55 7f 25 be
       -0.04200592 -0.26591238 -0.061596032 -0.16161855
0003b0 fa 6f 00 be ca 87 45 3e 4c 16 c7 3a 29 e5 6a be
       -0.12542716 0.1929008 0.001518914 -0.2293898
0003c0 31 18 44 3d 16 3b 1b be 27 66 8d 3d 52 9c d8 3d
       0.047874633 -0.15159258 0.0690425 0.10576691
0003d0 a7 c4 8e 3d ec 19 b3 ba da 83 11 3a 5d 3e 01 3e
       0.06971102 -0.0013664342 0.00055509584 0.12621446
0003e0 d4 a8 86 3d c5 cc 05 3e 10 0b 33 3c 80 10 90 bd
       0.0657517 0.13066395 0.0109279305 -0.07034397
0003f0 d6 9e ec 3d 2d 9a b2 bc c3 9c c3 bc 9d f6 2b be
       0.11553733 -0.021802032 -0.02387846 -0.16793294

1.layers.2.0.bias f4 [80]
000000 21 10 69 bc 34 05 f6 bc 50 ff 3a bd 9e de d5 bc
       -0.014225037 -0.030031778 -0.04565364 -0.026107129
000010 1f 52 21 bd 75 54 eb bc fb 6b bb bd dc fa bb bc
       -0.039384957 -0.028726796 -0.09151455 -0.022946768
000020 ee 9a 1a bd 65 d1 c7 3b 54 d7 73 bd 8b 4b 08 bc
       -0.03774541 0.00609796 -0.059531525 -0.008318792
000030 89 a5 a7 bb 3e 5d 59 bd a3 42 35 bd fc 04 00 bd
       -0.005116169 -0.05306744 -0.044253003 -0.031254753
000040 d5 aa 43 bd 6c 07 49 bd 37 50 62 bd 15 b4 c1 bc
       -0.04777034 -0.049079344 -0.05525228 -0.02364544
000050 7f 8e 5c bc bf 7e 6a bd 15 ed 73 bd 19 7d 1a 3c
       -0.013461708 -0.05724978 -0.05955227 0.00942924
000060 35 c7 ae bd b5 ad 99 bc 46 02 79 bc fe 17 15 bd
       -0.085340895 -0.018759588 -0.015198296 -0.036399834
000070 d2 b4 5a bc 8c 61 a1 bd 24 6b 66 bd 78 76 57 bc
       -0.013348775 -0.07879934 -0.05625452 -0.013150804
000080 e3 ee 44 bd 2d 73 05 bd 26 62 a4 bc d0 b6 b0 bc
       -0.048079383 -0.032580543 -0.020066332 -0.021571547
000090 12 e3 4f bc ec a7 22 bd 12 a3 0f bd ad ee 60 bd
       -0.012688415 -0.039710924 -0.035067625 -0.05491512
0000a0 d6 22 1b bd 1b 3b cf bc 13 94 52 bd 61 6e 8c bd
       -0.03787502 -0.025296738 -0.051410746 -0.068569906
0000b0 49 5e e4 3a a3 cc fb bc 9d 4e 18 3d d0 13 e7 bc
       0.0017423119 -0.030737227 0.037184346 -0.02820769
0000c0 21 63 1d bd fe 77 22 bd 13 99 10 bd ff 5a d4 bc
       -0.038424615 -0.039665215 -0.035302233 -0.025922297
0000d0 60 6c 9d bc e2 15 38 bc fc e1 18 bd 11 a5 14 3c
       -0.019216716 -0.011235686 -0.03732489 0.009072558
0000e0 c0 53 e4 bc a9 19 3b bd e8 bc cf bc 3d 21 b0 3a
       -0.027871966 -0.04567877 -0.025358632 0.001343764
0000f0 82 09 45 bb 94 d6 4b bd 91 4b 63 bd 4b 5a c5 bc
       -0.0030065482 -0.049765185 -0.055491988 -0.024090907
000100 ae 87 c8 bc 77 ad 04 bd 92 d7 40 bd f7 59 e2 bc
       -0.02447876 -0.03239199 -0.047080584 -0.02763079
000110 4d de bd bc ec 8e 9c bc da 6d 3f bd 7d 50 36 bd
       -0.02317729 -0.01911112 -0.046735622 -0.044510353
000120 8d ee 5e bb 24 b5 89 bc 9b 29 ba bc 67 ce f4 bc
       -0.00340167 -0.016810007 -0.022724917 -0.029883577
000130 40 22 f5 bc db ea a8 bd 58 d9 e9 bc d0 f3 83 bc
       -0.029923558 -0.0824792 -0.02854602 -0.01610747

1.layers.2.0.weight f4 [80, 240]
000000 18 4b af bb 8c 8f 42 bc 70 71 ef 3d 55 2e 06 bd
       -0.005349528 -0.011875045 0.11691558 -0.03275903
000010 d0 71 88 bd bb 2e fe bb 2b 84 ec bc 96 64 b1 bc
       -0.06662333 -0.0077570355 -0.028871616 -0.021654408
000020 6b 07 04 3e 32 8d f8 3d 8d 1c 4d bd 6e 1e 43 3e
       0.12893455 0.12136306 -0.050076056 0.19054577
000030 fd 05 90 bb 2f bd 0c bd 67 0f 91 3d 98 5b 50 bd
       -0.004395245 -0.034360107 0.07083016 -0.0508686
000040 93 42 9e 3d ce d9 59 bd 16 af 08 be c2 19 95 bd
       0.07727542 -0.05318623 -0.1334804 -0.072803035
000050 85 d1 4d be 44 95 b5 3d 76 ee c4 3c 6d 29 c8 3d
       -0.20099457 0.08866361 0.024039488 0.09773526
000060 fd 4f 01 3e e4 d6 67 bd 6b b7 8d bd 21 38 1d bd
       0.1262817 -0.05660142 -0.0691975 -0.038383607
000070 68 50 0b 3e d8 6c 14 bd 5c 8f 46 bd 3d a7 0a 3d
       0.13604891 -0.036236614 -0.048476562 0.033850897
000080 b3 24 bb 3d cb 29 df bc ab 97 92 bd 45 d5 c2 3c
       0.09137859 -0.027241608 -0.071578346 0.023783335
000090 4b 12 99 bd 00 af 07 3d 24 15 d6 3c ef ca ba 3d
       -0.07474192 0.033125877 0.026133128 0.09120738
0000a0 25 d4 93 3d 82 c7 ec bd 50 0e 10 3e e1 bd 01 be
       0.07218198 -0.115614906 0.1406796 -0.1267009
0000b0 93 76 0a bb 08 8c fe 3b 0a dc 13 3d ad f6 1d be
       -0.0021127805 0.007768158 0.036098517 -0.1542613
0000c0 8b 35 40 3e 38 bd e8 3d a0 23 68 bd eb 08 03 be
       0.18770425 0.113642156 -0.0566746 -0.1279637
0000d0 40 30 eb bc 8c b6 22 3e 0c d3 03 be bb 8c d6 3d
       -0.02870953 0.15889949 -0.12873477 0.10476061
0000e0 1e 7f 04 bd ec cd 89 3c ae 9e c1 bd 18 ea bb bd
       -0.03234779 0.016821824 -0.09454094 -0.09175509
0000f0 83 7f 0f bc d0 07 30 3e ff 0d 2a 3c b1 ac d4 bd
       -0.0087584285 0.1719048 0.0103793135 -0.10384501
000100 ed 52 6a 3d 53 bb b0 3d 0a d6 80 3c 8f 7c 1d 3d
       0.05720799 0.08629479 0.015727062 0.038448866
000110 96 23 a7 3d 09 26 d1 bc d2 63 04 bd a5 19 cc 3d
       0.08161084 -0.025530832 -0.03232176 0.09965829
000120 05 ab 06 3e f7 a8 43 bd d9 6a 71 3d 9a a0 ae 3d
       0.13151176 -0.04776856 0.05893979 0.08526726
000130 19 28 bb ba 15 c6 27 3d 3b 6d 8b bc b3 fb 17 3d
       -0.0014278918 0.04096039 -0.017019859 0.037105273
000140 85 16 21 bb 55 aa 4c bd 5b 42 bc 3c 32 89 c1 bd
       -0.0024580073 -0.04996713 0.02298086 -0.09449996
000150 65 8b eb bb 98 ba 11 3d 4f be ec 3d a7 06 c3 bd
       -0.007188248 0.03557834 0.11559736 -0.09522753
000160 ab be d1 3d 51 a9 d1 3d c4 a9 36 bd a8 c8 2b bc
       0.10241445 0.10237373 -0.044595495 -0.010484852
000170 88 27 6d 3d 9e fd c3 bd 1b 58 63 3b 36 6a ec 3b
       0.057899028 -0.09569858 0.0034689966 0.00721481
000180 fc 3d 20 be e7 9d 03 3e 7c af 96 3d 33 20 39 bd
       -0.15648645 0.12853204 0.0735769 -0.045196723
000190 96 3a f1 37 ab a6 58 bd 15 87 93 bc 73 24 51 be
       2.875672e-05 -0.052893322 -0.018008748 -0.2042406
0001a0 34 1f 01 3c b5 2b bd bc 47 6d 4e 3b d0 4a c1 bc
       0.007880975 -0.02309213 0.003149824 -0.023595244
0001b0 8e 63 a9 3d b7 4a a8 bd 1a 0a 90 3d 24 90 5b bd
       0.08270942 -0.08217376 0.07033177 -0.05360426
0001c0 db d6 c0 bd 27 68 89 bd 4f 88 b6 bb 86 19 82 bd
       -0.094159804 -0.067093186 -0.0055704485 -0.063525245
0001d0 37 85 61 3c 0c e3 35 3e 3a 14 ad 3d 57 6c 93 3d
       0.013764671 0.17762393 0.084511235 0.071983986
0001e0 2f 80 27 3d d8 1d a4 3d bf ab 01 3b 60 99 02 bd
       0.04089373 0.08013505 0.0019786207 -0.03188455
0001f0 6a 6f e2 3d f3 3a 29 be f2 75 f4 3c 50 54 83 3c
       0.11056407 -0.16526394 0.029841397 0.016031414
000200 9a 22 00 3c b7 b6 12 bd 2e b9 b5 bc 57 0c 08 3d
       0.00782075 -0.03581878 -0.022183027 0.033214893
000210 e8 ba 2f be 54 80 f1 bb 67 eb f7 3d 68 16 49 bd
       -0.17161143 -0.007370034 0.12105446 -0.049093634
000220 0b 9e 8b bd bd 9e bd bd 00 cd 29 3d e0 9f c8 bc
       -0.06817254 -0.092587925 0.04145527 -0.024490297
000230 b1 fb 12 be b9 c0 8e bd 27 d8 f5 bc 2b 28 90 3d
       -0.14353825 -0.06970353 -0.030010296 0.070389114
000240 f3 ed 6b bd ff 99 eb 3d 11 05 cc bc 45 36 ef bc
       -0.057599973 0.11503982 -0.02490476 -0.029200682
000250 ad 15 bc bc 50 fa c0 bd 1e 73 09 3e f4 7e 24 bd
       -0.022959555 -0.09422743 0.1342282 -0.040160134
000260 e2 a3 0d be ed 51 39 3e dd de 8e 3d 80 b6 a5 bb
       -0.13832048 0.18097658 0.069761015 -0.005057156
000270 22 86 a5 bb d7 07 1c 3e 16 56 28 be 5b 36 4e 3d
       -0.0050513903 0.15237366 -0.16439089 0.050344806
000280 67 08 7b bd cc dc 19 3d b4 d0 5d bc eb cd 0f 3e
       -0.06128731 0.037564084 -0.013538528 0.14043395
000290 a9 9c 98 3d e7 f7 6d 3d 8f 76 c8 3b 94 9d ae 3d
       0.074517556 0.058097746 0.006117649 0.085261494
0002a0 ca 10 ee 3d 03 91 93 be f6 c5 86 bb df 86 25 be
       0.11624296 -0.28821573 -0.0041129543 -0.1616473
0002b0 be 43 39 be d3 ee 07 be bc 36 91 3d e9 97 98 3d
       -0.18092248 -0.13274698 0.07090518 0.074508496
0002c0 75 45 a7 3d d3 b9 e9 bd 0f 53 01 bd 5a 62 1a 3d
       0.08167545 -0.11412396 -0.03157335 0.03769145
0002d0 b1 2c 4e 3d e0 7e 04 bc 6b 79 7d bd 67 9d c7 3d
       0.05033559 -0.00808689 -0.06188337 0.09746819
0002e0 f4 a8 6d bd f1 0f a0 bd 19 03 b3 bd f8 97 2c bd
       -0.058022454 -0.078155406 -0.08740825 -0.042137116
0002f0 fa 5b 9f bd e1 c6 81 bd ce b1 6d 3d c0 d2 94 bd
       -0.07781215 -0.06336761 0.058030896 -0.0726676
000300 20 6b bd 3c 56 fa a0 bd 9e d9 60 bc 07 f3 14 bc
       0.02312237 -0.07860248 -0.013723759 -0.009091145
000310 ce 16 74 bd 63 e9 f6 3c e4 7b 87 bd df 1c 9b 3d
       -0.05959206 0.030140584 -0.06615427 0.07573866
000320 74 46 17 3d 41 38 84 3d 96 00 17 3e 41 33 89 bd
       0.036932424 0.06456042 0.14746317 -0.06699229
000330 21 d6 22 bd 6c 87 11 3e 70 61 46 bd 34 4e e2 3d
       -0.03975499 0.14211816 -0.048432767 0.11050072
000340 d7 f7 35 3d 16 03 e0 bc ac 96 12 3d 03 ba 9d bd
       0.04442581 -0.027345221 0.035788223 -0.077014945
000350 a3 dc 9e bc b1 41 44 3d da 7f 83 bb 56 ce c0 3d
       -0.019392317 0.04791421 -0.004013044 0.094143555
000360 6d d3 1a 3d f9 49 e0 bd 40 c1 da bd 6e b2 b6 bc
       0.037799288 -0.10951609 -0.10681391 -0.022301879
000370 4e 09 8c bb 7c 43 0d 3d cd 35 93 bd cb 3f d5 3d
       -0.00427357 0.034488186 -0.07187996 0.10412558
000380 f1 ae ac 3a 44 5b ff 3c ca be 2d 3b d9 05 3f 3e
       0.0013174695 0.031171449 0.0026511424 0.18654574
000390 9a f2 34 3d aa 7c 5b 3b d3 ba 92 bd 6f 1b c2 3c
       0.044176675 0.0033491054 -0.0716454 0.023694722
0003a0 bf e9 37 3d c6 ef 0b bd f9 c7 c1 bd 5a 81 4e 3d
       0.044900652 -0.034164213 -0.0946197 0.050416328
0003b0 d6 1c 12 3d ac 6c ae 3c 83 db ae bd 8e 80 03 3e
       0.03567203 0.021292053 -0.08537962 0.12842008
0003c0 5b 74 dc 3c 7d 25 4f 3d 96 f3 20 bd e5 44 9a bd
       0.026910951 0.05057286 -0.0392948 -0.07532672
0003d0 49 b2 87 3c 98 59 0f 3e f1 20 b6 3d 37 eb a3 3d
       0.016564505 0.13999021 0.08893002 0.08003848
0003e0 1c 70 01 be 7b c4 e8 3d ae 43 1c 3e 9b 01 07 be
       -0.12640423 0.11365601 0.15260193 -0.13184206
0003f0 90 c3 06 be d3 3e f0 3d 3b 16 81 bd 2b 52 17 3e
       -0.13160539 0.11730733 -0.06303068 0.14777438

1.layers.3.0.bias f4 [80]
000000 b3 0a 54 bb 69 7b 40 bd 9d 4d 13 bd 0f dc f9 bb
       -0.003235501 -0.046992693 -0.03596269 -0.00762511
000010 70 f2 71 bd 6f 08 88 bd 29 c5 e5 bb fc 4f 15 bd
       -0.059069097 -0.066422336 -0.0070120287 -0.036453232
000020 e6 28 77 bc 65 dc d5 bc 75 69 2e bd 6f f4 bd bc
       -0.015085435 -0.026106069 -0.04258104 -0.023187844
000030 cc e8 7c bd 94 a5 7b bc fd 2c af bc b2 f6 08 bd
       -0.06174545 -0.015359301 -0.021383757 -0.033438392
000040 4c 88 5a bc 9d 02 ec bc 85 2c c4 bc e2 78 ba 39
       -0.01333816 -0.02880984 -0.02394701 0.0003556675
000050 3b 53 e8 bb b6 c1 b1 bc d5 8f a6 bc e5 33 f6 bc
       -0.00709 -0.021698814 -0.020332256 -0.030054042
000060 e0 2e 14 bd 3b 9b 5d bd 92 6f 31 bd 51 8c fe bc
       -0.036177516 -0.054103117 -0.043319292 -0.031072767
000070 70 05 3f bc 18 14 ac bc f0 d0 9c bc 76 74 f1 bc
       -0.011659011 -0.021005675 -0.019142598 -0.029474478
000080 d3 a4 14 bd f1 b8 3e bd c3 17 6e bd da f3 88 bc
       -0.03629 -0.046563093 -0.05812813 -0.01671784
000090 65 6e 27 bd d4 45 0f bc 00 01 e4 bc 5b 00 49 bc
       -0.040876765 -0.008744676 -0.027832508 -0.012268151
0000a0 e5 e1 32 bd 98 f8 a5 bc ab 7e 8f bc cd 79 b6 bc
       -0.04367246 -0.02026014 -0.017516455 -0.022274876
0000b0 aa cf f8 bc 99 b1 a0 bc 10 e6 be bc 41 7c 8a bc
       -0.03037246 -0.019615935 -0.023303062 -0.016904952
0000c0 f9 e2 24 bd c0 0b 3d bc d6 17 d4 bc 55 95 48 bd
       -0.04025552 -0.011538446 -0.025890272 -0.04897054
0000d0 62 ad e5 bc 71 7c 80 bb 86 ca f7 bc 35 d0 34 bd
       -0.028036777 -0.0039210846 -0.030247938 -0.044143874
0000e0 74 98 ad bc 33 85 81 bc 77 04 0d bd b6 69 58 bd
       -0.02119086 -0.015810585 -0.034428086 -0.05283519
0000f0 b0 1b 9c bc 70 53 c1 3b 2c b5 03 3b e6 37 6f bc
       -0.019056171 0.005899839 0.0020097 -0.01460073
000100 d9 a5 0a bd f5 9c 60 bd 52 e7 b0 bb 08 b6 4f bd
       -0.03384957 -0.054837186 -0.0053986693 -0.050710708
000110 98 56 f9 bc a9 a7 d5 bc 87 ee a8 bc 2d 6f e7 bc
       -0.030436799 -0.026080923 -0.020621551 -0.028251255
000120 6a 52 56 bc af 83 56 bd ad d9 03 bd d7 45 24 bd
       -0.0130811725 -0.052371677 -0.032190014 -0.040105667
000130 47 e6 17 bd b2 36 2c bd 72 e8 67 bd fa 5c 52 bd
       -0.037084844 -0.04204435 -0.05661816 -0.0513582

1.layers.3.0.weight f4 [80, 320]
000000 e3 3a e8 3d 88 07 af bd bf 13 7b 3d 80 f1 37 bc
       0.11339357 -0.08546358 0.06129813 -0.011227012
000010 67 c0 d4 3d 21 87 ee bc c6 3f ca bb 15 0e 04 3d
       0.1038826 -0.029117169 -0.006172153 0.032239992
000020 27 f9 f0 bc f9 bf 8a bc 51 ef b0 bd 67 b0 8a 3d
       -0.02941568 -0.016937243 -0.08639396 0.06771927
000030 9a 25 ab 3c 48 25 f3 bd c3 c8 94 bd 18 22 72 bc
       0.020891953 -0.11872345 -0.07264855 -0.014778636
000040 0b 1d 17 bd 32 40 90 3d af 19 51 bd 2b 5b a3 3d
       -0.036892932 0.07043494 -0.051049884 0.07976373
000050 7e e0 c9 bd 2f e9 cd bd f7 e9 a1 bd 5f b3 76 3d
       -0.098572716 -0.10054242 -0.079059534 0.060229655
000060 d0 35 97 bd 73 53 48 3b fe e5 1c 3d 79 8a d8 3d
       -0.07383311 0.0030567318 0.038305275 0.105732866
000070 56 4f 8d 3c 1d 1d 0e 3d 91 b0 12 be b6 5c bf bc
       0.017249744 0.034695733 -0.14325167 -0.023359638
000080 55 b3 56 3d f3 0c 14 3d 1d 86 9d bc 7c 19 19 be
       0.052417118 0.03614516 -0.01922899 -0.14951128
000090 d1 a2 e7 3c fc a5 77 bd fa e3 da 3c e0 0d cd 3b
       0.02827588 -0.06046103 0.026720036 0.0062577575
0000a0 b8 3a 62 3b 18 14 44 bd 8f f3 02 3e 9c 71 a6 3d
       0.0034519862 -0.047870725 0.12788223 0.08127138
0000b0 e6 9d 8a 3c 19 3f 6f bd 19 60 54 3d 0d 1e 6f 3d
       0.016920995 -0.058409784 0.05184946 0.058378268
0000c0 6b 72 98 bd 1f d2 21 3e 12 4f 54 bd 82 f3 d0 bc
       -0.074436985 0.15802811 -0.05183322 -0.025506739
0000d0 5f 1f 59 3d 6e 05 0a be 93 e4 82 bd d8 cb 18 3e
       0.053008433 -0.13478634 -0.06391253 0.1492151
0000e0 73 7d f3 3c 25 55 97 3c 5c ed 1f bd 2f 9f 1a 3d
       0.029722905 0.018473217 -0.039044723 0.037749466
0000f0 b9 f6 5e be 8f 5d 9c 3c 88 26 07 be c5 00 a1 bc
       -0.21773805 0.019087581 -0.13198292 -0.019653687
000100 b2 87 24 3e 5b 3f 6d 3d 02 f1 a1 3b da 10 4b be
       0.16067389 0.05792175 0.0049420604 -0.19830647
000110 8b b6 61 bc 34 8f 96 3c 9a a5 96 bb e5 e9 34 3c
       -0.013776432 0.018378831 -0.004597378 0.011042093
000120 fe 29 2b bd 42 ea bc ba ca 6a 82 bc 60 ef 12 bb
       -0.041788094 -0.0014413076 -0.015920062 -0.002242051
000130 0c 9b ee 3c 5d 86 09 be 7e e9 a1 bc 6e 9f 29 3c
       0.029126666 -0.13430162 -0.019764658 0.010352952
000140 dc ea 18 be 45 eb e0 bd fb 4e 1e 3d 56 77 2c be
       -0.14933342 -0.10982374 0.03864954 -0.16842398
000150 35 1d 91 bd 39 63 1d 3e 12 1a 12 3d f1 db 91 bd
       -0.07085649 0.15369882 0.035669394 -0.071220286
000160 f3 33 de bd 08 66 5d 3c 3f fe 08 bd 78 4d 98 bc
       -0.10849752 0.013513096 -0.033445593 -0.018591627
000170 c7 9c 8f bd 8b bb 05 3c f1 89 c1 bd f7 0b 20 bc
       -0.07012325 0.0081623895 -0.09450138 -0.009768478
000180 d6 48 35 3e d3 9a 94 bc 37 2f 19 3e 3d cd 00 be
       0.17703566 -0.018140232 0.14959417 -0.12578292
000190 72 af c8 bc 6a af 00 3d 10 58 b6 3d cb ca 71 bd
       -0.024497721 0.031417288 0.08903515 -0.05903129
0001a0 d7 7e 16 bd 7c 82 f8 3c de e6 c4 3d 12 71 d6 3d
       -0.036742058 0.030335657 0.09614347 0.10470785
0001b0 43 67 2f bd 39 02 0d bd 59 d4 7b 3c de e1 8b bd
       -0.042823087 -0.034425948 0.015370452 -0.0683019
0001c0 0a 12 97 bc 8b b6 cf 3d d7 11 44 bd f2 99 b4 3c
       -0.018441219 0.10142239 -0.047868576 0.022046063
0001d0 47 73 b1 bd e0 ef 5e 3d ca ed 06 bd 51 3b 03 3b
       -0.086645655 0.05442798 -0.032941617 0.002002437
0001e0 99 e0 53 3e dd a8 1a bd 78 ac 6d 3d c0 80 7c b9
       0.20691146 -0.037758697 0.058025807 -0.00024080556
0001f0 7a 92 87 3b f7 81 14 be 06 fc a9 3b ec 99 49 3d
       0.0041373344 -0.14502703 0.0051875142 0.049219057
000200 2f fc 1c bd 09 71 98 3d 34 24 ed bd 07 2c 54 be
       -0.03832644 0.07443435 -0.11579171 -0.2071992
000210 0e 06 c7 bd 6d 9c 19 be ed 51 d2 3d 2f e7 72 bd
       -0.09717952 -0.15001078 0.10269532 -0.059302505
000220 62 08 14 be d9 92 59 3e aa 60 5b bd 69 95 14 3e
       -0.14456323 0.21247424 -0.053558983 0.1451012
000230 b3 c6 a9 bd e9 d8 d4 bb ac bd 01 bd 77 ec 3e bd
       -0.08289852 -0.0064955843 -0.031675026 -0.04661223
000240 c1 33 01 3d a1 e7 73 3d 9f 0d 6f 3b 36 93 6b bd
       0.031543497 0.05954707 0.0036476625 -0.05751344
000250 e6 2a 39 bd 4f e0 ad 3d 3b 15 68 be ff 22 e5 bc
       -0.045206927 0.08490049 -0.22664349 -0.027970789
000260 61 de 3c 3c a0 37 ae 3d ad 66 85 bd ab 39 78 3d
       0.011527629 0.085067034 -0.065137245 0.06060187
000270 d1 28 60 3d fe d2 fe 3d 04 46 ef 3d e4 69 a2 3d
       0.054726426 0.12442587 0.11683276 0.07930353
000280 9f b5 5f be db aa 24 bd 0f f6 b6 bd 44 21 3d 3d
       -0.21846627 -0.040202003 -0.08933651 0.046174303
000290 e7 18 52 bd 63 c3 de bb 29 f5 b3 3d e7 96 18 be
       -0.05129328 -0.0067981943 0.08786995 -0.14901315
0002a0 f0 53 8a bd c2 e5 10 be b5 9c ed 3d 3d bf b1 3d
       -0.06754291 -0.14150146 0.11602155 0.08679054
0002b0 58 2a 57 3d b2 05 ff bd 5c 5c 23 be 7c 1b 55 be
       0.052530617 -0.12452258 -0.15953201 -0.20811266
0002c0 f7 b9 b6 bd 46 0d c5 bc 36 d8 b0 bd b4 b5 9d 3c
       -0.08922189 -0.02405418 -0.08634989 0.019251682
0002d0 8e a3 31 bd 4c b8 ca 3d bb 37 fd 3d 74 17 bb bd
       -0.04336887 0.09898433 0.12364145 -0.09135333
0002e0 38 e9 bf bc 38 8d 7f bd b2 c5 c3 bb da 1c 0f bc
       -0.023426637 -0.062390536 -0.005974495 -0.008734906
0002f0 f7 d2 b3 bc 7f 09 a7 bc 67 d8 02 be 5d 92 31 39
       -0.021951182 -0.02039027 -0.12777863 0.0001693456
000300 c3 da 21 3e 33 8d 9d 3d c5 c4 a1 3d e7 ab 6f bc
       0.15806107 0.07692947 0.07898859 -0.014628387
000310 1a 59 c6 bd 0a a4 25 bc be b3 9e 3b 61 1d 97 3d
       -0.096849635 -0.010109911 0.0048432043 0.073786505
000320 0f bf 9f 3d 28 87 e8 3b df 12 92 bb 9b e1 24 3d
       0.078001134 0.00709619 -0.004457816 0.040254217
000330 a8 b5 9b bd 23 6c 71 bc 8f fc f2 3c 58 66 25 3d
       -0.076030076 -0.014735254 0.029661445 0.040380806
000340 e9 bf 40 3d 07 52 72 3b 9f 3d f6 3b f9 bd 2e bd
       0.04705802 0.0036975162 0.00751467 -0.04266164
000350 09 4e 81 3d cd 6c 85 3c 52 ca b4 3b b4 2f 70 bd
       0.06313712 0.016287232 0.0055172825 -0.058639243
000360 e7 f2 e1 3d 83 c0 5f 3c 7d 4c 18 be e9 d7 b4 bc
       0.11032658 0.013656738 -0.14872928 -0.02207561
000370 f0 06 c7 bd d0 e5 7b 3d e6 d0 f9 39 df af 17 38
       -0.0971812 0.061498463 0.00047648622 3.6164998e-05
000380 95 39 80 bd 1b b4 b1 bd bc 60 ee bc e7 25 b3 3b
       -0.06260983 -0.086769305 -0.02909886 0.005467165
000390 2b c0 fc 3d 03 ab 94 3d 8f 32 16 bd 7a 10 17 3e
       0.12341341 0.072591804 -0.03666931 0.14752379
0003a0 10 3f 32 3d 58 44 a9 3c 18 98 e6 bc 8d dc 07 3d
       0.043517172 0.020662472 -0.028148696 0.033169318
0003b0 83 7d 0d 3d a4 de 1f 3e 5a 08 1d be 2e bd 94 3d
       0.034543525 0.15612274 -0.15335217 0.07262646
0003c0 64 64 96 be f0 ba 9c bd 2e 0d 20 3d 49 61 02 be
       -0.29373467 -0.07652843 0.03907507 -0.12732424
0003d0 9e 70 76 bd 11 e3 9d bd 11 df fd bb 24 60 f7 3d
       -0.060165994 -0.07709325 -0.007747539 0.12078884
0003e0 12 b4 e6 bd 4a a2 57 bd 78 78 47 3a 6a 75 a5 3c
       -0.112648144 -0.052645005 0.0007609199 0.020197589
0003f0 13 aa 23 3e 2f 23 6c 3e 68 7e 22 3c 74 c2 66 3d
       0.15982847 0.23060296 0.009917833 0.05633779

1.layers.4.0.bias f4 [80]
000000 64 8d 4b bd ae 6f da bc d9 78 a0 bc b9 64 70 bc
       -0.049695387 -0.026664581 -0.019588875 -0.014672452
000010 dd 92 0e bd 0a 6a 09 bd 55 a1 2b bc ca 39 fc bc
       -0.03480803 -0.033548392 -0.010475476 -0.030789275
000020 21 ea 10 bd 86 e4 18 bc 59 e8 d7 bc 18 dc 16 bc
       -0.035379533 -0.009331828 -0.02635591 -0.009207748
000030 68 26 93 bc 69 5f 3a ba 5b b9 ac 3b 95 52 38 bc
       -0.01796265 -0.0007109554 0.0052711195 -0.011250158
000040 8a 77 d0 bc 18 bc 6a bc de 92 54 bd f9 d5 0a bd
       -0.025447626 -0.014327072 -0.051897876 -0.033895466
000050 db a3 0a bd 87 17 b1 bc 48 da 09 bd d0 27 f4 bc
       -0.03384767 -0.021617664 -0.033655435 -0.02980414
000060 bc 58 00 3b 03 9e c0 bc f6 f5 ed bc 01 af 2c bd
       0.001958414 -0.023512846 -0.029047947 -0.042159084
000070 71 8c 0b bd 8d 27 59 bd f1 9b 6c bc 69 36 94 bc
       -0.034069482 -0.053016234 -0.014441476 -0.018092351
000080 66 0c 02 bd 16 d0 ff bb 26 df 7b bc 38 71 28 3b
       -0.031750105 -0.007806788 -0.015373027 0.002570225
000090 4c 5f 28 bd 1a b4 2f bd 57 a1 c9 bc e9 4d 20 bd
       -0.041106507 -0.042896368 -0.024613066 -0.0391368
0000a0 55 6b 04 bd ee 8c 10 bd 08 0f 36 bc 60 08 8d bc
       -0.032328922 -0.03529065 -0.011111982 -0.017215908
0000b0 46 d0 25 bd 3a b9 eb 3b c3 b5 c8 bc d1 b1 c4 bc
       -0.04048183 0.0071937116 -0.024500733 -0.02401057
0000c0 5c 67 1b bd 4d 99 9b bc 2c 74 c1 bc 24 63 6a bc
       -0.037940368 -0.018993998 -0.023614965 -0.0143058635
0000d0 f8 63 26 bd 0b 9a e4 bc b8 15 2a bd b6 06 2e bd
       -0.04062268 -0.027905485 -0.04152462 -0.04248687
0000e0 c5 a0 83 bc e0 b0 4e bc 00 2d ec bc c3 36 7d bd
       -0.016067872 -0.0126154125 -0.028830051 -0.061819803
0000f0 0f 8e e9 bc b9 40 ca bc 06 47 e1 bc 00 93 f6 bc
       -0.028510122 -0.024689065 -0.027499687 -0.030099392
000100 f9 52 e9 bb d0 2c 51 bd 10 2a fd bc 17 d9 19 bd
       -0.007120487 -0.051068127 -0.030903846 -0.03756055
000110 f6 3c 02 bc bb ea c9 bc a5 5c 01 bd 91 19 68 bd
       -0.0079491045 -0.024648061 -0.031582493 -0.056665007
000120 5c 12 f4 bc 37 c2 09 bd db ed 06 bd e0 47 d4 bc
       -0.02979391 -0.033632483 -0.03294168 -0.025913179
000130 f5 b4 a2 bc 21 f0 06 bd cb 16 ce bc dc 11 92 bc
       -0.019861678 -0.03294385 -0.025157353 -0.017830782
